{"python": "def matrix_6259(A, x):\n    return (jnp.maximum(0, A @ x)) / (jnp.linalg.norm(jnp.maximum(0, A @ x)) + 1e-6)", "ir": "module @jit_matrix_6259 attributes {mhlo.num_partitions = 1 : i32, mhlo.num_replicas = 1 : i32} {\n  func.func public @main(%arg0: tensor<4x8xf32>, %arg1: tensor<8xf32>) -> (tensor<4xf32> {jax.result_info = \"result\"}) {\n    %0 = stablehlo.dot_general %arg0, %arg1, contracting_dims = [1] x [0], precision = [DEFAULT, DEFAULT] : (tensor<4x8xf32>, tensor<8xf32>) -> tensor<4xf32>\n    %cst = stablehlo.constant dense<0.000000e+00> : tensor<f32>\n    %1 = stablehlo.broadcast_in_dim %cst, dims = [] : (tensor<f32>) -> tensor<4xf32>\n    %2 = stablehlo.maximum %1, %0 : tensor<4xf32>\n    %3 = stablehlo.dot_general %arg0, %arg1, contracting_dims = [1] x [0], precision = [DEFAULT, DEFAULT] : (tensor<4x8xf32>, tensor<8xf32>) -> tensor<4xf32>\n    %cst_0 = stablehlo.constant dense<0.000000e+00> : tensor<f32>\n    %4 = stablehlo.broadcast_in_dim %cst_0, dims = [] : (tensor<f32>) -> tensor<4xf32>\n    %5 = stablehlo.maximum %4, %3 : tensor<4xf32>\n    %6 = call @norm(%5) : (tensor<4xf32>) -> tensor<f32>\n    %cst_1 = stablehlo.constant dense<9.99999997E-7> : tensor<f32>\n    %7 = stablehlo.add %6, %cst_1 : tensor<f32>\n    %8 = stablehlo.broadcast_in_dim %7, dims = [] : (tensor<f32>) -> tensor<4xf32>\n    %9 = stablehlo.divide %2, %8 : tensor<4xf32>\n    return %9 : tensor<4xf32>\n  }\n  func.func private @norm(%arg0: tensor<4xf32>) -> tensor<f32> {\n    %0 = stablehlo.multiply %arg0, %arg0 : tensor<4xf32>\n    %cst = stablehlo.constant dense<0.000000e+00> : tensor<f32>\n    %1 = stablehlo.reduce(%0 init: %cst) applies stablehlo.add across dimensions = [0] : (tensor<4xf32>, tensor<f32>) -> tensor<f32>\n    %2 = stablehlo.sqrt %1 : tensor<f32>\n    return %2 : tensor<f32>\n  }\n}\n", "ir_format": "stablehlo", "function_type": "matrix", "arg_shapes": [{"shape": [4, 8], "dtype": "float32"}, {"shape": [8], "dtype": "float32"}]}