{"id": 0, "kernel_name": "scalar_arr_qahf", "python": "@jax.jit\ndef scalar_arr_qahf(alpha, x, y):\n    return alpha * x + y", "type": "generate_scalar_array_op", "hlo": "module @jit_scalar_arr_qahf attributes {mhlo.num_partitions = 1 : i32, mhlo.num_replicas = 1 : i32} {\n  func.func public @main(%arg0: tensor<f32>, %arg1: tensor<1024xf32>, %arg2: tensor<1024xf32>) -> (tensor<1024xf32> {jax.result_info = \"result\"}) {\n    %0 = call @scalar_arr_qahf(%arg0, %arg1, %arg2) : (tensor<f32>, tensor<1024xf32>, tensor<1024xf32>) -> tensor<1024xf32>\n    return %0 : tensor<1024xf32>\n  }\n  func.func private @scalar_arr_qahf(%arg0: tensor<f32>, %arg1: tensor<1024xf32>, %arg2: tensor<1024xf32>) -> tensor<1024xf32> {\n    %0 = stablehlo.convert %arg0 : tensor<f32>\n    %1 = stablehlo.broadcast_in_dim %0, dims = [] : (tensor<f32>) -> tensor<1024xf32>\n    %2 = stablehlo.multiply %1, %arg1 : tensor<1024xf32>\n    %3 = stablehlo.add %2, %arg2 : tensor<1024xf32>\n    return %3 : tensor<1024xf32>\n  }\n}\n", "llvm": "HloModule jit_scalar_arr_qahf, is_scheduled=true, entry_computation_layout={(f32[], f32[1024]{0}, f32[1024]{0})->f32[1024]{0}}, allow_spmd_sharding_propagation_to_parameters={true,true,true}, allow_spmd_sharding_propagation_to_output={true}\n\nFileNames\n1 \"/workspace/jit/code/synthesis/jax_pipeline.py\"\n2 \"/workspace/jit/code/extraction/jax_ir_extractor.py\"\n3 \"/tmp/tmpq0a_c1cl.py\"\n\nFunctionNames\n1 \"<module>\"\n2 \"generate_batch_to_jsonl\"\n3 \"extract_ir_from_source\"\n4 \"extract_ir\"\n5 \"scalar_arr_qahf\"\n\nFileLocations\n1 {file_name_id=1 function_name_id=1 line=223 end_line=223 column=8 end_column=67}\n2 {file_name_id=1 function_name_id=2 line=184 end_line=184 column=21 end_column=74}\n3 {file_name_id=1 function_name_id=3 line=83 end_line=83 column=13 end_column=44}\n4 {file_name_id=2 function_name_id=4 line=82 end_line=82 column=14 end_column=35}\n5 {file_name_id=3 function_name_id=5 line=6 end_line=6 column=11 end_column=20}\n\nStackFrames\n1 {file_location_id=1 parent_frame_id=1}\n2 {file_location_id=2 parent_frame_id=2}\n3 {file_location_id=3 parent_frame_id=3}\n4 {file_location_id=4 parent_frame_id=4}\n5 {file_location_id=5 parent_frame_id=5}\n\n\n%fused_computation (param_0.1: f32[1024], param_1.2: f32[1024], param_2.1: f32[]) -> f32[1024] {\n  %param_2.1 = f32[] parameter(2)\n  %mul.5 = f32[1024]{0} broadcast(%param_2.1), dimensions={}, metadata={op_name=\"jit(scalar_arr_qahf)/jit(scalar_arr_qahf)/mul\" stack_frame_id=5}\n  %param_1.2 = f32[1024]{0} parameter(1)\n  %mul.4 = f32[1024]{0} multiply(%mul.5, %param_1.2), metadata={op_name=\"jit(scalar_arr_qahf)/jit(scalar_arr_qahf)/mul\" stack_frame_id=5}\n  %param_0.1 = f32[1024]{0} parameter(0)\n  ROOT %add.2 = f32[1024]{0} add(%mul.4, %param_0.1), metadata={op_name=\"jit(scalar_arr_qahf)/jit(scalar_arr_qahf)/add\" stack_frame_id=5}\n}\n\nENTRY %main.2 (alpha.1: f32[], x.1: f32[1024], y.1: f32[1024]) -> f32[1024] {\n  %alpha.1 = f32[] parameter(0), metadata={op_name=\"alpha\"}\n  %x.1 = f32[1024]{0} parameter(1), metadata={op_name=\"x\"}\n  %y.1 = f32[1024]{0} parameter(2), metadata={op_name=\"y\"}\n  ROOT %multiply_add_fusion = f32[1024]{0} fusion(%y.1, %x.1, %alpha.1), kind=kLoop, calls=%fused_computation, metadata={op_name=\"jit(scalar_arr_qahf)/jit(scalar_arr_qahf)/add\" stack_frame_id=5}\n}\n\n", "ptx": null}
{"id": 1, "kernel_name": "elementwise_bsdm", "python": "@jax.jit\ndef elementwise_bsdm(a, b):\n    return a * b", "type": "generate_simple_elementwise", "hlo": "module @jit_elementwise_bsdm attributes {mhlo.num_partitions = 1 : i32, mhlo.num_replicas = 1 : i32} {\n  func.func public @main(%arg0: tensor<1024xf32>, %arg1: tensor<1024xf32>) -> (tensor<1024xf32> {jax.result_info = \"result\"}) {\n    %0 = call @elementwise_bsdm(%arg0, %arg1) : (tensor<1024xf32>, tensor<1024xf32>) -> tensor<1024xf32>\n    return %0 : tensor<1024xf32>\n  }\n  func.func private @elementwise_bsdm(%arg0: tensor<1024xf32>, %arg1: tensor<1024xf32>) -> tensor<1024xf32> {\n    %0 = stablehlo.multiply %arg0, %arg1 : tensor<1024xf32>\n    return %0 : tensor<1024xf32>\n  }\n}\n", "llvm": "HloModule jit_elementwise_bsdm, is_scheduled=true, entry_computation_layout={(f32[1024]{0}, f32[1024]{0})->f32[1024]{0}}, allow_spmd_sharding_propagation_to_parameters={true,true}, allow_spmd_sharding_propagation_to_output={true}\n\nFileNames\n1 \"/workspace/jit/code/synthesis/jax_pipeline.py\"\n2 \"/workspace/jit/code/extraction/jax_ir_extractor.py\"\n3 \"/tmp/tmpuvqxqpzr.py\"\n\nFunctionNames\n1 \"<module>\"\n2 \"generate_batch_to_jsonl\"\n3 \"extract_ir_from_source\"\n4 \"extract_ir\"\n5 \"elementwise_bsdm\"\n\nFileLocations\n1 {file_name_id=1 function_name_id=1 line=223 end_line=223 column=8 end_column=67}\n2 {file_name_id=1 function_name_id=2 line=184 end_line=184 column=21 end_column=74}\n3 {file_name_id=1 function_name_id=3 line=83 end_line=83 column=13 end_column=44}\n4 {file_name_id=2 function_name_id=4 line=82 end_line=82 column=14 end_column=35}\n5 {file_name_id=3 function_name_id=5 line=6 end_line=6 column=11 end_column=16}\n\nStackFrames\n1 {file_location_id=1 parent_frame_id=1}\n2 {file_location_id=2 parent_frame_id=2}\n3 {file_location_id=3 parent_frame_id=3}\n4 {file_location_id=4 parent_frame_id=4}\n5 {file_location_id=5 parent_frame_id=5}\n\n\n%wrapped_multiply_computation (param_0: f32[1024], param_1: f32[1024]) -> f32[1024] {\n  %param_0 = f32[1024]{0} parameter(0)\n  %param_1 = f32[1024]{0} parameter(1)\n  ROOT %mul.2 = f32[1024]{0} multiply(%param_0, %param_1), metadata={op_name=\"jit(elementwise_bsdm)/jit(elementwise_bsdm)/mul\" stack_frame_id=5}\n}\n\nENTRY %main.2 (a.1: f32[1024], b.1: f32[1024]) -> f32[1024] {\n  %a.1 = f32[1024]{0} parameter(0), metadata={op_name=\"a\"}\n  %b.1 = f32[1024]{0} parameter(1), metadata={op_name=\"b\"}\n  ROOT %wrapped_multiply = f32[1024]{0} fusion(%a.1, %b.1), kind=kLoop, calls=%wrapped_multiply_computation, metadata={op_name=\"jit(elementwise_bsdm)/jit(elementwise_bsdm)/mul\" stack_frame_id=5}\n}\n\n", "ptx": null}
{"id": 2, "kernel_name": "vec_kowe", "python": "@jax.jit\ndef vec_kowe(a, b):\n    # vector dot product along last axis\n    return jnp.sum(a * b, axis=-1)", "type": "generate_vector_kernel", "hlo": "module @jit_vec_kowe attributes {mhlo.num_partitions = 1 : i32, mhlo.num_replicas = 1 : i32} {\n  func.func public @main(%arg0: tensor<1024x3xf32>, %arg1: tensor<1024x3xf32>) -> (tensor<1024xf32> {jax.result_info = \"result\"}) {\n    %0 = call @vec_kowe(%arg0, %arg1) : (tensor<1024x3xf32>, tensor<1024x3xf32>) -> tensor<1024xf32>\n    return %0 : tensor<1024xf32>\n  }\n  func.func private @vec_kowe(%arg0: tensor<1024x3xf32>, %arg1: tensor<1024x3xf32>) -> tensor<1024xf32> {\n    %0 = stablehlo.multiply %arg0, %arg1 : tensor<1024x3xf32>\n    %cst = stablehlo.constant dense<0.000000e+00> : tensor<f32>\n    %1 = stablehlo.reduce(%0 init: %cst) applies stablehlo.add across dimensions = [1] : (tensor<1024x3xf32>, tensor<f32>) -> tensor<1024xf32>\n    return %1 : tensor<1024xf32>\n  }\n}\n", "llvm": "HloModule jit_vec_kowe, is_scheduled=true, entry_computation_layout={(f32[1024,3]{1,0}, f32[1024,3]{1,0})->f32[1024]{0}}, allow_spmd_sharding_propagation_to_parameters={true,true}, allow_spmd_sharding_propagation_to_output={true}\n\nFileNames\n1 \"/workspace/jit/code/synthesis/jax_pipeline.py\"\n2 \"/workspace/jit/code/extraction/jax_ir_extractor.py\"\n3 \"/tmp/tmpcxqv7iqn.py\"\n\nFunctionNames\n1 \"<module>\"\n2 \"generate_batch_to_jsonl\"\n3 \"extract_ir_from_source\"\n4 \"extract_ir\"\n5 \"vec_kowe\"\n\nFileLocations\n1 {file_name_id=1 function_name_id=1 line=223 end_line=223 column=8 end_column=67}\n2 {file_name_id=1 function_name_id=2 line=184 end_line=184 column=21 end_column=74}\n3 {file_name_id=1 function_name_id=3 line=83 end_line=83 column=13 end_column=44}\n4 {file_name_id=2 function_name_id=4 line=82 end_line=82 column=14 end_column=35}\n5 {file_name_id=3 function_name_id=5 line=7 end_line=7 column=11 end_column=34}\n6 {file_name_id=3 function_name_id=5 line=7 end_line=7 column=19 end_column=24}\n\nStackFrames\n1 {file_location_id=1 parent_frame_id=1}\n2 {file_location_id=2 parent_frame_id=2}\n3 {file_location_id=3 parent_frame_id=3}\n4 {file_location_id=4 parent_frame_id=4}\n5 {file_location_id=5 parent_frame_id=5}\n6 {file_location_id=6 parent_frame_id=5}\n\n\n%region_0.1 (reduce_sum.3: f32[], reduce_sum.4: f32[]) -> f32[] {\n  %reduce_sum.3 = f32[] parameter(0), metadata={op_name=\"reduce_sum\"}\n  %reduce_sum.4 = f32[] parameter(1), metadata={op_name=\"reduce_sum\"}\n  ROOT %reduce_sum.5 = f32[] add(%reduce_sum.3, %reduce_sum.4), metadata={op_name=\"reduce_sum\" stack_frame_id=5}\n}\n\n%fused_computation (param_0.2: f32[1024,3], param_1.2: f32[1024,3]) -> f32[1024] {\n  %param_0.2 = f32[1024,3]{1,0} parameter(0)\n  %param_1.2 = f32[1024,3]{1,0} parameter(1)\n  %mul.2 = f32[1024,3]{1,0} multiply(%param_0.2, %param_1.2), metadata={op_name=\"jit(vec_kowe)/jit(vec_kowe)/mul\" stack_frame_id=6}\n  %constant.2 = f32[] constant(0), metadata={op_name=\"jit(vec_kowe)/jit(vec_kowe)\"}\n  ROOT %reduce_sum.1 = f32[1024]{0} reduce(%mul.2, %constant.2), dimensions={1}, to_apply=%region_0.1, metadata={op_name=\"jit(vec_kowe)/jit(vec_kowe)/reduce_sum\" stack_frame_id=5}\n}\n\nENTRY %main.3 (a.1: f32[1024,3], b.1: f32[1024,3]) -> f32[1024] {\n  %a.1 = f32[1024,3]{1,0} parameter(0), metadata={op_name=\"a\"}\n  %b.1 = f32[1024,3]{1,0} parameter(1), metadata={op_name=\"b\"}\n  ROOT %multiply_reduce_fusion = f32[1024]{0} fusion(%a.1, %b.1), kind=kLoop, calls=%fused_computation, metadata={op_name=\"jit(vec_kowe)/jit(vec_kowe)/reduce_sum\" stack_frame_id=5}\n}\n\n", "ptx": null}
{"id": 3, "kernel_name": "loop_hmci", "python": "@jax.jit\ndef loop_hmci(a, n):\n    def body_fun(i, val):\n        return val + a\n    # Initial value matches a's shape/type but zeroed\n    init_val = jnp.zeros_like(a)\n    return jax.lax.fori_loop(0, n, body_fun, init_val)", "type": "generate_loop_kernel", "hlo": "module @jit_loop_hmci attributes {mhlo.num_partitions = 1 : i32, mhlo.num_replicas = 1 : i32} {\n  func.func public @main(%arg0: tensor<1024xf32>, %arg1: tensor<i32>) -> (tensor<1024xf32> {jax.result_info = \"result\"}) {\n    %0 = call @loop_hmci(%arg0, %arg1) : (tensor<1024xf32>, tensor<i32>) -> tensor<1024xf32>\n    return %0 : tensor<1024xf32>\n  }\n  func.func private @loop_hmci(%arg0: tensor<1024xf32>, %arg1: tensor<i32>) -> tensor<1024xf32> {\n    %cst = stablehlo.constant dense<0.000000e+00> : tensor<f32>\n    %0 = stablehlo.broadcast_in_dim %cst, dims = [] : (tensor<f32>) -> tensor<1024xf32>\n    %c = stablehlo.constant dense<0> : tensor<i32>\n    %1:4 = stablehlo.while(%iterArg = %arg0, %iterArg_0 = %c, %iterArg_1 = %arg1, %iterArg_2 = %0) : tensor<1024xf32>, tensor<i32>, tensor<i32>, tensor<1024xf32>\n    cond {\n      %2 = stablehlo.compare  LT, %iterArg_0, %iterArg_1,  SIGNED : (tensor<i32>, tensor<i32>) -> tensor<i1>\n      stablehlo.return %2 : tensor<i1>\n    } do {\n      %c_3 = stablehlo.constant dense<1> : tensor<i32>\n      %2 = stablehlo.add %iterArg_0, %c_3 : tensor<i32>\n      %3 = stablehlo.add %iterArg_2, %iterArg : tensor<1024xf32>\n      stablehlo.return %iterArg, %2, %iterArg_1, %3 : tensor<1024xf32>, tensor<i32>, tensor<i32>, tensor<1024xf32>\n    }\n    return %1#3 : tensor<1024xf32>\n  }\n}\n", "llvm": "HloModule jit_loop_hmci, is_scheduled=true, entry_computation_layout={(f32[1024]{0}, s32[])->f32[1024]{0}}, allow_spmd_sharding_propagation_to_parameters={true,true}, allow_spmd_sharding_propagation_to_output={true}\n\nFileNames\n1 \"/workspace/jit/code/synthesis/jax_pipeline.py\"\n2 \"/workspace/jit/code/extraction/jax_ir_extractor.py\"\n3 \"/tmp/tmp1jlydf2w.py\"\n\nFunctionNames\n1 \"<module>\"\n2 \"generate_batch_to_jsonl\"\n3 \"extract_ir_from_source\"\n4 \"extract_ir\"\n5 \"loop_hmci\"\n\nFileLocations\n1 {file_name_id=1 function_name_id=1 line=223 end_line=223 column=8 end_column=67}\n2 {file_name_id=1 function_name_id=2 line=184 end_line=184 column=21 end_column=74}\n3 {file_name_id=1 function_name_id=3 line=83 end_line=83 column=13 end_column=44}\n4 {file_name_id=2 function_name_id=4 line=82 end_line=82 column=14 end_column=35}\n5 {file_name_id=3 function_name_id=5 line=9 end_line=9 column=15 end_column=32}\n6 {file_name_id=3 function_name_id=5 line=10 end_line=10 column=11 end_column=54}\n\nStackFrames\n1 {file_location_id=1 parent_frame_id=1}\n2 {file_location_id=2 parent_frame_id=2}\n3 {file_location_id=3 parent_frame_id=3}\n4 {file_location_id=4 parent_frame_id=4}\n5 {file_location_id=5 parent_frame_id=5}\n6 {file_location_id=6 parent_frame_id=5}\n\n\n%wrapped_add_computation (param_0.1: s32[], param_1: s32[]) -> s32[] {\n  %param_0.1 = s32[] parameter(0)\n  %param_1 = s32[] parameter(1)\n  ROOT %add.0 = s32[] add(%param_0.1, %param_1), metadata={op_name=\"jit(loop_hmci)/jit(loop_hmci)/while/body/add\" stack_frame_id=6}\n}\n\n%wrapped_add_computation.1 (param_0.2: f32[1024], param_1.1: f32[1024]) -> f32[1024] {\n  %param_0.2 = f32[1024]{0} parameter(0)\n  %param_1.1 = f32[1024]{0} parameter(1)\n  ROOT %add.1 = f32[1024]{0} add(%param_0.2, %param_1.1), metadata={op_name=\"jit(loop_hmci)/jit(loop_hmci)/while/body/add\" stack_frame_id=6}\n}\n\n%region_0.1 (arg_tuple.1: (s32[], f32[1024], s32[], f32[1024])) -> (s32[], f32[1024], s32[], f32[1024]) {\n  %arg_tuple.1 = (s32[], f32[1024]{0}, s32[], f32[1024]{0}) parameter(0), metadata={op_name=\"jit(loop_hmci)/jit(loop_hmci)\"}\n  %constant.3 = s32[] constant(1), metadata={op_name=\"jit(loop_hmci)/jit(loop_hmci)\"}\n  %get-tuple-element.19 = f32[1024]{0} get-tuple-element(%arg_tuple.1), index=3, metadata={op_name=\"jit(loop_hmci)/jit(loop_hmci)\"}\n  %get-tuple-element.18 = s32[] get-tuple-element(%arg_tuple.1), index=2, metadata={op_name=\"jit(loop_hmci)/jit(loop_hmci)\"}\n  %get-tuple-element.9 = f32[1024]{0} get-tuple-element(%arg_tuple.1), index=1\n  %get-tuple-element.8 = s32[] get-tuple-element(%arg_tuple.1), index=0\n  %wrapped_add.1 = f32[1024]{0} fusion(%get-tuple-element.9, %get-tuple-element.19), kind=kLoop, calls=%wrapped_add_computation.1, metadata={op_name=\"jit(loop_hmci)/jit(loop_hmci)/while/body/add\" stack_frame_id=6}\n  %wrapped_add = s32[] fusion(%get-tuple-element.8, %constant.3), kind=kLoop, calls=%wrapped_add_computation, metadata={op_name=\"jit(loop_hmci)/jit(loop_hmci)/while/body/add\" stack_frame_id=6}\n  ROOT %tuple.3 = (s32[], f32[1024]{0}, s32[], f32[1024]{0}) tuple(%wrapped_add, %wrapped_add.1, %get-tuple-element.18, %get-tuple-element.19)\n}\n\n%wrapped_compare_computation (param_0.3: s32[], param_1.2: s32[]) -> pred[] {\n  %param_0.3 = s32[] parameter(0)\n  %param_1.2 = s32[] parameter(1)\n  ROOT %lt.0 = pred[] compare(%param_0.3, %param_1.2), direction=LT, metadata={op_name=\"jit(loop_hmci)/jit(loop_hmci)/while/cond/lt\" stack_frame_id=6}\n}\n\n%region_1.2 (arg_tuple.3: (s32[], f32[1024], s32[], f32[1024])) -> pred[] {\n  %arg_tuple.3 = (s32[], f32[1024]{0}, s32[], f32[1024]{0}) parameter(0), metadata={op_name=\"jit(loop_hmci)/jit(loop_hmci)\"}\n  %get-tuple-element.14 = s32[] get-tuple-element(%arg_tuple.3), index=2, metadata={op_name=\"jit(loop_hmci)/jit(loop_hmci)\"}\n  %get-tuple-element.12 = s32[] get-tuple-element(%arg_tuple.3), index=0, metadata={op_name=\"jit(loop_hmci)/jit(loop_hmci)\"}\n  ROOT %wrapped_compare = pred[] fusion(%get-tuple-element.12, %get-tuple-element.14), kind=kLoop, calls=%wrapped_compare_computation, metadata={op_name=\"jit(loop_hmci)/jit(loop_hmci)/while/cond/lt\" stack_frame_id=6}\n}\n\n%wrapped_broadcast_computation (param_0: f32[]) -> f32[1024] {\n  %param_0 = f32[] parameter(0)\n  ROOT %broadcast_in_dim.2 = f32[1024]{0} broadcast(%param_0), dimensions={}, metadata={op_name=\"jit(loop_hmci)/jit(loop_hmci)/broadcast_in_dim\" stack_frame_id=5}\n}\n\nENTRY %main.4 (a.1: f32[1024], n.1: s32[]) -> f32[1024] {\n  %a.1 = f32[1024]{0} parameter(0), metadata={op_name=\"a\"}\n  %n.1 = s32[] parameter(1), metadata={op_name=\"n\"}\n  %constant.0 = s32[] constant(0), metadata={op_name=\"jit(loop_hmci)/jit(loop_hmci)\"}\n  %constant.1 = f32[] constant(0), metadata={op_name=\"jit(loop_hmci)/jit(loop_hmci)\"}\n  %copy.6 = s32[] copy(%constant.0)\n  %wrapped_broadcast = f32[1024]{0} fusion(%constant.1), kind=kLoop, calls=%wrapped_broadcast_computation, metadata={op_name=\"jit(loop_hmci)/jit(loop_hmci)/broadcast_in_dim\" stack_frame_id=5}\n  %tuple = (s32[], f32[1024]{0}, s32[], f32[1024]{0}) tuple(%copy.6, %wrapped_broadcast, %n.1, %a.1)\n  %while.1 = (s32[], f32[1024]{0}, s32[], f32[1024]{0}) while(%tuple), condition=%region_1.2, body=%region_0.1, metadata={op_name=\"jit(loop_hmci)/jit(loop_hmci)/while\" stack_frame_id=6}\n  ROOT %while.2 = f32[1024]{0} get-tuple-element(%while.1), index=1, metadata={op_name=\"jit(loop_hmci)/jit(loop_hmci)/while\" stack_frame_id=6}\n}\n\n", "ptx": null}
{"id": 4, "kernel_name": "scalar_arr_xkpw", "python": "@jax.jit\ndef scalar_arr_xkpw(alpha, x, y):\n    return alpha + x * y", "type": "generate_scalar_array_op", "hlo": "module @jit_scalar_arr_xkpw attributes {mhlo.num_partitions = 1 : i32, mhlo.num_replicas = 1 : i32} {\n  func.func public @main(%arg0: tensor<f32>, %arg1: tensor<1024xf32>, %arg2: tensor<1024xf32>) -> (tensor<1024xf32> {jax.result_info = \"result\"}) {\n    %0 = call @scalar_arr_xkpw(%arg0, %arg1, %arg2) : (tensor<f32>, tensor<1024xf32>, tensor<1024xf32>) -> tensor<1024xf32>\n    return %0 : tensor<1024xf32>\n  }\n  func.func private @scalar_arr_xkpw(%arg0: tensor<f32>, %arg1: tensor<1024xf32>, %arg2: tensor<1024xf32>) -> tensor<1024xf32> {\n    %0 = stablehlo.multiply %arg1, %arg2 : tensor<1024xf32>\n    %1 = stablehlo.convert %arg0 : tensor<f32>\n    %2 = stablehlo.broadcast_in_dim %1, dims = [] : (tensor<f32>) -> tensor<1024xf32>\n    %3 = stablehlo.add %2, %0 : tensor<1024xf32>\n    return %3 : tensor<1024xf32>\n  }\n}\n", "llvm": "HloModule jit_scalar_arr_xkpw, is_scheduled=true, entry_computation_layout={(f32[], f32[1024]{0}, f32[1024]{0})->f32[1024]{0}}, allow_spmd_sharding_propagation_to_parameters={true,true,true}, allow_spmd_sharding_propagation_to_output={true}\n\nFileNames\n1 \"/workspace/jit/code/synthesis/jax_pipeline.py\"\n2 \"/workspace/jit/code/extraction/jax_ir_extractor.py\"\n3 \"/tmp/tmpim7bnoq2.py\"\n\nFunctionNames\n1 \"<module>\"\n2 \"generate_batch_to_jsonl\"\n3 \"extract_ir_from_source\"\n4 \"extract_ir\"\n5 \"scalar_arr_xkpw\"\n\nFileLocations\n1 {file_name_id=1 function_name_id=1 line=223 end_line=223 column=8 end_column=67}\n2 {file_name_id=1 function_name_id=2 line=184 end_line=184 column=21 end_column=74}\n3 {file_name_id=1 function_name_id=3 line=83 end_line=83 column=13 end_column=44}\n4 {file_name_id=2 function_name_id=4 line=82 end_line=82 column=14 end_column=35}\n5 {file_name_id=3 function_name_id=5 line=6 end_line=6 column=19 end_column=24}\n6 {file_name_id=3 function_name_id=5 line=6 end_line=6 column=11 end_column=24}\n\nStackFrames\n1 {file_location_id=1 parent_frame_id=1}\n2 {file_location_id=2 parent_frame_id=2}\n3 {file_location_id=3 parent_frame_id=3}\n4 {file_location_id=4 parent_frame_id=4}\n5 {file_location_id=5 parent_frame_id=5}\n6 {file_location_id=6 parent_frame_id=5}\n\n\n%fused_computation (param_0.1: f32[1024], param_1.2: f32[1024], param_2.1: f32[]) -> f32[1024] {\n  %param_2.1 = f32[] parameter(2)\n  %add.5 = f32[1024]{0} broadcast(%param_2.1), dimensions={}, metadata={op_name=\"jit(scalar_arr_xkpw)/jit(scalar_arr_xkpw)/add\" stack_frame_id=6}\n  %param_0.1 = f32[1024]{0} parameter(0)\n  %param_1.2 = f32[1024]{0} parameter(1)\n  %mul.2 = f32[1024]{0} multiply(%param_0.1, %param_1.2), metadata={op_name=\"jit(scalar_arr_xkpw)/jit(scalar_arr_xkpw)/mul\" stack_frame_id=5}\n  ROOT %add.4 = f32[1024]{0} add(%add.5, %mul.2), metadata={op_name=\"jit(scalar_arr_xkpw)/jit(scalar_arr_xkpw)/add\" stack_frame_id=6}\n}\n\nENTRY %main.2 (alpha.1: f32[], x.1: f32[1024], y.1: f32[1024]) -> f32[1024] {\n  %alpha.1 = f32[] parameter(0), metadata={op_name=\"alpha\"}\n  %x.1 = f32[1024]{0} parameter(1), metadata={op_name=\"x\"}\n  %y.1 = f32[1024]{0} parameter(2), metadata={op_name=\"y\"}\n  ROOT %multiply_add_fusion = f32[1024]{0} fusion(%x.1, %y.1, %alpha.1), kind=kLoop, calls=%fused_computation, metadata={op_name=\"jit(scalar_arr_xkpw)/jit(scalar_arr_xkpw)/add\" stack_frame_id=6}\n}\n\n", "ptx": null}
{"id": 5, "kernel_name": "reduce_jlli", "python": "@jax.jit\ndef reduce_jlli(a):\n    return jnp.sum(a)", "type": "generate_reduction_kernel", "hlo": "module @jit_reduce_jlli attributes {mhlo.num_partitions = 1 : i32, mhlo.num_replicas = 1 : i32} {\n  func.func public @main(%arg0: tensor<1024xf32>) -> (tensor<f32> {jax.result_info = \"result\"}) {\n    %0 = call @reduce_jlli(%arg0) : (tensor<1024xf32>) -> tensor<f32>\n    return %0 : tensor<f32>\n  }\n  func.func private @reduce_jlli(%arg0: tensor<1024xf32>) -> tensor<f32> {\n    %cst = stablehlo.constant dense<0.000000e+00> : tensor<f32>\n    %0 = stablehlo.reduce(%arg0 init: %cst) applies stablehlo.add across dimensions = [0] : (tensor<1024xf32>, tensor<f32>) -> tensor<f32>\n    return %0 : tensor<f32>\n  }\n}\n", "llvm": "HloModule jit_reduce_jlli, is_scheduled=true, entry_computation_layout={(f32[1024]{0})->f32[]}, allow_spmd_sharding_propagation_to_parameters={true}, allow_spmd_sharding_propagation_to_output={true}\n\nFileNames\n1 \"/workspace/jit/code/synthesis/jax_pipeline.py\"\n2 \"/workspace/jit/code/extraction/jax_ir_extractor.py\"\n3 \"/tmp/tmp45nmsd1s.py\"\n\nFunctionNames\n1 \"<module>\"\n2 \"generate_batch_to_jsonl\"\n3 \"extract_ir_from_source\"\n4 \"extract_ir\"\n5 \"reduce_jlli\"\n\nFileLocations\n1 {file_name_id=1 function_name_id=1 line=223 end_line=223 column=8 end_column=67}\n2 {file_name_id=1 function_name_id=2 line=184 end_line=184 column=21 end_column=74}\n3 {file_name_id=1 function_name_id=3 line=83 end_line=83 column=13 end_column=44}\n4 {file_name_id=2 function_name_id=4 line=82 end_line=82 column=14 end_column=35}\n5 {file_name_id=3 function_name_id=5 line=6 end_line=6 column=11 end_column=21}\n\nStackFrames\n1 {file_location_id=1 parent_frame_id=1}\n2 {file_location_id=2 parent_frame_id=2}\n3 {file_location_id=3 parent_frame_id=3}\n4 {file_location_id=4 parent_frame_id=4}\n5 {file_location_id=5 parent_frame_id=5}\n\n\n%region_0.1 (reduce_sum.3: f32[], reduce_sum.4: f32[]) -> f32[] {\n  %reduce_sum.3 = f32[] parameter(0), metadata={op_name=\"reduce_sum\"}\n  %reduce_sum.4 = f32[] parameter(1), metadata={op_name=\"reduce_sum\"}\n  ROOT %reduce_sum.5 = f32[] add(%reduce_sum.3, %reduce_sum.4), metadata={op_name=\"reduce_sum\" stack_frame_id=5}\n}\n\n%wrapped_reduce-window_computation (param_0: f32[1024], param_1: f32[]) -> f32[32] {\n  %param_0 = f32[1024]{0} parameter(0)\n  %param_1 = f32[] parameter(1)\n  ROOT %reduce-window.1 = f32[32]{0} reduce-window(%param_0, %param_1), window={size=32 stride=32}, to_apply=%region_0.1\n}\n\n%region_0.1.clone (reduce_sum.1: f32[], reduce_sum.2: f32[]) -> f32[] {\n  %reduce_sum.1 = f32[] parameter(0), metadata={op_name=\"reduce_sum\"}\n  %reduce_sum.2 = f32[] parameter(1), metadata={op_name=\"reduce_sum\"}\n  ROOT %reduce_sum.6 = f32[] add(%reduce_sum.1, %reduce_sum.2), metadata={op_name=\"reduce_sum\" stack_frame_id=5}\n}\n\n%wrapped_reduce_computation (param_0.1: f32[32], param_1.1: f32[]) -> f32[] {\n  %param_0.1 = f32[32]{0} parameter(0)\n  %param_1.1 = f32[] parameter(1)\n  ROOT %reduce_sum.8 = f32[] reduce(%param_0.1, %param_1.1), dimensions={0}, to_apply=%region_0.1.clone, metadata={op_name=\"jit(reduce_jlli)/jit(reduce_jlli)/reduce_sum\" stack_frame_id=5}\n}\n\nENTRY %main.3 (a.1: f32[1024]) -> f32[] {\n  %a.1 = f32[1024]{0} parameter(0), metadata={op_name=\"a\"}\n  %constant.0 = f32[] constant(0), metadata={op_name=\"jit(reduce_jlli)/jit(reduce_jlli)\"}\n  %wrapped_reduce-window = f32[32]{0} fusion(%a.1, %constant.0), kind=kLoop, calls=%wrapped_reduce-window_computation\n  ROOT %wrapped_reduce = f32[] fusion(%wrapped_reduce-window, %constant.0), kind=kLoop, calls=%wrapped_reduce_computation, metadata={op_name=\"jit(reduce_jlli)/jit(reduce_jlli)/reduce_sum\" stack_frame_id=5}\n}\n\n", "ptx": null}
{"id": 6, "kernel_name": "nested_odsh", "python": "@jax.jit\ndef nested_odsh(a):\n    # Nested where: if a > t1 then (if a > t2 then ... else ...) else ...\n    inner_true = a * 3.0\n    inner_false = a * 2.0\n    outer_true = jnp.where(a > 0.69, inner_true, inner_false)\n    outer_false = a * 0.5\n    return jnp.where(a > 0.44, outer_true, outer_false)", "type": "generate_nested_branch_kernel", "hlo": "module @jit_nested_odsh attributes {mhlo.num_partitions = 1 : i32, mhlo.num_replicas = 1 : i32} {\n  func.func public @main(%arg0: tensor<1024xf32>) -> (tensor<1024xf32> {jax.result_info = \"result\"}) {\n    %0 = call @nested_odsh(%arg0) : (tensor<1024xf32>) -> tensor<1024xf32>\n    return %0 : tensor<1024xf32>\n  }\n  func.func private @nested_odsh(%arg0: tensor<1024xf32>) -> tensor<1024xf32> {\n    %cst = stablehlo.constant dense<3.000000e+00> : tensor<f32>\n    %0 = stablehlo.broadcast_in_dim %cst, dims = [] : (tensor<f32>) -> tensor<1024xf32>\n    %1 = stablehlo.multiply %arg0, %0 : tensor<1024xf32>\n    %cst_0 = stablehlo.constant dense<2.000000e+00> : tensor<f32>\n    %2 = stablehlo.broadcast_in_dim %cst_0, dims = [] : (tensor<f32>) -> tensor<1024xf32>\n    %3 = stablehlo.multiply %arg0, %2 : tensor<1024xf32>\n    %cst_1 = stablehlo.constant dense<0.689999997> : tensor<f32>\n    %4 = stablehlo.broadcast_in_dim %cst_1, dims = [] : (tensor<f32>) -> tensor<1024xf32>\n    %5 = stablehlo.compare  GT, %arg0, %4,  FLOAT : (tensor<1024xf32>, tensor<1024xf32>) -> tensor<1024xi1>\n    %6 = call @_where(%5, %1, %3) : (tensor<1024xi1>, tensor<1024xf32>, tensor<1024xf32>) -> tensor<1024xf32>\n    %cst_2 = stablehlo.constant dense<5.000000e-01> : tensor<f32>\n    %7 = stablehlo.broadcast_in_dim %cst_2, dims = [] : (tensor<f32>) -> tensor<1024xf32>\n    %8 = stablehlo.multiply %arg0, %7 : tensor<1024xf32>\n    %cst_3 = stablehlo.constant dense<4.400000e-01> : tensor<f32>\n    %9 = stablehlo.broadcast_in_dim %cst_3, dims = [] : (tensor<f32>) -> tensor<1024xf32>\n    %10 = stablehlo.compare  GT, %arg0, %9,  FLOAT : (tensor<1024xf32>, tensor<1024xf32>) -> tensor<1024xi1>\n    %11 = call @_where(%10, %6, %8) : (tensor<1024xi1>, tensor<1024xf32>, tensor<1024xf32>) -> tensor<1024xf32>\n    return %11 : tensor<1024xf32>\n  }\n  func.func private @_where(%arg0: tensor<1024xi1>, %arg1: tensor<1024xf32>, %arg2: tensor<1024xf32>) -> tensor<1024xf32> {\n    %0 = stablehlo.select %arg0, %arg1, %arg2 : tensor<1024xi1>, tensor<1024xf32>\n    return %0 : tensor<1024xf32>\n  }\n}\n", "llvm": "HloModule jit_nested_odsh, is_scheduled=true, entry_computation_layout={(f32[1024]{0})->f32[1024]{0}}, allow_spmd_sharding_propagation_to_parameters={true}, allow_spmd_sharding_propagation_to_output={true}\n\nFileNames\n1 \"/workspace/jit/code/synthesis/jax_pipeline.py\"\n2 \"/workspace/jit/code/extraction/jax_ir_extractor.py\"\n3 \"/tmp/tmp7nvd0zdg.py\"\n\nFunctionNames\n1 \"<module>\"\n2 \"generate_batch_to_jsonl\"\n3 \"extract_ir_from_source\"\n4 \"extract_ir\"\n5 \"nested_odsh\"\n\nFileLocations\n1 {file_name_id=1 function_name_id=1 line=223 end_line=223 column=8 end_column=67}\n2 {file_name_id=1 function_name_id=2 line=184 end_line=184 column=21 end_column=74}\n3 {file_name_id=1 function_name_id=3 line=83 end_line=83 column=13 end_column=44}\n4 {file_name_id=2 function_name_id=4 line=82 end_line=82 column=14 end_column=35}\n5 {file_name_id=3 function_name_id=5 line=11 end_line=11 column=21 end_column=29}\n6 {file_name_id=3 function_name_id=5 line=10 end_line=10 column=18 end_column=25}\n7 {file_name_id=3 function_name_id=5 line=9 end_line=9 column=27 end_column=35}\n8 {file_name_id=3 function_name_id=5 line=8 end_line=8 column=18 end_column=25}\n9 {file_name_id=3 function_name_id=5 line=7 end_line=7 column=17 end_column=24}\n10 {file_name_id=3 function_name_id=5 line=9 end_line=9 column=17 end_column=61}\n11 {file_name_id=3 function_name_id=5 line=11 end_line=11 column=11 end_column=55}\n\nStackFrames\n1 {file_location_id=1 parent_frame_id=1}\n2 {file_location_id=2 parent_frame_id=2}\n3 {file_location_id=3 parent_frame_id=3}\n4 {file_location_id=4 parent_frame_id=4}\n5 {file_location_id=5 parent_frame_id=5}\n6 {file_location_id=6 parent_frame_id=5}\n7 {file_location_id=7 parent_frame_id=5}\n8 {file_location_id=8 parent_frame_id=5}\n9 {file_location_id=9 parent_frame_id=5}\n10 {file_location_id=10 parent_frame_id=5}\n11 {file_location_id=11 parent_frame_id=5}\n\n\n%fused_computation (param_0.1: f32[1024]) -> f32[1024] {\n  %param_0.1 = f32[1024]{0} parameter(0)\n  %constant.14 = f32[] constant(0.44), metadata={op_name=\"jit(nested_odsh)/jit(nested_odsh)\"}\n  %gt.11 = f32[1024]{0} broadcast(%constant.14), dimensions={}, metadata={op_name=\"jit(nested_odsh)/jit(nested_odsh)/gt\" stack_frame_id=5}\n  %gt.10 = pred[1024]{0} compare(%param_0.1, %gt.11), direction=GT, metadata={op_name=\"jit(nested_odsh)/jit(nested_odsh)/gt\" stack_frame_id=5}\n  %constant.13 = f32[] constant(0.69), metadata={op_name=\"jit(nested_odsh)/jit(nested_odsh)\"}\n  %gt.9 = f32[1024]{0} broadcast(%constant.13), dimensions={}, metadata={op_name=\"jit(nested_odsh)/jit(nested_odsh)/gt\" stack_frame_id=7}\n  %gt.8 = pred[1024]{0} compare(%param_0.1, %gt.9), direction=GT, metadata={op_name=\"jit(nested_odsh)/jit(nested_odsh)/gt\" stack_frame_id=7}\n  %constant.12 = f32[] constant(3), metadata={op_name=\"jit(nested_odsh)/jit(nested_odsh)\"}\n  %mul.17 = f32[1024]{0} broadcast(%constant.12), dimensions={}, metadata={op_name=\"jit(nested_odsh)/jit(nested_odsh)/mul\" stack_frame_id=9}\n  %mul.16 = f32[1024]{0} multiply(%param_0.1, %mul.17), metadata={op_name=\"jit(nested_odsh)/jit(nested_odsh)/mul\" stack_frame_id=9}\n  %constant.11 = f32[] constant(2), metadata={op_name=\"jit(nested_odsh)/jit(nested_odsh)\"}\n  %mul.15 = f32[1024]{0} broadcast(%constant.11), dimensions={}, metadata={op_name=\"jit(nested_odsh)/jit(nested_odsh)/mul\" stack_frame_id=8}\n  %mul.14 = f32[1024]{0} multiply(%param_0.1, %mul.15), metadata={op_name=\"jit(nested_odsh)/jit(nested_odsh)/mul\" stack_frame_id=8}\n  %select_n.7 = f32[1024]{0} select(%gt.8, %mul.16, %mul.14), metadata={op_name=\"jit(nested_odsh)/jit(nested_odsh)/jit(_where)/select_n\" stack_frame_id=10}\n  %constant.10 = f32[] constant(0.5), metadata={op_name=\"jit(nested_odsh)/jit(nested_odsh)\"}\n  %mul.13 = f32[1024]{0} broadcast(%constant.10), dimensions={}, metadata={op_name=\"jit(nested_odsh)/jit(nested_odsh)/mul\" stack_frame_id=6}\n  %mul.12 = f32[1024]{0} multiply(%param_0.1, %mul.13), metadata={op_name=\"jit(nested_odsh)/jit(nested_odsh)/mul\" stack_frame_id=6}\n  ROOT %select_n.6 = f32[1024]{0} select(%gt.10, %select_n.7, %mul.12), metadata={op_name=\"jit(nested_odsh)/jit(nested_odsh)/jit(_where)/select_n\" stack_frame_id=10}\n}\n\nENTRY %main.3 (a.1: f32[1024]) -> f32[1024] {\n  %a.1 = f32[1024]{0} parameter(0), metadata={op_name=\"a\"}\n  ROOT %multiply_select_fusion = f32[1024]{0} fusion(%a.1), kind=kLoop, calls=%fused_computation, metadata={op_name=\"jit(nested_odsh)/jit(nested_odsh)/jit(_where)/select_n\" stack_frame_id=10}\n}\n\n", "ptx": null}
{"id": 7, "kernel_name": "scalar_arr_bkct", "python": "@jax.jit\ndef scalar_arr_bkct(alpha, x, y):\n    return alpha * x + y", "type": "generate_scalar_array_op", "hlo": "module @jit_scalar_arr_bkct attributes {mhlo.num_partitions = 1 : i32, mhlo.num_replicas = 1 : i32} {\n  func.func public @main(%arg0: tensor<f32>, %arg1: tensor<1024xf32>, %arg2: tensor<1024xf32>) -> (tensor<1024xf32> {jax.result_info = \"result\"}) {\n    %0 = call @scalar_arr_bkct(%arg0, %arg1, %arg2) : (tensor<f32>, tensor<1024xf32>, tensor<1024xf32>) -> tensor<1024xf32>\n    return %0 : tensor<1024xf32>\n  }\n  func.func private @scalar_arr_bkct(%arg0: tensor<f32>, %arg1: tensor<1024xf32>, %arg2: tensor<1024xf32>) -> tensor<1024xf32> {\n    %0 = stablehlo.convert %arg0 : tensor<f32>\n    %1 = stablehlo.broadcast_in_dim %0, dims = [] : (tensor<f32>) -> tensor<1024xf32>\n    %2 = stablehlo.multiply %1, %arg1 : tensor<1024xf32>\n    %3 = stablehlo.add %2, %arg2 : tensor<1024xf32>\n    return %3 : tensor<1024xf32>\n  }\n}\n", "llvm": "HloModule jit_scalar_arr_bkct, is_scheduled=true, entry_computation_layout={(f32[], f32[1024]{0}, f32[1024]{0})->f32[1024]{0}}, allow_spmd_sharding_propagation_to_parameters={true,true,true}, allow_spmd_sharding_propagation_to_output={true}\n\nFileNames\n1 \"/workspace/jit/code/synthesis/jax_pipeline.py\"\n2 \"/workspace/jit/code/extraction/jax_ir_extractor.py\"\n3 \"/tmp/tmp4nov4g5s.py\"\n\nFunctionNames\n1 \"<module>\"\n2 \"generate_batch_to_jsonl\"\n3 \"extract_ir_from_source\"\n4 \"extract_ir\"\n5 \"scalar_arr_bkct\"\n\nFileLocations\n1 {file_name_id=1 function_name_id=1 line=223 end_line=223 column=8 end_column=67}\n2 {file_name_id=1 function_name_id=2 line=184 end_line=184 column=21 end_column=74}\n3 {file_name_id=1 function_name_id=3 line=83 end_line=83 column=13 end_column=44}\n4 {file_name_id=2 function_name_id=4 line=82 end_line=82 column=14 end_column=35}\n5 {file_name_id=3 function_name_id=5 line=6 end_line=6 column=11 end_column=20}\n\nStackFrames\n1 {file_location_id=1 parent_frame_id=1}\n2 {file_location_id=2 parent_frame_id=2}\n3 {file_location_id=3 parent_frame_id=3}\n4 {file_location_id=4 parent_frame_id=4}\n5 {file_location_id=5 parent_frame_id=5}\n\n\n%fused_computation (param_0.1: f32[1024], param_1.2: f32[1024], param_2.1: f32[]) -> f32[1024] {\n  %param_2.1 = f32[] parameter(2)\n  %mul.5 = f32[1024]{0} broadcast(%param_2.1), dimensions={}, metadata={op_name=\"jit(scalar_arr_bkct)/jit(scalar_arr_bkct)/mul\" stack_frame_id=5}\n  %param_1.2 = f32[1024]{0} parameter(1)\n  %mul.4 = f32[1024]{0} multiply(%mul.5, %param_1.2), metadata={op_name=\"jit(scalar_arr_bkct)/jit(scalar_arr_bkct)/mul\" stack_frame_id=5}\n  %param_0.1 = f32[1024]{0} parameter(0)\n  ROOT %add.2 = f32[1024]{0} add(%mul.4, %param_0.1), metadata={op_name=\"jit(scalar_arr_bkct)/jit(scalar_arr_bkct)/add\" stack_frame_id=5}\n}\n\nENTRY %main.2 (alpha.1: f32[], x.1: f32[1024], y.1: f32[1024]) -> f32[1024] {\n  %alpha.1 = f32[] parameter(0), metadata={op_name=\"alpha\"}\n  %x.1 = f32[1024]{0} parameter(1), metadata={op_name=\"x\"}\n  %y.1 = f32[1024]{0} parameter(2), metadata={op_name=\"y\"}\n  ROOT %multiply_add_fusion = f32[1024]{0} fusion(%y.1, %x.1, %alpha.1), kind=kLoop, calls=%fused_computation, metadata={op_name=\"jit(scalar_arr_bkct)/jit(scalar_arr_bkct)/add\" stack_frame_id=5}\n}\n\n", "ptx": null}
{"id": 8, "kernel_name": "multi_mgqg", "python": "@jax.jit\ndef multi_mgqg(a, b):\n    temp1 = a - b\n    temp2 = jnp.sqrt(temp1)\n    return temp2 - a", "type": "generate_multi_statement_kernel", "hlo": "module @jit_multi_mgqg attributes {mhlo.num_partitions = 1 : i32, mhlo.num_replicas = 1 : i32} {\n  func.func public @main(%arg0: tensor<1024xf32>, %arg1: tensor<1024xf32>) -> (tensor<1024xf32> {jax.result_info = \"result\"}) {\n    %0 = call @multi_mgqg(%arg0, %arg1) : (tensor<1024xf32>, tensor<1024xf32>) -> tensor<1024xf32>\n    return %0 : tensor<1024xf32>\n  }\n  func.func private @multi_mgqg(%arg0: tensor<1024xf32>, %arg1: tensor<1024xf32>) -> tensor<1024xf32> {\n    %0 = stablehlo.subtract %arg0, %arg1 : tensor<1024xf32>\n    %1 = stablehlo.sqrt %0 : tensor<1024xf32>\n    %2 = stablehlo.subtract %1, %arg0 : tensor<1024xf32>\n    return %2 : tensor<1024xf32>\n  }\n}\n", "llvm": "HloModule jit_multi_mgqg, is_scheduled=true, entry_computation_layout={(f32[1024]{0}, f32[1024]{0})->f32[1024]{0}}, allow_spmd_sharding_propagation_to_parameters={true,true}, allow_spmd_sharding_propagation_to_output={true}\n\nFileNames\n1 \"/workspace/jit/code/synthesis/jax_pipeline.py\"\n2 \"/workspace/jit/code/extraction/jax_ir_extractor.py\"\n3 \"/tmp/tmpjkqj48pz.py\"\n\nFunctionNames\n1 \"<module>\"\n2 \"generate_batch_to_jsonl\"\n3 \"extract_ir_from_source\"\n4 \"extract_ir\"\n5 \"multi_mgqg\"\n\nFileLocations\n1 {file_name_id=1 function_name_id=1 line=223 end_line=223 column=8 end_column=67}\n2 {file_name_id=1 function_name_id=2 line=184 end_line=184 column=21 end_column=74}\n3 {file_name_id=1 function_name_id=3 line=83 end_line=83 column=13 end_column=44}\n4 {file_name_id=2 function_name_id=4 line=82 end_line=82 column=14 end_column=35}\n5 {file_name_id=3 function_name_id=5 line=6 end_line=6 column=12 end_column=17}\n6 {file_name_id=3 function_name_id=5 line=7 end_line=7 column=12 end_column=27}\n7 {file_name_id=3 function_name_id=5 line=8 end_line=8 column=11 end_column=20}\n\nStackFrames\n1 {file_location_id=1 parent_frame_id=1}\n2 {file_location_id=2 parent_frame_id=2}\n3 {file_location_id=3 parent_frame_id=3}\n4 {file_location_id=4 parent_frame_id=4}\n5 {file_location_id=5 parent_frame_id=5}\n6 {file_location_id=6 parent_frame_id=5}\n7 {file_location_id=7 parent_frame_id=5}\n\n\n%fused_computation (param_0.1: f32[1024], param_1.2: f32[1024]) -> f32[1024] {\n  %param_0.1 = f32[1024]{0} parameter(0)\n  %param_1.2 = f32[1024]{0} parameter(1)\n  %sub.5 = f32[1024]{0} subtract(%param_0.1, %param_1.2), metadata={op_name=\"jit(multi_mgqg)/jit(multi_mgqg)/sub\" stack_frame_id=5}\n  %sqrt.2 = f32[1024]{0} sqrt(%sub.5), metadata={op_name=\"jit(multi_mgqg)/jit(multi_mgqg)/sqrt\" stack_frame_id=6}\n  ROOT %sub.4 = f32[1024]{0} subtract(%sqrt.2, %param_0.1), metadata={op_name=\"jit(multi_mgqg)/jit(multi_mgqg)/sub\" stack_frame_id=7}\n}\n\nENTRY %main.2 (a.1: f32[1024], b.1: f32[1024]) -> f32[1024] {\n  %a.1 = f32[1024]{0} parameter(0), metadata={op_name=\"a\"}\n  %b.1 = f32[1024]{0} parameter(1), metadata={op_name=\"b\"}\n  ROOT %sqrt_subtract_fusion = f32[1024]{0} fusion(%a.1, %b.1), kind=kLoop, calls=%fused_computation, metadata={op_name=\"jit(multi_mgqg)/jit(multi_mgqg)/sub\" stack_frame_id=7}\n}\n\n", "ptx": null}
{"id": 9, "kernel_name": "branch_gnev", "python": "@jax.jit\ndef branch_gnev(a):\n    return jnp.where(a > -0.54, a * 2.8, a - 1.5)", "type": "generate_branch_kernel", "hlo": "module @jit_branch_gnev attributes {mhlo.num_partitions = 1 : i32, mhlo.num_replicas = 1 : i32} {\n  func.func public @main(%arg0: tensor<1024xf32>) -> (tensor<1024xf32> {jax.result_info = \"result\"}) {\n    %0 = call @branch_gnev(%arg0) : (tensor<1024xf32>) -> tensor<1024xf32>\n    return %0 : tensor<1024xf32>\n  }\n  func.func private @branch_gnev(%arg0: tensor<1024xf32>) -> tensor<1024xf32> {\n    %cst = stablehlo.constant dense<-5.400000e-01> : tensor<f32>\n    %0 = stablehlo.broadcast_in_dim %cst, dims = [] : (tensor<f32>) -> tensor<1024xf32>\n    %1 = stablehlo.compare  GT, %arg0, %0,  FLOAT : (tensor<1024xf32>, tensor<1024xf32>) -> tensor<1024xi1>\n    %cst_0 = stablehlo.constant dense<2.800000e+00> : tensor<f32>\n    %2 = stablehlo.broadcast_in_dim %cst_0, dims = [] : (tensor<f32>) -> tensor<1024xf32>\n    %3 = stablehlo.multiply %arg0, %2 : tensor<1024xf32>\n    %cst_1 = stablehlo.constant dense<1.500000e+00> : tensor<f32>\n    %4 = stablehlo.broadcast_in_dim %cst_1, dims = [] : (tensor<f32>) -> tensor<1024xf32>\n    %5 = stablehlo.subtract %arg0, %4 : tensor<1024xf32>\n    %6 = call @_where(%1, %3, %5) : (tensor<1024xi1>, tensor<1024xf32>, tensor<1024xf32>) -> tensor<1024xf32>\n    return %6 : tensor<1024xf32>\n  }\n  func.func private @_where(%arg0: tensor<1024xi1>, %arg1: tensor<1024xf32>, %arg2: tensor<1024xf32>) -> tensor<1024xf32> {\n    %0 = stablehlo.select %arg0, %arg1, %arg2 : tensor<1024xi1>, tensor<1024xf32>\n    return %0 : tensor<1024xf32>\n  }\n}\n", "llvm": "HloModule jit_branch_gnev, is_scheduled=true, entry_computation_layout={(f32[1024]{0})->f32[1024]{0}}, allow_spmd_sharding_propagation_to_parameters={true}, allow_spmd_sharding_propagation_to_output={true}\n\nFileNames\n1 \"/workspace/jit/code/synthesis/jax_pipeline.py\"\n2 \"/workspace/jit/code/extraction/jax_ir_extractor.py\"\n3 \"/tmp/tmph8ve_urt.py\"\n4 \"/tmp/tmp7nvd0zdg.py\"\n\nFunctionNames\n1 \"<module>\"\n2 \"generate_batch_to_jsonl\"\n3 \"extract_ir_from_source\"\n4 \"extract_ir\"\n5 \"branch_gnev\"\n6 \"nested_odsh\"\n\nFileLocations\n1 {file_name_id=1 function_name_id=1 line=223 end_line=223 column=8 end_column=67}\n2 {file_name_id=1 function_name_id=2 line=184 end_line=184 column=21 end_column=74}\n3 {file_name_id=1 function_name_id=3 line=83 end_line=83 column=13 end_column=44}\n4 {file_name_id=2 function_name_id=4 line=82 end_line=82 column=14 end_column=35}\n5 {file_name_id=3 function_name_id=5 line=6 end_line=6 column=41 end_column=48}\n6 {file_name_id=3 function_name_id=5 line=6 end_line=6 column=32 end_column=39}\n7 {file_name_id=3 function_name_id=5 line=6 end_line=6 column=21 end_column=30}\n8 {file_name_id=3 function_name_id=5 line=6 end_line=6 column=11 end_column=49}\n9 {file_name_id=4 function_name_id=6 line=9 end_line=9 column=17 end_column=61}\n\nStackFrames\n1 {file_location_id=1 parent_frame_id=1}\n2 {file_location_id=2 parent_frame_id=2}\n3 {file_location_id=3 parent_frame_id=3}\n4 {file_location_id=4 parent_frame_id=4}\n5 {file_location_id=5 parent_frame_id=5}\n6 {file_location_id=6 parent_frame_id=5}\n7 {file_location_id=7 parent_frame_id=5}\n8 {file_location_id=8 parent_frame_id=5}\n9 {file_location_id=9 parent_frame_id=5}\n\n\n%fused_computation (param_0.1: f32[1024]) -> f32[1024] {\n  %param_0.1 = f32[1024]{0} parameter(0)\n  %constant.9 = f32[] constant(-0.54), metadata={op_name=\"jit(branch_gnev)/jit(branch_gnev)\"}\n  %gt.5 = f32[1024]{0} broadcast(%constant.9), dimensions={}, metadata={op_name=\"jit(branch_gnev)/jit(branch_gnev)/gt\" stack_frame_id=7}\n  %gt.4 = pred[1024]{0} compare(%param_0.1, %gt.5), direction=GT, metadata={op_name=\"jit(branch_gnev)/jit(branch_gnev)/gt\" stack_frame_id=7}\n  %constant.8 = f32[] constant(2.8), metadata={op_name=\"jit(branch_gnev)/jit(branch_gnev)\"}\n  %mul.5 = f32[1024]{0} broadcast(%constant.8), dimensions={}, metadata={op_name=\"jit(branch_gnev)/jit(branch_gnev)/mul\" stack_frame_id=6}\n  %mul.4 = f32[1024]{0} multiply(%param_0.1, %mul.5), metadata={op_name=\"jit(branch_gnev)/jit(branch_gnev)/mul\" stack_frame_id=6}\n  %constant.7 = f32[] constant(-1.5), metadata={op_name=\"jit(branch_gnev)/jit(branch_gnev)\"}\n  %broadcast.1 = f32[1024]{0} broadcast(%constant.7), dimensions={}, metadata={op_name=\"jit(branch_gnev)/jit(branch_gnev)\"}\n  %add.1 = f32[1024]{0} add(%param_0.1, %broadcast.1), metadata={op_name=\"jit(branch_gnev)/jit(branch_gnev)/sub\" stack_frame_id=5}\n  ROOT %select_n.3 = f32[1024]{0} select(%gt.4, %mul.4, %add.1), metadata={op_name=\"jit(branch_gnev)/jit(branch_gnev)/jit(_where)/select_n\" stack_frame_id=9}\n}\n\nENTRY %main.3 (a.1: f32[1024]) -> f32[1024] {\n  %a.1 = f32[1024]{0} parameter(0), metadata={op_name=\"a\"}\n  ROOT %add_select_fusion = f32[1024]{0} fusion(%a.1), kind=kLoop, calls=%fused_computation, metadata={op_name=\"jit(branch_gnev)/jit(branch_gnev)/jit(_where)/select_n\" stack_frame_id=9}\n}\n\n", "ptx": null}
{"id": 10, "kernel_name": "loop_zbsm", "python": "@jax.jit\ndef loop_zbsm(a, n):\n    def body_fun(i, val):\n        return val - a\n    # Initial value matches a's shape/type but zeroed\n    init_val = jnp.zeros_like(a)\n    return jax.lax.fori_loop(0, n, body_fun, init_val)", "type": "generate_loop_kernel", "hlo": "module @jit_loop_zbsm attributes {mhlo.num_partitions = 1 : i32, mhlo.num_replicas = 1 : i32} {\n  func.func public @main(%arg0: tensor<1024xf32>, %arg1: tensor<i32>) -> (tensor<1024xf32> {jax.result_info = \"result\"}) {\n    %0 = call @loop_zbsm(%arg0, %arg1) : (tensor<1024xf32>, tensor<i32>) -> tensor<1024xf32>\n    return %0 : tensor<1024xf32>\n  }\n  func.func private @loop_zbsm(%arg0: tensor<1024xf32>, %arg1: tensor<i32>) -> tensor<1024xf32> {\n    %cst = stablehlo.constant dense<0.000000e+00> : tensor<f32>\n    %0 = stablehlo.broadcast_in_dim %cst, dims = [] : (tensor<f32>) -> tensor<1024xf32>\n    %c = stablehlo.constant dense<0> : tensor<i32>\n    %1:4 = stablehlo.while(%iterArg = %arg0, %iterArg_0 = %c, %iterArg_1 = %arg1, %iterArg_2 = %0) : tensor<1024xf32>, tensor<i32>, tensor<i32>, tensor<1024xf32>\n    cond {\n      %2 = stablehlo.compare  LT, %iterArg_0, %iterArg_1,  SIGNED : (tensor<i32>, tensor<i32>) -> tensor<i1>\n      stablehlo.return %2 : tensor<i1>\n    } do {\n      %c_3 = stablehlo.constant dense<1> : tensor<i32>\n      %2 = stablehlo.add %iterArg_0, %c_3 : tensor<i32>\n      %3 = stablehlo.subtract %iterArg_2, %iterArg : tensor<1024xf32>\n      stablehlo.return %iterArg, %2, %iterArg_1, %3 : tensor<1024xf32>, tensor<i32>, tensor<i32>, tensor<1024xf32>\n    }\n    return %1#3 : tensor<1024xf32>\n  }\n}\n", "llvm": "HloModule jit_loop_zbsm, is_scheduled=true, entry_computation_layout={(f32[1024]{0}, s32[])->f32[1024]{0}}, allow_spmd_sharding_propagation_to_parameters={true,true}, allow_spmd_sharding_propagation_to_output={true}\n\nFileNames\n1 \"/workspace/jit/code/synthesis/jax_pipeline.py\"\n2 \"/workspace/jit/code/extraction/jax_ir_extractor.py\"\n3 \"/tmp/tmpy1x_896n.py\"\n\nFunctionNames\n1 \"<module>\"\n2 \"generate_batch_to_jsonl\"\n3 \"extract_ir_from_source\"\n4 \"extract_ir\"\n5 \"loop_zbsm\"\n\nFileLocations\n1 {file_name_id=1 function_name_id=1 line=223 end_line=223 column=8 end_column=67}\n2 {file_name_id=1 function_name_id=2 line=184 end_line=184 column=21 end_column=74}\n3 {file_name_id=1 function_name_id=3 line=83 end_line=83 column=13 end_column=44}\n4 {file_name_id=2 function_name_id=4 line=82 end_line=82 column=14 end_column=35}\n5 {file_name_id=3 function_name_id=5 line=9 end_line=9 column=15 end_column=32}\n6 {file_name_id=3 function_name_id=5 line=10 end_line=10 column=11 end_column=54}\n\nStackFrames\n1 {file_location_id=1 parent_frame_id=1}\n2 {file_location_id=2 parent_frame_id=2}\n3 {file_location_id=3 parent_frame_id=3}\n4 {file_location_id=4 parent_frame_id=4}\n5 {file_location_id=5 parent_frame_id=5}\n6 {file_location_id=6 parent_frame_id=5}\n\n\n%wrapped_add_computation (param_0.1: s32[], param_1: s32[]) -> s32[] {\n  %param_0.1 = s32[] parameter(0)\n  %param_1 = s32[] parameter(1)\n  ROOT %add.0 = s32[] add(%param_0.1, %param_1), metadata={op_name=\"jit(loop_zbsm)/jit(loop_zbsm)/while/body/add\" stack_frame_id=6}\n}\n\n%wrapped_subtract_computation (param_0.2: f32[1024], param_1.1: f32[1024]) -> f32[1024] {\n  %param_0.2 = f32[1024]{0} parameter(0)\n  %param_1.1 = f32[1024]{0} parameter(1)\n  ROOT %sub.0 = f32[1024]{0} subtract(%param_0.2, %param_1.1), metadata={op_name=\"jit(loop_zbsm)/jit(loop_zbsm)/while/body/sub\" stack_frame_id=6}\n}\n\n%region_0.1 (arg_tuple.1: (s32[], f32[1024], s32[], f32[1024])) -> (s32[], f32[1024], s32[], f32[1024]) {\n  %arg_tuple.1 = (s32[], f32[1024]{0}, s32[], f32[1024]{0}) parameter(0), metadata={op_name=\"jit(loop_zbsm)/jit(loop_zbsm)\"}\n  %constant.3 = s32[] constant(1), metadata={op_name=\"jit(loop_zbsm)/jit(loop_zbsm)\"}\n  %get-tuple-element.19 = f32[1024]{0} get-tuple-element(%arg_tuple.1), index=3, metadata={op_name=\"jit(loop_zbsm)/jit(loop_zbsm)\"}\n  %get-tuple-element.18 = s32[] get-tuple-element(%arg_tuple.1), index=2, metadata={op_name=\"jit(loop_zbsm)/jit(loop_zbsm)\"}\n  %get-tuple-element.9 = f32[1024]{0} get-tuple-element(%arg_tuple.1), index=1\n  %get-tuple-element.8 = s32[] get-tuple-element(%arg_tuple.1), index=0\n  %wrapped_subtract = f32[1024]{0} fusion(%get-tuple-element.9, %get-tuple-element.19), kind=kLoop, calls=%wrapped_subtract_computation, metadata={op_name=\"jit(loop_zbsm)/jit(loop_zbsm)/while/body/sub\" stack_frame_id=6}\n  %wrapped_add = s32[] fusion(%get-tuple-element.8, %constant.3), kind=kLoop, calls=%wrapped_add_computation, metadata={op_name=\"jit(loop_zbsm)/jit(loop_zbsm)/while/body/add\" stack_frame_id=6}\n  ROOT %tuple.3 = (s32[], f32[1024]{0}, s32[], f32[1024]{0}) tuple(%wrapped_add, %wrapped_subtract, %get-tuple-element.18, %get-tuple-element.19)\n}\n\n%wrapped_compare_computation (param_0.3: s32[], param_1.2: s32[]) -> pred[] {\n  %param_0.3 = s32[] parameter(0)\n  %param_1.2 = s32[] parameter(1)\n  ROOT %lt.0 = pred[] compare(%param_0.3, %param_1.2), direction=LT, metadata={op_name=\"jit(loop_zbsm)/jit(loop_zbsm)/while/cond/lt\" stack_frame_id=6}\n}\n\n%region_1.2 (arg_tuple.3: (s32[], f32[1024], s32[], f32[1024])) -> pred[] {\n  %arg_tuple.3 = (s32[], f32[1024]{0}, s32[], f32[1024]{0}) parameter(0), metadata={op_name=\"jit(loop_zbsm)/jit(loop_zbsm)\"}\n  %get-tuple-element.14 = s32[] get-tuple-element(%arg_tuple.3), index=2, metadata={op_name=\"jit(loop_zbsm)/jit(loop_zbsm)\"}\n  %get-tuple-element.12 = s32[] get-tuple-element(%arg_tuple.3), index=0, metadata={op_name=\"jit(loop_zbsm)/jit(loop_zbsm)\"}\n  ROOT %wrapped_compare = pred[] fusion(%get-tuple-element.12, %get-tuple-element.14), kind=kLoop, calls=%wrapped_compare_computation, metadata={op_name=\"jit(loop_zbsm)/jit(loop_zbsm)/while/cond/lt\" stack_frame_id=6}\n}\n\n%wrapped_broadcast_computation (param_0: f32[]) -> f32[1024] {\n  %param_0 = f32[] parameter(0)\n  ROOT %broadcast_in_dim.2 = f32[1024]{0} broadcast(%param_0), dimensions={}, metadata={op_name=\"jit(loop_zbsm)/jit(loop_zbsm)/broadcast_in_dim\" stack_frame_id=5}\n}\n\nENTRY %main.4 (a.1: f32[1024], n.1: s32[]) -> f32[1024] {\n  %a.1 = f32[1024]{0} parameter(0), metadata={op_name=\"a\"}\n  %n.1 = s32[] parameter(1), metadata={op_name=\"n\"}\n  %constant.0 = s32[] constant(0), metadata={op_name=\"jit(loop_zbsm)/jit(loop_zbsm)\"}\n  %constant.1 = f32[] constant(0), metadata={op_name=\"jit(loop_zbsm)/jit(loop_zbsm)\"}\n  %copy.6 = s32[] copy(%constant.0)\n  %wrapped_broadcast = f32[1024]{0} fusion(%constant.1), kind=kLoop, calls=%wrapped_broadcast_computation, metadata={op_name=\"jit(loop_zbsm)/jit(loop_zbsm)/broadcast_in_dim\" stack_frame_id=5}\n  %tuple = (s32[], f32[1024]{0}, s32[], f32[1024]{0}) tuple(%copy.6, %wrapped_broadcast, %n.1, %a.1)\n  %while.1 = (s32[], f32[1024]{0}, s32[], f32[1024]{0}) while(%tuple), condition=%region_1.2, body=%region_0.1, metadata={op_name=\"jit(loop_zbsm)/jit(loop_zbsm)/while\" stack_frame_id=6}\n  ROOT %while.2 = f32[1024]{0} get-tuple-element(%while.1), index=1, metadata={op_name=\"jit(loop_zbsm)/jit(loop_zbsm)/while\" stack_frame_id=6}\n}\n\n", "ptx": null}
{"id": 11, "kernel_name": "compound_qxls", "python": "@jax.jit\ndef compound_qxls(a, b, scale):\n    x = a\n    y = b\n    result = (x + y) * scale\n    result = result - jnp.floor(result)\n    return jnp.abs(result)", "type": "generate_compound_kernel", "hlo": "module @jit_compound_qxls attributes {mhlo.num_partitions = 1 : i32, mhlo.num_replicas = 1 : i32} {\n  func.func public @main(%arg0: tensor<1024xf32>, %arg1: tensor<1024xf32>, %arg2: tensor<f32>) -> (tensor<1024xf32> {jax.result_info = \"result\"}) {\n    %0 = call @compound_qxls(%arg0, %arg1, %arg2) : (tensor<1024xf32>, tensor<1024xf32>, tensor<f32>) -> tensor<1024xf32>\n    return %0 : tensor<1024xf32>\n  }\n  func.func private @compound_qxls(%arg0: tensor<1024xf32>, %arg1: tensor<1024xf32>, %arg2: tensor<f32>) -> tensor<1024xf32> {\n    %0 = stablehlo.add %arg0, %arg1 : tensor<1024xf32>\n    %1 = stablehlo.convert %arg2 : tensor<f32>\n    %2 = stablehlo.broadcast_in_dim %1, dims = [] : (tensor<f32>) -> tensor<1024xf32>\n    %3 = stablehlo.multiply %0, %2 : tensor<1024xf32>\n    %4 = stablehlo.floor %3 : tensor<1024xf32>\n    %5 = stablehlo.subtract %3, %4 : tensor<1024xf32>\n    %6 = stablehlo.abs %5 : tensor<1024xf32>\n    return %6 : tensor<1024xf32>\n  }\n}\n", "llvm": "HloModule jit_compound_qxls, is_scheduled=true, entry_computation_layout={(f32[1024]{0}, f32[1024]{0}, f32[])->f32[1024]{0}}, allow_spmd_sharding_propagation_to_parameters={true,true,true}, allow_spmd_sharding_propagation_to_output={true}\n\nFileNames\n1 \"/workspace/jit/code/synthesis/jax_pipeline.py\"\n2 \"/workspace/jit/code/extraction/jax_ir_extractor.py\"\n3 \"/tmp/tmpvv8wa43a.py\"\n\nFunctionNames\n1 \"<module>\"\n2 \"generate_batch_to_jsonl\"\n3 \"extract_ir_from_source\"\n4 \"extract_ir\"\n5 \"compound_qxls\"\n\nFileLocations\n1 {file_name_id=1 function_name_id=1 line=223 end_line=223 column=8 end_column=67}\n2 {file_name_id=1 function_name_id=2 line=184 end_line=184 column=21 end_column=74}\n3 {file_name_id=1 function_name_id=3 line=83 end_line=83 column=13 end_column=44}\n4 {file_name_id=2 function_name_id=4 line=82 end_line=82 column=14 end_column=35}\n5 {file_name_id=3 function_name_id=5 line=8 end_line=8 column=14 end_column=19}\n6 {file_name_id=3 function_name_id=5 line=8 end_line=8 column=13 end_column=28}\n7 {file_name_id=3 function_name_id=5 line=9 end_line=9 column=22 end_column=39}\n8 {file_name_id=3 function_name_id=5 line=9 end_line=9 column=13 end_column=39}\n9 {file_name_id=3 function_name_id=5 line=10 end_line=10 column=11 end_column=26}\n\nStackFrames\n1 {file_location_id=1 parent_frame_id=1}\n2 {file_location_id=2 parent_frame_id=2}\n3 {file_location_id=3 parent_frame_id=3}\n4 {file_location_id=4 parent_frame_id=4}\n5 {file_location_id=5 parent_frame_id=5}\n6 {file_location_id=6 parent_frame_id=5}\n7 {file_location_id=7 parent_frame_id=5}\n8 {file_location_id=8 parent_frame_id=5}\n9 {file_location_id=9 parent_frame_id=5}\n\n\n%fused_computation (param_0.3: f32[], param_1.3: f32[1024], param_2: f32[1024]) -> f32[1024] {\n  %param_1.3 = f32[1024]{0} parameter(1)\n  %param_2 = f32[1024]{0} parameter(2)\n  %add.2 = f32[1024]{0} add(%param_1.3, %param_2), metadata={op_name=\"jit(compound_qxls)/jit(compound_qxls)/add\" stack_frame_id=5}\n  %param_0.3 = f32[] parameter(0)\n  %mul.5 = f32[1024]{0} broadcast(%param_0.3), dimensions={}, metadata={op_name=\"jit(compound_qxls)/jit(compound_qxls)/mul\" stack_frame_id=6}\n  %mul.4 = f32[1024]{0} multiply(%add.2, %mul.5), metadata={op_name=\"jit(compound_qxls)/jit(compound_qxls)/mul\" stack_frame_id=6}\n  %floor.2 = f32[1024]{0} floor(%mul.4), metadata={op_name=\"jit(compound_qxls)/jit(compound_qxls)/floor\" stack_frame_id=7}\n  %sub.2 = f32[1024]{0} subtract(%mul.4, %floor.2), metadata={op_name=\"jit(compound_qxls)/jit(compound_qxls)/sub\" stack_frame_id=8}\n  ROOT %abs.2 = f32[1024]{0} abs(%sub.2), metadata={op_name=\"jit(compound_qxls)/jit(compound_qxls)/abs\" stack_frame_id=9}\n}\n\nENTRY %main.2 (a.1: f32[1024], b.1: f32[1024], scale.1: f32[]) -> f32[1024] {\n  %a.1 = f32[1024]{0} parameter(0), metadata={op_name=\"a\"}\n  %b.1 = f32[1024]{0} parameter(1), metadata={op_name=\"b\"}\n  %scale.1 = f32[] parameter(2), metadata={op_name=\"scale\"}\n  ROOT %subtract_abs_fusion = f32[1024]{0} fusion(%scale.1, %a.1, %b.1), kind=kLoop, calls=%fused_computation, metadata={op_name=\"jit(compound_qxls)/jit(compound_qxls)/abs\" stack_frame_id=9}\n}\n\n", "ptx": null}
{"id": 12, "kernel_name": "unary_xdom", "python": "@jax.jit\ndef unary_xdom(a):\n    return jnp.cos(a)", "type": "generate_unary_kernel", "hlo": "module @jit_unary_xdom attributes {mhlo.num_partitions = 1 : i32, mhlo.num_replicas = 1 : i32} {\n  func.func public @main(%arg0: tensor<1024xf32>) -> (tensor<1024xf32> {jax.result_info = \"result\"}) {\n    %0 = call @unary_xdom(%arg0) : (tensor<1024xf32>) -> tensor<1024xf32>\n    return %0 : tensor<1024xf32>\n  }\n  func.func private @unary_xdom(%arg0: tensor<1024xf32>) -> tensor<1024xf32> {\n    %0 = stablehlo.cosine %arg0 : tensor<1024xf32>\n    return %0 : tensor<1024xf32>\n  }\n}\n", "llvm": "HloModule jit_unary_xdom, is_scheduled=true, entry_computation_layout={(f32[1024]{0})->f32[1024]{0}}, allow_spmd_sharding_propagation_to_parameters={true}, allow_spmd_sharding_propagation_to_output={true}\n\nFileNames\n1 \"/workspace/jit/code/synthesis/jax_pipeline.py\"\n2 \"/workspace/jit/code/extraction/jax_ir_extractor.py\"\n3 \"/tmp/tmpzxbmqpz4.py\"\n\nFunctionNames\n1 \"<module>\"\n2 \"generate_batch_to_jsonl\"\n3 \"extract_ir_from_source\"\n4 \"extract_ir\"\n5 \"unary_xdom\"\n\nFileLocations\n1 {file_name_id=1 function_name_id=1 line=223 end_line=223 column=8 end_column=67}\n2 {file_name_id=1 function_name_id=2 line=184 end_line=184 column=21 end_column=74}\n3 {file_name_id=1 function_name_id=3 line=83 end_line=83 column=13 end_column=44}\n4 {file_name_id=2 function_name_id=4 line=82 end_line=82 column=14 end_column=35}\n5 {file_name_id=3 function_name_id=5 line=6 end_line=6 column=11 end_column=21}\n\nStackFrames\n1 {file_location_id=1 parent_frame_id=1}\n2 {file_location_id=2 parent_frame_id=2}\n3 {file_location_id=3 parent_frame_id=3}\n4 {file_location_id=4 parent_frame_id=4}\n5 {file_location_id=5 parent_frame_id=5}\n\n\n%wrapped_cosine_computation (param_0: f32[1024]) -> f32[1024] {\n  %param_0 = f32[1024]{0} parameter(0)\n  ROOT %cos.2 = f32[1024]{0} cosine(%param_0), metadata={op_name=\"jit(unary_xdom)/jit(unary_xdom)/cos\" stack_frame_id=5}\n}\n\nENTRY %main.2 (a.1: f32[1024]) -> f32[1024] {\n  %a.1 = f32[1024]{0} parameter(0), metadata={op_name=\"a\"}\n  ROOT %wrapped_cosine = f32[1024]{0} fusion(%a.1), kind=kLoop, calls=%wrapped_cosine_computation, metadata={op_name=\"jit(unary_xdom)/jit(unary_xdom)/cos\" stack_frame_id=5}\n}\n\n", "ptx": null}
{"id": 13, "kernel_name": "scalar_arr_cydt", "python": "@jax.jit\ndef scalar_arr_cydt(alpha, x, y):\n    return alpha + x * y", "type": "generate_scalar_array_op", "hlo": "module @jit_scalar_arr_cydt attributes {mhlo.num_partitions = 1 : i32, mhlo.num_replicas = 1 : i32} {\n  func.func public @main(%arg0: tensor<f32>, %arg1: tensor<1024xf32>, %arg2: tensor<1024xf32>) -> (tensor<1024xf32> {jax.result_info = \"result\"}) {\n    %0 = call @scalar_arr_cydt(%arg0, %arg1, %arg2) : (tensor<f32>, tensor<1024xf32>, tensor<1024xf32>) -> tensor<1024xf32>\n    return %0 : tensor<1024xf32>\n  }\n  func.func private @scalar_arr_cydt(%arg0: tensor<f32>, %arg1: tensor<1024xf32>, %arg2: tensor<1024xf32>) -> tensor<1024xf32> {\n    %0 = stablehlo.multiply %arg1, %arg2 : tensor<1024xf32>\n    %1 = stablehlo.convert %arg0 : tensor<f32>\n    %2 = stablehlo.broadcast_in_dim %1, dims = [] : (tensor<f32>) -> tensor<1024xf32>\n    %3 = stablehlo.add %2, %0 : tensor<1024xf32>\n    return %3 : tensor<1024xf32>\n  }\n}\n", "llvm": "HloModule jit_scalar_arr_cydt, is_scheduled=true, entry_computation_layout={(f32[], f32[1024]{0}, f32[1024]{0})->f32[1024]{0}}, allow_spmd_sharding_propagation_to_parameters={true,true,true}, allow_spmd_sharding_propagation_to_output={true}\n\nFileNames\n1 \"/workspace/jit/code/synthesis/jax_pipeline.py\"\n2 \"/workspace/jit/code/extraction/jax_ir_extractor.py\"\n3 \"/tmp/tmpp1fmtxd2.py\"\n\nFunctionNames\n1 \"<module>\"\n2 \"generate_batch_to_jsonl\"\n3 \"extract_ir_from_source\"\n4 \"extract_ir\"\n5 \"scalar_arr_cydt\"\n\nFileLocations\n1 {file_name_id=1 function_name_id=1 line=223 end_line=223 column=8 end_column=67}\n2 {file_name_id=1 function_name_id=2 line=184 end_line=184 column=21 end_column=74}\n3 {file_name_id=1 function_name_id=3 line=83 end_line=83 column=13 end_column=44}\n4 {file_name_id=2 function_name_id=4 line=82 end_line=82 column=14 end_column=35}\n5 {file_name_id=3 function_name_id=5 line=6 end_line=6 column=19 end_column=24}\n6 {file_name_id=3 function_name_id=5 line=6 end_line=6 column=11 end_column=24}\n\nStackFrames\n1 {file_location_id=1 parent_frame_id=1}\n2 {file_location_id=2 parent_frame_id=2}\n3 {file_location_id=3 parent_frame_id=3}\n4 {file_location_id=4 parent_frame_id=4}\n5 {file_location_id=5 parent_frame_id=5}\n6 {file_location_id=6 parent_frame_id=5}\n\n\n%fused_computation (param_0.1: f32[1024], param_1.2: f32[1024], param_2.1: f32[]) -> f32[1024] {\n  %param_2.1 = f32[] parameter(2)\n  %add.5 = f32[1024]{0} broadcast(%param_2.1), dimensions={}, metadata={op_name=\"jit(scalar_arr_cydt)/jit(scalar_arr_cydt)/add\" stack_frame_id=6}\n  %param_0.1 = f32[1024]{0} parameter(0)\n  %param_1.2 = f32[1024]{0} parameter(1)\n  %mul.2 = f32[1024]{0} multiply(%param_0.1, %param_1.2), metadata={op_name=\"jit(scalar_arr_cydt)/jit(scalar_arr_cydt)/mul\" stack_frame_id=5}\n  ROOT %add.4 = f32[1024]{0} add(%add.5, %mul.2), metadata={op_name=\"jit(scalar_arr_cydt)/jit(scalar_arr_cydt)/add\" stack_frame_id=6}\n}\n\nENTRY %main.2 (alpha.1: f32[], x.1: f32[1024], y.1: f32[1024]) -> f32[1024] {\n  %alpha.1 = f32[] parameter(0), metadata={op_name=\"alpha\"}\n  %x.1 = f32[1024]{0} parameter(1), metadata={op_name=\"x\"}\n  %y.1 = f32[1024]{0} parameter(2), metadata={op_name=\"y\"}\n  ROOT %multiply_add_fusion = f32[1024]{0} fusion(%x.1, %y.1, %alpha.1), kind=kLoop, calls=%fused_computation, metadata={op_name=\"jit(scalar_arr_cydt)/jit(scalar_arr_cydt)/add\" stack_frame_id=6}\n}\n\n", "ptx": null}
{"id": 14, "kernel_name": "nested_zomn", "python": "@jax.jit\ndef nested_zomn(a):\n    # Nested where: if a > t1 then (if a > t2 then ... else ...) else ...\n    inner_true = a * 3.0\n    inner_false = a * 2.0\n    outer_true = jnp.where(a > 1.49, inner_true, inner_false)\n    outer_false = a * 0.5\n    return jnp.where(a > 0.27, outer_true, outer_false)", "type": "generate_nested_branch_kernel", "hlo": "module @jit_nested_zomn attributes {mhlo.num_partitions = 1 : i32, mhlo.num_replicas = 1 : i32} {\n  func.func public @main(%arg0: tensor<1024xf32>) -> (tensor<1024xf32> {jax.result_info = \"result\"}) {\n    %0 = call @nested_zomn(%arg0) : (tensor<1024xf32>) -> tensor<1024xf32>\n    return %0 : tensor<1024xf32>\n  }\n  func.func private @nested_zomn(%arg0: tensor<1024xf32>) -> tensor<1024xf32> {\n    %cst = stablehlo.constant dense<3.000000e+00> : tensor<f32>\n    %0 = stablehlo.broadcast_in_dim %cst, dims = [] : (tensor<f32>) -> tensor<1024xf32>\n    %1 = stablehlo.multiply %arg0, %0 : tensor<1024xf32>\n    %cst_0 = stablehlo.constant dense<2.000000e+00> : tensor<f32>\n    %2 = stablehlo.broadcast_in_dim %cst_0, dims = [] : (tensor<f32>) -> tensor<1024xf32>\n    %3 = stablehlo.multiply %arg0, %2 : tensor<1024xf32>\n    %cst_1 = stablehlo.constant dense<1.490000e+00> : tensor<f32>\n    %4 = stablehlo.broadcast_in_dim %cst_1, dims = [] : (tensor<f32>) -> tensor<1024xf32>\n    %5 = stablehlo.compare  GT, %arg0, %4,  FLOAT : (tensor<1024xf32>, tensor<1024xf32>) -> tensor<1024xi1>\n    %6 = call @_where(%5, %1, %3) : (tensor<1024xi1>, tensor<1024xf32>, tensor<1024xf32>) -> tensor<1024xf32>\n    %cst_2 = stablehlo.constant dense<5.000000e-01> : tensor<f32>\n    %7 = stablehlo.broadcast_in_dim %cst_2, dims = [] : (tensor<f32>) -> tensor<1024xf32>\n    %8 = stablehlo.multiply %arg0, %7 : tensor<1024xf32>\n    %cst_3 = stablehlo.constant dense<2.700000e-01> : tensor<f32>\n    %9 = stablehlo.broadcast_in_dim %cst_3, dims = [] : (tensor<f32>) -> tensor<1024xf32>\n    %10 = stablehlo.compare  GT, %arg0, %9,  FLOAT : (tensor<1024xf32>, tensor<1024xf32>) -> tensor<1024xi1>\n    %11 = call @_where(%10, %6, %8) : (tensor<1024xi1>, tensor<1024xf32>, tensor<1024xf32>) -> tensor<1024xf32>\n    return %11 : tensor<1024xf32>\n  }\n  func.func private @_where(%arg0: tensor<1024xi1>, %arg1: tensor<1024xf32>, %arg2: tensor<1024xf32>) -> tensor<1024xf32> {\n    %0 = stablehlo.select %arg0, %arg1, %arg2 : tensor<1024xi1>, tensor<1024xf32>\n    return %0 : tensor<1024xf32>\n  }\n}\n", "llvm": "HloModule jit_nested_zomn, is_scheduled=true, entry_computation_layout={(f32[1024]{0})->f32[1024]{0}}, allow_spmd_sharding_propagation_to_parameters={true}, allow_spmd_sharding_propagation_to_output={true}\n\nFileNames\n1 \"/workspace/jit/code/synthesis/jax_pipeline.py\"\n2 \"/workspace/jit/code/extraction/jax_ir_extractor.py\"\n3 \"/tmp/tmp2z3a8z27.py\"\n4 \"/tmp/tmp7nvd0zdg.py\"\n\nFunctionNames\n1 \"<module>\"\n2 \"generate_batch_to_jsonl\"\n3 \"extract_ir_from_source\"\n4 \"extract_ir\"\n5 \"nested_zomn\"\n6 \"nested_odsh\"\n\nFileLocations\n1 {file_name_id=1 function_name_id=1 line=223 end_line=223 column=8 end_column=67}\n2 {file_name_id=1 function_name_id=2 line=184 end_line=184 column=21 end_column=74}\n3 {file_name_id=1 function_name_id=3 line=83 end_line=83 column=13 end_column=44}\n4 {file_name_id=2 function_name_id=4 line=82 end_line=82 column=14 end_column=35}\n5 {file_name_id=3 function_name_id=5 line=11 end_line=11 column=21 end_column=29}\n6 {file_name_id=3 function_name_id=5 line=10 end_line=10 column=18 end_column=25}\n7 {file_name_id=3 function_name_id=5 line=9 end_line=9 column=27 end_column=35}\n8 {file_name_id=3 function_name_id=5 line=8 end_line=8 column=18 end_column=25}\n9 {file_name_id=3 function_name_id=5 line=7 end_line=7 column=17 end_column=24}\n10 {file_name_id=3 function_name_id=5 line=9 end_line=9 column=17 end_column=61}\n11 {file_name_id=4 function_name_id=6 line=9 end_line=9 column=17 end_column=61}\n12 {file_name_id=3 function_name_id=5 line=11 end_line=11 column=11 end_column=55}\n\nStackFrames\n1 {file_location_id=1 parent_frame_id=1}\n2 {file_location_id=2 parent_frame_id=2}\n3 {file_location_id=3 parent_frame_id=3}\n4 {file_location_id=4 parent_frame_id=4}\n5 {file_location_id=5 parent_frame_id=5}\n6 {file_location_id=6 parent_frame_id=5}\n7 {file_location_id=7 parent_frame_id=5}\n8 {file_location_id=8 parent_frame_id=5}\n9 {file_location_id=9 parent_frame_id=5}\n10 {file_location_id=10 parent_frame_id=5}\n11 {file_location_id=11 parent_frame_id=5}\n12 {file_location_id=12 parent_frame_id=5}\n\n\n%fused_computation (param_0.1: f32[1024]) -> f32[1024] {\n  %param_0.1 = f32[1024]{0} parameter(0)\n  %constant.14 = f32[] constant(0.27), metadata={op_name=\"jit(nested_zomn)/jit(nested_zomn)\"}\n  %gt.11 = f32[1024]{0} broadcast(%constant.14), dimensions={}, metadata={op_name=\"jit(nested_zomn)/jit(nested_zomn)/gt\" stack_frame_id=5}\n  %gt.10 = pred[1024]{0} compare(%param_0.1, %gt.11), direction=GT, metadata={op_name=\"jit(nested_zomn)/jit(nested_zomn)/gt\" stack_frame_id=5}\n  %constant.13 = f32[] constant(1.49), metadata={op_name=\"jit(nested_zomn)/jit(nested_zomn)\"}\n  %gt.9 = f32[1024]{0} broadcast(%constant.13), dimensions={}, metadata={op_name=\"jit(nested_zomn)/jit(nested_zomn)/gt\" stack_frame_id=7}\n  %gt.8 = pred[1024]{0} compare(%param_0.1, %gt.9), direction=GT, metadata={op_name=\"jit(nested_zomn)/jit(nested_zomn)/gt\" stack_frame_id=7}\n  %constant.12 = f32[] constant(3), metadata={op_name=\"jit(nested_zomn)/jit(nested_zomn)\"}\n  %mul.17 = f32[1024]{0} broadcast(%constant.12), dimensions={}, metadata={op_name=\"jit(nested_zomn)/jit(nested_zomn)/mul\" stack_frame_id=9}\n  %mul.16 = f32[1024]{0} multiply(%param_0.1, %mul.17), metadata={op_name=\"jit(nested_zomn)/jit(nested_zomn)/mul\" stack_frame_id=9}\n  %constant.11 = f32[] constant(2), metadata={op_name=\"jit(nested_zomn)/jit(nested_zomn)\"}\n  %mul.15 = f32[1024]{0} broadcast(%constant.11), dimensions={}, metadata={op_name=\"jit(nested_zomn)/jit(nested_zomn)/mul\" stack_frame_id=8}\n  %mul.14 = f32[1024]{0} multiply(%param_0.1, %mul.15), metadata={op_name=\"jit(nested_zomn)/jit(nested_zomn)/mul\" stack_frame_id=8}\n  %select_n.7 = f32[1024]{0} select(%gt.8, %mul.16, %mul.14), metadata={op_name=\"jit(nested_zomn)/jit(nested_zomn)/jit(_where)/select_n\" stack_frame_id=11}\n  %constant.10 = f32[] constant(0.5), metadata={op_name=\"jit(nested_zomn)/jit(nested_zomn)\"}\n  %mul.13 = f32[1024]{0} broadcast(%constant.10), dimensions={}, metadata={op_name=\"jit(nested_zomn)/jit(nested_zomn)/mul\" stack_frame_id=6}\n  %mul.12 = f32[1024]{0} multiply(%param_0.1, %mul.13), metadata={op_name=\"jit(nested_zomn)/jit(nested_zomn)/mul\" stack_frame_id=6}\n  ROOT %select_n.6 = f32[1024]{0} select(%gt.10, %select_n.7, %mul.12), metadata={op_name=\"jit(nested_zomn)/jit(nested_zomn)/jit(_where)/select_n\" stack_frame_id=11}\n}\n\nENTRY %main.3 (a.1: f32[1024]) -> f32[1024] {\n  %a.1 = f32[1024]{0} parameter(0), metadata={op_name=\"a\"}\n  ROOT %multiply_select_fusion = f32[1024]{0} fusion(%a.1), kind=kLoop, calls=%fused_computation, metadata={op_name=\"jit(nested_zomn)/jit(nested_zomn)/jit(_where)/select_n\" stack_frame_id=11}\n}\n\n", "ptx": null}
{"id": 15, "kernel_name": "elementwise_bpan", "python": "@jax.jit\ndef elementwise_bpan(a, b):\n    return a - b", "type": "generate_simple_elementwise", "hlo": "module @jit_elementwise_bpan attributes {mhlo.num_partitions = 1 : i32, mhlo.num_replicas = 1 : i32} {\n  func.func public @main(%arg0: tensor<1024xf32>, %arg1: tensor<1024xf32>) -> (tensor<1024xf32> {jax.result_info = \"result\"}) {\n    %0 = call @elementwise_bpan(%arg0, %arg1) : (tensor<1024xf32>, tensor<1024xf32>) -> tensor<1024xf32>\n    return %0 : tensor<1024xf32>\n  }\n  func.func private @elementwise_bpan(%arg0: tensor<1024xf32>, %arg1: tensor<1024xf32>) -> tensor<1024xf32> {\n    %0 = stablehlo.subtract %arg0, %arg1 : tensor<1024xf32>\n    return %0 : tensor<1024xf32>\n  }\n}\n", "llvm": "HloModule jit_elementwise_bpan, is_scheduled=true, entry_computation_layout={(f32[1024]{0}, f32[1024]{0})->f32[1024]{0}}, allow_spmd_sharding_propagation_to_parameters={true,true}, allow_spmd_sharding_propagation_to_output={true}\n\nFileNames\n1 \"/workspace/jit/code/synthesis/jax_pipeline.py\"\n2 \"/workspace/jit/code/extraction/jax_ir_extractor.py\"\n3 \"/tmp/tmpj0odcbve.py\"\n\nFunctionNames\n1 \"<module>\"\n2 \"generate_batch_to_jsonl\"\n3 \"extract_ir_from_source\"\n4 \"extract_ir\"\n5 \"elementwise_bpan\"\n\nFileLocations\n1 {file_name_id=1 function_name_id=1 line=223 end_line=223 column=8 end_column=67}\n2 {file_name_id=1 function_name_id=2 line=184 end_line=184 column=21 end_column=74}\n3 {file_name_id=1 function_name_id=3 line=83 end_line=83 column=13 end_column=44}\n4 {file_name_id=2 function_name_id=4 line=82 end_line=82 column=14 end_column=35}\n5 {file_name_id=3 function_name_id=5 line=6 end_line=6 column=11 end_column=16}\n\nStackFrames\n1 {file_location_id=1 parent_frame_id=1}\n2 {file_location_id=2 parent_frame_id=2}\n3 {file_location_id=3 parent_frame_id=3}\n4 {file_location_id=4 parent_frame_id=4}\n5 {file_location_id=5 parent_frame_id=5}\n\n\n%wrapped_subtract_computation (param_0: f32[1024], param_1: f32[1024]) -> f32[1024] {\n  %param_0 = f32[1024]{0} parameter(0)\n  %param_1 = f32[1024]{0} parameter(1)\n  ROOT %sub.2 = f32[1024]{0} subtract(%param_0, %param_1), metadata={op_name=\"jit(elementwise_bpan)/jit(elementwise_bpan)/sub\" stack_frame_id=5}\n}\n\nENTRY %main.2 (a.1: f32[1024], b.1: f32[1024]) -> f32[1024] {\n  %a.1 = f32[1024]{0} parameter(0), metadata={op_name=\"a\"}\n  %b.1 = f32[1024]{0} parameter(1), metadata={op_name=\"b\"}\n  ROOT %wrapped_subtract = f32[1024]{0} fusion(%a.1, %b.1), kind=kLoop, calls=%wrapped_subtract_computation, metadata={op_name=\"jit(elementwise_bpan)/jit(elementwise_bpan)/sub\" stack_frame_id=5}\n}\n\n", "ptx": null}
{"id": 16, "kernel_name": "compound_pfqy", "python": "@jax.jit\ndef compound_pfqy(a, b, scale):\n    x = a\n    y = b\n    result = (x + y) * scale\n    result = result - jnp.floor(result)\n    return jnp.abs(result)", "type": "generate_compound_kernel", "hlo": "module @jit_compound_pfqy attributes {mhlo.num_partitions = 1 : i32, mhlo.num_replicas = 1 : i32} {\n  func.func public @main(%arg0: tensor<1024xf32>, %arg1: tensor<1024xf32>, %arg2: tensor<f32>) -> (tensor<1024xf32> {jax.result_info = \"result\"}) {\n    %0 = call @compound_pfqy(%arg0, %arg1, %arg2) : (tensor<1024xf32>, tensor<1024xf32>, tensor<f32>) -> tensor<1024xf32>\n    return %0 : tensor<1024xf32>\n  }\n  func.func private @compound_pfqy(%arg0: tensor<1024xf32>, %arg1: tensor<1024xf32>, %arg2: tensor<f32>) -> tensor<1024xf32> {\n    %0 = stablehlo.add %arg0, %arg1 : tensor<1024xf32>\n    %1 = stablehlo.convert %arg2 : tensor<f32>\n    %2 = stablehlo.broadcast_in_dim %1, dims = [] : (tensor<f32>) -> tensor<1024xf32>\n    %3 = stablehlo.multiply %0, %2 : tensor<1024xf32>\n    %4 = stablehlo.floor %3 : tensor<1024xf32>\n    %5 = stablehlo.subtract %3, %4 : tensor<1024xf32>\n    %6 = stablehlo.abs %5 : tensor<1024xf32>\n    return %6 : tensor<1024xf32>\n  }\n}\n", "llvm": "HloModule jit_compound_pfqy, is_scheduled=true, entry_computation_layout={(f32[1024]{0}, f32[1024]{0}, f32[])->f32[1024]{0}}, allow_spmd_sharding_propagation_to_parameters={true,true,true}, allow_spmd_sharding_propagation_to_output={true}\n\nFileNames\n1 \"/workspace/jit/code/synthesis/jax_pipeline.py\"\n2 \"/workspace/jit/code/extraction/jax_ir_extractor.py\"\n3 \"/tmp/tmpsrx1_91h.py\"\n\nFunctionNames\n1 \"<module>\"\n2 \"generate_batch_to_jsonl\"\n3 \"extract_ir_from_source\"\n4 \"extract_ir\"\n5 \"compound_pfqy\"\n\nFileLocations\n1 {file_name_id=1 function_name_id=1 line=223 end_line=223 column=8 end_column=67}\n2 {file_name_id=1 function_name_id=2 line=184 end_line=184 column=21 end_column=74}\n3 {file_name_id=1 function_name_id=3 line=83 end_line=83 column=13 end_column=44}\n4 {file_name_id=2 function_name_id=4 line=82 end_line=82 column=14 end_column=35}\n5 {file_name_id=3 function_name_id=5 line=8 end_line=8 column=14 end_column=19}\n6 {file_name_id=3 function_name_id=5 line=8 end_line=8 column=13 end_column=28}\n7 {file_name_id=3 function_name_id=5 line=9 end_line=9 column=22 end_column=39}\n8 {file_name_id=3 function_name_id=5 line=9 end_line=9 column=13 end_column=39}\n9 {file_name_id=3 function_name_id=5 line=10 end_line=10 column=11 end_column=26}\n\nStackFrames\n1 {file_location_id=1 parent_frame_id=1}\n2 {file_location_id=2 parent_frame_id=2}\n3 {file_location_id=3 parent_frame_id=3}\n4 {file_location_id=4 parent_frame_id=4}\n5 {file_location_id=5 parent_frame_id=5}\n6 {file_location_id=6 parent_frame_id=5}\n7 {file_location_id=7 parent_frame_id=5}\n8 {file_location_id=8 parent_frame_id=5}\n9 {file_location_id=9 parent_frame_id=5}\n\n\n%fused_computation (param_0.3: f32[], param_1.3: f32[1024], param_2: f32[1024]) -> f32[1024] {\n  %param_1.3 = f32[1024]{0} parameter(1)\n  %param_2 = f32[1024]{0} parameter(2)\n  %add.2 = f32[1024]{0} add(%param_1.3, %param_2), metadata={op_name=\"jit(compound_pfqy)/jit(compound_pfqy)/add\" stack_frame_id=5}\n  %param_0.3 = f32[] parameter(0)\n  %mul.5 = f32[1024]{0} broadcast(%param_0.3), dimensions={}, metadata={op_name=\"jit(compound_pfqy)/jit(compound_pfqy)/mul\" stack_frame_id=6}\n  %mul.4 = f32[1024]{0} multiply(%add.2, %mul.5), metadata={op_name=\"jit(compound_pfqy)/jit(compound_pfqy)/mul\" stack_frame_id=6}\n  %floor.2 = f32[1024]{0} floor(%mul.4), metadata={op_name=\"jit(compound_pfqy)/jit(compound_pfqy)/floor\" stack_frame_id=7}\n  %sub.2 = f32[1024]{0} subtract(%mul.4, %floor.2), metadata={op_name=\"jit(compound_pfqy)/jit(compound_pfqy)/sub\" stack_frame_id=8}\n  ROOT %abs.2 = f32[1024]{0} abs(%sub.2), metadata={op_name=\"jit(compound_pfqy)/jit(compound_pfqy)/abs\" stack_frame_id=9}\n}\n\nENTRY %main.2 (a.1: f32[1024], b.1: f32[1024], scale.1: f32[]) -> f32[1024] {\n  %a.1 = f32[1024]{0} parameter(0), metadata={op_name=\"a\"}\n  %b.1 = f32[1024]{0} parameter(1), metadata={op_name=\"b\"}\n  %scale.1 = f32[] parameter(2), metadata={op_name=\"scale\"}\n  ROOT %subtract_abs_fusion = f32[1024]{0} fusion(%scale.1, %a.1, %b.1), kind=kLoop, calls=%fused_computation, metadata={op_name=\"jit(compound_pfqy)/jit(compound_pfqy)/abs\" stack_frame_id=9}\n}\n\n", "ptx": null}
{"id": 17, "kernel_name": "branch_fyya", "python": "@jax.jit\ndef branch_fyya(a):\n    return jnp.where(a > 0.69, a * 2.2, a + 0.5)", "type": "generate_branch_kernel", "hlo": "module @jit_branch_fyya attributes {mhlo.num_partitions = 1 : i32, mhlo.num_replicas = 1 : i32} {\n  func.func public @main(%arg0: tensor<1024xf32>) -> (tensor<1024xf32> {jax.result_info = \"result\"}) {\n    %0 = call @branch_fyya(%arg0) : (tensor<1024xf32>) -> tensor<1024xf32>\n    return %0 : tensor<1024xf32>\n  }\n  func.func private @branch_fyya(%arg0: tensor<1024xf32>) -> tensor<1024xf32> {\n    %cst = stablehlo.constant dense<0.689999997> : tensor<f32>\n    %0 = stablehlo.broadcast_in_dim %cst, dims = [] : (tensor<f32>) -> tensor<1024xf32>\n    %1 = stablehlo.compare  GT, %arg0, %0,  FLOAT : (tensor<1024xf32>, tensor<1024xf32>) -> tensor<1024xi1>\n    %cst_0 = stablehlo.constant dense<2.200000e+00> : tensor<f32>\n    %2 = stablehlo.broadcast_in_dim %cst_0, dims = [] : (tensor<f32>) -> tensor<1024xf32>\n    %3 = stablehlo.multiply %arg0, %2 : tensor<1024xf32>\n    %cst_1 = stablehlo.constant dense<5.000000e-01> : tensor<f32>\n    %4 = stablehlo.broadcast_in_dim %cst_1, dims = [] : (tensor<f32>) -> tensor<1024xf32>\n    %5 = stablehlo.add %arg0, %4 : tensor<1024xf32>\n    %6 = call @_where(%1, %3, %5) : (tensor<1024xi1>, tensor<1024xf32>, tensor<1024xf32>) -> tensor<1024xf32>\n    return %6 : tensor<1024xf32>\n  }\n  func.func private @_where(%arg0: tensor<1024xi1>, %arg1: tensor<1024xf32>, %arg2: tensor<1024xf32>) -> tensor<1024xf32> {\n    %0 = stablehlo.select %arg0, %arg1, %arg2 : tensor<1024xi1>, tensor<1024xf32>\n    return %0 : tensor<1024xf32>\n  }\n}\n", "llvm": "HloModule jit_branch_fyya, is_scheduled=true, entry_computation_layout={(f32[1024]{0})->f32[1024]{0}}, allow_spmd_sharding_propagation_to_parameters={true}, allow_spmd_sharding_propagation_to_output={true}\n\nFileNames\n1 \"/workspace/jit/code/synthesis/jax_pipeline.py\"\n2 \"/workspace/jit/code/extraction/jax_ir_extractor.py\"\n3 \"/tmp/tmp52wuwg7c.py\"\n4 \"/tmp/tmp7nvd0zdg.py\"\n\nFunctionNames\n1 \"<module>\"\n2 \"generate_batch_to_jsonl\"\n3 \"extract_ir_from_source\"\n4 \"extract_ir\"\n5 \"branch_fyya\"\n6 \"nested_odsh\"\n\nFileLocations\n1 {file_name_id=1 function_name_id=1 line=223 end_line=223 column=8 end_column=67}\n2 {file_name_id=1 function_name_id=2 line=184 end_line=184 column=21 end_column=74}\n3 {file_name_id=1 function_name_id=3 line=83 end_line=83 column=13 end_column=44}\n4 {file_name_id=2 function_name_id=4 line=82 end_line=82 column=14 end_column=35}\n5 {file_name_id=3 function_name_id=5 line=6 end_line=6 column=40 end_column=47}\n6 {file_name_id=3 function_name_id=5 line=6 end_line=6 column=31 end_column=38}\n7 {file_name_id=3 function_name_id=5 line=6 end_line=6 column=21 end_column=29}\n8 {file_name_id=3 function_name_id=5 line=6 end_line=6 column=11 end_column=48}\n9 {file_name_id=4 function_name_id=6 line=9 end_line=9 column=17 end_column=61}\n\nStackFrames\n1 {file_location_id=1 parent_frame_id=1}\n2 {file_location_id=2 parent_frame_id=2}\n3 {file_location_id=3 parent_frame_id=3}\n4 {file_location_id=4 parent_frame_id=4}\n5 {file_location_id=5 parent_frame_id=5}\n6 {file_location_id=6 parent_frame_id=5}\n7 {file_location_id=7 parent_frame_id=5}\n8 {file_location_id=8 parent_frame_id=5}\n9 {file_location_id=9 parent_frame_id=5}\n\n\n%fused_computation (param_0.1: f32[1024]) -> f32[1024] {\n  %param_0.1 = f32[1024]{0} parameter(0)\n  %constant.8 = f32[] constant(0.69), metadata={op_name=\"jit(branch_fyya)/jit(branch_fyya)\"}\n  %gt.5 = f32[1024]{0} broadcast(%constant.8), dimensions={}, metadata={op_name=\"jit(branch_fyya)/jit(branch_fyya)/gt\" stack_frame_id=7}\n  %gt.4 = pred[1024]{0} compare(%param_0.1, %gt.5), direction=GT, metadata={op_name=\"jit(branch_fyya)/jit(branch_fyya)/gt\" stack_frame_id=7}\n  %constant.7 = f32[] constant(2.2), metadata={op_name=\"jit(branch_fyya)/jit(branch_fyya)\"}\n  %mul.5 = f32[1024]{0} broadcast(%constant.7), dimensions={}, metadata={op_name=\"jit(branch_fyya)/jit(branch_fyya)/mul\" stack_frame_id=6}\n  %mul.4 = f32[1024]{0} multiply(%param_0.1, %mul.5), metadata={op_name=\"jit(branch_fyya)/jit(branch_fyya)/mul\" stack_frame_id=6}\n  %constant.6 = f32[] constant(0.5), metadata={op_name=\"jit(branch_fyya)/jit(branch_fyya)\"}\n  %add.5 = f32[1024]{0} broadcast(%constant.6), dimensions={}, metadata={op_name=\"jit(branch_fyya)/jit(branch_fyya)/add\" stack_frame_id=5}\n  %add.4 = f32[1024]{0} add(%param_0.1, %add.5), metadata={op_name=\"jit(branch_fyya)/jit(branch_fyya)/add\" stack_frame_id=5}\n  ROOT %select_n.3 = f32[1024]{0} select(%gt.4, %mul.4, %add.4), metadata={op_name=\"jit(branch_fyya)/jit(branch_fyya)/jit(_where)/select_n\" stack_frame_id=9}\n}\n\nENTRY %main.3 (a.1: f32[1024]) -> f32[1024] {\n  %a.1 = f32[1024]{0} parameter(0), metadata={op_name=\"a\"}\n  ROOT %add_select_fusion = f32[1024]{0} fusion(%a.1), kind=kLoop, calls=%fused_computation, metadata={op_name=\"jit(branch_fyya)/jit(branch_fyya)/jit(_where)/select_n\" stack_frame_id=9}\n}\n\n", "ptx": null}
{"id": 18, "kernel_name": "loop_ipgv", "python": "@jax.jit\ndef loop_ipgv(a, n):\n    def body_fun(i, val):\n        return val - a\n    # Initial value matches a's shape/type but zeroed\n    init_val = jnp.zeros_like(a)\n    return jax.lax.fori_loop(0, n, body_fun, init_val)", "type": "generate_loop_kernel", "hlo": "module @jit_loop_ipgv attributes {mhlo.num_partitions = 1 : i32, mhlo.num_replicas = 1 : i32} {\n  func.func public @main(%arg0: tensor<1024xf32>, %arg1: tensor<i32>) -> (tensor<1024xf32> {jax.result_info = \"result\"}) {\n    %0 = call @loop_ipgv(%arg0, %arg1) : (tensor<1024xf32>, tensor<i32>) -> tensor<1024xf32>\n    return %0 : tensor<1024xf32>\n  }\n  func.func private @loop_ipgv(%arg0: tensor<1024xf32>, %arg1: tensor<i32>) -> tensor<1024xf32> {\n    %cst = stablehlo.constant dense<0.000000e+00> : tensor<f32>\n    %0 = stablehlo.broadcast_in_dim %cst, dims = [] : (tensor<f32>) -> tensor<1024xf32>\n    %c = stablehlo.constant dense<0> : tensor<i32>\n    %1:4 = stablehlo.while(%iterArg = %arg0, %iterArg_0 = %c, %iterArg_1 = %arg1, %iterArg_2 = %0) : tensor<1024xf32>, tensor<i32>, tensor<i32>, tensor<1024xf32>\n    cond {\n      %2 = stablehlo.compare  LT, %iterArg_0, %iterArg_1,  SIGNED : (tensor<i32>, tensor<i32>) -> tensor<i1>\n      stablehlo.return %2 : tensor<i1>\n    } do {\n      %c_3 = stablehlo.constant dense<1> : tensor<i32>\n      %2 = stablehlo.add %iterArg_0, %c_3 : tensor<i32>\n      %3 = stablehlo.subtract %iterArg_2, %iterArg : tensor<1024xf32>\n      stablehlo.return %iterArg, %2, %iterArg_1, %3 : tensor<1024xf32>, tensor<i32>, tensor<i32>, tensor<1024xf32>\n    }\n    return %1#3 : tensor<1024xf32>\n  }\n}\n", "llvm": "HloModule jit_loop_ipgv, is_scheduled=true, entry_computation_layout={(f32[1024]{0}, s32[])->f32[1024]{0}}, allow_spmd_sharding_propagation_to_parameters={true,true}, allow_spmd_sharding_propagation_to_output={true}\n\nFileNames\n1 \"/workspace/jit/code/synthesis/jax_pipeline.py\"\n2 \"/workspace/jit/code/extraction/jax_ir_extractor.py\"\n3 \"/tmp/tmp0tcr1uff.py\"\n\nFunctionNames\n1 \"<module>\"\n2 \"generate_batch_to_jsonl\"\n3 \"extract_ir_from_source\"\n4 \"extract_ir\"\n5 \"loop_ipgv\"\n\nFileLocations\n1 {file_name_id=1 function_name_id=1 line=223 end_line=223 column=8 end_column=67}\n2 {file_name_id=1 function_name_id=2 line=184 end_line=184 column=21 end_column=74}\n3 {file_name_id=1 function_name_id=3 line=83 end_line=83 column=13 end_column=44}\n4 {file_name_id=2 function_name_id=4 line=82 end_line=82 column=14 end_column=35}\n5 {file_name_id=3 function_name_id=5 line=9 end_line=9 column=15 end_column=32}\n6 {file_name_id=3 function_name_id=5 line=10 end_line=10 column=11 end_column=54}\n\nStackFrames\n1 {file_location_id=1 parent_frame_id=1}\n2 {file_location_id=2 parent_frame_id=2}\n3 {file_location_id=3 parent_frame_id=3}\n4 {file_location_id=4 parent_frame_id=4}\n5 {file_location_id=5 parent_frame_id=5}\n6 {file_location_id=6 parent_frame_id=5}\n\n\n%wrapped_add_computation (param_0.1: s32[], param_1: s32[]) -> s32[] {\n  %param_0.1 = s32[] parameter(0)\n  %param_1 = s32[] parameter(1)\n  ROOT %add.0 = s32[] add(%param_0.1, %param_1), metadata={op_name=\"jit(loop_ipgv)/jit(loop_ipgv)/while/body/add\" stack_frame_id=6}\n}\n\n%wrapped_subtract_computation (param_0.2: f32[1024], param_1.1: f32[1024]) -> f32[1024] {\n  %param_0.2 = f32[1024]{0} parameter(0)\n  %param_1.1 = f32[1024]{0} parameter(1)\n  ROOT %sub.0 = f32[1024]{0} subtract(%param_0.2, %param_1.1), metadata={op_name=\"jit(loop_ipgv)/jit(loop_ipgv)/while/body/sub\" stack_frame_id=6}\n}\n\n%region_0.1 (arg_tuple.1: (s32[], f32[1024], s32[], f32[1024])) -> (s32[], f32[1024], s32[], f32[1024]) {\n  %arg_tuple.1 = (s32[], f32[1024]{0}, s32[], f32[1024]{0}) parameter(0), metadata={op_name=\"jit(loop_ipgv)/jit(loop_ipgv)\"}\n  %constant.3 = s32[] constant(1), metadata={op_name=\"jit(loop_ipgv)/jit(loop_ipgv)\"}\n  %get-tuple-element.19 = f32[1024]{0} get-tuple-element(%arg_tuple.1), index=3, metadata={op_name=\"jit(loop_ipgv)/jit(loop_ipgv)\"}\n  %get-tuple-element.18 = s32[] get-tuple-element(%arg_tuple.1), index=2, metadata={op_name=\"jit(loop_ipgv)/jit(loop_ipgv)\"}\n  %get-tuple-element.9 = f32[1024]{0} get-tuple-element(%arg_tuple.1), index=1\n  %get-tuple-element.8 = s32[] get-tuple-element(%arg_tuple.1), index=0\n  %wrapped_subtract = f32[1024]{0} fusion(%get-tuple-element.9, %get-tuple-element.19), kind=kLoop, calls=%wrapped_subtract_computation, metadata={op_name=\"jit(loop_ipgv)/jit(loop_ipgv)/while/body/sub\" stack_frame_id=6}\n  %wrapped_add = s32[] fusion(%get-tuple-element.8, %constant.3), kind=kLoop, calls=%wrapped_add_computation, metadata={op_name=\"jit(loop_ipgv)/jit(loop_ipgv)/while/body/add\" stack_frame_id=6}\n  ROOT %tuple.3 = (s32[], f32[1024]{0}, s32[], f32[1024]{0}) tuple(%wrapped_add, %wrapped_subtract, %get-tuple-element.18, %get-tuple-element.19)\n}\n\n%wrapped_compare_computation (param_0.3: s32[], param_1.2: s32[]) -> pred[] {\n  %param_0.3 = s32[] parameter(0)\n  %param_1.2 = s32[] parameter(1)\n  ROOT %lt.0 = pred[] compare(%param_0.3, %param_1.2), direction=LT, metadata={op_name=\"jit(loop_ipgv)/jit(loop_ipgv)/while/cond/lt\" stack_frame_id=6}\n}\n\n%region_1.2 (arg_tuple.3: (s32[], f32[1024], s32[], f32[1024])) -> pred[] {\n  %arg_tuple.3 = (s32[], f32[1024]{0}, s32[], f32[1024]{0}) parameter(0), metadata={op_name=\"jit(loop_ipgv)/jit(loop_ipgv)\"}\n  %get-tuple-element.14 = s32[] get-tuple-element(%arg_tuple.3), index=2, metadata={op_name=\"jit(loop_ipgv)/jit(loop_ipgv)\"}\n  %get-tuple-element.12 = s32[] get-tuple-element(%arg_tuple.3), index=0, metadata={op_name=\"jit(loop_ipgv)/jit(loop_ipgv)\"}\n  ROOT %wrapped_compare = pred[] fusion(%get-tuple-element.12, %get-tuple-element.14), kind=kLoop, calls=%wrapped_compare_computation, metadata={op_name=\"jit(loop_ipgv)/jit(loop_ipgv)/while/cond/lt\" stack_frame_id=6}\n}\n\n%wrapped_broadcast_computation (param_0: f32[]) -> f32[1024] {\n  %param_0 = f32[] parameter(0)\n  ROOT %broadcast_in_dim.2 = f32[1024]{0} broadcast(%param_0), dimensions={}, metadata={op_name=\"jit(loop_ipgv)/jit(loop_ipgv)/broadcast_in_dim\" stack_frame_id=5}\n}\n\nENTRY %main.4 (a.1: f32[1024], n.1: s32[]) -> f32[1024] {\n  %a.1 = f32[1024]{0} parameter(0), metadata={op_name=\"a\"}\n  %n.1 = s32[] parameter(1), metadata={op_name=\"n\"}\n  %constant.0 = s32[] constant(0), metadata={op_name=\"jit(loop_ipgv)/jit(loop_ipgv)\"}\n  %constant.1 = f32[] constant(0), metadata={op_name=\"jit(loop_ipgv)/jit(loop_ipgv)\"}\n  %copy.6 = s32[] copy(%constant.0)\n  %wrapped_broadcast = f32[1024]{0} fusion(%constant.1), kind=kLoop, calls=%wrapped_broadcast_computation, metadata={op_name=\"jit(loop_ipgv)/jit(loop_ipgv)/broadcast_in_dim\" stack_frame_id=5}\n  %tuple = (s32[], f32[1024]{0}, s32[], f32[1024]{0}) tuple(%copy.6, %wrapped_broadcast, %n.1, %a.1)\n  %while.1 = (s32[], f32[1024]{0}, s32[], f32[1024]{0}) while(%tuple), condition=%region_1.2, body=%region_0.1, metadata={op_name=\"jit(loop_ipgv)/jit(loop_ipgv)/while\" stack_frame_id=6}\n  ROOT %while.2 = f32[1024]{0} get-tuple-element(%while.1), index=1, metadata={op_name=\"jit(loop_ipgv)/jit(loop_ipgv)/while\" stack_frame_id=6}\n}\n\n", "ptx": null}
{"id": 19, "kernel_name": "multi_movi", "python": "@jax.jit\ndef multi_movi(a, b):\n    temp1 = a - b\n    temp2 = jnp.sqrt(temp1)\n    return temp2 * a", "type": "generate_multi_statement_kernel", "hlo": "module @jit_multi_movi attributes {mhlo.num_partitions = 1 : i32, mhlo.num_replicas = 1 : i32} {\n  func.func public @main(%arg0: tensor<1024xf32>, %arg1: tensor<1024xf32>) -> (tensor<1024xf32> {jax.result_info = \"result\"}) {\n    %0 = call @multi_movi(%arg0, %arg1) : (tensor<1024xf32>, tensor<1024xf32>) -> tensor<1024xf32>\n    return %0 : tensor<1024xf32>\n  }\n  func.func private @multi_movi(%arg0: tensor<1024xf32>, %arg1: tensor<1024xf32>) -> tensor<1024xf32> {\n    %0 = stablehlo.subtract %arg0, %arg1 : tensor<1024xf32>\n    %1 = stablehlo.sqrt %0 : tensor<1024xf32>\n    %2 = stablehlo.multiply %1, %arg0 : tensor<1024xf32>\n    return %2 : tensor<1024xf32>\n  }\n}\n", "llvm": "HloModule jit_multi_movi, is_scheduled=true, entry_computation_layout={(f32[1024]{0}, f32[1024]{0})->f32[1024]{0}}, allow_spmd_sharding_propagation_to_parameters={true,true}, allow_spmd_sharding_propagation_to_output={true}\n\nFileNames\n1 \"/workspace/jit/code/synthesis/jax_pipeline.py\"\n2 \"/workspace/jit/code/extraction/jax_ir_extractor.py\"\n3 \"/tmp/tmptp0qt4ih.py\"\n\nFunctionNames\n1 \"<module>\"\n2 \"generate_batch_to_jsonl\"\n3 \"extract_ir_from_source\"\n4 \"extract_ir\"\n5 \"multi_movi\"\n\nFileLocations\n1 {file_name_id=1 function_name_id=1 line=223 end_line=223 column=8 end_column=67}\n2 {file_name_id=1 function_name_id=2 line=184 end_line=184 column=21 end_column=74}\n3 {file_name_id=1 function_name_id=3 line=83 end_line=83 column=13 end_column=44}\n4 {file_name_id=2 function_name_id=4 line=82 end_line=82 column=14 end_column=35}\n5 {file_name_id=3 function_name_id=5 line=6 end_line=6 column=12 end_column=17}\n6 {file_name_id=3 function_name_id=5 line=7 end_line=7 column=12 end_column=27}\n7 {file_name_id=3 function_name_id=5 line=8 end_line=8 column=11 end_column=20}\n\nStackFrames\n1 {file_location_id=1 parent_frame_id=1}\n2 {file_location_id=2 parent_frame_id=2}\n3 {file_location_id=3 parent_frame_id=3}\n4 {file_location_id=4 parent_frame_id=4}\n5 {file_location_id=5 parent_frame_id=5}\n6 {file_location_id=6 parent_frame_id=5}\n7 {file_location_id=7 parent_frame_id=5}\n\n\n%fused_computation (param_0.1: f32[1024], param_1.2: f32[1024]) -> f32[1024] {\n  %param_0.1 = f32[1024]{0} parameter(0)\n  %param_1.2 = f32[1024]{0} parameter(1)\n  %sub.2 = f32[1024]{0} subtract(%param_0.1, %param_1.2), metadata={op_name=\"jit(multi_movi)/jit(multi_movi)/sub\" stack_frame_id=5}\n  %sqrt.2 = f32[1024]{0} sqrt(%sub.2), metadata={op_name=\"jit(multi_movi)/jit(multi_movi)/sqrt\" stack_frame_id=6}\n  ROOT %mul.2 = f32[1024]{0} multiply(%sqrt.2, %param_0.1), metadata={op_name=\"jit(multi_movi)/jit(multi_movi)/mul\" stack_frame_id=7}\n}\n\nENTRY %main.2 (a.1: f32[1024], b.1: f32[1024]) -> f32[1024] {\n  %a.1 = f32[1024]{0} parameter(0), metadata={op_name=\"a\"}\n  %b.1 = f32[1024]{0} parameter(1), metadata={op_name=\"b\"}\n  ROOT %sqrt_multiply_fusion = f32[1024]{0} fusion(%a.1, %b.1), kind=kLoop, calls=%fused_computation, metadata={op_name=\"jit(multi_movi)/jit(multi_movi)/mul\" stack_frame_id=7}\n}\n\n", "ptx": null}
{"id": 20, "kernel_name": "compound_yezg", "python": "@jax.jit\ndef compound_yezg(a, b, scale):\n    x = a\n    y = b\n    result = (x + y) * scale\n    result = result - jnp.floor(result)\n    return jnp.abs(result)", "type": "generate_compound_kernel", "hlo": "module @jit_compound_yezg attributes {mhlo.num_partitions = 1 : i32, mhlo.num_replicas = 1 : i32} {\n  func.func public @main(%arg0: tensor<1024xf32>, %arg1: tensor<1024xf32>, %arg2: tensor<f32>) -> (tensor<1024xf32> {jax.result_info = \"result\"}) {\n    %0 = call @compound_yezg(%arg0, %arg1, %arg2) : (tensor<1024xf32>, tensor<1024xf32>, tensor<f32>) -> tensor<1024xf32>\n    return %0 : tensor<1024xf32>\n  }\n  func.func private @compound_yezg(%arg0: tensor<1024xf32>, %arg1: tensor<1024xf32>, %arg2: tensor<f32>) -> tensor<1024xf32> {\n    %0 = stablehlo.add %arg0, %arg1 : tensor<1024xf32>\n    %1 = stablehlo.convert %arg2 : tensor<f32>\n    %2 = stablehlo.broadcast_in_dim %1, dims = [] : (tensor<f32>) -> tensor<1024xf32>\n    %3 = stablehlo.multiply %0, %2 : tensor<1024xf32>\n    %4 = stablehlo.floor %3 : tensor<1024xf32>\n    %5 = stablehlo.subtract %3, %4 : tensor<1024xf32>\n    %6 = stablehlo.abs %5 : tensor<1024xf32>\n    return %6 : tensor<1024xf32>\n  }\n}\n", "llvm": "HloModule jit_compound_yezg, is_scheduled=true, entry_computation_layout={(f32[1024]{0}, f32[1024]{0}, f32[])->f32[1024]{0}}, allow_spmd_sharding_propagation_to_parameters={true,true,true}, allow_spmd_sharding_propagation_to_output={true}\n\nFileNames\n1 \"/workspace/jit/code/synthesis/jax_pipeline.py\"\n2 \"/workspace/jit/code/extraction/jax_ir_extractor.py\"\n3 \"/tmp/tmp383me8_k.py\"\n\nFunctionNames\n1 \"<module>\"\n2 \"generate_batch_to_jsonl\"\n3 \"extract_ir_from_source\"\n4 \"extract_ir\"\n5 \"compound_yezg\"\n\nFileLocations\n1 {file_name_id=1 function_name_id=1 line=223 end_line=223 column=8 end_column=67}\n2 {file_name_id=1 function_name_id=2 line=184 end_line=184 column=21 end_column=74}\n3 {file_name_id=1 function_name_id=3 line=83 end_line=83 column=13 end_column=44}\n4 {file_name_id=2 function_name_id=4 line=82 end_line=82 column=14 end_column=35}\n5 {file_name_id=3 function_name_id=5 line=8 end_line=8 column=14 end_column=19}\n6 {file_name_id=3 function_name_id=5 line=8 end_line=8 column=13 end_column=28}\n7 {file_name_id=3 function_name_id=5 line=9 end_line=9 column=22 end_column=39}\n8 {file_name_id=3 function_name_id=5 line=9 end_line=9 column=13 end_column=39}\n9 {file_name_id=3 function_name_id=5 line=10 end_line=10 column=11 end_column=26}\n\nStackFrames\n1 {file_location_id=1 parent_frame_id=1}\n2 {file_location_id=2 parent_frame_id=2}\n3 {file_location_id=3 parent_frame_id=3}\n4 {file_location_id=4 parent_frame_id=4}\n5 {file_location_id=5 parent_frame_id=5}\n6 {file_location_id=6 parent_frame_id=5}\n7 {file_location_id=7 parent_frame_id=5}\n8 {file_location_id=8 parent_frame_id=5}\n9 {file_location_id=9 parent_frame_id=5}\n\n\n%fused_computation (param_0.3: f32[], param_1.3: f32[1024], param_2: f32[1024]) -> f32[1024] {\n  %param_1.3 = f32[1024]{0} parameter(1)\n  %param_2 = f32[1024]{0} parameter(2)\n  %add.2 = f32[1024]{0} add(%param_1.3, %param_2), metadata={op_name=\"jit(compound_yezg)/jit(compound_yezg)/add\" stack_frame_id=5}\n  %param_0.3 = f32[] parameter(0)\n  %mul.5 = f32[1024]{0} broadcast(%param_0.3), dimensions={}, metadata={op_name=\"jit(compound_yezg)/jit(compound_yezg)/mul\" stack_frame_id=6}\n  %mul.4 = f32[1024]{0} multiply(%add.2, %mul.5), metadata={op_name=\"jit(compound_yezg)/jit(compound_yezg)/mul\" stack_frame_id=6}\n  %floor.2 = f32[1024]{0} floor(%mul.4), metadata={op_name=\"jit(compound_yezg)/jit(compound_yezg)/floor\" stack_frame_id=7}\n  %sub.2 = f32[1024]{0} subtract(%mul.4, %floor.2), metadata={op_name=\"jit(compound_yezg)/jit(compound_yezg)/sub\" stack_frame_id=8}\n  ROOT %abs.2 = f32[1024]{0} abs(%sub.2), metadata={op_name=\"jit(compound_yezg)/jit(compound_yezg)/abs\" stack_frame_id=9}\n}\n\nENTRY %main.2 (a.1: f32[1024], b.1: f32[1024], scale.1: f32[]) -> f32[1024] {\n  %a.1 = f32[1024]{0} parameter(0), metadata={op_name=\"a\"}\n  %b.1 = f32[1024]{0} parameter(1), metadata={op_name=\"b\"}\n  %scale.1 = f32[] parameter(2), metadata={op_name=\"scale\"}\n  ROOT %subtract_abs_fusion = f32[1024]{0} fusion(%scale.1, %a.1, %b.1), kind=kLoop, calls=%fused_computation, metadata={op_name=\"jit(compound_yezg)/jit(compound_yezg)/abs\" stack_frame_id=9}\n}\n\n", "ptx": null}
{"id": 21, "kernel_name": "multi_lhxm", "python": "@jax.jit\ndef multi_lhxm(a, b):\n    temp1 = a + b\n    temp2 = jnp.sqrt(temp1)\n    return temp2 - a", "type": "generate_multi_statement_kernel", "hlo": "module @jit_multi_lhxm attributes {mhlo.num_partitions = 1 : i32, mhlo.num_replicas = 1 : i32} {\n  func.func public @main(%arg0: tensor<1024xf32>, %arg1: tensor<1024xf32>) -> (tensor<1024xf32> {jax.result_info = \"result\"}) {\n    %0 = call @multi_lhxm(%arg0, %arg1) : (tensor<1024xf32>, tensor<1024xf32>) -> tensor<1024xf32>\n    return %0 : tensor<1024xf32>\n  }\n  func.func private @multi_lhxm(%arg0: tensor<1024xf32>, %arg1: tensor<1024xf32>) -> tensor<1024xf32> {\n    %0 = stablehlo.add %arg0, %arg1 : tensor<1024xf32>\n    %1 = stablehlo.sqrt %0 : tensor<1024xf32>\n    %2 = stablehlo.subtract %1, %arg0 : tensor<1024xf32>\n    return %2 : tensor<1024xf32>\n  }\n}\n", "llvm": "HloModule jit_multi_lhxm, is_scheduled=true, entry_computation_layout={(f32[1024]{0}, f32[1024]{0})->f32[1024]{0}}, allow_spmd_sharding_propagation_to_parameters={true,true}, allow_spmd_sharding_propagation_to_output={true}\n\nFileNames\n1 \"/workspace/jit/code/synthesis/jax_pipeline.py\"\n2 \"/workspace/jit/code/extraction/jax_ir_extractor.py\"\n3 \"/tmp/tmp4zfo2ht3.py\"\n\nFunctionNames\n1 \"<module>\"\n2 \"generate_batch_to_jsonl\"\n3 \"extract_ir_from_source\"\n4 \"extract_ir\"\n5 \"multi_lhxm\"\n\nFileLocations\n1 {file_name_id=1 function_name_id=1 line=223 end_line=223 column=8 end_column=67}\n2 {file_name_id=1 function_name_id=2 line=184 end_line=184 column=21 end_column=74}\n3 {file_name_id=1 function_name_id=3 line=83 end_line=83 column=13 end_column=44}\n4 {file_name_id=2 function_name_id=4 line=82 end_line=82 column=14 end_column=35}\n5 {file_name_id=3 function_name_id=5 line=6 end_line=6 column=12 end_column=17}\n6 {file_name_id=3 function_name_id=5 line=7 end_line=7 column=12 end_column=27}\n7 {file_name_id=3 function_name_id=5 line=8 end_line=8 column=11 end_column=20}\n\nStackFrames\n1 {file_location_id=1 parent_frame_id=1}\n2 {file_location_id=2 parent_frame_id=2}\n3 {file_location_id=3 parent_frame_id=3}\n4 {file_location_id=4 parent_frame_id=4}\n5 {file_location_id=5 parent_frame_id=5}\n6 {file_location_id=6 parent_frame_id=5}\n7 {file_location_id=7 parent_frame_id=5}\n\n\n%fused_computation (param_0.1: f32[1024], param_1.2: f32[1024]) -> f32[1024] {\n  %param_0.1 = f32[1024]{0} parameter(0)\n  %param_1.2 = f32[1024]{0} parameter(1)\n  %add.2 = f32[1024]{0} add(%param_0.1, %param_1.2), metadata={op_name=\"jit(multi_lhxm)/jit(multi_lhxm)/add\" stack_frame_id=5}\n  %sqrt.2 = f32[1024]{0} sqrt(%add.2), metadata={op_name=\"jit(multi_lhxm)/jit(multi_lhxm)/sqrt\" stack_frame_id=6}\n  ROOT %sub.2 = f32[1024]{0} subtract(%sqrt.2, %param_0.1), metadata={op_name=\"jit(multi_lhxm)/jit(multi_lhxm)/sub\" stack_frame_id=7}\n}\n\nENTRY %main.2 (a.1: f32[1024], b.1: f32[1024]) -> f32[1024] {\n  %a.1 = f32[1024]{0} parameter(0), metadata={op_name=\"a\"}\n  %b.1 = f32[1024]{0} parameter(1), metadata={op_name=\"b\"}\n  ROOT %sqrt_subtract_fusion = f32[1024]{0} fusion(%a.1, %b.1), kind=kLoop, calls=%fused_computation, metadata={op_name=\"jit(multi_lhxm)/jit(multi_lhxm)/sub\" stack_frame_id=7}\n}\n\n", "ptx": null}
{"id": 22, "kernel_name": "multi_mqkx", "python": "@jax.jit\ndef multi_mqkx(a, b):\n    temp1 = a + b\n    temp2 = jnp.sin(temp1)\n    return temp2 + a", "type": "generate_multi_statement_kernel", "hlo": "module @jit_multi_mqkx attributes {mhlo.num_partitions = 1 : i32, mhlo.num_replicas = 1 : i32} {\n  func.func public @main(%arg0: tensor<1024xf32>, %arg1: tensor<1024xf32>) -> (tensor<1024xf32> {jax.result_info = \"result\"}) {\n    %0 = call @multi_mqkx(%arg0, %arg1) : (tensor<1024xf32>, tensor<1024xf32>) -> tensor<1024xf32>\n    return %0 : tensor<1024xf32>\n  }\n  func.func private @multi_mqkx(%arg0: tensor<1024xf32>, %arg1: tensor<1024xf32>) -> tensor<1024xf32> {\n    %0 = stablehlo.add %arg0, %arg1 : tensor<1024xf32>\n    %1 = stablehlo.sine %0 : tensor<1024xf32>\n    %2 = stablehlo.add %1, %arg0 : tensor<1024xf32>\n    return %2 : tensor<1024xf32>\n  }\n}\n", "llvm": "HloModule jit_multi_mqkx, is_scheduled=true, entry_computation_layout={(f32[1024]{0}, f32[1024]{0})->f32[1024]{0}}, allow_spmd_sharding_propagation_to_parameters={true,true}, allow_spmd_sharding_propagation_to_output={true}\n\nFileNames\n1 \"/workspace/jit/code/synthesis/jax_pipeline.py\"\n2 \"/workspace/jit/code/extraction/jax_ir_extractor.py\"\n3 \"/tmp/tmpq7ku5q7u.py\"\n\nFunctionNames\n1 \"<module>\"\n2 \"generate_batch_to_jsonl\"\n3 \"extract_ir_from_source\"\n4 \"extract_ir\"\n5 \"multi_mqkx\"\n\nFileLocations\n1 {file_name_id=1 function_name_id=1 line=223 end_line=223 column=8 end_column=67}\n2 {file_name_id=1 function_name_id=2 line=184 end_line=184 column=21 end_column=74}\n3 {file_name_id=1 function_name_id=3 line=83 end_line=83 column=13 end_column=44}\n4 {file_name_id=2 function_name_id=4 line=82 end_line=82 column=14 end_column=35}\n5 {file_name_id=3 function_name_id=5 line=6 end_line=6 column=12 end_column=17}\n6 {file_name_id=3 function_name_id=5 line=7 end_line=7 column=12 end_column=26}\n7 {file_name_id=3 function_name_id=5 line=8 end_line=8 column=11 end_column=20}\n\nStackFrames\n1 {file_location_id=1 parent_frame_id=1}\n2 {file_location_id=2 parent_frame_id=2}\n3 {file_location_id=3 parent_frame_id=3}\n4 {file_location_id=4 parent_frame_id=4}\n5 {file_location_id=5 parent_frame_id=5}\n6 {file_location_id=6 parent_frame_id=5}\n7 {file_location_id=7 parent_frame_id=5}\n\n\n%fused_computation (param_0.1: f32[1024], param_1.2: f32[1024]) -> f32[1024] {\n  %param_0.1 = f32[1024]{0} parameter(0)\n  %param_1.2 = f32[1024]{0} parameter(1)\n  %add.5 = f32[1024]{0} add(%param_0.1, %param_1.2), metadata={op_name=\"jit(multi_mqkx)/jit(multi_mqkx)/add\" stack_frame_id=5}\n  %sin.2 = f32[1024]{0} sine(%add.5), metadata={op_name=\"jit(multi_mqkx)/jit(multi_mqkx)/sin\" stack_frame_id=6}\n  ROOT %add.4 = f32[1024]{0} add(%sin.2, %param_0.1), metadata={op_name=\"jit(multi_mqkx)/jit(multi_mqkx)/add\" stack_frame_id=7}\n}\n\nENTRY %main.2 (a.1: f32[1024], b.1: f32[1024]) -> f32[1024] {\n  %a.1 = f32[1024]{0} parameter(0), metadata={op_name=\"a\"}\n  %b.1 = f32[1024]{0} parameter(1), metadata={op_name=\"b\"}\n  ROOT %sine_add_fusion = f32[1024]{0} fusion(%a.1, %b.1), kind=kLoop, calls=%fused_computation, metadata={op_name=\"jit(multi_mqkx)/jit(multi_mqkx)/add\" stack_frame_id=7}\n}\n\n", "ptx": null}
{"id": 23, "kernel_name": "vec_khvl", "python": "@jax.jit\ndef vec_khvl(a):\n    return jnp.linalg.norm(a, axis=-1)", "type": "generate_vector_kernel", "hlo": "module @jit_vec_khvl attributes {mhlo.num_partitions = 1 : i32, mhlo.num_replicas = 1 : i32} {\n  func.func public @main(%arg0: tensor<1024x3xf32>) -> (tensor<1024xf32> {jax.result_info = \"result\"}) {\n    %0 = call @vec_khvl(%arg0) : (tensor<1024x3xf32>) -> tensor<1024xf32>\n    return %0 : tensor<1024xf32>\n  }\n  func.func private @vec_khvl(%arg0: tensor<1024x3xf32>) -> tensor<1024xf32> {\n    %0 = call @norm(%arg0) : (tensor<1024x3xf32>) -> tensor<1024xf32>\n    return %0 : tensor<1024xf32>\n  }\n  func.func private @norm(%arg0: tensor<1024x3xf32>) -> tensor<1024xf32> {\n    %0 = stablehlo.multiply %arg0, %arg0 : tensor<1024x3xf32>\n    %cst = stablehlo.constant dense<0.000000e+00> : tensor<f32>\n    %1 = stablehlo.reduce(%0 init: %cst) applies stablehlo.add across dimensions = [1] : (tensor<1024x3xf32>, tensor<f32>) -> tensor<1024xf32>\n    %2 = stablehlo.sqrt %1 : tensor<1024xf32>\n    return %2 : tensor<1024xf32>\n  }\n}\n", "llvm": "HloModule jit_vec_khvl, is_scheduled=true, entry_computation_layout={(f32[1024,3]{1,0})->f32[1024]{0}}, allow_spmd_sharding_propagation_to_parameters={true}, allow_spmd_sharding_propagation_to_output={true}\n\nFileNames\n1 \"/workspace/jit/code/synthesis/jax_pipeline.py\"\n2 \"/workspace/jit/code/extraction/jax_ir_extractor.py\"\n3 \"/tmp/tmp6o75inah.py\"\n\nFunctionNames\n1 \"<module>\"\n2 \"generate_batch_to_jsonl\"\n3 \"extract_ir_from_source\"\n4 \"extract_ir\"\n5 \"vec_khvl\"\n\nFileLocations\n1 {file_name_id=1 function_name_id=1 line=223 end_line=223 column=8 end_column=67}\n2 {file_name_id=1 function_name_id=2 line=184 end_line=184 column=21 end_column=74}\n3 {file_name_id=1 function_name_id=3 line=83 end_line=83 column=13 end_column=44}\n4 {file_name_id=2 function_name_id=4 line=82 end_line=82 column=14 end_column=35}\n5 {file_name_id=3 function_name_id=5 line=6 end_line=6 column=11 end_column=38}\n\nStackFrames\n1 {file_location_id=1 parent_frame_id=1}\n2 {file_location_id=2 parent_frame_id=2}\n3 {file_location_id=3 parent_frame_id=3}\n4 {file_location_id=4 parent_frame_id=4}\n5 {file_location_id=5 parent_frame_id=5}\n\n\n%region_0.1 (reduce_sum.3: f32[], reduce_sum.4: f32[]) -> f32[] {\n  %reduce_sum.3 = f32[] parameter(0), metadata={op_name=\"reduce_sum\"}\n  %reduce_sum.4 = f32[] parameter(1), metadata={op_name=\"reduce_sum\"}\n  ROOT %reduce_sum.5 = f32[] add(%reduce_sum.3, %reduce_sum.4), metadata={op_name=\"reduce_sum\" stack_frame_id=5}\n}\n\n%fused_computation (param_0.2: f32[1024,3]) -> f32[1024] {\n  %param_0.2 = f32[1024,3]{1,0} parameter(0)\n  %mul.3 = f32[1024,3]{1,0} multiply(%param_0.2, %param_0.2), metadata={op_name=\"jit(vec_khvl)/jit(vec_khvl)/jit(norm)/mul\" stack_frame_id=5}\n  %constant.3 = f32[] constant(0), metadata={op_name=\"jit(vec_khvl)/jit(vec_khvl)/jit(norm)\"}\n  %reduce_sum.2 = f32[1024]{0} reduce(%mul.3, %constant.3), dimensions={1}, to_apply=%region_0.1, metadata={op_name=\"jit(vec_khvl)/jit(vec_khvl)/jit(norm)/reduce_sum\" stack_frame_id=5}\n  ROOT %sqrt.3 = f32[1024]{0} sqrt(%reduce_sum.2), metadata={op_name=\"jit(vec_khvl)/jit(vec_khvl)/jit(norm)/sqrt\" stack_frame_id=5}\n}\n\nENTRY %main.4 (a.1: f32[1024,3]) -> f32[1024] {\n  %a.1 = f32[1024,3]{1,0} parameter(0), metadata={op_name=\"a\"}\n  ROOT %reduce_sqrt_fusion = f32[1024]{0} fusion(%a.1), kind=kLoop, calls=%fused_computation, metadata={op_name=\"jit(vec_khvl)/jit(vec_khvl)/jit(norm)/sqrt\" stack_frame_id=5}\n}\n\n", "ptx": null}
{"id": 24, "kernel_name": "scalar_arr_blgl", "python": "@jax.jit\ndef scalar_arr_blgl(alpha, x, y):\n    return alpha - x * y", "type": "generate_scalar_array_op", "hlo": "module @jit_scalar_arr_blgl attributes {mhlo.num_partitions = 1 : i32, mhlo.num_replicas = 1 : i32} {\n  func.func public @main(%arg0: tensor<f32>, %arg1: tensor<1024xf32>, %arg2: tensor<1024xf32>) -> (tensor<1024xf32> {jax.result_info = \"result\"}) {\n    %0 = call @scalar_arr_blgl(%arg0, %arg1, %arg2) : (tensor<f32>, tensor<1024xf32>, tensor<1024xf32>) -> tensor<1024xf32>\n    return %0 : tensor<1024xf32>\n  }\n  func.func private @scalar_arr_blgl(%arg0: tensor<f32>, %arg1: tensor<1024xf32>, %arg2: tensor<1024xf32>) -> tensor<1024xf32> {\n    %0 = stablehlo.multiply %arg1, %arg2 : tensor<1024xf32>\n    %1 = stablehlo.convert %arg0 : tensor<f32>\n    %2 = stablehlo.broadcast_in_dim %1, dims = [] : (tensor<f32>) -> tensor<1024xf32>\n    %3 = stablehlo.subtract %2, %0 : tensor<1024xf32>\n    return %3 : tensor<1024xf32>\n  }\n}\n", "llvm": "HloModule jit_scalar_arr_blgl, is_scheduled=true, entry_computation_layout={(f32[], f32[1024]{0}, f32[1024]{0})->f32[1024]{0}}, allow_spmd_sharding_propagation_to_parameters={true,true,true}, allow_spmd_sharding_propagation_to_output={true}\n\nFileNames\n1 \"/workspace/jit/code/synthesis/jax_pipeline.py\"\n2 \"/workspace/jit/code/extraction/jax_ir_extractor.py\"\n3 \"/tmp/tmpk3q7qk65.py\"\n\nFunctionNames\n1 \"<module>\"\n2 \"generate_batch_to_jsonl\"\n3 \"extract_ir_from_source\"\n4 \"extract_ir\"\n5 \"scalar_arr_blgl\"\n\nFileLocations\n1 {file_name_id=1 function_name_id=1 line=223 end_line=223 column=8 end_column=67}\n2 {file_name_id=1 function_name_id=2 line=184 end_line=184 column=21 end_column=74}\n3 {file_name_id=1 function_name_id=3 line=83 end_line=83 column=13 end_column=44}\n4 {file_name_id=2 function_name_id=4 line=82 end_line=82 column=14 end_column=35}\n5 {file_name_id=3 function_name_id=5 line=6 end_line=6 column=19 end_column=24}\n6 {file_name_id=3 function_name_id=5 line=6 end_line=6 column=11 end_column=24}\n\nStackFrames\n1 {file_location_id=1 parent_frame_id=1}\n2 {file_location_id=2 parent_frame_id=2}\n3 {file_location_id=3 parent_frame_id=3}\n4 {file_location_id=4 parent_frame_id=4}\n5 {file_location_id=5 parent_frame_id=5}\n6 {file_location_id=6 parent_frame_id=5}\n\n\n%fused_computation (param_0.1: f32[1024], param_1.2: f32[1024], param_2.1: f32[]) -> f32[1024] {\n  %param_2.1 = f32[] parameter(2)\n  %sub.5 = f32[1024]{0} broadcast(%param_2.1), dimensions={}, metadata={op_name=\"jit(scalar_arr_blgl)/jit(scalar_arr_blgl)/sub\" stack_frame_id=6}\n  %param_0.1 = f32[1024]{0} parameter(0)\n  %param_1.2 = f32[1024]{0} parameter(1)\n  %mul.2 = f32[1024]{0} multiply(%param_0.1, %param_1.2), metadata={op_name=\"jit(scalar_arr_blgl)/jit(scalar_arr_blgl)/mul\" stack_frame_id=5}\n  ROOT %sub.4 = f32[1024]{0} subtract(%sub.5, %mul.2), metadata={op_name=\"jit(scalar_arr_blgl)/jit(scalar_arr_blgl)/sub\" stack_frame_id=6}\n}\n\nENTRY %main.2 (alpha.1: f32[], x.1: f32[1024], y.1: f32[1024]) -> f32[1024] {\n  %alpha.1 = f32[] parameter(0), metadata={op_name=\"alpha\"}\n  %x.1 = f32[1024]{0} parameter(1), metadata={op_name=\"x\"}\n  %y.1 = f32[1024]{0} parameter(2), metadata={op_name=\"y\"}\n  ROOT %multiply_subtract_fusion = f32[1024]{0} fusion(%x.1, %y.1, %alpha.1), kind=kLoop, calls=%fused_computation, metadata={op_name=\"jit(scalar_arr_blgl)/jit(scalar_arr_blgl)/sub\" stack_frame_id=6}\n}\n\n", "ptx": null}
{"id": 25, "kernel_name": "scalar_arr_btzk", "python": "@jax.jit\ndef scalar_arr_btzk(alpha, x, y):\n    return alpha * x - y", "type": "generate_scalar_array_op", "hlo": "module @jit_scalar_arr_btzk attributes {mhlo.num_partitions = 1 : i32, mhlo.num_replicas = 1 : i32} {\n  func.func public @main(%arg0: tensor<f32>, %arg1: tensor<1024xf32>, %arg2: tensor<1024xf32>) -> (tensor<1024xf32> {jax.result_info = \"result\"}) {\n    %0 = call @scalar_arr_btzk(%arg0, %arg1, %arg2) : (tensor<f32>, tensor<1024xf32>, tensor<1024xf32>) -> tensor<1024xf32>\n    return %0 : tensor<1024xf32>\n  }\n  func.func private @scalar_arr_btzk(%arg0: tensor<f32>, %arg1: tensor<1024xf32>, %arg2: tensor<1024xf32>) -> tensor<1024xf32> {\n    %0 = stablehlo.convert %arg0 : tensor<f32>\n    %1 = stablehlo.broadcast_in_dim %0, dims = [] : (tensor<f32>) -> tensor<1024xf32>\n    %2 = stablehlo.multiply %1, %arg1 : tensor<1024xf32>\n    %3 = stablehlo.subtract %2, %arg2 : tensor<1024xf32>\n    return %3 : tensor<1024xf32>\n  }\n}\n", "llvm": "HloModule jit_scalar_arr_btzk, is_scheduled=true, entry_computation_layout={(f32[], f32[1024]{0}, f32[1024]{0})->f32[1024]{0}}, allow_spmd_sharding_propagation_to_parameters={true,true,true}, allow_spmd_sharding_propagation_to_output={true}\n\nFileNames\n1 \"/workspace/jit/code/synthesis/jax_pipeline.py\"\n2 \"/workspace/jit/code/extraction/jax_ir_extractor.py\"\n3 \"/tmp/tmp86yuewiy.py\"\n\nFunctionNames\n1 \"<module>\"\n2 \"generate_batch_to_jsonl\"\n3 \"extract_ir_from_source\"\n4 \"extract_ir\"\n5 \"scalar_arr_btzk\"\n\nFileLocations\n1 {file_name_id=1 function_name_id=1 line=223 end_line=223 column=8 end_column=67}\n2 {file_name_id=1 function_name_id=2 line=184 end_line=184 column=21 end_column=74}\n3 {file_name_id=1 function_name_id=3 line=83 end_line=83 column=13 end_column=44}\n4 {file_name_id=2 function_name_id=4 line=82 end_line=82 column=14 end_column=35}\n5 {file_name_id=3 function_name_id=5 line=6 end_line=6 column=11 end_column=20}\n\nStackFrames\n1 {file_location_id=1 parent_frame_id=1}\n2 {file_location_id=2 parent_frame_id=2}\n3 {file_location_id=3 parent_frame_id=3}\n4 {file_location_id=4 parent_frame_id=4}\n5 {file_location_id=5 parent_frame_id=5}\n\n\n%fused_computation (param_0.1: f32[1024], param_1.2: f32[1024], param_2.1: f32[]) -> f32[1024] {\n  %param_2.1 = f32[] parameter(2)\n  %mul.5 = f32[1024]{0} broadcast(%param_2.1), dimensions={}, metadata={op_name=\"jit(scalar_arr_btzk)/jit(scalar_arr_btzk)/mul\" stack_frame_id=5}\n  %param_1.2 = f32[1024]{0} parameter(1)\n  %mul.4 = f32[1024]{0} multiply(%mul.5, %param_1.2), metadata={op_name=\"jit(scalar_arr_btzk)/jit(scalar_arr_btzk)/mul\" stack_frame_id=5}\n  %param_0.1 = f32[1024]{0} parameter(0)\n  ROOT %sub.2 = f32[1024]{0} subtract(%mul.4, %param_0.1), metadata={op_name=\"jit(scalar_arr_btzk)/jit(scalar_arr_btzk)/sub\" stack_frame_id=5}\n}\n\nENTRY %main.2 (alpha.1: f32[], x.1: f32[1024], y.1: f32[1024]) -> f32[1024] {\n  %alpha.1 = f32[] parameter(0), metadata={op_name=\"alpha\"}\n  %x.1 = f32[1024]{0} parameter(1), metadata={op_name=\"x\"}\n  %y.1 = f32[1024]{0} parameter(2), metadata={op_name=\"y\"}\n  ROOT %multiply_subtract_fusion = f32[1024]{0} fusion(%y.1, %x.1, %alpha.1), kind=kLoop, calls=%fused_computation, metadata={op_name=\"jit(scalar_arr_btzk)/jit(scalar_arr_btzk)/sub\" stack_frame_id=5}\n}\n\n", "ptx": null}
{"id": 26, "kernel_name": "multi_tytx", "python": "@jax.jit\ndef multi_tytx(a, b):\n    temp1 = a + b\n    temp2 = jnp.abs(temp1)\n    return temp2 * a", "type": "generate_multi_statement_kernel", "hlo": "module @jit_multi_tytx attributes {mhlo.num_partitions = 1 : i32, mhlo.num_replicas = 1 : i32} {\n  func.func public @main(%arg0: tensor<1024xf32>, %arg1: tensor<1024xf32>) -> (tensor<1024xf32> {jax.result_info = \"result\"}) {\n    %0 = call @multi_tytx(%arg0, %arg1) : (tensor<1024xf32>, tensor<1024xf32>) -> tensor<1024xf32>\n    return %0 : tensor<1024xf32>\n  }\n  func.func private @multi_tytx(%arg0: tensor<1024xf32>, %arg1: tensor<1024xf32>) -> tensor<1024xf32> {\n    %0 = stablehlo.add %arg0, %arg1 : tensor<1024xf32>\n    %1 = stablehlo.abs %0 : tensor<1024xf32>\n    %2 = stablehlo.multiply %1, %arg0 : tensor<1024xf32>\n    return %2 : tensor<1024xf32>\n  }\n}\n", "llvm": "HloModule jit_multi_tytx, is_scheduled=true, entry_computation_layout={(f32[1024]{0}, f32[1024]{0})->f32[1024]{0}}, allow_spmd_sharding_propagation_to_parameters={true,true}, allow_spmd_sharding_propagation_to_output={true}\n\nFileNames\n1 \"/workspace/jit/code/synthesis/jax_pipeline.py\"\n2 \"/workspace/jit/code/extraction/jax_ir_extractor.py\"\n3 \"/tmp/tmp53ioqs55.py\"\n\nFunctionNames\n1 \"<module>\"\n2 \"generate_batch_to_jsonl\"\n3 \"extract_ir_from_source\"\n4 \"extract_ir\"\n5 \"multi_tytx\"\n\nFileLocations\n1 {file_name_id=1 function_name_id=1 line=223 end_line=223 column=8 end_column=67}\n2 {file_name_id=1 function_name_id=2 line=184 end_line=184 column=21 end_column=74}\n3 {file_name_id=1 function_name_id=3 line=83 end_line=83 column=13 end_column=44}\n4 {file_name_id=2 function_name_id=4 line=82 end_line=82 column=14 end_column=35}\n5 {file_name_id=3 function_name_id=5 line=6 end_line=6 column=12 end_column=17}\n6 {file_name_id=3 function_name_id=5 line=7 end_line=7 column=12 end_column=26}\n7 {file_name_id=3 function_name_id=5 line=8 end_line=8 column=11 end_column=20}\n\nStackFrames\n1 {file_location_id=1 parent_frame_id=1}\n2 {file_location_id=2 parent_frame_id=2}\n3 {file_location_id=3 parent_frame_id=3}\n4 {file_location_id=4 parent_frame_id=4}\n5 {file_location_id=5 parent_frame_id=5}\n6 {file_location_id=6 parent_frame_id=5}\n7 {file_location_id=7 parent_frame_id=5}\n\n\n%fused_computation (param_0.1: f32[1024], param_1.2: f32[1024]) -> f32[1024] {\n  %param_0.1 = f32[1024]{0} parameter(0)\n  %param_1.2 = f32[1024]{0} parameter(1)\n  %add.2 = f32[1024]{0} add(%param_0.1, %param_1.2), metadata={op_name=\"jit(multi_tytx)/jit(multi_tytx)/add\" stack_frame_id=5}\n  %abs.2 = f32[1024]{0} abs(%add.2), metadata={op_name=\"jit(multi_tytx)/jit(multi_tytx)/abs\" stack_frame_id=6}\n  ROOT %mul.2 = f32[1024]{0} multiply(%abs.2, %param_0.1), metadata={op_name=\"jit(multi_tytx)/jit(multi_tytx)/mul\" stack_frame_id=7}\n}\n\nENTRY %main.2 (a.1: f32[1024], b.1: f32[1024]) -> f32[1024] {\n  %a.1 = f32[1024]{0} parameter(0), metadata={op_name=\"a\"}\n  %b.1 = f32[1024]{0} parameter(1), metadata={op_name=\"b\"}\n  ROOT %abs_multiply_fusion = f32[1024]{0} fusion(%a.1, %b.1), kind=kLoop, calls=%fused_computation, metadata={op_name=\"jit(multi_tytx)/jit(multi_tytx)/mul\" stack_frame_id=7}\n}\n\n", "ptx": null}
{"id": 27, "kernel_name": "elementwise_rcep", "python": "@jax.jit\ndef elementwise_rcep(a, b):\n    return a - b", "type": "generate_simple_elementwise", "hlo": "module @jit_elementwise_rcep attributes {mhlo.num_partitions = 1 : i32, mhlo.num_replicas = 1 : i32} {\n  func.func public @main(%arg0: tensor<1024xf32>, %arg1: tensor<1024xf32>) -> (tensor<1024xf32> {jax.result_info = \"result\"}) {\n    %0 = call @elementwise_rcep(%arg0, %arg1) : (tensor<1024xf32>, tensor<1024xf32>) -> tensor<1024xf32>\n    return %0 : tensor<1024xf32>\n  }\n  func.func private @elementwise_rcep(%arg0: tensor<1024xf32>, %arg1: tensor<1024xf32>) -> tensor<1024xf32> {\n    %0 = stablehlo.subtract %arg0, %arg1 : tensor<1024xf32>\n    return %0 : tensor<1024xf32>\n  }\n}\n", "llvm": "HloModule jit_elementwise_rcep, is_scheduled=true, entry_computation_layout={(f32[1024]{0}, f32[1024]{0})->f32[1024]{0}}, allow_spmd_sharding_propagation_to_parameters={true,true}, allow_spmd_sharding_propagation_to_output={true}\n\nFileNames\n1 \"/workspace/jit/code/synthesis/jax_pipeline.py\"\n2 \"/workspace/jit/code/extraction/jax_ir_extractor.py\"\n3 \"/tmp/tmpwngtqm_i.py\"\n\nFunctionNames\n1 \"<module>\"\n2 \"generate_batch_to_jsonl\"\n3 \"extract_ir_from_source\"\n4 \"extract_ir\"\n5 \"elementwise_rcep\"\n\nFileLocations\n1 {file_name_id=1 function_name_id=1 line=223 end_line=223 column=8 end_column=67}\n2 {file_name_id=1 function_name_id=2 line=184 end_line=184 column=21 end_column=74}\n3 {file_name_id=1 function_name_id=3 line=83 end_line=83 column=13 end_column=44}\n4 {file_name_id=2 function_name_id=4 line=82 end_line=82 column=14 end_column=35}\n5 {file_name_id=3 function_name_id=5 line=6 end_line=6 column=11 end_column=16}\n\nStackFrames\n1 {file_location_id=1 parent_frame_id=1}\n2 {file_location_id=2 parent_frame_id=2}\n3 {file_location_id=3 parent_frame_id=3}\n4 {file_location_id=4 parent_frame_id=4}\n5 {file_location_id=5 parent_frame_id=5}\n\n\n%wrapped_subtract_computation (param_0: f32[1024], param_1: f32[1024]) -> f32[1024] {\n  %param_0 = f32[1024]{0} parameter(0)\n  %param_1 = f32[1024]{0} parameter(1)\n  ROOT %sub.2 = f32[1024]{0} subtract(%param_0, %param_1), metadata={op_name=\"jit(elementwise_rcep)/jit(elementwise_rcep)/sub\" stack_frame_id=5}\n}\n\nENTRY %main.2 (a.1: f32[1024], b.1: f32[1024]) -> f32[1024] {\n  %a.1 = f32[1024]{0} parameter(0), metadata={op_name=\"a\"}\n  %b.1 = f32[1024]{0} parameter(1), metadata={op_name=\"b\"}\n  ROOT %wrapped_subtract = f32[1024]{0} fusion(%a.1, %b.1), kind=kLoop, calls=%wrapped_subtract_computation, metadata={op_name=\"jit(elementwise_rcep)/jit(elementwise_rcep)/sub\" stack_frame_id=5}\n}\n\n", "ptx": null}
{"id": 28, "kernel_name": "scalar_arr_xhld", "python": "@jax.jit\ndef scalar_arr_xhld(alpha, x, y):\n    return alpha + x + y", "type": "generate_scalar_array_op", "hlo": "module @jit_scalar_arr_xhld attributes {mhlo.num_partitions = 1 : i32, mhlo.num_replicas = 1 : i32} {\n  func.func public @main(%arg0: tensor<f32>, %arg1: tensor<1024xf32>, %arg2: tensor<1024xf32>) -> (tensor<1024xf32> {jax.result_info = \"result\"}) {\n    %0 = call @scalar_arr_xhld(%arg0, %arg1, %arg2) : (tensor<f32>, tensor<1024xf32>, tensor<1024xf32>) -> tensor<1024xf32>\n    return %0 : tensor<1024xf32>\n  }\n  func.func private @scalar_arr_xhld(%arg0: tensor<f32>, %arg1: tensor<1024xf32>, %arg2: tensor<1024xf32>) -> tensor<1024xf32> {\n    %0 = stablehlo.convert %arg0 : tensor<f32>\n    %1 = stablehlo.broadcast_in_dim %0, dims = [] : (tensor<f32>) -> tensor<1024xf32>\n    %2 = stablehlo.add %1, %arg1 : tensor<1024xf32>\n    %3 = stablehlo.add %2, %arg2 : tensor<1024xf32>\n    return %3 : tensor<1024xf32>\n  }\n}\n", "llvm": "HloModule jit_scalar_arr_xhld, is_scheduled=true, entry_computation_layout={(f32[], f32[1024]{0}, f32[1024]{0})->f32[1024]{0}}, allow_spmd_sharding_propagation_to_parameters={true,true,true}, allow_spmd_sharding_propagation_to_output={true}\n\nFileNames\n1 \"/workspace/jit/code/synthesis/jax_pipeline.py\"\n2 \"/workspace/jit/code/extraction/jax_ir_extractor.py\"\n3 \"/tmp/tmpfng4kqkx.py\"\n\nFunctionNames\n1 \"<module>\"\n2 \"generate_batch_to_jsonl\"\n3 \"extract_ir_from_source\"\n4 \"extract_ir\"\n5 \"scalar_arr_xhld\"\n\nFileLocations\n1 {file_name_id=1 function_name_id=1 line=223 end_line=223 column=8 end_column=67}\n2 {file_name_id=1 function_name_id=2 line=184 end_line=184 column=21 end_column=74}\n3 {file_name_id=1 function_name_id=3 line=83 end_line=83 column=13 end_column=44}\n4 {file_name_id=2 function_name_id=4 line=82 end_line=82 column=14 end_column=35}\n5 {file_name_id=3 function_name_id=5 line=6 end_line=6 column=11 end_column=20}\n\nStackFrames\n1 {file_location_id=1 parent_frame_id=1}\n2 {file_location_id=2 parent_frame_id=2}\n3 {file_location_id=3 parent_frame_id=3}\n4 {file_location_id=4 parent_frame_id=4}\n5 {file_location_id=5 parent_frame_id=5}\n\n\n%fused_computation (param_0.1: f32[1024], param_1.2: f32[1024], param_2.1: f32[]) -> f32[1024] {\n  %param_2.1 = f32[] parameter(2)\n  %add.8 = f32[1024]{0} broadcast(%param_2.1), dimensions={}, metadata={op_name=\"jit(scalar_arr_xhld)/jit(scalar_arr_xhld)/add\" stack_frame_id=5}\n  %param_1.2 = f32[1024]{0} parameter(1)\n  %add.7 = f32[1024]{0} add(%add.8, %param_1.2), metadata={op_name=\"jit(scalar_arr_xhld)/jit(scalar_arr_xhld)/add\" stack_frame_id=5}\n  %param_0.1 = f32[1024]{0} parameter(0)\n  ROOT %add.6 = f32[1024]{0} add(%add.7, %param_0.1), metadata={op_name=\"jit(scalar_arr_xhld)/jit(scalar_arr_xhld)/add\" stack_frame_id=5}\n}\n\nENTRY %main.2 (alpha.1: f32[], x.1: f32[1024], y.1: f32[1024]) -> f32[1024] {\n  %alpha.1 = f32[] parameter(0), metadata={op_name=\"alpha\"}\n  %x.1 = f32[1024]{0} parameter(1), metadata={op_name=\"x\"}\n  %y.1 = f32[1024]{0} parameter(2), metadata={op_name=\"y\"}\n  ROOT %add_add_fusion = f32[1024]{0} fusion(%y.1, %x.1, %alpha.1), kind=kLoop, calls=%fused_computation, metadata={op_name=\"jit(scalar_arr_xhld)/jit(scalar_arr_xhld)/add\" stack_frame_id=5}\n}\n\n", "ptx": null}
{"id": 29, "kernel_name": "reduce_iqaz", "python": "@jax.jit\ndef reduce_iqaz(a):\n    return jnp.sum(a)", "type": "generate_reduction_kernel", "hlo": "module @jit_reduce_iqaz attributes {mhlo.num_partitions = 1 : i32, mhlo.num_replicas = 1 : i32} {\n  func.func public @main(%arg0: tensor<1024xf32>) -> (tensor<f32> {jax.result_info = \"result\"}) {\n    %0 = call @reduce_iqaz(%arg0) : (tensor<1024xf32>) -> tensor<f32>\n    return %0 : tensor<f32>\n  }\n  func.func private @reduce_iqaz(%arg0: tensor<1024xf32>) -> tensor<f32> {\n    %cst = stablehlo.constant dense<0.000000e+00> : tensor<f32>\n    %0 = stablehlo.reduce(%arg0 init: %cst) applies stablehlo.add across dimensions = [0] : (tensor<1024xf32>, tensor<f32>) -> tensor<f32>\n    return %0 : tensor<f32>\n  }\n}\n", "llvm": "HloModule jit_reduce_iqaz, is_scheduled=true, entry_computation_layout={(f32[1024]{0})->f32[]}, allow_spmd_sharding_propagation_to_parameters={true}, allow_spmd_sharding_propagation_to_output={true}\n\nFileNames\n1 \"/workspace/jit/code/synthesis/jax_pipeline.py\"\n2 \"/workspace/jit/code/extraction/jax_ir_extractor.py\"\n3 \"/tmp/tmpqmyvbu7j.py\"\n\nFunctionNames\n1 \"<module>\"\n2 \"generate_batch_to_jsonl\"\n3 \"extract_ir_from_source\"\n4 \"extract_ir\"\n5 \"reduce_iqaz\"\n\nFileLocations\n1 {file_name_id=1 function_name_id=1 line=223 end_line=223 column=8 end_column=67}\n2 {file_name_id=1 function_name_id=2 line=184 end_line=184 column=21 end_column=74}\n3 {file_name_id=1 function_name_id=3 line=83 end_line=83 column=13 end_column=44}\n4 {file_name_id=2 function_name_id=4 line=82 end_line=82 column=14 end_column=35}\n5 {file_name_id=3 function_name_id=5 line=6 end_line=6 column=11 end_column=21}\n\nStackFrames\n1 {file_location_id=1 parent_frame_id=1}\n2 {file_location_id=2 parent_frame_id=2}\n3 {file_location_id=3 parent_frame_id=3}\n4 {file_location_id=4 parent_frame_id=4}\n5 {file_location_id=5 parent_frame_id=5}\n\n\n%region_0.1 (reduce_sum.3: f32[], reduce_sum.4: f32[]) -> f32[] {\n  %reduce_sum.3 = f32[] parameter(0), metadata={op_name=\"reduce_sum\"}\n  %reduce_sum.4 = f32[] parameter(1), metadata={op_name=\"reduce_sum\"}\n  ROOT %reduce_sum.5 = f32[] add(%reduce_sum.3, %reduce_sum.4), metadata={op_name=\"reduce_sum\" stack_frame_id=5}\n}\n\n%wrapped_reduce-window_computation (param_0: f32[1024], param_1: f32[]) -> f32[32] {\n  %param_0 = f32[1024]{0} parameter(0)\n  %param_1 = f32[] parameter(1)\n  ROOT %reduce-window.1 = f32[32]{0} reduce-window(%param_0, %param_1), window={size=32 stride=32}, to_apply=%region_0.1\n}\n\n%region_0.1.clone (reduce_sum.1: f32[], reduce_sum.2: f32[]) -> f32[] {\n  %reduce_sum.1 = f32[] parameter(0), metadata={op_name=\"reduce_sum\"}\n  %reduce_sum.2 = f32[] parameter(1), metadata={op_name=\"reduce_sum\"}\n  ROOT %reduce_sum.6 = f32[] add(%reduce_sum.1, %reduce_sum.2), metadata={op_name=\"reduce_sum\" stack_frame_id=5}\n}\n\n%wrapped_reduce_computation (param_0.1: f32[32], param_1.1: f32[]) -> f32[] {\n  %param_0.1 = f32[32]{0} parameter(0)\n  %param_1.1 = f32[] parameter(1)\n  ROOT %reduce_sum.8 = f32[] reduce(%param_0.1, %param_1.1), dimensions={0}, to_apply=%region_0.1.clone, metadata={op_name=\"jit(reduce_iqaz)/jit(reduce_iqaz)/reduce_sum\" stack_frame_id=5}\n}\n\nENTRY %main.3 (a.1: f32[1024]) -> f32[] {\n  %a.1 = f32[1024]{0} parameter(0), metadata={op_name=\"a\"}\n  %constant.0 = f32[] constant(0), metadata={op_name=\"jit(reduce_iqaz)/jit(reduce_iqaz)\"}\n  %wrapped_reduce-window = f32[32]{0} fusion(%a.1, %constant.0), kind=kLoop, calls=%wrapped_reduce-window_computation\n  ROOT %wrapped_reduce = f32[] fusion(%wrapped_reduce-window, %constant.0), kind=kLoop, calls=%wrapped_reduce_computation, metadata={op_name=\"jit(reduce_iqaz)/jit(reduce_iqaz)/reduce_sum\" stack_frame_id=5}\n}\n\n", "ptx": null}
{"id": 30, "kernel_name": "scalar_arr_bpzi", "python": "@jax.jit\ndef scalar_arr_bpzi(alpha, x, y):\n    return alpha * x * y", "type": "generate_scalar_array_op", "hlo": "module @jit_scalar_arr_bpzi attributes {mhlo.num_partitions = 1 : i32, mhlo.num_replicas = 1 : i32} {\n  func.func public @main(%arg0: tensor<f32>, %arg1: tensor<1024xf32>, %arg2: tensor<1024xf32>) -> (tensor<1024xf32> {jax.result_info = \"result\"}) {\n    %0 = call @scalar_arr_bpzi(%arg0, %arg1, %arg2) : (tensor<f32>, tensor<1024xf32>, tensor<1024xf32>) -> tensor<1024xf32>\n    return %0 : tensor<1024xf32>\n  }\n  func.func private @scalar_arr_bpzi(%arg0: tensor<f32>, %arg1: tensor<1024xf32>, %arg2: tensor<1024xf32>) -> tensor<1024xf32> {\n    %0 = stablehlo.convert %arg0 : tensor<f32>\n    %1 = stablehlo.broadcast_in_dim %0, dims = [] : (tensor<f32>) -> tensor<1024xf32>\n    %2 = stablehlo.multiply %1, %arg1 : tensor<1024xf32>\n    %3 = stablehlo.multiply %2, %arg2 : tensor<1024xf32>\n    return %3 : tensor<1024xf32>\n  }\n}\n", "llvm": "HloModule jit_scalar_arr_bpzi, is_scheduled=true, entry_computation_layout={(f32[], f32[1024]{0}, f32[1024]{0})->f32[1024]{0}}, allow_spmd_sharding_propagation_to_parameters={true,true,true}, allow_spmd_sharding_propagation_to_output={true}\n\nFileNames\n1 \"/workspace/jit/code/synthesis/jax_pipeline.py\"\n2 \"/workspace/jit/code/extraction/jax_ir_extractor.py\"\n3 \"/tmp/tmpd02z9ud5.py\"\n\nFunctionNames\n1 \"<module>\"\n2 \"generate_batch_to_jsonl\"\n3 \"extract_ir_from_source\"\n4 \"extract_ir\"\n5 \"scalar_arr_bpzi\"\n\nFileLocations\n1 {file_name_id=1 function_name_id=1 line=223 end_line=223 column=8 end_column=67}\n2 {file_name_id=1 function_name_id=2 line=184 end_line=184 column=21 end_column=74}\n3 {file_name_id=1 function_name_id=3 line=83 end_line=83 column=13 end_column=44}\n4 {file_name_id=2 function_name_id=4 line=82 end_line=82 column=14 end_column=35}\n5 {file_name_id=3 function_name_id=5 line=6 end_line=6 column=11 end_column=20}\n\nStackFrames\n1 {file_location_id=1 parent_frame_id=1}\n2 {file_location_id=2 parent_frame_id=2}\n3 {file_location_id=3 parent_frame_id=3}\n4 {file_location_id=4 parent_frame_id=4}\n5 {file_location_id=5 parent_frame_id=5}\n\n\n%fused_computation (param_0.1: f32[1024], param_1.2: f32[1024], param_2.1: f32[]) -> f32[1024] {\n  %param_2.1 = f32[] parameter(2)\n  %mul.8 = f32[1024]{0} broadcast(%param_2.1), dimensions={}, metadata={op_name=\"jit(scalar_arr_bpzi)/jit(scalar_arr_bpzi)/mul\" stack_frame_id=5}\n  %param_1.2 = f32[1024]{0} parameter(1)\n  %mul.7 = f32[1024]{0} multiply(%mul.8, %param_1.2), metadata={op_name=\"jit(scalar_arr_bpzi)/jit(scalar_arr_bpzi)/mul\" stack_frame_id=5}\n  %param_0.1 = f32[1024]{0} parameter(0)\n  ROOT %mul.6 = f32[1024]{0} multiply(%mul.7, %param_0.1), metadata={op_name=\"jit(scalar_arr_bpzi)/jit(scalar_arr_bpzi)/mul\" stack_frame_id=5}\n}\n\nENTRY %main.2 (alpha.1: f32[], x.1: f32[1024], y.1: f32[1024]) -> f32[1024] {\n  %alpha.1 = f32[] parameter(0), metadata={op_name=\"alpha\"}\n  %x.1 = f32[1024]{0} parameter(1), metadata={op_name=\"x\"}\n  %y.1 = f32[1024]{0} parameter(2), metadata={op_name=\"y\"}\n  ROOT %multiply_multiply_fusion = f32[1024]{0} fusion(%y.1, %x.1, %alpha.1), kind=kLoop, calls=%fused_computation, metadata={op_name=\"jit(scalar_arr_bpzi)/jit(scalar_arr_bpzi)/mul\" stack_frame_id=5}\n}\n\n", "ptx": null}
{"id": 31, "kernel_name": "loop_hnol", "python": "@jax.jit\ndef loop_hnol(a, n):\n    def body_fun(i, val):\n        return val * a\n    # Initial value matches a's shape/type but zeroed\n    init_val = jnp.zeros_like(a)\n    return jax.lax.fori_loop(0, n, body_fun, init_val)", "type": "generate_loop_kernel", "hlo": "module @jit_loop_hnol attributes {mhlo.num_partitions = 1 : i32, mhlo.num_replicas = 1 : i32} {\n  func.func public @main(%arg0: tensor<1024xf32>, %arg1: tensor<i32>) -> (tensor<1024xf32> {jax.result_info = \"result\"}) {\n    %0 = call @loop_hnol(%arg0, %arg1) : (tensor<1024xf32>, tensor<i32>) -> tensor<1024xf32>\n    return %0 : tensor<1024xf32>\n  }\n  func.func private @loop_hnol(%arg0: tensor<1024xf32>, %arg1: tensor<i32>) -> tensor<1024xf32> {\n    %cst = stablehlo.constant dense<0.000000e+00> : tensor<f32>\n    %0 = stablehlo.broadcast_in_dim %cst, dims = [] : (tensor<f32>) -> tensor<1024xf32>\n    %c = stablehlo.constant dense<0> : tensor<i32>\n    %1:4 = stablehlo.while(%iterArg = %arg0, %iterArg_0 = %c, %iterArg_1 = %arg1, %iterArg_2 = %0) : tensor<1024xf32>, tensor<i32>, tensor<i32>, tensor<1024xf32>\n    cond {\n      %2 = stablehlo.compare  LT, %iterArg_0, %iterArg_1,  SIGNED : (tensor<i32>, tensor<i32>) -> tensor<i1>\n      stablehlo.return %2 : tensor<i1>\n    } do {\n      %c_3 = stablehlo.constant dense<1> : tensor<i32>\n      %2 = stablehlo.add %iterArg_0, %c_3 : tensor<i32>\n      %3 = stablehlo.multiply %iterArg_2, %iterArg : tensor<1024xf32>\n      stablehlo.return %iterArg, %2, %iterArg_1, %3 : tensor<1024xf32>, tensor<i32>, tensor<i32>, tensor<1024xf32>\n    }\n    return %1#3 : tensor<1024xf32>\n  }\n}\n", "llvm": "HloModule jit_loop_hnol, is_scheduled=true, entry_computation_layout={(f32[1024]{0}, s32[])->f32[1024]{0}}, allow_spmd_sharding_propagation_to_parameters={true,true}, allow_spmd_sharding_propagation_to_output={true}\n\nFileNames\n1 \"/workspace/jit/code/synthesis/jax_pipeline.py\"\n2 \"/workspace/jit/code/extraction/jax_ir_extractor.py\"\n3 \"/tmp/tmpwo3ru5u4.py\"\n\nFunctionNames\n1 \"<module>\"\n2 \"generate_batch_to_jsonl\"\n3 \"extract_ir_from_source\"\n4 \"extract_ir\"\n5 \"loop_hnol\"\n\nFileLocations\n1 {file_name_id=1 function_name_id=1 line=223 end_line=223 column=8 end_column=67}\n2 {file_name_id=1 function_name_id=2 line=184 end_line=184 column=21 end_column=74}\n3 {file_name_id=1 function_name_id=3 line=83 end_line=83 column=13 end_column=44}\n4 {file_name_id=2 function_name_id=4 line=82 end_line=82 column=14 end_column=35}\n5 {file_name_id=3 function_name_id=5 line=9 end_line=9 column=15 end_column=32}\n6 {file_name_id=3 function_name_id=5 line=10 end_line=10 column=11 end_column=54}\n\nStackFrames\n1 {file_location_id=1 parent_frame_id=1}\n2 {file_location_id=2 parent_frame_id=2}\n3 {file_location_id=3 parent_frame_id=3}\n4 {file_location_id=4 parent_frame_id=4}\n5 {file_location_id=5 parent_frame_id=5}\n6 {file_location_id=6 parent_frame_id=5}\n\n\n%wrapped_add_computation (param_0.1: s32[], param_1: s32[]) -> s32[] {\n  %param_0.1 = s32[] parameter(0)\n  %param_1 = s32[] parameter(1)\n  ROOT %add.0 = s32[] add(%param_0.1, %param_1), metadata={op_name=\"jit(loop_hnol)/jit(loop_hnol)/while/body/add\" stack_frame_id=6}\n}\n\n%wrapped_multiply_computation (param_0.2: f32[1024], param_1.1: f32[1024]) -> f32[1024] {\n  %param_0.2 = f32[1024]{0} parameter(0)\n  %param_1.1 = f32[1024]{0} parameter(1)\n  ROOT %mul.0 = f32[1024]{0} multiply(%param_0.2, %param_1.1), metadata={op_name=\"jit(loop_hnol)/jit(loop_hnol)/while/body/mul\" stack_frame_id=6}\n}\n\n%region_0.1 (arg_tuple.1: (s32[], f32[1024], s32[], f32[1024])) -> (s32[], f32[1024], s32[], f32[1024]) {\n  %arg_tuple.1 = (s32[], f32[1024]{0}, s32[], f32[1024]{0}) parameter(0), metadata={op_name=\"jit(loop_hnol)/jit(loop_hnol)\"}\n  %constant.3 = s32[] constant(1), metadata={op_name=\"jit(loop_hnol)/jit(loop_hnol)\"}\n  %get-tuple-element.19 = f32[1024]{0} get-tuple-element(%arg_tuple.1), index=3, metadata={op_name=\"jit(loop_hnol)/jit(loop_hnol)\"}\n  %get-tuple-element.18 = s32[] get-tuple-element(%arg_tuple.1), index=2, metadata={op_name=\"jit(loop_hnol)/jit(loop_hnol)\"}\n  %get-tuple-element.9 = f32[1024]{0} get-tuple-element(%arg_tuple.1), index=1\n  %get-tuple-element.8 = s32[] get-tuple-element(%arg_tuple.1), index=0\n  %wrapped_multiply = f32[1024]{0} fusion(%get-tuple-element.9, %get-tuple-element.19), kind=kLoop, calls=%wrapped_multiply_computation, metadata={op_name=\"jit(loop_hnol)/jit(loop_hnol)/while/body/mul\" stack_frame_id=6}\n  %wrapped_add = s32[] fusion(%get-tuple-element.8, %constant.3), kind=kLoop, calls=%wrapped_add_computation, metadata={op_name=\"jit(loop_hnol)/jit(loop_hnol)/while/body/add\" stack_frame_id=6}\n  ROOT %tuple.3 = (s32[], f32[1024]{0}, s32[], f32[1024]{0}) tuple(%wrapped_add, %wrapped_multiply, %get-tuple-element.18, %get-tuple-element.19)\n}\n\n%wrapped_compare_computation (param_0.3: s32[], param_1.2: s32[]) -> pred[] {\n  %param_0.3 = s32[] parameter(0)\n  %param_1.2 = s32[] parameter(1)\n  ROOT %lt.0 = pred[] compare(%param_0.3, %param_1.2), direction=LT, metadata={op_name=\"jit(loop_hnol)/jit(loop_hnol)/while/cond/lt\" stack_frame_id=6}\n}\n\n%region_1.2 (arg_tuple.3: (s32[], f32[1024], s32[], f32[1024])) -> pred[] {\n  %arg_tuple.3 = (s32[], f32[1024]{0}, s32[], f32[1024]{0}) parameter(0), metadata={op_name=\"jit(loop_hnol)/jit(loop_hnol)\"}\n  %get-tuple-element.14 = s32[] get-tuple-element(%arg_tuple.3), index=2, metadata={op_name=\"jit(loop_hnol)/jit(loop_hnol)\"}\n  %get-tuple-element.12 = s32[] get-tuple-element(%arg_tuple.3), index=0, metadata={op_name=\"jit(loop_hnol)/jit(loop_hnol)\"}\n  ROOT %wrapped_compare = pred[] fusion(%get-tuple-element.12, %get-tuple-element.14), kind=kLoop, calls=%wrapped_compare_computation, metadata={op_name=\"jit(loop_hnol)/jit(loop_hnol)/while/cond/lt\" stack_frame_id=6}\n}\n\n%wrapped_broadcast_computation (param_0: f32[]) -> f32[1024] {\n  %param_0 = f32[] parameter(0)\n  ROOT %broadcast_in_dim.2 = f32[1024]{0} broadcast(%param_0), dimensions={}, metadata={op_name=\"jit(loop_hnol)/jit(loop_hnol)/broadcast_in_dim\" stack_frame_id=5}\n}\n\nENTRY %main.4 (a.1: f32[1024], n.1: s32[]) -> f32[1024] {\n  %a.1 = f32[1024]{0} parameter(0), metadata={op_name=\"a\"}\n  %n.1 = s32[] parameter(1), metadata={op_name=\"n\"}\n  %constant.0 = s32[] constant(0), metadata={op_name=\"jit(loop_hnol)/jit(loop_hnol)\"}\n  %constant.1 = f32[] constant(0), metadata={op_name=\"jit(loop_hnol)/jit(loop_hnol)\"}\n  %copy.6 = s32[] copy(%constant.0)\n  %wrapped_broadcast = f32[1024]{0} fusion(%constant.1), kind=kLoop, calls=%wrapped_broadcast_computation, metadata={op_name=\"jit(loop_hnol)/jit(loop_hnol)/broadcast_in_dim\" stack_frame_id=5}\n  %tuple = (s32[], f32[1024]{0}, s32[], f32[1024]{0}) tuple(%copy.6, %wrapped_broadcast, %n.1, %a.1)\n  %while.1 = (s32[], f32[1024]{0}, s32[], f32[1024]{0}) while(%tuple), condition=%region_1.2, body=%region_0.1, metadata={op_name=\"jit(loop_hnol)/jit(loop_hnol)/while\" stack_frame_id=6}\n  ROOT %while.2 = f32[1024]{0} get-tuple-element(%while.1), index=1, metadata={op_name=\"jit(loop_hnol)/jit(loop_hnol)/while\" stack_frame_id=6}\n}\n\n", "ptx": null}
{"id": 32, "kernel_name": "compound_wncd", "python": "@jax.jit\ndef compound_wncd(a, b, scale):\n    x = a\n    y = b\n    result = (x + y) * scale\n    result = result - jnp.floor(result)\n    return jnp.abs(result)", "type": "generate_compound_kernel", "hlo": "module @jit_compound_wncd attributes {mhlo.num_partitions = 1 : i32, mhlo.num_replicas = 1 : i32} {\n  func.func public @main(%arg0: tensor<1024xf32>, %arg1: tensor<1024xf32>, %arg2: tensor<f32>) -> (tensor<1024xf32> {jax.result_info = \"result\"}) {\n    %0 = call @compound_wncd(%arg0, %arg1, %arg2) : (tensor<1024xf32>, tensor<1024xf32>, tensor<f32>) -> tensor<1024xf32>\n    return %0 : tensor<1024xf32>\n  }\n  func.func private @compound_wncd(%arg0: tensor<1024xf32>, %arg1: tensor<1024xf32>, %arg2: tensor<f32>) -> tensor<1024xf32> {\n    %0 = stablehlo.add %arg0, %arg1 : tensor<1024xf32>\n    %1 = stablehlo.convert %arg2 : tensor<f32>\n    %2 = stablehlo.broadcast_in_dim %1, dims = [] : (tensor<f32>) -> tensor<1024xf32>\n    %3 = stablehlo.multiply %0, %2 : tensor<1024xf32>\n    %4 = stablehlo.floor %3 : tensor<1024xf32>\n    %5 = stablehlo.subtract %3, %4 : tensor<1024xf32>\n    %6 = stablehlo.abs %5 : tensor<1024xf32>\n    return %6 : tensor<1024xf32>\n  }\n}\n", "llvm": "HloModule jit_compound_wncd, is_scheduled=true, entry_computation_layout={(f32[1024]{0}, f32[1024]{0}, f32[])->f32[1024]{0}}, allow_spmd_sharding_propagation_to_parameters={true,true,true}, allow_spmd_sharding_propagation_to_output={true}\n\nFileNames\n1 \"/workspace/jit/code/synthesis/jax_pipeline.py\"\n2 \"/workspace/jit/code/extraction/jax_ir_extractor.py\"\n3 \"/tmp/tmpts7m4oy7.py\"\n\nFunctionNames\n1 \"<module>\"\n2 \"generate_batch_to_jsonl\"\n3 \"extract_ir_from_source\"\n4 \"extract_ir\"\n5 \"compound_wncd\"\n\nFileLocations\n1 {file_name_id=1 function_name_id=1 line=223 end_line=223 column=8 end_column=67}\n2 {file_name_id=1 function_name_id=2 line=184 end_line=184 column=21 end_column=74}\n3 {file_name_id=1 function_name_id=3 line=83 end_line=83 column=13 end_column=44}\n4 {file_name_id=2 function_name_id=4 line=82 end_line=82 column=14 end_column=35}\n5 {file_name_id=3 function_name_id=5 line=8 end_line=8 column=14 end_column=19}\n6 {file_name_id=3 function_name_id=5 line=8 end_line=8 column=13 end_column=28}\n7 {file_name_id=3 function_name_id=5 line=9 end_line=9 column=22 end_column=39}\n8 {file_name_id=3 function_name_id=5 line=9 end_line=9 column=13 end_column=39}\n9 {file_name_id=3 function_name_id=5 line=10 end_line=10 column=11 end_column=26}\n\nStackFrames\n1 {file_location_id=1 parent_frame_id=1}\n2 {file_location_id=2 parent_frame_id=2}\n3 {file_location_id=3 parent_frame_id=3}\n4 {file_location_id=4 parent_frame_id=4}\n5 {file_location_id=5 parent_frame_id=5}\n6 {file_location_id=6 parent_frame_id=5}\n7 {file_location_id=7 parent_frame_id=5}\n8 {file_location_id=8 parent_frame_id=5}\n9 {file_location_id=9 parent_frame_id=5}\n\n\n%fused_computation (param_0.3: f32[], param_1.3: f32[1024], param_2: f32[1024]) -> f32[1024] {\n  %param_1.3 = f32[1024]{0} parameter(1)\n  %param_2 = f32[1024]{0} parameter(2)\n  %add.2 = f32[1024]{0} add(%param_1.3, %param_2), metadata={op_name=\"jit(compound_wncd)/jit(compound_wncd)/add\" stack_frame_id=5}\n  %param_0.3 = f32[] parameter(0)\n  %mul.5 = f32[1024]{0} broadcast(%param_0.3), dimensions={}, metadata={op_name=\"jit(compound_wncd)/jit(compound_wncd)/mul\" stack_frame_id=6}\n  %mul.4 = f32[1024]{0} multiply(%add.2, %mul.5), metadata={op_name=\"jit(compound_wncd)/jit(compound_wncd)/mul\" stack_frame_id=6}\n  %floor.2 = f32[1024]{0} floor(%mul.4), metadata={op_name=\"jit(compound_wncd)/jit(compound_wncd)/floor\" stack_frame_id=7}\n  %sub.2 = f32[1024]{0} subtract(%mul.4, %floor.2), metadata={op_name=\"jit(compound_wncd)/jit(compound_wncd)/sub\" stack_frame_id=8}\n  ROOT %abs.2 = f32[1024]{0} abs(%sub.2), metadata={op_name=\"jit(compound_wncd)/jit(compound_wncd)/abs\" stack_frame_id=9}\n}\n\nENTRY %main.2 (a.1: f32[1024], b.1: f32[1024], scale.1: f32[]) -> f32[1024] {\n  %a.1 = f32[1024]{0} parameter(0), metadata={op_name=\"a\"}\n  %b.1 = f32[1024]{0} parameter(1), metadata={op_name=\"b\"}\n  %scale.1 = f32[] parameter(2), metadata={op_name=\"scale\"}\n  ROOT %subtract_abs_fusion = f32[1024]{0} fusion(%scale.1, %a.1, %b.1), kind=kLoop, calls=%fused_computation, metadata={op_name=\"jit(compound_wncd)/jit(compound_wncd)/abs\" stack_frame_id=9}\n}\n\n", "ptx": null}
{"id": 33, "kernel_name": "multi_llbt", "python": "@jax.jit\ndef multi_llbt(a, b):\n    temp1 = a * b\n    temp2 = jnp.cos(temp1)\n    return temp2 * a", "type": "generate_multi_statement_kernel", "hlo": "module @jit_multi_llbt attributes {mhlo.num_partitions = 1 : i32, mhlo.num_replicas = 1 : i32} {\n  func.func public @main(%arg0: tensor<1024xf32>, %arg1: tensor<1024xf32>) -> (tensor<1024xf32> {jax.result_info = \"result\"}) {\n    %0 = call @multi_llbt(%arg0, %arg1) : (tensor<1024xf32>, tensor<1024xf32>) -> tensor<1024xf32>\n    return %0 : tensor<1024xf32>\n  }\n  func.func private @multi_llbt(%arg0: tensor<1024xf32>, %arg1: tensor<1024xf32>) -> tensor<1024xf32> {\n    %0 = stablehlo.multiply %arg0, %arg1 : tensor<1024xf32>\n    %1 = stablehlo.cosine %0 : tensor<1024xf32>\n    %2 = stablehlo.multiply %1, %arg0 : tensor<1024xf32>\n    return %2 : tensor<1024xf32>\n  }\n}\n", "llvm": "HloModule jit_multi_llbt, is_scheduled=true, entry_computation_layout={(f32[1024]{0}, f32[1024]{0})->f32[1024]{0}}, allow_spmd_sharding_propagation_to_parameters={true,true}, allow_spmd_sharding_propagation_to_output={true}\n\nFileNames\n1 \"/workspace/jit/code/synthesis/jax_pipeline.py\"\n2 \"/workspace/jit/code/extraction/jax_ir_extractor.py\"\n3 \"/tmp/tmpsiekroej.py\"\n\nFunctionNames\n1 \"<module>\"\n2 \"generate_batch_to_jsonl\"\n3 \"extract_ir_from_source\"\n4 \"extract_ir\"\n5 \"multi_llbt\"\n\nFileLocations\n1 {file_name_id=1 function_name_id=1 line=223 end_line=223 column=8 end_column=67}\n2 {file_name_id=1 function_name_id=2 line=184 end_line=184 column=21 end_column=74}\n3 {file_name_id=1 function_name_id=3 line=83 end_line=83 column=13 end_column=44}\n4 {file_name_id=2 function_name_id=4 line=82 end_line=82 column=14 end_column=35}\n5 {file_name_id=3 function_name_id=5 line=6 end_line=6 column=12 end_column=17}\n6 {file_name_id=3 function_name_id=5 line=7 end_line=7 column=12 end_column=26}\n7 {file_name_id=3 function_name_id=5 line=8 end_line=8 column=11 end_column=20}\n\nStackFrames\n1 {file_location_id=1 parent_frame_id=1}\n2 {file_location_id=2 parent_frame_id=2}\n3 {file_location_id=3 parent_frame_id=3}\n4 {file_location_id=4 parent_frame_id=4}\n5 {file_location_id=5 parent_frame_id=5}\n6 {file_location_id=6 parent_frame_id=5}\n7 {file_location_id=7 parent_frame_id=5}\n\n\n%fused_computation (param_0.1: f32[1024], param_1.2: f32[1024]) -> f32[1024] {\n  %param_0.1 = f32[1024]{0} parameter(0)\n  %param_1.2 = f32[1024]{0} parameter(1)\n  %mul.5 = f32[1024]{0} multiply(%param_0.1, %param_1.2), metadata={op_name=\"jit(multi_llbt)/jit(multi_llbt)/mul\" stack_frame_id=5}\n  %cos.2 = f32[1024]{0} cosine(%mul.5), metadata={op_name=\"jit(multi_llbt)/jit(multi_llbt)/cos\" stack_frame_id=6}\n  ROOT %mul.4 = f32[1024]{0} multiply(%cos.2, %param_0.1), metadata={op_name=\"jit(multi_llbt)/jit(multi_llbt)/mul\" stack_frame_id=7}\n}\n\nENTRY %main.2 (a.1: f32[1024], b.1: f32[1024]) -> f32[1024] {\n  %a.1 = f32[1024]{0} parameter(0), metadata={op_name=\"a\"}\n  %b.1 = f32[1024]{0} parameter(1), metadata={op_name=\"b\"}\n  ROOT %cosine_multiply_fusion = f32[1024]{0} fusion(%a.1, %b.1), kind=kLoop, calls=%fused_computation, metadata={op_name=\"jit(multi_llbt)/jit(multi_llbt)/mul\" stack_frame_id=7}\n}\n\n", "ptx": null}
{"id": 34, "kernel_name": "reduce_jyfh", "python": "@jax.jit\ndef reduce_jyfh(a):\n    return jnp.sum(a)", "type": "generate_reduction_kernel", "hlo": "module @jit_reduce_jyfh attributes {mhlo.num_partitions = 1 : i32, mhlo.num_replicas = 1 : i32} {\n  func.func public @main(%arg0: tensor<1024xf32>) -> (tensor<f32> {jax.result_info = \"result\"}) {\n    %0 = call @reduce_jyfh(%arg0) : (tensor<1024xf32>) -> tensor<f32>\n    return %0 : tensor<f32>\n  }\n  func.func private @reduce_jyfh(%arg0: tensor<1024xf32>) -> tensor<f32> {\n    %cst = stablehlo.constant dense<0.000000e+00> : tensor<f32>\n    %0 = stablehlo.reduce(%arg0 init: %cst) applies stablehlo.add across dimensions = [0] : (tensor<1024xf32>, tensor<f32>) -> tensor<f32>\n    return %0 : tensor<f32>\n  }\n}\n", "llvm": "HloModule jit_reduce_jyfh, is_scheduled=true, entry_computation_layout={(f32[1024]{0})->f32[]}, allow_spmd_sharding_propagation_to_parameters={true}, allow_spmd_sharding_propagation_to_output={true}\n\nFileNames\n1 \"/workspace/jit/code/synthesis/jax_pipeline.py\"\n2 \"/workspace/jit/code/extraction/jax_ir_extractor.py\"\n3 \"/tmp/tmpxl42cpqe.py\"\n\nFunctionNames\n1 \"<module>\"\n2 \"generate_batch_to_jsonl\"\n3 \"extract_ir_from_source\"\n4 \"extract_ir\"\n5 \"reduce_jyfh\"\n\nFileLocations\n1 {file_name_id=1 function_name_id=1 line=223 end_line=223 column=8 end_column=67}\n2 {file_name_id=1 function_name_id=2 line=184 end_line=184 column=21 end_column=74}\n3 {file_name_id=1 function_name_id=3 line=83 end_line=83 column=13 end_column=44}\n4 {file_name_id=2 function_name_id=4 line=82 end_line=82 column=14 end_column=35}\n5 {file_name_id=3 function_name_id=5 line=6 end_line=6 column=11 end_column=21}\n\nStackFrames\n1 {file_location_id=1 parent_frame_id=1}\n2 {file_location_id=2 parent_frame_id=2}\n3 {file_location_id=3 parent_frame_id=3}\n4 {file_location_id=4 parent_frame_id=4}\n5 {file_location_id=5 parent_frame_id=5}\n\n\n%region_0.1 (reduce_sum.3: f32[], reduce_sum.4: f32[]) -> f32[] {\n  %reduce_sum.3 = f32[] parameter(0), metadata={op_name=\"reduce_sum\"}\n  %reduce_sum.4 = f32[] parameter(1), metadata={op_name=\"reduce_sum\"}\n  ROOT %reduce_sum.5 = f32[] add(%reduce_sum.3, %reduce_sum.4), metadata={op_name=\"reduce_sum\" stack_frame_id=5}\n}\n\n%wrapped_reduce-window_computation (param_0: f32[1024], param_1: f32[]) -> f32[32] {\n  %param_0 = f32[1024]{0} parameter(0)\n  %param_1 = f32[] parameter(1)\n  ROOT %reduce-window.1 = f32[32]{0} reduce-window(%param_0, %param_1), window={size=32 stride=32}, to_apply=%region_0.1\n}\n\n%region_0.1.clone (reduce_sum.1: f32[], reduce_sum.2: f32[]) -> f32[] {\n  %reduce_sum.1 = f32[] parameter(0), metadata={op_name=\"reduce_sum\"}\n  %reduce_sum.2 = f32[] parameter(1), metadata={op_name=\"reduce_sum\"}\n  ROOT %reduce_sum.6 = f32[] add(%reduce_sum.1, %reduce_sum.2), metadata={op_name=\"reduce_sum\" stack_frame_id=5}\n}\n\n%wrapped_reduce_computation (param_0.1: f32[32], param_1.1: f32[]) -> f32[] {\n  %param_0.1 = f32[32]{0} parameter(0)\n  %param_1.1 = f32[] parameter(1)\n  ROOT %reduce_sum.8 = f32[] reduce(%param_0.1, %param_1.1), dimensions={0}, to_apply=%region_0.1.clone, metadata={op_name=\"jit(reduce_jyfh)/jit(reduce_jyfh)/reduce_sum\" stack_frame_id=5}\n}\n\nENTRY %main.3 (a.1: f32[1024]) -> f32[] {\n  %a.1 = f32[1024]{0} parameter(0), metadata={op_name=\"a\"}\n  %constant.0 = f32[] constant(0), metadata={op_name=\"jit(reduce_jyfh)/jit(reduce_jyfh)\"}\n  %wrapped_reduce-window = f32[32]{0} fusion(%a.1, %constant.0), kind=kLoop, calls=%wrapped_reduce-window_computation\n  ROOT %wrapped_reduce = f32[] fusion(%wrapped_reduce-window, %constant.0), kind=kLoop, calls=%wrapped_reduce_computation, metadata={op_name=\"jit(reduce_jyfh)/jit(reduce_jyfh)/reduce_sum\" stack_frame_id=5}\n}\n\n", "ptx": null}
{"id": 35, "kernel_name": "loop_uigv", "python": "@jax.jit\ndef loop_uigv(a, n):\n    def body_fun(i, val):\n        return val + a\n    # Initial value matches a's shape/type but zeroed\n    init_val = jnp.zeros_like(a)\n    return jax.lax.fori_loop(0, n, body_fun, init_val)", "type": "generate_loop_kernel", "hlo": "module @jit_loop_uigv attributes {mhlo.num_partitions = 1 : i32, mhlo.num_replicas = 1 : i32} {\n  func.func public @main(%arg0: tensor<1024xf32>, %arg1: tensor<i32>) -> (tensor<1024xf32> {jax.result_info = \"result\"}) {\n    %0 = call @loop_uigv(%arg0, %arg1) : (tensor<1024xf32>, tensor<i32>) -> tensor<1024xf32>\n    return %0 : tensor<1024xf32>\n  }\n  func.func private @loop_uigv(%arg0: tensor<1024xf32>, %arg1: tensor<i32>) -> tensor<1024xf32> {\n    %cst = stablehlo.constant dense<0.000000e+00> : tensor<f32>\n    %0 = stablehlo.broadcast_in_dim %cst, dims = [] : (tensor<f32>) -> tensor<1024xf32>\n    %c = stablehlo.constant dense<0> : tensor<i32>\n    %1:4 = stablehlo.while(%iterArg = %arg0, %iterArg_0 = %c, %iterArg_1 = %arg1, %iterArg_2 = %0) : tensor<1024xf32>, tensor<i32>, tensor<i32>, tensor<1024xf32>\n    cond {\n      %2 = stablehlo.compare  LT, %iterArg_0, %iterArg_1,  SIGNED : (tensor<i32>, tensor<i32>) -> tensor<i1>\n      stablehlo.return %2 : tensor<i1>\n    } do {\n      %c_3 = stablehlo.constant dense<1> : tensor<i32>\n      %2 = stablehlo.add %iterArg_0, %c_3 : tensor<i32>\n      %3 = stablehlo.add %iterArg_2, %iterArg : tensor<1024xf32>\n      stablehlo.return %iterArg, %2, %iterArg_1, %3 : tensor<1024xf32>, tensor<i32>, tensor<i32>, tensor<1024xf32>\n    }\n    return %1#3 : tensor<1024xf32>\n  }\n}\n", "llvm": "HloModule jit_loop_uigv, is_scheduled=true, entry_computation_layout={(f32[1024]{0}, s32[])->f32[1024]{0}}, allow_spmd_sharding_propagation_to_parameters={true,true}, allow_spmd_sharding_propagation_to_output={true}\n\nFileNames\n1 \"/workspace/jit/code/synthesis/jax_pipeline.py\"\n2 \"/workspace/jit/code/extraction/jax_ir_extractor.py\"\n3 \"/tmp/tmp07zlfbkh.py\"\n\nFunctionNames\n1 \"<module>\"\n2 \"generate_batch_to_jsonl\"\n3 \"extract_ir_from_source\"\n4 \"extract_ir\"\n5 \"loop_uigv\"\n\nFileLocations\n1 {file_name_id=1 function_name_id=1 line=223 end_line=223 column=8 end_column=67}\n2 {file_name_id=1 function_name_id=2 line=184 end_line=184 column=21 end_column=74}\n3 {file_name_id=1 function_name_id=3 line=83 end_line=83 column=13 end_column=44}\n4 {file_name_id=2 function_name_id=4 line=82 end_line=82 column=14 end_column=35}\n5 {file_name_id=3 function_name_id=5 line=9 end_line=9 column=15 end_column=32}\n6 {file_name_id=3 function_name_id=5 line=10 end_line=10 column=11 end_column=54}\n\nStackFrames\n1 {file_location_id=1 parent_frame_id=1}\n2 {file_location_id=2 parent_frame_id=2}\n3 {file_location_id=3 parent_frame_id=3}\n4 {file_location_id=4 parent_frame_id=4}\n5 {file_location_id=5 parent_frame_id=5}\n6 {file_location_id=6 parent_frame_id=5}\n\n\n%wrapped_add_computation (param_0.1: s32[], param_1: s32[]) -> s32[] {\n  %param_0.1 = s32[] parameter(0)\n  %param_1 = s32[] parameter(1)\n  ROOT %add.0 = s32[] add(%param_0.1, %param_1), metadata={op_name=\"jit(loop_uigv)/jit(loop_uigv)/while/body/add\" stack_frame_id=6}\n}\n\n%wrapped_add_computation.1 (param_0.2: f32[1024], param_1.1: f32[1024]) -> f32[1024] {\n  %param_0.2 = f32[1024]{0} parameter(0)\n  %param_1.1 = f32[1024]{0} parameter(1)\n  ROOT %add.1 = f32[1024]{0} add(%param_0.2, %param_1.1), metadata={op_name=\"jit(loop_uigv)…
hlo.constant dense<2.000000e+00> : tensor<f32>\n    %2 = stablehlo.broadcast_in_dim %cst_0, dims = [] : (tensor<f32>) -> tensor<1024xf32>\n    %3 = stablehlo.multiply %arg0, %2 : tensor<1024xf32>\n    %cst_1 = stablehlo.constant dense<5.200000e-01> : tensor<f32>\n    %4 = stablehlo.broadcast_in_dim %cst_1, dims = [] : (tensor<f32>) -> tensor<1024xf32>\n    %5 = stablehlo.compare  GT, %arg0, %4,  FLOAT : (tensor<1024xf32>, tensor<1024xf32>) -> tensor<1024xi1>\n    %6 = call @_where(%5, %1, %3) : (tensor<1024xi1>, tensor<1024xf32>, tensor<1024xf32>) -> tensor<1024xf32>\n    %cst_2 = stablehlo.constant dense<5.000000e-01> : tensor<f32>\n    %7 = stablehlo.broadcast_in_dim %cst_2, dims = [] : (tensor<f32>) -> tensor<1024xf32>\n    %8 = stablehlo.multiply %arg0, %7 : tensor<1024xf32>\n    %cst_3 = stablehlo.constant dense<1.500000e-01> : tensor<f32>\n    %9 = stablehlo.broadcast_in_dim %cst_3, dims = [] : (tensor<f32>) -> tensor<1024xf32>\n    %10 = stablehlo.compare  GT, %arg0, %9,  FLOAT : (tensor<1024xf32>, tensor<1024xf32>) -> tensor<1024xi1>\n    %11 = call @_where(%10, %6, %8) : (tensor<1024xi1>, tensor<1024xf32>, tensor<1024xf32>) -> tensor<1024xf32>\n    return %11 : tensor<1024xf32>\n  }\n  func.func private @_where(%arg0: tensor<1024xi1>, %arg1: tensor<1024xf32>, %arg2: tensor<1024xf32>) -> tensor<1024xf32> {\n    %0 = stablehlo.select %arg0, %arg1, %arg2 : tensor<1024xi1>, tensor<1024xf32>\n    return %0 : tensor<1024xf32>\n  }\n}\n", "llvm": "HloModule jit_nested_nhtu, is_scheduled=true, entry_computation_layout={(f32[1024]{0})->f32[1024]{0}}, allow_spmd_sharding_propagation_to_parameters={true}, allow_spmd_sharding_propagation_to_output={true}\n\nFileNames\n1 \"/workspace/jit/code/synthesis/jax_pipeline.py\"\n2 \"/workspace/jit/code/extraction/jax_ir_extractor.py\"\n3 \"/tmp/tmpuesa0f3a.py\"\n4 \"/tmp/tmp7nvd0zdg.py\"\n\nFunctionNames\n1 \"<module>\"\n2 \"generate_batch_to_jsonl\"\n3 \"extract_ir_from_source\"\n4 \"extract_ir\"\n5 \"nested_nhtu\"\n6 \"nested_odsh\"\n\nFileLocations\n1 {file_name_id=1 function_name_id=1 line=223 end_line=223 column=8 end_column=67}\n2 {file_name_id=1 function_name_id=2 line=184 end_line=184 column=21 end_column=74}\n3 {file_name_id=1 function_name_id=3 line=83 end_line=83 column=13 end_column=44}\n4 {file_name_id=2 function_name_id=4 line=82 end_line=82 column=14 end_column=35}\n5 {file_name_id=3 function_name_id=5 line=11 end_line=11 column=21 end_column=29}\n6 {file_name_id=3 function_name_id=5 line=10 end_line=10 column=18 end_column=25}\n7 {file_name_id=3 function_name_id=5 line=9 end_line=9 column=27 end_column=35}\n8 {file_name_id=3 function_name_id=5 line=8 end_line=8 column=18 end_column=25}\n9 {file_name_id=3 function_name_id=5 line=7 end_line=7 column=17 end_column=24}\n10 {file_name_id=3 function_name_id=5 line=9 end_line=9 column=17 end_column=61}\n11 {file_name_id=4 function_name_id=6 line=9 end_line=9 column=17 end_column=61}\n12 {file_name_id=3 function_name_id=5 line=11 end_line=11 column=11 end_column=55}\n\nStackFrames\n1 {file_location_id=1 parent_frame_id=1}\n2 {file_location_id=2 parent_frame_id=2}\n3 {file_location_id=3 parent_frame_id=3}\n4 {file_location_id=4 parent_frame_id=4}\n5 {file_location_id=5 parent_frame_id=5}\n6 {file_location_id=6 parent_frame_id=5}\n7 {file_location_id=7 parent_frame_id=5}\n8 {file_location_id=8 parent_frame_id=5}\n9 {file_location_id=9 parent_frame_id=5}\n10 {file_location_id=10 parent_frame_id=5}\n11 {file_location_id=11 parent_frame_id=5}\n12 {file_location_id=12 parent_frame_id=5}\n\n\n%fused_computation (param_0.1: f32[1024]) -> f32[1024] {\n  %param_0.1 = f32[1024]{0} parameter(0)\n  %constant.14 = f32[] constant(0.15), metadata={op_name=\"jit(nested_nhtu)/jit(nested_nhtu)\"}\n  %gt.11 = f32[1024]{0} broadcast(%constant.14), dimensions={}, metadata={op_name=\"jit(nested_nhtu)/jit(nested_nhtu)/gt\" stack_frame_id=5}\n  %gt.10 = pred[1024]{0} compare(%param_0.1, %gt.11), direction=GT, metadata={op_name=\"jit(nested_nhtu)/jit(nested_nhtu)/gt\" stack_frame_id=5}\n  %constant.13 = f32[] constant(0.52), metadata={op_name=\"jit(nested_nhtu)/jit(nested_nhtu)\"}\n  %gt.9 = f32[1024]{0} broadcast(%constant.13), dimensions={}, metadata={op_name=\"jit(nested_nhtu)/jit(nested_nhtu)/gt\" stack_frame_id=7}\n  %gt.8 = pred[1024]{0} compare(%param_0.1, %gt.9), direction=GT, metadata={op_name=\"jit(nested_nhtu)/jit(nested_nhtu)/gt\" stack_frame_id=7}\n  %constant.12 = f32[] constant(3), metadata={op_name=\"jit(nested_nhtu)/jit(nested_nhtu)\"}\n  %mul.17 = f32[1024]{0} broadcast(%constant.12), dimensions={}, metadata={op_name=\"jit(nested_nhtu)/jit(nested_nhtu)/mul\" stack_frame_id=9}\n  %mul.16 = f32[1024]{0} multiply(%param_0.1, %mul.17), metadata={op_name=\"jit(nested_nhtu)/jit(nested_nhtu)/mul\" stack_frame_id=9}\n  %constant.11 = f32[] constant(2), metadata={op_name=\"jit(nested_nhtu)/jit(nested_nhtu)\"}\n  %mul.15 = f32[1024]{0} broadcast(%constant.11), dimensions={}, metadata={op_name=\"jit(nested_nhtu)/jit(nested_nhtu)/mul\" stack_frame_id=8}\n  %mul.14 = f32[1024]{0} multiply(%param_0.1, %mul.15), metadata={op_name=\"jit(nested_nhtu)/jit(nested_nhtu)/mul\" stack_frame_id=8}\n  %select_n.7 = f32[1024]{0} select(%gt.8, %mul.16, %mul.14), metadata={op_name=\"jit(nested_nhtu)/jit(nested_nhtu)/jit(_where)/select_n\" stack_frame_id=11}\n  %constant.10 = f32[] constant(0.5), metadata={op_name=\"jit(nested_nhtu)/jit(nested_nhtu)\"}\n  %mul.13 = f32[1024]{0} broadcast(%constant.10), dimensions={}, metadata={op_name=\"jit(nested_nhtu)/jit(nested_nhtu)/mul\" stack_frame_id=6}\n  %mul.12 = f32[1024]{0} multiply(%param_0.1, %mul.13), metadata={op_name=\"jit(nested_nhtu)/jit(nested_nhtu)/mul\" stack_frame_id=6}\n  ROOT %select_n.6 = f32[1024]{0} select(%gt.10, %select_n.7, %mul.12), metadata={op_name=\"jit(nested_nhtu)/jit(nested_nhtu)/jit(_where)/select_n\" stack_frame_id=11}\n}\n\nENTRY %main.3 (a.1: f32[1024]) -> f32[1024] {\n  %a.1 = f32[1024]{0} parameter(0), metadata={op_name=\"a\"}\n  ROOT %multiply_select_fusion = f32[1024]{0} fusion(%a.1), kind=kLoop, calls=%fused_computation, metadata={op_name=\"jit(nested_nhtu)/jit(nested_nhtu)/jit(_where)/select_n\" stack_frame_id=11}\n}\n\n", "ptx": null}
{"id": 89, "kernel_name": "reduce_iuch", "python": "@jax.jit\ndef reduce_iuch(a):\n    return jnp.sum(a)", "type": "generate_reduction_kernel", "hlo": "module @jit_reduce_iuch attributes {mhlo.num_partitions = 1 : i32, mhlo.num_replicas = 1 : i32} {\n  func.func public @main(%arg0: tensor<1024xf32>) -> (tensor<f32> {jax.result_info = \"result\"}) {\n    %0 = call @reduce_iuch(%arg0) : (tensor<1024xf32>) -> tensor<f32>\n    return %0 : tensor<f32>\n  }\n  func.func private @reduce_iuch(%arg0: tensor<1024xf32>) -> tensor<f32> {\n    %cst = stablehlo.constant dense<0.000000e+00> : tensor<f32>\n    %0 = stablehlo.reduce(%arg0 init: %cst) applies stablehlo.add across dimensions = [0] : (tensor<1024xf32>, tensor<f32>) -> tensor<f32>\n    return %0 : tensor<f32>\n  }\n}\n", "llvm": "HloModule jit_reduce_iuch, is_scheduled=true, entry_computation_layout={(f32[1024]{0})->f32[]}, allow_spmd_sharding_propagation_to_parameters={true}, allow_spmd_sharding_propagation_to_output={true}\n\nFileNames\n1 \"/workspace/jit/code/synthesis/jax_pipeline.py\"\n2 \"/workspace/jit/code/extraction/jax_ir_extractor.py\"\n3 \"/tmp/tmp5lv0ofhb.py\"\n\nFunctionNames\n1 \"<module>\"\n2 \"generate_batch_to_jsonl\"\n3 \"extract_ir_from_source\"\n4 \"extract_ir\"\n5 \"reduce_iuch\"\n\nFileLocations\n1 {file_name_id=1 function_name_id=1 line=223 end_line=223 column=8 end_column=67}\n2 {file_name_id=1 function_name_id=2 line=184 end_line=184 column=21 end_column=74}\n3 {file_name_id=1 function_name_id=3 line=83 end_line=83 column=13 end_column=44}\n4 {file_name_id=2 function_name_id=4 line=82 end_line=82 column=14 end_column=35}\n5 {file_name_id=3 function_name_id=5 line=6 end_line=6 column=11 end_column=21}\n\nStackFrames\n1 {file_location_id=1 parent_frame_id=1}\n2 {file_location_id=2 parent_frame_id=2}\n3 {file_location_id=3 parent_frame_id=3}\n4 {file_location_id=4 parent_frame_id=4}\n5 {file_location_id=5 parent_frame_id=5}\n\n\n%region_0.1 (reduce_sum.3: f32[], reduce_sum.4: f32[]) -> f32[] {\n  %reduce_sum.3 = f32[] parameter(0), metadata={op_name=\"reduce_sum\"}\n  %reduce_sum.4 = f32[] parameter(1), metadata={op_name=\"reduce_sum\"}\n  ROOT %reduce_sum.5 = f32[] add(%reduce_sum.3, %reduce_sum.4), metadata={op_name=\"reduce_sum\" stack_frame_id=5}\n}\n\n%wrapped_reduce-window_computation (param_0: f32[1024], param_1: f32[]) -> f32[32] {\n  %param_0 = f32[1024]{0} parameter(0)\n  %param_1 = f32[] parameter(1)\n  ROOT %reduce-window.1 = f32[32]{0} reduce-window(%param_0, %param_1), window={size=32 stride=32}, to_apply=%region_0.1\n}\n\n%region_0.1.clone (reduce_sum.1: f32[], reduce_sum.2: f32[]) -> f32[] {\n  %reduce_sum.1 = f32[] parameter(0), metadata={op_name=\"reduce_sum\"}\n  %reduce_sum.2 = f32[] parameter(1), metadata={op_name=\"reduce_sum\"}\n  ROOT %reduce_sum.6 = f32[] add(%reduce_sum.1, %reduce_sum.2), metadata={op_name=\"reduce_sum\" stack_frame_id=5}\n}\n\n%wrapped_reduce_computation (param_0.1: f32[32], param_1.1: f32[]) -> f32[] {\n  %param_0.1 = f32[32]{0} parameter(0)\n  %param_1.1 = f32[] parameter(1)\n  ROOT %reduce_sum.8 = f32[] reduce(%param_0.1, %param_1.1), dimensions={0}, to_apply=%region_0.1.clone, metadata={op_name=\"jit(reduce_iuch)/jit(reduce_iuch)/reduce_sum\" stack_frame_id=5}\n}\n\nENTRY %main.3 (a.1: f32[1024]) -> f32[] {\n  %a.1 = f32[1024]{0} parameter(0), metadata={op_name=\"a\"}\n  %constant.0 = f32[] constant(0), metadata={op_name=\"jit(reduce_iuch)/jit(reduce_iuch)\"}\n  %wrapped_reduce-window = f32[32]{0} fusion(%a.1, %constant.0), kind=kLoop, calls=%wrapped_reduce-window_computation\n  ROOT %wrapped_reduce = f32[] fusion(%wrapped_reduce-window, %constant.0), kind=kLoop, calls=%wrapped_reduce_computation, metadata={op_name=\"jit(reduce_iuch)/jit(reduce_iuch)/reduce_sum\" stack_frame_id=5}\n}\n\n", "ptx": null}
{"id": 90, "kernel_name": "vec_kkxx", "python": "@jax.jit\ndef vec_kkxx(a):\n    return jnp.linalg.norm(a, axis=-1)", "type": "generate_vector_kernel", "hlo": "module @jit_vec_kkxx attributes {mhlo.num_partitions = 1 : i32, mhlo.num_replicas = 1 : i32} {\n  func.func public @main(%arg0: tensor<1024x3xf32>) -> (tensor<1024xf32> {jax.result_info = \"result\"}) {\n    %0 = call @vec_kkxx(%arg0) : (tensor<1024x3xf32>) -> tensor<1024xf32>\n    return %0 : tensor<1024xf32>\n  }\n  func.func private @vec_kkxx(%arg0: tensor<1024x3xf32>) -> tensor<1024xf32> {\n    %0 = call @norm(%arg0) : (tensor<1024x3xf32>) -> tensor<1024xf32>\n    return %0 : tensor<1024xf32>\n  }\n  func.func private @norm(%arg0: tensor<1024x3xf32>) -> tensor<1024xf32> {\n    %0 = stablehlo.multiply %arg0, %arg0 : tensor<1024x3xf32>\n    %cst = stablehlo.constant dense<0.000000e+00> : tensor<f32>\n    %1 = stablehlo.reduce(%0 init: %cst) applies stablehlo.add across dimensions = [1] : (tensor<1024x3xf32>, tensor<f32>) -> tensor<1024xf32>\n    %2 = stablehlo.sqrt %1 : tensor<1024xf32>\n    return %2 : tensor<1024xf32>\n  }\n}\n", "llvm": "HloModule jit_vec_kkxx, is_scheduled=true, entry_computation_layout={(f32[1024,3]{1,0})->f32[1024]{0}}, allow_spmd_sharding_propagation_to_parameters={true}, allow_spmd_sharding_propagation_to_output={true}\n\nFileNames\n1 \"/workspace/jit/code/synthesis/jax_pipeline.py\"\n2 \"/workspace/jit/code/extraction/jax_ir_extractor.py\"\n3 \"/tmp/tmpg59_a88u.py\"\n4 \"/tmp/tmp6o75inah.py\"\n\nFunctionNames\n1 \"<module>\"\n2 \"generate_batch_to_jsonl\"\n3 \"extract_ir_from_source\"\n4 \"extract_ir\"\n5 \"vec_kkxx\"\n6 \"vec_khvl\"\n\nFileLocations\n1 {file_name_id=1 function_name_id=1 line=223 end_line=223 column=8 end_column=67}\n2 {file_name_id=1 function_name_id=2 line=184 end_line=184 column=21 end_column=74}\n3 {file_name_id=1 function_name_id=3 line=83 end_line=83 column=13 end_column=44}\n4 {file_name_id=2 function_name_id=4 line=82 end_line=82 column=14 end_column=35}\n5 {file_name_id=3 function_name_id=5 line=6 end_line=6 column=11 end_column=38}\n6 {file_name_id=4 function_name_id=6 line=6 end_line=6 column=11 end_column=38}\n\nStackFrames\n1 {file_location_id=1 parent_frame_id=1}\n2 {file_location_id=2 parent_frame_id=2}\n3 {file_location_id=3 parent_frame_id=3}\n4 {file_location_id=4 parent_frame_id=4}\n5 {file_location_id=5 parent_frame_id=5}\n6 {file_location_id=6 parent_frame_id=5}\n\n\n%region_0.1 (reduce_sum.3: f32[], reduce_sum.4: f32[]) -> f32[] {\n  %reduce_sum.3 = f32[] parameter(0), metadata={op_name=\"reduce_sum\"}\n  %reduce_sum.4 = f32[] parameter(1), metadata={op_name=\"reduce_sum\"}\n  ROOT %reduce_sum.5 = f32[] add(%reduce_sum.3, %reduce_sum.4), metadata={op_name=\"reduce_sum\" stack_frame_id=6}\n}\n\n%fused_computation (param_0.2: f32[1024,3]) -> f32[1024] {\n  %param_0.2 = f32[1024,3]{1,0} parameter(0)\n  %mul.3 = f32[1024,3]{1,0} multiply(%param_0.2, %param_0.2), metadata={op_name=\"jit(vec_kkxx)/jit(vec_kkxx)/jit(norm)/mul\" stack_frame_id=6}\n  %constant.3 = f32[] constant(0), metadata={op_name=\"jit(vec_kkxx)/jit(vec_kkxx)/jit(norm)\"}\n  %reduce_sum.2 = f32[1024]{0} reduce(%mul.3, %constant.3), dimensions={1}, to_apply=%region_0.1, metadata={op_name=\"jit(vec_kkxx)/jit(vec_kkxx)/jit(norm)/reduce_sum\" stack_frame_id=6}\n  ROOT %sqrt.3 = f32[1024]{0} sqrt(%reduce_sum.2), metadata={op_name=\"jit(vec_kkxx)/jit(vec_kkxx)/jit(norm)/sqrt\" stack_frame_id=6}\n}\n\nENTRY %main.4 (a.1: f32[1024,3]) -> f32[1024] {\n  %a.1 = f32[1024,3]{1,0} parameter(0), metadata={op_name=\"a\"}\n  ROOT %reduce_sqrt_fusion = f32[1024]{0} fusion(%a.1), kind=kLoop, calls=%fused_computation, metadata={op_name=\"jit(vec_kkxx)/jit(vec_kkxx)/jit(norm)/sqrt\" stack_frame_id=6}\n}\n\n", "ptx": null}
{"id": 91, "kernel_name": "multi_mmtv", "python": "@jax.jit\ndef multi_mmtv(a, b):\n    temp1 = a - b\n    temp2 = jnp.sqrt(temp1)\n    return temp2 * a", "type": "generate_multi_statement_kernel", "hlo": "module @jit_multi_mmtv attributes {mhlo.num_partitions = 1 : i32, mhlo.num_replicas = 1 : i32} {\n  func.func public @main(%arg0: tensor<1024xf32>, %arg1: tensor<1024xf32>) -> (tensor<1024xf32> {jax.result_info = \"result\"}) {\n    %0 = call @multi_mmtv(%arg0, %arg1) : (tensor<1024xf32>, tensor<1024xf32>) -> tensor<1024xf32>\n    return %0 : tensor<1024xf32>\n  }\n  func.func private @multi_mmtv(%arg0: tensor<1024xf32>, %arg1: tensor<1024xf32>) -> tensor<1024xf32> {\n    %0 = stablehlo.subtract %arg0, %arg1 : tensor<1024xf32>\n    %1 = stablehlo.sqrt %0 : tensor<1024xf32>\n    %2 = stablehlo.multiply %1, %arg0 : tensor<1024xf32>\n    return %2 : tensor<1024xf32>\n  }\n}\n", "llvm": "HloModule jit_multi_mmtv, is_scheduled=true, entry_computation_layout={(f32[1024]{0}, f32[1024]{0})->f32[1024]{0}}, allow_spmd_sharding_propagation_to_parameters={true,true}, allow_spmd_sharding_propagation_to_output={true}\n\nFileNames\n1 \"/workspace/jit/code/synthesis/jax_pipeline.py\"\n2 \"/workspace/jit/code/extraction/jax_ir_extractor.py\"\n3 \"/tmp/tmpo91euc9_.py\"\n\nFunctionNames\n1 \"<module>\"\n2 \"generate_batch_to_jsonl\"\n3 \"extract_ir_from_source\"\n4 \"extract_ir\"\n5 \"multi_mmtv\"\n\nFileLocations\n1 {file_name_id=1 function_name_id=1 line=223 end_line=223 column=8 end_column=67}\n2 {file_name_id=1 function_name_id=2 line=184 end_line=184 column=21 end_column=74}\n3 {file_name_id=1 function_name_id=3 line=83 end_line=83 column=13 end_column=44}\n4 {file_name_id=2 function_name_id=4 line=82 end_line=82 column=14 end_column=35}\n5 {file_name_id=3 function_name_id=5 line=6 end_line=6 column=12 end_column=17}\n6 {file_name_id=3 function_name_id=5 line=7 end_line=7 column=12 end_column=27}\n7 {file_name_id=3 function_name_id=5 line=8 end_line=8 column=11 end_column=20}\n\nStackFrames\n1 {file_location_id=1 parent_frame_id=1}\n2 {file_location_id=2 parent_frame_id=2}\n3 {file_location_id=3 parent_frame_id=3}\n4 {file_location_id=4 parent_frame_id=4}\n5 {file_location_id=5 parent_frame_id=5}\n6 {file_location_id=6 parent_frame_id=5}\n7 {file_location_id=7 parent_frame_id=5}\n\n\n%fused_computation (param_0.1: f32[1024], param_1.2: f32[1024]) -> f32[1024] {\n  %param_0.1 = f32[1024]{0} parameter(0)\n  %param_1.2 = f32[1024]{0} parameter(1)\n  %sub.2 = f32[1024]{0} subtract(%param_0.1, %param_1.2), metadata={op_name=\"jit(multi_mmtv)/jit(multi_mmtv)/sub\" stack_frame_id=5}\n  %sqrt.2 = f32[1024]{0} sqrt(%sub.2), metadata={op_name=\"jit(multi_mmtv)/jit(multi_mmtv)/sqrt\" stack_frame_id=6}\n  ROOT %mul.2 = f32[1024]{0} multiply(%sqrt.2, %param_0.1), metadata={op_name=\"jit(multi_mmtv)/jit(multi_mmtv)/mul\" stack_frame_id=7}\n}\n\nENTRY %main.2 (a.1: f32[1024], b.1: f32[1024]) -> f32[1024] {\n  %a.1 = f32[1024]{0} parameter(0), metadata={op_name=\"a\"}\n  %b.1 = f32[1024]{0} parameter(1), metadata={op_name=\"b\"}\n  ROOT %sqrt_multiply_fusion = f32[1024]{0} fusion(%a.1, %b.1), kind=kLoop, calls=%fused_computation, metadata={op_name=\"jit(multi_mmtv)/jit(multi_mmtv)/mul\" stack_frame_id=7}\n}\n\n", "ptx": null}
{"id": 92, "kernel_name": "multi_mfzx", "python": "@jax.jit\ndef multi_mfzx(a, b):\n    temp1 = a * b\n    temp2 = jnp.abs(temp1)\n    return temp2 * a", "type": "generate_multi_statement_kernel", "hlo": "module @jit_multi_mfzx attributes {mhlo.num_partitions = 1 : i32, mhlo.num_replicas = 1 : i32} {\n  func.func public @main(%arg0: tensor<1024xf32>, %arg1: tensor<1024xf32>) -> (tensor<1024xf32> {jax.result_info = \"result\"}) {\n    %0 = call @multi_mfzx(%arg0, %arg1) : (tensor<1024xf32>, tensor<1024xf32>) -> tensor<1024xf32>\n    return %0 : tensor<1024xf32>\n  }\n  func.func private @multi_mfzx(%arg0: tensor<1024xf32>, %arg1: tensor<1024xf32>) -> tensor<1024xf32> {\n    %0 = stablehlo.multiply %arg0, %arg1 : tensor<1024xf32>\n    %1 = stablehlo.abs %0 : tensor<1024xf32>\n    %2 = stablehlo.multiply %1, %arg0 : tensor<1024xf32>\n    return %2 : tensor<1024xf32>\n  }\n}\n", "llvm": "HloModule jit_multi_mfzx, is_scheduled=true, entry_computation_layout={(f32[1024]{0}, f32[1024]{0})->f32[1024]{0}}, allow_spmd_sharding_propagation_to_parameters={true,true}, allow_spmd_sharding_propagation_to_output={true}\n\nFileNames\n1 \"/workspace/jit/code/synthesis/jax_pipeline.py\"\n2 \"/workspace/jit/code/extraction/jax_ir_extractor.py\"\n3 \"/tmp/tmp_0temiu0.py\"\n\nFunctionNames\n1 \"<module>\"\n2 \"generate_batch_to_jsonl\"\n3 \"extract_ir_from_source\"\n4 \"extract_ir\"\n5 \"multi_mfzx\"\n\nFileLocations\n1 {file_name_id=1 function_name_id=1 line=223 end_line=223 column=8 end_column=67}\n2 {file_name_id=1 function_name_id=2 line=184 end_line=184 column=21 end_column=74}\n3 {file_name_id=1 function_name_id=3 line=83 end_line=83 column=13 end_column=44}\n4 {file_name_id=2 function_name_id=4 line=82 end_line=82 column=14 end_column=35}\n5 {file_name_id=3 function_name_id=5 line=6 end_line=6 column=12 end_column=17}\n6 {file_name_id=3 function_name_id=5 line=7 end_line=7 column=12 end_column=26}\n7 {file_name_id=3 function_name_id=5 line=8 end_line=8 column=11 end_column=20}\n\nStackFrames\n1 {file_location_id=1 parent_frame_id=1}\n2 {file_location_id=2 parent_frame_id=2}\n3 {file_location_id=3 parent_frame_id=3}\n4 {file_location_id=4 parent_frame_id=4}\n5 {file_location_id=5 parent_frame_id=5}\n6 {file_location_id=6 parent_frame_id=5}\n7 {file_location_id=7 parent_frame_id=5}\n\n\n%fused_computation (param_0.1: f32[1024], param_1.2: f32[1024]) -> f32[1024] {\n  %param_0.1 = f32[1024]{0} parameter(0)\n  %param_1.2 = f32[1024]{0} parameter(1)\n  %mul.5 = f32[1024]{0} multiply(%param_0.1, %param_1.2), metadata={op_name=\"jit(multi_mfzx)/jit(multi_mfzx)/mul\" stack_frame_id=5}\n  %abs.2 = f32[1024]{0} abs(%mul.5), metadata={op_name=\"jit(multi_mfzx)/jit(multi_mfzx)/abs\" stack_frame_id=6}\n  ROOT %mul.4 = f32[1024]{0} multiply(%abs.2, %param_0.1), metadata={op_name=\"jit(multi_mfzx)/jit(multi_mfzx)/mul\" stack_frame_id=7}\n}\n\nENTRY %main.2 (a.1: f32[1024], b.1: f32[1024]) -> f32[1024] {\n  %a.1 = f32[1024]{0} parameter(0), metadata={op_name=\"a\"}\n  %b.1 = f32[1024]{0} parameter(1), metadata={op_name=\"b\"}\n  ROOT %abs_multiply_fusion = f32[1024]{0} fusion(%a.1, %b.1), kind=kLoop, calls=%fused_computation, metadata={op_name=\"jit(multi_mfzx)/jit(multi_mfzx)/mul\" stack_frame_id=7}\n}\n\n", "ptx": null}
{"id": 93, "kernel_name": "reduce_rqpm", "python": "@jax.jit\ndef reduce_rqpm(a):\n    return jnp.sum(a)", "type": "generate_reduction_kernel", "hlo": "module @jit_reduce_rqpm attributes {mhlo.num_partitions = 1 : i32, mhlo.num_replicas = 1 : i32} {\n  func.func public @main(%arg0: tensor<1024xf32>) -> (tensor<f32> {jax.result_info = \"result\"}) {\n    %0 = call @reduce_rqpm(%arg0) : (tensor<1024xf32>) -> tensor<f32>\n    return %0 : tensor<f32>\n  }\n  func.func private @reduce_rqpm(%arg0: tensor<1024xf32>) -> tensor<f32> {\n    %cst = stablehlo.constant dense<0.000000e+00> : tensor<f32>\n    %0 = stablehlo.reduce(%arg0 init: %cst) applies stablehlo.add across dimensions = [0] : (tensor<1024xf32>, tensor<f32>) -> tensor<f32>\n    return %0 : tensor<f32>\n  }\n}\n", "llvm": "HloModule jit_reduce_rqpm, is_scheduled=true, entry_computation_layout={(f32[1024]{0})->f32[]}, allow_spmd_sharding_propagation_to_parameters={true}, allow_spmd_sharding_propagation_to_output={true}\n\nFileNames\n1 \"/workspace/jit/code/synthesis/jax_pipeline.py\"\n2 \"/workspace/jit/code/extraction/jax_ir_extractor.py\"\n3 \"/tmp/tmp1f3eiw0_.py\"\n\nFunctionNames\n1 \"<module>\"\n2 \"generate_batch_to_jsonl\"\n3 \"extract_ir_from_source\"\n4 \"extract_ir\"\n5 \"reduce_rqpm\"\n\nFileLocations\n1 {file_name_id=1 function_name_id=1 line=223 end_line=223 column=8 end_column=67}\n2 {file_name_id=1 function_name_id=2 line=184 end_line=184 column=21 end_column=74}\n3 {file_name_id=1 function_name_id=3 line=83 end_line=83 column=13 end_column=44}\n4 {file_name_id=2 function_name_id=4 line=82 end_line=82 column=14 end_column=35}\n5 {file_name_id=3 function_name_id=5 line=6 end_line=6 column=11 end_column=21}\n\nStackFrames\n1 {file_location_id=1 parent_frame_id=1}\n2 {file_location_id=2 parent_frame_id=2}\n3 {file_location_id=3 parent_frame_id=3}\n4 {file_location_id=4 parent_frame_id=4}\n5 {file_location_id=5 parent_frame_id=5}\n\n\n%region_0.1 (reduce_sum.3: f32[], reduce_sum.4: f32[]) -> f32[] {\n  %reduce_sum.3 = f32[] parameter(0), metadata={op_name=\"reduce_sum\"}\n  %reduce_sum.4 = f32[] parameter(1), metadata={op_name=\"reduce_sum\"}\n  ROOT %reduce_sum.5 = f32[] add(%reduce_sum.3, %reduce_sum.4), metadata={op_name=\"reduce_sum\" stack_frame_id=5}\n}\n\n%wrapped_reduce-window_computation (param_0: f32[1024], param_1: f32[]) -> f32[32] {\n  %param_0 = f32[1024]{0} parameter(0)\n  %param_1 = f32[] parameter(1)\n  ROOT %reduce-window.1 = f32[32]{0} reduce-window(%param_0, %param_1), window={size=32 stride=32}, to_apply=%region_0.1\n}\n\n%region_0.1.clone (reduce_sum.1: f32[], reduce_sum.2: f32[]) -> f32[] {\n  %reduce_sum.1 = f32[] parameter(0), metadata={op_name=\"reduce_sum\"}\n  %reduce_sum.2 = f32[] parameter(1), metadata={op_name=\"reduce_sum\"}\n  ROOT %reduce_sum.6 = f32[] add(%reduce_sum.1, %reduce_sum.2), metadata={op_name=\"reduce_sum\" stack_frame_id=5}\n}\n\n%wrapped_reduce_computation (param_0.1: f32[32], param_1.1: f32[]) -> f32[] {\n  %param_0.1 = f32[32]{0} parameter(0)\n  %param_1.1 = f32[] parameter(1)\n  ROOT %reduce_sum.8 = f32[] reduce(%param_0.1, %param_1.1), dimensions={0}, to_apply=%region_0.1.clone, metadata={op_name=\"jit(reduce_rqpm)/jit(reduce_rqpm)/reduce_sum\" stack_frame_id=5}\n}\n\nENTRY %main.3 (a.1: f32[1024]) -> f32[] {\n  %a.1 = f32[1024]{0} parameter(0), metadata={op_name=\"a\"}\n  %constant.0 = f32[] constant(0), metadata={op_name=\"jit(reduce_rqpm)/jit(reduce_rqpm)\"}\n  %wrapped_reduce-window = f32[32]{0} fusion(%a.1, %constant.0), kind=kLoop, calls=%wrapped_reduce-window_computation\n  ROOT %wrapped_reduce = f32[] fusion(%wrapped_reduce-window, %constant.0), kind=kLoop, calls=%wrapped_reduce_computation, metadata={op_name=\"jit(reduce_rqpm)/jit(reduce_rqpm)/reduce_sum\" stack_frame_id=5}\n}\n\n", "ptx": null}
{"id": 94, "kernel_name": "compound_onlt", "python": "@jax.jit\ndef compound_onlt(a, b, scale):\n    x = a\n    y = b\n    result = (x + y) * scale\n    result = result - jnp.floor(result)\n    return jnp.abs(result)", "type": "generate_compound_kernel", "hlo": "module @jit_compound_onlt attributes {mhlo.num_partitions = 1 : i32, mhlo.num_replicas = 1 : i32} {\n  func.func public @main(%arg0: tensor<1024xf32>, %arg1: tensor<1024xf32>, %arg2: tensor<f32>) -> (tensor<1024xf32> {jax.result_info = \"result\"}) {\n    %0 = call @compound_onlt(%arg0, %arg1, %arg2) : (tensor<1024xf32>, tensor<1024xf32>, tensor<f32>) -> tensor<1024xf32>\n    return %0 : tensor<1024xf32>\n  }\n  func.func private @compound_onlt(%arg0: tensor<1024xf32>, %arg1: tensor<1024xf32>, %arg2: tensor<f32>) -> tensor<1024xf32> {\n    %0 = stablehlo.add %arg0, %arg1 : tensor<1024xf32>\n    %1 = stablehlo.convert %arg2 : tensor<f32>\n    %2 = stablehlo.broadcast_in_dim %1, dims = [] : (tensor<f32>) -> tensor<1024xf32>\n    %3 = stablehlo.multiply %0, %2 : tensor<1024xf32>\n    %4 = stablehlo.floor %3 : tensor<1024xf32>\n    %5 = stablehlo.subtract %3, %4 : tensor<1024xf32>\n    %6 = stablehlo.abs %5 : tensor<1024xf32>\n    return %6 : tensor<1024xf32>\n  }\n}\n", "llvm": "HloModule jit_compound_onlt, is_scheduled=true, entry_computation_layout={(f32[1024]{0}, f32[1024]{0}, f32[])->f32[1024]{0}}, allow_spmd_sharding_propagation_to_parameters={true,true,true}, allow_spmd_sharding_propagation_to_output={true}\n\nFileNames\n1 \"/workspace/jit/code/synthesis/jax_pipeline.py\"\n2 \"/workspace/jit/code/extraction/jax_ir_extractor.py\"\n3 \"/tmp/tmpif0s6qk6.py\"\n\nFunctionNames\n1 \"<module>\"\n2 \"generate_batch_to_jsonl\"\n3 \"extract_ir_from_source\"\n4 \"extract_ir\"\n5 \"compound_onlt\"\n\nFileLocations\n1 {file_name_id=1 function_name_id=1 line=223 end_line=223 column=8 end_column=67}\n2 {file_name_id=1 function_name_id=2 line=184 end_line=184 column=21 end_column=74}\n3 {file_name_id=1 function_name_id=3 line=83 end_line=83 column=13 end_column=44}\n4 {file_name_id=2 function_name_id=4 line=82 end_line=82 column=14 end_column=35}\n5 {file_name_id=3 function_name_id=5 line=8 end_line=8 column=14 end_column=19}\n6 {file_name_id=3 function_name_id=5 line=8 end_line=8 column=13 end_column=28}\n7 {file_name_id=3 function_name_id=5 line=9 end_line=9 column=22 end_column=39}\n8 {file_name_id=3 function_name_id=5 line=9 end_line=9 column=13 end_column=39}\n9 {file_name_id=3 function_name_id=5 line=10 end_line=10 column=11 end_column=26}\n\nStackFrames\n1 {file_location_id=1 parent_frame_id=1}\n2 {file_location_id=2 parent_frame_id=2}\n3 {file_location_id=3 parent_frame_id=3}\n4 {file_location_id=4 parent_frame_id=4}\n5 {file_location_id=5 parent_frame_id=5}\n6 {file_location_id=6 parent_frame_id=5}\n7 {file_location_id=7 parent_frame_id=5}\n8 {file_location_id=8 parent_frame_id=5}\n9 {file_location_id=9 parent_frame_id=5}\n\n\n%fused_computation (param_0.3: f32[], param_1.3: f32[1024], param_2: f32[1024]) -> f32[1024] {\n  %param_1.3 = f32[1024]{0} parameter(1)\n  %param_2 = f32[1024]{0} parameter(2)\n  %add.2 = f32[1024]{0} add(%param_1.3, %param_2), metadata={op_name=\"jit(compound_onlt)/jit(compound_onlt)/add\" stack_frame_id=5}\n  %param_0.3 = f32[] parameter(0)\n  %mul.5 = f32[1024]{0} broadcast(%param_0.3), dimensions={}, metadata={op_name=\"jit(compound_onlt)/jit(compound_onlt)/mul\" stack_frame_id=6}\n  %mul.4 = f32[1024]{0} multiply(%add.2, %mul.5), metadata={op_name=\"jit(compound_onlt)/jit(compound_onlt)/mul\" stack_frame_id=6}\n  %floor.2 = f32[1024]{0} floor(%mul.4), metadata={op_name=\"jit(compound_onlt)/jit(compound_onlt)/floor\" stack_frame_id=7}\n  %sub.2 = f32[1024]{0} subtract(%mul.4, %floor.2), metadata={op_name=\"jit(compound_onlt)/jit(compound_onlt)/sub\" stack_frame_id=8}\n  ROOT %abs.2 = f32[1024]{0} abs(%sub.2), metadata={op_name=\"jit(compound_onlt)/jit(compound_onlt)/abs\" stack_frame_id=9}\n}\n\nENTRY %main.2 (a.1: f32[1024], b.1: f32[1024], scale.1: f32[]) -> f32[1024] {\n  %a.1 = f32[1024]{0} parameter(0), metadata={op_name=\"a\"}\n  %b.1 = f32[1024]{0} parameter(1), metadata={op_name=\"b\"}\n  %scale.1 = f32[] parameter(2), metadata={op_name=\"scale\"}\n  ROOT %subtract_abs_fusion = f32[1024]{0} fusion(%scale.1, %a.1, %b.1), kind=kLoop, calls=%fused_computation, metadata={op_name=\"jit(compound_onlt)/jit(compound_onlt)/abs\" stack_frame_id=9}\n}\n\n", "ptx": null}
{"id": 95, "kernel_name": "scalar_arr_bkzg", "python": "@jax.jit\ndef scalar_arr_bkzg(alpha, x, y):\n    return alpha - x + y", "type": "generate_scalar_array_op", "hlo": "module @jit_scalar_arr_bkzg attributes {mhlo.num_partitions = 1 : i32, mhlo.num_replicas = 1 : i32} {\n  func.func public @main(%arg0: tensor<f32>, %arg1: tensor<1024xf32>, %arg2: tensor<1024xf32>) -> (tensor<1024xf32> {jax.result_info = \"result\"}) {\n    %0 = call @scalar_arr_bkzg(%arg0, %arg1, %arg2) : (tensor<f32>, tensor<1024xf32>, tensor<1024xf32>) -> tensor<1024xf32>\n    return %0 : tensor<1024xf32>\n  }\n  func.func private @scalar_arr_bkzg(%arg0: tensor<f32>, %arg1: tensor<1024xf32>, %arg2: tensor<1024xf32>) -> tensor<1024xf32> {\n    %0 = stablehlo.convert %arg0 : tensor<f32>\n    %1 = stablehlo.broadcast_in_dim %0, dims = [] : (tensor<f32>) -> tensor<1024xf32>\n    %2 = stablehlo.subtract %1, %arg1 : tensor<1024xf32>\n    %3 = stablehlo.add %2, %arg2 : tensor<1024xf32>\n    return %3 : tensor<1024xf32>\n  }\n}\n", "llvm": "HloModule jit_scalar_arr_bkzg, is_scheduled=true, entry_computation_layout={(f32[], f32[1024]{0}, f32[1024]{0})->f32[1024]{0}}, allow_spmd_sharding_propagation_to_parameters={true,true,true}, allow_spmd_sharding_propagation_to_output={true}\n\nFileNames\n1 \"/workspace/jit/code/synthesis/jax_pipeline.py\"\n2 \"/workspace/jit/code/extraction/jax_ir_extractor.py\"\n3 \"/tmp/tmpk1zesgb1.py\"\n\nFunctionNames\n1 \"<module>\"\n2 \"generate_batch_to_jsonl\"\n3 \"extract_ir_from_source\"\n4 \"extract_ir\"\n5 \"scalar_arr_bkzg\"\n\nFileLocations\n1 {file_name_id=1 function_name_id=1 line=223 end_line=223 column=8 end_column=67}\n2 {file_name_id=1 function_name_id=2 line=184 end_line=184 column=21 end_column=74}\n3 {file_name_id=1 function_name_id=3 line=83 end_line=83 column=13 end_column=44}\n4 {file_name_id=2 function_name_id=4 line=82 end_line=82 column=14 end_column=35}\n5 {file_name_id=3 function_name_id=5 line=6 end_line=6 column=11 end_column=20}\n\nStackFrames\n1 {file_location_id=1 parent_frame_id=1}\n2 {file_location_id=2 parent_frame_id=2}\n3 {file_location_id=3 parent_frame_id=3}\n4 {file_location_id=4 parent_frame_id=4}\n5 {file_location_id=5 parent_frame_id=5}\n\n\n%fused_computation (param_0.1: f32[1024], param_1.2: f32[1024], param_2.1: f32[]) -> f32[1024] {\n  %param_2.1 = f32[] parameter(2)\n  %sub.5 = f32[1024]{0} broadcast(%param_2.1), dimensions={}, metadata={op_name=\"jit(scalar_arr_bkzg)/jit(scalar_arr_bkzg)/sub\" stack_frame_id=5}\n  %param_1.2 = f32[1024]{0} parameter(1)\n  %sub.4 = f32[1024]{0} subtract(%sub.5, %param_1.2), metadata={op_name=\"jit(scalar_arr_bkzg)/jit(scalar_arr_bkzg)/sub\" stack_frame_id=5}\n  %param_0.1 = f32[1024]{0} parameter(0)\n  ROOT %add.2 = f32[1024]{0} add(%sub.4, %param_0.1), metadata={op_name=\"jit(scalar_arr_bkzg)/jit(scalar_arr_bkzg)/add\" stack_frame_id=5}\n}\n\nENTRY %main.2 (alpha.1: f32[], x.1: f32[1024], y.1: f32[1024]) -> f32[1024] {\n  %alpha.1 = f32[] parameter(0), metadata={op_name=\"alpha\"}\n  %x.1 = f32[1024]{0} parameter(1), metadata={op_name=\"x\"}\n  %y.1 = f32[1024]{0} parameter(2), metadata={op_name=\"y\"}\n  ROOT %subtract_add_fusion = f32[1024]{0} fusion(%y.1, %x.1, %alpha.1), kind=kLoop, calls=%fused_computation, metadata={op_name=\"jit(scalar_arr_bkzg)/jit(scalar_arr_bkzg)/add\" stack_frame_id=5}\n}\n\n", "ptx": null}
{"id": 96, "kernel_name": "branch_flsf", "python": "@jax.jit\ndef branch_flsf(a):\n    return jnp.where(a > 0.72, a + 0.9, a + 1.6)", "type": "generate_branch_kernel", "hlo": "module @jit_branch_flsf attributes {mhlo.num_partitions = 1 : i32, mhlo.num_replicas = 1 : i32} {\n  func.func public @main(%arg0: tensor<1024xf32>) -> (tensor<1024xf32> {jax.result_info = \"result\"}) {\n    %0 = call @branch_flsf(%arg0) : (tensor<1024xf32>) -> tensor<1024xf32>\n    return %0 : tensor<1024xf32>\n  }\n  func.func private @branch_flsf(%arg0: tensor<1024xf32>) -> tensor<1024xf32> {\n    %cst = stablehlo.constant dense<7.200000e-01> : tensor<f32>\n    %0 = stablehlo.broadcast_in_dim %cst, dims = [] : (tensor<f32>) -> tensor<1024xf32>\n    %1 = stablehlo.compare  GT, %arg0, %0,  FLOAT : (tensor<1024xf32>, tensor<1024xf32>) -> tensor<1024xi1>\n    %cst_0 = stablehlo.constant dense<0.899999976> : tensor<f32>\n    %2 = stablehlo.broadcast_in_dim %cst_0, dims = [] : (tensor<f32>) -> tensor<1024xf32>\n    %3 = stablehlo.add %arg0, %2 : tensor<1024xf32>\n    %cst_1 = stablehlo.constant dense<1.600000e+00> : tensor<f32>\n    %4 = stablehlo.broadcast_in_dim %cst_1, dims = [] : (tensor<f32>) -> tensor<1024xf32>\n    %5 = stablehlo.add %arg0, %4 : tensor<1024xf32>\n    %6 = call @_where(%1, %3, %5) : (tensor<1024xi1>, tensor<1024xf32>, tensor<1024xf32>) -> tensor<1024xf32>\n    return %6 : tensor<1024xf32>\n  }\n  func.func private @_where(%arg0: tensor<1024xi1>, %arg1: tensor<1024xf32>, %arg2: tensor<1024xf32>) -> tensor<1024xf32> {\n    %0 = stablehlo.select %arg0, %arg1, %arg2 : tensor<1024xi1>, tensor<1024xf32>\n    return %0 : tensor<1024xf32>\n  }\n}\n", "llvm": "HloModule jit_branch_flsf, is_scheduled=true, entry_computation_layout={(f32[1024]{0})->f32[1024]{0}}, allow_spmd_sharding_propagation_to_parameters={true}, allow_spmd_sharding_propagation_to_output={true}\n\nFileNames\n1 \"/workspace/jit/code/synthesis/jax_pipeline.py\"\n2 \"/workspace/jit/code/extraction/jax_ir_extractor.py\"\n3 \"/tmp/tmp8225y27q.py\"\n4 \"/tmp/tmp7nvd0zdg.py\"\n\nFunctionNames\n1 \"<module>\"\n2 \"generate_batch_to_jsonl\"\n3 \"extract_ir_from_source\"\n4 \"extract_ir\"\n5 \"branch_flsf\"\n6 \"nested_odsh\"\n\nFileLocations\n1 {file_name_id=1 function_name_id=1 line=223 end_line=223 column=8 end_column=67}\n2 {file_name_id=1 function_name_id=2 line=184 end_line=184 column=21 end_column=74}\n3 {file_name_id=1 function_name_id=3 line=83 end_line=83 column=13 end_column=44}\n4 {file_name_id=2 function_name_id=4 line=82 end_line=82 column=14 end_column=35}\n5 {file_name_id=3 function_name_id=5 line=6 end_line=6 column=40 end_column=47}\n6 {file_name_id=3 function_name_id=5 line=6 end_line=6 column=31 end_column=38}\n7 {file_name_id=3 function_name_id=5 line=6 end_line=6 column=21 end_column=29}\n8 {file_name_id=3 function_name_id=5 line=6 end_line=6 column=11 end_column=48}\n9 {file_name_id=4 function_name_id=6 line=9 end_line=9 column=17 end_column=61}\n\nStackFrames\n1 {file_location_id=1 parent_frame_id=1}\n2 {file_location_id=2 parent_frame_id=2}\n3 {file_location_id=3 parent_frame_id=3}\n4 {file_location_id=4 parent_frame_id=4}\n5 {file_location_id=5 parent_frame_id=5}\n6 {file_location_id=6 parent_frame_id=5}\n7 {file_location_id=7 parent_frame_id=5}\n8 {file_location_id=8 parent_frame_id=5}\n9 {file_location_id=9 parent_frame_id=5}\n\n\n%fused_computation (param_0.1: f32[1024]) -> f32[1024] {\n  %param_0.1 = f32[1024]{0} parameter(0)\n  %constant.8 = f32[] constant(0.72), metadata={op_name=\"jit(branch_flsf)/jit(branch_flsf)\"}\n  %gt.5 = f32[1024]{0} broadcast(%constant.8), dimensions={}, metadata={op_name=\"jit(branch_flsf)/jit(branch_flsf)/gt\" stack_frame_id=7}\n  %gt.4 = pred[1024]{0} compare(%param_0.1, %gt.5), direction=GT, metadata={op_name=\"jit(branch_flsf)/jit(branch_flsf)/gt\" stack_frame_id=7}\n  %constant.7 = f32[] constant(0.9), metadata={op_name=\"jit(branch_flsf)/jit(branch_flsf)\"}\n  %add.11 = f32[1024]{0} broadcast(%constant.7), dimensions={}, metadata={op_name=\"jit(branch_flsf)/jit(branch_flsf)/add\" stack_frame_id=6}\n  %add.10 = f32[1024]{0} add(%param_0.1, %add.11), metadata={op_name=\"jit(branch_flsf)/jit(branch_flsf)/add\" stack_frame_id=6}\n  %constant.6 = f32[] constant(1.6), metadata={op_name=\"jit(branch_flsf)/jit(branch_flsf)\"}\n  %add.9 = f32[1024]{0} broadcast(%constant.6), dimensions={}, metadata={op_name=\"jit(branch_flsf)/jit(branch_flsf)/add\" stack_frame_id=5}\n  %add.8 = f32[1024]{0} add(%param_0.1, %add.9), metadata={op_name=\"jit(branch_flsf)/jit(branch_flsf)/add\" stack_frame_id=5}\n  ROOT %select_n.3 = f32[1024]{0} select(%gt.4, %add.10, %add.8), metadata={op_name=\"jit(branch_flsf)/jit(branch_flsf)/jit(_where)/select_n\" stack_frame_id=9}\n}\n\nENTRY %main.3 (a.1: f32[1024]) -> f32[1024] {\n  %a.1 = f32[1024]{0} parameter(0), metadata={op_name=\"a\"}\n  ROOT %add_select_fusion = f32[1024]{0} fusion(%a.1), kind=kLoop, calls=%fused_computation, metadata={op_name=\"jit(branch_flsf)/jit(branch_flsf)/jit(_where)/select_n\" stack_frame_id=9}\n}\n\n", "ptx": null}
{"id": 97, "kernel_name": "elementwise_asox", "python": "@jax.jit\ndef elementwise_asox(a, b):\n    return a * b", "type": "generate_simple_elementwise", "hlo": "module @jit_elementwise_asox attributes {mhlo.num_partitions = 1 : i32, mhlo.num_replicas = 1 : i32} {\n  func.func public @main(%arg0: tensor<1024xf32>, %arg1: tensor<1024xf32>) -> (tensor<1024xf32> {jax.result_info = \"result\"}) {\n    %0 = call @elementwise_asox(%arg0, %arg1) : (tensor<1024xf32>, tensor<1024xf32>) -> tensor<1024xf32>\n    return %0 : tensor<1024xf32>\n  }\n  func.func private @elementwise_asox(%arg0: tensor<1024xf32>, %arg1: tensor<1024xf32>) -> tensor<1024xf32> {\n    %0 = stablehlo.multiply %arg0, %arg1 : tensor<1024xf32>\n    return %0 : tensor<1024xf32>\n  }\n}\n", "llvm": "HloModule jit_elementwise_asox, is_scheduled=true, entry_computation_layout={(f32[1024]{0}, f32[1024]{0})->f32[1024]{0}}, allow_spmd_sharding_propagation_to_parameters={true,true}, allow_spmd_sharding_propagation_to_output={true}\n\nFileNames\n1 \"/workspace/jit/code/synthesis/jax_pipeline.py\"\n2 \"/workspace/jit/code/extraction/jax_ir_extractor.py\"\n3 \"/tmp/tmpernux0al.py\"\n\nFunctionNames\n1 \"<module>\"\n2 \"generate_batch_to_jsonl\"\n3 \"extract_ir_from_source\"\n4 \"extract_ir\"\n5 \"elementwise_asox\"\n\nFileLocations\n1 {file_name_id=1 function_name_id=1 line=223 end_line=223 column=8 end_column=67}\n2 {file_name_id=1 function_name_id=2 line=184 end_line=184 column=21 end_column=74}\n3 {file_name_id=1 function_name_id=3 line=83 end_line=83 column=13 end_column=44}\n4 {file_name_id=2 function_name_id=4 line=82 end_line=82 column=14 end_column=35}\n5 {file_name_id=3 function_name_id=5 line=6 end_line=6 column=11 end_column=16}\n\nStackFrames\n1 {file_location_id=1 parent_frame_id=1}\n2 {file_location_id=2 parent_frame_id=2}\n3 {file_location_id=3 parent_frame_id=3}\n4 {file_location_id=4 parent_frame_id=4}\n5 {file_location_id=5 parent_frame_id=5}\n\n\n%wrapped_multiply_computation (param_0: f32[1024], param_1: f32[1024]) -> f32[1024] {\n  %param_0 = f32[1024]{0} parameter(0)\n  %param_1 = f32[1024]{0} parameter(1)\n  ROOT %mul.2 = f32[1024]{0} multiply(%param_0, %param_1), metadata={op_name=\"jit(elementwise_asox)/jit(elementwise_asox)/mul\" stack_frame_id=5}\n}\n\nENTRY %main.2 (a.1: f32[1024], b.1: f32[1024]) -> f32[1024] {\n  %a.1 = f32[1024]{0} parameter(0), metadata={op_name=\"a\"}\n  %b.1 = f32[1024]{0} parameter(1), metadata={op_name=\"b\"}\n  ROOT %wrapped_multiply = f32[1024]{0} fusion(%a.1, %b.1), kind=kLoop, calls=%wrapped_multiply_computation, metadata={op_name=\"jit(elementwise_asox)/jit(elementwise_asox)/mul\" stack_frame_id=5}\n}\n\n", "ptx": null}
{"id": 98, "kernel_name": "scalar_arr_ucgn", "python": "@jax.jit\ndef scalar_arr_ucgn(alpha, x, y):\n    return alpha + x * y", "type": "generate_scalar_array_op", "hlo": "module @jit_scalar_arr_ucgn attributes {mhlo.num_partitions = 1 : i32, mhlo.num_replicas = 1 : i32} {\n  func.func public @main(%arg0: tensor<f32>, %arg1: tensor<1024xf32>, %arg2: tensor<1024xf32>) -> (tensor<1024xf32> {jax.result_info = \"result\"}) {\n    %0 = call @scalar_arr_ucgn(%arg0, %arg1, %arg2) : (tensor<f32>, tensor<1024xf32>, tensor<1024xf32>) -> tensor<1024xf32>\n    return %0 : tensor<1024xf32>\n  }\n  func.func private @scalar_arr_ucgn(%arg0: tensor<f32>, %arg1: tensor<1024xf32>, %arg2: tensor<1024xf32>) -> tensor<1024xf32> {\n    %0 = stablehlo.multiply %arg1, %arg2 : tensor<1024xf32>\n    %1 = stablehlo.convert %arg0 : tensor<f32>\n    %2 = stablehlo.broadcast_in_dim %1, dims = [] : (tensor<f32>) -> tensor<1024xf32>\n    %3 = stablehlo.add %2, %0 : tensor<1024xf32>\n    return %3 : tensor<1024xf32>\n  }\n}\n", "llvm": "HloModule jit_scalar_arr_ucgn, is_scheduled=true, entry_computation_layout={(f32[], f32[1024]{0}, f32[1024]{0})->f32[1024]{0}}, allow_spmd_sharding_propagation_to_parameters={true,true,true}, allow_spmd_sharding_propagation_to_output={true}\n\nFileNames\n1 \"/workspace/jit/code/synthesis/jax_pipeline.py\"\n2 \"/workspace/jit/code/extraction/jax_ir_extractor.py\"\n3 \"/tmp/tmp0vh3zr5r.py\"\n\nFunctionNames\n1 \"<module>\"\n2 \"generate_batch_to_jsonl\"\n3 \"extract_ir_from_source\"\n4 \"extract_ir\"\n5 \"scalar_arr_ucgn\"\n\nFileLocations\n1 {file_name_id=1 function_name_id=1 line=223 end_line=223 column=8 end_column=67}\n2 {file_name_id=1 function_name_id=2 line=184 end_line=184 column=21 end_column=74}\n3 {file_name_id=1 function_name_id=3 line=83 end_line=83 column=13 end_column=44}\n4 {file_name_id=2 function_name_id=4 line=82 end_line=82 column=14 end_column=35}\n5 {file_name_id=3 function_name_id=5 line=6 end_line=6 column=19 end_column=24}\n6 {file_name_id=3 function_name_id=5 line=6 end_line=6 column=11 end_column=24}\n\nStackFrames\n1 {file_location_id=1 parent_frame_id=1}\n2 {file_location_id=2 parent_frame_id=2}\n3 {file_location_id=3 parent_frame_id=3}\n4 {file_location_id=4 parent_frame_id=4}\n5 {file_location_id=5 parent_frame_id=5}\n6 {file_location_id=6 parent_frame_id=5}\n\n\n%fused_computation (param_0.1: f32[1024], param_1.2: f32[1024], param_2.1: f32[]) -> f32[1024] {\n  %param_2.1 = f32[] parameter(2)\n  %add.5 = f32[1024]{0} broadcast(%param_2.1), dimensions={}, metadata={op_name=\"jit(scalar_arr_ucgn)/jit(scalar_arr_ucgn)/add\" stack_frame_id=6}\n  %param_0.1 = f32[1024]{0} parameter(0)\n  %param_1.2 = f32[1024]{0} parameter(1)\n  %mul.2 = f32[1024]{0} multiply(%param_0.1, %param_1.2), metadata={op_name=\"jit(scalar_arr_ucgn)/jit(scalar_arr_ucgn)/mul\" stack_frame_id=5}\n  ROOT %add.4 = f32[1024]{0} add(%add.5, %mul.2), metadata={op_name=\"jit(scalar_arr_ucgn)/jit(scalar_arr_ucgn)/add\" stack_frame_id=6}\n}\n\nENTRY %main.2 (alpha.1: f32[], x.1: f32[1024], y.1: f32[1024]) -> f32[1024] {\n  %alpha.1 = f32[] parameter(0), metadata={op_name=\"alpha\"}\n  %x.1 = f32[1024]{0} parameter(1), metadata={op_name=\"x\"}\n  %y.1 = f32[1024]{0} parameter(2), metadata={op_name=\"y\"}\n  ROOT %multiply_add_fusion = f32[1024]{0} fusion(%x.1, %y.1, %alpha.1), kind=kLoop, calls=%fused_computation, metadata={op_name=\"jit(scalar_arr_ucgn)/jit(scalar_arr_ucgn)/add\" stack_frame_id=6}\n}\n\n", "ptx": null}
{"id": 99, "kernel_name": "nested_naue", "python": "@jax.jit\ndef nested_naue(a):\n    # Nested where: if a > t1 then (if a > t2 then ... else ...) else ...\n    inner_true = a * 3.0\n    inner_false = a * 2.0\n    outer_true = jnp.where(a > 0.5, inner_true, inner_false)\n    outer_false = a * 0.5\n    return jnp.where(a > 0.2, outer_true, outer_false)", "type": "generate_nested_branch_kernel", "hlo": "module @jit_nested_naue attributes {mhlo.num_partitions = 1 : i32, mhlo.num_replicas = 1 : i32} {\n  func.func public @main(%arg0: tensor<1024xf32>) -> (tensor<1024xf32> {jax.result_info = \"result\"}) {\n    %0 = call @nested_naue(%arg0) : (tensor<1024xf32>) -> tensor<1024xf32>\n    return %0 : tensor<1024xf32>\n  }\n  func.func private @nested_naue(%arg0: tensor<1024xf32>) -> tensor<1024xf32> {\n    %cst = stablehlo.constant dense<3.000000e+00> : tensor<f32>\n    %0 = stablehlo.broadcast_in_dim %cst, dims = [] : (tensor<f32>) -> tensor<1024xf32>\n    %1 = stablehlo.multiply %arg0, %0 : tensor<1024xf32>\n    %cst_0 = stablehlo.constant dense<2.000000e+00> : tensor<f32>\n    %2 = stablehlo.broadcast_in_dim %cst_0, dims = [] : (tensor<f32>) -> tensor<1024xf32>\n    %3 = stablehlo.multiply %arg0, %2 : tensor<1024xf32>\n    %cst_1 = stablehlo.constant dense<5.000000e-01> : tensor<f32>\n    %4 = stablehlo.broadcast_in_dim %cst_1, dims = [] : (tensor<f32>) -> tensor<1024xf32>\n    %5 = stablehlo.compare  GT, %arg0, %4,  FLOAT : (tensor<1024xf32>, tensor<1024xf32>) -> tensor<1024xi1>\n    %6 = call @_where(%5, %1, %3) : (tensor<1024xi1>, tensor<1024xf32>, tensor<1024xf32>) -> tensor<1024xf32>\n    %cst_2 = stablehlo.constant dense<5.000000e-01> : tensor<f32>\n    %7 = stablehlo.broadcast_in_dim %cst_2, dims = [] : (tensor<f32>) -> tensor<1024xf32>\n    %8 = stablehlo.multiply %arg0, %7 : tensor<1024xf32>\n    %cst_3 = stablehlo.constant dense<2.000000e-01> : tensor<f32>\n    %9 = stablehlo.broadcast_in_dim %cst_3, dims = [] : (tensor<f32>) -> tensor<1024xf32>\n    %10 = stablehlo.compare  GT, %arg0, %9,  FLOAT : (tensor<1024xf32>, tensor<1024xf32>) -> tensor<1024xi1>\n    %11 = call @_where(%10, %6, %8) : (tensor<1024xi1>, tensor<1024xf32>, tensor<1024xf32>) -> tensor<1024xf32>\n    return %11 : tensor<1024xf32>\n  }\n  func.func private @_where(%arg0: tensor<1024xi1>, %arg1: tensor<1024xf32>, %arg2: tensor<1024xf32>) -> tensor<1024xf32> {\n    %0 = stablehlo.select %arg0, %arg1, %arg2 : tensor<1024xi1>, tensor<1024xf32>\n    return %0 : tensor<1024xf32>\n  }\n}\n", "llvm": "HloModule jit_nested_naue, is_scheduled=true, entry_computation_layout={(f32[1024]{0})->f32[1024]{0}}, allow_spmd_sharding_propagation_to_parameters={true}, allow_spmd_sharding_propagation_to_output={true}\n\nFileNames\n1 \"/workspace/jit/code/synthesis/jax_pipeline.py\"\n2 \"/workspace/jit/code/extraction/jax_ir_extractor.py\"\n3 \"/tmp/tmpvw93_pm2.py\"\n4 \"/tmp/tmp7nvd0zdg.py\"\n\nFunctionNames\n1 \"<module>\"\n2 \"generate_batch_to_jsonl\"\n3 \"extract_ir_from_source\"\n4 \"extract_ir\"\n5 \"nested_naue\"\n6 \"nested_odsh\"\n\nFileLocations\n1 {file_name_id=1 function_name_id=1 line=223 end_line=223 column=8 end_column=67}\n2 {file_name_id=1 function_name_id=2 line=184 end_line=184 column=21 end_column=74}\n3 {file_name_id=1 function_name_id=3 line=83 end_line=83 column=13 end_column=44}\n4 {file_name_id=2 function_name_id=4 line=82 end_line=82 column=14 end_column=35}\n5 {file_name_id=3 function_name_id=5 line=11 end_line=11 column=21 end_column=28}\n6 {file_name_id=3 function_name_id=5 line=8 end_line=8 column=18 end_column=25}\n7 {file_name_id=3 function_name_id=5 line=7 end_line=7 column=17 end_column=24}\n8 {file_name_id=3 function_name_id=5 line=9 end_line=9 column=27 end_column=34}\n9 {file_name_id=3 function_name_id=5 line=9 end_line=9 column=17 end_column=60}\n10 {file_name_id=4 function_name_id=6 line=9 end_line=9 column=17 end_column=61}\n11 {file_name_id=3 function_name_id=5 line=10 end_line=10 column=18 end_column=25}\n12 {file_name_id=3 function_name_id=5 line=11 end_line=11 column=11 end_column=54}\n\nStackFrames\n1 {file_location_id=1 parent_frame_id=1}\n2 {file_location_id=2 parent_frame_id=2}\n3 {file_location_id=3 parent_frame_id=3}\n4 {file_location_id=4 parent_frame_id=4}\n5 {file_location_id=5 parent_frame_id=5}\n6 {file_location_id=6 parent_frame_id=5}\n7 {file_location_id=7 parent_frame_id=5}\n8 {file_location_id=8 parent_frame_id=5}\n9 {file_location_id=9 parent_frame_id=5}\n10 {file_location_id=10 parent_frame_id=5}\n11 {file_location_id=11 parent_frame_id=5}\n12 {file_location_id=12 parent_frame_id=5}\n\n\n%fused_computation (param_0.1: f32[1024]) -> f32[1024] {\n  %param_0.1 = f32[1024]{0} parameter(0)\n  %constant.11 = f32[] constant(0.2), metadata={op_name=\"jit(nested_naue)/jit(nested_naue)\"}\n  %gt.8 = f32[1024]{0} broadcast(%constant.11), dimensions={}, metadata={op_name=\"jit(nested_naue)/jit(nested_naue)/gt\" stack_frame_id=5}\n  %gt.7 = pred[1024]{0} compare(%param_0.1, %gt.8), direction=GT, metadata={op_name=\"jit(nested_naue)/jit(nested_naue)/gt\" stack_frame_id=5}\n  %constant.10 = f32[] constant(0.5), metadata={op_name=\"jit(nested_naue)/jit(nested_naue)\"}\n  %broadcast.2 = f32[1024]{0} broadcast(%constant.10), dimensions={}, metadata={op_name=\"jit(nested_naue)/jit(nested_naue)\"}\n  %gt.6 = pred[1024]{0} compare(%param_0.1, %broadcast.2), direction=GT, metadata={op_name=\"jit(nested_naue)/jit(nested_naue)/gt\" stack_frame_id=8}\n  %constant.9 = f32[] constant(3), metadata={op_name=\"jit(nested_naue)/jit(nested_naue)\"}\n  %mul.14 = f32[1024]{0} broadcast(%constant.9), dimensions={}, metadata={op_name=\"jit(nested_naue)/jit(nested_naue)/mul\" stack_frame_id=7}\n  %mul.13 = f32[1024]{0} multiply(%param_0.1, %mul.14), metadata={op_name=\"jit(nested_naue)/jit(nested_naue)/mul\" stack_frame_id=7}\n  %constant.8 = f32[] constant(2), metadata={op_name=\"jit(nested_naue)/jit(nested_naue)\"}\n  %mul.12 = f32[1024]{0} broadcast(%constant.8), dimensions={}, metadata={op_name=\"jit(nested_naue)/jit(nested_naue)/mul\" stack_frame_id=6}\n  %mul.11 = f32[1024]{0} multiply(%param_0.1, %mul.12), metadata={op_name=\"jit(nested_naue)/jit(nested_naue)/mul\" stack_frame_id=6}\n  %select_n.7 = f32[1024]{0} select(%gt.6, %mul.13, %mul.11), metadata={op_name=\"jit(nested_naue)/jit(nested_naue)/jit(_where)/select_n\" stack_frame_id=10}\n  %mul.10 = f32[1024]{0} multiply(%param_0.1, %broadcast.2), metadata={op_name=\"jit(nested_naue)/jit(nested_naue)/mul\" stack_frame_id=11}\n  ROOT %select_n.6 = f32[1024]{0} select(%gt.7, %select_n.7, %mul.10), metadata={op_name=\"jit(nested_naue)/jit(nested_naue)/jit(_where)/select_n\" stack_frame_id=10}\n}\n\nENTRY %main.3 (a.1: f32[1024]) -> f32[1024] {\n  %a.1 = f32[1024]{0} parameter(0), metadata={op_name=\"a\"}\n  ROOT %multiply_select_fusion = f32[1024]{0} fusion(%a.1), kind=kLoop, calls=%fused_computation, metadata={op_name=\"jit(nested_naue)/jit(nested_naue)/jit(_where)/select_n\" stack_frame_id=10}\n}\n\n", "ptx": null}
