[
  {
    "python_code": "lambda x: x + 1.0",
    "input_info": [
      {
        "shape": [
          2
        ],
        "dtype": "float32"
      }
    ],
    "jaxpr": "{ lambda ; a:f32[2]. let b:f32[2] = add a 1.0:f32[] in (b,) }",
    "stablehlo": "module @jit__lambda attributes {mhlo.num_partitions = 1 : i32, mhlo.num_replicas = 1 : i32} {\n  func.func public @main(%arg0: tensor<2xf32>) -> (tensor<2xf32> {jax.result_info = \"result\"}) {\n    %cst = stablehlo.constant dense<1.000000e+00> : tensor<f32>\n    %0 = stablehlo.broadcast_in_dim %cst, dims = [] : (tensor<f32>) -> tensor<2xf32>\n    %1 = stablehlo.add %arg0, %0 : tensor<2xf32>\n    return %1 : tensor<2xf32>\n  }\n}\n",
    "metadata": {
      "category": "arithmetic",
      "operation": "add_scalar",
      "description": "Arithmetic: x + 1.0"
    }
  },
  {
    "python_code": "lambda x: x + 1.0",
    "input_info": [
      {
        "shape": [
          5,
          5
        ],
        "dtype": "float32"
      }
    ],
    "jaxpr": "{ lambda ; a:f32[5,5]. let b:f32[5,5] = add a 1.0:f32[] in (b,) }",
    "stablehlo": "module @jit__lambda attributes {mhlo.num_partitions = 1 : i32, mhlo.num_replicas = 1 : i32} {\n  func.func public @main(%arg0: tensor<5x5xf32>) -> (tensor<5x5xf32> {jax.result_info = \"result\"}) {\n    %cst = stablehlo.constant dense<1.000000e+00> : tensor<f32>\n    %0 = stablehlo.broadcast_in_dim %cst, dims = [] : (tensor<f32>) -> tensor<5x5xf32>\n    %1 = stablehlo.add %arg0, %0 : tensor<5x5xf32>\n    return %1 : tensor<5x5xf32>\n  }\n}\n",
    "metadata": {
      "category": "arithmetic",
      "operation": "add_scalar",
      "description": "Arithmetic: x + 1.0"
    }
  },
  {
    "python_code": "lambda x, y: x - y",
    "input_info": [
      {
        "shape": [
          3,
          10,
          3
        ],
        "dtype": "float32"
      },
      {
        "shape": [
          3,
          10,
          3
        ],
        "dtype": "float32"
      }
    ],
    "jaxpr": "{ lambda ; a:f32[3,10,3] b:f32[3,10,3]. let c:f32[3,10,3] = sub a b in (c,) }",
    "stablehlo": "module @jit__lambda attributes {mhlo.num_partitions = 1 : i32, mhlo.num_replicas = 1 : i32} {\n  func.func public @main(%arg0: tensor<3x10x3xf32>, %arg1: tensor<3x10x3xf32>) -> (tensor<3x10x3xf32> {jax.result_info = \"result\"}) {\n    %0 = stablehlo.subtract %arg0, %arg1 : tensor<3x10x3xf32>\n    return %0 : tensor<3x10x3xf32>\n  }\n}\n",
    "metadata": {
      "category": "arithmetic",
      "operation": "subtract",
      "description": "Arithmetic: x - y"
    }
  },
  {
    "python_code": "lambda x: x ** 2",
    "input_info": [
      {
        "shape": [
          2,
          2
        ],
        "dtype": "float32"
      }
    ],
    "jaxpr": "{ lambda ; a:f32[2,2]. let b:f32[2,2] = integer_pow[y=2] a in (b,) }",
    "stablehlo": "module @jit__lambda attributes {mhlo.num_partitions = 1 : i32, mhlo.num_replicas = 1 : i32} {\n  func.func public @main(%arg0: tensor<2x2xf32>) -> (tensor<2x2xf32> {jax.result_info = \"result\"}) {\n    %0 = stablehlo.multiply %arg0, %arg0 : tensor<2x2xf32>\n    return %0 : tensor<2x2xf32>\n  }\n}\n",
    "metadata": {
      "category": "arithmetic",
      "operation": "power",
      "description": "Arithmetic: x ** 2"
    }
  },
  {
    "python_code": "lambda x, y: x + y",
    "input_info": [
      {
        "shape": [
          5
        ],
        "dtype": "float32"
      },
      {
        "shape": [
          5
        ],
        "dtype": "float32"
      }
    ],
    "jaxpr": "{ lambda ; a:f32[5] b:f32[5]. let c:f32[5] = add a b in (c,) }",
    "stablehlo": "module @jit__lambda attributes {mhlo.num_partitions = 1 : i32, mhlo.num_replicas = 1 : i32} {\n  func.func public @main(%arg0: tensor<5xf32>, %arg1: tensor<5xf32>) -> (tensor<5xf32> {jax.result_info = \"result\"}) {\n    %0 = stablehlo.add %arg0, %arg1 : tensor<5xf32>\n    return %0 : tensor<5xf32>\n  }\n}\n",
    "metadata": {
      "category": "arithmetic",
      "operation": "add",
      "description": "Arithmetic: x + y"
    }
  },
  {
    "python_code": "lambda x: x ** 2",
    "input_info": [
      {
        "shape": [
          2,
          10,
          5
        ],
        "dtype": "float32"
      }
    ],
    "jaxpr": "{ lambda ; a:f32[2,10,5]. let b:f32[2,10,5] = integer_pow[y=2] a in (b,) }",
    "stablehlo": "module @jit__lambda attributes {mhlo.num_partitions = 1 : i32, mhlo.num_replicas = 1 : i32} {\n  func.func public @main(%arg0: tensor<2x10x5xf32>) -> (tensor<2x10x5xf32> {jax.result_info = \"result\"}) {\n    %0 = stablehlo.multiply %arg0, %arg0 : tensor<2x10x5xf32>\n    return %0 : tensor<2x10x5xf32>\n  }\n}\n",
    "metadata": {
      "category": "arithmetic",
      "operation": "power",
      "description": "Arithmetic: x ** 2"
    }
  },
  {
    "python_code": "lambda x: x + 1.0",
    "input_info": [
      {
        "shape": [
          10,
          8,
          5
        ],
        "dtype": "float32"
      }
    ],
    "jaxpr": "{ lambda ; a:f32[10,8,5]. let b:f32[10,8,5] = add a 1.0:f32[] in (b,) }",
    "stablehlo": "module @jit__lambda attributes {mhlo.num_partitions = 1 : i32, mhlo.num_replicas = 1 : i32} {\n  func.func public @main(%arg0: tensor<10x8x5xf32>) -> (tensor<10x8x5xf32> {jax.result_info = \"result\"}) {\n    %cst = stablehlo.constant dense<1.000000e+00> : tensor<f32>\n    %0 = stablehlo.broadcast_in_dim %cst, dims = [] : (tensor<f32>) -> tensor<10x8x5xf32>\n    %1 = stablehlo.add %arg0, %0 : tensor<10x8x5xf32>\n    return %1 : tensor<10x8x5xf32>\n  }\n}\n",
    "metadata": {
      "category": "arithmetic",
      "operation": "add_scalar",
      "description": "Arithmetic: x + 1.0"
    }
  },
  {
    "python_code": "lambda x, y: x / y",
    "input_info": [
      {
        "shape": [
          6,
          2,
          4
        ],
        "dtype": "float32"
      },
      {
        "shape": [
          6,
          2,
          4
        ],
        "dtype": "float32"
      }
    ],
    "jaxpr": "{ lambda ; a:f32[6,2,4] b:f32[6,2,4]. let c:f32[6,2,4] = div a b in (c,) }",
    "stablehlo": "module @jit__lambda attributes {mhlo.num_partitions = 1 : i32, mhlo.num_replicas = 1 : i32} {\n  func.func public @main(%arg0: tensor<6x2x4xf32>, %arg1: tensor<6x2x4xf32>) -> (tensor<6x2x4xf32> {jax.result_info = \"result\"}) {\n    %0 = stablehlo.divide %arg0, %arg1 : tensor<6x2x4xf32>\n    return %0 : tensor<6x2x4xf32>\n  }\n}\n",
    "metadata": {
      "category": "arithmetic",
      "operation": "divide",
      "description": "Arithmetic: x / y"
    }
  },
  {
    "python_code": "lambda x: x + 1.0",
    "input_info": [
      {
        "shape": [
          7,
          6
        ],
        "dtype": "float32"
      }
    ],
    "jaxpr": "{ lambda ; a:f32[7,6]. let b:f32[7,6] = add a 1.0:f32[] in (b,) }",
    "stablehlo": "module @jit__lambda attributes {mhlo.num_partitions = 1 : i32, mhlo.num_replicas = 1 : i32} {\n  func.func public @main(%arg0: tensor<7x6xf32>) -> (tensor<7x6xf32> {jax.result_info = \"result\"}) {\n    %cst = stablehlo.constant dense<1.000000e+00> : tensor<f32>\n    %0 = stablehlo.broadcast_in_dim %cst, dims = [] : (tensor<f32>) -> tensor<7x6xf32>\n    %1 = stablehlo.add %arg0, %0 : tensor<7x6xf32>\n    return %1 : tensor<7x6xf32>\n  }\n}\n",
    "metadata": {
      "category": "arithmetic",
      "operation": "add_scalar",
      "description": "Arithmetic: x + 1.0"
    }
  },
  {
    "python_code": "lambda x, y: x - y",
    "input_info": [
      {
        "shape": [
          7
        ],
        "dtype": "float32"
      },
      {
        "shape": [
          7
        ],
        "dtype": "float32"
      }
    ],
    "jaxpr": "{ lambda ; a:f32[7] b:f32[7]. let c:f32[7] = sub a b in (c,) }",
    "stablehlo": "module @jit__lambda attributes {mhlo.num_partitions = 1 : i32, mhlo.num_replicas = 1 : i32} {\n  func.func public @main(%arg0: tensor<7xf32>, %arg1: tensor<7xf32>) -> (tensor<7xf32> {jax.result_info = \"result\"}) {\n    %0 = stablehlo.subtract %arg0, %arg1 : tensor<7xf32>\n    return %0 : tensor<7xf32>\n  }\n}\n",
    "metadata": {
      "category": "arithmetic",
      "operation": "subtract",
      "description": "Arithmetic: x - y"
    }
  },
  {
    "python_code": "lambda x, y: x + y",
    "input_info": [
      {
        "shape": [
          8
        ],
        "dtype": "float32"
      },
      {
        "shape": [
          8
        ],
        "dtype": "float32"
      }
    ],
    "jaxpr": "{ lambda ; a:f32[8] b:f32[8]. let c:f32[8] = add a b in (c,) }",
    "stablehlo": "module @jit__lambda attributes {mhlo.num_partitions = 1 : i32, mhlo.num_replicas = 1 : i32} {\n  func.func public @main(%arg0: tensor<8xf32>, %arg1: tensor<8xf32>) -> (tensor<8xf32> {jax.result_info = \"result\"}) {\n    %0 = stablehlo.add %arg0, %arg1 : tensor<8xf32>\n    return %0 : tensor<8xf32>\n  }\n}\n",
    "metadata": {
      "category": "arithmetic",
      "operation": "add",
      "description": "Arithmetic: x + y"
    }
  },
  {
    "python_code": "lambda x, y: x + y",
    "input_info": [
      {
        "shape": [
          7,
          6
        ],
        "dtype": "float32"
      },
      {
        "shape": [
          7,
          6
        ],
        "dtype": "float32"
      }
    ],
    "jaxpr": "{ lambda ; a:f32[7,6] b:f32[7,6]. let c:f32[7,6] = add a b in (c,) }",
    "stablehlo": "module @jit__lambda attributes {mhlo.num_partitions = 1 : i32, mhlo.num_replicas = 1 : i32} {\n  func.func public @main(%arg0: tensor<7x6xf32>, %arg1: tensor<7x6xf32>) -> (tensor<7x6xf32> {jax.result_info = \"result\"}) {\n    %0 = stablehlo.add %arg0, %arg1 : tensor<7x6xf32>\n    return %0 : tensor<7x6xf32>\n  }\n}\n",
    "metadata": {
      "category": "arithmetic",
      "operation": "add",
      "description": "Arithmetic: x + y"
    }
  },
  {
    "python_code": "lambda x: x * 2.0",
    "input_info": [
      {
        "shape": [
          9
        ],
        "dtype": "float32"
      }
    ],
    "jaxpr": "{ lambda ; a:f32[9]. let b:f32[9] = mul a 2.0:f32[] in (b,) }",
    "stablehlo": "module @jit__lambda attributes {mhlo.num_partitions = 1 : i32, mhlo.num_replicas = 1 : i32} {\n  func.func public @main(%arg0: tensor<9xf32>) -> (tensor<9xf32> {jax.result_info = \"result\"}) {\n    %cst = stablehlo.constant dense<2.000000e+00> : tensor<f32>\n    %0 = stablehlo.broadcast_in_dim %cst, dims = [] : (tensor<f32>) -> tensor<9xf32>\n    %1 = stablehlo.multiply %arg0, %0 : tensor<9xf32>\n    return %1 : tensor<9xf32>\n  }\n}\n",
    "metadata": {
      "category": "arithmetic",
      "operation": "mul_scalar",
      "description": "Arithmetic: x * 2.0"
    }
  },
  {
    "python_code": "lambda x: x ** 2",
    "input_info": [
      {
        "shape": [
          8
        ],
        "dtype": "float32"
      }
    ],
    "jaxpr": "{ lambda ; a:f32[8]. let b:f32[8] = integer_pow[y=2] a in (b,) }",
    "stablehlo": "module @jit__lambda attributes {mhlo.num_partitions = 1 : i32, mhlo.num_replicas = 1 : i32} {\n  func.func public @main(%arg0: tensor<8xf32>) -> (tensor<8xf32> {jax.result_info = \"result\"}) {\n    %0 = stablehlo.multiply %arg0, %arg0 : tensor<8xf32>\n    return %0 : tensor<8xf32>\n  }\n}\n",
    "metadata": {
      "category": "arithmetic",
      "operation": "power",
      "description": "Arithmetic: x ** 2"
    }
  },
  {
    "python_code": "lambda x, y: x + y",
    "input_info": [
      {
        "shape": [
          6,
          7,
          5
        ],
        "dtype": "float32"
      },
      {
        "shape": [
          6,
          7,
          5
        ],
        "dtype": "float32"
      }
    ],
    "jaxpr": "{ lambda ; a:f32[6,7,5] b:f32[6,7,5]. let c:f32[6,7,5] = add a b in (c,) }",
    "stablehlo": "module @jit__lambda attributes {mhlo.num_partitions = 1 : i32, mhlo.num_replicas = 1 : i32} {\n  func.func public @main(%arg0: tensor<6x7x5xf32>, %arg1: tensor<6x7x5xf32>) -> (tensor<6x7x5xf32> {jax.result_info = \"result\"}) {\n    %0 = stablehlo.add %arg0, %arg1 : tensor<6x7x5xf32>\n    return %0 : tensor<6x7x5xf32>\n  }\n}\n",
    "metadata": {
      "category": "arithmetic",
      "operation": "add",
      "description": "Arithmetic: x + y"
    }
  },
  {
    "python_code": "lambda x: x + 1.0",
    "input_info": [
      {
        "shape": [
          2
        ],
        "dtype": "float32"
      }
    ],
    "jaxpr": "{ lambda ; a:f32[2]. let b:f32[2] = add a 1.0:f32[] in (b,) }",
    "stablehlo": "module @jit__lambda attributes {mhlo.num_partitions = 1 : i32, mhlo.num_replicas = 1 : i32} {\n  func.func public @main(%arg0: tensor<2xf32>) -> (tensor<2xf32> {jax.result_info = \"result\"}) {\n    %cst = stablehlo.constant dense<1.000000e+00> : tensor<f32>\n    %0 = stablehlo.broadcast_in_dim %cst, dims = [] : (tensor<f32>) -> tensor<2xf32>\n    %1 = stablehlo.add %arg0, %0 : tensor<2xf32>\n    return %1 : tensor<2xf32>\n  }\n}\n",
    "metadata": {
      "category": "arithmetic",
      "operation": "add_scalar",
      "description": "Arithmetic: x + 1.0"
    }
  },
  {
    "python_code": "lambda x: x + 1.0",
    "input_info": [
      {
        "shape": [
          6
        ],
        "dtype": "float32"
      }
    ],
    "jaxpr": "{ lambda ; a:f32[6]. let b:f32[6] = add a 1.0:f32[] in (b,) }",
    "stablehlo": "module @jit__lambda attributes {mhlo.num_partitions = 1 : i32, mhlo.num_replicas = 1 : i32} {\n  func.func public @main(%arg0: tensor<6xf32>) -> (tensor<6xf32> {jax.result_info = \"result\"}) {\n    %cst = stablehlo.constant dense<1.000000e+00> : tensor<f32>\n    %0 = stablehlo.broadcast_in_dim %cst, dims = [] : (tensor<f32>) -> tensor<6xf32>\n    %1 = stablehlo.add %arg0, %0 : tensor<6xf32>\n    return %1 : tensor<6xf32>\n  }\n}\n",
    "metadata": {
      "category": "arithmetic",
      "operation": "add_scalar",
      "description": "Arithmetic: x + 1.0"
    }
  },
  {
    "python_code": "lambda x, y: x + y",
    "input_info": [
      {
        "shape": [
          3
        ],
        "dtype": "float32"
      },
      {
        "shape": [
          3
        ],
        "dtype": "float32"
      }
    ],
    "jaxpr": "{ lambda ; a:f32[3] b:f32[3]. let c:f32[3] = add a b in (c,) }",
    "stablehlo": "module @jit__lambda attributes {mhlo.num_partitions = 1 : i32, mhlo.num_replicas = 1 : i32} {\n  func.func public @main(%arg0: tensor<3xf32>, %arg1: tensor<3xf32>) -> (tensor<3xf32> {jax.result_info = \"result\"}) {\n    %0 = stablehlo.add %arg0, %arg1 : tensor<3xf32>\n    return %0 : tensor<3xf32>\n  }\n}\n",
    "metadata": {
      "category": "arithmetic",
      "operation": "add",
      "description": "Arithmetic: x + y"
    }
  },
  {
    "python_code": "lambda x, y: x / y",
    "input_info": [
      {
        "shape": [
          9,
          7
        ],
        "dtype": "float32"
      },
      {
        "shape": [
          9,
          7
        ],
        "dtype": "float32"
      }
    ],
    "jaxpr": "{ lambda ; a:f32[9,7] b:f32[9,7]. let c:f32[9,7] = div a b in (c,) }",
    "stablehlo": "module @jit__lambda attributes {mhlo.num_partitions = 1 : i32, mhlo.num_replicas = 1 : i32} {\n  func.func public @main(%arg0: tensor<9x7xf32>, %arg1: tensor<9x7xf32>) -> (tensor<9x7xf32> {jax.result_info = \"result\"}) {\n    %0 = stablehlo.divide %arg0, %arg1 : tensor<9x7xf32>\n    return %0 : tensor<9x7xf32>\n  }\n}\n",
    "metadata": {
      "category": "arithmetic",
      "operation": "divide",
      "description": "Arithmetic: x / y"
    }
  },
  {
    "python_code": "lambda x, y: x - y",
    "input_info": [
      {
        "shape": [
          7,
          5
        ],
        "dtype": "float32"
      },
      {
        "shape": [
          7,
          5
        ],
        "dtype": "float32"
      }
    ],
    "jaxpr": "{ lambda ; a:f32[7,5] b:f32[7,5]. let c:f32[7,5] = sub a b in (c,) }",
    "stablehlo": "module @jit__lambda attributes {mhlo.num_partitions = 1 : i32, mhlo.num_replicas = 1 : i32} {\n  func.func public @main(%arg0: tensor<7x5xf32>, %arg1: tensor<7x5xf32>) -> (tensor<7x5xf32> {jax.result_info = \"result\"}) {\n    %0 = stablehlo.subtract %arg0, %arg1 : tensor<7x5xf32>\n    return %0 : tensor<7x5xf32>\n  }\n}\n",
    "metadata": {
      "category": "arithmetic",
      "operation": "subtract",
      "description": "Arithmetic: x - y"
    }
  },
  {
    "python_code": "lambda x: x + 1.0",
    "input_info": [
      {
        "shape": [
          3,
          4
        ],
        "dtype": "float32"
      }
    ],
    "jaxpr": "{ lambda ; a:f32[3,4]. let b:f32[3,4] = add a 1.0:f32[] in (b,) }",
    "stablehlo": "module @jit__lambda attributes {mhlo.num_partitions = 1 : i32, mhlo.num_replicas = 1 : i32} {\n  func.func public @main(%arg0: tensor<3x4xf32>) -> (tensor<3x4xf32> {jax.result_info = \"result\"}) {\n    %cst = stablehlo.constant dense<1.000000e+00> : tensor<f32>\n    %0 = stablehlo.broadcast_in_dim %cst, dims = [] : (tensor<f32>) -> tensor<3x4xf32>\n    %1 = stablehlo.add %arg0, %0 : tensor<3x4xf32>\n    return %1 : tensor<3x4xf32>\n  }\n}\n",
    "metadata": {
      "category": "arithmetic",
      "operation": "add_scalar",
      "description": "Arithmetic: x + 1.0"
    }
  },
  {
    "python_code": "lambda x: x ** 2",
    "input_info": [
      {
        "shape": [
          5,
          4,
          9
        ],
        "dtype": "float32"
      }
    ],
    "jaxpr": "{ lambda ; a:f32[5,4,9]. let b:f32[5,4,9] = integer_pow[y=2] a in (b,) }",
    "stablehlo": "module @jit__lambda attributes {mhlo.num_partitions = 1 : i32, mhlo.num_replicas = 1 : i32} {\n  func.func public @main(%arg0: tensor<5x4x9xf32>) -> (tensor<5x4x9xf32> {jax.result_info = \"result\"}) {\n    %0 = stablehlo.multiply %arg0, %arg0 : tensor<5x4x9xf32>\n    return %0 : tensor<5x4x9xf32>\n  }\n}\n",
    "metadata": {
      "category": "arithmetic",
      "operation": "power",
      "description": "Arithmetic: x ** 2"
    }
  },
  {
    "python_code": "lambda x, y: x / y",
    "input_info": [
      {
        "shape": [
          10,
          5
        ],
        "dtype": "float32"
      },
      {
        "shape": [
          10,
          5
        ],
        "dtype": "float32"
      }
    ],
    "jaxpr": "{ lambda ; a:f32[10,5] b:f32[10,5]. let c:f32[10,5] = div a b in (c,) }",
    "stablehlo": "module @jit__lambda attributes {mhlo.num_partitions = 1 : i32, mhlo.num_replicas = 1 : i32} {\n  func.func public @main(%arg0: tensor<10x5xf32>, %arg1: tensor<10x5xf32>) -> (tensor<10x5xf32> {jax.result_info = \"result\"}) {\n    %0 = stablehlo.divide %arg0, %arg1 : tensor<10x5xf32>\n    return %0 : tensor<10x5xf32>\n  }\n}\n",
    "metadata": {
      "category": "arithmetic",
      "operation": "divide",
      "description": "Arithmetic: x / y"
    }
  },
  {
    "python_code": "lambda x: x + 1.0",
    "input_info": [
      {
        "shape": [
          2,
          5
        ],
        "dtype": "float32"
      }
    ],
    "jaxpr": "{ lambda ; a:f32[2,5]. let b:f32[2,5] = add a 1.0:f32[] in (b,) }",
    "stablehlo": "module @jit__lambda attributes {mhlo.num_partitions = 1 : i32, mhlo.num_replicas = 1 : i32} {\n  func.func public @main(%arg0: tensor<2x5xf32>) -> (tensor<2x5xf32> {jax.result_info = \"result\"}) {\n    %cst = stablehlo.constant dense<1.000000e+00> : tensor<f32>\n    %0 = stablehlo.broadcast_in_dim %cst, dims = [] : (tensor<f32>) -> tensor<2x5xf32>\n    %1 = stablehlo.add %arg0, %0 : tensor<2x5xf32>\n    return %1 : tensor<2x5xf32>\n  }\n}\n",
    "metadata": {
      "category": "arithmetic",
      "operation": "add_scalar",
      "description": "Arithmetic: x + 1.0"
    }
  },
  {
    "python_code": "lambda x: x * 2.0",
    "input_info": [
      {
        "shape": [
          7
        ],
        "dtype": "float32"
      }
    ],
    "jaxpr": "{ lambda ; a:f32[7]. let b:f32[7] = mul a 2.0:f32[] in (b,) }",
    "stablehlo": "module @jit__lambda attributes {mhlo.num_partitions = 1 : i32, mhlo.num_replicas = 1 : i32} {\n  func.func public @main(%arg0: tensor<7xf32>) -> (tensor<7xf32> {jax.result_info = \"result\"}) {\n    %cst = stablehlo.constant dense<2.000000e+00> : tensor<f32>\n    %0 = stablehlo.broadcast_in_dim %cst, dims = [] : (tensor<f32>) -> tensor<7xf32>\n    %1 = stablehlo.multiply %arg0, %0 : tensor<7xf32>\n    return %1 : tensor<7xf32>\n  }\n}\n",
    "metadata": {
      "category": "arithmetic",
      "operation": "mul_scalar",
      "description": "Arithmetic: x * 2.0"
    }
  },
  {
    "python_code": "lambda x, y: x / y",
    "input_info": [
      {
        "shape": [
          3,
          5
        ],
        "dtype": "float32"
      },
      {
        "shape": [
          3,
          5
        ],
        "dtype": "float32"
      }
    ],
    "jaxpr": "{ lambda ; a:f32[3,5] b:f32[3,5]. let c:f32[3,5] = div a b in (c,) }",
    "stablehlo": "module @jit__lambda attributes {mhlo.num_partitions = 1 : i32, mhlo.num_replicas = 1 : i32} {\n  func.func public @main(%arg0: tensor<3x5xf32>, %arg1: tensor<3x5xf32>) -> (tensor<3x5xf32> {jax.result_info = \"result\"}) {\n    %0 = stablehlo.divide %arg0, %arg1 : tensor<3x5xf32>\n    return %0 : tensor<3x5xf32>\n  }\n}\n",
    "metadata": {
      "category": "arithmetic",
      "operation": "divide",
      "description": "Arithmetic: x / y"
    }
  },
  {
    "python_code": "lambda x: x ** 2",
    "input_info": [
      {
        "shape": [
          7,
          5,
          9
        ],
        "dtype": "float32"
      }
    ],
    "jaxpr": "{ lambda ; a:f32[7,5,9]. let b:f32[7,5,9] = integer_pow[y=2] a in (b,) }",
    "stablehlo": "module @jit__lambda attributes {mhlo.num_partitions = 1 : i32, mhlo.num_replicas = 1 : i32} {\n  func.func public @main(%arg0: tensor<7x5x9xf32>) -> (tensor<7x5x9xf32> {jax.result_info = \"result\"}) {\n    %0 = stablehlo.multiply %arg0, %arg0 : tensor<7x5x9xf32>\n    return %0 : tensor<7x5x9xf32>\n  }\n}\n",
    "metadata": {
      "category": "arithmetic",
      "operation": "power",
      "description": "Arithmetic: x ** 2"
    }
  },
  {
    "python_code": "lambda x, y: x / y",
    "input_info": [
      {
        "shape": [
          9,
          4,
          6
        ],
        "dtype": "float32"
      },
      {
        "shape": [
          9,
          4,
          6
        ],
        "dtype": "float32"
      }
    ],
    "jaxpr": "{ lambda ; a:f32[9,4,6] b:f32[9,4,6]. let c:f32[9,4,6] = div a b in (c,) }",
    "stablehlo": "module @jit__lambda attributes {mhlo.num_partitions = 1 : i32, mhlo.num_replicas = 1 : i32} {\n  func.func public @main(%arg0: tensor<9x4x6xf32>, %arg1: tensor<9x4x6xf32>) -> (tensor<9x4x6xf32> {jax.result_info = \"result\"}) {\n    %0 = stablehlo.divide %arg0, %arg1 : tensor<9x4x6xf32>\n    return %0 : tensor<9x4x6xf32>\n  }\n}\n",
    "metadata": {
      "category": "arithmetic",
      "operation": "divide",
      "description": "Arithmetic: x / y"
    }
  },
  {
    "python_code": "lambda x, y: x - y",
    "input_info": [
      {
        "shape": [
          10
        ],
        "dtype": "float32"
      },
      {
        "shape": [
          10
        ],
        "dtype": "float32"
      }
    ],
    "jaxpr": "{ lambda ; a:f32[10] b:f32[10]. let c:f32[10] = sub a b in (c,) }",
    "stablehlo": "module @jit__lambda attributes {mhlo.num_partitions = 1 : i32, mhlo.num_replicas = 1 : i32} {\n  func.func public @main(%arg0: tensor<10xf32>, %arg1: tensor<10xf32>) -> (tensor<10xf32> {jax.result_info = \"result\"}) {\n    %0 = stablehlo.subtract %arg0, %arg1 : tensor<10xf32>\n    return %0 : tensor<10xf32>\n  }\n}\n",
    "metadata": {
      "category": "arithmetic",
      "operation": "subtract",
      "description": "Arithmetic: x - y"
    }
  },
  {
    "python_code": "lambda x: x ** 2",
    "input_info": [
      {
        "shape": [
          8,
          8
        ],
        "dtype": "float32"
      }
    ],
    "jaxpr": "{ lambda ; a:f32[8,8]. let b:f32[8,8] = integer_pow[y=2] a in (b,) }",
    "stablehlo": "module @jit__lambda attributes {mhlo.num_partitions = 1 : i32, mhlo.num_replicas = 1 : i32} {\n  func.func public @main(%arg0: tensor<8x8xf32>) -> (tensor<8x8xf32> {jax.result_info = \"result\"}) {\n    %0 = stablehlo.multiply %arg0, %arg0 : tensor<8x8xf32>\n    return %0 : tensor<8x8xf32>\n  }\n}\n",
    "metadata": {
      "category": "arithmetic",
      "operation": "power",
      "description": "Arithmetic: x ** 2"
    }
  },
  {
    "python_code": "lambda x, y: x * y",
    "input_info": [
      {
        "shape": [
          4
        ],
        "dtype": "float32"
      },
      {
        "shape": [
          4
        ],
        "dtype": "float32"
      }
    ],
    "jaxpr": "{ lambda ; a:f32[4] b:f32[4]. let c:f32[4] = mul a b in (c,) }",
    "stablehlo": "module @jit__lambda attributes {mhlo.num_partitions = 1 : i32, mhlo.num_replicas = 1 : i32} {\n  func.func public @main(%arg0: tensor<4xf32>, %arg1: tensor<4xf32>) -> (tensor<4xf32> {jax.result_info = \"result\"}) {\n    %0 = stablehlo.multiply %arg0, %arg1 : tensor<4xf32>\n    return %0 : tensor<4xf32>\n  }\n}\n",
    "metadata": {
      "category": "arithmetic",
      "operation": "multiply",
      "description": "Arithmetic: x * y"
    }
  },
  {
    "python_code": "lambda x: x ** 2",
    "input_info": [
      {
        "shape": [
          3,
          2
        ],
        "dtype": "float32"
      }
    ],
    "jaxpr": "{ lambda ; a:f32[3,2]. let b:f32[3,2] = integer_pow[y=2] a in (b,) }",
    "stablehlo": "module @jit__lambda attributes {mhlo.num_partitions = 1 : i32, mhlo.num_replicas = 1 : i32} {\n  func.func public @main(%arg0: tensor<3x2xf32>) -> (tensor<3x2xf32> {jax.result_info = \"result\"}) {\n    %0 = stablehlo.multiply %arg0, %arg0 : tensor<3x2xf32>\n    return %0 : tensor<3x2xf32>\n  }\n}\n",
    "metadata": {
      "category": "arithmetic",
      "operation": "power",
      "description": "Arithmetic: x ** 2"
    }
  },
  {
    "python_code": "lambda x: x * 2.0",
    "input_info": [
      {
        "shape": [
          4
        ],
        "dtype": "float32"
      }
    ],
    "jaxpr": "{ lambda ; a:f32[4]. let b:f32[4] = mul a 2.0:f32[] in (b,) }",
    "stablehlo": "module @jit__lambda attributes {mhlo.num_partitions = 1 : i32, mhlo.num_replicas = 1 : i32} {\n  func.func public @main(%arg0: tensor<4xf32>) -> (tensor<4xf32> {jax.result_info = \"result\"}) {\n    %cst = stablehlo.constant dense<2.000000e+00> : tensor<f32>\n    %0 = stablehlo.broadcast_in_dim %cst, dims = [] : (tensor<f32>) -> tensor<4xf32>\n    %1 = stablehlo.multiply %arg0, %0 : tensor<4xf32>\n    return %1 : tensor<4xf32>\n  }\n}\n",
    "metadata": {
      "category": "arithmetic",
      "operation": "mul_scalar",
      "description": "Arithmetic: x * 2.0"
    }
  },
  {
    "python_code": "lambda x: x + 1.0",
    "input_info": [
      {
        "shape": [
          8
        ],
        "dtype": "float32"
      }
    ],
    "jaxpr": "{ lambda ; a:f32[8]. let b:f32[8] = add a 1.0:f32[] in (b,) }",
    "stablehlo": "module @jit__lambda attributes {mhlo.num_partitions = 1 : i32, mhlo.num_replicas = 1 : i32} {\n  func.func public @main(%arg0: tensor<8xf32>) -> (tensor<8xf32> {jax.result_info = \"result\"}) {\n    %cst = stablehlo.constant dense<1.000000e+00> : tensor<f32>\n    %0 = stablehlo.broadcast_in_dim %cst, dims = [] : (tensor<f32>) -> tensor<8xf32>\n    %1 = stablehlo.add %arg0, %0 : tensor<8xf32>\n    return %1 : tensor<8xf32>\n  }\n}\n",
    "metadata": {
      "category": "arithmetic",
      "operation": "add_scalar",
      "description": "Arithmetic: x + 1.0"
    }
  },
  {
    "python_code": "lambda x: x ** 2",
    "input_info": [
      {
        "shape": [
          8
        ],
        "dtype": "float32"
      }
    ],
    "jaxpr": "{ lambda ; a:f32[8]. let b:f32[8] = integer_pow[y=2] a in (b,) }",
    "stablehlo": "module @jit__lambda attributes {mhlo.num_partitions = 1 : i32, mhlo.num_replicas = 1 : i32} {\n  func.func public @main(%arg0: tensor<8xf32>) -> (tensor<8xf32> {jax.result_info = \"result\"}) {\n    %0 = stablehlo.multiply %arg0, %arg0 : tensor<8xf32>\n    return %0 : tensor<8xf32>\n  }\n}\n",
    "metadata": {
      "category": "arithmetic",
      "operation": "power",
      "description": "Arithmetic: x ** 2"
    }
  },
  {
    "python_code": "lambda x, y: x / y",
    "input_info": [
      {
        "shape": [
          9,
          10,
          6
        ],
        "dtype": "float32"
      },
      {
        "shape": [
          9,
          10,
          6
        ],
        "dtype": "float32"
      }
    ],
    "jaxpr": "{ lambda ; a:f32[9,10,6] b:f32[9,10,6]. let c:f32[9,10,6] = div a b in (c,) }",
    "stablehlo": "module @jit__lambda attributes {mhlo.num_partitions = 1 : i32, mhlo.num_replicas = 1 : i32} {\n  func.func public @main(%arg0: tensor<9x10x6xf32>, %arg1: tensor<9x10x6xf32>) -> (tensor<9x10x6xf32> {jax.result_info = \"result\"}) {\n    %0 = stablehlo.divide %arg0, %arg1 : tensor<9x10x6xf32>\n    return %0 : tensor<9x10x6xf32>\n  }\n}\n",
    "metadata": {
      "category": "arithmetic",
      "operation": "divide",
      "description": "Arithmetic: x / y"
    }
  },
  {
    "python_code": "lambda x: x ** 2",
    "input_info": [
      {
        "shape": [
          3
        ],
        "dtype": "float32"
      }
    ],
    "jaxpr": "{ lambda ; a:f32[3]. let b:f32[3] = integer_pow[y=2] a in (b,) }",
    "stablehlo": "module @jit__lambda attributes {mhlo.num_partitions = 1 : i32, mhlo.num_replicas = 1 : i32} {\n  func.func public @main(%arg0: tensor<3xf32>) -> (tensor<3xf32> {jax.result_info = \"result\"}) {\n    %0 = stablehlo.multiply %arg0, %arg0 : tensor<3xf32>\n    return %0 : tensor<3xf32>\n  }\n}\n",
    "metadata": {
      "category": "arithmetic",
      "operation": "power",
      "description": "Arithmetic: x ** 2"
    }
  },
  {
    "python_code": "lambda x: x + 1.0",
    "input_info": [
      {
        "shape": [
          6,
          7,
          3
        ],
        "dtype": "float32"
      }
    ],
    "jaxpr": "{ lambda ; a:f32[6,7,3]. let b:f32[6,7,3] = add a 1.0:f32[] in (b,) }",
    "stablehlo": "module @jit__lambda attributes {mhlo.num_partitions = 1 : i32, mhlo.num_replicas = 1 : i32} {\n  func.func public @main(%arg0: tensor<6x7x3xf32>) -> (tensor<6x7x3xf32> {jax.result_info = \"result\"}) {\n    %cst = stablehlo.constant dense<1.000000e+00> : tensor<f32>\n    %0 = stablehlo.broadcast_in_dim %cst, dims = [] : (tensor<f32>) -> tensor<6x7x3xf32>\n    %1 = stablehlo.add %arg0, %0 : tensor<6x7x3xf32>\n    return %1 : tensor<6x7x3xf32>\n  }\n}\n",
    "metadata": {
      "category": "arithmetic",
      "operation": "add_scalar",
      "description": "Arithmetic: x + 1.0"
    }
  },
  {
    "python_code": "lambda x, y: x * y",
    "input_info": [
      {
        "shape": [
          4,
          9
        ],
        "dtype": "float32"
      },
      {
        "shape": [
          4,
          9
        ],
        "dtype": "float32"
      }
    ],
    "jaxpr": "{ lambda ; a:f32[4,9] b:f32[4,9]. let c:f32[4,9] = mul a b in (c,) }",
    "stablehlo": "module @jit__lambda attributes {mhlo.num_partitions = 1 : i32, mhlo.num_replicas = 1 : i32} {\n  func.func public @main(%arg0: tensor<4x9xf32>, %arg1: tensor<4x9xf32>) -> (tensor<4x9xf32> {jax.result_info = \"result\"}) {\n    %0 = stablehlo.multiply %arg0, %arg1 : tensor<4x9xf32>\n    return %0 : tensor<4x9xf32>\n  }\n}\n",
    "metadata": {
      "category": "arithmetic",
      "operation": "multiply",
      "description": "Arithmetic: x * y"
    }
  },
  {
    "python_code": "lambda x, y: x + y",
    "input_info": [
      {
        "shape": [
          6,
          10,
          4
        ],
        "dtype": "float32"
      },
      {
        "shape": [
          6,
          10,
          4
        ],
        "dtype": "float32"
      }
    ],
    "jaxpr": "{ lambda ; a:f32[6,10,4] b:f32[6,10,4]. let c:f32[6,10,4] = add a b in (c,) }",
    "stablehlo": "module @jit__lambda attributes {mhlo.num_partitions = 1 : i32, mhlo.num_replicas = 1 : i32} {\n  func.func public @main(%arg0: tensor<6x10x4xf32>, %arg1: tensor<6x10x4xf32>) -> (tensor<6x10x4xf32> {jax.result_info = \"result\"}) {\n    %0 = stablehlo.add %arg0, %arg1 : tensor<6x10x4xf32>\n    return %0 : tensor<6x10x4xf32>\n  }\n}\n",
    "metadata": {
      "category": "arithmetic",
      "operation": "add",
      "description": "Arithmetic: x + y"
    }
  },
  {
    "python_code": "lambda x: x ** 2",
    "input_info": [
      {
        "shape": [
          6
        ],
        "dtype": "float32"
      }
    ],
    "jaxpr": "{ lambda ; a:f32[6]. let b:f32[6] = integer_pow[y=2] a in (b,) }",
    "stablehlo": "module @jit__lambda attributes {mhlo.num_partitions = 1 : i32, mhlo.num_replicas = 1 : i32} {\n  func.func public @main(%arg0: tensor<6xf32>) -> (tensor<6xf32> {jax.result_info = \"result\"}) {\n    %0 = stablehlo.multiply %arg0, %arg0 : tensor<6xf32>\n    return %0 : tensor<6xf32>\n  }\n}\n",
    "metadata": {
      "category": "arithmetic",
      "operation": "power",
      "description": "Arithmetic: x ** 2"
    }
  },
  {
    "python_code": "lambda x: x * 2.0",
    "input_info": [
      {
        "shape": [
          10,
          5,
          4
        ],
        "dtype": "float32"
      }
    ],
    "jaxpr": "{ lambda ; a:f32[10,5,4]. let b:f32[10,5,4] = mul a 2.0:f32[] in (b,) }",
    "stablehlo": "module @jit__lambda attributes {mhlo.num_partitions = 1 : i32, mhlo.num_replicas = 1 : i32} {\n  func.func public @main(%arg0: tensor<10x5x4xf32>) -> (tensor<10x5x4xf32> {jax.result_info = \"result\"}) {\n    %cst = stablehlo.constant dense<2.000000e+00> : tensor<f32>\n    %0 = stablehlo.broadcast_in_dim %cst, dims = [] : (tensor<f32>) -> tensor<10x5x4xf32>\n    %1 = stablehlo.multiply %arg0, %0 : tensor<10x5x4xf32>\n    return %1 : tensor<10x5x4xf32>\n  }\n}\n",
    "metadata": {
      "category": "arithmetic",
      "operation": "mul_scalar",
      "description": "Arithmetic: x * 2.0"
    }
  },
  {
    "python_code": "lambda x, y: x * y",
    "input_info": [
      {
        "shape": [
          10
        ],
        "dtype": "float32"
      },
      {
        "shape": [
          10
        ],
        "dtype": "float32"
      }
    ],
    "jaxpr": "{ lambda ; a:f32[10] b:f32[10]. let c:f32[10] = mul a b in (c,) }",
    "stablehlo": "module @jit__lambda attributes {mhlo.num_partitions = 1 : i32, mhlo.num_replicas = 1 : i32} {\n  func.func public @main(%arg0: tensor<10xf32>, %arg1: tensor<10xf32>) -> (tensor<10xf32> {jax.result_info = \"result\"}) {\n    %0 = stablehlo.multiply %arg0, %arg1 : tensor<10xf32>\n    return %0 : tensor<10xf32>\n  }\n}\n",
    "metadata": {
      "category": "arithmetic",
      "operation": "multiply",
      "description": "Arithmetic: x * y"
    }
  },
  {
    "python_code": "lambda x: x * 2.0",
    "input_info": [
      {
        "shape": [
          2,
          7,
          9
        ],
        "dtype": "float32"
      }
    ],
    "jaxpr": "{ lambda ; a:f32[2,7,9]. let b:f32[2,7,9] = mul a 2.0:f32[] in (b,) }",
    "stablehlo": "module @jit__lambda attributes {mhlo.num_partitions = 1 : i32, mhlo.num_replicas = 1 : i32} {\n  func.func public @main(%arg0: tensor<2x7x9xf32>) -> (tensor<2x7x9xf32> {jax.result_info = \"result\"}) {\n    %cst = stablehlo.constant dense<2.000000e+00> : tensor<f32>\n    %0 = stablehlo.broadcast_in_dim %cst, dims = [] : (tensor<f32>) -> tensor<2x7x9xf32>\n    %1 = stablehlo.multiply %arg0, %0 : tensor<2x7x9xf32>\n    return %1 : tensor<2x7x9xf32>\n  }\n}\n",
    "metadata": {
      "category": "arithmetic",
      "operation": "mul_scalar",
      "description": "Arithmetic: x * 2.0"
    }
  },
  {
    "python_code": "lambda x, y: x + y",
    "input_info": [
      {
        "shape": [
          7
        ],
        "dtype": "float32"
      },
      {
        "shape": [
          7
        ],
        "dtype": "float32"
      }
    ],
    "jaxpr": "{ lambda ; a:f32[7] b:f32[7]. let c:f32[7] = add a b in (c,) }",
    "stablehlo": "module @jit__lambda attributes {mhlo.num_partitions = 1 : i32, mhlo.num_replicas = 1 : i32} {\n  func.func public @main(%arg0: tensor<7xf32>, %arg1: tensor<7xf32>) -> (tensor<7xf32> {jax.result_info = \"result\"}) {\n    %0 = stablehlo.add %arg0, %arg1 : tensor<7xf32>\n    return %0 : tensor<7xf32>\n  }\n}\n",
    "metadata": {
      "category": "arithmetic",
      "operation": "add",
      "description": "Arithmetic: x + y"
    }
  },
  {
    "python_code": "lambda x: x * 2.0",
    "input_info": [
      {
        "shape": [
          5,
          2
        ],
        "dtype": "float32"
      }
    ],
    "jaxpr": "{ lambda ; a:f32[5,2]. let b:f32[5,2] = mul a 2.0:f32[] in (b,) }",
    "stablehlo": "module @jit__lambda attributes {mhlo.num_partitions = 1 : i32, mhlo.num_replicas = 1 : i32} {\n  func.func public @main(%arg0: tensor<5x2xf32>) -> (tensor<5x2xf32> {jax.result_info = \"result\"}) {\n    %cst = stablehlo.constant dense<2.000000e+00> : tensor<f32>\n    %0 = stablehlo.broadcast_in_dim %cst, dims = [] : (tensor<f32>) -> tensor<5x2xf32>\n    %1 = stablehlo.multiply %arg0, %0 : tensor<5x2xf32>\n    return %1 : tensor<5x2xf32>\n  }\n}\n",
    "metadata": {
      "category": "arithmetic",
      "operation": "mul_scalar",
      "description": "Arithmetic: x * 2.0"
    }
  },
  {
    "python_code": "lambda x, y: x - y",
    "input_info": [
      {
        "shape": [
          3,
          3,
          9
        ],
        "dtype": "float32"
      },
      {
        "shape": [
          3,
          3,
          9
        ],
        "dtype": "float32"
      }
    ],
    "jaxpr": "{ lambda ; a:f32[3,3,9] b:f32[3,3,9]. let c:f32[3,3,9] = sub a b in (c,) }",
    "stablehlo": "module @jit__lambda attributes {mhlo.num_partitions = 1 : i32, mhlo.num_replicas = 1 : i32} {\n  func.func public @main(%arg0: tensor<3x3x9xf32>, %arg1: tensor<3x3x9xf32>) -> (tensor<3x3x9xf32> {jax.result_info = \"result\"}) {\n    %0 = stablehlo.subtract %arg0, %arg1 : tensor<3x3x9xf32>\n    return %0 : tensor<3x3x9xf32>\n  }\n}\n",
    "metadata": {
      "category": "arithmetic",
      "operation": "subtract",
      "description": "Arithmetic: x - y"
    }
  },
  {
    "python_code": "lambda x: x * 2.0",
    "input_info": [
      {
        "shape": [
          10
        ],
        "dtype": "float32"
      }
    ],
    "jaxpr": "{ lambda ; a:f32[10]. let b:f32[10] = mul a 2.0:f32[] in (b,) }",
    "stablehlo": "module @jit__lambda attributes {mhlo.num_partitions = 1 : i32, mhlo.num_replicas = 1 : i32} {\n  func.func public @main(%arg0: tensor<10xf32>) -> (tensor<10xf32> {jax.result_info = \"result\"}) {\n    %cst = stablehlo.constant dense<2.000000e+00> : tensor<f32>\n    %0 = stablehlo.broadcast_in_dim %cst, dims = [] : (tensor<f32>) -> tensor<10xf32>\n    %1 = stablehlo.multiply %arg0, %0 : tensor<10xf32>\n    return %1 : tensor<10xf32>\n  }\n}\n",
    "metadata": {
      "category": "arithmetic",
      "operation": "mul_scalar",
      "description": "Arithmetic: x * 2.0"
    }
  },
  {
    "python_code": "lambda x: x * 2.0",
    "input_info": [
      {
        "shape": [
          4
        ],
        "dtype": "float32"
      }
    ],
    "jaxpr": "{ lambda ; a:f32[4]. let b:f32[4] = mul a 2.0:f32[] in (b,) }",
    "stablehlo": "module @jit__lambda attributes {mhlo.num_partitions = 1 : i32, mhlo.num_replicas = 1 : i32} {\n  func.func public @main(%arg0: tensor<4xf32>) -> (tensor<4xf32> {jax.result_info = \"result\"}) {\n    %cst = stablehlo.constant dense<2.000000e+00> : tensor<f32>\n    %0 = stablehlo.broadcast_in_dim %cst, dims = [] : (tensor<f32>) -> tensor<4xf32>\n    %1 = stablehlo.multiply %arg0, %0 : tensor<4xf32>\n    return %1 : tensor<4xf32>\n  }\n}\n",
    "metadata": {
      "category": "arithmetic",
      "operation": "mul_scalar",
      "description": "Arithmetic: x * 2.0"
    }
  },
  {
    "python_code": "lambda x: x + 1.0",
    "input_info": [
      {
        "shape": [
          10,
          4
        ],
        "dtype": "float32"
      }
    ],
    "jaxpr": "{ lambda ; a:f32[10,4]. let b:f32[10,4] = add a 1.0:f32[] in (b,) }",
    "stablehlo": "module @jit__lambda attributes {mhlo.num_partitions = 1 : i32, mhlo.num_replicas = 1 : i32} {\n  func.func public @main(%arg0: tensor<10x4xf32>) -> (tensor<10x4xf32> {jax.result_info = \"result\"}) {\n    %cst = stablehlo.constant dense<1.000000e+00> : tensor<f32>\n    %0 = stablehlo.broadcast_in_dim %cst, dims = [] : (tensor<f32>) -> tensor<10x4xf32>\n    %1 = stablehlo.add %arg0, %0 : tensor<10x4xf32>\n    return %1 : tensor<10x4xf32>\n  }\n}\n",
    "metadata": {
      "category": "arithmetic",
      "operation": "add_scalar",
      "description": "Arithmetic: x + 1.0"
    }
  },
  {
    "python_code": "lambda x, y: x * y",
    "input_info": [
      {
        "shape": [
          8,
          5,
          10
        ],
        "dtype": "float32"
      },
      {
        "shape": [
          8,
          5,
          10
        ],
        "dtype": "float32"
      }
    ],
    "jaxpr": "{ lambda ; a:f32[8,5,10] b:f32[8,5,10]. let c:f32[8,5,10] = mul a b in (c,) }",
    "stablehlo": "module @jit__lambda attributes {mhlo.num_partitions = 1 : i32, mhlo.num_replicas = 1 : i32} {\n  func.func public @main(%arg0: tensor<8x5x10xf32>, %arg1: tensor<8x5x10xf32>) -> (tensor<8x5x10xf32> {jax.result_info = \"result\"}) {\n    %0 = stablehlo.multiply %arg0, %arg1 : tensor<8x5x10xf32>\n    return %0 : tensor<8x5x10xf32>\n  }\n}\n",
    "metadata": {
      "category": "arithmetic",
      "operation": "multiply",
      "description": "Arithmetic: x * y"
    }
  },
  {
    "python_code": "lambda x: x * 2.0",
    "input_info": [
      {
        "shape": [
          5,
          6,
          8
        ],
        "dtype": "float32"
      }
    ],
    "jaxpr": "{ lambda ; a:f32[5,6,8]. let b:f32[5,6,8] = mul a 2.0:f32[] in (b,) }",
    "stablehlo": "module @jit__lambda attributes {mhlo.num_partitions = 1 : i32, mhlo.num_replicas = 1 : i32} {\n  func.func public @main(%arg0: tensor<5x6x8xf32>) -> (tensor<5x6x8xf32> {jax.result_info = \"result\"}) {\n    %cst = stablehlo.constant dense<2.000000e+00> : tensor<f32>\n    %0 = stablehlo.broadcast_in_dim %cst, dims = [] : (tensor<f32>) -> tensor<5x6x8xf32>\n    %1 = stablehlo.multiply %arg0, %0 : tensor<5x6x8xf32>\n    return %1 : tensor<5x6x8xf32>\n  }\n}\n",
    "metadata": {
      "category": "arithmetic",
      "operation": "mul_scalar",
      "description": "Arithmetic: x * 2.0"
    }
  },
  {
    "python_code": "lambda x: x + 1.0",
    "input_info": [
      {
        "shape": [
          7,
          9,
          10
        ],
        "dtype": "float32"
      }
    ],
    "jaxpr": "{ lambda ; a:f32[7,9,10]. let b:f32[7,9,10] = add a 1.0:f32[] in (b,) }",
    "stablehlo": "module @jit__lambda attributes {mhlo.num_partitions = 1 : i32, mhlo.num_replicas = 1 : i32} {\n  func.func public @main(%arg0: tensor<7x9x10xf32>) -> (tensor<7x9x10xf32> {jax.result_info = \"result\"}) {\n    %cst = stablehlo.constant dense<1.000000e+00> : tensor<f32>\n    %0 = stablehlo.broadcast_in_dim %cst, dims = [] : (tensor<f32>) -> tensor<7x9x10xf32>\n    %1 = stablehlo.add %arg0, %0 : tensor<7x9x10xf32>\n    return %1 : tensor<7x9x10xf32>\n  }\n}\n",
    "metadata": {
      "category": "arithmetic",
      "operation": "add_scalar",
      "description": "Arithmetic: x + 1.0"
    }
  },
  {
    "python_code": "lambda x, y: x / y",
    "input_info": [
      {
        "shape": [
          5
        ],
        "dtype": "float32"
      },
      {
        "shape": [
          5
        ],
        "dtype": "float32"
      }
    ],
    "jaxpr": "{ lambda ; a:f32[5] b:f32[5]. let c:f32[5] = div a b in (c,) }",
    "stablehlo": "module @jit__lambda attributes {mhlo.num_partitions = 1 : i32, mhlo.num_replicas = 1 : i32} {\n  func.func public @main(%arg0: tensor<5xf32>, %arg1: tensor<5xf32>) -> (tensor<5xf32> {jax.result_info = \"result\"}) {\n    %0 = stablehlo.divide %arg0, %arg1 : tensor<5xf32>\n    return %0 : tensor<5xf32>\n  }\n}\n",
    "metadata": {
      "category": "arithmetic",
      "operation": "divide",
      "description": "Arithmetic: x / y"
    }
  },
  {
    "python_code": "lambda x, y: x - y",
    "input_info": [
      {
        "shape": [
          7
        ],
        "dtype": "float32"
      },
      {
        "shape": [
          7
        ],
        "dtype": "float32"
      }
    ],
    "jaxpr": "{ lambda ; a:f32[7] b:f32[7]. let c:f32[7] = sub a b in (c,) }",
    "stablehlo": "module @jit__lambda attributes {mhlo.num_partitions = 1 : i32, mhlo.num_replicas = 1 : i32} {\n  func.func public @main(%arg0: tensor<7xf32>, %arg1: tensor<7xf32>) -> (tensor<7xf32> {jax.result_info = \"result\"}) {\n    %0 = stablehlo.subtract %arg0, %arg1 : tensor<7xf32>\n    return %0 : tensor<7xf32>\n  }\n}\n",
    "metadata": {
      "category": "arithmetic",
      "operation": "subtract",
      "description": "Arithmetic: x - y"
    }
  },
  {
    "python_code": "lambda x, y: x + y",
    "input_info": [
      {
        "shape": [
          10,
          5,
          5
        ],
        "dtype": "float32"
      },
      {
        "shape": [
          10,
          5,
          5
        ],
        "dtype": "float32"
      }
    ],
    "jaxpr": "{ lambda ; a:f32[10,5,5] b:f32[10,5,5]. let c:f32[10,5,5] = add a b in (c,) }",
    "stablehlo": "module @jit__lambda attributes {mhlo.num_partitions = 1 : i32, mhlo.num_replicas = 1 : i32} {\n  func.func public @main(%arg0: tensor<10x5x5xf32>, %arg1: tensor<10x5x5xf32>) -> (tensor<10x5x5xf32> {jax.result_info = \"result\"}) {\n    %0 = stablehlo.add %arg0, %arg1 : tensor<10x5x5xf32>\n    return %0 : tensor<10x5x5xf32>\n  }\n}\n",
    "metadata": {
      "category": "arithmetic",
      "operation": "add",
      "description": "Arithmetic: x + y"
    }
  },
  {
    "python_code": "lambda x, y: x + y",
    "input_info": [
      {
        "shape": [
          2
        ],
        "dtype": "float32"
      },
      {
        "shape": [
          2
        ],
        "dtype": "float32"
      }
    ],
    "jaxpr": "{ lambda ; a:f32[2] b:f32[2]. let c:f32[2] = add a b in (c,) }",
    "stablehlo": "module @jit__lambda attributes {mhlo.num_partitions = 1 : i32, mhlo.num_replicas = 1 : i32} {\n  func.func public @main(%arg0: tensor<2xf32>, %arg1: tensor<2xf32>) -> (tensor<2xf32> {jax.result_info = \"result\"}) {\n    %0 = stablehlo.add %arg0, %arg1 : tensor<2xf32>\n    return %0 : tensor<2xf32>\n  }\n}\n",
    "metadata": {
      "category": "arithmetic",
      "operation": "add",
      "description": "Arithmetic: x + y"
    }
  },
  {
    "python_code": "lambda x, y: x - y",
    "input_info": [
      {
        "shape": [
          2
        ],
        "dtype": "float32"
      },
      {
        "shape": [
          2
        ],
        "dtype": "float32"
      }
    ],
    "jaxpr": "{ lambda ; a:f32[2] b:f32[2]. let c:f32[2] = sub a b in (c,) }",
    "stablehlo": "module @jit__lambda attributes {mhlo.num_partitions = 1 : i32, mhlo.num_replicas = 1 : i32} {\n  func.func public @main(%arg0: tensor<2xf32>, %arg1: tensor<2xf32>) -> (tensor<2xf32> {jax.result_info = \"result\"}) {\n    %0 = stablehlo.subtract %arg0, %arg1 : tensor<2xf32>\n    return %0 : tensor<2xf32>\n  }\n}\n",
    "metadata": {
      "category": "arithmetic",
      "operation": "subtract",
      "description": "Arithmetic: x - y"
    }
  },
  {
    "python_code": "lambda x: x * 2.0",
    "input_info": [
      {
        "shape": [
          3,
          10
        ],
        "dtype": "float32"
      }
    ],
    "jaxpr": "{ lambda ; a:f32[3,10]. let b:f32[3,10] = mul a 2.0:f32[] in (b,) }",
    "stablehlo": "module @jit__lambda attributes {mhlo.num_partitions = 1 : i32, mhlo.num_replicas = 1 : i32} {\n  func.func public @main(%arg0: tensor<3x10xf32>) -> (tensor<3x10xf32> {jax.result_info = \"result\"}) {\n    %cst = stablehlo.constant dense<2.000000e+00> : tensor<f32>\n    %0 = stablehlo.broadcast_in_dim %cst, dims = [] : (tensor<f32>) -> tensor<3x10xf32>\n    %1 = stablehlo.multiply %arg0, %0 : tensor<3x10xf32>\n    return %1 : tensor<3x10xf32>\n  }\n}\n",
    "metadata": {
      "category": "arithmetic",
      "operation": "mul_scalar",
      "description": "Arithmetic: x * 2.0"
    }
  },
  {
    "python_code": "lambda x, y: x - y",
    "input_info": [
      {
        "shape": [
          9,
          5
        ],
        "dtype": "float32"
      },
      {
        "shape": [
          9,
          5
        ],
        "dtype": "float32"
      }
    ],
    "jaxpr": "{ lambda ; a:f32[9,5] b:f32[9,5]. let c:f32[9,5] = sub a b in (c,) }",
    "stablehlo": "module @jit__lambda attributes {mhlo.num_partitions = 1 : i32, mhlo.num_replicas = 1 : i32} {\n  func.func public @main(%arg0: tensor<9x5xf32>, %arg1: tensor<9x5xf32>) -> (tensor<9x5xf32> {jax.result_info = \"result\"}) {\n    %0 = stablehlo.subtract %arg0, %arg1 : tensor<9x5xf32>\n    return %0 : tensor<9x5xf32>\n  }\n}\n",
    "metadata": {
      "category": "arithmetic",
      "operation": "subtract",
      "description": "Arithmetic: x - y"
    }
  },
  {
    "python_code": "lambda x: x ** 2",
    "input_info": [
      {
        "shape": [
          9
        ],
        "dtype": "float32"
      }
    ],
    "jaxpr": "{ lambda ; a:f32[9]. let b:f32[9] = integer_pow[y=2] a in (b,) }",
    "stablehlo": "module @jit__lambda attributes {mhlo.num_partitions = 1 : i32, mhlo.num_replicas = 1 : i32} {\n  func.func public @main(%arg0: tensor<9xf32>) -> (tensor<9xf32> {jax.result_info = \"result\"}) {\n    %0 = stablehlo.multiply %arg0, %arg0 : tensor<9xf32>\n    return %0 : tensor<9xf32>\n  }\n}\n",
    "metadata": {
      "category": "arithmetic",
      "operation": "power",
      "description": "Arithmetic: x ** 2"
    }
  },
  {
    "python_code": "lambda x, y: x - y",
    "input_info": [
      {
        "shape": [
          8,
          5
        ],
        "dtype": "float32"
      },
      {
        "shape": [
          8,
          5
        ],
        "dtype": "float32"
      }
    ],
    "jaxpr": "{ lambda ; a:f32[8,5] b:f32[8,5]. let c:f32[8,5] = sub a b in (c,) }",
    "stablehlo": "module @jit__lambda attributes {mhlo.num_partitions = 1 : i32, mhlo.num_replicas = 1 : i32} {\n  func.func public @main(%arg0: tensor<8x5xf32>, %arg1: tensor<8x5xf32>) -> (tensor<8x5xf32> {jax.result_info = \"result\"}) {\n    %0 = stablehlo.subtract %arg0, %arg1 : tensor<8x5xf32>\n    return %0 : tensor<8x5xf32>\n  }\n}\n",
    "metadata": {
      "category": "arithmetic",
      "operation": "subtract",
      "description": "Arithmetic: x - y"
    }
  },
  {
    "python_code": "lambda x, y: x + y",
    "input_info": [
      {
        "shape": [
          8
        ],
        "dtype": "float32"
      },
      {
        "shape": [
          8
        ],
        "dtype": "float32"
      }
    ],
    "jaxpr": "{ lambda ; a:f32[8] b:f32[8]. let c:f32[8] = add a b in (c,) }",
    "stablehlo": "module @jit__lambda attributes {mhlo.num_partitions = 1 : i32, mhlo.num_replicas = 1 : i32} {\n  func.func public @main(%arg0: tensor<8xf32>, %arg1: tensor<8xf32>) -> (tensor<8xf32> {jax.result_info = \"result\"}) {\n    %0 = stablehlo.add %arg0, %arg1 : tensor<8xf32>\n    return %0 : tensor<8xf32>\n  }\n}\n",
    "metadata": {
      "category": "arithmetic",
      "operation": "add",
      "description": "Arithmetic: x + y"
    }
  },
  {
    "python_code": "lambda x, y: x * y",
    "input_info": [
      {
        "shape": [
          8,
          9
        ],
        "dtype": "float32"
      },
      {
        "shape": [
          8,
          9
        ],
        "dtype": "float32"
      }
    ],
    "jaxpr": "{ lambda ; a:f32[8,9] b:f32[8,9]. let c:f32[8,9] = mul a b in (c,) }",
    "stablehlo": "module @jit__lambda attributes {mhlo.num_partitions = 1 : i32, mhlo.num_replicas = 1 : i32} {\n  func.func public @main(%arg0: tensor<8x9xf32>, %arg1: tensor<8x9xf32>) -> (tensor<8x9xf32> {jax.result_info = \"result\"}) {\n    %0 = stablehlo.multiply %arg0, %arg1 : tensor<8x9xf32>\n    return %0 : tensor<8x9xf32>\n  }\n}\n",
    "metadata": {
      "category": "arithmetic",
      "operation": "multiply",
      "description": "Arithmetic: x * y"
    }
  },
  {
    "python_code": "lambda x: x * 2.0",
    "input_info": [
      {
        "shape": [
          2,
          3,
          2
        ],
        "dtype": "float32"
      }
    ],
    "jaxpr": "{ lambda ; a:f32[2,3,2]. let b:f32[2,3,2] = mul a 2.0:f32[] in (b,) }",
    "stablehlo": "module @jit__lambda attributes {mhlo.num_partitions = 1 : i32, mhlo.num_replicas = 1 : i32} {\n  func.func public @main(%arg0: tensor<2x3x2xf32>) -> (tensor<2x3x2xf32> {jax.result_info = \"result\"}) {\n    %cst = stablehlo.constant dense<2.000000e+00> : tensor<f32>\n    %0 = stablehlo.broadcast_in_dim %cst, dims = [] : (tensor<f32>) -> tensor<2x3x2xf32>\n    %1 = stablehlo.multiply %arg0, %0 : tensor<2x3x2xf32>\n    return %1 : tensor<2x3x2xf32>\n  }\n}\n",
    "metadata": {
      "category": "arithmetic",
      "operation": "mul_scalar",
      "description": "Arithmetic: x * 2.0"
    }
  },
  {
    "python_code": "lambda x, y: x / y",
    "input_info": [
      {
        "shape": [
          7,
          3,
          5
        ],
        "dtype": "float32"
      },
      {
        "shape": [
          7,
          3,
          5
        ],
        "dtype": "float32"
      }
    ],
    "jaxpr": "{ lambda ; a:f32[7,3,5] b:f32[7,3,5]. let c:f32[7,3,5] = div a b in (c,) }",
    "stablehlo": "module @jit__lambda attributes {mhlo.num_partitions = 1 : i32, mhlo.num_replicas = 1 : i32} {\n  func.func public @main(%arg0: tensor<7x3x5xf32>, %arg1: tensor<7x3x5xf32>) -> (tensor<7x3x5xf32> {jax.result_info = \"result\"}) {\n    %0 = stablehlo.divide %arg0, %arg1 : tensor<7x3x5xf32>\n    return %0 : tensor<7x3x5xf32>\n  }\n}\n",
    "metadata": {
      "category": "arithmetic",
      "operation": "divide",
      "description": "Arithmetic: x / y"
    }
  },
  {
    "python_code": "lambda x, y: x - y",
    "input_info": [
      {
        "shape": [
          10
        ],
        "dtype": "float32"
      },
      {
        "shape": [
          10
        ],
        "dtype": "float32"
      }
    ],
    "jaxpr": "{ lambda ; a:f32[10] b:f32[10]. let c:f32[10] = sub a b in (c,) }",
    "stablehlo": "module @jit__lambda attributes {mhlo.num_partitions = 1 : i32, mhlo.num_replicas = 1 : i32} {\n  func.func public @main(%arg0: tensor<10xf32>, %arg1: tensor<10xf32>) -> (tensor<10xf32> {jax.result_info = \"result\"}) {\n    %0 = stablehlo.subtract %arg0, %arg1 : tensor<10xf32>\n    return %0 : tensor<10xf32>\n  }\n}\n",
    "metadata": {
      "category": "arithmetic",
      "operation": "subtract",
      "description": "Arithmetic: x - y"
    }
  },
  {
    "python_code": "lambda x, y: x / y",
    "input_info": [
      {
        "shape": [
          8
        ],
        "dtype": "float32"
      },
      {
        "shape": [
          8
        ],
        "dtype": "float32"
      }
    ],
    "jaxpr": "{ lambda ; a:f32[8] b:f32[8]. let c:f32[8] = div a b in (c,) }",
    "stablehlo": "module @jit__lambda attributes {mhlo.num_partitions = 1 : i32, mhlo.num_replicas = 1 : i32} {\n  func.func public @main(%arg0: tensor<8xf32>, %arg1: tensor<8xf32>) -> (tensor<8xf32> {jax.result_info = \"result\"}) {\n    %0 = stablehlo.divide %arg0, %arg1 : tensor<8xf32>\n    return %0 : tensor<8xf32>\n  }\n}\n",
    "metadata": {
      "category": "arithmetic",
      "operation": "divide",
      "description": "Arithmetic: x / y"
    }
  },
  {
    "python_code": "lambda x, y: x - y",
    "input_info": [
      {
        "shape": [
          9,
          5
        ],
        "dtype": "float32"
      },
      {
        "shape": [
          9,
          5
        ],
        "dtype": "float32"
      }
    ],
    "jaxpr": "{ lambda ; a:f32[9,5] b:f32[9,5]. let c:f32[9,5] = sub a b in (c,) }",
    "stablehlo": "module @jit__lambda attributes {mhlo.num_partitions = 1 : i32, mhlo.num_replicas = 1 : i32} {\n  func.func public @main(%arg0: tensor<9x5xf32>, %arg1: tensor<9x5xf32>) -> (tensor<9x5xf32> {jax.result_info = \"result\"}) {\n    %0 = stablehlo.subtract %arg0, %arg1 : tensor<9x5xf32>\n    return %0 : tensor<9x5xf32>\n  }\n}\n",
    "metadata": {
      "category": "arithmetic",
      "operation": "subtract",
      "description": "Arithmetic: x - y"
    }
  },
  {
    "python_code": "lambda x: x * 2.0",
    "input_info": [
      {
        "shape": [
          9
        ],
        "dtype": "float32"
      }
    ],
    "jaxpr": "{ lambda ; a:f32[9]. let b:f32[9] = mul a 2.0:f32[] in (b,) }",
    "stablehlo": "module @jit__lambda attributes {mhlo.num_partitions = 1 : i32, mhlo.num_replicas = 1 : i32} {\n  func.func public @main(%arg0: tensor<9xf32>) -> (tensor<9xf32> {jax.result_info = \"result\"}) {\n    %cst = stablehlo.constant dense<2.000000e+00> : tensor<f32>\n    %0 = stablehlo.broadcast_in_dim %cst, dims = [] : (tensor<f32>) -> tensor<9xf32>\n    %1 = stablehlo.multiply %arg0, %0 : tensor<9xf32>\n    return %1 : tensor<9xf32>\n  }\n}\n",
    "metadata": {
      "category": "arithmetic",
      "operation": "mul_scalar",
      "description": "Arithmetic: x * 2.0"
    }
  },
  {
    "python_code": "lambda x: x * 2.0",
    "input_info": [
      {
        "shape": [
          3,
          2,
          10
        ],
        "dtype": "float32"
      }
    ],
    "jaxpr": "{ lambda ; a:f32[3,2,10]. let b:f32[3,2,10] = mul a 2.0:f32[] in (b,) }",
    "stablehlo": "module @jit__lambda attributes {mhlo.num_partitions = 1 : i32, mhlo.num_replicas = 1 : i32} {\n  func.func public @main(%arg0: tensor<3x2x10xf32>) -> (tensor<3x2x10xf32> {jax.result_info = \"result\"}) {\n    %cst = stablehlo.constant dense<2.000000e+00> : tensor<f32>\n    %0 = stablehlo.broadcast_in_dim %cst, dims = [] : (tensor<f32>) -> tensor<3x2x10xf32>\n    %1 = stablehlo.multiply %arg0, %0 : tensor<3x2x10xf32>\n    return %1 : tensor<3x2x10xf32>\n  }\n}\n",
    "metadata": {
      "category": "arithmetic",
      "operation": "mul_scalar",
      "description": "Arithmetic: x * 2.0"
    }
  },
  {
    "python_code": "lambda x: x * 2.0",
    "input_info": [
      {
        "shape": [
          3
        ],
        "dtype": "float32"
      }
    ],
    "jaxpr": "{ lambda ; a:f32[3]. let b:f32[3] = mul a 2.0:f32[] in (b,) }",
    "stablehlo": "module @jit__lambda attributes {mhlo.num_partitions = 1 : i32, mhlo.num_replicas = 1 : i32} {\n  func.func public @main(%arg0: tensor<3xf32>) -> (tensor<3xf32> {jax.result_info = \"result\"}) {\n    %cst = stablehlo.constant dense<2.000000e+00> : tensor<f32>\n    %0 = stablehlo.broadcast_in_dim %cst, dims = [] : (tensor<f32>) -> tensor<3xf32>\n    %1 = stablehlo.multiply %arg0, %0 : tensor<3xf32>\n    return %1 : tensor<3xf32>\n  }\n}\n",
    "metadata": {
      "category": "arithmetic",
      "operation": "mul_scalar",
      "description": "Arithmetic: x * 2.0"
    }
  },
  {
    "python_code": "lambda x: x * 2.0",
    "input_info": [
      {
        "shape": [
          4
        ],
        "dtype": "float32"
      }
    ],
    "jaxpr": "{ lambda ; a:f32[4]. let b:f32[4] = mul a 2.0:f32[] in (b,) }",
    "stablehlo": "module @jit__lambda attributes {mhlo.num_partitions = 1 : i32, mhlo.num_replicas = 1 : i32} {\n  func.func public @main(%arg0: tensor<4xf32>) -> (tensor<4xf32> {jax.result_info = \"result\"}) {\n    %cst = stablehlo.constant dense<2.000000e+00> : tensor<f32>\n    %0 = stablehlo.broadcast_in_dim %cst, dims = [] : (tensor<f32>) -> tensor<4xf32>\n    %1 = stablehlo.multiply %arg0, %0 : tensor<4xf32>\n    return %1 : tensor<4xf32>\n  }\n}\n",
    "metadata": {
      "category": "arithmetic",
      "operation": "mul_scalar",
      "description": "Arithmetic: x * 2.0"
    }
  },
  {
    "python_code": "lambda x, y: x / y",
    "input_info": [
      {
        "shape": [
          9,
          5
        ],
        "dtype": "float32"
      },
      {
        "shape": [
          9,
          5
        ],
        "dtype": "float32"
      }
    ],
    "jaxpr": "{ lambda ; a:f32[9,5] b:f32[9,5]. let c:f32[9,5] = div a b in (c,) }",
    "stablehlo": "module @jit__lambda attributes {mhlo.num_partitions = 1 : i32, mhlo.num_replicas = 1 : i32} {\n  func.func public @main(%arg0: tensor<9x5xf32>, %arg1: tensor<9x5xf32>) -> (tensor<9x5xf32> {jax.result_info = \"result\"}) {\n    %0 = stablehlo.divide %arg0, %arg1 : tensor<9x5xf32>\n    return %0 : tensor<9x5xf32>\n  }\n}\n",
    "metadata": {
      "category": "arithmetic",
      "operation": "divide",
      "description": "Arithmetic: x / y"
    }
  },
  {
    "python_code": "lambda x: x * 2.0",
    "input_info": [
      {
        "shape": [
          2,
          4
        ],
        "dtype": "float32"
      }
    ],
    "jaxpr": "{ lambda ; a:f32[2,4]. let b:f32[2,4] = mul a 2.0:f32[] in (b,) }",
    "stablehlo": "module @jit__lambda attributes {mhlo.num_partitions = 1 : i32, mhlo.num_replicas = 1 : i32} {\n  func.func public @main(%arg0: tensor<2x4xf32>) -> (tensor<2x4xf32> {jax.result_info = \"result\"}) {\n    %cst = stablehlo.constant dense<2.000000e+00> : tensor<f32>\n    %0 = stablehlo.broadcast_in_dim %cst, dims = [] : (tensor<f32>) -> tensor<2x4xf32>\n    %1 = stablehlo.multiply %arg0, %0 : tensor<2x4xf32>\n    return %1 : tensor<2x4xf32>\n  }\n}\n",
    "metadata": {
      "category": "arithmetic",
      "operation": "mul_scalar",
      "description": "Arithmetic: x * 2.0"
    }
  },
  {
    "python_code": "lambda x, y: x / y",
    "input_info": [
      {
        "shape": [
          8
        ],
        "dtype": "float32"
      },
      {
        "shape": [
          8
        ],
        "dtype": "float32"
      }
    ],
    "jaxpr": "{ lambda ; a:f32[8] b:f32[8]. let c:f32[8] = div a b in (c,) }",
    "stablehlo": "module @jit__lambda attributes {mhlo.num_partitions = 1 : i32, mhlo.num_replicas = 1 : i32} {\n  func.func public @main(%arg0: tensor<8xf32>, %arg1: tensor<8xf32>) -> (tensor<8xf32> {jax.result_info = \"result\"}) {\n    %0 = stablehlo.divide %arg0, %arg1 : tensor<8xf32>\n    return %0 : tensor<8xf32>\n  }\n}\n",
    "metadata": {
      "category": "arithmetic",
      "operation": "divide",
      "description": "Arithmetic: x / y"
    }
  },
  {
    "python_code": "lambda x, y: x * y",
    "input_info": [
      {
        "shape": [
          6,
          8
        ],
        "dtype": "float32"
      },
      {
        "shape": [
          6,
          8
        ],
        "dtype": "float32"
      }
    ],
    "jaxpr": "{ lambda ; a:f32[6,8] b:f32[6,8]. let c:f32[6,8] = mul a b in (c,) }",
    "stablehlo": "module @jit__lambda attributes {mhlo.num_partitions = 1 : i32, mhlo.num_replicas = 1 : i32} {\n  func.func public @main(%arg0: tensor<6x8xf32>, %arg1: tensor<6x8xf32>) -> (tensor<6x8xf32> {jax.result_info = \"result\"}) {\n    %0 = stablehlo.multiply %arg0, %arg1 : tensor<6x8xf32>\n    return %0 : tensor<6x8xf32>\n  }\n}\n",
    "metadata": {
      "category": "arithmetic",
      "operation": "multiply",
      "description": "Arithmetic: x * y"
    }
  },
  {
    "python_code": "lambda x: x + 1.0",
    "input_info": [
      {
        "shape": [
          10,
          9,
          4
        ],
        "dtype": "float32"
      }
    ],
    "jaxpr": "{ lambda ; a:f32[10,9,4]. let b:f32[10,9,4] = add a 1.0:f32[] in (b,) }",
    "stablehlo": "module @jit__lambda attributes {mhlo.num_partitions = 1 : i32, mhlo.num_replicas = 1 : i32} {\n  func.func public @main(%arg0: tensor<10x9x4xf32>) -> (tensor<10x9x4xf32> {jax.result_info = \"result\"}) {\n    %cst = stablehlo.constant dense<1.000000e+00> : tensor<f32>\n    %0 = stablehlo.broadcast_in_dim %cst, dims = [] : (tensor<f32>) -> tensor<10x9x4xf32>\n    %1 = stablehlo.add %arg0, %0 : tensor<10x9x4xf32>\n    return %1 : tensor<10x9x4xf32>\n  }\n}\n",
    "metadata": {
      "category": "arithmetic",
      "operation": "add_scalar",
      "description": "Arithmetic: x + 1.0"
    }
  },
  {
    "python_code": "lambda x, y: x - y",
    "input_info": [
      {
        "shape": [
          5,
          2
        ],
        "dtype": "float32"
      },
      {
        "shape": [
          5,
          2
        ],
        "dtype": "float32"
      }
    ],
    "jaxpr": "{ lambda ; a:f32[5,2] b:f32[5,2]. let c:f32[5,2] = sub a b in (c,) }",
    "stablehlo": "module @jit__lambda attributes {mhlo.num_partitions = 1 : i32, mhlo.num_replicas = 1 : i32} {\n  func.func public @main(%arg0: tensor<5x2xf32>, %arg1: tensor<5x2xf32>) -> (tensor<5x2xf32> {jax.result_info = \"result\"}) {\n    %0 = stablehlo.subtract %arg0, %arg1 : tensor<5x2xf32>\n    return %0 : tensor<5x2xf32>\n  }\n}\n",
    "metadata": {
      "category": "arithmetic",
      "operation": "subtract",
      "description": "Arithmetic: x - y"
    }
  },
  {
    "python_code": "lambda x: x ** 2",
    "input_info": [
      {
        "shape": [
          10,
          2,
          7
        ],
        "dtype": "float32"
      }
    ],
    "jaxpr": "{ lambda ; a:f32[10,2,7]. let b:f32[10,2,7] = integer_pow[y=2] a in (b,) }",
    "stablehlo": "module @jit__lambda attributes {mhlo.num_partitions = 1 : i32, mhlo.num_replicas = 1 : i32} {\n  func.func public @main(%arg0: tensor<10x2x7xf32>) -> (tensor<10x2x7xf32> {jax.result_info = \"result\"}) {\n    %0 = stablehlo.multiply %arg0, %arg0 : tensor<10x2x7xf32>\n    return %0 : tensor<10x2x7xf32>\n  }\n}\n",
    "metadata": {
      "category": "arithmetic",
      "operation": "power",
      "description": "Arithmetic: x ** 2"
    }
  },
  {
    "python_code": "lambda x, y: x + y",
    "input_info": [
      {
        "shape": [
          9
        ],
        "dtype": "float32"
      },
      {
        "shape": [
          9
        ],
        "dtype": "float32"
      }
    ],
    "jaxpr": "{ lambda ; a:f32[9] b:f32[9]. let c:f32[9] = add a b in (c,) }",
    "stablehlo": "module @jit__lambda attributes {mhlo.num_partitions = 1 : i32, mhlo.num_replicas = 1 : i32} {\n  func.func public @main(%arg0: tensor<9xf32>, %arg1: tensor<9xf32>) -> (tensor<9xf32> {jax.result_info = \"result\"}) {\n    %0 = stablehlo.add %arg0, %arg1 : tensor<9xf32>\n    return %0 : tensor<9xf32>\n  }\n}\n",
    "metadata": {
      "category": "arithmetic",
      "operation": "add",
      "description": "Arithmetic: x + y"
    }
  },
  {
    "python_code": "lambda x: x ** 2",
    "input_info": [
      {
        "shape": [
          4,
          2,
          10
        ],
        "dtype": "float32"
      }
    ],
    "jaxpr": "{ lambda ; a:f32[4,2,10]. let b:f32[4,2,10] = integer_pow[y=2] a in (b,) }",
    "stablehlo": "module @jit__lambda attributes {mhlo.num_partitions = 1 : i32, mhlo.num_replicas = 1 : i32} {\n  func.func public @main(%arg0: tensor<4x2x10xf32>) -> (tensor<4x2x10xf32> {jax.result_info = \"result\"}) {\n    %0 = stablehlo.multiply %arg0, %arg0 : tensor<4x2x10xf32>\n    return %0 : tensor<4x2x10xf32>\n  }\n}\n",
    "metadata": {
      "category": "arithmetic",
      "operation": "power",
      "description": "Arithmetic: x ** 2"
    }
  },
  {
    "python_code": "lambda x, y: x + y",
    "input_info": [
      {
        "shape": [
          3
        ],
        "dtype": "float32"
      },
      {
        "shape": [
          3
        ],
        "dtype": "float32"
      }
    ],
    "jaxpr": "{ lambda ; a:f32[3] b:f32[3]. let c:f32[3] = add a b in (c,) }",
    "stablehlo": "module @jit__lambda attributes {mhlo.num_partitions = 1 : i32, mhlo.num_replicas = 1 : i32} {\n  func.func public @main(%arg0: tensor<3xf32>, %arg1: tensor<3xf32>) -> (tensor<3xf32> {jax.result_info = \"result\"}) {\n    %0 = stablehlo.add %arg0, %arg1 : tensor<3xf32>\n    return %0 : tensor<3xf32>\n  }\n}\n",
    "metadata": {
      "category": "arithmetic",
      "operation": "add",
      "description": "Arithmetic: x + y"
    }
  },
  {
    "python_code": "lambda x: x ** 2",
    "input_info": [
      {
        "shape": [
          5
        ],
        "dtype": "float32"
      }
    ],
    "jaxpr": "{ lambda ; a:f32[5]. let b:f32[5] = integer_pow[y=2] a in (b,) }",
    "stablehlo": "module @jit__lambda attributes {mhlo.num_partitions = 1 : i32, mhlo.num_replicas = 1 : i32} {\n  func.func public @main(%arg0: tensor<5xf32>) -> (tensor<5xf32> {jax.result_info = \"result\"}) {\n    %0 = stablehlo.multiply %arg0, %arg0 : tensor<5xf32>\n    return %0 : tensor<5xf32>\n  }\n}\n",
    "metadata": {
      "category": "arithmetic",
      "operation": "power",
      "description": "Arithmetic: x ** 2"
    }
  },
  {
    "python_code": "lambda x, y: x / y",
    "input_info": [
      {
        "shape": [
          5
        ],
        "dtype": "float32"
      },
      {
        "shape": [
          5
        ],
        "dtype": "float32"
      }
    ],
    "jaxpr": "{ lambda ; a:f32[5] b:f32[5]. let c:f32[5] = div a b in (c,) }",
    "stablehlo": "module @jit__lambda attributes {mhlo.num_partitions = 1 : i32, mhlo.num_replicas = 1 : i32} {\n  func.func public @main(%arg0: tensor<5xf32>, %arg1: tensor<5xf32>) -> (tensor<5xf32> {jax.result_info = \"result\"}) {\n    %0 = stablehlo.divide %arg0, %arg1 : tensor<5xf32>\n    return %0 : tensor<5xf32>\n  }\n}\n",
    "metadata": {
      "category": "arithmetic",
      "operation": "divide",
      "description": "Arithmetic: x / y"
    }
  },
  {
    "python_code": "lambda x: x ** 2",
    "input_info": [
      {
        "shape": [
          2,
          3,
          8
        ],
        "dtype": "float32"
      }
    ],
    "jaxpr": "{ lambda ; a:f32[2,3,8]. let b:f32[2,3,8] = integer_pow[y=2] a in (b,) }",
    "stablehlo": "module @jit__lambda attributes {mhlo.num_partitions = 1 : i32, mhlo.num_replicas = 1 : i32} {\n  func.func public @main(%arg0: tensor<2x3x8xf32>) -> (tensor<2x3x8xf32> {jax.result_info = \"result\"}) {\n    %0 = stablehlo.multiply %arg0, %arg0 : tensor<2x3x8xf32>\n    return %0 : tensor<2x3x8xf32>\n  }\n}\n",
    "metadata": {
      "category": "arithmetic",
      "operation": "power",
      "description": "Arithmetic: x ** 2"
    }
  },
  {
    "python_code": "lambda x: x + 1.0",
    "input_info": [
      {
        "shape": [
          10,
          7,
          6
        ],
        "dtype": "float32"
      }
    ],
    "jaxpr": "{ lambda ; a:f32[10,7,6]. let b:f32[10,7,6] = add a 1.0:f32[] in (b,) }",
    "stablehlo": "module @jit__lambda attributes {mhlo.num_partitions = 1 : i32, mhlo.num_replicas = 1 : i32} {\n  func.func public @main(%arg0: tensor<10x7x6xf32>) -> (tensor<10x7x6xf32> {jax.result_info = \"result\"}) {\n    %cst = stablehlo.constant dense<1.000000e+00> : tensor<f32>\n    %0 = stablehlo.broadcast_in_dim %cst, dims = [] : (tensor<f32>) -> tensor<10x7x6xf32>\n    %1 = stablehlo.add %arg0, %0 : tensor<10x7x6xf32>\n    return %1 : tensor<10x7x6xf32>\n  }\n}\n",
    "metadata": {
      "category": "arithmetic",
      "operation": "add_scalar",
      "description": "Arithmetic: x + 1.0"
    }
  },
  {
    "python_code": "lambda x, y: x - y",
    "input_info": [
      {
        "shape": [
          7,
          5,
          6
        ],
        "dtype": "float32"
      },
      {
        "shape": [
          7,
          5,
          6
        ],
        "dtype": "float32"
      }
    ],
    "jaxpr": "{ lambda ; a:f32[7,5,6] b:f32[7,5,6]. let c:f32[7,5,6] = sub a b in (c,) }",
    "stablehlo": "module @jit__lambda attributes {mhlo.num_partitions = 1 : i32, mhlo.num_replicas = 1 : i32} {\n  func.func public @main(%arg0: tensor<7x5x6xf32>, %arg1: tensor<7x5x6xf32>) -> (tensor<7x5x6xf32> {jax.result_info = \"result\"}) {\n    %0 = stablehlo.subtract %arg0, %arg1 : tensor<7x5x6xf32>\n    return %0 : tensor<7x5x6xf32>\n  }\n}\n",
    "metadata": {
      "category": "arithmetic",
      "operation": "subtract",
      "description": "Arithmetic: x - y"
    }
  },
  {
    "python_code": "lambda x, y: x / y",
    "input_info": [
      {
        "shape": [
          6
        ],
        "dtype": "float32"
      },
      {
        "shape": [
          6
        ],
        "dtype": "float32"
      }
    ],
    "jaxpr": "{ lambda ; a:f32[6] b:f32[6]. let c:f32[6] = div a b in (c,) }",
    "stablehlo": "module @jit__lambda attributes {mhlo.num_partitions = 1 : i32, mhlo.num_replicas = 1 : i32} {\n  func.func public @main(%arg0: tensor<6xf32>, %arg1: tensor<6xf32>) -> (tensor<6xf32> {jax.result_info = \"result\"}) {\n    %0 = stablehlo.divide %arg0, %arg1 : tensor<6xf32>\n    return %0 : tensor<6xf32>\n  }\n}\n",
    "metadata": {
      "category": "arithmetic",
      "operation": "divide",
      "description": "Arithmetic: x / y"
    }
  },
  {
    "python_code": "lambda x, y: x / y",
    "input_info": [
      {
        "shape": [
          3,
          2
        ],
        "dtype": "float32"
      },
      {
        "shape": [
          3,
          2
        ],
        "dtype": "float32"
      }
    ],
    "jaxpr": "{ lambda ; a:f32[3,2] b:f32[3,2]. let c:f32[3,2] = div a b in (c,) }",
    "stablehlo": "module @jit__lambda attributes {mhlo.num_partitions = 1 : i32, mhlo.num_replicas = 1 : i32} {\n  func.func public @main(%arg0: tensor<3x2xf32>, %arg1: tensor<3x2xf32>) -> (tensor<3x2xf32> {jax.result_info = \"result\"}) {\n    %0 = stablehlo.divide %arg0, %arg1 : tensor<3x2xf32>\n    return %0 : tensor<3x2xf32>\n  }\n}\n",
    "metadata": {
      "category": "arithmetic",
      "operation": "divide",
      "description": "Arithmetic: x / y"
    }
  },
  {
    "python_code": "lambda x, y: x / y",
    "input_info": [
      {
        "shape": [
          3,
          3,
          10
        ],
        "dtype": "float32"
      },
      {
        "shape": [
          3,
          3,
          10
        ],
        "dtype": "float32"
      }
    ],
    "jaxpr": "{ lambda ; a:f32[3,3,10] b:f32[3,3,10]. let c:f32[3,3,10] = div a b in (c,) }",
    "stablehlo": "module @jit__lambda attributes {mhlo.num_partitions = 1 : i32, mhlo.num_replicas = 1 : i32} {\n  func.func public @main(%arg0: tensor<3x3x10xf32>, %arg1: tensor<3x3x10xf32>) -> (tensor<3x3x10xf32> {jax.result_info = \"result\"}) {\n    %0 = stablehlo.divide %arg0, %arg1 : tensor<3x3x10xf32>\n    return %0 : tensor<3x3x10xf32>\n  }\n}\n",
    "metadata": {
      "category": "arithmetic",
      "operation": "divide",
      "description": "Arithmetic: x / y"
    }
  },
  {
    "python_code": "lambda x, y: x - y",
    "input_info": [
      {
        "shape": [
          6,
          4,
          7
        ],
        "dtype": "float32"
      },
      {
        "shape": [
          6,
          4,
          7
        ],
        "dtype": "float32"
      }
    ],
    "jaxpr": "{ lambda ; a:f32[6,4,7] b:f32[6,4,7]. let c:f32[6,4,7] = sub a b in (c,) }",
    "stablehlo": "module @jit__lambda attributes {mhlo.num_partitions = 1 : i32, mhlo.num_replicas = 1 : i32} {\n  func.func public @main(%arg0: tensor<6x4x7xf32>, %arg1: tensor<6x4x7xf32>) -> (tensor<6x4x7xf32> {jax.result_info = \"result\"}) {\n    %0 = stablehlo.subtract %arg0, %arg1 : tensor<6x4x7xf32>\n    return %0 : tensor<6x4x7xf32>\n  }\n}\n",
    "metadata": {
      "category": "arithmetic",
      "operation": "subtract",
      "description": "Arithmetic: x - y"
    }
  },
  {
    "python_code": "lambda x, y: x + y",
    "input_info": [
      {
        "shape": [
          7
        ],
        "dtype": "float32"
      },
      {
        "shape": [
          7
        ],
        "dtype": "float32"
      }
    ],
    "jaxpr": "{ lambda ; a:f32[7] b:f32[7]. let c:f32[7] = add a b in (c,) }",
    "stablehlo": "module @jit__lambda attributes {mhlo.num_partitions = 1 : i32, mhlo.num_replicas = 1 : i32} {\n  func.func public @main(%arg0: tensor<7xf32>, %arg1: tensor<7xf32>) -> (tensor<7xf32> {jax.result_info = \"result\"}) {\n    %0 = stablehlo.add %arg0, %arg1 : tensor<7xf32>\n    return %0 : tensor<7xf32>\n  }\n}\n",
    "metadata": {
      "category": "arithmetic",
      "operation": "add",
      "description": "Arithmetic: x + y"
    }
  },
  {
    "python_code": "lambda x, y: x * y",
    "input_info": [
      {
        "shape": [
          9
        ],
        "dtype": "float32"
      },
      {
        "shape": [
          9
        ],
        "dtype": "float32"
      }
    ],
    "jaxpr": "{ lambda ; a:f32[9] b:f32[9]. let c:f32[9] = mul a b in (c,) }",
    "stablehlo": "module @jit__lambda attributes {mhlo.num_partitions = 1 : i32, mhlo.num_replicas = 1 : i32} {\n  func.func public @main(%arg0: tensor<9xf32>, %arg1: tensor<9xf32>) -> (tensor<9xf32> {jax.result_info = \"result\"}) {\n    %0 = stablehlo.multiply %arg0, %arg1 : tensor<9xf32>\n    return %0 : tensor<9xf32>\n  }\n}\n",
    "metadata": {
      "category": "arithmetic",
      "operation": "multiply",
      "description": "Arithmetic: x * y"
    }
  },
  {
    "python_code": "lambda x: x * 2.0",
    "input_info": [
      {
        "shape": [
          6,
          10,
          2
        ],
        "dtype": "float32"
      }
    ],
    "jaxpr": "{ lambda ; a:f32[6,10,2]. let b:f32[6,10,2] = mul a 2.0:f32[] in (b,) }",
    "stablehlo": "module @jit__lambda attributes {mhlo.num_partitions = 1 : i32, mhlo.num_replicas = 1 : i32} {\n  func.func public @main(%arg0: tensor<6x10x2xf32>) -> (tensor<6x10x2xf32> {jax.result_info = \"result\"}) {\n    %cst = stablehlo.constant dense<2.000000e+00> : tensor<f32>\n    %0 = stablehlo.broadcast_in_dim %cst, dims = [] : (tensor<f32>) -> tensor<6x10x2xf32>\n    %1 = stablehlo.multiply %arg0, %0 : tensor<6x10x2xf32>\n    return %1 : tensor<6x10x2xf32>\n  }\n}\n",
    "metadata": {
      "category": "arithmetic",
      "operation": "mul_scalar",
      "description": "Arithmetic: x * 2.0"
    }
  },
  {
    "python_code": "lambda x: x + 1.0",
    "input_info": [
      {
        "shape": [
          6,
          3,
          4
        ],
        "dtype": "float32"
      }
    ],
    "jaxpr": "{ lambda ; a:f32[6,3,4]. let b:f32[6,3,4] = add a 1.0:f32[] in (b,) }",
    "stablehlo": "module @jit__lambda attributes {mhlo.num_partitions = 1 : i32, mhlo.num_replicas = 1 : i32} {\n  func.func public @main(%arg0: tensor<6x3x4xf32>) -> (tensor<6x3x4xf32> {jax.result_info = \"result\"}) {\n    %cst = stablehlo.constant dense<1.000000e+00> : tensor<f32>\n    %0 = stablehlo.broadcast_in_dim %cst, dims = [] : (tensor<f32>) -> tensor<6x3x4xf32>\n    %1 = stablehlo.add %arg0, %0 : tensor<6x3x4xf32>\n    return %1 : tensor<6x3x4xf32>\n  }\n}\n",
    "metadata": {
      "category": "arithmetic",
      "operation": "add_scalar",
      "description": "Arithmetic: x + 1.0"
    }
  },
  {
    "python_code": "lambda x, y: x * y",
    "input_info": [
      {
        "shape": [
          3
        ],
        "dtype": "float32"
      },
      {
        "shape": [
          3
        ],
        "dtype": "float32"
      }
    ],
    "jaxpr": "{ lambda ; a:f32[3] b:f32[3]. let c:f32[3] = mul a b in (c,) }",
    "stablehlo": "module @jit__lambda attributes {mhlo.num_partitions = 1 : i32, mhlo.num_replicas = 1 : i32} {\n  func.func public @main(%arg0: tensor<3xf32>, %arg1: tensor<3xf32>) -> (tensor<3xf32> {jax.result_info = \"result\"}) {\n    %0 = stablehlo.multiply %arg0, %arg1 : tensor<3xf32>\n    return %0 : tensor<3xf32>\n  }\n}\n",
    "metadata": {
      "category": "arithmetic",
      "operation": "multiply",
      "description": "Arithmetic: x * y"
    }
  },
  {
    "python_code": "lambda x: x + 1.0",
    "input_info": [
      {
        "shape": [
          4,
          6,
          6
        ],
        "dtype": "float32"
      }
    ],
    "jaxpr": "{ lambda ; a:f32[4,6,6]. let b:f32[4,6,6] = add a 1.0:f32[] in (b,) }",
    "stablehlo": "module @jit__lambda attributes {mhlo.num_partitions = 1 : i32, mhlo.num_replicas = 1 : i32} {\n  func.func public @main(%arg0: tensor<4x6x6xf32>) -> (tensor<4x6x6xf32> {jax.result_info = \"result\"}) {\n    %cst = stablehlo.constant dense<1.000000e+00> : tensor<f32>\n    %0 = stablehlo.broadcast_in_dim %cst, dims = [] : (tensor<f32>) -> tensor<4x6x6xf32>\n    %1 = stablehlo.add %arg0, %0 : tensor<4x6x6xf32>\n    return %1 : tensor<4x6x6xf32>\n  }\n}\n",
    "metadata": {
      "category": "arithmetic",
      "operation": "add_scalar",
      "description": "Arithmetic: x + 1.0"
    }
  },
  {
    "python_code": "lambda x: x ** 2",
    "input_info": [
      {
        "shape": [
          7
        ],
        "dtype": "float32"
      }
    ],
    "jaxpr": "{ lambda ; a:f32[7]. let b:f32[7] = integer_pow[y=2] a in (b,) }",
    "stablehlo": "module @jit__lambda attributes {mhlo.num_partitions = 1 : i32, mhlo.num_replicas = 1 : i32} {\n  func.func public @main(%arg0: tensor<7xf32>) -> (tensor<7xf32> {jax.result_info = \"result\"}) {\n    %0 = stablehlo.multiply %arg0, %arg0 : tensor<7xf32>\n    return %0 : tensor<7xf32>\n  }\n}\n",
    "metadata": {
      "category": "arithmetic",
      "operation": "power",
      "description": "Arithmetic: x ** 2"
    }
  },
  {
    "python_code": "lambda x, y: x - y",
    "input_info": [
      {
        "shape": [
          6,
          10,
          9
        ],
        "dtype": "float32"
      },
      {
        "shape": [
          6,
          10,
          9
        ],
        "dtype": "float32"
      }
    ],
    "jaxpr": "{ lambda ; a:f32[6,10,9] b:f32[6,10,9]. let c:f32[6,10,9] = sub a b in (c,) }",
    "stablehlo": "module @jit__lambda attributes {mhlo.num_partitions = 1 : i32, mhlo.num_replicas = 1 : i32} {\n  func.func public @main(%arg0: tensor<6x10x9xf32>, %arg1: tensor<6x10x9xf32>) -> (tensor<6x10x9xf32> {jax.result_info = \"result\"}) {\n    %0 = stablehlo.subtract %arg0, %arg1 : tensor<6x10x9xf32>\n    return %0 : tensor<6x10x9xf32>\n  }\n}\n",
    "metadata": {
      "category": "arithmetic",
      "operation": "subtract",
      "description": "Arithmetic: x - y"
    }
  },
  {
    "python_code": "lambda x, y: x * y",
    "input_info": [
      {
        "shape": [
          3
        ],
        "dtype": "float32"
      },
      {
        "shape": [
          3
        ],
        "dtype": "float32"
      }
    ],
    "jaxpr": "{ lambda ; a:f32[3] b:f32[3]. let c:f32[3] = mul a b in (c,) }",
    "stablehlo": "module @jit__lambda attributes {mhlo.num_partitions = 1 : i32, mhlo.num_replicas = 1 : i32} {\n  func.func public @main(%arg0: tensor<3xf32>, %arg1: tensor<3xf32>) -> (tensor<3xf32> {jax.result_info = \"result\"}) {\n    %0 = stablehlo.multiply %arg0, %arg1 : tensor<3xf32>\n    return %0 : tensor<3xf32>\n  }\n}\n",
    "metadata": {
      "category": "arithmetic",
      "operation": "multiply",
      "description": "Arithmetic: x * y"
    }
  },
  {
    "python_code": "lambda x: x + 1.0",
    "input_info": [
      {
        "shape": [
          6,
          2
        ],
        "dtype": "float32"
      }
    ],
    "jaxpr": "{ lambda ; a:f32[6,2]. let b:f32[6,2] = add a 1.0:f32[] in (b,) }",
    "stablehlo": "module @jit__lambda attributes {mhlo.num_partitions = 1 : i32, mhlo.num_replicas = 1 : i32} {\n  func.func public @main(%arg0: tensor<6x2xf32>) -> (tensor<6x2xf32> {jax.result_info = \"result\"}) {\n    %cst = stablehlo.constant dense<1.000000e+00> : tensor<f32>\n    %0 = stablehlo.broadcast_in_dim %cst, dims = [] : (tensor<f32>) -> tensor<6x2xf32>\n    %1 = stablehlo.add %arg0, %0 : tensor<6x2xf32>\n    return %1 : tensor<6x2xf32>\n  }\n}\n",
    "metadata": {
      "category": "arithmetic",
      "operation": "add_scalar",
      "description": "Arithmetic: x + 1.0"
    }
  },
  {
    "python_code": "lambda x, y: x + y",
    "input_info": [
      {
        "shape": [
          4,
          6
        ],
        "dtype": "float32"
      },
      {
        "shape": [
          4,
          6
        ],
        "dtype": "float32"
      }
    ],
    "jaxpr": "{ lambda ; a:f32[4,6] b:f32[4,6]. let c:f32[4,6] = add a b in (c,) }",
    "stablehlo": "module @jit__lambda attributes {mhlo.num_partitions = 1 : i32, mhlo.num_replicas = 1 : i32} {\n  func.func public @main(%arg0: tensor<4x6xf32>, %arg1: tensor<4x6xf32>) -> (tensor<4x6xf32> {jax.result_info = \"result\"}) {\n    %0 = stablehlo.add %arg0, %arg1 : tensor<4x6xf32>\n    return %0 : tensor<4x6xf32>\n  }\n}\n",
    "metadata": {
      "category": "arithmetic",
      "operation": "add",
      "description": "Arithmetic: x + y"
    }
  },
  {
    "python_code": "lambda x, y: x - y",
    "input_info": [
      {
        "shape": [
          9,
          10,
          8
        ],
        "dtype": "float32"
      },
      {
        "shape": [
          9,
          10,
          8
        ],
        "dtype": "float32"
      }
    ],
    "jaxpr": "{ lambda ; a:f32[9,10,8] b:f32[9,10,8]. let c:f32[9,10,8] = sub a b in (c,) }",
    "stablehlo": "module @jit__lambda attributes {mhlo.num_partitions = 1 : i32, mhlo.num_replicas = 1 : i32} {\n  func.func public @main(%arg0: tensor<9x10x8xf32>, %arg1: tensor<9x10x8xf32>) -> (tensor<9x10x8xf32> {jax.result_info = \"result\"}) {\n    %0 = stablehlo.subtract %arg0, %arg1 : tensor<9x10x8xf32>\n    return %0 : tensor<9x10x8xf32>\n  }\n}\n",
    "metadata": {
      "category": "arithmetic",
      "operation": "subtract",
      "description": "Arithmetic: x - y"
    }
  },
  {
    "python_code": "lambda x: x ** 2",
    "input_info": [
      {
        "shape": [
          3
        ],
        "dtype": "float32"
      }
    ],
    "jaxpr": "{ lambda ; a:f32[3]. let b:f32[3] = integer_pow[y=2] a in (b,) }",
    "stablehlo": "module @jit__lambda attributes {mhlo.num_partitions = 1 : i32, mhlo.num_replicas = 1 : i32} {\n  func.func public @main(%arg0: tensor<3xf32>) -> (tensor<3xf32> {jax.result_info = \"result\"}) {\n    %0 = stablehlo.multiply %arg0, %arg0 : tensor<3xf32>\n    return %0 : tensor<3xf32>\n  }\n}\n",
    "metadata": {
      "category": "arithmetic",
      "operation": "power",
      "description": "Arithmetic: x ** 2"
    }
  },
  {
    "python_code": "lambda x, y: x + y",
    "input_info": [
      {
        "shape": [
          4,
          10,
          2
        ],
        "dtype": "float32"
      },
      {
        "shape": [
          4,
          10,
          2
        ],
        "dtype": "float32"
      }
    ],
    "jaxpr": "{ lambda ; a:f32[4,10,2] b:f32[4,10,2]. let c:f32[4,10,2] = add a b in (c,) }",
    "stablehlo": "module @jit__lambda attributes {mhlo.num_partitions = 1 : i32, mhlo.num_replicas = 1 : i32} {\n  func.func public @main(%arg0: tensor<4x10x2xf32>, %arg1: tensor<4x10x2xf32>) -> (tensor<4x10x2xf32> {jax.result_info = \"result\"}) {\n    %0 = stablehlo.add %arg0, %arg1 : tensor<4x10x2xf32>\n    return %0 : tensor<4x10x2xf32>\n  }\n}\n",
    "metadata": {
      "category": "arithmetic",
      "operation": "add",
      "description": "Arithmetic: x + y"
    }
  },
  {
    "python_code": "lambda x: x * 2.0",
    "input_info": [
      {
        "shape": [
          10,
          4
        ],
        "dtype": "float32"
      }
    ],
    "jaxpr": "{ lambda ; a:f32[10,4]. let b:f32[10,4] = mul a 2.0:f32[] in (b,) }",
    "stablehlo": "module @jit__lambda attributes {mhlo.num_partitions = 1 : i32, mhlo.num_replicas = 1 : i32} {\n  func.func public @main(%arg0: tensor<10x4xf32>) -> (tensor<10x4xf32> {jax.result_info = \"result\"}) {\n    %cst = stablehlo.constant dense<2.000000e+00> : tensor<f32>\n    %0 = stablehlo.broadcast_in_dim %cst, dims = [] : (tensor<f32>) -> tensor<10x4xf32>\n    %1 = stablehlo.multiply %arg0, %0 : tensor<10x4xf32>\n    return %1 : tensor<10x4xf32>\n  }\n}\n",
    "metadata": {
      "category": "arithmetic",
      "operation": "mul_scalar",
      "description": "Arithmetic: x * 2.0"
    }
  },
  {
    "python_code": "lambda x, y: x / y",
    "input_info": [
      {
        "shape": [
          2
        ],
        "dtype": "float32"
      },
      {
        "shape": [
          2
        ],
        "dtype": "float32"
      }
    ],
    "jaxpr": "{ lambda ; a:f32[2] b:f32[2]. let c:f32[2] = div a b in (c,) }",
    "stablehlo": "module @jit__lambda attributes {mhlo.num_partitions = 1 : i32, mhlo.num_replicas = 1 : i32} {\n  func.func public @main(%arg0: tensor<2xf32>, %arg1: tensor<2xf32>) -> (tensor<2xf32> {jax.result_info = \"result\"}) {\n    %0 = stablehlo.divide %arg0, %arg1 : tensor<2xf32>\n    return %0 : tensor<2xf32>\n  }\n}\n",
    "metadata": {
      "category": "arithmetic",
      "operation": "divide",
      "description": "Arithmetic: x / y"
    }
  },
  {
    "python_code": "lambda x, y: x * y",
    "input_info": [
      {
        "shape": [
          2,
          7
        ],
        "dtype": "float32"
      },
      {
        "shape": [
          2,
          7
        ],
        "dtype": "float32"
      }
    ],
    "jaxpr": "{ lambda ; a:f32[2,7] b:f32[2,7]. let c:f32[2,7] = mul a b in (c,) }",
    "stablehlo": "module @jit__lambda attributes {mhlo.num_partitions = 1 : i32, mhlo.num_replicas = 1 : i32} {\n  func.func public @main(%arg0: tensor<2x7xf32>, %arg1: tensor<2x7xf32>) -> (tensor<2x7xf32> {jax.result_info = \"result\"}) {\n    %0 = stablehlo.multiply %arg0, %arg1 : tensor<2x7xf32>\n    return %0 : tensor<2x7xf32>\n  }\n}\n",
    "metadata": {
      "category": "arithmetic",
      "operation": "multiply",
      "description": "Arithmetic: x * y"
    }
  },
  {
    "python_code": "lambda x, y: x - y",
    "input_info": [
      {
        "shape": [
          5,
          3,
          7
        ],
        "dtype": "float32"
      },
      {
        "shape": [
          5,
          3,
          7
        ],
        "dtype": "float32"
      }
    ],
    "jaxpr": "{ lambda ; a:f32[5,3,7] b:f32[5,3,7]. let c:f32[5,3,7] = sub a b in (c,) }",
    "stablehlo": "module @jit__lambda attributes {mhlo.num_partitions = 1 : i32, mhlo.num_replicas = 1 : i32} {\n  func.func public @main(%arg0: tensor<5x3x7xf32>, %arg1: tensor<5x3x7xf32>) -> (tensor<5x3x7xf32> {jax.result_info = \"result\"}) {\n    %0 = stablehlo.subtract %arg0, %arg1 : tensor<5x3x7xf32>\n    return %0 : tensor<5x3x7xf32>\n  }\n}\n",
    "metadata": {
      "category": "arithmetic",
      "operation": "subtract",
      "description": "Arithmetic: x - y"
    }
  },
  {
    "python_code": "lambda x: x * 2.0",
    "input_info": [
      {
        "shape": [
          8,
          4,
          5
        ],
        "dtype": "float32"
      }
    ],
    "jaxpr": "{ lambda ; a:f32[8,4,5]. let b:f32[8,4,5] = mul a 2.0:f32[] in (b,) }",
    "stablehlo": "module @jit__lambda attributes {mhlo.num_partitions = 1 : i32, mhlo.num_replicas = 1 : i32} {\n  func.func public @main(%arg0: tensor<8x4x5xf32>) -> (tensor<8x4x5xf32> {jax.result_info = \"result\"}) {\n    %cst = stablehlo.constant dense<2.000000e+00> : tensor<f32>\n    %0 = stablehlo.broadcast_in_dim %cst, dims = [] : (tensor<f32>) -> tensor<8x4x5xf32>\n    %1 = stablehlo.multiply %arg0, %0 : tensor<8x4x5xf32>\n    return %1 : tensor<8x4x5xf32>\n  }\n}\n",
    "metadata": {
      "category": "arithmetic",
      "operation": "mul_scalar",
      "description": "Arithmetic: x * 2.0"
    }
  },
  {
    "python_code": "lambda x: x * 2.0",
    "input_info": [
      {
        "shape": [
          4
        ],
        "dtype": "float32"
      }
    ],
    "jaxpr": "{ lambda ; a:f32[4]. let b:f32[4] = mul a 2.0:f32[] in (b,) }",
    "stablehlo": "module @jit__lambda attributes {mhlo.num_partitions = 1 : i32, mhlo.num_replicas = 1 : i32} {\n  func.func public @main(%arg0: tensor<4xf32>) -> (tensor<4xf32> {jax.result_info = \"result\"}) {\n    %cst = stablehlo.constant dense<2.000000e+00> : tensor<f32>\n    %0 = stablehlo.broadcast_in_dim %cst, dims = [] : (tensor<f32>) -> tensor<4xf32>\n    %1 = stablehlo.multiply %arg0, %0 : tensor<4xf32>\n    return %1 : tensor<4xf32>\n  }\n}\n",
    "metadata": {
      "category": "arithmetic",
      "operation": "mul_scalar",
      "description": "Arithmetic: x * 2.0"
    }
  },
  {
    "python_code": "lambda x, y: x / y",
    "input_info": [
      {
        "shape": [
          4
        ],
        "dtype": "float32"
      },
      {
        "shape": [
          4
        ],
        "dtype": "float32"
      }
    ],
    "jaxpr": "{ lambda ; a:f32[4] b:f32[4]. let c:f32[4] = div a b in (c,) }",
    "stablehlo": "module @jit__lambda attributes {mhlo.num_partitions = 1 : i32, mhlo.num_replicas = 1 : i32} {\n  func.func public @main(%arg0: tensor<4xf32>, %arg1: tensor<4xf32>) -> (tensor<4xf32> {jax.result_info = \"result\"}) {\n    %0 = stablehlo.divide %arg0, %arg1 : tensor<4xf32>\n    return %0 : tensor<4xf32>\n  }\n}\n",
    "metadata": {
      "category": "arithmetic",
      "operation": "divide",
      "description": "Arithmetic: x / y"
    }
  },
  {
    "python_code": "lambda x: x + 1.0",
    "input_info": [
      {
        "shape": [
          8,
          5
        ],
        "dtype": "float32"
      }
    ],
    "jaxpr": "{ lambda ; a:f32[8,5]. let b:f32[8,5] = add a 1.0:f32[] in (b,) }",
    "stablehlo": "module @jit__lambda attributes {mhlo.num_partitions = 1 : i32, mhlo.num_replicas = 1 : i32} {\n  func.func public @main(%arg0: tensor<8x5xf32>) -> (tensor<8x5xf32> {jax.result_info = \"result\"}) {\n    %cst = stablehlo.constant dense<1.000000e+00> : tensor<f32>\n    %0 = stablehlo.broadcast_in_dim %cst, dims = [] : (tensor<f32>) -> tensor<8x5xf32>\n    %1 = stablehlo.add %arg0, %0 : tensor<8x5xf32>\n    return %1 : tensor<8x5xf32>\n  }\n}\n",
    "metadata": {
      "category": "arithmetic",
      "operation": "add_scalar",
      "description": "Arithmetic: x + 1.0"
    }
  },
  {
    "python_code": "lambda x, y: x * y",
    "input_info": [
      {
        "shape": [
          3
        ],
        "dtype": "float32"
      },
      {
        "shape": [
          3
        ],
        "dtype": "float32"
      }
    ],
    "jaxpr": "{ lambda ; a:f32[3] b:f32[3]. let c:f32[3] = mul a b in (c,) }",
    "stablehlo": "module @jit__lambda attributes {mhlo.num_partitions = 1 : i32, mhlo.num_replicas = 1 : i32} {\n  func.func public @main(%arg0: tensor<3xf32>, %arg1: tensor<3xf32>) -> (tensor<3xf32> {jax.result_info = \"result\"}) {\n    %0 = stablehlo.multiply %arg0, %arg1 : tensor<3xf32>\n    return %0 : tensor<3xf32>\n  }\n}\n",
    "metadata": {
      "category": "arithmetic",
      "operation": "multiply",
      "description": "Arithmetic: x * y"
    }
  },
  {
    "python_code": "lambda x, y: x / y",
    "input_info": [
      {
        "shape": [
          9
        ],
        "dtype": "float32"
      },
      {
        "shape": [
          9
        ],
        "dtype": "float32"
      }
    ],
    "jaxpr": "{ lambda ; a:f32[9] b:f32[9]. let c:f32[9] = div a b in (c,) }",
    "stablehlo": "module @jit__lambda attributes {mhlo.num_partitions = 1 : i32, mhlo.num_replicas = 1 : i32} {\n  func.func public @main(%arg0: tensor<9xf32>, %arg1: tensor<9xf32>) -> (tensor<9xf32> {jax.result_info = \"result\"}) {\n    %0 = stablehlo.divide %arg0, %arg1 : tensor<9xf32>\n    return %0 : tensor<9xf32>\n  }\n}\n",
    "metadata": {
      "category": "arithmetic",
      "operation": "divide",
      "description": "Arithmetic: x / y"
    }
  },
  {
    "python_code": "lambda x, y: x - y",
    "input_info": [
      {
        "shape": [
          9
        ],
        "dtype": "float32"
      },
      {
        "shape": [
          9
        ],
        "dtype": "float32"
      }
    ],
    "jaxpr": "{ lambda ; a:f32[9] b:f32[9]. let c:f32[9] = sub a b in (c,) }",
    "stablehlo": "module @jit__lambda attributes {mhlo.num_partitions = 1 : i32, mhlo.num_replicas = 1 : i32} {\n  func.func public @main(%arg0: tensor<9xf32>, %arg1: tensor<9xf32>) -> (tensor<9xf32> {jax.result_info = \"result\"}) {\n    %0 = stablehlo.subtract %arg0, %arg1 : tensor<9xf32>\n    return %0 : tensor<9xf32>\n  }\n}\n",
    "metadata": {
      "category": "arithmetic",
      "operation": "subtract",
      "description": "Arithmetic: x - y"
    }
  },
  {
    "python_code": "lambda x, y: x * y",
    "input_info": [
      {
        "shape": [
          5,
          5
        ],
        "dtype": "float32"
      },
      {
        "shape": [
          5,
          5
        ],
        "dtype": "float32"
      }
    ],
    "jaxpr": "{ lambda ; a:f32[5,5] b:f32[5,5]. let c:f32[5,5] = mul a b in (c,) }",
    "stablehlo": "module @jit__lambda attributes {mhlo.num_partitions = 1 : i32, mhlo.num_replicas = 1 : i32} {\n  func.func public @main(%arg0: tensor<5x5xf32>, %arg1: tensor<5x5xf32>) -> (tensor<5x5xf32> {jax.result_info = \"result\"}) {\n    %0 = stablehlo.multiply %arg0, %arg1 : tensor<5x5xf32>\n    return %0 : tensor<5x5xf32>\n  }\n}\n",
    "metadata": {
      "category": "arithmetic",
      "operation": "multiply",
      "description": "Arithmetic: x * y"
    }
  },
  {
    "python_code": "lambda x, y: x + y",
    "input_info": [
      {
        "shape": [
          5,
          8,
          7
        ],
        "dtype": "float32"
      },
      {
        "shape": [
          5,
          8,
          7
        ],
        "dtype": "float32"
      }
    ],
    "jaxpr": "{ lambda ; a:f32[5,8,7] b:f32[5,8,7]. let c:f32[5,8,7] = add a b in (c,) }",
    "stablehlo": "module @jit__lambda attributes {mhlo.num_partitions = 1 : i32, mhlo.num_replicas = 1 : i32} {\n  func.func public @main(%arg0: tensor<5x8x7xf32>, %arg1: tensor<5x8x7xf32>) -> (tensor<5x8x7xf32> {jax.result_info = \"result\"}) {\n    %0 = stablehlo.add %arg0, %arg1 : tensor<5x8x7xf32>\n    return %0 : tensor<5x8x7xf32>\n  }\n}\n",
    "metadata": {
      "category": "arithmetic",
      "operation": "add",
      "description": "Arithmetic: x + y"
    }
  },
  {
    "python_code": "lambda x, y: x * y",
    "input_info": [
      {
        "shape": [
          6
        ],
        "dtype": "float32"
      },
      {
        "shape": [
          6
        ],
        "dtype": "float32"
      }
    ],
    "jaxpr": "{ lambda ; a:f32[6] b:f32[6]. let c:f32[6] = mul a b in (c,) }",
    "stablehlo": "module @jit__lambda attributes {mhlo.num_partitions = 1 : i32, mhlo.num_replicas = 1 : i32} {\n  func.func public @main(%arg0: tensor<6xf32>, %arg1: tensor<6xf32>) -> (tensor<6xf32> {jax.result_info = \"result\"}) {\n    %0 = stablehlo.multiply %arg0, %arg1 : tensor<6xf32>\n    return %0 : tensor<6xf32>\n  }\n}\n",
    "metadata": {
      "category": "arithmetic",
      "operation": "multiply",
      "description": "Arithmetic: x * y"
    }
  },
  {
    "python_code": "lambda x, y: x * y",
    "input_info": [
      {
        "shape": [
          10,
          8,
          10
        ],
        "dtype": "float32"
      },
      {
        "shape": [
          10,
          8,
          10
        ],
        "dtype": "float32"
      }
    ],
    "jaxpr": "{ lambda ; a:f32[10,8,10] b:f32[10,8,10]. let c:f32[10,8,10] = mul a b in (c,) }",
    "stablehlo": "module @jit__lambda attributes {mhlo.num_partitions = 1 : i32, mhlo.num_replicas = 1 : i32} {\n  func.func public @main(%arg0: tensor<10x8x10xf32>, %arg1: tensor<10x8x10xf32>) -> (tensor<10x8x10xf32> {jax.result_info = \"result\"}) {\n    %0 = stablehlo.multiply %arg0, %arg1 : tensor<10x8x10xf32>\n    return %0 : tensor<10x8x10xf32>\n  }\n}\n",
    "metadata": {
      "category": "arithmetic",
      "operation": "multiply",
      "description": "Arithmetic: x * y"
    }
  },
  {
    "python_code": "lambda x, y: x * y",
    "input_info": [
      {
        "shape": [
          3
        ],
        "dtype": "float32"
      },
      {
        "shape": [
          3
        ],
        "dtype": "float32"
      }
    ],
    "jaxpr": "{ lambda ; a:f32[3] b:f32[3]. let c:f32[3] = mul a b in (c,) }",
    "stablehlo": "module @jit__lambda attributes {mhlo.num_partitions = 1 : i32, mhlo.num_replicas = 1 : i32} {\n  func.func public @main(%arg0: tensor<3xf32>, %arg1: tensor<3xf32>) -> (tensor<3xf32> {jax.result_info = \"result\"}) {\n    %0 = stablehlo.multiply %arg0, %arg1 : tensor<3xf32>\n    return %0 : tensor<3xf32>\n  }\n}\n",
    "metadata": {
      "category": "arithmetic",
      "operation": "multiply",
      "description": "Arithmetic: x * y"
    }
  },
  {
    "python_code": "lambda x, y: x * y",
    "input_info": [
      {
        "shape": [
          6
        ],
        "dtype": "float32"
      },
      {
        "shape": [
          6
        ],
        "dtype": "float32"
      }
    ],
    "jaxpr": "{ lambda ; a:f32[6] b:f32[6]. let c:f32[6] = mul a b in (c,) }",
    "stablehlo": "module @jit__lambda attributes {mhlo.num_partitions = 1 : i32, mhlo.num_replicas = 1 : i32} {\n  func.func public @main(%arg0: tensor<6xf32>, %arg1: tensor<6xf32>) -> (tensor<6xf32> {jax.result_info = \"result\"}) {\n    %0 = stablehlo.multiply %arg0, %arg1 : tensor<6xf32>\n    return %0 : tensor<6xf32>\n  }\n}\n",
    "metadata": {
      "category": "arithmetic",
      "operation": "multiply",
      "description": "Arithmetic: x * y"
    }
  },
  {
    "python_code": "lambda x, y: x + y",
    "input_info": [
      {
        "shape": [
          8
        ],
        "dtype": "float32"
      },
      {
        "shape": [
          8
        ],
        "dtype": "float32"
      }
    ],
    "jaxpr": "{ lambda ; a:f32[8] b:f32[8]. let c:f32[8] = add a b in (c,) }",
    "stablehlo": "module @jit__lambda attributes {mhlo.num_partitions = 1 : i32, mhlo.num_replicas = 1 : i32} {\n  func.func public @main(%arg0: tensor<8xf32>, %arg1: tensor<8xf32>) -> (tensor<8xf32> {jax.result_info = \"result\"}) {\n    %0 = stablehlo.add %arg0, %arg1 : tensor<8xf32>\n    return %0 : tensor<8xf32>\n  }\n}\n",
    "metadata": {
      "category": "arithmetic",
      "operation": "add",
      "description": "Arithmetic: x + y"
    }
  },
  {
    "python_code": "lambda x, y: x * y",
    "input_info": [
      {
        "shape": [
          7,
          8,
          10
        ],
        "dtype": "float32"
      },
      {
        "shape": [
          7,
          8,
          10
        ],
        "dtype": "float32"
      }
    ],
    "jaxpr": "{ lambda ; a:f32[7,8,10] b:f32[7,8,10]. let c:f32[7,8,10] = mul a b in (c,) }",
    "stablehlo": "module @jit__lambda attributes {mhlo.num_partitions = 1 : i32, mhlo.num_replicas = 1 : i32} {\n  func.func public @main(%arg0: tensor<7x8x10xf32>, %arg1: tensor<7x8x10xf32>) -> (tensor<7x8x10xf32> {jax.result_info = \"result\"}) {\n    %0 = stablehlo.multiply %arg0, %arg1 : tensor<7x8x10xf32>\n    return %0 : tensor<7x8x10xf32>\n  }\n}\n",
    "metadata": {
      "category": "arithmetic",
      "operation": "multiply",
      "description": "Arithmetic: x * y"
    }
  },
  {
    "python_code": "lambda x, y: x + y",
    "input_info": [
      {
        "shape": [
          5,
          6
        ],
        "dtype": "float32"
      },
      {
        "shape": [
          5,
          6
        ],
        "dtype": "float32"
      }
    ],
    "jaxpr": "{ lambda ; a:f32[5,6] b:f32[5,6]. let c:f32[5,6] = add a b in (c,) }",
    "stablehlo": "module @jit__lambda attributes {mhlo.num_partitions = 1 : i32, mhlo.num_replicas = 1 : i32} {\n  func.func public @main(%arg0: tensor<5x6xf32>, %arg1: tensor<5x6xf32>) -> (tensor<5x6xf32> {jax.result_info = \"result\"}) {\n    %0 = stablehlo.add %arg0, %arg1 : tensor<5x6xf32>\n    return %0 : tensor<5x6xf32>\n  }\n}\n",
    "metadata": {
      "category": "arithmetic",
      "operation": "add",
      "description": "Arithmetic: x + y"
    }
  },
  {
    "python_code": "lambda x, y: x + y",
    "input_info": [
      {
        "shape": [
          8,
          2,
          10
        ],
        "dtype": "float32"
      },
      {
        "shape": [
          8,
          2,
          10
        ],
        "dtype": "float32"
      }
    ],
    "jaxpr": "{ lambda ; a:f32[8,2,10] b:f32[8,2,10]. let c:f32[8,2,10] = add a b in (c,) }",
    "stablehlo": "module @jit__lambda attributes {mhlo.num_partitions = 1 : i32, mhlo.num_replicas = 1 : i32} {\n  func.func public @main(%arg0: tensor<8x2x10xf32>, %arg1: tensor<8x2x10xf32>) -> (tensor<8x2x10xf32> {jax.result_info = \"result\"}) {\n    %0 = stablehlo.add %arg0, %arg1 : tensor<8x2x10xf32>\n    return %0 : tensor<8x2x10xf32>\n  }\n}\n",
    "metadata": {
      "category": "arithmetic",
      "operation": "add",
      "description": "Arithmetic: x + y"
    }
  },
  {
    "python_code": "lambda x: x * 2.0",
    "input_info": [
      {
        "shape": [
          5,
          7,
          8
        ],
        "dtype": "float32"
      }
    ],
    "jaxpr": "{ lambda ; a:f32[5,7,8]. let b:f32[5,7,8] = mul a 2.0:f32[] in (b,) }",
    "stablehlo": "module @jit__lambda attributes {mhlo.num_partitions = 1 : i32, mhlo.num_replicas = 1 : i32} {\n  func.func public @main(%arg0: tensor<5x7x8xf32>) -> (tensor<5x7x8xf32> {jax.result_info = \"result\"}) {\n    %cst = stablehlo.constant dense<2.000000e+00> : tensor<f32>\n    %0 = stablehlo.broadcast_in_dim %cst, dims = [] : (tensor<f32>) -> tensor<5x7x8xf32>\n    %1 = stablehlo.multiply %arg0, %0 : tensor<5x7x8xf32>\n    return %1 : tensor<5x7x8xf32>\n  }\n}\n",
    "metadata": {
      "category": "arithmetic",
      "operation": "mul_scalar",
      "description": "Arithmetic: x * 2.0"
    }
  },
  {
    "python_code": "lambda x, y: x + y",
    "input_info": [
      {
        "shape": [
          7,
          7,
          3
        ],
        "dtype": "float32"
      },
      {
        "shape": [
          7,
          7,
          3
        ],
        "dtype": "float32"
      }
    ],
    "jaxpr": "{ lambda ; a:f32[7,7,3] b:f32[7,7,3]. let c:f32[7,7,3] = add a b in (c,) }",
    "stablehlo": "module @jit__lambda attributes {mhlo.num_partitions = 1 : i32, mhlo.num_replicas = 1 : i32} {\n  func.func public @main(%arg0: tensor<7x7x3xf32>, %arg1: tensor<7x7x3xf32>) -> (tensor<7x7x3xf32> {jax.result_info = \"result\"}) {\n    %0 = stablehlo.add %arg0, %arg1 : tensor<7x7x3xf32>\n    return %0 : tensor<7x7x3xf32>\n  }\n}\n",
    "metadata": {
      "category": "arithmetic",
      "operation": "add",
      "description": "Arithmetic: x + y"
    }
  },
  {
    "python_code": "lambda x: x + 1.0",
    "input_info": [
      {
        "shape": [
          10,
          6
        ],
        "dtype": "float32"
      }
    ],
    "jaxpr": "{ lambda ; a:f32[10,6]. let b:f32[10,6] = add a 1.0:f32[] in (b,) }",
    "stablehlo": "module @jit__lambda attributes {mhlo.num_partitions = 1 : i32, mhlo.num_replicas = 1 : i32} {\n  func.func public @main(%arg0: tensor<10x6xf32>) -> (tensor<10x6xf32> {jax.result_info = \"result\"}) {\n    %cst = stablehlo.constant dense<1.000000e+00> : tensor<f32>\n    %0 = stablehlo.broadcast_in_dim %cst, dims = [] : (tensor<f32>) -> tensor<10x6xf32>\n    %1 = stablehlo.add %arg0, %0 : tensor<10x6xf32>\n    return %1 : tensor<10x6xf32>\n  }\n}\n",
    "metadata": {
      "category": "arithmetic",
      "operation": "add_scalar",
      "description": "Arithmetic: x + 1.0"
    }
  },
  {
    "python_code": "lambda x: x + 1.0",
    "input_info": [
      {
        "shape": [
          7,
          8
        ],
        "dtype": "float32"
      }
    ],
    "jaxpr": "{ lambda ; a:f32[7,8]. let b:f32[7,8] = add a 1.0:f32[] in (b,) }",
    "stablehlo": "module @jit__lambda attributes {mhlo.num_partitions = 1 : i32, mhlo.num_replicas = 1 : i32} {\n  func.func public @main(%arg0: tensor<7x8xf32>) -> (tensor<7x8xf32> {jax.result_info = \"result\"}) {\n    %cst = stablehlo.constant dense<1.000000e+00> : tensor<f32>\n    %0 = stablehlo.broadcast_in_dim %cst, dims = [] : (tensor<f32>) -> tensor<7x8xf32>\n    %1 = stablehlo.add %arg0, %0 : tensor<7x8xf32>\n    return %1 : tensor<7x8xf32>\n  }\n}\n",
    "metadata": {
      "category": "arithmetic",
      "operation": "add_scalar",
      "description": "Arithmetic: x + 1.0"
    }
  },
  {
    "python_code": "lambda x: x + 1.0",
    "input_info": [
      {
        "shape": [
          10,
          4
        ],
        "dtype": "float32"
      }
    ],
    "jaxpr": "{ lambda ; a:f32[10,4]. let b:f32[10,4] = add a 1.0:f32[] in (b,) }",
    "stablehlo": "module @jit__lambda attributes {mhlo.num_partitions = 1 : i32, mhlo.num_replicas = 1 : i32} {\n  func.func public @main(%arg0: tensor<10x4xf32>) -> (tensor<10x4xf32> {jax.result_info = \"result\"}) {\n    %cst = stablehlo.constant dense<1.000000e+00> : tensor<f32>\n    %0 = stablehlo.broadcast_in_dim %cst, dims = [] : (tensor<f32>) -> tensor<10x4xf32>\n    %1 = stablehlo.add %arg0, %0 : tensor<10x4xf32>\n    return %1 : tensor<10x4xf32>\n  }\n}\n",
    "metadata": {
      "category": "arithmetic",
      "operation": "add_scalar",
      "description": "Arithmetic: x + 1.0"
    }
  },
  {
    "python_code": "lambda x, y: x - y",
    "input_info": [
      {
        "shape": [
          8,
          4
        ],
        "dtype": "float32"
      },
      {
        "shape": [
          8,
          4
        ],
        "dtype": "float32"
      }
    ],
    "jaxpr": "{ lambda ; a:f32[8,4] b:f32[8,4]. let c:f32[8,4] = sub a b in (c,) }",
    "stablehlo": "module @jit__lambda attributes {mhlo.num_partitions = 1 : i32, mhlo.num_replicas = 1 : i32} {\n  func.func public @main(%arg0: tensor<8x4xf32>, %arg1: tensor<8x4xf32>) -> (tensor<8x4xf32> {jax.result_info = \"result\"}) {\n    %0 = stablehlo.subtract %arg0, %arg1 : tensor<8x4xf32>\n    return %0 : tensor<8x4xf32>\n  }\n}\n",
    "metadata": {
      "category": "arithmetic",
      "operation": "subtract",
      "description": "Arithmetic: x - y"
    }
  },
  {
    "python_code": "lambda x: x ** 2",
    "input_info": [
      {
        "shape": [
          6,
          8,
          10
        ],
        "dtype": "float32"
      }
    ],
    "jaxpr": "{ lambda ; a:f32[6,8,10]. let b:f32[6,8,10] = integer_pow[y=2] a in (b,) }",
    "stablehlo": "module @jit__lambda attributes {mhlo.num_partitions = 1 : i32, mhlo.num_replicas = 1 : i32} {\n  func.func public @main(%arg0: tensor<6x8x10xf32>) -> (tensor<6x8x10xf32> {jax.result_info = \"result\"}) {\n    %0 = stablehlo.multiply %arg0, %arg0 : tensor<6x8x10xf32>\n    return %0 : tensor<6x8x10xf32>\n  }\n}\n",
    "metadata": {
      "category": "arithmetic",
      "operation": "power",
      "description": "Arithmetic: x ** 2"
    }
  },
  {
    "python_code": "lambda x: x * 2.0",
    "input_info": [
      {
        "shape": [
          6
        ],
        "dtype": "float32"
      }
    ],
    "jaxpr": "{ lambda ; a:f32[6]. let b:f32[6] = mul a 2.0:f32[] in (b,) }",
    "stablehlo": "module @jit__lambda attributes {mhlo.num_partitions = 1 : i32, mhlo.num_replicas = 1 : i32} {\n  func.func public @main(%arg0: tensor<6xf32>) -> (tensor<6xf32> {jax.result_info = \"result\"}) {\n    %cst = stablehlo.constant dense<2.000000e+00> : tensor<f32>\n    %0 = stablehlo.broadcast_in_dim %cst, dims = [] : (tensor<f32>) -> tensor<6xf32>\n    %1 = stablehlo.multiply %arg0, %0 : tensor<6xf32>\n    return %1 : tensor<6xf32>\n  }\n}\n",
    "metadata": {
      "category": "arithmetic",
      "operation": "mul_scalar",
      "description": "Arithmetic: x * 2.0"
    }
  },
  {
    "python_code": "lambda x, y: x * y",
    "input_info": [
      {
        "shape": [
          8
        ],
        "dtype": "float32"
      },
      {
        "shape": [
          8
        ],
        "dtype": "float32"
      }
    ],
    "jaxpr": "{ lambda ; a:f32[8] b:f32[8]. let c:f32[8] = mul a b in (c,) }",
    "stablehlo": "module @jit__lambda attributes {mhlo.num_partitions = 1 : i32, mhlo.num_replicas = 1 : i32} {\n  func.func public @main(%arg0: tensor<8xf32>, %arg1: tensor<8xf32>) -> (tensor<8xf32> {jax.result_info = \"result\"}) {\n    %0 = stablehlo.multiply %arg0, %arg1 : tensor<8xf32>\n    return %0 : tensor<8xf32>\n  }\n}\n",
    "metadata": {
      "category": "arithmetic",
      "operation": "multiply",
      "description": "Arithmetic: x * y"
    }
  },
  {
    "python_code": "lambda x: x * 2.0",
    "input_info": [
      {
        "shape": [
          7,
          9,
          9
        ],
        "dtype": "float32"
      }
    ],
    "jaxpr": "{ lambda ; a:f32[7,9,9]. let b:f32[7,9,9] = mul a 2.0:f32[] in (b,) }",
    "stablehlo": "module @jit__lambda attributes {mhlo.num_partitions = 1 : i32, mhlo.num_replicas = 1 : i32} {\n  func.func public @main(%arg0: tensor<7x9x9xf32>) -> (tensor<7x9x9xf32> {jax.result_info = \"result\"}) {\n    %cst = stablehlo.constant dense<2.000000e+00> : tensor<f32>\n    %0 = stablehlo.broadcast_in_dim %cst, dims = [] : (tensor<f32>) -> tensor<7x9x9xf32>\n    %1 = stablehlo.multiply %arg0, %0 : tensor<7x9x9xf32>\n    return %1 : tensor<7x9x9xf32>\n  }\n}\n",
    "metadata": {
      "category": "arithmetic",
      "operation": "mul_scalar",
      "description": "Arithmetic: x * 2.0"
    }
  },
  {
    "python_code": "lambda x, y: x / y",
    "input_info": [
      {
        "shape": [
          5,
          10,
          9
        ],
        "dtype": "float32"
      },
      {
        "shape": [
          5,
          10,
          9
        ],
        "dtype": "float32"
      }
    ],
    "jaxpr": "{ lambda ; a:f32[5,10,9] b:f32[5,10,9]. let c:f32[5,10,9] = div a b in (c,) }",
    "stablehlo": "module @jit__lambda attributes {mhlo.num_partitions = 1 : i32, mhlo.num_replicas = 1 : i32} {\n  func.func public @main(%arg0: tensor<5x10x9xf32>, %arg1: tensor<5x10x9xf32>) -> (tensor<5x10x9xf32> {jax.result_info = \"result\"}) {\n    %0 = stablehlo.divide %arg0, %arg1 : tensor<5x10x9xf32>\n    return %0 : tensor<5x10x9xf32>\n  }\n}\n",
    "metadata": {
      "category": "arithmetic",
      "operation": "divide",
      "description": "Arithmetic: x / y"
    }
  },
  {
    "python_code": "lambda x: x * 2.0",
    "input_info": [
      {
        "shape": [
          4,
          3,
          6
        ],
        "dtype": "float32"
      }
    ],
    "jaxpr": "{ lambda ; a:f32[4,3,6]. let b:f32[4,3,6] = mul a 2.0:f32[] in (b,) }",
    "stablehlo": "module @jit__lambda attributes {mhlo.num_partitions = 1 : i32, mhlo.num_replicas = 1 : i32} {\n  func.func public @main(%arg0: tensor<4x3x6xf32>) -> (tensor<4x3x6xf32> {jax.result_info = \"result\"}) {\n    %cst = stablehlo.constant dense<2.000000e+00> : tensor<f32>\n    %0 = stablehlo.broadcast_in_dim %cst, dims = [] : (tensor<f32>) -> tensor<4x3x6xf32>\n    %1 = stablehlo.multiply %arg0, %0 : tensor<4x3x6xf32>\n    return %1 : tensor<4x3x6xf32>\n  }\n}\n",
    "metadata": {
      "category": "arithmetic",
      "operation": "mul_scalar",
      "description": "Arithmetic: x * 2.0"
    }
  },
  {
    "python_code": "lambda x: x ** 2",
    "input_info": [
      {
        "shape": [
          7,
          3,
          5
        ],
        "dtype": "float32"
      }
    ],
    "jaxpr": "{ lambda ; a:f32[7,3,5]. let b:f32[7,3,5] = integer_pow[y=2] a in (b,) }",
    "stablehlo": "module @jit__lambda attributes {mhlo.num_partitions = 1 : i32, mhlo.num_replicas = 1 : i32} {\n  func.func public @main(%arg0: tensor<7x3x5xf32>) -> (tensor<7x3x5xf32> {jax.result_info = \"result\"}) {\n    %0 = stablehlo.multiply %arg0, %arg0 : tensor<7x3x5xf32>\n    return %0 : tensor<7x3x5xf32>\n  }\n}\n",
    "metadata": {
      "category": "arithmetic",
      "operation": "power",
      "description": "Arithmetic: x ** 2"
    }
  },
  {
    "python_code": "lambda x: x + 1.0",
    "input_info": [
      {
        "shape": [
          5,
          5
        ],
        "dtype": "float32"
      }
    ],
    "jaxpr": "{ lambda ; a:f32[5,5]. let b:f32[5,5] = add a 1.0:f32[] in (b,) }",
    "stablehlo": "module @jit__lambda attributes {mhlo.num_partitions = 1 : i32, mhlo.num_replicas = 1 : i32} {\n  func.func public @main(%arg0: tensor<5x5xf32>) -> (tensor<5x5xf32> {jax.result_info = \"result\"}) {\n    %cst = stablehlo.constant dense<1.000000e+00> : tensor<f32>\n    %0 = stablehlo.broadcast_in_dim %cst, dims = [] : (tensor<f32>) -> tensor<5x5xf32>\n    %1 = stablehlo.add %arg0, %0 : tensor<5x5xf32>\n    return %1 : tensor<5x5xf32>\n  }\n}\n",
    "metadata": {
      "category": "arithmetic",
      "operation": "add_scalar",
      "description": "Arithmetic: x + 1.0"
    }
  },
  {
    "python_code": "lambda x, y: x - y",
    "input_info": [
      {
        "shape": [
          2
        ],
        "dtype": "float32"
      },
      {
        "shape": [
          2
        ],
        "dtype": "float32"
      }
    ],
    "jaxpr": "{ lambda ; a:f32[2] b:f32[2]. let c:f32[2] = sub a b in (c,) }",
    "stablehlo": "module @jit__lambda attributes {mhlo.num_partitions = 1 : i32, mhlo.num_replicas = 1 : i32} {\n  func.func public @main(%arg0: tensor<2xf32>, %arg1: tensor<2xf32>) -> (tensor<2xf32> {jax.result_info = \"result\"}) {\n    %0 = stablehlo.subtract %arg0, %arg1 : tensor<2xf32>\n    return %0 : tensor<2xf32>\n  }\n}\n",
    "metadata": {
      "category": "arithmetic",
      "operation": "subtract",
      "description": "Arithmetic: x - y"
    }
  },
  {
    "python_code": "lambda x, y: x - y",
    "input_info": [
      {
        "shape": [
          3,
          9
        ],
        "dtype": "float32"
      },
      {
        "shape": [
          3,
          9
        ],
        "dtype": "float32"
      }
    ],
    "jaxpr": "{ lambda ; a:f32[3,9] b:f32[3,9]. let c:f32[3,9] = sub a b in (c,) }",
    "stablehlo": "module @jit__lambda attributes {mhlo.num_partitions = 1 : i32, mhlo.num_replicas = 1 : i32} {\n  func.func public @main(%arg0: tensor<3x9xf32>, %arg1: tensor<3x9xf32>) -> (tensor<3x9xf32> {jax.result_info = \"result\"}) {\n    %0 = stablehlo.subtract %arg0, %arg1 : tensor<3x9xf32>\n    return %0 : tensor<3x9xf32>\n  }\n}\n",
    "metadata": {
      "category": "arithmetic",
      "operation": "subtract",
      "description": "Arithmetic: x - y"
    }
  },
  {
    "python_code": "lambda x, y: x / y",
    "input_info": [
      {
        "shape": [
          5,
          8,
          9
        ],
        "dtype": "float32"
      },
      {
        "shape": [
          5,
          8,
          9
        ],
        "dtype": "float32"
      }
    ],
    "jaxpr": "{ lambda ; a:f32[5,8,9] b:f32[5,8,9]. let c:f32[5,8,9] = div a b in (c,) }",
    "stablehlo": "module @jit__lambda attributes {mhlo.num_partitions = 1 : i32, mhlo.num_replicas = 1 : i32} {\n  func.func public @main(%arg0: tensor<5x8x9xf32>, %arg1: tensor<5x8x9xf32>) -> (tensor<5x8x9xf32> {jax.result_info = \"result\"}) {\n    %0 = stablehlo.divide %arg0, %arg1 : tensor<5x8x9xf32>\n    return %0 : tensor<5x8x9xf32>\n  }\n}\n",
    "metadata": {
      "category": "arithmetic",
      "operation": "divide",
      "description": "Arithmetic: x / y"
    }
  },
  {
    "python_code": "lambda x, y: x / y",
    "input_info": [
      {
        "shape": [
          4
        ],
        "dtype": "float32"
      },
      {
        "shape": [
          4
        ],
        "dtype": "float32"
      }
    ],
    "jaxpr": "{ lambda ; a:f32[4] b:f32[4]. let c:f32[4] = div a b in (c,) }",
    "stablehlo": "module @jit__lambda attributes {mhlo.num_partitions = 1 : i32, mhlo.num_replicas = 1 : i32} {\n  func.func public @main(%arg0: tensor<4xf32>, %arg1: tensor<4xf32>) -> (tensor<4xf32> {jax.result_info = \"result\"}) {\n    %0 = stablehlo.divide %arg0, %arg1 : tensor<4xf32>\n    return %0 : tensor<4xf32>\n  }\n}\n",
    "metadata": {
      "category": "arithmetic",
      "operation": "divide",
      "description": "Arithmetic: x / y"
    }
  },
  {
    "python_code": "lambda x: x + 1.0",
    "input_info": [
      {
        "shape": [
          2,
          3,
          8
        ],
        "dtype": "float32"
      }
    ],
    "jaxpr": "{ lambda ; a:f32[2,3,8]. let b:f32[2,3,8] = add a 1.0:f32[] in (b,) }",
    "stablehlo": "module @jit__lambda attributes {mhlo.num_partitions = 1 : i32, mhlo.num_replicas = 1 : i32} {\n  func.func public @main(%arg0: tensor<2x3x8xf32>) -> (tensor<2x3x8xf32> {jax.result_info = \"result\"}) {\n    %cst = stablehlo.constant dense<1.000000e+00> : tensor<f32>\n    %0 = stablehlo.broadcast_in_dim %cst, dims = [] : (tensor<f32>) -> tensor<2x3x8xf32>\n    %1 = stablehlo.add %arg0, %0 : tensor<2x3x8xf32>\n    return %1 : tensor<2x3x8xf32>\n  }\n}\n",
    "metadata": {
      "category": "arithmetic",
      "operation": "add_scalar",
      "description": "Arithmetic: x + 1.0"
    }
  },
  {
    "python_code": "lambda x, y: x - y",
    "input_info": [
      {
        "shape": [
          10
        ],
        "dtype": "float32"
      },
      {
        "shape": [
          10
        ],
        "dtype": "float32"
      }
    ],
    "jaxpr": "{ lambda ; a:f32[10] b:f32[10]. let c:f32[10] = sub a b in (c,) }",
    "stablehlo": "module @jit__lambda attributes {mhlo.num_partitions = 1 : i32, mhlo.num_replicas = 1 : i32} {\n  func.func public @main(%arg0: tensor<10xf32>, %arg1: tensor<10xf32>) -> (tensor<10xf32> {jax.result_info = \"result\"}) {\n    %0 = stablehlo.subtract %arg0, %arg1 : tensor<10xf32>\n    return %0 : tensor<10xf32>\n  }\n}\n",
    "metadata": {
      "category": "arithmetic",
      "operation": "subtract",
      "description": "Arithmetic: x - y"
    }
  },
  {
    "python_code": "lambda x, y: x / y",
    "input_info": [
      {
        "shape": [
          10
        ],
        "dtype": "float32"
      },
      {
        "shape": [
          10
        ],
        "dtype": "float32"
      }
    ],
    "jaxpr": "{ lambda ; a:f32[10] b:f32[10]. let c:f32[10] = div a b in (c,) }",
    "stablehlo": "module @jit__lambda attributes {mhlo.num_partitions = 1 : i32, mhlo.num_replicas = 1 : i32} {\n  func.func public @main(%arg0: tensor<10xf32>, %arg1: tensor<10xf32>) -> (tensor<10xf32> {jax.result_info = \"result\"}) {\n    %0 = stablehlo.divide %arg0, %arg1 : tensor<10xf32>\n    return %0 : tensor<10xf32>\n  }\n}\n",
    "metadata": {
      "category": "arithmetic",
      "operation": "divide",
      "description": "Arithmetic: x / y"
    }
  },
  {
    "python_code": "lambda x, y: x - y",
    "input_info": [
      {
        "shape": [
          9
        ],
        "dtype": "float32"
      },
      {
        "shape": [
          9
        ],
        "dtype": "float32"
      }
    ],
    "jaxpr": "{ lambda ; a:f32[9] b:f32[9]. let c:f32[9] = sub a b in (c,) }",
    "stablehlo": "module @jit__lambda attributes {mhlo.num_partitions = 1 : i32, mhlo.num_replicas = 1 : i32} {\n  func.func public @main(%arg0: tensor<9xf32>, %arg1: tensor<9xf32>) -> (tensor<9xf32> {jax.result_info = \"result\"}) {\n    %0 = stablehlo.subtract %arg0, %arg1 : tensor<9xf32>\n    return %0 : tensor<9xf32>\n  }\n}\n",
    "metadata": {
      "category": "arithmetic",
      "operation": "subtract",
      "description": "Arithmetic: x - y"
    }
  },
  {
    "python_code": "lambda x, y: x - y",
    "input_info": [
      {
        "shape": [
          10,
          10
        ],
        "dtype": "float32"
      },
      {
        "shape": [
          10,
          10
        ],
        "dtype": "float32"
      }
    ],
    "jaxpr": "{ lambda ; a:f32[10,10] b:f32[10,10]. let c:f32[10,10] = sub a b in (c,) }",
    "stablehlo": "module @jit__lambda attributes {mhlo.num_partitions = 1 : i32, mhlo.num_replicas = 1 : i32} {\n  func.func public @main(%arg0: tensor<10x10xf32>, %arg1: tensor<10x10xf32>) -> (tensor<10x10xf32> {jax.result_info = \"result\"}) {\n    %0 = stablehlo.subtract %arg0, %arg1 : tensor<10x10xf32>\n    return %0 : tensor<10x10xf32>\n  }\n}\n",
    "metadata": {
      "category": "arithmetic",
      "operation": "subtract",
      "description": "Arithmetic: x - y"
    }
  },
  {
    "python_code": "lambda x: x ** 2",
    "input_info": [
      {
        "shape": [
          9,
          10
        ],
        "dtype": "float32"
      }
    ],
    "jaxpr": "{ lambda ; a:f32[9,10]. let b:f32[9,10] = integer_pow[y=2] a in (b,) }",
    "stablehlo": "module @jit__lambda attributes {mhlo.num_partitions = 1 : i32, mhlo.num_replicas = 1 : i32} {\n  func.func public @main(%arg0: tensor<9x10xf32>) -> (tensor<9x10xf32> {jax.result_info = \"result\"}) {\n    %0 = stablehlo.multiply %arg0, %arg0 : tensor<9x10xf32>\n    return %0 : tensor<9x10xf32>\n  }\n}\n",
    "metadata": {
      "category": "arithmetic",
      "operation": "power",
      "description": "Arithmetic: x ** 2"
    }
  },
  {
    "python_code": "lambda x, y: x / y",
    "input_info": [
      {
        "shape": [
          9,
          4,
          9
        ],
        "dtype": "float32"
      },
      {
        "shape": [
          9,
          4,
          9
        ],
        "dtype": "float32"
      }
    ],
    "jaxpr": "{ lambda ; a:f32[9,4,9] b:f32[9,4,9]. let c:f32[9,4,9] = div a b in (c,) }",
    "stablehlo": "module @jit__lambda attributes {mhlo.num_partitions = 1 : i32, mhlo.num_replicas = 1 : i32} {\n  func.func public @main(%arg0: tensor<9x4x9xf32>, %arg1: tensor<9x4x9xf32>) -> (tensor<9x4x9xf32> {jax.result_info = \"result\"}) {\n    %0 = stablehlo.divide %arg0, %arg1 : tensor<9x4x9xf32>\n    return %0 : tensor<9x4x9xf32>\n  }\n}\n",
    "metadata": {
      "category": "arithmetic",
      "operation": "divide",
      "description": "Arithmetic: x / y"
    }
  },
  {
    "python_code": "lambda x, y: x / y",
    "input_info": [
      {
        "shape": [
          5,
          6
        ],
        "dtype": "float32"
      },
      {
        "shape": [
          5,
          6
        ],
        "dtype": "float32"
      }
    ],
    "jaxpr": "{ lambda ; a:f32[5,6] b:f32[5,6]. let c:f32[5,6] = div a b in (c,) }",
    "stablehlo": "module @jit__lambda attributes {mhlo.num_partitions = 1 : i32, mhlo.num_replicas = 1 : i32} {\n  func.func public @main(%arg0: tensor<5x6xf32>, %arg1: tensor<5x6xf32>) -> (tensor<5x6xf32> {jax.result_info = \"result\"}) {\n    %0 = stablehlo.divide %arg0, %arg1 : tensor<5x6xf32>\n    return %0 : tensor<5x6xf32>\n  }\n}\n",
    "metadata": {
      "category": "arithmetic",
      "operation": "divide",
      "description": "Arithmetic: x / y"
    }
  },
  {
    "python_code": "lambda x: x * 2.0",
    "input_info": [
      {
        "shape": [
          9,
          5,
          6
        ],
        "dtype": "float32"
      }
    ],
    "jaxpr": "{ lambda ; a:f32[9,5,6]. let b:f32[9,5,6] = mul a 2.0:f32[] in (b,) }",
    "stablehlo": "module @jit__lambda attributes {mhlo.num_partitions = 1 : i32, mhlo.num_replicas = 1 : i32} {\n  func.func public @main(%arg0: tensor<9x5x6xf32>) -> (tensor<9x5x6xf32> {jax.result_info = \"result\"}) {\n    %cst = stablehlo.constant dense<2.000000e+00> : tensor<f32>\n    %0 = stablehlo.broadcast_in_dim %cst, dims = [] : (tensor<f32>) -> tensor<9x5x6xf32>\n    %1 = stablehlo.multiply %arg0, %0 : tensor<9x5x6xf32>\n    return %1 : tensor<9x5x6xf32>\n  }\n}\n",
    "metadata": {
      "category": "arithmetic",
      "operation": "mul_scalar",
      "description": "Arithmetic: x * 2.0"
    }
  },
  {
    "python_code": "lambda x, y: x / y",
    "input_info": [
      {
        "shape": [
          6
        ],
        "dtype": "float32"
      },
      {
        "shape": [
          6
        ],
        "dtype": "float32"
      }
    ],
    "jaxpr": "{ lambda ; a:f32[6] b:f32[6]. let c:f32[6] = div a b in (c,) }",
    "stablehlo": "module @jit__lambda attributes {mhlo.num_partitions = 1 : i32, mhlo.num_replicas = 1 : i32} {\n  func.func public @main(%arg0: tensor<6xf32>, %arg1: tensor<6xf32>) -> (tensor<6xf32> {jax.result_info = \"result\"}) {\n    %0 = stablehlo.divide %arg0, %arg1 : tensor<6xf32>\n    return %0 : tensor<6xf32>\n  }\n}\n",
    "metadata": {
      "category": "arithmetic",
      "operation": "divide",
      "description": "Arithmetic: x / y"
    }
  },
  {
    "python_code": "lambda x, y: x - y",
    "input_info": [
      {
        "shape": [
          7,
          7
        ],
        "dtype": "float32"
      },
      {
        "shape": [
          7,
          7
        ],
        "dtype": "float32"
      }
    ],
    "jaxpr": "{ lambda ; a:f32[7,7] b:f32[7,7]. let c:f32[7,7] = sub a b in (c,) }",
    "stablehlo": "module @jit__lambda attributes {mhlo.num_partitions = 1 : i32, mhlo.num_replicas = 1 : i32} {\n  func.func public @main(%arg0: tensor<7x7xf32>, %arg1: tensor<7x7xf32>) -> (tensor<7x7xf32> {jax.result_info = \"result\"}) {\n    %0 = stablehlo.subtract %arg0, %arg1 : tensor<7x7xf32>\n    return %0 : tensor<7x7xf32>\n  }\n}\n",
    "metadata": {
      "category": "arithmetic",
      "operation": "subtract",
      "description": "Arithmetic: x - y"
    }
  },
  {
    "python_code": "lambda x: x ** 2",
    "input_info": [
      {
        "shape": [
          4
        ],
        "dtype": "float32"
      }
    ],
    "jaxpr": "{ lambda ; a:f32[4]. let b:f32[4] = integer_pow[y=2] a in (b,) }",
    "stablehlo": "module @jit__lambda attributes {mhlo.num_partitions = 1 : i32, mhlo.num_replicas = 1 : i32} {\n  func.func public @main(%arg0: tensor<4xf32>) -> (tensor<4xf32> {jax.result_info = \"result\"}) {\n    %0 = stablehlo.multiply %arg0, %arg0 : tensor<4xf32>\n    return %0 : tensor<4xf32>\n  }\n}\n",
    "metadata": {
      "category": "arithmetic",
      "operation": "power",
      "description": "Arithmetic: x ** 2"
    }
  },
  {
    "python_code": "lambda x, y: x - y",
    "input_info": [
      {
        "shape": [
          8
        ],
        "dtype": "float32"
      },
      {
        "shape": [
          8
        ],
        "dtype": "float32"
      }
    ],
    "jaxpr": "{ lambda ; a:f32[8] b:f32[8]. let c:f32[8] = sub a b in (c,) }",
    "stablehlo": "module @jit__lambda attributes {mhlo.num_partitions = 1 : i32, mhlo.num_replicas = 1 : i32} {\n  func.func public @main(%arg0: tensor<8xf32>, %arg1: tensor<8xf32>) -> (tensor<8xf32> {jax.result_info = \"result\"}) {\n    %0 = stablehlo.subtract %arg0, %arg1 : tensor<8xf32>\n    return %0 : tensor<8xf32>\n  }\n}\n",
    "metadata": {
      "category": "arithmetic",
      "operation": "subtract",
      "description": "Arithmetic: x - y"
    }
  },
  {
    "python_code": "lambda x: x + 1.0",
    "input_info": [
      {
        "shape": [
          5
        ],
        "dtype": "float32"
      }
    ],
    "jaxpr": "{ lambda ; a:f32[5]. let b:f32[5] = add a 1.0:f32[] in (b,) }",
    "stablehlo": "module @jit__lambda attributes {mhlo.num_partitions = 1 : i32, mhlo.num_replicas = 1 : i32} {\n  func.func public @main(%arg0: tensor<5xf32>) -> (tensor<5xf32> {jax.result_info = \"result\"}) {\n    %cst = stablehlo.constant dense<1.000000e+00> : tensor<f32>\n    %0 = stablehlo.broadcast_in_dim %cst, dims = [] : (tensor<f32>) -> tensor<5xf32>\n    %1 = stablehlo.add %arg0, %0 : tensor<5xf32>\n    return %1 : tensor<5xf32>\n  }\n}\n",
    "metadata": {
      "category": "arithmetic",
      "operation": "add_scalar",
      "description": "Arithmetic: x + 1.0"
    }
  },
  {
    "python_code": "lambda x, y: x + y",
    "input_info": [
      {
        "shape": [
          8,
          7
        ],
        "dtype": "float32"
      },
      {
        "shape": [
          8,
          7
        ],
        "dtype": "float32"
      }
    ],
    "jaxpr": "{ lambda ; a:f32[8,7] b:f32[8,7]. let c:f32[8,7] = add a b in (c,) }",
    "stablehlo": "module @jit__lambda attributes {mhlo.num_partitions = 1 : i32, mhlo.num_replicas = 1 : i32} {\n  func.func public @main(%arg0: tensor<8x7xf32>, %arg1: tensor<8x7xf32>) -> (tensor<8x7xf32> {jax.result_info = \"result\"}) {\n    %0 = stablehlo.add %arg0, %arg1 : tensor<8x7xf32>\n    return %0 : tensor<8x7xf32>\n  }\n}\n",
    "metadata": {
      "category": "arithmetic",
      "operation": "add",
      "description": "Arithmetic: x + y"
    }
  },
  {
    "python_code": "lambda x: x ** 2",
    "input_info": [
      {
        "shape": [
          8,
          2
        ],
        "dtype": "float32"
      }
    ],
    "jaxpr": "{ lambda ; a:f32[8,2]. let b:f32[8,2] = integer_pow[y=2] a in (b,) }",
    "stablehlo": "module @jit__lambda attributes {mhlo.num_partitions = 1 : i32, mhlo.num_replicas = 1 : i32} {\n  func.func public @main(%arg0: tensor<8x2xf32>) -> (tensor<8x2xf32> {jax.result_info = \"result\"}) {\n    %0 = stablehlo.multiply %arg0, %arg0 : tensor<8x2xf32>\n    return %0 : tensor<8x2xf32>\n  }\n}\n",
    "metadata": {
      "category": "arithmetic",
      "operation": "power",
      "description": "Arithmetic: x ** 2"
    }
  },
  {
    "python_code": "lambda x, y: x - y",
    "input_info": [
      {
        "shape": [
          8,
          2
        ],
        "dtype": "float32"
      },
      {
        "shape": [
          8,
          2
        ],
        "dtype": "float32"
      }
    ],
    "jaxpr": "{ lambda ; a:f32[8,2] b:f32[8,2]. let c:f32[8,2] = sub a b in (c,) }",
    "stablehlo": "module @jit__lambda attributes {mhlo.num_partitions = 1 : i32, mhlo.num_replicas = 1 : i32} {\n  func.func public @main(%arg0: tensor<8x2xf32>, %arg1: tensor<8x2xf32>) -> (tensor<8x2xf32> {jax.result_info = \"result\"}) {\n    %0 = stablehlo.subtract %arg0, %arg1 : tensor<8x2xf32>\n    return %0 : tensor<8x2xf32>\n  }\n}\n",
    "metadata": {
      "category": "arithmetic",
      "operation": "subtract",
      "description": "Arithmetic: x - y"
    }
  },
  {
    "python_code": "lambda x: x * 2.0",
    "input_info": [
      {
        "shape": [
          8,
          9,
          2
        ],
        "dtype": "float32"
      }
    ],
    "jaxpr": "{ lambda ; a:f32[8,9,2]. let b:f32[8,9,2] = mul a 2.0:f32[] in (b,) }",
    "stablehlo": "module @jit__lambda attributes {mhlo.num_partitions = 1 : i32, mhlo.num_replicas = 1 : i32} {\n  func.func public @main(%arg0: tensor<8x9x2xf32>) -> (tensor<8x9x2xf32> {jax.result_info = \"result\"}) {\n    %cst = stablehlo.constant dense<2.000000e+00> : tensor<f32>\n    %0 = stablehlo.broadcast_in_dim %cst, dims = [] : (tensor<f32>) -> tensor<8x9x2xf32>\n    %1 = stablehlo.multiply %arg0, %0 : tensor<8x9x2xf32>\n    return %1 : tensor<8x9x2xf32>\n  }\n}\n",
    "metadata": {
      "category": "arithmetic",
      "operation": "mul_scalar",
      "description": "Arithmetic: x * 2.0"
    }
  },
  {
    "python_code": "lambda x, y: x * y",
    "input_info": [
      {
        "shape": [
          8,
          8
        ],
        "dtype": "float32"
      },
      {
        "shape": [
          8,
          8
        ],
        "dtype": "float32"
      }
    ],
    "jaxpr": "{ lambda ; a:f32[8,8] b:f32[8,8]. let c:f32[8,8] = mul a b in (c,) }",
    "stablehlo": "module @jit__lambda attributes {mhlo.num_partitions = 1 : i32, mhlo.num_replicas = 1 : i32} {\n  func.func public @main(%arg0: tensor<8x8xf32>, %arg1: tensor<8x8xf32>) -> (tensor<8x8xf32> {jax.result_info = \"result\"}) {\n    %0 = stablehlo.multiply %arg0, %arg1 : tensor<8x8xf32>\n    return %0 : tensor<8x8xf32>\n  }\n}\n",
    "metadata": {
      "category": "arithmetic",
      "operation": "multiply",
      "description": "Arithmetic: x * y"
    }
  },
  {
    "python_code": "lambda x: x ** 2",
    "input_info": [
      {
        "shape": [
          10,
          5,
          9
        ],
        "dtype": "float32"
      }
    ],
    "jaxpr": "{ lambda ; a:f32[10,5,9]. let b:f32[10,5,9] = integer_pow[y=2] a in (b,) }",
    "stablehlo": "module @jit__lambda attributes {mhlo.num_partitions = 1 : i32, mhlo.num_replicas = 1 : i32} {\n  func.func public @main(%arg0: tensor<10x5x9xf32>) -> (tensor<10x5x9xf32> {jax.result_info = \"result\"}) {\n    %0 = stablehlo.multiply %arg0, %arg0 : tensor<10x5x9xf32>\n    return %0 : tensor<10x5x9xf32>\n  }\n}\n",
    "metadata": {
      "category": "arithmetic",
      "operation": "power",
      "description": "Arithmetic: x ** 2"
    }
  },
  {
    "python_code": "lambda x, y: x - y",
    "input_info": [
      {
        "shape": [
          8,
          9
        ],
        "dtype": "float32"
      },
      {
        "shape": [
          8,
          9
        ],
        "dtype": "float32"
      }
    ],
    "jaxpr": "{ lambda ; a:f32[8,9] b:f32[8,9]. let c:f32[8,9] = sub a b in (c,) }",
    "stablehlo": "module @jit__lambda attributes {mhlo.num_partitions = 1 : i32, mhlo.num_replicas = 1 : i32} {\n  func.func public @main(%arg0: tensor<8x9xf32>, %arg1: tensor<8x9xf32>) -> (tensor<8x9xf32> {jax.result_info = \"result\"}) {\n    %0 = stablehlo.subtract %arg0, %arg1 : tensor<8x9xf32>\n    return %0 : tensor<8x9xf32>\n  }\n}\n",
    "metadata": {
      "category": "arithmetic",
      "operation": "subtract",
      "description": "Arithmetic: x - y"
    }
  },
  {
    "python_code": "lambda x, y: x + y",
    "input_info": [
      {
        "shape": [
          7,
          8
        ],
        "dtype": "float32"
      },
      {
        "shape": [
          7,
          8
        ],
        "dtype": "float32"
      }
    ],
    "jaxpr": "{ lambda ; a:f32[7,8] b:f32[7,8]. let c:f32[7,8] = add a b in (c,) }",
    "stablehlo": "module @jit__lambda attributes {mhlo.num_partitions = 1 : i32, mhlo.num_replicas = 1 : i32} {\n  func.func public @main(%arg0: tensor<7x8xf32>, %arg1: tensor<7x8xf32>) -> (tensor<7x8xf32> {jax.result_info = \"result\"}) {\n    %0 = stablehlo.add %arg0, %arg1 : tensor<7x8xf32>\n    return %0 : tensor<7x8xf32>\n  }\n}\n",
    "metadata": {
      "category": "arithmetic",
      "operation": "add",
      "description": "Arithmetic: x + y"
    }
  },
  {
    "python_code": "lambda x: x + 1.0",
    "input_info": [
      {
        "shape": [
          9
        ],
        "dtype": "float32"
      }
    ],
    "jaxpr": "{ lambda ; a:f32[9]. let b:f32[9] = add a 1.0:f32[] in (b,) }",
    "stablehlo": "module @jit__lambda attributes {mhlo.num_partitions = 1 : i32, mhlo.num_replicas = 1 : i32} {\n  func.func public @main(%arg0: tensor<9xf32>) -> (tensor<9xf32> {jax.result_info = \"result\"}) {\n    %cst = stablehlo.constant dense<1.000000e+00> : tensor<f32>\n    %0 = stablehlo.broadcast_in_dim %cst, dims = [] : (tensor<f32>) -> tensor<9xf32>\n    %1 = stablehlo.add %arg0, %0 : tensor<9xf32>\n    return %1 : tensor<9xf32>\n  }\n}\n",
    "metadata": {
      "category": "arithmetic",
      "operation": "add_scalar",
      "description": "Arithmetic: x + 1.0"
    }
  },
  {
    "python_code": "lambda x, y: x - y",
    "input_info": [
      {
        "shape": [
          10,
          2,
          8
        ],
        "dtype": "float32"
      },
      {
        "shape": [
          10,
          2,
          8
        ],
        "dtype": "float32"
      }
    ],
    "jaxpr": "{ lambda ; a:f32[10,2,8] b:f32[10,2,8]. let c:f32[10,2,8] = sub a b in (c,) }",
    "stablehlo": "module @jit__lambda attributes {mhlo.num_partitions = 1 : i32, mhlo.num_replicas = 1 : i32} {\n  func.func public @main(%arg0: tensor<10x2x8xf32>, %arg1: tensor<10x2x8xf32>) -> (tensor<10x2x8xf32> {jax.result_info = \"result\"}) {\n    %0 = stablehlo.subtract %arg0, %arg1 : tensor<10x2x8xf32>\n    return %0 : tensor<10x2x8xf32>\n  }\n}\n",
    "metadata": {
      "category": "arithmetic",
      "operation": "subtract",
      "description": "Arithmetic: x - y"
    }
  },
  {
    "python_code": "lambda x: x ** 2",
    "input_info": [
      {
        "shape": [
          2,
          3,
          8
        ],
        "dtype": "float32"
      }
    ],
    "jaxpr": "{ lambda ; a:f32[2,3,8]. let b:f32[2,3,8] = integer_pow[y=2] a in (b,) }",
    "stablehlo": "module @jit__lambda attributes {mhlo.num_partitions = 1 : i32, mhlo.num_replicas = 1 : i32} {\n  func.func public @main(%arg0: tensor<2x3x8xf32>) -> (tensor<2x3x8xf32> {jax.result_info = \"result\"}) {\n    %0 = stablehlo.multiply %arg0, %arg0 : tensor<2x3x8xf32>\n    return %0 : tensor<2x3x8xf32>\n  }\n}\n",
    "metadata": {
      "category": "arithmetic",
      "operation": "power",
      "description": "Arithmetic: x ** 2"
    }
  },
  {
    "python_code": "lambda x, y: x - y",
    "input_info": [
      {
        "shape": [
          4,
          2
        ],
        "dtype": "float32"
      },
      {
        "shape": [
          4,
          2
        ],
        "dtype": "float32"
      }
    ],
    "jaxpr": "{ lambda ; a:f32[4,2] b:f32[4,2]. let c:f32[4,2] = sub a b in (c,) }",
    "stablehlo": "module @jit__lambda attributes {mhlo.num_partitions = 1 : i32, mhlo.num_replicas = 1 : i32} {\n  func.func public @main(%arg0: tensor<4x2xf32>, %arg1: tensor<4x2xf32>) -> (tensor<4x2xf32> {jax.result_info = \"result\"}) {\n    %0 = stablehlo.subtract %arg0, %arg1 : tensor<4x2xf32>\n    return %0 : tensor<4x2xf32>\n  }\n}\n",
    "metadata": {
      "category": "arithmetic",
      "operation": "subtract",
      "description": "Arithmetic: x - y"
    }
  },
  {
    "python_code": "lambda x, y: x * y",
    "input_info": [
      {
        "shape": [
          7,
          5
        ],
        "dtype": "float32"
      },
      {
        "shape": [
          7,
          5
        ],
        "dtype": "float32"
      }
    ],
    "jaxpr": "{ lambda ; a:f32[7,5] b:f32[7,5]. let c:f32[7,5] = mul a b in (c,) }",
    "stablehlo": "module @jit__lambda attributes {mhlo.num_partitions = 1 : i32, mhlo.num_replicas = 1 : i32} {\n  func.func public @main(%arg0: tensor<7x5xf32>, %arg1: tensor<7x5xf32>) -> (tensor<7x5xf32> {jax.result_info = \"result\"}) {\n    %0 = stablehlo.multiply %arg0, %arg1 : tensor<7x5xf32>\n    return %0 : tensor<7x5xf32>\n  }\n}\n",
    "metadata": {
      "category": "arithmetic",
      "operation": "multiply",
      "description": "Arithmetic: x * y"
    }
  },
  {
    "python_code": "lambda x, y: x / y",
    "input_info": [
      {
        "shape": [
          7,
          8
        ],
        "dtype": "float32"
      },
      {
        "shape": [
          7,
          8
        ],
        "dtype": "float32"
      }
    ],
    "jaxpr": "{ lambda ; a:f32[7,8] b:f32[7,8]. let c:f32[7,8] = div a b in (c,) }",
    "stablehlo": "module @jit__lambda attributes {mhlo.num_partitions = 1 : i32, mhlo.num_replicas = 1 : i32} {\n  func.func public @main(%arg0: tensor<7x8xf32>, %arg1: tensor<7x8xf32>) -> (tensor<7x8xf32> {jax.result_info = \"result\"}) {\n    %0 = stablehlo.divide %arg0, %arg1 : tensor<7x8xf32>\n    return %0 : tensor<7x8xf32>\n  }\n}\n",
    "metadata": {
      "category": "arithmetic",
      "operation": "divide",
      "description": "Arithmetic: x / y"
    }
  },
  {
    "python_code": "lambda x, y: x * y",
    "input_info": [
      {
        "shape": [
          6,
          3
        ],
        "dtype": "float32"
      },
      {
        "shape": [
          6,
          3
        ],
        "dtype": "float32"
      }
    ],
    "jaxpr": "{ lambda ; a:f32[6,3] b:f32[6,3]. let c:f32[6,3] = mul a b in (c,) }",
    "stablehlo": "module @jit__lambda attributes {mhlo.num_partitions = 1 : i32, mhlo.num_replicas = 1 : i32} {\n  func.func public @main(%arg0: tensor<6x3xf32>, %arg1: tensor<6x3xf32>) -> (tensor<6x3xf32> {jax.result_info = \"result\"}) {\n    %0 = stablehlo.multiply %arg0, %arg1 : tensor<6x3xf32>\n    return %0 : tensor<6x3xf32>\n  }\n}\n",
    "metadata": {
      "category": "arithmetic",
      "operation": "multiply",
      "description": "Arithmetic: x * y"
    }
  },
  {
    "python_code": "lambda x, y: x / y",
    "input_info": [
      {
        "shape": [
          10
        ],
        "dtype": "float32"
      },
      {
        "shape": [
          10
        ],
        "dtype": "float32"
      }
    ],
    "jaxpr": "{ lambda ; a:f32[10] b:f32[10]. let c:f32[10] = div a b in (c,) }",
    "stablehlo": "module @jit__lambda attributes {mhlo.num_partitions = 1 : i32, mhlo.num_replicas = 1 : i32} {\n  func.func public @main(%arg0: tensor<10xf32>, %arg1: tensor<10xf32>) -> (tensor<10xf32> {jax.result_info = \"result\"}) {\n    %0 = stablehlo.divide %arg0, %arg1 : tensor<10xf32>\n    return %0 : tensor<10xf32>\n  }\n}\n",
    "metadata": {
      "category": "arithmetic",
      "operation": "divide",
      "description": "Arithmetic: x / y"
    }
  },
  {
    "python_code": "lambda x, y: x + y",
    "input_info": [
      {
        "shape": [
          5,
          3
        ],
        "dtype": "float32"
      },
      {
        "shape": [
          5,
          3
        ],
        "dtype": "float32"
      }
    ],
    "jaxpr": "{ lambda ; a:f32[5,3] b:f32[5,3]. let c:f32[5,3] = add a b in (c,) }",
    "stablehlo": "module @jit__lambda attributes {mhlo.num_partitions = 1 : i32, mhlo.num_replicas = 1 : i32} {\n  func.func public @main(%arg0: tensor<5x3xf32>, %arg1: tensor<5x3xf32>) -> (tensor<5x3xf32> {jax.result_info = \"result\"}) {\n    %0 = stablehlo.add %arg0, %arg1 : tensor<5x3xf32>\n    return %0 : tensor<5x3xf32>\n  }\n}\n",
    "metadata": {
      "category": "arithmetic",
      "operation": "add",
      "description": "Arithmetic: x + y"
    }
  },
  {
    "python_code": "lambda x: x * 2.0",
    "input_info": [
      {
        "shape": [
          2,
          2,
          5
        ],
        "dtype": "float32"
      }
    ],
    "jaxpr": "{ lambda ; a:f32[2,2,5]. let b:f32[2,2,5] = mul a 2.0:f32[] in (b,) }",
    "stablehlo": "module @jit__lambda attributes {mhlo.num_partitions = 1 : i32, mhlo.num_replicas = 1 : i32} {\n  func.func public @main(%arg0: tensor<2x2x5xf32>) -> (tensor<2x2x5xf32> {jax.result_info = \"result\"}) {\n    %cst = stablehlo.constant dense<2.000000e+00> : tensor<f32>\n    %0 = stablehlo.broadcast_in_dim %cst, dims = [] : (tensor<f32>) -> tensor<2x2x5xf32>\n    %1 = stablehlo.multiply %arg0, %0 : tensor<2x2x5xf32>\n    return %1 : tensor<2x2x5xf32>\n  }\n}\n",
    "metadata": {
      "category": "arithmetic",
      "operation": "mul_scalar",
      "description": "Arithmetic: x * 2.0"
    }
  },
  {
    "python_code": "lambda x, y: x - y",
    "input_info": [
      {
        "shape": [
          4
        ],
        "dtype": "float32"
      },
      {
        "shape": [
          4
        ],
        "dtype": "float32"
      }
    ],
    "jaxpr": "{ lambda ; a:f32[4] b:f32[4]. let c:f32[4] = sub a b in (c,) }",
    "stablehlo": "module @jit__lambda attributes {mhlo.num_partitions = 1 : i32, mhlo.num_replicas = 1 : i32} {\n  func.func public @main(%arg0: tensor<4xf32>, %arg1: tensor<4xf32>) -> (tensor<4xf32> {jax.result_info = \"result\"}) {\n    %0 = stablehlo.subtract %arg0, %arg1 : tensor<4xf32>\n    return %0 : tensor<4xf32>\n  }\n}\n",
    "metadata": {
      "category": "arithmetic",
      "operation": "subtract",
      "description": "Arithmetic: x - y"
    }
  },
  {
    "python_code": "lambda x, y: x - y",
    "input_info": [
      {
        "shape": [
          9
        ],
        "dtype": "float32"
      },
      {
        "shape": [
          9
        ],
        "dtype": "float32"
      }
    ],
    "jaxpr": "{ lambda ; a:f32[9] b:f32[9]. let c:f32[9] = sub a b in (c,) }",
    "stablehlo": "module @jit__lambda attributes {mhlo.num_partitions = 1 : i32, mhlo.num_replicas = 1 : i32} {\n  func.func public @main(%arg0: tensor<9xf32>, %arg1: tensor<9xf32>) -> (tensor<9xf32> {jax.result_info = \"result\"}) {\n    %0 = stablehlo.subtract %arg0, %arg1 : tensor<9xf32>\n    return %0 : tensor<9xf32>\n  }\n}\n",
    "metadata": {
      "category": "arithmetic",
      "operation": "subtract",
      "description": "Arithmetic: x - y"
    }
  },
  {
    "python_code": "lambda x: x + 1.0",
    "input_info": [
      {
        "shape": [
          5
        ],
        "dtype": "float32"
      }
    ],
    "jaxpr": "{ lambda ; a:f32[5]. let b:f32[5] = add a 1.0:f32[] in (b,) }",
    "stablehlo": "module @jit__lambda attributes {mhlo.num_partitions = 1 : i32, mhlo.num_replicas = 1 : i32} {\n  func.func public @main(%arg0: tensor<5xf32>) -> (tensor<5xf32> {jax.result_info = \"result\"}) {\n    %cst = stablehlo.constant dense<1.000000e+00> : tensor<f32>\n    %0 = stablehlo.broadcast_in_dim %cst, dims = [] : (tensor<f32>) -> tensor<5xf32>\n    %1 = stablehlo.add %arg0, %0 : tensor<5xf32>\n    return %1 : tensor<5xf32>\n  }\n}\n",
    "metadata": {
      "category": "arithmetic",
      "operation": "add_scalar",
      "description": "Arithmetic: x + 1.0"
    }
  },
  {
    "python_code": "lambda x, y: x / y",
    "input_info": [
      {
        "shape": [
          6,
          7,
          4
        ],
        "dtype": "float32"
      },
      {
        "shape": [
          6,
          7,
          4
        ],
        "dtype": "float32"
      }
    ],
    "jaxpr": "{ lambda ; a:f32[6,7,4] b:f32[6,7,4]. let c:f32[6,7,4] = div a b in (c,) }",
    "stablehlo": "module @jit__lambda attributes {mhlo.num_partitions = 1 : i32, mhlo.num_replicas = 1 : i32} {\n  func.func public @main(%arg0: tensor<6x7x4xf32>, %arg1: tensor<6x7x4xf32>) -> (tensor<6x7x4xf32> {jax.result_info = \"result\"}) {\n    %0 = stablehlo.divide %arg0, %arg1 : tensor<6x7x4xf32>\n    return %0 : tensor<6x7x4xf32>\n  }\n}\n",
    "metadata": {
      "category": "arithmetic",
      "operation": "divide",
      "description": "Arithmetic: x / y"
    }
  },
  {
    "python_code": "lambda x: x ** 2",
    "input_info": [
      {
        "shape": [
          3,
          4,
          6
        ],
        "dtype": "float32"
      }
    ],
    "jaxpr": "{ lambda ; a:f32[3,4,6]. let b:f32[3,4,6] = integer_pow[y=2] a in (b,) }",
    "stablehlo": "module @jit__lambda attributes {mhlo.num_partitions = 1 : i32, mhlo.num_replicas = 1 : i32} {\n  func.func public @main(%arg0: tensor<3x4x6xf32>) -> (tensor<3x4x6xf32> {jax.result_info = \"result\"}) {\n    %0 = stablehlo.multiply %arg0, %arg0 : tensor<3x4x6xf32>\n    return %0 : tensor<3x4x6xf32>\n  }\n}\n",
    "metadata": {
      "category": "arithmetic",
      "operation": "power",
      "description": "Arithmetic: x ** 2"
    }
  },
  {
    "python_code": "lambda x, y: x + y",
    "input_info": [
      {
        "shape": [
          2,
          6,
          8
        ],
        "dtype": "float32"
      },
      {
        "shape": [
          2,
          6,
          8
        ],
        "dtype": "float32"
      }
    ],
    "jaxpr": "{ lambda ; a:f32[2,6,8] b:f32[2,6,8]. let c:f32[2,6,8] = add a b in (c,) }",
    "stablehlo": "module @jit__lambda attributes {mhlo.num_partitions = 1 : i32, mhlo.num_replicas = 1 : i32} {\n  func.func public @main(%arg0: tensor<2x6x8xf32>, %arg1: tensor<2x6x8xf32>) -> (tensor<2x6x8xf32> {jax.result_info = \"result\"}) {\n    %0 = stablehlo.add %arg0, %arg1 : tensor<2x6x8xf32>\n    return %0 : tensor<2x6x8xf32>\n  }\n}\n",
    "metadata": {
      "category": "arithmetic",
      "operation": "add",
      "description": "Arithmetic: x + y"
    }
  },
  {
    "python_code": "lambda x, y: x / y",
    "input_info": [
      {
        "shape": [
…
        "dtype": "float32"
      },
      {
        "shape": [
          5,
          9
        ],
        "dtype": "float32"
      }
    ],
    "jaxpr": "{ lambda ; a:f32[5,9] b:f32[5,9]. let c:f32[5,9] = add a b in (c,) }",
    "stablehlo": "module @jit__lambda attributes {mhlo.num_partitions = 1 : i32, mhlo.num_replicas = 1 : i32} {\n  func.func public @main(%arg0: tensor<5x9xf32>, %arg1: tensor<5x9xf32>) -> (tensor<5x9xf32> {jax.result_info = \"result\"}) {\n    %0 = stablehlo.add %arg0, %arg1 : tensor<5x9xf32>\n    return %0 : tensor<5x9xf32>\n  }\n}\n",
    "metadata": {
      "category": "arithmetic",
      "operation": "add",
      "description": "Arithmetic: x + y"
    }
  },
  {
    "python_code": "lambda x, y: x * y",
    "input_info": [
      {
        "shape": [
          7
        ],
        "dtype": "float32"
      },
      {
        "shape": [
          7
        ],
        "dtype": "float32"
      }
    ],
    "jaxpr": "{ lambda ; a:f32[7] b:f32[7]. let c:f32[7] = mul a b in (c,) }",
    "stablehlo": "module @jit__lambda attributes {mhlo.num_partitions = 1 : i32, mhlo.num_replicas = 1 : i32} {\n  func.func public @main(%arg0: tensor<7xf32>, %arg1: tensor<7xf32>) -> (tensor<7xf32> {jax.result_info = \"result\"}) {\n    %0 = stablehlo.multiply %arg0, %arg1 : tensor<7xf32>\n    return %0 : tensor<7xf32>\n  }\n}\n",
    "metadata": {
      "category": "arithmetic",
      "operation": "multiply",
      "description": "Arithmetic: x * y"
    }
  },
  {
    "python_code": "lambda x, y: x + y",
    "input_info": [
      {
        "shape": [
          5,
          10,
          5
        ],
        "dtype": "float32"
      },
      {
        "shape": [
          5,
          10,
          5
        ],
        "dtype": "float32"
      }
    ],
    "jaxpr": "{ lambda ; a:f32[5,10,5] b:f32[5,10,5]. let c:f32[5,10,5] = add a b in (c,) }",
    "stablehlo": "module @jit__lambda attributes {mhlo.num_partitions = 1 : i32, mhlo.num_replicas = 1 : i32} {\n  func.func public @main(%arg0: tensor<5x10x5xf32>, %arg1: tensor<5x10x5xf32>) -> (tensor<5x10x5xf32> {jax.result_info = \"result\"}) {\n    %0 = stablehlo.add %arg0, %arg1 : tensor<5x10x5xf32>\n    return %0 : tensor<5x10x5xf32>\n  }\n}\n",
    "metadata": {
      "category": "arithmetic",
      "operation": "add",
      "description": "Arithmetic: x + y"
    }
  },
  {
    "python_code": "lambda x: x * 2.0",
    "input_info": [
      {
        "shape": [
          5,
          2
        ],
        "dtype": "float32"
      }
    ],
    "jaxpr": "{ lambda ; a:f32[5,2]. let b:f32[5,2] = mul a 2.0:f32[] in (b,) }",
    "stablehlo": "module @jit__lambda attributes {mhlo.num_partitions = 1 : i32, mhlo.num_replicas = 1 : i32} {\n  func.func public @main(%arg0: tensor<5x2xf32>) -> (tensor<5x2xf32> {jax.result_info = \"result\"}) {\n    %cst = stablehlo.constant dense<2.000000e+00> : tensor<f32>\n    %0 = stablehlo.broadcast_in_dim %cst, dims = [] : (tensor<f32>) -> tensor<5x2xf32>\n    %1 = stablehlo.multiply %arg0, %0 : tensor<5x2xf32>\n    return %1 : tensor<5x2xf32>\n  }\n}\n",
    "metadata": {
      "category": "arithmetic",
      "operation": "mul_scalar",
      "description": "Arithmetic: x * 2.0"
    }
  },
  {
    "python_code": "lambda x, y: x + y",
    "input_info": [
      {
        "shape": [
          9,
          3,
          10
        ],
        "dtype": "float32"
      },
      {
        "shape": [
          9,
          3,
          10
        ],
        "dtype": "float32"
      }
    ],
    "jaxpr": "{ lambda ; a:f32[9,3,10] b:f32[9,3,10]. let c:f32[9,3,10] = add a b in (c,) }",
    "stablehlo": "module @jit__lambda attributes {mhlo.num_partitions = 1 : i32, mhlo.num_replicas = 1 : i32} {\n  func.func public @main(%arg0: tensor<9x3x10xf32>, %arg1: tensor<9x3x10xf32>) -> (tensor<9x3x10xf32> {jax.result_info = \"result\"}) {\n    %0 = stablehlo.add %arg0, %arg1 : tensor<9x3x10xf32>\n    return %0 : tensor<9x3x10xf32>\n  }\n}\n",
    "metadata": {
      "category": "arithmetic",
      "operation": "add",
      "description": "Arithmetic: x + y"
    }
  },
  {
    "python_code": "lambda x, y: x / y",
    "input_info": [
      {
        "shape": [
          9
        ],
        "dtype": "float32"
      },
      {
        "shape": [
          9
        ],
        "dtype": "float32"
      }
    ],
    "jaxpr": "{ lambda ; a:f32[9] b:f32[9]. let c:f32[9] = div a b in (c,) }",
    "stablehlo": "module @jit__lambda attributes {mhlo.num_partitions = 1 : i32, mhlo.num_replicas = 1 : i32} {\n  func.func public @main(%arg0: tensor<9xf32>, %arg1: tensor<9xf32>) -> (tensor<9xf32> {jax.result_info = \"result\"}) {\n    %0 = stablehlo.divide %arg0, %arg1 : tensor<9xf32>\n    return %0 : tensor<9xf32>\n  }\n}\n",
    "metadata": {
      "category": "arithmetic",
      "operation": "divide",
      "description": "Arithmetic: x / y"
    }
  },
  {
    "python_code": "lambda x, y: x * y",
    "input_info": [
      {
        "shape": [
          10,
          2,
          7
        ],
        "dtype": "float32"
      },
      {
        "shape": [
          10,
          2,
          7
        ],
        "dtype": "float32"
      }
    ],
    "jaxpr": "{ lambda ; a:f32[10,2,7] b:f32[10,2,7]. let c:f32[10,2,7] = mul a b in (c,) }",
    "stablehlo": "module @jit__lambda attributes {mhlo.num_partitions = 1 : i32, mhlo.num_replicas = 1 : i32} {\n  func.func public @main(%arg0: tensor<10x2x7xf32>, %arg1: tensor<10x2x7xf32>) -> (tensor<10x2x7xf32> {jax.result_info = \"result\"}) {\n    %0 = stablehlo.multiply %arg0, %arg1 : tensor<10x2x7xf32>\n    return %0 : tensor<10x2x7xf32>\n  }\n}\n",
    "metadata": {
      "category": "arithmetic",
      "operation": "multiply",
      "description": "Arithmetic: x * y"
    }
  },
  {
    "python_code": "lambda x, y: x / y",
    "input_info": [
      {
        "shape": [
          8
        ],
        "dtype": "float32"
      },
      {
        "shape": [
          8
        ],
        "dtype": "float32"
      }
    ],
    "jaxpr": "{ lambda ; a:f32[8] b:f32[8]. let c:f32[8] = div a b in (c,) }",
    "stablehlo": "module @jit__lambda attributes {mhlo.num_partitions = 1 : i32, mhlo.num_replicas = 1 : i32} {\n  func.func public @main(%arg0: tensor<8xf32>, %arg1: tensor<8xf32>) -> (tensor<8xf32> {jax.result_info = \"result\"}) {\n    %0 = stablehlo.divide %arg0, %arg1 : tensor<8xf32>\n    return %0 : tensor<8xf32>\n  }\n}\n",
    "metadata": {
      "category": "arithmetic",
      "operation": "divide",
      "description": "Arithmetic: x / y"
    }
  },
  {
    "python_code": "lambda x, y: x * y",
    "input_info": [
      {
        "shape": [
          7,
          2
        ],
        "dtype": "float32"
      },
      {
        "shape": [
          7,
          2
        ],
        "dtype": "float32"
      }
    ],
    "jaxpr": "{ lambda ; a:f32[7,2] b:f32[7,2]. let c:f32[7,2] = mul a b in (c,) }",
    "stablehlo": "module @jit__lambda attributes {mhlo.num_partitions = 1 : i32, mhlo.num_replicas = 1 : i32} {\n  func.func public @main(%arg0: tensor<7x2xf32>, %arg1: tensor<7x2xf32>) -> (tensor<7x2xf32> {jax.result_info = \"result\"}) {\n    %0 = stablehlo.multiply %arg0, %arg1 : tensor<7x2xf32>\n    return %0 : tensor<7x2xf32>\n  }\n}\n",
    "metadata": {
      "category": "arithmetic",
      "operation": "multiply",
      "description": "Arithmetic: x * y"
    }
  },
  {
    "python_code": "lambda x, y: x * y",
    "input_info": [
      {
        "shape": [
          7,
          6
        ],
        "dtype": "float32"
      },
      {
        "shape": [
          7,
          6
        ],
        "dtype": "float32"
      }
    ],
    "jaxpr": "{ lambda ; a:f32[7,6] b:f32[7,6]. let c:f32[7,6] = mul a b in (c,) }",
    "stablehlo": "module @jit__lambda attributes {mhlo.num_partitions = 1 : i32, mhlo.num_replicas = 1 : i32} {\n  func.func public @main(%arg0: tensor<7x6xf32>, %arg1: tensor<7x6xf32>) -> (tensor<7x6xf32> {jax.result_info = \"result\"}) {\n    %0 = stablehlo.multiply %arg0, %arg1 : tensor<7x6xf32>\n    return %0 : tensor<7x6xf32>\n  }\n}\n",
    "metadata": {
      "category": "arithmetic",
      "operation": "multiply",
      "description": "Arithmetic: x * y"
    }
  },
  {
    "python_code": "lambda x, y: x / y",
    "input_info": [
      {
        "shape": [
          3,
          5,
          9
        ],
        "dtype": "float32"
      },
      {
        "shape": [
          3,
          5,
          9
        ],
        "dtype": "float32"
      }
    ],
    "jaxpr": "{ lambda ; a:f32[3,5,9] b:f32[3,5,9]. let c:f32[3,5,9] = div a b in (c,) }",
    "stablehlo": "module @jit__lambda attributes {mhlo.num_partitions = 1 : i32, mhlo.num_replicas = 1 : i32} {\n  func.func public @main(%arg0: tensor<3x5x9xf32>, %arg1: tensor<3x5x9xf32>) -> (tensor<3x5x9xf32> {jax.result_info = \"result\"}) {\n    %0 = stablehlo.divide %arg0, %arg1 : tensor<3x5x9xf32>\n    return %0 : tensor<3x5x9xf32>\n  }\n}\n",
    "metadata": {
      "category": "arithmetic",
      "operation": "divide",
      "description": "Arithmetic: x / y"
    }
  },
  {
    "python_code": "lambda x: x + 1.0",
    "input_info": [
      {
        "shape": [
          9,
          6
        ],
        "dtype": "float32"
      }
    ],
    "jaxpr": "{ lambda ; a:f32[9,6]. let b:f32[9,6] = add a 1.0:f32[] in (b,) }",
    "stablehlo": "module @jit__lambda attributes {mhlo.num_partitions = 1 : i32, mhlo.num_replicas = 1 : i32} {\n  func.func public @main(%arg0: tensor<9x6xf32>) -> (tensor<9x6xf32> {jax.result_info = \"result\"}) {\n    %cst = stablehlo.constant dense<1.000000e+00> : tensor<f32>\n    %0 = stablehlo.broadcast_in_dim %cst, dims = [] : (tensor<f32>) -> tensor<9x6xf32>\n    %1 = stablehlo.add %arg0, %0 : tensor<9x6xf32>\n    return %1 : tensor<9x6xf32>\n  }\n}\n",
    "metadata": {
      "category": "arithmetic",
      "operation": "add_scalar",
      "description": "Arithmetic: x + 1.0"
    }
  },
  {
    "python_code": "lambda x, y: x - y",
    "input_info": [
      {
        "shape": [
          8,
          8,
          4
        ],
        "dtype": "float32"
      },
      {
        "shape": [
          8,
          8,
          4
        ],
        "dtype": "float32"
      }
    ],
    "jaxpr": "{ lambda ; a:f32[8,8,4] b:f32[8,8,4]. let c:f32[8,8,4] = sub a b in (c,) }",
    "stablehlo": "module @jit__lambda attributes {mhlo.num_partitions = 1 : i32, mhlo.num_replicas = 1 : i32} {\n  func.func public @main(%arg0: tensor<8x8x4xf32>, %arg1: tensor<8x8x4xf32>) -> (tensor<8x8x4xf32> {jax.result_info = \"result\"}) {\n    %0 = stablehlo.subtract %arg0, %arg1 : tensor<8x8x4xf32>\n    return %0 : tensor<8x8x4xf32>\n  }\n}\n",
    "metadata": {
      "category": "arithmetic",
      "operation": "subtract",
      "description": "Arithmetic: x - y"
    }
  },
  {
    "python_code": "lambda x: x * 2.0",
    "input_info": [
      {
        "shape": [
          3,
          4,
          5
        ],
        "dtype": "float32"
      }
    ],
    "jaxpr": "{ lambda ; a:f32[3,4,5]. let b:f32[3,4,5] = mul a 2.0:f32[] in (b,) }",
    "stablehlo": "module @jit__lambda attributes {mhlo.num_partitions = 1 : i32, mhlo.num_replicas = 1 : i32} {\n  func.func public @main(%arg0: tensor<3x4x5xf32>) -> (tensor<3x4x5xf32> {jax.result_info = \"result\"}) {\n    %cst = stablehlo.constant dense<2.000000e+00> : tensor<f32>\n    %0 = stablehlo.broadcast_in_dim %cst, dims = [] : (tensor<f32>) -> tensor<3x4x5xf32>\n    %1 = stablehlo.multiply %arg0, %0 : tensor<3x4x5xf32>\n    return %1 : tensor<3x4x5xf32>\n  }\n}\n",
    "metadata": {
      "category": "arithmetic",
      "operation": "mul_scalar",
      "description": "Arithmetic: x * 2.0"
    }
  },
  {
    "python_code": "lambda x, y: x * y",
    "input_info": [
      {
        "shape": [
          10,
          7
        ],
        "dtype": "float32"
      },
      {
        "shape": [
          10,
          7
        ],
        "dtype": "float32"
      }
    ],
    "jaxpr": "{ lambda ; a:f32[10,7] b:f32[10,7]. let c:f32[10,7] = mul a b in (c,) }",
    "stablehlo": "module @jit__lambda attributes {mhlo.num_partitions = 1 : i32, mhlo.num_replicas = 1 : i32} {\n  func.func public @main(%arg0: tensor<10x7xf32>, %arg1: tensor<10x7xf32>) -> (tensor<10x7xf32> {jax.result_info = \"result\"}) {\n    %0 = stablehlo.multiply %arg0, %arg1 : tensor<10x7xf32>\n    return %0 : tensor<10x7xf32>\n  }\n}\n",
    "metadata": {
      "category": "arithmetic",
      "operation": "multiply",
      "description": "Arithmetic: x * y"
    }
  },
  {
    "python_code": "lambda x, y: x + y",
    "input_info": [
      {
        "shape": [
          8,
          3,
          2
        ],
        "dtype": "float32"
      },
      {
        "shape": [
          8,
          3,
          2
        ],
        "dtype": "float32"
      }
    ],
    "jaxpr": "{ lambda ; a:f32[8,3,2] b:f32[8,3,2]. let c:f32[8,3,2] = add a b in (c,) }",
    "stablehlo": "module @jit__lambda attributes {mhlo.num_partitions = 1 : i32, mhlo.num_replicas = 1 : i32} {\n  func.func public @main(%arg0: tensor<8x3x2xf32>, %arg1: tensor<8x3x2xf32>) -> (tensor<8x3x2xf32> {jax.result_info = \"result\"}) {\n    %0 = stablehlo.add %arg0, %arg1 : tensor<8x3x2xf32>\n    return %0 : tensor<8x3x2xf32>\n  }\n}\n",
    "metadata": {
      "category": "arithmetic",
      "operation": "add",
      "description": "Arithmetic: x + y"
    }
  },
  {
    "python_code": "lambda x, y: x / y",
    "input_info": [
      {
        "shape": [
          6,
          8,
          4
        ],
        "dtype": "float32"
      },
      {
        "shape": [
          6,
          8,
          4
        ],
        "dtype": "float32"
      }
    ],
    "jaxpr": "{ lambda ; a:f32[6,8,4] b:f32[6,8,4]. let c:f32[6,8,4] = div a b in (c,) }",
    "stablehlo": "module @jit__lambda attributes {mhlo.num_partitions = 1 : i32, mhlo.num_replicas = 1 : i32} {\n  func.func public @main(%arg0: tensor<6x8x4xf32>, %arg1: tensor<6x8x4xf32>) -> (tensor<6x8x4xf32> {jax.result_info = \"result\"}) {\n    %0 = stablehlo.divide %arg0, %arg1 : tensor<6x8x4xf32>\n    return %0 : tensor<6x8x4xf32>\n  }\n}\n",
    "metadata": {
      "category": "arithmetic",
      "operation": "divide",
      "description": "Arithmetic: x / y"
    }
  },
  {
    "python_code": "lambda x: x ** 2",
    "input_info": [
      {
        "shape": [
          4,
          5
        ],
        "dtype": "float32"
      }
    ],
    "jaxpr": "{ lambda ; a:f32[4,5]. let b:f32[4,5] = integer_pow[y=2] a in (b,) }",
    "stablehlo": "module @jit__lambda attributes {mhlo.num_partitions = 1 : i32, mhlo.num_replicas = 1 : i32} {\n  func.func public @main(%arg0: tensor<4x5xf32>) -> (tensor<4x5xf32> {jax.result_info = \"result\"}) {\n    %0 = stablehlo.multiply %arg0, %arg0 : tensor<4x5xf32>\n    return %0 : tensor<4x5xf32>\n  }\n}\n",
    "metadata": {
      "category": "arithmetic",
      "operation": "power",
      "description": "Arithmetic: x ** 2"
    }
  },
  {
    "python_code": "lambda x, y: x - y",
    "input_info": [
      {
        "shape": [
          6,
          10
        ],
        "dtype": "float32"
      },
      {
        "shape": [
          6,
          10
        ],
        "dtype": "float32"
      }
    ],
    "jaxpr": "{ lambda ; a:f32[6,10] b:f32[6,10]. let c:f32[6,10] = sub a b in (c,) }",
    "stablehlo": "module @jit__lambda attributes {mhlo.num_partitions = 1 : i32, mhlo.num_replicas = 1 : i32} {\n  func.func public @main(%arg0: tensor<6x10xf32>, %arg1: tensor<6x10xf32>) -> (tensor<6x10xf32> {jax.result_info = \"result\"}) {\n    %0 = stablehlo.subtract %arg0, %arg1 : tensor<6x10xf32>\n    return %0 : tensor<6x10xf32>\n  }\n}\n",
    "metadata": {
      "category": "arithmetic",
      "operation": "subtract",
      "description": "Arithmetic: x - y"
    }
  },
  {
    "python_code": "lambda x, y: x / y",
    "input_info": [
      {
        "shape": [
          6
        ],
        "dtype": "float32"
      },
      {
        "shape": [
          6
        ],
        "dtype": "float32"
      }
    ],
    "jaxpr": "{ lambda ; a:f32[6] b:f32[6]. let c:f32[6] = div a b in (c,) }",
    "stablehlo": "module @jit__lambda attributes {mhlo.num_partitions = 1 : i32, mhlo.num_replicas = 1 : i32} {\n  func.func public @main(%arg0: tensor<6xf32>, %arg1: tensor<6xf32>) -> (tensor<6xf32> {jax.result_info = \"result\"}) {\n    %0 = stablehlo.divide %arg0, %arg1 : tensor<6xf32>\n    return %0 : tensor<6xf32>\n  }\n}\n",
    "metadata": {
      "category": "arithmetic",
      "operation": "divide",
      "description": "Arithmetic: x / y"
    }
  },
  {
    "python_code": "lambda x: x * 2.0",
    "input_info": [
      {
        "shape": [
          6,
          9,
          10
        ],
        "dtype": "float32"
      }
    ],
    "jaxpr": "{ lambda ; a:f32[6,9,10]. let b:f32[6,9,10] = mul a 2.0:f32[] in (b,) }",
    "stablehlo": "module @jit__lambda attributes {mhlo.num_partitions = 1 : i32, mhlo.num_replicas = 1 : i32} {\n  func.func public @main(%arg0: tensor<6x9x10xf32>) -> (tensor<6x9x10xf32> {jax.result_info = \"result\"}) {\n    %cst = stablehlo.constant dense<2.000000e+00> : tensor<f32>\n    %0 = stablehlo.broadcast_in_dim %cst, dims = [] : (tensor<f32>) -> tensor<6x9x10xf32>\n    %1 = stablehlo.multiply %arg0, %0 : tensor<6x9x10xf32>\n    return %1 : tensor<6x9x10xf32>\n  }\n}\n",
    "metadata": {
      "category": "arithmetic",
      "operation": "mul_scalar",
      "description": "Arithmetic: x * 2.0"
    }
  },
  {
    "python_code": "lambda x: x + 1.0",
    "input_info": [
      {
        "shape": [
          5,
          2
        ],
        "dtype": "float32"
      }
    ],
    "jaxpr": "{ lambda ; a:f32[5,2]. let b:f32[5,2] = add a 1.0:f32[] in (b,) }",
    "stablehlo": "module @jit__lambda attributes {mhlo.num_partitions = 1 : i32, mhlo.num_replicas = 1 : i32} {\n  func.func public @main(%arg0: tensor<5x2xf32>) -> (tensor<5x2xf32> {jax.result_info = \"result\"}) {\n    %cst = stablehlo.constant dense<1.000000e+00> : tensor<f32>\n    %0 = stablehlo.broadcast_in_dim %cst, dims = [] : (tensor<f32>) -> tensor<5x2xf32>\n    %1 = stablehlo.add %arg0, %0 : tensor<5x2xf32>\n    return %1 : tensor<5x2xf32>\n  }\n}\n",
    "metadata": {
      "category": "arithmetic",
      "operation": "add_scalar",
      "description": "Arithmetic: x + 1.0"
    }
  },
  {
    "python_code": "lambda x: x * 2.0",
    "input_info": [
      {
        "shape": [
          4
        ],
        "dtype": "float32"
      }
    ],
    "jaxpr": "{ lambda ; a:f32[4]. let b:f32[4] = mul a 2.0:f32[] in (b,) }",
    "stablehlo": "module @jit__lambda attributes {mhlo.num_partitions = 1 : i32, mhlo.num_replicas = 1 : i32} {\n  func.func public @main(%arg0: tensor<4xf32>) -> (tensor<4xf32> {jax.result_info = \"result\"}) {\n    %cst = stablehlo.constant dense<2.000000e+00> : tensor<f32>\n    %0 = stablehlo.broadcast_in_dim %cst, dims = [] : (tensor<f32>) -> tensor<4xf32>\n    %1 = stablehlo.multiply %arg0, %0 : tensor<4xf32>\n    return %1 : tensor<4xf32>\n  }\n}\n",
    "metadata": {
      "category": "arithmetic",
      "operation": "mul_scalar",
      "description": "Arithmetic: x * 2.0"
    }
  },
  {
    "python_code": "lambda x, y: x * y",
    "input_info": [
      {
        "shape": [
          9,
          3
        ],
        "dtype": "float32"
      },
      {
        "shape": [
          9,
          3
        ],
        "dtype": "float32"
      }
    ],
    "jaxpr": "{ lambda ; a:f32[9,3] b:f32[9,3]. let c:f32[9,3] = mul a b in (c,) }",
    "stablehlo": "module @jit__lambda attributes {mhlo.num_partitions = 1 : i32, mhlo.num_replicas = 1 : i32} {\n  func.func public @main(%arg0: tensor<9x3xf32>, %arg1: tensor<9x3xf32>) -> (tensor<9x3xf32> {jax.result_info = \"result\"}) {\n    %0 = stablehlo.multiply %arg0, %arg1 : tensor<9x3xf32>\n    return %0 : tensor<9x3xf32>\n  }\n}\n",
    "metadata": {
      "category": "arithmetic",
      "operation": "multiply",
      "description": "Arithmetic: x * y"
    }
  },
  {
    "python_code": "lambda x: x + 1.0",
    "input_info": [
      {
        "shape": [
          6,
          8,
          4
        ],
        "dtype": "float32"
      }
    ],
    "jaxpr": "{ lambda ; a:f32[6,8,4]. let b:f32[6,8,4] = add a 1.0:f32[] in (b,) }",
    "stablehlo": "module @jit__lambda attributes {mhlo.num_partitions = 1 : i32, mhlo.num_replicas = 1 : i32} {\n  func.func public @main(%arg0: tensor<6x8x4xf32>) -> (tensor<6x8x4xf32> {jax.result_info = \"result\"}) {\n    %cst = stablehlo.constant dense<1.000000e+00> : tensor<f32>\n    %0 = stablehlo.broadcast_in_dim %cst, dims = [] : (tensor<f32>) -> tensor<6x8x4xf32>\n    %1 = stablehlo.add %arg0, %0 : tensor<6x8x4xf32>\n    return %1 : tensor<6x8x4xf32>\n  }\n}\n",
    "metadata": {
      "category": "arithmetic",
      "operation": "add_scalar",
      "description": "Arithmetic: x + 1.0"
    }
  },
  {
    "python_code": "lambda x, y: x / y",
    "input_info": [
      {
        "shape": [
          5,
          2,
          3
        ],
        "dtype": "float32"
      },
      {
        "shape": [
          5,
          2,
          3
        ],
        "dtype": "float32"
      }
    ],
    "jaxpr": "{ lambda ; a:f32[5,2,3] b:f32[5,2,3]. let c:f32[5,2,3] = div a b in (c,) }",
    "stablehlo": "module @jit__lambda attributes {mhlo.num_partitions = 1 : i32, mhlo.num_replicas = 1 : i32} {\n  func.func public @main(%arg0: tensor<5x2x3xf32>, %arg1: tensor<5x2x3xf32>) -> (tensor<5x2x3xf32> {jax.result_info = \"result\"}) {\n    %0 = stablehlo.divide %arg0, %arg1 : tensor<5x2x3xf32>\n    return %0 : tensor<5x2x3xf32>\n  }\n}\n",
    "metadata": {
      "category": "arithmetic",
      "operation": "divide",
      "description": "Arithmetic: x / y"
    }
  },
  {
    "python_code": "lambda x: x * 2.0",
    "input_info": [
      {
        "shape": [
          9,
          3
        ],
        "dtype": "float32"
      }
    ],
    "jaxpr": "{ lambda ; a:f32[9,3]. let b:f32[9,3] = mul a 2.0:f32[] in (b,) }",
    "stablehlo": "module @jit__lambda attributes {mhlo.num_partitions = 1 : i32, mhlo.num_replicas = 1 : i32} {\n  func.func public @main(%arg0: tensor<9x3xf32>) -> (tensor<9x3xf32> {jax.result_info = \"result\"}) {\n    %cst = stablehlo.constant dense<2.000000e+00> : tensor<f32>\n    %0 = stablehlo.broadcast_in_dim %cst, dims = [] : (tensor<f32>) -> tensor<9x3xf32>\n    %1 = stablehlo.multiply %arg0, %0 : tensor<9x3xf32>\n    return %1 : tensor<9x3xf32>\n  }\n}\n",
    "metadata": {
      "category": "arithmetic",
      "operation": "mul_scalar",
      "description": "Arithmetic: x * 2.0"
    }
  },
  {
    "python_code": "lambda x: x ** 2",
    "input_info": [
      {
        "shape": [
          7,
          9,
          8
        ],
        "dtype": "float32"
      }
    ],
    "jaxpr": "{ lambda ; a:f32[7,9,8]. let b:f32[7,9,8] = integer_pow[y=2] a in (b,) }",
    "stablehlo": "module @jit__lambda attributes {mhlo.num_partitions = 1 : i32, mhlo.num_replicas = 1 : i32} {\n  func.func public @main(%arg0: tensor<7x9x8xf32>) -> (tensor<7x9x8xf32> {jax.result_info = \"result\"}) {\n    %0 = stablehlo.multiply %arg0, %arg0 : tensor<7x9x8xf32>\n    return %0 : tensor<7x9x8xf32>\n  }\n}\n",
    "metadata": {
      "category": "arithmetic",
      "operation": "power",
      "description": "Arithmetic: x ** 2"
    }
  },
  {
    "python_code": "lambda x: x * 2.0",
    "input_info": [
      {
        "shape": [
          9,
          3
        ],
        "dtype": "float32"
      }
    ],
    "jaxpr": "{ lambda ; a:f32[9,3]. let b:f32[9,3] = mul a 2.0:f32[] in (b,) }",
    "stablehlo": "module @jit__lambda attributes {mhlo.num_partitions = 1 : i32, mhlo.num_replicas = 1 : i32} {\n  func.func public @main(%arg0: tensor<9x3xf32>) -> (tensor<9x3xf32> {jax.result_info = \"result\"}) {\n    %cst = stablehlo.constant dense<2.000000e+00> : tensor<f32>\n    %0 = stablehlo.broadcast_in_dim %cst, dims = [] : (tensor<f32>) -> tensor<9x3xf32>\n    %1 = stablehlo.multiply %arg0, %0 : tensor<9x3xf32>\n    return %1 : tensor<9x3xf32>\n  }\n}\n",
    "metadata": {
      "category": "arithmetic",
      "operation": "mul_scalar",
      "description": "Arithmetic: x * 2.0"
    }
  },
  {
    "python_code": "lambda x, y: x * y",
    "input_info": [
      {
        "shape": [
          2,
          6,
          4
        ],
        "dtype": "float32"
      },
      {
        "shape": [
          2,
          6,
          4
        ],
        "dtype": "float32"
      }
    ],
    "jaxpr": "{ lambda ; a:f32[2,6,4] b:f32[2,6,4]. let c:f32[2,6,4] = mul a b in (c,) }",
    "stablehlo": "module @jit__lambda attributes {mhlo.num_partitions = 1 : i32, mhlo.num_replicas = 1 : i32} {\n  func.func public @main(%arg0: tensor<2x6x4xf32>, %arg1: tensor<2x6x4xf32>) -> (tensor<2x6x4xf32> {jax.result_info = \"result\"}) {\n    %0 = stablehlo.multiply %arg0, %arg1 : tensor<2x6x4xf32>\n    return %0 : tensor<2x6x4xf32>\n  }\n}\n",
    "metadata": {
      "category": "arithmetic",
      "operation": "multiply",
      "description": "Arithmetic: x * y"
    }
  },
  {
    "python_code": "lambda x: x ** 2",
    "input_info": [
      {
        "shape": [
          4
        ],
        "dtype": "float32"
      }
    ],
    "jaxpr": "{ lambda ; a:f32[4]. let b:f32[4] = integer_pow[y=2] a in (b,) }",
    "stablehlo": "module @jit__lambda attributes {mhlo.num_partitions = 1 : i32, mhlo.num_replicas = 1 : i32} {\n  func.func public @main(%arg0: tensor<4xf32>) -> (tensor<4xf32> {jax.result_info = \"result\"}) {\n    %0 = stablehlo.multiply %arg0, %arg0 : tensor<4xf32>\n    return %0 : tensor<4xf32>\n  }\n}\n",
    "metadata": {
      "category": "arithmetic",
      "operation": "power",
      "description": "Arithmetic: x ** 2"
    }
  },
  {
    "python_code": "lambda x, y: x * y",
    "input_info": [
      {
        "shape": [
          4,
          7
        ],
        "dtype": "float32"
      },
      {
        "shape": [
          4,
          7
        ],
        "dtype": "float32"
      }
    ],
    "jaxpr": "{ lambda ; a:f32[4,7] b:f32[4,7]. let c:f32[4,7] = mul a b in (c,) }",
    "stablehlo": "module @jit__lambda attributes {mhlo.num_partitions = 1 : i32, mhlo.num_replicas = 1 : i32} {\n  func.func public @main(%arg0: tensor<4x7xf32>, %arg1: tensor<4x7xf32>) -> (tensor<4x7xf32> {jax.result_info = \"result\"}) {\n    %0 = stablehlo.multiply %arg0, %arg1 : tensor<4x7xf32>\n    return %0 : tensor<4x7xf32>\n  }\n}\n",
    "metadata": {
      "category": "arithmetic",
      "operation": "multiply",
      "description": "Arithmetic: x * y"
    }
  },
  {
    "python_code": "lambda x, y: x - y",
    "input_info": [
      {
        "shape": [
          6
        ],
        "dtype": "float32"
      },
      {
        "shape": [
          6
        ],
        "dtype": "float32"
      }
    ],
    "jaxpr": "{ lambda ; a:f32[6] b:f32[6]. let c:f32[6] = sub a b in (c,) }",
    "stablehlo": "module @jit__lambda attributes {mhlo.num_partitions = 1 : i32, mhlo.num_replicas = 1 : i32} {\n  func.func public @main(%arg0: tensor<6xf32>, %arg1: tensor<6xf32>) -> (tensor<6xf32> {jax.result_info = \"result\"}) {\n    %0 = stablehlo.subtract %arg0, %arg1 : tensor<6xf32>\n    return %0 : tensor<6xf32>\n  }\n}\n",
    "metadata": {
      "category": "arithmetic",
      "operation": "subtract",
      "description": "Arithmetic: x - y"
    }
  },
  {
    "python_code": "lambda x, y: x * y",
    "input_info": [
      {
        "shape": [
          7,
          2
        ],
        "dtype": "float32"
      },
      {
        "shape": [
          7,
          2
        ],
        "dtype": "float32"
      }
    ],
    "jaxpr": "{ lambda ; a:f32[7,2] b:f32[7,2]. let c:f32[7,2] = mul a b in (c,) }",
    "stablehlo": "module @jit__lambda attributes {mhlo.num_partitions = 1 : i32, mhlo.num_replicas = 1 : i32} {\n  func.func public @main(%arg0: tensor<7x2xf32>, %arg1: tensor<7x2xf32>) -> (tensor<7x2xf32> {jax.result_info = \"result\"}) {\n    %0 = stablehlo.multiply %arg0, %arg1 : tensor<7x2xf32>\n    return %0 : tensor<7x2xf32>\n  }\n}\n",
    "metadata": {
      "category": "arithmetic",
      "operation": "multiply",
      "description": "Arithmetic: x * y"
    }
  },
  {
    "python_code": "lambda x, y: x * y",
    "input_info": [
      {
        "shape": [
          10,
          3
        ],
        "dtype": "float32"
      },
      {
        "shape": [
          10,
          3
        ],
        "dtype": "float32"
      }
    ],
    "jaxpr": "{ lambda ; a:f32[10,3] b:f32[10,3]. let c:f32[10,3] = mul a b in (c,) }",
    "stablehlo": "module @jit__lambda attributes {mhlo.num_partitions = 1 : i32, mhlo.num_replicas = 1 : i32} {\n  func.func public @main(%arg0: tensor<10x3xf32>, %arg1: tensor<10x3xf32>) -> (tensor<10x3xf32> {jax.result_info = \"result\"}) {\n    %0 = stablehlo.multiply %arg0, %arg1 : tensor<10x3xf32>\n    return %0 : tensor<10x3xf32>\n  }\n}\n",
    "metadata": {
      "category": "arithmetic",
      "operation": "multiply",
      "description": "Arithmetic: x * y"
    }
  },
  {
    "python_code": "lambda x: x ** 2",
    "input_info": [
      {
        "shape": [
          4
        ],
        "dtype": "float32"
      }
    ],
    "jaxpr": "{ lambda ; a:f32[4]. let b:f32[4] = integer_pow[y=2] a in (b,) }",
    "stablehlo": "module @jit__lambda attributes {mhlo.num_partitions = 1 : i32, mhlo.num_replicas = 1 : i32} {\n  func.func public @main(%arg0: tensor<4xf32>) -> (tensor<4xf32> {jax.result_info = \"result\"}) {\n    %0 = stablehlo.multiply %arg0, %arg0 : tensor<4xf32>\n    return %0 : tensor<4xf32>\n  }\n}\n",
    "metadata": {
      "category": "arithmetic",
      "operation": "power",
      "description": "Arithmetic: x ** 2"
    }
  },
  {
    "python_code": "lambda x: x * 2.0",
    "input_info": [
      {
        "shape": [
          4
        ],
        "dtype": "float32"
      }
    ],
    "jaxpr": "{ lambda ; a:f32[4]. let b:f32[4] = mul a 2.0:f32[] in (b,) }",
    "stablehlo": "module @jit__lambda attributes {mhlo.num_partitions = 1 : i32, mhlo.num_replicas = 1 : i32} {\n  func.func public @main(%arg0: tensor<4xf32>) -> (tensor<4xf32> {jax.result_info = \"result\"}) {\n    %cst = stablehlo.constant dense<2.000000e+00> : tensor<f32>\n    %0 = stablehlo.broadcast_in_dim %cst, dims = [] : (tensor<f32>) -> tensor<4xf32>\n    %1 = stablehlo.multiply %arg0, %0 : tensor<4xf32>\n    return %1 : tensor<4xf32>\n  }\n}\n",
    "metadata": {
      "category": "arithmetic",
      "operation": "mul_scalar",
      "description": "Arithmetic: x * 2.0"
    }
  },
  {
    "python_code": "lambda x: x ** 2",
    "input_info": [
      {
        "shape": [
          7,
          6
        ],
        "dtype": "float32"
      }
    ],
    "jaxpr": "{ lambda ; a:f32[7,6]. let b:f32[7,6] = integer_pow[y=2] a in (b,) }",
    "stablehlo": "module @jit__lambda attributes {mhlo.num_partitions = 1 : i32, mhlo.num_replicas = 1 : i32} {\n  func.func public @main(%arg0: tensor<7x6xf32>) -> (tensor<7x6xf32> {jax.result_info = \"result\"}) {\n    %0 = stablehlo.multiply %arg0, %arg0 : tensor<7x6xf32>\n    return %0 : tensor<7x6xf32>\n  }\n}\n",
    "metadata": {
      "category": "arithmetic",
      "operation": "power",
      "description": "Arithmetic: x ** 2"
    }
  },
  {
    "python_code": "lambda x, y: x * y",
    "input_info": [
      {
        "shape": [
          7,
          3,
          10
        ],
        "dtype": "float32"
      },
      {
        "shape": [
          7,
          3,
          10
        ],
        "dtype": "float32"
      }
    ],
    "jaxpr": "{ lambda ; a:f32[7,3,10] b:f32[7,3,10]. let c:f32[7,3,10] = mul a b in (c,) }",
    "stablehlo": "module @jit__lambda attributes {mhlo.num_partitions = 1 : i32, mhlo.num_replicas = 1 : i32} {\n  func.func public @main(%arg0: tensor<7x3x10xf32>, %arg1: tensor<7x3x10xf32>) -> (tensor<7x3x10xf32> {jax.result_info = \"result\"}) {\n    %0 = stablehlo.multiply %arg0, %arg1 : tensor<7x3x10xf32>\n    return %0 : tensor<7x3x10xf32>\n  }\n}\n",
    "metadata": {
      "category": "arithmetic",
      "operation": "multiply",
      "description": "Arithmetic: x * y"
    }
  },
  {
    "python_code": "lambda x: x ** 2",
    "input_info": [
      {
        "shape": [
          4,
          2
        ],
        "dtype": "float32"
      }
    ],
    "jaxpr": "{ lambda ; a:f32[4,2]. let b:f32[4,2] = integer_pow[y=2] a in (b,) }",
    "stablehlo": "module @jit__lambda attributes {mhlo.num_partitions = 1 : i32, mhlo.num_replicas = 1 : i32} {\n  func.func public @main(%arg0: tensor<4x2xf32>) -> (tensor<4x2xf32> {jax.result_info = \"result\"}) {\n    %0 = stablehlo.multiply %arg0, %arg0 : tensor<4x2xf32>\n    return %0 : tensor<4x2xf32>\n  }\n}\n",
    "metadata": {
      "category": "arithmetic",
      "operation": "power",
      "description": "Arithmetic: x ** 2"
    }
  },
  {
    "python_code": "lambda x, y: x - y",
    "input_info": [
      {
        "shape": [
          6,
          7,
          9
        ],
        "dtype": "float32"
      },
      {
        "shape": [
          6,
          7,
          9
        ],
        "dtype": "float32"
      }
    ],
    "jaxpr": "{ lambda ; a:f32[6,7,9] b:f32[6,7,9]. let c:f32[6,7,9] = sub a b in (c,) }",
    "stablehlo": "module @jit__lambda attributes {mhlo.num_partitions = 1 : i32, mhlo.num_replicas = 1 : i32} {\n  func.func public @main(%arg0: tensor<6x7x9xf32>, %arg1: tensor<6x7x9xf32>) -> (tensor<6x7x9xf32> {jax.result_info = \"result\"}) {\n    %0 = stablehlo.subtract %arg0, %arg1 : tensor<6x7x9xf32>\n    return %0 : tensor<6x7x9xf32>\n  }\n}\n",
    "metadata": {
      "category": "arithmetic",
      "operation": "subtract",
      "description": "Arithmetic: x - y"
    }
  },
  {
    "python_code": "lambda x, y: x / y",
    "input_info": [
      {
        "shape": [
          4,
          3
        ],
        "dtype": "float32"
      },
      {
        "shape": [
          4,
          3
        ],
        "dtype": "float32"
      }
    ],
    "jaxpr": "{ lambda ; a:f32[4,3] b:f32[4,3]. let c:f32[4,3] = div a b in (c,) }",
    "stablehlo": "module @jit__lambda attributes {mhlo.num_partitions = 1 : i32, mhlo.num_replicas = 1 : i32} {\n  func.func public @main(%arg0: tensor<4x3xf32>, %arg1: tensor<4x3xf32>) -> (tensor<4x3xf32> {jax.result_info = \"result\"}) {\n    %0 = stablehlo.divide %arg0, %arg1 : tensor<4x3xf32>\n    return %0 : tensor<4x3xf32>\n  }\n}\n",
    "metadata": {
      "category": "arithmetic",
      "operation": "divide",
      "description": "Arithmetic: x / y"
    }
  },
  {
    "python_code": "lambda x, y: x - y",
    "input_info": [
      {
        "shape": [
          10
        ],
        "dtype": "float32"
      },
      {
        "shape": [
          10
        ],
        "dtype": "float32"
      }
    ],
    "jaxpr": "{ lambda ; a:f32[10] b:f32[10]. let c:f32[10] = sub a b in (c,) }",
    "stablehlo": "module @jit__lambda attributes {mhlo.num_partitions = 1 : i32, mhlo.num_replicas = 1 : i32} {\n  func.func public @main(%arg0: tensor<10xf32>, %arg1: tensor<10xf32>) -> (tensor<10xf32> {jax.result_info = \"result\"}) {\n    %0 = stablehlo.subtract %arg0, %arg1 : tensor<10xf32>\n    return %0 : tensor<10xf32>\n  }\n}\n",
    "metadata": {
      "category": "arithmetic",
      "operation": "subtract",
      "description": "Arithmetic: x - y"
    }
  },
  {
    "python_code": "lambda x, y: x - y",
    "input_info": [
      {
        "shape": [
          10
        ],
        "dtype": "float32"
      },
      {
        "shape": [
          10
        ],
        "dtype": "float32"
      }
    ],
    "jaxpr": "{ lambda ; a:f32[10] b:f32[10]. let c:f32[10] = sub a b in (c,) }",
    "stablehlo": "module @jit__lambda attributes {mhlo.num_partitions = 1 : i32, mhlo.num_replicas = 1 : i32} {\n  func.func public @main(%arg0: tensor<10xf32>, %arg1: tensor<10xf32>) -> (tensor<10xf32> {jax.result_info = \"result\"}) {\n    %0 = stablehlo.subtract %arg0, %arg1 : tensor<10xf32>\n    return %0 : tensor<10xf32>\n  }\n}\n",
    "metadata": {
      "category": "arithmetic",
      "operation": "subtract",
      "description": "Arithmetic: x - y"
    }
  },
  {
    "python_code": "lambda x: x ** 2",
    "input_info": [
      {
        "shape": [
          10,
          10,
          10
        ],
        "dtype": "float32"
      }
    ],
    "jaxpr": "{ lambda ; a:f32[10,10,10]. let b:f32[10,10,10] = integer_pow[y=2] a in (b,) }",
    "stablehlo": "module @jit__lambda attributes {mhlo.num_partitions = 1 : i32, mhlo.num_replicas = 1 : i32} {\n  func.func public @main(%arg0: tensor<10x10x10xf32>) -> (tensor<10x10x10xf32> {jax.result_info = \"result\"}) {\n    %0 = stablehlo.multiply %arg0, %arg0 : tensor<10x10x10xf32>\n    return %0 : tensor<10x10x10xf32>\n  }\n}\n",
    "metadata": {
      "category": "arithmetic",
      "operation": "power",
      "description": "Arithmetic: x ** 2"
    }
  },
  {
    "python_code": "lambda x: x + 1.0",
    "input_info": [
      {
        "shape": [
          8
        ],
        "dtype": "float32"
      }
    ],
    "jaxpr": "{ lambda ; a:f32[8]. let b:f32[8] = add a 1.0:f32[] in (b,) }",
    "stablehlo": "module @jit__lambda attributes {mhlo.num_partitions = 1 : i32, mhlo.num_replicas = 1 : i32} {\n  func.func public @main(%arg0: tensor<8xf32>) -> (tensor<8xf32> {jax.result_info = \"result\"}) {\n    %cst = stablehlo.constant dense<1.000000e+00> : tensor<f32>\n    %0 = stablehlo.broadcast_in_dim %cst, dims = [] : (tensor<f32>) -> tensor<8xf32>\n    %1 = stablehlo.add %arg0, %0 : tensor<8xf32>\n    return %1 : tensor<8xf32>\n  }\n}\n",
    "metadata": {
      "category": "arithmetic",
      "operation": "add_scalar",
      "description": "Arithmetic: x + 1.0"
    }
  },
  {
    "python_code": "lambda x, y: x / y",
    "input_info": [
      {
        "shape": [
          3
        ],
        "dtype": "float32"
      },
      {
        "shape": [
          3
        ],
        "dtype": "float32"
      }
    ],
    "jaxpr": "{ lambda ; a:f32[3] b:f32[3]. let c:f32[3] = div a b in (c,) }",
    "stablehlo": "module @jit__lambda attributes {mhlo.num_partitions = 1 : i32, mhlo.num_replicas = 1 : i32} {\n  func.func public @main(%arg0: tensor<3xf32>, %arg1: tensor<3xf32>) -> (tensor<3xf32> {jax.result_info = \"result\"}) {\n    %0 = stablehlo.divide %arg0, %arg1 : tensor<3xf32>\n    return %0 : tensor<3xf32>\n  }\n}\n",
    "metadata": {
      "category": "arithmetic",
      "operation": "divide",
      "description": "Arithmetic: x / y"
    }
  },
  {
    "python_code": "lambda x: x * 2.0",
    "input_info": [
      {
        "shape": [
          2
        ],
        "dtype": "float32"
      }
    ],
    "jaxpr": "{ lambda ; a:f32[2]. let b:f32[2] = mul a 2.0:f32[] in (b,) }",
    "stablehlo": "module @jit__lambda attributes {mhlo.num_partitions = 1 : i32, mhlo.num_replicas = 1 : i32} {\n  func.func public @main(%arg0: tensor<2xf32>) -> (tensor<2xf32> {jax.result_info = \"result\"}) {\n    %cst = stablehlo.constant dense<2.000000e+00> : tensor<f32>\n    %0 = stablehlo.broadcast_in_dim %cst, dims = [] : (tensor<f32>) -> tensor<2xf32>\n    %1 = stablehlo.multiply %arg0, %0 : tensor<2xf32>\n    return %1 : tensor<2xf32>\n  }\n}\n",
    "metadata": {
      "category": "arithmetic",
      "operation": "mul_scalar",
      "description": "Arithmetic: x * 2.0"
    }
  },
  {
    "python_code": "lambda x, y: x / y",
    "input_info": [
      {
        "shape": [
          6,
          7
        ],
        "dtype": "float32"
      },
      {
        "shape": [
          6,
          7
        ],
        "dtype": "float32"
      }
    ],
    "jaxpr": "{ lambda ; a:f32[6,7] b:f32[6,7]. let c:f32[6,7] = div a b in (c,) }",
    "stablehlo": "module @jit__lambda attributes {mhlo.num_partitions = 1 : i32, mhlo.num_replicas = 1 : i32} {\n  func.func public @main(%arg0: tensor<6x7xf32>, %arg1: tensor<6x7xf32>) -> (tensor<6x7xf32> {jax.result_info = \"result\"}) {\n    %0 = stablehlo.divide %arg0, %arg1 : tensor<6x7xf32>\n    return %0 : tensor<6x7xf32>\n  }\n}\n",
    "metadata": {
      "category": "arithmetic",
      "operation": "divide",
      "description": "Arithmetic: x / y"
    }
  },
  {
    "python_code": "lambda x, y: x - y",
    "input_info": [
      {
        "shape": [
          10,
          7
        ],
        "dtype": "float32"
      },
      {
        "shape": [
          10,
          7
        ],
        "dtype": "float32"
      }
    ],
    "jaxpr": "{ lambda ; a:f32[10,7] b:f32[10,7]. let c:f32[10,7] = sub a b in (c,) }",
    "stablehlo": "module @jit__lambda attributes {mhlo.num_partitions = 1 : i32, mhlo.num_replicas = 1 : i32} {\n  func.func public @main(%arg0: tensor<10x7xf32>, %arg1: tensor<10x7xf32>) -> (tensor<10x7xf32> {jax.result_info = \"result\"}) {\n    %0 = stablehlo.subtract %arg0, %arg1 : tensor<10x7xf32>\n    return %0 : tensor<10x7xf32>\n  }\n}\n",
    "metadata": {
      "category": "arithmetic",
      "operation": "subtract",
      "description": "Arithmetic: x - y"
    }
  },
  {
    "python_code": "lambda x, y: x - y",
    "input_info": [
      {
        "shape": [
          6,
          2,
          3
        ],
        "dtype": "float32"
      },
      {
        "shape": [
          6,
          2,
          3
        ],
        "dtype": "float32"
      }
    ],
    "jaxpr": "{ lambda ; a:f32[6,2,3] b:f32[6,2,3]. let c:f32[6,2,3] = sub a b in (c,) }",
    "stablehlo": "module @jit__lambda attributes {mhlo.num_partitions = 1 : i32, mhlo.num_replicas = 1 : i32} {\n  func.func public @main(%arg0: tensor<6x2x3xf32>, %arg1: tensor<6x2x3xf32>) -> (tensor<6x2x3xf32> {jax.result_info = \"result\"}) {\n    %0 = stablehlo.subtract %arg0, %arg1 : tensor<6x2x3xf32>\n    return %0 : tensor<6x2x3xf32>\n  }\n}\n",
    "metadata": {
      "category": "arithmetic",
      "operation": "subtract",
      "description": "Arithmetic: x - y"
    }
  },
  {
    "python_code": "lambda x, y: x - y",
    "input_info": [
      {
        "shape": [
          4
        ],
        "dtype": "float32"
      },
      {
        "shape": [
          4
        ],
        "dtype": "float32"
      }
    ],
    "jaxpr": "{ lambda ; a:f32[4] b:f32[4]. let c:f32[4] = sub a b in (c,) }",
    "stablehlo": "module @jit__lambda attributes {mhlo.num_partitions = 1 : i32, mhlo.num_replicas = 1 : i32} {\n  func.func public @main(%arg0: tensor<4xf32>, %arg1: tensor<4xf32>) -> (tensor<4xf32> {jax.result_info = \"result\"}) {\n    %0 = stablehlo.subtract %arg0, %arg1 : tensor<4xf32>\n    return %0 : tensor<4xf32>\n  }\n}\n",
    "metadata": {
      "category": "arithmetic",
      "operation": "subtract",
      "description": "Arithmetic: x - y"
    }
  },
  {
    "python_code": "lambda x: x + 1.0",
    "input_info": [
      {
        "shape": [
          6
        ],
        "dtype": "float32"
      }
    ],
    "jaxpr": "{ lambda ; a:f32[6]. let b:f32[6] = add a 1.0:f32[] in (b,) }",
    "stablehlo": "module @jit__lambda attributes {mhlo.num_partitions = 1 : i32, mhlo.num_replicas = 1 : i32} {\n  func.func public @main(%arg0: tensor<6xf32>) -> (tensor<6xf32> {jax.result_info = \"result\"}) {\n    %cst = stablehlo.constant dense<1.000000e+00> : tensor<f32>\n    %0 = stablehlo.broadcast_in_dim %cst, dims = [] : (tensor<f32>) -> tensor<6xf32>\n    %1 = stablehlo.add %arg0, %0 : tensor<6xf32>\n    return %1 : tensor<6xf32>\n  }\n}\n",
    "metadata": {
      "category": "arithmetic",
      "operation": "add_scalar",
      "description": "Arithmetic: x + 1.0"
    }
  },
  {
    "python_code": "lambda x, y: x - y",
    "input_info": [
      {
        "shape": [
          4
        ],
        "dtype": "float32"
      },
      {
        "shape": [
          4
        ],
        "dtype": "float32"
      }
    ],
    "jaxpr": "{ lambda ; a:f32[4] b:f32[4]. let c:f32[4] = sub a b in (c,) }",
    "stablehlo": "module @jit__lambda attributes {mhlo.num_partitions = 1 : i32, mhlo.num_replicas = 1 : i32} {\n  func.func public @main(%arg0: tensor<4xf32>, %arg1: tensor<4xf32>) -> (tensor<4xf32> {jax.result_info = \"result\"}) {\n    %0 = stablehlo.subtract %arg0, %arg1 : tensor<4xf32>\n    return %0 : tensor<4xf32>\n  }\n}\n",
    "metadata": {
      "category": "arithmetic",
      "operation": "subtract",
      "description": "Arithmetic: x - y"
    }
  },
  {
    "python_code": "lambda x, y: x + y",
    "input_info": [
      {
        "shape": [
          3,
          3
        ],
        "dtype": "float32"
      },
      {
        "shape": [
          3,
          3
        ],
        "dtype": "float32"
      }
    ],
    "jaxpr": "{ lambda ; a:f32[3,3] b:f32[3,3]. let c:f32[3,3] = add a b in (c,) }",
    "stablehlo": "module @jit__lambda attributes {mhlo.num_partitions = 1 : i32, mhlo.num_replicas = 1 : i32} {\n  func.func public @main(%arg0: tensor<3x3xf32>, %arg1: tensor<3x3xf32>) -> (tensor<3x3xf32> {jax.result_info = \"result\"}) {\n    %0 = stablehlo.add %arg0, %arg1 : tensor<3x3xf32>\n    return %0 : tensor<3x3xf32>\n  }\n}\n",
    "metadata": {
      "category": "arithmetic",
      "operation": "add",
      "description": "Arithmetic: x + y"
    }
  },
  {
    "python_code": "lambda x, y: x + y",
    "input_info": [
      {
        "shape": [
          8,
          2
        ],
        "dtype": "float32"
      },
      {
        "shape": [
          8,
          2
        ],
        "dtype": "float32"
      }
    ],
    "jaxpr": "{ lambda ; a:f32[8,2] b:f32[8,2]. let c:f32[8,2] = add a b in (c,) }",
    "stablehlo": "module @jit__lambda attributes {mhlo.num_partitions = 1 : i32, mhlo.num_replicas = 1 : i32} {\n  func.func public @main(%arg0: tensor<8x2xf32>, %arg1: tensor<8x2xf32>) -> (tensor<8x2xf32> {jax.result_info = \"result\"}) {\n    %0 = stablehlo.add %arg0, %arg1 : tensor<8x2xf32>\n    return %0 : tensor<8x2xf32>\n  }\n}\n",
    "metadata": {
      "category": "arithmetic",
      "operation": "add",
      "description": "Arithmetic: x + y"
    }
  },
  {
    "python_code": "lambda x, y: x - y",
    "input_info": [
      {
        "shape": [
          2
        ],
        "dtype": "float32"
      },
      {
        "shape": [
          2
        ],
        "dtype": "float32"
      }
    ],
    "jaxpr": "{ lambda ; a:f32[2] b:f32[2]. let c:f32[2] = sub a b in (c,) }",
    "stablehlo": "module @jit__lambda attributes {mhlo.num_partitions = 1 : i32, mhlo.num_replicas = 1 : i32} {\n  func.func public @main(%arg0: tensor<2xf32>, %arg1: tensor<2xf32>) -> (tensor<2xf32> {jax.result_info = \"result\"}) {\n    %0 = stablehlo.subtract %arg0, %arg1 : tensor<2xf32>\n    return %0 : tensor<2xf32>\n  }\n}\n",
    "metadata": {
      "category": "arithmetic",
      "operation": "subtract",
      "description": "Arithmetic: x - y"
    }
  },
  {
    "python_code": "lambda x: x * 2.0",
    "input_info": [
      {
        "shape": [
          10,
          2,
          9
        ],
        "dtype": "float32"
      }
    ],
    "jaxpr": "{ lambda ; a:f32[10,2,9]. let b:f32[10,2,9] = mul a 2.0:f32[] in (b,) }",
    "stablehlo": "module @jit__lambda attributes {mhlo.num_partitions = 1 : i32, mhlo.num_replicas = 1 : i32} {\n  func.func public @main(%arg0: tensor<10x2x9xf32>) -> (tensor<10x2x9xf32> {jax.result_info = \"result\"}) {\n    %cst = stablehlo.constant dense<2.000000e+00> : tensor<f32>\n    %0 = stablehlo.broadcast_in_dim %cst, dims = [] : (tensor<f32>) -> tensor<10x2x9xf32>\n    %1 = stablehlo.multiply %arg0, %0 : tensor<10x2x9xf32>\n    return %1 : tensor<10x2x9xf32>\n  }\n}\n",
    "metadata": {
      "category": "arithmetic",
      "operation": "mul_scalar",
      "description": "Arithmetic: x * 2.0"
    }
  },
  {
    "python_code": "lambda x, y: x + y",
    "input_info": [
      {
        "shape": [
          2,
          3
        ],
        "dtype": "float32"
      },
      {
        "shape": [
          2,
          3
        ],
        "dtype": "float32"
      }
    ],
    "jaxpr": "{ lambda ; a:f32[2,3] b:f32[2,3]. let c:f32[2,3] = add a b in (c,) }",
    "stablehlo": "module @jit__lambda attributes {mhlo.num_partitions = 1 : i32, mhlo.num_replicas = 1 : i32} {\n  func.func public @main(%arg0: tensor<2x3xf32>, %arg1: tensor<2x3xf32>) -> (tensor<2x3xf32> {jax.result_info = \"result\"}) {\n    %0 = stablehlo.add %arg0, %arg1 : tensor<2x3xf32>\n    return %0 : tensor<2x3xf32>\n  }\n}\n",
    "metadata": {
      "category": "arithmetic",
      "operation": "add",
      "description": "Arithmetic: x + y"
    }
  },
  {
    "python_code": "lambda x, y: x * y",
    "input_info": [
      {
        "shape": [
          2,
          3,
          3
        ],
        "dtype": "float32"
      },
      {
        "shape": [
          2,
          3,
          3
        ],
        "dtype": "float32"
      }
    ],
    "jaxpr": "{ lambda ; a:f32[2,3,3] b:f32[2,3,3]. let c:f32[2,3,3] = mul a b in (c,) }",
    "stablehlo": "module @jit__lambda attributes {mhlo.num_partitions = 1 : i32, mhlo.num_replicas = 1 : i32} {\n  func.func public @main(%arg0: tensor<2x3x3xf32>, %arg1: tensor<2x3x3xf32>) -> (tensor<2x3x3xf32> {jax.result_info = \"result\"}) {\n    %0 = stablehlo.multiply %arg0, %arg1 : tensor<2x3x3xf32>\n    return %0 : tensor<2x3x3xf32>\n  }\n}\n",
    "metadata": {
      "category": "arithmetic",
      "operation": "multiply",
      "description": "Arithmetic: x * y"
    }
  },
  {
    "python_code": "lambda x: x ** 2",
    "input_info": [
      {
        "shape": [
          5
        ],
        "dtype": "float32"
      }
    ],
    "jaxpr": "{ lambda ; a:f32[5]. let b:f32[5] = integer_pow[y=2] a in (b,) }",
    "stablehlo": "module @jit__lambda attributes {mhlo.num_partitions = 1 : i32, mhlo.num_replicas = 1 : i32} {\n  func.func public @main(%arg0: tensor<5xf32>) -> (tensor<5xf32> {jax.result_info = \"result\"}) {\n    %0 = stablehlo.multiply %arg0, %arg0 : tensor<5xf32>\n    return %0 : tensor<5xf32>\n  }\n}\n",
    "metadata": {
      "category": "arithmetic",
      "operation": "power",
      "description": "Arithmetic: x ** 2"
    }
  }
]