[
  {
    "python_code": "lambda x: jnp.min(x)",
    "input_info": [
      {
        "shape": [
          9
        ],
        "dtype": "float32"
      }
    ],
    "jaxpr": "{ lambda ; a:f32[9]. let b:f32[] = reduce_min[axes=(0,)] a in (b,) }",
    "stablehlo": "module @jit__lambda attributes {mhlo.num_partitions = 1 : i32, mhlo.num_replicas = 1 : i32} {\n  func.func public @main(%arg0: tensor<9xf32>) -> (tensor<f32> {jax.result_info = \"result\"}) {\n    %cst = stablehlo.constant dense<0x7F800000> : tensor<f32>\n    %0 = stablehlo.reduce(%arg0 init: %cst) applies stablehlo.minimum across dimensions = [0] : (tensor<9xf32>, tensor<f32>) -> tensor<f32>\n    return %0 : tensor<f32>\n  }\n}\n",
    "metadata": {
      "category": "reduction",
      "operation": "min",
      "description": "Reduction: min"
    }
  },
  {
    "python_code": "lambda x: jnp.sum(x, axis=0)",
    "input_info": [
      {
        "shape": [
          7,
          10
        ],
        "dtype": "float32"
      }
    ],
    "jaxpr": "{ lambda ; a:f32[7,10]. let\n    b:f32[10] = reduce_sum[axes=(0,) out_sharding=None] a\n  in (b,) }",
    "stablehlo": "module @jit__lambda attributes {mhlo.num_partitions = 1 : i32, mhlo.num_replicas = 1 : i32} {\n  func.func public @main(%arg0: tensor<7x10xf32>) -> (tensor<10xf32> {jax.result_info = \"result\"}) {\n    %cst = stablehlo.constant dense<0.000000e+00> : tensor<f32>\n    %0 = stablehlo.reduce(%arg0 init: %cst) applies stablehlo.add across dimensions = [0] : (tensor<7x10xf32>, tensor<f32>) -> tensor<10xf32>\n    return %0 : tensor<10xf32>\n  }\n}\n",
    "metadata": {
      "category": "reduction",
      "operation": "sum_axis0",
      "description": "Reduction: sum_axis0"
    }
  },
  {
    "python_code": "lambda x: jnp.min(x)",
    "input_info": [
      {
        "shape": [
          10,
          10,
          9
        ],
        "dtype": "float32"
      }
    ],
    "jaxpr": "{ lambda ; a:f32[10,10,9]. let b:f32[] = reduce_min[axes=(0, 1, 2)] a in (b,) }",
    "stablehlo": "module @jit__lambda attributes {mhlo.num_partitions = 1 : i32, mhlo.num_replicas = 1 : i32} {\n  func.func public @main(%arg0: tensor<10x10x9xf32>) -> (tensor<f32> {jax.result_info = \"result\"}) {\n    %cst = stablehlo.constant dense<0x7F800000> : tensor<f32>\n    %0 = stablehlo.reduce(%arg0 init: %cst) applies stablehlo.minimum across dimensions = [0, 1, 2] : (tensor<10x10x9xf32>, tensor<f32>) -> tensor<f32>\n    return %0 : tensor<f32>\n  }\n}\n",
    "metadata": {
      "category": "reduction",
      "operation": "min",
      "description": "Reduction: min"
    }
  },
  {
    "python_code": "lambda x: jnp.sum(x)",
    "input_info": [
      {
        "shape": [
          9,
          5,
          10
        ],
        "dtype": "float32"
      }
    ],
    "jaxpr": "{ lambda ; a:f32[9,5,10]. let\n    b:f32[] = reduce_sum[axes=(0, 1, 2) out_sharding=None] a\n  in (b,) }",
    "stablehlo": "module @jit__lambda attributes {mhlo.num_partitions = 1 : i32, mhlo.num_replicas = 1 : i32} {\n  func.func public @main(%arg0: tensor<9x5x10xf32>) -> (tensor<f32> {jax.result_info = \"result\"}) {\n    %cst = stablehlo.constant dense<0.000000e+00> : tensor<f32>\n    %0 = stablehlo.reduce(%arg0 init: %cst) applies stablehlo.add across dimensions = [0, 1, 2] : (tensor<9x5x10xf32>, tensor<f32>) -> tensor<f32>\n    return %0 : tensor<f32>\n  }\n}\n",
    "metadata": {
      "category": "reduction",
      "operation": "sum",
      "description": "Reduction: sum"
    }
  },
  {
    "python_code": "lambda x: jnp.prod(x)",
    "input_info": [
      {
        "shape": [
          10,
          4
        ],
        "dtype": "float32"
      }
    ],
    "jaxpr": "{ lambda ; a:f32[10,4]. let b:f32[] = reduce_prod[axes=(0, 1)] a in (b,) }",
    "stablehlo": "module @jit__lambda attributes {mhlo.num_partitions = 1 : i32, mhlo.num_replicas = 1 : i32} {\n  func.func public @main(%arg0: tensor<10x4xf32>) -> (tensor<f32> {jax.result_info = \"result\"}) {\n    %cst = stablehlo.constant dense<1.000000e+00> : tensor<f32>\n    %0 = stablehlo.reduce(%arg0 init: %cst) applies stablehlo.multiply across dimensions = [0, 1] : (tensor<10x4xf32>, tensor<f32>) -> tensor<f32>\n    return %0 : tensor<f32>\n  }\n}\n",
    "metadata": {
      "category": "reduction",
      "operation": "prod",
      "description": "Reduction: prod"
    }
  },
  {
    "python_code": "lambda x: jnp.sum(x, axis=0)",
    "input_info": [
      {
        "shape": [
          4,
          9
        ],
        "dtype": "float32"
      }
    ],
    "jaxpr": "{ lambda ; a:f32[4,9]. let\n    b:f32[9] = reduce_sum[axes=(0,) out_sharding=None] a\n  in (b,) }",
    "stablehlo": "module @jit__lambda attributes {mhlo.num_partitions = 1 : i32, mhlo.num_replicas = 1 : i32} {\n  func.func public @main(%arg0: tensor<4x9xf32>) -> (tensor<9xf32> {jax.result_info = \"result\"}) {\n    %cst = stablehlo.constant dense<0.000000e+00> : tensor<f32>\n    %0 = stablehlo.reduce(%arg0 init: %cst) applies stablehlo.add across dimensions = [0] : (tensor<4x9xf32>, tensor<f32>) -> tensor<9xf32>\n    return %0 : tensor<9xf32>\n  }\n}\n",
    "metadata": {
      "category": "reduction",
      "operation": "sum_axis0",
      "description": "Reduction: sum_axis0"
    }
  },
  {
    "python_code": "lambda x: jnp.prod(x)",
    "input_info": [
      {
        "shape": [
          3,
          8
        ],
        "dtype": "float32"
      }
    ],
    "jaxpr": "{ lambda ; a:f32[3,8]. let b:f32[] = reduce_prod[axes=(0, 1)] a in (b,) }",
    "stablehlo": "module @jit__lambda attributes {mhlo.num_partitions = 1 : i32, mhlo.num_replicas = 1 : i32} {\n  func.func public @main(%arg0: tensor<3x8xf32>) -> (tensor<f32> {jax.result_info = \"result\"}) {\n    %cst = stablehlo.constant dense<1.000000e+00> : tensor<f32>\n    %0 = stablehlo.reduce(%arg0 init: %cst) applies stablehlo.multiply across dimensions = [0, 1] : (tensor<3x8xf32>, tensor<f32>) -> tensor<f32>\n    return %0 : tensor<f32>\n  }\n}\n",
    "metadata": {
      "category": "reduction",
      "operation": "prod",
      "description": "Reduction: prod"
    }
  },
  {
    "python_code": "lambda x: jnp.sum(x)",
    "input_info": [
      {
        "shape": [
          7,
          4
        ],
        "dtype": "float32"
      }
    ],
    "jaxpr": "{ lambda ; a:f32[7,4]. let\n    b:f32[] = reduce_sum[axes=(0, 1) out_sharding=None] a\n  in (b,) }",
    "stablehlo": "module @jit__lambda attributes {mhlo.num_partitions = 1 : i32, mhlo.num_replicas = 1 : i32} {\n  func.func public @main(%arg0: tensor<7x4xf32>) -> (tensor<f32> {jax.result_info = \"result\"}) {\n    %cst = stablehlo.constant dense<0.000000e+00> : tensor<f32>\n    %0 = stablehlo.reduce(%arg0 init: %cst) applies stablehlo.add across dimensions = [0, 1] : (tensor<7x4xf32>, tensor<f32>) -> tensor<f32>\n    return %0 : tensor<f32>\n  }\n}\n",
    "metadata": {
      "category": "reduction",
      "operation": "sum",
      "description": "Reduction: sum"
    }
  },
  {
    "python_code": "lambda x: jnp.min(x)",
    "input_info": [
      {
        "shape": [
          9,
          9
        ],
        "dtype": "float32"
      }
    ],
    "jaxpr": "{ lambda ; a:f32[9,9]. let b:f32[] = reduce_min[axes=(0, 1)] a in (b,) }",
    "stablehlo": "module @jit__lambda attributes {mhlo.num_partitions = 1 : i32, mhlo.num_replicas = 1 : i32} {\n  func.func public @main(%arg0: tensor<9x9xf32>) -> (tensor<f32> {jax.result_info = \"result\"}) {\n    %cst = stablehlo.constant dense<0x7F800000> : tensor<f32>\n    %0 = stablehlo.reduce(%arg0 init: %cst) applies stablehlo.minimum across dimensions = [0, 1] : (tensor<9x9xf32>, tensor<f32>) -> tensor<f32>\n    return %0 : tensor<f32>\n  }\n}\n",
    "metadata": {
      "category": "reduction",
      "operation": "min",
      "description": "Reduction: min"
    }
  },
  {
    "python_code": "lambda x: jnp.mean(x)",
    "input_info": [
      {
        "shape": [
          10
        ],
        "dtype": "float32"
      }
    ],
    "jaxpr": "{ lambda ; a:f32[10]. let\n    b:f32[] = reduce_sum[axes=(0,) out_sharding=None] a\n    c:f32[] = div b 10.0:f32[]\n  in (c,) }",
    "stablehlo": "module @jit__lambda attributes {mhlo.num_partitions = 1 : i32, mhlo.num_replicas = 1 : i32} {\n  func.func public @main(%arg0: tensor<10xf32>) -> (tensor<f32> {jax.result_info = \"result\"}) {\n    %cst = stablehlo.constant dense<0.000000e+00> : tensor<f32>\n    %0 = stablehlo.reduce(%arg0 init: %cst) applies stablehlo.add across dimensions = [0] : (tensor<10xf32>, tensor<f32>) -> tensor<f32>\n    %cst_0 = stablehlo.constant dense<1.000000e+01> : tensor<f32>\n    %1 = stablehlo.divide %0, %cst_0 : tensor<f32>\n    return %1 : tensor<f32>\n  }\n}\n",
    "metadata": {
      "category": "reduction",
      "operation": "mean",
      "description": "Reduction: mean"
    }
  },
  {
    "python_code": "lambda x: jnp.min(x)",
    "input_info": [
      {
        "shape": [
          3,
          8
        ],
        "dtype": "float32"
      }
    ],
    "jaxpr": "{ lambda ; a:f32[3,8]. let b:f32[] = reduce_min[axes=(0, 1)] a in (b,) }",
    "stablehlo": "module @jit__lambda attributes {mhlo.num_partitions = 1 : i32, mhlo.num_replicas = 1 : i32} {\n  func.func public @main(%arg0: tensor<3x8xf32>) -> (tensor<f32> {jax.result_info = \"result\"}) {\n    %cst = stablehlo.constant dense<0x7F800000> : tensor<f32>\n    %0 = stablehlo.reduce(%arg0 init: %cst) applies stablehlo.minimum across dimensions = [0, 1] : (tensor<3x8xf32>, tensor<f32>) -> tensor<f32>\n    return %0 : tensor<f32>\n  }\n}\n",
    "metadata": {
      "category": "reduction",
      "operation": "min",
      "description": "Reduction: min"
    }
  },
  {
    "python_code": "lambda x: jnp.sum(x)",
    "input_info": [
      {
        "shape": [
          10,
          3,
          5
        ],
        "dtype": "float32"
      }
    ],
    "jaxpr": "{ lambda ; a:f32[10,3,5]. let\n    b:f32[] = reduce_sum[axes=(0, 1, 2) out_sharding=None] a\n  in (b,) }",
    "stablehlo": "module @jit__lambda attributes {mhlo.num_partitions = 1 : i32, mhlo.num_replicas = 1 : i32} {\n  func.func public @main(%arg0: tensor<10x3x5xf32>) -> (tensor<f32> {jax.result_info = \"result\"}) {\n    %cst = stablehlo.constant dense<0.000000e+00> : tensor<f32>\n    %0 = stablehlo.reduce(%arg0 init: %cst) applies stablehlo.add across dimensions = [0, 1, 2] : (tensor<10x3x5xf32>, tensor<f32>) -> tensor<f32>\n    return %0 : tensor<f32>\n  }\n}\n",
    "metadata": {
      "category": "reduction",
      "operation": "sum",
      "description": "Reduction: sum"
    }
  },
  {
    "python_code": "lambda x: jnp.mean(x, axis=0)",
    "input_info": [
      {
        "shape": [
          2,
          8
        ],
        "dtype": "float32"
      }
    ],
    "jaxpr": "{ lambda ; a:f32[2,8]. let\n    b:f32[8] = reduce_sum[axes=(0,) out_sharding=None] a\n    c:f32[8] = div b 2.0:f32[]\n  in (c,) }",
    "stablehlo": "module @jit__lambda attributes {mhlo.num_partitions = 1 : i32, mhlo.num_replicas = 1 : i32} {\n  func.func public @main(%arg0: tensor<2x8xf32>) -> (tensor<8xf32> {jax.result_info = \"result\"}) {\n    %cst = stablehlo.constant dense<0.000000e+00> : tensor<f32>\n    %0 = stablehlo.reduce(%arg0 init: %cst) applies stablehlo.add across dimensions = [0] : (tensor<2x8xf32>, tensor<f32>) -> tensor<8xf32>\n    %cst_0 = stablehlo.constant dense<2.000000e+00> : tensor<f32>\n    %1 = stablehlo.broadcast_in_dim %cst_0, dims = [] : (tensor<f32>) -> tensor<8xf32>\n    %2 = stablehlo.divide %0, %1 : tensor<8xf32>\n    return %2 : tensor<8xf32>\n  }\n}\n",
    "metadata": {
      "category": "reduction",
      "operation": "mean_axis0",
      "description": "Reduction: mean_axis0"
    }
  },
  {
    "python_code": "lambda x: jnp.mean(x, axis=0)",
    "input_info": [
      {
        "shape": [
          5,
          2
        ],
        "dtype": "float32"
      }
    ],
    "jaxpr": "{ lambda ; a:f32[5,2]. let\n    b:f32[2] = reduce_sum[axes=(0,) out_sharding=None] a\n    c:f32[2] = div b 5.0:f32[]\n  in (c,) }",
    "stablehlo": "module @jit__lambda attributes {mhlo.num_partitions = 1 : i32, mhlo.num_replicas = 1 : i32} {\n  func.func public @main(%arg0: tensor<5x2xf32>) -> (tensor<2xf32> {jax.result_info = \"result\"}) {\n    %cst = stablehlo.constant dense<0.000000e+00> : tensor<f32>\n    %0 = stablehlo.reduce(%arg0 init: %cst) applies stablehlo.add across dimensions = [0] : (tensor<5x2xf32>, tensor<f32>) -> tensor<2xf32>\n    %cst_0 = stablehlo.constant dense<5.000000e+00> : tensor<f32>\n    %1 = stablehlo.broadcast_in_dim %cst_0, dims = [] : (tensor<f32>) -> tensor<2xf32>\n    %2 = stablehlo.divide %0, %1 : tensor<2xf32>\n    return %2 : tensor<2xf32>\n  }\n}\n",
    "metadata": {
      "category": "reduction",
      "operation": "mean_axis0",
      "description": "Reduction: mean_axis0"
    }
  },
  {
    "python_code": "lambda x: jnp.max(x)",
    "input_info": [
      {
        "shape": [
          8,
          8
        ],
        "dtype": "float32"
      }
    ],
    "jaxpr": "{ lambda ; a:f32[8,8]. let b:f32[] = reduce_max[axes=(0, 1)] a in (b,) }",
    "stablehlo": "module @jit__lambda attributes {mhlo.num_partitions = 1 : i32, mhlo.num_replicas = 1 : i32} {\n  func.func public @main(%arg0: tensor<8x8xf32>) -> (tensor<f32> {jax.result_info = \"result\"}) {\n    %cst = stablehlo.constant dense<0xFF800000> : tensor<f32>\n    %0 = stablehlo.reduce(%arg0 init: %cst) applies stablehlo.maximum across dimensions = [0, 1] : (tensor<8x8xf32>, tensor<f32>) -> tensor<f32>\n    return %0 : tensor<f32>\n  }\n}\n",
    "metadata": {
      "category": "reduction",
      "operation": "max",
      "description": "Reduction: max"
    }
  },
  {
    "python_code": "lambda x: jnp.mean(x, axis=0)",
    "input_info": [
      {
        "shape": [
          9,
          6
        ],
        "dtype": "float32"
      }
    ],
    "jaxpr": "{ lambda ; a:f32[9,6]. let\n    b:f32[6] = reduce_sum[axes=(0,) out_sharding=None] a\n    c:f32[6] = div b 9.0:f32[]\n  in (c,) }",
    "stablehlo": "module @jit__lambda attributes {mhlo.num_partitions = 1 : i32, mhlo.num_replicas = 1 : i32} {\n  func.func public @main(%arg0: tensor<9x6xf32>) -> (tensor<6xf32> {jax.result_info = \"result\"}) {\n    %cst = stablehlo.constant dense<0.000000e+00> : tensor<f32>\n    %0 = stablehlo.reduce(%arg0 init: %cst) applies stablehlo.add across dimensions = [0] : (tensor<9x6xf32>, tensor<f32>) -> tensor<6xf32>\n    %cst_0 = stablehlo.constant dense<9.000000e+00> : tensor<f32>\n    %1 = stablehlo.broadcast_in_dim %cst_0, dims = [] : (tensor<f32>) -> tensor<6xf32>\n    %2 = stablehlo.divide %0, %1 : tensor<6xf32>\n    return %2 : tensor<6xf32>\n  }\n}\n",
    "metadata": {
      "category": "reduction",
      "operation": "mean_axis0",
      "description": "Reduction: mean_axis0"
    }
  },
  {
    "python_code": "lambda x: jnp.sum(x)",
    "input_info": [
      {
        "shape": [
          9
        ],
        "dtype": "float32"
      }
    ],
    "jaxpr": "{ lambda ; a:f32[9]. let\n    b:f32[] = reduce_sum[axes=(0,) out_sharding=None] a\n  in (b,) }",
    "stablehlo": "module @jit__lambda attributes {mhlo.num_partitions = 1 : i32, mhlo.num_replicas = 1 : i32} {\n  func.func public @main(%arg0: tensor<9xf32>) -> (tensor<f32> {jax.result_info = \"result\"}) {\n    %cst = stablehlo.constant dense<0.000000e+00> : tensor<f32>\n    %0 = stablehlo.reduce(%arg0 init: %cst) applies stablehlo.add across dimensions = [0] : (tensor<9xf32>, tensor<f32>) -> tensor<f32>\n    return %0 : tensor<f32>\n  }\n}\n",
    "metadata": {
      "category": "reduction",
      "operation": "sum",
      "description": "Reduction: sum"
    }
  },
  {
    "python_code": "lambda x: jnp.max(x)",
    "input_info": [
      {
        "shape": [
          8,
          5,
          5
        ],
        "dtype": "float32"
      }
    ],
    "jaxpr": "{ lambda ; a:f32[8,5,5]. let b:f32[] = reduce_max[axes=(0, 1, 2)] a in (b,) }",
    "stablehlo": "module @jit__lambda attributes {mhlo.num_partitions = 1 : i32, mhlo.num_replicas = 1 : i32} {\n  func.func public @main(%arg0: tensor<8x5x5xf32>) -> (tensor<f32> {jax.result_info = \"result\"}) {\n    %cst = stablehlo.constant dense<0xFF800000> : tensor<f32>\n    %0 = stablehlo.reduce(%arg0 init: %cst) applies stablehlo.maximum across dimensions = [0, 1, 2] : (tensor<8x5x5xf32>, tensor<f32>) -> tensor<f32>\n    return %0 : tensor<f32>\n  }\n}\n",
    "metadata": {
      "category": "reduction",
      "operation": "max",
      "description": "Reduction: max"
    }
  },
  {
    "python_code": "lambda x: jnp.sum(x)",
    "input_info": [
      {
        "shape": [
          2
        ],
        "dtype": "float32"
      }
    ],
    "jaxpr": "{ lambda ; a:f32[2]. let\n    b:f32[] = reduce_sum[axes=(0,) out_sharding=None] a\n  in (b,) }",
    "stablehlo": "module @jit__lambda attributes {mhlo.num_partitions = 1 : i32, mhlo.num_replicas = 1 : i32} {\n  func.func public @main(%arg0: tensor<2xf32>) -> (tensor<f32> {jax.result_info = \"result\"}) {\n    %cst = stablehlo.constant dense<0.000000e+00> : tensor<f32>\n    %0 = stablehlo.reduce(%arg0 init: %cst) applies stablehlo.add across dimensions = [0] : (tensor<2xf32>, tensor<f32>) -> tensor<f32>\n    return %0 : tensor<f32>\n  }\n}\n",
    "metadata": {
      "category": "reduction",
      "operation": "sum",
      "description": "Reduction: sum"
    }
  },
  {
    "python_code": "lambda x: jnp.prod(x)",
    "input_info": [
      {
        "shape": [
          10,
          10
        ],
        "dtype": "float32"
      }
    ],
    "jaxpr": "{ lambda ; a:f32[10,10]. let b:f32[] = reduce_prod[axes=(0, 1)] a in (b,) }",
    "stablehlo": "module @jit__lambda attributes {mhlo.num_partitions = 1 : i32, mhlo.num_replicas = 1 : i32} {\n  func.func public @main(%arg0: tensor<10x10xf32>) -> (tensor<f32> {jax.result_info = \"result\"}) {\n    %cst = stablehlo.constant dense<1.000000e+00> : tensor<f32>\n    %0 = stablehlo.reduce(%arg0 init: %cst) applies stablehlo.multiply across dimensions = [0, 1] : (tensor<10x10xf32>, tensor<f32>) -> tensor<f32>\n    return %0 : tensor<f32>\n  }\n}\n",
    "metadata": {
      "category": "reduction",
      "operation": "prod",
      "description": "Reduction: prod"
    }
  },
  {
    "python_code": "lambda x: jnp.mean(x, axis=0)",
    "input_info": [
      {
        "shape": [
          4,
          7
        ],
        "dtype": "float32"
      }
    ],
    "jaxpr": "{ lambda ; a:f32[4,7]. let\n    b:f32[7] = reduce_sum[axes=(0,) out_sharding=None] a\n    c:f32[7] = div b 4.0:f32[]\n  in (c,) }",
    "stablehlo": "module @jit__lambda attributes {mhlo.num_partitions = 1 : i32, mhlo.num_replicas = 1 : i32} {\n  func.func public @main(%arg0: tensor<4x7xf32>) -> (tensor<7xf32> {jax.result_info = \"result\"}) {\n    %cst = stablehlo.constant dense<0.000000e+00> : tensor<f32>\n    %0 = stablehlo.reduce(%arg0 init: %cst) applies stablehlo.add across dimensions = [0] : (tensor<4x7xf32>, tensor<f32>) -> tensor<7xf32>\n    %cst_0 = stablehlo.constant dense<4.000000e+00> : tensor<f32>\n    %1 = stablehlo.broadcast_in_dim %cst_0, dims = [] : (tensor<f32>) -> tensor<7xf32>\n    %2 = stablehlo.divide %0, %1 : tensor<7xf32>\n    return %2 : tensor<7xf32>\n  }\n}\n",
    "metadata": {
      "category": "reduction",
      "operation": "mean_axis0",
      "description": "Reduction: mean_axis0"
    }
  },
  {
    "python_code": "lambda x: jnp.max(x)",
    "input_info": [
      {
        "shape": [
          4,
          7,
          10
        ],
        "dtype": "float32"
      }
    ],
    "jaxpr": "{ lambda ; a:f32[4,7,10]. let b:f32[] = reduce_max[axes=(0, 1, 2)] a in (b,) }",
    "stablehlo": "module @jit__lambda attributes {mhlo.num_partitions = 1 : i32, mhlo.num_replicas = 1 : i32} {\n  func.func public @main(%arg0: tensor<4x7x10xf32>) -> (tensor<f32> {jax.result_info = \"result\"}) {\n    %cst = stablehlo.constant dense<0xFF800000> : tensor<f32>\n    %0 = stablehlo.reduce(%arg0 init: %cst) applies stablehlo.maximum across dimensions = [0, 1, 2] : (tensor<4x7x10xf32>, tensor<f32>) -> tensor<f32>\n    return %0 : tensor<f32>\n  }\n}\n",
    "metadata": {
      "category": "reduction",
      "operation": "max",
      "description": "Reduction: max"
    }
  },
  {
    "python_code": "lambda x: jnp.prod(x)",
    "input_info": [
      {
        "shape": [
          8,
          3,
          7
        ],
        "dtype": "float32"
      }
    ],
    "jaxpr": "{ lambda ; a:f32[8,3,7]. let b:f32[] = reduce_prod[axes=(0, 1, 2)] a in (b,) }",
    "stablehlo": "module @jit__lambda attributes {mhlo.num_partitions = 1 : i32, mhlo.num_replicas = 1 : i32} {\n  func.func public @main(%arg0: tensor<8x3x7xf32>) -> (tensor<f32> {jax.result_info = \"result\"}) {\n    %cst = stablehlo.constant dense<1.000000e+00> : tensor<f32>\n    %0 = stablehlo.reduce(%arg0 init: %cst) applies stablehlo.multiply across dimensions = [0, 1, 2] : (tensor<8x3x7xf32>, tensor<f32>) -> tensor<f32>\n    return %0 : tensor<f32>\n  }\n}\n",
    "metadata": {
      "category": "reduction",
      "operation": "prod",
      "description": "Reduction: prod"
    }
  },
  {
    "python_code": "lambda x: jnp.sum(x)",
    "input_info": [
      {
        "shape": [
          10
        ],
        "dtype": "float32"
      }
    ],
    "jaxpr": "{ lambda ; a:f32[10]. let\n    b:f32[] = reduce_sum[axes=(0,) out_sharding=None] a\n  in (b,) }",
    "stablehlo": "module @jit__lambda attributes {mhlo.num_partitions = 1 : i32, mhlo.num_replicas = 1 : i32} {\n  func.func public @main(%arg0: tensor<10xf32>) -> (tensor<f32> {jax.result_info = \"result\"}) {\n    %cst = stablehlo.constant dense<0.000000e+00> : tensor<f32>\n    %0 = stablehlo.reduce(%arg0 init: %cst) applies stablehlo.add across dimensions = [0] : (tensor<10xf32>, tensor<f32>) -> tensor<f32>\n    return %0 : tensor<f32>\n  }\n}\n",
    "metadata": {
      "category": "reduction",
      "operation": "sum",
      "description": "Reduction: sum"
    }
  },
  {
    "python_code": "lambda x: jnp.sum(x, axis=0)",
    "input_info": [
      {
        "shape": [
          9,
          6
        ],
        "dtype": "float32"
      }
    ],
    "jaxpr": "{ lambda ; a:f32[9,6]. let\n    b:f32[6] = reduce_sum[axes=(0,) out_sharding=None] a\n  in (b,) }",
    "stablehlo": "module @jit__lambda attributes {mhlo.num_partitions = 1 : i32, mhlo.num_replicas = 1 : i32} {\n  func.func public @main(%arg0: tensor<9x6xf32>) -> (tensor<6xf32> {jax.result_info = \"result\"}) {\n    %cst = stablehlo.constant dense<0.000000e+00> : tensor<f32>\n    %0 = stablehlo.reduce(%arg0 init: %cst) applies stablehlo.add across dimensions = [0] : (tensor<9x6xf32>, tensor<f32>) -> tensor<6xf32>\n    return %0 : tensor<6xf32>\n  }\n}\n",
    "metadata": {
      "category": "reduction",
      "operation": "sum_axis0",
      "description": "Reduction: sum_axis0"
    }
  },
  {
    "python_code": "lambda x: jnp.sum(x, axis=0)",
    "input_info": [
      {
        "shape": [
          8,
          5
        ],
        "dtype": "float32"
      }
    ],
    "jaxpr": "{ lambda ; a:f32[8,5]. let\n    b:f32[5] = reduce_sum[axes=(0,) out_sharding=None] a\n  in (b,) }",
    "stablehlo": "module @jit__lambda attributes {mhlo.num_partitions = 1 : i32, mhlo.num_replicas = 1 : i32} {\n  func.func public @main(%arg0: tensor<8x5xf32>) -> (tensor<5xf32> {jax.result_info = \"result\"}) {\n    %cst = stablehlo.constant dense<0.000000e+00> : tensor<f32>\n    %0 = stablehlo.reduce(%arg0 init: %cst) applies stablehlo.add across dimensions = [0] : (tensor<8x5xf32>, tensor<f32>) -> tensor<5xf32>\n    return %0 : tensor<5xf32>\n  }\n}\n",
    "metadata": {
      "category": "reduction",
      "operation": "sum_axis0",
      "description": "Reduction: sum_axis0"
    }
  },
  {
    "python_code": "lambda x: jnp.min(x)",
    "input_info": [
      {
        "shape": [
          6,
          9
        ],
        "dtype": "float32"
      }
    ],
    "jaxpr": "{ lambda ; a:f32[6,9]. let b:f32[] = reduce_min[axes=(0, 1)] a in (b,) }",
    "stablehlo": "module @jit__lambda attributes {mhlo.num_partitions = 1 : i32, mhlo.num_replicas = 1 : i32} {\n  func.func public @main(%arg0: tensor<6x9xf32>) -> (tensor<f32> {jax.result_info = \"result\"}) {\n    %cst = stablehlo.constant dense<0x7F800000> : tensor<f32>\n    %0 = stablehlo.reduce(%arg0 init: %cst) applies stablehlo.minimum across dimensions = [0, 1] : (tensor<6x9xf32>, tensor<f32>) -> tensor<f32>\n    return %0 : tensor<f32>\n  }\n}\n",
    "metadata": {
      "category": "reduction",
      "operation": "min",
      "description": "Reduction: min"
    }
  },
  {
    "python_code": "lambda x: jnp.prod(x)",
    "input_info": [
      {
        "shape": [
          7,
          7
        ],
        "dtype": "float32"
      }
    ],
    "jaxpr": "{ lambda ; a:f32[7,7]. let b:f32[] = reduce_prod[axes=(0, 1)] a in (b,) }",
    "stablehlo": "module @jit__lambda attributes {mhlo.num_partitions = 1 : i32, mhlo.num_replicas = 1 : i32} {\n  func.func public @main(%arg0: tensor<7x7xf32>) -> (tensor<f32> {jax.result_info = \"result\"}) {\n    %cst = stablehlo.constant dense<1.000000e+00> : tensor<f32>\n    %0 = stablehlo.reduce(%arg0 init: %cst) applies stablehlo.multiply across dimensions = [0, 1] : (tensor<7x7xf32>, tensor<f32>) -> tensor<f32>\n    return %0 : tensor<f32>\n  }\n}\n",
    "metadata": {
      "category": "reduction",
      "operation": "prod",
      "description": "Reduction: prod"
    }
  },
  {
    "python_code": "lambda x: jnp.prod(x)",
    "input_info": [
      {
        "shape": [
          4,
          7
        ],
        "dtype": "float32"
      }
    ],
    "jaxpr": "{ lambda ; a:f32[4,7]. let b:f32[] = reduce_prod[axes=(0, 1)] a in (b,) }",
    "stablehlo": "module @jit__lambda attributes {mhlo.num_partitions = 1 : i32, mhlo.num_replicas = 1 : i32} {\n  func.func public @main(%arg0: tensor<4x7xf32>) -> (tensor<f32> {jax.result_info = \"result\"}) {\n    %cst = stablehlo.constant dense<1.000000e+00> : tensor<f32>\n    %0 = stablehlo.reduce(%arg0 init: %cst) applies stablehlo.multiply across dimensions = [0, 1] : (tensor<4x7xf32>, tensor<f32>) -> tensor<f32>\n    return %0 : tensor<f32>\n  }\n}\n",
    "metadata": {
      "category": "reduction",
      "operation": "prod",
      "description": "Reduction: prod"
    }
  },
  {
    "python_code": "lambda x: jnp.max(x)",
    "input_info": [
      {
        "shape": [
          8
        ],
        "dtype": "float32"
      }
    ],
    "jaxpr": "{ lambda ; a:f32[8]. let b:f32[] = reduce_max[axes=(0,)] a in (b,) }",
    "stablehlo": "module @jit__lambda attributes {mhlo.num_partitions = 1 : i32, mhlo.num_replicas = 1 : i32} {\n  func.func public @main(%arg0: tensor<8xf32>) -> (tensor<f32> {jax.result_info = \"result\"}) {\n    %cst = stablehlo.constant dense<0xFF800000> : tensor<f32>\n    %0 = stablehlo.reduce(%arg0 init: %cst) applies stablehlo.maximum across dimensions = [0] : (tensor<8xf32>, tensor<f32>) -> tensor<f32>\n    return %0 : tensor<f32>\n  }\n}\n",
    "metadata": {
      "category": "reduction",
      "operation": "max",
      "description": "Reduction: max"
    }
  },
  {
    "python_code": "lambda x: jnp.max(x)",
    "input_info": [
      {
        "shape": [
          3,
          10
        ],
        "dtype": "float32"
      }
    ],
    "jaxpr": "{ lambda ; a:f32[3,10]. let b:f32[] = reduce_max[axes=(0, 1)] a in (b,) }",
    "stablehlo": "module @jit__lambda attributes {mhlo.num_partitions = 1 : i32, mhlo.num_replicas = 1 : i32} {\n  func.func public @main(%arg0: tensor<3x10xf32>) -> (tensor<f32> {jax.result_info = \"result\"}) {\n    %cst = stablehlo.constant dense<0xFF800000> : tensor<f32>\n    %0 = stablehlo.reduce(%arg0 init: %cst) applies stablehlo.maximum across dimensions = [0, 1] : (tensor<3x10xf32>, tensor<f32>) -> tensor<f32>\n    return %0 : tensor<f32>\n  }\n}\n",
    "metadata": {
      "category": "reduction",
      "operation": "max",
      "description": "Reduction: max"
    }
  },
  {
    "python_code": "lambda x: jnp.mean(x)",
    "input_info": [
      {
        "shape": [
          6,
          7,
          4
        ],
        "dtype": "float32"
      }
    ],
    "jaxpr": "{ lambda ; a:f32[6,7,4]. let\n    b:f32[] = reduce_sum[axes=(0, 1, 2) out_sharding=None] a\n    c:f32[] = div b 168.0:f32[]\n  in (c,) }",
    "stablehlo": "module @jit__lambda attributes {mhlo.num_partitions = 1 : i32, mhlo.num_replicas = 1 : i32} {\n  func.func public @main(%arg0: tensor<6x7x4xf32>) -> (tensor<f32> {jax.result_info = \"result\"}) {\n    %cst = stablehlo.constant dense<0.000000e+00> : tensor<f32>\n    %0 = stablehlo.reduce(%arg0 init: %cst) applies stablehlo.add across dimensions = [0, 1, 2] : (tensor<6x7x4xf32>, tensor<f32>) -> tensor<f32>\n    %cst_0 = stablehlo.constant dense<1.680000e+02> : tensor<f32>\n    %1 = stablehlo.divide %0, %cst_0 : tensor<f32>\n    return %1 : tensor<f32>\n  }\n}\n",
    "metadata": {
      "category": "reduction",
      "operation": "mean",
      "description": "Reduction: mean"
    }
  },
  {
    "python_code": "lambda x: jnp.min(x)",
    "input_info": [
      {
        "shape": [
          5,
          7,
          2
        ],
        "dtype": "float32"
      }
    ],
    "jaxpr": "{ lambda ; a:f32[5,7,2]. let b:f32[] = reduce_min[axes=(0, 1, 2)] a in (b,) }",
    "stablehlo": "module @jit__lambda attributes {mhlo.num_partitions = 1 : i32, mhlo.num_replicas = 1 : i32} {\n  func.func public @main(%arg0: tensor<5x7x2xf32>) -> (tensor<f32> {jax.result_info = \"result\"}) {\n    %cst = stablehlo.constant dense<0x7F800000> : tensor<f32>\n    %0 = stablehlo.reduce(%arg0 init: %cst) applies stablehlo.minimum across dimensions = [0, 1, 2] : (tensor<5x7x2xf32>, tensor<f32>) -> tensor<f32>\n    return %0 : tensor<f32>\n  }\n}\n",
    "metadata": {
      "category": "reduction",
      "operation": "min",
      "description": "Reduction: min"
    }
  },
  {
    "python_code": "lambda x: jnp.sum(x)",
    "input_info": [
      {
        "shape": [
          4,
          3,
          8
        ],
        "dtype": "float32"
      }
    ],
    "jaxpr": "{ lambda ; a:f32[4,3,8]. let\n    b:f32[] = reduce_sum[axes=(0, 1, 2) out_sharding=None] a\n  in (b,) }",
    "stablehlo": "module @jit__lambda attributes {mhlo.num_partitions = 1 : i32, mhlo.num_replicas = 1 : i32} {\n  func.func public @main(%arg0: tensor<4x3x8xf32>) -> (tensor<f32> {jax.result_info = \"result\"}) {\n    %cst = stablehlo.constant dense<0.000000e+00> : tensor<f32>\n    %0 = stablehlo.reduce(%arg0 init: %cst) applies stablehlo.add across dimensions = [0, 1, 2] : (tensor<4x3x8xf32>, tensor<f32>) -> tensor<f32>\n    return %0 : tensor<f32>\n  }\n}\n",
    "metadata": {
      "category": "reduction",
      "operation": "sum",
      "description": "Reduction: sum"
    }
  },
  {
    "python_code": "lambda x: jnp.mean(x)",
    "input_info": [
      {
        "shape": [
          3,
          4
        ],
        "dtype": "float32"
      }
    ],
    "jaxpr": "{ lambda ; a:f32[3,4]. let\n    b:f32[] = reduce_sum[axes=(0, 1) out_sharding=None] a\n    c:f32[] = div b 12.0:f32[]\n  in (c,) }",
    "stablehlo": "module @jit__lambda attributes {mhlo.num_partitions = 1 : i32, mhlo.num_replicas = 1 : i32} {\n  func.func public @main(%arg0: tensor<3x4xf32>) -> (tensor<f32> {jax.result_info = \"result\"}) {\n    %cst = stablehlo.constant dense<0.000000e+00> : tensor<f32>\n    %0 = stablehlo.reduce(%arg0 init: %cst) applies stablehlo.add across dimensions = [0, 1] : (tensor<3x4xf32>, tensor<f32>) -> tensor<f32>\n    %cst_0 = stablehlo.constant dense<1.200000e+01> : tensor<f32>\n    %1 = stablehlo.divide %0, %cst_0 : tensor<f32>\n    return %1 : tensor<f32>\n  }\n}\n",
    "metadata": {
      "category": "reduction",
      "operation": "mean",
      "description": "Reduction: mean"
    }
  },
  {
    "python_code": "lambda x: jnp.mean(x)",
    "input_info": [
      {
        "shape": [
          8
        ],
        "dtype": "float32"
      }
    ],
    "jaxpr": "{ lambda ; a:f32[8]. let\n    b:f32[] = reduce_sum[axes=(0,) out_sharding=None] a\n    c:f32[] = div b 8.0:f32[]\n  in (c,) }",
    "stablehlo": "module @jit__lambda attributes {mhlo.num_partitions = 1 : i32, mhlo.num_replicas = 1 : i32} {\n  func.func public @main(%arg0: tensor<8xf32>) -> (tensor<f32> {jax.result_info = \"result\"}) {\n    %cst = stablehlo.constant dense<0.000000e+00> : tensor<f32>\n    %0 = stablehlo.reduce(%arg0 init: %cst) applies stablehlo.add across dimensions = [0] : (tensor<8xf32>, tensor<f32>) -> tensor<f32>\n    %cst_0 = stablehlo.constant dense<8.000000e+00> : tensor<f32>\n    %1 = stablehlo.divide %0, %cst_0 : tensor<f32>\n    return %1 : tensor<f32>\n  }\n}\n",
    "metadata": {
      "category": "reduction",
      "operation": "mean",
      "description": "Reduction: mean"
    }
  },
  {
    "python_code": "lambda x: jnp.min(x)",
    "input_info": [
      {
        "shape": [
          3,
          2,
          2
        ],
        "dtype": "float32"
      }
    ],
    "jaxpr": "{ lambda ; a:f32[3,2,2]. let b:f32[] = reduce_min[axes=(0, 1, 2)] a in (b,) }",
    "stablehlo": "module @jit__lambda attributes {mhlo.num_partitions = 1 : i32, mhlo.num_replicas = 1 : i32} {\n  func.func public @main(%arg0: tensor<3x2x2xf32>) -> (tensor<f32> {jax.result_info = \"result\"}) {\n    %cst = stablehlo.constant dense<0x7F800000> : tensor<f32>\n    %0 = stablehlo.reduce(%arg0 init: %cst) applies stablehlo.minimum across dimensions = [0, 1, 2] : (tensor<3x2x2xf32>, tensor<f32>) -> tensor<f32>\n    return %0 : tensor<f32>\n  }\n}\n",
    "metadata": {
      "category": "reduction",
      "operation": "min",
      "description": "Reduction: min"
    }
  },
  {
    "python_code": "lambda x: jnp.sum(x, axis=0)",
    "input_info": [
      {
        "shape": [
          2,
          2
        ],
        "dtype": "float32"
      }
    ],
    "jaxpr": "{ lambda ; a:f32[2,2]. let\n    b:f32[2] = reduce_sum[axes=(0,) out_sharding=None] a\n  in (b,) }",
    "stablehlo": "module @jit__lambda attributes {mhlo.num_partitions = 1 : i32, mhlo.num_replicas = 1 : i32} {\n  func.func public @main(%arg0: tensor<2x2xf32>) -> (tensor<2xf32> {jax.result_info = \"result\"}) {\n    %cst = stablehlo.constant dense<0.000000e+00> : tensor<f32>\n    %0 = stablehlo.reduce(%arg0 init: %cst) applies stablehlo.add across dimensions = [0] : (tensor<2x2xf32>, tensor<f32>) -> tensor<2xf32>\n    return %0 : tensor<2xf32>\n  }\n}\n",
    "metadata": {
      "category": "reduction",
      "operation": "sum_axis0",
      "description": "Reduction: sum_axis0"
    }
  },
  {
    "python_code": "lambda x: jnp.sum(x, axis=0)",
    "input_info": [
      {
        "shape": [
          7,
          10
        ],
        "dtype": "float32"
      }
    ],
    "jaxpr": "{ lambda ; a:f32[7,10]. let\n    b:f32[10] = reduce_sum[axes=(0,) out_sharding=None] a\n  in (b,) }",
    "stablehlo": "module @jit__lambda attributes {mhlo.num_partitions = 1 : i32, mhlo.num_replicas = 1 : i32} {\n  func.func public @main(%arg0: tensor<7x10xf32>) -> (tensor<10xf32> {jax.result_info = \"result\"}) {\n    %cst = stablehlo.constant dense<0.000000e+00> : tensor<f32>\n    %0 = stablehlo.reduce(%arg0 init: %cst) applies stablehlo.add across dimensions = [0] : (tensor<7x10xf32>, tensor<f32>) -> tensor<10xf32>\n    return %0 : tensor<10xf32>\n  }\n}\n",
    "metadata": {
      "category": "reduction",
      "operation": "sum_axis0",
      "description": "Reduction: sum_axis0"
    }
  },
  {
    "python_code": "lambda x: jnp.sum(x)",
    "input_info": [
      {
        "shape": [
          8
        ],
        "dtype": "float32"
      }
    ],
    "jaxpr": "{ lambda ; a:f32[8]. let\n    b:f32[] = reduce_sum[axes=(0,) out_sharding=None] a\n  in (b,) }",
    "stablehlo": "module @jit__lambda attributes {mhlo.num_partitions = 1 : i32, mhlo.num_replicas = 1 : i32} {\n  func.func public @main(%arg0: tensor<8xf32>) -> (tensor<f32> {jax.result_info = \"result\"}) {\n    %cst = stablehlo.constant dense<0.000000e+00> : tensor<f32>\n    %0 = stablehlo.reduce(%arg0 init: %cst) applies stablehlo.add across dimensions = [0] : (tensor<8xf32>, tensor<f32>) -> tensor<f32>\n    return %0 : tensor<f32>\n  }\n}\n",
    "metadata": {
      "category": "reduction",
      "operation": "sum",
      "description": "Reduction: sum"
    }
  },
  {
    "python_code": "lambda x: jnp.prod(x)",
    "input_info": [
      {
        "shape": [
          2
        ],
        "dtype": "float32"
      }
    ],
    "jaxpr": "{ lambda ; a:f32[2]. let b:f32[] = reduce_prod[axes=(0,)] a in (b,) }",
    "stablehlo": "module @jit__lambda attributes {mhlo.num_partitions = 1 : i32, mhlo.num_replicas = 1 : i32} {\n  func.func public @main(%arg0: tensor<2xf32>) -> (tensor<f32> {jax.result_info = \"result\"}) {\n    %cst = stablehlo.constant dense<1.000000e+00> : tensor<f32>\n    %0 = stablehlo.reduce(%arg0 init: %cst) applies stablehlo.multiply across dimensions = [0] : (tensor<2xf32>, tensor<f32>) -> tensor<f32>\n    return %0 : tensor<f32>\n  }\n}\n",
    "metadata": {
      "category": "reduction",
      "operation": "prod",
      "description": "Reduction: prod"
    }
  },
  {
    "python_code": "lambda x: jnp.mean(x, axis=0)",
    "input_info": [
      {
        "shape": [
          9,
          6
        ],
        "dtype": "float32"
      }
    ],
    "jaxpr": "{ lambda ; a:f32[9,6]. let\n    b:f32[6] = reduce_sum[axes=(0,) out_sharding=None] a\n    c:f32[6] = div b 9.0:f32[]\n  in (c,) }",
    "stablehlo": "module @jit__lambda attributes {mhlo.num_partitions = 1 : i32, mhlo.num_replicas = 1 : i32} {\n  func.func public @main(%arg0: tensor<9x6xf32>) -> (tensor<6xf32> {jax.result_info = \"result\"}) {\n    %cst = stablehlo.constant dense<0.000000e+00> : tensor<f32>\n    %0 = stablehlo.reduce(%arg0 init: %cst) applies stablehlo.add across dimensions = [0] : (tensor<9x6xf32>, tensor<f32>) -> tensor<6xf32>\n    %cst_0 = stablehlo.constant dense<9.000000e+00> : tensor<f32>\n    %1 = stablehlo.broadcast_in_dim %cst_0, dims = [] : (tensor<f32>) -> tensor<6xf32>\n    %2 = stablehlo.divide %0, %1 : tensor<6xf32>\n    return %2 : tensor<6xf32>\n  }\n}\n",
    "metadata": {
      "category": "reduction",
      "operation": "mean_axis0",
      "description": "Reduction: mean_axis0"
    }
  },
  {
    "python_code": "lambda x: jnp.sum(x)",
    "input_info": [
      {
        "shape": [
          8,
          4,
          4
        ],
        "dtype": "float32"
      }
    ],
    "jaxpr": "{ lambda ; a:f32[8,4,4]. let\n    b:f32[] = reduce_sum[axes=(0, 1, 2) out_sharding=None] a\n  in (b,) }",
    "stablehlo": "module @jit__lambda attributes {mhlo.num_partitions = 1 : i32, mhlo.num_replicas = 1 : i32} {\n  func.func public @main(%arg0: tensor<8x4x4xf32>) -> (tensor<f32> {jax.result_info = \"result\"}) {\n    %cst = stablehlo.constant dense<0.000000e+00> : tensor<f32>\n    %0 = stablehlo.reduce(%arg0 init: %cst) applies stablehlo.add across dimensions = [0, 1, 2] : (tensor<8x4x4xf32>, tensor<f32>) -> tensor<f32>\n    return %0 : tensor<f32>\n  }\n}\n",
    "metadata": {
      "category": "reduction",
      "operation": "sum",
      "description": "Reduction: sum"
    }
  },
  {
    "python_code": "lambda x: jnp.min(x)",
    "input_info": [
      {
        "shape": [
          3,
          7,
          3
        ],
        "dtype": "float32"
      }
    ],
    "jaxpr": "{ lambda ; a:f32[3,7,3]. let b:f32[] = reduce_min[axes=(0, 1, 2)] a in (b,) }",
    "stablehlo": "module @jit__lambda attributes {mhlo.num_partitions = 1 : i32, mhlo.num_replicas = 1 : i32} {\n  func.func public @main(%arg0: tensor<3x7x3xf32>) -> (tensor<f32> {jax.result_info = \"result\"}) {\n    %cst = stablehlo.constant dense<0x7F800000> : tensor<f32>\n    %0 = stablehlo.reduce(%arg0 init: %cst) applies stablehlo.minimum across dimensions = [0, 1, 2] : (tensor<3x7x3xf32>, tensor<f32>) -> tensor<f32>\n    return %0 : tensor<f32>\n  }\n}\n",
    "metadata": {
      "category": "reduction",
      "operation": "min",
      "description": "Reduction: min"
    }
  },
  {
    "python_code": "lambda x: jnp.mean(x, axis=0)",
    "input_info": [
      {
        "shape": [
          7,
          9
        ],
        "dtype": "float32"
      }
    ],
    "jaxpr": "{ lambda ; a:f32[7,9]. let\n    b:f32[9] = reduce_sum[axes=(0,) out_sharding=None] a\n    c:f32[9] = div b 7.0:f32[]\n  in (c,) }",
    "stablehlo": "module @jit__lambda attributes {mhlo.num_partitions = 1 : i32, mhlo.num_replicas = 1 : i32} {\n  func.func public @main(%arg0: tensor<7x9xf32>) -> (tensor<9xf32> {jax.result_info = \"result\"}) {\n    %cst = stablehlo.constant dense<0.000000e+00> : tensor<f32>\n    %0 = stablehlo.reduce(%arg0 init: %cst) applies stablehlo.add across dimensions = [0] : (tensor<7x9xf32>, tensor<f32>) -> tensor<9xf32>\n    %cst_0 = stablehlo.constant dense<7.000000e+00> : tensor<f32>\n    %1 = stablehlo.broadcast_in_dim %cst_0, dims = [] : (tensor<f32>) -> tensor<9xf32>\n    %2 = stablehlo.divide %0, %1 : tensor<9xf32>\n    return %2 : tensor<9xf32>\n  }\n}\n",
    "metadata": {
      "category": "reduction",
      "operation": "mean_axis0",
      "description": "Reduction: mean_axis0"
    }
  },
  {
    "python_code": "lambda x: jnp.sum(x)",
    "input_info": [
      {
        "shape": [
          10,
          2,
          4
        ],
        "dtype": "float32"
      }
    ],
    "jaxpr": "{ lambda ; a:f32[10,2,4]. let\n    b:f32[] = reduce_sum[axes=(0, 1, 2) out_sharding=None] a\n  in (b,) }",
    "stablehlo": "module @jit__lambda attributes {mhlo.num_partitions = 1 : i32, mhlo.num_replicas = 1 : i32} {\n  func.func public @main(%arg0: tensor<10x2x4xf32>) -> (tensor<f32> {jax.result_info = \"result\"}) {\n    %cst = stablehlo.constant dense<0.000000e+00> : tensor<f32>\n    %0 = stablehlo.reduce(%arg0 init: %cst) applies stablehlo.add across dimensions = [0, 1, 2] : (tensor<10x2x4xf32>, tensor<f32>) -> tensor<f32>\n    return %0 : tensor<f32>\n  }\n}\n",
    "metadata": {
      "category": "reduction",
      "operation": "sum",
      "description": "Reduction: sum"
    }
  },
  {
    "python_code": "lambda x: jnp.min(x)",
    "input_info": [
      {
        "shape": [
          6
        ],
        "dtype": "float32"
      }
    ],
    "jaxpr": "{ lambda ; a:f32[6]. let b:f32[] = reduce_min[axes=(0,)] a in (b,) }",
    "stablehlo": "module @jit__lambda attributes {mhlo.num_partitions = 1 : i32, mhlo.num_replicas = 1 : i32} {\n  func.func public @main(%arg0: tensor<6xf32>) -> (tensor<f32> {jax.result_info = \"result\"}) {\n    %cst = stablehlo.constant dense<0x7F800000> : tensor<f32>\n    %0 = stablehlo.reduce(%arg0 init: %cst) applies stablehlo.minimum across dimensions = [0] : (tensor<6xf32>, tensor<f32>) -> tensor<f32>\n    return %0 : tensor<f32>\n  }\n}\n",
    "metadata": {
      "category": "reduction",
      "operation": "min",
      "description": "Reduction: min"
    }
  },
  {
    "python_code": "lambda x: jnp.sum(x, axis=0)",
    "input_info": [
      {
        "shape": [
          9,
          9
        ],
        "dtype": "float32"
      }
    ],
    "jaxpr": "{ lambda ; a:f32[9,9]. let\n    b:f32[9] = reduce_sum[axes=(0,) out_sharding=None] a\n  in (b,) }",
    "stablehlo": "module @jit__lambda attributes {mhlo.num_partitions = 1 : i32, mhlo.num_replicas = 1 : i32} {\n  func.func public @main(%arg0: tensor<9x9xf32>) -> (tensor<9xf32> {jax.result_info = \"result\"}) {\n    %cst = stablehlo.constant dense<0.000000e+00> : tensor<f32>\n    %0 = stablehlo.reduce(%arg0 init: %cst) applies stablehlo.add across dimensions = [0] : (tensor<9x9xf32>, tensor<f32>) -> tensor<9xf32>\n    return %0 : tensor<9xf32>\n  }\n}\n",
    "metadata": {
      "category": "reduction",
      "operation": "sum_axis0",
      "description": "Reduction: sum_axis0"
    }
  },
  {
    "python_code": "lambda x: jnp.mean(x, axis=0)",
    "input_info": [
      {
        "shape": [
          2,
          4
        ],
        "dtype": "float32"
      }
    ],
    "jaxpr": "{ lambda ; a:f32[2,4]. let\n    b:f32[4] = reduce_sum[axes=(0,) out_sharding=None] a\n    c:f32[4] = div b 2.0:f32[]\n  in (c,) }",
    "stablehlo": "module @jit__lambda attributes {mhlo.num_partitions = 1 : i32, mhlo.num_replicas = 1 : i32} {\n  func.func public @main(%arg0: tensor<2x4xf32>) -> (tensor<4xf32> {jax.result_info = \"result\"}) {\n    %cst = stablehlo.constant dense<0.000000e+00> : tensor<f32>\n    %0 = stablehlo.reduce(%arg0 init: %cst) applies stablehlo.add across dimensions = [0] : (tensor<2x4xf32>, tensor<f32>) -> tensor<4xf32>\n    %cst_0 = stablehlo.constant dense<2.000000e+00> : tensor<f32>\n    %1 = stablehlo.broadcast_in_dim %cst_0, dims = [] : (tensor<f32>) -> tensor<4xf32>\n    %2 = stablehlo.divide %0, %1 : tensor<4xf32>\n    return %2 : tensor<4xf32>\n  }\n}\n",
    "metadata": {
      "category": "reduction",
      "operation": "mean_axis0",
      "description": "Reduction: mean_axis0"
    }
  },
  {
    "python_code": "lambda x: jnp.max(x)",
    "input_info": [
      {
        "shape": [
          5
        ],
        "dtype": "float32"
      }
    ],
    "jaxpr": "{ lambda ; a:f32[5]. let b:f32[] = reduce_max[axes=(0,)] a in (b,) }",
    "stablehlo": "module @jit__lambda attributes {mhlo.num_partitions = 1 : i32, mhlo.num_replicas = 1 : i32} {\n  func.func public @main(%arg0: tensor<5xf32>) -> (tensor<f32> {jax.result_info = \"result\"}) {\n    %cst = stablehlo.constant dense<0xFF800000> : tensor<f32>\n    %0 = stablehlo.reduce(%arg0 init: %cst) applies stablehlo.maximum across dimensions = [0] : (tensor<5xf32>, tensor<f32>) -> tensor<f32>\n    return %0 : tensor<f32>\n  }\n}\n",
    "metadata": {
      "category": "reduction",
      "operation": "max",
      "description": "Reduction: max"
    }
  },
  {
    "python_code": "lambda x: jnp.min(x)",
    "input_info": [
      {
        "shape": [
          7
        ],
        "dtype": "float32"
      }
    ],
    "jaxpr": "{ lambda ; a:f32[7]. let b:f32[] = reduce_min[axes=(0,)] a in (b,) }",
    "stablehlo": "module @jit__lambda attributes {mhlo.num_partitions = 1 : i32, mhlo.num_replicas = 1 : i32} {\n  func.func public @main(%arg0: tensor<7xf32>) -> (tensor<f32> {jax.result_info = \"result\"}) {\n    %cst = stablehlo.constant dense<0x7F800000> : tensor<f32>\n    %0 = stablehlo.reduce(%arg0 init: %cst) applies stablehlo.minimum across dimensions = [0] : (tensor<7xf32>, tensor<f32>) -> tensor<f32>\n    return %0 : tensor<f32>\n  }\n}\n",
    "metadata": {
      "category": "reduction",
      "operation": "min",
      "description": "Reduction: min"
    }
  },
  {
    "python_code": "lambda x: jnp.min(x)",
    "input_info": [
      {
        "shape": [
          9,
          6
        ],
        "dtype": "float32"
      }
    ],
    "jaxpr": "{ lambda ; a:f32[9,6]. let b:f32[] = reduce_min[axes=(0, 1)] a in (b,) }",
    "stablehlo": "module @jit__lambda attributes {mhlo.num_partitions = 1 : i32, mhlo.num_replicas = 1 : i32} {\n  func.func public @main(%arg0: tensor<9x6xf32>) -> (tensor<f32> {jax.result_info = \"result\"}) {\n    %cst = stablehlo.constant dense<0x7F800000> : tensor<f32>\n    %0 = stablehlo.reduce(%arg0 init: %cst) applies stablehlo.minimum across dimensions = [0, 1] : (tensor<9x6xf32>, tensor<f32>) -> tensor<f32>\n    return %0 : tensor<f32>\n  }\n}\n",
    "metadata": {
      "category": "reduction",
      "operation": "min",
      "description": "Reduction: min"
    }
  },
  {
    "python_code": "lambda x: jnp.mean(x, axis=0)",
    "input_info": [
      {
        "shape": [
          10,
          5
        ],
        "dtype": "float32"
      }
    ],
    "jaxpr": "{ lambda ; a:f32[10,5]. let\n    b:f32[5] = reduce_sum[axes=(0,) out_sharding=None] a\n    c:f32[5] = div b 10.0:f32[]\n  in (c,) }",
    "stablehlo": "module @jit__lambda attributes {mhlo.num_partitions = 1 : i32, mhlo.num_replicas = 1 : i32} {\n  func.func public @main(%arg0: tensor<10x5xf32>) -> (tensor<5xf32> {jax.result_info = \"result\"}) {\n    %cst = stablehlo.constant dense<0.000000e+00> : tensor<f32>\n    %0 = stablehlo.reduce(%arg0 init: %cst) applies stablehlo.add across dimensions = [0] : (tensor<10x5xf32>, tensor<f32>) -> tensor<5xf32>\n    %cst_0 = stablehlo.constant dense<1.000000e+01> : tensor<f32>\n    %1 = stablehlo.broadcast_in_dim %cst_0, dims = [] : (tensor<f32>) -> tensor<5xf32>\n    %2 = stablehlo.divide %0, %1 : tensor<5xf32>\n    return %2 : tensor<5xf32>\n  }\n}\n",
    "metadata": {
      "category": "reduction",
      "operation": "mean_axis0",
      "description": "Reduction: mean_axis0"
    }
  },
  {
    "python_code": "lambda x: jnp.sum(x, axis=0)",
    "input_info": [
      {
        "shape": [
          4,
          2
        ],
        "dtype": "float32"
      }
    ],
    "jaxpr": "{ lambda ; a:f32[4,2]. let\n    b:f32[2] = reduce_sum[axes=(0,) out_sharding=None] a\n  in (b,) }",
    "stablehlo": "module @jit__lambda attributes {mhlo.num_partitions = 1 : i32, mhlo.num_replicas = 1 : i32} {\n  func.func public @main(%arg0: tensor<4x2xf32>) -> (tensor<2xf32> {jax.result_info = \"result\"}) {\n    %cst = stablehlo.constant dense<0.000000e+00> : tensor<f32>\n    %0 = stablehlo.reduce(%arg0 init: %cst) applies stablehlo.add across dimensions = [0] : (tensor<4x2xf32>, tensor<f32>) -> tensor<2xf32>\n    return %0 : tensor<2xf32>\n  }\n}\n",
    "metadata": {
      "category": "reduction",
      "operation": "sum_axis0",
      "description": "Reduction: sum_axis0"
    }
  },
  {
    "python_code": "lambda x: jnp.sum(x)",
    "input_info": [
      {
        "shape": [
          4,
          3
        ],
        "dtype": "float32"
      }
    ],
    "jaxpr": "{ lambda ; a:f32[4,3]. let\n    b:f32[] = reduce_sum[axes=(0, 1) out_sharding=None] a\n  in (b,) }",
    "stablehlo": "module @jit__lambda attributes {mhlo.num_partitions = 1 : i32, mhlo.num_replicas = 1 : i32} {\n  func.func public @main(%arg0: tensor<4x3xf32>) -> (tensor<f32> {jax.result_info = \"result\"}) {\n    %cst = stablehlo.constant dense<0.000000e+00> : tensor<f32>\n    %0 = stablehlo.reduce(%arg0 init: %cst) applies stablehlo.add across dimensions = [0, 1] : (tensor<4x3xf32>, tensor<f32>) -> tensor<f32>\n    return %0 : tensor<f32>\n  }\n}\n",
    "metadata": {
      "category": "reduction",
      "operation": "sum",
      "description": "Reduction: sum"
    }
  },
  {
    "python_code": "lambda x: jnp.sum(x)",
    "input_info": [
      {
        "shape": [
          8
        ],
        "dtype": "float32"
      }
    ],
    "jaxpr": "{ lambda ; a:f32[8]. let\n    b:f32[] = reduce_sum[axes=(0,) out_sharding=None] a\n  in (b,) }",
    "stablehlo": "module @jit__lambda attributes {mhlo.num_partitions = 1 : i32, mhlo.num_replicas = 1 : i32} {\n  func.func public @main(%arg0: tensor<8xf32>) -> (tensor<f32> {jax.result_info = \"result\"}) {\n    %cst = stablehlo.constant dense<0.000000e+00> : tensor<f32>\n    %0 = stablehlo.reduce(%arg0 init: %cst) applies stablehlo.add across dimensions = [0] : (tensor<8xf32>, tensor<f32>) -> tensor<f32>\n    return %0 : tensor<f32>\n  }\n}\n",
    "metadata": {
      "category": "reduction",
      "operation": "sum",
      "description": "Reduction: sum"
    }
  },
  {
    "python_code": "lambda x: jnp.min(x)",
    "input_info": [
      {
        "shape": [
          8
        ],
        "dtype": "float32"
      }
    ],
    "jaxpr": "{ lambda ; a:f32[8]. let b:f32[] = reduce_min[axes=(0,)] a in (b,) }",
    "stablehlo": "module @jit__lambda attributes {mhlo.num_partitions = 1 : i32, mhlo.num_replicas = 1 : i32} {\n  func.func public @main(%arg0: tensor<8xf32>) -> (tensor<f32> {jax.result_info = \"result\"}) {\n    %cst = stablehlo.constant dense<0x7F800000> : tensor<f32>\n    %0 = stablehlo.reduce(%arg0 init: %cst) applies stablehlo.minimum across dimensions = [0] : (tensor<8xf32>, tensor<f32>) -> tensor<f32>\n    return %0 : tensor<f32>\n  }\n}\n",
    "metadata": {
      "category": "reduction",
      "operation": "min",
      "description": "Reduction: min"
    }
  },
  {
    "python_code": "lambda x: jnp.prod(x)",
    "input_info": [
      {
        "shape": [
          10,
          2,
          10
        ],
        "dtype": "float32"
      }
    ],
    "jaxpr": "{ lambda ; a:f32[10,2,10]. let b:f32[] = reduce_prod[axes=(0, 1, 2)] a in (b,) }",
    "stablehlo": "module @jit__lambda attributes {mhlo.num_partitions = 1 : i32, mhlo.num_replicas = 1 : i32} {\n  func.func public @main(%arg0: tensor<10x2x10xf32>) -> (tensor<f32> {jax.result_info = \"result\"}) {\n    %cst = stablehlo.constant dense<1.000000e+00> : tensor<f32>\n    %0 = stablehlo.reduce(%arg0 init: %cst) applies stablehlo.multiply across dimensions = [0, 1, 2] : (tensor<10x2x10xf32>, tensor<f32>) -> tensor<f32>\n    return %0 : tensor<f32>\n  }\n}\n",
    "metadata": {
      "category": "reduction",
      "operation": "prod",
      "description": "Reduction: prod"
    }
  },
  {
    "python_code": "lambda x: jnp.min(x)",
    "input_info": [
      {
        "shape": [
          3,
          6,
          6
        ],
        "dtype": "float32"
      }
    ],
    "jaxpr": "{ lambda ; a:f32[3,6,6]. let b:f32[] = reduce_min[axes=(0, 1, 2)] a in (b,) }",
    "stablehlo": "module @jit__lambda attributes {mhlo.num_partitions = 1 : i32, mhlo.num_replicas = 1 : i32} {\n  func.func public @main(%arg0: tensor<3x6x6xf32>) -> (tensor<f32> {jax.result_info = \"result\"}) {\n    %cst = stablehlo.constant dense<0x7F800000> : tensor<f32>\n    %0 = stablehlo.reduce(%arg0 init: %cst) applies stablehlo.minimum across dimensions = [0, 1, 2] : (tensor<3x6x6xf32>, tensor<f32>) -> tensor<f32>\n    return %0 : tensor<f32>\n  }\n}\n",
    "metadata": {
      "category": "reduction",
      "operation": "min",
      "description": "Reduction: min"
    }
  },
  {
    "python_code": "lambda x: jnp.min(x)",
    "input_info": [
      {
        "shape": [
          9,
          5
        ],
        "dtype": "float32"
      }
    ],
    "jaxpr": "{ lambda ; a:f32[9,5]. let b:f32[] = reduce_min[axes=(0, 1)] a in (b,) }",
    "stablehlo": "module @jit__lambda attributes {mhlo.num_partitions = 1 : i32, mhlo.num_replicas = 1 : i32} {\n  func.func public @main(%arg0: tensor<9x5xf32>) -> (tensor<f32> {jax.result_info = \"result\"}) {\n    %cst = stablehlo.constant dense<0x7F800000> : tensor<f32>\n    %0 = stablehlo.reduce(%arg0 init: %cst) applies stablehlo.minimum across dimensions = [0, 1] : (tensor<9x5xf32>, tensor<f32>) -> tensor<f32>\n    return %0 : tensor<f32>\n  }\n}\n",
    "metadata": {
      "category": "reduction",
      "operation": "min",
      "description": "Reduction: min"
    }
  },
  {
    "python_code": "lambda x: jnp.min(x)",
    "input_info": [
      {
        "shape": [
          4,
          6
        ],
        "dtype": "float32"
      }
    ],
    "jaxpr": "{ lambda ; a:f32[4,6]. let b:f32[] = reduce_min[axes=(0, 1)] a in (b,) }",
    "stablehlo": "module @jit__lambda attributes {mhlo.num_partitions = 1 : i32, mhlo.num_replicas = 1 : i32} {\n  func.func public @main(%arg0: tensor<4x6xf32>) -> (tensor<f32> {jax.result_info = \"result\"}) {\n    %cst = stablehlo.constant dense<0x7F800000> : tensor<f32>\n    %0 = stablehlo.reduce(%arg0 init: %cst) applies stablehlo.minimum across dimensions = [0, 1] : (tensor<4x6xf32>, tensor<f32>) -> tensor<f32>\n    return %0 : tensor<f32>\n  }\n}\n",
    "metadata": {
      "category": "reduction",
      "operation": "min",
      "description": "Reduction: min"
    }
  },
  {
    "python_code": "lambda x: jnp.mean(x)",
    "input_info": [
      {
        "shape": [
          8,
          3
        ],
        "dtype": "float32"
      }
    ],
    "jaxpr": "{ lambda ; a:f32[8,3]. let\n    b:f32[] = reduce_sum[axes=(0, 1) out_sharding=None] a\n    c:f32[] = div b 24.0:f32[]\n  in (c,) }",
    "stablehlo": "module @jit__lambda attributes {mhlo.num_partitions = 1 : i32, mhlo.num_replicas = 1 : i32} {\n  func.func public @main(%arg0: tensor<8x3xf32>) -> (tensor<f32> {jax.result_info = \"result\"}) {\n    %cst = stablehlo.constant dense<0.000000e+00> : tensor<f32>\n    %0 = stablehlo.reduce(%arg0 init: %cst) applies stablehlo.add across dimensions = [0, 1] : (tensor<8x3xf32>, tensor<f32>) -> tensor<f32>\n    %cst_0 = stablehlo.constant dense<2.400000e+01> : tensor<f32>\n    %1 = stablehlo.divide %0, %cst_0 : tensor<f32>\n    return %1 : tensor<f32>\n  }\n}\n",
    "metadata": {
      "category": "reduction",
      "operation": "mean",
      "description": "Reduction: mean"
    }
  },
  {
    "python_code": "lambda x: jnp.min(x)",
    "input_info": [
      {
        "shape": [
          7,
          9,
          5
        ],
        "dtype": "float32"
      }
    ],
    "jaxpr": "{ lambda ; a:f32[7,9,5]. let b:f32[] = reduce_min[axes=(0, 1, 2)] a in (b,) }",
    "stablehlo": "module @jit__lambda attributes {mhlo.num_partitions = 1 : i32, mhlo.num_replicas = 1 : i32} {\n  func.func public @main(%arg0: tensor<7x9x5xf32>) -> (tensor<f32> {jax.result_info = \"result\"}) {\n    %cst = stablehlo.constant dense<0x7F800000> : tensor<f32>\n    %0 = stablehlo.reduce(%arg0 init: %cst) applies stablehlo.minimum across dimensions = [0, 1, 2] : (tensor<7x9x5xf32>, tensor<f32>) -> tensor<f32>\n    return %0 : tensor<f32>\n  }\n}\n",
    "metadata": {
      "category": "reduction",
      "operation": "min",
      "description": "Reduction: min"
    }
  },
  {
    "python_code": "lambda x: jnp.sum(x, axis=0)",
    "input_info": [
      {
        "shape": [
          2,
          10
        ],
        "dtype": "float32"
      }
    ],
    "jaxpr": "{ lambda ; a:f32[2,10]. let\n    b:f32[10] = reduce_sum[axes=(0,) out_sharding=None] a\n  in (b,) }",
    "stablehlo": "module @jit__lambda attributes {mhlo.num_partitions = 1 : i32, mhlo.num_replicas = 1 : i32} {\n  func.func public @main(%arg0: tensor<2x10xf32>) -> (tensor<10xf32> {jax.result_info = \"result\"}) {\n    %cst = stablehlo.constant dense<0.000000e+00> : tensor<f32>\n    %0 = stablehlo.reduce(%arg0 init: %cst) applies stablehlo.add across dimensions = [0] : (tensor<2x10xf32>, tensor<f32>) -> tensor<10xf32>\n    return %0 : tensor<10xf32>\n  }\n}\n",
    "metadata": {
      "category": "reduction",
      "operation": "sum_axis0",
      "description": "Reduction: sum_axis0"
    }
  },
  {
    "python_code": "lambda x: jnp.max(x)",
    "input_info": [
      {
        "shape": [
          8,
          7
        ],
        "dtype": "float32"
      }
    ],
    "jaxpr": "{ lambda ; a:f32[8,7]. let b:f32[] = reduce_max[axes=(0, 1)] a in (b,) }",
    "stablehlo": "module @jit__lambda attributes {mhlo.num_partitions = 1 : i32, mhlo.num_replicas = 1 : i32} {\n  func.func public @main(%arg0: tensor<8x7xf32>) -> (tensor<f32> {jax.result_info = \"result\"}) {\n    %cst = stablehlo.constant dense<0xFF800000> : tensor<f32>\n    %0 = stablehlo.reduce(%arg0 init: %cst) applies stablehlo.maximum across dimensions = [0, 1] : (tensor<8x7xf32>, tensor<f32>) -> tensor<f32>\n    return %0 : tensor<f32>\n  }\n}\n",
    "metadata": {
      "category": "reduction",
      "operation": "max",
      "description": "Reduction: max"
    }
  },
  {
    "python_code": "lambda x: jnp.mean(x, axis=0)",
    "input_info": [
      {
        "shape": [
          7,
          9
        ],
        "dtype": "float32"
      }
    ],
    "jaxpr": "{ lambda ; a:f32[7,9]. let\n    b:f32[9] = reduce_sum[axes=(0,) out_sharding=None] a\n    c:f32[9] = div b 7.0:f32[]\n  in (c,) }",
    "stablehlo": "module @jit__lambda attributes {mhlo.num_partitions = 1 : i32, mhlo.num_replicas = 1 : i32} {\n  func.func public @main(%arg0: tensor<7x9xf32>) -> (tensor<9xf32> {jax.result_info = \"result\"}) {\n    %cst = stablehlo.constant dense<0.000000e+00> : tensor<f32>\n    %0 = stablehlo.reduce(%arg0 init: %cst) applies stablehlo.add across dimensions = [0] : (tensor<7x9xf32>, tensor<f32>) -> tensor<9xf32>\n    %cst_0 = stablehlo.constant dense<7.000000e+00> : tensor<f32>\n    %1 = stablehlo.broadcast_in_dim %cst_0, dims = [] : (tensor<f32>) -> tensor<9xf32>\n    %2 = stablehlo.divide %0, %1 : tensor<9xf32>\n    return %2 : tensor<9xf32>\n  }\n}\n",
    "metadata": {
      "category": "reduction",
      "operation": "mean_axis0",
      "description": "Reduction: mean_axis0"
    }
  },
  {
    "python_code": "lambda x: jnp.mean(x)",
    "input_info": [
      {
        "shape": [
          7,
          6,
          7
        ],
        "dtype": "float32"
      }
    ],
    "jaxpr": "{ lambda ; a:f32[7,6,7]. let\n    b:f32[] = reduce_sum[axes=(0, 1, 2) out_sharding=None] a\n    c:f32[] = div b 294.0:f32[]\n  in (c,) }",
    "stablehlo": "module @jit__lambda attributes {mhlo.num_partitions = 1 : i32, mhlo.num_replicas = 1 : i32} {\n  func.func public @main(%arg0: tensor<7x6x7xf32>) -> (tensor<f32> {jax.result_info = \"result\"}) {\n    %cst = stablehlo.constant dense<0.000000e+00> : tensor<f32>\n    %0 = stablehlo.reduce(%arg0 init: %cst) applies stablehlo.add across dimensions = [0, 1, 2] : (tensor<7x6x7xf32>, tensor<f32>) -> tensor<f32>\n    %cst_0 = stablehlo.constant dense<2.940000e+02> : tensor<f32>\n    %1 = stablehlo.divide %0, %cst_0 : tensor<f32>\n    return %1 : tensor<f32>\n  }\n}\n",
    "metadata": {
      "category": "reduction",
      "operation": "mean",
      "description": "Reduction: mean"
    }
  },
  {
    "python_code": "lambda x: jnp.prod(x)",
    "input_info": [
      {
        "shape": [
          3,
          10
        ],
        "dtype": "float32"
      }
    ],
    "jaxpr": "{ lambda ; a:f32[3,10]. let b:f32[] = reduce_prod[axes=(0, 1)] a in (b,) }",
    "stablehlo": "module @jit__lambda attributes {mhlo.num_partitions = 1 : i32, mhlo.num_replicas = 1 : i32} {\n  func.func public @main(%arg0: tensor<3x10xf32>) -> (tensor<f32> {jax.result_info = \"result\"}) {\n    %cst = stablehlo.constant dense<1.000000e+00> : tensor<f32>\n    %0 = stablehlo.reduce(%arg0 init: %cst) applies stablehlo.multiply across dimensions = [0, 1] : (tensor<3x10xf32>, tensor<f32>) -> tensor<f32>\n    return %0 : tensor<f32>\n  }\n}\n",
    "metadata": {
      "category": "reduction",
      "operation": "prod",
      "description": "Reduction: prod"
    }
  },
  {
    "python_code": "lambda x: jnp.sum(x, axis=0)",
    "input_info": [
      {
        "shape": [
          2,
          2
        ],
        "dtype": "float32"
      }
    ],
    "jaxpr": "{ lambda ; a:f32[2,2]. let\n    b:f32[2] = reduce_sum[axes=(0,) out_sharding=None] a\n  in (b,) }",
    "stablehlo": "module @jit__lambda attributes {mhlo.num_partitions = 1 : i32, mhlo.num_replicas = 1 : i32} {\n  func.func public @main(%arg0: tensor<2x2xf32>) -> (tensor<2xf32> {jax.result_info = \"result\"}) {\n    %cst = stablehlo.constant dense<0.000000e+00> : tensor<f32>\n    %0 = stablehlo.reduce(%arg0 init: %cst) applies stablehlo.add across dimensions = [0] : (tensor<2x2xf32>, tensor<f32>) -> tensor<2xf32>\n    return %0 : tensor<2xf32>\n  }\n}\n",
    "metadata": {
      "category": "reduction",
      "operation": "sum_axis0",
      "description": "Reduction: sum_axis0"
    }
  },
  {
    "python_code": "lambda x: jnp.min(x)",
    "input_info": [
      {
        "shape": [
          10,
          8
        ],
        "dtype": "float32"
      }
    ],
    "jaxpr": "{ lambda ; a:f32[10,8]. let b:f32[] = reduce_min[axes=(0, 1)] a in (b,) }",
    "stablehlo": "module @jit__lambda attributes {mhlo.num_partitions = 1 : i32, mhlo.num_replicas = 1 : i32} {\n  func.func public @main(%arg0: tensor<10x8xf32>) -> (tensor<f32> {jax.result_info = \"result\"}) {\n    %cst = stablehlo.constant dense<0x7F800000> : tensor<f32>\n    %0 = stablehlo.reduce(%arg0 init: %cst) applies stablehlo.minimum across dimensions = [0, 1] : (tensor<10x8xf32>, tensor<f32>) -> tensor<f32>\n    return %0 : tensor<f32>\n  }\n}\n",
    "metadata": {
      "category": "reduction",
      "operation": "min",
      "description": "Reduction: min"
    }
  },
  {
    "python_code": "lambda x: jnp.mean(x, axis=0)",
    "input_info": [
      {
        "shape": [
          9,
          8
        ],
        "dtype": "float32"
      }
    ],
    "jaxpr": "{ lambda ; a:f32[9,8]. let\n    b:f32[8] = reduce_sum[axes=(0,) out_sharding=None] a\n    c:f32[8] = div b 9.0:f32[]\n  in (c,) }",
    "stablehlo": "module @jit__lambda attributes {mhlo.num_partitions = 1 : i32, mhlo.num_replicas = 1 : i32} {\n  func.func public @main(%arg0: tensor<9x8xf32>) -> (tensor<8xf32> {jax.result_info = \"result\"}) {\n    %cst = stablehlo.constant dense<0.000000e+00> : tensor<f32>\n    %0 = stablehlo.reduce(%arg0 init: %cst) applies stablehlo.add across dimensions = [0] : (tensor<9x8xf32>, tensor<f32>) -> tensor<8xf32>\n    %cst_0 = stablehlo.constant dense<9.000000e+00> : tensor<f32>\n    %1 = stablehlo.broadcast_in_dim %cst_0, dims = [] : (tensor<f32>) -> tensor<8xf32>\n    %2 = stablehlo.divide %0, %1 : tensor<8xf32>\n    return %2 : tensor<8xf32>\n  }\n}\n",
    "metadata": {
      "category": "reduction",
      "operation": "mean_axis0",
      "description": "Reduction: mean_axis0"
    }
  },
  {
    "python_code": "lambda x: jnp.sum(x)",
    "input_info": [
      {
        "shape": [
          8
        ],
        "dtype": "float32"
      }
    ],
    "jaxpr": "{ lambda ; a:f32[8]. let\n    b:f32[] = reduce_sum[axes=(0,) out_sharding=None] a\n  in (b,) }",
    "stablehlo": "module @jit__lambda attributes {mhlo.num_partitions = 1 : i32, mhlo.num_replicas = 1 : i32} {\n  func.func public @main(%arg0: tensor<8xf32>) -> (tensor<f32> {jax.result_info = \"result\"}) {\n    %cst = stablehlo.constant dense<0.000000e+00> : tensor<f32>\n    %0 = stablehlo.reduce(%arg0 init: %cst) applies stablehlo.add across dimensions = [0] : (tensor<8xf32>, tensor<f32>) -> tensor<f32>\n    return %0 : tensor<f32>\n  }\n}\n",
    "metadata": {
      "category": "reduction",
      "operation": "sum",
      "description": "Reduction: sum"
    }
  },
  {
    "python_code": "lambda x: jnp.sum(x)",
    "input_info": [
      {
        "shape": [
          10,
          7
        ],
        "dtype": "float32"
      }
    ],
    "jaxpr": "{ lambda ; a:f32[10,7]. let\n    b:f32[] = reduce_sum[axes=(0, 1) out_sharding=None] a\n  in (b,) }",
    "stablehlo": "module @jit__lambda attributes {mhlo.num_partitions = 1 : i32, mhlo.num_replicas = 1 : i32} {\n  func.func public @main(%arg0: tensor<10x7xf32>) -> (tensor<f32> {jax.result_info = \"result\"}) {\n    %cst = stablehlo.constant dense<0.000000e+00> : tensor<f32>\n    %0 = stablehlo.reduce(%arg0 init: %cst) applies stablehlo.add across dimensions = [0, 1] : (tensor<10x7xf32>, tensor<f32>) -> tensor<f32>\n    return %0 : tensor<f32>\n  }\n}\n",
    "metadata": {
      "category": "reduction",
      "operation": "sum",
      "description": "Reduction: sum"
    }
  },
  {
    "python_code": "lambda x: jnp.sum(x, axis=0)",
    "input_info": [
      {
        "shape": [
          2,
          2
        ],
        "dtype": "float32"
      }
    ],
    "jaxpr": "{ lambda ; a:f32[2,2]. let\n    b:f32[2] = reduce_sum[axes=(0,) out_sharding=None] a\n  in (b,) }",
    "stablehlo": "module @jit__lambda attributes {mhlo.num_partitions = 1 : i32, mhlo.num_replicas = 1 : i32} {\n  func.func public @main(%arg0: tensor<2x2xf32>) -> (tensor<2xf32> {jax.result_info = \"result\"}) {\n    %cst = stablehlo.constant dense<0.000000e+00> : tensor<f32>\n    %0 = stablehlo.reduce(%arg0 init: %cst) applies stablehlo.add across dimensions = [0] : (tensor<2x2xf32>, tensor<f32>) -> tensor<2xf32>\n    return %0 : tensor<2xf32>\n  }\n}\n",
    "metadata": {
      "category": "reduction",
      "operation": "sum_axis0",
      "description": "Reduction: sum_axis0"
    }
  },
  {
    "python_code": "lambda x: jnp.sum(x, axis=0)",
    "input_info": [
      {
        "shape": [
          6,
          8
        ],
        "dtype": "float32"
      }
    ],
    "jaxpr": "{ lambda ; a:f32[6,8]. let\n    b:f32[8] = reduce_sum[axes=(0,) out_sharding=None] a\n  in (b,) }",
    "stablehlo": "module @jit__lambda attributes {mhlo.num_partitions = 1 : i32, mhlo.num_replicas = 1 : i32} {\n  func.func public @main(%arg0: tensor<6x8xf32>) -> (tensor<8xf32> {jax.result_info = \"result\"}) {\n    %cst = stablehlo.constant dense<0.000000e+00> : tensor<f32>\n    %0 = stablehlo.reduce(%arg0 init: %cst) applies stablehlo.add across dimensions = [0] : (tensor<6x8xf32>, tensor<f32>) -> tensor<8xf32>\n    return %0 : tensor<8xf32>\n  }\n}\n",
    "metadata": {
      "category": "reduction",
      "operation": "sum_axis0",
      "description": "Reduction: sum_axis0"
    }
  },
  {
    "python_code": "lambda x: jnp.sum(x)",
    "input_info": [
      {
        "shape": [
          3,
          6,
          6
        ],
        "dtype": "float32"
      }
    ],
    "jaxpr": "{ lambda ; a:f32[3,6,6]. let\n    b:f32[] = reduce_sum[axes=(0, 1, 2) out_sharding=None] a\n  in (b,) }",
    "stablehlo": "module @jit__lambda attributes {mhlo.num_partitions = 1 : i32, mhlo.num_replicas = 1 : i32} {\n  func.func public @main(%arg0: tensor<3x6x6xf32>) -> (tensor<f32> {jax.result_info = \"result\"}) {\n    %cst = stablehlo.constant dense<0.000000e+00> : tensor<f32>\n    %0 = stablehlo.reduce(%arg0 init: %cst) applies stablehlo.add across dimensions = [0, 1, 2] : (tensor<3x6x6xf32>, tensor<f32>) -> tensor<f32>\n    return %0 : tensor<f32>\n  }\n}\n",
    "metadata": {
      "category": "reduction",
      "operation": "sum",
      "description": "Reduction: sum"
    }
  },
  {
    "python_code": "lambda x: jnp.sum(x)",
    "input_info": [
      {
        "shape": [
          8
        ],
        "dtype": "float32"
      }
    ],
    "jaxpr": "{ lambda ; a:f32[8]. let\n    b:f32[] = reduce_sum[axes=(0,) out_sharding=None] a\n  in (b,) }",
    "stablehlo": "module @jit__lambda attributes {mhlo.num_partitions = 1 : i32, mhlo.num_replicas = 1 : i32} {\n  func.func public @main(%arg0: tensor<8xf32>) -> (tensor<f32> {jax.result_info = \"result\"}) {\n    %cst = stablehlo.constant dense<0.000000e+00> : tensor<f32>\n    %0 = stablehlo.reduce(%arg0 init: %cst) applies stablehlo.add across dimensions = [0] : (tensor<8xf32>, tensor<f32>) -> tensor<f32>\n    return %0 : tensor<f32>\n  }\n}\n",
    "metadata": {
      "category": "reduction",
      "operation": "sum",
      "description": "Reduction: sum"
    }
  },
  {
    "python_code": "lambda x: jnp.mean(x, axis=0)",
    "input_info": [
      {
        "shape": [
          3,
          4
        ],
        "dtype": "float32"
      }
    ],
    "jaxpr": "{ lambda ; a:f32[3,4]. let\n    b:f32[4] = reduce_sum[axes=(0,) out_sharding=None] a\n    c:f32[4] = div b 3.0:f32[]\n  in (c,) }",
    "stablehlo": "module @jit__lambda attributes {mhlo.num_partitions = 1 : i32, mhlo.num_replicas = 1 : i32} {\n  func.func public @main(%arg0: tensor<3x4xf32>) -> (tensor<4xf32> {jax.result_info = \"result\"}) {\n    %cst = stablehlo.constant dense<0.000000e+00> : tensor<f32>\n    %0 = stablehlo.reduce(%arg0 init: %cst) applies stablehlo.add across dimensions = [0] : (tensor<3x4xf32>, tensor<f32>) -> tensor<4xf32>\n    %cst_0 = stablehlo.constant dense<3.000000e+00> : tensor<f32>\n    %1 = stablehlo.broadcast_in_dim %cst_0, dims = [] : (tensor<f32>) -> tensor<4xf32>\n    %2 = stablehlo.divide %0, %1 : tensor<4xf32>\n    return %2 : tensor<4xf32>\n  }\n}\n",
    "metadata": {
      "category": "reduction",
      "operation": "mean_axis0",
      "description": "Reduction: mean_axis0"
    }
  },
  {
    "python_code": "lambda x: jnp.mean(x, axis=0)",
    "input_info": [
      {
        "shape": [
          6,
          8
        ],
        "dtype": "float32"
      }
    ],
    "jaxpr": "{ lambda ; a:f32[6,8]. let\n    b:f32[8] = reduce_sum[axes=(0,) out_sharding=None] a\n    c:f32[8] = div b 6.0:f32[]\n  in (c,) }",
    "stablehlo": "module @jit__lambda attributes {mhlo.num_partitions = 1 : i32, mhlo.num_replicas = 1 : i32} {\n  func.func public @main(%arg0: tensor<6x8xf32>) -> (tensor<8xf32> {jax.result_info = \"result\"}) {\n    %cst = stablehlo.constant dense<0.000000e+00> : tensor<f32>\n    %0 = stablehlo.reduce(%arg0 init: %cst) applies stablehlo.add across dimensions = [0] : (tensor<6x8xf32>, tensor<f32>) -> tensor<8xf32>\n    %cst_0 = stablehlo.constant dense<6.000000e+00> : tensor<f32>\n    %1 = stablehlo.broadcast_in_dim %cst_0, dims = [] : (tensor<f32>) -> tensor<8xf32>\n    %2 = stablehlo.divide %0, %1 : tensor<8xf32>\n    return %2 : tensor<8xf32>\n  }\n}\n",
    "metadata": {
      "category": "reduction",
      "operation": "mean_axis0",
      "description": "Reduction: mean_axis0"
    }
  },
  {
    "python_code": "lambda x: jnp.max(x)",
    "input_info": [
      {
        "shape": [
          3
        ],
        "dtype": "float32"
      }
    ],
    "jaxpr": "{ lambda ; a:f32[3]. let b:f32[] = reduce_max[axes=(0,)] a in (b,) }",
    "stablehlo": "module @jit__lambda attributes {mhlo.num_partitions = 1 : i32, mhlo.num_replicas = 1 : i32} {\n  func.func public @main(%arg0: tensor<3xf32>) -> (tensor<f32> {jax.result_info = \"result\"}) {\n    %cst = stablehlo.constant dense<0xFF800000> : tensor<f32>\n    %0 = stablehlo.reduce(%arg0 init: %cst) applies stablehlo.maximum across dimensions = [0] : (tensor<3xf32>, tensor<f32>) -> tensor<f32>\n    return %0 : tensor<f32>\n  }\n}\n",
    "metadata": {
      "category": "reduction",
      "operation": "max",
      "description": "Reduction: max"
    }
  },
  {
    "python_code": "lambda x: jnp.sum(x)",
    "input_info": [
      {
        "shape": [
          9
        ],
        "dtype": "float32"
      }
    ],
    "jaxpr": "{ lambda ; a:f32[9]. let\n    b:f32[] = reduce_sum[axes=(0,) out_sharding=None] a\n  in (b,) }",
    "stablehlo": "module @jit__lambda attributes {mhlo.num_partitions = 1 : i32, mhlo.num_replicas = 1 : i32} {\n  func.func public @main(%arg0: tensor<9xf32>) -> (tensor<f32> {jax.result_info = \"result\"}) {\n    %cst = stablehlo.constant dense<0.000000e+00> : tensor<f32>\n    %0 = stablehlo.reduce(%arg0 init: %cst) applies stablehlo.add across dimensions = [0] : (tensor<9xf32>, tensor<f32>) -> tensor<f32>\n    return %0 : tensor<f32>\n  }\n}\n",
    "metadata": {
      "category": "reduction",
      "operation": "sum",
      "description": "Reduction: sum"
    }
  },
  {
    "python_code": "lambda x: jnp.sum(x)",
    "input_info": [
      {
        "shape": [
          2,
          5
        ],
        "dtype": "float32"
      }
    ],
    "jaxpr": "{ lambda ; a:f32[2,5]. let\n    b:f32[] = reduce_sum[axes=(0, 1) out_sharding=None] a\n  in (b,) }",
    "stablehlo": "module @jit__lambda attributes {mhlo.num_partitions = 1 : i32, mhlo.num_replicas = 1 : i32} {\n  func.func public @main(%arg0: tensor<2x5xf32>) -> (tensor<f32> {jax.result_info = \"result\"}) {\n    %cst = stablehlo.constant dense<0.000000e+00> : tensor<f32>\n    %0 = stablehlo.reduce(%arg0 init: %cst) applies stablehlo.add across dimensions = [0, 1] : (tensor<2x5xf32>, tensor<f32>) -> tensor<f32>\n    return %0 : tensor<f32>\n  }\n}\n",
    "metadata": {
      "category": "reduction",
      "operation": "sum",
      "description": "Reduction: sum"
    }
  },
  {
    "python_code": "lambda x: jnp.prod(x)",
    "input_info": [
      {
        "shape": [
          2
        ],
        "dtype": "float32"
      }
    ],
    "jaxpr": "{ lambda ; a:f32[2]. let b:f32[] = reduce_prod[axes=(0,)] a in (b,) }",
    "stablehlo": "module @jit__lambda attributes {mhlo.num_partitions = 1 : i32, mhlo.num_replicas = 1 : i32} {\n  func.func public @main(%arg0: tensor<2xf32>) -> (tensor<f32> {jax.result_info = \"result\"}) {\n    %cst = stablehlo.constant dense<1.000000e+00> : tensor<f32>\n    %0 = stablehlo.reduce(%arg0 init: %cst) applies stablehlo.multiply across dimensions = [0] : (tensor<2xf32>, tensor<f32>) -> tensor<f32>\n    return %0 : tensor<f32>\n  }\n}\n",
    "metadata": {
      "category": "reduction",
      "operation": "prod",
      "description": "Reduction: prod"
    }
  },
  {
    "python_code": "lambda x: jnp.max(x)",
    "input_info": [
      {
        "shape": [
          9
        ],
        "dtype": "float32"
      }
    ],
    "jaxpr": "{ lambda ; a:f32[9]. let b:f32[] = reduce_max[axes=(0,)] a in (b,) }",
    "stablehlo": "module @jit__lambda attributes {mhlo.num_partitions = 1 : i32, mhlo.num_replicas = 1 : i32} {\n  func.func public @main(%arg0: tensor<9xf32>) -> (tensor<f32> {jax.result_info = \"result\"}) {\n    %cst = stablehlo.constant dense<0xFF800000> : tensor<f32>\n    %0 = stablehlo.reduce(%arg0 init: %cst) applies stablehlo.maximum across dimensions = [0] : (tensor<9xf32>, tensor<f32>) -> tensor<f32>\n    return %0 : tensor<f32>\n  }\n}\n",
    "metadata": {
      "category": "reduction",
      "operation": "max",
      "description": "Reduction: max"
    }
  },
  {
    "python_code": "lambda x: jnp.min(x)",
    "input_info": [
      {
        "shape": [
          4,
          3,
          8
        ],
        "dtype": "float32"
      }
    ],
    "jaxpr": "{ lambda ; a:f32[4,3,8]. let b:f32[] = reduce_min[axes=(0, 1, 2)] a in (b,) }",
    "stablehlo": "module @jit__lambda attributes {mhlo.num_partitions = 1 : i32, mhlo.num_replicas = 1 : i32} {\n  func.func public @main(%arg0: tensor<4x3x8xf32>) -> (tensor<f32> {jax.result_info = \"result\"}) {\n    %cst = stablehlo.constant dense<0x7F800000> : tensor<f32>\n    %0 = stablehlo.reduce(%arg0 init: %cst) applies stablehlo.minimum across dimensions = [0, 1, 2] : (tensor<4x3x8xf32>, tensor<f32>) -> tensor<f32>\n    return %0 : tensor<f32>\n  }\n}\n",
    "metadata": {
      "category": "reduction",
      "operation": "min",
      "description": "Reduction: min"
    }
  },
  {
    "python_code": "lambda x: jnp.min(x)",
    "input_info": [
      {
        "shape": [
          2,
          5,
          7
        ],
        "dtype": "float32"
      }
    ],
    "jaxpr": "{ lambda ; a:f32[2,5,7]. let b:f32[] = reduce_min[axes=(0, 1, 2)] a in (b,) }",
    "stablehlo": "module @jit__lambda attributes {mhlo.num_partitions = 1 : i32, mhlo.num_replicas = 1 : i32} {\n  func.func public @main(%arg0: tensor<2x5x7xf32>) -> (tensor<f32> {jax.result_info = \"result\"}) {\n    %cst = stablehlo.constant dense<0x7F800000> : tensor<f32>\n    %0 = stablehlo.reduce(%arg0 init: %cst) applies stablehlo.minimum across dimensions = [0, 1, 2] : (tensor<2x5x7xf32>, tensor<f32>) -> tensor<f32>\n    return %0 : tensor<f32>\n  }\n}\n",
    "metadata": {
      "category": "reduction",
      "operation": "min",
      "description": "Reduction: min"
    }
  },
  {
    "python_code": "lambda x: jnp.sum(x)",
    "input_info": [
      {
        "shape": [
          2
        ],
        "dtype": "float32"
      }
    ],
    "jaxpr": "{ lambda ; a:f32[2]. let\n    b:f32[] = reduce_sum[axes=(0,) out_sharding=None] a\n  in (b,) }",
    "stablehlo": "module @jit__lambda attributes {mhlo.num_partitions = 1 : i32, mhlo.num_replicas = 1 : i32} {\n  func.func public @main(%arg0: tensor<2xf32>) -> (tensor<f32> {jax.result_info = \"result\"}) {\n    %cst = stablehlo.constant dense<0.000000e+00> : tensor<f32>\n    %0 = stablehlo.reduce(%arg0 init: %cst) applies stablehlo.add across dimensions = [0] : (tensor<2xf32>, tensor<f32>) -> tensor<f32>\n    return %0 : tensor<f32>\n  }\n}\n",
    "metadata": {
      "category": "reduction",
      "operation": "sum",
      "description": "Reduction: sum"
    }
  },
  {
    "python_code": "lambda x: jnp.mean(x)",
    "input_info": [
      {
        "shape": [
          5,
          5,
          2
        ],
        "dtype": "float32"
      }
    ],
    "jaxpr": "{ lambda ; a:f32[5,5,2]. let\n    b:f32[] = reduce_sum[axes=(0, 1, 2) out_sharding=None] a\n    c:f32[] = div b 50.0:f32[]\n  in (c,) }",
    "stablehlo": "module @jit__lambda attributes {mhlo.num_partitions = 1 : i32, mhlo.num_replicas = 1 : i32} {\n  func.func public @main(%arg0: tensor<5x5x2xf32>) -> (tensor<f32> {jax.result_info = \"result\"}) {\n    %cst = stablehlo.constant dense<0.000000e+00> : tensor<f32>\n    %0 = stablehlo.reduce(%arg0 init: %cst) applies stablehlo.add across dimensions = [0, 1, 2] : (tensor<5x5x2xf32>, tensor<f32>) -> tensor<f32>\n    %cst_0 = stablehlo.constant dense<5.000000e+01> : tensor<f32>\n    %1 = stablehlo.divide %0, %cst_0 : tensor<f32>\n    return %1 : tensor<f32>\n  }\n}\n",
    "metadata": {
      "category": "reduction",
      "operation": "mean",
      "description": "Reduction: mean"
    }
  },
  {
    "python_code": "lambda x: jnp.mean(x)",
    "input_info": [
      {
        "shape": [
          3,
          6,
          3
        ],
        "dtype": "float32"
      }
    ],
    "jaxpr": "{ lambda ; a:f32[3,6,3]. let\n    b:f32[] = reduce_sum[axes=(0, 1, 2) out_sharding=None] a\n    c:f32[] = div b 54.0:f32[]\n  in (c,) }",
    "stablehlo": "module @jit__lambda attributes {mhlo.num_partitions = 1 : i32, mhlo.num_replicas = 1 : i32} {\n  func.func public @main(%arg0: tensor<3x6x3xf32>) -> (tensor<f32> {jax.result_info = \"result\"}) {\n    %cst = stablehlo.constant dense<0.000000e+00> : tensor<f32>\n    %0 = stablehlo.reduce(%arg0 init: %cst) applies stablehlo.add across dimensions = [0, 1, 2] : (tensor<3x6x3xf32>, tensor<f32>) -> tensor<f32>\n    %cst_0 = stablehlo.constant dense<5.400000e+01> : tensor<f32>\n    %1 = stablehlo.divide %0, %cst_0 : tensor<f32>\n    return %1 : tensor<f32>\n  }\n}\n",
    "metadata": {
      "category": "reduction",
      "operation": "mean",
      "description": "Reduction: mean"
    }
  },
  {
    "python_code": "lambda x: jnp.max(x)",
    "input_info": [
      {
        "shape": [
          3,
          8
        ],
        "dtype": "float32"
      }
    ],
    "jaxpr": "{ lambda ; a:f32[3,8]. let b:f32[] = reduce_max[axes=(0, 1)] a in (b,) }",
    "stablehlo": "module @jit__lambda attributes {mhlo.num_partitions = 1 : i32, mhlo.num_replicas = 1 : i32} {\n  func.func public @main(%arg0: tensor<3x8xf32>) -> (tensor<f32> {jax.result_info = \"result\"}) {\n    %cst = stablehlo.constant dense<0xFF800000> : tensor<f32>\n    %0 = stablehlo.reduce(%arg0 init: %cst) applies stablehlo.maximum across dimensions = [0, 1] : (tensor<3x8xf32>, tensor<f32>) -> tensor<f32>\n    return %0 : tensor<f32>\n  }\n}\n",
    "metadata": {
      "category": "reduction",
      "operation": "max",
      "description": "Reduction: max"
    }
  },
  {
    "python_code": "lambda x: jnp.mean(x)",
    "input_info": [
      {
        "shape": [
          3,
          3,
          4
        ],
        "dtype": "float32"
      }
    ],
    "jaxpr": "{ lambda ; a:f32[3,3,4]. let\n    b:f32[] = reduce_sum[axes=(0, 1, 2) out_sharding=None] a\n    c:f32[] = div b 36.0:f32[]\n  in (c,) }",
    "stablehlo": "module @jit__lambda attributes {mhlo.num_partitions = 1 : i32, mhlo.num_replicas = 1 : i32} {\n  func.func public @main(%arg0: tensor<3x3x4xf32>) -> (tensor<f32> {jax.result_info = \"result\"}) {\n    %cst = stablehlo.constant dense<0.000000e+00> : tensor<f32>\n    %0 = stablehlo.reduce(%arg0 init: %cst) applies stablehlo.add across dimensions = [0, 1, 2] : (tensor<3x3x4xf32>, tensor<f32>) -> tensor<f32>\n    %cst_0 = stablehlo.constant dense<3.600000e+01> : tensor<f32>\n    %1 = stablehlo.divide %0, %cst_0 : tensor<f32>\n    return %1 : tensor<f32>\n  }\n}\n",
    "metadata": {
      "category": "reduction",
      "operation": "mean",
      "description": "Reduction: mean"
    }
  },
  {
    "python_code": "lambda x: jnp.mean(x, axis=0)",
    "input_info": [
      {
        "shape": [
          7,
          10
        ],
        "dtype": "float32"
      }
    ],
    "jaxpr": "{ lambda ; a:f32[7,10]. let\n    b:f32[10] = reduce_sum[axes=(0,) out_sharding=None] a\n    c:f32[10] = div b 7.0:f32[]\n  in (c,) }",
    "stablehlo": "module @jit__lambda attributes {mhlo.num_partitions = 1 : i32, mhlo.num_replicas = 1 : i32} {\n  func.func public @main(%arg0: tensor<7x10xf32>) -> (tensor<10xf32> {jax.result_info = \"result\"}) {\n    %cst = stablehlo.constant dense<0.000000e+00> : tensor<f32>\n    %0 = stablehlo.reduce(%arg0 init: %cst) applies stablehlo.add across dimensions = [0] : (tensor<7x10xf32>, tensor<f32>) -> tensor<10xf32>\n    %cst_0 = stablehlo.constant dense<7.000000e+00> : tensor<f32>\n    %1 = stablehlo.broadcast_in_dim %cst_0, dims = [] : (tensor<f32>) -> tensor<10xf32>\n    %2 = stablehlo.divide %0, %1 : tensor<10xf32>\n    return %2 : tensor<10xf32>\n  }\n}\n",
    "metadata": {
      "category": "reduction",
      "operation": "mean_axis0",
      "description": "Reduction: mean_axis0"
    }
  },
  {
    "python_code": "lambda x: jnp.sum(x)",
    "input_info": [
      {
        "shape": [
          6,
          2
        ],
        "dtype": "float32"
      }
    ],
    "jaxpr": "{ lambda ; a:f32[6,2]. let\n    b:f32[] = reduce_sum[axes=(0, 1) out_sharding=None] a\n  in (b,) }",
    "stablehlo": "module @jit__lambda attributes {mhlo.num_partitions = 1 : i32, mhlo.num_replicas = 1 : i32} {\n  func.func public @main(%arg0: tensor<6x2xf32>) -> (tensor<f32> {jax.result_info = \"result\"}) {\n    %cst = stablehlo.constant dense<0.000000e+00> : tensor<f32>\n    %0 = stablehlo.reduce(%arg0 init: %cst) applies stablehlo.add across dimensions = [0, 1] : (tensor<6x2xf32>, tensor<f32>) -> tensor<f32>\n    return %0 : tensor<f32>\n  }\n}\n",
    "metadata": {
      "category": "reduction",
      "operation": "sum",
      "description": "Reduction: sum"
    }
  },
  {
    "python_code": "lambda x: jnp.min(x)",
    "input_info": [
      {
        "shape": [
          7,
          6
        ],
        "dtype": "float32"
      }
    ],
    "jaxpr": "{ lambda ; a:f32[7,6]. let b:f32[] = reduce_min[axes=(0, 1)] a in (b,) }",
    "stablehlo": "module @jit__lambda attributes {mhlo.num_partitions = 1 : i32, mhlo.num_replicas = 1 : i32} {\n  func.func public @main(%arg0: tensor<7x6xf32>) -> (tensor<f32> {jax.result_info = \"result\"}) {\n    %cst = stablehlo.constant dense<0x7F800000> : tensor<f32>\n    %0 = stablehlo.reduce(%arg0 init: %cst) applies stablehlo.minimum across dimensions = [0, 1] : (tensor<7x6xf32>, tensor<f32>) -> tensor<f32>\n    return %0 : tensor<f32>\n  }\n}\n",
    "metadata": {
      "category": "reduction",
      "operation": "min",
      "description": "Reduction: min"
    }
  },
  {
    "python_code": "lambda x: jnp.mean(x)",
    "input_info": [
      {
        "shape": [
          8,
          4
        ],
        "dtype": "float32"
      }
    ],
    "jaxpr": "{ lambda ; a:f32[8,4]. let\n    b:f32[] = reduce_sum[axes=(0, 1) out_sharding=None] a\n    c:f32[] = div b 32.0:f32[]\n  in (c,) }",
    "stablehlo": "module @jit__lambda attributes {mhlo.num_partitions = 1 : i32, mhlo.num_replicas = 1 : i32} {\n  func.func public @main(%arg0: tensor<8x4xf32>) -> (tensor<f32> {jax.result_info = \"result\"}) {\n    %cst = stablehlo.constant dense<0.000000e+00> : tensor<f32>\n    %0 = stablehlo.reduce(%arg0 init: %cst) applies stablehlo.add across dimensions = [0, 1] : (tensor<8x4xf32>, tensor<f32>) -> tensor<f32>\n    %cst_0 = stablehlo.constant dense<3.200000e+01> : tensor<f32>\n    %1 = stablehlo.divide %0, %cst_0 : tensor<f32>\n    return %1 : tensor<f32>\n  }\n}\n",
    "metadata": {
      "category": "reduction",
      "operation": "mean",
      "description": "Reduction: mean"
    }
  },
  {
    "python_code": "lambda x: jnp.min(x)",
    "input_info": [
      {
        "shape": [
          2,
          2
        ],
        "dtype": "float32"
      }
    ],
    "jaxpr": "{ lambda ; a:f32[2,2]. let b:f32[] = reduce_min[axes=(0, 1)] a in (b,) }",
    "stablehlo": "module @jit__lambda attributes {mhlo.num_partitions = 1 : i32, mhlo.num_replicas = 1 : i32} {\n  func.func public @main(%arg0: tensor<2x2xf32>) -> (tensor<f32> {jax.result_info = \"result\"}) {\n    %cst = stablehlo.constant dense<0x7F800000> : tensor<f32>\n    %0 = stablehlo.reduce(%arg0 init: %cst) applies stablehlo.minimum across dimensions = [0, 1] : (tensor<2x2xf32>, tensor<f32>) -> tensor<f32>\n    return %0 : tensor<f32>\n  }\n}\n",
    "metadata": {
      "category": "reduction",
      "operation": "min",
      "description": "Reduction: min"
    }
  },
  {
    "python_code": "lambda x: jnp.prod(x)",
    "input_info": [
      {
        "shape": [
          10,
          8,
          9
        ],
        "dtype": "float32"
      }
    ],
    "jaxpr": "{ lambda ; a:f32[10,8,9]. let b:f32[] = reduce_prod[axes=(0, 1, 2)] a in (b,) }",
    "stablehlo": "module @jit__lambda attributes {mhlo.num_partitions = 1 : i32, mhlo.num_replicas = 1 : i32} {\n  func.func public @main(%arg0: tensor<10x8x9xf32>) -> (tensor<f32> {jax.result_info = \"result\"}) {\n    %cst = stablehlo.constant dense<1.000000e+00> : tensor<f32>\n    %0 = stablehlo.reduce(%arg0 init: %cst) applies stablehlo.multiply across dimensions = [0, 1, 2] : (tensor<10x8x9xf32>, tensor<f32>) -> tensor<f32>\n    return %0 : tensor<f32>\n  }\n}\n",
    "metadata": {
      "category": "reduction",
      "operation": "prod",
      "description": "Reduction: prod"
    }
  },
  {
    "python_code": "lambda x: jnp.mean(x, axis=0)",
    "input_info": [
      {
        "shape": [
          10,
          10
        ],
        "dtype": "float32"
      }
    ],
    "jaxpr": "{ lambda ; a:f32[10,10]. let\n    b:f32[10] = reduce_sum[axes=(0,) out_sharding=None] a\n    c:f32[10] = div b 10.0:f32[]\n  in (c,) }",
    "stablehlo": "module @jit__lambda attributes {mhlo.num_partitions = 1 : i32, mhlo.num_replicas = 1 : i32} {\n  func.func public @main(%arg0: tensor<10x10xf32>) -> (tensor<10xf32> {jax.result_info = \"result\"}) {\n    %cst = stablehlo.constant dense<0.000000e+00> : tensor<f32>\n    %0 = stablehlo.reduce(%arg0 init: %cst) applies stablehlo.add across dimensions = [0] : (tensor<10x10xf32>, tensor<f32>) -> tensor<10xf32>\n    %cst_0 = stablehlo.constant dense<1.000000e+01> : tensor<f32>\n    %1 = stablehlo.broadcast_in_dim %cst_0, dims = [] : (tensor<f32>) -> tensor<10xf32>\n    %2 = stablehlo.divide %0, %1 : tensor<10xf32>\n    return %2 : tensor<10xf32>\n  }\n}\n",
    "metadata": {
      "category": "reduction",
      "operation": "mean_axis0",
      "description": "Reduction: mean_axis0"
    }
  },
  {
    "python_code": "lambda x: jnp.prod(x)",
    "input_info": [
      {
        "shape": [
          4
        ],
        "dtype": "float32"
      }
    ],
    "jaxpr": "{ lambda ; a:f32[4]. let b:f32[] = reduce_prod[axes=(0,)] a in (b,) }",
    "stablehlo": "module @jit__lambda attributes {mhlo.num_partitions = 1 : i32, mhlo.num_replicas = 1 : i32} {\n  func.func public @main(%arg0: tensor<4xf32>) -> (tensor<f32> {jax.result_info = \"result\"}) {\n    %cst = stablehlo.constant dense<1.000000e+00> : tensor<f32>\n    %0 = stablehlo.reduce(%arg0 init: %cst) applies stablehlo.multiply across dimensions = [0] : (tensor<4xf32>, tensor<f32>) -> tensor<f32>\n    return %0 : tensor<f32>\n  }\n}\n",
    "metadata": {
      "category": "reduction",
      "operation": "prod",
      "description": "Reduction: prod"
    }
  },
  {
    "python_code": "lambda x: jnp.prod(x)",
    "input_info": [
      {
        "shape": [
          6,
          4,
          7
        ],
        "dtype": "float32"
      }
    ],
    "jaxpr": "{ lambda ; a:f32[6,4,7]. let b:f32[] = reduce_prod[axes=(0, 1, 2)] a in (b,) }",
    "stablehlo": "module @jit__lambda attributes {mhlo.num_partitions = 1 : i32, mhlo.num_replicas = 1 : i32} {\n  func.func public @main(%arg0: tensor<6x4x7xf32>) -> (tensor<f32> {jax.result_info = \"result\"}) {\n    %cst = stablehlo.constant dense<1.000000e+00> : tensor<f32>\n    %0 = stablehlo.reduce(%arg0 init: %cst) applies stablehlo.multiply across dimensions = [0, 1, 2] : (tensor<6x4x7xf32>, tensor<f32>) -> tensor<f32>\n    return %0 : tensor<f32>\n  }\n}\n",
    "metadata": {
      "category": "reduction",
      "operation": "prod",
      "description": "Reduction: prod"
    }
  },
  {
    "python_code": "lambda x: jnp.sum(x)",
    "input_info": [
      {
        "shape": [
          2,
          8,
          2
        ],
        "dtype": "float32"
      }
    ],
    "jaxpr": "{ lambda ; a:f32[2,8,2]. let\n    b:f32[] = reduce_sum[axes=(0, 1, 2) out_sharding=None] a\n  in (b,) }",
    "stablehlo": "module @jit__lambda attributes {mhlo.num_partitions = 1 : i32, mhlo.num_replicas = 1 : i32} {\n  func.func public @main(%arg0: tensor<2x8x2xf32>) -> (tensor<f32> {jax.result_info = \"result\"}) {\n    %cst = stablehlo.constant dense<0.000000e+00> : tensor<f32>\n    %0 = stablehlo.reduce(%arg0 init: %cst) applies stablehlo.add across dimensions = [0, 1, 2] : (tensor<2x8x2xf32>, tensor<f32>) -> tensor<f32>\n    return %0 : tensor<f32>\n  }\n}\n",
    "metadata": {
      "category": "reduction",
      "operation": "sum",
      "description": "Reduction: sum"
    }
  },
  {
    "python_code": "lambda x: jnp.min(x)",
    "input_info": [
      {
        "shape": [
          3,
          6,
          9
        ],
        "dtype": "float32"
      }
    ],
    "jaxpr": "{ lambda ; a:f32[3,6,9]. let b:f32[] = reduce_min[axes=(0, 1, 2)] a in (b,) }",
    "stablehlo": "module @jit__lambda attributes {mhlo.num_partitions = 1 : i32, mhlo.num_replicas = 1 : i32} {\n  func.func public @main(%arg0: tensor<3x6x9xf32>) -> (tensor<f32> {jax.result_info = \"result\"}) {\n    %cst = stablehlo.constant dense<0x7F800000> : tensor<f32>\n    %0 = stablehlo.reduce(%arg0 init: %cst) applies stablehlo.minimum across dimensions = [0, 1, 2] : (tensor<3x6x9xf32>, tensor<f32>) -> tensor<f32>\n    return %0 : tensor<f32>\n  }\n}\n",
    "metadata": {
      "category": "reduction",
      "operation": "min",
      "description": "Reduction: min"
    }
  },
  {
    "python_code": "lambda x: jnp.mean(x, axis=0)",
    "input_info": [
      {
        "shape": [
          9,
          5
        ],
        "dtype": "float32"
      }
    ],
    "jaxpr": "{ lambda ; a:f32[9,5]. let\n    b:f32[5] = reduce_sum[axes=(0,) out_sharding=None] a\n    c:f32[5] = div b 9.0:f32[]\n  in (c,) }",
    "stablehlo": "module @jit__lambda attributes {mhlo.num_partitions = 1 : i32, mhlo.num_replicas = 1 : i32} {\n  func.func public @main(%arg0: tensor<9x5xf32>) -> (tensor<5xf32> {jax.result_info = \"result\"}) {\n    %cst = stablehlo.constant dense<0.000000e+00> : tensor<f32>\n    %0 = stablehlo.reduce(%arg0 init: %cst) applies stablehlo.add across dimensions = [0] : (tensor<9x5xf32>, tensor<f32>) -> tensor<5xf32>\n    %cst_0 = stablehlo.constant dense<9.000000e+00> : tensor<f32>\n    %1 = stablehlo.broadcast_in_dim %cst_0, dims = [] : (tensor<f32>) -> tensor<5xf32>\n    %2 = stablehlo.divide %0, %1 : tensor<5xf32>\n    return %2 : tensor<5xf32>\n  }\n}\n",
    "metadata": {
      "category": "reduction",
      "operation": "mean_axis0",
      "description": "Reduction: mean_axis0"
    }
  },
  {
    "python_code": "lambda x: jnp.mean(x, axis=0)",
    "input_info": [
      {
        "shape": [
          5,
          6
        ],
        "dtype": "float32"
      }
    ],
    "jaxpr": "{ lambda ; a:f32[5,6]. let\n    b:f32[6] = reduce_sum[axes=(0,) out_sharding=None] a\n    c:f32[6] = div b 5.0:f32[]\n  in (c,) }",
    "stablehlo": "module @jit__lambda attributes {mhlo.num_partitions = 1 : i32, mhlo.num_replicas = 1 : i32} {\n  func.func public @main(%arg0: tensor<5x6xf32>) -> (tensor<6xf32> {jax.result_info = \"result\"}) {\n    %cst = stablehlo.constant dense<0.000000e+00> : tensor<f32>\n    %0 = stablehlo.reduce(%arg0 init: %cst) applies stablehlo.add across dimensions = [0] : (tensor<5x6xf32>, tensor<f32>) -> tensor<6xf32>\n    %cst_0 = stablehlo.constant dense<5.000000e+00> : tensor<f32>\n    %1 = stablehlo.broadcast_in_dim %cst_0, dims = [] : (tensor<f32>) -> tensor<6xf32>\n    %2 = stablehlo.divide %0, %1 : tensor<6xf32>\n    return %2 : tensor<6xf32>\n  }\n}\n",
    "metadata": {
      "category": "reduction",
      "operation": "mean_axis0",
      "description": "Reduction: mean_axis0"
    }
  },
  {
    "python_code": "lambda x: jnp.max(x)",
    "input_info": [
      {
        "shape": [
          9
        ],
        "dtype": "float32"
      }
    ],
    "jaxpr": "{ lambda ; a:f32[9]. let b:f32[] = reduce_max[axes=(0,)] a in (b,) }",
    "stablehlo": "module @jit__lambda attributes {mhlo.num_partitions = 1 : i32, mhlo.num_replicas = 1 : i32} {\n  func.func public @main(%arg0: tensor<9xf32>) -> (tensor<f32> {jax.result_info = \"result\"}) {\n    %cst = stablehlo.constant dense<0xFF800000> : tensor<f32>\n    %0 = stablehlo.reduce(%arg0 init: %cst) applies stablehlo.maximum across dimensions = [0] : (tensor<9xf32>, tensor<f32>) -> tensor<f32>\n    return %0 : tensor<f32>\n  }\n}\n",
    "metadata": {
      "category": "reduction",
      "operation": "max",
      "description": "Reduction: max"
    }
  },
  {
    "python_code": "lambda x: jnp.min(x)",
    "input_info": [
      {
        "shape": [
          2
        ],
        "dtype": "float32"
      }
    ],
    "jaxpr": "{ lambda ; a:f32[2]. let b:f32[] = reduce_min[axes=(0,)] a in (b,) }",
    "stablehlo": "module @jit__lambda attributes {mhlo.num_partitions = 1 : i32, mhlo.num_replicas = 1 : i32} {\n  func.func public @main(%arg0: tensor<2xf32>) -> (tensor<f32> {jax.result_info = \"result\"}) {\n    %cst = stablehlo.constant dense<0x7F800000> : tensor<f32>\n    %0 = stablehlo.reduce(%arg0 init: %cst) applies stablehlo.minimum across dimensions = [0] : (tensor<2xf32>, tensor<f32>) -> tensor<f32>\n    return %0 : tensor<f32>\n  }\n}\n",
    "metadata": {
      "category": "reduction",
      "operation": "min",
      "description": "Reduction: min"
    }
  },
  {
    "python_code": "lambda x: jnp.mean(x)",
    "input_info": [
      {
        "shape": [
          9,
          2,
          10
        ],
        "dtype": "float32"
      }
    ],
    "jaxpr": "{ lambda ; a:f32[9,2,10]. let\n    b:f32[] = reduce_sum[axes=(0, 1, 2) out_sharding=None] a\n    c:f32[] = div b 180.0:f32[]\n  in (c,) }",
    "stablehlo": "module @jit__lambda attributes {mhlo.num_partitions = 1 : i32, mhlo.num_replicas = 1 : i32} {\n  func.func public @main(%arg0: tensor<9x2x10xf32>) -> (tensor<f32> {jax.result_info = \"result\"}) {\n    %cst = stablehlo.constant dense<0.000000e+00> : tensor<f32>\n    %0 = stablehlo.reduce(%arg0 init: %cst) applies stablehlo.add across dimensions = [0, 1, 2] : (tensor<9x2x10xf32>, tensor<f32>) -> tensor<f32>\n    %cst_0 = stablehlo.constant dense<1.800000e+02> : tensor<f32>\n    %1 = stablehlo.divide %0, %cst_0 : tensor<f32>\n    return %1 : tensor<f32>\n  }\n}\n",
    "metadata": {
      "category": "reduction",
      "operation": "mean",
      "description": "Reduction: mean"
    }
  },
  {
    "python_code": "lambda x: jnp.sum(x)",
    "input_info": [
      {
        "shape": [
          4
        ],
        "dtype": "float32"
      }
    ],
    "jaxpr": "{ lambda ; a:f32[4]. let\n    b:f32[] = reduce_sum[axes=(0,) out_sharding=None] a\n  in (b,) }",
    "stablehlo": "module @jit__lambda attributes {mhlo.num_partitions = 1 : i32, mhlo.num_replicas = 1 : i32} {\n  func.func public @main(%arg0: tensor<4xf32>) -> (tensor<f32> {jax.result_info = \"result\"}) {\n    %cst = stablehlo.constant dense<0.000000e+00> : tensor<f32>\n    %0 = stablehlo.reduce(%arg0 init: %cst) applies stablehlo.add across dimensions = [0] : (tensor<4xf32>, tensor<f32>) -> tensor<f32>\n    return %0 : tensor<f32>\n  }\n}\n",
    "metadata": {
      "category": "reduction",
      "operation": "sum",
      "description": "Reduction: sum"
    }
  },
  {
    "python_code": "lambda x: jnp.min(x)",
    "input_info": [
      {
        "shape": [
          5
        ],
        "dtype": "float32"
      }
    ],
    "jaxpr": "{ lambda ; a:f32[5]. let b:f32[] = reduce_min[axes=(0,)] a in (b,) }",
    "stablehlo": "module @jit__lambda attributes {mhlo.num_partitions = 1 : i32, mhlo.num_replicas = 1 : i32} {\n  func.func public @main(%arg0: tensor<5xf32>) -> (tensor<f32> {jax.result_info = \"result\"}) {\n    %cst = stablehlo.constant dense<0x7F800000> : tensor<f32>\n    %0 = stablehlo.reduce(%arg0 init: %cst) applies stablehlo.minimum across dimensions = [0] : (tensor<5xf32>, tensor<f32>) -> tensor<f32>\n    return %0 : tensor<f32>\n  }\n}\n",
    "metadata": {
      "category": "reduction",
      "operation": "min",
      "description": "Reduction: min"
    }
  },
  {
    "python_code": "lambda x: jnp.mean(x)",
    "input_info": [
      {
        "shape": [
          5,
          4,
          4
        ],
        "dtype": "float32"
      }
    ],
    "jaxpr": "{ lambda ; a:f32[5,4,4]. let\n    b:f32[] = reduce_sum[axes=(0, 1, 2) out_sharding=None] a\n    c:f32[] = div b 80.0:f32[]\n  in (c,) }",
    "stablehlo": "module @jit__lambda attributes {mhlo.num_partitions = 1 : i32, mhlo.num_replicas = 1 : i32} {\n  func.func public @main(%arg0: tensor<5x4x4xf32>) -> (tensor<f32> {jax.result_info = \"result\"}) {\n    %cst = stablehlo.constant dense<0.000000e+00> : tensor<f32>\n    %0 = stablehlo.reduce(%arg0 init: %cst) applies stablehlo.add across dimensions = [0, 1, 2] : (tensor<5x4x4xf32>, tensor<f32>) -> tensor<f32>\n    %cst_0 = stablehlo.constant dense<8.000000e+01> : tensor<f32>\n    %1 = stablehlo.divide %0, %cst_0 : tensor<f32>\n    return %1 : tensor<f32>\n  }\n}\n",
    "metadata": {
      "category": "reduction",
      "operation": "mean",
      "description": "Reduction: mean"
    }
  },
  {
    "python_code": "lambda x: jnp.max(x)",
    "input_info": [
      {
        "shape": [
          2
        ],
        "dtype": "float32"
      }
    ],
    "jaxpr": "{ lambda ; a:f32[2]. let b:f32[] = reduce_max[axes=(0,)] a in (b,) }",
    "stablehlo": "module @jit__lambda attributes {mhlo.num_partitions = 1 : i32, mhlo.num_replicas = 1 : i32} {\n  func.func public @main(%arg0: tensor<2xf32>) -> (tensor<f32> {jax.result_info = \"result\"}) {\n    %cst = stablehlo.constant dense<0xFF800000> : tensor<f32>\n    %0 = stablehlo.reduce(%arg0 init: %cst) applies stablehlo.maximum across dimensions = [0] : (tensor<2xf32>, tensor<f32>) -> tensor<f32>\n    return %0 : tensor<f32>\n  }\n}\n",
    "metadata": {
      "category": "reduction",
      "operation": "max",
      "description": "Reduction: max"
    }
  },
  {
    "python_code": "lambda x: jnp.sum(x)",
    "input_info": [
      {
        "shape": [
          8,
          10,
          7
        ],
        "dtype": "float32"
      }
    ],
    "jaxpr": "{ lambda ; a:f32[8,10,7]. let\n    b:f32[] = reduce_sum[axes=(0, 1, 2) out_sharding=None] a\n  in (b,) }",
    "stablehlo": "module @jit__lambda attributes {mhlo.num_partitions = 1 : i32, mhlo.num_replicas = 1 : i32} {\n  func.func public @main(%arg0: tensor<8x10x7xf32>) -> (tensor<f32> {jax.result_info = \"result\"}) {\n    %cst = stablehlo.constant dense<0.000000e+00> : tensor<f32>\n    %0 = stablehlo.reduce(%arg0 init: %cst) applies stablehlo.add across dimensions = [0, 1, 2] : (tensor<8x10x7xf32>, tensor<f32>) -> tensor<f32>\n    return %0 : tensor<f32>\n  }\n}\n",
    "metadata": {
      "category": "reduction",
      "operation": "sum",
      "description": "Reduction: sum"
    }
  },
  {
    "python_code": "lambda x: jnp.max(x)",
    "input_info": [
      {
        "shape": [
          8,
          2,
          8
        ],
        "dtype": "float32"
      }
    ],
    "jaxpr": "{ lambda ; a:f32[8,2,8]. let b:f32[] = reduce_max[axes=(0, 1, 2)] a in (b,) }",
    "stablehlo": "module @jit__lambda attributes {mhlo.num_partitions = 1 : i32, mhlo.num_replicas = 1 : i32} {\n  func.func public @main(%arg0: tensor<8x2x8xf32>) -> (tensor<f32> {jax.result_info = \"result\"}) {\n    %cst = stablehlo.constant dense<0xFF800000> : tensor<f32>\n    %0 = stablehlo.reduce(%arg0 init: %cst) applies stablehlo.maximum across dimensions = [0, 1, 2] : (tensor<8x2x8xf32>, tensor<f32>) -> tensor<f32>\n    return %0 : tensor<f32>\n  }\n}\n",
    "metadata": {
      "category": "reduction",
      "operation": "max",
      "description": "Reduction: max"
    }
  },
  {
    "python_code": "lambda x: jnp.prod(x)",
    "input_info": [
      {
        "shape": [
          2
        ],
        "dtype": "float32"
      }
    ],
    "jaxpr": "{ lambda ; a:f32[2]. let b:f32[] = reduce_prod[axes=(0,)] a in (b,) }",
    "stablehlo": "module @jit__lambda attributes {mhlo.num_partitions = 1 : i32, mhlo.num_replicas = 1 : i32} {\n  func.func public @main(%arg0: tensor<2xf32>) -> (tensor<f32> {jax.result_info = \"result\"}) {\n    %cst = stablehlo.constant dense<1.000000e+00> : tensor<f32>\n    %0 = stablehlo.reduce(%arg0 init: %cst) applies stablehlo.multiply across dimensions = [0] : (tensor<2xf32>, tensor<f32>) -> tensor<f32>\n    return %0 : tensor<f32>\n  }\n}\n",
    "metadata": {
      "category": "reduction",
      "operation": "prod",
      "description": "Reduction: prod"
    }
  },
  {
    "python_code": "lambda x: jnp.mean(x)",
    "input_info": [
      {
        "shape": [
          8,
          5
        ],
        "dtype": "float32"
      }
    ],
    "jaxpr": "{ lambda ; a:f32[8,5]. let\n    b:f32[] = reduce_sum[axes=(0, 1) out_sharding=None] a\n    c:f32[] = div b 40.0:f32[]\n  in (c,) }",
    "stablehlo": "module @jit__lambda attributes {mhlo.num_partitions = 1 : i32, mhlo.num_replicas = 1 : i32} {\n  func.func public @main(%arg0: tensor<8x5xf32>) -> (tensor<f32> {jax.result_info = \"result\"}) {\n    %cst = stablehlo.constant dense<0.000000e+00> : tensor<f32>\n    %0 = stablehlo.reduce(%arg0 init: %cst) applies stablehlo.add across dimensions = [0, 1] : (tensor<8x5xf32>, tensor<f32>) -> tensor<f32>\n    %cst_0 = stablehlo.constant dense<4.000000e+01> : tensor<f32>\n    %1 = stablehlo.divide %0, %cst_0 : tensor<f32>\n    return %1 : tensor<f32>\n  }\n}\n",
    "metadata": {
      "category": "reduction",
      "operation": "mean",
      "description": "Reduction: mean"
    }
  },
  {
    "python_code": "lambda x: jnp.prod(x)",
    "input_info": [
      {
        "shape": [
          9,
          7
        ],
        "dtype": "float32"
      }
    ],
    "jaxpr": "{ lambda ; a:f32[9,7]. let b:f32[] = reduce_prod[axes=(0, 1)] a in (b,) }",
    "stablehlo": "module @jit__lambda attributes {mhlo.num_partitions = 1 : i32, mhlo.num_replicas = 1 : i32} {\n  func.func public @main(%arg0: tensor<9x7xf32>) -> (tensor<f32> {jax.result_info = \"result\"}) {\n    %cst = stablehlo.constant dense<1.000000e+00> : tensor<f32>\n    %0 = stablehlo.reduce(%arg0 init: %cst) applies stablehlo.multiply across dimensions = [0, 1] : (tensor<9x7xf32>, tensor<f32>) -> tensor<f32>\n    return %0 : tensor<f32>\n  }\n}\n",
    "metadata": {
      "category": "reduction",
      "operation": "prod",
      "description": "Reduction: prod"
    }
  },
  {
    "python_code": "lambda x: jnp.mean(x)",
    "input_info": [
      {
        "shape": [
          2,
          7,
          2
        ],
        "dtype": "float32"
      }
    ],
    "jaxpr": "{ lambda ; a:f32[2,7,2]. let\n    b:f32[] = reduce_sum[axes=(0, 1, 2) out_sharding=None] a\n    c:f32[] = div b 28.0:f32[]\n  in (c,) }",
    "stablehlo": "module @jit__lambda attributes {mhlo.num_partitions = 1 : i32, mhlo.num_replicas = 1 : i32} {\n  func.func public @main(%arg0: tensor<2x7x2xf32>) -> (tensor<f32> {jax.result_info = \"result\"}) {\n    %cst = stablehlo.constant dense<0.000000e+00> : tensor<f32>\n    %0 = stablehlo.reduce(%arg0 init: %cst) applies stablehlo.add across dimensions = [0, 1, 2] : (tensor<2x7x2xf32>, tensor<f32>) -> tensor<f32>\n    %cst_0 = stablehlo.constant dense<2.800000e+01> : tensor<f32>\n    %1 = stablehlo.divide %0, %cst_0 : tensor<f32>\n    return %1 : tensor<f32>\n  }\n}\n",
    "metadata": {
      "category": "reduction",
      "operation": "mean",
      "description": "Reduction: mean"
    }
  },
  {
    "python_code": "lambda x: jnp.min(x)",
    "input_info": [
      {
        "shape": [
          5,
          9
        ],
        "dtype": "float32"
      }
    ],
    "jaxpr": "{ lambda ; a:f32[5,9]. let b:f32[] = reduce_min[axes=(0, 1)] a in (b,) }",
    "stablehlo": "module @jit__lambda attributes {mhlo.num_partitions = 1 : i32, mhlo.num_replicas = 1 : i32} {\n  func.func public @main(%arg0: tensor<5x9xf32>) -> (tensor<f32> {jax.result_info = \"result\"}) {\n    %cst = stablehlo.constant dense<0x7F800000> : tensor<f32>\n    %0 = stablehlo.reduce(%arg0 init: %cst) applies stablehlo.minimum across dimensions = [0, 1] : (tensor<5x9xf32>, tensor<f32>) -> tensor<f32>\n    return %0 : tensor<f32>\n  }\n}\n",
    "metadata": {
      "category": "reduction",
      "operation": "min",
      "description": "Reduction: min"
    }
  },
  {
    "python_code": "lambda x: jnp.max(x)",
    "input_info": [
      {
        "shape": [
          6,
          6,
          6
        ],
        "dtype": "float32"
      }
    ],
    "jaxpr": "{ lambda ; a:f32[6,6,6]. let b:f32[] = reduce_max[axes=(0, 1, 2)] a in (b,) }",
    "stablehlo": "module @jit__lambda attributes {mhlo.num_partitions = 1 : i32, mhlo.num_replicas = 1 : i32} {\n  func.func public @main(%arg0: tensor<6x6x6xf32>) -> (tensor<f32> {jax.result_info = \"result\"}) {\n    %cst = stablehlo.constant dense<0xFF800000> : tensor<f32>\n    %0 = stablehlo.reduce(%arg0 init: %cst) applies stablehlo.maximum across dimensions = [0, 1, 2] : (tensor<6x6x6xf32>, tensor<f32>) -> tensor<f32>\n    return %0 : tensor<f32>\n  }\n}\n",
    "metadata": {
      "category": "reduction",
      "operation": "max",
      "description": "Reduction: max"
    }
  },
  {
    "python_code": "lambda x: jnp.sum(x)",
    "input_info": [
      {
        "shape": [
          2,
          6
        ],
        "dtype": "float32"
      }
    ],
    "jaxpr": "{ lambda ; a:f32[2,6]. let\n    b:f32[] = reduce_sum[axes=(0, 1) out_sharding=None] a\n  in (b,) }",
    "stablehlo": "module @jit__lambda attributes {mhlo.num_partitions = 1 : i32, mhlo.num_replicas = 1 : i32} {\n  func.func public @main(%arg0: tensor<2x6xf32>) -> (tensor<f32> {jax.result_info = \"result\"}) {\n    %cst = stablehlo.constant dense<0.000000e+00> : tensor<f32>\n    %0 = stablehlo.reduce(%arg0 init: %cst) applies stablehlo.add across dimensions = [0, 1] : (tensor<2x6xf32>, tensor<f32>) -> tensor<f32>\n    return %0 : tensor<f32>\n  }\n}\n",
    "metadata": {
      "category": "reduction",
      "operation": "sum",
      "description": "Reduction: sum"
    }
  },
  {
    "python_code": "lambda x: jnp.min(x)",
    "input_info": [
      {
        "shape": [
          8,
          5,
          7
        ],
        "dtype": "float32"
      }
    ],
    "jaxpr": "{ lambda ; a:f32[8,5,7]. let b:f32[] = reduce_min[axes=(0, 1, 2)] a in (b,) }",
    "stablehlo": "module @jit__lambda attributes {mhlo.num_partitions = 1 : i32, mhlo.num_replicas = 1 : i32} {\n  func.func public @main(%arg0: tensor<8x5x7xf32>) -> (tensor<f32> {jax.result_info = \"result\"}) {\n    %cst = stablehlo.constant dense<0x7F800000> : tensor<f32>\n    %0 = stablehlo.reduce(%arg0 init: %cst) applies stablehlo.minimum across dimensions = [0, 1, 2] : (tensor<8x5x7xf32>, tensor<f32>) -> tensor<f32>\n    return %0 : tensor<f32>\n  }\n}\n",
    "metadata": {
      "category": "reduction",
      "operation": "min",
      "description": "Reduction: min"
    }
  },
  {
    "python_code": "lambda x: jnp.mean(x, axis=0)",
    "input_info": [
      {
        "shape": [
          6,
          4
        ],
        "dtype": "float32"
      }
    ],
    "jaxpr": "{ lambda ; a:f32[6,4]. let\n    b:f32[4] = reduce_sum[axes=(0,) out_sharding=None] a\n    c:f32[4] = div b 6.0:f32[]\n  in (c,) }",
    "stablehlo": "module @jit__lambda attributes {mhlo.num_partitions = 1 : i32, mhlo.num_replicas = 1 : i32} {\n  func.func public @main(%arg0: tensor<6x4xf32>) -> (tensor<4xf32> {jax.result_info = \"result\"}) {\n    %cst = stablehlo.constant dense<0.000000e+00> : tensor<f32>\n    %0 = stablehlo.reduce(%arg0 init: %cst) applies stablehlo.add across dimensions = [0] : (tensor<6x4xf32>, tensor<f32>) -> tensor<4xf32>\n    %cst_0 = stablehlo.constant dense<6.000000e+00> : tensor<f32>\n    %1 = stablehlo.broadcast_in_dim %cst_0, dims = [] : (tensor<f32>) -> tensor<4xf32>\n    %2 = stablehlo.divide %0, %1 : tensor<4xf32>\n    return %2 : tensor<4xf32>\n  }\n}\n",
    "metadata": {
      "category": "reduction",
      "operation": "mean_axis0",
      "description": "Reduction: mean_axis0"
    }
  },
  {
    "python_code": "lambda x: jnp.mean(x)",
    "input_info": [
      {
        "shape": [
          8
        ],
        "dtype": "float32"
      }
    ],
    "jaxpr": "{ lambda ; a:f32[8]. let\n    b:f32[] = reduce_sum[axes=(0,) out_sharding=None] a\n    c:f32[] = div b 8.0:f32[]\n  in (c,) }",
    "stablehlo": "module @jit__lambda attributes {mhlo.num_partitions = 1 : i32, mhlo.num_replicas = 1 : i32} {\n  func.func public @main(%arg0: tensor<8xf32>) -> (tensor<f32> {jax.result_info = \"result\"}) {\n    %cst = stablehlo.constant dense<0.000000e+00> : tensor<f32>\n    %0 = stablehlo.reduce(%arg0 init: %cst) applies stablehlo.add across dimensions = [0] : (tensor<8xf32>, tensor<f32>) -> tensor<f32>\n    %cst_0 = stablehlo.constant dense<8.000000e+00> : tensor<f32>\n    %1 = stablehlo.divide %0, %cst_0 : tensor<f32>\n    return %1 : tensor<f32>\n  }\n}\n",
    "metadata": {
      "category": "reduction",
      "operation": "mean",
      "description": "Reduction: mean"
    }
  },
  {
    "python_code": "lambda x: jnp.mean(x)",
    "input_info": [
      {
        "shape": [
          8
        ],
        "dtype": "float32"
      }
    ],
    "jaxpr": "{ lambda ; a:f32[8]. let\n    b:f32[] = reduce_sum[axes=(0,) out_sharding=None] a\n    c:f32[] = div b 8.0:f32[]\n  in (c,) }",
    "stablehlo": "module @jit__lambda attributes {mhlo.num_partitions = 1 : i32, mhlo.num_replicas = 1 : i32} {\n  func.func public @main(%arg0: tensor<8xf32>) -> (tensor<f32> {jax.result_info = \"result\"}) {\n    %cst = stablehlo.constant dense<0.000000e+00> : tensor<f32>\n    %0 = stablehlo.reduce(%arg0 init: %cst) applies stablehlo.add across dimensions = [0] : (tensor<8xf32>, tensor<f32>) -> tensor<f32>\n    %cst_0 = stablehlo.constant dense<8.000000e+00> : tensor<f32>\n    %1 = stablehlo.divide %0, %cst_0 : tensor<f32>\n    return %1 : tensor<f32>\n  }\n}\n",
    "metadata": {
      "category": "reduction",
      "operation": "mean",
      "description": "Reduction: mean"
    }
  },
  {
    "python_code": "lambda x: jnp.mean(x)",
    "input_info": [
      {
        "shape": [
          3
        ],
        "dtype": "float32"
      }
    ],
    "jaxpr": "{ lambda ; a:f32[3]. let\n    b:f32[] = reduce_sum[axes=(0,) out_sharding=None] a\n    c:f32[] = div b 3.0:f32[]\n  in (c,) }",
    "stablehlo": "module @jit__lambda attributes {mhlo.num_partitions = 1 : i32, mhlo.num_replicas = 1 : i32} {\n  func.func public @main(%arg0: tensor<3xf32>) -> (tensor<f32> {jax.result_info = \"result\"}) {\n    %cst = stablehlo.constant dense<0.000000e+00> : tensor<f32>\n    %0 = stablehlo.reduce(%arg0 init: %cst) applies stablehlo.add across dimensions = [0] : (tensor<3xf32>, tensor<f32>) -> tensor<f32>\n    %cst_0 = stablehlo.constant dense<3.000000e+00> : tensor<f32>\n    %1 = stablehlo.divide %0, %cst_0 : tensor<f32>\n    return %1 : tensor<f32>\n  }\n}\n",
    "metadata": {
      "category": "reduction",
      "operation": "mean",
      "description": "Reduction: mean"
    }
  },
  {
    "python_code": "lambda x: jnp.max(x)",
    "input_info": [
      {
        "shape": [
          7,
          9,
          8
        ],
        "dtype": "float32"
      }
    ],
    "jaxpr": "{ lambda ; a:f32[7,9,8]. let b:f32[] = reduce_max[axes=(0, 1, 2)] a in (b,) }",
    "stablehlo": "module @jit__lambda attributes {mhlo.num_partitions = 1 : i32, mhlo.num_replicas = 1 : i32} {\n  func.func public @main(%arg0: tensor<7x9x8xf32>) -> (tensor<f32> {jax.result_info = \"result\"}) {\n    %cst = stablehlo.constant dense<0xFF800000> : tensor<f32>\n    %0 = stablehlo.reduce(%arg0 init: %cst) applies stablehlo.maximum across dimensions = [0, 1, 2] : (tensor<7x9x8xf32>, tensor<f32>) -> tensor<f32>\n    return %0 : tensor<f32>\n  }\n}\n",
    "metadata": {
      "category": "reduction",
      "operation": "max",
      "description": "Reduction: max"
    }
  },
  {
    "python_code": "lambda x: jnp.prod(x)",
    "input_info": [
      {
        "shape": [
          2
        ],
        "dtype": "float32"
      }
    ],
    "jaxpr": "{ lambda ; a:f32[2]. let b:f32[] = reduce_prod[axes=(0,)] a in (b,) }",
    "stablehlo": "module @jit__lambda attributes {mhlo.num_partitions = 1 : i32, mhlo.num_replicas = 1 : i32} {\n  func.func public @main(%arg0: tensor<2xf32>) -> (tensor<f32> {jax.result_info = \"result\"}) {\n    %cst = stablehlo.constant dense<1.000000e+00> : tensor<f32>\n    %0 = stablehlo.reduce(%arg0 init: %cst) applies stablehlo.multiply across dimensions = [0] : (tensor<2xf32>, tensor<f32>) -> tensor<f32>\n    return %0 : tensor<f32>\n  }\n}\n",
    "metadata": {
      "category": "reduction",
      "operation": "prod",
      "description": "Reduction: prod"
    }
  },
  {
    "python_code": "lambda x: jnp.mean(x, axis=0)",
    "input_info": [
      {
        "shape": [
          8,
          8
        ],
        "dtype": "float32"
      }
    ],
    "jaxpr": "{ lambda ; a:f32[8,8]. let\n    b:f32[8] = reduce_sum[axes=(0,) out_sharding=None] a\n    c:f32[8] = div b 8.0:f32[]\n  in (c,) }",
    "stablehlo": "module @jit__lambda attributes {mhlo.num_partitions = 1 : i32, mhlo.num_replicas = 1 : i32} {\n  func.func public @main(%arg0: tensor<8x8xf32>) -> (tensor<8xf32> {jax.result_info = \"result\"}) {\n    %cst = stablehlo.constant dense<0.000000e+00> : tensor<f32>\n    %0 = stablehlo.reduce(%arg0 init: %cst) applies stablehlo.add across dimensions = [0] : (tensor<8x8xf32>, tensor<f32>) -> tensor<8xf32>\n    %cst_0 = stablehlo.constant dense<8.000000e+00> : tensor<f32>\n    %1 = stablehlo.broadcast_in_dim %cst_0, dims = [] : (tensor<f32>) -> tensor<8xf32>\n    %2 = stablehlo.divide %0, %1 : tensor<8xf32>\n    return %2 : tensor<8xf32>\n  }\n}\n",
    "metadata": {
      "category": "reduction",
      "operation": "mean_axis0",
      "description": "Reduction: mean_axis0"
    }
  },
  {
    "python_code": "lambda x: jnp.mean(x)",
    "input_info": [
      {
        "shape": [
          9,
          4
        ],
        "dtype": "float32"
      }
    ],
    "jaxpr": "{ lambda ; a:f32[9,4]. let\n    b:f32[] = reduce_sum[axes=(0, 1) out_sharding=None] a\n    c:f32[] = div b 36.0:f32[]\n  in (c,) }",
    "stablehlo": "module @jit__lambda attributes {mhlo.num_partitions = 1 : i32, mhlo.num_replicas = 1 : i32} {\n  func.func public @main(%arg0: tensor<9x4xf32>) -> (tensor<f32> {jax.result_info = \"result\"}) {\n    %cst = stablehlo.constant dense<0.000000e+00> : tensor<f32>\n    %0 = stablehlo.reduce(%arg0 init: %cst) applies stablehlo.add across dimensions = [0, 1] : (tensor<9x4xf32>, tensor<f32>) -> tensor<f32>\n    %cst_0 = stablehlo.constant dense<3.600000e+01> : tensor<f32>\n    %1 = stablehlo.divide %0, %cst_0 : tensor<f32>\n    return %1 : tensor<f32>\n  }\n}\n",
    "metadata": {
      "category": "reduction",
      "operation": "mean",
      "description": "Reduction: mean"
    }
  },
  {
    "python_code": "lambda x: jnp.mean(x)",
    "input_info": [
      {
        "shape": [
          4,
          6
        ],
        "dtype": "float32"
      }
    ],
    "jaxpr": "{ lambda ; a:f32[4,6]. let\n    b:f32[] = reduce_sum[axes=(0, 1) out_sharding=None] a\n    c:f32[] = div b 24.0:f32[]\n  in (c,) }",
    "stablehlo": "module @jit__lambda attributes {mhlo.num_partitions = 1 : i32, mhlo.num_replicas = 1 : i32} {\n  func.func public @main(%arg0: tensor<4x6xf32>) -> (tensor<f32> {jax.result_info = \"result\"}) {\n    %cst = stablehlo.constant dense<0.000000e+00> : tensor<f32>\n    %0 = stablehlo.reduce(%arg0 init: %cst) applies stablehlo.add across dimensions = [0, 1] : (tensor<4x6xf32>, tensor<f32>) -> tensor<f32>\n    %cst_0 = stablehlo.constant dense<2.400000e+01> : tensor<f32>\n    %1 = stablehlo.divide %0, %cst_0 : tensor<f32>\n    return %1 : tensor<f32>\n  }\n}\n",
    "metadata": {
      "category": "reduction",
      "operation": "mean",
      "description": "Reduction: mean"
    }
  },
  {
    "python_code": "lambda x: jnp.sum(x)",
    "input_info": [
      {
        "shape": [
          4
        ],
        "dtype": "float32"
      }
    ],
    "jaxpr": "{ lambda ; a:f32[4]. let\n    b:f32[] = reduce_sum[axes=(0,) out_sharding=None] a\n  in (b,) }",
    "stablehlo": "module @jit__lambda attributes {mhlo.num_partitions = 1 : i32, mhlo.num_replicas = 1 : i32} {\n  func.func public @main(%arg0: tensor<4xf32>) -> (tensor<f32> {jax.result_info = \"result\"}) {\n    %cst = stablehlo.constant dense<0.000000e+00> : tensor<f32>\n    %0 = stablehlo.reduce(%arg0 init: %cst) applies stablehlo.add across dimensions = [0] : (tensor<4xf32>, tensor<f32>) -> tensor<f32>\n    return %0 : tensor<f32>\n  }\n}\n",
    "metadata": {
      "category": "reduction",
      "operation": "sum",
      "description": "Reduction: sum"
    }
  },
  {
    "python_code": "lambda x: jnp.prod(x)",
    "input_info": [
      {
        "shape": [
          10,
          9
        ],
        "dtype": "float32"
      }
    ],
    "jaxpr": "{ lambda ; a:f32[10,9]. let b:f32[] = reduce_prod[axes=(0, 1)] a in (b,) }",
    "stablehlo": "module @jit__lambda attributes {mhlo.num_partitions = 1 : i32, mhlo.num_replicas = 1 : i32} {\n  func.func public @main(%arg0: tensor<10x9xf32>) -> (tensor<f32> {jax.result_info = \"result\"}) {\n    %cst = stablehlo.constant dense<1.000000e+00> : tensor<f32>\n    %0 = stablehlo.reduce(%arg0 init: %cst) applies stablehlo.multiply across dimensions = [0, 1] : (tensor<10x9xf32>, tensor<f32>) -> tensor<f32>\n    return %0 : tensor<f32>\n  }\n}\n",
    "metadata": {
      "category": "reduction",
      "operation": "prod",
      "description": "Reduction: prod"
    }
  },
  {
    "python_code": "lambda x: jnp.max(x)",
    "input_info": [
      {
        "shape": [
          2,
          3
        ],
        "dtype": "float32"
      }
    ],
    "jaxpr": "{ lambda ; a:f32[2,3]. let b:f32[] = reduce_max[axes=(0, 1)] a in (b,) }",
    "stablehlo": "module @jit__lambda attributes {mhlo.num_partitions = 1 : i32, mhlo.num_replicas = 1 : i32} {\n  func.func public @main(%arg0: tensor<2x3xf32>) -> (tensor<f32> {jax.result_info = \"result\"}) {\n    %cst = stablehlo.constant dense<0xFF800000> : tensor<f32>\n    %0 = stablehlo.reduce(%arg0 init: %cst) applies stablehlo.maximum across dimensions = [0, 1] : (tensor<2x3xf32>, tensor<f32>) -> tensor<f32>\n    return %0 : tensor<f32>\n  }\n}\n",
    "metadata": {
      "category": "reduction",
      "operation": "max",
      "description": "Reduction: max"
    }
  },
  {
    "python_code": "lambda x: jnp.max(x)",
    "input_info": [
      {
        "shape": [
          8
        ],
        "dtype": "float32"
      }
    ],
    "jaxpr": "{ lambda ; a:f32[8]. let b:f32[] = reduce_max[axes=(0,)] a in (b,) }",
    "stablehlo": "module @jit__lambda attributes {mhlo.num_partitions = 1 : i32, mhlo.num_replicas = 1 : i32} {\n  func.func public @main(%arg0: tensor<8xf32>) -> (tensor<f32> {jax.result_info = \"result\"}) {\n    %cst = stablehlo.constant dense<0xFF800000> : tensor<f32>\n    %0 = stablehlo.reduce(%arg0 init: %cst) applies stablehlo.maximum across dimensions = [0] : (tensor<8xf32>, tensor<f32>) -> tensor<f32>\n    return %0 : tensor<f32>\n  }\n}\n",
    "metadata": {
      "category": "reduction",
      "operation": "max",
      "description": "Reduction: max"
    }
  },
  {
    "python_code": "lambda x: jnp.mean(x)",
    "input_info": [
      {
        "shape": [
          7,
          10
        ],
        "dtype": "float32"
      }
    ],
    "jaxpr": "{ lambda ; a:f32[7,10]. let\n    b:f32[] = reduce_sum[axes=(0, 1) out_sharding=None] a\n    c:f32[] = div b 70.0:f32[]\n  in (c,) }",
    "stablehlo": "module @jit__lambda attributes {mhlo.num_partitions = 1 : i32, mhlo.num_replicas = 1 : i32} {\n  func.func public @main(%arg0: tensor<7x10xf32>) -> (tensor<f32> {jax.result_info = \"result\"}) {\n    %cst = stablehlo.constant dense<0.000000e+00> : tensor<f32>\n    %0 = stablehlo.reduce(%arg0 init: %cst) applies stablehlo.add across dimensions = [0, 1] : (tensor<7x10xf32>, tensor<f32>) -> tensor<f32>\n    %cst_0 = stablehlo.constant dense<7.000000e+01> : tensor<f32>\n    %1 = stablehlo.divide %0, %cst_0 : tensor<f32>\n    return %1 : tensor<f32>\n  }\n}\n",
    "metadata": {
      "category": "reduction",
      "operation": "mean",
      "description": "Reduction: mean"
    }
  },
  {
    "python_code": "lambda x: jnp.sum(x)",
    "input_info": [
      {
        "shape": [
          8
        ],
        "dtype": "float32"
      }
    ],
    "jaxpr": "{ lambda ; a:f32[8]. let\n    b:f32[] = reduce_sum[axes=(0,) out_sharding=None] a\n  in (b,) }",
    "stablehlo": "module @jit__lambda attributes {mhlo.num_partitions = 1 : i32, mhlo.num_replicas = 1 : i32} {\n  func.func public @main(%arg0: tensor<8xf32>) -> (tensor<f32> {jax.result_info = \"result\"}) {\n    %cst = stablehlo.constant dense<0.000000e+00> : tensor<f32>\n    %0 = stablehlo.reduce(%arg0 init: %cst) applies stablehlo.add across dimensions = [0] : (tensor<8xf32>, tensor<f32>) -> tensor<f32>\n    return %0 : tensor<f32>\n  }\n}\n",
    "metadata": {
      "category": "reduction",
      "operation": "sum",
      "description": "Reduction: sum"
    }
  },
  {
    "python_code": "lambda x: jnp.prod(x)",
    "input_info": [
      {
        "shape": [
          2,
          4
        ],
        "dtype": "float32"
      }
    ],
    "jaxpr": "{ lambda ; a:f32[2,4]. let b:f32[] = reduce_prod[axes=(0, 1)] a in (b,) }",
    "stablehlo": "module @jit__lambda attributes {mhlo.num_partitions = 1 : i32, mhlo.num_replicas = 1 : i32} {\n  func.func public @main(%arg0: tensor<2x4xf32>) -> (tensor<f32> {jax.result_info = \"result\"}) {\n    %cst = stablehlo.constant dense<1.000000e+00> : tensor<f32>\n    %0 = stablehlo.reduce(%arg0 init: %cst) applies stablehlo.multiply across dimensions = [0, 1] : (tensor<2x4xf32>, tensor<f32>) -> tensor<f32>\n    return %0 : tensor<f32>\n  }\n}\n",
    "metadata": {
      "category": "reduction",
      "operation": "prod",
      "description": "Reduction: prod"
    }
  },
  {
    "python_code": "lambda x: jnp.sum(x, axis=0)",
    "input_info": [
      {
        "shape": [
          10,
          5
        ],
        "dtype": "float32"
      }
    ],
    "jaxpr": "{ lambda ; a:f32[10,5]. let\n    b:f32[5] = reduce_sum[axes=(0,) out_sharding=None] a\n  in (b,) }",
    "stablehlo": "module @jit__lambda attributes {mhlo.num_partitions = 1 : i32, mhlo.num_replicas = 1 : i32} {\n  func.func public @main(%arg0: tensor<10x5xf32>) -> (tensor<5xf32> {jax.result_info = \"result\"}) {\n    %cst = stablehlo.constant dense<0.000000e+00> : tensor<f32>\n    %0 = stablehlo.reduce(%arg0 init: %cst) applies stablehlo.add across dimensions = [0] : (tensor<10x5xf32>, tensor<f32>) -> tensor<5xf32>\n    return %0 : tensor<5xf32>\n  }\n}\n",
    "metadata": {
      "category": "reduction",
      "operation": "sum_axis0",
      "description": "Reduction: sum_axis0"
    }
  },
  {
    "python_code": "lambda x: jnp.max(x)",
    "input_info": [
      {
        "shape": [
          4
        ],
        "dtype": "float32"
      }
    ],
    "jaxpr": "{ lambda ; a:f32[4]. let b:f32[] = reduce_max[axes=(0,)] a in (b,) }",
    "stablehlo": "module @jit__lambda attributes {mhlo.num_partitions = 1 : i32, mhlo.num_replicas = 1 : i32} {\n  func.func public @main(%arg0: tensor<4xf32>) -> (tensor<f32> {jax.result_info = \"result\"}) {\n    %cst = stablehlo.constant dense<0xFF800000> : tensor<f32>\n    %0 = stablehlo.reduce(%arg0 init: %cst) applies stablehlo.maximum across dimensions = [0] : (tensor<4xf32>, tensor<f32>) -> tensor<f32>\n    return %0 : tensor<f32>\n  }\n}\n",
    "metadata": {
      "category": "reduction",
      "operation": "max",
      "description": "Reduction: max"
    }
  },
  {
    "python_code": "lambda x: jnp.mean(x)",
    "input_info": [
      {
        "shape": [
          7
        ],
        "dtype": "float32"
      }
    ],
    "jaxpr": "{ lambda ; a:f32[7]. let\n    b:f32[] = reduce_sum[axes=(0,) out_sharding=None] a\n    c:f32[] = div b 7.0:f32[]\n  in (c,) }",
    "stablehlo": "module @jit__lambda attributes {mhlo.num_partitions = 1 : i32, mhlo.num_replicas = 1 : i32} {\n  func.func public @main(%arg0: tensor<7xf32>) -> (tensor<f32> {jax.result_info = \"result\"}) {\n    %cst = stablehlo.constant dense<0.000000e+00> : tensor<f32>\n    %0 = stablehlo.reduce(%arg0 init: %cst) applies stablehlo.add across dimensions = [0] : (tensor<7xf32>, tensor<f32>) -> tensor<f32>\n    %cst_0 = stablehlo.constant dense<7.000000e+00> : tensor<f32>\n    %1 = stablehlo.divide %0, %cst_0 : tensor<f32>\n    return %1 : tensor<f32>\n  }\n}\n",
    "metadata": {
      "category": "reduction",
      "operation": "mean",
      "description": "Reduction: mean"
    }
  },
  {
    "python_code": "lambda x: jnp.mean(x)",
    "input_info": [
      {
        "shape": [
          10,
          5
        ],
        "dtype": "float32"
      }
    ],
    "jaxpr": "{ lambda ; a:f32[10,5]. let\n    b:f32[] = reduce_sum[axes=(0, 1) out_sharding=None] a\n    c:f32[] = div b 50.0:f32[]\n  in (c,) }",
    "stablehlo": "module @jit__lambda attributes {mhlo.num_partitions = 1 : i32, mhlo.num_replicas = 1 : i32} {\n  func.func public @main(%arg0: tensor<10x5xf32>) -> (tensor<f32> {jax.result_info = \"result\"}) {\n    %cst = stablehlo.constant dense<0.000000e+00> : tensor<f32>\n    %0 = stablehlo.reduce(%arg0 init: %cst) applies stablehlo.add across dimensions = [0, 1] : (tensor<10x5xf32>, tensor<f32>) -> tensor<f32>\n    %cst_0 = stablehlo.constant dense<5.000000e+01> : tensor<f32>\n    %1 = stablehlo.divide %0, %cst_0 : tensor<f32>\n    return %1 : tensor<f32>\n  }\n}\n",
    "metadata": {
      "category": "reduction",
      "operation": "mean",
      "description": "Reduction: mean"
    }
  },
  {
    "python_code": "lambda x: jnp.sum(x)",
    "input_info": [
      {
        "shape": [
          2,
          8,
          9
        ],
        "dtype": "float32"
      }
    ],
    "jaxpr": "{ lambda ; a:f32[2,8,9]. let\n    b:f32[] = reduce_sum[axes=(0, 1, 2) out_sharding=None] a\n  in (b,) }",
    "stablehlo": "module @jit__lambda attributes {mhlo.num_partitions = 1 : i32, mhlo.num_replicas = 1 : i32} {\n  func.func public @main(%arg0: tensor<2x8x9xf32>) -> (tensor<f32> {jax.result_info = \"result\"}) {\n    %cst = stablehlo.constant dense<0.000000e+00> : tensor<f32>\n    %0 = stablehlo.reduce(%arg0 init: %cst) applies stablehlo.add across dimensions = [0, 1, 2] : (tensor<2x8x9xf32>, tensor<f32>) -> tensor<f32>\n    return %0 : tensor<f32>\n  }\n}\n",
    "metadata": {
      "category": "reduction",
      "operation": "sum",
      "description": "Reduction: sum"
    }
  },
  {
    "python_code": "lambda x: jnp.max(x)",
    "input_info": [
      {
        "shape": [
          6,
          7
        ],
        "dtype": "float32"
      }
    ],
    "jaxpr": "{ lambda ; a:f32[6,7]. let b:f32[] = reduce_max[axes=(0, 1)] a in (b,) }",
    "stablehlo": "module @jit__lambda attributes {mhlo.num_partitions = 1 : i32, mhlo.num_replicas = 1 : i32} {\n  func.func public @main(%arg0: tensor<6x7xf32>) -> (tensor<f32> {jax.result_info = \"result\"}) {\n    %cst = stablehlo.constant dense<0xFF800000> : tensor<f32>\n    %0 = stablehlo.reduce(%arg0 init: %cst) applies stablehlo.maximum across dimensions = [0, 1] : (tensor<6x7xf32>, tensor<f32>) -> tensor<f32>\n    return %0 : tensor<f32>\n  }\n}\n",
    "metadata": {
      "category": "reduction",
      "operation": "max",
      "description": "Reduction: max"
    }
  },
  {
    "python_code": "lambda x: jnp.sum(x, axis=0)",
    "input_info": [
      {
        "shape": [
          4,
          3
        ],
        "dtype": "float32"
      }
    ],
    "jaxpr": "{ lambda ; a:f32[4,3]. let\n    b:f32[3] = reduce_sum[axes=(0,) out_sharding=None] a\n  in (b,) }",
    "stablehlo": "module @jit__lambda attributes {mhlo.num_partitions = 1 : i32, mhlo.num_replicas = 1 : i32} {\n  func.func public @main(%arg0: tensor<4x3xf32>) -> (tensor<3xf32> {jax.result_info = \"result\"}) {\n    %cst = stablehlo.constant dense<0.000000e+00> : tensor<f32>\n    %0 = stablehlo.reduce(%arg0 init: %cst) applies stablehlo.add across dimensions = [0] : (tensor<4x3xf32>, tensor<f32>) -> tensor<3xf32>\n    return %0 : tensor<3xf32>\n  }\n}\n",
    "metadata": {
      "category": "reduction",
      "operation": "sum_axis0",
      "description": "Reduction: sum_axis0"
    }
  },
  {
    "python_code": "lambda x: jnp.mean(x)",
    "input_info": [
      {
        "shape": [
          10,
          10,
          5
        ],
        "dtype": "float32"
      }
    ],
    "jaxpr": "{ lambda ; a:f32[10,10,5]. let\n    b:f32[] = reduce_sum[axes=(0, 1, 2) out_sharding=None] a\n    c:f32[] = div b 500.0:f32[]\n  in (c,) }",
    "stablehlo": "module @jit__lambda attributes {mhlo.num_partitions = 1 : i32, mhlo.num_replicas = 1 : i32} {\n  func.func public @main(%arg0: tensor<10x10x5xf32>) -> (tensor<f32> {jax.result_info = \"result\"}) {\n    %cst = stablehlo.constant dense<0.000000e+00> : tensor<f32>\n    %0 = stablehlo.reduce(%arg0 init: %cst) applies stablehlo.add across dimensions = [0, 1, 2] : (tensor<10x10x5xf32>, tensor<f32>) -> tensor<f32>\n    %cst_0 = stablehlo.constant dense<5.000000e+02> : tensor<f32>\n    %1 = stablehlo.divide %0, %cst_0 : tensor<f32>\n    return %1 : tensor<f32>\n  }\n}\n",
    "metadata": {
      "category": "reduction",
      "operation": "mean",
      "description": "Reduction: mean"
    }
  },
  {
    "python_code": "lambda x: jnp.max(x)",
    "input_info": [
      {
        "shape": [
          4
        ],
        "dtype": "float32"
      }
    ],
    "jaxpr": "{ lambda ; a:f32[4]. let b:f32[] = reduce_max[axes=(0,)] a in (b,) }",
    "stablehlo": "module @jit__lambda attributes {mhlo.num_partitions = 1 : i32, mhlo.num_replicas = 1 : i32} {\n  func.func public @main(%arg0: tensor<4xf32>) -> (tensor<f32> {jax.result_info = \"result\"}) {\n    %cst = stablehlo.constant dense<0xFF800000> : tensor<f32>\n    %0 = stablehlo.reduce(%arg0 init: %cst) applies stablehlo.maximum across dimensions = [0] : (tensor<4xf32>, tensor<f32>) -> tensor<f32>\n    return %0 : tensor<f32>\n  }\n}\n",
    "metadata": {
      "category": "reduction",
      "operation": "max",
      "description": "Reduction: max"
    }
  },
  {
    "python_code": "lambda x: jnp.sum(x)",
    "input_info": [
      {
        "shape": [
          9,
          7,
          9
        ],
        "dtype": "float32"
      }
    ],
    "jaxpr": "{ lambda ; a:f32[9,7,9]. let\n    b:f32[] = reduce_sum[axes=(0, 1, 2) out_sharding=None] a\n  in (b,) }",
    "stablehlo": "module @jit__lambda attributes {mhlo.num_partitions = 1 : i32, mhlo.num_replicas = 1 : i32} {\n  func.func public @main(%arg0: tensor<9x7x9xf32>) -> (tensor<f32> {jax.result_info = \"result\"}) {\n    %cst = stablehlo.constant dense<0.000000e+00> : tensor<f32>\n    %0 = stablehlo.reduce(%arg0 init: %cst) applies stablehlo.add across dimensions = [0, 1, 2] : (tensor<9x7x9xf32>, tensor<f32>) -> tensor<f32>\n    return %0 : tensor<f32>\n  }\n}\n",
    "metadata": {
      "category": "reduction",
      "operation": "sum",
      "description": "Reduction: sum"
    }
  },
  {
    "python_code": "lambda x: jnp.sum(x)",
    "input_info": [
      {
        "shape": [
          4
        ],
        "dtype": "float32"
      }
    ],
    "jaxpr": "{ lambda ; a:f32[4]. let\n    b:f32[] = reduce_sum[axes=(0,) out_sharding=None] a\n  in (b,) }",
    "stablehlo": "module @jit__lambda attributes {mhlo.num_partitions = 1 : i32, mhlo.num_replicas = 1 : i32} {\n  func.func public @main(%arg0: tensor<4xf32>) -> (tensor<f32> {jax.result_info = \"result\"}) {\n    %cst = stablehlo.constant dense<0.000000e+00> : tensor<f32>\n    %0 = stablehlo.reduce(%arg0 init: %cst) applies stablehlo.add across dimensions = [0] : (tensor<4xf32>, tensor<f32>) -> tensor<f32>\n    return %0 : tensor<f32>\n  }\n}\n",
    "metadata": {
      "category": "reduction",
      "operation": "sum",
      "description": "Reduction: sum"
    }
  },
  {
    "python_code": "lambda x: jnp.sum(x)",
    "input_info": [
      {
        "shape": [
          6,
          10,
          6
        ],
        "dtype": "float32"
      }
    ],
    "jaxpr": "{ lambda ; a:f32[6,10,6]. let\n    b:f32[] = reduce_sum[axes=(0, 1, 2) out_sharding=None] a\n  in (b,) }",
    "stablehlo": "module @jit__lambda attributes {mhlo.num_partitions = 1 : i32, mhlo.num_replicas = 1 : i32} {\n  func.func public @main(%arg0: tensor<6x10x6xf32>) -> (tensor<f32> {jax.result_info = \"result\"}) {\n    %cst = stablehlo.constant dense<0.000000e+00> : tensor<f32>\n    %0 = stablehlo.reduce(%arg0 init: %cst) applies stablehlo.add across dimensions = [0, 1, 2] : (tensor<6x10x6xf32>, tensor<f32>) -> tensor<f32>\n    return %0 : tensor<f32>\n  }\n}\n",
    "metadata": {
      "category": "reduction",
      "operation": "sum",
      "description": "Reduction: sum"
    }
  },
  {
    "python_code": "lambda x: jnp.mean(x)",
    "input_info": [
      {
        "shape": [
          10,
          6,
          3
        ],
        "dtype": "float32"
      }
    ],
    "jaxpr": "{ lambda ; a:f32[10,6,3]. let\n    b:f32[] = reduce_sum[axes=(0, 1, 2) out_sharding=None] a\n    c:f32[] = div b 180.0:f32[]\n  in (c,) }",
    "stablehlo": "module @jit__lambda attributes {mhlo.num_partitions = 1 : i32, mhlo.num_replicas = 1 : i32} {\n  func.func public @main(%arg0: tensor<10x6x3xf32>) -> (tensor<f32> {jax.result_info = \"result\"}) {\n    %cst = stablehlo.constant dense<0.000000e+00> : tensor<f32>\n    %0 = stablehlo.reduce(%arg0 init: %cst) applies stablehlo.add across dimensions = [0, 1, 2] : (tensor<10x6x3xf32>, tensor<f32>) -> tensor<f32>\n    %cst_0 = stablehlo.constant dense<1.800000e+02> : tensor<f32>\n    %1 = stablehlo.divide %0, %cst_0 : tensor<f32>\n    return %1 : tensor<f32>\n  }\n}\n",
    "metadata": {
      "category": "reduction",
      "operation": "mean",
      "description": "Reduction: mean"
    }
  },
  {
    "python_code": "lambda x: jnp.sum(x)",
    "input_info": [
      {
        "shape": [
          6
        ],
        "dtype": "float32"
      }
    ],
    "jaxpr": "{ lambda ; a:f32[6]. let\n    b:f32[] = reduce_sum[axes=(0,) out_sharding=None] a\n  in (b,) }",
    "stablehlo": "module @jit__lambda attributes {mhlo.num_partitions = 1 : i32, mhlo.num_replicas = 1 : i32} {\n  func.func public @main(%arg0: tensor<6xf32>) -> (tensor<f32> {jax.result_info = \"result\"}) {\n    %cst = stablehlo.constant dense<0.000000e+00> : tensor<f32>\n    %0 = stablehlo.reduce(%arg0 init: %cst) applies stablehlo.add across dimensions = [0] : (tensor<6xf32>, tensor<f32>) -> tensor<f32>\n    return %0 : tensor<f32>\n  }\n}\n",
    "metadata": {
      "category": "reduction",
      "operation": "sum",
      "description": "Reduction: sum"
    }
  },
  {
    "python_code": "lambda x: jnp.mean(x, axis=0)",
    "input_info": [
      {
        "shape": [
          7,
          4
        ],
        "dtype": "float32"
      }
    ],
    "jaxpr": "{ lambda ; a:f32[7,4]. let\n    b:f32[4] = reduce_sum[axes=(0,) out_sharding=None] a\n    c:f32[4] = div b 7.0:f32[]\n  in (c,) }",
    "stablehlo": "module @jit__lambda attributes {mhlo.num_partitions = 1 : i32, mhlo.num_replicas = 1 : i32} {\n  func.func public @main(%arg0: tensor<7x4xf32>) -> (tensor<4xf32> {jax.result_info = \"result\"}) {\n    %cst = stablehlo.constant dense<0.000000e+00> : tensor<f32>\n    %0 = stablehlo.reduce(%arg0 init: %cst) applies stablehlo.add across dimensions = [0] : (tensor<7x4xf32>, tensor<f32>) -> tensor<4xf32>\n    %cst_0 = stablehlo.constant dense<7.000000e+00> : tensor<f32>\n    %1 = stablehlo.broadcast_in_dim %cst_0, dims = [] : (tensor<f32>) -> tensor<4xf32>\n    %2 = stablehlo.divide %0, %1 : tensor<4xf32>\n    return %2 : tensor<4xf32>\n  }\n}\n",
    "metadata": {
      "category": "reduction",
      "operation": "mean_axis0",
      "description": "Reduction: mean_axis0"
    }
  },
  {
    "python_code": "lambda x: jnp.min(x)",
    "input_info": [
      {
        "shape": [
          7,
          6
        ],
        "dtype": "float32"
      }
    ],
    "jaxpr": "{ lambda ; a:f32[7,6]. let b:f32[] = reduce_min[axes=(0, 1)] a in (b,) }",
    "stablehlo": "module @jit__lambda attributes {mhlo.num_partitions = 1 : i32, mhlo.num_replicas = 1 : i32} {\n  func.func public @main(%arg0: tensor<7x6xf32>) -> (tensor<f32> {jax.result_info = \"result\"}) {\n    %cst = stablehlo.constant dense<0x7F800000> : tensor<f32>\n    %0 = stablehlo.reduce(%arg0 init: %cst) applies stablehlo.minimum across dimensions = [0, 1] : (tensor<7x6xf32>, tensor<f32>) -> tensor<f32>\n    return %0 : tensor<f32>\n  }\n}\n",
    "metadata": {
      "category": "reduction",
      "operation": "min",
      "description": "Reduction: min"
    }
  },
  {
    "python_code": "lambda x: jnp.min(x)",
    "input_info": [
      {
        "shape": [
          7,
          5,
          10
        ],
        "dtype": "float32"
      }
    ],
    "jaxpr": "{ lambda ; a:f32[7,5,10]. let b:f32[] = reduce_min[axes=(0, 1, 2)] a in (b,) }",
    "stablehlo": "module @jit__lambda attributes {mhlo.num_partitions = 1 : i32, mhlo.num_replicas = 1 : i32} {\n  func.func public @main(%arg0: tensor<7x5x10xf32>) -> (tensor<f32> {jax.result_info = \"result\"}) {\n    %cst = stablehlo.constant dense<0x7F800000> : tensor<f32>\n    %0 = stablehlo.reduce(%arg0 init: %cst) applies stablehlo.minimum across dimensions = [0, 1, 2] : (tensor<7x5x10xf32>, tensor<f32>) -> tensor<f32>\n    return %0 : tensor<f32>\n  }\n}\n",
    "metadata": {
      "category": "reduction",
      "operation": "min",
      "description": "Reduction: min"
    }
  },
  {
    "python_code": "lambda x: jnp.sum(x, axis=0)",
    "input_info": [
      {
        "shape": [
          5,
          5
        ],
        "dtype": "float32"
      }
    ],
    "jaxpr": "{ lambda ; a:f32[5,5]. let\n    b:f32[5] = reduce_sum[axes=(0,) out_sharding=None] a\n  in (b,) }",
    "stablehlo": "module @jit__lambda attributes {mhlo.num_partitions = 1 : i32, mhlo.num_replicas = 1 : i32} {\n  func.func public @main(%arg0: tensor<5x5xf32>) -> (tensor<5xf32> {jax.result_info = \"result\"}) {\n    %cst = stablehlo.constant dense<0.000000e+00> : tensor<f32>\n    %0 = stablehlo.reduce(%arg0 init: %cst) applies stablehlo.add across dimensions = [0] : (tensor<5x5xf32>, tensor<f32>) -> tensor<5xf32>\n    return %0 : tensor<5xf32>\n  }\n}\n",
    "metadata": {
      "category": "reduction",
      "operation": "sum_axis0",
      "description": "Reduction: sum_axis0"
    }
  },
  {
    "python_code": "lambda x: jnp.sum(x)",
    "input_info": [
      {
        "shape": [
          2,
          8
        ],
        "dtype": "float32"
      }
    ],
    "jaxpr": "{ lambda ; a:f32[2,8]. let\n    b:f32[] = reduce_sum[axes=(0, 1) out_sharding=None] a\n  in (b,) }",
    "stablehlo": "module @jit__lambda attributes {mhlo.num_partitions = 1 : i32, mhlo.num_replicas = 1 : i32} {\n  func.func public @main(%arg0: tensor<2x8xf32>) -> (tensor<f32> {jax.result_info = \"result\"}) {\n    %cst = stablehlo.constant dense<0.000000e+00> : tensor<f32>\n    %0 = stablehlo.reduce(%arg0 init: %cst) applies stablehlo.add across dimensions = [0, 1] : (tensor<2x8xf32>, tensor<f32>) -> tensor<f32>\n    return %0 : tensor<f32>\n  }\n}\n",
    "metadata": {
      "category": "reduction",
      "operation": "sum",
      "description": "Reduction: sum"
    }
  },
  {
    "python_code": "lambda x: jnp.max(x)",
    "input_info": [
      {
        "shape": [
          10,
          4,
          10
        ],
        "dtype": "float32"
      }
    ],
    "jaxpr": "{ lambda ; a:f32[10,4,10]. let b:f32[] = reduce_max[axes=(0, 1, 2)] a in (b,) }",
    "stablehlo": "module @jit__lambda attributes {mhlo.num_partitions = 1 : i32, mhlo.num_replicas = 1 : i32} {\n  func.func public @main(%arg0: tensor<10x4x10xf32>) -> (tensor<f32> {jax.result_info = \"result\"}) {\n    %cst = stablehlo.constant dense<0xFF800000> : tensor<f32>\n    %0 = stablehlo.reduce(%arg0 init: %cst) applies stablehlo.maximum across dimensions = [0, 1, 2] : (tensor<10x4x10xf32>, tensor<f32>) -> tensor<f32>\n    return %0 : tensor<f32>\n  }\n}\n",
    "metadata": {
      "category": "reduction",
      "operation": "max",
      "description": "Reduction: max"
    }
  },
  {
    "python_code": "lambda x: jnp.mean(x)",
    "input_info": [
      {
        "shape": [
          9
        ],
        "dtype": "float32"
      }
    ],
    "jaxpr": "{ lambda ; a:f32[9]. let\n    b:f32[] = reduce_sum[axes=(0,) out_sharding=None] a\n    c:f32[] = div b 9.0:f32[]\n  in (c,) }",
    "stablehlo": "module @jit__lambda attributes {mhlo.num_partitions = 1 : i32, mhlo.num_replicas = 1 : i32} {\n  func.func public @main(%arg0: tensor<9xf32>) -> (tensor<f32> {jax.result_info = \"result\"}) {\n    %cst = stablehlo.constant dense<0.000000e+00> : tensor<f32>\n    %0 = stablehlo.reduce(%arg0 init: %cst) applies stablehlo.add across dimensions = [0] : (tensor<9xf32>, tensor<f32>) -> tensor<f32>\n    %cst_0 = stablehlo.constant dense<9.000000e+00> : tensor<f32>\n    %1 = stablehlo.divide %0, %cst_0 : tensor<f32>\n    return %1 : tensor<f32>\n  }\n}\n",
    "metadata": {
      "category": "reduction",
      "operation": "mean",
      "description": "Reduction: mean"
    }
  },
  {
    "python_code": "lambda x: jnp.mean(x, axis=0)",
    "input_info": [
      {
        "shape": [
          10,
          7
        ],
        "dtype": "float32"
      }
    ],
    "jaxpr": "{ lambda ; a:f32[10,7]. let\n    b:f32[7] = reduce_sum[axes=(0,) out_sharding=None] a\n    c:f32[7] = div b 10.0:f32[]\n  in (c,) }",
    "stablehlo": "module @jit__lambda attributes {mhlo.num_partitions = 1 : i32, mhlo.num_replicas = 1 : i32} {\n  func.func public @main(%arg0: tensor<10x7xf32>) -> (tensor<7xf32> {jax.result_info = \"result\"}) {\n    %cst = stablehlo.constant dense<0.000000e+00> : tensor<f32>\n    %0 = stablehlo.reduce(%arg0 init: %cst) applies stablehlo.add across dimensions = [0] : (tensor<10x7xf32>, tensor<f32>) -> tensor<7xf32>\n    %cst_0 = stablehlo.constant dense<1.000000e+01> : tensor<f32>\n    %1 = stablehlo.broadcast_in_dim %cst_0, dims = [] : (tensor<f32>) -> tensor<7xf32>\n    %2 = stablehlo.divide %0, %1 : tensor<7xf32>\n    return %2 : tensor<7xf32>\n  }\n}\n",
    "metadata": {
      "category": "reduction",
      "operation": "mean_axis0",
      "description": "Reduction: mean_axis0"
    }
  },
  {
    "python_code": "lambda x: jnp.prod(x)",
    "input_info": [
      {
        "shape": [
          10,
          6,
          7
        ],
        "dtype": "float32"
      }
    ],
    "jaxpr": "{ lambda ; a:f32[10,6,7]. let b:f32[] = reduce_prod[axes=(0, 1, 2)] a in (b,) }",
    "stablehlo": "module @jit__lambda attributes {mhlo.num_partitions = 1 : i32, mhlo.num_replicas = 1 : i32} {\n  func.func public @main(%arg0: tensor<10x6x7xf32>) -> (tensor<f32> {jax.result_info = \"result\"}) {\n    %cst = stablehlo.constant dense<1.000000e+00> : tensor<f32>\n    %0 = stablehlo.reduce(%arg0 init: %cst) applies stablehlo.multiply across dimensions = [0, 1, 2] : (tensor<10x6x7xf32>, tensor<f32>) -> tensor<f32>\n    return %0 : tensor<f32>\n  }\n}\n",
    "metadata": {
      "category": "reduction",
      "operation": "prod",
      "description": "Reduction: prod"
    }
  },
  {
    "python_code": "lambda x: jnp.sum(x, axis=0)",
    "input_info": [
      {
        "shape": [
          3,
          7
        ],
        "dtype": "float32"
      }
    ],
    "jaxpr": "{ lambda ; a:f32[3,7]. let\n    b:f32[7] = reduce_sum[axes=(0,) out_sharding=None] a\n  in (b,) }",
    "stablehlo": "module @jit__lambda attributes {mhlo.num_partitions = 1 : i32, mhlo.num_replicas = 1 : i32} {\n  func.func public @main(%arg0: tensor<3x7xf32>) -> (tensor<7xf32> {jax.result_info = \"result\"}) {\n    %cst = stablehlo.constant dense<0.000000e+00> : tensor<f32>\n    %0 = stablehlo.reduce(%arg0 init: %cst) applies stablehlo.add across dimensions = [0] : (tensor<3x7xf32>, tensor<f32>) -> tensor<7xf32>\n    return %0 : tensor<7xf32>\n  }\n}\n",
    "metadata": {
      "category": "reduction",
      "operation": "sum_axis0",
      "description": "Reduction: sum_axis0"
    }
  },
  {
    "python_code": "lambda x: jnp.sum(x, axis=0)",
    "input_info": [
      {
        "shape": [
          3,
          7
        ],
        "dtype": "float32"
      }
    ],
    "jaxpr": "{ lambda ; a:f32[3,7]. let\n    b:f32[7] = reduce_sum[axes=(0,) out_sharding=None] a\n  in (b,) }",
    "stablehlo": "module @jit__lambda attributes {mhlo.num_partitions = 1 : i32, mhlo.num_replicas = 1 : i32} {\n  func.func public @main(%arg0: tensor<3x7xf32>) -> (tensor<7xf32> {jax.result_info = \"result\"}) {\n    %cst = stablehlo.constant dense<0.000000e+00> : tensor<f32>\n    %0 = stablehlo.reduce(%arg0 init: %cst) applies stablehlo.add across dimensions = [0] : (tensor<3x7xf32>, tensor<f32>) -> tensor<7xf32>\n    return %0 : tensor<7xf32>\n  }\n}\n",
    "metadata": {
      "category": "reduction",
      "operation": "sum_axis0",
      "description": "Reduction: sum_axis0"
    }
  },
  {
    "python_code": "lambda x: jnp.min(x)",
    "input_info": [
      {
        "shape": [
          8
        ],
        "dtype": "float32"
      }
    ],
    "jaxpr": "{ lambda ; a:f32[8]. let b:f32[] = reduce_min[axes=(0,)] a in (b,) }",
    "stablehlo": "module @jit__lambda attributes {mhlo.num_partitions = 1 : i32, mhlo.num_replicas = 1 : i32} {\n  func.func public @main(%arg0: tensor<8xf32>) -> (tensor<f32> {jax.result_info = \"result\"}) {\n    %cst = stablehlo.constant dense<0x7F800000> : tensor<f32>\n    %0 = stablehlo.reduce(%arg0 init: %cst) applies stablehlo.minimum across dimensions = [0] : (tensor<8xf32>, tensor<f32>) -> tensor…
      "description": "Reduction: sum_axis0"
    }
  },
  {
    "python_code": "lambda x: jnp.max(x)",
    "input_info": [
      {
        "shape": [
          2
        ],
        "dtype": "float32"
      }
    ],
    "jaxpr": "{ lambda ; a:f32[2]. let b:f32[] = reduce_max[axes=(0,)] a in (b,) }",
    "stablehlo": "module @jit__lambda attributes {mhlo.num_partitions = 1 : i32, mhlo.num_replicas = 1 : i32} {\n  func.func public @main(%arg0: tensor<2xf32>) -> (tensor<f32> {jax.result_info = \"result\"}) {\n    %cst = stablehlo.constant dense<0xFF800000> : tensor<f32>\n    %0 = stablehlo.reduce(%arg0 init: %cst) applies stablehlo.maximum across dimensions = [0] : (tensor<2xf32>, tensor<f32>) -> tensor<f32>\n    return %0 : tensor<f32>\n  }\n}\n",
    "metadata": {
      "category": "reduction",
      "operation": "max",
      "description": "Reduction: max"
    }
  },
  {
    "python_code": "lambda x: jnp.max(x)",
    "input_info": [
      {
        "shape": [
          4,
          7
        ],
        "dtype": "float32"
      }
    ],
    "jaxpr": "{ lambda ; a:f32[4,7]. let b:f32[] = reduce_max[axes=(0, 1)] a in (b,) }",
    "stablehlo": "module @jit__lambda attributes {mhlo.num_partitions = 1 : i32, mhlo.num_replicas = 1 : i32} {\n  func.func public @main(%arg0: tensor<4x7xf32>) -> (tensor<f32> {jax.result_info = \"result\"}) {\n    %cst = stablehlo.constant dense<0xFF800000> : tensor<f32>\n    %0 = stablehlo.reduce(%arg0 init: %cst) applies stablehlo.maximum across dimensions = [0, 1] : (tensor<4x7xf32>, tensor<f32>) -> tensor<f32>\n    return %0 : tensor<f32>\n  }\n}\n",
    "metadata": {
      "category": "reduction",
      "operation": "max",
      "description": "Reduction: max"
    }
  },
  {
    "python_code": "lambda x: jnp.sum(x)",
    "input_info": [
      {
        "shape": [
          4
        ],
        "dtype": "float32"
      }
    ],
    "jaxpr": "{ lambda ; a:f32[4]. let\n    b:f32[] = reduce_sum[axes=(0,) out_sharding=None] a\n  in (b,) }",
    "stablehlo": "module @jit__lambda attributes {mhlo.num_partitions = 1 : i32, mhlo.num_replicas = 1 : i32} {\n  func.func public @main(%arg0: tensor<4xf32>) -> (tensor<f32> {jax.result_info = \"result\"}) {\n    %cst = stablehlo.constant dense<0.000000e+00> : tensor<f32>\n    %0 = stablehlo.reduce(%arg0 init: %cst) applies stablehlo.add across dimensions = [0] : (tensor<4xf32>, tensor<f32>) -> tensor<f32>\n    return %0 : tensor<f32>\n  }\n}\n",
    "metadata": {
      "category": "reduction",
      "operation": "sum",
      "description": "Reduction: sum"
    }
  },
  {
    "python_code": "lambda x: jnp.prod(x)",
    "input_info": [
      {
        "shape": [
          8,
          3,
          8
        ],
        "dtype": "float32"
      }
    ],
    "jaxpr": "{ lambda ; a:f32[8,3,8]. let b:f32[] = reduce_prod[axes=(0, 1, 2)] a in (b,) }",
    "stablehlo": "module @jit__lambda attributes {mhlo.num_partitions = 1 : i32, mhlo.num_replicas = 1 : i32} {\n  func.func public @main(%arg0: tensor<8x3x8xf32>) -> (tensor<f32> {jax.result_info = \"result\"}) {\n    %cst = stablehlo.constant dense<1.000000e+00> : tensor<f32>\n    %0 = stablehlo.reduce(%arg0 init: %cst) applies stablehlo.multiply across dimensions = [0, 1, 2] : (tensor<8x3x8xf32>, tensor<f32>) -> tensor<f32>\n    return %0 : tensor<f32>\n  }\n}\n",
    "metadata": {
      "category": "reduction",
      "operation": "prod",
      "description": "Reduction: prod"
    }
  },
  {
    "python_code": "lambda x: jnp.prod(x)",
    "input_info": [
      {
        "shape": [
          7,
          4
        ],
        "dtype": "float32"
      }
    ],
    "jaxpr": "{ lambda ; a:f32[7,4]. let b:f32[] = reduce_prod[axes=(0, 1)] a in (b,) }",
    "stablehlo": "module @jit__lambda attributes {mhlo.num_partitions = 1 : i32, mhlo.num_replicas = 1 : i32} {\n  func.func public @main(%arg0: tensor<7x4xf32>) -> (tensor<f32> {jax.result_info = \"result\"}) {\n    %cst = stablehlo.constant dense<1.000000e+00> : tensor<f32>\n    %0 = stablehlo.reduce(%arg0 init: %cst) applies stablehlo.multiply across dimensions = [0, 1] : (tensor<7x4xf32>, tensor<f32>) -> tensor<f32>\n    return %0 : tensor<f32>\n  }\n}\n",
    "metadata": {
      "category": "reduction",
      "operation": "prod",
      "description": "Reduction: prod"
    }
  },
  {
    "python_code": "lambda x: jnp.sum(x, axis=0)",
    "input_info": [
      {
        "shape": [
          5,
          7
        ],
        "dtype": "float32"
      }
    ],
    "jaxpr": "{ lambda ; a:f32[5,7]. let\n    b:f32[7] = reduce_sum[axes=(0,) out_sharding=None] a\n  in (b,) }",
    "stablehlo": "module @jit__lambda attributes {mhlo.num_partitions = 1 : i32, mhlo.num_replicas = 1 : i32} {\n  func.func public @main(%arg0: tensor<5x7xf32>) -> (tensor<7xf32> {jax.result_info = \"result\"}) {\n    %cst = stablehlo.constant dense<0.000000e+00> : tensor<f32>\n    %0 = stablehlo.reduce(%arg0 init: %cst) applies stablehlo.add across dimensions = [0] : (tensor<5x7xf32>, tensor<f32>) -> tensor<7xf32>\n    return %0 : tensor<7xf32>\n  }\n}\n",
    "metadata": {
      "category": "reduction",
      "operation": "sum_axis0",
      "description": "Reduction: sum_axis0"
    }
  },
  {
    "python_code": "lambda x: jnp.sum(x)",
    "input_info": [
      {
        "shape": [
          6,
          5,
          5
        ],
        "dtype": "float32"
      }
    ],
    "jaxpr": "{ lambda ; a:f32[6,5,5]. let\n    b:f32[] = reduce_sum[axes=(0, 1, 2) out_sharding=None] a\n  in (b,) }",
    "stablehlo": "module @jit__lambda attributes {mhlo.num_partitions = 1 : i32, mhlo.num_replicas = 1 : i32} {\n  func.func public @main(%arg0: tensor<6x5x5xf32>) -> (tensor<f32> {jax.result_info = \"result\"}) {\n    %cst = stablehlo.constant dense<0.000000e+00> : tensor<f32>\n    %0 = stablehlo.reduce(%arg0 init: %cst) applies stablehlo.add across dimensions = [0, 1, 2] : (tensor<6x5x5xf32>, tensor<f32>) -> tensor<f32>\n    return %0 : tensor<f32>\n  }\n}\n",
    "metadata": {
      "category": "reduction",
      "operation": "sum",
      "description": "Reduction: sum"
    }
  },
  {
    "python_code": "lambda x: jnp.mean(x, axis=0)",
    "input_info": [
      {
        "shape": [
          9,
          6
        ],
        "dtype": "float32"
      }
    ],
    "jaxpr": "{ lambda ; a:f32[9,6]. let\n    b:f32[6] = reduce_sum[axes=(0,) out_sharding=None] a\n    c:f32[6] = div b 9.0:f32[]\n  in (c,) }",
    "stablehlo": "module @jit__lambda attributes {mhlo.num_partitions = 1 : i32, mhlo.num_replicas = 1 : i32} {\n  func.func public @main(%arg0: tensor<9x6xf32>) -> (tensor<6xf32> {jax.result_info = \"result\"}) {\n    %cst = stablehlo.constant dense<0.000000e+00> : tensor<f32>\n    %0 = stablehlo.reduce(%arg0 init: %cst) applies stablehlo.add across dimensions = [0] : (tensor<9x6xf32>, tensor<f32>) -> tensor<6xf32>\n    %cst_0 = stablehlo.constant dense<9.000000e+00> : tensor<f32>\n    %1 = stablehlo.broadcast_in_dim %cst_0, dims = [] : (tensor<f32>) -> tensor<6xf32>\n    %2 = stablehlo.divide %0, %1 : tensor<6xf32>\n    return %2 : tensor<6xf32>\n  }\n}\n",
    "metadata": {
      "category": "reduction",
      "operation": "mean_axis0",
      "description": "Reduction: mean_axis0"
    }
  },
  {
    "python_code": "lambda x: jnp.sum(x, axis=0)",
    "input_info": [
      {
        "shape": [
          3,
          5
        ],
        "dtype": "float32"
      }
    ],
    "jaxpr": "{ lambda ; a:f32[3,5]. let\n    b:f32[5] = reduce_sum[axes=(0,) out_sharding=None] a\n  in (b,) }",
    "stablehlo": "module @jit__lambda attributes {mhlo.num_partitions = 1 : i32, mhlo.num_replicas = 1 : i32} {\n  func.func public @main(%arg0: tensor<3x5xf32>) -> (tensor<5xf32> {jax.result_info = \"result\"}) {\n    %cst = stablehlo.constant dense<0.000000e+00> : tensor<f32>\n    %0 = stablehlo.reduce(%arg0 init: %cst) applies stablehlo.add across dimensions = [0] : (tensor<3x5xf32>, tensor<f32>) -> tensor<5xf32>\n    return %0 : tensor<5xf32>\n  }\n}\n",
    "metadata": {
      "category": "reduction",
      "operation": "sum_axis0",
      "description": "Reduction: sum_axis0"
    }
  },
  {
    "python_code": "lambda x: jnp.sum(x)",
    "input_info": [
      {
        "shape": [
          5,
          5
        ],
        "dtype": "float32"
      }
    ],
    "jaxpr": "{ lambda ; a:f32[5,5]. let\n    b:f32[] = reduce_sum[axes=(0, 1) out_sharding=None] a\n  in (b,) }",
    "stablehlo": "module @jit__lambda attributes {mhlo.num_partitions = 1 : i32, mhlo.num_replicas = 1 : i32} {\n  func.func public @main(%arg0: tensor<5x5xf32>) -> (tensor<f32> {jax.result_info = \"result\"}) {\n    %cst = stablehlo.constant dense<0.000000e+00> : tensor<f32>\n    %0 = stablehlo.reduce(%arg0 init: %cst) applies stablehlo.add across dimensions = [0, 1] : (tensor<5x5xf32>, tensor<f32>) -> tensor<f32>\n    return %0 : tensor<f32>\n  }\n}\n",
    "metadata": {
      "category": "reduction",
      "operation": "sum",
      "description": "Reduction: sum"
    }
  },
  {
    "python_code": "lambda x: jnp.mean(x, axis=0)",
    "input_info": [
      {
        "shape": [
          10,
          3
        ],
        "dtype": "float32"
      }
    ],
    "jaxpr": "{ lambda ; a:f32[10,3]. let\n    b:f32[3] = reduce_sum[axes=(0,) out_sharding=None] a\n    c:f32[3] = div b 10.0:f32[]\n  in (c,) }",
    "stablehlo": "module @jit__lambda attributes {mhlo.num_partitions = 1 : i32, mhlo.num_replicas = 1 : i32} {\n  func.func public @main(%arg0: tensor<10x3xf32>) -> (tensor<3xf32> {jax.result_info = \"result\"}) {\n    %cst = stablehlo.constant dense<0.000000e+00> : tensor<f32>\n    %0 = stablehlo.reduce(%arg0 init: %cst) applies stablehlo.add across dimensions = [0] : (tensor<10x3xf32>, tensor<f32>) -> tensor<3xf32>\n    %cst_0 = stablehlo.constant dense<1.000000e+01> : tensor<f32>\n    %1 = stablehlo.broadcast_in_dim %cst_0, dims = [] : (tensor<f32>) -> tensor<3xf32>\n    %2 = stablehlo.divide %0, %1 : tensor<3xf32>\n    return %2 : tensor<3xf32>\n  }\n}\n",
    "metadata": {
      "category": "reduction",
      "operation": "mean_axis0",
      "description": "Reduction: mean_axis0"
    }
  },
  {
    "python_code": "lambda x: jnp.sum(x)",
    "input_info": [
      {
        "shape": [
          10,
          10
        ],
        "dtype": "float32"
      }
    ],
    "jaxpr": "{ lambda ; a:f32[10,10]. let\n    b:f32[] = reduce_sum[axes=(0, 1) out_sharding=None] a\n  in (b,) }",
    "stablehlo": "module @jit__lambda attributes {mhlo.num_partitions = 1 : i32, mhlo.num_replicas = 1 : i32} {\n  func.func public @main(%arg0: tensor<10x10xf32>) -> (tensor<f32> {jax.result_info = \"result\"}) {\n    %cst = stablehlo.constant dense<0.000000e+00> : tensor<f32>\n    %0 = stablehlo.reduce(%arg0 init: %cst) applies stablehlo.add across dimensions = [0, 1] : (tensor<10x10xf32>, tensor<f32>) -> tensor<f32>\n    return %0 : tensor<f32>\n  }\n}\n",
    "metadata": {
      "category": "reduction",
      "operation": "sum",
      "description": "Reduction: sum"
    }
  },
  {
    "python_code": "lambda x: jnp.prod(x)",
    "input_info": [
      {
        "shape": [
          6,
          5
        ],
        "dtype": "float32"
      }
    ],
    "jaxpr": "{ lambda ; a:f32[6,5]. let b:f32[] = reduce_prod[axes=(0, 1)] a in (b,) }",
    "stablehlo": "module @jit__lambda attributes {mhlo.num_partitions = 1 : i32, mhlo.num_replicas = 1 : i32} {\n  func.func public @main(%arg0: tensor<6x5xf32>) -> (tensor<f32> {jax.result_info = \"result\"}) {\n    %cst = stablehlo.constant dense<1.000000e+00> : tensor<f32>\n    %0 = stablehlo.reduce(%arg0 init: %cst) applies stablehlo.multiply across dimensions = [0, 1] : (tensor<6x5xf32>, tensor<f32>) -> tensor<f32>\n    return %0 : tensor<f32>\n  }\n}\n",
    "metadata": {
      "category": "reduction",
      "operation": "prod",
      "description": "Reduction: prod"
    }
  },
  {
    "python_code": "lambda x: jnp.max(x)",
    "input_info": [
      {
        "shape": [
          4
        ],
        "dtype": "float32"
      }
    ],
    "jaxpr": "{ lambda ; a:f32[4]. let b:f32[] = reduce_max[axes=(0,)] a in (b,) }",
    "stablehlo": "module @jit__lambda attributes {mhlo.num_partitions = 1 : i32, mhlo.num_replicas = 1 : i32} {\n  func.func public @main(%arg0: tensor<4xf32>) -> (tensor<f32> {jax.result_info = \"result\"}) {\n    %cst = stablehlo.constant dense<0xFF800000> : tensor<f32>\n    %0 = stablehlo.reduce(%arg0 init: %cst) applies stablehlo.maximum across dimensions = [0] : (tensor<4xf32>, tensor<f32>) -> tensor<f32>\n    return %0 : tensor<f32>\n  }\n}\n",
    "metadata": {
      "category": "reduction",
      "operation": "max",
      "description": "Reduction: max"
    }
  },
  {
    "python_code": "lambda x: jnp.min(x)",
    "input_info": [
      {
        "shape": [
          8
        ],
        "dtype": "float32"
      }
    ],
    "jaxpr": "{ lambda ; a:f32[8]. let b:f32[] = reduce_min[axes=(0,)] a in (b,) }",
    "stablehlo": "module @jit__lambda attributes {mhlo.num_partitions = 1 : i32, mhlo.num_replicas = 1 : i32} {\n  func.func public @main(%arg0: tensor<8xf32>) -> (tensor<f32> {jax.result_info = \"result\"}) {\n    %cst = stablehlo.constant dense<0x7F800000> : tensor<f32>\n    %0 = stablehlo.reduce(%arg0 init: %cst) applies stablehlo.minimum across dimensions = [0] : (tensor<8xf32>, tensor<f32>) -> tensor<f32>\n    return %0 : tensor<f32>\n  }\n}\n",
    "metadata": {
      "category": "reduction",
      "operation": "min",
      "description": "Reduction: min"
    }
  },
  {
    "python_code": "lambda x: jnp.prod(x)",
    "input_info": [
      {
        "shape": [
          9,
          9
        ],
        "dtype": "float32"
      }
    ],
    "jaxpr": "{ lambda ; a:f32[9,9]. let b:f32[] = reduce_prod[axes=(0, 1)] a in (b,) }",
    "stablehlo": "module @jit__lambda attributes {mhlo.num_partitions = 1 : i32, mhlo.num_replicas = 1 : i32} {\n  func.func public @main(%arg0: tensor<9x9xf32>) -> (tensor<f32> {jax.result_info = \"result\"}) {\n    %cst = stablehlo.constant dense<1.000000e+00> : tensor<f32>\n    %0 = stablehlo.reduce(%arg0 init: %cst) applies stablehlo.multiply across dimensions = [0, 1] : (tensor<9x9xf32>, tensor<f32>) -> tensor<f32>\n    return %0 : tensor<f32>\n  }\n}\n",
    "metadata": {
      "category": "reduction",
      "operation": "prod",
      "description": "Reduction: prod"
    }
  },
  {
    "python_code": "lambda x: jnp.max(x)",
    "input_info": [
      {
        "shape": [
          10,
          2
        ],
        "dtype": "float32"
      }
    ],
    "jaxpr": "{ lambda ; a:f32[10,2]. let b:f32[] = reduce_max[axes=(0, 1)] a in (b,) }",
    "stablehlo": "module @jit__lambda attributes {mhlo.num_partitions = 1 : i32, mhlo.num_replicas = 1 : i32} {\n  func.func public @main(%arg0: tensor<10x2xf32>) -> (tensor<f32> {jax.result_info = \"result\"}) {\n    %cst = stablehlo.constant dense<0xFF800000> : tensor<f32>\n    %0 = stablehlo.reduce(%arg0 init: %cst) applies stablehlo.maximum across dimensions = [0, 1] : (tensor<10x2xf32>, tensor<f32>) -> tensor<f32>\n    return %0 : tensor<f32>\n  }\n}\n",
    "metadata": {
      "category": "reduction",
      "operation": "max",
      "description": "Reduction: max"
    }
  },
  {
    "python_code": "lambda x: jnp.min(x)",
    "input_info": [
      {
        "shape": [
          5,
          9
        ],
        "dtype": "float32"
      }
    ],
    "jaxpr": "{ lambda ; a:f32[5,9]. let b:f32[] = reduce_min[axes=(0, 1)] a in (b,) }",
    "stablehlo": "module @jit__lambda attributes {mhlo.num_partitions = 1 : i32, mhlo.num_replicas = 1 : i32} {\n  func.func public @main(%arg0: tensor<5x9xf32>) -> (tensor<f32> {jax.result_info = \"result\"}) {\n    %cst = stablehlo.constant dense<0x7F800000> : tensor<f32>\n    %0 = stablehlo.reduce(%arg0 init: %cst) applies stablehlo.minimum across dimensions = [0, 1] : (tensor<5x9xf32>, tensor<f32>) -> tensor<f32>\n    return %0 : tensor<f32>\n  }\n}\n",
    "metadata": {
      "category": "reduction",
      "operation": "min",
      "description": "Reduction: min"
    }
  },
  {
    "python_code": "lambda x: jnp.sum(x)",
    "input_info": [
      {
        "shape": [
          10,
          10
        ],
        "dtype": "float32"
      }
    ],
    "jaxpr": "{ lambda ; a:f32[10,10]. let\n    b:f32[] = reduce_sum[axes=(0, 1) out_sharding=None] a\n  in (b,) }",
    "stablehlo": "module @jit__lambda attributes {mhlo.num_partitions = 1 : i32, mhlo.num_replicas = 1 : i32} {\n  func.func public @main(%arg0: tensor<10x10xf32>) -> (tensor<f32> {jax.result_info = \"result\"}) {\n    %cst = stablehlo.constant dense<0.000000e+00> : tensor<f32>\n    %0 = stablehlo.reduce(%arg0 init: %cst) applies stablehlo.add across dimensions = [0, 1] : (tensor<10x10xf32>, tensor<f32>) -> tensor<f32>\n    return %0 : tensor<f32>\n  }\n}\n",
    "metadata": {
      "category": "reduction",
      "operation": "sum",
      "description": "Reduction: sum"
    }
  },
  {
    "python_code": "lambda x: jnp.prod(x)",
    "input_info": [
      {
        "shape": [
          2,
          4,
          3
        ],
        "dtype": "float32"
      }
    ],
    "jaxpr": "{ lambda ; a:f32[2,4,3]. let b:f32[] = reduce_prod[axes=(0, 1, 2)] a in (b,) }",
    "stablehlo": "module @jit__lambda attributes {mhlo.num_partitions = 1 : i32, mhlo.num_replicas = 1 : i32} {\n  func.func public @main(%arg0: tensor<2x4x3xf32>) -> (tensor<f32> {jax.result_info = \"result\"}) {\n    %cst = stablehlo.constant dense<1.000000e+00> : tensor<f32>\n    %0 = stablehlo.reduce(%arg0 init: %cst) applies stablehlo.multiply across dimensions = [0, 1, 2] : (tensor<2x4x3xf32>, tensor<f32>) -> tensor<f32>\n    return %0 : tensor<f32>\n  }\n}\n",
    "metadata": {
      "category": "reduction",
      "operation": "prod",
      "description": "Reduction: prod"
    }
  },
  {
    "python_code": "lambda x: jnp.min(x)",
    "input_info": [
      {
        "shape": [
          2,
          8
        ],
        "dtype": "float32"
      }
    ],
    "jaxpr": "{ lambda ; a:f32[2,8]. let b:f32[] = reduce_min[axes=(0, 1)] a in (b,) }",
    "stablehlo": "module @jit__lambda attributes {mhlo.num_partitions = 1 : i32, mhlo.num_replicas = 1 : i32} {\n  func.func public @main(%arg0: tensor<2x8xf32>) -> (tensor<f32> {jax.result_info = \"result\"}) {\n    %cst = stablehlo.constant dense<0x7F800000> : tensor<f32>\n    %0 = stablehlo.reduce(%arg0 init: %cst) applies stablehlo.minimum across dimensions = [0, 1] : (tensor<2x8xf32>, tensor<f32>) -> tensor<f32>\n    return %0 : tensor<f32>\n  }\n}\n",
    "metadata": {
      "category": "reduction",
      "operation": "min",
      "description": "Reduction: min"
    }
  },
  {
    "python_code": "lambda x: jnp.min(x)",
    "input_info": [
      {
        "shape": [
          6,
          2,
          9
        ],
        "dtype": "float32"
      }
    ],
    "jaxpr": "{ lambda ; a:f32[6,2,9]. let b:f32[] = reduce_min[axes=(0, 1, 2)] a in (b,) }",
    "stablehlo": "module @jit__lambda attributes {mhlo.num_partitions = 1 : i32, mhlo.num_replicas = 1 : i32} {\n  func.func public @main(%arg0: tensor<6x2x9xf32>) -> (tensor<f32> {jax.result_info = \"result\"}) {\n    %cst = stablehlo.constant dense<0x7F800000> : tensor<f32>\n    %0 = stablehlo.reduce(%arg0 init: %cst) applies stablehlo.minimum across dimensions = [0, 1, 2] : (tensor<6x2x9xf32>, tensor<f32>) -> tensor<f32>\n    return %0 : tensor<f32>\n  }\n}\n",
    "metadata": {
      "category": "reduction",
      "operation": "min",
      "description": "Reduction: min"
    }
  },
  {
    "python_code": "lambda x: jnp.prod(x)",
    "input_info": [
      {
        "shape": [
          8,
          3
        ],
        "dtype": "float32"
      }
    ],
    "jaxpr": "{ lambda ; a:f32[8,3]. let b:f32[] = reduce_prod[axes=(0, 1)] a in (b,) }",
    "stablehlo": "module @jit__lambda attributes {mhlo.num_partitions = 1 : i32, mhlo.num_replicas = 1 : i32} {\n  func.func public @main(%arg0: tensor<8x3xf32>) -> (tensor<f32> {jax.result_info = \"result\"}) {\n    %cst = stablehlo.constant dense<1.000000e+00> : tensor<f32>\n    %0 = stablehlo.reduce(%arg0 init: %cst) applies stablehlo.multiply across dimensions = [0, 1] : (tensor<8x3xf32>, tensor<f32>) -> tensor<f32>\n    return %0 : tensor<f32>\n  }\n}\n",
    "metadata": {
      "category": "reduction",
      "operation": "prod",
      "description": "Reduction: prod"
    }
  },
  {
    "python_code": "lambda x: jnp.mean(x)",
    "input_info": [
      {
        "shape": [
          2,
          9
        ],
        "dtype": "float32"
      }
    ],
    "jaxpr": "{ lambda ; a:f32[2,9]. let\n    b:f32[] = reduce_sum[axes=(0, 1) out_sharding=None] a\n    c:f32[] = div b 18.0:f32[]\n  in (c,) }",
    "stablehlo": "module @jit__lambda attributes {mhlo.num_partitions = 1 : i32, mhlo.num_replicas = 1 : i32} {\n  func.func public @main(%arg0: tensor<2x9xf32>) -> (tensor<f32> {jax.result_info = \"result\"}) {\n    %cst = stablehlo.constant dense<0.000000e+00> : tensor<f32>\n    %0 = stablehlo.reduce(%arg0 init: %cst) applies stablehlo.add across dimensions = [0, 1] : (tensor<2x9xf32>, tensor<f32>) -> tensor<f32>\n    %cst_0 = stablehlo.constant dense<1.800000e+01> : tensor<f32>\n    %1 = stablehlo.divide %0, %cst_0 : tensor<f32>\n    return %1 : tensor<f32>\n  }\n}\n",
    "metadata": {
      "category": "reduction",
      "operation": "mean",
      "description": "Reduction: mean"
    }
  },
  {
    "python_code": "lambda x: jnp.min(x)",
    "input_info": [
      {
        "shape": [
          9,
          7
        ],
        "dtype": "float32"
      }
    ],
    "jaxpr": "{ lambda ; a:f32[9,7]. let b:f32[] = reduce_min[axes=(0, 1)] a in (b,) }",
    "stablehlo": "module @jit__lambda attributes {mhlo.num_partitions = 1 : i32, mhlo.num_replicas = 1 : i32} {\n  func.func public @main(%arg0: tensor<9x7xf32>) -> (tensor<f32> {jax.result_info = \"result\"}) {\n    %cst = stablehlo.constant dense<0x7F800000> : tensor<f32>\n    %0 = stablehlo.reduce(%arg0 init: %cst) applies stablehlo.minimum across dimensions = [0, 1] : (tensor<9x7xf32>, tensor<f32>) -> tensor<f32>\n    return %0 : tensor<f32>\n  }\n}\n",
    "metadata": {
      "category": "reduction",
      "operation": "min",
      "description": "Reduction: min"
    }
  },
  {
    "python_code": "lambda x: jnp.prod(x)",
    "input_info": [
      {
        "shape": [
          5,
          3
        ],
        "dtype": "float32"
      }
    ],
    "jaxpr": "{ lambda ; a:f32[5,3]. let b:f32[] = reduce_prod[axes=(0, 1)] a in (b,) }",
    "stablehlo": "module @jit__lambda attributes {mhlo.num_partitions = 1 : i32, mhlo.num_replicas = 1 : i32} {\n  func.func public @main(%arg0: tensor<5x3xf32>) -> (tensor<f32> {jax.result_info = \"result\"}) {\n    %cst = stablehlo.constant dense<1.000000e+00> : tensor<f32>\n    %0 = stablehlo.reduce(%arg0 init: %cst) applies stablehlo.multiply across dimensions = [0, 1] : (tensor<5x3xf32>, tensor<f32>) -> tensor<f32>\n    return %0 : tensor<f32>\n  }\n}\n",
    "metadata": {
      "category": "reduction",
      "operation": "prod",
      "description": "Reduction: prod"
    }
  },
  {
    "python_code": "lambda x: jnp.min(x)",
    "input_info": [
      {
        "shape": [
          10,
          2,
          8
        ],
        "dtype": "float32"
      }
    ],
    "jaxpr": "{ lambda ; a:f32[10,2,8]. let b:f32[] = reduce_min[axes=(0, 1, 2)] a in (b,) }",
    "stablehlo": "module @jit__lambda attributes {mhlo.num_partitions = 1 : i32, mhlo.num_replicas = 1 : i32} {\n  func.func public @main(%arg0: tensor<10x2x8xf32>) -> (tensor<f32> {jax.result_info = \"result\"}) {\n    %cst = stablehlo.constant dense<0x7F800000> : tensor<f32>\n    %0 = stablehlo.reduce(%arg0 init: %cst) applies stablehlo.minimum across dimensions = [0, 1, 2] : (tensor<10x2x8xf32>, tensor<f32>) -> tensor<f32>\n    return %0 : tensor<f32>\n  }\n}\n",
    "metadata": {
      "category": "reduction",
      "operation": "min",
      "description": "Reduction: min"
    }
  },
  {
    "python_code": "lambda x: jnp.sum(x)",
    "input_info": [
      {
        "shape": [
          9,
          8,
          10
        ],
        "dtype": "float32"
      }
    ],
    "jaxpr": "{ lambda ; a:f32[9,8,10]. let\n    b:f32[] = reduce_sum[axes=(0, 1, 2) out_sharding=None] a\n  in (b,) }",
    "stablehlo": "module @jit__lambda attributes {mhlo.num_partitions = 1 : i32, mhlo.num_replicas = 1 : i32} {\n  func.func public @main(%arg0: tensor<9x8x10xf32>) -> (tensor<f32> {jax.result_info = \"result\"}) {\n    %cst = stablehlo.constant dense<0.000000e+00> : tensor<f32>\n    %0 = stablehlo.reduce(%arg0 init: %cst) applies stablehlo.add across dimensions = [0, 1, 2] : (tensor<9x8x10xf32>, tensor<f32>) -> tensor<f32>\n    return %0 : tensor<f32>\n  }\n}\n",
    "metadata": {
      "category": "reduction",
      "operation": "sum",
      "description": "Reduction: sum"
    }
  },
  {
    "python_code": "lambda x: jnp.min(x)",
    "input_info": [
      {
        "shape": [
          7,
          2,
          4
        ],
        "dtype": "float32"
      }
    ],
    "jaxpr": "{ lambda ; a:f32[7,2,4]. let b:f32[] = reduce_min[axes=(0, 1, 2)] a in (b,) }",
    "stablehlo": "module @jit__lambda attributes {mhlo.num_partitions = 1 : i32, mhlo.num_replicas = 1 : i32} {\n  func.func public @main(%arg0: tensor<7x2x4xf32>) -> (tensor<f32> {jax.result_info = \"result\"}) {\n    %cst = stablehlo.constant dense<0x7F800000> : tensor<f32>\n    %0 = stablehlo.reduce(%arg0 init: %cst) applies stablehlo.minimum across dimensions = [0, 1, 2] : (tensor<7x2x4xf32>, tensor<f32>) -> tensor<f32>\n    return %0 : tensor<f32>\n  }\n}\n",
    "metadata": {
      "category": "reduction",
      "operation": "min",
      "description": "Reduction: min"
    }
  },
  {
    "python_code": "lambda x: jnp.mean(x, axis=0)",
    "input_info": [
      {
        "shape": [
          10,
          5
        ],
        "dtype": "float32"
      }
    ],
    "jaxpr": "{ lambda ; a:f32[10,5]. let\n    b:f32[5] = reduce_sum[axes=(0,) out_sharding=None] a\n    c:f32[5] = div b 10.0:f32[]\n  in (c,) }",
    "stablehlo": "module @jit__lambda attributes {mhlo.num_partitions = 1 : i32, mhlo.num_replicas = 1 : i32} {\n  func.func public @main(%arg0: tensor<10x5xf32>) -> (tensor<5xf32> {jax.result_info = \"result\"}) {\n    %cst = stablehlo.constant dense<0.000000e+00> : tensor<f32>\n    %0 = stablehlo.reduce(%arg0 init: %cst) applies stablehlo.add across dimensions = [0] : (tensor<10x5xf32>, tensor<f32>) -> tensor<5xf32>\n    %cst_0 = stablehlo.constant dense<1.000000e+01> : tensor<f32>\n    %1 = stablehlo.broadcast_in_dim %cst_0, dims = [] : (tensor<f32>) -> tensor<5xf32>\n    %2 = stablehlo.divide %0, %1 : tensor<5xf32>\n    return %2 : tensor<5xf32>\n  }\n}\n",
    "metadata": {
      "category": "reduction",
      "operation": "mean_axis0",
      "description": "Reduction: mean_axis0"
    }
  },
  {
    "python_code": "lambda x: jnp.min(x)",
    "input_info": [
      {
        "shape": [
          2
        ],
        "dtype": "float32"
      }
    ],
    "jaxpr": "{ lambda ; a:f32[2]. let b:f32[] = reduce_min[axes=(0,)] a in (b,) }",
    "stablehlo": "module @jit__lambda attributes {mhlo.num_partitions = 1 : i32, mhlo.num_replicas = 1 : i32} {\n  func.func public @main(%arg0: tensor<2xf32>) -> (tensor<f32> {jax.result_info = \"result\"}) {\n    %cst = stablehlo.constant dense<0x7F800000> : tensor<f32>\n    %0 = stablehlo.reduce(%arg0 init: %cst) applies stablehlo.minimum across dimensions = [0] : (tensor<2xf32>, tensor<f32>) -> tensor<f32>\n    return %0 : tensor<f32>\n  }\n}\n",
    "metadata": {
      "category": "reduction",
      "operation": "min",
      "description": "Reduction: min"
    }
  },
  {
    "python_code": "lambda x: jnp.max(x)",
    "input_info": [
      {
        "shape": [
          3,
          6,
          10
        ],
        "dtype": "float32"
      }
    ],
    "jaxpr": "{ lambda ; a:f32[3,6,10]. let b:f32[] = reduce_max[axes=(0, 1, 2)] a in (b,) }",
    "stablehlo": "module @jit__lambda attributes {mhlo.num_partitions = 1 : i32, mhlo.num_replicas = 1 : i32} {\n  func.func public @main(%arg0: tensor<3x6x10xf32>) -> (tensor<f32> {jax.result_info = \"result\"}) {\n    %cst = stablehlo.constant dense<0xFF800000> : tensor<f32>\n    %0 = stablehlo.reduce(%arg0 init: %cst) applies stablehlo.maximum across dimensions = [0, 1, 2] : (tensor<3x6x10xf32>, tensor<f32>) -> tensor<f32>\n    return %0 : tensor<f32>\n  }\n}\n",
    "metadata": {
      "category": "reduction",
      "operation": "max",
      "description": "Reduction: max"
    }
  },
  {
    "python_code": "lambda x: jnp.mean(x)",
    "input_info": [
      {
        "shape": [
          2
        ],
        "dtype": "float32"
      }
    ],
    "jaxpr": "{ lambda ; a:f32[2]. let\n    b:f32[] = reduce_sum[axes=(0,) out_sharding=None] a\n    c:f32[] = div b 2.0:f32[]\n  in (c,) }",
    "stablehlo": "module @jit__lambda attributes {mhlo.num_partitions = 1 : i32, mhlo.num_replicas = 1 : i32} {\n  func.func public @main(%arg0: tensor<2xf32>) -> (tensor<f32> {jax.result_info = \"result\"}) {\n    %cst = stablehlo.constant dense<0.000000e+00> : tensor<f32>\n    %0 = stablehlo.reduce(%arg0 init: %cst) applies stablehlo.add across dimensions = [0] : (tensor<2xf32>, tensor<f32>) -> tensor<f32>\n    %cst_0 = stablehlo.constant dense<2.000000e+00> : tensor<f32>\n    %1 = stablehlo.divide %0, %cst_0 : tensor<f32>\n    return %1 : tensor<f32>\n  }\n}\n",
    "metadata": {
      "category": "reduction",
      "operation": "mean",
      "description": "Reduction: mean"
    }
  },
  {
    "python_code": "lambda x: jnp.mean(x)",
    "input_info": [
      {
        "shape": [
          8
        ],
        "dtype": "float32"
      }
    ],
    "jaxpr": "{ lambda ; a:f32[8]. let\n    b:f32[] = reduce_sum[axes=(0,) out_sharding=None] a\n    c:f32[] = div b 8.0:f32[]\n  in (c,) }",
    "stablehlo": "module @jit__lambda attributes {mhlo.num_partitions = 1 : i32, mhlo.num_replicas = 1 : i32} {\n  func.func public @main(%arg0: tensor<8xf32>) -> (tensor<f32> {jax.result_info = \"result\"}) {\n    %cst = stablehlo.constant dense<0.000000e+00> : tensor<f32>\n    %0 = stablehlo.reduce(%arg0 init: %cst) applies stablehlo.add across dimensions = [0] : (tensor<8xf32>, tensor<f32>) -> tensor<f32>\n    %cst_0 = stablehlo.constant dense<8.000000e+00> : tensor<f32>\n    %1 = stablehlo.divide %0, %cst_0 : tensor<f32>\n    return %1 : tensor<f32>\n  }\n}\n",
    "metadata": {
      "category": "reduction",
      "operation": "mean",
      "description": "Reduction: mean"
    }
  },
  {
    "python_code": "lambda x: jnp.mean(x, axis=0)",
    "input_info": [
      {
        "shape": [
          3,
          5
        ],
        "dtype": "float32"
      }
    ],
    "jaxpr": "{ lambda ; a:f32[3,5]. let\n    b:f32[5] = reduce_sum[axes=(0,) out_sharding=None] a\n    c:f32[5] = div b 3.0:f32[]\n  in (c,) }",
    "stablehlo": "module @jit__lambda attributes {mhlo.num_partitions = 1 : i32, mhlo.num_replicas = 1 : i32} {\n  func.func public @main(%arg0: tensor<3x5xf32>) -> (tensor<5xf32> {jax.result_info = \"result\"}) {\n    %cst = stablehlo.constant dense<0.000000e+00> : tensor<f32>\n    %0 = stablehlo.reduce(%arg0 init: %cst) applies stablehlo.add across dimensions = [0] : (tensor<3x5xf32>, tensor<f32>) -> tensor<5xf32>\n    %cst_0 = stablehlo.constant dense<3.000000e+00> : tensor<f32>\n    %1 = stablehlo.broadcast_in_dim %cst_0, dims = [] : (tensor<f32>) -> tensor<5xf32>\n    %2 = stablehlo.divide %0, %1 : tensor<5xf32>\n    return %2 : tensor<5xf32>\n  }\n}\n",
    "metadata": {
      "category": "reduction",
      "operation": "mean_axis0",
      "description": "Reduction: mean_axis0"
    }
  },
  {
    "python_code": "lambda x: jnp.sum(x, axis=0)",
    "input_info": [
      {
        "shape": [
          6,
          4
        ],
        "dtype": "float32"
      }
    ],
    "jaxpr": "{ lambda ; a:f32[6,4]. let\n    b:f32[4] = reduce_sum[axes=(0,) out_sharding=None] a\n  in (b,) }",
    "stablehlo": "module @jit__lambda attributes {mhlo.num_partitions = 1 : i32, mhlo.num_replicas = 1 : i32} {\n  func.func public @main(%arg0: tensor<6x4xf32>) -> (tensor<4xf32> {jax.result_info = \"result\"}) {\n    %cst = stablehlo.constant dense<0.000000e+00> : tensor<f32>\n    %0 = stablehlo.reduce(%arg0 init: %cst) applies stablehlo.add across dimensions = [0] : (tensor<6x4xf32>, tensor<f32>) -> tensor<4xf32>\n    return %0 : tensor<4xf32>\n  }\n}\n",
    "metadata": {
      "category": "reduction",
      "operation": "sum_axis0",
      "description": "Reduction: sum_axis0"
    }
  },
  {
    "python_code": "lambda x: jnp.sum(x, axis=0)",
    "input_info": [
      {
        "shape": [
          6,
          6
        ],
        "dtype": "float32"
      }
    ],
    "jaxpr": "{ lambda ; a:f32[6,6]. let\n    b:f32[6] = reduce_sum[axes=(0,) out_sharding=None] a\n  in (b,) }",
    "stablehlo": "module @jit__lambda attributes {mhlo.num_partitions = 1 : i32, mhlo.num_replicas = 1 : i32} {\n  func.func public @main(%arg0: tensor<6x6xf32>) -> (tensor<6xf32> {jax.result_info = \"result\"}) {\n    %cst = stablehlo.constant dense<0.000000e+00> : tensor<f32>\n    %0 = stablehlo.reduce(%arg0 init: %cst) applies stablehlo.add across dimensions = [0] : (tensor<6x6xf32>, tensor<f32>) -> tensor<6xf32>\n    return %0 : tensor<6xf32>\n  }\n}\n",
    "metadata": {
      "category": "reduction",
      "operation": "sum_axis0",
      "description": "Reduction: sum_axis0"
    }
  },
  {
    "python_code": "lambda x: jnp.mean(x)",
    "input_info": [
      {
        "shape": [
          10,
          4
        ],
        "dtype": "float32"
      }
    ],
    "jaxpr": "{ lambda ; a:f32[10,4]. let\n    b:f32[] = reduce_sum[axes=(0, 1) out_sharding=None] a\n    c:f32[] = div b 40.0:f32[]\n  in (c,) }",
    "stablehlo": "module @jit__lambda attributes {mhlo.num_partitions = 1 : i32, mhlo.num_replicas = 1 : i32} {\n  func.func public @main(%arg0: tensor<10x4xf32>) -> (tensor<f32> {jax.result_info = \"result\"}) {\n    %cst = stablehlo.constant dense<0.000000e+00> : tensor<f32>\n    %0 = stablehlo.reduce(%arg0 init: %cst) applies stablehlo.add across dimensions = [0, 1] : (tensor<10x4xf32>, tensor<f32>) -> tensor<f32>\n    %cst_0 = stablehlo.constant dense<4.000000e+01> : tensor<f32>\n    %1 = stablehlo.divide %0, %cst_0 : tensor<f32>\n    return %1 : tensor<f32>\n  }\n}\n",
    "metadata": {
      "category": "reduction",
      "operation": "mean",
      "description": "Reduction: mean"
    }
  },
  {
    "python_code": "lambda x: jnp.max(x)",
    "input_info": [
      {
        "shape": [
          10,
          3
        ],
        "dtype": "float32"
      }
    ],
    "jaxpr": "{ lambda ; a:f32[10,3]. let b:f32[] = reduce_max[axes=(0, 1)] a in (b,) }",
    "stablehlo": "module @jit__lambda attributes {mhlo.num_partitions = 1 : i32, mhlo.num_replicas = 1 : i32} {\n  func.func public @main(%arg0: tensor<10x3xf32>) -> (tensor<f32> {jax.result_info = \"result\"}) {\n    %cst = stablehlo.constant dense<0xFF800000> : tensor<f32>\n    %0 = stablehlo.reduce(%arg0 init: %cst) applies stablehlo.maximum across dimensions = [0, 1] : (tensor<10x3xf32>, tensor<f32>) -> tensor<f32>\n    return %0 : tensor<f32>\n  }\n}\n",
    "metadata": {
      "category": "reduction",
      "operation": "max",
      "description": "Reduction: max"
    }
  },
  {
    "python_code": "lambda x: jnp.mean(x, axis=0)",
    "input_info": [
      {
        "shape": [
          3,
          9
        ],
        "dtype": "float32"
      }
    ],
    "jaxpr": "{ lambda ; a:f32[3,9]. let\n    b:f32[9] = reduce_sum[axes=(0,) out_sharding=None] a\n    c:f32[9] = div b 3.0:f32[]\n  in (c,) }",
    "stablehlo": "module @jit__lambda attributes {mhlo.num_partitions = 1 : i32, mhlo.num_replicas = 1 : i32} {\n  func.func public @main(%arg0: tensor<3x9xf32>) -> (tensor<9xf32> {jax.result_info = \"result\"}) {\n    %cst = stablehlo.constant dense<0.000000e+00> : tensor<f32>\n    %0 = stablehlo.reduce(%arg0 init: %cst) applies stablehlo.add across dimensions = [0] : (tensor<3x9xf32>, tensor<f32>) -> tensor<9xf32>\n    %cst_0 = stablehlo.constant dense<3.000000e+00> : tensor<f32>\n    %1 = stablehlo.broadcast_in_dim %cst_0, dims = [] : (tensor<f32>) -> tensor<9xf32>\n    %2 = stablehlo.divide %0, %1 : tensor<9xf32>\n    return %2 : tensor<9xf32>\n  }\n}\n",
    "metadata": {
      "category": "reduction",
      "operation": "mean_axis0",
      "description": "Reduction: mean_axis0"
    }
  },
  {
    "python_code": "lambda x: jnp.sum(x, axis=0)",
    "input_info": [
      {
        "shape": [
          2,
          7
        ],
        "dtype": "float32"
      }
    ],
    "jaxpr": "{ lambda ; a:f32[2,7]. let\n    b:f32[7] = reduce_sum[axes=(0,) out_sharding=None] a\n  in (b,) }",
    "stablehlo": "module @jit__lambda attributes {mhlo.num_partitions = 1 : i32, mhlo.num_replicas = 1 : i32} {\n  func.func public @main(%arg0: tensor<2x7xf32>) -> (tensor<7xf32> {jax.result_info = \"result\"}) {\n    %cst = stablehlo.constant dense<0.000000e+00> : tensor<f32>\n    %0 = stablehlo.reduce(%arg0 init: %cst) applies stablehlo.add across dimensions = [0] : (tensor<2x7xf32>, tensor<f32>) -> tensor<7xf32>\n    return %0 : tensor<7xf32>\n  }\n}\n",
    "metadata": {
      "category": "reduction",
      "operation": "sum_axis0",
      "description": "Reduction: sum_axis0"
    }
  },
  {
    "python_code": "lambda x: jnp.sum(x, axis=0)",
    "input_info": [
      {
        "shape": [
          2,
          6
        ],
        "dtype": "float32"
      }
    ],
    "jaxpr": "{ lambda ; a:f32[2,6]. let\n    b:f32[6] = reduce_sum[axes=(0,) out_sharding=None] a\n  in (b,) }",
    "stablehlo": "module @jit__lambda attributes {mhlo.num_partitions = 1 : i32, mhlo.num_replicas = 1 : i32} {\n  func.func public @main(%arg0: tensor<2x6xf32>) -> (tensor<6xf32> {jax.result_info = \"result\"}) {\n    %cst = stablehlo.constant dense<0.000000e+00> : tensor<f32>\n    %0 = stablehlo.reduce(%arg0 init: %cst) applies stablehlo.add across dimensions = [0] : (tensor<2x6xf32>, tensor<f32>) -> tensor<6xf32>\n    return %0 : tensor<6xf32>\n  }\n}\n",
    "metadata": {
      "category": "reduction",
      "operation": "sum_axis0",
      "description": "Reduction: sum_axis0"
    }
  },
  {
    "python_code": "lambda x: jnp.max(x)",
    "input_info": [
      {
        "shape": [
          4,
          3
        ],
        "dtype": "float32"
      }
    ],
    "jaxpr": "{ lambda ; a:f32[4,3]. let b:f32[] = reduce_max[axes=(0, 1)] a in (b,) }",
    "stablehlo": "module @jit__lambda attributes {mhlo.num_partitions = 1 : i32, mhlo.num_replicas = 1 : i32} {\n  func.func public @main(%arg0: tensor<4x3xf32>) -> (tensor<f32> {jax.result_info = \"result\"}) {\n    %cst = stablehlo.constant dense<0xFF800000> : tensor<f32>\n    %0 = stablehlo.reduce(%arg0 init: %cst) applies stablehlo.maximum across dimensions = [0, 1] : (tensor<4x3xf32>, tensor<f32>) -> tensor<f32>\n    return %0 : tensor<f32>\n  }\n}\n",
    "metadata": {
      "category": "reduction",
      "operation": "max",
      "description": "Reduction: max"
    }
  },
  {
    "python_code": "lambda x: jnp.min(x)",
    "input_info": [
      {
        "shape": [
          7,
          8
        ],
        "dtype": "float32"
      }
    ],
    "jaxpr": "{ lambda ; a:f32[7,8]. let b:f32[] = reduce_min[axes=(0, 1)] a in (b,) }",
    "stablehlo": "module @jit__lambda attributes {mhlo.num_partitions = 1 : i32, mhlo.num_replicas = 1 : i32} {\n  func.func public @main(%arg0: tensor<7x8xf32>) -> (tensor<f32> {jax.result_info = \"result\"}) {\n    %cst = stablehlo.constant dense<0x7F800000> : tensor<f32>\n    %0 = stablehlo.reduce(%arg0 init: %cst) applies stablehlo.minimum across dimensions = [0, 1] : (tensor<7x8xf32>, tensor<f32>) -> tensor<f32>\n    return %0 : tensor<f32>\n  }\n}\n",
    "metadata": {
      "category": "reduction",
      "operation": "min",
      "description": "Reduction: min"
    }
  },
  {
    "python_code": "lambda x: jnp.sum(x)",
    "input_info": [
      {
        "shape": [
          3,
          10
        ],
        "dtype": "float32"
      }
    ],
    "jaxpr": "{ lambda ; a:f32[3,10]. let\n    b:f32[] = reduce_sum[axes=(0, 1) out_sharding=None] a\n  in (b,) }",
    "stablehlo": "module @jit__lambda attributes {mhlo.num_partitions = 1 : i32, mhlo.num_replicas = 1 : i32} {\n  func.func public @main(%arg0: tensor<3x10xf32>) -> (tensor<f32> {jax.result_info = \"result\"}) {\n    %cst = stablehlo.constant dense<0.000000e+00> : tensor<f32>\n    %0 = stablehlo.reduce(%arg0 init: %cst) applies stablehlo.add across dimensions = [0, 1] : (tensor<3x10xf32>, tensor<f32>) -> tensor<f32>\n    return %0 : tensor<f32>\n  }\n}\n",
    "metadata": {
      "category": "reduction",
      "operation": "sum",
      "description": "Reduction: sum"
    }
  },
  {
    "python_code": "lambda x: jnp.sum(x)",
    "input_info": [
      {
        "shape": [
          9
        ],
        "dtype": "float32"
      }
    ],
    "jaxpr": "{ lambda ; a:f32[9]. let\n    b:f32[] = reduce_sum[axes=(0,) out_sharding=None] a\n  in (b,) }",
    "stablehlo": "module @jit__lambda attributes {mhlo.num_partitions = 1 : i32, mhlo.num_replicas = 1 : i32} {\n  func.func public @main(%arg0: tensor<9xf32>) -> (tensor<f32> {jax.result_info = \"result\"}) {\n    %cst = stablehlo.constant dense<0.000000e+00> : tensor<f32>\n    %0 = stablehlo.reduce(%arg0 init: %cst) applies stablehlo.add across dimensions = [0] : (tensor<9xf32>, tensor<f32>) -> tensor<f32>\n    return %0 : tensor<f32>\n  }\n}\n",
    "metadata": {
      "category": "reduction",
      "operation": "sum",
      "description": "Reduction: sum"
    }
  },
  {
    "python_code": "lambda x: jnp.mean(x)",
    "input_info": [
      {
        "shape": [
          5
        ],
        "dtype": "float32"
      }
    ],
    "jaxpr": "{ lambda ; a:f32[5]. let\n    b:f32[] = reduce_sum[axes=(0,) out_sharding=None] a\n    c:f32[] = div b 5.0:f32[]\n  in (c,) }",
    "stablehlo": "module @jit__lambda attributes {mhlo.num_partitions = 1 : i32, mhlo.num_replicas = 1 : i32} {\n  func.func public @main(%arg0: tensor<5xf32>) -> (tensor<f32> {jax.result_info = \"result\"}) {\n    %cst = stablehlo.constant dense<0.000000e+00> : tensor<f32>\n    %0 = stablehlo.reduce(%arg0 init: %cst) applies stablehlo.add across dimensions = [0] : (tensor<5xf32>, tensor<f32>) -> tensor<f32>\n    %cst_0 = stablehlo.constant dense<5.000000e+00> : tensor<f32>\n    %1 = stablehlo.divide %0, %cst_0 : tensor<f32>\n    return %1 : tensor<f32>\n  }\n}\n",
    "metadata": {
      "category": "reduction",
      "operation": "mean",
      "description": "Reduction: mean"
    }
  },
  {
    "python_code": "lambda x: jnp.mean(x)",
    "input_info": [
      {
        "shape": [
          9,
          5,
          2
        ],
        "dtype": "float32"
      }
    ],
    "jaxpr": "{ lambda ; a:f32[9,5,2]. let\n    b:f32[] = reduce_sum[axes=(0, 1, 2) out_sharding=None] a\n    c:f32[] = div b 90.0:f32[]\n  in (c,) }",
    "stablehlo": "module @jit__lambda attributes {mhlo.num_partitions = 1 : i32, mhlo.num_replicas = 1 : i32} {\n  func.func public @main(%arg0: tensor<9x5x2xf32>) -> (tensor<f32> {jax.result_info = \"result\"}) {\n    %cst = stablehlo.constant dense<0.000000e+00> : tensor<f32>\n    %0 = stablehlo.reduce(%arg0 init: %cst) applies stablehlo.add across dimensions = [0, 1, 2] : (tensor<9x5x2xf32>, tensor<f32>) -> tensor<f32>\n    %cst_0 = stablehlo.constant dense<9.000000e+01> : tensor<f32>\n    %1 = stablehlo.divide %0, %cst_0 : tensor<f32>\n    return %1 : tensor<f32>\n  }\n}\n",
    "metadata": {
      "category": "reduction",
      "operation": "mean",
      "description": "Reduction: mean"
    }
  },
  {
    "python_code": "lambda x: jnp.min(x)",
    "input_info": [
      {
        "shape": [
          5,
          10,
          9
        ],
        "dtype": "float32"
      }
    ],
    "jaxpr": "{ lambda ; a:f32[5,10,9]. let b:f32[] = reduce_min[axes=(0, 1, 2)] a in (b,) }",
    "stablehlo": "module @jit__lambda attributes {mhlo.num_partitions = 1 : i32, mhlo.num_replicas = 1 : i32} {\n  func.func public @main(%arg0: tensor<5x10x9xf32>) -> (tensor<f32> {jax.result_info = \"result\"}) {\n    %cst = stablehlo.constant dense<0x7F800000> : tensor<f32>\n    %0 = stablehlo.reduce(%arg0 init: %cst) applies stablehlo.minimum across dimensions = [0, 1, 2] : (tensor<5x10x9xf32>, tensor<f32>) -> tensor<f32>\n    return %0 : tensor<f32>\n  }\n}\n",
    "metadata": {
      "category": "reduction",
      "operation": "min",
      "description": "Reduction: min"
    }
  },
  {
    "python_code": "lambda x: jnp.sum(x, axis=0)",
    "input_info": [
      {
        "shape": [
          3,
          3
        ],
        "dtype": "float32"
      }
    ],
    "jaxpr": "{ lambda ; a:f32[3,3]. let\n    b:f32[3] = reduce_sum[axes=(0,) out_sharding=None] a\n  in (b,) }",
    "stablehlo": "module @jit__lambda attributes {mhlo.num_partitions = 1 : i32, mhlo.num_replicas = 1 : i32} {\n  func.func public @main(%arg0: tensor<3x3xf32>) -> (tensor<3xf32> {jax.result_info = \"result\"}) {\n    %cst = stablehlo.constant dense<0.000000e+00> : tensor<f32>\n    %0 = stablehlo.reduce(%arg0 init: %cst) applies stablehlo.add across dimensions = [0] : (tensor<3x3xf32>, tensor<f32>) -> tensor<3xf32>\n    return %0 : tensor<3xf32>\n  }\n}\n",
    "metadata": {
      "category": "reduction",
      "operation": "sum_axis0",
      "description": "Reduction: sum_axis0"
    }
  },
  {
    "python_code": "lambda x: jnp.prod(x)",
    "input_info": [
      {
        "shape": [
          9
        ],
        "dtype": "float32"
      }
    ],
    "jaxpr": "{ lambda ; a:f32[9]. let b:f32[] = reduce_prod[axes=(0,)] a in (b,) }",
    "stablehlo": "module @jit__lambda attributes {mhlo.num_partitions = 1 : i32, mhlo.num_replicas = 1 : i32} {\n  func.func public @main(%arg0: tensor<9xf32>) -> (tensor<f32> {jax.result_info = \"result\"}) {\n    %cst = stablehlo.constant dense<1.000000e+00> : tensor<f32>\n    %0 = stablehlo.reduce(%arg0 init: %cst) applies stablehlo.multiply across dimensions = [0] : (tensor<9xf32>, tensor<f32>) -> tensor<f32>\n    return %0 : tensor<f32>\n  }\n}\n",
    "metadata": {
      "category": "reduction",
      "operation": "prod",
      "description": "Reduction: prod"
    }
  },
  {
    "python_code": "lambda x: jnp.min(x)",
    "input_info": [
      {
        "shape": [
          9,
          4,
          9
        ],
        "dtype": "float32"
      }
    ],
    "jaxpr": "{ lambda ; a:f32[9,4,9]. let b:f32[] = reduce_min[axes=(0, 1, 2)] a in (b,) }",
    "stablehlo": "module @jit__lambda attributes {mhlo.num_partitions = 1 : i32, mhlo.num_replicas = 1 : i32} {\n  func.func public @main(%arg0: tensor<9x4x9xf32>) -> (tensor<f32> {jax.result_info = \"result\"}) {\n    %cst = stablehlo.constant dense<0x7F800000> : tensor<f32>\n    %0 = stablehlo.reduce(%arg0 init: %cst) applies stablehlo.minimum across dimensions = [0, 1, 2] : (tensor<9x4x9xf32>, tensor<f32>) -> tensor<f32>\n    return %0 : tensor<f32>\n  }\n}\n",
    "metadata": {
      "category": "reduction",
      "operation": "min",
      "description": "Reduction: min"
    }
  },
  {
    "python_code": "lambda x: jnp.min(x)",
    "input_info": [
      {
        "shape": [
          5,
          3
        ],
        "dtype": "float32"
      }
    ],
    "jaxpr": "{ lambda ; a:f32[5,3]. let b:f32[] = reduce_min[axes=(0, 1)] a in (b,) }",
    "stablehlo": "module @jit__lambda attributes {mhlo.num_partitions = 1 : i32, mhlo.num_replicas = 1 : i32} {\n  func.func public @main(%arg0: tensor<5x3xf32>) -> (tensor<f32> {jax.result_info = \"result\"}) {\n    %cst = stablehlo.constant dense<0x7F800000> : tensor<f32>\n    %0 = stablehlo.reduce(%arg0 init: %cst) applies stablehlo.minimum across dimensions = [0, 1] : (tensor<5x3xf32>, tensor<f32>) -> tensor<f32>\n    return %0 : tensor<f32>\n  }\n}\n",
    "metadata": {
      "category": "reduction",
      "operation": "min",
      "description": "Reduction: min"
    }
  },
  {
    "python_code": "lambda x: jnp.min(x)",
    "input_info": [
      {
        "shape": [
          5,
          7
        ],
        "dtype": "float32"
      }
    ],
    "jaxpr": "{ lambda ; a:f32[5,7]. let b:f32[] = reduce_min[axes=(0, 1)] a in (b,) }",
    "stablehlo": "module @jit__lambda attributes {mhlo.num_partitions = 1 : i32, mhlo.num_replicas = 1 : i32} {\n  func.func public @main(%arg0: tensor<5x7xf32>) -> (tensor<f32> {jax.result_info = \"result\"}) {\n    %cst = stablehlo.constant dense<0x7F800000> : tensor<f32>\n    %0 = stablehlo.reduce(%arg0 init: %cst) applies stablehlo.minimum across dimensions = [0, 1] : (tensor<5x7xf32>, tensor<f32>) -> tensor<f32>\n    return %0 : tensor<f32>\n  }\n}\n",
    "metadata": {
      "category": "reduction",
      "operation": "min",
      "description": "Reduction: min"
    }
  },
  {
    "python_code": "lambda x: jnp.mean(x)",
    "input_info": [
      {
        "shape": [
          2,
          9,
          9
        ],
        "dtype": "float32"
      }
    ],
    "jaxpr": "{ lambda ; a:f32[2,9,9]. let\n    b:f32[] = reduce_sum[axes=(0, 1, 2) out_sharding=None] a\n    c:f32[] = div b 162.0:f32[]\n  in (c,) }",
    "stablehlo": "module @jit__lambda attributes {mhlo.num_partitions = 1 : i32, mhlo.num_replicas = 1 : i32} {\n  func.func public @main(%arg0: tensor<2x9x9xf32>) -> (tensor<f32> {jax.result_info = \"result\"}) {\n    %cst = stablehlo.constant dense<0.000000e+00> : tensor<f32>\n    %0 = stablehlo.reduce(%arg0 init: %cst) applies stablehlo.add across dimensions = [0, 1, 2] : (tensor<2x9x9xf32>, tensor<f32>) -> tensor<f32>\n    %cst_0 = stablehlo.constant dense<1.620000e+02> : tensor<f32>\n    %1 = stablehlo.divide %0, %cst_0 : tensor<f32>\n    return %1 : tensor<f32>\n  }\n}\n",
    "metadata": {
      "category": "reduction",
      "operation": "mean",
      "description": "Reduction: mean"
    }
  }
]