[
  {
    "python_code": "lambda x: jnp.tanh(x)",
    "input_info": [
      {
        "shape": [
          5,
          10,
          4
        ],
        "dtype": "float32"
      }
    ],
    "jaxpr": "{ lambda ; a:f32[5,10,4]. let b:f32[5,10,4] = tanh a in (b,) }",
    "stablehlo": "module @jit__lambda attributes {mhlo.num_partitions = 1 : i32, mhlo.num_replicas = 1 : i32} {\n  func.func public @main(%arg0: tensor<5x10x4xf32>) -> (tensor<5x10x4xf32> {jax.result_info = \"result\"}) {\n    %0 = stablehlo.tanh %arg0 : tensor<5x10x4xf32>\n    return %0 : tensor<5x10x4xf32>\n  }\n}\n",
    "metadata": {
      "category": "math",
      "operation": "tanh",
      "description": "Math function: tanh"
    }
  },
  {
    "python_code": "lambda x: jnp.sqrt(jnp.abs(x))",
    "input_info": [
      {
        "shape": [
          8
        ],
        "dtype": "float32"
      }
    ],
    "jaxpr": "{ lambda ; a:f32[8]. let b:f32[8] = abs a; c:f32[8] = sqrt b in (c,) }",
    "stablehlo": "module @jit__lambda attributes {mhlo.num_partitions = 1 : i32, mhlo.num_replicas = 1 : i32} {\n  func.func public @main(%arg0: tensor<8xf32>) -> (tensor<8xf32> {jax.result_info = \"result\"}) {\n    %0 = stablehlo.abs %arg0 : tensor<8xf32>\n    %1 = stablehlo.sqrt %0 : tensor<8xf32>\n    return %1 : tensor<8xf32>\n  }\n}\n",
    "metadata": {
      "category": "math",
      "operation": "sqrt",
      "description": "Math function: sqrt"
    }
  },
  {
    "python_code": "lambda x: jnp.sin(x)",
    "input_info": [
      {
        "shape": [
          3,
          5,
          9
        ],
        "dtype": "float32"
      }
    ],
    "jaxpr": "{ lambda ; a:f32[3,5,9]. let b:f32[3,5,9] = sin a in (b,) }",
    "stablehlo": "module @jit__lambda attributes {mhlo.num_partitions = 1 : i32, mhlo.num_replicas = 1 : i32} {\n  func.func public @main(%arg0: tensor<3x5x9xf32>) -> (tensor<3x5x9xf32> {jax.result_info = \"result\"}) {\n    %0 = stablehlo.sine %arg0 : tensor<3x5x9xf32>\n    return %0 : tensor<3x5x9xf32>\n  }\n}\n",
    "metadata": {
      "category": "math",
      "operation": "sin",
      "description": "Math function: sin"
    }
  },
  {
    "python_code": "lambda x: jnp.abs(x)",
    "input_info": [
      {
        "shape": [
          7,
          10,
          6
        ],
        "dtype": "float32"
      }
    ],
    "jaxpr": "{ lambda ; a:f32[7,10,6]. let b:f32[7,10,6] = abs a in (b,) }",
    "stablehlo": "module @jit__lambda attributes {mhlo.num_partitions = 1 : i32, mhlo.num_replicas = 1 : i32} {\n  func.func public @main(%arg0: tensor<7x10x6xf32>) -> (tensor<7x10x6xf32> {jax.result_info = \"result\"}) {\n    %0 = stablehlo.abs %arg0 : tensor<7x10x6xf32>\n    return %0 : tensor<7x10x6xf32>\n  }\n}\n",
    "metadata": {
      "category": "math",
      "operation": "abs",
      "description": "Math function: abs"
    }
  },
  {
    "python_code": "lambda x: 1.0 / (1.0 + jnp.exp(-x))",
    "input_info": [
      {
        "shape": [
          6,
          4,
          3
        ],
        "dtype": "float32"
      }
    ],
    "jaxpr": "{ lambda ; a:f32[6,4,3]. let\n    b:f32[6,4,3] = neg a\n    c:f32[6,4,3] = exp b\n    d:f32[6,4,3] = add 1.0:f32[] c\n    e:f32[6,4,3] = div 1.0:f32[] d\n  in (e,) }",
    "stablehlo": "module @jit__lambda attributes {mhlo.num_partitions = 1 : i32, mhlo.num_replicas = 1 : i32} {\n  func.func public @main(%arg0: tensor<6x4x3xf32>) -> (tensor<6x4x3xf32> {jax.result_info = \"result\"}) {\n    %0 = stablehlo.negate %arg0 : tensor<6x4x3xf32>\n    %1 = stablehlo.exponential %0 : tensor<6x4x3xf32>\n    %cst = stablehlo.constant dense<1.000000e+00> : tensor<f32>\n    %2 = stablehlo.broadcast_in_dim %cst, dims = [] : (tensor<f32>) -> tensor<6x4x3xf32>\n    %3 = stablehlo.add %2, %1 : tensor<6x4x3xf32>\n    %cst_0 = stablehlo.constant dense<1.000000e+00> : tensor<f32>\n    %4 = stablehlo.broadcast_in_dim %cst_0, dims = [] : (tensor<f32>) -> tensor<6x4x3xf32>\n    %5 = stablehlo.divide %4, %3 : tensor<6x4x3xf32>\n    return %5 : tensor<6x4x3xf32>\n  }\n}\n",
    "metadata": {
      "category": "math",
      "operation": "sigmoid",
      "description": "Math function: sigmoid"
    }
  },
  {
    "python_code": "lambda x: jnp.sin(x)",
    "input_info": [
      {
        "shape": [
          6,
          8
        ],
        "dtype": "float32"
      }
    ],
    "jaxpr": "{ lambda ; a:f32[6,8]. let b:f32[6,8] = sin a in (b,) }",
    "stablehlo": "module @jit__lambda attributes {mhlo.num_partitions = 1 : i32, mhlo.num_replicas = 1 : i32} {\n  func.func public @main(%arg0: tensor<6x8xf32>) -> (tensor<6x8xf32> {jax.result_info = \"result\"}) {\n    %0 = stablehlo.sine %arg0 : tensor<6x8xf32>\n    return %0 : tensor<6x8xf32>\n  }\n}\n",
    "metadata": {
      "category": "math",
      "operation": "sin",
      "description": "Math function: sin"
    }
  },
  {
    "python_code": "lambda x: x ** 2",
    "input_info": [
      {
        "shape": [
          3,
          6,
          2
        ],
        "dtype": "float32"
      }
    ],
    "jaxpr": "{ lambda ; a:f32[3,6,2]. let b:f32[3,6,2] = integer_pow[y=2] a in (b,) }",
    "stablehlo": "module @jit__lambda attributes {mhlo.num_partitions = 1 : i32, mhlo.num_replicas = 1 : i32} {\n  func.func public @main(%arg0: tensor<3x6x2xf32>) -> (tensor<3x6x2xf32> {jax.result_info = \"result\"}) {\n    %0 = stablehlo.multiply %arg0, %arg0 : tensor<3x6x2xf32>\n    return %0 : tensor<3x6x2xf32>\n  }\n}\n",
    "metadata": {
      "category": "math",
      "operation": "square",
      "description": "Math function: square"
    }
  },
  {
    "python_code": "lambda x: x ** 2",
    "input_info": [
      {
        "shape": [
          6,
          9
        ],
        "dtype": "float32"
      }
    ],
    "jaxpr": "{ lambda ; a:f32[6,9]. let b:f32[6,9] = integer_pow[y=2] a in (b,) }",
    "stablehlo": "module @jit__lambda attributes {mhlo.num_partitions = 1 : i32, mhlo.num_replicas = 1 : i32} {\n  func.func public @main(%arg0: tensor<6x9xf32>) -> (tensor<6x9xf32> {jax.result_info = \"result\"}) {\n    %0 = stablehlo.multiply %arg0, %arg0 : tensor<6x9xf32>\n    return %0 : tensor<6x9xf32>\n  }\n}\n",
    "metadata": {
      "category": "math",
      "operation": "square",
      "description": "Math function: square"
    }
  },
  {
    "python_code": "lambda x: jnp.log(x + 1.0)",
    "input_info": [
      {
        "shape": [
          7,
          8,
          4
        ],
        "dtype": "float32"
      }
    ],
    "jaxpr": "{ lambda ; a:f32[7,8,4]. let\n    b:f32[7,8,4] = add a 1.0:f32[]\n    c:f32[7,8,4] = log b\n  in (c,) }",
    "stablehlo": "module @jit__lambda attributes {mhlo.num_partitions = 1 : i32, mhlo.num_replicas = 1 : i32} {\n  func.func public @main(%arg0: tensor<7x8x4xf32>) -> (tensor<7x8x4xf32> {jax.result_info = \"result\"}) {\n    %cst = stablehlo.constant dense<1.000000e+00> : tensor<f32>\n    %0 = stablehlo.broadcast_in_dim %cst, dims = [] : (tensor<f32>) -> tensor<7x8x4xf32>\n    %1 = stablehlo.add %arg0, %0 : tensor<7x8x4xf32>\n    %2 = stablehlo.log %1 : tensor<7x8x4xf32>\n    return %2 : tensor<7x8x4xf32>\n  }\n}\n",
    "metadata": {
      "category": "math",
      "operation": "log",
      "description": "Math function: log"
    }
  },
  {
    "python_code": "lambda x: jnp.abs(x)",
    "input_info": [
      {
        "shape": [
          5,
          4,
          8
        ],
        "dtype": "float32"
      }
    ],
    "jaxpr": "{ lambda ; a:f32[5,4,8]. let b:f32[5,4,8] = abs a in (b,) }",
    "stablehlo": "module @jit__lambda attributes {mhlo.num_partitions = 1 : i32, mhlo.num_replicas = 1 : i32} {\n  func.func public @main(%arg0: tensor<5x4x8xf32>) -> (tensor<5x4x8xf32> {jax.result_info = \"result\"}) {\n    %0 = stablehlo.abs %arg0 : tensor<5x4x8xf32>\n    return %0 : tensor<5x4x8xf32>\n  }\n}\n",
    "metadata": {
      "category": "math",
      "operation": "abs",
      "description": "Math function: abs"
    }
  },
  {
    "python_code": "lambda x: 1.0 / (1.0 + jnp.exp(-x))",
    "input_info": [
      {
        "shape": [
          5
        ],
        "dtype": "float32"
      }
    ],
    "jaxpr": "{ lambda ; a:f32[5]. let\n    b:f32[5] = neg a\n    c:f32[5] = exp b\n    d:f32[5] = add 1.0:f32[] c\n    e:f32[5] = div 1.0:f32[] d\n  in (e,) }",
    "stablehlo": "module @jit__lambda attributes {mhlo.num_partitions = 1 : i32, mhlo.num_replicas = 1 : i32} {\n  func.func public @main(%arg0: tensor<5xf32>) -> (tensor<5xf32> {jax.result_info = \"result\"}) {\n    %0 = stablehlo.negate %arg0 : tensor<5xf32>\n    %1 = stablehlo.exponential %0 : tensor<5xf32>\n    %cst = stablehlo.constant dense<1.000000e+00> : tensor<f32>\n    %2 = stablehlo.broadcast_in_dim %cst, dims = [] : (tensor<f32>) -> tensor<5xf32>\n    %3 = stablehlo.add %2, %1 : tensor<5xf32>\n    %cst_0 = stablehlo.constant dense<1.000000e+00> : tensor<f32>\n    %4 = stablehlo.broadcast_in_dim %cst_0, dims = [] : (tensor<f32>) -> tensor<5xf32>\n    %5 = stablehlo.divide %4, %3 : tensor<5xf32>\n    return %5 : tensor<5xf32>\n  }\n}\n",
    "metadata": {
      "category": "math",
      "operation": "sigmoid",
      "description": "Math function: sigmoid"
    }
  },
  {
    "python_code": "lambda x: jnp.abs(x)",
    "input_info": [
      {
        "shape": [
          8,
          8
        ],
        "dtype": "float32"
      }
    ],
    "jaxpr": "{ lambda ; a:f32[8,8]. let b:f32[8,8] = abs a in (b,) }",
    "stablehlo": "module @jit__lambda attributes {mhlo.num_partitions = 1 : i32, mhlo.num_replicas = 1 : i32} {\n  func.func public @main(%arg0: tensor<8x8xf32>) -> (tensor<8x8xf32> {jax.result_info = \"result\"}) {\n    %0 = stablehlo.abs %arg0 : tensor<8x8xf32>\n    return %0 : tensor<8x8xf32>\n  }\n}\n",
    "metadata": {
      "category": "math",
      "operation": "abs",
      "description": "Math function: abs"
    }
  },
  {
    "python_code": "lambda x: 1.0 / (1.0 + jnp.exp(-x))",
    "input_info": [
      {
        "shape": [
          4
        ],
        "dtype": "float32"
      }
    ],
    "jaxpr": "{ lambda ; a:f32[4]. let\n    b:f32[4] = neg a\n    c:f32[4] = exp b\n    d:f32[4] = add 1.0:f32[] c\n    e:f32[4] = div 1.0:f32[] d\n  in (e,) }",
    "stablehlo": "module @jit__lambda attributes {mhlo.num_partitions = 1 : i32, mhlo.num_replicas = 1 : i32} {\n  func.func public @main(%arg0: tensor<4xf32>) -> (tensor<4xf32> {jax.result_info = \"result\"}) {\n    %0 = stablehlo.negate %arg0 : tensor<4xf32>\n    %1 = stablehlo.exponential %0 : tensor<4xf32>\n    %cst = stablehlo.constant dense<1.000000e+00> : tensor<f32>\n    %2 = stablehlo.broadcast_in_dim %cst, dims = [] : (tensor<f32>) -> tensor<4xf32>\n    %3 = stablehlo.add %2, %1 : tensor<4xf32>\n    %cst_0 = stablehlo.constant dense<1.000000e+00> : tensor<f32>\n    %4 = stablehlo.broadcast_in_dim %cst_0, dims = [] : (tensor<f32>) -> tensor<4xf32>\n    %5 = stablehlo.divide %4, %3 : tensor<4xf32>\n    return %5 : tensor<4xf32>\n  }\n}\n",
    "metadata": {
      "category": "math",
      "operation": "sigmoid",
      "description": "Math function: sigmoid"
    }
  },
  {
    "python_code": "lambda x: jnp.cos(x)",
    "input_info": [
      {
        "shape": [
          9,
          6,
          3
        ],
        "dtype": "float32"
      }
    ],
    "jaxpr": "{ lambda ; a:f32[9,6,3]. let b:f32[9,6,3] = cos a in (b,) }",
    "stablehlo": "module @jit__lambda attributes {mhlo.num_partitions = 1 : i32, mhlo.num_replicas = 1 : i32} {\n  func.func public @main(%arg0: tensor<9x6x3xf32>) -> (tensor<9x6x3xf32> {jax.result_info = \"result\"}) {\n    %0 = stablehlo.cosine %arg0 : tensor<9x6x3xf32>\n    return %0 : tensor<9x6x3xf32>\n  }\n}\n",
    "metadata": {
      "category": "math",
      "operation": "cos",
      "description": "Math function: cos"
    }
  },
  {
    "python_code": "lambda x: jnp.exp(x)",
    "input_info": [
      {
        "shape": [
          3,
          9
        ],
        "dtype": "float32"
      }
    ],
    "jaxpr": "{ lambda ; a:f32[3,9]. let b:f32[3,9] = exp a in (b,) }",
    "stablehlo": "module @jit__lambda attributes {mhlo.num_partitions = 1 : i32, mhlo.num_replicas = 1 : i32} {\n  func.func public @main(%arg0: tensor<3x9xf32>) -> (tensor<3x9xf32> {jax.result_info = \"result\"}) {\n    %0 = stablehlo.exponential %arg0 : tensor<3x9xf32>\n    return %0 : tensor<3x9xf32>\n  }\n}\n",
    "metadata": {
      "category": "math",
      "operation": "exp",
      "description": "Math function: exp"
    }
  },
  {
    "python_code": "lambda x: 1.0 / (1.0 + jnp.exp(-x))",
    "input_info": [
      {
        "shape": [
          8,
          4,
          9
        ],
        "dtype": "float32"
      }
    ],
    "jaxpr": "{ lambda ; a:f32[8,4,9]. let\n    b:f32[8,4,9] = neg a\n    c:f32[8,4,9] = exp b\n    d:f32[8,4,9] = add 1.0:f32[] c\n    e:f32[8,4,9] = div 1.0:f32[] d\n  in (e,) }",
    "stablehlo": "module @jit__lambda attributes {mhlo.num_partitions = 1 : i32, mhlo.num_replicas = 1 : i32} {\n  func.func public @main(%arg0: tensor<8x4x9xf32>) -> (tensor<8x4x9xf32> {jax.result_info = \"result\"}) {\n    %0 = stablehlo.negate %arg0 : tensor<8x4x9xf32>\n    %1 = stablehlo.exponential %0 : tensor<8x4x9xf32>\n    %cst = stablehlo.constant dense<1.000000e+00> : tensor<f32>\n    %2 = stablehlo.broadcast_in_dim %cst, dims = [] : (tensor<f32>) -> tensor<8x4x9xf32>\n    %3 = stablehlo.add %2, %1 : tensor<8x4x9xf32>\n    %cst_0 = stablehlo.constant dense<1.000000e+00> : tensor<f32>\n    %4 = stablehlo.broadcast_in_dim %cst_0, dims = [] : (tensor<f32>) -> tensor<8x4x9xf32>\n    %5 = stablehlo.divide %4, %3 : tensor<8x4x9xf32>\n    return %5 : tensor<8x4x9xf32>\n  }\n}\n",
    "metadata": {
      "category": "math",
      "operation": "sigmoid",
      "description": "Math function: sigmoid"
    }
  },
  {
    "python_code": "lambda x: jnp.cos(x)",
    "input_info": [
      {
        "shape": [
          2,
          10
        ],
        "dtype": "float32"
      }
    ],
    "jaxpr": "{ lambda ; a:f32[2,10]. let b:f32[2,10] = cos a in (b,) }",
    "stablehlo": "module @jit__lambda attributes {mhlo.num_partitions = 1 : i32, mhlo.num_replicas = 1 : i32} {\n  func.func public @main(%arg0: tensor<2x10xf32>) -> (tensor<2x10xf32> {jax.result_info = \"result\"}) {\n    %0 = stablehlo.cosine %arg0 : tensor<2x10xf32>\n    return %0 : tensor<2x10xf32>\n  }\n}\n",
    "metadata": {
      "category": "math",
      "operation": "cos",
      "description": "Math function: cos"
    }
  },
  {
    "python_code": "lambda x: x ** 2",
    "input_info": [
      {
        "shape": [
          9,
          7
        ],
        "dtype": "float32"
      }
    ],
    "jaxpr": "{ lambda ; a:f32[9,7]. let b:f32[9,7] = integer_pow[y=2] a in (b,) }",
    "stablehlo": "module @jit__lambda attributes {mhlo.num_partitions = 1 : i32, mhlo.num_replicas = 1 : i32} {\n  func.func public @main(%arg0: tensor<9x7xf32>) -> (tensor<9x7xf32> {jax.result_info = \"result\"}) {\n    %0 = stablehlo.multiply %arg0, %arg0 : tensor<9x7xf32>\n    return %0 : tensor<9x7xf32>\n  }\n}\n",
    "metadata": {
      "category": "math",
      "operation": "square",
      "description": "Math function: square"
    }
  },
  {
    "python_code": "lambda x: jnp.sin(x)",
    "input_info": [
      {
        "shape": [
          9,
          6,
          9
        ],
        "dtype": "float32"
      }
    ],
    "jaxpr": "{ lambda ; a:f32[9,6,9]. let b:f32[9,6,9] = sin a in (b,) }",
    "stablehlo": "module @jit__lambda attributes {mhlo.num_partitions = 1 : i32, mhlo.num_replicas = 1 : i32} {\n  func.func public @main(%arg0: tensor<9x6x9xf32>) -> (tensor<9x6x9xf32> {jax.result_info = \"result\"}) {\n    %0 = stablehlo.sine %arg0 : tensor<9x6x9xf32>\n    return %0 : tensor<9x6x9xf32>\n  }\n}\n",
    "metadata": {
      "category": "math",
      "operation": "sin",
      "description": "Math function: sin"
    }
  },
  {
    "python_code": "lambda x: jnp.tanh(x)",
    "input_info": [
      {
        "shape": [
          2,
          2
        ],
        "dtype": "float32"
      }
    ],
    "jaxpr": "{ lambda ; a:f32[2,2]. let b:f32[2,2] = tanh a in (b,) }",
    "stablehlo": "module @jit__lambda attributes {mhlo.num_partitions = 1 : i32, mhlo.num_replicas = 1 : i32} {\n  func.func public @main(%arg0: tensor<2x2xf32>) -> (tensor<2x2xf32> {jax.result_info = \"result\"}) {\n    %0 = stablehlo.tanh %arg0 : tensor<2x2xf32>\n    return %0 : tensor<2x2xf32>\n  }\n}\n",
    "metadata": {
      "category": "math",
      "operation": "tanh",
      "description": "Math function: tanh"
    }
  },
  {
    "python_code": "lambda x: jnp.exp(x)",
    "input_info": [
      {
        "shape": [
          10
        ],
        "dtype": "float32"
      }
    ],
    "jaxpr": "{ lambda ; a:f32[10]. let b:f32[10] = exp a in (b,) }",
    "stablehlo": "module @jit__lambda attributes {mhlo.num_partitions = 1 : i32, mhlo.num_replicas = 1 : i32} {\n  func.func public @main(%arg0: tensor<10xf32>) -> (tensor<10xf32> {jax.result_info = \"result\"}) {\n    %0 = stablehlo.exponential %arg0 : tensor<10xf32>\n    return %0 : tensor<10xf32>\n  }\n}\n",
    "metadata": {
      "category": "math",
      "operation": "exp",
      "description": "Math function: exp"
    }
  },
  {
    "python_code": "lambda x: jnp.sin(x)",
    "input_info": [
      {
        "shape": [
          5,
          9,
          7
        ],
        "dtype": "float32"
      }
    ],
    "jaxpr": "{ lambda ; a:f32[5,9,7]. let b:f32[5,9,7] = sin a in (b,) }",
    "stablehlo": "module @jit__lambda attributes {mhlo.num_partitions = 1 : i32, mhlo.num_replicas = 1 : i32} {\n  func.func public @main(%arg0: tensor<5x9x7xf32>) -> (tensor<5x9x7xf32> {jax.result_info = \"result\"}) {\n    %0 = stablehlo.sine %arg0 : tensor<5x9x7xf32>\n    return %0 : tensor<5x9x7xf32>\n  }\n}\n",
    "metadata": {
      "category": "math",
      "operation": "sin",
      "description": "Math function: sin"
    }
  },
  {
    "python_code": "lambda x: jnp.abs(x)",
    "input_info": [
      {
        "shape": [
          6,
          9,
          8
        ],
        "dtype": "float32"
      }
    ],
    "jaxpr": "{ lambda ; a:f32[6,9,8]. let b:f32[6,9,8] = abs a in (b,) }",
    "stablehlo": "module @jit__lambda attributes {mhlo.num_partitions = 1 : i32, mhlo.num_replicas = 1 : i32} {\n  func.func public @main(%arg0: tensor<6x9x8xf32>) -> (tensor<6x9x8xf32> {jax.result_info = \"result\"}) {\n    %0 = stablehlo.abs %arg0 : tensor<6x9x8xf32>\n    return %0 : tensor<6x9x8xf32>\n  }\n}\n",
    "metadata": {
      "category": "math",
      "operation": "abs",
      "description": "Math function: abs"
    }
  },
  {
    "python_code": "lambda x: jnp.cos(x)",
    "input_info": [
      {
        "shape": [
          10,
          6,
          7
        ],
        "dtype": "float32"
      }
    ],
    "jaxpr": "{ lambda ; a:f32[10,6,7]. let b:f32[10,6,7] = cos a in (b,) }",
    "stablehlo": "module @jit__lambda attributes {mhlo.num_partitions = 1 : i32, mhlo.num_replicas = 1 : i32} {\n  func.func public @main(%arg0: tensor<10x6x7xf32>) -> (tensor<10x6x7xf32> {jax.result_info = \"result\"}) {\n    %0 = stablehlo.cosine %arg0 : tensor<10x6x7xf32>\n    return %0 : tensor<10x6x7xf32>\n  }\n}\n",
    "metadata": {
      "category": "math",
      "operation": "cos",
      "description": "Math function: cos"
    }
  },
  {
    "python_code": "lambda x: x ** 2",
    "input_info": [
      {
        "shape": [
          7
        ],
        "dtype": "float32"
      }
    ],
    "jaxpr": "{ lambda ; a:f32[7]. let b:f32[7] = integer_pow[y=2] a in (b,) }",
    "stablehlo": "module @jit__lambda attributes {mhlo.num_partitions = 1 : i32, mhlo.num_replicas = 1 : i32} {\n  func.func public @main(%arg0: tensor<7xf32>) -> (tensor<7xf32> {jax.result_info = \"result\"}) {\n    %0 = stablehlo.multiply %arg0, %arg0 : tensor<7xf32>\n    return %0 : tensor<7xf32>\n  }\n}\n",
    "metadata": {
      "category": "math",
      "operation": "square",
      "description": "Math function: square"
    }
  },
  {
    "python_code": "lambda x: jnp.cos(x)",
    "input_info": [
      {
        "shape": [
          2
        ],
        "dtype": "float32"
      }
    ],
    "jaxpr": "{ lambda ; a:f32[2]. let b:f32[2] = cos a in (b,) }",
    "stablehlo": "module @jit__lambda attributes {mhlo.num_partitions = 1 : i32, mhlo.num_replicas = 1 : i32} {\n  func.func public @main(%arg0: tensor<2xf32>) -> (tensor<2xf32> {jax.result_info = \"result\"}) {\n    %0 = stablehlo.cosine %arg0 : tensor<2xf32>\n    return %0 : tensor<2xf32>\n  }\n}\n",
    "metadata": {
      "category": "math",
      "operation": "cos",
      "description": "Math function: cos"
    }
  },
  {
    "python_code": "lambda x: jnp.cos(x)",
    "input_info": [
      {
        "shape": [
          6,
          4,
          4
        ],
        "dtype": "float32"
      }
    ],
    "jaxpr": "{ lambda ; a:f32[6,4,4]. let b:f32[6,4,4] = cos a in (b,) }",
    "stablehlo": "module @jit__lambda attributes {mhlo.num_partitions = 1 : i32, mhlo.num_replicas = 1 : i32} {\n  func.func public @main(%arg0: tensor<6x4x4xf32>) -> (tensor<6x4x4xf32> {jax.result_info = \"result\"}) {\n    %0 = stablehlo.cosine %arg0 : tensor<6x4x4xf32>\n    return %0 : tensor<6x4x4xf32>\n  }\n}\n",
    "metadata": {
      "category": "math",
      "operation": "cos",
      "description": "Math function: cos"
    }
  },
  {
    "python_code": "lambda x: jnp.exp(x)",
    "input_info": [
      {
        "shape": [
          2,
          10
        ],
        "dtype": "float32"
      }
    ],
    "jaxpr": "{ lambda ; a:f32[2,10]. let b:f32[2,10] = exp a in (b,) }",
    "stablehlo": "module @jit__lambda attributes {mhlo.num_partitions = 1 : i32, mhlo.num_replicas = 1 : i32} {\n  func.func public @main(%arg0: tensor<2x10xf32>) -> (tensor<2x10xf32> {jax.result_info = \"result\"}) {\n    %0 = stablehlo.exponential %arg0 : tensor<2x10xf32>\n    return %0 : tensor<2x10xf32>\n  }\n}\n",
    "metadata": {
      "category": "math",
      "operation": "exp",
      "description": "Math function: exp"
    }
  },
  {
    "python_code": "lambda x: jnp.cos(x)",
    "input_info": [
      {
        "shape": [
          2,
          9,
          5
        ],
        "dtype": "float32"
      }
    ],
    "jaxpr": "{ lambda ; a:f32[2,9,5]. let b:f32[2,9,5] = cos a in (b,) }",
    "stablehlo": "module @jit__lambda attributes {mhlo.num_partitions = 1 : i32, mhlo.num_replicas = 1 : i32} {\n  func.func public @main(%arg0: tensor<2x9x5xf32>) -> (tensor<2x9x5xf32> {jax.result_info = \"result\"}) {\n    %0 = stablehlo.cosine %arg0 : tensor<2x9x5xf32>\n    return %0 : tensor<2x9x5xf32>\n  }\n}\n",
    "metadata": {
      "category": "math",
      "operation": "cos",
      "description": "Math function: cos"
    }
  },
  {
    "python_code": "lambda x: jnp.cos(x)",
    "input_info": [
      {
        "shape": [
          5
        ],
        "dtype": "float32"
      }
    ],
    "jaxpr": "{ lambda ; a:f32[5]. let b:f32[5] = cos a in (b,) }",
    "stablehlo": "module @jit__lambda attributes {mhlo.num_partitions = 1 : i32, mhlo.num_replicas = 1 : i32} {\n  func.func public @main(%arg0: tensor<5xf32>) -> (tensor<5xf32> {jax.result_info = \"result\"}) {\n    %0 = stablehlo.cosine %arg0 : tensor<5xf32>\n    return %0 : tensor<5xf32>\n  }\n}\n",
    "metadata": {
      "category": "math",
      "operation": "cos",
      "description": "Math function: cos"
    }
  },
  {
    "python_code": "lambda x: jnp.abs(x)",
    "input_info": [
      {
        "shape": [
          2,
          8,
          4
        ],
        "dtype": "float32"
      }
    ],
    "jaxpr": "{ lambda ; a:f32[2,8,4]. let b:f32[2,8,4] = abs a in (b,) }",
    "stablehlo": "module @jit__lambda attributes {mhlo.num_partitions = 1 : i32, mhlo.num_replicas = 1 : i32} {\n  func.func public @main(%arg0: tensor<2x8x4xf32>) -> (tensor<2x8x4xf32> {jax.result_info = \"result\"}) {\n    %0 = stablehlo.abs %arg0 : tensor<2x8x4xf32>\n    return %0 : tensor<2x8x4xf32>\n  }\n}\n",
    "metadata": {
      "category": "math",
      "operation": "abs",
      "description": "Math function: abs"
    }
  },
  {
    "python_code": "lambda x: jnp.abs(x)",
    "input_info": [
      {
        "shape": [
          8,
          2,
          10
        ],
        "dtype": "float32"
      }
    ],
    "jaxpr": "{ lambda ; a:f32[8,2,10]. let b:f32[8,2,10] = abs a in (b,) }",
    "stablehlo": "module @jit__lambda attributes {mhlo.num_partitions = 1 : i32, mhlo.num_replicas = 1 : i32} {\n  func.func public @main(%arg0: tensor<8x2x10xf32>) -> (tensor<8x2x10xf32> {jax.result_info = \"result\"}) {\n    %0 = stablehlo.abs %arg0 : tensor<8x2x10xf32>\n    return %0 : tensor<8x2x10xf32>\n  }\n}\n",
    "metadata": {
      "category": "math",
      "operation": "abs",
      "description": "Math function: abs"
    }
  },
  {
    "python_code": "lambda x: jnp.log(x + 1.0)",
    "input_info": [
      {
        "shape": [
          7,
          10,
          5
        ],
        "dtype": "float32"
      }
    ],
    "jaxpr": "{ lambda ; a:f32[7,10,5]. let\n    b:f32[7,10,5] = add a 1.0:f32[]\n    c:f32[7,10,5] = log b\n  in (c,) }",
    "stablehlo": "module @jit__lambda attributes {mhlo.num_partitions = 1 : i32, mhlo.num_replicas = 1 : i32} {\n  func.func public @main(%arg0: tensor<7x10x5xf32>) -> (tensor<7x10x5xf32> {jax.result_info = \"result\"}) {\n    %cst = stablehlo.constant dense<1.000000e+00> : tensor<f32>\n    %0 = stablehlo.broadcast_in_dim %cst, dims = [] : (tensor<f32>) -> tensor<7x10x5xf32>\n    %1 = stablehlo.add %arg0, %0 : tensor<7x10x5xf32>\n    %2 = stablehlo.log %1 : tensor<7x10x5xf32>\n    return %2 : tensor<7x10x5xf32>\n  }\n}\n",
    "metadata": {
      "category": "math",
      "operation": "log",
      "description": "Math function: log"
    }
  },
  {
    "python_code": "lambda x: 1.0 / (1.0 + jnp.exp(-x))",
    "input_info": [
      {
        "shape": [
          8,
          10,
          8
        ],
        "dtype": "float32"
      }
    ],
    "jaxpr": "{ lambda ; a:f32[8,10,8]. let\n    b:f32[8,10,8] = neg a\n    c:f32[8,10,8] = exp b\n    d:f32[8,10,8] = add 1.0:f32[] c\n    e:f32[8,10,8] = div 1.0:f32[] d\n  in (e,) }",
    "stablehlo": "module @jit__lambda attributes {mhlo.num_partitions = 1 : i32, mhlo.num_replicas = 1 : i32} {\n  func.func public @main(%arg0: tensor<8x10x8xf32>) -> (tensor<8x10x8xf32> {jax.result_info = \"result\"}) {\n    %0 = stablehlo.negate %arg0 : tensor<8x10x8xf32>\n    %1 = stablehlo.exponential %0 : tensor<8x10x8xf32>\n    %cst = stablehlo.constant dense<1.000000e+00> : tensor<f32>\n    %2 = stablehlo.broadcast_in_dim %cst, dims = [] : (tensor<f32>) -> tensor<8x10x8xf32>\n    %3 = stablehlo.add %2, %1 : tensor<8x10x8xf32>\n    %cst_0 = stablehlo.constant dense<1.000000e+00> : tensor<f32>\n    %4 = stablehlo.broadcast_in_dim %cst_0, dims = [] : (tensor<f32>) -> tensor<8x10x8xf32>\n    %5 = stablehlo.divide %4, %3 : tensor<8x10x8xf32>\n    return %5 : tensor<8x10x8xf32>\n  }\n}\n",
    "metadata": {
      "category": "math",
      "operation": "sigmoid",
      "description": "Math function: sigmoid"
    }
  },
  {
    "python_code": "lambda x: x ** 2",
    "input_info": [
      {
        "shape": [
          6
        ],
        "dtype": "float32"
      }
    ],
    "jaxpr": "{ lambda ; a:f32[6]. let b:f32[6] = integer_pow[y=2] a in (b,) }",
    "stablehlo": "module @jit__lambda attributes {mhlo.num_partitions = 1 : i32, mhlo.num_replicas = 1 : i32} {\n  func.func public @main(%arg0: tensor<6xf32>) -> (tensor<6xf32> {jax.result_info = \"result\"}) {\n    %0 = stablehlo.multiply %arg0, %arg0 : tensor<6xf32>\n    return %0 : tensor<6xf32>\n  }\n}\n",
    "metadata": {
      "category": "math",
      "operation": "square",
      "description": "Math function: square"
    }
  },
  {
    "python_code": "lambda x: 1.0 / (1.0 + jnp.exp(-x))",
    "input_info": [
      {
        "shape": [
          8,
          9,
          8
        ],
        "dtype": "float32"
      }
    ],
    "jaxpr": "{ lambda ; a:f32[8,9,8]. let\n    b:f32[8,9,8] = neg a\n    c:f32[8,9,8] = exp b\n    d:f32[8,9,8] = add 1.0:f32[] c\n    e:f32[8,9,8] = div 1.0:f32[] d\n  in (e,) }",
    "stablehlo": "module @jit__lambda attributes {mhlo.num_partitions = 1 : i32, mhlo.num_replicas = 1 : i32} {\n  func.func public @main(%arg0: tensor<8x9x8xf32>) -> (tensor<8x9x8xf32> {jax.result_info = \"result\"}) {\n    %0 = stablehlo.negate %arg0 : tensor<8x9x8xf32>\n    %1 = stablehlo.exponential %0 : tensor<8x9x8xf32>\n    %cst = stablehlo.constant dense<1.000000e+00> : tensor<f32>\n    %2 = stablehlo.broadcast_in_dim %cst, dims = [] : (tensor<f32>) -> tensor<8x9x8xf32>\n    %3 = stablehlo.add %2, %1 : tensor<8x9x8xf32>\n    %cst_0 = stablehlo.constant dense<1.000000e+00> : tensor<f32>\n    %4 = stablehlo.broadcast_in_dim %cst_0, dims = [] : (tensor<f32>) -> tensor<8x9x8xf32>\n    %5 = stablehlo.divide %4, %3 : tensor<8x9x8xf32>\n    return %5 : tensor<8x9x8xf32>\n  }\n}\n",
    "metadata": {
      "category": "math",
      "operation": "sigmoid",
      "description": "Math function: sigmoid"
    }
  },
  {
    "python_code": "lambda x: 1.0 / (1.0 + jnp.exp(-x))",
    "input_info": [
      {
        "shape": [
          4,
          2
        ],
        "dtype": "float32"
      }
    ],
    "jaxpr": "{ lambda ; a:f32[4,2]. let\n    b:f32[4,2] = neg a\n    c:f32[4,2] = exp b\n    d:f32[4,2] = add 1.0:f32[] c\n    e:f32[4,2] = div 1.0:f32[] d\n  in (e,) }",
    "stablehlo": "module @jit__lambda attributes {mhlo.num_partitions = 1 : i32, mhlo.num_replicas = 1 : i32} {\n  func.func public @main(%arg0: tensor<4x2xf32>) -> (tensor<4x2xf32> {jax.result_info = \"result\"}) {\n    %0 = stablehlo.negate %arg0 : tensor<4x2xf32>\n    %1 = stablehlo.exponential %0 : tensor<4x2xf32>\n    %cst = stablehlo.constant dense<1.000000e+00> : tensor<f32>\n    %2 = stablehlo.broadcast_in_dim %cst, dims = [] : (tensor<f32>) -> tensor<4x2xf32>\n    %3 = stablehlo.add %2, %1 : tensor<4x2xf32>\n    %cst_0 = stablehlo.constant dense<1.000000e+00> : tensor<f32>\n    %4 = stablehlo.broadcast_in_dim %cst_0, dims = [] : (tensor<f32>) -> tensor<4x2xf32>\n    %5 = stablehlo.divide %4, %3 : tensor<4x2xf32>\n    return %5 : tensor<4x2xf32>\n  }\n}\n",
    "metadata": {
      "category": "math",
      "operation": "sigmoid",
      "description": "Math function: sigmoid"
    }
  },
  {
    "python_code": "lambda x: 1.0 / (1.0 + jnp.exp(-x))",
    "input_info": [
      {
        "shape": [
          7,
          5,
          3
        ],
        "dtype": "float32"
      }
    ],
    "jaxpr": "{ lambda ; a:f32[7,5,3]. let\n    b:f32[7,5,3] = neg a\n    c:f32[7,5,3] = exp b\n    d:f32[7,5,3] = add 1.0:f32[] c\n    e:f32[7,5,3] = div 1.0:f32[] d\n  in (e,) }",
    "stablehlo": "module @jit__lambda attributes {mhlo.num_partitions = 1 : i32, mhlo.num_replicas = 1 : i32} {\n  func.func public @main(%arg0: tensor<7x5x3xf32>) -> (tensor<7x5x3xf32> {jax.result_info = \"result\"}) {\n    %0 = stablehlo.negate %arg0 : tensor<7x5x3xf32>\n    %1 = stablehlo.exponential %0 : tensor<7x5x3xf32>\n    %cst = stablehlo.constant dense<1.000000e+00> : tensor<f32>\n    %2 = stablehlo.broadcast_in_dim %cst, dims = [] : (tensor<f32>) -> tensor<7x5x3xf32>\n    %3 = stablehlo.add %2, %1 : tensor<7x5x3xf32>\n    %cst_0 = stablehlo.constant dense<1.000000e+00> : tensor<f32>\n    %4 = stablehlo.broadcast_in_dim %cst_0, dims = [] : (tensor<f32>) -> tensor<7x5x3xf32>\n    %5 = stablehlo.divide %4, %3 : tensor<7x5x3xf32>\n    return %5 : tensor<7x5x3xf32>\n  }\n}\n",
    "metadata": {
      "category": "math",
      "operation": "sigmoid",
      "description": "Math function: sigmoid"
    }
  },
  {
    "python_code": "lambda x: jnp.log(x + 1.0)",
    "input_info": [
      {
        "shape": [
          6
        ],
        "dtype": "float32"
      }
    ],
    "jaxpr": "{ lambda ; a:f32[6]. let b:f32[6] = add a 1.0:f32[]; c:f32[6] = log b in (c,) }",
    "stablehlo": "module @jit__lambda attributes {mhlo.num_partitions = 1 : i32, mhlo.num_replicas = 1 : i32} {\n  func.func public @main(%arg0: tensor<6xf32>) -> (tensor<6xf32> {jax.result_info = \"result\"}) {\n    %cst = stablehlo.constant dense<1.000000e+00> : tensor<f32>\n    %0 = stablehlo.broadcast_in_dim %cst, dims = [] : (tensor<f32>) -> tensor<6xf32>\n    %1 = stablehlo.add %arg0, %0 : tensor<6xf32>\n    %2 = stablehlo.log %1 : tensor<6xf32>\n    return %2 : tensor<6xf32>\n  }\n}\n",
    "metadata": {
      "category": "math",
      "operation": "log",
      "description": "Math function: log"
    }
  },
  {
    "python_code": "lambda x: x ** 2",
    "input_info": [
      {
        "shape": [
          5,
          10,
          9
        ],
        "dtype": "float32"
      }
    ],
    "jaxpr": "{ lambda ; a:f32[5,10,9]. let b:f32[5,10,9] = integer_pow[y=2] a in (b,) }",
    "stablehlo": "module @jit__lambda attributes {mhlo.num_partitions = 1 : i32, mhlo.num_replicas = 1 : i32} {\n  func.func public @main(%arg0: tensor<5x10x9xf32>) -> (tensor<5x10x9xf32> {jax.result_info = \"result\"}) {\n    %0 = stablehlo.multiply %arg0, %arg0 : tensor<5x10x9xf32>\n    return %0 : tensor<5x10x9xf32>\n  }\n}\n",
    "metadata": {
      "category": "math",
      "operation": "square",
      "description": "Math function: square"
    }
  },
  {
    "python_code": "lambda x: jnp.sin(x)",
    "input_info": [
      {
        "shape": [
          4,
          9
        ],
        "dtype": "float32"
      }
    ],
    "jaxpr": "{ lambda ; a:f32[4,9]. let b:f32[4,9] = sin a in (b,) }",
    "stablehlo": "module @jit__lambda attributes {mhlo.num_partitions = 1 : i32, mhlo.num_replicas = 1 : i32} {\n  func.func public @main(%arg0: tensor<4x9xf32>) -> (tensor<4x9xf32> {jax.result_info = \"result\"}) {\n    %0 = stablehlo.sine %arg0 : tensor<4x9xf32>\n    return %0 : tensor<4x9xf32>\n  }\n}\n",
    "metadata": {
      "category": "math",
      "operation": "sin",
      "description": "Math function: sin"
    }
  },
  {
    "python_code": "lambda x: jnp.sqrt(jnp.abs(x))",
    "input_info": [
      {
        "shape": [
          2,
          8
        ],
        "dtype": "float32"
      }
    ],
    "jaxpr": "{ lambda ; a:f32[2,8]. let b:f32[2,8] = abs a; c:f32[2,8] = sqrt b in (c,) }",
    "stablehlo": "module @jit__lambda attributes {mhlo.num_partitions = 1 : i32, mhlo.num_replicas = 1 : i32} {\n  func.func public @main(%arg0: tensor<2x8xf32>) -> (tensor<2x8xf32> {jax.result_info = \"result\"}) {\n    %0 = stablehlo.abs %arg0 : tensor<2x8xf32>\n    %1 = stablehlo.sqrt %0 : tensor<2x8xf32>\n    return %1 : tensor<2x8xf32>\n  }\n}\n",
    "metadata": {
      "category": "math",
      "operation": "sqrt",
      "description": "Math function: sqrt"
    }
  },
  {
    "python_code": "lambda x: jnp.exp(x)",
    "input_info": [
      {
        "shape": [
          6
        ],
        "dtype": "float32"
      }
    ],
    "jaxpr": "{ lambda ; a:f32[6]. let b:f32[6] = exp a in (b,) }",
    "stablehlo": "module @jit__lambda attributes {mhlo.num_partitions = 1 : i32, mhlo.num_replicas = 1 : i32} {\n  func.func public @main(%arg0: tensor<6xf32>) -> (tensor<6xf32> {jax.result_info = \"result\"}) {\n    %0 = stablehlo.exponential %arg0 : tensor<6xf32>\n    return %0 : tensor<6xf32>\n  }\n}\n",
    "metadata": {
      "category": "math",
      "operation": "exp",
      "description": "Math function: exp"
    }
  },
  {
    "python_code": "lambda x: jnp.log(x + 1.0)",
    "input_info": [
      {
        "shape": [
          4,
          9,
          9
        ],
        "dtype": "float32"
      }
    ],
    "jaxpr": "{ lambda ; a:f32[4,9,9]. let\n    b:f32[4,9,9] = add a 1.0:f32[]\n    c:f32[4,9,9] = log b\n  in (c,) }",
    "stablehlo": "module @jit__lambda attributes {mhlo.num_partitions = 1 : i32, mhlo.num_replicas = 1 : i32} {\n  func.func public @main(%arg0: tensor<4x9x9xf32>) -> (tensor<4x9x9xf32> {jax.result_info = \"result\"}) {\n    %cst = stablehlo.constant dense<1.000000e+00> : tensor<f32>\n    %0 = stablehlo.broadcast_in_dim %cst, dims = [] : (tensor<f32>) -> tensor<4x9x9xf32>\n    %1 = stablehlo.add %arg0, %0 : tensor<4x9x9xf32>\n    %2 = stablehlo.log %1 : tensor<4x9x9xf32>\n    return %2 : tensor<4x9x9xf32>\n  }\n}\n",
    "metadata": {
      "category": "math",
      "operation": "log",
      "description": "Math function: log"
    }
  },
  {
    "python_code": "lambda x: jnp.exp(x)",
    "input_info": [
      {
        "shape": [
          8,
          7,
          4
        ],
        "dtype": "float32"
      }
    ],
    "jaxpr": "{ lambda ; a:f32[8,7,4]. let b:f32[8,7,4] = exp a in (b,) }",
    "stablehlo": "module @jit__lambda attributes {mhlo.num_partitions = 1 : i32, mhlo.num_replicas = 1 : i32} {\n  func.func public @main(%arg0: tensor<8x7x4xf32>) -> (tensor<8x7x4xf32> {jax.result_info = \"result\"}) {\n    %0 = stablehlo.exponential %arg0 : tensor<8x7x4xf32>\n    return %0 : tensor<8x7x4xf32>\n  }\n}\n",
    "metadata": {
      "category": "math",
      "operation": "exp",
      "description": "Math function: exp"
    }
  },
  {
    "python_code": "lambda x: 1.0 / (1.0 + jnp.exp(-x))",
    "input_info": [
      {
        "shape": [
          9,
          3,
          4
        ],
        "dtype": "float32"
      }
    ],
    "jaxpr": "{ lambda ; a:f32[9,3,4]. let\n    b:f32[9,3,4] = neg a\n    c:f32[9,3,4] = exp b\n    d:f32[9,3,4] = add 1.0:f32[] c\n    e:f32[9,3,4] = div 1.0:f32[] d\n  in (e,) }",
    "stablehlo": "module @jit__lambda attributes {mhlo.num_partitions = 1 : i32, mhlo.num_replicas = 1 : i32} {\n  func.func public @main(%arg0: tensor<9x3x4xf32>) -> (tensor<9x3x4xf32> {jax.result_info = \"result\"}) {\n    %0 = stablehlo.negate %arg0 : tensor<9x3x4xf32>\n    %1 = stablehlo.exponential %0 : tensor<9x3x4xf32>\n    %cst = stablehlo.constant dense<1.000000e+00> : tensor<f32>\n    %2 = stablehlo.broadcast_in_dim %cst, dims = [] : (tensor<f32>) -> tensor<9x3x4xf32>\n    %3 = stablehlo.add %2, %1 : tensor<9x3x4xf32>\n    %cst_0 = stablehlo.constant dense<1.000000e+00> : tensor<f32>\n    %4 = stablehlo.broadcast_in_dim %cst_0, dims = [] : (tensor<f32>) -> tensor<9x3x4xf32>\n    %5 = stablehlo.divide %4, %3 : tensor<9x3x4xf32>\n    return %5 : tensor<9x3x4xf32>\n  }\n}\n",
    "metadata": {
      "category": "math",
      "operation": "sigmoid",
      "description": "Math function: sigmoid"
    }
  },
  {
    "python_code": "lambda x: 1.0 / (1.0 + jnp.exp(-x))",
    "input_info": [
      {
        "shape": [
          3,
          5
        ],
        "dtype": "float32"
      }
    ],
    "jaxpr": "{ lambda ; a:f32[3,5]. let\n    b:f32[3,5] = neg a\n    c:f32[3,5] = exp b\n    d:f32[3,5] = add 1.0:f32[] c\n    e:f32[3,5] = div 1.0:f32[] d\n  in (e,) }",
    "stablehlo": "module @jit__lambda attributes {mhlo.num_partitions = 1 : i32, mhlo.num_replicas = 1 : i32} {\n  func.func public @main(%arg0: tensor<3x5xf32>) -> (tensor<3x5xf32> {jax.result_info = \"result\"}) {\n    %0 = stablehlo.negate %arg0 : tensor<3x5xf32>\n    %1 = stablehlo.exponential %0 : tensor<3x5xf32>\n    %cst = stablehlo.constant dense<1.000000e+00> : tensor<f32>\n    %2 = stablehlo.broadcast_in_dim %cst, dims = [] : (tensor<f32>) -> tensor<3x5xf32>\n    %3 = stablehlo.add %2, %1 : tensor<3x5xf32>\n    %cst_0 = stablehlo.constant dense<1.000000e+00> : tensor<f32>\n    %4 = stablehlo.broadcast_in_dim %cst_0, dims = [] : (tensor<f32>) -> tensor<3x5xf32>\n    %5 = stablehlo.divide %4, %3 : tensor<3x5xf32>\n    return %5 : tensor<3x5xf32>\n  }\n}\n",
    "metadata": {
      "category": "math",
      "operation": "sigmoid",
      "description": "Math function: sigmoid"
    }
  },
  {
    "python_code": "lambda x: jnp.exp(x)",
    "input_info": [
      {
        "shape": [
          7,
          2
        ],
        "dtype": "float32"
      }
    ],
    "jaxpr": "{ lambda ; a:f32[7,2]. let b:f32[7,2] = exp a in (b,) }",
    "stablehlo": "module @jit__lambda attributes {mhlo.num_partitions = 1 : i32, mhlo.num_replicas = 1 : i32} {\n  func.func public @main(%arg0: tensor<7x2xf32>) -> (tensor<7x2xf32> {jax.result_info = \"result\"}) {\n    %0 = stablehlo.exponential %arg0 : tensor<7x2xf32>\n    return %0 : tensor<7x2xf32>\n  }\n}\n",
    "metadata": {
      "category": "math",
      "operation": "exp",
      "description": "Math function: exp"
    }
  },
  {
    "python_code": "lambda x: jnp.abs(x)",
    "input_info": [
      {
        "shape": [
          10,
          6,
          3
        ],
        "dtype": "float32"
      }
    ],
    "jaxpr": "{ lambda ; a:f32[10,6,3]. let b:f32[10,6,3] = abs a in (b,) }",
    "stablehlo": "module @jit__lambda attributes {mhlo.num_partitions = 1 : i32, mhlo.num_replicas = 1 : i32} {\n  func.func public @main(%arg0: tensor<10x6x3xf32>) -> (tensor<10x6x3xf32> {jax.result_info = \"result\"}) {\n    %0 = stablehlo.abs %arg0 : tensor<10x6x3xf32>\n    return %0 : tensor<10x6x3xf32>\n  }\n}\n",
    "metadata": {
      "category": "math",
      "operation": "abs",
      "description": "Math function: abs"
    }
  },
  {
    "python_code": "lambda x: jnp.exp(x)",
    "input_info": [
      {
        "shape": [
          2
        ],
        "dtype": "float32"
      }
    ],
    "jaxpr": "{ lambda ; a:f32[2]. let b:f32[2] = exp a in (b,) }",
    "stablehlo": "module @jit__lambda attributes {mhlo.num_partitions = 1 : i32, mhlo.num_replicas = 1 : i32} {\n  func.func public @main(%arg0: tensor<2xf32>) -> (tensor<2xf32> {jax.result_info = \"result\"}) {\n    %0 = stablehlo.exponential %arg0 : tensor<2xf32>\n    return %0 : tensor<2xf32>\n  }\n}\n",
    "metadata": {
      "category": "math",
      "operation": "exp",
      "description": "Math function: exp"
    }
  },
  {
    "python_code": "lambda x: jnp.sqrt(jnp.abs(x))",
    "input_info": [
      {
        "shape": [
          10
        ],
        "dtype": "float32"
      }
    ],
    "jaxpr": "{ lambda ; a:f32[10]. let b:f32[10] = abs a; c:f32[10] = sqrt b in (c,) }",
    "stablehlo": "module @jit__lambda attributes {mhlo.num_partitions = 1 : i32, mhlo.num_replicas = 1 : i32} {\n  func.func public @main(%arg0: tensor<10xf32>) -> (tensor<10xf32> {jax.result_info = \"result\"}) {\n    %0 = stablehlo.abs %arg0 : tensor<10xf32>\n    %1 = stablehlo.sqrt %0 : tensor<10xf32>\n    return %1 : tensor<10xf32>\n  }\n}\n",
    "metadata": {
      "category": "math",
      "operation": "sqrt",
      "description": "Math function: sqrt"
    }
  },
  {
    "python_code": "lambda x: jnp.abs(x)",
    "input_info": [
      {
        "shape": [
          8
        ],
        "dtype": "float32"
      }
    ],
    "jaxpr": "{ lambda ; a:f32[8]. let b:f32[8] = abs a in (b,) }",
    "stablehlo": "module @jit__lambda attributes {mhlo.num_partitions = 1 : i32, mhlo.num_replicas = 1 : i32} {\n  func.func public @main(%arg0: tensor<8xf32>) -> (tensor<8xf32> {jax.result_info = \"result\"}) {\n    %0 = stablehlo.abs %arg0 : tensor<8xf32>\n    return %0 : tensor<8xf32>\n  }\n}\n",
    "metadata": {
      "category": "math",
      "operation": "abs",
      "description": "Math function: abs"
    }
  },
  {
    "python_code": "lambda x: x ** 2",
    "input_info": [
      {
        "shape": [
          3
        ],
        "dtype": "float32"
      }
    ],
    "jaxpr": "{ lambda ; a:f32[3]. let b:f32[3] = integer_pow[y=2] a in (b,) }",
    "stablehlo": "module @jit__lambda attributes {mhlo.num_partitions = 1 : i32, mhlo.num_replicas = 1 : i32} {\n  func.func public @main(%arg0: tensor<3xf32>) -> (tensor<3xf32> {jax.result_info = \"result\"}) {\n    %0 = stablehlo.multiply %arg0, %arg0 : tensor<3xf32>\n    return %0 : tensor<3xf32>\n  }\n}\n",
    "metadata": {
      "category": "math",
      "operation": "square",
      "description": "Math function: square"
    }
  },
  {
    "python_code": "lambda x: jnp.tanh(x)",
    "input_info": [
      {
        "shape": [
          7,
          9,
          4
        ],
        "dtype": "float32"
      }
    ],
    "jaxpr": "{ lambda ; a:f32[7,9,4]. let b:f32[7,9,4] = tanh a in (b,) }",
    "stablehlo": "module @jit__lambda attributes {mhlo.num_partitions = 1 : i32, mhlo.num_replicas = 1 : i32} {\n  func.func public @main(%arg0: tensor<7x9x4xf32>) -> (tensor<7x9x4xf32> {jax.result_info = \"result\"}) {\n    %0 = stablehlo.tanh %arg0 : tensor<7x9x4xf32>\n    return %0 : tensor<7x9x4xf32>\n  }\n}\n",
    "metadata": {
      "category": "math",
      "operation": "tanh",
      "description": "Math function: tanh"
    }
  },
  {
    "python_code": "lambda x: jnp.cos(x)",
    "input_info": [
      {
        "shape": [
          5,
          10
        ],
        "dtype": "float32"
      }
    ],
    "jaxpr": "{ lambda ; a:f32[5,10]. let b:f32[5,10] = cos a in (b,) }",
    "stablehlo": "module @jit__lambda attributes {mhlo.num_partitions = 1 : i32, mhlo.num_replicas = 1 : i32} {\n  func.func public @main(%arg0: tensor<5x10xf32>) -> (tensor<5x10xf32> {jax.result_info = \"result\"}) {\n    %0 = stablehlo.cosine %arg0 : tensor<5x10xf32>\n    return %0 : tensor<5x10xf32>\n  }\n}\n",
    "metadata": {
      "category": "math",
      "operation": "cos",
      "description": "Math function: cos"
    }
  },
  {
    "python_code": "lambda x: jnp.tanh(x)",
    "input_info": [
      {
        "shape": [
          3,
          4
        ],
        "dtype": "float32"
      }
    ],
    "jaxpr": "{ lambda ; a:f32[3,4]. let b:f32[3,4] = tanh a in (b,) }",
    "stablehlo": "module @jit__lambda attributes {mhlo.num_partitions = 1 : i32, mhlo.num_replicas = 1 : i32} {\n  func.func public @main(%arg0: tensor<3x4xf32>) -> (tensor<3x4xf32> {jax.result_info = \"result\"}) {\n    %0 = stablehlo.tanh %arg0 : tensor<3x4xf32>\n    return %0 : tensor<3x4xf32>\n  }\n}\n",
    "metadata": {
      "category": "math",
      "operation": "tanh",
      "description": "Math function: tanh"
    }
  },
  {
    "python_code": "lambda x: jnp.tanh(x)",
    "input_info": [
      {
        "shape": [
          5,
          4,
          6
        ],
        "dtype": "float32"
      }
    ],
    "jaxpr": "{ lambda ; a:f32[5,4,6]. let b:f32[5,4,6] = tanh a in (b,) }",
    "stablehlo": "module @jit__lambda attributes {mhlo.num_partitions = 1 : i32, mhlo.num_replicas = 1 : i32} {\n  func.func public @main(%arg0: tensor<5x4x6xf32>) -> (tensor<5x4x6xf32> {jax.result_info = \"result\"}) {\n    %0 = stablehlo.tanh %arg0 : tensor<5x4x6xf32>\n    return %0 : tensor<5x4x6xf32>\n  }\n}\n",
    "metadata": {
      "category": "math",
      "operation": "tanh",
      "description": "Math function: tanh"
    }
  },
  {
    "python_code": "lambda x: jnp.sqrt(jnp.abs(x))",
    "input_info": [
      {
        "shape": [
          8
        ],
        "dtype": "float32"
      }
    ],
    "jaxpr": "{ lambda ; a:f32[8]. let b:f32[8] = abs a; c:f32[8] = sqrt b in (c,) }",
    "stablehlo": "module @jit__lambda attributes {mhlo.num_partitions = 1 : i32, mhlo.num_replicas = 1 : i32} {\n  func.func public @main(%arg0: tensor<8xf32>) -> (tensor<8xf32> {jax.result_info = \"result\"}) {\n    %0 = stablehlo.abs %arg0 : tensor<8xf32>\n    %1 = stablehlo.sqrt %0 : tensor<8xf32>\n    return %1 : tensor<8xf32>\n  }\n}\n",
    "metadata": {
      "category": "math",
      "operation": "sqrt",
      "description": "Math function: sqrt"
    }
  },
  {
    "python_code": "lambda x: jnp.sqrt(jnp.abs(x))",
    "input_info": [
      {
        "shape": [
          8
        ],
        "dtype": "float32"
      }
    ],
    "jaxpr": "{ lambda ; a:f32[8]. let b:f32[8] = abs a; c:f32[8] = sqrt b in (c,) }",
    "stablehlo": "module @jit__lambda attributes {mhlo.num_partitions = 1 : i32, mhlo.num_replicas = 1 : i32} {\n  func.func public @main(%arg0: tensor<8xf32>) -> (tensor<8xf32> {jax.result_info = \"result\"}) {\n    %0 = stablehlo.abs %arg0 : tensor<8xf32>\n    %1 = stablehlo.sqrt %0 : tensor<8xf32>\n    return %1 : tensor<8xf32>\n  }\n}\n",
    "metadata": {
      "category": "math",
      "operation": "sqrt",
      "description": "Math function: sqrt"
    }
  },
  {
    "python_code": "lambda x: jnp.cos(x)",
    "input_info": [
      {
        "shape": [
          2,
          6
        ],
        "dtype": "float32"
      }
    ],
    "jaxpr": "{ lambda ; a:f32[2,6]. let b:f32[2,6] = cos a in (b,) }",
    "stablehlo": "module @jit__lambda attributes {mhlo.num_partitions = 1 : i32, mhlo.num_replicas = 1 : i32} {\n  func.func public @main(%arg0: tensor<2x6xf32>) -> (tensor<2x6xf32> {jax.result_info = \"result\"}) {\n    %0 = stablehlo.cosine %arg0 : tensor<2x6xf32>\n    return %0 : tensor<2x6xf32>\n  }\n}\n",
    "metadata": {
      "category": "math",
      "operation": "cos",
      "description": "Math function: cos"
    }
  },
  {
    "python_code": "lambda x: jnp.cos(x)",
    "input_info": [
      {
        "shape": [
          5,
          3,
          2
        ],
        "dtype": "float32"
      }
    ],
    "jaxpr": "{ lambda ; a:f32[5,3,2]. let b:f32[5,3,2] = cos a in (b,) }",
    "stablehlo": "module @jit__lambda attributes {mhlo.num_partitions = 1 : i32, mhlo.num_replicas = 1 : i32} {\n  func.func public @main(%arg0: tensor<5x3x2xf32>) -> (tensor<5x3x2xf32> {jax.result_info = \"result\"}) {\n    %0 = stablehlo.cosine %arg0 : tensor<5x3x2xf32>\n    return %0 : tensor<5x3x2xf32>\n  }\n}\n",
    "metadata": {
      "category": "math",
      "operation": "cos",
      "description": "Math function: cos"
    }
  },
  {
    "python_code": "lambda x: 1.0 / (1.0 + jnp.exp(-x))",
    "input_info": [
      {
        "shape": [
          7,
          5
        ],
        "dtype": "float32"
      }
    ],
    "jaxpr": "{ lambda ; a:f32[7,5]. let\n    b:f32[7,5] = neg a\n    c:f32[7,5] = exp b\n    d:f32[7,5] = add 1.0:f32[] c\n    e:f32[7,5] = div 1.0:f32[] d\n  in (e,) }",
    "stablehlo": "module @jit__lambda attributes {mhlo.num_partitions = 1 : i32, mhlo.num_replicas = 1 : i32} {\n  func.func public @main(%arg0: tensor<7x5xf32>) -> (tensor<7x5xf32> {jax.result_info = \"result\"}) {\n    %0 = stablehlo.negate %arg0 : tensor<7x5xf32>\n    %1 = stablehlo.exponential %0 : tensor<7x5xf32>\n    %cst = stablehlo.constant dense<1.000000e+00> : tensor<f32>\n    %2 = stablehlo.broadcast_in_dim %cst, dims = [] : (tensor<f32>) -> tensor<7x5xf32>\n    %3 = stablehlo.add %2, %1 : tensor<7x5xf32>\n    %cst_0 = stablehlo.constant dense<1.000000e+00> : tensor<f32>\n    %4 = stablehlo.broadcast_in_dim %cst_0, dims = [] : (tensor<f32>) -> tensor<7x5xf32>\n    %5 = stablehlo.divide %4, %3 : tensor<7x5xf32>\n    return %5 : tensor<7x5xf32>\n  }\n}\n",
    "metadata": {
      "category": "math",
      "operation": "sigmoid",
      "description": "Math function: sigmoid"
    }
  },
  {
    "python_code": "lambda x: jnp.log(x + 1.0)",
    "input_info": [
      {
        "shape": [
          8
        ],
        "dtype": "float32"
      }
    ],
    "jaxpr": "{ lambda ; a:f32[8]. let b:f32[8] = add a 1.0:f32[]; c:f32[8] = log b in (c,) }",
    "stablehlo": "module @jit__lambda attributes {mhlo.num_partitions = 1 : i32, mhlo.num_replicas = 1 : i32} {\n  func.func public @main(%arg0: tensor<8xf32>) -> (tensor<8xf32> {jax.result_info = \"result\"}) {\n    %cst = stablehlo.constant dense<1.000000e+00> : tensor<f32>\n    %0 = stablehlo.broadcast_in_dim %cst, dims = [] : (tensor<f32>) -> tensor<8xf32>\n    %1 = stablehlo.add %arg0, %0 : tensor<8xf32>\n    %2 = stablehlo.log %1 : tensor<8xf32>\n    return %2 : tensor<8xf32>\n  }\n}\n",
    "metadata": {
      "category": "math",
      "operation": "log",
      "description": "Math function: log"
    }
  },
  {
    "python_code": "lambda x: jnp.log(x + 1.0)",
    "input_info": [
      {
        "shape": [
          6
        ],
        "dtype": "float32"
      }
    ],
    "jaxpr": "{ lambda ; a:f32[6]. let b:f32[6] = add a 1.0:f32[]; c:f32[6] = log b in (c,) }",
    "stablehlo": "module @jit__lambda attributes {mhlo.num_partitions = 1 : i32, mhlo.num_replicas = 1 : i32} {\n  func.func public @main(%arg0: tensor<6xf32>) -> (tensor<6xf32> {jax.result_info = \"result\"}) {\n    %cst = stablehlo.constant dense<1.000000e+00> : tensor<f32>\n    %0 = stablehlo.broadcast_in_dim %cst, dims = [] : (tensor<f32>) -> tensor<6xf32>\n    %1 = stablehlo.add %arg0, %0 : tensor<6xf32>\n    %2 = stablehlo.log %1 : tensor<6xf32>\n    return %2 : tensor<6xf32>\n  }\n}\n",
    "metadata": {
      "category": "math",
      "operation": "log",
      "description": "Math function: log"
    }
  },
  {
    "python_code": "lambda x: jnp.log(x + 1.0)",
    "input_info": [
      {
        "shape": [
          2
        ],
        "dtype": "float32"
      }
    ],
    "jaxpr": "{ lambda ; a:f32[2]. let b:f32[2] = add a 1.0:f32[]; c:f32[2] = log b in (c,) }",
    "stablehlo": "module @jit__lambda attributes {mhlo.num_partitions = 1 : i32, mhlo.num_replicas = 1 : i32} {\n  func.func public @main(%arg0: tensor<2xf32>) -> (tensor<2xf32> {jax.result_info = \"result\"}) {\n    %cst = stablehlo.constant dense<1.000000e+00> : tensor<f32>\n    %0 = stablehlo.broadcast_in_dim %cst, dims = [] : (tensor<f32>) -> tensor<2xf32>\n    %1 = stablehlo.add %arg0, %0 : tensor<2xf32>\n    %2 = stablehlo.log %1 : tensor<2xf32>\n    return %2 : tensor<2xf32>\n  }\n}\n",
    "metadata": {
      "category": "math",
      "operation": "log",
      "description": "Math function: log"
    }
  },
  {
    "python_code": "lambda x: 1.0 / (1.0 + jnp.exp(-x))",
    "input_info": [
      {
        "shape": [
          10
        ],
        "dtype": "float32"
      }
    ],
    "jaxpr": "{ lambda ; a:f32[10]. let\n    b:f32[10] = neg a\n    c:f32[10] = exp b\n    d:f32[10] = add 1.0:f32[] c\n    e:f32[10] = div 1.0:f32[] d\n  in (e,) }",
    "stablehlo": "module @jit__lambda attributes {mhlo.num_partitions = 1 : i32, mhlo.num_replicas = 1 : i32} {\n  func.func public @main(%arg0: tensor<10xf32>) -> (tensor<10xf32> {jax.result_info = \"result\"}) {\n    %0 = stablehlo.negate %arg0 : tensor<10xf32>\n    %1 = stablehlo.exponential %0 : tensor<10xf32>\n    %cst = stablehlo.constant dense<1.000000e+00> : tensor<f32>\n    %2 = stablehlo.broadcast_in_dim %cst, dims = [] : (tensor<f32>) -> tensor<10xf32>\n    %3 = stablehlo.add %2, %1 : tensor<10xf32>\n    %cst_0 = stablehlo.constant dense<1.000000e+00> : tensor<f32>\n    %4 = stablehlo.broadcast_in_dim %cst_0, dims = [] : (tensor<f32>) -> tensor<10xf32>\n    %5 = stablehlo.divide %4, %3 : tensor<10xf32>\n    return %5 : tensor<10xf32>\n  }\n}\n",
    "metadata": {
      "category": "math",
      "operation": "sigmoid",
      "description": "Math function: sigmoid"
    }
  },
  {
    "python_code": "lambda x: jnp.log(x + 1.0)",
    "input_info": [
      {
        "shape": [
          6
        ],
        "dtype": "float32"
      }
    ],
    "jaxpr": "{ lambda ; a:f32[6]. let b:f32[6] = add a 1.0:f32[]; c:f32[6] = log b in (c,) }",
    "stablehlo": "module @jit__lambda attributes {mhlo.num_partitions = 1 : i32, mhlo.num_replicas = 1 : i32} {\n  func.func public @main(%arg0: tensor<6xf32>) -> (tensor<6xf32> {jax.result_info = \"result\"}) {\n    %cst = stablehlo.constant dense<1.000000e+00> : tensor<f32>\n    %0 = stablehlo.broadcast_in_dim %cst, dims = [] : (tensor<f32>) -> tensor<6xf32>\n    %1 = stablehlo.add %arg0, %0 : tensor<6xf32>\n    %2 = stablehlo.log %1 : tensor<6xf32>\n    return %2 : tensor<6xf32>\n  }\n}\n",
    "metadata": {
      "category": "math",
      "operation": "log",
      "description": "Math function: log"
    }
  },
  {
    "python_code": "lambda x: 1.0 / (1.0 + jnp.exp(-x))",
    "input_info": [
      {
        "shape": [
          5,
          2,
          10
        ],
        "dtype": "float32"
      }
    ],
    "jaxpr": "{ lambda ; a:f32[5,2,10]. let\n    b:f32[5,2,10] = neg a\n    c:f32[5,2,10] = exp b\n    d:f32[5,2,10] = add 1.0:f32[] c\n    e:f32[5,2,10] = div 1.0:f32[] d\n  in (e,) }",
    "stablehlo": "module @jit__lambda attributes {mhlo.num_partitions = 1 : i32, mhlo.num_replicas = 1 : i32} {\n  func.func public @main(%arg0: tensor<5x2x10xf32>) -> (tensor<5x2x10xf32> {jax.result_info = \"result\"}) {\n    %0 = stablehlo.negate %arg0 : tensor<5x2x10xf32>\n    %1 = stablehlo.exponential %0 : tensor<5x2x10xf32>\n    %cst = stablehlo.constant dense<1.000000e+00> : tensor<f32>\n    %2 = stablehlo.broadcast_in_dim %cst, dims = [] : (tensor<f32>) -> tensor<5x2x10xf32>\n    %3 = stablehlo.add %2, %1 : tensor<5x2x10xf32>\n    %cst_0 = stablehlo.constant dense<1.000000e+00> : tensor<f32>\n    %4 = stablehlo.broadcast_in_dim %cst_0, dims = [] : (tensor<f32>) -> tensor<5x2x10xf32>\n    %5 = stablehlo.divide %4, %3 : tensor<5x2x10xf32>\n    return %5 : tensor<5x2x10xf32>\n  }\n}\n",
    "metadata": {
      "category": "math",
      "operation": "sigmoid",
      "description": "Math function: sigmoid"
    }
  },
  {
    "python_code": "lambda x: 1.0 / (1.0 + jnp.exp(-x))",
    "input_info": [
      {
        "shape": [
          2,
          9,
          5
        ],
        "dtype": "float32"
      }
    ],
    "jaxpr": "{ lambda ; a:f32[2,9,5]. let\n    b:f32[2,9,5] = neg a\n    c:f32[2,9,5] = exp b\n    d:f32[2,9,5] = add 1.0:f32[] c\n    e:f32[2,9,5] = div 1.0:f32[] d\n  in (e,) }",
    "stablehlo": "module @jit__lambda attributes {mhlo.num_partitions = 1 : i32, mhlo.num_replicas = 1 : i32} {\n  func.func public @main(%arg0: tensor<2x9x5xf32>) -> (tensor<2x9x5xf32> {jax.result_info = \"result\"}) {\n    %0 = stablehlo.negate %arg0 : tensor<2x9x5xf32>\n    %1 = stablehlo.exponential %0 : tensor<2x9x5xf32>\n    %cst = stablehlo.constant dense<1.000000e+00> : tensor<f32>\n    %2 = stablehlo.broadcast_in_dim %cst, dims = [] : (tensor<f32>) -> tensor<2x9x5xf32>\n    %3 = stablehlo.add %2, %1 : tensor<2x9x5xf32>\n    %cst_0 = stablehlo.constant dense<1.000000e+00> : tensor<f32>\n    %4 = stablehlo.broadcast_in_dim %cst_0, dims = [] : (tensor<f32>) -> tensor<2x9x5xf32>\n    %5 = stablehlo.divide %4, %3 : tensor<2x9x5xf32>\n    return %5 : tensor<2x9x5xf32>\n  }\n}\n",
    "metadata": {
      "category": "math",
      "operation": "sigmoid",
      "description": "Math function: sigmoid"
    }
  },
  {
    "python_code": "lambda x: jnp.exp(x)",
    "input_info": [
      {
        "shape": [
          7
        ],
        "dtype": "float32"
      }
    ],
    "jaxpr": "{ lambda ; a:f32[7]. let b:f32[7] = exp a in (b,) }",
    "stablehlo": "module @jit__lambda attributes {mhlo.num_partitions = 1 : i32, mhlo.num_replicas = 1 : i32} {\n  func.func public @main(%arg0: tensor<7xf32>) -> (tensor<7xf32> {jax.result_info = \"result\"}) {\n    %0 = stablehlo.exponential %arg0 : tensor<7xf32>\n    return %0 : tensor<7xf32>\n  }\n}\n",
    "metadata": {
      "category": "math",
      "operation": "exp",
      "description": "Math function: exp"
    }
  },
  {
    "python_code": "lambda x: jnp.abs(x)",
    "input_info": [
      {
        "shape": [
          3,
          2,
          5
        ],
        "dtype": "float32"
      }
    ],
    "jaxpr": "{ lambda ; a:f32[3,2,5]. let b:f32[3,2,5] = abs a in (b,) }",
    "stablehlo": "module @jit__lambda attributes {mhlo.num_partitions = 1 : i32, mhlo.num_replicas = 1 : i32} {\n  func.func public @main(%arg0: tensor<3x2x5xf32>) -> (tensor<3x2x5xf32> {jax.result_info = \"result\"}) {\n    %0 = stablehlo.abs %arg0 : tensor<3x2x5xf32>\n    return %0 : tensor<3x2x5xf32>\n  }\n}\n",
    "metadata": {
      "category": "math",
      "operation": "abs",
      "description": "Math function: abs"
    }
  },
  {
    "python_code": "lambda x: jnp.log(x + 1.0)",
    "input_info": [
      {
        "shape": [
          10,
          4,
          9
        ],
        "dtype": "float32"
      }
    ],
    "jaxpr": "{ lambda ; a:f32[10,4,9]. let\n    b:f32[10,4,9] = add a 1.0:f32[]\n    c:f32[10,4,9] = log b\n  in (c,) }",
    "stablehlo": "module @jit__lambda attributes {mhlo.num_partitions = 1 : i32, mhlo.num_replicas = 1 : i32} {\n  func.func public @main(%arg0: tensor<10x4x9xf32>) -> (tensor<10x4x9xf32> {jax.result_info = \"result\"}) {\n    %cst = stablehlo.constant dense<1.000000e+00> : tensor<f32>\n    %0 = stablehlo.broadcast_in_dim %cst, dims = [] : (tensor<f32>) -> tensor<10x4x9xf32>\n    %1 = stablehlo.add %arg0, %0 : tensor<10x4x9xf32>\n    %2 = stablehlo.log %1 : tensor<10x4x9xf32>\n    return %2 : tensor<10x4x9xf32>\n  }\n}\n",
    "metadata": {
      "category": "math",
      "operation": "log",
      "description": "Math function: log"
    }
  },
  {
    "python_code": "lambda x: jnp.exp(x)",
    "input_info": [
      {
        "shape": [
          8,
          2,
          7
        ],
        "dtype": "float32"
      }
    ],
    "jaxpr": "{ lambda ; a:f32[8,2,7]. let b:f32[8,2,7] = exp a in (b,) }",
    "stablehlo": "module @jit__lambda attributes {mhlo.num_partitions = 1 : i32, mhlo.num_replicas = 1 : i32} {\n  func.func public @main(%arg0: tensor<8x2x7xf32>) -> (tensor<8x2x7xf32> {jax.result_info = \"result\"}) {\n    %0 = stablehlo.exponential %arg0 : tensor<8x2x7xf32>\n    return %0 : tensor<8x2x7xf32>\n  }\n}\n",
    "metadata": {
      "category": "math",
      "operation": "exp",
      "description": "Math function: exp"
    }
  },
  {
    "python_code": "lambda x: jnp.tanh(x)",
    "input_info": [
      {
        "shape": [
          3,
          3
        ],
        "dtype": "float32"
      }
    ],
    "jaxpr": "{ lambda ; a:f32[3,3]. let b:f32[3,3] = tanh a in (b,) }",
    "stablehlo": "module @jit__lambda attributes {mhlo.num_partitions = 1 : i32, mhlo.num_replicas = 1 : i32} {\n  func.func public @main(%arg0: tensor<3x3xf32>) -> (tensor<3x3xf32> {jax.result_info = \"result\"}) {\n    %0 = stablehlo.tanh %arg0 : tensor<3x3xf32>\n    return %0 : tensor<3x3xf32>\n  }\n}\n",
    "metadata": {
      "category": "math",
      "operation": "tanh",
      "description": "Math function: tanh"
    }
  },
  {
    "python_code": "lambda x: jnp.cos(x)",
    "input_info": [
      {
        "shape": [
          4,
          5,
          10
        ],
        "dtype": "float32"
      }
    ],
    "jaxpr": "{ lambda ; a:f32[4,5,10]. let b:f32[4,5,10] = cos a in (b,) }",
    "stablehlo": "module @jit__lambda attributes {mhlo.num_partitions = 1 : i32, mhlo.num_replicas = 1 : i32} {\n  func.func public @main(%arg0: tensor<4x5x10xf32>) -> (tensor<4x5x10xf32> {jax.result_info = \"result\"}) {\n    %0 = stablehlo.cosine %arg0 : tensor<4x5x10xf32>\n    return %0 : tensor<4x5x10xf32>\n  }\n}\n",
    "metadata": {
      "category": "math",
      "operation": "cos",
      "description": "Math function: cos"
    }
  },
  {
    "python_code": "lambda x: jnp.abs(x)",
    "input_info": [
      {
        "shape": [
          3,
          6,
          7
        ],
        "dtype": "float32"
      }
    ],
    "jaxpr": "{ lambda ; a:f32[3,6,7]. let b:f32[3,6,7] = abs a in (b,) }",
    "stablehlo": "module @jit__lambda attributes {mhlo.num_partitions = 1 : i32, mhlo.num_replicas = 1 : i32} {\n  func.func public @main(%arg0: tensor<3x6x7xf32>) -> (tensor<3x6x7xf32> {jax.result_info = \"result\"}) {\n    %0 = stablehlo.abs %arg0 : tensor<3x6x7xf32>\n    return %0 : tensor<3x6x7xf32>\n  }\n}\n",
    "metadata": {
      "category": "math",
      "operation": "abs",
      "description": "Math function: abs"
    }
  },
  {
    "python_code": "lambda x: jnp.cos(x)",
    "input_info": [
      {
        "shape": [
          4,
          2,
          8
        ],
        "dtype": "float32"
      }
    ],
    "jaxpr": "{ lambda ; a:f32[4,2,8]. let b:f32[4,2,8] = cos a in (b,) }",
    "stablehlo": "module @jit__lambda attributes {mhlo.num_partitions = 1 : i32, mhlo.num_replicas = 1 : i32} {\n  func.func public @main(%arg0: tensor<4x2x8xf32>) -> (tensor<4x2x8xf32> {jax.result_info = \"result\"}) {\n    %0 = stablehlo.cosine %arg0 : tensor<4x2x8xf32>\n    return %0 : tensor<4x2x8xf32>\n  }\n}\n",
    "metadata": {
      "category": "math",
      "operation": "cos",
      "description": "Math function: cos"
    }
  },
  {
    "python_code": "lambda x: jnp.exp(x)",
    "input_info": [
      {
        "shape": [
          2
        ],
        "dtype": "float32"
      }
    ],
    "jaxpr": "{ lambda ; a:f32[2]. let b:f32[2] = exp a in (b,) }",
    "stablehlo": "module @jit__lambda attributes {mhlo.num_partitions = 1 : i32, mhlo.num_replicas = 1 : i32} {\n  func.func public @main(%arg0: tensor<2xf32>) -> (tensor<2xf32> {jax.result_info = \"result\"}) {\n    %0 = stablehlo.exponential %arg0 : tensor<2xf32>\n    return %0 : tensor<2xf32>\n  }\n}\n",
    "metadata": {
      "category": "math",
      "operation": "exp",
      "description": "Math function: exp"
    }
  },
  {
    "python_code": "lambda x: 1.0 / (1.0 + jnp.exp(-x))",
    "input_info": [
      {
        "shape": [
          8,
          4
        ],
        "dtype": "float32"
      }
    ],
    "jaxpr": "{ lambda ; a:f32[8,4]. let\n    b:f32[8,4] = neg a\n    c:f32[8,4] = exp b\n    d:f32[8,4] = add 1.0:f32[] c\n    e:f32[8,4] = div 1.0:f32[] d\n  in (e,) }",
    "stablehlo": "module @jit__lambda attributes {mhlo.num_partitions = 1 : i32, mhlo.num_replicas = 1 : i32} {\n  func.func public @main(%arg0: tensor<8x4xf32>) -> (tensor<8x4xf32> {jax.result_info = \"result\"}) {\n    %0 = stablehlo.negate %arg0 : tensor<8x4xf32>\n    %1 = stablehlo.exponential %0 : tensor<8x4xf32>\n    %cst = stablehlo.constant dense<1.000000e+00> : tensor<f32>\n    %2 = stablehlo.broadcast_in_dim %cst, dims = [] : (tensor<f32>) -> tensor<8x4xf32>\n    %3 = stablehlo.add %2, %1 : tensor<8x4xf32>\n    %cst_0 = stablehlo.constant dense<1.000000e+00> : tensor<f32>\n    %4 = stablehlo.broadcast_in_dim %cst_0, dims = [] : (tensor<f32>) -> tensor<8x4xf32>\n    %5 = stablehlo.divide %4, %3 : tensor<8x4xf32>\n    return %5 : tensor<8x4xf32>\n  }\n}\n",
    "metadata": {
      "category": "math",
      "operation": "sigmoid",
      "description": "Math function: sigmoid"
    }
  },
  {
    "python_code": "lambda x: jnp.log(x + 1.0)",
    "input_info": [
      {
        "shape": [
          8,
          3
        ],
        "dtype": "float32"
      }
    ],
    "jaxpr": "{ lambda ; a:f32[8,3]. let\n    b:f32[8,3] = add a 1.0:f32[]\n    c:f32[8,3] = log b\n  in (c,) }",
    "stablehlo": "module @jit__lambda attributes {mhlo.num_partitions = 1 : i32, mhlo.num_replicas = 1 : i32} {\n  func.func public @main(%arg0: tensor<8x3xf32>) -> (tensor<8x3xf32> {jax.result_info = \"result\"}) {\n    %cst = stablehlo.constant dense<1.000000e+00> : tensor<f32>\n    %0 = stablehlo.broadcast_in_dim %cst, dims = [] : (tensor<f32>) -> tensor<8x3xf32>\n    %1 = stablehlo.add %arg0, %0 : tensor<8x3xf32>\n    %2 = stablehlo.log %1 : tensor<8x3xf32>\n    return %2 : tensor<8x3xf32>\n  }\n}\n",
    "metadata": {
      "category": "math",
      "operation": "log",
      "description": "Math function: log"
    }
  },
  {
    "python_code": "lambda x: jnp.exp(x)",
    "input_info": [
      {
        "shape": [
          4
        ],
        "dtype": "float32"
      }
    ],
    "jaxpr": "{ lambda ; a:f32[4]. let b:f32[4] = exp a in (b,) }",
    "stablehlo": "module @jit__lambda attributes {mhlo.num_partitions = 1 : i32, mhlo.num_replicas = 1 : i32} {\n  func.func public @main(%arg0: tensor<4xf32>) -> (tensor<4xf32> {jax.result_info = \"result\"}) {\n    %0 = stablehlo.exponential %arg0 : tensor<4xf32>\n    return %0 : tensor<4xf32>\n  }\n}\n",
    "metadata": {
      "category": "math",
      "operation": "exp",
      "description": "Math function: exp"
    }
  },
  {
    "python_code": "lambda x: jnp.exp(x)",
    "input_info": [
      {
        "shape": [
          9
        ],
        "dtype": "float32"
      }
    ],
    "jaxpr": "{ lambda ; a:f32[9]. let b:f32[9] = exp a in (b,) }",
    "stablehlo": "module @jit__lambda attributes {mhlo.num_partitions = 1 : i32, mhlo.num_replicas = 1 : i32} {\n  func.func public @main(%arg0: tensor<9xf32>) -> (tensor<9xf32> {jax.result_info = \"result\"}) {\n    %0 = stablehlo.exponential %arg0 : tensor<9xf32>\n    return %0 : tensor<9xf32>\n  }\n}\n",
    "metadata": {
      "category": "math",
      "operation": "exp",
      "description": "Math function: exp"
    }
  },
  {
    "python_code": "lambda x: x ** 2",
    "input_info": [
      {
        "shape": [
          6,
          4,
          4
        ],
        "dtype": "float32"
      }
    ],
    "jaxpr": "{ lambda ; a:f32[6,4,4]. let b:f32[6,4,4] = integer_pow[y=2] a in (b,) }",
    "stablehlo": "module @jit__lambda attributes {mhlo.num_partitions = 1 : i32, mhlo.num_replicas = 1 : i32} {\n  func.func public @main(%arg0: tensor<6x4x4xf32>) -> (tensor<6x4x4xf32> {jax.result_info = \"result\"}) {\n    %0 = stablehlo.multiply %arg0, %arg0 : tensor<6x4x4xf32>\n    return %0 : tensor<6x4x4xf32>\n  }\n}\n",
    "metadata": {
      "category": "math",
      "operation": "square",
      "description": "Math function: square"
    }
  },
  {
    "python_code": "lambda x: 1.0 / (1.0 + jnp.exp(-x))",
    "input_info": [
      {
        "shape": [
          6,
          9
        ],
        "dtype": "float32"
      }
    ],
    "jaxpr": "{ lambda ; a:f32[6,9]. let\n    b:f32[6,9] = neg a\n    c:f32[6,9] = exp b\n    d:f32[6,9] = add 1.0:f32[] c\n    e:f32[6,9] = div 1.0:f32[] d\n  in (e,) }",
    "stablehlo": "module @jit__lambda attributes {mhlo.num_partitions = 1 : i32, mhlo.num_replicas = 1 : i32} {\n  func.func public @main(%arg0: tensor<6x9xf32>) -> (tensor<6x9xf32> {jax.result_info = \"result\"}) {\n    %0 = stablehlo.negate %arg0 : tensor<6x9xf32>\n    %1 = stablehlo.exponential %0 : tensor<6x9xf32>\n    %cst = stablehlo.constant dense<1.000000e+00> : tensor<f32>\n    %2 = stablehlo.broadcast_in_dim %cst, dims = [] : (tensor<f32>) -> tensor<6x9xf32>\n    %3 = stablehlo.add %2, %1 : tensor<6x9xf32>\n    %cst_0 = stablehlo.constant dense<1.000000e+00> : tensor<f32>\n    %4 = stablehlo.broadcast_in_dim %cst_0, dims = [] : (tensor<f32>) -> tensor<6x9xf32>\n    %5 = stablehlo.divide %4, %3 : tensor<6x9xf32>\n    return %5 : tensor<6x9xf32>\n  }\n}\n",
    "metadata": {
      "category": "math",
      "operation": "sigmoid",
      "description": "Math function: sigmoid"
    }
  },
  {
    "python_code": "lambda x: jnp.abs(x)",
    "input_info": [
      {
        "shape": [
          7,
          10,
          5
        ],
        "dtype": "float32"
      }
    ],
    "jaxpr": "{ lambda ; a:f32[7,10,5]. let b:f32[7,10,5] = abs a in (b,) }",
    "stablehlo": "module @jit__lambda attributes {mhlo.num_partitions = 1 : i32, mhlo.num_replicas = 1 : i32} {\n  func.func public @main(%arg0: tensor<7x10x5xf32>) -> (tensor<7x10x5xf32> {jax.result_info = \"result\"}) {\n    %0 = stablehlo.abs %arg0 : tensor<7x10x5xf32>\n    return %0 : tensor<7x10x5xf32>\n  }\n}\n",
    "metadata": {
      "category": "math",
      "operation": "abs",
      "description": "Math function: abs"
    }
  },
  {
    "python_code": "lambda x: jnp.sqrt(jnp.abs(x))",
    "input_info": [
      {
        "shape": [
          10,
          5,
          5
        ],
        "dtype": "float32"
      }
    ],
    "jaxpr": "{ lambda ; a:f32[10,5,5]. let\n    b:f32[10,5,5] = abs a\n    c:f32[10,5,5] = sqrt b\n  in (c,) }",
    "stablehlo": "module @jit__lambda attributes {mhlo.num_partitions = 1 : i32, mhlo.num_replicas = 1 : i32} {\n  func.func public @main(%arg0: tensor<10x5x5xf32>) -> (tensor<10x5x5xf32> {jax.result_info = \"result\"}) {\n    %0 = stablehlo.abs %arg0 : tensor<10x5x5xf32>\n    %1 = stablehlo.sqrt %0 : tensor<10x5x5xf32>\n    return %1 : tensor<10x5x5xf32>\n  }\n}\n",
    "metadata": {
      "category": "math",
      "operation": "sqrt",
      "description": "Math function: sqrt"
    }
  },
  {
    "python_code": "lambda x: jnp.abs(x)",
    "input_info": [
      {
        "shape": [
          3,
          7,
          3
        ],
        "dtype": "float32"
      }
    ],
    "jaxpr": "{ lambda ; a:f32[3,7,3]. let b:f32[3,7,3] = abs a in (b,) }",
    "stablehlo": "module @jit__lambda attributes {mhlo.num_partitions = 1 : i32, mhlo.num_replicas = 1 : i32} {\n  func.func public @main(%arg0: tensor<3x7x3xf32>) -> (tensor<3x7x3xf32> {jax.result_info = \"result\"}) {\n    %0 = stablehlo.abs %arg0 : tensor<3x7x3xf32>\n    return %0 : tensor<3x7x3xf32>\n  }\n}\n",
    "metadata": {
      "category": "math",
      "operation": "abs",
      "description": "Math function: abs"
    }
  },
  {
    "python_code": "lambda x: x ** 2",
    "input_info": [
      {
        "shape": [
          7,
          2
        ],
        "dtype": "float32"
      }
    ],
    "jaxpr": "{ lambda ; a:f32[7,2]. let b:f32[7,2] = integer_pow[y=2] a in (b,) }",
    "stablehlo": "module @jit__lambda attributes {mhlo.num_partitions = 1 : i32, mhlo.num_replicas = 1 : i32} {\n  func.func public @main(%arg0: tensor<7x2xf32>) -> (tensor<7x2xf32> {jax.result_info = \"result\"}) {\n    %0 = stablehlo.multiply %arg0, %arg0 : tensor<7x2xf32>\n    return %0 : tensor<7x2xf32>\n  }\n}\n",
    "metadata": {
      "category": "math",
      "operation": "square",
      "description": "Math function: square"
    }
  },
  {
    "python_code": "lambda x: jnp.abs(x)",
    "input_info": [
      {
        "shape": [
          8,
          3,
          5
        ],
        "dtype": "float32"
      }
    ],
    "jaxpr": "{ lambda ; a:f32[8,3,5]. let b:f32[8,3,5] = abs a in (b,) }",
    "stablehlo": "module @jit__lambda attributes {mhlo.num_partitions = 1 : i32, mhlo.num_replicas = 1 : i32} {\n  func.func public @main(%arg0: tensor<8x3x5xf32>) -> (tensor<8x3x5xf32> {jax.result_info = \"result\"}) {\n    %0 = stablehlo.abs %arg0 : tensor<8x3x5xf32>\n    return %0 : tensor<8x3x5xf32>\n  }\n}\n",
    "metadata": {
      "category": "math",
      "operation": "abs",
      "description": "Math function: abs"
    }
  },
  {
    "python_code": "lambda x: x ** 2",
    "input_info": [
      {
        "shape": [
          3
        ],
        "dtype": "float32"
      }
    ],
    "jaxpr": "{ lambda ; a:f32[3]. let b:f32[3] = integer_pow[y=2] a in (b,) }",
    "stablehlo": "module @jit__lambda attributes {mhlo.num_partitions = 1 : i32, mhlo.num_replicas = 1 : i32} {\n  func.func public @main(%arg0: tensor<3xf32>) -> (tensor<3xf32> {jax.result_info = \"result\"}) {\n    %0 = stablehlo.multiply %arg0, %arg0 : tensor<3xf32>\n    return %0 : tensor<3xf32>\n  }\n}\n",
    "metadata": {
      "category": "math",
      "operation": "square",
      "description": "Math function: square"
    }
  },
  {
    "python_code": "lambda x: 1.0 / (1.0 + jnp.exp(-x))",
    "input_info": [
      {
        "shape": [
          6,
          3
        ],
        "dtype": "float32"
      }
    ],
    "jaxpr": "{ lambda ; a:f32[6,3]. let\n    b:f32[6,3] = neg a\n    c:f32[6,3] = exp b\n    d:f32[6,3] = add 1.0:f32[] c\n    e:f32[6,3] = div 1.0:f32[] d\n  in (e,) }",
    "stablehlo": "module @jit__lambda attributes {mhlo.num_partitions = 1 : i32, mhlo.num_replicas = 1 : i32} {\n  func.func public @main(%arg0: tensor<6x3xf32>) -> (tensor<6x3xf32> {jax.result_info = \"result\"}) {\n    %0 = stablehlo.negate %arg0 : tensor<6x3xf32>\n    %1 = stablehlo.exponential %0 : tensor<6x3xf32>\n    %cst = stablehlo.constant dense<1.000000e+00> : tensor<f32>\n    %2 = stablehlo.broadcast_in_dim %cst, dims = [] : (tensor<f32>) -> tensor<6x3xf32>\n    %3 = stablehlo.add %2, %1 : tensor<6x3xf32>\n    %cst_0 = stablehlo.constant dense<1.000000e+00> : tensor<f32>\n    %4 = stablehlo.broadcast_in_dim %cst_0, dims = [] : (tensor<f32>) -> tensor<6x3xf32>\n    %5 = stablehlo.divide %4, %3 : tensor<6x3xf32>\n    return %5 : tensor<6x3xf32>\n  }\n}\n",
    "metadata": {
      "category": "math",
      "operation": "sigmoid",
      "description": "Math function: sigmoid"
    }
  },
  {
    "python_code": "lambda x: jnp.tanh(x)",
    "input_info": [
      {
        "shape": [
          3,
          8,
          8
        ],
        "dtype": "float32"
      }
    ],
    "jaxpr": "{ lambda ; a:f32[3,8,8]. let b:f32[3,8,8] = tanh a in (b,) }",
    "stablehlo": "module @jit__lambda attributes {mhlo.num_partitions = 1 : i32, mhlo.num_replicas = 1 : i32} {\n  func.func public @main(%arg0: tensor<3x8x8xf32>) -> (tensor<3x8x8xf32> {jax.result_info = \"result\"}) {\n    %0 = stablehlo.tanh %arg0 : tensor<3x8x8xf32>\n    return %0 : tensor<3x8x8xf32>\n  }\n}\n",
    "metadata": {
      "category": "math",
      "operation": "tanh",
      "description": "Math function: tanh"
    }
  },
  {
    "python_code": "lambda x: jnp.abs(x)",
    "input_info": [
      {
        "shape": [
          9,
          5,
          6
        ],
        "dtype": "float32"
      }
    ],
    "jaxpr": "{ lambda ; a:f32[9,5,6]. let b:f32[9,5,6] = abs a in (b,) }",
    "stablehlo": "module @jit__lambda attributes {mhlo.num_partitions = 1 : i32, mhlo.num_replicas = 1 : i32} {\n  func.func public @main(%arg0: tensor<9x5x6xf32>) -> (tensor<9x5x6xf32> {jax.result_info = \"result\"}) {\n    %0 = stablehlo.abs %arg0 : tensor<9x5x6xf32>\n    return %0 : tensor<9x5x6xf32>\n  }\n}\n",
    "metadata": {
      "category": "math",
      "operation": "abs",
      "description": "Math function: abs"
    }
  },
  {
    "python_code": "lambda x: jnp.log(x + 1.0)",
    "input_info": [
      {
        "shape": [
          3,
          8,
          9
        ],
        "dtype": "float32"
      }
    ],
    "jaxpr": "{ lambda ; a:f32[3,8,9]. let\n    b:f32[3,8,9] = add a 1.0:f32[]\n    c:f32[3,8,9] = log b\n  in (c,) }",
    "stablehlo": "module @jit__lambda attributes {mhlo.num_partitions = 1 : i32, mhlo.num_replicas = 1 : i32} {\n  func.func public @main(%arg0: tensor<3x8x9xf32>) -> (tensor<3x8x9xf32> {jax.result_info = \"result\"}) {\n    %cst = stablehlo.constant dense<1.000000e+00> : tensor<f32>\n    %0 = stablehlo.broadcast_in_dim %cst, dims = [] : (tensor<f32>) -> tensor<3x8x9xf32>\n    %1 = stablehlo.add %arg0, %0 : tensor<3x8x9xf32>\n    %2 = stablehlo.log %1 : tensor<3x8x9xf32>\n    return %2 : tensor<3x8x9xf32>\n  }\n}\n",
    "metadata": {
      "category": "math",
      "operation": "log",
      "description": "Math function: log"
    }
  },
  {
    "python_code": "lambda x: x ** 2",
    "input_info": [
      {
        "shape": [
          2,
          8,
          3
        ],
        "dtype": "float32"
      }
    ],
    "jaxpr": "{ lambda ; a:f32[2,8,3]. let b:f32[2,8,3] = integer_pow[y=2] a in (b,) }",
    "stablehlo": "module @jit__lambda attributes {mhlo.num_partitions = 1 : i32, mhlo.num_replicas = 1 : i32} {\n  func.func public @main(%arg0: tensor<2x8x3xf32>) -> (tensor<2x8x3xf32> {jax.result_info = \"result\"}) {\n    %0 = stablehlo.multiply %arg0, %arg0 : tensor<2x8x3xf32>\n    return %0 : tensor<2x8x3xf32>\n  }\n}\n",
    "metadata": {
      "category": "math",
      "operation": "square",
      "description": "Math function: square"
    }
  },
  {
    "python_code": "lambda x: jnp.log(x + 1.0)",
    "input_info": [
      {
        "shape": [
          3
        ],
        "dtype": "float32"
      }
    ],
    "jaxpr": "{ lambda ; a:f32[3]. let b:f32[3] = add a 1.0:f32[]; c:f32[3] = log b in (c,) }",
    "stablehlo": "module @jit__lambda attributes {mhlo.num_partitions = 1 : i32, mhlo.num_replicas = 1 : i32} {\n  func.func public @main(%arg0: tensor<3xf32>) -> (tensor<3xf32> {jax.result_info = \"result\"}) {\n    %cst = stablehlo.constant dense<1.000000e+00> : tensor<f32>\n    %0 = stablehlo.broadcast_in_dim %cst, dims = [] : (tensor<f32>) -> tensor<3xf32>\n    %1 = stablehlo.add %arg0, %0 : tensor<3xf32>\n    %2 = stablehlo.log %1 : tensor<3xf32>\n    return %2 : tensor<3xf32>\n  }\n}\n",
    "metadata": {
      "category": "math",
      "operation": "log",
      "description": "Math function: log"
    }
  },
  {
    "python_code": "lambda x: jnp.abs(x)",
    "input_info": [
      {
        "shape": [
          2,
          5,
          9
        ],
        "dtype": "float32"
      }
    ],
    "jaxpr": "{ lambda ; a:f32[2,5,9]. let b:f32[2,5,9] = abs a in (b,) }",
    "stablehlo": "module @jit__lambda attributes {mhlo.num_partitions = 1 : i32, mhlo.num_replicas = 1 : i32} {\n  func.func public @main(%arg0: tensor<2x5x9xf32>) -> (tensor<2x5x9xf32> {jax.result_info = \"result\"}) {\n    %0 = stablehlo.abs %arg0 : tensor<2x5x9xf32>\n    return %0 : tensor<2x5x9xf32>\n  }\n}\n",
    "metadata": {
      "category": "math",
      "operation": "abs",
      "description": "Math function: abs"
    }
  },
  {
    "python_code": "lambda x: jnp.exp(x)",
    "input_info": [
      {
        "shape": [
          9,
          10,
          6
        ],
        "dtype": "float32"
      }
    ],
    "jaxpr": "{ lambda ; a:f32[9,10,6]. let b:f32[9,10,6] = exp a in (b,) }",
    "stablehlo": "module @jit__lambda attributes {mhlo.num_partitions = 1 : i32, mhlo.num_replicas = 1 : i32} {\n  func.func public @main(%arg0: tensor<9x10x6xf32>) -> (tensor<9x10x6xf32> {jax.result_info = \"result\"}) {\n    %0 = stablehlo.exponential %arg0 : tensor<9x10x6xf32>\n    return %0 : tensor<9x10x6xf32>\n  }\n}\n",
    "metadata": {
      "category": "math",
      "operation": "exp",
      "description": "Math function: exp"
    }
  },
  {
    "python_code": "lambda x: jnp.cos(x)",
    "input_info": [
      {
        "shape": [
          2,
          7,
          10
        ],
        "dtype": "float32"
      }
    ],
    "jaxpr": "{ lambda ; a:f32[2,7,10]. let b:f32[2,7,10] = cos a in (b,) }",
    "stablehlo": "module @jit__lambda attributes {mhlo.num_partitions = 1 : i32, mhlo.num_replicas = 1 : i32} {\n  func.func public @main(%arg0: tensor<2x7x10xf32>) -> (tensor<2x7x10xf32> {jax.result_info = \"result\"}) {\n    %0 = stablehlo.cosine %arg0 : tensor<2x7x10xf32>\n    return %0 : tensor<2x7x10xf32>\n  }\n}\n",
    "metadata": {
      "category": "math",
      "operation": "cos",
      "description": "Math function: cos"
    }
  },
  {
    "python_code": "lambda x: jnp.sin(x)",
    "input_info": [
      {
        "shape": [
          6,
          4,
          10
        ],
        "dtype": "float32"
      }
    ],
    "jaxpr": "{ lambda ; a:f32[6,4,10]. let b:f32[6,4,10] = sin a in (b,) }",
    "stablehlo": "module @jit__lambda attributes {mhlo.num_partitions = 1 : i32, mhlo.num_replicas = 1 : i32} {\n  func.func public @main(%arg0: tensor<6x4x10xf32>) -> (tensor<6x4x10xf32> {jax.result_info = \"result\"}) {\n    %0 = stablehlo.sine %arg0 : tensor<6x4x10xf32>\n    return %0 : tensor<6x4x10xf32>\n  }\n}\n",
    "metadata": {
      "category": "math",
      "operation": "sin",
      "description": "Math function: sin"
    }
  },
  {
    "python_code": "lambda x: x ** 2",
    "input_info": [
      {
        "shape": [
          2,
          9
        ],
        "dtype": "float32"
      }
    ],
    "jaxpr": "{ lambda ; a:f32[2,9]. let b:f32[2,9] = integer_pow[y=2] a in (b,) }",
    "stablehlo": "module @jit__lambda attributes {mhlo.num_partitions = 1 : i32, mhlo.num_replicas = 1 : i32} {\n  func.func public @main(%arg0: tensor<2x9xf32>) -> (tensor<2x9xf32> {jax.result_info = \"result\"}) {\n    %0 = stablehlo.multiply %arg0, %arg0 : tensor<2x9xf32>\n    return %0 : tensor<2x9xf32>\n  }\n}\n",
    "metadata": {
      "category": "math",
      "operation": "square",
      "description": "Math function: square"
    }
  },
  {
    "python_code": "lambda x: jnp.cos(x)",
    "input_info": [
      {
        "shape": [
          9,
          8
        ],
        "dtype": "float32"
      }
    ],
    "jaxpr": "{ lambda ; a:f32[9,8]. let b:f32[9,8] = cos a in (b,) }",
    "stablehlo": "module @jit__lambda attributes {mhlo.num_partitions = 1 : i32, mhlo.num_replicas = 1 : i32} {\n  func.func public @main(%arg0: tensor<9x8xf32>) -> (tensor<9x8xf32> {jax.result_info = \"result\"}) {\n    %0 = stablehlo.cosine %arg0 : tensor<9x8xf32>\n    return %0 : tensor<9x8xf32>\n  }\n}\n",
    "metadata": {
      "category": "math",
      "operation": "cos",
      "description": "Math function: cos"
    }
  },
  {
    "python_code": "lambda x: jnp.log(x + 1.0)",
    "input_info": [
      {
        "shape": [
          6,
          6,
          5
        ],
        "dtype": "float32"
      }
    ],
    "jaxpr": "{ lambda ; a:f32[6,6,5]. let\n    b:f32[6,6,5] = add a 1.0:f32[]\n    c:f32[6,6,5] = log b\n  in (c,) }",
    "stablehlo": "module @jit__lambda attributes {mhlo.num_partitions = 1 : i32, mhlo.num_replicas = 1 : i32} {\n  func.func public @main(%arg0: tensor<6x6x5xf32>) -> (tensor<6x6x5xf32> {jax.result_info = \"result\"}) {\n    %cst = stablehlo.constant dense<1.000000e+00> : tensor<f32>\n    %0 = stablehlo.broadcast_in_dim %cst, dims = [] : (tensor<f32>) -> tensor<6x6x5xf32>\n    %1 = stablehlo.add %arg0, %0 : tensor<6x6x5xf32>\n    %2 = stablehlo.log %1 : tensor<6x6x5xf32>\n    return %2 : tensor<6x6x5xf32>\n  }\n}\n",
    "metadata": {
      "category": "math",
      "operation": "log",
      "description": "Math function: log"
    }
  },
  {
    "python_code": "lambda x: jnp.cos(x)",
    "input_info": [
      {
        "shape": [
          5,
          2,
          5
        ],
        "dtype": "float32"
      }
    ],
    "jaxpr": "{ lambda ; a:f32[5,2,5]. let b:f32[5,2,5] = cos a in (b,) }",
    "stablehlo": "module @jit__lambda attributes {mhlo.num_partitions = 1 : i32, mhlo.num_replicas = 1 : i32} {\n  func.func public @main(%arg0: tensor<5x2x5xf32>) -> (tensor<5x2x5xf32> {jax.result_info = \"result\"}) {\n    %0 = stablehlo.cosine %arg0 : tensor<5x2x5xf32>\n    return %0 : tensor<5x2x5xf32>\n  }\n}\n",
    "metadata": {
      "category": "math",
      "operation": "cos",
      "description": "Math function: cos"
    }
  },
  {
    "python_code": "lambda x: jnp.cos(x)",
    "input_info": [
      {
        "shape": [
          10,
          5,
          3
        ],
        "dtype": "float32"
      }
    ],
    "jaxpr": "{ lambda ; a:f32[10,5,3]. let b:f32[10,5,3] = cos a in (b,) }",
    "stablehlo": "module @jit__lambda attributes {mhlo.num_partitions = 1 : i32, mhlo.num_replicas = 1 : i32} {\n  func.func public @main(%arg0: tensor<10x5x3xf32>) -> (tensor<10x5x3xf32> {jax.result_info = \"result\"}) {\n    %0 = stablehlo.cosine %arg0 : tensor<10x5x3xf32>\n    return %0 : tensor<10x5x3xf32>\n  }\n}\n",
    "metadata": {
      "category": "math",
      "operation": "cos",
      "description": "Math function: cos"
    }
  },
  {
    "python_code": "lambda x: x ** 2",
    "input_info": [
      {
        "shape": [
          7,
          2,
          3
        ],
        "dtype": "float32"
      }
    ],
    "jaxpr": "{ lambda ; a:f32[7,2,3]. let b:f32[7,2,3] = integer_pow[y=2] a in (b,) }",
    "stablehlo": "module @jit__lambda attributes {mhlo.num_partitions = 1 : i32, mhlo.num_replicas = 1 : i32} {\n  func.func public @main(%arg0: tensor<7x2x3xf32>) -> (tensor<7x2x3xf32> {jax.result_info = \"result\"}) {\n    %0 = stablehlo.multiply %arg0, %arg0 : tensor<7x2x3xf32>\n    return %0 : tensor<7x2x3xf32>\n  }\n}\n",
    "metadata": {
      "category": "math",
      "operation": "square",
      "description": "Math function: square"
    }
  },
  {
    "python_code": "lambda x: jnp.tanh(x)",
    "input_info": [
      {
        "shape": [
          4
        ],
        "dtype": "float32"
      }
    ],
    "jaxpr": "{ lambda ; a:f32[4]. let b:f32[4] = tanh a in (b,) }",
    "stablehlo": "module @jit__lambda attributes {mhlo.num_partitions = 1 : i32, mhlo.num_replicas = 1 : i32} {\n  func.func public @main(%arg0: tensor<4xf32>) -> (tensor<4xf32> {jax.result_info = \"result\"}) {\n    %0 = stablehlo.tanh %arg0 : tensor<4xf32>\n    return %0 : tensor<4xf32>\n  }\n}\n",
    "metadata": {
      "category": "math",
      "operation": "tanh",
      "description": "Math function: tanh"
    }
  },
  {
    "python_code": "lambda x: x ** 2",
    "input_info": [
      {
        "shape": [
          8,
          9
        ],
        "dtype": "float32"
      }
    ],
    "jaxpr": "{ lambda ; a:f32[8,9]. let b:f32[8,9] = integer_pow[y=2] a in (b,) }",
    "stablehlo": "module @jit__lambda attributes {mhlo.num_partitions = 1 : i32, mhlo.num_replicas = 1 : i32} {\n  func.func public @main(%arg0: tensor<8x9xf32>) -> (tensor<8x9xf32> {jax.result_info = \"result\"}) {\n    %0 = stablehlo.multiply %arg0, %arg0 : tensor<8x9xf32>\n    return %0 : tensor<8x9xf32>\n  }\n}\n",
    "metadata": {
      "category": "math",
      "operation": "square",
      "description": "Math function: square"
    }
  },
  {
    "python_code": "lambda x: 1.0 / (1.0 + jnp.exp(-x))",
    "input_info": [
      {
        "shape": [
          6,
          9,
          5
        ],
        "dtype": "float32"
      }
    ],
    "jaxpr": "{ lambda ; a:f32[6,9,5]. let\n    b:f32[6,9,5] = neg a\n    c:f32[6,9,5] = exp b\n    d:f32[6,9,5] = add 1.0:f32[] c\n    e:f32[6,9,5] = div 1.0:f32[] d\n  in (e,) }",
    "stablehlo": "module @jit__lambda attributes {mhlo.num_partitions = 1 : i32, mhlo.num_replicas = 1 : i32} {\n  func.func public @main(%arg0: tensor<6x9x5xf32>) -> (tensor<6x9x5xf32> {jax.result_info = \"result\"}) {\n    %0 = stablehlo.negate %arg0 : tensor<6x9x5xf32>\n    %1 = stablehlo.exponential %0 : tensor<6x9x5xf32>\n    %cst = stablehlo.constant dense<1.000000e+00> : tensor<f32>\n    %2 = stablehlo.broadcast_in_dim %cst, dims = [] : (tensor<f32>) -> tensor<6x9x5xf32>\n    %3 = stablehlo.add %2, %1 : tensor<6x9x5xf32>\n    %cst_0 = stablehlo.constant dense<1.000000e+00> : tensor<f32>\n    %4 = stablehlo.broadcast_in_dim %cst_0, dims = [] : (tensor<f32>) -> tensor<6x9x5xf32>\n    %5 = stablehlo.divide %4, %3 : tensor<6x9x5xf32>\n    return %5 : tensor<6x9x5xf32>\n  }\n}\n",
    "metadata": {
      "category": "math",
      "operation": "sigmoid",
      "description": "Math function: sigmoid"
    }
  },
  {
    "python_code": "lambda x: 1.0 / (1.0 + jnp.exp(-x))",
    "input_info": [
      {
        "shape": [
          10,
          8,
          10
        ],
        "dtype": "float32"
      }
    ],
    "jaxpr": "{ lambda ; a:f32[10,8,10]. let\n    b:f32[10,8,10] = neg a\n    c:f32[10,8,10] = exp b\n    d:f32[10,8,10] = add 1.0:f32[] c\n    e:f32[10,8,10] = div 1.0:f32[] d\n  in (e,) }",
    "stablehlo": "module @jit__lambda attributes {mhlo.num_partitions = 1 : i32, mhlo.num_replicas = 1 : i32} {\n  func.func public @main(%arg0: tensor<10x8x10xf32>) -> (tensor<10x8x10xf32> {jax.result_info = \"result\"}) {\n    %0 = stablehlo.negate %arg0 : tensor<10x8x10xf32>\n    %1 = stablehlo.exponential %0 : tensor<10x8x10xf32>\n    %cst = stablehlo.constant dense<1.000000e+00> : tensor<f32>\n    %2 = stablehlo.broadcast_in_dim %cst, dims = [] : (tensor<f32>) -> tensor<10x8x10xf32>\n    %3 = stablehlo.add %2, %1 : tensor<10x8x10xf32>\n    %cst_0 = stablehlo.constant dense<1.000000e+00> : tensor<f32>\n    %4 = stablehlo.broadcast_in_dim %cst_0, dims = [] : (tensor<f32>) -> tensor<10x8x10xf32>\n    %5 = stablehlo.divide %4, %3 : tensor<10x8x10xf32>\n    return %5 : tensor<10x8x10xf32>\n  }\n}\n",
    "metadata": {
      "category": "math",
      "operation": "sigmoid",
      "description": "Math function: sigmoid"
    }
  },
  {
    "python_code": "lambda x: jnp.tanh(x)",
    "input_info": [
      {
        "shape": [
          3
        ],
        "dtype": "float32"
      }
    ],
    "jaxpr": "{ lambda ; a:f32[3]. let b:f32[3] = tanh a in (b,) }",
    "stablehlo": "module @jit__lambda attributes {mhlo.num_partitions = 1 : i32, mhlo.num_replicas = 1 : i32} {\n  func.func public @main(%arg0: tensor<3xf32>) -> (tensor<3xf32> {jax.result_info = \"result\"}) {\n    %0 = stablehlo.tanh %arg0 : tensor<3xf32>\n    return %0 : tensor<3xf32>\n  }\n}\n",
    "metadata": {
      "category": "math",
      "operation": "tanh",
      "description": "Math function: tanh"
    }
  },
  {
    "python_code": "lambda x: jnp.cos(x)",
    "input_info": [
      {
        "shape": [
          4
        ],
        "dtype": "float32"
      }
    ],
    "jaxpr": "{ lambda ; a:f32[4]. let b:f32[4] = cos a in (b,) }",
    "stablehlo": "module @jit__lambda attributes {mhlo.num_partitions = 1 : i32, mhlo.num_replicas = 1 : i32} {\n  func.func public @main(%arg0: tensor<4xf32>) -> (tensor<4xf32> {jax.result_info = \"result\"}) {\n    %0 = stablehlo.cosine %arg0 : tensor<4xf32>\n    return %0 : tensor<4xf32>\n  }\n}\n",
    "metadata": {
      "category": "math",
      "operation": "cos",
      "description": "Math function: cos"
    }
  },
  {
    "python_code": "lambda x: 1.0 / (1.0 + jnp.exp(-x))",
    "input_info": [
      {
        "shape": [
          6
        ],
        "dtype": "float32"
      }
    ],
    "jaxpr": "{ lambda ; a:f32[6]. let\n    b:f32[6] = neg a\n    c:f32[6] = exp b\n    d:f32[6] = add 1.0:f32[] c\n    e:f32[6] = div 1.0:f32[] d\n  in (e,) }",
    "stablehlo": "module @jit__lambda attributes {mhlo.num_partitions = 1 : i32, mhlo.num_replicas = 1 : i32} {\n  func.func public @main(%arg0: tensor<6xf32>) -> (tensor<6xf32> {jax.result_info = \"result\"}) {\n    %0 = stablehlo.negate %arg0 : tensor<6xf32>\n    %1 = stablehlo.exponential %0 : tensor<6xf32>\n    %cst = stablehlo.constant dense<1.000000e+00> : tensor<f32>\n    %2 = stablehlo.broadcast_in_dim %cst, dims = [] : (tensor<f32>) -> tensor<6xf32>\n    %3 = stablehlo.add %2, %1 : tensor<6xf32>\n    %cst_0 = stablehlo.constant dense<1.000000e+00> : tensor<f32>\n    %4 = stablehlo.broadcast_in_dim %cst_0, dims = [] : (tensor<f32>) -> tensor<6xf32>\n    %5 = stablehlo.divide %4, %3 : tensor<6xf32>\n    return %5 : tensor<6xf32>\n  }\n}\n",
    "metadata": {
      "category": "math",
      "operation": "sigmoid",
      "description": "Math function: sigmoid"
    }
  },
  {
    "python_code": "lambda x: jnp.abs(x)",
    "input_info": [
      {
        "shape": [
          6,
          4,
          2
        ],
        "dtype": "float32"
      }
    ],
    "jaxpr": "{ lambda ; a:f32[6,4,2]. let b:f32[6,4,2] = abs a in (b,) }",
    "stablehlo": "module @jit__lambda attributes {mhlo.num_partitions = 1 : i32, mhlo.num_replicas = 1 : i32} {\n  func.func public @main(%arg0: tensor<6x4x2xf32>) -> (tensor<6x4x2xf32> {jax.result_info = \"result\"}) {\n    %0 = stablehlo.abs %arg0 : tensor<6x4x2xf32>\n    return %0 : tensor<6x4x2xf32>\n  }\n}\n",
    "metadata": {
      "category": "math",
      "operation": "abs",
      "description": "Math function: abs"
    }
  },
  {
    "python_code": "lambda x: jnp.exp(x)",
    "input_info": [
      {
        "shape": [
          3,
          6,
          3
        ],
        "dtype": "float32"
      }
    ],
    "jaxpr": "{ lambda ; a:f32[3,6,3]. let b:f32[3,6,3] = exp a in (b,) }",
    "stablehlo": "module @jit__lambda attributes {mhlo.num_partitions = 1 : i32, mhlo.num_replicas = 1 : i32} {\n  func.func public @main(%arg0: tensor<3x6x3xf32>) -> (tensor<3x6x3xf32> {jax.result_info = \"result\"}) {\n    %0 = stablehlo.exponential %arg0 : tensor<3x6x3xf32>\n    return %0 : tensor<3x6x3xf32>\n  }\n}\n",
    "metadata": {
      "category": "math",
      "operation": "exp",
      "description": "Math function: exp"
    }
  },
  {
    "python_code": "lambda x: jnp.log(x + 1.0)",
    "input_info": [
      {
        "shape": [
          6,
          9
        ],
        "dtype": "float32"
      }
    ],
    "jaxpr": "{ lambda ; a:f32[6,9]. let\n    b:f32[6,9] = add a 1.0:f32[]\n    c:f32[6,9] = log b\n  in (c,) }",
    "stablehlo": "module @jit__lambda attributes {mhlo.num_partitions = 1 : i32, mhlo.num_replicas = 1 : i32} {\n  func.func public @main(%arg0: tensor<6x9xf32>) -> (tensor<6x9xf32> {jax.result_info = \"result\"}) {\n    %cst = stablehlo.constant dense<1.000000e+00> : tensor<f32>\n    %0 = stablehlo.broadcast_in_dim %cst, dims = [] : (tensor<f32>) -> tensor<6x9xf32>\n    %1 = stablehlo.add %arg0, %0 : tensor<6x9xf32>\n    %2 = stablehlo.log %1 : tensor<6x9xf32>\n    return %2 : tensor<6x9xf32>\n  }\n}\n",
    "metadata": {
      "category": "math",
      "operation": "log",
      "description": "Math function: log"
    }
  },
  {
    "python_code": "lambda x: 1.0 / (1.0 + jnp.exp(-x))",
    "input_info": [
      {
        "shape": [
          5
        ],
        "dtype": "float32"
      }
    ],
    "jaxpr": "{ lambda ; a:f32[5]. let\n    b:f32[5] = neg a\n    c:f32[5] = exp b\n    d:f32[5] = add 1.0:f32[] c\n    e:f32[5] = div 1.0:f32[] d\n  in (e,) }",
    "stablehlo": "module @jit__lambda attributes {mhlo.num_partitions = 1 : i32, mhlo.num_replicas = 1 : i32} {\n  func.func public @main(%arg0: tensor<5xf32>) -> (tensor<5xf32> {jax.result_info = \"result\"}) {\n    %0 = stablehlo.negate %arg0 : tensor<5xf32>\n    %1 = stablehlo.exponential %0 : tensor<5xf32>\n    %cst = stablehlo.constant dense<1.000000e+00> : tensor<f32>\n    %2 = stablehlo.broadcast_in_dim %cst, dims = [] : (tensor<f32>) -> tensor<5xf32>\n    %3 = stablehlo.add %2, %1 : tensor<5xf32>\n    %cst_0 = stablehlo.constant dense<1.000000e+00> : tensor<f32>\n    %4 = stablehlo.broadcast_in_dim %cst_0, dims = [] : (tensor<f32>) -> tensor<5xf32>\n    %5 = stablehlo.divide %4, %3 : tensor<5xf32>\n    return %5 : tensor<5xf32>\n  }\n}\n",
    "metadata": {
      "category": "math",
      "operation": "sigmoid",
      "description": "Math function: sigmoid"
    }
  },
  {
    "python_code": "lambda x: jnp.log(x + 1.0)",
    "input_info": [
      {
        "shape": [
          3,
          2,
          3
        ],
        "dtype": "float32"
      }
    ],
    "jaxpr": "{ lambda ; a:f32[3,2,3]. let\n    b:f32[3,2,3] = add a 1.0:f32[]\n    c:f32[3,2,3] = log b\n  in (c,) }",
    "stablehlo": "module @jit__lambda attributes {mhlo.num_partitions = 1 : i32, mhlo.num_replicas = 1 : i32} {\n  func.func public @main(%arg0: tensor<3x2x3xf32>) -> (tensor<3x2x3xf32> {jax.result_info = \"result\"}) {\n    %cst = stablehlo.constant dense<1.000000e+00> : tensor<f32>\n    %0 = stablehlo.broadcast_in_dim %cst, dims = [] : (tensor<f32>) -> tensor<3x2x3xf32>\n    %1 = stablehlo.add %arg0, %0 : tensor<3x2x3xf32>\n    %2 = stablehlo.log %1 : tensor<3x2x3xf32>\n    return %2 : tensor<3x2x3xf32>\n  }\n}\n",
    "metadata": {
      "category": "math",
      "operation": "log",
      "description": "Math function: log"
    }
  },
  {
    "python_code": "lambda x: jnp.tanh(x)",
    "input_info": [
      {
        "shape": [
          4
        ],
        "dtype": "float32"
      }
    ],
    "jaxpr": "{ lambda ; a:f32[4]. let b:f32[4] = tanh a in (b,) }",
    "stablehlo": "module @jit__lambda attributes {mhlo.num_partitions = 1 : i32, mhlo.num_replicas = 1 : i32} {\n  func.func public @main(%arg0: tensor<4xf32>) -> (tensor<4xf32> {jax.result_info = \"result\"}) {\n    %0 = stablehlo.tanh %arg0 : tensor<4xf32>\n    return %0 : tensor<4xf32>\n  }\n}\n",
    "metadata": {
      "category": "math",
      "operation": "tanh",
      "description": "Math function: tanh"
    }
  },
  {
    "python_code": "lambda x: x ** 2",
    "input_info": [
      {
        "shape": [
          8,
          3
        ],
        "dtype": "float32"
      }
    ],
    "jaxpr": "{ lambda ; a:f32[8,3]. let b:f32[8,3] = integer_pow[y=2] a in (b,) }",
    "stablehlo": "module @jit__lambda attributes {mhlo.num_partitions = 1 : i32, mhlo.num_replicas = 1 : i32} {\n  func.func public @main(%arg0: tensor<8x3xf32>) -> (tensor<8x3xf32> {jax.result_info = \"result\"}) {\n    %0 = stablehlo.multiply %arg0, %arg0 : tensor<8x3xf32>\n    return %0 : tensor<8x3xf32>\n  }\n}\n",
    "metadata": {
      "category": "math",
      "operation": "square",
      "description": "Math function: square"
    }
  },
  {
    "python_code": "lambda x: jnp.sin(x)",
    "input_info": [
      {
        "shape": [
          5,
          8
        ],
        "dtype": "float32"
      }
    ],
    "jaxpr": "{ lambda ; a:f32[5,8]. let b:f32[5,8] = sin a in (b,) }",
    "stablehlo": "module @jit__lambda attributes {mhlo.num_partitions = 1 : i32, mhlo.num_replicas = 1 : i32} {\n  func.func public @main(%arg0: tensor<5x8xf32>) -> (tensor<5x8xf32> {jax.result_info = \"result\"}) {\n    %0 = stablehlo.sine %arg0 : tensor<5x8xf32>\n    return %0 : tensor<5x8xf32>\n  }\n}\n",
    "metadata": {
      "category": "math",
      "operation": "sin",
      "description": "Math function: sin"
    }
  },
  {
    "python_code": "lambda x: jnp.sin(x)",
    "input_info": [
      {
        "shape": [
          3,
          9,
          9
        ],
        "dtype": "float32"
      }
    ],
    "jaxpr": "{ lambda ; a:f32[3,9,9]. let b:f32[3,9,9] = sin a in (b,) }",
    "stablehlo": "module @jit__lambda attributes {mhlo.num_partitions = 1 : i32, mhlo.num_replicas = 1 : i32} {\n  func.func public @main(%arg0: tensor<3x9x9xf32>) -> (tensor<3x9x9xf32> {jax.result_info = \"result\"}) {\n    %0 = stablehlo.sine %arg0 : tensor<3x9x9xf32>\n    return %0 : tensor<3x9x9xf32>\n  }\n}\n",
    "metadata": {
      "category": "math",
      "operation": "sin",
      "description": "Math function: sin"
    }
  },
  {
    "python_code": "lambda x: jnp.log(x + 1.0)",
    "input_info": [
      {
        "shape": [
          9,
          9
        ],
        "dtype": "float32"
      }
    ],
    "jaxpr": "{ lambda ; a:f32[9,9]. let\n    b:f32[9,9] = add a 1.0:f32[]\n    c:f32[9,9] = log b\n  in (c,) }",
    "stablehlo": "module @jit__lambda attributes {mhlo.num_partitions = 1 : i32, mhlo.num_replicas = 1 : i32} {\n  func.func public @main(%arg0: tensor<9x9xf32>) -> (tensor<9x9xf32> {jax.result_info = \"result\"}) {\n    %cst = stablehlo.constant dense<1.000000e+00> : tensor<f32>\n    %0 = stablehlo.broadcast_in_dim %cst, dims = [] : (tensor<f32>) -> tensor<9x9xf32>\n    %1 = stablehlo.add %arg0, %0 : tensor<9x9xf32>\n    %2 = stablehlo.log %1 : tensor<9x9xf32>\n    return %2 : tensor<9x9xf32>\n  }\n}\n",
    "metadata": {
      "category": "math",
      "operation": "log",
      "description": "Math function: log"
    }
  },
  {
    "python_code": "lambda x: jnp.exp(x)",
    "input_info": [
      {
        "shape": [
          9,
          5,
          7
        ],
        "dtype": "float32"
      }
    ],
    "jaxpr": "{ lambda ; a:f32[9,5,7]. let b:f32[9,5,7] = exp a in (b,) }",
    "stablehlo": "module @jit__lambda attributes {mhlo.num_partitions = 1 : i32, mhlo.num_replicas = 1 : i32} {\n  func.func public @main(%arg0: tensor<9x5x7xf32>) -> (tensor<9x5x7xf32> {jax.result_info = \"result\"}) {\n    %0 = stablehlo.exponential %arg0 : tensor<9x5x7xf32>\n    return %0 : tensor<9x5x7xf32>\n  }\n}\n",
    "metadata": {
      "category": "math",
      "operation": "exp",
      "description": "Math function: exp"
    }
  },
  {
    "python_code": "lambda x: jnp.exp(x)",
    "input_info": [
      {
        "shape": [
          8,
          9,
          10
        ],
        "dtype": "float32"
      }
    ],
    "jaxpr": "{ lambda ; a:f32[8,9,10]. let b:f32[8,9,10] = exp a in (b,) }",
    "stablehlo": "module @jit__lambda attributes {mhlo.num_partitions = 1 : i32, mhlo.num_replicas = 1 : i32} {\n  func.func public @main(%arg0: tensor<8x9x10xf32>) -> (tensor<8x9x10xf32> {jax.result_info = \"result\"}) {\n    %0 = stablehlo.exponential %arg0 : tensor<8x9x10xf32>\n    return %0 : tensor<8x9x10xf32>\n  }\n}\n",
    "metadata": {
      "category": "math",
      "operation": "exp",
      "description": "Math function: exp"
    }
  },
  {
    "python_code": "lambda x: jnp.cos(x)",
    "input_info": [
      {
        "shape": [
          4
        ],
        "dtype": "float32"
      }
    ],
    "jaxpr": "{ lambda ; a:f32[4]. let b:f32[4] = cos a in (b,) }",
    "stablehlo": "module @jit__lambda attributes {mhlo.num_partitions = 1 : i32, mhlo.num_replicas = 1 : i32} {\n  func.func public @main(%arg0: tensor<4xf32>) -> (tensor<4xf32> {jax.result_info = \"result\"}) {\n    %0 = stablehlo.cosine %arg0 : tensor<4xf32>\n    return %0 : tensor<4xf32>\n  }\n}\n",
    "metadata": {
      "category": "math",
      "operation": "cos",
      "description": "Math function: cos"
    }
  },
  {
    "python_code": "lambda x: jnp.log(x + 1.0)",
    "input_info": [
      {
        "shape": [
          5
        ],
        "dtype": "float32"
      }
    ],
    "jaxpr": "{ lambda ; a:f32[5]. let b:f32[5] = add a 1.0:f32[]; c:f32[5] = log b in (c,) }",
    "stablehlo": "module @jit__lambda attributes {mhlo.num_partitions = 1 : i32, mhlo.num_replicas = 1 : i32} {\n  func.func public @main(%arg0: tensor<5xf32>) -> (tensor<5xf32> {jax.result_info = \"result\"}) {\n    %cst = stablehlo.constant dense<1.000000e+00> : tensor<f32>\n    %0 = stablehlo.broadcast_in_dim %cst, dims = [] : (tensor<f32>) -> tensor<5xf32>\n    %1 = stablehlo.add %arg0, %0 : tensor<5xf32>\n    %2 = stablehlo.log %1 : tensor<5xf32>\n    return %2 : tensor<5xf32>\n  }\n}\n",
    "metadata": {
      "category": "math",
      "operation": "log",
      "description": "Math function: log"
    }
  },
  {
    "python_code": "lambda x: jnp.sqrt(jnp.abs(x))",
    "input_info": [
      {
        "shape": [
          9,
          8,
          5
        ],
        "dtype": "float32"
      }
    ],
    "jaxpr": "{ lambda ; a:f32[9,8,5]. let\n    b:f32[9,8,5] = abs a\n    c:f32[9,8,5] = sqrt b\n  in (c,) }",
    "stablehlo": "module @jit__lambda attributes {mhlo.num_partitions = 1 : i32, mhlo.num_replicas = 1 : i32} {\n  func.func public @main(%arg0: tensor<9x8x5xf32>) -> (tensor<9x8x5xf32> {jax.result_info = \"result\"}) {\n    %0 = stablehlo.abs %arg0 : tensor<9x8x5xf32>\n    %1 = stablehlo.sqrt %0 : tensor<9x8x5xf32>\n    return %1 : tensor<9x8x5xf32>\n  }\n}\n",
    "metadata": {
      "category": "math",
      "operation": "sqrt",
      "description": "Math function: sqrt"
    }
  },
  {
    "python_code": "lambda x: x ** 2",
    "input_info": [
      {
        "shape": [
          5,
          2
        ],
        "dtype": "float32"
      }
    ],
    "jaxpr": "{ lambda ; a:f32[5,2]. let b:f32[5,2] = integer_pow[y=2] a in (b,) }",
    "stablehlo": "module @jit__lambda attributes {mhlo.num_partitions = 1 : i32, mhlo.num_replicas = 1 : i32} {\n  func.func public @main(%arg0: tensor<5x2xf32>) -> (tensor<5x2xf32> {jax.result_info = \"result\"}) {\n    %0 = stablehlo.multiply %arg0, %arg0 : tensor<5x2xf32>\n    return %0 : tensor<5x2xf32>\n  }\n}\n",
    "metadata": {
      "category": "math",
      "operation": "square",
      "description": "Math function: square"
    }
  },
  {
    "python_code": "lambda x: x ** 2",
    "input_info": [
      {
        "shape": [
          7
        ],
        "dtype": "float32"
      }
    ],
    "jaxpr": "{ lambda ; a:f32[7]. let b:f32[7] = integer_pow[y=2] a in (b,) }",
    "stablehlo": "module @jit__lambda attributes {mhlo.num_partitions = 1 : i32, mhlo.num_replicas = 1 : i32} {\n  func.func public @main(%arg0: tensor<7xf32>) -> (tensor<7xf32> {jax.result_info = \"result\"}) {\n    %0 = stablehlo.multiply %arg0, %arg0 : tensor<7xf32>\n    return %0 : tensor<7xf32>\n  }\n}\n",
    "metadata": {
      "category": "math",
      "operation": "square",
      "description": "Math function: square"
    }
  },
  {
    "python_code": "lambda x: jnp.abs(x)",
    "input_info": [
      {
        "shape": [
          3,
          9,
          6
        ],
        "dtype": "float32"
      }
    ],
    "jaxpr": "{ lambda ; a:f32[3,9,6]. let b:f32[3,9,6] = abs a in (b,) }",
    "stablehlo": "module @jit__lambda attributes {mhlo.num_partitions = 1 : i32, mhlo.num_replicas = 1 : i32} {\n  func.func public @main(%arg0: tensor<3x9x6xf32>) -> (tensor<3x9x6xf32> {jax.result_info = \"result\"}) {\n    %0 = stablehlo.abs %arg0 : tensor<3x9x6xf32>\n    return %0 : tensor<3x9x6xf32>\n  }\n}\n",
    "metadata": {
      "category": "math",
      "operation": "abs",
      "description": "Math function: abs"
    }
  },
  {
    "python_code": "lambda x: jnp.log(x + 1.0)",
    "input_info": [
      {
        "shape": [
          7,
          2,
          10
        ],
        "dtype": "float32"
      }
    ],
    "jaxpr": "{ lambda ; a:f32[7,2,10]. let\n    b:f32[7,2,10] = add a 1.0:f32[]\n    c:f32[7,2,10] = log b\n  in (c,) }",
    "stablehlo": "module @jit__lambda attributes {mhlo.num_partitions = 1 : i32, mhlo.num_replicas = 1 : i32} {\n  func.func public @main(%arg0: tensor<7x2x10xf32>) -> (tensor<7x2x10xf32> {jax.result_info = \"result\"}) {\n    %cst = stablehlo.constant dense<1.000000e+00> : tensor<f32>\n    %0 = stablehlo.broadcast_in_dim %cst, dims = [] : (tensor<f32>) -> tensor<7x2x10xf32>\n    %1 = stablehlo.add %arg0, %0 : tensor<7x2x10xf32>\n    %2 = stablehlo.log %1 : tensor<7x2x10xf32>\n    return %2 : tensor<7x2x10xf32>\n  }\n}\n",
    "metadata": {
      "category": "math",
      "operation": "log",
      "description": "Math function: log"
    }
  },
  {
    "python_code": "lambda x: jnp.cos(x)",
    "input_info": [
      {
        "shape": [
          10,
          7
        ],
        "dtype": "float32"
      }
    ],
    "jaxpr": "{ lambda ; a:f32[10,7]. let b:f32[10,7] = cos a in (b,) }",
    "stablehlo": "module @jit__lambda attributes {mhlo.num_partitions = 1 : i32, mhlo.num_replicas = 1 : i32} {\n  func.func public @main(%arg0: tensor<10x7xf32>) -> (tensor<10x7xf32> {jax.result_info = \"result\"}) {\n    %0 = stablehlo.cosine %arg0 : tensor<10x7xf32>\n    return %0 : tensor<10x7xf32>\n  }\n}\n",
    "metadata": {
      "category": "math",
      "operation": "cos",
      "description": "Math function: cos"
    }
  },
  {
    "python_code": "lambda x: 1.0 / (1.0 + jnp.exp(-x))",
    "input_info": [
      {
        "shape": [
          8
        ],
        "dtype": "float32"
      }
    ],
    "jaxpr": "{ lambda ; a:f32[8]. let\n    b:f32[8] = neg a\n    c:f32[8] = exp b\n    d:f32[8] = add 1.0:f32[] c\n    e:f32[8] = div 1.0:f32[] d\n  in (e,) }",
    "stablehlo": "module @jit__lambda attributes {mhlo.num_partitions = 1 : i32, mhlo.num_replicas = 1 : i32} {\n  func.func public @main(%arg0: tensor<8xf32>) -> (tensor<8xf32> {jax.result_info = \"result\"}) {\n    %0 = stablehlo.negate %arg0 : tensor<8xf32>\n    %1 = stablehlo.exponential %0 : tensor<8xf32>\n    %cst = stablehlo.constant dense<1.000000e+00> : tensor<f32>\n    %2 = stablehlo.broadcast_in_dim %cst, dims = [] : (tensor<f32>) -> tensor<8xf32>\n    %3 = stablehlo.add %2, %1 : tensor<8xf32>\n    %cst_0 = stablehlo.constant dense<1.000000e+00> : tensor<f32>\n    %4 = stablehlo.broadcast_in_dim %cst_0, dims = [] : (tensor<f32>) -> tensor<8xf32>\n    %5 = stablehlo.divide %4, %3 : tensor<8xf32>\n    return %5 : tensor<8xf32>\n  }\n}\n",
    "metadata": {
      "category": "math",
      "operation": "sigmoid",
      "description": "Math function: sigmoid"
    }
  },
  {
    "python_code": "lambda x: jnp.exp(x)",
    "input_info": [
      {
        "shape": [
          9
        ],
        "dtype": "float32"
      }
    ],
    "jaxpr": "{ lambda ; a:f32[9]. let b:f32[9] = exp a in (b,) }",
    "stablehlo": "module @jit__lambda attributes {mhlo.num_partitions = 1 : i32, mhlo.num_replicas = 1 : i32} {\n  func.func public @main(%arg0: tensor<9xf32>) -> (tensor<9xf32> {jax.result_info = \"result\"}) {\n    %0 = stablehlo.exponential %arg0 : tensor<9xf32>\n    return %0 : tensor<9xf32>\n  }\n}\n",
    "metadata": {
      "category": "math",
      "operation": "exp",
      "description": "Math function: exp"
    }
  },
  {
    "python_code": "lambda x: jnp.log(x + 1.0)",
    "input_info": [
      {
        "shape": [
          2,
          2
        ],
        "dtype": "float32"
      }
    ],
    "jaxpr": "{ lambda ; a:f32[2,2]. let\n    b:f32[2,2] = add a 1.0:f32[]\n    c:f32[2,2] = log b\n  in (c,) }",
    "stablehlo": "module @jit__lambda attributes {mhlo.num_partitions = 1 : i32, mhlo.num_replicas = 1 : i32} {\n  func.func public @main(%arg0: tensor<2x2xf32>) -> (tensor<2x2xf32> {jax.result_info = \"result\"}) {\n    %cst = stablehlo.constant dense<1.000000e+00> : tensor<f32>\n    %0 = stablehlo.broadcast_in_dim %cst, dims = [] : (tensor<f32>) -> tensor<2x2xf32>\n    %1 = stablehlo.add %arg0, %0 : tensor<2x2xf32>\n    %2 = stablehlo.log %1 : tensor<2x2xf32>\n    return %2 : tensor<2x2xf32>\n  }\n}\n",
    "metadata": {
      "category": "math",
      "operation": "log",
      "description": "Math function: log"
    }
  },
  {
    "python_code": "lambda x: jnp.abs(x)",
    "input_info": [
      {
        "shape": [
          8
        ],
        "dtype": "float32"
      }
    ],
    "jaxpr": "{ lambda ; a:f32[8]. let b:f32[8] = abs a in (b,) }",
    "stablehlo": "module @jit__lambda attributes {mhlo.num_partitions = 1 : i32, mhlo.num_replicas = 1 : i32} {\n  func.func public @main(%arg0: tensor<8xf32>) -> (tensor<8xf32> {jax.result_info = \"result\"}) {\n    %0 = stablehlo.abs %arg0 : tensor<8xf32>\n    return %0 : tensor<8xf32>\n  }\n}\n",
    "metadata": {
      "category": "math",
      "operation": "abs",
      "description": "Math function: abs"
    }
  },
  {
    "python_code": "lambda x: jnp.sin(x)",
    "input_info": [
      {
        "shape": [
          2,
          6,
          4
        ],
        "dtype": "float32"
      }
    ],
    "jaxpr": "{ lambda ; a:f32[2,6,4]. let b:f32[2,6,4] = sin a in (b,) }",
    "stablehlo": "module @jit__lambda attributes {mhlo.num_partitions = 1 : i32, mhlo.num_replicas = 1 : i32} {\n  func.func public @main(%arg0: tensor<2x6x4xf32>) -> (tensor<2x6x4xf32> {jax.result_info = \"result\"}) {\n    %0 = stablehlo.sine %arg0 : tensor<2x6x4xf32>\n    return %0 : tensor<2x6x4xf32>\n  }\n}\n",
    "metadata": {
      "category": "math",
      "operation": "sin",
      "description": "Math function: sin"
    }
  },
  {
    "python_code": "lambda x: jnp.log(x + 1.0)",
    "input_info": [
      {
        "shape": [
          2,
          7
        ],
        "dtype": "float32"
      }
    ],
    "jaxpr": "{ lambda ; a:f32[2,7]. let\n    b:f32[2,7] = add a 1.0:f32[]\n    c:f32[2,7] = log b\n  in (c,) }",
    "stablehlo": "module @jit__lambda attributes {mhlo.num_partitions = 1 : i32, mhlo.num_replicas = 1 : i32} {\n  func.func public @main(%arg0: tensor<2x7xf32>) -> (tensor<2x7xf32> {jax.result_info = \"result\"}) {\n    %cst = stablehlo.constant dense<1.000000e+00> : tensor<f32>\n    %0 = stablehlo.broadcast_in_dim %cst, dims = [] : (tensor<f32>) -> tensor<2x7xf32>\n    %1 = stablehlo.add %arg0, %0 : tensor<2x7xf32>\n    %2 = stablehlo.log %1 : tensor<2x7xf32>\n    return %2 : tensor<2x7xf32>\n  }\n}\n",
    "metadata": {
      "category": "math",
      "operation": "log",
      "description": "Math function: log"
    }
  },
  {
    "python_code": "lambda x: jnp.log(x + 1.0)",
    "input_info": [
      {
        "shape": [
          9,
          4
        ],
        "dtype": "float32"
      }
    ],
    "jaxpr": "{ lambda ; a:f32[9,4]. let\n    b:f32[9,4] = add a 1.0:f32[]\n    c:f32[9,4] = log b\n  in (c,) }",
    "stablehlo": "module @jit__lambda attributes {mhlo.num_partitions = 1 : i32, mhlo.num_replicas = 1 : i32} {\n  func.func public @main(%arg0: tensor<9x4xf32>) -> (tensor<9x4xf32> {jax.result_info = \"result\"}) {\n    %cst = stablehlo.constant dense<1.000000e+00> : tensor<f32>\n    %0 = stablehlo.broadcast_in_dim %cst, dims = [] : (tensor<f32>) -> tensor<9x4xf32>\n    %1 = stablehlo.add %arg0, %0 : tensor<9x4xf32>\n    %2 = stablehlo.log %1 : tensor<9x4xf32>\n    return %2 : tensor<9x4xf32>\n  }\n}\n",
    "metadata": {
      "category": "math",
      "operation": "log",
      "description": "Math function: log"
    }
  },
  {
    "python_code": "lambda x: jnp.abs(x)",
    "input_info": [
      {
        "shape": [
          10,
          4
        ],
        "dtype": "float32"
      }
    ],
    "jaxpr": "{ lambda ; a:f32[10,4]. let b:f32[10,4] = abs a in (b,) }",
    "stablehlo": "module @jit__lambda attributes {mhlo.num_partitions = 1 : i32, mhlo.num_replicas = 1 : i32} {\n  func.func public @main(%arg0: tensor<10x4xf32>) -> (tensor<10x4xf32> {jax.result_info = \"result\"}) {\n    %0 = stablehlo.abs %arg0 : tensor<10x4xf32>\n    return %0 : tensor<10x4xf32>\n  }\n}\n",
    "metadata": {
      "category": "math",
      "operation": "abs",
      "description": "Math function: abs"
    }
  },
  {
    "python_code": "lambda x: jnp.exp(x)",
    "input_info": [
      {
        "shape": [
          2
        ],
        "dtype": "float32"
      }
    ],
    "jaxpr": "{ lambda ; a:f32[2]. let b:f32[2] = exp a in (b,) }",
    "stablehlo": "module @jit__lambda attributes {mhlo.num_partitions = 1 : i32, mhlo.num_replicas = 1 : i32} {\n  func.func public @main(%arg0: tensor<2xf32>) -> (tensor<2xf32> {jax.result_info = \"result\"}) {\n    %0 = stablehlo.exponential %arg0 : tensor<2xf32>\n    return %0 : tensor<2xf32>\n  }\n}\n",
    "metadata": {
      "category": "math",
      "operation": "exp",
      "description": "Math function: exp"
    }
  },
  {
    "python_code": "lambda x: jnp.sin(x)",
    "input_info": [
      {
        "shape": [
          10,
          3,
          2
        ],
        "dtype": "float32"
      }
    ],
    "jaxpr": "{ lambda ; a:f32[10,3,2]. let b:f32[10,3,2] = sin a in (b,) }",
    "stablehlo": "module @jit__lambda attributes {mhlo.num_partitions = 1 : i32, mhlo.num_replicas = 1 : i32} {\n  func.func public @main(%arg0: tensor<10x3x2xf32>) -> (tensor<10x3x2xf32> {jax.result_info = \"result\"}) {\n    %0 = stablehlo.sine %arg0 : tensor<10x3x2xf32>\n    return %0 : tensor<10x3x2xf32>\n  }\n}\n",
    "metadata": {
      "category": "math",
      "operation": "sin",
      "description": "Math function: sin"
    }
  },
  {
    "python_code": "lambda x: jnp.abs(x)",
    "input_info": [
      {
        "shape": [
          9,
          6
        ],
        "dtype": "float32"
      }
    ],
    "jaxpr": "{ lambda ; a:f32[9,6]. let b:f32[9,6] = abs a in (b,) }",
    "stablehlo": "module @jit__lambda attributes {mhlo.num_partitions = 1 : i32, mhlo.num_replicas = 1 : i32} {\n  func.func public @main(%arg0: tensor<9x6xf32>) -> (tensor<9x6xf32> {jax.result_info = \"result\"}) {\n    %0 = stablehlo.abs %arg0 : tensor<9x6xf32>\n    return %0 : tensor<9x6xf32>\n  }\n}\n",
    "metadata": {
      "category": "math",
      "operation": "abs",
      "description": "Math function: abs"
    }
  },
  {
    "python_code": "lambda x: jnp.sin(x)",
    "input_info": [
      {
        "shape": [
          3,
          5,
          7
        ],
        "dtype": "float32"
      }
    ],
    "jaxpr": "{ lambda ; a:f32[3,5,7]. let b:f32[3,5,7] = sin a in (b,) }",
    "stablehlo": "module @jit__lambda attributes {mhlo.num_partitions = 1 : i32, mhlo.num_replicas = 1 : i32} {\n  func.func public @main(%arg0: tensor<3x5x7xf32>) -> (tensor<3x5x7xf32> {jax.result_info = \"result\"}) {\n    %0 = stablehlo.sine %arg0 : tensor<3x5x7xf32>\n    return %0 : tensor<3x5x7xf32>\n  }\n}\n",
    "metadata": {
      "category": "math",
      "operation": "sin",
      "description": "Math function: sin"
    }
  },
  {
    "python_code": "lambda x: jnp.log(x + 1.0)",
    "input_info": [
      {
        "shape": [
          4
        ],
        "dtype": "float32"
      }
    ],
    "jaxpr": "{ lambda ; a:f32[4]. let b:f32[4] = add a 1.0:f32[]; c:f32[4] = log b in (c,) }",
    "stablehlo": "module @jit__lambda attributes {mhlo.num_partitions = 1 : i32, mhlo.num_replicas = 1 : i32} {\n  func.func public @main(%arg0: tensor<4xf32>) -> (tensor<4xf32> {jax.result_info = \"result\"}) {\n    %cst = stablehlo.constant dense<1.000000e+00> : tensor<f32>\n    %0 = stablehlo.broadcast_in_dim %cst, dims = [] : (tensor<f32>) -> tensor<4xf32>\n    %1 = stablehlo.add %arg0, %0 : tensor<4xf32>\n    %2 = stablehlo.log %1 : tensor<4xf32>\n    return %2 : tensor<4xf32>\n  }\n}\n",
    "metadata": {
      "category": "math",
      "operation": "log",
      "description": "Math function: log"
    }
  },
  {
    "python_code": "lambda x: jnp.log(x + 1.0)",
    "input_info": [
      {
        "shape": [
          9,
          3,
          9
        ],
        "dtype": "float32"
      }
    ],
    "jaxpr": "{ lambda ; a:f32[9,3,9]. let\n    b:f32[9,3,9] = add a 1.0:f32[]\n    c:f32[9,3,9] = log b\n  in (c,) }",
    "stablehlo": "module @jit__lambda attributes {mhlo.num_partitions = 1 : i32, mhlo.num_replicas = 1 : i32} {\n  func.func public @main(%arg0: tensor<9x3x9xf32>) -> (tensor<9x3x9xf32> {jax.result_info = \"result\"}) {\n    %cst = stablehlo.constant dense<1.000000e+00> : tensor<f32>\n    %0 = stablehlo.broadcast_in_dim %cst, dims = [] : (tensor<f32>) -> tensor<9x3x9xf32>\n    %1 = stablehlo.add %arg0, %0 : tensor<9x3x9xf32>\n    %2 = stablehlo.log %1 : tensor<9x3x9xf32>\n    return %2 : tensor<9x3x9xf32>\n  }\n}\n",
    "metadata": {
      "category": "math",
      "operation": "log",
      "description": "Math function: log"
    }
  },
  {
    "python_code": "lambda x: x ** 2",
    "input_info": [
      {
        "shape": [
          4,
          4,
          6
        ],
        "dtype": "float32"
      }
    ],
    "jaxpr": "{ lambda ; a:f32[4,4,6]. let b:f32[4,4,6] = integer_pow[y=2] a in (b,) }",
    "stablehlo": "module @jit__lambda attributes {mhlo.num_partitions = 1 : i32, mhlo.num_replicas = 1 : i32} {\n  func.func public @main(%arg0: tensor<4x4x6xf32>) -> (tensor<4x4x6xf32> {jax.result_info = \"result\"}) {\n    %0 = stablehlo.multiply %arg0, %arg0 : tensor<4x4x6xf32>\n    return %0 : tensor<4x4x6xf32>\n  }\n}\n",
    "metadata": {
      "category": "math",
      "operation": "square",
      "description": "Math function: square"
    }
  },
  {
    "python_code": "lambda x: jnp.sin(x)",
    "input_info": [
      {
        "shape": [
          4,
          5
        ],
        "dtype": "float32"
      }
    ],
    "jaxpr": "{ lambda ; a:f32[4,5]. let b:f32[4,5] = sin a in (b,) }",
    "stablehlo": "module @jit__lambda attributes {mhlo.num_partitions = 1 : i32, mhlo.num_replicas = 1 : i32} {\n  func.func public @main(%arg0: tensor<4x5xf32>) -> (tensor<4x5xf32> {jax.result_info = \"result\"}) {\n    %0 = stablehlo.sine %arg0 : tensor<4x5xf32>\n    return %0 : tensor<4x5xf32>\n  }\n}\n",
    "metadata": {
      "category": "math",
      "operation": "sin",
      "description": "Math function: sin"
    }
  },
  {
    "python_code": "lambda x: 1.0 / (1.0 + jnp.exp(-x))",
    "input_info": [
      {
        "shape": [
          5,
          6,
          5
        ],
        "dtype": "float32"
      }
    ],
    "jaxpr": "{ lambda ; a:f32[5,6,5]. let\n    b:f32[5,6,5] = neg a\n    c:f32[5,6,5] = exp b\n    d:f32[5,6,5] = add 1.0:f32[] c\n    e:f32[5,6,5] = div 1.0:f32[] d\n  in (e,) }",
    "stablehlo": "module @jit__lambda attributes {mhlo.num_partitions = 1 : i32, mhlo.num_replicas = 1 : i32} {\n  func.func public @main(%arg0: tensor<5x6x5xf32>) -> (tensor<5x6x5xf32> {jax.result_info = \"result\"}) {\n    %0 = stablehlo.negate %arg0 : tensor<5x6x5xf32>\n    %1 = stablehlo.exponential %0 : tensor<5x6x5xf32>\n    %cst = stablehlo.constant dense<1.000000e+00> : tensor<f32>\n    %2 = stablehlo.broadcast_in_dim %cst, dims = [] : (tensor<f32>) -> tensor<5x6x5xf32>\n    %3 = stablehlo.add %2, %1 : tensor<5x6x5xf32>\n    %cst_0 = stablehlo.constant dense<1.000000e+00> : tensor<f32>\n    %4 = stablehlo.broadcast_in_dim %cst_0, dims = [] : (tensor<f32>) -> tensor<5x6x5xf32>\n    %5 = stablehlo.divide %4, %3 : tensor<5x6x5xf32>\n    return %5 : tensor<5x6x5xf32>\n  }\n}\n",
    "metadata": {
      "category": "math",
      "operation": "sigmoid",
      "description": "Math function: sigmoid"
    }
  },
  {
    "python_code": "lambda x: jnp.tanh(x)",
    "input_info": [
      {
        "shape": [
          9,
          7
        ],
        "dtype": "float32"
      }
    ],
    "jaxpr": "{ lambda ; a:f32[9,7]. let b:f32[9,7] = tanh a in (b,) }",
    "stablehlo": "module @jit__lambda attributes {mhlo.num_partitions = 1 : i32, mhlo.num_replicas = 1 : i32} {\n  func.func public @main(%arg0: tensor<9x7xf32>) -> (tensor<9x7xf32> {jax.result_info = \"result\"}) {\n    %0 = stablehlo.tanh %arg0 : tensor<9x7xf32>\n    return %0 : tensor<9x7xf32>\n  }\n}\n",
    "metadata": {
      "category": "math",
      "operation": "tanh",
      "description": "Math function: tanh"
    }
  },
  {
    "python_code": "lambda x: x ** 2",
    "input_info": [
      {
        "shape": [
          7,
          7
        ],
        "dtype": "float32"
      }
    ],
    "jaxpr": "{ lambda ; a:f32[7,7]. let b:f32[7,7] = integer_pow[y=2] a in (b,) }",
    "stablehlo": "module @jit__lambda attributes {mhlo.num_partitions = 1 : i32, mhlo.num_replicas = 1 : i32} {\n  func.func public @main(%arg0: tensor<7x7xf32>) -> (tensor<7x7xf32> {jax.result_info = \"result\"}) {\n    %0 = stablehlo.multiply %arg0, %arg0 : tensor<7x7xf32>\n    return %0 : tensor<7x7xf32>\n  }\n}\n",
    "metadata": {
      "category": "math",
      "operation": "square",
      "description": "Math function: square"
    }
  },
  {
    "python_code": "lambda x: jnp.cos(x)",
    "input_info": [
      {
        "shape": [
          3,
          3,
          5
        ],
        "dtype": "float32"
      }
    ],
    "jaxpr": "{ lambda ; a:f32[3,3,5]. let b:f32[3,3,5] = cos a in (b,) }",
    "stablehlo": "module @jit__lambda attributes {mhlo.num_partitions = 1 : i32, mhlo.num_replicas = 1 : i32} {\n  func.func public @main(%arg0: tensor<3x3x5xf32>) -> (tensor<3x3x5xf32> {jax.result_info = \"result\"}) {\n    %0 = stablehlo.cosine %arg0 : tensor<3x3x5xf32>\n    return %0 : tensor<3x3x5xf32>\n  }\n}\n",
    "metadata": {
      "category": "math",
      "operation": "cos",
      "description": "Math function: cos"
    }
  },
  {
    "python_code": "lambda x: jnp.abs(x)",
    "input_info": [
      {
        "shape": [
          2,
          6
        ],
        "dtype": "float32"
      }
    ],
    "jaxpr": "{ lambda ; a:f32[2,6]. let b:f32[2,6] = abs a in (b,) }",
    "stablehlo": "module @jit__lambda attributes {mhlo.num_partitions = 1 : i32, mhlo.num_replicas = 1 : i32} {\n  func.func public @main(%arg0: tensor<2x6xf32>) -> (tensor<2x6xf32> {jax.result_info = \"result\"}) {\n    %0 = stablehlo.abs %arg0 : tensor<2x6xf32>\n    return %0 : tensor<2x6xf32>\n  }\n}\n",
    "metadata": {
      "category": "math",
      "operation": "abs",
      "description": "Math function: abs"
    }
  },
  {
    "python_code": "lambda x: jnp.cos(x)",
    "input_info": [
      {
        "shape": [
          3
        ],
        "dtype": "float32"
      }
    ],
    "jaxpr": "{ lambda ; a:f32[3]. let b:f32[3] = cos a in (b,) }",
    "stablehlo": "module @jit__lambda attributes {mhlo.num_partitions = 1 : i32, mhlo.num_replicas = 1 : i32} {\n  func.func public @main(%arg0: tensor<3xf32>) -> (tensor<3xf32> {jax.result_info = \"result\"}) {\n    %0 = stablehlo.cosine %arg0 : tensor<3xf32>\n    return %0 : tensor<3xf32>\n  }\n}\n",
    "metadata": {
      "category": "math",
      "operation": "cos",
      "description": "Math function: cos"
    }
  },
  {
    "python_code": "lambda x: jnp.abs(x)",
    "input_info": [
      {
        "shape": [
          4
        ],
        "dtype": "float32"
      }
    ],
    "jaxpr": "{ lambda ; a:f32[4]. let b:f32[4] = abs a in (b,) }",
    "stablehlo": "module @jit__lambda attributes {mhlo.num_partitions = 1 : i32, mhlo.num_replicas = 1 : i32} {\n  func.func public @main(%arg0: tensor<4xf32>) -> (tensor<4xf32> {jax.result_info = \"result\"}) {\n    %0 = stablehlo.abs %arg0 : tensor<4xf32>\n    return %0 : tensor<4xf32>\n  }\n}\n",
    "metadata": {
      "category": "math",
      "operation": "abs",
      "description": "Math function: abs"
    }
  },
  {
    "python_code": "lambda x: x ** 2",
    "input_info": [
      {
        "shape": [
          4,
          10
        ],
        "dtype": "float32"
      }
    ],
    "jaxpr": "{ lambda ; a:f32[4,10]. let b:f32[4,10] = integer_pow[y=2] a in (b,) }",
    "stablehlo": "module @jit__lambda attributes {mhlo.num_partitions = 1 : i32, mhlo.num_replicas = 1 : i32} {\n  func.func public @main(%arg0: tensor<4x10xf32>) -> (tensor<4x10xf32> {jax.result_info = \"result\"}) {\n    %0 = stablehlo.multiply %arg0, %arg0 : tensor<4x10xf32>\n    return %0 : tensor<4x10xf32>\n  }\n}\n",
    "metadata": {
      "category": "math",
      "operation": "square",
      "description": "Math function: square"
    }
  },
  {
    "python_code": "lambda x: jnp.abs(x)",
    "input_info": [
      {
        "shape": [
          3
        ],
        "dtype": "float32"
      }
    ],
    "jaxpr": "{ lambda ; a:f32[3]. let b:f32[3] = abs a in (b,) }",
    "stablehlo": "module @jit__lambda attributes {mhlo.num_partitions = 1 : i32, mhlo.num_replicas = 1 : i32} {\n  func.func public @main(%arg0: tensor<3xf32>) -> (tensor<3xf32> {jax.result_info = \"result\"}) {\n    %0 = stablehlo.abs %arg0 : tensor<3xf32>\n    return %0 : tensor<3xf32>\n  }\n}\n",
    "metadata": {
      "category": "math",
      "operation": "abs",
      "description": "Math function: abs"
    }
  },
  {
    "python_code": "lambda x: jnp.abs(x)",
    "input_info": [
      {
        "shape": [
          3,
          2
        ],
        "dtype": "float32"
      }
    ],
    "jaxpr": "{ lambda ; a:f32[3,2]. let b:f32[3,2] = abs a in (b,) }",
    "stablehlo": "module @jit__lambda attributes {mhlo.num_partitions = 1 : i32, mhlo.num_replicas = 1 : i32} {\n  func.func public @main(%arg0: tensor<3x2xf32>) -> (tensor<3x2xf32> {jax.result_info = \"result\"}) {\n    %0 = stablehlo.abs %arg0 : tensor<3x2xf32>\n    return %0 : tensor<3x2xf32>\n  }\n}\n",
    "metadata": {
      "category": "math",
      "operation": "abs",
      "description": "Math function: abs"
    }
  },
  {
    "python_code": "lambda x: x ** 2",
    "input_info": [
      {
        "shape": [
          6,
          6
        ],
        "dtype": "float32"
      }
    ],
    "jaxpr": "{ lambda ; a:f32[6,6]. let b:f32[6,6] = integer_pow[y=2] a in (b,) }",
    "stablehlo": "module @jit__lambda attributes {mhlo.num_partitions = 1 : i32, mhlo.num_replicas = 1 : i32} {\n  func.func public @main(%arg0: tensor<6x6xf32>) -> (tensor<6x6xf32> {jax.result_info = \"result\"}) {\n    %0 = stablehlo.multiply %arg0, %arg0 : tensor<6x6xf32>\n    return %0 : tensor<6x6xf32>\n  }\n}\n",
    "metadata": {
      "category": "math",
      "operation": "square",
      "description": "Math function: square"
    }
  },
  {
    "python_code": "lambda x: jnp.log(x + 1.0)",
    "input_info": [
      {
        "shape": [
          8
        ],
        "dtype": "float32"
      }
    ],
    "jaxpr": "{ lambda ; a:f32[8]. let b:f32[8] = add a 1.0:f32[]; c:f32[8] = log b in (c,) }",
    "stablehlo": "module @jit__lambda attributes {mhlo.num_partitions = 1 : i32, mhlo.num_replicas = 1 : i32} {\n  func.func public @main(%arg0: tensor<8xf32>) -> (tensor<8xf32> {jax.result_info = \"result\"}) {\n    %cst = stablehlo.constant dense<1.000000e+00> : tensor<f32>\n    %0 = stablehlo.broadcast_in_dim %cst, dims = [] : (tensor<f32>) -> tensor<8xf32>\n    %1 = stablehlo.add %arg0, %0 : tensor<8xf32>\n    %2 = stablehlo.log %1 : tensor<8xf32>\n    return %2 : tensor<8xf32>\n  }\n}\n",
    "metadata": {
      "category": "math",
      "operation": "log",
      "description": "Math function: log"
    }
  },
  {
    "python_code": "lambda x: jnp.tanh(x)",
    "input_info": [
      {
        "shape": [
          2,
          4,
          6
        ],
        "dtype": "float32"
      }
    ],
    "jaxpr": "{ lambda ; a:f32[2,4,6]. let b:f32[2,4,6] = tanh a in (b,) }",
    "stablehlo": "module @jit__lambda attributes {mhlo.num_partitions = 1 : i32, mhlo.num_replicas = 1 : i32} {\n  func.func public @main(%arg0: tensor<2x4x6xf32>) -> (tensor<2x4x6xf32> {jax.result_info = \"result\"}) {\n    %0 = stablehlo.tanh %arg0 : tensor<2x4x6xf32>\n    return %0 : tensor<2x4x6xf32>\n  }\n}\n",
    "metadata": {
      "category": "math",
      "operation": "tanh",
      "description": "Math function: tanh"
    }
  },
  {
    "python_code": "lambda x: jnp.sqrt(jnp.abs(x))",
    "input_info": [
      {
        "shape": [
          9
        ],
        "dtype": "float32"
      }
    ],
    "jaxpr": "{ lambda ; a:f32[9]. let b:f32[9] = abs a; c:f32[9] = sqrt b in (c,) }",
    "stablehlo": "module @jit__lambda attributes {mhlo.num_partitions = 1 : i32, mhlo.num_replicas = 1 : i32} {\n  func.func public @main(%arg0: tensor<9xf32>) -> (tensor<9xf32> {jax.result_info = \"result\"}) {\n    %0 = stablehlo.abs %arg0 : tensor<9xf32>\n    %1 = stablehlo.sqrt %0 : tensor<9xf32>\n    return %1 : tensor<9xf32>\n  }\n}\n",
    "metadata": {
      "category": "math",
      "operation": "sqrt",
      "description": "Math function: sqrt"
    }
  },
  {
    "python_code": "lambda x: x ** 2",
    "input_info": [
      {
        "shape": [
          5,
          4
        ],
        "dtype": "float32"
      }
    ],
    "jaxpr": "{ lambda ; a:f32[5,4]. let b:f32[5,4] = integer_pow[y=2] a in (b,) }",
    "stablehlo": "module @jit__lambda attributes {mhlo.num_partitions = 1 : i32, mhlo.num_replicas = 1 : i32} {\n  func.func public @main(%arg0: tensor<5x4xf32>) -> (tensor<5x4xf32> {jax.result_info = \"result\"}) {\n    %0 = stablehlo.multiply %arg0, %arg0 : tensor<5x4xf32>\n    return %0 : tensor<5x4xf32>\n  }\n}\n",
    "metadata": {
      "category": "math",
      "operation": "square",
      "description": "Math function: square"
    }
  },
  {
    "python_code": "lambda x: jnp.log(x + 1.0)",
    "input_info": [
      {
        "shape": [
          7,
          3
        ],
        "dtype": "float32"
      }
    ],
    "jaxpr": "{ lambda ; a:f32[7,3]. let\n    b:f32[7,3] = add a 1.0:f32[]\n    c:f32[7,3] = log b\n  in (c,) }",
    "stablehlo": "module @jit__lambda attributes {mhlo.num_partitions = 1 : i32, mhlo.num_replicas = 1 : i32} {\n  func.func public @main(%arg0: tensor<7x3xf32>) -> (tensor<7x3xf32> {jax.result_info = \"result\"}) {\n    %cst = stablehlo.constant dense<1.000000e+00> : tensor<f32>\n    %0 = stablehlo.broadcast_in_dim %cst, dims = [] : (tensor<f32>) -> tensor<7x3xf32>\n    %1 = stablehlo.add %arg0, %0 : tensor<7x3xf32>\n    %2 = stablehlo.log %1 : tensor<7x3xf32>\n    return %2 : tensor<7x3xf32>\n  }\n}\n",
    "metadata": {
      "category": "math",
      "operation": "log",
      "description": "Math function: log"
    }
  },
  {
    "python_code": "lambda x: jnp.log(x + 1.0)",
    "input_info": [
      {
        "shape": [
          2,
          9,
          7
        ],
        "dtype": "float32"
      }
    ],
    "jaxpr": "{ lambda ; a:f32[2,9,7]. let\n    b:f32[2,9,7] = add a 1.0:f32[]\n    c:f32[2,9,7] = log b\n  in (c,) }",
    "stablehlo": "module @jit__lambda attributes {mhlo.num_partitions = 1 : i32, mhlo.num_replicas = 1 : i32} {\n  func.func public @main(%arg0: tensor<2x9x7xf32>) -> (tensor<2x9x7xf32> {jax.result_info = \"result\"}) {\n    %cst = stablehlo.constant dense<1.000000e+00> : tensor<f32>\n    %0 = stablehlo.broadcast_in_dim %cst, dims = [] : (tensor<f32>) -> tensor<2x9x7xf32>\n    %1 = stablehlo.add %arg0, %0 : tensor<2x9x7xf32>\n    %2 = stablehlo.log %1 : tensor<2x9x7xf32>\n    return %2 : tensor<2x9x7xf32>\n  }\n}\n",
    "metadata": {
      "category": "math",
      "operation": "log",
      "description": "Math function: log"
    }
  },
  {
    "python_code": "lambda x: jnp.tanh(x)",
    "input_info": [
      {
        "shape": [
          3,
          8,
          4
        ],
        "dtype": "float32"
      }
    ],
    "jaxpr": "{ lambda ; a:f32[3,8,4]. let b:f32[3,8,4] = tanh a in (b,) }",
    "stablehlo": "module @jit__lambda attributes {mhlo.num_partitions = 1 : i32, mhlo.num_replicas = 1 : i32} {\n  func.func public @main(%arg0: tensor<3x8x4xf32>) -> (tensor<3x8x4xf32> {jax.result_info = \"result\"}) {\n    %0 = stablehlo.tanh %arg0 : tensor<3x8x4xf32>\n    return %0 : tensor<3x8x4xf32>\n  }\n}\n",
    "metadata": {
      "category": "math",
      "operation": "tanh",
      "description": "Math function: tanh"
    }
  },
  {
    "python_code": "lambda x: jnp.log(x + 1.0)",
    "input_info": [
      {
        "shape": [
          6
        ],
        "dtype": "float32"
      }
    ],
    "jaxpr": "{ lambda ; a:f32[6]. let b:f32[6] = add a 1.0:f32[]; c:f32[6] = log b in (c,) }",
    "stablehlo": "module @jit__lambda attributes {mhlo.num_partitions = 1 : i32, mhlo.num_replicas = 1 : i32} {\n  func.func public @main(%arg0: tensor<6xf32>) -> (tensor<6xf32> {jax.result_info = \"result\"}) {\n    %cst = stablehlo.constant dense<1.000000e+00> : tensor<f32>\n    %0 = stablehlo.broadcast_in_dim %cst, dims = [] : (tensor<f32>) -> tensor<6xf32>\n    %1 = stablehlo.add %arg0, %0 : tensor<6xf32>\n    %2 = stablehlo.log %1 : tensor<6xf32>\n    return %2 : tensor<6xf32>\n  }\n}\n",
    "metadata": {
      "category": "math",
      "operation": "log",
      "description": "Math function: log"
    }
  },
  {
    "python_code": "lambda x: jnp.tanh(x)",
    "input_info": [
      {
        "shape": [
          10
        ],
        "dtype": "float32"
      }
    ],
    "jaxpr": "{ lambda ; a:f32[10]. let b:f32[10] = tanh a in (b,) }",
    "stablehlo": "module @jit__lambda attributes {mhlo.num_partitions = 1 : i32, mhlo.num_replicas = 1 : i32} {\n  func.func public @main(%arg0: tensor<10xf32>) -> (tensor<10xf32> {jax.result_info = \"result\"}) {\n    %0 = stablehlo.tanh %arg0 : tensor<10xf32>\n    return %0 : tensor<10xf32>\n  }\n}\n",
    "metadata": {
      "category": "math",
      "operation": "tanh",
      "description": "Math function: tanh"
    }
  },
  {
    "python_code": "lambda x: jnp.cos(x)",
    "input_info": [
      {
        "shape": [
          4
        ],
        "dtype": "float32"
      }
    ],
    "jaxpr": "{ lambda ; a:f32[4]. let b:f32[4] = cos a in (b,) }",
    "stablehlo": "module @jit__lambda attributes {mhlo.num_partitions = 1 : i32, mhlo.num_replicas = 1 : i32} {\n  func.func public @main(%arg0: tensor<4xf32>) -> (tensor<4xf32> {jax.result_info = \"result\"}) {\n    %0 = stablehlo.cosine %arg0 : tensor<4xf32>\n    return %0 : tensor<4xf32>\n  }\n}\n",
    "metadata": {
      "category": "math",
      "operation": "cos",
      "description": "Math function: cos"
    }
  },
  {
    "python_code": "lambda x: jnp.cos(x)",
    "input_info": [
      {
        "shape": [
          9,
          10
        ],
        "dtype": "float32"
      }
    ],
    "jaxpr": "{ lambda ; a:f32[9,10]. let b:f32[9,10] = cos a in (b,) }",
    "stablehlo": "module @jit__lambda attributes {mhlo.num_partitions = 1 : i32, mhlo.num_replicas = 1 : i32} {\n  func.func public @main(%arg0: tensor<9x10xf32>) -> (tensor<9x10xf32> {jax.result_info = \"result\"}) {\n    %0 = stablehlo.cosine %arg0 : tensor<9x10xf32>\n    return %0 : tensor<9x10xf32>\n  }\n}\n",
    "metadata": {
      "category": "math",
      "operation": "cos",
      "description": "Math function: cos"
    }
  },
  {
    "python_code": "lambda x: jnp.sqrt(jnp.abs(x))",
    "input_info": [
      {
        "shape": [
          10,
          2
        ],
        "dtype": "float32"
      }
    ],
    "jaxpr": "{ lambda ; a:f32[10,2]. let b:f32[10,2] = abs a; c:f32[10,2] = sqrt b in (c,) }",
    "stablehlo": "module @jit__lambda attributes {mhlo.num_partitions = 1 : i32, mhlo.num_replicas = 1 : i32} {\n  func.func public @main(%arg0: tensor<10x2xf32>) -> (tensor<10x2xf32> {jax.result_info = \"result\"}) {\n    %0 = stablehlo.abs %arg0 : tensor<10x2xf32>\n    %1 = stablehlo.sqrt %0 : tensor<10x2xf32>\n    return %1 : tensor<10x2xf32>\n  }\n}\n",
    "metadata": {
      "category": "math",
      "operation": "sqrt",
      "description": "Math function: sqrt"
    }
  },
  {
    "python_code": "lambda x: x ** 2",
    "input_info": [
      {
        "shape": [
          10,
          6
        ],
        "dtype": "float32"
      }
    ],
    "jaxpr": "{ lambda ; a:f32[10,6]. let b:f32[10,6] = integer_pow[y=2] a in (b,) }",
    "stablehlo": "module @jit__lambda attributes {mhlo.num_partitions = 1 : i32, mhlo.num_replicas = 1 : i32} {\n  func.func public @main(%arg0: tensor<10x6xf32>) -> (tensor<10x6xf32> {jax.result_info = \"result\"}) {\n    %0 = stablehlo.multiply %arg0, %arg0 : tensor<10x6xf32>\n    return %0 : tensor<10x6xf32>\n  }\n}\n",
    "metadata": {
      "category": "math",
      "operation": "square",
      "description": "Math function: square"
    }
  },
  {
    "python_code": "lambda x: jnp.cos(x)",
    "input_info": [
      {
        "shape": [
          2,
          2
        ],
        "dtype": "float32"
      }
    ],
    "jaxpr": "{ lambda ; a:f32[2,2]. let b:f32[2,2] = cos a in (b,) }",
    "stablehlo": "module @jit__lambda attributes {mhlo.num_partitions = 1 : i32, mhlo.num_replicas = 1 : i32} {\n  func.func public @main(%arg0: tensor<2x2xf32>) -> (tensor<2x2xf32> {jax.result_info = \"result\"}) {\n    %0 = stablehlo.cosine %arg0 : tensor<2x2xf32>\n    return %0 : tensor<2x2xf32>\n  }\n}\n",
    "metadata": {
      "category": "math",
      "operation": "cos",
      "description": "Math function: cos"
    }
  },
  {
    "python_code": "lambda x: jnp.exp(x)",
    "input_info": [
      {
        "shape": [
          4,
          5,
          4
        ],
        "dtype": "float32"
      }
    ],
    "jaxpr": "{ lambda ; a:f32[4,5,4]. let b:f32[4,5,4] = exp a in (b,) }",
    "stablehlo": "module @jit__lambda attributes {mhlo.num_partitions = 1 : i32, mhlo.num_replicas = 1 : i32} {\n  func.func public @main(%arg0: tensor<4x5x4xf32>) -> (tensor<4x5x4xf32> {jax.result_info = \"result\"}) {\n    %0 = stablehlo.exponential %arg0 : tensor<4x5x4xf32>\n    return %0 : tensor<4x5x4xf32>\n  }\n}\n",
    "metadata": {
      "category": "math",
      "operation": "exp",
      "description": "Math function: exp"
    }
  },
  {
    "python_code": "lambda x: jnp.abs(x)",
    "input_info": [
      {
        "shape": [
          7
        ],
        "dtype": "float32"
      }
    ],
    "jaxpr": "{ lambda ; a:f32[7]. let b:f32[7] = abs a in (b,) }",
    "stablehlo": "module @jit__lambda attributes {mhlo.num_partitions = 1 : i32, mhlo.num_replicas = 1 : i32} {\n  func.func public @main(%arg0: tensor<7xf32>) -> (tensor<7xf32> {jax.result_info = \"result\"}) {\n    %0 = stablehlo.abs %arg0 : tensor<7xf32>\n    return %0 : tensor<7xf32>\n  }\n}\n",
    "metadata": {
      "category": "math",
      "operation": "abs",
      "description": "Math function: abs"
    }
  },
  {
    "python_code": "lambda x: jnp.sqrt(jnp.abs(x))",
    "input_info": [
      {
        "shape": [
          3
        ],
        "dtype": "float32"
      }
    ],
    "jaxpr": "{ lambda ; a:f32[3]. let b:f32[3] = abs a; c:f32[3] = sqrt b in (c,) }",
    "stablehlo": "module @jit__lambda attributes {mhlo.num_partitions = 1 : i32, mhlo.num_replicas = 1 : i32} {\n  func.func public @main(%arg0: tensor<3xf32>) -> (tensor<3xf32> {jax.result_info = \"result\"}) {\n    %0 = stablehlo.abs %arg0 : tensor<3xf32>\n    %1 = stablehlo.sqrt %0 : tensor<3xf32>\n    return %1 : tensor<3xf32>\n  }\n}\n",
    "metadata": {
      "category": "math",
      "operation": "sqrt",
      "description": "Math function: sqrt"
    }
  },
  {
    "python_code": "lambda x: jnp.tanh(x)",
    "input_info": [
      {
        "shape": [
          5
        ],
        "dtype": "float32"
      }
    ],
    "jaxpr": "{ lambda ; a:f32[5]. let b:f32[5] = tanh a in (b,) }",
    "stablehlo": "module @jit__lambda attributes {mhlo.num_partitions = 1 : i32, mhlo.num_replicas = 1 : i32} {\n  func.func public @main(%arg0: tensor<5xf32>) -> (tensor<5xf32> {jax.result_info = \"result\"}) {\n    %0 = stablehlo.tanh %arg0 : tensor<5xf32>\n    return %0 : tensor<5xf32>\n  }\n}\n",
    "metadata": {
      "category": "math",
      "operation": "tanh",
      "description": "Math function: tanh"
    }
  },
  {
    "python_code": "lambda x: jnp.tanh(x)",
    "input_info": [
      {
        "shape": [
          9
        ],
        "dtype": "float32"
      }
    ],
    "jaxpr": "{ lambda ; a:f32[9]. let b:f32[9] = tanh a in (b,) }",
    "stablehlo": "module @jit__lambda attributes {mhlo.num_partitions = 1 : i32, mhlo.num_replicas = 1 : i32} {\n  func.func public @main(%arg0: tensor<9xf32>) -> (tensor<9xf32> {jax.result_info = \"result\"}) {\n    %0 = stablehlo.tanh %arg0 : tensor<9xf32>\n    return %0 : tensor<9xf32>\n  }\n}\n",
    "metadata": {
      "category": "math",
      "operation": "tanh",
      "description": "Math function: tanh"
    }
  },
  {
    "python_code": "lambda x: jnp.sqrt(jnp.abs(x))",
    "input_info": [
      {
        "shape": [
          8,
          9
        ],
        "dtype": "float32"
      }
    ],
    "jaxpr": "{ lambda ; a:f32[8,9]. let b:f32[8,9] = abs a; c:f32[8,9] = sqrt b in (c,) }",
    "stablehlo": "module @jit__lambda attributes {mhlo.num_partitions = 1 : i32, mhlo.num_replicas = 1 : i32} {\n  func.func public @main(%arg0: tensor<8x9xf32>) -> (tensor<8x9xf32> {jax.result_info = \"result\"}) {\n    %0 = stablehlo.abs %arg0 : tensor<8x9xf32>\n    %1 = stablehlo.sqrt %0 : tensor<8x9xf32>\n    return %1 : tensor<8x9xf32>\n  }\n}\n",
    "metadata": {
      "category": "math",
      "operation": "sqrt",
      "description": "Math function: sqrt"
    }
  },
  {
    "python_code": "lambda x: jnp.sqrt(jnp.abs(x))",
    "input_info": [
      {
        "shape": [
          8,
          5
        ],
        "dtype": "float32"
      }
    ],
    "jaxpr": "{ lambda ; a:f32[8,5]. let b:f32[8,5] = abs a; c:f32[8,5] = sqrt b in (c,) }",
    "stablehlo": "module @jit__lambda attributes {mhlo.num_partitions = 1 : i32, mhlo.num_replicas = 1 : i32} {\n  func.func public @main(%arg0: tensor<8x5xf32>) -> (tensor<8x5xf32> {jax.result_info = \"result\"}) {\n    %0 = stablehlo.abs %arg0 : tensor<8x5xf32>\n    %1 = stablehlo.sqrt %0 : tensor<8x5xf32>\n    return %1 : tensor<8x5xf32>\n  }\n}\n",
    "metadata": {
      "category": "math",
      "operation": "sqrt",
      "description": "Math function: sqrt"
    }
  },
  {
    "python_code": "lambda x: jnp.sqrt(jnp.abs(x))",
    "input_info": [
      {
        "shape": [
          2,
          9
        ],
        "dtype": "float32"
      }
    ],
    "jaxpr": "{ lambda ; a:f32[2,9]. let b:f32[2,9] = abs a; c:f32[2,9] = sqrt b in (c,) }",
    "stablehlo": "module @jit__lambda attributes {mhlo.num_partitions = 1 : i32, mhlo.num_replicas = 1 : i32} {\n  func.func public @main(%arg0: tensor<2x9xf32>) -> (tensor<2x9xf32> {jax.result_info = \"result\"}) {\n    %0 = stablehlo.abs %arg0 : tensor<2x9xf32>\n    %1 = stablehlo.sqrt %0 : tensor<2x9xf32>\n    return %1 : tensor<2x9xf32>\n  }\n}\n",
    "metadata": {
      "category": "math",
      "operation": "sqrt",
      "description": "Math function: sqrt"
    }
  },
  {
    "python_code": "lambda x: jnp.sqrt(jnp.abs(x))",
    "input_info": [
      {
        "shape": [
          3,
          2,
          2
        ],
        "dtype": "float32"
      }
    ],
    "jaxpr": "{ lambda ; a:f32[3,2,2]. let\n    b:f32[3,2,2] = abs a\n    c:f32[3,2,2] = sqrt b\n  in (c,) }",
    "stablehlo": "module @jit__lambda attributes {mhlo.num_partitions = 1 : i32, mhlo.num_replicas = 1 : i32} {\n  func.func public @main(%arg0: tensor<3x2x2xf32>) -> (tensor<3x2x2xf32> {jax.result_info = \"result\"}) {\n    %0 = stablehlo.abs %arg0 : tensor<3x2x2xf32>\n    %1 = stablehlo.sqrt %0 : tensor<3x2x2xf32>\n    return %1 : tensor<3x2x2xf32>\n  }\n}\n",
    "metadata": {
      "category": "math",
      "operation": "sqrt",
      "description": "Math function: sqrt"
    }
  },
  {
    "python_code": "lambda x: jnp.tanh(x)",
    "input_info": [
      {
        "shape": [
          5
        ],
        "dtype": "float32"
      }
    ],
    "jaxpr": "{ lambda ; a:f32[5]. let b:f32[5] = tanh a in (b,) }",
    "stablehlo": "module @jit__lambda attributes {mhlo.num_partitions = 1 : i32, mhlo.num_replicas = 1 : i32} {\n  func.func public @main(%arg0: tensor<5xf32>) -> (tensor<5xf32> {jax.result_info = \"result\"}) {\n    %0 = stablehlo.tanh %arg0 : tensor<5xf32>\n    return %0 : tensor<5xf32>\n  }\n}\n",
    "metadata": {
      "category": "math",
      "operation": "tanh",
      "description": "Math function: tanh"
    }
  },
  {
    "python_code": "lambda x: jnp.sqrt(jnp.abs(x))",
    "input_info": [
      {
        "shape": [
          3,
          9
        ],
        "dtype": "float32"
      }
    ],
    "jaxpr": "{ lambda ; a:f32[3,9]. let b:f32[3,9] = abs a; c:f32[3,9] = sqrt b in (c,) }",
    "stablehlo": "module @jit__lambda attributes {mhlo.num_partitions = 1 : i32, mhlo.num_replicas = 1 : i32} {\n  func.func public @main(%arg0: tensor<3x9xf32>) -> (tensor<3x9xf32> {jax.result_info = \"result\"}) {\n    %0 = stablehlo.abs %arg0 : tensor<3x9xf32>\n    %1 = stablehlo.sqrt %0 : tensor<3x9xf32>\n    return %1 : tensor<3x9xf32>\n  }\n}\n",
    "metadata": {
      "category": "math",
      "operation": "sqrt",
      "description": "Math function: sqrt"
    }
  },
  {
    "python_code": "lambda x: jnp.cos(x)",
    "input_info": [
      {
        "shape": [
          7,
          7
        ],
        "dtype": "float32"
      }
    ],
    "jaxpr": "{ lambda ; a:f32[7,7]. let b:f32[7,7] = cos a in (b,) }",
    "stablehlo": "module @jit__lambda attributes {mhlo.num_partitions = 1 : i32, mhlo.num_replicas = 1 : i32} {\n  func.func public @main(%arg0: tensor<7x7xf32>) -> (tensor<7x7xf32> {jax.result_info = \"result\"}) {\n    %0 = stablehlo.cosine %arg0 : tensor<7x7xf32>\n    return %0 : tensor<7x7xf32>\n  }\n}\n",
    "metadata": {
      "category": "math",
      "operation": "cos",
      "description": "Math function: cos"
    }
  },
  {
    "python_code": "lambda x: x ** 2",
    "input_info": [
      {
        "shape": [
          6
        ],
        "dtype": "float32"
      }
    ],
    "jaxpr": "{ lambda ; a:f32[6]. let b:f32[6] = integer_pow[y=2] a in (b,) }",
    "stablehlo": "module @jit__lambda attributes {mhlo.num_partitions = 1 : i32, mhlo.num_replicas = 1 : i32} {\n  func.func public @main(%arg0: tensor<6xf32>) -> (tensor<6xf32> {jax.result_info = \"result\"}) {\n    %0 = stablehlo.multiply %arg0, %arg0 : tensor<6xf32>\n    return %0 : tensor<6xf32>\n  }\n}\n",
    "metadata": {
      "category": "math",
      "operation": "square",
      "description": "Math function: square"
    }
  },
  {
    "python_code": "lambda x: jnp.cos(x)",
    "input_info": [
      {
        "shape": [
          4,
          5,
          7
        ],
        "dtype": "float32"
      }
    ],
    "jaxpr": "{ lambda ; a:f32[4,5,7]. let b:f32[4,5,7] = cos a in (b,) }",
…
    "jaxpr": "{ lambda ; a:f32[7,2]. let b:f32[7,2] = cos a in (b,) }",
    "stablehlo": "module @jit__lambda attributes {mhlo.num_partitions = 1 : i32, mhlo.num_replicas = 1 : i32} {\n  func.func public @main(%arg0: tensor<7x2xf32>) -> (tensor<7x2xf32> {jax.result_info = \"result\"}) {\n    %0 = stablehlo.cosine %arg0 : tensor<7x2xf32>\n    return %0 : tensor<7x2xf32>\n  }\n}\n",
    "metadata": {
      "category": "math",
      "operation": "cos",
      "description": "Math function: cos"
    }
  },
  {
    "python_code": "lambda x: jnp.cos(x)",
    "input_info": [
      {
        "shape": [
          3
        ],
        "dtype": "float32"
      }
    ],
    "jaxpr": "{ lambda ; a:f32[3]. let b:f32[3] = cos a in (b,) }",
    "stablehlo": "module @jit__lambda attributes {mhlo.num_partitions = 1 : i32, mhlo.num_replicas = 1 : i32} {\n  func.func public @main(%arg0: tensor<3xf32>) -> (tensor<3xf32> {jax.result_info = \"result\"}) {\n    %0 = stablehlo.cosine %arg0 : tensor<3xf32>\n    return %0 : tensor<3xf32>\n  }\n}\n",
    "metadata": {
      "category": "math",
      "operation": "cos",
      "description": "Math function: cos"
    }
  },
  {
    "python_code": "lambda x: 1.0 / (1.0 + jnp.exp(-x))",
    "input_info": [
      {
        "shape": [
          8,
          4,
          2
        ],
        "dtype": "float32"
      }
    ],
    "jaxpr": "{ lambda ; a:f32[8,4,2]. let\n    b:f32[8,4,2] = neg a\n    c:f32[8,4,2] = exp b\n    d:f32[8,4,2] = add 1.0:f32[] c\n    e:f32[8,4,2] = div 1.0:f32[] d\n  in (e,) }",
    "stablehlo": "module @jit__lambda attributes {mhlo.num_partitions = 1 : i32, mhlo.num_replicas = 1 : i32} {\n  func.func public @main(%arg0: tensor<8x4x2xf32>) -> (tensor<8x4x2xf32> {jax.result_info = \"result\"}) {\n    %0 = stablehlo.negate %arg0 : tensor<8x4x2xf32>\n    %1 = stablehlo.exponential %0 : tensor<8x4x2xf32>\n    %cst = stablehlo.constant dense<1.000000e+00> : tensor<f32>\n    %2 = stablehlo.broadcast_in_dim %cst, dims = [] : (tensor<f32>) -> tensor<8x4x2xf32>\n    %3 = stablehlo.add %2, %1 : tensor<8x4x2xf32>\n    %cst_0 = stablehlo.constant dense<1.000000e+00> : tensor<f32>\n    %4 = stablehlo.broadcast_in_dim %cst_0, dims = [] : (tensor<f32>) -> tensor<8x4x2xf32>\n    %5 = stablehlo.divide %4, %3 : tensor<8x4x2xf32>\n    return %5 : tensor<8x4x2xf32>\n  }\n}\n",
    "metadata": {
      "category": "math",
      "operation": "sigmoid",
      "description": "Math function: sigmoid"
    }
  },
  {
    "python_code": "lambda x: x ** 2",
    "input_info": [
      {
        "shape": [
          6,
          9
        ],
        "dtype": "float32"
      }
    ],
    "jaxpr": "{ lambda ; a:f32[6,9]. let b:f32[6,9] = integer_pow[y=2] a in (b,) }",
    "stablehlo": "module @jit__lambda attributes {mhlo.num_partitions = 1 : i32, mhlo.num_replicas = 1 : i32} {\n  func.func public @main(%arg0: tensor<6x9xf32>) -> (tensor<6x9xf32> {jax.result_info = \"result\"}) {\n    %0 = stablehlo.multiply %arg0, %arg0 : tensor<6x9xf32>\n    return %0 : tensor<6x9xf32>\n  }\n}\n",
    "metadata": {
      "category": "math",
      "operation": "square",
      "description": "Math function: square"
    }
  },
  {
    "python_code": "lambda x: jnp.cos(x)",
    "input_info": [
      {
        "shape": [
          10
        ],
        "dtype": "float32"
      }
    ],
    "jaxpr": "{ lambda ; a:f32[10]. let b:f32[10] = cos a in (b,) }",
    "stablehlo": "module @jit__lambda attributes {mhlo.num_partitions = 1 : i32, mhlo.num_replicas = 1 : i32} {\n  func.func public @main(%arg0: tensor<10xf32>) -> (tensor<10xf32> {jax.result_info = \"result\"}) {\n    %0 = stablehlo.cosine %arg0 : tensor<10xf32>\n    return %0 : tensor<10xf32>\n  }\n}\n",
    "metadata": {
      "category": "math",
      "operation": "cos",
      "description": "Math function: cos"
    }
  },
  {
    "python_code": "lambda x: jnp.cos(x)",
    "input_info": [
      {
        "shape": [
          7,
          3,
          4
        ],
        "dtype": "float32"
      }
    ],
    "jaxpr": "{ lambda ; a:f32[7,3,4]. let b:f32[7,3,4] = cos a in (b,) }",
    "stablehlo": "module @jit__lambda attributes {mhlo.num_partitions = 1 : i32, mhlo.num_replicas = 1 : i32} {\n  func.func public @main(%arg0: tensor<7x3x4xf32>) -> (tensor<7x3x4xf32> {jax.result_info = \"result\"}) {\n    %0 = stablehlo.cosine %arg0 : tensor<7x3x4xf32>\n    return %0 : tensor<7x3x4xf32>\n  }\n}\n",
    "metadata": {
      "category": "math",
      "operation": "cos",
      "description": "Math function: cos"
    }
  },
  {
    "python_code": "lambda x: 1.0 / (1.0 + jnp.exp(-x))",
    "input_info": [
      {
        "shape": [
          9,
          7
        ],
        "dtype": "float32"
      }
    ],
    "jaxpr": "{ lambda ; a:f32[9,7]. let\n    b:f32[9,7] = neg a\n    c:f32[9,7] = exp b\n    d:f32[9,7] = add 1.0:f32[] c\n    e:f32[9,7] = div 1.0:f32[] d\n  in (e,) }",
    "stablehlo": "module @jit__lambda attributes {mhlo.num_partitions = 1 : i32, mhlo.num_replicas = 1 : i32} {\n  func.func public @main(%arg0: tensor<9x7xf32>) -> (tensor<9x7xf32> {jax.result_info = \"result\"}) {\n    %0 = stablehlo.negate %arg0 : tensor<9x7xf32>\n    %1 = stablehlo.exponential %0 : tensor<9x7xf32>\n    %cst = stablehlo.constant dense<1.000000e+00> : tensor<f32>\n    %2 = stablehlo.broadcast_in_dim %cst, dims = [] : (tensor<f32>) -> tensor<9x7xf32>\n    %3 = stablehlo.add %2, %1 : tensor<9x7xf32>\n    %cst_0 = stablehlo.constant dense<1.000000e+00> : tensor<f32>\n    %4 = stablehlo.broadcast_in_dim %cst_0, dims = [] : (tensor<f32>) -> tensor<9x7xf32>\n    %5 = stablehlo.divide %4, %3 : tensor<9x7xf32>\n    return %5 : tensor<9x7xf32>\n  }\n}\n",
    "metadata": {
      "category": "math",
      "operation": "sigmoid",
      "description": "Math function: sigmoid"
    }
  },
  {
    "python_code": "lambda x: jnp.abs(x)",
    "input_info": [
      {
        "shape": [
          6,
          8,
          5
        ],
        "dtype": "float32"
      }
    ],
    "jaxpr": "{ lambda ; a:f32[6,8,5]. let b:f32[6,8,5] = abs a in (b,) }",
    "stablehlo": "module @jit__lambda attributes {mhlo.num_partitions = 1 : i32, mhlo.num_replicas = 1 : i32} {\n  func.func public @main(%arg0: tensor<6x8x5xf32>) -> (tensor<6x8x5xf32> {jax.result_info = \"result\"}) {\n    %0 = stablehlo.abs %arg0 : tensor<6x8x5xf32>\n    return %0 : tensor<6x8x5xf32>\n  }\n}\n",
    "metadata": {
      "category": "math",
      "operation": "abs",
      "description": "Math function: abs"
    }
  },
  {
    "python_code": "lambda x: jnp.sqrt(jnp.abs(x))",
    "input_info": [
      {
        "shape": [
          8
        ],
        "dtype": "float32"
      }
    ],
    "jaxpr": "{ lambda ; a:f32[8]. let b:f32[8] = abs a; c:f32[8] = sqrt b in (c,) }",
    "stablehlo": "module @jit__lambda attributes {mhlo.num_partitions = 1 : i32, mhlo.num_replicas = 1 : i32} {\n  func.func public @main(%arg0: tensor<8xf32>) -> (tensor<8xf32> {jax.result_info = \"result\"}) {\n    %0 = stablehlo.abs %arg0 : tensor<8xf32>\n    %1 = stablehlo.sqrt %0 : tensor<8xf32>\n    return %1 : tensor<8xf32>\n  }\n}\n",
    "metadata": {
      "category": "math",
      "operation": "sqrt",
      "description": "Math function: sqrt"
    }
  },
  {
    "python_code": "lambda x: jnp.exp(x)",
    "input_info": [
      {
        "shape": [
          9
        ],
        "dtype": "float32"
      }
    ],
    "jaxpr": "{ lambda ; a:f32[9]. let b:f32[9] = exp a in (b,) }",
    "stablehlo": "module @jit__lambda attributes {mhlo.num_partitions = 1 : i32, mhlo.num_replicas = 1 : i32} {\n  func.func public @main(%arg0: tensor<9xf32>) -> (tensor<9xf32> {jax.result_info = \"result\"}) {\n    %0 = stablehlo.exponential %arg0 : tensor<9xf32>\n    return %0 : tensor<9xf32>\n  }\n}\n",
    "metadata": {
      "category": "math",
      "operation": "exp",
      "description": "Math function: exp"
    }
  },
  {
    "python_code": "lambda x: jnp.sqrt(jnp.abs(x))",
    "input_info": [
      {
        "shape": [
          9,
          7,
          6
        ],
        "dtype": "float32"
      }
    ],
    "jaxpr": "{ lambda ; a:f32[9,7,6]. let\n    b:f32[9,7,6] = abs a\n    c:f32[9,7,6] = sqrt b\n  in (c,) }",
    "stablehlo": "module @jit__lambda attributes {mhlo.num_partitions = 1 : i32, mhlo.num_replicas = 1 : i32} {\n  func.func public @main(%arg0: tensor<9x7x6xf32>) -> (tensor<9x7x6xf32> {jax.result_info = \"result\"}) {\n    %0 = stablehlo.abs %arg0 : tensor<9x7x6xf32>\n    %1 = stablehlo.sqrt %0 : tensor<9x7x6xf32>\n    return %1 : tensor<9x7x6xf32>\n  }\n}\n",
    "metadata": {
      "category": "math",
      "operation": "sqrt",
      "description": "Math function: sqrt"
    }
  },
  {
    "python_code": "lambda x: jnp.sin(x)",
    "input_info": [
      {
        "shape": [
          9,
          10,
          8
        ],
        "dtype": "float32"
      }
    ],
    "jaxpr": "{ lambda ; a:f32[9,10,8]. let b:f32[9,10,8] = sin a in (b,) }",
    "stablehlo": "module @jit__lambda attributes {mhlo.num_partitions = 1 : i32, mhlo.num_replicas = 1 : i32} {\n  func.func public @main(%arg0: tensor<9x10x8xf32>) -> (tensor<9x10x8xf32> {jax.result_info = \"result\"}) {\n    %0 = stablehlo.sine %arg0 : tensor<9x10x8xf32>\n    return %0 : tensor<9x10x8xf32>\n  }\n}\n",
    "metadata": {
      "category": "math",
      "operation": "sin",
      "description": "Math function: sin"
    }
  },
  {
    "python_code": "lambda x: jnp.sqrt(jnp.abs(x))",
    "input_info": [
      {
        "shape": [
          2,
          2,
          9
        ],
        "dtype": "float32"
      }
    ],
    "jaxpr": "{ lambda ; a:f32[2,2,9]. let\n    b:f32[2,2,9] = abs a\n    c:f32[2,2,9] = sqrt b\n  in (c,) }",
    "stablehlo": "module @jit__lambda attributes {mhlo.num_partitions = 1 : i32, mhlo.num_replicas = 1 : i32} {\n  func.func public @main(%arg0: tensor<2x2x9xf32>) -> (tensor<2x2x9xf32> {jax.result_info = \"result\"}) {\n    %0 = stablehlo.abs %arg0 : tensor<2x2x9xf32>\n    %1 = stablehlo.sqrt %0 : tensor<2x2x9xf32>\n    return %1 : tensor<2x2x9xf32>\n  }\n}\n",
    "metadata": {
      "category": "math",
      "operation": "sqrt",
      "description": "Math function: sqrt"
    }
  },
  {
    "python_code": "lambda x: jnp.log(x + 1.0)",
    "input_info": [
      {
        "shape": [
          5,
          4,
          7
        ],
        "dtype": "float32"
      }
    ],
    "jaxpr": "{ lambda ; a:f32[5,4,7]. let\n    b:f32[5,4,7] = add a 1.0:f32[]\n    c:f32[5,4,7] = log b\n  in (c,) }",
    "stablehlo": "module @jit__lambda attributes {mhlo.num_partitions = 1 : i32, mhlo.num_replicas = 1 : i32} {\n  func.func public @main(%arg0: tensor<5x4x7xf32>) -> (tensor<5x4x7xf32> {jax.result_info = \"result\"}) {\n    %cst = stablehlo.constant dense<1.000000e+00> : tensor<f32>\n    %0 = stablehlo.broadcast_in_dim %cst, dims = [] : (tensor<f32>) -> tensor<5x4x7xf32>\n    %1 = stablehlo.add %arg0, %0 : tensor<5x4x7xf32>\n    %2 = stablehlo.log %1 : tensor<5x4x7xf32>\n    return %2 : tensor<5x4x7xf32>\n  }\n}\n",
    "metadata": {
      "category": "math",
      "operation": "log",
      "description": "Math function: log"
    }
  },
  {
    "python_code": "lambda x: jnp.sin(x)",
    "input_info": [
      {
        "shape": [
          2
        ],
        "dtype": "float32"
      }
    ],
    "jaxpr": "{ lambda ; a:f32[2]. let b:f32[2] = sin a in (b,) }",
    "stablehlo": "module @jit__lambda attributes {mhlo.num_partitions = 1 : i32, mhlo.num_replicas = 1 : i32} {\n  func.func public @main(%arg0: tensor<2xf32>) -> (tensor<2xf32> {jax.result_info = \"result\"}) {\n    %0 = stablehlo.sine %arg0 : tensor<2xf32>\n    return %0 : tensor<2xf32>\n  }\n}\n",
    "metadata": {
      "category": "math",
      "operation": "sin",
      "description": "Math function: sin"
    }
  },
  {
    "python_code": "lambda x: jnp.abs(x)",
    "input_info": [
      {
        "shape": [
          2,
          8,
          6
        ],
        "dtype": "float32"
      }
    ],
    "jaxpr": "{ lambda ; a:f32[2,8,6]. let b:f32[2,8,6] = abs a in (b,) }",
    "stablehlo": "module @jit__lambda attributes {mhlo.num_partitions = 1 : i32, mhlo.num_replicas = 1 : i32} {\n  func.func public @main(%arg0: tensor<2x8x6xf32>) -> (tensor<2x8x6xf32> {jax.result_info = \"result\"}) {\n    %0 = stablehlo.abs %arg0 : tensor<2x8x6xf32>\n    return %0 : tensor<2x8x6xf32>\n  }\n}\n",
    "metadata": {
      "category": "math",
      "operation": "abs",
      "description": "Math function: abs"
    }
  },
  {
    "python_code": "lambda x: jnp.exp(x)",
    "input_info": [
      {
        "shape": [
          6,
          6,
          5
        ],
        "dtype": "float32"
      }
    ],
    "jaxpr": "{ lambda ; a:f32[6,6,5]. let b:f32[6,6,5] = exp a in (b,) }",
    "stablehlo": "module @jit__lambda attributes {mhlo.num_partitions = 1 : i32, mhlo.num_replicas = 1 : i32} {\n  func.func public @main(%arg0: tensor<6x6x5xf32>) -> (tensor<6x6x5xf32> {jax.result_info = \"result\"}) {\n    %0 = stablehlo.exponential %arg0 : tensor<6x6x5xf32>\n    return %0 : tensor<6x6x5xf32>\n  }\n}\n",
    "metadata": {
      "category": "math",
      "operation": "exp",
      "description": "Math function: exp"
    }
  },
  {
    "python_code": "lambda x: jnp.log(x + 1.0)",
    "input_info": [
      {
        "shape": [
          5,
          2
        ],
        "dtype": "float32"
      }
    ],
    "jaxpr": "{ lambda ; a:f32[5,2]. let\n    b:f32[5,2] = add a 1.0:f32[]\n    c:f32[5,2] = log b\n  in (c,) }",
    "stablehlo": "module @jit__lambda attributes {mhlo.num_partitions = 1 : i32, mhlo.num_replicas = 1 : i32} {\n  func.func public @main(%arg0: tensor<5x2xf32>) -> (tensor<5x2xf32> {jax.result_info = \"result\"}) {\n    %cst = stablehlo.constant dense<1.000000e+00> : tensor<f32>\n    %0 = stablehlo.broadcast_in_dim %cst, dims = [] : (tensor<f32>) -> tensor<5x2xf32>\n    %1 = stablehlo.add %arg0, %0 : tensor<5x2xf32>\n    %2 = stablehlo.log %1 : tensor<5x2xf32>\n    return %2 : tensor<5x2xf32>\n  }\n}\n",
    "metadata": {
      "category": "math",
      "operation": "log",
      "description": "Math function: log"
    }
  },
  {
    "python_code": "lambda x: jnp.sin(x)",
    "input_info": [
      {
        "shape": [
          2,
          5,
          2
        ],
        "dtype": "float32"
      }
    ],
    "jaxpr": "{ lambda ; a:f32[2,5,2]. let b:f32[2,5,2] = sin a in (b,) }",
    "stablehlo": "module @jit__lambda attributes {mhlo.num_partitions = 1 : i32, mhlo.num_replicas = 1 : i32} {\n  func.func public @main(%arg0: tensor<2x5x2xf32>) -> (tensor<2x5x2xf32> {jax.result_info = \"result\"}) {\n    %0 = stablehlo.sine %arg0 : tensor<2x5x2xf32>\n    return %0 : tensor<2x5x2xf32>\n  }\n}\n",
    "metadata": {
      "category": "math",
      "operation": "sin",
      "description": "Math function: sin"
    }
  },
  {
    "python_code": "lambda x: 1.0 / (1.0 + jnp.exp(-x))",
    "input_info": [
      {
        "shape": [
          8,
          4
        ],
        "dtype": "float32"
      }
    ],
    "jaxpr": "{ lambda ; a:f32[8,4]. let\n    b:f32[8,4] = neg a\n    c:f32[8,4] = exp b\n    d:f32[8,4] = add 1.0:f32[] c\n    e:f32[8,4] = div 1.0:f32[] d\n  in (e,) }",
    "stablehlo": "module @jit__lambda attributes {mhlo.num_partitions = 1 : i32, mhlo.num_replicas = 1 : i32} {\n  func.func public @main(%arg0: tensor<8x4xf32>) -> (tensor<8x4xf32> {jax.result_info = \"result\"}) {\n    %0 = stablehlo.negate %arg0 : tensor<8x4xf32>\n    %1 = stablehlo.exponential %0 : tensor<8x4xf32>\n    %cst = stablehlo.constant dense<1.000000e+00> : tensor<f32>\n    %2 = stablehlo.broadcast_in_dim %cst, dims = [] : (tensor<f32>) -> tensor<8x4xf32>\n    %3 = stablehlo.add %2, %1 : tensor<8x4xf32>\n    %cst_0 = stablehlo.constant dense<1.000000e+00> : tensor<f32>\n    %4 = stablehlo.broadcast_in_dim %cst_0, dims = [] : (tensor<f32>) -> tensor<8x4xf32>\n    %5 = stablehlo.divide %4, %3 : tensor<8x4xf32>\n    return %5 : tensor<8x4xf32>\n  }\n}\n",
    "metadata": {
      "category": "math",
      "operation": "sigmoid",
      "description": "Math function: sigmoid"
    }
  },
  {
    "python_code": "lambda x: jnp.sin(x)",
    "input_info": [
      {
        "shape": [
          2,
          10,
          6
        ],
        "dtype": "float32"
      }
    ],
    "jaxpr": "{ lambda ; a:f32[2,10,6]. let b:f32[2,10,6] = sin a in (b,) }",
    "stablehlo": "module @jit__lambda attributes {mhlo.num_partitions = 1 : i32, mhlo.num_replicas = 1 : i32} {\n  func.func public @main(%arg0: tensor<2x10x6xf32>) -> (tensor<2x10x6xf32> {jax.result_info = \"result\"}) {\n    %0 = stablehlo.sine %arg0 : tensor<2x10x6xf32>\n    return %0 : tensor<2x10x6xf32>\n  }\n}\n",
    "metadata": {
      "category": "math",
      "operation": "sin",
      "description": "Math function: sin"
    }
  },
  {
    "python_code": "lambda x: jnp.log(x + 1.0)",
    "input_info": [
      {
        "shape": [
          5,
          10,
          6
        ],
        "dtype": "float32"
      }
    ],
    "jaxpr": "{ lambda ; a:f32[5,10,6]. let\n    b:f32[5,10,6] = add a 1.0:f32[]\n    c:f32[5,10,6] = log b\n  in (c,) }",
    "stablehlo": "module @jit__lambda attributes {mhlo.num_partitions = 1 : i32, mhlo.num_replicas = 1 : i32} {\n  func.func public @main(%arg0: tensor<5x10x6xf32>) -> (tensor<5x10x6xf32> {jax.result_info = \"result\"}) {\n    %cst = stablehlo.constant dense<1.000000e+00> : tensor<f32>\n    %0 = stablehlo.broadcast_in_dim %cst, dims = [] : (tensor<f32>) -> tensor<5x10x6xf32>\n    %1 = stablehlo.add %arg0, %0 : tensor<5x10x6xf32>\n    %2 = stablehlo.log %1 : tensor<5x10x6xf32>\n    return %2 : tensor<5x10x6xf32>\n  }\n}\n",
    "metadata": {
      "category": "math",
      "operation": "log",
      "description": "Math function: log"
    }
  },
  {
    "python_code": "lambda x: 1.0 / (1.0 + jnp.exp(-x))",
    "input_info": [
      {
        "shape": [
          7,
          10
        ],
        "dtype": "float32"
      }
    ],
    "jaxpr": "{ lambda ; a:f32[7,10]. let\n    b:f32[7,10] = neg a\n    c:f32[7,10] = exp b\n    d:f32[7,10] = add 1.0:f32[] c\n    e:f32[7,10] = div 1.0:f32[] d\n  in (e,) }",
    "stablehlo": "module @jit__lambda attributes {mhlo.num_partitions = 1 : i32, mhlo.num_replicas = 1 : i32} {\n  func.func public @main(%arg0: tensor<7x10xf32>) -> (tensor<7x10xf32> {jax.result_info = \"result\"}) {\n    %0 = stablehlo.negate %arg0 : tensor<7x10xf32>\n    %1 = stablehlo.exponential %0 : tensor<7x10xf32>\n    %cst = stablehlo.constant dense<1.000000e+00> : tensor<f32>\n    %2 = stablehlo.broadcast_in_dim %cst, dims = [] : (tensor<f32>) -> tensor<7x10xf32>\n    %3 = stablehlo.add %2, %1 : tensor<7x10xf32>\n    %cst_0 = stablehlo.constant dense<1.000000e+00> : tensor<f32>\n    %4 = stablehlo.broadcast_in_dim %cst_0, dims = [] : (tensor<f32>) -> tensor<7x10xf32>\n    %5 = stablehlo.divide %4, %3 : tensor<7x10xf32>\n    return %5 : tensor<7x10xf32>\n  }\n}\n",
    "metadata": {
      "category": "math",
      "operation": "sigmoid",
      "description": "Math function: sigmoid"
    }
  },
  {
    "python_code": "lambda x: jnp.abs(x)",
    "input_info": [
      {
        "shape": [
          3
        ],
        "dtype": "float32"
      }
    ],
    "jaxpr": "{ lambda ; a:f32[3]. let b:f32[3] = abs a in (b,) }",
    "stablehlo": "module @jit__lambda attributes {mhlo.num_partitions = 1 : i32, mhlo.num_replicas = 1 : i32} {\n  func.func public @main(%arg0: tensor<3xf32>) -> (tensor<3xf32> {jax.result_info = \"result\"}) {\n    %0 = stablehlo.abs %arg0 : tensor<3xf32>\n    return %0 : tensor<3xf32>\n  }\n}\n",
    "metadata": {
      "category": "math",
      "operation": "abs",
      "description": "Math function: abs"
    }
  },
  {
    "python_code": "lambda x: jnp.log(x + 1.0)",
    "input_info": [
      {
        "shape": [
          7
        ],
        "dtype": "float32"
      }
    ],
    "jaxpr": "{ lambda ; a:f32[7]. let b:f32[7] = add a 1.0:f32[]; c:f32[7] = log b in (c,) }",
    "stablehlo": "module @jit__lambda attributes {mhlo.num_partitions = 1 : i32, mhlo.num_replicas = 1 : i32} {\n  func.func public @main(%arg0: tensor<7xf32>) -> (tensor<7xf32> {jax.result_info = \"result\"}) {\n    %cst = stablehlo.constant dense<1.000000e+00> : tensor<f32>\n    %0 = stablehlo.broadcast_in_dim %cst, dims = [] : (tensor<f32>) -> tensor<7xf32>\n    %1 = stablehlo.add %arg0, %0 : tensor<7xf32>\n    %2 = stablehlo.log %1 : tensor<7xf32>\n    return %2 : tensor<7xf32>\n  }\n}\n",
    "metadata": {
      "category": "math",
      "operation": "log",
      "description": "Math function: log"
    }
  },
  {
    "python_code": "lambda x: jnp.tanh(x)",
    "input_info": [
      {
        "shape": [
          9,
          3
        ],
        "dtype": "float32"
      }
    ],
    "jaxpr": "{ lambda ; a:f32[9,3]. let b:f32[9,3] = tanh a in (b,) }",
    "stablehlo": "module @jit__lambda attributes {mhlo.num_partitions = 1 : i32, mhlo.num_replicas = 1 : i32} {\n  func.func public @main(%arg0: tensor<9x3xf32>) -> (tensor<9x3xf32> {jax.result_info = \"result\"}) {\n    %0 = stablehlo.tanh %arg0 : tensor<9x3xf32>\n    return %0 : tensor<9x3xf32>\n  }\n}\n",
    "metadata": {
      "category": "math",
      "operation": "tanh",
      "description": "Math function: tanh"
    }
  },
  {
    "python_code": "lambda x: jnp.exp(x)",
    "input_info": [
      {
        "shape": [
          2,
          6,
          2
        ],
        "dtype": "float32"
      }
    ],
    "jaxpr": "{ lambda ; a:f32[2,6,2]. let b:f32[2,6,2] = exp a in (b,) }",
    "stablehlo": "module @jit__lambda attributes {mhlo.num_partitions = 1 : i32, mhlo.num_replicas = 1 : i32} {\n  func.func public @main(%arg0: tensor<2x6x2xf32>) -> (tensor<2x6x2xf32> {jax.result_info = \"result\"}) {\n    %0 = stablehlo.exponential %arg0 : tensor<2x6x2xf32>\n    return %0 : tensor<2x6x2xf32>\n  }\n}\n",
    "metadata": {
      "category": "math",
      "operation": "exp",
      "description": "Math function: exp"
    }
  },
  {
    "python_code": "lambda x: jnp.tanh(x)",
    "input_info": [
      {
        "shape": [
          4,
          9,
          9
        ],
        "dtype": "float32"
      }
    ],
    "jaxpr": "{ lambda ; a:f32[4,9,9]. let b:f32[4,9,9] = tanh a in (b,) }",
    "stablehlo": "module @jit__lambda attributes {mhlo.num_partitions = 1 : i32, mhlo.num_replicas = 1 : i32} {\n  func.func public @main(%arg0: tensor<4x9x9xf32>) -> (tensor<4x9x9xf32> {jax.result_info = \"result\"}) {\n    %0 = stablehlo.tanh %arg0 : tensor<4x9x9xf32>\n    return %0 : tensor<4x9x9xf32>\n  }\n}\n",
    "metadata": {
      "category": "math",
      "operation": "tanh",
      "description": "Math function: tanh"
    }
  },
  {
    "python_code": "lambda x: jnp.log(x + 1.0)",
    "input_info": [
      {
        "shape": [
          9,
          3,
          7
        ],
        "dtype": "float32"
      }
    ],
    "jaxpr": "{ lambda ; a:f32[9,3,7]. let\n    b:f32[9,3,7] = add a 1.0:f32[]\n    c:f32[9,3,7] = log b\n  in (c,) }",
    "stablehlo": "module @jit__lambda attributes {mhlo.num_partitions = 1 : i32, mhlo.num_replicas = 1 : i32} {\n  func.func public @main(%arg0: tensor<9x3x7xf32>) -> (tensor<9x3x7xf32> {jax.result_info = \"result\"}) {\n    %cst = stablehlo.constant dense<1.000000e+00> : tensor<f32>\n    %0 = stablehlo.broadcast_in_dim %cst, dims = [] : (tensor<f32>) -> tensor<9x3x7xf32>\n    %1 = stablehlo.add %arg0, %0 : tensor<9x3x7xf32>\n    %2 = stablehlo.log %1 : tensor<9x3x7xf32>\n    return %2 : tensor<9x3x7xf32>\n  }\n}\n",
    "metadata": {
      "category": "math",
      "operation": "log",
      "description": "Math function: log"
    }
  },
  {
    "python_code": "lambda x: jnp.cos(x)",
    "input_info": [
      {
        "shape": [
          2,
          5,
          7
        ],
        "dtype": "float32"
      }
    ],
    "jaxpr": "{ lambda ; a:f32[2,5,7]. let b:f32[2,5,7] = cos a in (b,) }",
    "stablehlo": "module @jit__lambda attributes {mhlo.num_partitions = 1 : i32, mhlo.num_replicas = 1 : i32} {\n  func.func public @main(%arg0: tensor<2x5x7xf32>) -> (tensor<2x5x7xf32> {jax.result_info = \"result\"}) {\n    %0 = stablehlo.cosine %arg0 : tensor<2x5x7xf32>\n    return %0 : tensor<2x5x7xf32>\n  }\n}\n",
    "metadata": {
      "category": "math",
      "operation": "cos",
      "description": "Math function: cos"
    }
  },
  {
    "python_code": "lambda x: jnp.sqrt(jnp.abs(x))",
    "input_info": [
      {
        "shape": [
          8,
          8,
          6
        ],
        "dtype": "float32"
      }
    ],
    "jaxpr": "{ lambda ; a:f32[8,8,6]. let\n    b:f32[8,8,6] = abs a\n    c:f32[8,8,6] = sqrt b\n  in (c,) }",
    "stablehlo": "module @jit__lambda attributes {mhlo.num_partitions = 1 : i32, mhlo.num_replicas = 1 : i32} {\n  func.func public @main(%arg0: tensor<8x8x6xf32>) -> (tensor<8x8x6xf32> {jax.result_info = \"result\"}) {\n    %0 = stablehlo.abs %arg0 : tensor<8x8x6xf32>\n    %1 = stablehlo.sqrt %0 : tensor<8x8x6xf32>\n    return %1 : tensor<8x8x6xf32>\n  }\n}\n",
    "metadata": {
      "category": "math",
      "operation": "sqrt",
      "description": "Math function: sqrt"
    }
  },
  {
    "python_code": "lambda x: jnp.log(x + 1.0)",
    "input_info": [
      {
        "shape": [
          7,
          4,
          2
        ],
        "dtype": "float32"
      }
    ],
    "jaxpr": "{ lambda ; a:f32[7,4,2]. let\n    b:f32[7,4,2] = add a 1.0:f32[]\n    c:f32[7,4,2] = log b\n  in (c,) }",
    "stablehlo": "module @jit__lambda attributes {mhlo.num_partitions = 1 : i32, mhlo.num_replicas = 1 : i32} {\n  func.func public @main(%arg0: tensor<7x4x2xf32>) -> (tensor<7x4x2xf32> {jax.result_info = \"result\"}) {\n    %cst = stablehlo.constant dense<1.000000e+00> : tensor<f32>\n    %0 = stablehlo.broadcast_in_dim %cst, dims = [] : (tensor<f32>) -> tensor<7x4x2xf32>\n    %1 = stablehlo.add %arg0, %0 : tensor<7x4x2xf32>\n    %2 = stablehlo.log %1 : tensor<7x4x2xf32>\n    return %2 : tensor<7x4x2xf32>\n  }\n}\n",
    "metadata": {
      "category": "math",
      "operation": "log",
      "description": "Math function: log"
    }
  },
  {
    "python_code": "lambda x: jnp.abs(x)",
    "input_info": [
      {
        "shape": [
          7,
          5,
          4
        ],
        "dtype": "float32"
      }
    ],
    "jaxpr": "{ lambda ; a:f32[7,5,4]. let b:f32[7,5,4] = abs a in (b,) }",
    "stablehlo": "module @jit__lambda attributes {mhlo.num_partitions = 1 : i32, mhlo.num_replicas = 1 : i32} {\n  func.func public @main(%arg0: tensor<7x5x4xf32>) -> (tensor<7x5x4xf32> {jax.result_info = \"result\"}) {\n    %0 = stablehlo.abs %arg0 : tensor<7x5x4xf32>\n    return %0 : tensor<7x5x4xf32>\n  }\n}\n",
    "metadata": {
      "category": "math",
      "operation": "abs",
      "description": "Math function: abs"
    }
  },
  {
    "python_code": "lambda x: jnp.sqrt(jnp.abs(x))",
    "input_info": [
      {
        "shape": [
          9,
          10
        ],
        "dtype": "float32"
      }
    ],
    "jaxpr": "{ lambda ; a:f32[9,10]. let b:f32[9,10] = abs a; c:f32[9,10] = sqrt b in (c,) }",
    "stablehlo": "module @jit__lambda attributes {mhlo.num_partitions = 1 : i32, mhlo.num_replicas = 1 : i32} {\n  func.func public @main(%arg0: tensor<9x10xf32>) -> (tensor<9x10xf32> {jax.result_info = \"result\"}) {\n    %0 = stablehlo.abs %arg0 : tensor<9x10xf32>\n    %1 = stablehlo.sqrt %0 : tensor<9x10xf32>\n    return %1 : tensor<9x10xf32>\n  }\n}\n",
    "metadata": {
      "category": "math",
      "operation": "sqrt",
      "description": "Math function: sqrt"
    }
  },
  {
    "python_code": "lambda x: jnp.sin(x)",
    "input_info": [
      {
        "shape": [
          5
        ],
        "dtype": "float32"
      }
    ],
    "jaxpr": "{ lambda ; a:f32[5]. let b:f32[5] = sin a in (b,) }",
    "stablehlo": "module @jit__lambda attributes {mhlo.num_partitions = 1 : i32, mhlo.num_replicas = 1 : i32} {\n  func.func public @main(%arg0: tensor<5xf32>) -> (tensor<5xf32> {jax.result_info = \"result\"}) {\n    %0 = stablehlo.sine %arg0 : tensor<5xf32>\n    return %0 : tensor<5xf32>\n  }\n}\n",
    "metadata": {
      "category": "math",
      "operation": "sin",
      "description": "Math function: sin"
    }
  },
  {
    "python_code": "lambda x: jnp.sqrt(jnp.abs(x))",
    "input_info": [
      {
        "shape": [
          8
        ],
        "dtype": "float32"
      }
    ],
    "jaxpr": "{ lambda ; a:f32[8]. let b:f32[8] = abs a; c:f32[8] = sqrt b in (c,) }",
    "stablehlo": "module @jit__lambda attributes {mhlo.num_partitions = 1 : i32, mhlo.num_replicas = 1 : i32} {\n  func.func public @main(%arg0: tensor<8xf32>) -> (tensor<8xf32> {jax.result_info = \"result\"}) {\n    %0 = stablehlo.abs %arg0 : tensor<8xf32>\n    %1 = stablehlo.sqrt %0 : tensor<8xf32>\n    return %1 : tensor<8xf32>\n  }\n}\n",
    "metadata": {
      "category": "math",
      "operation": "sqrt",
      "description": "Math function: sqrt"
    }
  },
  {
    "python_code": "lambda x: 1.0 / (1.0 + jnp.exp(-x))",
    "input_info": [
      {
        "shape": [
          4,
          3,
          6
        ],
        "dtype": "float32"
      }
    ],
    "jaxpr": "{ lambda ; a:f32[4,3,6]. let\n    b:f32[4,3,6] = neg a\n    c:f32[4,3,6] = exp b\n    d:f32[4,3,6] = add 1.0:f32[] c\n    e:f32[4,3,6] = div 1.0:f32[] d\n  in (e,) }",
    "stablehlo": "module @jit__lambda attributes {mhlo.num_partitions = 1 : i32, mhlo.num_replicas = 1 : i32} {\n  func.func public @main(%arg0: tensor<4x3x6xf32>) -> (tensor<4x3x6xf32> {jax.result_info = \"result\"}) {\n    %0 = stablehlo.negate %arg0 : tensor<4x3x6xf32>\n    %1 = stablehlo.exponential %0 : tensor<4x3x6xf32>\n    %cst = stablehlo.constant dense<1.000000e+00> : tensor<f32>\n    %2 = stablehlo.broadcast_in_dim %cst, dims = [] : (tensor<f32>) -> tensor<4x3x6xf32>\n    %3 = stablehlo.add %2, %1 : tensor<4x3x6xf32>\n    %cst_0 = stablehlo.constant dense<1.000000e+00> : tensor<f32>\n    %4 = stablehlo.broadcast_in_dim %cst_0, dims = [] : (tensor<f32>) -> tensor<4x3x6xf32>\n    %5 = stablehlo.divide %4, %3 : tensor<4x3x6xf32>\n    return %5 : tensor<4x3x6xf32>\n  }\n}\n",
    "metadata": {
      "category": "math",
      "operation": "sigmoid",
      "description": "Math function: sigmoid"
    }
  },
  {
    "python_code": "lambda x: jnp.sqrt(jnp.abs(x))",
    "input_info": [
      {
        "shape": [
          6,
          5
        ],
        "dtype": "float32"
      }
    ],
    "jaxpr": "{ lambda ; a:f32[6,5]. let b:f32[6,5] = abs a; c:f32[6,5] = sqrt b in (c,) }",
    "stablehlo": "module @jit__lambda attributes {mhlo.num_partitions = 1 : i32, mhlo.num_replicas = 1 : i32} {\n  func.func public @main(%arg0: tensor<6x5xf32>) -> (tensor<6x5xf32> {jax.result_info = \"result\"}) {\n    %0 = stablehlo.abs %arg0 : tensor<6x5xf32>\n    %1 = stablehlo.sqrt %0 : tensor<6x5xf32>\n    return %1 : tensor<6x5xf32>\n  }\n}\n",
    "metadata": {
      "category": "math",
      "operation": "sqrt",
      "description": "Math function: sqrt"
    }
  },
  {
    "python_code": "lambda x: x ** 2",
    "input_info": [
      {
        "shape": [
          7,
          2,
          8
        ],
        "dtype": "float32"
      }
    ],
    "jaxpr": "{ lambda ; a:f32[7,2,8]. let b:f32[7,2,8] = integer_pow[y=2] a in (b,) }",
    "stablehlo": "module @jit__lambda attributes {mhlo.num_partitions = 1 : i32, mhlo.num_replicas = 1 : i32} {\n  func.func public @main(%arg0: tensor<7x2x8xf32>) -> (tensor<7x2x8xf32> {jax.result_info = \"result\"}) {\n    %0 = stablehlo.multiply %arg0, %arg0 : tensor<7x2x8xf32>\n    return %0 : tensor<7x2x8xf32>\n  }\n}\n",
    "metadata": {
      "category": "math",
      "operation": "square",
      "description": "Math function: square"
    }
  },
  {
    "python_code": "lambda x: jnp.log(x + 1.0)",
    "input_info": [
      {
        "shape": [
          4,
          5,
          4
        ],
        "dtype": "float32"
      }
    ],
    "jaxpr": "{ lambda ; a:f32[4,5,4]. let\n    b:f32[4,5,4] = add a 1.0:f32[]\n    c:f32[4,5,4] = log b\n  in (c,) }",
    "stablehlo": "module @jit__lambda attributes {mhlo.num_partitions = 1 : i32, mhlo.num_replicas = 1 : i32} {\n  func.func public @main(%arg0: tensor<4x5x4xf32>) -> (tensor<4x5x4xf32> {jax.result_info = \"result\"}) {\n    %cst = stablehlo.constant dense<1.000000e+00> : tensor<f32>\n    %0 = stablehlo.broadcast_in_dim %cst, dims = [] : (tensor<f32>) -> tensor<4x5x4xf32>\n    %1 = stablehlo.add %arg0, %0 : tensor<4x5x4xf32>\n    %2 = stablehlo.log %1 : tensor<4x5x4xf32>\n    return %2 : tensor<4x5x4xf32>\n  }\n}\n",
    "metadata": {
      "category": "math",
      "operation": "log",
      "description": "Math function: log"
    }
  },
  {
    "python_code": "lambda x: jnp.log(x + 1.0)",
    "input_info": [
      {
        "shape": [
          2
        ],
        "dtype": "float32"
      }
    ],
    "jaxpr": "{ lambda ; a:f32[2]. let b:f32[2] = add a 1.0:f32[]; c:f32[2] = log b in (c,) }",
    "stablehlo": "module @jit__lambda attributes {mhlo.num_partitions = 1 : i32, mhlo.num_replicas = 1 : i32} {\n  func.func public @main(%arg0: tensor<2xf32>) -> (tensor<2xf32> {jax.result_info = \"result\"}) {\n    %cst = stablehlo.constant dense<1.000000e+00> : tensor<f32>\n    %0 = stablehlo.broadcast_in_dim %cst, dims = [] : (tensor<f32>) -> tensor<2xf32>\n    %1 = stablehlo.add %arg0, %0 : tensor<2xf32>\n    %2 = stablehlo.log %1 : tensor<2xf32>\n    return %2 : tensor<2xf32>\n  }\n}\n",
    "metadata": {
      "category": "math",
      "operation": "log",
      "description": "Math function: log"
    }
  },
  {
    "python_code": "lambda x: jnp.tanh(x)",
    "input_info": [
      {
        "shape": [
          9,
          8
        ],
        "dtype": "float32"
      }
    ],
    "jaxpr": "{ lambda ; a:f32[9,8]. let b:f32[9,8] = tanh a in (b,) }",
    "stablehlo": "module @jit__lambda attributes {mhlo.num_partitions = 1 : i32, mhlo.num_replicas = 1 : i32} {\n  func.func public @main(%arg0: tensor<9x8xf32>) -> (tensor<9x8xf32> {jax.result_info = \"result\"}) {\n    %0 = stablehlo.tanh %arg0 : tensor<9x8xf32>\n    return %0 : tensor<9x8xf32>\n  }\n}\n",
    "metadata": {
      "category": "math",
      "operation": "tanh",
      "description": "Math function: tanh"
    }
  },
  {
    "python_code": "lambda x: jnp.abs(x)",
    "input_info": [
      {
        "shape": [
          6,
          8,
          5
        ],
        "dtype": "float32"
      }
    ],
    "jaxpr": "{ lambda ; a:f32[6,8,5]. let b:f32[6,8,5] = abs a in (b,) }",
    "stablehlo": "module @jit__lambda attributes {mhlo.num_partitions = 1 : i32, mhlo.num_replicas = 1 : i32} {\n  func.func public @main(%arg0: tensor<6x8x5xf32>) -> (tensor<6x8x5xf32> {jax.result_info = \"result\"}) {\n    %0 = stablehlo.abs %arg0 : tensor<6x8x5xf32>\n    return %0 : tensor<6x8x5xf32>\n  }\n}\n",
    "metadata": {
      "category": "math",
      "operation": "abs",
      "description": "Math function: abs"
    }
  },
  {
    "python_code": "lambda x: jnp.abs(x)",
    "input_info": [
      {
        "shape": [
          9,
          7
        ],
        "dtype": "float32"
      }
    ],
    "jaxpr": "{ lambda ; a:f32[9,7]. let b:f32[9,7] = abs a in (b,) }",
    "stablehlo": "module @jit__lambda attributes {mhlo.num_partitions = 1 : i32, mhlo.num_replicas = 1 : i32} {\n  func.func public @main(%arg0: tensor<9x7xf32>) -> (tensor<9x7xf32> {jax.result_info = \"result\"}) {\n    %0 = stablehlo.abs %arg0 : tensor<9x7xf32>\n    return %0 : tensor<9x7xf32>\n  }\n}\n",
    "metadata": {
      "category": "math",
      "operation": "abs",
      "description": "Math function: abs"
    }
  },
  {
    "python_code": "lambda x: 1.0 / (1.0 + jnp.exp(-x))",
    "input_info": [
      {
        "shape": [
          5,
          2,
          9
        ],
        "dtype": "float32"
      }
    ],
    "jaxpr": "{ lambda ; a:f32[5,2,9]. let\n    b:f32[5,2,9] = neg a\n    c:f32[5,2,9] = exp b\n    d:f32[5,2,9] = add 1.0:f32[] c\n    e:f32[5,2,9] = div 1.0:f32[] d\n  in (e,) }",
    "stablehlo": "module @jit__lambda attributes {mhlo.num_partitions = 1 : i32, mhlo.num_replicas = 1 : i32} {\n  func.func public @main(%arg0: tensor<5x2x9xf32>) -> (tensor<5x2x9xf32> {jax.result_info = \"result\"}) {\n    %0 = stablehlo.negate %arg0 : tensor<5x2x9xf32>\n    %1 = stablehlo.exponential %0 : tensor<5x2x9xf32>\n    %cst = stablehlo.constant dense<1.000000e+00> : tensor<f32>\n    %2 = stablehlo.broadcast_in_dim %cst, dims = [] : (tensor<f32>) -> tensor<5x2x9xf32>\n    %3 = stablehlo.add %2, %1 : tensor<5x2x9xf32>\n    %cst_0 = stablehlo.constant dense<1.000000e+00> : tensor<f32>\n    %4 = stablehlo.broadcast_in_dim %cst_0, dims = [] : (tensor<f32>) -> tensor<5x2x9xf32>\n    %5 = stablehlo.divide %4, %3 : tensor<5x2x9xf32>\n    return %5 : tensor<5x2x9xf32>\n  }\n}\n",
    "metadata": {
      "category": "math",
      "operation": "sigmoid",
      "description": "Math function: sigmoid"
    }
  },
  {
    "python_code": "lambda x: x ** 2",
    "input_info": [
      {
        "shape": [
          3
        ],
        "dtype": "float32"
      }
    ],
    "jaxpr": "{ lambda ; a:f32[3]. let b:f32[3] = integer_pow[y=2] a in (b,) }",
    "stablehlo": "module @jit__lambda attributes {mhlo.num_partitions = 1 : i32, mhlo.num_replicas = 1 : i32} {\n  func.func public @main(%arg0: tensor<3xf32>) -> (tensor<3xf32> {jax.result_info = \"result\"}) {\n    %0 = stablehlo.multiply %arg0, %arg0 : tensor<3xf32>\n    return %0 : tensor<3xf32>\n  }\n}\n",
    "metadata": {
      "category": "math",
      "operation": "square",
      "description": "Math function: square"
    }
  },
  {
    "python_code": "lambda x: jnp.exp(x)",
    "input_info": [
      {
        "shape": [
          5,
          5,
          4
        ],
        "dtype": "float32"
      }
    ],
    "jaxpr": "{ lambda ; a:f32[5,5,4]. let b:f32[5,5,4] = exp a in (b,) }",
    "stablehlo": "module @jit__lambda attributes {mhlo.num_partitions = 1 : i32, mhlo.num_replicas = 1 : i32} {\n  func.func public @main(%arg0: tensor<5x5x4xf32>) -> (tensor<5x5x4xf32> {jax.result_info = \"result\"}) {\n    %0 = stablehlo.exponential %arg0 : tensor<5x5x4xf32>\n    return %0 : tensor<5x5x4xf32>\n  }\n}\n",
    "metadata": {
      "category": "math",
      "operation": "exp",
      "description": "Math function: exp"
    }
  },
  {
    "python_code": "lambda x: jnp.tanh(x)",
    "input_info": [
      {
        "shape": [
          2,
          5
        ],
        "dtype": "float32"
      }
    ],
    "jaxpr": "{ lambda ; a:f32[2,5]. let b:f32[2,5] = tanh a in (b,) }",
    "stablehlo": "module @jit__lambda attributes {mhlo.num_partitions = 1 : i32, mhlo.num_replicas = 1 : i32} {\n  func.func public @main(%arg0: tensor<2x5xf32>) -> (tensor<2x5xf32> {jax.result_info = \"result\"}) {\n    %0 = stablehlo.tanh %arg0 : tensor<2x5xf32>\n    return %0 : tensor<2x5xf32>\n  }\n}\n",
    "metadata": {
      "category": "math",
      "operation": "tanh",
      "description": "Math function: tanh"
    }
  },
  {
    "python_code": "lambda x: jnp.cos(x)",
    "input_info": [
      {
        "shape": [
          8,
          10,
          2
        ],
        "dtype": "float32"
      }
    ],
    "jaxpr": "{ lambda ; a:f32[8,10,2]. let b:f32[8,10,2] = cos a in (b,) }",
    "stablehlo": "module @jit__lambda attributes {mhlo.num_partitions = 1 : i32, mhlo.num_replicas = 1 : i32} {\n  func.func public @main(%arg0: tensor<8x10x2xf32>) -> (tensor<8x10x2xf32> {jax.result_info = \"result\"}) {\n    %0 = stablehlo.cosine %arg0 : tensor<8x10x2xf32>\n    return %0 : tensor<8x10x2xf32>\n  }\n}\n",
    "metadata": {
      "category": "math",
      "operation": "cos",
      "description": "Math function: cos"
    }
  },
  {
    "python_code": "lambda x: jnp.abs(x)",
    "input_info": [
      {
        "shape": [
          3
        ],
        "dtype": "float32"
      }
    ],
    "jaxpr": "{ lambda ; a:f32[3]. let b:f32[3] = abs a in (b,) }",
    "stablehlo": "module @jit__lambda attributes {mhlo.num_partitions = 1 : i32, mhlo.num_replicas = 1 : i32} {\n  func.func public @main(%arg0: tensor<3xf32>) -> (tensor<3xf32> {jax.result_info = \"result\"}) {\n    %0 = stablehlo.abs %arg0 : tensor<3xf32>\n    return %0 : tensor<3xf32>\n  }\n}\n",
    "metadata": {
      "category": "math",
      "operation": "abs",
      "description": "Math function: abs"
    }
  },
  {
    "python_code": "lambda x: 1.0 / (1.0 + jnp.exp(-x))",
    "input_info": [
      {
        "shape": [
          3,
          9,
          7
        ],
        "dtype": "float32"
      }
    ],
    "jaxpr": "{ lambda ; a:f32[3,9,7]. let\n    b:f32[3,9,7] = neg a\n    c:f32[3,9,7] = exp b\n    d:f32[3,9,7] = add 1.0:f32[] c\n    e:f32[3,9,7] = div 1.0:f32[] d\n  in (e,) }",
    "stablehlo": "module @jit__lambda attributes {mhlo.num_partitions = 1 : i32, mhlo.num_replicas = 1 : i32} {\n  func.func public @main(%arg0: tensor<3x9x7xf32>) -> (tensor<3x9x7xf32> {jax.result_info = \"result\"}) {\n    %0 = stablehlo.negate %arg0 : tensor<3x9x7xf32>\n    %1 = stablehlo.exponential %0 : tensor<3x9x7xf32>\n    %cst = stablehlo.constant dense<1.000000e+00> : tensor<f32>\n    %2 = stablehlo.broadcast_in_dim %cst, dims = [] : (tensor<f32>) -> tensor<3x9x7xf32>\n    %3 = stablehlo.add %2, %1 : tensor<3x9x7xf32>\n    %cst_0 = stablehlo.constant dense<1.000000e+00> : tensor<f32>\n    %4 = stablehlo.broadcast_in_dim %cst_0, dims = [] : (tensor<f32>) -> tensor<3x9x7xf32>\n    %5 = stablehlo.divide %4, %3 : tensor<3x9x7xf32>\n    return %5 : tensor<3x9x7xf32>\n  }\n}\n",
    "metadata": {
      "category": "math",
      "operation": "sigmoid",
      "description": "Math function: sigmoid"
    }
  },
  {
    "python_code": "lambda x: jnp.sin(x)",
    "input_info": [
      {
        "shape": [
          8,
          2,
          4
        ],
        "dtype": "float32"
      }
    ],
    "jaxpr": "{ lambda ; a:f32[8,2,4]. let b:f32[8,2,4] = sin a in (b,) }",
    "stablehlo": "module @jit__lambda attributes {mhlo.num_partitions = 1 : i32, mhlo.num_replicas = 1 : i32} {\n  func.func public @main(%arg0: tensor<8x2x4xf32>) -> (tensor<8x2x4xf32> {jax.result_info = \"result\"}) {\n    %0 = stablehlo.sine %arg0 : tensor<8x2x4xf32>\n    return %0 : tensor<8x2x4xf32>\n  }\n}\n",
    "metadata": {
      "category": "math",
      "operation": "sin",
      "description": "Math function: sin"
    }
  },
  {
    "python_code": "lambda x: jnp.abs(x)",
    "input_info": [
      {
        "shape": [
          5,
          6
        ],
        "dtype": "float32"
      }
    ],
    "jaxpr": "{ lambda ; a:f32[5,6]. let b:f32[5,6] = abs a in (b,) }",
    "stablehlo": "module @jit__lambda attributes {mhlo.num_partitions = 1 : i32, mhlo.num_replicas = 1 : i32} {\n  func.func public @main(%arg0: tensor<5x6xf32>) -> (tensor<5x6xf32> {jax.result_info = \"result\"}) {\n    %0 = stablehlo.abs %arg0 : tensor<5x6xf32>\n    return %0 : tensor<5x6xf32>\n  }\n}\n",
    "metadata": {
      "category": "math",
      "operation": "abs",
      "description": "Math function: abs"
    }
  },
  {
    "python_code": "lambda x: jnp.tanh(x)",
    "input_info": [
      {
        "shape": [
          10,
          9,
          10
        ],
        "dtype": "float32"
      }
    ],
    "jaxpr": "{ lambda ; a:f32[10,9,10]. let b:f32[10,9,10] = tanh a in (b,) }",
    "stablehlo": "module @jit__lambda attributes {mhlo.num_partitions = 1 : i32, mhlo.num_replicas = 1 : i32} {\n  func.func public @main(%arg0: tensor<10x9x10xf32>) -> (tensor<10x9x10xf32> {jax.result_info = \"result\"}) {\n    %0 = stablehlo.tanh %arg0 : tensor<10x9x10xf32>\n    return %0 : tensor<10x9x10xf32>\n  }\n}\n",
    "metadata": {
      "category": "math",
      "operation": "tanh",
      "description": "Math function: tanh"
    }
  },
  {
    "python_code": "lambda x: x ** 2",
    "input_info": [
      {
        "shape": [
          7
        ],
        "dtype": "float32"
      }
    ],
    "jaxpr": "{ lambda ; a:f32[7]. let b:f32[7] = integer_pow[y=2] a in (b,) }",
    "stablehlo": "module @jit__lambda attributes {mhlo.num_partitions = 1 : i32, mhlo.num_replicas = 1 : i32} {\n  func.func public @main(%arg0: tensor<7xf32>) -> (tensor<7xf32> {jax.result_info = \"result\"}) {\n    %0 = stablehlo.multiply %arg0, %arg0 : tensor<7xf32>\n    return %0 : tensor<7xf32>\n  }\n}\n",
    "metadata": {
      "category": "math",
      "operation": "square",
      "description": "Math function: square"
    }
  },
  {
    "python_code": "lambda x: jnp.abs(x)",
    "input_info": [
      {
        "shape": [
          4,
          3
        ],
        "dtype": "float32"
      }
    ],
    "jaxpr": "{ lambda ; a:f32[4,3]. let b:f32[4,3] = abs a in (b,) }",
    "stablehlo": "module @jit__lambda attributes {mhlo.num_partitions = 1 : i32, mhlo.num_replicas = 1 : i32} {\n  func.func public @main(%arg0: tensor<4x3xf32>) -> (tensor<4x3xf32> {jax.result_info = \"result\"}) {\n    %0 = stablehlo.abs %arg0 : tensor<4x3xf32>\n    return %0 : tensor<4x3xf32>\n  }\n}\n",
    "metadata": {
      "category": "math",
      "operation": "abs",
      "description": "Math function: abs"
    }
  },
  {
    "python_code": "lambda x: jnp.log(x + 1.0)",
    "input_info": [
      {
        "shape": [
          9
        ],
        "dtype": "float32"
      }
    ],
    "jaxpr": "{ lambda ; a:f32[9]. let b:f32[9] = add a 1.0:f32[]; c:f32[9] = log b in (c,) }",
    "stablehlo": "module @jit__lambda attributes {mhlo.num_partitions = 1 : i32, mhlo.num_replicas = 1 : i32} {\n  func.func public @main(%arg0: tensor<9xf32>) -> (tensor<9xf32> {jax.result_info = \"result\"}) {\n    %cst = stablehlo.constant dense<1.000000e+00> : tensor<f32>\n    %0 = stablehlo.broadcast_in_dim %cst, dims = [] : (tensor<f32>) -> tensor<9xf32>\n    %1 = stablehlo.add %arg0, %0 : tensor<9xf32>\n    %2 = stablehlo.log %1 : tensor<9xf32>\n    return %2 : tensor<9xf32>\n  }\n}\n",
    "metadata": {
      "category": "math",
      "operation": "log",
      "description": "Math function: log"
    }
  },
  {
    "python_code": "lambda x: x ** 2",
    "input_info": [
      {
        "shape": [
          6
        ],
        "dtype": "float32"
      }
    ],
    "jaxpr": "{ lambda ; a:f32[6]. let b:f32[6] = integer_pow[y=2] a in (b,) }",
    "stablehlo": "module @jit__lambda attributes {mhlo.num_partitions = 1 : i32, mhlo.num_replicas = 1 : i32} {\n  func.func public @main(%arg0: tensor<6xf32>) -> (tensor<6xf32> {jax.result_info = \"result\"}) {\n    %0 = stablehlo.multiply %arg0, %arg0 : tensor<6xf32>\n    return %0 : tensor<6xf32>\n  }\n}\n",
    "metadata": {
      "category": "math",
      "operation": "square",
      "description": "Math function: square"
    }
  },
  {
    "python_code": "lambda x: jnp.abs(x)",
    "input_info": [
      {
        "shape": [
          9,
          5
        ],
        "dtype": "float32"
      }
    ],
    "jaxpr": "{ lambda ; a:f32[9,5]. let b:f32[9,5] = abs a in (b,) }",
    "stablehlo": "module @jit__lambda attributes {mhlo.num_partitions = 1 : i32, mhlo.num_replicas = 1 : i32} {\n  func.func public @main(%arg0: tensor<9x5xf32>) -> (tensor<9x5xf32> {jax.result_info = \"result\"}) {\n    %0 = stablehlo.abs %arg0 : tensor<9x5xf32>\n    return %0 : tensor<9x5xf32>\n  }\n}\n",
    "metadata": {
      "category": "math",
      "operation": "abs",
      "description": "Math function: abs"
    }
  },
  {
    "python_code": "lambda x: x ** 2",
    "input_info": [
      {
        "shape": [
          5,
          2,
          4
        ],
        "dtype": "float32"
      }
    ],
    "jaxpr": "{ lambda ; a:f32[5,2,4]. let b:f32[5,2,4] = integer_pow[y=2] a in (b,) }",
    "stablehlo": "module @jit__lambda attributes {mhlo.num_partitions = 1 : i32, mhlo.num_replicas = 1 : i32} {\n  func.func public @main(%arg0: tensor<5x2x4xf32>) -> (tensor<5x2x4xf32> {jax.result_info = \"result\"}) {\n    %0 = stablehlo.multiply %arg0, %arg0 : tensor<5x2x4xf32>\n    return %0 : tensor<5x2x4xf32>\n  }\n}\n",
    "metadata": {
      "category": "math",
      "operation": "square",
      "description": "Math function: square"
    }
  },
  {
    "python_code": "lambda x: jnp.exp(x)",
    "input_info": [
      {
        "shape": [
          5
        ],
        "dtype": "float32"
      }
    ],
    "jaxpr": "{ lambda ; a:f32[5]. let b:f32[5] = exp a in (b,) }",
    "stablehlo": "module @jit__lambda attributes {mhlo.num_partitions = 1 : i32, mhlo.num_replicas = 1 : i32} {\n  func.func public @main(%arg0: tensor<5xf32>) -> (tensor<5xf32> {jax.result_info = \"result\"}) {\n    %0 = stablehlo.exponential %arg0 : tensor<5xf32>\n    return %0 : tensor<5xf32>\n  }\n}\n",
    "metadata": {
      "category": "math",
      "operation": "exp",
      "description": "Math function: exp"
    }
  },
  {
    "python_code": "lambda x: jnp.sin(x)",
    "input_info": [
      {
        "shape": [
          7
        ],
        "dtype": "float32"
      }
    ],
    "jaxpr": "{ lambda ; a:f32[7]. let b:f32[7] = sin a in (b,) }",
    "stablehlo": "module @jit__lambda attributes {mhlo.num_partitions = 1 : i32, mhlo.num_replicas = 1 : i32} {\n  func.func public @main(%arg0: tensor<7xf32>) -> (tensor<7xf32> {jax.result_info = \"result\"}) {\n    %0 = stablehlo.sine %arg0 : tensor<7xf32>\n    return %0 : tensor<7xf32>\n  }\n}\n",
    "metadata": {
      "category": "math",
      "operation": "sin",
      "description": "Math function: sin"
    }
  },
  {
    "python_code": "lambda x: jnp.abs(x)",
    "input_info": [
      {
        "shape": [
          7
        ],
        "dtype": "float32"
      }
    ],
    "jaxpr": "{ lambda ; a:f32[7]. let b:f32[7] = abs a in (b,) }",
    "stablehlo": "module @jit__lambda attributes {mhlo.num_partitions = 1 : i32, mhlo.num_replicas = 1 : i32} {\n  func.func public @main(%arg0: tensor<7xf32>) -> (tensor<7xf32> {jax.result_info = \"result\"}) {\n    %0 = stablehlo.abs %arg0 : tensor<7xf32>\n    return %0 : tensor<7xf32>\n  }\n}\n",
    "metadata": {
      "category": "math",
      "operation": "abs",
      "description": "Math function: abs"
    }
  }
]