[
  {
    "python_code": "lambda x: jnp.transpose(x)",
    "input_info": [
      {
        "shape": [
          7
        ],
        "dtype": "float32"
      }
    ],
    "jaxpr": "{ lambda ; a:f32[7]. let  in (a,) }",
    "stablehlo": "module @jit__lambda attributes {mhlo.num_partitions = 1 : i32, mhlo.num_replicas = 1 : i32} {\n  func.func public @main(%arg0: tensor<7xf32>) -> (tensor<7xf32> {jax.result_info = \"result\"}) {\n    return %arg0 : tensor<7xf32>\n  }\n}\n",
    "metadata": {
      "category": "array",
      "operation": "transpose",
      "description": "Array operation: transpose"
    }
  },
  {
    "python_code": "lambda x: jnp.reshape(x, (54,))",
    "input_info": [
      {
        "shape": [
          6,
          9
        ],
        "dtype": "float32"
      }
    ],
    "jaxpr": "{ lambda ; a:f32[6,9]. let\n    b:f32[54] = reshape[dimensions=None new_sizes=(54,) sharding=None] a\n  in (b,) }",
    "stablehlo": "module @jit__lambda attributes {mhlo.num_partitions = 1 : i32, mhlo.num_replicas = 1 : i32} {\n  func.func public @main(%arg0: tensor<6x9xf32>) -> (tensor<54xf32> {jax.result_info = \"result\"}) {\n    %0 = stablehlo.reshape %arg0 : (tensor<6x9xf32>) -> tensor<54xf32>\n    return %0 : tensor<54xf32>\n  }\n}\n",
    "metadata": {
      "category": "array",
      "operation": "reshape",
      "description": "Array operation: reshape"
    }
  },
  {
    "python_code": "lambda x: x[1:]",
    "input_info": [
      {
        "shape": [
          9
        ],
        "dtype": "float32"
      }
    ],
    "jaxpr": "{ lambda ; a:f32[9]. let\n    b:f32[8] = slice[limit_indices=(9,) start_indices=(1,) strides=None] a\n  in (b,) }",
    "stablehlo": "module @jit__lambda attributes {mhlo.num_partitions = 1 : i32, mhlo.num_replicas = 1 : i32} {\n  func.func public @main(%arg0: tensor<9xf32>) -> (tensor<8xf32> {jax.result_info = \"result\"}) {\n    %0 = stablehlo.slice %arg0 [1:9] : (tensor<9xf32>) -> tensor<8xf32>\n    return %0 : tensor<8xf32>\n  }\n}\n",
    "metadata": {
      "category": "array",
      "operation": "slice",
      "description": "Array operation: slice"
    }
  },
  {
    "python_code": "lambda x, y: jnp.concatenate([x, y], axis=0)",
    "input_info": [
      {
        "shape": [
          7
        ],
        "dtype": "float32"
      },
      {
        "shape": [
          7
        ],
        "dtype": "float32"
      }
    ],
    "jaxpr": "{ lambda ; a:f32[7] b:f32[7]. let\n    c:f32[14] = concatenate[dimension=0] a b\n  in (c,) }",
    "stablehlo": "module @jit__lambda attributes {mhlo.num_partitions = 1 : i32, mhlo.num_replicas = 1 : i32} {\n  func.func public @main(%arg0: tensor<7xf32>, %arg1: tensor<7xf32>) -> (tensor<14xf32> {jax.result_info = \"result\"}) {\n    %0 = stablehlo.concatenate %arg0, %arg1, dim = 0 : (tensor<7xf32>, tensor<7xf32>) -> tensor<14xf32>\n    return %0 : tensor<14xf32>\n  }\n}\n",
    "metadata": {
      "category": "array",
      "operation": "concatenate",
      "description": "Array operation: concatenate"
    }
  },
  {
    "python_code": "lambda x: jnp.transpose(x)",
    "input_info": [
      {
        "shape": [
          10,
          9,
          6
        ],
        "dtype": "float32"
      }
    ],
    "jaxpr": "{ lambda ; a:f32[10,9,6]. let\n    b:f32[6,9,10] = transpose[permutation=(2, 1, 0)] a\n  in (b,) }",
    "stablehlo": "module @jit__lambda attributes {mhlo.num_partitions = 1 : i32, mhlo.num_replicas = 1 : i32} {\n  func.func public @main(%arg0: tensor<10x9x6xf32>) -> (tensor<6x9x10xf32> {jax.result_info = \"result\"}) {\n    %0 = stablehlo.transpose %arg0, dims = [2, 1, 0] : (tensor<10x9x6xf32>) -> tensor<6x9x10xf32>\n    return %0 : tensor<6x9x10xf32>\n  }\n}\n",
    "metadata": {
      "category": "array",
      "operation": "transpose",
      "description": "Array operation: transpose"
    }
  },
  {
    "python_code": "lambda x: jnp.reshape(x, (7,))",
    "input_info": [
      {
        "shape": [
          7
        ],
        "dtype": "float32"
      }
    ],
    "jaxpr": "{ lambda ; a:f32[7]. let  in (a,) }",
    "stablehlo": "module @jit__lambda attributes {mhlo.num_partitions = 1 : i32, mhlo.num_replicas = 1 : i32} {\n  func.func public @main(%arg0: tensor<7xf32>) -> (tensor<7xf32> {jax.result_info = \"result\"}) {\n    return %arg0 : tensor<7xf32>\n  }\n}\n",
    "metadata": {
      "category": "array",
      "operation": "reshape",
      "description": "Array operation: reshape"
    }
  },
  {
    "python_code": "lambda x, y: jnp.concatenate([x, y], axis=0)",
    "input_info": [
      {
        "shape": [
          9,
          10,
          5
        ],
        "dtype": "float32"
      },
      {
        "shape": [
          9,
          10,
          5
        ],
        "dtype": "float32"
      }
    ],
    "jaxpr": "{ lambda ; a:f32[9,10,5] b:f32[9,10,5]. let\n    c:f32[18,10,5] = concatenate[dimension=0] a b\n  in (c,) }",
    "stablehlo": "module @jit__lambda attributes {mhlo.num_partitions = 1 : i32, mhlo.num_replicas = 1 : i32} {\n  func.func public @main(%arg0: tensor<9x10x5xf32>, %arg1: tensor<9x10x5xf32>) -> (tensor<18x10x5xf32> {jax.result_info = \"result\"}) {\n    %0 = stablehlo.concatenate %arg0, %arg1, dim = 0 : (tensor<9x10x5xf32>, tensor<9x10x5xf32>) -> tensor<18x10x5xf32>\n    return %0 : tensor<18x10x5xf32>\n  }\n}\n",
    "metadata": {
      "category": "array",
      "operation": "concatenate",
      "description": "Array operation: concatenate"
    }
  },
  {
    "python_code": "lambda x: jnp.transpose(x)",
    "input_info": [
      {
        "shape": [
          9
        ],
        "dtype": "float32"
      }
    ],
    "jaxpr": "{ lambda ; a:f32[9]. let  in (a,) }",
    "stablehlo": "module @jit__lambda attributes {mhlo.num_partitions = 1 : i32, mhlo.num_replicas = 1 : i32} {\n  func.func public @main(%arg0: tensor<9xf32>) -> (tensor<9xf32> {jax.result_info = \"result\"}) {\n    return %arg0 : tensor<9xf32>\n  }\n}\n",
    "metadata": {
      "category": "array",
      "operation": "transpose",
      "description": "Array operation: transpose"
    }
  },
  {
    "python_code": "lambda x: jnp.reshape(x, (2,))",
    "input_info": [
      {
        "shape": [
          2
        ],
        "dtype": "float32"
      }
    ],
    "jaxpr": "{ lambda ; a:f32[2]. let  in (a,) }",
    "stablehlo": "module @jit__lambda attributes {mhlo.num_partitions = 1 : i32, mhlo.num_replicas = 1 : i32} {\n  func.func public @main(%arg0: tensor<2xf32>) -> (tensor<2xf32> {jax.result_info = \"result\"}) {\n    return %arg0 : tensor<2xf32>\n  }\n}\n",
    "metadata": {
      "category": "array",
      "operation": "reshape",
      "description": "Array operation: reshape"
    }
  },
  {
    "python_code": "lambda x, y: jnp.stack([x, y])",
    "input_info": [
      {
        "shape": [
          8,
          10,
          3
        ],
        "dtype": "float32"
      },
      {
        "shape": [
          8,
          10,
          3
        ],
        "dtype": "float32"
      }
    ],
    "jaxpr": "{ lambda ; a:f32[8,10,3] b:f32[8,10,3]. let\n    c:f32[1,8,10,3] = broadcast_in_dim[\n      broadcast_dimensions=(1, 2, 3)\n      shape=(1, 8, 10, 3)\n      sharding=None\n    ] a\n    d:f32[1,8,10,3] = broadcast_in_dim[\n      broadcast_dimensions=(1, 2, 3)\n      shape=(1, 8, 10, 3)\n      sharding=None\n    ] b\n    e:f32[2,8,10,3] = concatenate[dimension=0] c d\n  in (e,) }",
    "stablehlo": "module @jit__lambda attributes {mhlo.num_partitions = 1 : i32, mhlo.num_replicas = 1 : i32} {\n  func.func public @main(%arg0: tensor<8x10x3xf32>, %arg1: tensor<8x10x3xf32>) -> (tensor<2x8x10x3xf32> {jax.result_info = \"result\"}) {\n    %0 = stablehlo.broadcast_in_dim %arg0, dims = [1, 2, 3] : (tensor<8x10x3xf32>) -> tensor<1x8x10x3xf32>\n    %1 = stablehlo.broadcast_in_dim %arg1, dims = [1, 2, 3] : (tensor<8x10x3xf32>) -> tensor<1x8x10x3xf32>\n    %2 = stablehlo.concatenate %0, %1, dim = 0 : (tensor<1x8x10x3xf32>, tensor<1x8x10x3xf32>) -> tensor<2x8x10x3xf32>\n    return %2 : tensor<2x8x10x3xf32>\n  }\n}\n",
    "metadata": {
      "category": "array",
      "operation": "stack",
      "description": "Array operation: stack"
    }
  },
  {
    "python_code": "lambda x: x.T",
    "input_info": [
      {
        "shape": [
          8,
          2
        ],
        "dtype": "float32"
      }
    ],
    "jaxpr": "{ lambda ; a:f32[8,2]. let\n    b:f32[2,8] = transpose[permutation=(1, 0)] a\n  in (b,) }",
    "stablehlo": "module @jit__lambda attributes {mhlo.num_partitions = 1 : i32, mhlo.num_replicas = 1 : i32} {\n  func.func public @main(%arg0: tensor<8x2xf32>) -> (tensor<2x8xf32> {jax.result_info = \"result\"}) {\n    %0 = stablehlo.transpose %arg0, dims = [1, 0] : (tensor<8x2xf32>) -> tensor<2x8xf32>\n    return %0 : tensor<2x8xf32>\n  }\n}\n",
    "metadata": {
      "category": "array",
      "operation": "transpose",
      "description": "Array operation: transpose"
    }
  },
  {
    "python_code": "lambda x: jnp.reshape(x, (350,))",
    "input_info": [
      {
        "shape": [
          7,
          10,
          5
        ],
        "dtype": "float32"
      }
    ],
    "jaxpr": "{ lambda ; a:f32[7,10,5]. let\n    b:f32[350] = reshape[dimensions=None new_sizes=(350,) sharding=None] a\n  in (b,) }",
    "stablehlo": "module @jit__lambda attributes {mhlo.num_partitions = 1 : i32, mhlo.num_replicas = 1 : i32} {\n  func.func public @main(%arg0: tensor<7x10x5xf32>) -> (tensor<350xf32> {jax.result_info = \"result\"}) {\n    %0 = stablehlo.reshape %arg0 : (tensor<7x10x5xf32>) -> tensor<350xf32>\n    return %0 : tensor<350xf32>\n  }\n}\n",
    "metadata": {
      "category": "array",
      "operation": "reshape",
      "description": "Array operation: reshape"
    }
  },
  {
    "python_code": "lambda x: jnp.transpose(x)",
    "input_info": [
      {
        "shape": [
          9
        ],
        "dtype": "float32"
      }
    ],
    "jaxpr": "{ lambda ; a:f32[9]. let  in (a,) }",
    "stablehlo": "module @jit__lambda attributes {mhlo.num_partitions = 1 : i32, mhlo.num_replicas = 1 : i32} {\n  func.func public @main(%arg0: tensor<9xf32>) -> (tensor<9xf32> {jax.result_info = \"result\"}) {\n    return %arg0 : tensor<9xf32>\n  }\n}\n",
    "metadata": {
      "category": "array",
      "operation": "transpose",
      "description": "Array operation: transpose"
    }
  },
  {
    "python_code": "lambda x: jnp.transpose(x)",
    "input_info": [
      {
        "shape": [
          10
        ],
        "dtype": "float32"
      }
    ],
    "jaxpr": "{ lambda ; a:f32[10]. let  in (a,) }",
    "stablehlo": "module @jit__lambda attributes {mhlo.num_partitions = 1 : i32, mhlo.num_replicas = 1 : i32} {\n  func.func public @main(%arg0: tensor<10xf32>) -> (tensor<10xf32> {jax.result_info = \"result\"}) {\n    return %arg0 : tensor<10xf32>\n  }\n}\n",
    "metadata": {
      "category": "array",
      "operation": "transpose",
      "description": "Array operation: transpose"
    }
  },
  {
    "python_code": "lambda x: jnp.transpose(x)",
    "input_info": [
      {
        "shape": [
          7,
          10,
          6
        ],
        "dtype": "float32"
      }
    ],
    "jaxpr": "{ lambda ; a:f32[7,10,6]. let\n    b:f32[6,10,7] = transpose[permutation=(2, 1, 0)] a\n  in (b,) }",
    "stablehlo": "module @jit__lambda attributes {mhlo.num_partitions = 1 : i32, mhlo.num_replicas = 1 : i32} {\n  func.func public @main(%arg0: tensor<7x10x6xf32>) -> (tensor<6x10x7xf32> {jax.result_info = \"result\"}) {\n    %0 = stablehlo.transpose %arg0, dims = [2, 1, 0] : (tensor<7x10x6xf32>) -> tensor<6x10x7xf32>\n    return %0 : tensor<6x10x7xf32>\n  }\n}\n",
    "metadata": {
      "category": "array",
      "operation": "transpose",
      "description": "Array operation: transpose"
    }
  },
  {
    "python_code": "lambda x: jnp.transpose(x)",
    "input_info": [
      {
        "shape": [
          5
        ],
        "dtype": "float32"
      }
    ],
    "jaxpr": "{ lambda ; a:f32[5]. let  in (a,) }",
    "stablehlo": "module @jit__lambda attributes {mhlo.num_partitions = 1 : i32, mhlo.num_replicas = 1 : i32} {\n  func.func public @main(%arg0: tensor<5xf32>) -> (tensor<5xf32> {jax.result_info = \"result\"}) {\n    return %arg0 : tensor<5xf32>\n  }\n}\n",
    "metadata": {
      "category": "array",
      "operation": "transpose",
      "description": "Array operation: transpose"
    }
  },
  {
    "python_code": "lambda x, y: jnp.concatenate([x, y], axis=0)",
    "input_info": [
      {
        "shape": [
          5
        ],
        "dtype": "float32"
      },
      {
        "shape": [
          5
        ],
        "dtype": "float32"
      }
    ],
    "jaxpr": "{ lambda ; a:f32[5] b:f32[5]. let\n    c:f32[10] = concatenate[dimension=0] a b\n  in (c,) }",
    "stablehlo": "module @jit__lambda attributes {mhlo.num_partitions = 1 : i32, mhlo.num_replicas = 1 : i32} {\n  func.func public @main(%arg0: tensor<5xf32>, %arg1: tensor<5xf32>) -> (tensor<10xf32> {jax.result_info = \"result\"}) {\n    %0 = stablehlo.concatenate %arg0, %arg1, dim = 0 : (tensor<5xf32>, tensor<5xf32>) -> tensor<10xf32>\n    return %0 : tensor<10xf32>\n  }\n}\n",
    "metadata": {
      "category": "array",
      "operation": "concatenate",
      "description": "Array operation: concatenate"
    }
  },
  {
    "python_code": "lambda x: jnp.transpose(x)",
    "input_info": [
      {
        "shape": [
          9
        ],
        "dtype": "float32"
      }
    ],
    "jaxpr": "{ lambda ; a:f32[9]. let  in (a,) }",
    "stablehlo": "module @jit__lambda attributes {mhlo.num_partitions = 1 : i32, mhlo.num_replicas = 1 : i32} {\n  func.func public @main(%arg0: tensor<9xf32>) -> (tensor<9xf32> {jax.result_info = \"result\"}) {\n    return %arg0 : tensor<9xf32>\n  }\n}\n",
    "metadata": {
      "category": "array",
      "operation": "transpose",
      "description": "Array operation: transpose"
    }
  },
  {
    "python_code": "lambda x: jnp.transpose(x)",
    "input_info": [
      {
        "shape": [
          6
        ],
        "dtype": "float32"
      }
    ],
    "jaxpr": "{ lambda ; a:f32[6]. let  in (a,) }",
    "stablehlo": "module @jit__lambda attributes {mhlo.num_partitions = 1 : i32, mhlo.num_replicas = 1 : i32} {\n  func.func public @main(%arg0: tensor<6xf32>) -> (tensor<6xf32> {jax.result_info = \"result\"}) {\n    return %arg0 : tensor<6xf32>\n  }\n}\n",
    "metadata": {
      "category": "array",
      "operation": "transpose",
      "description": "Array operation: transpose"
    }
  },
  {
    "python_code": "lambda x: jnp.reshape(x, (2, 162))",
    "input_info": [
      {
        "shape": [
          9,
          6,
          6
        ],
        "dtype": "float32"
      }
    ],
    "jaxpr": "{ lambda ; a:f32[9,6,6]. let\n    b:f32[2,162] = reshape[dimensions=None new_sizes=(2, 162) sharding=None] a\n  in (b,) }",
    "stablehlo": "module @jit__lambda attributes {mhlo.num_partitions = 1 : i32, mhlo.num_replicas = 1 : i32} {\n  func.func public @main(%arg0: tensor<9x6x6xf32>) -> (tensor<2x162xf32> {jax.result_info = \"result\"}) {\n    %0 = stablehlo.reshape %arg0 : (tensor<9x6x6xf32>) -> tensor<2x162xf32>\n    return %0 : tensor<2x162xf32>\n  }\n}\n",
    "metadata": {
      "category": "array",
      "operation": "reshape",
      "description": "Array operation: reshape"
    }
  },
  {
    "python_code": "lambda x, y: jnp.stack([x, y])",
    "input_info": [
      {
        "shape": [
          8,
          10,
          8
        ],
        "dtype": "float32"
      },
      {
        "shape": [
          8,
          10,
          8
        ],
        "dtype": "float32"
      }
    ],
    "jaxpr": "{ lambda ; a:f32[8,10,8] b:f32[8,10,8]. let\n    c:f32[1,8,10,8] = broadcast_in_dim[\n      broadcast_dimensions=(1, 2, 3)\n      shape=(1, 8, 10, 8)\n      sharding=None\n    ] a\n    d:f32[1,8,10,8] = broadcast_in_dim[\n      broadcast_dimensions=(1, 2, 3)\n      shape=(1, 8, 10, 8)\n      sharding=None\n    ] b\n    e:f32[2,8,10,8] = concatenate[dimension=0] c d\n  in (e,) }",
    "stablehlo": "module @jit__lambda attributes {mhlo.num_partitions = 1 : i32, mhlo.num_replicas = 1 : i32} {\n  func.func public @main(%arg0: tensor<8x10x8xf32>, %arg1: tensor<8x10x8xf32>) -> (tensor<2x8x10x8xf32> {jax.result_info = \"result\"}) {\n    %0 = stablehlo.broadcast_in_dim %arg0, dims = [1, 2, 3] : (tensor<8x10x8xf32>) -> tensor<1x8x10x8xf32>\n    %1 = stablehlo.broadcast_in_dim %arg1, dims = [1, 2, 3] : (tensor<8x10x8xf32>) -> tensor<1x8x10x8xf32>\n    %2 = stablehlo.concatenate %0, %1, dim = 0 : (tensor<1x8x10x8xf32>, tensor<1x8x10x8xf32>) -> tensor<2x8x10x8xf32>\n    return %2 : tensor<2x8x10x8xf32>\n  }\n}\n",
    "metadata": {
      "category": "array",
      "operation": "stack",
      "description": "Array operation: stack"
    }
  },
  {
    "python_code": "lambda x: x[1:, :]",
    "input_info": [
      {
        "shape": [
          5,
          5
        ],
        "dtype": "float32"
      }
    ],
    "jaxpr": "{ lambda ; a:f32[5,5]. let\n    b:f32[4,5] = slice[limit_indices=(5, 5) start_indices=(1, 0) strides=None] a\n  in (b,) }",
    "stablehlo": "module @jit__lambda attributes {mhlo.num_partitions = 1 : i32, mhlo.num_replicas = 1 : i32} {\n  func.func public @main(%arg0: tensor<5x5xf32>) -> (tensor<4x5xf32> {jax.result_info = \"result\"}) {\n    %0 = stablehlo.slice %arg0 [1:5, 0:5] : (tensor<5x5xf32>) -> tensor<4x5xf32>\n    return %0 : tensor<4x5xf32>\n  }\n}\n",
    "metadata": {
      "category": "array",
      "operation": "slice",
      "description": "Array operation: slice"
    }
  },
  {
    "python_code": "lambda x: x.T",
    "input_info": [
      {
        "shape": [
          7,
          8
        ],
        "dtype": "float32"
      }
    ],
    "jaxpr": "{ lambda ; a:f32[7,8]. let\n    b:f32[8,7] = transpose[permutation=(1, 0)] a\n  in (b,) }",
    "stablehlo": "module @jit__lambda attributes {mhlo.num_partitions = 1 : i32, mhlo.num_replicas = 1 : i32} {\n  func.func public @main(%arg0: tensor<7x8xf32>) -> (tensor<8x7xf32> {jax.result_info = \"result\"}) {\n    %0 = stablehlo.transpose %arg0, dims = [1, 0] : (tensor<7x8xf32>) -> tensor<8x7xf32>\n    return %0 : tensor<8x7xf32>\n  }\n}\n",
    "metadata": {
      "category": "array",
      "operation": "transpose",
      "description": "Array operation: transpose"
    }
  },
  {
    "python_code": "lambda x: x.T",
    "input_info": [
      {
        "shape": [
          5,
          2
        ],
        "dtype": "float32"
      }
    ],
    "jaxpr": "{ lambda ; a:f32[5,2]. let\n    b:f32[2,5] = transpose[permutation=(1, 0)] a\n  in (b,) }",
    "stablehlo": "module @jit__lambda attributes {mhlo.num_partitions = 1 : i32, mhlo.num_replicas = 1 : i32} {\n  func.func public @main(%arg0: tensor<5x2xf32>) -> (tensor<2x5xf32> {jax.result_info = \"result\"}) {\n    %0 = stablehlo.transpose %arg0, dims = [1, 0] : (tensor<5x2xf32>) -> tensor<2x5xf32>\n    return %0 : tensor<2x5xf32>\n  }\n}\n",
    "metadata": {
      "category": "array",
      "operation": "transpose",
      "description": "Array operation: transpose"
    }
  },
  {
    "python_code": "lambda x: x.T",
    "input_info": [
      {
        "shape": [
          7,
          3
        ],
        "dtype": "float32"
      }
    ],
    "jaxpr": "{ lambda ; a:f32[7,3]. let\n    b:f32[3,7] = transpose[permutation=(1, 0)] a\n  in (b,) }",
    "stablehlo": "module @jit__lambda attributes {mhlo.num_partitions = 1 : i32, mhlo.num_replicas = 1 : i32} {\n  func.func public @main(%arg0: tensor<7x3xf32>) -> (tensor<3x7xf32> {jax.result_info = \"result\"}) {\n    %0 = stablehlo.transpose %arg0, dims = [1, 0] : (tensor<7x3xf32>) -> tensor<3x7xf32>\n    return %0 : tensor<3x7xf32>\n  }\n}\n",
    "metadata": {
      "category": "array",
      "operation": "transpose",
      "description": "Array operation: transpose"
    }
  },
  {
    "python_code": "lambda x: jnp.transpose(x)",
    "input_info": [
      {
        "shape": [
          8,
          7,
          9
        ],
        "dtype": "float32"
      }
    ],
    "jaxpr": "{ lambda ; a:f32[8,7,9]. let\n    b:f32[9,7,8] = transpose[permutation=(2, 1, 0)] a\n  in (b,) }",
    "stablehlo": "module @jit__lambda attributes {mhlo.num_partitions = 1 : i32, mhlo.num_replicas = 1 : i32} {\n  func.func public @main(%arg0: tensor<8x7x9xf32>) -> (tensor<9x7x8xf32> {jax.result_info = \"result\"}) {\n    %0 = stablehlo.transpose %arg0, dims = [2, 1, 0] : (tensor<8x7x9xf32>) -> tensor<9x7x8xf32>\n    return %0 : tensor<9x7x8xf32>\n  }\n}\n",
    "metadata": {
      "category": "array",
      "operation": "transpose",
      "description": "Array operation: transpose"
    }
  },
  {
    "python_code": "lambda x, y: jnp.stack([x, y])",
    "input_info": [
      {
        "shape": [
          2,
          4,
          2
        ],
        "dtype": "float32"
      },
      {
        "shape": [
          2,
          4,
          2
        ],
        "dtype": "float32"
      }
    ],
    "jaxpr": "{ lambda ; a:f32[2,4,2] b:f32[2,4,2]. let\n    c:f32[1,2,4,2] = broadcast_in_dim[\n      broadcast_dimensions=(1, 2, 3)\n      shape=(1, 2, 4, 2)\n      sharding=None\n    ] a\n    d:f32[1,2,4,2] = broadcast_in_dim[\n      broadcast_dimensions=(1, 2, 3)\n      shape=(1, 2, 4, 2)\n      sharding=None\n    ] b\n    e:f32[2,2,4,2] = concatenate[dimension=0] c d\n  in (e,) }",
    "stablehlo": "module @jit__lambda attributes {mhlo.num_partitions = 1 : i32, mhlo.num_replicas = 1 : i32} {\n  func.func public @main(%arg0: tensor<2x4x2xf32>, %arg1: tensor<2x4x2xf32>) -> (tensor<2x2x4x2xf32> {jax.result_info = \"result\"}) {\n    %0 = stablehlo.broadcast_in_dim %arg0, dims = [1, 2, 3] : (tensor<2x4x2xf32>) -> tensor<1x2x4x2xf32>\n    %1 = stablehlo.broadcast_in_dim %arg1, dims = [1, 2, 3] : (tensor<2x4x2xf32>) -> tensor<1x2x4x2xf32>\n    %2 = stablehlo.concatenate %0, %1, dim = 0 : (tensor<1x2x4x2xf32>, tensor<1x2x4x2xf32>) -> tensor<2x2x4x2xf32>\n    return %2 : tensor<2x2x4x2xf32>\n  }\n}\n",
    "metadata": {
      "category": "array",
      "operation": "stack",
      "description": "Array operation: stack"
    }
  },
  {
    "python_code": "lambda x, y: jnp.concatenate([x, y], axis=0)",
    "input_info": [
      {
        "shape": [
          8,
          2,
          5
        ],
        "dtype": "float32"
      },
      {
        "shape": [
          8,
          2,
          5
        ],
        "dtype": "float32"
      }
    ],
    "jaxpr": "{ lambda ; a:f32[8,2,5] b:f32[8,2,5]. let\n    c:f32[16,2,5] = concatenate[dimension=0] a b\n  in (c,) }",
    "stablehlo": "module @jit__lambda attributes {mhlo.num_partitions = 1 : i32, mhlo.num_replicas = 1 : i32} {\n  func.func public @main(%arg0: tensor<8x2x5xf32>, %arg1: tensor<8x2x5xf32>) -> (tensor<16x2x5xf32> {jax.result_info = \"result\"}) {\n    %0 = stablehlo.concatenate %arg0, %arg1, dim = 0 : (tensor<8x2x5xf32>, tensor<8x2x5xf32>) -> tensor<16x2x5xf32>\n    return %0 : tensor<16x2x5xf32>\n  }\n}\n",
    "metadata": {
      "category": "array",
      "operation": "concatenate",
      "description": "Array operation: concatenate"
    }
  },
  {
    "python_code": "lambda x: jnp.transpose(x)",
    "input_info": [
      {
        "shape": [
          10
        ],
        "dtype": "float32"
      }
    ],
    "jaxpr": "{ lambda ; a:f32[10]. let  in (a,) }",
    "stablehlo": "module @jit__lambda attributes {mhlo.num_partitions = 1 : i32, mhlo.num_replicas = 1 : i32} {\n  func.func public @main(%arg0: tensor<10xf32>) -> (tensor<10xf32> {jax.result_info = \"result\"}) {\n    return %arg0 : tensor<10xf32>\n  }\n}\n",
    "metadata": {
      "category": "array",
      "operation": "transpose",
      "description": "Array operation: transpose"
    }
  },
  {
    "python_code": "lambda x: jnp.reshape(x, (10,))",
    "input_info": [
      {
        "shape": [
          10
        ],
        "dtype": "float32"
      }
    ],
    "jaxpr": "{ lambda ; a:f32[10]. let  in (a,) }",
    "stablehlo": "module @jit__lambda attributes {mhlo.num_partitions = 1 : i32, mhlo.num_replicas = 1 : i32} {\n  func.func public @main(%arg0: tensor<10xf32>) -> (tensor<10xf32> {jax.result_info = \"result\"}) {\n    return %arg0 : tensor<10xf32>\n  }\n}\n",
    "metadata": {
      "category": "array",
      "operation": "reshape",
      "description": "Array operation: reshape"
    }
  },
  {
    "python_code": "lambda x, y: jnp.concatenate([x, y], axis=0)",
    "input_info": [
      {
        "shape": [
          8,
          5
        ],
        "dtype": "float32"
      },
      {
        "shape": [
          8,
          5
        ],
        "dtype": "float32"
      }
    ],
    "jaxpr": "{ lambda ; a:f32[8,5] b:f32[8,5]. let\n    c:f32[16,5] = concatenate[dimension=0] a b\n  in (c,) }",
    "stablehlo": "module @jit__lambda attributes {mhlo.num_partitions = 1 : i32, mhlo.num_replicas = 1 : i32} {\n  func.func public @main(%arg0: tensor<8x5xf32>, %arg1: tensor<8x5xf32>) -> (tensor<16x5xf32> {jax.result_info = \"result\"}) {\n    %0 = stablehlo.concatenate %arg0, %arg1, dim = 0 : (tensor<8x5xf32>, tensor<8x5xf32>) -> tensor<16x5xf32>\n    return %0 : tensor<16x5xf32>\n  }\n}\n",
    "metadata": {
      "category": "array",
      "operation": "concatenate",
      "description": "Array operation: concatenate"
    }
  },
  {
    "python_code": "lambda x: x[1:, :]",
    "input_info": [
      {
        "shape": [
          6,
          6
        ],
        "dtype": "float32"
      }
    ],
    "jaxpr": "{ lambda ; a:f32[6,6]. let\n    b:f32[5,6] = slice[limit_indices=(6, 6) start_indices=(1, 0) strides=None] a\n  in (b,) }",
    "stablehlo": "module @jit__lambda attributes {mhlo.num_partitions = 1 : i32, mhlo.num_replicas = 1 : i32} {\n  func.func public @main(%arg0: tensor<6x6xf32>) -> (tensor<5x6xf32> {jax.result_info = \"result\"}) {\n    %0 = stablehlo.slice %arg0 [1:6, 0:6] : (tensor<6x6xf32>) -> tensor<5x6xf32>\n    return %0 : tensor<5x6xf32>\n  }\n}\n",
    "metadata": {
      "category": "array",
      "operation": "slice",
      "description": "Array operation: slice"
    }
  },
  {
    "python_code": "lambda x: jnp.reshape(x, (16,))",
    "input_info": [
      {
        "shape": [
          4,
          4
        ],
        "dtype": "float32"
      }
    ],
    "jaxpr": "{ lambda ; a:f32[4,4]. let\n    b:f32[16] = reshape[dimensions=None new_sizes=(16,) sharding=None] a\n  in (b,) }",
    "stablehlo": "module @jit__lambda attributes {mhlo.num_partitions = 1 : i32, mhlo.num_replicas = 1 : i32} {\n  func.func public @main(%arg0: tensor<4x4xf32>) -> (tensor<16xf32> {jax.result_info = \"result\"}) {\n    %0 = stablehlo.reshape %arg0 : (tensor<4x4xf32>) -> tensor<16xf32>\n    return %0 : tensor<16xf32>\n  }\n}\n",
    "metadata": {
      "category": "array",
      "operation": "reshape",
      "description": "Array operation: reshape"
    }
  },
  {
    "python_code": "lambda x: x[1:, :]",
    "input_info": [
      {
        "shape": [
          5,
          4,
          3
        ],
        "dtype": "float32"
      }
    ],
    "jaxpr": "{ lambda ; a:f32[5,4,3]. let\n    b:f32[4,4,3] = slice[\n      limit_indices=(5, 4, 3)\n      start_indices=(1, 0, 0)\n      strides=None\n    ] a\n  in (b,) }",
    "stablehlo": "module @jit__lambda attributes {mhlo.num_partitions = 1 : i32, mhlo.num_replicas = 1 : i32} {\n  func.func public @main(%arg0: tensor<5x4x3xf32>) -> (tensor<4x4x3xf32> {jax.result_info = \"result\"}) {\n    %0 = stablehlo.slice %arg0 [1:5, 0:4, 0:3] : (tensor<5x4x3xf32>) -> tensor<4x4x3xf32>\n    return %0 : tensor<4x4x3xf32>\n  }\n}\n",
    "metadata": {
      "category": "array",
      "operation": "slice",
      "description": "Array operation: slice"
    }
  },
  {
    "python_code": "lambda x, y: jnp.stack([x, y])",
    "input_info": [
      {
        "shape": [
          6,
          6
        ],
        "dtype": "float32"
      },
      {
        "shape": [
          6,
          6
        ],
        "dtype": "float32"
      }
    ],
    "jaxpr": "{ lambda ; a:f32[6,6] b:f32[6,6]. let\n    c:f32[1,6,6] = broadcast_in_dim[\n      broadcast_dimensions=(1, 2)\n      shape=(1, 6, 6)\n      sharding=None\n    ] a\n    d:f32[1,6,6] = broadcast_in_dim[\n      broadcast_dimensions=(1, 2)\n      shape=(1, 6, 6)\n      sharding=None\n    ] b\n    e:f32[2,6,6] = concatenate[dimension=0] c d\n  in (e,) }",
    "stablehlo": "module @jit__lambda attributes {mhlo.num_partitions = 1 : i32, mhlo.num_replicas = 1 : i32} {\n  func.func public @main(%arg0: tensor<6x6xf32>, %arg1: tensor<6x6xf32>) -> (tensor<2x6x6xf32> {jax.result_info = \"result\"}) {\n    %0 = stablehlo.broadcast_in_dim %arg0, dims = [1, 2] : (tensor<6x6xf32>) -> tensor<1x6x6xf32>\n    %1 = stablehlo.broadcast_in_dim %arg1, dims = [1, 2] : (tensor<6x6xf32>) -> tensor<1x6x6xf32>\n    %2 = stablehlo.concatenate %0, %1, dim = 0 : (tensor<1x6x6xf32>, tensor<1x6x6xf32>) -> tensor<2x6x6xf32>\n    return %2 : tensor<2x6x6xf32>\n  }\n}\n",
    "metadata": {
      "category": "array",
      "operation": "stack",
      "description": "Array operation: stack"
    }
  },
  {
    "python_code": "lambda x: x[1:, :]",
    "input_info": [
      {
        "shape": [
          5,
          6,
          7
        ],
        "dtype": "float32"
      }
    ],
    "jaxpr": "{ lambda ; a:f32[5,6,7]. let\n    b:f32[4,6,7] = slice[\n      limit_indices=(5, 6, 7)\n      start_indices=(1, 0, 0)\n      strides=None\n    ] a\n  in (b,) }",
    "stablehlo": "module @jit__lambda attributes {mhlo.num_partitions = 1 : i32, mhlo.num_replicas = 1 : i32} {\n  func.func public @main(%arg0: tensor<5x6x7xf32>) -> (tensor<4x6x7xf32> {jax.result_info = \"result\"}) {\n    %0 = stablehlo.slice %arg0 [1:5, 0:6, 0:7] : (tensor<5x6x7xf32>) -> tensor<4x6x7xf32>\n    return %0 : tensor<4x6x7xf32>\n  }\n}\n",
    "metadata": {
      "category": "array",
      "operation": "slice",
      "description": "Array operation: slice"
    }
  },
  {
    "python_code": "lambda x, y: jnp.stack([x, y])",
    "input_info": [
      {
        "shape": [
          9,
          6
        ],
        "dtype": "float32"
      },
      {
        "shape": [
          9,
          6
        ],
        "dtype": "float32"
      }
    ],
    "jaxpr": "{ lambda ; a:f32[9,6] b:f32[9,6]. let\n    c:f32[1,9,6] = broadcast_in_dim[\n      broadcast_dimensions=(1, 2)\n      shape=(1, 9, 6)\n      sharding=None\n    ] a\n    d:f32[1,9,6] = broadcast_in_dim[\n      broadcast_dimensions=(1, 2)\n      shape=(1, 9, 6)\n      sharding=None\n    ] b\n    e:f32[2,9,6] = concatenate[dimension=0] c d\n  in (e,) }",
    "stablehlo": "module @jit__lambda attributes {mhlo.num_partitions = 1 : i32, mhlo.num_replicas = 1 : i32} {\n  func.func public @main(%arg0: tensor<9x6xf32>, %arg1: tensor<9x6xf32>) -> (tensor<2x9x6xf32> {jax.result_info = \"result\"}) {\n    %0 = stablehlo.broadcast_in_dim %arg0, dims = [1, 2] : (tensor<9x6xf32>) -> tensor<1x9x6xf32>\n    %1 = stablehlo.broadcast_in_dim %arg1, dims = [1, 2] : (tensor<9x6xf32>) -> tensor<1x9x6xf32>\n    %2 = stablehlo.concatenate %0, %1, dim = 0 : (tensor<1x9x6xf32>, tensor<1x9x6xf32>) -> tensor<2x9x6xf32>\n    return %2 : tensor<2x9x6xf32>\n  }\n}\n",
    "metadata": {
      "category": "array",
      "operation": "stack",
      "description": "Array operation: stack"
    }
  },
  {
    "python_code": "lambda x: x[1:, :]",
    "input_info": [
      {
        "shape": [
          5,
          9,
          3
        ],
        "dtype": "float32"
      }
    ],
    "jaxpr": "{ lambda ; a:f32[5,9,3]. let\n    b:f32[4,9,3] = slice[\n      limit_indices=(5, 9, 3)\n      start_indices=(1, 0, 0)\n      strides=None\n    ] a\n  in (b,) }",
    "stablehlo": "module @jit__lambda attributes {mhlo.num_partitions = 1 : i32, mhlo.num_replicas = 1 : i32} {\n  func.func public @main(%arg0: tensor<5x9x3xf32>) -> (tensor<4x9x3xf32> {jax.result_info = \"result\"}) {\n    %0 = stablehlo.slice %arg0 [1:5, 0:9, 0:3] : (tensor<5x9x3xf32>) -> tensor<4x9x3xf32>\n    return %0 : tensor<4x9x3xf32>\n  }\n}\n",
    "metadata": {
      "category": "array",
      "operation": "slice",
      "description": "Array operation: slice"
    }
  },
  {
    "python_code": "lambda x, y: jnp.stack([x, y])",
    "input_info": [
      {
        "shape": [
          8,
          5
        ],
        "dtype": "float32"
      },
      {
        "shape": [
          8,
          5
        ],
        "dtype": "float32"
      }
    ],
    "jaxpr": "{ lambda ; a:f32[8,5] b:f32[8,5]. let\n    c:f32[1,8,5] = broadcast_in_dim[\n      broadcast_dimensions=(1, 2)\n      shape=(1, 8, 5)\n      sharding=None\n    ] a\n    d:f32[1,8,5] = broadcast_in_dim[\n      broadcast_dimensions=(1, 2)\n      shape=(1, 8, 5)\n      sharding=None\n    ] b\n    e:f32[2,8,5] = concatenate[dimension=0] c d\n  in (e,) }",
    "stablehlo": "module @jit__lambda attributes {mhlo.num_partitions = 1 : i32, mhlo.num_replicas = 1 : i32} {\n  func.func public @main(%arg0: tensor<8x5xf32>, %arg1: tensor<8x5xf32>) -> (tensor<2x8x5xf32> {jax.result_info = \"result\"}) {\n    %0 = stablehlo.broadcast_in_dim %arg0, dims = [1, 2] : (tensor<8x5xf32>) -> tensor<1x8x5xf32>\n    %1 = stablehlo.broadcast_in_dim %arg1, dims = [1, 2] : (tensor<8x5xf32>) -> tensor<1x8x5xf32>\n    %2 = stablehlo.concatenate %0, %1, dim = 0 : (tensor<1x8x5xf32>, tensor<1x8x5xf32>) -> tensor<2x8x5xf32>\n    return %2 : tensor<2x8x5xf32>\n  }\n}\n",
    "metadata": {
      "category": "array",
      "operation": "stack",
      "description": "Array operation: stack"
    }
  },
  {
    "python_code": "lambda x: jnp.reshape(x, (2, 20))",
    "input_info": [
      {
        "shape": [
          5,
          8
        ],
        "dtype": "float32"
      }
    ],
    "jaxpr": "{ lambda ; a:f32[5,8]. let\n    b:f32[2,20] = reshape[dimensions=None new_sizes=(2, 20) sharding=None] a\n  in (b,) }",
    "stablehlo": "module @jit__lambda attributes {mhlo.num_partitions = 1 : i32, mhlo.num_replicas = 1 : i32} {\n  func.func public @main(%arg0: tensor<5x8xf32>) -> (tensor<2x20xf32> {jax.result_info = \"result\"}) {\n    %0 = stablehlo.reshape %arg0 : (tensor<5x8xf32>) -> tensor<2x20xf32>\n    return %0 : tensor<2x20xf32>\n  }\n}\n",
    "metadata": {
      "category": "array",
      "operation": "reshape",
      "description": "Array operation: reshape"
    }
  },
  {
    "python_code": "lambda x: jnp.transpose(x)",
    "input_info": [
      {
        "shape": [
          10,
          9,
          7
        ],
        "dtype": "float32"
      }
    ],
    "jaxpr": "{ lambda ; a:f32[10,9,7]. let\n    b:f32[7,9,10] = transpose[permutation=(2, 1, 0)] a\n  in (b,) }",
    "stablehlo": "module @jit__lambda attributes {mhlo.num_partitions = 1 : i32, mhlo.num_replicas = 1 : i32} {\n  func.func public @main(%arg0: tensor<10x9x7xf32>) -> (tensor<7x9x10xf32> {jax.result_info = \"result\"}) {\n    %0 = stablehlo.transpose %arg0, dims = [2, 1, 0] : (tensor<10x9x7xf32>) -> tensor<7x9x10xf32>\n    return %0 : tensor<7x9x10xf32>\n  }\n}\n",
    "metadata": {
      "category": "array",
      "operation": "transpose",
      "description": "Array operation: transpose"
    }
  },
  {
    "python_code": "lambda x: jnp.reshape(x, (21,))",
    "input_info": [
      {
        "shape": [
          3,
          7
        ],
        "dtype": "float32"
      }
    ],
    "jaxpr": "{ lambda ; a:f32[3,7]. let\n    b:f32[21] = reshape[dimensions=None new_sizes=(21,) sharding=None] a\n  in (b,) }",
    "stablehlo": "module @jit__lambda attributes {mhlo.num_partitions = 1 : i32, mhlo.num_replicas = 1 : i32} {\n  func.func public @main(%arg0: tensor<3x7xf32>) -> (tensor<21xf32> {jax.result_info = \"result\"}) {\n    %0 = stablehlo.reshape %arg0 : (tensor<3x7xf32>) -> tensor<21xf32>\n    return %0 : tensor<21xf32>\n  }\n}\n",
    "metadata": {
      "category": "array",
      "operation": "reshape",
      "description": "Array operation: reshape"
    }
  },
  {
    "python_code": "lambda x, y: jnp.concatenate([x, y], axis=0)",
    "input_info": [
      {
        "shape": [
          6,
          8,
          4
        ],
        "dtype": "float32"
      },
      {
        "shape": [
          6,
          8,
          4
        ],
        "dtype": "float32"
      }
    ],
    "jaxpr": "{ lambda ; a:f32[6,8,4] b:f32[6,8,4]. let\n    c:f32[12,8,4] = concatenate[dimension=0] a b\n  in (c,) }",
    "stablehlo": "module @jit__lambda attributes {mhlo.num_partitions = 1 : i32, mhlo.num_replicas = 1 : i32} {\n  func.func public @main(%arg0: tensor<6x8x4xf32>, %arg1: tensor<6x8x4xf32>) -> (tensor<12x8x4xf32> {jax.result_info = \"result\"}) {\n    %0 = stablehlo.concatenate %arg0, %arg1, dim = 0 : (tensor<6x8x4xf32>, tensor<6x8x4xf32>) -> tensor<12x8x4xf32>\n    return %0 : tensor<12x8x4xf32>\n  }\n}\n",
    "metadata": {
      "category": "array",
      "operation": "concatenate",
      "description": "Array operation: concatenate"
    }
  },
  {
    "python_code": "lambda x: jnp.transpose(x)",
    "input_info": [
      {
        "shape": [
          7,
          8,
          2
        ],
        "dtype": "float32"
      }
    ],
    "jaxpr": "{ lambda ; a:f32[7,8,2]. let\n    b:f32[2,8,7] = transpose[permutation=(2, 1, 0)] a\n  in (b,) }",
    "stablehlo": "module @jit__lambda attributes {mhlo.num_partitions = 1 : i32, mhlo.num_replicas = 1 : i32} {\n  func.func public @main(%arg0: tensor<7x8x2xf32>) -> (tensor<2x8x7xf32> {jax.result_info = \"result\"}) {\n    %0 = stablehlo.transpose %arg0, dims = [2, 1, 0] : (tensor<7x8x2xf32>) -> tensor<2x8x7xf32>\n    return %0 : tensor<2x8x7xf32>\n  }\n}\n",
    "metadata": {
      "category": "array",
      "operation": "transpose",
      "description": "Array operation: transpose"
    }
  },
  {
    "python_code": "lambda x: jnp.reshape(x, (28,))",
    "input_info": [
      {
        "shape": [
          4,
          7
        ],
        "dtype": "float32"
      }
    ],
    "jaxpr": "{ lambda ; a:f32[4,7]. let\n    b:f32[28] = reshape[dimensions=None new_sizes=(28,) sharding=None] a\n  in (b,) }",
    "stablehlo": "module @jit__lambda attributes {mhlo.num_partitions = 1 : i32, mhlo.num_replicas = 1 : i32} {\n  func.func public @main(%arg0: tensor<4x7xf32>) -> (tensor<28xf32> {jax.result_info = \"result\"}) {\n    %0 = stablehlo.reshape %arg0 : (tensor<4x7xf32>) -> tensor<28xf32>\n    return %0 : tensor<28xf32>\n  }\n}\n",
    "metadata": {
      "category": "array",
      "operation": "reshape",
      "description": "Array operation: reshape"
    }
  },
  {
    "python_code": "lambda x: jnp.reshape(x, (2, 18))",
    "input_info": [
      {
        "shape": [
          4,
          9
        ],
        "dtype": "float32"
      }
    ],
    "jaxpr": "{ lambda ; a:f32[4,9]. let\n    b:f32[2,18] = reshape[dimensions=None new_sizes=(2, 18) sharding=None] a\n  in (b,) }",
    "stablehlo": "module @jit__lambda attributes {mhlo.num_partitions = 1 : i32, mhlo.num_replicas = 1 : i32} {\n  func.func public @main(%arg0: tensor<4x9xf32>) -> (tensor<2x18xf32> {jax.result_info = \"result\"}) {\n    %0 = stablehlo.reshape %arg0 : (tensor<4x9xf32>) -> tensor<2x18xf32>\n    return %0 : tensor<2x18xf32>\n  }\n}\n",
    "metadata": {
      "category": "array",
      "operation": "reshape",
      "description": "Array operation: reshape"
    }
  },
  {
    "python_code": "lambda x: jnp.transpose(x)",
    "input_info": [
      {
        "shape": [
          3
        ],
        "dtype": "float32"
      }
    ],
    "jaxpr": "{ lambda ; a:f32[3]. let  in (a,) }",
    "stablehlo": "module @jit__lambda attributes {mhlo.num_partitions = 1 : i32, mhlo.num_replicas = 1 : i32} {\n  func.func public @main(%arg0: tensor<3xf32>) -> (tensor<3xf32> {jax.result_info = \"result\"}) {\n    return %arg0 : tensor<3xf32>\n  }\n}\n",
    "metadata": {
      "category": "array",
      "operation": "transpose",
      "description": "Array operation: transpose"
    }
  },
  {
    "python_code": "lambda x: jnp.reshape(x, (5,))",
    "input_info": [
      {
        "shape": [
          5
        ],
        "dtype": "float32"
      }
    ],
    "jaxpr": "{ lambda ; a:f32[5]. let  in (a,) }",
    "stablehlo": "module @jit__lambda attributes {mhlo.num_partitions = 1 : i32, mhlo.num_replicas = 1 : i32} {\n  func.func public @main(%arg0: tensor<5xf32>) -> (tensor<5xf32> {jax.result_info = \"result\"}) {\n    return %arg0 : tensor<5xf32>\n  }\n}\n",
    "metadata": {
      "category": "array",
      "operation": "reshape",
      "description": "Array operation: reshape"
    }
  },
  {
    "python_code": "lambda x, y: jnp.concatenate([x, y], axis=0)",
    "input_info": [
      {
        "shape": [
          4
        ],
        "dtype": "float32"
      },
      {
        "shape": [
          4
        ],
        "dtype": "float32"
      }
    ],
    "jaxpr": "{ lambda ; a:f32[4] b:f32[4]. let\n    c:f32[8] = concatenate[dimension=0] a b\n  in (c,) }",
    "stablehlo": "module @jit__lambda attributes {mhlo.num_partitions = 1 : i32, mhlo.num_replicas = 1 : i32} {\n  func.func public @main(%arg0: tensor<4xf32>, %arg1: tensor<4xf32>) -> (tensor<8xf32> {jax.result_info = \"result\"}) {\n    %0 = stablehlo.concatenate %arg0, %arg1, dim = 0 : (tensor<4xf32>, tensor<4xf32>) -> tensor<8xf32>\n    return %0 : tensor<8xf32>\n  }\n}\n",
    "metadata": {
      "category": "array",
      "operation": "concatenate",
      "description": "Array operation: concatenate"
    }
  },
  {
    "python_code": "lambda x, y: jnp.concatenate([x, y], axis=0)",
    "input_info": [
      {
        "shape": [
          3,
          2,
          2
        ],
        "dtype": "float32"
      },
      {
        "shape": [
          3,
          2,
          2
        ],
        "dtype": "float32"
      }
    ],
    "jaxpr": "{ lambda ; a:f32[3,2,2] b:f32[3,2,2]. let\n    c:f32[6,2,2] = concatenate[dimension=0] a b\n  in (c,) }",
    "stablehlo": "module @jit__lambda attributes {mhlo.num_partitions = 1 : i32, mhlo.num_replicas = 1 : i32} {\n  func.func public @main(%arg0: tensor<3x2x2xf32>, %arg1: tensor<3x2x2xf32>) -> (tensor<6x2x2xf32> {jax.result_info = \"result\"}) {\n    %0 = stablehlo.concatenate %arg0, %arg1, dim = 0 : (tensor<3x2x2xf32>, tensor<3x2x2xf32>) -> tensor<6x2x2xf32>\n    return %0 : tensor<6x2x2xf32>\n  }\n}\n",
    "metadata": {
      "category": "array",
      "operation": "concatenate",
      "description": "Array operation: concatenate"
    }
  },
  {
    "python_code": "lambda x, y: jnp.stack([x, y])",
    "input_info": [
      {
        "shape": [
          5,
          9
        ],
        "dtype": "float32"
      },
      {
        "shape": [
          5,
          9
        ],
        "dtype": "float32"
      }
    ],
    "jaxpr": "{ lambda ; a:f32[5,9] b:f32[5,9]. let\n    c:f32[1,5,9] = broadcast_in_dim[\n      broadcast_dimensions=(1, 2)\n      shape=(1, 5, 9)\n      sharding=None\n    ] a\n    d:f32[1,5,9] = broadcast_in_dim[\n      broadcast_dimensions=(1, 2)\n      shape=(1, 5, 9)\n      sharding=None\n    ] b\n    e:f32[2,5,9] = concatenate[dimension=0] c d\n  in (e,) }",
    "stablehlo": "module @jit__lambda attributes {mhlo.num_partitions = 1 : i32, mhlo.num_replicas = 1 : i32} {\n  func.func public @main(%arg0: tensor<5x9xf32>, %arg1: tensor<5x9xf32>) -> (tensor<2x5x9xf32> {jax.result_info = \"result\"}) {\n    %0 = stablehlo.broadcast_in_dim %arg0, dims = [1, 2] : (tensor<5x9xf32>) -> tensor<1x5x9xf32>\n    %1 = stablehlo.broadcast_in_dim %arg1, dims = [1, 2] : (tensor<5x9xf32>) -> tensor<1x5x9xf32>\n    %2 = stablehlo.concatenate %0, %1, dim = 0 : (tensor<1x5x9xf32>, tensor<1x5x9xf32>) -> tensor<2x5x9xf32>\n    return %2 : tensor<2x5x9xf32>\n  }\n}\n",
    "metadata": {
      "category": "array",
      "operation": "stack",
      "description": "Array operation: stack"
    }
  },
  {
    "python_code": "lambda x: x.T",
    "input_info": [
      {
        "shape": [
          5,
          2
        ],
        "dtype": "float32"
      }
    ],
    "jaxpr": "{ lambda ; a:f32[5,2]. let\n    b:f32[2,5] = transpose[permutation=(1, 0)] a\n  in (b,) }",
    "stablehlo": "module @jit__lambda attributes {mhlo.num_partitions = 1 : i32, mhlo.num_replicas = 1 : i32} {\n  func.func public @main(%arg0: tensor<5x2xf32>) -> (tensor<2x5xf32> {jax.result_info = \"result\"}) {\n    %0 = stablehlo.transpose %arg0, dims = [1, 0] : (tensor<5x2xf32>) -> tensor<2x5xf32>\n    return %0 : tensor<2x5xf32>\n  }\n}\n",
    "metadata": {
      "category": "array",
      "operation": "transpose",
      "description": "Array operation: transpose"
    }
  },
  {
    "python_code": "lambda x, y: jnp.concatenate([x, y], axis=0)",
    "input_info": [
      {
        "shape": [
          10
        ],
        "dtype": "float32"
      },
      {
        "shape": [
          10
        ],
        "dtype": "float32"
      }
    ],
    "jaxpr": "{ lambda ; a:f32[10] b:f32[10]. let\n    c:f32[20] = concatenate[dimension=0] a b\n  in (c,) }",
    "stablehlo": "module @jit__lambda attributes {mhlo.num_partitions = 1 : i32, mhlo.num_replicas = 1 : i32} {\n  func.func public @main(%arg0: tensor<10xf32>, %arg1: tensor<10xf32>) -> (tensor<20xf32> {jax.result_info = \"result\"}) {\n    %0 = stablehlo.concatenate %arg0, %arg1, dim = 0 : (tensor<10xf32>, tensor<10xf32>) -> tensor<20xf32>\n    return %0 : tensor<20xf32>\n  }\n}\n",
    "metadata": {
      "category": "array",
      "operation": "concatenate",
      "description": "Array operation: concatenate"
    }
  },
  {
    "python_code": "lambda x: x.T",
    "input_info": [
      {
        "shape": [
          7,
          8
        ],
        "dtype": "float32"
      }
    ],
    "jaxpr": "{ lambda ; a:f32[7,8]. let\n    b:f32[8,7] = transpose[permutation=(1, 0)] a\n  in (b,) }",
    "stablehlo": "module @jit__lambda attributes {mhlo.num_partitions = 1 : i32, mhlo.num_replicas = 1 : i32} {\n  func.func public @main(%arg0: tensor<7x8xf32>) -> (tensor<8x7xf32> {jax.result_info = \"result\"}) {\n    %0 = stablehlo.transpose %arg0, dims = [1, 0] : (tensor<7x8xf32>) -> tensor<8x7xf32>\n    return %0 : tensor<8x7xf32>\n  }\n}\n",
    "metadata": {
      "category": "array",
      "operation": "transpose",
      "description": "Array operation: transpose"
    }
  },
  {
    "python_code": "lambda x: x[1:, :]",
    "input_info": [
      {
        "shape": [
          4,
          8,
          9
        ],
        "dtype": "float32"
      }
    ],
    "jaxpr": "{ lambda ; a:f32[4,8,9]. let\n    b:f32[3,8,9] = slice[\n      limit_indices=(4, 8, 9)\n      start_indices=(1, 0, 0)\n      strides=None\n    ] a\n  in (b,) }",
    "stablehlo": "module @jit__lambda attributes {mhlo.num_partitions = 1 : i32, mhlo.num_replicas = 1 : i32} {\n  func.func public @main(%arg0: tensor<4x8x9xf32>) -> (tensor<3x8x9xf32> {jax.result_info = \"result\"}) {\n    %0 = stablehlo.slice %arg0 [1:4, 0:8, 0:9] : (tensor<4x8x9xf32>) -> tensor<3x8x9xf32>\n    return %0 : tensor<3x8x9xf32>\n  }\n}\n",
    "metadata": {
      "category": "array",
      "operation": "slice",
      "description": "Array operation: slice"
    }
  },
  {
    "python_code": "lambda x: x.T",
    "input_info": [
      {
        "shape": [
          8,
          10
        ],
        "dtype": "float32"
      }
    ],
    "jaxpr": "{ lambda ; a:f32[8,10]. let\n    b:f32[10,8] = transpose[permutation=(1, 0)] a\n  in (b,) }",
    "stablehlo": "module @jit__lambda attributes {mhlo.num_partitions = 1 : i32, mhlo.num_replicas = 1 : i32} {\n  func.func public @main(%arg0: tensor<8x10xf32>) -> (tensor<10x8xf32> {jax.result_info = \"result\"}) {\n    %0 = stablehlo.transpose %arg0, dims = [1, 0] : (tensor<8x10xf32>) -> tensor<10x8xf32>\n    return %0 : tensor<10x8xf32>\n  }\n}\n",
    "metadata": {
      "category": "array",
      "operation": "transpose",
      "description": "Array operation: transpose"
    }
  },
  {
    "python_code": "lambda x: jnp.reshape(x, (2, 2))",
    "input_info": [
      {
        "shape": [
          4
        ],
        "dtype": "float32"
      }
    ],
    "jaxpr": "{ lambda ; a:f32[4]. let\n    b:f32[2,2] = reshape[dimensions=None new_sizes=(2, 2) sharding=None] a\n  in (b,) }",
    "stablehlo": "module @jit__lambda attributes {mhlo.num_partitions = 1 : i32, mhlo.num_replicas = 1 : i32} {\n  func.func public @main(%arg0: tensor<4xf32>) -> (tensor<2x2xf32> {jax.result_info = \"result\"}) {\n    %0 = stablehlo.reshape %arg0 : (tensor<4xf32>) -> tensor<2x2xf32>\n    return %0 : tensor<2x2xf32>\n  }\n}\n",
    "metadata": {
      "category": "array",
      "operation": "reshape",
      "description": "Array operation: reshape"
    }
  },
  {
    "python_code": "lambda x: jnp.reshape(x, (5, 7))",
    "input_info": [
      {
        "shape": [
          5,
          7
        ],
        "dtype": "float32"
      }
    ],
    "jaxpr": "{ lambda ; a:f32[5,7]. let  in (a,) }",
    "stablehlo": "module @jit__lambda attributes {mhlo.num_partitions = 1 : i32, mhlo.num_replicas = 1 : i32} {\n  func.func public @main(%arg0: tensor<5x7xf32>) -> (tensor<5x7xf32> {jax.result_info = \"result\"}) {\n    return %arg0 : tensor<5x7xf32>\n  }\n}\n",
    "metadata": {
      "category": "array",
      "operation": "reshape",
      "description": "Array operation: reshape"
    }
  },
  {
    "python_code": "lambda x, y: jnp.stack([x, y])",
    "input_info": [
      {
        "shape": [
          4,
          10
        ],
        "dtype": "float32"
      },
      {
        "shape": [
          4,
          10
        ],
        "dtype": "float32"
      }
    ],
    "jaxpr": "{ lambda ; a:f32[4,10] b:f32[4,10]. let\n    c:f32[1,4,10] = broadcast_in_dim[\n      broadcast_dimensions=(1, 2)\n      shape=(1, 4, 10)\n      sharding=None\n    ] a\n    d:f32[1,4,10] = broadcast_in_dim[\n      broadcast_dimensions=(1, 2)\n      shape=(1, 4, 10)\n      sharding=None\n    ] b\n    e:f32[2,4,10] = concatenate[dimension=0] c d\n  in (e,) }",
    "stablehlo": "module @jit__lambda attributes {mhlo.num_partitions = 1 : i32, mhlo.num_replicas = 1 : i32} {\n  func.func public @main(%arg0: tensor<4x10xf32>, %arg1: tensor<4x10xf32>) -> (tensor<2x4x10xf32> {jax.result_info = \"result\"}) {\n    %0 = stablehlo.broadcast_in_dim %arg0, dims = [1, 2] : (tensor<4x10xf32>) -> tensor<1x4x10xf32>\n    %1 = stablehlo.broadcast_in_dim %arg1, dims = [1, 2] : (tensor<4x10xf32>) -> tensor<1x4x10xf32>\n    %2 = stablehlo.concatenate %0, %1, dim = 0 : (tensor<1x4x10xf32>, tensor<1x4x10xf32>) -> tensor<2x4x10xf32>\n    return %2 : tensor<2x4x10xf32>\n  }\n}\n",
    "metadata": {
      "category": "array",
      "operation": "stack",
      "description": "Array operation: stack"
    }
  },
  {
    "python_code": "lambda x, y: jnp.concatenate([x, y], axis=0)",
    "input_info": [
      {
        "shape": [
          9
        ],
        "dtype": "float32"
      },
      {
        "shape": [
          9
        ],
        "dtype": "float32"
      }
    ],
    "jaxpr": "{ lambda ; a:f32[9] b:f32[9]. let\n    c:f32[18] = concatenate[dimension=0] a b\n  in (c,) }",
    "stablehlo": "module @jit__lambda attributes {mhlo.num_partitions = 1 : i32, mhlo.num_replicas = 1 : i32} {\n  func.func public @main(%arg0: tensor<9xf32>, %arg1: tensor<9xf32>) -> (tensor<18xf32> {jax.result_info = \"result\"}) {\n    %0 = stablehlo.concatenate %arg0, %arg1, dim = 0 : (tensor<9xf32>, tensor<9xf32>) -> tensor<18xf32>\n    return %0 : tensor<18xf32>\n  }\n}\n",
    "metadata": {
      "category": "array",
      "operation": "concatenate",
      "description": "Array operation: concatenate"
    }
  },
  {
    "python_code": "lambda x, y: jnp.concatenate([x, y], axis=0)",
    "input_info": [
      {
        "shape": [
          3
        ],
        "dtype": "float32"
      },
      {
        "shape": [
          3
        ],
        "dtype": "float32"
      }
    ],
    "jaxpr": "{ lambda ; a:f32[3] b:f32[3]. let\n    c:f32[6] = concatenate[dimension=0] a b\n  in (c,) }",
    "stablehlo": "module @jit__lambda attributes {mhlo.num_partitions = 1 : i32, mhlo.num_replicas = 1 : i32} {\n  func.func public @main(%arg0: tensor<3xf32>, %arg1: tensor<3xf32>) -> (tensor<6xf32> {jax.result_info = \"result\"}) {\n    %0 = stablehlo.concatenate %arg0, %arg1, dim = 0 : (tensor<3xf32>, tensor<3xf32>) -> tensor<6xf32>\n    return %0 : tensor<6xf32>\n  }\n}\n",
    "metadata": {
      "category": "array",
      "operation": "concatenate",
      "description": "Array operation: concatenate"
    }
  },
  {
    "python_code": "lambda x: jnp.reshape(x, (28,))",
    "input_info": [
      {
        "shape": [
          7,
          4
        ],
        "dtype": "float32"
      }
    ],
    "jaxpr": "{ lambda ; a:f32[7,4]. let\n    b:f32[28] = reshape[dimensions=None new_sizes=(28,) sharding=None] a\n  in (b,) }",
    "stablehlo": "module @jit__lambda attributes {mhlo.num_partitions = 1 : i32, mhlo.num_replicas = 1 : i32} {\n  func.func public @main(%arg0: tensor<7x4xf32>) -> (tensor<28xf32> {jax.result_info = \"result\"}) {\n    %0 = stablehlo.reshape %arg0 : (tensor<7x4xf32>) -> tensor<28xf32>\n    return %0 : tensor<28xf32>\n  }\n}\n",
    "metadata": {
      "category": "array",
      "operation": "reshape",
      "description": "Array operation: reshape"
    }
  },
  {
    "python_code": "lambda x, y: jnp.stack([x, y])",
    "input_info": [
      {
        "shape": [
          4,
          7,
          6
        ],
        "dtype": "float32"
      },
      {
        "shape": [
          4,
          7,
          6
        ],
        "dtype": "float32"
      }
    ],
    "jaxpr": "{ lambda ; a:f32[4,7,6] b:f32[4,7,6]. let\n    c:f32[1,4,7,6] = broadcast_in_dim[\n      broadcast_dimensions=(1, 2, 3)\n      shape=(1, 4, 7, 6)\n      sharding=None\n    ] a\n    d:f32[1,4,7,6] = broadcast_in_dim[\n      broadcast_dimensions=(1, 2, 3)\n      shape=(1, 4, 7, 6)\n      sharding=None\n    ] b\n    e:f32[2,4,7,6] = concatenate[dimension=0] c d\n  in (e,) }",
    "stablehlo": "module @jit__lambda attributes {mhlo.num_partitions = 1 : i32, mhlo.num_replicas = 1 : i32} {\n  func.func public @main(%arg0: tensor<4x7x6xf32>, %arg1: tensor<4x7x6xf32>) -> (tensor<2x4x7x6xf32> {jax.result_info = \"result\"}) {\n    %0 = stablehlo.broadcast_in_dim %arg0, dims = [1, 2, 3] : (tensor<4x7x6xf32>) -> tensor<1x4x7x6xf32>\n    %1 = stablehlo.broadcast_in_dim %arg1, dims = [1, 2, 3] : (tensor<4x7x6xf32>) -> tensor<1x4x7x6xf32>\n    %2 = stablehlo.concatenate %0, %1, dim = 0 : (tensor<1x4x7x6xf32>, tensor<1x4x7x6xf32>) -> tensor<2x4x7x6xf32>\n    return %2 : tensor<2x4x7x6xf32>\n  }\n}\n",
    "metadata": {
      "category": "array",
      "operation": "stack",
      "description": "Array operation: stack"
    }
  },
  {
    "python_code": "lambda x: x[1:, :]",
    "input_info": [
      {
        "shape": [
          7,
          10
        ],
        "dtype": "float32"
      }
    ],
    "jaxpr": "{ lambda ; a:f32[7,10]. let\n    b:f32[6,10] = slice[limit_indices=(7, 10) start_indices=(1, 0) strides=None] a\n  in (b,) }",
    "stablehlo": "module @jit__lambda attributes {mhlo.num_partitions = 1 : i32, mhlo.num_replicas = 1 : i32} {\n  func.func public @main(%arg0: tensor<7x10xf32>) -> (tensor<6x10xf32> {jax.result_info = \"result\"}) {\n    %0 = stablehlo.slice %arg0 [1:7, 0:10] : (tensor<7x10xf32>) -> tensor<6x10xf32>\n    return %0 : tensor<6x10xf32>\n  }\n}\n",
    "metadata": {
      "category": "array",
      "operation": "slice",
      "description": "Array operation: slice"
    }
  },
  {
    "python_code": "lambda x: jnp.reshape(x, (5,))",
    "input_info": [
      {
        "shape": [
          5
        ],
        "dtype": "float32"
      }
    ],
    "jaxpr": "{ lambda ; a:f32[5]. let  in (a,) }",
    "stablehlo": "module @jit__lambda attributes {mhlo.num_partitions = 1 : i32, mhlo.num_replicas = 1 : i32} {\n  func.func public @main(%arg0: tensor<5xf32>) -> (tensor<5xf32> {jax.result_info = \"result\"}) {\n    return %arg0 : tensor<5xf32>\n  }\n}\n",
    "metadata": {
      "category": "array",
      "operation": "reshape",
      "description": "Array operation: reshape"
    }
  },
  {
    "python_code": "lambda x: x[1:, :]",
    "input_info": [
      {
        "shape": [
          7,
          10,
          5
        ],
        "dtype": "float32"
      }
    ],
    "jaxpr": "{ lambda ; a:f32[7,10,5]. let\n    b:f32[6,10,5] = slice[\n      limit_indices=(7, 10, 5)\n      start_indices=(1, 0, 0)\n      strides=None\n    ] a\n  in (b,) }",
    "stablehlo": "module @jit__lambda attributes {mhlo.num_partitions = 1 : i32, mhlo.num_replicas = 1 : i32} {\n  func.func public @main(%arg0: tensor<7x10x5xf32>) -> (tensor<6x10x5xf32> {jax.result_info = \"result\"}) {\n    %0 = stablehlo.slice %arg0 [1:7, 0:10, 0:5] : (tensor<7x10x5xf32>) -> tensor<6x10x5xf32>\n    return %0 : tensor<6x10x5xf32>\n  }\n}\n",
    "metadata": {
      "category": "array",
      "operation": "slice",
      "description": "Array operation: slice"
    }
  },
  {
    "python_code": "lambda x, y: jnp.stack([x, y])",
    "input_info": [
      {
        "shape": [
          7,
          8,
          7
        ],
        "dtype": "float32"
      },
      {
        "shape": [
          7,
          8,
          7
        ],
        "dtype": "float32"
      }
    ],
    "jaxpr": "{ lambda ; a:f32[7,8,7] b:f32[7,8,7]. let\n    c:f32[1,7,8,7] = broadcast_in_dim[\n      broadcast_dimensions=(1, 2, 3)\n      shape=(1, 7, 8, 7)\n      sharding=None\n    ] a\n    d:f32[1,7,8,7] = broadcast_in_dim[\n      broadcast_dimensions=(1, 2, 3)\n      shape=(1, 7, 8, 7)\n      sharding=None\n    ] b\n    e:f32[2,7,8,7] = concatenate[dimension=0] c d\n  in (e,) }",
    "stablehlo": "module @jit__lambda attributes {mhlo.num_partitions = 1 : i32, mhlo.num_replicas = 1 : i32} {\n  func.func public @main(%arg0: tensor<7x8x7xf32>, %arg1: tensor<7x8x7xf32>) -> (tensor<2x7x8x7xf32> {jax.result_info = \"result\"}) {\n    %0 = stablehlo.broadcast_in_dim %arg0, dims = [1, 2, 3] : (tensor<7x8x7xf32>) -> tensor<1x7x8x7xf32>\n    %1 = stablehlo.broadcast_in_dim %arg1, dims = [1, 2, 3] : (tensor<7x8x7xf32>) -> tensor<1x7x8x7xf32>\n    %2 = stablehlo.concatenate %0, %1, dim = 0 : (tensor<1x7x8x7xf32>, tensor<1x7x8x7xf32>) -> tensor<2x7x8x7xf32>\n    return %2 : tensor<2x7x8x7xf32>\n  }\n}\n",
    "metadata": {
      "category": "array",
      "operation": "stack",
      "description": "Array operation: stack"
    }
  },
  {
    "python_code": "lambda x, y: jnp.concatenate([x, y], axis=0)",
    "input_info": [
      {
        "shape": [
          10
        ],
        "dtype": "float32"
      },
      {
        "shape": [
          10
        ],
        "dtype": "float32"
      }
    ],
    "jaxpr": "{ lambda ; a:f32[10] b:f32[10]. let\n    c:f32[20] = concatenate[dimension=0] a b\n  in (c,) }",
    "stablehlo": "module @jit__lambda attributes {mhlo.num_partitions = 1 : i32, mhlo.num_replicas = 1 : i32} {\n  func.func public @main(%arg0: tensor<10xf32>, %arg1: tensor<10xf32>) -> (tensor<20xf32> {jax.result_info = \"result\"}) {\n    %0 = stablehlo.concatenate %arg0, %arg1, dim = 0 : (tensor<10xf32>, tensor<10xf32>) -> tensor<20xf32>\n    return %0 : tensor<20xf32>\n  }\n}\n",
    "metadata": {
      "category": "array",
      "operation": "concatenate",
      "description": "Array operation: concatenate"
    }
  },
  {
    "python_code": "lambda x: jnp.reshape(x, (2, 8))",
    "input_info": [
      {
        "shape": [
          2,
          8
        ],
        "dtype": "float32"
      }
    ],
    "jaxpr": "{ lambda ; a:f32[2,8]. let  in (a,) }",
    "stablehlo": "module @jit__lambda attributes {mhlo.num_partitions = 1 : i32, mhlo.num_replicas = 1 : i32} {\n  func.func public @main(%arg0: tensor<2x8xf32>) -> (tensor<2x8xf32> {jax.result_info = \"result\"}) {\n    return %arg0 : tensor<2x8xf32>\n  }\n}\n",
    "metadata": {
      "category": "array",
      "operation": "reshape",
      "description": "Array operation: reshape"
    }
  },
  {
    "python_code": "lambda x, y: jnp.stack([x, y])",
    "input_info": [
      {
        "shape": [
          6,
          2
        ],
        "dtype": "float32"
      },
      {
        "shape": [
          6,
          2
        ],
        "dtype": "float32"
      }
    ],
    "jaxpr": "{ lambda ; a:f32[6,2] b:f32[6,2]. let\n    c:f32[1,6,2] = broadcast_in_dim[\n      broadcast_dimensions=(1, 2)\n      shape=(1, 6, 2)\n      sharding=None\n    ] a\n    d:f32[1,6,2] = broadcast_in_dim[\n      broadcast_dimensions=(1, 2)\n      shape=(1, 6, 2)\n      sharding=None\n    ] b\n    e:f32[2,6,2] = concatenate[dimension=0] c d\n  in (e,) }",
    "stablehlo": "module @jit__lambda attributes {mhlo.num_partitions = 1 : i32, mhlo.num_replicas = 1 : i32} {\n  func.func public @main(%arg0: tensor<6x2xf32>, %arg1: tensor<6x2xf32>) -> (tensor<2x6x2xf32> {jax.result_info = \"result\"}) {\n    %0 = stablehlo.broadcast_in_dim %arg0, dims = [1, 2] : (tensor<6x2xf32>) -> tensor<1x6x2xf32>\n    %1 = stablehlo.broadcast_in_dim %arg1, dims = [1, 2] : (tensor<6x2xf32>) -> tensor<1x6x2xf32>\n    %2 = stablehlo.concatenate %0, %1, dim = 0 : (tensor<1x6x2xf32>, tensor<1x6x2xf32>) -> tensor<2x6x2xf32>\n    return %2 : tensor<2x6x2xf32>\n  }\n}\n",
    "metadata": {
      "category": "array",
      "operation": "stack",
      "description": "Array operation: stack"
    }
  },
  {
    "python_code": "lambda x: x[1:, :]",
    "input_info": [
      {
        "shape": [
          3,
          3,
          5
        ],
        "dtype": "float32"
      }
    ],
    "jaxpr": "{ lambda ; a:f32[3,3,5]. let\n    b:f32[2,3,5] = slice[\n      limit_indices=(3, 3, 5)\n      start_indices=(1, 0, 0)\n      strides=None\n    ] a\n  in (b,) }",
    "stablehlo": "module @jit__lambda attributes {mhlo.num_partitions = 1 : i32, mhlo.num_replicas = 1 : i32} {\n  func.func public @main(%arg0: tensor<3x3x5xf32>) -> (tensor<2x3x5xf32> {jax.result_info = \"result\"}) {\n    %0 = stablehlo.slice %arg0 [1:3, 0:3, 0:5] : (tensor<3x3x5xf32>) -> tensor<2x3x5xf32>\n    return %0 : tensor<2x3x5xf32>\n  }\n}\n",
    "metadata": {
      "category": "array",
      "operation": "slice",
      "description": "Array operation: slice"
    }
  },
  {
    "python_code": "lambda x: jnp.transpose(x)",
    "input_info": [
      {
        "shape": [
          3
        ],
        "dtype": "float32"
      }
    ],
    "jaxpr": "{ lambda ; a:f32[3]. let  in (a,) }",
    "stablehlo": "module @jit__lambda attributes {mhlo.num_partitions = 1 : i32, mhlo.num_replicas = 1 : i32} {\n  func.func public @main(%arg0: tensor<3xf32>) -> (tensor<3xf32> {jax.result_info = \"result\"}) {\n    return %arg0 : tensor<3xf32>\n  }\n}\n",
    "metadata": {
      "category": "array",
      "operation": "transpose",
      "description": "Array operation: transpose"
    }
  },
  {
    "python_code": "lambda x, y: jnp.concatenate([x, y], axis=0)",
    "input_info": [
      {
        "shape": [
          3,
          8
        ],
        "dtype": "float32"
      },
      {
        "shape": [
          3,
          8
        ],
        "dtype": "float32"
      }
    ],
    "jaxpr": "{ lambda ; a:f32[3,8] b:f32[3,8]. let\n    c:f32[6,8] = concatenate[dimension=0] a b\n  in (c,) }",
    "stablehlo": "module @jit__lambda attributes {mhlo.num_partitions = 1 : i32, mhlo.num_replicas = 1 : i32} {\n  func.func public @main(%arg0: tensor<3x8xf32>, %arg1: tensor<3x8xf32>) -> (tensor<6x8xf32> {jax.result_info = \"result\"}) {\n    %0 = stablehlo.concatenate %arg0, %arg1, dim = 0 : (tensor<3x8xf32>, tensor<3x8xf32>) -> tensor<6x8xf32>\n    return %0 : tensor<6x8xf32>\n  }\n}\n",
    "metadata": {
      "category": "array",
      "operation": "concatenate",
      "description": "Array operation: concatenate"
    }
  },
  {
    "python_code": "lambda x: x[1:, :]",
    "input_info": [
      {
        "shape": [
          6,
          5,
          6
        ],
        "dtype": "float32"
      }
    ],
    "jaxpr": "{ lambda ; a:f32[6,5,6]. let\n    b:f32[5,5,6] = slice[\n      limit_indices=(6, 5, 6)\n      start_indices=(1, 0, 0)\n      strides=None\n    ] a\n  in (b,) }",
    "stablehlo": "module @jit__lambda attributes {mhlo.num_partitions = 1 : i32, mhlo.num_replicas = 1 : i32} {\n  func.func public @main(%arg0: tensor<6x5x6xf32>) -> (tensor<5x5x6xf32> {jax.result_info = \"result\"}) {\n    %0 = stablehlo.slice %arg0 [1:6, 0:5, 0:6] : (tensor<6x5x6xf32>) -> tensor<5x5x6xf32>\n    return %0 : tensor<5x5x6xf32>\n  }\n}\n",
    "metadata": {
      "category": "array",
      "operation": "slice",
      "description": "Array operation: slice"
    }
  },
  {
    "python_code": "lambda x, y: jnp.concatenate([x, y], axis=0)",
    "input_info": [
      {
        "shape": [
          9,
          3,
          10
        ],
        "dtype": "float32"
      },
      {
        "shape": [
          9,
          3,
          10
        ],
        "dtype": "float32"
      }
    ],
    "jaxpr": "{ lambda ; a:f32[9,3,10] b:f32[9,3,10]. let\n    c:f32[18,3,10] = concatenate[dimension=0] a b\n  in (c,) }",
    "stablehlo": "module @jit__lambda attributes {mhlo.num_partitions = 1 : i32, mhlo.num_replicas = 1 : i32} {\n  func.func public @main(%arg0: tensor<9x3x10xf32>, %arg1: tensor<9x3x10xf32>) -> (tensor<18x3x10xf32> {jax.result_info = \"result\"}) {\n    %0 = stablehlo.concatenate %arg0, %arg1, dim = 0 : (tensor<9x3x10xf32>, tensor<9x3x10xf32>) -> tensor<18x3x10xf32>\n    return %0 : tensor<18x3x10xf32>\n  }\n}\n",
    "metadata": {
      "category": "array",
      "operation": "concatenate",
      "description": "Array operation: concatenate"
    }
  },
  {
    "python_code": "lambda x: x[1:, :]",
    "input_info": [
      {
        "shape": [
          8,
          4
        ],
        "dtype": "float32"
      }
    ],
    "jaxpr": "{ lambda ; a:f32[8,4]. let\n    b:f32[7,4] = slice[limit_indices=(8, 4) start_indices=(1, 0) strides=None] a\n  in (b,) }",
    "stablehlo": "module @jit__lambda attributes {mhlo.num_partitions = 1 : i32, mhlo.num_replicas = 1 : i32} {\n  func.func public @main(%arg0: tensor<8x4xf32>) -> (tensor<7x4xf32> {jax.result_info = \"result\"}) {\n    %0 = stablehlo.slice %arg0 [1:8, 0:4] : (tensor<8x4xf32>) -> tensor<7x4xf32>\n    return %0 : tensor<7x4xf32>\n  }\n}\n",
    "metadata": {
      "category": "array",
      "operation": "slice",
      "description": "Array operation: slice"
    }
  },
  {
    "python_code": "lambda x: x.T",
    "input_info": [
      {
        "shape": [
          6,
          7
        ],
        "dtype": "float32"
      }
    ],
    "jaxpr": "{ lambda ; a:f32[6,7]. let\n    b:f32[7,6] = transpose[permutation=(1, 0)] a\n  in (b,) }",
    "stablehlo": "module @jit__lambda attributes {mhlo.num_partitions = 1 : i32, mhlo.num_replicas = 1 : i32} {\n  func.func public @main(%arg0: tensor<6x7xf32>) -> (tensor<7x6xf32> {jax.result_info = \"result\"}) {\n    %0 = stablehlo.transpose %arg0, dims = [1, 0] : (tensor<6x7xf32>) -> tensor<7x6xf32>\n    return %0 : tensor<7x6xf32>\n  }\n}\n",
    "metadata": {
      "category": "array",
      "operation": "transpose",
      "description": "Array operation: transpose"
    }
  },
  {
    "python_code": "lambda x: jnp.transpose(x)",
    "input_info": [
      {
        "shape": [
          9,
          4,
          9
        ],
        "dtype": "float32"
      }
    ],
    "jaxpr": "{ lambda ; a:f32[9,4,9]. let\n    b:f32[9,4,9] = transpose[permutation=(2, 1, 0)] a\n  in (b,) }",
    "stablehlo": "module @jit__lambda attributes {mhlo.num_partitions = 1 : i32, mhlo.num_replicas = 1 : i32} {\n  func.func public @main(%arg0: tensor<9x4x9xf32>) -> (tensor<9x4x9xf32> {jax.result_info = \"result\"}) {\n    %0 = stablehlo.transpose %arg0, dims = [2, 1, 0] : (tensor<9x4x9xf32>) -> tensor<9x4x9xf32>\n    return %0 : tensor<9x4x9xf32>\n  }\n}\n",
    "metadata": {
      "category": "array",
      "operation": "transpose",
      "description": "Array operation: transpose"
    }
  },
  {
    "python_code": "lambda x, y: jnp.stack([x, y])",
    "input_info": [
      {
        "shape": [
          6,
          4
        ],
        "dtype": "float32"
      },
      {
        "shape": [
          6,
          4
        ],
        "dtype": "float32"
      }
    ],
    "jaxpr": "{ lambda ; a:f32[6,4] b:f32[6,4]. let\n    c:f32[1,6,4] = broadcast_in_dim[\n      broadcast_dimensions=(1, 2)\n      shape=(1, 6, 4)\n      sharding=None\n    ] a\n    d:f32[1,6,4] = broadcast_in_dim[\n      broadcast_dimensions=(1, 2)\n      shape=(1, 6, 4)\n      sharding=None\n    ] b\n    e:f32[2,6,4] = concatenate[dimension=0] c d\n  in (e,) }",
    "stablehlo": "module @jit__lambda attributes {mhlo.num_partitions = 1 : i32, mhlo.num_replicas = 1 : i32} {\n  func.func public @main(%arg0: tensor<6x4xf32>, %arg1: tensor<6x4xf32>) -> (tensor<2x6x4xf32> {jax.result_info = \"result\"}) {\n    %0 = stablehlo.broadcast_in_dim %arg0, dims = [1, 2] : (tensor<6x4xf32>) -> tensor<1x6x4xf32>\n    %1 = stablehlo.broadcast_in_dim %arg1, dims = [1, 2] : (tensor<6x4xf32>) -> tensor<1x6x4xf32>\n    %2 = stablehlo.concatenate %0, %1, dim = 0 : (tensor<1x6x4xf32>, tensor<1x6x4xf32>) -> tensor<2x6x4xf32>\n    return %2 : tensor<2x6x4xf32>\n  }\n}\n",
    "metadata": {
      "category": "array",
      "operation": "stack",
      "description": "Array operation: stack"
    }
  },
  {
    "python_code": "lambda x: jnp.reshape(x, (10,))",
    "input_info": [
      {
        "shape": [
          10
        ],
        "dtype": "float32"
      }
    ],
    "jaxpr": "{ lambda ; a:f32[10]. let  in (a,) }",
    "stablehlo": "module @jit__lambda attributes {mhlo.num_partitions = 1 : i32, mhlo.num_replicas = 1 : i32} {\n  func.func public @main(%arg0: tensor<10xf32>) -> (tensor<10xf32> {jax.result_info = \"result\"}) {\n    return %arg0 : tensor<10xf32>\n  }\n}\n",
    "metadata": {
      "category": "array",
      "operation": "reshape",
      "description": "Array operation: reshape"
    }
  },
  {
    "python_code": "lambda x: x[1:, :]",
    "input_info": [
      {
        "shape": [
          8,
          8
        ],
        "dtype": "float32"
      }
    ],
    "jaxpr": "{ lambda ; a:f32[8,8]. let\n    b:f32[7,8] = slice[limit_indices=(8, 8) start_indices=(1, 0) strides=None] a\n  in (b,) }",
    "stablehlo": "module @jit__lambda attributes {mhlo.num_partitions = 1 : i32, mhlo.num_replicas = 1 : i32} {\n  func.func public @main(%arg0: tensor<8x8xf32>) -> (tensor<7x8xf32> {jax.result_info = \"result\"}) {\n    %0 = stablehlo.slice %arg0 [1:8, 0:8] : (tensor<8x8xf32>) -> tensor<7x8xf32>\n    return %0 : tensor<7x8xf32>\n  }\n}\n",
    "metadata": {
      "category": "array",
      "operation": "slice",
      "description": "Array operation: slice"
    }
  },
  {
    "python_code": "lambda x: x[1:]",
    "input_info": [
      {
        "shape": [
          10
        ],
        "dtype": "float32"
      }
    ],
    "jaxpr": "{ lambda ; a:f32[10]. let\n    b:f32[9] = slice[limit_indices=(10,) start_indices=(1,) strides=None] a\n  in (b,) }",
    "stablehlo": "module @jit__lambda attributes {mhlo.num_partitions = 1 : i32, mhlo.num_replicas = 1 : i32} {\n  func.func public @main(%arg0: tensor<10xf32>) -> (tensor<9xf32> {jax.result_info = \"result\"}) {\n    %0 = stablehlo.slice %arg0 [1:10] : (tensor<10xf32>) -> tensor<9xf32>\n    return %0 : tensor<9xf32>\n  }\n}\n",
    "metadata": {
      "category": "array",
      "operation": "slice",
      "description": "Array operation: slice"
    }
  },
  {
    "python_code": "lambda x: x[1:, :]",
    "input_info": [
      {
        "shape": [
          10,
          8,
          4
        ],
        "dtype": "float32"
      }
    ],
    "jaxpr": "{ lambda ; a:f32[10,8,4]. let\n    b:f32[9,8,4] = slice[\n      limit_indices=(10, 8, 4)\n      start_indices=(1, 0, 0)\n      strides=None\n    ] a\n  in (b,) }",
    "stablehlo": "module @jit__lambda attributes {mhlo.num_partitions = 1 : i32, mhlo.num_replicas = 1 : i32} {\n  func.func public @main(%arg0: tensor<10x8x4xf32>) -> (tensor<9x8x4xf32> {jax.result_info = \"result\"}) {\n    %0 = stablehlo.slice %arg0 [1:10, 0:8, 0:4] : (tensor<10x8x4xf32>) -> tensor<9x8x4xf32>\n    return %0 : tensor<9x8x4xf32>\n  }\n}\n",
    "metadata": {
      "category": "array",
      "operation": "slice",
      "description": "Array operation: slice"
    }
  },
  {
    "python_code": "lambda x: jnp.reshape(x, (2, 50))",
    "input_info": [
      {
        "shape": [
          10,
          10
        ],
        "dtype": "float32"
      }
    ],
    "jaxpr": "{ lambda ; a:f32[10,10]. let\n    b:f32[2,50] = reshape[dimensions=None new_sizes=(2, 50) sharding=None] a\n  in (b,) }",
    "stablehlo": "module @jit__lambda attributes {mhlo.num_partitions = 1 : i32, mhlo.num_replicas = 1 : i32} {\n  func.func public @main(%arg0: tensor<10x10xf32>) -> (tensor<2x50xf32> {jax.result_info = \"result\"}) {\n    %0 = stablehlo.reshape %arg0 : (tensor<10x10xf32>) -> tensor<2x50xf32>\n    return %0 : tensor<2x50xf32>\n  }\n}\n",
    "metadata": {
      "category": "array",
      "operation": "reshape",
      "description": "Array operation: reshape"
    }
  },
  {
    "python_code": "lambda x, y: jnp.concatenate([x, y], axis=0)",
    "input_info": [
      {
        "shape": [
          8,
          6
        ],
        "dtype": "float32"
      },
      {
        "shape": [
          8,
          6
        ],
        "dtype": "float32"
      }
    ],
    "jaxpr": "{ lambda ; a:f32[8,6] b:f32[8,6]. let\n    c:f32[16,6] = concatenate[dimension=0] a b\n  in (c,) }",
    "stablehlo": "module @jit__lambda attributes {mhlo.num_partitions = 1 : i32, mhlo.num_replicas = 1 : i32} {\n  func.func public @main(%arg0: tensor<8x6xf32>, %arg1: tensor<8x6xf32>) -> (tensor<16x6xf32> {jax.result_info = \"result\"}) {\n    %0 = stablehlo.concatenate %arg0, %arg1, dim = 0 : (tensor<8x6xf32>, tensor<8x6xf32>) -> tensor<16x6xf32>\n    return %0 : tensor<16x6xf32>\n  }\n}\n",
    "metadata": {
      "category": "array",
      "operation": "concatenate",
      "description": "Array operation: concatenate"
    }
  },
  {
    "python_code": "lambda x: x[1:]",
    "input_info": [
      {
        "shape": [
          3
        ],
        "dtype": "float32"
      }
    ],
    "jaxpr": "{ lambda ; a:f32[3]. let\n    b:f32[2] = slice[limit_indices=(3,) start_indices=(1,) strides=None] a\n  in (b,) }",
    "stablehlo": "module @jit__lambda attributes {mhlo.num_partitions = 1 : i32, mhlo.num_replicas = 1 : i32} {\n  func.func public @main(%arg0: tensor<3xf32>) -> (tensor<2xf32> {jax.result_info = \"result\"}) {\n    %0 = stablehlo.slice %arg0 [1:3] : (tensor<3xf32>) -> tensor<2xf32>\n    return %0 : tensor<2xf32>\n  }\n}\n",
    "metadata": {
      "category": "array",
      "operation": "slice",
      "description": "Array operation: slice"
    }
  },
  {
    "python_code": "lambda x: jnp.reshape(x, (48,))",
    "input_info": [
      {
        "shape": [
          6,
          8
        ],
        "dtype": "float32"
      }
    ],
    "jaxpr": "{ lambda ; a:f32[6,8]. let\n    b:f32[48] = reshape[dimensions=None new_sizes=(48,) sharding=None] a\n  in (b,) }",
    "stablehlo": "module @jit__lambda attributes {mhlo.num_partitions = 1 : i32, mhlo.num_replicas = 1 : i32} {\n  func.func public @main(%arg0: tensor<6x8xf32>) -> (tensor<48xf32> {jax.result_info = \"result\"}) {\n    %0 = stablehlo.reshape %arg0 : (tensor<6x8xf32>) -> tensor<48xf32>\n    return %0 : tensor<48xf32>\n  }\n}\n",
    "metadata": {
      "category": "array",
      "operation": "reshape",
      "description": "Array operation: reshape"
    }
  },
  {
    "python_code": "lambda x: x.T",
    "input_info": [
      {
        "shape": [
          6,
          4
        ],
        "dtype": "float32"
      }
    ],
    "jaxpr": "{ lambda ; a:f32[6,4]. let\n    b:f32[4,6] = transpose[permutation=(1, 0)] a\n  in (b,) }",
    "stablehlo": "module @jit__lambda attributes {mhlo.num_partitions = 1 : i32, mhlo.num_replicas = 1 : i32} {\n  func.func public @main(%arg0: tensor<6x4xf32>) -> (tensor<4x6xf32> {jax.result_info = \"result\"}) {\n    %0 = stablehlo.transpose %arg0, dims = [1, 0] : (tensor<6x4xf32>) -> tensor<4x6xf32>\n    return %0 : tensor<4x6xf32>\n  }\n}\n",
    "metadata": {
      "category": "array",
      "operation": "transpose",
      "description": "Array operation: transpose"
    }
  },
  {
    "python_code": "lambda x, y: jnp.stack([x, y])",
    "input_info": [
      {
        "shape": [
          7
        ],
        "dtype": "float32"
      },
      {
        "shape": [
          7
        ],
        "dtype": "float32"
      }
    ],
    "jaxpr": "{ lambda ; a:f32[7] b:f32[7]. let\n    c:f32[1,7] = broadcast_in_dim[\n      broadcast_dimensions=(1,)\n      shape=(1, 7)\n      sharding=None\n    ] a\n    d:f32[1,7] = broadcast_in_dim[\n      broadcast_dimensions=(1,)\n      shape=(1, 7)\n      sharding=None\n    ] b\n    e:f32[2,7] = concatenate[dimension=0] c d\n  in (e,) }",
    "stablehlo": "module @jit__lambda attributes {mhlo.num_partitions = 1 : i32, mhlo.num_replicas = 1 : i32} {\n  func.func public @main(%arg0: tensor<7xf32>, %arg1: tensor<7xf32>) -> (tensor<2x7xf32> {jax.result_info = \"result\"}) {\n    %0 = stablehlo.broadcast_in_dim %arg0, dims = [1] : (tensor<7xf32>) -> tensor<1x7xf32>\n    %1 = stablehlo.broadcast_in_dim %arg1, dims = [1] : (tensor<7xf32>) -> tensor<1x7xf32>\n    %2 = stablehlo.concatenate %0, %1, dim = 0 : (tensor<1x7xf32>, tensor<1x7xf32>) -> tensor<2x7xf32>\n    return %2 : tensor<2x7xf32>\n  }\n}\n",
    "metadata": {
      "category": "array",
      "operation": "stack",
      "description": "Array operation: stack"
    }
  },
  {
    "python_code": "lambda x, y: jnp.concatenate([x, y], axis=0)",
    "input_info": [
      {
        "shape": [
          3,
          7
        ],
        "dtype": "float32"
      },
      {
        "shape": [
          3,
          7
        ],
        "dtype": "float32"
      }
    ],
    "jaxpr": "{ lambda ; a:f32[3,7] b:f32[3,7]. let\n    c:f32[6,7] = concatenate[dimension=0] a b\n  in (c,) }",
    "stablehlo": "module @jit__lambda attributes {mhlo.num_partitions = 1 : i32, mhlo.num_replicas = 1 : i32} {\n  func.func public @main(%arg0: tensor<3x7xf32>, %arg1: tensor<3x7xf32>) -> (tensor<6x7xf32> {jax.result_info = \"result\"}) {\n    %0 = stablehlo.concatenate %arg0, %arg1, dim = 0 : (tensor<3x7xf32>, tensor<3x7xf32>) -> tensor<6x7xf32>\n    return %0 : tensor<6x7xf32>\n  }\n}\n",
    "metadata": {
      "category": "array",
      "operation": "concatenate",
      "description": "Array operation: concatenate"
    }
  },
  {
    "python_code": "lambda x, y: jnp.stack([x, y])",
    "input_info": [
      {
        "shape": [
          3
        ],
        "dtype": "float32"
      },
      {
        "shape": [
          3
        ],
        "dtype": "float32"
      }
    ],
    "jaxpr": "{ lambda ; a:f32[3] b:f32[3]. let\n    c:f32[1,3] = broadcast_in_dim[\n      broadcast_dimensions=(1,)\n      shape=(1, 3)\n      sharding=None\n    ] a\n    d:f32[1,3] = broadcast_in_dim[\n      broadcast_dimensions=(1,)\n      shape=(1, 3)\n      sharding=None\n    ] b\n    e:f32[2,3] = concatenate[dimension=0] c d\n  in (e,) }",
    "stablehlo": "module @jit__lambda attributes {mhlo.num_partitions = 1 : i32, mhlo.num_replicas = 1 : i32} {\n  func.func public @main(%arg0: tensor<3xf32>, %arg1: tensor<3xf32>) -> (tensor<2x3xf32> {jax.result_info = \"result\"}) {\n    %0 = stablehlo.broadcast_in_dim %arg0, dims = [1] : (tensor<3xf32>) -> tensor<1x3xf32>\n    %1 = stablehlo.broadcast_in_dim %arg1, dims = [1] : (tensor<3xf32>) -> tensor<1x3xf32>\n    %2 = stablehlo.concatenate %0, %1, dim = 0 : (tensor<1x3xf32>, tensor<1x3xf32>) -> tensor<2x3xf32>\n    return %2 : tensor<2x3xf32>\n  }\n}\n",
    "metadata": {
      "category": "array",
      "operation": "stack",
      "description": "Array operation: stack"
    }
  },
  {
    "python_code": "lambda x: jnp.transpose(x)",
    "input_info": [
      {
        "shape": [
          7,
          6,
          9
        ],
        "dtype": "float32"
      }
    ],
    "jaxpr": "{ lambda ; a:f32[7,6,9]. let\n    b:f32[9,6,7] = transpose[permutation=(2, 1, 0)] a\n  in (b,) }",
    "stablehlo": "module @jit__lambda attributes {mhlo.num_partitions = 1 : i32, mhlo.num_replicas = 1 : i32} {\n  func.func public @main(%arg0: tensor<7x6x9xf32>) -> (tensor<9x6x7xf32> {jax.result_info = \"result\"}) {\n    %0 = stablehlo.transpose %arg0, dims = [2, 1, 0] : (tensor<7x6x9xf32>) -> tensor<9x6x7xf32>\n    return %0 : tensor<9x6x7xf32>\n  }\n}\n",
    "metadata": {
      "category": "array",
      "operation": "transpose",
      "description": "Array operation: transpose"
    }
  },
  {
    "python_code": "lambda x: x.T",
    "input_info": [
      {
        "shape": [
          9,
          6
        ],
        "dtype": "float32"
      }
    ],
    "jaxpr": "{ lambda ; a:f32[9,6]. let\n    b:f32[6,9] = transpose[permutation=(1, 0)] a\n  in (b,) }",
    "stablehlo": "module @jit__lambda attributes {mhlo.num_partitions = 1 : i32, mhlo.num_replicas = 1 : i32} {\n  func.func public @main(%arg0: tensor<9x6xf32>) -> (tensor<6x9xf32> {jax.result_info = \"result\"}) {\n    %0 = stablehlo.transpose %arg0, dims = [1, 0] : (tensor<9x6xf32>) -> tensor<6x9xf32>\n    return %0 : tensor<6x9xf32>\n  }\n}\n",
    "metadata": {
      "category": "array",
      "operation": "transpose",
      "description": "Array operation: transpose"
    }
  },
  {
    "python_code": "lambda x, y: jnp.stack([x, y])",
    "input_info": [
      {
        "shape": [
          3,
          2,
          5
        ],
        "dtype": "float32"
      },
      {
        "shape": [
          3,
          2,
          5
        ],
        "dtype": "float32"
      }
    ],
    "jaxpr": "{ lambda ; a:f32[3,2,5] b:f32[3,2,5]. let\n    c:f32[1,3,2,5] = broadcast_in_dim[\n      broadcast_dimensions=(1, 2, 3)\n      shape=(1, 3, 2, 5)\n      sharding=None\n    ] a\n    d:f32[1,3,2,5] = broadcast_in_dim[\n      broadcast_dimensions=(1, 2, 3)\n      shape=(1, 3, 2, 5)\n      sharding=None\n    ] b\n    e:f32[2,3,2,5] = concatenate[dimension=0] c d\n  in (e,) }",
    "stablehlo": "module @jit__lambda attributes {mhlo.num_partitions = 1 : i32, mhlo.num_replicas = 1 : i32} {\n  func.func public @main(%arg0: tensor<3x2x5xf32>, %arg1: tensor<3x2x5xf32>) -> (tensor<2x3x2x5xf32> {jax.result_info = \"result\"}) {\n    %0 = stablehlo.broadcast_in_dim %arg0, dims = [1, 2, 3] : (tensor<3x2x5xf32>) -> tensor<1x3x2x5xf32>\n    %1 = stablehlo.broadcast_in_dim %arg1, dims = [1, 2, 3] : (tensor<3x2x5xf32>) -> tensor<1x3x2x5xf32>\n    %2 = stablehlo.concatenate %0, %1, dim = 0 : (tensor<1x3x2x5xf32>, tensor<1x3x2x5xf32>) -> tensor<2x3x2x5xf32>\n    return %2 : tensor<2x3x2x5xf32>\n  }\n}\n",
    "metadata": {
      "category": "array",
      "operation": "stack",
      "description": "Array operation: stack"
    }
  },
  {
    "python_code": "lambda x, y: jnp.concatenate([x, y], axis=0)",
    "input_info": [
      {
        "shape": [
          9,
          8,
          4
        ],
        "dtype": "float32"
      },
      {
        "shape": [
          9,
          8,
          4
        ],
        "dtype": "float32"
      }
    ],
    "jaxpr": "{ lambda ; a:f32[9,8,4] b:f32[9,8,4]. let\n    c:f32[18,8,4] = concatenate[dimension=0] a b\n  in (c,) }",
    "stablehlo": "module @jit__lambda attributes {mhlo.num_partitions = 1 : i32, mhlo.num_replicas = 1 : i32} {\n  func.func public @main(%arg0: tensor<9x8x4xf32>, %arg1: tensor<9x8x4xf32>) -> (tensor<18x8x4xf32> {jax.result_info = \"result\"}) {\n    %0 = stablehlo.concatenate %arg0, %arg1, dim = 0 : (tensor<9x8x4xf32>, tensor<9x8x4xf32>) -> tensor<18x8x4xf32>\n    return %0 : tensor<18x8x4xf32>\n  }\n}\n",
    "metadata": {
      "category": "array",
      "operation": "concatenate",
      "description": "Array operation: concatenate"
    }
  },
  {
    "python_code": "lambda x: x[1:, :]",
    "input_info": [
      {
        "shape": [
          9,
          10
        ],
        "dtype": "float32"
      }
    ],
    "jaxpr": "{ lambda ; a:f32[9,10]. let\n    b:f32[8,10] = slice[limit_indices=(9, 10) start_indices=(1, 0) strides=None] a\n  in (b,) }",
    "stablehlo": "module @jit__lambda attributes {mhlo.num_partitions = 1 : i32, mhlo.num_replicas = 1 : i32} {\n  func.func public @main(%arg0: tensor<9x10xf32>) -> (tensor<8x10xf32> {jax.result_info = \"result\"}) {\n    %0 = stablehlo.slice %arg0 [1:9, 0:10] : (tensor<9x10xf32>) -> tensor<8x10xf32>\n    return %0 : tensor<8x10xf32>\n  }\n}\n",
    "metadata": {
      "category": "array",
      "operation": "slice",
      "description": "Array operation: slice"
    }
  },
  {
    "python_code": "lambda x: x.T",
    "input_info": [
      {
        "shape": [
          10,
          3
        ],
        "dtype": "float32"
      }
    ],
    "jaxpr": "{ lambda ; a:f32[10,3]. let\n    b:f32[3,10] = transpose[permutation=(1, 0)] a\n  in (b,) }",
    "stablehlo": "module @jit__lambda attributes {mhlo.num_partitions = 1 : i32, mhlo.num_replicas = 1 : i32} {\n  func.func public @main(%arg0: tensor<10x3xf32>) -> (tensor<3x10xf32> {jax.result_info = \"result\"}) {\n    %0 = stablehlo.transpose %arg0, dims = [1, 0] : (tensor<10x3xf32>) -> tensor<3x10xf32>\n    return %0 : tensor<3x10xf32>\n  }\n}\n",
    "metadata": {
      "category": "array",
      "operation": "transpose",
      "description": "Array operation: transpose"
    }
  },
  {
    "python_code": "lambda x: jnp.reshape(x, (49,))",
    "input_info": [
      {
        "shape": [
          7,
          7
        ],
        "dtype": "float32"
      }
    ],
    "jaxpr": "{ lambda ; a:f32[7,7]. let\n    b:f32[49] = reshape[dimensions=None new_sizes=(49,) sharding=None] a\n  in (b,) }",
    "stablehlo": "module @jit__lambda attributes {mhlo.num_partitions = 1 : i32, mhlo.num_replicas = 1 : i32} {\n  func.func public @main(%arg0: tensor<7x7xf32>) -> (tensor<49xf32> {jax.result_info = \"result\"}) {\n    %0 = stablehlo.reshape %arg0 : (tensor<7x7xf32>) -> tensor<49xf32>\n    return %0 : tensor<49xf32>\n  }\n}\n",
    "metadata": {
      "category": "array",
      "operation": "reshape",
      "description": "Array operation: reshape"
    }
  },
  {
    "python_code": "lambda x: x[1:, :]",
    "input_info": [
      {
        "shape": [
          7,
          7
        ],
        "dtype": "float32"
      }
    ],
    "jaxpr": "{ lambda ; a:f32[7,7]. let\n    b:f32[6,7] = slice[limit_indices=(7, 7) start_indices=(1, 0) strides=None] a\n  in (b,) }",
    "stablehlo": "module @jit__lambda attributes {mhlo.num_partitions = 1 : i32, mhlo.num_replicas = 1 : i32} {\n  func.func public @main(%arg0: tensor<7x7xf32>) -> (tensor<6x7xf32> {jax.result_info = \"result\"}) {\n    %0 = stablehlo.slice %arg0 [1:7, 0:7] : (tensor<7x7xf32>) -> tensor<6x7xf32>\n    return %0 : tensor<6x7xf32>\n  }\n}\n",
    "metadata": {
      "category": "array",
      "operation": "slice",
      "description": "Array operation: slice"
    }
  },
  {
    "python_code": "lambda x: jnp.transpose(x)",
    "input_info": [
      {
        "shape": [
          4
        ],
        "dtype": "float32"
      }
    ],
    "jaxpr": "{ lambda ; a:f32[4]. let  in (a,) }",
    "stablehlo": "module @jit__lambda attributes {mhlo.num_partitions = 1 : i32, mhlo.num_replicas = 1 : i32} {\n  func.func public @main(%arg0: tensor<4xf32>) -> (tensor<4xf32> {jax.result_info = \"result\"}) {\n    return %arg0 : tensor<4xf32>\n  }\n}\n",
    "metadata": {
      "category": "array",
      "operation": "transpose",
      "description": "Array operation: transpose"
    }
  },
  {
    "python_code": "lambda x, y: jnp.concatenate([x, y], axis=0)",
    "input_info": [
      {
        "shape": [
          5
        ],
        "dtype": "float32"
      },
      {
        "shape": [
          5
        ],
        "dtype": "float32"
      }
    ],
    "jaxpr": "{ lambda ; a:f32[5] b:f32[5]. let\n    c:f32[10] = concatenate[dimension=0] a b\n  in (c,) }",
    "stablehlo": "module @jit__lambda attributes {mhlo.num_partitions = 1 : i32, mhlo.num_replicas = 1 : i32} {\n  func.func public @main(%arg0: tensor<5xf32>, %arg1: tensor<5xf32>) -> (tensor<10xf32> {jax.result_info = \"result\"}) {\n    %0 = stablehlo.concatenate %arg0, %arg1, dim = 0 : (tensor<5xf32>, tensor<5xf32>) -> tensor<10xf32>\n    return %0 : tensor<10xf32>\n  }\n}\n",
    "metadata": {
      "category": "array",
      "operation": "concatenate",
      "description": "Array operation: concatenate"
    }
  },
  {
    "python_code": "lambda x, y: jnp.stack([x, y])",
    "input_info": [
      {
        "shape": [
          10,
          6
        ],
        "dtype": "float32"
      },
      {
        "shape": [
          10,
          6
        ],
        "dtype": "float32"
      }
    ],
    "jaxpr": "{ lambda ; a:f32[10,6] b:f32[10,6]. let\n    c:f32[1,10,6] = broadcast_in_dim[\n      broadcast_dimensions=(1, 2)\n      shape=(1, 10, 6)\n      sharding=None\n    ] a\n    d:f32[1,10,6] = broadcast_in_dim[\n      broadcast_dimensions=(1, 2)\n      shape=(1, 10, 6)\n      sharding=None\n    ] b\n    e:f32[2,10,6] = concatenate[dimension=0] c d\n  in (e,) }",
    "stablehlo": "module @jit__lambda attributes {mhlo.num_partitions = 1 : i32, mhlo.num_replicas = 1 : i32} {\n  func.func public @main(%arg0: tensor<10x6xf32>, %arg1: tensor<10x6xf32>) -> (tensor<2x10x6xf32> {jax.result_info = \"result\"}) {\n    %0 = stablehlo.broadcast_in_dim %arg0, dims = [1, 2] : (tensor<10x6xf32>) -> tensor<1x10x6xf32>\n    %1 = stablehlo.broadcast_in_dim %arg1, dims = [1, 2] : (tensor<10x6xf32>) -> tensor<1x10x6xf32>\n    %2 = stablehlo.concatenate %0, %1, dim = 0 : (tensor<1x10x6xf32>, tensor<1x10x6xf32>) -> tensor<2x10x6xf32>\n    return %2 : tensor<2x10x6xf32>\n  }\n}\n",
    "metadata": {
      "category": "array",
      "operation": "stack",
      "description": "Array operation: stack"
    }
  },
  {
    "python_code": "lambda x, y: jnp.stack([x, y])",
    "input_info": [
      {
        "shape": [
          7,
          4
        ],
        "dtype": "float32"
      },
      {
        "shape": [
          7,
          4
        ],
        "dtype": "float32"
      }
    ],
    "jaxpr": "{ lambda ; a:f32[7,4] b:f32[7,4]. let\n    c:f32[1,7,4] = broadcast_in_dim[\n      broadcast_dimensions=(1, 2)\n      shape=(1, 7, 4)\n      sharding=None\n    ] a\n    d:f32[1,7,4] = broadcast_in_dim[\n      broadcast_dimensions=(1, 2)\n      shape=(1, 7, 4)\n      sharding=None\n    ] b\n    e:f32[2,7,4] = concatenate[dimension=0] c d\n  in (e,) }",
    "stablehlo": "module @jit__lambda attributes {mhlo.num_partitions = 1 : i32, mhlo.num_replicas = 1 : i32} {\n  func.func public @main(%arg0: tensor<7x4xf32>, %arg1: tensor<7x4xf32>) -> (tensor<2x7x4xf32> {jax.result_info = \"result\"}) {\n    %0 = stablehlo.broadcast_in_dim %arg0, dims = [1, 2] : (tensor<7x4xf32>) -> tensor<1x7x4xf32>\n    %1 = stablehlo.broadcast_in_dim %arg1, dims = [1, 2] : (tensor<7x4xf32>) -> tensor<1x7x4xf32>\n    %2 = stablehlo.concatenate %0, %1, dim = 0 : (tensor<1x7x4xf32>, tensor<1x7x4xf32>) -> tensor<2x7x4xf32>\n    return %2 : tensor<2x7x4xf32>\n  }\n}\n",
    "metadata": {
      "category": "array",
      "operation": "stack",
      "description": "Array operation: stack"
    }
  },
  {
    "python_code": "lambda x, y: jnp.concatenate([x, y], axis=0)",
    "input_info": [
      {
        "shape": [
          3,
          3
        ],
        "dtype": "float32"
      },
      {
        "shape": [
          3,
          3
        ],
        "dtype": "float32"
      }
    ],
    "jaxpr": "{ lambda ; a:f32[3,3] b:f32[3,3]. let\n    c:f32[6,3] = concatenate[dimension=0] a b\n  in (c,) }",
    "stablehlo": "module @jit__lambda attributes {mhlo.num_partitions = 1 : i32, mhlo.num_replicas = 1 : i32} {\n  func.func public @main(%arg0: tensor<3x3xf32>, %arg1: tensor<3x3xf32>) -> (tensor<6x3xf32> {jax.result_info = \"result\"}) {\n    %0 = stablehlo.concatenate %arg0, %arg1, dim = 0 : (tensor<3x3xf32>, tensor<3x3xf32>) -> tensor<6x3xf32>\n    return %0 : tensor<6x3xf32>\n  }\n}\n",
    "metadata": {
      "category": "array",
      "operation": "concatenate",
      "description": "Array operation: concatenate"
    }
  },
  {
    "python_code": "lambda x: x[1:, :]",
    "input_info": [
      {
        "shape": [
          2,
          9
        ],
        "dtype": "float32"
      }
    ],
    "jaxpr": "{ lambda ; a:f32[2,9]. let\n    b:f32[1,9] = slice[limit_indices=(2, 9) start_indices=(1, 0) strides=None] a\n  in (b,) }",
    "stablehlo": "module @jit__lambda attributes {mhlo.num_partitions = 1 : i32, mhlo.num_replicas = 1 : i32} {\n  func.func public @main(%arg0: tensor<2x9xf32>) -> (tensor<1x9xf32> {jax.result_info = \"result\"}) {\n    %0 = stablehlo.slice %arg0 [1:2, 0:9] : (tensor<2x9xf32>) -> tensor<1x9xf32>\n    return %0 : tensor<1x9xf32>\n  }\n}\n",
    "metadata": {
      "category": "array",
      "operation": "slice",
      "description": "Array operation: slice"
    }
  },
  {
    "python_code": "lambda x: jnp.transpose(x)",
    "input_info": [
      {
        "shape": [
          6,
          3,
          3
        ],
        "dtype": "float32"
      }
    ],
    "jaxpr": "{ lambda ; a:f32[6,3,3]. let\n    b:f32[3,3,6] = transpose[permutation=(2, 1, 0)] a\n  in (b,) }",
    "stablehlo": "module @jit__lambda attributes {mhlo.num_partitions = 1 : i32, mhlo.num_replicas = 1 : i32} {\n  func.func public @main(%arg0: tensor<6x3x3xf32>) -> (tensor<3x3x6xf32> {jax.result_info = \"result\"}) {\n    %0 = stablehlo.transpose %arg0, dims = [2, 1, 0] : (tensor<6x3x3xf32>) -> tensor<3x3x6xf32>\n    return %0 : tensor<3x3x6xf32>\n  }\n}\n",
    "metadata": {
      "category": "array",
      "operation": "transpose",
      "description": "Array operation: transpose"
    }
  },
  {
    "python_code": "lambda x, y: jnp.concatenate([x, y], axis=0)",
    "input_info": [
      {
        "shape": [
          2,
          3,
          7
        ],
        "dtype": "float32"
      },
      {
        "shape": [
          2,
          3,
          7
        ],
        "dtype": "float32"
      }
    ],
    "jaxpr": "{ lambda ; a:f32[2,3,7] b:f32[2,3,7]. let\n    c:f32[4,3,7] = concatenate[dimension=0] a b\n  in (c,) }",
    "stablehlo": "module @jit__lambda attributes {mhlo.num_partitions = 1 : i32, mhlo.num_replicas = 1 : i32} {\n  func.func public @main(%arg0: tensor<2x3x7xf32>, %arg1: tensor<2x3x7xf32>) -> (tensor<4x3x7xf32> {jax.result_info = \"result\"}) {\n    %0 = stablehlo.concatenate %arg0, %arg1, dim = 0 : (tensor<2x3x7xf32>, tensor<2x3x7xf32>) -> tensor<4x3x7xf32>\n    return %0 : tensor<4x3x7xf32>\n  }\n}\n",
    "metadata": {
      "category": "array",
      "operation": "concatenate",
      "description": "Array operation: concatenate"
    }
  },
  {
    "python_code": "lambda x, y: jnp.concatenate([x, y], axis=0)",
    "input_info": [
      {
        "shape": [
          9
        ],
        "dtype": "float32"
      },
      {
        "shape": [
          9
        ],
        "dtype": "float32"
      }
    ],
    "jaxpr": "{ lambda ; a:f32[9] b:f32[9]. let\n    c:f32[18] = concatenate[dimension=0] a b\n  in (c,) }",
    "stablehlo": "module @jit__lambda attributes {mhlo.num_partitions = 1 : i32, mhlo.num_replicas = 1 : i32} {\n  func.func public @main(%arg0: tensor<9xf32>, %arg1: tensor<9xf32>) -> (tensor<18xf32> {jax.result_info = \"result\"}) {\n    %0 = stablehlo.concatenate %arg0, %arg1, dim = 0 : (tensor<9xf32>, tensor<9xf32>) -> tensor<18xf32>\n    return %0 : tensor<18xf32>\n  }\n}\n",
    "metadata": {
      "category": "array",
      "operation": "concatenate",
      "description": "Array operation: concatenate"
    }
  },
  {
    "python_code": "lambda x: jnp.transpose(x)",
    "input_info": [
      {
        "shape": [
          3
        ],
        "dtype": "float32"
      }
    ],
    "jaxpr": "{ lambda ; a:f32[3]. let  in (a,) }",
    "stablehlo": "module @jit__lambda attributes {mhlo.num_partitions = 1 : i32, mhlo.num_replicas = 1 : i32} {\n  func.func public @main(%arg0: tensor<3xf32>) -> (tensor<3xf32> {jax.result_info = \"result\"}) {\n    return %arg0 : tensor<3xf32>\n  }\n}\n",
    "metadata": {
      "category": "array",
      "operation": "transpose",
      "description": "Array operation: transpose"
    }
  },
  {
    "python_code": "lambda x: jnp.reshape(x, (75,))",
    "input_info": [
      {
        "shape": [
          5,
          5,
          3
        ],
        "dtype": "float32"
      }
    ],
    "jaxpr": "{ lambda ; a:f32[5,5,3]. let\n    b:f32[75] = reshape[dimensions=None new_sizes=(75,) sharding=None] a\n  in (b,) }",
    "stablehlo": "module @jit__lambda attributes {mhlo.num_partitions = 1 : i32, mhlo.num_replicas = 1 : i32} {\n  func.func public @main(%arg0: tensor<5x5x3xf32>) -> (tensor<75xf32> {jax.result_info = \"result\"}) {\n    %0 = stablehlo.reshape %arg0 : (tensor<5x5x3xf32>) -> tensor<75xf32>\n    return %0 : tensor<75xf32>\n  }\n}\n",
    "metadata": {
      "category": "array",
      "operation": "reshape",
      "description": "Array operation: reshape"
    }
  },
  {
    "python_code": "lambda x: x[1:, :]",
    "input_info": [
      {
        "shape": [
          3,
          3,
          10
        ],
        "dtype": "float32"
      }
    ],
    "jaxpr": "{ lambda ; a:f32[3,3,10]. let\n    b:f32[2,3,10] = slice[\n      limit_indices=(3, 3, 10)\n      start_indices=(1, 0, 0)\n      strides=None\n    ] a\n  in (b,) }",
    "stablehlo": "module @jit__lambda attributes {mhlo.num_partitions = 1 : i32, mhlo.num_replicas = 1 : i32} {\n  func.func public @main(%arg0: tensor<3x3x10xf32>) -> (tensor<2x3x10xf32> {jax.result_info = \"result\"}) {\n    %0 = stablehlo.slice %arg0 [1:3, 0:3, 0:10] : (tensor<3x3x10xf32>) -> tensor<2x3x10xf32>\n    return %0 : tensor<2x3x10xf32>\n  }\n}\n",
    "metadata": {
      "category": "array",
      "operation": "slice",
      "description": "Array operation: slice"
    }
  },
  {
    "python_code": "lambda x, y: jnp.concatenate([x, y], axis=0)",
    "input_info": [
      {
        "shape": [
          3
        ],
        "dtype": "float32"
      },
      {
        "shape": [
          3
        ],
        "dtype": "float32"
      }
    ],
    "jaxpr": "{ lambda ; a:f32[3] b:f32[3]. let\n    c:f32[6] = concatenate[dimension=0] a b\n  in (c,) }",
    "stablehlo": "module @jit__lambda attributes {mhlo.num_partitions = 1 : i32, mhlo.num_replicas = 1 : i32} {\n  func.func public @main(%arg0: tensor<3xf32>, %arg1: tensor<3xf32>) -> (tensor<6xf32> {jax.result_info = \"result\"}) {\n    %0 = stablehlo.concatenate %arg0, %arg1, dim = 0 : (tensor<3xf32>, tensor<3xf32>) -> tensor<6xf32>\n    return %0 : tensor<6xf32>\n  }\n}\n",
    "metadata": {
      "category": "array",
      "operation": "concatenate",
      "description": "Array operation: concatenate"
    }
  },
  {
    "python_code": "lambda x: jnp.reshape(x, (3, 105))",
    "input_info": [
      {
        "shape": [
          5,
          9,
          7
        ],
        "dtype": "float32"
      }
    ],
    "jaxpr": "{ lambda ; a:f32[5,9,7]. let\n    b:f32[3,105] = reshape[dimensions=None new_sizes=(3, 105) sharding=None] a\n  in (b,) }",
    "stablehlo": "module @jit__lambda attributes {mhlo.num_partitions = 1 : i32, mhlo.num_replicas = 1 : i32} {\n  func.func public @main(%arg0: tensor<5x9x7xf32>) -> (tensor<3x105xf32> {jax.result_info = \"result\"}) {\n    %0 = stablehlo.reshape %arg0 : (tensor<5x9x7xf32>) -> tensor<3x105xf32>\n    return %0 : tensor<3x105xf32>\n  }\n}\n",
    "metadata": {
      "category": "array",
      "operation": "reshape",
      "description": "Array operation: reshape"
    }
  },
  {
    "python_code": "lambda x: jnp.reshape(x, (2, 20))",
    "input_info": [
      {
        "shape": [
          10,
          4
        ],
        "dtype": "float32"
      }
    ],
    "jaxpr": "{ lambda ; a:f32[10,4]. let\n    b:f32[2,20] = reshape[dimensions=None new_sizes=(2, 20) sharding=None] a\n  in (b,) }",
    "stablehlo": "module @jit__lambda attributes {mhlo.num_partitions = 1 : i32, mhlo.num_replicas = 1 : i32} {\n  func.func public @main(%arg0: tensor<10x4xf32>) -> (tensor<2x20xf32> {jax.result_info = \"result\"}) {\n    %0 = stablehlo.reshape %arg0 : (tensor<10x4xf32>) -> tensor<2x20xf32>\n    return %0 : tensor<2x20xf32>\n  }\n}\n",
    "metadata": {
      "category": "array",
      "operation": "reshape",
      "description": "Array operation: reshape"
    }
  },
  {
    "python_code": "lambda x: jnp.transpose(x)",
    "input_info": [
      {
        "shape": [
          8,
          2,
          6
        ],
        "dtype": "float32"
      }
    ],
    "jaxpr": "{ lambda ; a:f32[8,2,6]. let\n    b:f32[6,2,8] = transpose[permutation=(2, 1, 0)] a\n  in (b,) }",
    "stablehlo": "module @jit__lambda attributes {mhlo.num_partitions = 1 : i32, mhlo.num_replicas = 1 : i32} {\n  func.func public @main(%arg0: tensor<8x2x6xf32>) -> (tensor<6x2x8xf32> {jax.result_info = \"result\"}) {\n    %0 = stablehlo.transpose %arg0, dims = [2, 1, 0] : (tensor<8x2x6xf32>) -> tensor<6x2x8xf32>\n    return %0 : tensor<6x2x8xf32>\n  }\n}\n",
    "metadata": {
      "category": "array",
      "operation": "transpose",
      "description": "Array operation: transpose"
    }
  },
  {
    "python_code": "lambda x: x[1:, :]",
    "input_info": [
      {
        "shape": [
          3,
          8,
          9
        ],
        "dtype": "float32"
      }
    ],
    "jaxpr": "{ lambda ; a:f32[3,8,9]. let\n    b:f32[2,8,9] = slice[\n      limit_indices=(3, 8, 9)\n      start_indices=(1, 0, 0)\n      strides=None\n    ] a\n  in (b,) }",
    "stablehlo": "module @jit__lambda attributes {mhlo.num_partitions = 1 : i32, mhlo.num_replicas = 1 : i32} {\n  func.func public @main(%arg0: tensor<3x8x9xf32>) -> (tensor<2x8x9xf32> {jax.result_info = \"result\"}) {\n    %0 = stablehlo.slice %arg0 [1:3, 0:8, 0:9] : (tensor<3x8x9xf32>) -> tensor<2x8x9xf32>\n    return %0 : tensor<2x8x9xf32>\n  }\n}\n",
    "metadata": {
      "category": "array",
      "operation": "slice",
      "description": "Array operation: slice"
    }
  },
  {
    "python_code": "lambda x, y: jnp.stack([x, y])",
    "input_info": [
      {
        "shape": [
          9,
          5
        ],
        "dtype": "float32"
      },
      {
        "shape": [
          9,
          5
        ],
        "dtype": "float32"
      }
    ],
    "jaxpr": "{ lambda ; a:f32[9,5] b:f32[9,5]. let\n    c:f32[1,9,5] = broadcast_in_dim[\n      broadcast_dimensions=(1, 2)\n      shape=(1, 9, 5)\n      sharding=None\n    ] a\n    d:f32[1,9,5] = broadcast_in_dim[\n      broadcast_dimensions=(1, 2)\n      shape=(1, 9, 5)\n      sharding=None\n    ] b\n    e:f32[2,9,5] = concatenate[dimension=0] c d\n  in (e,) }",
    "stablehlo": "module @jit__lambda attributes {mhlo.num_partitions = 1 : i32, mhlo.num_replicas = 1 : i32} {\n  func.func public @main(%arg0: tensor<9x5xf32>, %arg1: tensor<9x5xf32>) -> (tensor<2x9x5xf32> {jax.result_info = \"result\"}) {\n    %0 = stablehlo.broadcast_in_dim %arg0, dims = [1, 2] : (tensor<9x5xf32>) -> tensor<1x9x5xf32>\n    %1 = stablehlo.broadcast_in_dim %arg1, dims = [1, 2] : (tensor<9x5xf32>) -> tensor<1x9x5xf32>\n    %2 = stablehlo.concatenate %0, %1, dim = 0 : (tensor<1x9x5xf32>, tensor<1x9x5xf32>) -> tensor<2x9x5xf32>\n    return %2 : tensor<2x9x5xf32>\n  }\n}\n",
    "metadata": {
      "category": "array",
      "operation": "stack",
      "description": "Array operation: stack"
    }
  },
  {
    "python_code": "lambda x, y: jnp.stack([x, y])",
    "input_info": [
      {
        "shape": [
          5
        ],
        "dtype": "float32"
      },
      {
        "shape": [
          5
        ],
        "dtype": "float32"
      }
    ],
    "jaxpr": "{ lambda ; a:f32[5] b:f32[5]. let\n    c:f32[1,5] = broadcast_in_dim[\n      broadcast_dimensions=(1,)\n      shape=(1, 5)\n      sharding=None\n    ] a\n    d:f32[1,5] = broadcast_in_dim[\n      broadcast_dimensions=(1,)\n      shape=(1, 5)\n      sharding=None\n    ] b\n    e:f32[2,5] = concatenate[dimension=0] c d\n  in (e,) }",
    "stablehlo": "module @jit__lambda attributes {mhlo.num_partitions = 1 : i32, mhlo.num_replicas = 1 : i32} {\n  func.func public @main(%arg0: tensor<5xf32>, %arg1: tensor<5xf32>) -> (tensor<2x5xf32> {jax.result_info = \"result\"}) {\n    %0 = stablehlo.broadcast_in_dim %arg0, dims = [1] : (tensor<5xf32>) -> tensor<1x5xf32>\n    %1 = stablehlo.broadcast_in_dim %arg1, dims = [1] : (tensor<5xf32>) -> tensor<1x5xf32>\n    %2 = stablehlo.concatenate %0, %1, dim = 0 : (tensor<1x5xf32>, tensor<1x5xf32>) -> tensor<2x5xf32>\n    return %2 : tensor<2x5xf32>\n  }\n}\n",
    "metadata": {
      "category": "array",
      "operation": "stack",
      "description": "Array operation: stack"
    }
  },
  {
    "python_code": "lambda x: jnp.reshape(x, (2, 196))",
    "input_info": [
      {
        "shape": [
          7,
          8,
          7
        ],
        "dtype": "float32"
      }
    ],
    "jaxpr": "{ lambda ; a:f32[7,8,7]. let\n    b:f32[2,196] = reshape[dimensions=None new_sizes=(2, 196) sharding=None] a\n  in (b,) }",
    "stablehlo": "module @jit__lambda attributes {mhlo.num_partitions = 1 : i32, mhlo.num_replicas = 1 : i32} {\n  func.func public @main(%arg0: tensor<7x8x7xf32>) -> (tensor<2x196xf32> {jax.result_info = \"result\"}) {\n    %0 = stablehlo.reshape %arg0 : (tensor<7x8x7xf32>) -> tensor<2x196xf32>\n    return %0 : tensor<2x196xf32>\n  }\n}\n",
    "metadata": {
      "category": "array",
      "operation": "reshape",
      "description": "Array operation: reshape"
    }
  },
  {
    "python_code": "lambda x: x[1:, :]",
    "input_info": [
      {
        "shape": [
          2,
          7
        ],
        "dtype": "float32"
      }
    ],
    "jaxpr": "{ lambda ; a:f32[2,7]. let\n    b:f32[1,7] = slice[limit_indices=(2, 7) start_indices=(1, 0) strides=None] a\n  in (b,) }",
    "stablehlo": "module @jit__lambda attributes {mhlo.num_partitions = 1 : i32, mhlo.num_replicas = 1 : i32} {\n  func.func public @main(%arg0: tensor<2x7xf32>) -> (tensor<1x7xf32> {jax.result_info = \"result\"}) {\n    %0 = stablehlo.slice %arg0 [1:2, 0:7] : (tensor<2x7xf32>) -> tensor<1x7xf32>\n    return %0 : tensor<1x7xf32>\n  }\n}\n",
    "metadata": {
      "category": "array",
      "operation": "slice",
      "description": "Array operation: slice"
    }
  },
  {
    "python_code": "lambda x: jnp.transpose(x)",
    "input_info": [
      {
        "shape": [
          5,
          3,
          6
        ],
        "dtype": "float32"
      }
    ],
    "jaxpr": "{ lambda ; a:f32[5,3,6]. let\n    b:f32[6,3,5] = transpose[permutation=(2, 1, 0)] a\n  in (b,) }",
    "stablehlo": "module @jit__lambda attributes {mhlo.num_partitions = 1 : i32, mhlo.num_replicas = 1 : i32} {\n  func.func public @main(%arg0: tensor<5x3x6xf32>) -> (tensor<6x3x5xf32> {jax.result_info = \"result\"}) {\n    %0 = stablehlo.transpose %arg0, dims = [2, 1, 0] : (tensor<5x3x6xf32>) -> tensor<6x3x5xf32>\n    return %0 : tensor<6x3x5xf32>\n  }\n}\n",
    "metadata": {
      "category": "array",
      "operation": "transpose",
      "description": "Array operation: transpose"
    }
  },
  {
    "python_code": "lambda x: jnp.reshape(x, (10,))",
    "input_info": [
      {
        "shape": [
          10
        ],
        "dtype": "float32"
      }
    ],
    "jaxpr": "{ lambda ; a:f32[10]. let  in (a,) }",
    "stablehlo": "module @jit__lambda attributes {mhlo.num_partitions = 1 : i32, mhlo.num_replicas = 1 : i32} {\n  func.func public @main(%arg0: tensor<10xf32>) -> (tensor<10xf32> {jax.result_info = \"result\"}) {\n    return %arg0 : tensor<10xf32>\n  }\n}\n",
    "metadata": {
      "category": "array",
      "operation": "reshape",
      "description": "Array operation: reshape"
    }
  },
  {
    "python_code": "lambda x: x[1:, :]",
    "input_info": [
      {
        "shape": [
          4,
          3
        ],
        "dtype": "float32"
      }
    ],
    "jaxpr": "{ lambda ; a:f32[4,3]. let\n    b:f32[3,3] = slice[limit_indices=(4, 3) start_indices=(1, 0) strides=None] a\n  in (b,) }",
    "stablehlo": "module @jit__lambda attributes {mhlo.num_partitions = 1 : i32, mhlo.num_replicas = 1 : i32} {\n  func.func public @main(%arg0: tensor<4x3xf32>) -> (tensor<3x3xf32> {jax.result_info = \"result\"}) {\n    %0 = stablehlo.slice %arg0 [1:4, 0:3] : (tensor<4x3xf32>) -> tensor<3x3xf32>\n    return %0 : tensor<3x3xf32>\n  }\n}\n",
    "metadata": {
      "category": "array",
      "operation": "slice",
      "description": "Array operation: slice"
    }
  },
  {
    "python_code": "lambda x, y: jnp.concatenate([x, y], axis=0)",
    "input_info": [
      {
        "shape": [
          9,
          8,
          3
        ],
        "dtype": "float32"
      },
      {
        "shape": [
          9,
          8,
          3
        ],
        "dtype": "float32"
      }
    ],
    "jaxpr": "{ lambda ; a:f32[9,8,3] b:f32[9,8,3]. let\n    c:f32[18,8,3] = concatenate[dimension=0] a b\n  in (c,) }",
    "stablehlo": "module @jit__lambda attributes {mhlo.num_partitions = 1 : i32, mhlo.num_replicas = 1 : i32} {\n  func.func public @main(%arg0: tensor<9x8x3xf32>, %arg1: tensor<9x8x3xf32>) -> (tensor<18x8x3xf32> {jax.result_info = \"result\"}) {\n    %0 = stablehlo.concatenate %arg0, %arg1, dim = 0 : (tensor<9x8x3xf32>, tensor<9x8x3xf32>) -> tensor<18x8x3xf32>\n    return %0 : tensor<18x8x3xf32>\n  }\n}\n",
    "metadata": {
      "category": "array",
      "operation": "concatenate",
      "description": "Array operation: concatenate"
    }
  },
  {
    "python_code": "lambda x: jnp.transpose(x)",
    "input_info": [
      {
        "shape": [
          8
        ],
        "dtype": "float32"
      }
    ],
    "jaxpr": "{ lambda ; a:f32[8]. let  in (a,) }",
    "stablehlo": "module @jit__lambda attributes {mhlo.num_partitions = 1 : i32, mhlo.num_replicas = 1 : i32} {\n  func.func public @main(%arg0: tensor<8xf32>) -> (tensor<8xf32> {jax.result_info = \"result\"}) {\n    return %arg0 : tensor<8xf32>\n  }\n}\n",
    "metadata": {
      "category": "array",
      "operation": "transpose",
      "description": "Array operation: transpose"
    }
  },
  {
    "python_code": "lambda x: jnp.reshape(x, (30,))",
    "input_info": [
      {
        "shape": [
          10,
          3
        ],
        "dtype": "float32"
      }
    ],
    "jaxpr": "{ lambda ; a:f32[10,3]. let\n    b:f32[30] = reshape[dimensions=None new_sizes=(30,) sharding=None] a\n  in (b,) }",
    "stablehlo": "module @jit__lambda attributes {mhlo.num_partitions = 1 : i32, mhlo.num_replicas = 1 : i32} {\n  func.func public @main(%arg0: tensor<10x3xf32>) -> (tensor<30xf32> {jax.result_info = \"result\"}) {\n    %0 = stablehlo.reshape %arg0 : (tensor<10x3xf32>) -> tensor<30xf32>\n    return %0 : tensor<30xf32>\n  }\n}\n",
    "metadata": {
      "category": "array",
      "operation": "reshape",
      "description": "Array operation: reshape"
    }
  },
  {
    "python_code": "lambda x: jnp.transpose(x)",
    "input_info": [
      {
        "shape": [
          4
        ],
        "dtype": "float32"
      }
    ],
    "jaxpr": "{ lambda ; a:f32[4]. let  in (a,) }",
    "stablehlo": "module @jit__lambda attributes {mhlo.num_partitions = 1 : i32, mhlo.num_replicas = 1 : i32} {\n  func.func public @main(%arg0: tensor<4xf32>) -> (tensor<4xf32> {jax.result_info = \"result\"}) {\n    return %arg0 : tensor<4xf32>\n  }\n}\n",
    "metadata": {
      "category": "array",
      "operation": "transpose",
      "description": "Array operation: transpose"
    }
  },
  {
    "python_code": "lambda x: x.T",
    "input_info": [
      {
        "shape": [
          9,
          3
        ],
        "dtype": "float32"
      }
    ],
    "jaxpr": "{ lambda ; a:f32[9,3]. let\n    b:f32[3,9] = transpose[permutation=(1, 0)] a\n  in (b,) }",
    "stablehlo": "module @jit__lambda attributes {mhlo.num_partitions = 1 : i32, mhlo.num_replicas = 1 : i32} {\n  func.func public @main(%arg0: tensor<9x3xf32>) -> (tensor<3x9xf32> {jax.result_info = \"result\"}) {\n    %0 = stablehlo.transpose %arg0, dims = [1, 0] : (tensor<9x3xf32>) -> tensor<3x9xf32>\n    return %0 : tensor<3x9xf32>\n  }\n}\n",
    "metadata": {
      "category": "array",
      "operation": "transpose",
      "description": "Array operation: transpose"
    }
  },
  {
    "python_code": "lambda x, y: jnp.stack([x, y])",
    "input_info": [
      {
        "shape": [
          5
        ],
        "dtype": "float32"
      },
      {
        "shape": [
          5
        ],
        "dtype": "float32"
      }
    ],
    "jaxpr": "{ lambda ; a:f32[5] b:f32[5]. let\n    c:f32[1,5] = broadcast_in_dim[\n      broadcast_dimensions=(1,)\n      shape=(1, 5)\n      sharding=None\n    ] a\n    d:f32[1,5] = broadcast_in_dim[\n      broadcast_dimensions=(1,)\n      shape=(1, 5)\n      sharding=None\n    ] b\n    e:f32[2,5] = concatenate[dimension=0] c d\n  in (e,) }",
    "stablehlo": "module @jit__lambda attributes {mhlo.num_partitions = 1 : i32, mhlo.num_replicas = 1 : i32} {\n  func.func public @main(%arg0: tensor<5xf32>, %arg1: tensor<5xf32>) -> (tensor<2x5xf32> {jax.result_info = \"result\"}) {\n    %0 = stablehlo.broadcast_in_dim %arg0, dims = [1] : (tensor<5xf32>) -> tensor<1x5xf32>\n    %1 = stablehlo.broadcast_in_dim %arg1, dims = [1] : (tensor<5xf32>) -> tensor<1x5xf32>\n    %2 = stablehlo.concatenate %0, %1, dim = 0 : (tensor<1x5xf32>, tensor<1x5xf32>) -> tensor<2x5xf32>\n    return %2 : tensor<2x5xf32>\n  }\n}\n",
    "metadata": {
      "category": "array",
      "operation": "stack",
      "description": "Array operation: stack"
    }
  },
  {
    "python_code": "lambda x: jnp.reshape(x, (2, 6))",
    "input_info": [
      {
        "shape": [
          2,
          6
        ],
        "dtype": "float32"
      }
    ],
    "jaxpr": "{ lambda ; a:f32[2,6]. let  in (a,) }",
    "stablehlo": "module @jit__lambda attributes {mhlo.num_partitions = 1 : i32, mhlo.num_replicas = 1 : i32} {\n  func.func public @main(%arg0: tensor<2x6xf32>) -> (tensor<2x6xf32> {jax.result_info = \"result\"}) {\n    return %arg0 : tensor<2x6xf32>\n  }\n}\n",
    "metadata": {
      "category": "array",
      "operation": "reshape",
      "description": "Array operation: reshape"
    }
  },
  {
    "python_code": "lambda x: jnp.reshape(x, (270,))",
    "input_info": [
      {
        "shape": [
          6,
          5,
          9
        ],
        "dtype": "float32"
      }
    ],
    "jaxpr": "{ lambda ; a:f32[6,5,9]. let\n    b:f32[270] = reshape[dimensions=None new_sizes=(270,) sharding=None] a\n  in (b,) }",
    "stablehlo": "module @jit__lambda attributes {mhlo.num_partitions = 1 : i32, mhlo.num_replicas = 1 : i32} {\n  func.func public @main(%arg0: tensor<6x5x9xf32>) -> (tensor<270xf32> {jax.result_info = \"result\"}) {\n    %0 = stablehlo.reshape %arg0 : (tensor<6x5x9xf32>) -> tensor<270xf32>\n    return %0 : tensor<270xf32>\n  }\n}\n",
    "metadata": {
      "category": "array",
      "operation": "reshape",
      "description": "Array operation: reshape"
    }
  },
  {
    "python_code": "lambda x: jnp.reshape(x, (162,))",
    "input_info": [
      {
        "shape": [
          9,
          6,
          3
        ],
        "dtype": "float32"
      }
    ],
    "jaxpr": "{ lambda ; a:f32[9,6,3]. let\n    b:f32[162] = reshape[dimensions=None new_sizes=(162,) sharding=None] a\n  in (b,) }",
    "stablehlo": "module @jit__lambda attributes {mhlo.num_partitions = 1 : i32, mhlo.num_replicas = 1 : i32} {\n  func.func public @main(%arg0: tensor<9x6x3xf32>) -> (tensor<162xf32> {jax.result_info = \"result\"}) {\n    %0 = stablehlo.reshape %arg0 : (tensor<9x6x3xf32>) -> tensor<162xf32>\n    return %0 : tensor<162xf32>\n  }\n}\n",
    "metadata": {
      "category": "array",
      "operation": "reshape",
      "description": "Array operation: reshape"
    }
  },
  {
    "python_code": "lambda x, y: jnp.concatenate([x, y], axis=0)",
    "input_info": [
      {
        "shape": [
          7
        ],
        "dtype": "float32"
      },
      {
        "shape": [
          7
        ],
        "dtype": "float32"
      }
    ],
    "jaxpr": "{ lambda ; a:f32[7] b:f32[7]. let\n    c:f32[14] = concatenate[dimension=0] a b\n  in (c,) }",
    "stablehlo": "module @jit__lambda attributes {mhlo.num_partitions = 1 : i32, mhlo.num_replicas = 1 : i32} {\n  func.func public @main(%arg0: tensor<7xf32>, %arg1: tensor<7xf32>) -> (tensor<14xf32> {jax.result_info = \"result\"}) {\n    %0 = stablehlo.concatenate %arg0, %arg1, dim = 0 : (tensor<7xf32>, tensor<7xf32>) -> tensor<14xf32>\n    return %0 : tensor<14xf32>\n  }\n}\n",
    "metadata": {
      "category": "array",
      "operation": "concatenate",
      "description": "Array operation: concatenate"
    }
  },
  {
    "python_code": "lambda x: jnp.reshape(x, (2, 60))",
    "input_info": [
      {
        "shape": [
          5,
          3,
          8
        ],
        "dtype": "float32"
      }
    ],
    "jaxpr": "{ lambda ; a:f32[5,3,8]. let\n    b:f32[2,60] = reshape[dimensions=None new_sizes=(2, 60) sharding=None] a\n  in (b,) }",
    "stablehlo": "module @jit__lambda attributes {mhlo.num_partitions = 1 : i32, mhlo.num_replicas = 1 : i32} {\n  func.func public @main(%arg0: tensor<5x3x8xf32>) -> (tensor<2x60xf32> {jax.result_info = \"result\"}) {\n    %0 = stablehlo.reshape %arg0 : (tensor<5x3x8xf32>) -> tensor<2x60xf32>\n    return %0 : tensor<2x60xf32>\n  }\n}\n",
    "metadata": {
      "category": "array",
      "operation": "reshape",
      "description": "Array operation: reshape"
    }
  },
  {
    "python_code": "lambda x, y: jnp.stack([x, y])",
    "input_info": [
      {
        "shape": [
          10,
          3,
          2
        ],
        "dtype": "float32"
      },
      {
        "shape": [
          10,
          3,
          2
        ],
        "dtype": "float32"
      }
    ],
    "jaxpr": "{ lambda ; a:f32[10,3,2] b:f32[10,3,2]. let\n    c:f32[1,10,3,2] = broadcast_in_dim[\n      broadcast_dimensions=(1, 2, 3)\n      shape=(1, 10, 3, 2)\n      sharding=None\n    ] a\n    d:f32[1,10,3,2] = broadcast_in_dim[\n      broadcast_dimensions=(1, 2, 3)\n      shape=(1, 10, 3, 2)\n      sharding=None\n    ] b\n    e:f32[2,10,3,2] = concatenate[dimension=0] c d\n  in (e,) }",
    "stablehlo": "module @jit__lambda attributes {mhlo.num_partitions = 1 : i32, mhlo.num_replicas = 1 : i32} {\n  func.func public @main(%arg0: tensor<10x3x2xf32>, %arg1: tensor<10x3x2xf32>) -> (tensor<2x10x3x2xf32> {jax.result_info = \"result\"}) {\n    %0 = stablehlo.broadcast_in_dim %arg0, dims = [1, 2, 3] : (tensor<10x3x2xf32>) -> tensor<1x10x3x2xf32>\n    %1 = stablehlo.broadcast_in_dim %arg1, dims = [1, 2, 3] : (tensor<10x3x2xf32>) -> tensor<1x10x3x2xf32>\n    %2 = stablehlo.concatenate %0, %1, dim = 0 : (tensor<1x10x3x2xf32>, tensor<1x10x3x2xf32>) -> tensor<2x10x3x2xf32>\n    return %2 : tensor<2x10x3x2xf32>\n  }\n}\n",
    "metadata": {
      "category": "array",
      "operation": "stack",
      "description": "Array operation: stack"
    }
  },
  {
    "python_code": "lambda x: jnp.transpose(x)",
    "input_info": [
      {
        "shape": [
          4,
          5,
          6
        ],
        "dtype": "float32"
      }
    ],
    "jaxpr": "{ lambda ; a:f32[4,5,6]. let\n    b:f32[6,5,4] = transpose[permutation=(2, 1, 0)] a\n  in (b,) }",
    "stablehlo": "module @jit__lambda attributes {mhlo.num_partitions = 1 : i32, mhlo.num_replicas = 1 : i32} {\n  func.func public @main(%arg0: tensor<4x5x6xf32>) -> (tensor<6x5x4xf32> {jax.result_info = \"result\"}) {\n    %0 = stablehlo.transpose %arg0, dims = [2, 1, 0] : (tensor<4x5x6xf32>) -> tensor<6x5x4xf32>\n    return %0 : tensor<6x5x4xf32>\n  }\n}\n",
    "metadata": {
      "category": "array",
      "operation": "transpose",
      "description": "Array operation: transpose"
    }
  },
  {
    "python_code": "lambda x: x[1:, :]",
    "input_info": [
      {
        "shape": [
          10,
          8
        ],
        "dtype": "float32"
      }
    ],
    "jaxpr": "{ lambda ; a:f32[10,8]. let\n    b:f32[9,8] = slice[limit_indices=(10, 8) start_indices=(1, 0) strides=None] a\n  in (b,) }",
    "stablehlo": "module @jit__lambda attributes {mhlo.num_partitions = 1 : i32, mhlo.num_replicas = 1 : i32} {\n  func.func public @main(%arg0: tensor<10x8xf32>) -> (tensor<9x8xf32> {jax.result_info = \"result\"}) {\n    %0 = stablehlo.slice %arg0 [1:10, 0:8] : (tensor<10x8xf32>) -> tensor<9x8xf32>\n    return %0 : tensor<9x8xf32>\n  }\n}\n",
    "metadata": {
      "category": "array",
      "operation": "slice",
      "description": "Array operation: slice"
    }
  },
  {
    "python_code": "lambda x: jnp.reshape(x, (2, 5))",
    "input_info": [
      {
        "shape": [
          10
        ],
        "dtype": "float32"
      }
    ],
    "jaxpr": "{ lambda ; a:f32[10]. let\n    b:f32[2,5] = reshape[dimensions=None new_sizes=(2, 5) sharding=None] a\n  in (b,) }",
    "stablehlo": "module @jit__lambda attributes {mhlo.num_partitions = 1 : i32, mhlo.num_replicas = 1 : i32} {\n  func.func public @main(%arg0: tensor<10xf32>) -> (tensor<2x5xf32> {jax.result_info = \"result\"}) {\n    %0 = stablehlo.reshape %arg0 : (tensor<10xf32>) -> tensor<2x5xf32>\n    return %0 : tensor<2x5xf32>\n  }\n}\n",
    "metadata": {
      "category": "array",
      "operation": "reshape",
      "description": "Array operation: reshape"
    }
  },
  {
    "python_code": "lambda x, y: jnp.concatenate([x, y], axis=0)",
    "input_info": [
      {
        "shape": [
          4,
          5,
          9
        ],
        "dtype": "float32"
      },
      {
        "shape": [
          4,
          5,
          9
        ],
        "dtype": "float32"
      }
    ],
    "jaxpr": "{ lambda ; a:f32[4,5,9] b:f32[4,5,9]. let\n    c:f32[8,5,9] = concatenate[dimension=0] a b\n  in (c,) }",
    "stablehlo": "module @jit__lambda attributes {mhlo.num_partitions = 1 : i32, mhlo.num_replicas = 1 : i32} {\n  func.func public @main(%arg0: tensor<4x5x9xf32>, %arg1: tensor<4x5x9xf32>) -> (tensor<8x5x9xf32> {jax.result_info = \"result\"}) {\n    %0 = stablehlo.concatenate %arg0, %arg1, dim = 0 : (tensor<4x5x9xf32>, tensor<4x5x9xf32>) -> tensor<8x5x9xf32>\n    return %0 : tensor<8x5x9xf32>\n  }\n}\n",
    "metadata": {
      "category": "array",
      "operation": "concatenate",
      "description": "Array operation: concatenate"
    }
  },
  {
    "python_code": "lambda x: x[1:]",
    "input_info": [
      {
        "shape": [
          7
        ],
        "dtype": "float32"
      }
    ],
    "jaxpr": "{ lambda ; a:f32[7]. let\n    b:f32[6] = slice[limit_indices=(7,) start_indices=(1,) strides=None] a\n  in (b,) }",
    "stablehlo": "module @jit__lambda attributes {mhlo.num_partitions = 1 : i32, mhlo.num_replicas = 1 : i32} {\n  func.func public @main(%arg0: tensor<7xf32>) -> (tensor<6xf32> {jax.result_info = \"result\"}) {\n    %0 = stablehlo.slice %arg0 [1:7] : (tensor<7xf32>) -> tensor<6xf32>\n    return %0 : tensor<6xf32>\n  }\n}\n",
    "metadata": {
      "category": "array",
      "operation": "slice",
      "description": "Array operation: slice"
    }
  },
  {
    "python_code": "lambda x: x[1:, :]",
    "input_info": [
      {
        "shape": [
          10,
          9,
          3
        ],
        "dtype": "float32"
      }
    ],
    "jaxpr": "{ lambda ; a:f32[10,9,3]. let\n    b:f32[9,9,3] = slice[\n      limit_indices=(10, 9, 3)\n      start_indices=(1, 0, 0)\n      strides=None\n    ] a\n  in (b,) }",
    "stablehlo": "module @jit__lambda attributes {mhlo.num_partitions = 1 : i32, mhlo.num_replicas = 1 : i32} {\n  func.func public @main(%arg0: tensor<10x9x3xf32>) -> (tensor<9x9x3xf32> {jax.result_info = \"result\"}) {\n    %0 = stablehlo.slice %arg0 [1:10, 0:9, 0:3] : (tensor<10x9x3xf32>) -> tensor<9x9x3xf32>\n    return %0 : tensor<9x9x3xf32>\n  }\n}\n",
    "metadata": {
      "category": "array",
      "operation": "slice",
      "description": "Array operation: slice"
    }
  },
  {
    "python_code": "lambda x: x[1:, :]",
    "input_info": [
      {
        "shape": [
          4,
          10
        ],
        "dtype": "float32"
      }
    ],
    "jaxpr": "{ lambda ; a:f32[4,10]. let\n    b:f32[3,10] = slice[limit_indices=(4, 10) start_indices=(1, 0) strides=None] a\n  in (b,) }",
    "stablehlo": "module @jit__lambda attributes {mhlo.num_partitions = 1 : i32, mhlo.num_replicas = 1 : i32} {\n  func.func public @main(%arg0: tensor<4x10xf32>) -> (tensor<3x10xf32> {jax.result_info = \"result\"}) {\n    %0 = stablehlo.slice %arg0 [1:4, 0:10] : (tensor<4x10xf32>) -> tensor<3x10xf32>\n    return %0 : tensor<3x10xf32>\n  }\n}\n",
    "metadata": {
      "category": "array",
      "operation": "slice",
      "description": "Array operation: slice"
    }
  },
  {
    "python_code": "lambda x: x[1:, :]",
    "input_info": [
      {
        "shape": [
          9,
          10
        ],
        "dtype": "float32"
      }
    ],
    "jaxpr": "{ lambda ; a:f32[9,10]. let\n    b:f32[8,10] = slice[limit_indices=(9, 10) start_indices=(1, 0) strides=None] a\n  in (b,) }",
    "stablehlo": "module @jit__lambda attributes {mhlo.num_partitions = 1 : i32, mhlo.num_replicas = 1 : i32} {\n  func.func public @main(%arg0: tensor<9x10xf32>) -> (tensor<8x10xf32> {jax.result_info = \"result\"}) {\n    %0 = stablehlo.slice %arg0 [1:9, 0:10] : (tensor<9x10xf32>) -> tensor<8x10xf32>\n    return %0 : tensor<8x10xf32>\n  }\n}\n",
    "metadata": {
      "category": "array",
      "operation": "slice",
      "description": "Array operation: slice"
    }
  },
  {
    "python_code": "lambda x, y: jnp.stack([x, y])",
    "input_info": [
      {
        "shape": [
          5,
          3,
          4
        ],
        "dtype": "float32"
      },
      {
        "shape": [
          5,
          3,
          4
        ],
        "dtype": "float32"
      }
    ],
    "jaxpr": "{ lambda ; a:f32[5,3,4] b:f32[5,3,4]. let\n    c:f32[1,5,3,4] = broadcast_in_dim[\n      broadcast_dimensions=(1, 2, 3)\n      shape=(1, 5, 3, 4)\n      sharding=None\n    ] a\n    d:f32[1,5,3,4] = broadcast_in_dim[\n      broadcast_dimensions=(1, 2, 3)\n      shape=(1, 5, 3, 4)\n      sharding=None\n    ] b\n    e:f32[2,5,3,4] = concatenate[dimension=0] c d\n  in (e,) }",
    "stablehlo": "module @jit__lambda attributes {mhlo.num_partitions = 1 : i32, mhlo.num_replicas = 1 : i32} {\n  func.func public @main(%arg0: tensor<5x3x4xf32>, %arg1: tensor<5x3x4xf32>) -> (tensor<2x5x3x4xf32> {jax.result_info = \"result\"}) {\n    %0 = stablehlo.broadcast_in_dim %arg0, dims = [1, 2, 3] : (tensor<5x3x4xf32>) -> tensor<1x5x3x4xf32>\n    %1 = stablehlo.broadcast_in_dim %arg1, dims = [1, 2, 3] : (tensor<5x3x4xf32>) -> tensor<1x5x3x4xf32>\n    %2 = stablehlo.concatenate %0, %1, dim = 0 : (tensor<1x5x3x4xf32>, tensor<1x5x3x4xf32>) -> tensor<2x5x3x4xf32>\n    return %2 : tensor<2x5x3x4xf32>\n  }\n}\n",
    "metadata": {
      "category": "array",
      "operation": "stack",
      "description": "Array operation: stack"
    }
  },
  {
    "python_code": "lambda x, y: jnp.concatenate([x, y], axis=0)",
    "input_info": [
      {
        "shape": [
          7,
          7,
          10
        ],
        "dtype": "float32"
      },
      {
        "shape": [
          7,
          7,
          10
        ],
        "dtype": "float32"
      }
    ],
    "jaxpr": "{ lambda ; a:f32[7,7,10] b:f32[7,7,10]. let\n    c:f32[14,7,10] = concatenate[dimension=0] a b\n  in (c,) }",
    "stablehlo": "module @jit__lambda attributes {mhlo.num_partitions = 1 : i32, mhlo.num_replicas = 1 : i32} {\n  func.func public @main(%arg0: tensor<7x7x10xf32>, %arg1: tensor<7x7x10xf32>) -> (tensor<14x7x10xf32> {jax.result_info = \"result\"}) {\n    %0 = stablehlo.concatenate %arg0, %arg1, dim = 0 : (tensor<7x7x10xf32>, tensor<7x7x10xf32>) -> tensor<14x7x10xf32>\n    return %0 : tensor<14x7x10xf32>\n  }\n}\n",
    "metadata": {
      "category": "array",
      "operation": "concatenate",
      "description": "Array operation: concatenate"
    }
  },
  {
    "python_code": "lambda x: jnp.reshape(x, (2, 112))",
    "input_info": [
      {
        "shape": [
          7,
          4,
          8
        ],
        "dtype": "float32"
      }
    ],
    "jaxpr": "{ lambda ; a:f32[7,4,8]. let\n    b:f32[2,112] = reshape[dimensions=None new_sizes=(2, 112) sharding=None] a\n  in (b,) }",
    "stablehlo": "module @jit__lambda attributes {mhlo.num_partitions = 1 : i32, mhlo.num_replicas = 1 : i32} {\n  func.func public @main(%arg0: tensor<7x4x8xf32>) -> (tensor<2x112xf32> {jax.result_info = \"result\"}) {\n    %0 = stablehlo.reshape %arg0 : (tensor<7x4x8xf32>) -> tensor<2x112xf32>\n    return %0 : tensor<2x112xf32>\n  }\n}\n",
    "metadata": {
      "category": "array",
      "operation": "reshape",
      "description": "Array operation: reshape"
    }
  },
  {
    "python_code": "lambda x: jnp.reshape(x, (8,))",
    "input_info": [
      {
        "shape": [
          8
        ],
        "dtype": "float32"
      }
    ],
    "jaxpr": "{ lambda ; a:f32[8]. let  in (a,) }",
    "stablehlo": "module @jit__lambda attributes {mhlo.num_partitions = 1 : i32, mhlo.num_replicas = 1 : i32} {\n  func.func public @main(%arg0: tensor<8xf32>) -> (tensor<8xf32> {jax.result_info = \"result\"}) {\n    return %arg0 : tensor<8xf32>\n  }\n}\n",
    "metadata": {
      "category": "array",
      "operation": "reshape",
      "description": "Array operation: reshape"
    }
  },
  {
    "python_code": "lambda x, y: jnp.stack([x, y])",
    "input_info": [
      {
        "shape": [
          2
        ],
        "dtype": "float32"
      },
      {
        "shape": [
          2
        ],
        "dtype": "float32"
      }
    ],
    "jaxpr": "{ lambda ; a:f32[2] b:f32[2]. let\n    c:f32[1,2] = broadcast_in_dim[\n      broadcast_dimensions=(1,)\n      shape=(1, 2)\n      sharding=None\n    ] a\n    d:f32[1,2] = broadcast_in_dim[\n      broadcast_dimensions=(1,)\n      shape=(1, 2)\n      sharding=None\n    ] b\n    e:f32[2,2] = concatenate[dimension=0] c d\n  in (e,) }",
    "stablehlo": "module @jit__lambda attributes {mhlo.num_partitions = 1 : i32, mhlo.num_replicas = 1 : i32} {\n  func.func public @main(%arg0: tensor<2xf32>, %arg1: tensor<2xf32>) -> (tensor<2x2xf32> {jax.result_info = \"result\"}) {\n    %0 = stablehlo.broadcast_in_dim %arg0, dims = [1] : (tensor<2xf32>) -> tensor<1x2xf32>\n    %1 = stablehlo.broadcast_in_dim %arg1, dims = [1] : (tensor<2xf32>) -> tensor<1x2xf32>\n    %2 = stablehlo.concatenate %0, %1, dim = 0 : (tensor<1x2xf32>, tensor<1x2xf32>) -> tensor<2x2xf32>\n    return %2 : tensor<2x2xf32>\n  }\n}\n",
    "metadata": {
      "category": "array",
      "operation": "stack",
      "description": "Array operation: stack"
    }
  },
  {
    "python_code": "lambda x: x[1:, :]",
    "input_info": [
      {
        "shape": [
          8,
          5
        ],
        "dtype": "float32"
      }
    ],
    "jaxpr": "{ lambda ; a:f32[8,5]. let\n    b:f32[7,5] = slice[limit_indices=(8, 5) start_indices=(1, 0) strides=None] a\n  in (b,) }",
    "stablehlo": "module @jit__lambda attributes {mhlo.num_partitions = 1 : i32, mhlo.num_replicas = 1 : i32} {\n  func.func public @main(%arg0: tensor<8x5xf32>) -> (tensor<7x5xf32> {jax.result_info = \"result\"}) {\n    %0 = stablehlo.slice %arg0 [1:8, 0:5] : (tensor<8x5xf32>) -> tensor<7x5xf32>\n    return %0 : tensor<7x5xf32>\n  }\n}\n",
    "metadata": {
      "category": "array",
      "operation": "slice",
      "description": "Array operation: slice"
    }
  },
  {
    "python_code": "lambda x, y: jnp.concatenate([x, y], axis=0)",
    "input_info": [
      {
        "shape": [
          2
        ],
        "dtype": "float32"
      },
      {
        "shape": [
          2
        ],
        "dtype": "float32"
      }
    ],
    "jaxpr": "{ lambda ; a:f32[2] b:f32[2]. let\n    c:f32[4] = concatenate[dimension=0] a b\n  in (c,) }",
    "stablehlo": "module @jit__lambda attributes {mhlo.num_partitions = 1 : i32, mhlo.num_replicas = 1 : i32} {\n  func.func public @main(%arg0: tensor<2xf32>, %arg1: tensor<2xf32>) -> (tensor<4xf32> {jax.result_info = \"result\"}) {\n    %0 = stablehlo.concatenate %arg0, %arg1, dim = 0 : (tensor<2xf32>, tensor<2xf32>) -> tensor<4xf32>\n    return %0 : tensor<4xf32>\n  }\n}\n",
    "metadata": {
      "category": "array",
      "operation": "concatenate",
      "description": "Array operation: concatenate"
    }
  },
  {
    "python_code": "lambda x: jnp.reshape(x, (24,))",
    "input_info": [
      {
        "shape": [
          8,
          3
        ],
        "dtype": "float32"
      }
    ],
    "jaxpr": "{ lambda ; a:f32[8,3]. let\n    b:f32[24] = reshape[dimensions=None new_sizes=(24,) sharding=None] a\n  in (b,) }",
    "stablehlo": "module @jit__lambda attributes {mhlo.num_partitions = 1 : i32, mhlo.num_replicas = 1 : i32} {\n  func.func public @main(%arg0: tensor<8x3xf32>) -> (tensor<24xf32> {jax.result_info = \"result\"}) {\n    %0 = stablehlo.reshape %arg0 : (tensor<8x3xf32>) -> tensor<24xf32>\n    return %0 : tensor<24xf32>\n  }\n}\n",
    "metadata": {
      "category": "array",
      "operation": "reshape",
      "description": "Array operation: reshape"
    }
  },
  {
    "python_code": "lambda x: jnp.transpose(x)",
    "input_info": [
      {
        "shape": [
          7,
          10,
          4
        ],
        "dtype": "float32"
      }
    ],
    "jaxpr": "{ lambda ; a:f32[7,10,4]. let\n    b:f32[4,10,7] = transpose[permutation=(2, 1, 0)] a\n  in (b,) }",
    "stablehlo": "module @jit__lambda attributes {mhlo.num_partitions = 1 : i32, mhlo.num_replicas = 1 : i32} {\n  func.func public @main(%arg0: tensor<7x10x4xf32>) -> (tensor<4x10x7xf32> {jax.result_info = \"result\"}) {\n    %0 = stablehlo.transpose %arg0, dims = [2, 1, 0] : (tensor<7x10x4xf32>) -> tensor<4x10x7xf32>\n    return %0 : tensor<4x10x7xf32>\n  }\n}\n",
    "metadata": {
      "category": "array",
      "operation": "transpose",
      "description": "Array operation: transpose"
    }
  },
  {
    "python_code": "lambda x: x[1:]",
    "input_info": [
      {
        "shape": [
          10
        ],
        "dtype": "float32"
      }
    ],
    "jaxpr": "{ lambda ; a:f32[10]. let\n    b:f32[9] = slice[limit_indices=(10,) start_indices=(1,) strides=None] a\n  in (b,) }",
    "stablehlo": "module @jit__lambda attributes {mhlo.num_partitions = 1 : i32, mhlo.num_replicas = 1 : i32} {\n  func.func public @main(%arg0: tensor<10xf32>) -> (tensor<9xf32> {jax.result_info = \"result\"}) {\n    %0 = stablehlo.slice %arg0 [1:10] : (tensor<10xf32>) -> tensor<9xf32>\n    return %0 : tensor<9xf32>\n  }\n}\n",
    "metadata": {
      "category": "array",
      "operation": "slice",
      "description": "Array operation: slice"
    }
  },
  {
    "python_code": "lambda x, y: jnp.stack([x, y])",
    "input_info": [
      {
        "shape": [
          9
        ],
        "dtype": "float32"
      },
      {
        "shape": [
          9
        ],
        "dtype": "float32"
      }
    ],
    "jaxpr": "{ lambda ; a:f32[9] b:f32[9]. let\n    c:f32[1,9] = broadcast_in_dim[\n      broadcast_dimensions=(1,)\n      shape=(1, 9)\n      sharding=None\n    ] a\n    d:f32[1,9] = broadcast_in_dim[\n      broadcast_dimensions=(1,)\n      shape=(1, 9)\n      sharding=None\n    ] b\n    e:f32[2,9] = concatenate[dimension=0] c d\n  in (e,) }",
    "stablehlo": "module @jit__lambda attributes {mhlo.num_partitions = 1 : i32, mhlo.num_replicas = 1 : i32} {\n  func.func public @main(%arg0: tensor<9xf32>, %arg1: tensor<9xf32>) -> (tensor<2x9xf32> {jax.result_info = \"result\"}) {\n    %0 = stablehlo.broadcast_in_dim %arg0, dims = [1] : (tensor<9xf32>) -> tensor<1x9xf32>\n    %1 = stablehlo.broadcast_in_dim %arg1, dims = [1] : (tensor<9xf32>) -> tensor<1x9xf32>\n    %2 = stablehlo.concatenate %0, %1, dim = 0 : (tensor<1x9xf32>, tensor<1x9xf32>) -> tensor<2x9xf32>\n    return %2 : tensor<2x9xf32>\n  }\n}\n",
    "metadata": {
      "category": "array",
      "operation": "stack",
      "description": "Array operation: stack"
    }
  },
  {
    "python_code": "lambda x, y: jnp.stack([x, y])",
    "input_info": [
      {
        "shape": [
          9,
          5
        ],
        "dtype": "float32"
      },
      {
        "shape": [
          9,
          5
        ],
        "dtype": "float32"
      }
    ],
    "jaxpr": "{ lambda ; a:f32[9,5] b:f32[9,5]. let\n    c:f32[1,9,5] = broadcast_in_dim[\n      broadcast_dimensions=(1, 2)\n      shape=(1, 9, 5)\n      sharding=None\n    ] a\n    d:f32[1,9,5] = broadcast_in_dim[\n      broadcast_dimensions=(1, 2)\n      shape=(1, 9, 5)\n      sharding=None\n    ] b\n    e:f32[2,9,5] = concatenate[dimension=0] c d\n  in (e,) }",
    "stablehlo": "module @jit__lambda attributes {mhlo.num_partitions = 1 : i32, mhlo.num_replicas = 1 : i32} {\n  func.func public @main(%arg0: tensor<9x5xf32>, %arg1: tensor<9x5xf32>) -> (tensor<2x9x5xf32> {jax.result_info = \"result\"}) {\n    %0 = stablehlo.broadcast_in_dim %arg0, dims = [1, 2] : (tensor<9x5xf32>) -> tensor<1x9x5xf32>\n    %1 = stablehlo.broadcast_in_dim %arg1, dims = [1, 2] : (tensor<9x5xf32>) -> tensor<1x9x5xf32>\n    %2 = stablehlo.concatenate %0, %1, dim = 0 : (tensor<1x9x5xf32>, tensor<1x9x5xf32>) -> tensor<2x9x5xf32>\n    return %2 : tensor<2x9x5xf32>\n  }\n}\n",
    "metadata": {
      "category": "array",
      "operation": "stack",
      "description": "Array operation: stack"
    }
  },
  {
    "python_code": "lambda x, y: jnp.concatenate([x, y], axis=0)",
    "input_info": [
      {
        "shape": [
          7,
          5
        ],
        "dtype": "float32"
      },
      {
        "shape": [
          7,
          5
        ],
        "dtype": "float32"
      }
    ],
    "jaxpr": "{ lambda ; a:f32[7,5] b:f32[7,5]. let\n    c:f32[14,5] = concatenate[dimension=0] a b\n  in (c,) }",
    "stablehlo": "module @jit__lambda attributes {mhlo.num_partitions = 1 : i32, mhlo.num_replicas = 1 : i32} {\n  func.func public @main(%arg0: tensor<7x5xf32>, %arg1: tensor<7x5xf32>) -> (tensor<14x5xf32> {jax.result_info = \"result\"}) {\n    %0 = stablehlo.concatenate %arg0, %arg1, dim = 0 : (tensor<7x5xf32>, tensor<7x5xf32>) -> tensor<14x5xf32>\n    return %0 : tensor<14x5xf32>\n  }\n}\n",
    "metadata": {
      "category": "array",
      "operation": "concatenate",
      "description": "Array operation: concatenate"
    }
  },
  {
    "python_code": "lambda x: x[1:, :]",
    "input_info": [
      {
        "shape": [
          5,
          2,
          4
        ],
        "dtype": "float32"
      }
    ],
    "jaxpr": "{ lambda ; a:f32[5,2,4]. let\n    b:f32[4,2,4] = slice[\n      limit_indices=(5, 2, 4)\n      start_indices=(1, 0, 0)\n      strides=None\n    ] a\n  in (b,) }",
    "stablehlo": "module @jit__lambda attributes {mhlo.num_partitions = 1 : i32, mhlo.num_replicas = 1 : i32} {\n  func.func public @main(%arg0: tensor<5x2x4xf32>) -> (tensor<4x2x4xf32> {jax.result_info = \"result\"}) {\n    %0 = stablehlo.slice %arg0 [1:5, 0:2, 0:4] : (tensor<5x2x4xf32>) -> tensor<4x2x4xf32>\n    return %0 : tensor<4x2x4xf32>\n  }\n}\n",
    "metadata": {
      "category": "array",
      "operation": "slice",
      "description": "Array operation: slice"
    }
  },
  {
    "python_code": "lambda x, y: jnp.stack([x, y])",
    "input_info": [
      {
        "shape": [
          9
        ],
        "dtype": "float32"
      },
      {
        "shape": [
          9
        ],
        "dtype": "float32"
      }
    ],
    "jaxpr": "{ lambda ; a:f32[9] b:f32[9]. let\n    c:f32[1,9] = broadcast_in_dim[\n      broadcast_dimensions=(1,)\n      shape=(1, 9)\n      sharding=None\n    ] a\n    d:f32[1,9] = broadcast_in_dim[\n      broadcast_dimensions=(1,)\n      shape=(1, 9)\n      sharding=None\n    ] b\n    e:f32[2,9] = concatenate[dimension=0] c d\n  in (e,) }",
    "stablehlo": "module @jit__lambda attributes {mhlo.num_partitions = 1 : i32, mhlo.num_replicas = 1 : i32} {\n  func.func public @main(%arg0: tensor<9xf32>, %arg1: tensor<9xf32>) -> (tensor<2x9xf32> {jax.result_info = \"result\"}) {\n    %0 = stablehlo.broadcast_in_dim %arg0, dims = [1] : (tensor<9xf32>) -> tensor<1x9xf32>\n    %1 = stablehlo.broadcast_in_dim %arg1, dims = [1] : (tensor<9xf32>) -> tensor<1x9xf32>\n    %2 = stablehlo.concatenate %0, %1, dim = 0 : (tensor<1x9xf32>, tensor<1x9xf32>) -> tensor<2x9xf32>\n    return %2 : tensor<2x9xf32>\n  }\n}\n",
    "metadata": {
      "category": "array",
      "operation": "stack",
      "description": "Array operation: stack"
    }
  },
  {
    "python_code": "lambda x, y: jnp.stack([x, y])",
    "input_info": [
      {
        "shape": [
          9,
          10
        ],
        "dtype": "float32"
      },
      {
        "shape": [
          9,
          10
        ],
        "dtype": "float32"
      }
    ],
    "jaxpr": "{ lambda ; a:f32[9,10] b:f32[9,10]. let\n    c:f32[1,9,10] = broadcast_in_dim[\n      broadcast_dimensions=(1, 2)\n      shape=(1, 9, 10)\n      sharding=None\n    ] a\n    d:f32[1,9,10] = broadcast_in_dim[\n      broadcast_dimensions=(1, 2)\n      shape=(1, 9, 10)\n      sharding=None\n    ] b\n    e:f32[2,9,10] = concatenate[dimension=0] c d\n  in (e,) }",
    "stablehlo": "module @jit__lambda attributes {mhlo.num_partitions = 1 : i32, mhlo.num_replicas = 1 : i32} {\n  func.func public @main(%arg0: tensor<9x10xf32>, %arg1: tensor<9x10xf32>) -> (tensor<2x9x10xf32> {jax.result_info = \"result\"}) {\n    %0 = stablehlo.broadcast_in_dim %arg0, dims = [1, 2] : (tensor<9x10xf32>) -> tensor<1x9x10xf32>\n    %1 = stablehlo.broadcast_in_dim %arg1, dims = [1, 2] : (tensor<9x10xf32>) -> tensor<1x9x10xf32>\n    %2 = stablehlo.concatenate %0, %1, dim = 0 : (tensor<1x9x10xf32>, tensor<1x9x10xf32>) -> tensor<2x9x10xf32>\n    return %2 : tensor<2x9x10xf32>\n  }\n}\n",
    "metadata": {
      "category": "array",
      "operation": "stack",
      "description": "Array operation: stack"
    }
  },
  {
    "python_code": "lambda x: jnp.reshape(x, (2, 9))",
    "input_info": [
      {
        "shape": [
          6,
          3
        ],
        "dtype": "float32"
      }
    ],
    "jaxpr": "{ lambda ; a:f32[6,3]. let\n    b:f32[2,9] = reshape[dimensions=None new_sizes=(2, 9) sharding=None] a\n  in (b,) }",
    "stablehlo": "module @jit__lambda attributes {mhlo.num_partitions = 1 : i32, mhlo.num_replicas = 1 : i32} {\n  func.func public @main(%arg0: tensor<6x3xf32>) -> (tensor<2x9xf32> {jax.result_info = \"result\"}) {\n    %0 = stablehlo.reshape %arg0 : (tensor<6x3xf32>) -> tensor<2x9xf32>\n    return %0 : tensor<2x9xf32>\n  }\n}\n",
    "metadata": {
      "category": "array",
      "operation": "reshape",
      "description": "Array operation: reshape"
    }
  },
  {
    "python_code": "lambda x: jnp.reshape(x, (10,))",
    "input_info": [
      {
        "shape": [
          2,
          5
        ],
        "dtype": "float32"
      }
    ],
    "jaxpr": "{ lambda ; a:f32[2,5]. let\n    b:f32[10] = reshape[dimensions=None new_sizes=(10,) sharding=None] a\n  in (b,) }",
    "stablehlo": "module @jit__lambda attributes {mhlo.num_partitions = 1 : i32, mhlo.num_replicas = 1 : i32} {\n  func.func public @main(%arg0: tensor<2x5xf32>) -> (tensor<10xf32> {jax.result_info = \"result\"}) {\n    %0 = stablehlo.reshape %arg0 : (tensor<2x5xf32>) -> tensor<10xf32>\n    return %0 : tensor<10xf32>\n  }\n}\n",
    "metadata": {
      "category": "array",
      "operation": "reshape",
      "description": "Array operation: reshape"
    }
  },
  {
    "python_code": "lambda x: jnp.reshape(x, (54,))",
    "input_info": [
      {
        "shape": [
          2,
          3,
          9
        ],
        "dtype": "float32"
      }
    ],
    "jaxpr": "{ lambda ; a:f32[2,3,9]. let\n    b:f32[54] = reshape[dimensions=None new_sizes=(54,) sharding=None] a\n  in (b,) }",
    "stablehlo": "module @jit__lambda attributes {mhlo.num_partitions = 1 : i32, mhlo.num_replicas = 1 : i32} {\n  func.func public @main(%arg0: tensor<2x3x9xf32>) -> (tensor<54xf32> {jax.result_info = \"result\"}) {\n    %0 = stablehlo.reshape %arg0 : (tensor<2x3x9xf32>) -> tensor<54xf32>\n    return %0 : tensor<54xf32>\n  }\n}\n",
    "metadata": {
      "category": "array",
      "operation": "reshape",
      "description": "Array operation: reshape"
    }
  },
  {
    "python_code": "lambda x: jnp.reshape(x, (4,))",
    "input_info": [
      {
        "shape": [
          4
        ],
        "dtype": "float32"
      }
    ],
    "jaxpr": "{ lambda ; a:f32[4]. let  in (a,) }",
    "stablehlo": "module @jit__lambda attributes {mhlo.num_partitions = 1 : i32, mhlo.num_replicas = 1 : i32} {\n  func.func public @main(%arg0: tensor<4xf32>) -> (tensor<4xf32> {jax.result_info = \"result\"}) {\n    return %arg0 : tensor<4xf32>\n  }\n}\n",
    "metadata": {
      "category": "array",
      "operation": "reshape",
      "description": "Array operation: reshape"
    }
  },
  {
    "python_code": "lambda x, y: jnp.stack([x, y])",
    "input_info": [
      {
        "shape": [
          9,
          3,
          3
        ],
        "dtype": "float32"
      },
      {
        "shape": [
          9,
          3,
          3
        ],
        "dtype": "float32"
      }
    ],
    "jaxpr": "{ lambda ; a:f32[9,3,3] b:f32[9,3,3]. let\n    c:f32[1,9,3,3] = broadcast_in_dim[\n      broadcast_dimensions=(1, 2, 3)\n      shape=(1, 9, 3, 3)\n      sharding=None\n    ] a\n    d:f32[1,9,3,3] = broadcast_in_dim[\n      broadcast_dimensions=(1, 2, 3)\n      shape=(1, 9, 3, 3)\n      sharding=None\n    ] b\n    e:f32[2,9,3,3] = concatenate[dimension=0] c d\n  in (e,) }",
    "stablehlo": "module @jit__lambda attributes {mhlo.num_partitions = 1 : i32, mhlo.num_replicas = 1 : i32} {\n  func.func public @main(%arg0: tensor<9x3x3xf32>, %arg1: tensor<9x3x3xf32>) -> (tensor<2x9x3x3xf32> {jax.result_info = \"result\"}) {\n    %0 = stablehlo.broadcast_in_dim %arg0, dims = [1, 2, 3] : (tensor<9x3x3xf32>) -> tensor<1x9x3x3xf32>\n    %1 = stablehlo.broadcast_in_dim %arg1, dims = [1, 2, 3] : (tensor<9x3x3xf32>) -> tensor<1x9x3x3xf32>\n    %2 = stablehlo.concatenate %0, %1, dim = 0 : (tensor<1x9x3x3xf32>, tensor<1x9x3x3xf32>) -> tensor<2x9x3x3xf32>\n    return %2 : tensor<2x9x3x3xf32>\n  }\n}\n",
    "metadata": {
      "category": "array",
      "operation": "stack",
      "description": "Array operation: stack"
    }
  },
  {
    "python_code": "lambda x, y: jnp.stack([x, y])",
    "input_info": [
      {
        "shape": [
          4,
          10,
          5
        ],
        "dtype": "float32"
      },
      {
        "shape": [
          4,
          10,
          5
        ],
        "dtype": "float32"
      }
    ],
    "jaxpr": "{ lambda ; a:f32[4,10,5] b:f32[4,10,5]. let\n    c:f32[1,4,10,5] = broadcast_in_dim[\n      broadcast_dimensions=(1, 2, 3)\n      shape=(1, 4, 10, 5)\n      sharding=None\n    ] a\n    d:f32[1,4,10,5] = broadcast_in_dim[\n      broadcast_dimensions=(1, 2, 3)\n      shape=(1, 4, 10, 5)\n      sharding=None\n    ] b\n    e:f32[2,4,10,5] = concatenate[dimension=0] c d\n  in (e,) }",
    "stablehlo": "module @jit__lambda attributes {mhlo.num_partitions = 1 : i32, mhlo.num_replicas = 1 : i32} {\n  func.func public @main(%arg0: tensor<4x10x5xf32>, %arg1: tensor<4x10x5xf32>) -> (tensor<2x4x10x5xf32> {jax.result_info = \"result\"}) {\n    %0 = stablehlo.broadcast_in_dim %arg0, dims = [1, 2, 3] : (tensor<4x10x5xf32>) -> tensor<1x4x10x5xf32>\n    %1 = stablehlo.broadcast_in_dim %arg1, dims = [1, 2, 3] : (tensor<4x10x5xf32>) -> tensor<1x4x10x5xf32>\n    %2 = stablehlo.concatenate %0, %1, dim = 0 : (tensor<1x4x10x5xf32>, tensor<1x4x10x5xf32>) -> tensor<2x4x10x5xf32>\n    return %2 : tensor<2x4x10x5xf32>\n  }\n}\n",
    "metadata": {
      "category": "array",
      "operation": "stack",
      "description": "Array operation: stack"
    }
  },
  {
    "python_code": "lambda x: x[1:]",
    "input_info": [
      {
        "shape": [
          10
        ],
        "dtype": "float32"
      }
    ],
    "jaxpr": "{ lambda ; a:f32[10]. let\n    b:f32[9] = slice[limit_indices=(10,) start_indices=(1,) strides=None] a\n  in (b,) }",
    "stablehlo": "module @jit__lambda attributes {mhlo.num_partitions = 1 : i32, mhlo.num_replicas = 1 : i32} {\n  func.func public @main(%arg0: tensor<10xf32>) -> (tensor<9xf32> {jax.result_info = \"result\"}) {\n    %0 = stablehlo.slice %arg0 [1:10] : (tensor<10xf32>) -> tensor<9xf32>\n    return %0 : tensor<9xf32>\n  }\n}\n",
    "metadata": {
      "category": "array",
      "operation": "slice",
      "description": "Array operation: slice"
    }
  },
  {
    "python_code": "lambda x: x[1:, :]",
    "input_info": [
      {
        "shape": [
          3,
          5,
          3
        ],
        "dtype": "float32"
      }
    ],
    "jaxpr": "{ lambda ; a:f32[3,5,3]. let\n    b:f32[2,5,3] = slice[\n      limit_indices=(3, 5, 3)\n      start_indices=(1, 0, 0)\n      strides=None\n    ] a\n  in (b,) }",
    "stablehlo": "module @jit__lambda attributes {mhlo.num_partitions = 1 : i32, mhlo.num_replicas = 1 : i32} {\n  func.func public @main(%arg0: tensor<3x5x3xf32>) -> (tensor<2x5x3xf32> {jax.result_info = \"result\"}) {\n    %0 = stablehlo.slice %arg0 [1:3, 0:5, 0:3] : (tensor<3x5x3xf32>) -> tensor<2x5x3xf32>\n    return %0 : tensor<2x5x3xf32>\n  }\n}\n",
    "metadata": {
      "category": "array",
      "operation": "slice",
      "description": "Array operation: slice"
    }
  },
  {
    "python_code": "lambda x, y: jnp.stack([x, y])",
    "input_info": [
      {
        "shape": [
          10
        ],
        "dtype": "float32"
      },
      {
        "shape": [
          10
        ],
        "dtype": "float32"
      }
    ],
…
    "python_code": "lambda x, y: jnp.stack([x, y])",
    "input_info": [
      {
        "shape": [
          9
        ],
        "dtype": "float32"
      },
      {
        "shape": [
          9
        ],
        "dtype": "float32"
      }
    ],
    "jaxpr": "{ lambda ; a:f32[9] b:f32[9]. let\n    c:f32[1,9] = broadcast_in_dim[\n      broadcast_dimensions=(1,)\n      shape=(1, 9)\n      sharding=None\n    ] a\n    d:f32[1,9] = broadcast_in_dim[\n      broadcast_dimensions=(1,)\n      shape=(1, 9)\n      sharding=None\n    ] b\n    e:f32[2,9] = concatenate[dimension=0] c d\n  in (e,) }",
    "stablehlo": "module @jit__lambda attributes {mhlo.num_partitions = 1 : i32, mhlo.num_replicas = 1 : i32} {\n  func.func public @main(%arg0: tensor<9xf32>, %arg1: tensor<9xf32>) -> (tensor<2x9xf32> {jax.result_info = \"result\"}) {\n    %0 = stablehlo.broadcast_in_dim %arg0, dims = [1] : (tensor<9xf32>) -> tensor<1x9xf32>\n    %1 = stablehlo.broadcast_in_dim %arg1, dims = [1] : (tensor<9xf32>) -> tensor<1x9xf32>\n    %2 = stablehlo.concatenate %0, %1, dim = 0 : (tensor<1x9xf32>, tensor<1x9xf32>) -> tensor<2x9xf32>\n    return %2 : tensor<2x9xf32>\n  }\n}\n",
    "metadata": {
      "category": "array",
      "operation": "stack",
      "description": "Array operation: stack"
    }
  },
  {
    "python_code": "lambda x: jnp.reshape(x, (2, 16))",
    "input_info": [
      {
        "shape": [
          4,
          8
        ],
        "dtype": "float32"
      }
    ],
    "jaxpr": "{ lambda ; a:f32[4,8]. let\n    b:f32[2,16] = reshape[dimensions=None new_sizes=(2, 16) sharding=None] a\n  in (b,) }",
    "stablehlo": "module @jit__lambda attributes {mhlo.num_partitions = 1 : i32, mhlo.num_replicas = 1 : i32} {\n  func.func public @main(%arg0: tensor<4x8xf32>) -> (tensor<2x16xf32> {jax.result_info = \"result\"}) {\n    %0 = stablehlo.reshape %arg0 : (tensor<4x8xf32>) -> tensor<2x16xf32>\n    return %0 : tensor<2x16xf32>\n  }\n}\n",
    "metadata": {
      "category": "array",
      "operation": "reshape",
      "description": "Array operation: reshape"
    }
  },
  {
    "python_code": "lambda x: x[1:, :]",
    "input_info": [
      {
        "shape": [
          8,
          3
        ],
        "dtype": "float32"
      }
    ],
    "jaxpr": "{ lambda ; a:f32[8,3]. let\n    b:f32[7,3] = slice[limit_indices=(8, 3) start_indices=(1, 0) strides=None] a\n  in (b,) }",
    "stablehlo": "module @jit__lambda attributes {mhlo.num_partitions = 1 : i32, mhlo.num_replicas = 1 : i32} {\n  func.func public @main(%arg0: tensor<8x3xf32>) -> (tensor<7x3xf32> {jax.result_info = \"result\"}) {\n    %0 = stablehlo.slice %arg0 [1:8, 0:3] : (tensor<8x3xf32>) -> tensor<7x3xf32>\n    return %0 : tensor<7x3xf32>\n  }\n}\n",
    "metadata": {
      "category": "array",
      "operation": "slice",
      "description": "Array operation: slice"
    }
  },
  {
    "python_code": "lambda x: x[1:, :]",
    "input_info": [
      {
        "shape": [
          2,
          10
        ],
        "dtype": "float32"
      }
    ],
    "jaxpr": "{ lambda ; a:f32[2,10]. let\n    b:f32[1,10] = slice[limit_indices=(2, 10) start_indices=(1, 0) strides=None] a\n  in (b,) }",
    "stablehlo": "module @jit__lambda attributes {mhlo.num_partitions = 1 : i32, mhlo.num_replicas = 1 : i32} {\n  func.func public @main(%arg0: tensor<2x10xf32>) -> (tensor<1x10xf32> {jax.result_info = \"result\"}) {\n    %0 = stablehlo.slice %arg0 [1:2, 0:10] : (tensor<2x10xf32>) -> tensor<1x10xf32>\n    return %0 : tensor<1x10xf32>\n  }\n}\n",
    "metadata": {
      "category": "array",
      "operation": "slice",
      "description": "Array operation: slice"
    }
  },
  {
    "python_code": "lambda x: x[1:, :]",
    "input_info": [
      {
        "shape": [
          6,
          7
        ],
        "dtype": "float32"
      }
    ],
    "jaxpr": "{ lambda ; a:f32[6,7]. let\n    b:f32[5,7] = slice[limit_indices=(6, 7) start_indices=(1, 0) strides=None] a\n  in (b,) }",
    "stablehlo": "module @jit__lambda attributes {mhlo.num_partitions = 1 : i32, mhlo.num_replicas = 1 : i32} {\n  func.func public @main(%arg0: tensor<6x7xf32>) -> (tensor<5x7xf32> {jax.result_info = \"result\"}) {\n    %0 = stablehlo.slice %arg0 [1:6, 0:7] : (tensor<6x7xf32>) -> tensor<5x7xf32>\n    return %0 : tensor<5x7xf32>\n  }\n}\n",
    "metadata": {
      "category": "array",
      "operation": "slice",
      "description": "Array operation: slice"
    }
  },
  {
    "python_code": "lambda x, y: jnp.stack([x, y])",
    "input_info": [
      {
        "shape": [
          6,
          8
        ],
        "dtype": "float32"
      },
      {
        "shape": [
          6,
          8
        ],
        "dtype": "float32"
      }
    ],
    "jaxpr": "{ lambda ; a:f32[6,8] b:f32[6,8]. let\n    c:f32[1,6,8] = broadcast_in_dim[\n      broadcast_dimensions=(1, 2)\n      shape=(1, 6, 8)\n      sharding=None\n    ] a\n    d:f32[1,6,8] = broadcast_in_dim[\n      broadcast_dimensions=(1, 2)\n      shape=(1, 6, 8)\n      sharding=None\n    ] b\n    e:f32[2,6,8] = concatenate[dimension=0] c d\n  in (e,) }",
    "stablehlo": "module @jit__lambda attributes {mhlo.num_partitions = 1 : i32, mhlo.num_replicas = 1 : i32} {\n  func.func public @main(%arg0: tensor<6x8xf32>, %arg1: tensor<6x8xf32>) -> (tensor<2x6x8xf32> {jax.result_info = \"result\"}) {\n    %0 = stablehlo.broadcast_in_dim %arg0, dims = [1, 2] : (tensor<6x8xf32>) -> tensor<1x6x8xf32>\n    %1 = stablehlo.broadcast_in_dim %arg1, dims = [1, 2] : (tensor<6x8xf32>) -> tensor<1x6x8xf32>\n    %2 = stablehlo.concatenate %0, %1, dim = 0 : (tensor<1x6x8xf32>, tensor<1x6x8xf32>) -> tensor<2x6x8xf32>\n    return %2 : tensor<2x6x8xf32>\n  }\n}\n",
    "metadata": {
      "category": "array",
      "operation": "stack",
      "description": "Array operation: stack"
    }
  },
  {
    "python_code": "lambda x: x.T",
    "input_info": [
      {
        "shape": [
          6,
          4
        ],
        "dtype": "float32"
      }
    ],
    "jaxpr": "{ lambda ; a:f32[6,4]. let\n    b:f32[4,6] = transpose[permutation=(1, 0)] a\n  in (b,) }",
    "stablehlo": "module @jit__lambda attributes {mhlo.num_partitions = 1 : i32, mhlo.num_replicas = 1 : i32} {\n  func.func public @main(%arg0: tensor<6x4xf32>) -> (tensor<4x6xf32> {jax.result_info = \"result\"}) {\n    %0 = stablehlo.transpose %arg0, dims = [1, 0] : (tensor<6x4xf32>) -> tensor<4x6xf32>\n    return %0 : tensor<4x6xf32>\n  }\n}\n",
    "metadata": {
      "category": "array",
      "operation": "transpose",
      "description": "Array operation: transpose"
    }
  },
  {
    "python_code": "lambda x, y: jnp.concatenate([x, y], axis=0)",
    "input_info": [
      {
        "shape": [
          5
        ],
        "dtype": "float32"
      },
      {
        "shape": [
          5
        ],
        "dtype": "float32"
      }
    ],
    "jaxpr": "{ lambda ; a:f32[5] b:f32[5]. let\n    c:f32[10] = concatenate[dimension=0] a b\n  in (c,) }",
    "stablehlo": "module @jit__lambda attributes {mhlo.num_partitions = 1 : i32, mhlo.num_replicas = 1 : i32} {\n  func.func public @main(%arg0: tensor<5xf32>, %arg1: tensor<5xf32>) -> (tensor<10xf32> {jax.result_info = \"result\"}) {\n    %0 = stablehlo.concatenate %arg0, %arg1, dim = 0 : (tensor<5xf32>, tensor<5xf32>) -> tensor<10xf32>\n    return %0 : tensor<10xf32>\n  }\n}\n",
    "metadata": {
      "category": "array",
      "operation": "concatenate",
      "description": "Array operation: concatenate"
    }
  },
  {
    "python_code": "lambda x, y: jnp.concatenate([x, y], axis=0)",
    "input_info": [
      {
        "shape": [
          3
        ],
        "dtype": "float32"
      },
      {
        "shape": [
          3
        ],
        "dtype": "float32"
      }
    ],
    "jaxpr": "{ lambda ; a:f32[3] b:f32[3]. let\n    c:f32[6] = concatenate[dimension=0] a b\n  in (c,) }",
    "stablehlo": "module @jit__lambda attributes {mhlo.num_partitions = 1 : i32, mhlo.num_replicas = 1 : i32} {\n  func.func public @main(%arg0: tensor<3xf32>, %arg1: tensor<3xf32>) -> (tensor<6xf32> {jax.result_info = \"result\"}) {\n    %0 = stablehlo.concatenate %arg0, %arg1, dim = 0 : (tensor<3xf32>, tensor<3xf32>) -> tensor<6xf32>\n    return %0 : tensor<6xf32>\n  }\n}\n",
    "metadata": {
      "category": "array",
      "operation": "concatenate",
      "description": "Array operation: concatenate"
    }
  },
  {
    "python_code": "lambda x: x[1:, :]",
    "input_info": [
      {
        "shape": [
          5,
          5,
          7
        ],
        "dtype": "float32"
      }
    ],
    "jaxpr": "{ lambda ; a:f32[5,5,7]. let\n    b:f32[4,5,7] = slice[\n      limit_indices=(5, 5, 7)\n      start_indices=(1, 0, 0)\n      strides=None\n    ] a\n  in (b,) }",
    "stablehlo": "module @jit__lambda attributes {mhlo.num_partitions = 1 : i32, mhlo.num_replicas = 1 : i32} {\n  func.func public @main(%arg0: tensor<5x5x7xf32>) -> (tensor<4x5x7xf32> {jax.result_info = \"result\"}) {\n    %0 = stablehlo.slice %arg0 [1:5, 0:5, 0:7] : (tensor<5x5x7xf32>) -> tensor<4x5x7xf32>\n    return %0 : tensor<4x5x7xf32>\n  }\n}\n",
    "metadata": {
      "category": "array",
      "operation": "slice",
      "description": "Array operation: slice"
    }
  },
  {
    "python_code": "lambda x: jnp.reshape(x, (2, 60))",
    "input_info": [
      {
        "shape": [
          6,
          2,
          10
        ],
        "dtype": "float32"
      }
    ],
    "jaxpr": "{ lambda ; a:f32[6,2,10]. let\n    b:f32[2,60] = reshape[dimensions=None new_sizes=(2, 60) sharding=None] a\n  in (b,) }",
    "stablehlo": "module @jit__lambda attributes {mhlo.num_partitions = 1 : i32, mhlo.num_replicas = 1 : i32} {\n  func.func public @main(%arg0: tensor<6x2x10xf32>) -> (tensor<2x60xf32> {jax.result_info = \"result\"}) {\n    %0 = stablehlo.reshape %arg0 : (tensor<6x2x10xf32>) -> tensor<2x60xf32>\n    return %0 : tensor<2x60xf32>\n  }\n}\n",
    "metadata": {
      "category": "array",
      "operation": "reshape",
      "description": "Array operation: reshape"
    }
  },
  {
    "python_code": "lambda x: x[1:, :]",
    "input_info": [
      {
        "shape": [
          6,
          10
        ],
        "dtype": "float32"
      }
    ],
    "jaxpr": "{ lambda ; a:f32[6,10]. let\n    b:f32[5,10] = slice[limit_indices=(6, 10) start_indices=(1, 0) strides=None] a\n  in (b,) }",
    "stablehlo": "module @jit__lambda attributes {mhlo.num_partitions = 1 : i32, mhlo.num_replicas = 1 : i32} {\n  func.func public @main(%arg0: tensor<6x10xf32>) -> (tensor<5x10xf32> {jax.result_info = \"result\"}) {\n    %0 = stablehlo.slice %arg0 [1:6, 0:10] : (tensor<6x10xf32>) -> tensor<5x10xf32>\n    return %0 : tensor<5x10xf32>\n  }\n}\n",
    "metadata": {
      "category": "array",
      "operation": "slice",
      "description": "Array operation: slice"
    }
  },
  {
    "python_code": "lambda x, y: jnp.stack([x, y])",
    "input_info": [
      {
        "shape": [
          3
        ],
        "dtype": "float32"
      },
      {
        "shape": [
          3
        ],
        "dtype": "float32"
      }
    ],
    "jaxpr": "{ lambda ; a:f32[3] b:f32[3]. let\n    c:f32[1,3] = broadcast_in_dim[\n      broadcast_dimensions=(1,)\n      shape=(1, 3)\n      sharding=None\n    ] a\n    d:f32[1,3] = broadcast_in_dim[\n      broadcast_dimensions=(1,)\n      shape=(1, 3)\n      sharding=None\n    ] b\n    e:f32[2,3] = concatenate[dimension=0] c d\n  in (e,) }",
    "stablehlo": "module @jit__lambda attributes {mhlo.num_partitions = 1 : i32, mhlo.num_replicas = 1 : i32} {\n  func.func public @main(%arg0: tensor<3xf32>, %arg1: tensor<3xf32>) -> (tensor<2x3xf32> {jax.result_info = \"result\"}) {\n    %0 = stablehlo.broadcast_in_dim %arg0, dims = [1] : (tensor<3xf32>) -> tensor<1x3xf32>\n    %1 = stablehlo.broadcast_in_dim %arg1, dims = [1] : (tensor<3xf32>) -> tensor<1x3xf32>\n    %2 = stablehlo.concatenate %0, %1, dim = 0 : (tensor<1x3xf32>, tensor<1x3xf32>) -> tensor<2x3xf32>\n    return %2 : tensor<2x3xf32>\n  }\n}\n",
    "metadata": {
      "category": "array",
      "operation": "stack",
      "description": "Array operation: stack"
    }
  },
  {
    "python_code": "lambda x, y: jnp.concatenate([x, y], axis=0)",
    "input_info": [
      {
        "shape": [
          6,
          4,
          7
        ],
        "dtype": "float32"
      },
      {
        "shape": [
          6,
          4,
          7
        ],
        "dtype": "float32"
      }
    ],
    "jaxpr": "{ lambda ; a:f32[6,4,7] b:f32[6,4,7]. let\n    c:f32[12,4,7] = concatenate[dimension=0] a b\n  in (c,) }",
    "stablehlo": "module @jit__lambda attributes {mhlo.num_partitions = 1 : i32, mhlo.num_replicas = 1 : i32} {\n  func.func public @main(%arg0: tensor<6x4x7xf32>, %arg1: tensor<6x4x7xf32>) -> (tensor<12x4x7xf32> {jax.result_info = \"result\"}) {\n    %0 = stablehlo.concatenate %arg0, %arg1, dim = 0 : (tensor<6x4x7xf32>, tensor<6x4x7xf32>) -> tensor<12x4x7xf32>\n    return %0 : tensor<12x4x7xf32>\n  }\n}\n",
    "metadata": {
      "category": "array",
      "operation": "concatenate",
      "description": "Array operation: concatenate"
    }
  },
  {
    "python_code": "lambda x, y: jnp.concatenate([x, y], axis=0)",
    "input_info": [
      {
        "shape": [
          5,
          4,
          2
        ],
        "dtype": "float32"
      },
      {
        "shape": [
          5,
          4,
          2
        ],
        "dtype": "float32"
      }
    ],
    "jaxpr": "{ lambda ; a:f32[5,4,2] b:f32[5,4,2]. let\n    c:f32[10,4,2] = concatenate[dimension=0] a b\n  in (c,) }",
    "stablehlo": "module @jit__lambda attributes {mhlo.num_partitions = 1 : i32, mhlo.num_replicas = 1 : i32} {\n  func.func public @main(%arg0: tensor<5x4x2xf32>, %arg1: tensor<5x4x2xf32>) -> (tensor<10x4x2xf32> {jax.result_info = \"result\"}) {\n    %0 = stablehlo.concatenate %arg0, %arg1, dim = 0 : (tensor<5x4x2xf32>, tensor<5x4x2xf32>) -> tensor<10x4x2xf32>\n    return %0 : tensor<10x4x2xf32>\n  }\n}\n",
    "metadata": {
      "category": "array",
      "operation": "concatenate",
      "description": "Array operation: concatenate"
    }
  },
  {
    "python_code": "lambda x, y: jnp.stack([x, y])",
    "input_info": [
      {
        "shape": [
          3
        ],
        "dtype": "float32"
      },
      {
        "shape": [
          3
        ],
        "dtype": "float32"
      }
    ],
    "jaxpr": "{ lambda ; a:f32[3] b:f32[3]. let\n    c:f32[1,3] = broadcast_in_dim[\n      broadcast_dimensions=(1,)\n      shape=(1, 3)\n      sharding=None\n    ] a\n    d:f32[1,3] = broadcast_in_dim[\n      broadcast_dimensions=(1,)\n      shape=(1, 3)\n      sharding=None\n    ] b\n    e:f32[2,3] = concatenate[dimension=0] c d\n  in (e,) }",
    "stablehlo": "module @jit__lambda attributes {mhlo.num_partitions = 1 : i32, mhlo.num_replicas = 1 : i32} {\n  func.func public @main(%arg0: tensor<3xf32>, %arg1: tensor<3xf32>) -> (tensor<2x3xf32> {jax.result_info = \"result\"}) {\n    %0 = stablehlo.broadcast_in_dim %arg0, dims = [1] : (tensor<3xf32>) -> tensor<1x3xf32>\n    %1 = stablehlo.broadcast_in_dim %arg1, dims = [1] : (tensor<3xf32>) -> tensor<1x3xf32>\n    %2 = stablehlo.concatenate %0, %1, dim = 0 : (tensor<1x3xf32>, tensor<1x3xf32>) -> tensor<2x3xf32>\n    return %2 : tensor<2x3xf32>\n  }\n}\n",
    "metadata": {
      "category": "array",
      "operation": "stack",
      "description": "Array operation: stack"
    }
  },
  {
    "python_code": "lambda x, y: jnp.stack([x, y])",
    "input_info": [
      {
        "shape": [
          7
        ],
        "dtype": "float32"
      },
      {
        "shape": [
          7
        ],
        "dtype": "float32"
      }
    ],
    "jaxpr": "{ lambda ; a:f32[7] b:f32[7]. let\n    c:f32[1,7] = broadcast_in_dim[\n      broadcast_dimensions=(1,)\n      shape=(1, 7)\n      sharding=None\n    ] a\n    d:f32[1,7] = broadcast_in_dim[\n      broadcast_dimensions=(1,)\n      shape=(1, 7)\n      sharding=None\n    ] b\n    e:f32[2,7] = concatenate[dimension=0] c d\n  in (e,) }",
    "stablehlo": "module @jit__lambda attributes {mhlo.num_partitions = 1 : i32, mhlo.num_replicas = 1 : i32} {\n  func.func public @main(%arg0: tensor<7xf32>, %arg1: tensor<7xf32>) -> (tensor<2x7xf32> {jax.result_info = \"result\"}) {\n    %0 = stablehlo.broadcast_in_dim %arg0, dims = [1] : (tensor<7xf32>) -> tensor<1x7xf32>\n    %1 = stablehlo.broadcast_in_dim %arg1, dims = [1] : (tensor<7xf32>) -> tensor<1x7xf32>\n    %2 = stablehlo.concatenate %0, %1, dim = 0 : (tensor<1x7xf32>, tensor<1x7xf32>) -> tensor<2x7xf32>\n    return %2 : tensor<2x7xf32>\n  }\n}\n",
    "metadata": {
      "category": "array",
      "operation": "stack",
      "description": "Array operation: stack"
    }
  },
  {
    "python_code": "lambda x: x[1:, :]",
    "input_info": [
      {
        "shape": [
          9,
          4,
          4
        ],
        "dtype": "float32"
      }
    ],
    "jaxpr": "{ lambda ; a:f32[9,4,4]. let\n    b:f32[8,4,4] = slice[\n      limit_indices=(9, 4, 4)\n      start_indices=(1, 0, 0)\n      strides=None\n    ] a\n  in (b,) }",
    "stablehlo": "module @jit__lambda attributes {mhlo.num_partitions = 1 : i32, mhlo.num_replicas = 1 : i32} {\n  func.func public @main(%arg0: tensor<9x4x4xf32>) -> (tensor<8x4x4xf32> {jax.result_info = \"result\"}) {\n    %0 = stablehlo.slice %arg0 [1:9, 0:4, 0:4] : (tensor<9x4x4xf32>) -> tensor<8x4x4xf32>\n    return %0 : tensor<8x4x4xf32>\n  }\n}\n",
    "metadata": {
      "category": "array",
      "operation": "slice",
      "description": "Array operation: slice"
    }
  },
  {
    "python_code": "lambda x, y: jnp.stack([x, y])",
    "input_info": [
      {
        "shape": [
          2,
          9,
          3
        ],
        "dtype": "float32"
      },
      {
        "shape": [
          2,
          9,
          3
        ],
        "dtype": "float32"
      }
    ],
    "jaxpr": "{ lambda ; a:f32[2,9,3] b:f32[2,9,3]. let\n    c:f32[1,2,9,3] = broadcast_in_dim[\n      broadcast_dimensions=(1, 2, 3)\n      shape=(1, 2, 9, 3)\n      sharding=None\n    ] a\n    d:f32[1,2,9,3] = broadcast_in_dim[\n      broadcast_dimensions=(1, 2, 3)\n      shape=(1, 2, 9, 3)\n      sharding=None\n    ] b\n    e:f32[2,2,9,3] = concatenate[dimension=0] c d\n  in (e,) }",
    "stablehlo": "module @jit__lambda attributes {mhlo.num_partitions = 1 : i32, mhlo.num_replicas = 1 : i32} {\n  func.func public @main(%arg0: tensor<2x9x3xf32>, %arg1: tensor<2x9x3xf32>) -> (tensor<2x2x9x3xf32> {jax.result_info = \"result\"}) {\n    %0 = stablehlo.broadcast_in_dim %arg0, dims = [1, 2, 3] : (tensor<2x9x3xf32>) -> tensor<1x2x9x3xf32>\n    %1 = stablehlo.broadcast_in_dim %arg1, dims = [1, 2, 3] : (tensor<2x9x3xf32>) -> tensor<1x2x9x3xf32>\n    %2 = stablehlo.concatenate %0, %1, dim = 0 : (tensor<1x2x9x3xf32>, tensor<1x2x9x3xf32>) -> tensor<2x2x9x3xf32>\n    return %2 : tensor<2x2x9x3xf32>\n  }\n}\n",
    "metadata": {
      "category": "array",
      "operation": "stack",
      "description": "Array operation: stack"
    }
  },
  {
    "python_code": "lambda x: x.T",
    "input_info": [
      {
        "shape": [
          8,
          5
        ],
        "dtype": "float32"
      }
    ],
    "jaxpr": "{ lambda ; a:f32[8,5]. let\n    b:f32[5,8] = transpose[permutation=(1, 0)] a\n  in (b,) }",
    "stablehlo": "module @jit__lambda attributes {mhlo.num_partitions = 1 : i32, mhlo.num_replicas = 1 : i32} {\n  func.func public @main(%arg0: tensor<8x5xf32>) -> (tensor<5x8xf32> {jax.result_info = \"result\"}) {\n    %0 = stablehlo.transpose %arg0, dims = [1, 0] : (tensor<8x5xf32>) -> tensor<5x8xf32>\n    return %0 : tensor<5x8xf32>\n  }\n}\n",
    "metadata": {
      "category": "array",
      "operation": "transpose",
      "description": "Array operation: transpose"
    }
  },
  {
    "python_code": "lambda x: jnp.transpose(x)",
    "input_info": [
      {
        "shape": [
          2
        ],
        "dtype": "float32"
      }
    ],
    "jaxpr": "{ lambda ; a:f32[2]. let  in (a,) }",
    "stablehlo": "module @jit__lambda attributes {mhlo.num_partitions = 1 : i32, mhlo.num_replicas = 1 : i32} {\n  func.func public @main(%arg0: tensor<2xf32>) -> (tensor<2xf32> {jax.result_info = \"result\"}) {\n    return %arg0 : tensor<2xf32>\n  }\n}\n",
    "metadata": {
      "category": "array",
      "operation": "transpose",
      "description": "Array operation: transpose"
    }
  },
  {
    "python_code": "lambda x: x.T",
    "input_info": [
      {
        "shape": [
          3,
          10
        ],
        "dtype": "float32"
      }
    ],
    "jaxpr": "{ lambda ; a:f32[3,10]. let\n    b:f32[10,3] = transpose[permutation=(1, 0)] a\n  in (b,) }",
    "stablehlo": "module @jit__lambda attributes {mhlo.num_partitions = 1 : i32, mhlo.num_replicas = 1 : i32} {\n  func.func public @main(%arg0: tensor<3x10xf32>) -> (tensor<10x3xf32> {jax.result_info = \"result\"}) {\n    %0 = stablehlo.transpose %arg0, dims = [1, 0] : (tensor<3x10xf32>) -> tensor<10x3xf32>\n    return %0 : tensor<10x3xf32>\n  }\n}\n",
    "metadata": {
      "category": "array",
      "operation": "transpose",
      "description": "Array operation: transpose"
    }
  },
  {
    "python_code": "lambda x, y: jnp.stack([x, y])",
    "input_info": [
      {
        "shape": [
          8,
          8,
          6
        ],
        "dtype": "float32"
      },
      {
        "shape": [
          8,
          8,
          6
        ],
        "dtype": "float32"
      }
    ],
    "jaxpr": "{ lambda ; a:f32[8,8,6] b:f32[8,8,6]. let\n    c:f32[1,8,8,6] = broadcast_in_dim[\n      broadcast_dimensions=(1, 2, 3)\n      shape=(1, 8, 8, 6)\n      sharding=None\n    ] a\n    d:f32[1,8,8,6] = broadcast_in_dim[\n      broadcast_dimensions=(1, 2, 3)\n      shape=(1, 8, 8, 6)\n      sharding=None\n    ] b\n    e:f32[2,8,8,6] = concatenate[dimension=0] c d\n  in (e,) }",
    "stablehlo": "module @jit__lambda attributes {mhlo.num_partitions = 1 : i32, mhlo.num_replicas = 1 : i32} {\n  func.func public @main(%arg0: tensor<8x8x6xf32>, %arg1: tensor<8x8x6xf32>) -> (tensor<2x8x8x6xf32> {jax.result_info = \"result\"}) {\n    %0 = stablehlo.broadcast_in_dim %arg0, dims = [1, 2, 3] : (tensor<8x8x6xf32>) -> tensor<1x8x8x6xf32>\n    %1 = stablehlo.broadcast_in_dim %arg1, dims = [1, 2, 3] : (tensor<8x8x6xf32>) -> tensor<1x8x8x6xf32>\n    %2 = stablehlo.concatenate %0, %1, dim = 0 : (tensor<1x8x8x6xf32>, tensor<1x8x8x6xf32>) -> tensor<2x8x8x6xf32>\n    return %2 : tensor<2x8x8x6xf32>\n  }\n}\n",
    "metadata": {
      "category": "array",
      "operation": "stack",
      "description": "Array operation: stack"
    }
  },
  {
    "python_code": "lambda x, y: jnp.concatenate([x, y], axis=0)",
    "input_info": [
      {
        "shape": [
          10,
          9
        ],
        "dtype": "float32"
      },
      {
        "shape": [
          10,
          9
        ],
        "dtype": "float32"
      }
    ],
    "jaxpr": "{ lambda ; a:f32[10,9] b:f32[10,9]. let\n    c:f32[20,9] = concatenate[dimension=0] a b\n  in (c,) }",
    "stablehlo": "module @jit__lambda attributes {mhlo.num_partitions = 1 : i32, mhlo.num_replicas = 1 : i32} {\n  func.func public @main(%arg0: tensor<10x9xf32>, %arg1: tensor<10x9xf32>) -> (tensor<20x9xf32> {jax.result_info = \"result\"}) {\n    %0 = stablehlo.concatenate %arg0, %arg1, dim = 0 : (tensor<10x9xf32>, tensor<10x9xf32>) -> tensor<20x9xf32>\n    return %0 : tensor<20x9xf32>\n  }\n}\n",
    "metadata": {
      "category": "array",
      "operation": "concatenate",
      "description": "Array operation: concatenate"
    }
  },
  {
    "python_code": "lambda x, y: jnp.stack([x, y])",
    "input_info": [
      {
        "shape": [
          9,
          10
        ],
        "dtype": "float32"
      },
      {
        "shape": [
          9,
          10
        ],
        "dtype": "float32"
      }
    ],
    "jaxpr": "{ lambda ; a:f32[9,10] b:f32[9,10]. let\n    c:f32[1,9,10] = broadcast_in_dim[\n      broadcast_dimensions=(1, 2)\n      shape=(1, 9, 10)\n      sharding=None\n    ] a\n    d:f32[1,9,10] = broadcast_in_dim[\n      broadcast_dimensions=(1, 2)\n      shape=(1, 9, 10)\n      sharding=None\n    ] b\n    e:f32[2,9,10] = concatenate[dimension=0] c d\n  in (e,) }",
    "stablehlo": "module @jit__lambda attributes {mhlo.num_partitions = 1 : i32, mhlo.num_replicas = 1 : i32} {\n  func.func public @main(%arg0: tensor<9x10xf32>, %arg1: tensor<9x10xf32>) -> (tensor<2x9x10xf32> {jax.result_info = \"result\"}) {\n    %0 = stablehlo.broadcast_in_dim %arg0, dims = [1, 2] : (tensor<9x10xf32>) -> tensor<1x9x10xf32>\n    %1 = stablehlo.broadcast_in_dim %arg1, dims = [1, 2] : (tensor<9x10xf32>) -> tensor<1x9x10xf32>\n    %2 = stablehlo.concatenate %0, %1, dim = 0 : (tensor<1x9x10xf32>, tensor<1x9x10xf32>) -> tensor<2x9x10xf32>\n    return %2 : tensor<2x9x10xf32>\n  }\n}\n",
    "metadata": {
      "category": "array",
      "operation": "stack",
      "description": "Array operation: stack"
    }
  },
  {
    "python_code": "lambda x, y: jnp.stack([x, y])",
    "input_info": [
      {
        "shape": [
          9,
          6
        ],
        "dtype": "float32"
      },
      {
        "shape": [
          9,
          6
        ],
        "dtype": "float32"
      }
    ],
    "jaxpr": "{ lambda ; a:f32[9,6] b:f32[9,6]. let\n    c:f32[1,9,6] = broadcast_in_dim[\n      broadcast_dimensions=(1, 2)\n      shape=(1, 9, 6)\n      sharding=None\n    ] a\n    d:f32[1,9,6] = broadcast_in_dim[\n      broadcast_dimensions=(1, 2)\n      shape=(1, 9, 6)\n      sharding=None\n    ] b\n    e:f32[2,9,6] = concatenate[dimension=0] c d\n  in (e,) }",
    "stablehlo": "module @jit__lambda attributes {mhlo.num_partitions = 1 : i32, mhlo.num_replicas = 1 : i32} {\n  func.func public @main(%arg0: tensor<9x6xf32>, %arg1: tensor<9x6xf32>) -> (tensor<2x9x6xf32> {jax.result_info = \"result\"}) {\n    %0 = stablehlo.broadcast_in_dim %arg0, dims = [1, 2] : (tensor<9x6xf32>) -> tensor<1x9x6xf32>\n    %1 = stablehlo.broadcast_in_dim %arg1, dims = [1, 2] : (tensor<9x6xf32>) -> tensor<1x9x6xf32>\n    %2 = stablehlo.concatenate %0, %1, dim = 0 : (tensor<1x9x6xf32>, tensor<1x9x6xf32>) -> tensor<2x9x6xf32>\n    return %2 : tensor<2x9x6xf32>\n  }\n}\n",
    "metadata": {
      "category": "array",
      "operation": "stack",
      "description": "Array operation: stack"
    }
  },
  {
    "python_code": "lambda x, y: jnp.stack([x, y])",
    "input_info": [
      {
        "shape": [
          7
        ],
        "dtype": "float32"
      },
      {
        "shape": [
          7
        ],
        "dtype": "float32"
      }
    ],
    "jaxpr": "{ lambda ; a:f32[7] b:f32[7]. let\n    c:f32[1,7] = broadcast_in_dim[\n      broadcast_dimensions=(1,)\n      shape=(1, 7)\n      sharding=None\n    ] a\n    d:f32[1,7] = broadcast_in_dim[\n      broadcast_dimensions=(1,)\n      shape=(1, 7)\n      sharding=None\n    ] b\n    e:f32[2,7] = concatenate[dimension=0] c d\n  in (e,) }",
    "stablehlo": "module @jit__lambda attributes {mhlo.num_partitions = 1 : i32, mhlo.num_replicas = 1 : i32} {\n  func.func public @main(%arg0: tensor<7xf32>, %arg1: tensor<7xf32>) -> (tensor<2x7xf32> {jax.result_info = \"result\"}) {\n    %0 = stablehlo.broadcast_in_dim %arg0, dims = [1] : (tensor<7xf32>) -> tensor<1x7xf32>\n    %1 = stablehlo.broadcast_in_dim %arg1, dims = [1] : (tensor<7xf32>) -> tensor<1x7xf32>\n    %2 = stablehlo.concatenate %0, %1, dim = 0 : (tensor<1x7xf32>, tensor<1x7xf32>) -> tensor<2x7xf32>\n    return %2 : tensor<2x7xf32>\n  }\n}\n",
    "metadata": {
      "category": "array",
      "operation": "stack",
      "description": "Array operation: stack"
    }
  },
  {
    "python_code": "lambda x: x.T",
    "input_info": [
      {
        "shape": [
          7,
          4
        ],
        "dtype": "float32"
      }
    ],
    "jaxpr": "{ lambda ; a:f32[7,4]. let\n    b:f32[4,7] = transpose[permutation=(1, 0)] a\n  in (b,) }",
    "stablehlo": "module @jit__lambda attributes {mhlo.num_partitions = 1 : i32, mhlo.num_replicas = 1 : i32} {\n  func.func public @main(%arg0: tensor<7x4xf32>) -> (tensor<4x7xf32> {jax.result_info = \"result\"}) {\n    %0 = stablehlo.transpose %arg0, dims = [1, 0] : (tensor<7x4xf32>) -> tensor<4x7xf32>\n    return %0 : tensor<4x7xf32>\n  }\n}\n",
    "metadata": {
      "category": "array",
      "operation": "transpose",
      "description": "Array operation: transpose"
    }
  },
  {
    "python_code": "lambda x: jnp.reshape(x, (4,))",
    "input_info": [
      {
        "shape": [
          4
        ],
        "dtype": "float32"
      }
    ],
    "jaxpr": "{ lambda ; a:f32[4]. let  in (a,) }",
    "stablehlo": "module @jit__lambda attributes {mhlo.num_partitions = 1 : i32, mhlo.num_replicas = 1 : i32} {\n  func.func public @main(%arg0: tensor<4xf32>) -> (tensor<4xf32> {jax.result_info = \"result\"}) {\n    return %arg0 : tensor<4xf32>\n  }\n}\n",
    "metadata": {
      "category": "array",
      "operation": "reshape",
      "description": "Array operation: reshape"
    }
  },
  {
    "python_code": "lambda x, y: jnp.stack([x, y])",
    "input_info": [
      {
        "shape": [
          7,
          8
        ],
        "dtype": "float32"
      },
      {
        "shape": [
          7,
          8
        ],
        "dtype": "float32"
      }
    ],
    "jaxpr": "{ lambda ; a:f32[7,8] b:f32[7,8]. let\n    c:f32[1,7,8] = broadcast_in_dim[\n      broadcast_dimensions=(1, 2)\n      shape=(1, 7, 8)\n      sharding=None\n    ] a\n    d:f32[1,7,8] = broadcast_in_dim[\n      broadcast_dimensions=(1, 2)\n      shape=(1, 7, 8)\n      sharding=None\n    ] b\n    e:f32[2,7,8] = concatenate[dimension=0] c d\n  in (e,) }",
    "stablehlo": "module @jit__lambda attributes {mhlo.num_partitions = 1 : i32, mhlo.num_replicas = 1 : i32} {\n  func.func public @main(%arg0: tensor<7x8xf32>, %arg1: tensor<7x8xf32>) -> (tensor<2x7x8xf32> {jax.result_info = \"result\"}) {\n    %0 = stablehlo.broadcast_in_dim %arg0, dims = [1, 2] : (tensor<7x8xf32>) -> tensor<1x7x8xf32>\n    %1 = stablehlo.broadcast_in_dim %arg1, dims = [1, 2] : (tensor<7x8xf32>) -> tensor<1x7x8xf32>\n    %2 = stablehlo.concatenate %0, %1, dim = 0 : (tensor<1x7x8xf32>, tensor<1x7x8xf32>) -> tensor<2x7x8xf32>\n    return %2 : tensor<2x7x8xf32>\n  }\n}\n",
    "metadata": {
      "category": "array",
      "operation": "stack",
      "description": "Array operation: stack"
    }
  },
  {
    "python_code": "lambda x: x[1:, :]",
    "input_info": [
      {
        "shape": [
          10,
          6
        ],
        "dtype": "float32"
      }
    ],
    "jaxpr": "{ lambda ; a:f32[10,6]. let\n    b:f32[9,6] = slice[limit_indices=(10, 6) start_indices=(1, 0) strides=None] a\n  in (b,) }",
    "stablehlo": "module @jit__lambda attributes {mhlo.num_partitions = 1 : i32, mhlo.num_replicas = 1 : i32} {\n  func.func public @main(%arg0: tensor<10x6xf32>) -> (tensor<9x6xf32> {jax.result_info = \"result\"}) {\n    %0 = stablehlo.slice %arg0 [1:10, 0:6] : (tensor<10x6xf32>) -> tensor<9x6xf32>\n    return %0 : tensor<9x6xf32>\n  }\n}\n",
    "metadata": {
      "category": "array",
      "operation": "slice",
      "description": "Array operation: slice"
    }
  },
  {
    "python_code": "lambda x: jnp.transpose(x)",
    "input_info": [
      {
        "shape": [
          7
        ],
        "dtype": "float32"
      }
    ],
    "jaxpr": "{ lambda ; a:f32[7]. let  in (a,) }",
    "stablehlo": "module @jit__lambda attributes {mhlo.num_partitions = 1 : i32, mhlo.num_replicas = 1 : i32} {\n  func.func public @main(%arg0: tensor<7xf32>) -> (tensor<7xf32> {jax.result_info = \"result\"}) {\n    return %arg0 : tensor<7xf32>\n  }\n}\n",
    "metadata": {
      "category": "array",
      "operation": "transpose",
      "description": "Array operation: transpose"
    }
  },
  {
    "python_code": "lambda x: jnp.transpose(x)",
    "input_info": [
      {
        "shape": [
          4,
          2,
          6
        ],
        "dtype": "float32"
      }
    ],
    "jaxpr": "{ lambda ; a:f32[4,2,6]. let\n    b:f32[6,2,4] = transpose[permutation=(2, 1, 0)] a\n  in (b,) }",
    "stablehlo": "module @jit__lambda attributes {mhlo.num_partitions = 1 : i32, mhlo.num_replicas = 1 : i32} {\n  func.func public @main(%arg0: tensor<4x2x6xf32>) -> (tensor<6x2x4xf32> {jax.result_info = \"result\"}) {\n    %0 = stablehlo.transpose %arg0, dims = [2, 1, 0] : (tensor<4x2x6xf32>) -> tensor<6x2x4xf32>\n    return %0 : tensor<6x2x4xf32>\n  }\n}\n",
    "metadata": {
      "category": "array",
      "operation": "transpose",
      "description": "Array operation: transpose"
    }
  },
  {
    "python_code": "lambda x: x.T",
    "input_info": [
      {
        "shape": [
          8,
          2
        ],
        "dtype": "float32"
      }
    ],
    "jaxpr": "{ lambda ; a:f32[8,2]. let\n    b:f32[2,8] = transpose[permutation=(1, 0)] a\n  in (b,) }",
    "stablehlo": "module @jit__lambda attributes {mhlo.num_partitions = 1 : i32, mhlo.num_replicas = 1 : i32} {\n  func.func public @main(%arg0: tensor<8x2xf32>) -> (tensor<2x8xf32> {jax.result_info = \"result\"}) {\n    %0 = stablehlo.transpose %arg0, dims = [1, 0] : (tensor<8x2xf32>) -> tensor<2x8xf32>\n    return %0 : tensor<2x8xf32>\n  }\n}\n",
    "metadata": {
      "category": "array",
      "operation": "transpose",
      "description": "Array operation: transpose"
    }
  },
  {
    "python_code": "lambda x: jnp.reshape(x, (56,))",
    "input_info": [
      {
        "shape": [
          7,
          8
        ],
        "dtype": "float32"
      }
    ],
    "jaxpr": "{ lambda ; a:f32[7,8]. let\n    b:f32[56] = reshape[dimensions=None new_sizes=(56,) sharding=None] a\n  in (b,) }",
    "stablehlo": "module @jit__lambda attributes {mhlo.num_partitions = 1 : i32, mhlo.num_replicas = 1 : i32} {\n  func.func public @main(%arg0: tensor<7x8xf32>) -> (tensor<56xf32> {jax.result_info = \"result\"}) {\n    %0 = stablehlo.reshape %arg0 : (tensor<7x8xf32>) -> tensor<56xf32>\n    return %0 : tensor<56xf32>\n  }\n}\n",
    "metadata": {
      "category": "array",
      "operation": "reshape",
      "description": "Array operation: reshape"
    }
  },
  {
    "python_code": "lambda x: jnp.transpose(x)",
    "input_info": [
      {
        "shape": [
          4,
          8,
          2
        ],
        "dtype": "float32"
      }
    ],
    "jaxpr": "{ lambda ; a:f32[4,8,2]. let\n    b:f32[2,8,4] = transpose[permutation=(2, 1, 0)] a\n  in (b,) }",
    "stablehlo": "module @jit__lambda attributes {mhlo.num_partitions = 1 : i32, mhlo.num_replicas = 1 : i32} {\n  func.func public @main(%arg0: tensor<4x8x2xf32>) -> (tensor<2x8x4xf32> {jax.result_info = \"result\"}) {\n    %0 = stablehlo.transpose %arg0, dims = [2, 1, 0] : (tensor<4x8x2xf32>) -> tensor<2x8x4xf32>\n    return %0 : tensor<2x8x4xf32>\n  }\n}\n",
    "metadata": {
      "category": "array",
      "operation": "transpose",
      "description": "Array operation: transpose"
    }
  },
  {
    "python_code": "lambda x: x[1:, :]",
    "input_info": [
      {
        "shape": [
          6,
          5,
          2
        ],
        "dtype": "float32"
      }
    ],
    "jaxpr": "{ lambda ; a:f32[6,5,2]. let\n    b:f32[5,5,2] = slice[\n      limit_indices=(6, 5, 2)\n      start_indices=(1, 0, 0)\n      strides=None\n    ] a\n  in (b,) }",
    "stablehlo": "module @jit__lambda attributes {mhlo.num_partitions = 1 : i32, mhlo.num_replicas = 1 : i32} {\n  func.func public @main(%arg0: tensor<6x5x2xf32>) -> (tensor<5x5x2xf32> {jax.result_info = \"result\"}) {\n    %0 = stablehlo.slice %arg0 [1:6, 0:5, 0:2] : (tensor<6x5x2xf32>) -> tensor<5x5x2xf32>\n    return %0 : tensor<5x5x2xf32>\n  }\n}\n",
    "metadata": {
      "category": "array",
      "operation": "slice",
      "description": "Array operation: slice"
    }
  },
  {
    "python_code": "lambda x: jnp.reshape(x, (2, 224))",
    "input_info": [
      {
        "shape": [
          8,
          7,
          8
        ],
        "dtype": "float32"
      }
    ],
    "jaxpr": "{ lambda ; a:f32[8,7,8]. let\n    b:f32[2,224] = reshape[dimensions=None new_sizes=(2, 224) sharding=None] a\n  in (b,) }",
    "stablehlo": "module @jit__lambda attributes {mhlo.num_partitions = 1 : i32, mhlo.num_replicas = 1 : i32} {\n  func.func public @main(%arg0: tensor<8x7x8xf32>) -> (tensor<2x224xf32> {jax.result_info = \"result\"}) {\n    %0 = stablehlo.reshape %arg0 : (tensor<8x7x8xf32>) -> tensor<2x224xf32>\n    return %0 : tensor<2x224xf32>\n  }\n}\n",
    "metadata": {
      "category": "array",
      "operation": "reshape",
      "description": "Array operation: reshape"
    }
  },
  {
    "python_code": "lambda x, y: jnp.stack([x, y])",
    "input_info": [
      {
        "shape": [
          10
        ],
        "dtype": "float32"
      },
      {
        "shape": [
          10
        ],
        "dtype": "float32"
      }
    ],
    "jaxpr": "{ lambda ; a:f32[10] b:f32[10]. let\n    c:f32[1,10] = broadcast_in_dim[\n      broadcast_dimensions=(1,)\n      shape=(1, 10)\n      sharding=None\n    ] a\n    d:f32[1,10] = broadcast_in_dim[\n      broadcast_dimensions=(1,)\n      shape=(1, 10)\n      sharding=None\n    ] b\n    e:f32[2,10] = concatenate[dimension=0] c d\n  in (e,) }",
    "stablehlo": "module @jit__lambda attributes {mhlo.num_partitions = 1 : i32, mhlo.num_replicas = 1 : i32} {\n  func.func public @main(%arg0: tensor<10xf32>, %arg1: tensor<10xf32>) -> (tensor<2x10xf32> {jax.result_info = \"result\"}) {\n    %0 = stablehlo.broadcast_in_dim %arg0, dims = [1] : (tensor<10xf32>) -> tensor<1x10xf32>\n    %1 = stablehlo.broadcast_in_dim %arg1, dims = [1] : (tensor<10xf32>) -> tensor<1x10xf32>\n    %2 = stablehlo.concatenate %0, %1, dim = 0 : (tensor<1x10xf32>, tensor<1x10xf32>) -> tensor<2x10xf32>\n    return %2 : tensor<2x10xf32>\n  }\n}\n",
    "metadata": {
      "category": "array",
      "operation": "stack",
      "description": "Array operation: stack"
    }
  },
  {
    "python_code": "lambda x: jnp.transpose(x)",
    "input_info": [
      {
        "shape": [
          4,
          4,
          8
        ],
        "dtype": "float32"
      }
    ],
    "jaxpr": "{ lambda ; a:f32[4,4,8]. let\n    b:f32[8,4,4] = transpose[permutation=(2, 1, 0)] a\n  in (b,) }",
    "stablehlo": "module @jit__lambda attributes {mhlo.num_partitions = 1 : i32, mhlo.num_replicas = 1 : i32} {\n  func.func public @main(%arg0: tensor<4x4x8xf32>) -> (tensor<8x4x4xf32> {jax.result_info = \"result\"}) {\n    %0 = stablehlo.transpose %arg0, dims = [2, 1, 0] : (tensor<4x4x8xf32>) -> tensor<8x4x4xf32>\n    return %0 : tensor<8x4x4xf32>\n  }\n}\n",
    "metadata": {
      "category": "array",
      "operation": "transpose",
      "description": "Array operation: transpose"
    }
  },
  {
    "python_code": "lambda x, y: jnp.stack([x, y])",
    "input_info": [
      {
        "shape": [
          5,
          9
        ],
        "dtype": "float32"
      },
      {
        "shape": [
          5,
          9
        ],
        "dtype": "float32"
      }
    ],
    "jaxpr": "{ lambda ; a:f32[5,9] b:f32[5,9]. let\n    c:f32[1,5,9] = broadcast_in_dim[\n      broadcast_dimensions=(1, 2)\n      shape=(1, 5, 9)\n      sharding=None\n    ] a\n    d:f32[1,5,9] = broadcast_in_dim[\n      broadcast_dimensions=(1, 2)\n      shape=(1, 5, 9)\n      sharding=None\n    ] b\n    e:f32[2,5,9] = concatenate[dimension=0] c d\n  in (e,) }",
    "stablehlo": "module @jit__lambda attributes {mhlo.num_partitions = 1 : i32, mhlo.num_replicas = 1 : i32} {\n  func.func public @main(%arg0: tensor<5x9xf32>, %arg1: tensor<5x9xf32>) -> (tensor<2x5x9xf32> {jax.result_info = \"result\"}) {\n    %0 = stablehlo.broadcast_in_dim %arg0, dims = [1, 2] : (tensor<5x9xf32>) -> tensor<1x5x9xf32>\n    %1 = stablehlo.broadcast_in_dim %arg1, dims = [1, 2] : (tensor<5x9xf32>) -> tensor<1x5x9xf32>\n    %2 = stablehlo.concatenate %0, %1, dim = 0 : (tensor<1x5x9xf32>, tensor<1x5x9xf32>) -> tensor<2x5x9xf32>\n    return %2 : tensor<2x5x9xf32>\n  }\n}\n",
    "metadata": {
      "category": "array",
      "operation": "stack",
      "description": "Array operation: stack"
    }
  },
  {
    "python_code": "lambda x, y: jnp.concatenate([x, y], axis=0)",
    "input_info": [
      {
        "shape": [
          5,
          2,
          4
        ],
        "dtype": "float32"
      },
      {
        "shape": [
          5,
          2,
          4
        ],
        "dtype": "float32"
      }
    ],
    "jaxpr": "{ lambda ; a:f32[5,2,4] b:f32[5,2,4]. let\n    c:f32[10,2,4] = concatenate[dimension=0] a b\n  in (c,) }",
    "stablehlo": "module @jit__lambda attributes {mhlo.num_partitions = 1 : i32, mhlo.num_replicas = 1 : i32} {\n  func.func public @main(%arg0: tensor<5x2x4xf32>, %arg1: tensor<5x2x4xf32>) -> (tensor<10x2x4xf32> {jax.result_info = \"result\"}) {\n    %0 = stablehlo.concatenate %arg0, %arg1, dim = 0 : (tensor<5x2x4xf32>, tensor<5x2x4xf32>) -> tensor<10x2x4xf32>\n    return %0 : tensor<10x2x4xf32>\n  }\n}\n",
    "metadata": {
      "category": "array",
      "operation": "concatenate",
      "description": "Array operation: concatenate"
    }
  },
  {
    "python_code": "lambda x: x[1:, :]",
    "input_info": [
      {
        "shape": [
          2,
          8
        ],
        "dtype": "float32"
      }
    ],
    "jaxpr": "{ lambda ; a:f32[2,8]. let\n    b:f32[1,8] = slice[limit_indices=(2, 8) start_indices=(1, 0) strides=None] a\n  in (b,) }",
    "stablehlo": "module @jit__lambda attributes {mhlo.num_partitions = 1 : i32, mhlo.num_replicas = 1 : i32} {\n  func.func public @main(%arg0: tensor<2x8xf32>) -> (tensor<1x8xf32> {jax.result_info = \"result\"}) {\n    %0 = stablehlo.slice %arg0 [1:2, 0:8] : (tensor<2x8xf32>) -> tensor<1x8xf32>\n    return %0 : tensor<1x8xf32>\n  }\n}\n",
    "metadata": {
      "category": "array",
      "operation": "slice",
      "description": "Array operation: slice"
    }
  },
  {
    "python_code": "lambda x: jnp.reshape(x, (3, 3))",
    "input_info": [
      {
        "shape": [
          9
        ],
        "dtype": "float32"
      }
    ],
    "jaxpr": "{ lambda ; a:f32[9]. let\n    b:f32[3,3] = reshape[dimensions=None new_sizes=(3, 3) sharding=None] a\n  in (b,) }",
    "stablehlo": "module @jit__lambda attributes {mhlo.num_partitions = 1 : i32, mhlo.num_replicas = 1 : i32} {\n  func.func public @main(%arg0: tensor<9xf32>) -> (tensor<3x3xf32> {jax.result_info = \"result\"}) {\n    %0 = stablehlo.reshape %arg0 : (tensor<9xf32>) -> tensor<3x3xf32>\n    return %0 : tensor<3x3xf32>\n  }\n}\n",
    "metadata": {
      "category": "array",
      "operation": "reshape",
      "description": "Array operation: reshape"
    }
  },
  {
    "python_code": "lambda x, y: jnp.stack([x, y])",
    "input_info": [
      {
        "shape": [
          5,
          4
        ],
        "dtype": "float32"
      },
      {
        "shape": [
          5,
          4
        ],
        "dtype": "float32"
      }
    ],
    "jaxpr": "{ lambda ; a:f32[5,4] b:f32[5,4]. let\n    c:f32[1,5,4] = broadcast_in_dim[\n      broadcast_dimensions=(1, 2)\n      shape=(1, 5, 4)\n      sharding=None\n    ] a\n    d:f32[1,5,4] = broadcast_in_dim[\n      broadcast_dimensions=(1, 2)\n      shape=(1, 5, 4)\n      sharding=None\n    ] b\n    e:f32[2,5,4] = concatenate[dimension=0] c d\n  in (e,) }",
    "stablehlo": "module @jit__lambda attributes {mhlo.num_partitions = 1 : i32, mhlo.num_replicas = 1 : i32} {\n  func.func public @main(%arg0: tensor<5x4xf32>, %arg1: tensor<5x4xf32>) -> (tensor<2x5x4xf32> {jax.result_info = \"result\"}) {\n    %0 = stablehlo.broadcast_in_dim %arg0, dims = [1, 2] : (tensor<5x4xf32>) -> tensor<1x5x4xf32>\n    %1 = stablehlo.broadcast_in_dim %arg1, dims = [1, 2] : (tensor<5x4xf32>) -> tensor<1x5x4xf32>\n    %2 = stablehlo.concatenate %0, %1, dim = 0 : (tensor<1x5x4xf32>, tensor<1x5x4xf32>) -> tensor<2x5x4xf32>\n    return %2 : tensor<2x5x4xf32>\n  }\n}\n",
    "metadata": {
      "category": "array",
      "operation": "stack",
      "description": "Array operation: stack"
    }
  },
  {
    "python_code": "lambda x, y: jnp.concatenate([x, y], axis=0)",
    "input_info": [
      {
        "shape": [
          10,
          6
        ],
        "dtype": "float32"
      },
      {
        "shape": [
          10,
          6
        ],
        "dtype": "float32"
      }
    ],
    "jaxpr": "{ lambda ; a:f32[10,6] b:f32[10,6]. let\n    c:f32[20,6] = concatenate[dimension=0] a b\n  in (c,) }",
    "stablehlo": "module @jit__lambda attributes {mhlo.num_partitions = 1 : i32, mhlo.num_replicas = 1 : i32} {\n  func.func public @main(%arg0: tensor<10x6xf32>, %arg1: tensor<10x6xf32>) -> (tensor<20x6xf32> {jax.result_info = \"result\"}) {\n    %0 = stablehlo.concatenate %arg0, %arg1, dim = 0 : (tensor<10x6xf32>, tensor<10x6xf32>) -> tensor<20x6xf32>\n    return %0 : tensor<20x6xf32>\n  }\n}\n",
    "metadata": {
      "category": "array",
      "operation": "concatenate",
      "description": "Array operation: concatenate"
    }
  },
  {
    "python_code": "lambda x: jnp.transpose(x)",
    "input_info": [
      {
        "shape": [
          8
        ],
        "dtype": "float32"
      }
    ],
    "jaxpr": "{ lambda ; a:f32[8]. let  in (a,) }",
    "stablehlo": "module @jit__lambda attributes {mhlo.num_partitions = 1 : i32, mhlo.num_replicas = 1 : i32} {\n  func.func public @main(%arg0: tensor<8xf32>) -> (tensor<8xf32> {jax.result_info = \"result\"}) {\n    return %arg0 : tensor<8xf32>\n  }\n}\n",
    "metadata": {
      "category": "array",
      "operation": "transpose",
      "description": "Array operation: transpose"
    }
  },
  {
    "python_code": "lambda x: x[1:, :]",
    "input_info": [
      {
        "shape": [
          8,
          10,
          5
        ],
        "dtype": "float32"
      }
    ],
    "jaxpr": "{ lambda ; a:f32[8,10,5]. let\n    b:f32[7,10,5] = slice[\n      limit_indices=(8, 10, 5)\n      start_indices=(1, 0, 0)\n      strides=None\n    ] a\n  in (b,) }",
    "stablehlo": "module @jit__lambda attributes {mhlo.num_partitions = 1 : i32, mhlo.num_replicas = 1 : i32} {\n  func.func public @main(%arg0: tensor<8x10x5xf32>) -> (tensor<7x10x5xf32> {jax.result_info = \"result\"}) {\n    %0 = stablehlo.slice %arg0 [1:8, 0:10, 0:5] : (tensor<8x10x5xf32>) -> tensor<7x10x5xf32>\n    return %0 : tensor<7x10x5xf32>\n  }\n}\n",
    "metadata": {
      "category": "array",
      "operation": "slice",
      "description": "Array operation: slice"
    }
  },
  {
    "python_code": "lambda x, y: jnp.stack([x, y])",
    "input_info": [
      {
        "shape": [
          5,
          3
        ],
        "dtype": "float32"
      },
      {
        "shape": [
          5,
          3
        ],
        "dtype": "float32"
      }
    ],
    "jaxpr": "{ lambda ; a:f32[5,3] b:f32[5,3]. let\n    c:f32[1,5,3] = broadcast_in_dim[\n      broadcast_dimensions=(1, 2)\n      shape=(1, 5, 3)\n      sharding=None\n    ] a\n    d:f32[1,5,3] = broadcast_in_dim[\n      broadcast_dimensions=(1, 2)\n      shape=(1, 5, 3)\n      sharding=None\n    ] b\n    e:f32[2,5,3] = concatenate[dimension=0] c d\n  in (e,) }",
    "stablehlo": "module @jit__lambda attributes {mhlo.num_partitions = 1 : i32, mhlo.num_replicas = 1 : i32} {\n  func.func public @main(%arg0: tensor<5x3xf32>, %arg1: tensor<5x3xf32>) -> (tensor<2x5x3xf32> {jax.result_info = \"result\"}) {\n    %0 = stablehlo.broadcast_in_dim %arg0, dims = [1, 2] : (tensor<5x3xf32>) -> tensor<1x5x3xf32>\n    %1 = stablehlo.broadcast_in_dim %arg1, dims = [1, 2] : (tensor<5x3xf32>) -> tensor<1x5x3xf32>\n    %2 = stablehlo.concatenate %0, %1, dim = 0 : (tensor<1x5x3xf32>, tensor<1x5x3xf32>) -> tensor<2x5x3xf32>\n    return %2 : tensor<2x5x3xf32>\n  }\n}\n",
    "metadata": {
      "category": "array",
      "operation": "stack",
      "description": "Array operation: stack"
    }
  },
  {
    "python_code": "lambda x, y: jnp.concatenate([x, y], axis=0)",
    "input_info": [
      {
        "shape": [
          7,
          9
        ],
        "dtype": "float32"
      },
      {
        "shape": [
          7,
          9
        ],
        "dtype": "float32"
      }
    ],
    "jaxpr": "{ lambda ; a:f32[7,9] b:f32[7,9]. let\n    c:f32[14,9] = concatenate[dimension=0] a b\n  in (c,) }",
    "stablehlo": "module @jit__lambda attributes {mhlo.num_partitions = 1 : i32, mhlo.num_replicas = 1 : i32} {\n  func.func public @main(%arg0: tensor<7x9xf32>, %arg1: tensor<7x9xf32>) -> (tensor<14x9xf32> {jax.result_info = \"result\"}) {\n    %0 = stablehlo.concatenate %arg0, %arg1, dim = 0 : (tensor<7x9xf32>, tensor<7x9xf32>) -> tensor<14x9xf32>\n    return %0 : tensor<14x9xf32>\n  }\n}\n",
    "metadata": {
      "category": "array",
      "operation": "concatenate",
      "description": "Array operation: concatenate"
    }
  },
  {
    "python_code": "lambda x: jnp.transpose(x)",
    "input_info": [
      {
        "shape": [
          2
        ],
        "dtype": "float32"
      }
    ],
    "jaxpr": "{ lambda ; a:f32[2]. let  in (a,) }",
    "stablehlo": "module @jit__lambda attributes {mhlo.num_partitions = 1 : i32, mhlo.num_replicas = 1 : i32} {\n  func.func public @main(%arg0: tensor<2xf32>) -> (tensor<2xf32> {jax.result_info = \"result\"}) {\n    return %arg0 : tensor<2xf32>\n  }\n}\n",
    "metadata": {
      "category": "array",
      "operation": "transpose",
      "description": "Array operation: transpose"
    }
  },
  {
    "python_code": "lambda x: jnp.transpose(x)",
    "input_info": [
      {
        "shape": [
          9
        ],
        "dtype": "float32"
      }
    ],
    "jaxpr": "{ lambda ; a:f32[9]. let  in (a,) }",
    "stablehlo": "module @jit__lambda attributes {mhlo.num_partitions = 1 : i32, mhlo.num_replicas = 1 : i32} {\n  func.func public @main(%arg0: tensor<9xf32>) -> (tensor<9xf32> {jax.result_info = \"result\"}) {\n    return %arg0 : tensor<9xf32>\n  }\n}\n",
    "metadata": {
      "category": "array",
      "operation": "transpose",
      "description": "Array operation: transpose"
    }
  }
]