[
  {
    "python_code": "lambda x, y: jnp.dot(x, y)",
    "input_info": [
      {
        "shape": [
          5
        ],
        "dtype": "float32"
      },
      {
        "shape": [
          5
        ],
        "dtype": "float32"
      }
    ],
    "jaxpr": "{ lambda ; a:f32[5] b:f32[5]. let\n    c:f32[] = dot_general[\n      dimension_numbers=(([0], [0]), ([], []))\n      preferred_element_type=float32\n    ] a b\n  in (c,) }",
    "stablehlo": "module @jit__lambda attributes {mhlo.num_partitions = 1 : i32, mhlo.num_replicas = 1 : i32} {\n  func.func public @main(%arg0: tensor<5xf32>, %arg1: tensor<5xf32>) -> (tensor<f32> {jax.result_info = \"result\"}) {\n    %0 = stablehlo.dot_general %arg0, %arg1, contracting_dims = [0] x [0], precision = [DEFAULT, DEFAULT] : (tensor<5xf32>, tensor<5xf32>) -> tensor<f32>\n    return %0 : tensor<f32>\n  }\n}\n",
    "metadata": {
      "category": "linalg",
      "operation": "dot",
      "description": "Linear algebra: dot"
    }
  },
  {
    "python_code": "lambda A, B: jnp.matmul(A, B)",
    "input_info": [
      {
        "shape": [
          3,
          4
        ],
        "dtype": "float32"
      },
      {
        "shape": [
          4,
          5
        ],
        "dtype": "float32"
      }
    ],
    "jaxpr": "{ lambda ; a:f32[3,4] b:f32[4,5]. let\n    c:f32[3,5] = dot_general[\n      dimension_numbers=(([1], [0]), ([], []))\n      preferred_element_type=float32\n    ] a b\n  in (c,) }",
    "stablehlo": "module @jit__lambda attributes {mhlo.num_partitions = 1 : i32, mhlo.num_replicas = 1 : i32} {\n  func.func public @main(%arg0: tensor<3x4xf32>, %arg1: tensor<4x5xf32>) -> (tensor<3x5xf32> {jax.result_info = \"result\"}) {\n    %0 = stablehlo.dot_general %arg0, %arg1, contracting_dims = [1] x [0], precision = [DEFAULT, DEFAULT] : (tensor<3x4xf32>, tensor<4x5xf32>) -> tensor<3x5xf32>\n    return %0 : tensor<3x5xf32>\n  }\n}\n",
    "metadata": {
      "category": "linalg",
      "operation": "matmul",
      "description": "Linear algebra: matmul"
    }
  },
  {
    "python_code": "lambda A, B: jnp.matmul(A, B)",
    "input_info": [
      {
        "shape": [
          3,
          4
        ],
        "dtype": "float32"
      },
      {
        "shape": [
          4,
          5
        ],
        "dtype": "float32"
      }
    ],
    "jaxpr": "{ lambda ; a:f32[3,4] b:f32[4,5]. let\n    c:f32[3,5] = dot_general[\n      dimension_numbers=(([1], [0]), ([], []))\n      preferred_element_type=float32\n    ] a b\n  in (c,) }",
    "stablehlo": "module @jit__lambda attributes {mhlo.num_partitions = 1 : i32, mhlo.num_replicas = 1 : i32} {\n  func.func public @main(%arg0: tensor<3x4xf32>, %arg1: tensor<4x5xf32>) -> (tensor<3x5xf32> {jax.result_info = \"result\"}) {\n    %0 = stablehlo.dot_general %arg0, %arg1, contracting_dims = [1] x [0], precision = [DEFAULT, DEFAULT] : (tensor<3x4xf32>, tensor<4x5xf32>) -> tensor<3x5xf32>\n    return %0 : tensor<3x5xf32>\n  }\n}\n",
    "metadata": {
      "category": "linalg",
      "operation": "matmul",
      "description": "Linear algebra: matmul"
    }
  },
  {
    "python_code": "lambda x, y: jnp.dot(x, y)",
    "input_info": [
      {
        "shape": [
          5
        ],
        "dtype": "float32"
      },
      {
        "shape": [
          5
        ],
        "dtype": "float32"
      }
    ],
    "jaxpr": "{ lambda ; a:f32[5] b:f32[5]. let\n    c:f32[] = dot_general[\n      dimension_numbers=(([0], [0]), ([], []))\n      preferred_element_type=float32\n    ] a b\n  in (c,) }",
    "stablehlo": "module @jit__lambda attributes {mhlo.num_partitions = 1 : i32, mhlo.num_replicas = 1 : i32} {\n  func.func public @main(%arg0: tensor<5xf32>, %arg1: tensor<5xf32>) -> (tensor<f32> {jax.result_info = \"result\"}) {\n    %0 = stablehlo.dot_general %arg0, %arg1, contracting_dims = [0] x [0], precision = [DEFAULT, DEFAULT] : (tensor<5xf32>, tensor<5xf32>) -> tensor<f32>\n    return %0 : tensor<f32>\n  }\n}\n",
    "metadata": {
      "category": "linalg",
      "operation": "dot",
      "description": "Linear algebra: dot"
    }
  },
  {
    "python_code": "lambda x: jnp.linalg.norm(x)",
    "input_info": [
      {
        "shape": [
          5
        ],
        "dtype": "float32"
      }
    ],
    "jaxpr": "{ lambda ; a:f32[5]. let\n    b:f32[] = jit[\n      name=norm\n      jaxpr={ lambda ; a:f32[5]. let\n          c:f32[5] = mul a a\n          d:f32[] = reduce_sum[axes=(0,) out_sharding=None] c\n          b:f32[] = sqrt d\n        in (b,) }\n    ] a\n  in (b,) }",
    "stablehlo": "module @jit__lambda attributes {mhlo.num_partitions = 1 : i32, mhlo.num_replicas = 1 : i32} {\n  func.func public @main(%arg0: tensor<5xf32>) -> (tensor<f32> {jax.result_info = \"result\"}) {\n    %0 = call @norm(%arg0) : (tensor<5xf32>) -> tensor<f32>\n    return %0 : tensor<f32>\n  }\n  func.func private @norm(%arg0: tensor<5xf32>) -> tensor<f32> {\n    %0 = stablehlo.multiply %arg0, %arg0 : tensor<5xf32>\n    %cst = stablehlo.constant dense<0.000000e+00> : tensor<f32>\n    %1 = stablehlo.reduce(%0 init: %cst) applies stablehlo.add across dimensions = [0] : (tensor<5xf32>, tensor<f32>) -> tensor<f32>\n    %2 = stablehlo.sqrt %1 : tensor<f32>\n    return %2 : tensor<f32>\n  }\n}\n",
    "metadata": {
      "category": "linalg",
      "operation": "norm",
      "description": "Linear algebra: norm"
    }
  },
  {
    "python_code": "lambda A, B: jnp.matmul(A, B)",
    "input_info": [
      {
        "shape": [
          3,
          4
        ],
        "dtype": "float32"
      },
      {
        "shape": [
          4,
          5
        ],
        "dtype": "float32"
      }
    ],
    "jaxpr": "{ lambda ; a:f32[3,4] b:f32[4,5]. let\n    c:f32[3,5] = dot_general[\n      dimension_numbers=(([1], [0]), ([], []))\n      preferred_element_type=float32\n    ] a b\n  in (c,) }",
    "stablehlo": "module @jit__lambda attributes {mhlo.num_partitions = 1 : i32, mhlo.num_replicas = 1 : i32} {\n  func.func public @main(%arg0: tensor<3x4xf32>, %arg1: tensor<4x5xf32>) -> (tensor<3x5xf32> {jax.result_info = \"result\"}) {\n    %0 = stablehlo.dot_general %arg0, %arg1, contracting_dims = [1] x [0], precision = [DEFAULT, DEFAULT] : (tensor<3x4xf32>, tensor<4x5xf32>) -> tensor<3x5xf32>\n    return %0 : tensor<3x5xf32>\n  }\n}\n",
    "metadata": {
      "category": "linalg",
      "operation": "matmul",
      "description": "Linear algebra: matmul"
    }
  },
  {
    "python_code": "lambda x, y: jnp.dot(x, y)",
    "input_info": [
      {
        "shape": [
          5
        ],
        "dtype": "float32"
      },
      {
        "shape": [
          5
        ],
        "dtype": "float32"
      }
    ],
    "jaxpr": "{ lambda ; a:f32[5] b:f32[5]. let\n    c:f32[] = dot_general[\n      dimension_numbers=(([0], [0]), ([], []))\n      preferred_element_type=float32\n    ] a b\n  in (c,) }",
    "stablehlo": "module @jit__lambda attributes {mhlo.num_partitions = 1 : i32, mhlo.num_replicas = 1 : i32} {\n  func.func public @main(%arg0: tensor<5xf32>, %arg1: tensor<5xf32>) -> (tensor<f32> {jax.result_info = \"result\"}) {\n    %0 = stablehlo.dot_general %arg0, %arg1, contracting_dims = [0] x [0], precision = [DEFAULT, DEFAULT] : (tensor<5xf32>, tensor<5xf32>) -> tensor<f32>\n    return %0 : tensor<f32>\n  }\n}\n",
    "metadata": {
      "category": "linalg",
      "operation": "dot",
      "description": "Linear algebra: dot"
    }
  },
  {
    "python_code": "lambda x, y: jnp.outer(x, y)",
    "input_info": [
      {
        "shape": [
          3
        ],
        "dtype": "float32"
      },
      {
        "shape": [
          4
        ],
        "dtype": "float32"
      }
    ],
    "jaxpr": "{ lambda ; a:f32[3] b:f32[4]. let\n    c:f32[3,1] = broadcast_in_dim[\n      broadcast_dimensions=(0,)\n      shape=(3, 1)\n      sharding=None\n    ] a\n    d:f32[1,4] = broadcast_in_dim[\n      broadcast_dimensions=(1,)\n      shape=(1, 4)\n      sharding=None\n    ] b\n    e:f32[3,4] = mul c d\n  in (e,) }",
    "stablehlo": "module @jit__lambda attributes {mhlo.num_partitions = 1 : i32, mhlo.num_replicas = 1 : i32} {\n  func.func public @main(%arg0: tensor<3xf32>, %arg1: tensor<4xf32>) -> (tensor<3x4xf32> {jax.result_info = \"result\"}) {\n    %0 = stablehlo.broadcast_in_dim %arg0, dims = [0] : (tensor<3xf32>) -> tensor<3x1xf32>\n    %1 = stablehlo.broadcast_in_dim %arg1, dims = [1] : (tensor<4xf32>) -> tensor<1x4xf32>\n    %2 = stablehlo.broadcast_in_dim %0, dims = [0, 1] : (tensor<3x1xf32>) -> tensor<3x4xf32>\n    %3 = stablehlo.broadcast_in_dim %1, dims = [0, 1] : (tensor<1x4xf32>) -> tensor<3x4xf32>\n    %4 = stablehlo.multiply %2, %3 : tensor<3x4xf32>\n    return %4 : tensor<3x4xf32>\n  }\n}\n",
    "metadata": {
      "category": "linalg",
      "operation": "outer",
      "description": "Linear algebra: outer"
    }
  },
  {
    "python_code": "lambda x, y: jnp.outer(x, y)",
    "input_info": [
      {
        "shape": [
          3
        ],
        "dtype": "float32"
      },
      {
        "shape": [
          4
        ],
        "dtype": "float32"
      }
    ],
    "jaxpr": "{ lambda ; a:f32[3] b:f32[4]. let\n    c:f32[3,1] = broadcast_in_dim[\n      broadcast_dimensions=(0,)\n      shape=(3, 1)\n      sharding=None\n    ] a\n    d:f32[1,4] = broadcast_in_dim[\n      broadcast_dimensions=(1,)\n      shape=(1, 4)\n      sharding=None\n    ] b\n    e:f32[3,4] = mul c d\n  in (e,) }",
    "stablehlo": "module @jit__lambda attributes {mhlo.num_partitions = 1 : i32, mhlo.num_replicas = 1 : i32} {\n  func.func public @main(%arg0: tensor<3xf32>, %arg1: tensor<4xf32>) -> (tensor<3x4xf32> {jax.result_info = \"result\"}) {\n    %0 = stablehlo.broadcast_in_dim %arg0, dims = [0] : (tensor<3xf32>) -> tensor<3x1xf32>\n    %1 = stablehlo.broadcast_in_dim %arg1, dims = [1] : (tensor<4xf32>) -> tensor<1x4xf32>\n    %2 = stablehlo.broadcast_in_dim %0, dims = [0, 1] : (tensor<3x1xf32>) -> tensor<3x4xf32>\n    %3 = stablehlo.broadcast_in_dim %1, dims = [0, 1] : (tensor<1x4xf32>) -> tensor<3x4xf32>\n    %4 = stablehlo.multiply %2, %3 : tensor<3x4xf32>\n    return %4 : tensor<3x4xf32>\n  }\n}\n",
    "metadata": {
      "category": "linalg",
      "operation": "outer",
      "description": "Linear algebra: outer"
    }
  },
  {
    "python_code": "lambda x, y: jnp.outer(x, y)",
    "input_info": [
      {
        "shape": [
          3
        ],
        "dtype": "float32"
      },
      {
        "shape": [
          4
        ],
        "dtype": "float32"
      }
    ],
    "jaxpr": "{ lambda ; a:f32[3] b:f32[4]. let\n    c:f32[3,1] = broadcast_in_dim[\n      broadcast_dimensions=(0,)\n      shape=(3, 1)\n      sharding=None\n    ] a\n    d:f32[1,4] = broadcast_in_dim[\n      broadcast_dimensions=(1,)\n      shape=(1, 4)\n      sharding=None\n    ] b\n    e:f32[3,4] = mul c d\n  in (e,) }",
    "stablehlo": "module @jit__lambda attributes {mhlo.num_partitions = 1 : i32, mhlo.num_replicas = 1 : i32} {\n  func.func public @main(%arg0: tensor<3xf32>, %arg1: tensor<4xf32>) -> (tensor<3x4xf32> {jax.result_info = \"result\"}) {\n    %0 = stablehlo.broadcast_in_dim %arg0, dims = [0] : (tensor<3xf32>) -> tensor<3x1xf32>\n    %1 = stablehlo.broadcast_in_dim %arg1, dims = [1] : (tensor<4xf32>) -> tensor<1x4xf32>\n    %2 = stablehlo.broadcast_in_dim %0, dims = [0, 1] : (tensor<3x1xf32>) -> tensor<3x4xf32>\n    %3 = stablehlo.broadcast_in_dim %1, dims = [0, 1] : (tensor<1x4xf32>) -> tensor<3x4xf32>\n    %4 = stablehlo.multiply %2, %3 : tensor<3x4xf32>\n    return %4 : tensor<3x4xf32>\n  }\n}\n",
    "metadata": {
      "category": "linalg",
      "operation": "outer",
      "description": "Linear algebra: outer"
    }
  },
  {
    "python_code": "lambda x, y: jnp.dot(x, y)",
    "input_info": [
      {
        "shape": [
          5
        ],
        "dtype": "float32"
      },
      {
        "shape": [
          5
        ],
        "dtype": "float32"
      }
    ],
    "jaxpr": "{ lambda ; a:f32[5] b:f32[5]. let\n    c:f32[] = dot_general[\n      dimension_numbers=(([0], [0]), ([], []))\n      preferred_element_type=float32\n    ] a b\n  in (c,) }",
    "stablehlo": "module @jit__lambda attributes {mhlo.num_partitions = 1 : i32, mhlo.num_replicas = 1 : i32} {\n  func.func public @main(%arg0: tensor<5xf32>, %arg1: tensor<5xf32>) -> (tensor<f32> {jax.result_info = \"result\"}) {\n    %0 = stablehlo.dot_general %arg0, %arg1, contracting_dims = [0] x [0], precision = [DEFAULT, DEFAULT] : (tensor<5xf32>, tensor<5xf32>) -> tensor<f32>\n    return %0 : tensor<f32>\n  }\n}\n",
    "metadata": {
      "category": "linalg",
      "operation": "dot",
      "description": "Linear algebra: dot"
    }
  },
  {
    "python_code": "lambda x, y: jnp.outer(x, y)",
    "input_info": [
      {
        "shape": [
          3
        ],
        "dtype": "float32"
      },
      {
        "shape": [
          4
        ],
        "dtype": "float32"
      }
    ],
    "jaxpr": "{ lambda ; a:f32[3] b:f32[4]. let\n    c:f32[3,1] = broadcast_in_dim[\n      broadcast_dimensions=(0,)\n      shape=(3, 1)\n      sharding=None\n    ] a\n    d:f32[1,4] = broadcast_in_dim[\n      broadcast_dimensions=(1,)\n      shape=(1, 4)\n      sharding=None\n    ] b\n    e:f32[3,4] = mul c d\n  in (e,) }",
    "stablehlo": "module @jit__lambda attributes {mhlo.num_partitions = 1 : i32, mhlo.num_replicas = 1 : i32} {\n  func.func public @main(%arg0: tensor<3xf32>, %arg1: tensor<4xf32>) -> (tensor<3x4xf32> {jax.result_info = \"result\"}) {\n    %0 = stablehlo.broadcast_in_dim %arg0, dims = [0] : (tensor<3xf32>) -> tensor<3x1xf32>\n    %1 = stablehlo.broadcast_in_dim %arg1, dims = [1] : (tensor<4xf32>) -> tensor<1x4xf32>\n    %2 = stablehlo.broadcast_in_dim %0, dims = [0, 1] : (tensor<3x1xf32>) -> tensor<3x4xf32>\n    %3 = stablehlo.broadcast_in_dim %1, dims = [0, 1] : (tensor<1x4xf32>) -> tensor<3x4xf32>\n    %4 = stablehlo.multiply %2, %3 : tensor<3x4xf32>\n    return %4 : tensor<3x4xf32>\n  }\n}\n",
    "metadata": {
      "category": "linalg",
      "operation": "outer",
      "description": "Linear algebra: outer"
    }
  },
  {
    "python_code": "lambda x, y: jnp.outer(x, y)",
    "input_info": [
      {
        "shape": [
          3
        ],
        "dtype": "float32"
      },
      {
        "shape": [
          4
        ],
        "dtype": "float32"
      }
    ],
    "jaxpr": "{ lambda ; a:f32[3] b:f32[4]. let\n    c:f32[3,1] = broadcast_in_dim[\n      broadcast_dimensions=(0,)\n      shape=(3, 1)\n      sharding=None\n    ] a\n    d:f32[1,4] = broadcast_in_dim[\n      broadcast_dimensions=(1,)\n      shape=(1, 4)\n      sharding=None\n    ] b\n    e:f32[3,4] = mul c d\n  in (e,) }",
    "stablehlo": "module @jit__lambda attributes {mhlo.num_partitions = 1 : i32, mhlo.num_replicas = 1 : i32} {\n  func.func public @main(%arg0: tensor<3xf32>, %arg1: tensor<4xf32>) -> (tensor<3x4xf32> {jax.result_info = \"result\"}) {\n    %0 = stablehlo.broadcast_in_dim %arg0, dims = [0] : (tensor<3xf32>) -> tensor<3x1xf32>\n    %1 = stablehlo.broadcast_in_dim %arg1, dims = [1] : (tensor<4xf32>) -> tensor<1x4xf32>\n    %2 = stablehlo.broadcast_in_dim %0, dims = [0, 1] : (tensor<3x1xf32>) -> tensor<3x4xf32>\n    %3 = stablehlo.broadcast_in_dim %1, dims = [0, 1] : (tensor<1x4xf32>) -> tensor<3x4xf32>\n    %4 = stablehlo.multiply %2, %3 : tensor<3x4xf32>\n    return %4 : tensor<3x4xf32>\n  }\n}\n",
    "metadata": {
      "category": "linalg",
      "operation": "outer",
      "description": "Linear algebra: outer"
    }
  },
  {
    "python_code": "lambda A, B: jnp.matmul(A, B)",
    "input_info": [
      {
        "shape": [
          3,
          4
        ],
        "dtype": "float32"
      },
      {
        "shape": [
          4,
          5
        ],
        "dtype": "float32"
      }
    ],
    "jaxpr": "{ lambda ; a:f32[3,4] b:f32[4,5]. let\n    c:f32[3,5] = dot_general[\n      dimension_numbers=(([1], [0]), ([], []))\n      preferred_element_type=float32\n    ] a b\n  in (c,) }",
    "stablehlo": "module @jit__lambda attributes {mhlo.num_partitions = 1 : i32, mhlo.num_replicas = 1 : i32} {\n  func.func public @main(%arg0: tensor<3x4xf32>, %arg1: tensor<4x5xf32>) -> (tensor<3x5xf32> {jax.result_info = \"result\"}) {\n    %0 = stablehlo.dot_general %arg0, %arg1, contracting_dims = [1] x [0], precision = [DEFAULT, DEFAULT] : (tensor<3x4xf32>, tensor<4x5xf32>) -> tensor<3x5xf32>\n    return %0 : tensor<3x5xf32>\n  }\n}\n",
    "metadata": {
      "category": "linalg",
      "operation": "matmul",
      "description": "Linear algebra: matmul"
    }
  },
  {
    "python_code": "lambda x, y: jnp.dot(x, y)",
    "input_info": [
      {
        "shape": [
          5
        ],
        "dtype": "float32"
      },
      {
        "shape": [
          5
        ],
        "dtype": "float32"
      }
    ],
    "jaxpr": "{ lambda ; a:f32[5] b:f32[5]. let\n    c:f32[] = dot_general[\n      dimension_numbers=(([0], [0]), ([], []))\n      preferred_element_type=float32\n    ] a b\n  in (c,) }",
    "stablehlo": "module @jit__lambda attributes {mhlo.num_partitions = 1 : i32, mhlo.num_replicas = 1 : i32} {\n  func.func public @main(%arg0: tensor<5xf32>, %arg1: tensor<5xf32>) -> (tensor<f32> {jax.result_info = \"result\"}) {\n    %0 = stablehlo.dot_general %arg0, %arg1, contracting_dims = [0] x [0], precision = [DEFAULT, DEFAULT] : (tensor<5xf32>, tensor<5xf32>) -> tensor<f32>\n    return %0 : tensor<f32>\n  }\n}\n",
    "metadata": {
      "category": "linalg",
      "operation": "dot",
      "description": "Linear algebra: dot"
    }
  },
  {
    "python_code": "lambda x, y: jnp.dot(x, y)",
    "input_info": [
      {
        "shape": [
          5
        ],
        "dtype": "float32"
      },
      {
        "shape": [
          5
        ],
        "dtype": "float32"
      }
    ],
    "jaxpr": "{ lambda ; a:f32[5] b:f32[5]. let\n    c:f32[] = dot_general[\n      dimension_numbers=(([0], [0]), ([], []))\n      preferred_element_type=float32\n    ] a b\n  in (c,) }",
    "stablehlo": "module @jit__lambda attributes {mhlo.num_partitions = 1 : i32, mhlo.num_replicas = 1 : i32} {\n  func.func public @main(%arg0: tensor<5xf32>, %arg1: tensor<5xf32>) -> (tensor<f32> {jax.result_info = \"result\"}) {\n    %0 = stablehlo.dot_general %arg0, %arg1, contracting_dims = [0] x [0], precision = [DEFAULT, DEFAULT] : (tensor<5xf32>, tensor<5xf32>) -> tensor<f32>\n    return %0 : tensor<f32>\n  }\n}\n",
    "metadata": {
      "category": "linalg",
      "operation": "dot",
      "description": "Linear algebra: dot"
    }
  },
  {
    "python_code": "lambda x, y: jnp.outer(x, y)",
    "input_info": [
      {
        "shape": [
          3
        ],
        "dtype": "float32"
      },
      {
        "shape": [
          4
        ],
        "dtype": "float32"
      }
    ],
    "jaxpr": "{ lambda ; a:f32[3] b:f32[4]. let\n    c:f32[3,1] = broadcast_in_dim[\n      broadcast_dimensions=(0,)\n      shape=(3, 1)\n      sharding=None\n    ] a\n    d:f32[1,4] = broadcast_in_dim[\n      broadcast_dimensions=(1,)\n      shape=(1, 4)\n      sharding=None\n    ] b\n    e:f32[3,4] = mul c d\n  in (e,) }",
    "stablehlo": "module @jit__lambda attributes {mhlo.num_partitions = 1 : i32, mhlo.num_replicas = 1 : i32} {\n  func.func public @main(%arg0: tensor<3xf32>, %arg1: tensor<4xf32>) -> (tensor<3x4xf32> {jax.result_info = \"result\"}) {\n    %0 = stablehlo.broadcast_in_dim %arg0, dims = [0] : (tensor<3xf32>) -> tensor<3x1xf32>\n    %1 = stablehlo.broadcast_in_dim %arg1, dims = [1] : (tensor<4xf32>) -> tensor<1x4xf32>\n    %2 = stablehlo.broadcast_in_dim %0, dims = [0, 1] : (tensor<3x1xf32>) -> tensor<3x4xf32>\n    %3 = stablehlo.broadcast_in_dim %1, dims = [0, 1] : (tensor<1x4xf32>) -> tensor<3x4xf32>\n    %4 = stablehlo.multiply %2, %3 : tensor<3x4xf32>\n    return %4 : tensor<3x4xf32>\n  }\n}\n",
    "metadata": {
      "category": "linalg",
      "operation": "outer",
      "description": "Linear algebra: outer"
    }
  },
  {
    "python_code": "lambda A, B: jnp.matmul(A, B)",
    "input_info": [
      {
        "shape": [
          3,
          4
        ],
        "dtype": "float32"
      },
      {
        "shape": [
          4,
          5
        ],
        "dtype": "float32"
      }
    ],
    "jaxpr": "{ lambda ; a:f32[3,4] b:f32[4,5]. let\n    c:f32[3,5] = dot_general[\n      dimension_numbers=(([1], [0]), ([], []))\n      preferred_element_type=float32\n    ] a b\n  in (c,) }",
    "stablehlo": "module @jit__lambda attributes {mhlo.num_partitions = 1 : i32, mhlo.num_replicas = 1 : i32} {\n  func.func public @main(%arg0: tensor<3x4xf32>, %arg1: tensor<4x5xf32>) -> (tensor<3x5xf32> {jax.result_info = \"result\"}) {\n    %0 = stablehlo.dot_general %arg0, %arg1, contracting_dims = [1] x [0], precision = [DEFAULT, DEFAULT] : (tensor<3x4xf32>, tensor<4x5xf32>) -> tensor<3x5xf32>\n    return %0 : tensor<3x5xf32>\n  }\n}\n",
    "metadata": {
      "category": "linalg",
      "operation": "matmul",
      "description": "Linear algebra: matmul"
    }
  },
  {
    "python_code": "lambda x, y: jnp.outer(x, y)",
    "input_info": [
      {
        "shape": [
          3
        ],
        "dtype": "float32"
      },
      {
        "shape": [
          4
        ],
        "dtype": "float32"
      }
    ],
    "jaxpr": "{ lambda ; a:f32[3] b:f32[4]. let\n    c:f32[3,1] = broadcast_in_dim[\n      broadcast_dimensions=(0,)\n      shape=(3, 1)\n      sharding=None\n    ] a\n    d:f32[1,4] = broadcast_in_dim[\n      broadcast_dimensions=(1,)\n      shape=(1, 4)\n      sharding=None\n    ] b\n    e:f32[3,4] = mul c d\n  in (e,) }",
    "stablehlo": "module @jit__lambda attributes {mhlo.num_partitions = 1 : i32, mhlo.num_replicas = 1 : i32} {\n  func.func public @main(%arg0: tensor<3xf32>, %arg1: tensor<4xf32>) -> (tensor<3x4xf32> {jax.result_info = \"result\"}) {\n    %0 = stablehlo.broadcast_in_dim %arg0, dims = [0] : (tensor<3xf32>) -> tensor<3x1xf32>\n    %1 = stablehlo.broadcast_in_dim %arg1, dims = [1] : (tensor<4xf32>) -> tensor<1x4xf32>\n    %2 = stablehlo.broadcast_in_dim %0, dims = [0, 1] : (tensor<3x1xf32>) -> tensor<3x4xf32>\n    %3 = stablehlo.broadcast_in_dim %1, dims = [0, 1] : (tensor<1x4xf32>) -> tensor<3x4xf32>\n    %4 = stablehlo.multiply %2, %3 : tensor<3x4xf32>\n    return %4 : tensor<3x4xf32>\n  }\n}\n",
    "metadata": {
      "category": "linalg",
      "operation": "outer",
      "description": "Linear algebra: outer"
    }
  },
  {
    "python_code": "lambda A, B: jnp.matmul(A, B)",
    "input_info": [
      {
        "shape": [
          3,
          4
        ],
        "dtype": "float32"
      },
      {
        "shape": [
          4,
          5
        ],
        "dtype": "float32"
      }
    ],
    "jaxpr": "{ lambda ; a:f32[3,4] b:f32[4,5]. let\n    c:f32[3,5] = dot_general[\n      dimension_numbers=(([1], [0]), ([], []))\n      preferred_element_type=float32\n    ] a b\n  in (c,) }",
    "stablehlo": "module @jit__lambda attributes {mhlo.num_partitions = 1 : i32, mhlo.num_replicas = 1 : i32} {\n  func.func public @main(%arg0: tensor<3x4xf32>, %arg1: tensor<4x5xf32>) -> (tensor<3x5xf32> {jax.result_info = \"result\"}) {\n    %0 = stablehlo.dot_general %arg0, %arg1, contracting_dims = [1] x [0], precision = [DEFAULT, DEFAULT] : (tensor<3x4xf32>, tensor<4x5xf32>) -> tensor<3x5xf32>\n    return %0 : tensor<3x5xf32>\n  }\n}\n",
    "metadata": {
      "category": "linalg",
      "operation": "matmul",
      "description": "Linear algebra: matmul"
    }
  },
  {
    "python_code": "lambda A, B: jnp.matmul(A, B)",
    "input_info": [
      {
        "shape": [
          3,
          4
        ],
        "dtype": "float32"
      },
      {
        "shape": [
          4,
          5
        ],
        "dtype": "float32"
      }
    ],
    "jaxpr": "{ lambda ; a:f32[3,4] b:f32[4,5]. let\n    c:f32[3,5] = dot_general[\n      dimension_numbers=(([1], [0]), ([], []))\n      preferred_element_type=float32\n    ] a b\n  in (c,) }",
    "stablehlo": "module @jit__lambda attributes {mhlo.num_partitions = 1 : i32, mhlo.num_replicas = 1 : i32} {\n  func.func public @main(%arg0: tensor<3x4xf32>, %arg1: tensor<4x5xf32>) -> (tensor<3x5xf32> {jax.result_info = \"result\"}) {\n    %0 = stablehlo.dot_general %arg0, %arg1, contracting_dims = [1] x [0], precision = [DEFAULT, DEFAULT] : (tensor<3x4xf32>, tensor<4x5xf32>) -> tensor<3x5xf32>\n    return %0 : tensor<3x5xf32>\n  }\n}\n",
    "metadata": {
      "category": "linalg",
      "operation": "matmul",
      "description": "Linear algebra: matmul"
    }
  },
  {
    "python_code": "lambda A, B: jnp.matmul(A, B)",
    "input_info": [
      {
        "shape": [
          3,
          4
        ],
        "dtype": "float32"
      },
      {
        "shape": [
          4,
          5
        ],
        "dtype": "float32"
      }
    ],
    "jaxpr": "{ lambda ; a:f32[3,4] b:f32[4,5]. let\n    c:f32[3,5] = dot_general[\n      dimension_numbers=(([1], [0]), ([], []))\n      preferred_element_type=float32\n    ] a b\n  in (c,) }",
    "stablehlo": "module @jit__lambda attributes {mhlo.num_partitions = 1 : i32, mhlo.num_replicas = 1 : i32} {\n  func.func public @main(%arg0: tensor<3x4xf32>, %arg1: tensor<4x5xf32>) -> (tensor<3x5xf32> {jax.result_info = \"result\"}) {\n    %0 = stablehlo.dot_general %arg0, %arg1, contracting_dims = [1] x [0], precision = [DEFAULT, DEFAULT] : (tensor<3x4xf32>, tensor<4x5xf32>) -> tensor<3x5xf32>\n    return %0 : tensor<3x5xf32>\n  }\n}\n",
    "metadata": {
      "category": "linalg",
      "operation": "matmul",
      "description": "Linear algebra: matmul"
    }
  },
  {
    "python_code": "lambda x, y: jnp.outer(x, y)",
    "input_info": [
      {
        "shape": [
          3
        ],
        "dtype": "float32"
      },
      {
        "shape": [
          4
        ],
        "dtype": "float32"
      }
    ],
    "jaxpr": "{ lambda ; a:f32[3] b:f32[4]. let\n    c:f32[3,1] = broadcast_in_dim[\n      broadcast_dimensions=(0,)\n      shape=(3, 1)\n      sharding=None\n    ] a\n    d:f32[1,4] = broadcast_in_dim[\n      broadcast_dimensions=(1,)\n      shape=(1, 4)\n      sharding=None\n    ] b\n    e:f32[3,4] = mul c d\n  in (e,) }",
    "stablehlo": "module @jit__lambda attributes {mhlo.num_partitions = 1 : i32, mhlo.num_replicas = 1 : i32} {\n  func.func public @main(%arg0: tensor<3xf32>, %arg1: tensor<4xf32>) -> (tensor<3x4xf32> {jax.result_info = \"result\"}) {\n    %0 = stablehlo.broadcast_in_dim %arg0, dims = [0] : (tensor<3xf32>) -> tensor<3x1xf32>\n    %1 = stablehlo.broadcast_in_dim %arg1, dims = [1] : (tensor<4xf32>) -> tensor<1x4xf32>\n    %2 = stablehlo.broadcast_in_dim %0, dims = [0, 1] : (tensor<3x1xf32>) -> tensor<3x4xf32>\n    %3 = stablehlo.broadcast_in_dim %1, dims = [0, 1] : (tensor<1x4xf32>) -> tensor<3x4xf32>\n    %4 = stablehlo.multiply %2, %3 : tensor<3x4xf32>\n    return %4 : tensor<3x4xf32>\n  }\n}\n",
    "metadata": {
      "category": "linalg",
      "operation": "outer",
      "description": "Linear algebra: outer"
    }
  },
  {
    "python_code": "lambda x: jnp.linalg.norm(x)",
    "input_info": [
      {
        "shape": [
          5
        ],
        "dtype": "float32"
      }
    ],
    "jaxpr": "{ lambda ; a:f32[5]. let\n    b:f32[] = jit[\n      name=norm\n      jaxpr={ lambda ; a:f32[5]. let\n          c:f32[5] = mul a a\n          d:f32[] = reduce_sum[axes=(0,) out_sharding=None] c\n          b:f32[] = sqrt d\n        in (b,) }\n    ] a\n  in (b,) }",
    "stablehlo": "module @jit__lambda attributes {mhlo.num_partitions = 1 : i32, mhlo.num_replicas = 1 : i32} {\n  func.func public @main(%arg0: tensor<5xf32>) -> (tensor<f32> {jax.result_info = \"result\"}) {\n    %0 = call @norm(%arg0) : (tensor<5xf32>) -> tensor<f32>\n    return %0 : tensor<f32>\n  }\n  func.func private @norm(%arg0: tensor<5xf32>) -> tensor<f32> {\n    %0 = stablehlo.multiply %arg0, %arg0 : tensor<5xf32>\n    %cst = stablehlo.constant dense<0.000000e+00> : tensor<f32>\n    %1 = stablehlo.reduce(%0 init: %cst) applies stablehlo.add across dimensions = [0] : (tensor<5xf32>, tensor<f32>) -> tensor<f32>\n    %2 = stablehlo.sqrt %1 : tensor<f32>\n    return %2 : tensor<f32>\n  }\n}\n",
    "metadata": {
      "category": "linalg",
      "operation": "norm",
      "description": "Linear algebra: norm"
    }
  },
  {
    "python_code": "lambda x, y: jnp.outer(x, y)",
    "input_info": [
      {
        "shape": [
          3
        ],
        "dtype": "float32"
      },
      {
        "shape": [
          4
        ],
        "dtype": "float32"
      }
    ],
    "jaxpr": "{ lambda ; a:f32[3] b:f32[4]. let\n    c:f32[3,1] = broadcast_in_dim[\n      broadcast_dimensions=(0,)\n      shape=(3, 1)\n      sharding=None\n    ] a\n    d:f32[1,4] = broadcast_in_dim[\n      broadcast_dimensions=(1,)\n      shape=(1, 4)\n      sharding=None\n    ] b\n    e:f32[3,4] = mul c d\n  in (e,) }",
    "stablehlo": "module @jit__lambda attributes {mhlo.num_partitions = 1 : i32, mhlo.num_replicas = 1 : i32} {\n  func.func public @main(%arg0: tensor<3xf32>, %arg1: tensor<4xf32>) -> (tensor<3x4xf32> {jax.result_info = \"result\"}) {\n    %0 = stablehlo.broadcast_in_dim %arg0, dims = [0] : (tensor<3xf32>) -> tensor<3x1xf32>\n    %1 = stablehlo.broadcast_in_dim %arg1, dims = [1] : (tensor<4xf32>) -> tensor<1x4xf32>\n    %2 = stablehlo.broadcast_in_dim %0, dims = [0, 1] : (tensor<3x1xf32>) -> tensor<3x4xf32>\n    %3 = stablehlo.broadcast_in_dim %1, dims = [0, 1] : (tensor<1x4xf32>) -> tensor<3x4xf32>\n    %4 = stablehlo.multiply %2, %3 : tensor<3x4xf32>\n    return %4 : tensor<3x4xf32>\n  }\n}\n",
    "metadata": {
      "category": "linalg",
      "operation": "outer",
      "description": "Linear algebra: outer"
    }
  },
  {
    "python_code": "lambda x, y: jnp.outer(x, y)",
    "input_info": [
      {
        "shape": [
          3
        ],
        "dtype": "float32"
      },
      {
        "shape": [
          4
        ],
        "dtype": "float32"
      }
    ],
    "jaxpr": "{ lambda ; a:f32[3] b:f32[4]. let\n    c:f32[3,1] = broadcast_in_dim[\n      broadcast_dimensions=(0,)\n      shape=(3, 1)\n      sharding=None\n    ] a\n    d:f32[1,4] = broadcast_in_dim[\n      broadcast_dimensions=(1,)\n      shape=(1, 4)\n      sharding=None\n    ] b\n    e:f32[3,4] = mul c d\n  in (e,) }",
    "stablehlo": "module @jit__lambda attributes {mhlo.num_partitions = 1 : i32, mhlo.num_replicas = 1 : i32} {\n  func.func public @main(%arg0: tensor<3xf32>, %arg1: tensor<4xf32>) -> (tensor<3x4xf32> {jax.result_info = \"result\"}) {\n    %0 = stablehlo.broadcast_in_dim %arg0, dims = [0] : (tensor<3xf32>) -> tensor<3x1xf32>\n    %1 = stablehlo.broadcast_in_dim %arg1, dims = [1] : (tensor<4xf32>) -> tensor<1x4xf32>\n    %2 = stablehlo.broadcast_in_dim %0, dims = [0, 1] : (tensor<3x1xf32>) -> tensor<3x4xf32>\n    %3 = stablehlo.broadcast_in_dim %1, dims = [0, 1] : (tensor<1x4xf32>) -> tensor<3x4xf32>\n    %4 = stablehlo.multiply %2, %3 : tensor<3x4xf32>\n    return %4 : tensor<3x4xf32>\n  }\n}\n",
    "metadata": {
      "category": "linalg",
      "operation": "outer",
      "description": "Linear algebra: outer"
    }
  },
  {
    "python_code": "lambda x, y: jnp.outer(x, y)",
    "input_info": [
      {
        "shape": [
          3
        ],
        "dtype": "float32"
      },
      {
        "shape": [
          4
        ],
        "dtype": "float32"
      }
    ],
    "jaxpr": "{ lambda ; a:f32[3] b:f32[4]. let\n    c:f32[3,1] = broadcast_in_dim[\n      broadcast_dimensions=(0,)\n      shape=(3, 1)\n      sharding=None\n    ] a\n    d:f32[1,4] = broadcast_in_dim[\n      broadcast_dimensions=(1,)\n      shape=(1, 4)\n      sharding=None\n    ] b\n    e:f32[3,4] = mul c d\n  in (e,) }",
    "stablehlo": "module @jit__lambda attributes {mhlo.num_partitions = 1 : i32, mhlo.num_replicas = 1 : i32} {\n  func.func public @main(%arg0: tensor<3xf32>, %arg1: tensor<4xf32>) -> (tensor<3x4xf32> {jax.result_info = \"result\"}) {\n    %0 = stablehlo.broadcast_in_dim %arg0, dims = [0] : (tensor<3xf32>) -> tensor<3x1xf32>\n    %1 = stablehlo.broadcast_in_dim %arg1, dims = [1] : (tensor<4xf32>) -> tensor<1x4xf32>\n    %2 = stablehlo.broadcast_in_dim %0, dims = [0, 1] : (tensor<3x1xf32>) -> tensor<3x4xf32>\n    %3 = stablehlo.broadcast_in_dim %1, dims = [0, 1] : (tensor<1x4xf32>) -> tensor<3x4xf32>\n    %4 = stablehlo.multiply %2, %3 : tensor<3x4xf32>\n    return %4 : tensor<3x4xf32>\n  }\n}\n",
    "metadata": {
      "category": "linalg",
      "operation": "outer",
      "description": "Linear algebra: outer"
    }
  },
  {
    "python_code": "lambda A, B: jnp.matmul(A, B)",
    "input_info": [
      {
        "shape": [
          3,
          4
        ],
        "dtype": "float32"
      },
      {
        "shape": [
          4,
          5
        ],
        "dtype": "float32"
      }
    ],
    "jaxpr": "{ lambda ; a:f32[3,4] b:f32[4,5]. let\n    c:f32[3,5] = dot_general[\n      dimension_numbers=(([1], [0]), ([], []))\n      preferred_element_type=float32\n    ] a b\n  in (c,) }",
    "stablehlo": "module @jit__lambda attributes {mhlo.num_partitions = 1 : i32, mhlo.num_replicas = 1 : i32} {\n  func.func public @main(%arg0: tensor<3x4xf32>, %arg1: tensor<4x5xf32>) -> (tensor<3x5xf32> {jax.result_info = \"result\"}) {\n    %0 = stablehlo.dot_general %arg0, %arg1, contracting_dims = [1] x [0], precision = [DEFAULT, DEFAULT] : (tensor<3x4xf32>, tensor<4x5xf32>) -> tensor<3x5xf32>\n    return %0 : tensor<3x5xf32>\n  }\n}\n",
    "metadata": {
      "category": "linalg",
      "operation": "matmul",
      "description": "Linear algebra: matmul"
    }
  },
  {
    "python_code": "lambda x: jnp.linalg.norm(x)",
    "input_info": [
      {
        "shape": [
          5
        ],
        "dtype": "float32"
      }
    ],
    "jaxpr": "{ lambda ; a:f32[5]. let\n    b:f32[] = jit[\n      name=norm\n      jaxpr={ lambda ; a:f32[5]. let\n          c:f32[5] = mul a a\n          d:f32[] = reduce_sum[axes=(0,) out_sharding=None] c\n          b:f32[] = sqrt d\n        in (b,) }\n    ] a\n  in (b,) }",
    "stablehlo": "module @jit__lambda attributes {mhlo.num_partitions = 1 : i32, mhlo.num_replicas = 1 : i32} {\n  func.func public @main(%arg0: tensor<5xf32>) -> (tensor<f32> {jax.result_info = \"result\"}) {\n    %0 = call @norm(%arg0) : (tensor<5xf32>) -> tensor<f32>\n    return %0 : tensor<f32>\n  }\n  func.func private @norm(%arg0: tensor<5xf32>) -> tensor<f32> {\n    %0 = stablehlo.multiply %arg0, %arg0 : tensor<5xf32>\n    %cst = stablehlo.constant dense<0.000000e+00> : tensor<f32>\n    %1 = stablehlo.reduce(%0 init: %cst) applies stablehlo.add across dimensions = [0] : (tensor<5xf32>, tensor<f32>) -> tensor<f32>\n    %2 = stablehlo.sqrt %1 : tensor<f32>\n    return %2 : tensor<f32>\n  }\n}\n",
    "metadata": {
      "category": "linalg",
      "operation": "norm",
      "description": "Linear algebra: norm"
    }
  },
  {
    "python_code": "lambda x: jnp.linalg.norm(x)",
    "input_info": [
      {
        "shape": [
          5
        ],
        "dtype": "float32"
      }
    ],
    "jaxpr": "{ lambda ; a:f32[5]. let\n    b:f32[] = jit[\n      name=norm\n      jaxpr={ lambda ; a:f32[5]. let\n          c:f32[5] = mul a a\n          d:f32[] = reduce_sum[axes=(0,) out_sharding=None] c\n          b:f32[] = sqrt d\n        in (b,) }\n    ] a\n  in (b,) }",
    "stablehlo": "module @jit__lambda attributes {mhlo.num_partitions = 1 : i32, mhlo.num_replicas = 1 : i32} {\n  func.func public @main(%arg0: tensor<5xf32>) -> (tensor<f32> {jax.result_info = \"result\"}) {\n    %0 = call @norm(%arg0) : (tensor<5xf32>) -> tensor<f32>\n    return %0 : tensor<f32>\n  }\n  func.func private @norm(%arg0: tensor<5xf32>) -> tensor<f32> {\n    %0 = stablehlo.multiply %arg0, %arg0 : tensor<5xf32>\n    %cst = stablehlo.constant dense<0.000000e+00> : tensor<f32>\n    %1 = stablehlo.reduce(%0 init: %cst) applies stablehlo.add across dimensions = [0] : (tensor<5xf32>, tensor<f32>) -> tensor<f32>\n    %2 = stablehlo.sqrt %1 : tensor<f32>\n    return %2 : tensor<f32>\n  }\n}\n",
    "metadata": {
      "category": "linalg",
      "operation": "norm",
      "description": "Linear algebra: norm"
    }
  },
  {
    "python_code": "lambda A, B: jnp.matmul(A, B)",
    "input_info": [
      {
        "shape": [
          3,
          4
        ],
        "dtype": "float32"
      },
      {
        "shape": [
          4,
          5
        ],
        "dtype": "float32"
      }
    ],
    "jaxpr": "{ lambda ; a:f32[3,4] b:f32[4,5]. let\n    c:f32[3,5] = dot_general[\n      dimension_numbers=(([1], [0]), ([], []))\n      preferred_element_type=float32\n    ] a b\n  in (c,) }",
    "stablehlo": "module @jit__lambda attributes {mhlo.num_partitions = 1 : i32, mhlo.num_replicas = 1 : i32} {\n  func.func public @main(%arg0: tensor<3x4xf32>, %arg1: tensor<4x5xf32>) -> (tensor<3x5xf32> {jax.result_info = \"result\"}) {\n    %0 = stablehlo.dot_general %arg0, %arg1, contracting_dims = [1] x [0], precision = [DEFAULT, DEFAULT] : (tensor<3x4xf32>, tensor<4x5xf32>) -> tensor<3x5xf32>\n    return %0 : tensor<3x5xf32>\n  }\n}\n",
    "metadata": {
      "category": "linalg",
      "operation": "matmul",
      "description": "Linear algebra: matmul"
    }
  },
  {
    "python_code": "lambda A, B: jnp.matmul(A, B)",
    "input_info": [
      {
        "shape": [
          3,
          4
        ],
        "dtype": "float32"
      },
      {
        "shape": [
          4,
          5
        ],
        "dtype": "float32"
      }
    ],
    "jaxpr": "{ lambda ; a:f32[3,4] b:f32[4,5]. let\n    c:f32[3,5] = dot_general[\n      dimension_numbers=(([1], [0]), ([], []))\n      preferred_element_type=float32\n    ] a b\n  in (c,) }",
    "stablehlo": "module @jit__lambda attributes {mhlo.num_partitions = 1 : i32, mhlo.num_replicas = 1 : i32} {\n  func.func public @main(%arg0: tensor<3x4xf32>, %arg1: tensor<4x5xf32>) -> (tensor<3x5xf32> {jax.result_info = \"result\"}) {\n    %0 = stablehlo.dot_general %arg0, %arg1, contracting_dims = [1] x [0], precision = [DEFAULT, DEFAULT] : (tensor<3x4xf32>, tensor<4x5xf32>) -> tensor<3x5xf32>\n    return %0 : tensor<3x5xf32>\n  }\n}\n",
    "metadata": {
      "category": "linalg",
      "operation": "matmul",
      "description": "Linear algebra: matmul"
    }
  },
  {
    "python_code": "lambda x: jnp.linalg.norm(x)",
    "input_info": [
      {
        "shape": [
          5
        ],
        "dtype": "float32"
      }
    ],
    "jaxpr": "{ lambda ; a:f32[5]. let\n    b:f32[] = jit[\n      name=norm\n      jaxpr={ lambda ; a:f32[5]. let\n          c:f32[5] = mul a a\n          d:f32[] = reduce_sum[axes=(0,) out_sharding=None] c\n          b:f32[] = sqrt d\n        in (b,) }\n    ] a\n  in (b,) }",
    "stablehlo": "module @jit__lambda attributes {mhlo.num_partitions = 1 : i32, mhlo.num_replicas = 1 : i32} {\n  func.func public @main(%arg0: tensor<5xf32>) -> (tensor<f32> {jax.result_info = \"result\"}) {\n    %0 = call @norm(%arg0) : (tensor<5xf32>) -> tensor<f32>\n    return %0 : tensor<f32>\n  }\n  func.func private @norm(%arg0: tensor<5xf32>) -> tensor<f32> {\n    %0 = stablehlo.multiply %arg0, %arg0 : tensor<5xf32>\n    %cst = stablehlo.constant dense<0.000000e+00> : tensor<f32>\n    %1 = stablehlo.reduce(%0 init: %cst) applies stablehlo.add across dimensions = [0] : (tensor<5xf32>, tensor<f32>) -> tensor<f32>\n    %2 = stablehlo.sqrt %1 : tensor<f32>\n    return %2 : tensor<f32>\n  }\n}\n",
    "metadata": {
      "category": "linalg",
      "operation": "norm",
      "description": "Linear algebra: norm"
    }
  },
  {
    "python_code": "lambda x, y: jnp.dot(x, y)",
    "input_info": [
      {
        "shape": [
          5
        ],
        "dtype": "float32"
      },
      {
        "shape": [
          5
        ],
        "dtype": "float32"
      }
    ],
    "jaxpr": "{ lambda ; a:f32[5] b:f32[5]. let\n    c:f32[] = dot_general[\n      dimension_numbers=(([0], [0]), ([], []))\n      preferred_element_type=float32\n    ] a b\n  in (c,) }",
    "stablehlo": "module @jit__lambda attributes {mhlo.num_partitions = 1 : i32, mhlo.num_replicas = 1 : i32} {\n  func.func public @main(%arg0: tensor<5xf32>, %arg1: tensor<5xf32>) -> (tensor<f32> {jax.result_info = \"result\"}) {\n    %0 = stablehlo.dot_general %arg0, %arg1, contracting_dims = [0] x [0], precision = [DEFAULT, DEFAULT] : (tensor<5xf32>, tensor<5xf32>) -> tensor<f32>\n    return %0 : tensor<f32>\n  }\n}\n",
    "metadata": {
      "category": "linalg",
      "operation": "dot",
      "description": "Linear algebra: dot"
    }
  },
  {
    "python_code": "lambda x, y: jnp.dot(x, y)",
    "input_info": [
      {
        "shape": [
          5
        ],
        "dtype": "float32"
      },
      {
        "shape": [
          5
        ],
        "dtype": "float32"
      }
    ],
    "jaxpr": "{ lambda ; a:f32[5] b:f32[5]. let\n    c:f32[] = dot_general[\n      dimension_numbers=(([0], [0]), ([], []))\n      preferred_element_type=float32\n    ] a b\n  in (c,) }",
    "stablehlo": "module @jit__lambda attributes {mhlo.num_partitions = 1 : i32, mhlo.num_replicas = 1 : i32} {\n  func.func public @main(%arg0: tensor<5xf32>, %arg1: tensor<5xf32>) -> (tensor<f32> {jax.result_info = \"result\"}) {\n    %0 = stablehlo.dot_general %arg0, %arg1, contracting_dims = [0] x [0], precision = [DEFAULT, DEFAULT] : (tensor<5xf32>, tensor<5xf32>) -> tensor<f32>\n    return %0 : tensor<f32>\n  }\n}\n",
    "metadata": {
      "category": "linalg",
      "operation": "dot",
      "description": "Linear algebra: dot"
    }
  },
  {
    "python_code": "lambda x, y: jnp.dot(x, y)",
    "input_info": [
      {
        "shape": [
          5
        ],
        "dtype": "float32"
      },
      {
        "shape": [
          5
        ],
        "dtype": "float32"
      }
    ],
    "jaxpr": "{ lambda ; a:f32[5] b:f32[5]. let\n    c:f32[] = dot_general[\n      dimension_numbers=(([0], [0]), ([], []))\n      preferred_element_type=float32\n    ] a b\n  in (c,) }",
    "stablehlo": "module @jit__lambda attributes {mhlo.num_partitions = 1 : i32, mhlo.num_replicas = 1 : i32} {\n  func.func public @main(%arg0: tensor<5xf32>, %arg1: tensor<5xf32>) -> (tensor<f32> {jax.result_info = \"result\"}) {\n    %0 = stablehlo.dot_general %arg0, %arg1, contracting_dims = [0] x [0], precision = [DEFAULT, DEFAULT] : (tensor<5xf32>, tensor<5xf32>) -> tensor<f32>\n    return %0 : tensor<f32>\n  }\n}\n",
    "metadata": {
      "category": "linalg",
      "operation": "dot",
      "description": "Linear algebra: dot"
    }
  },
  {
    "python_code": "lambda x: jnp.linalg.norm(x)",
    "input_info": [
      {
        "shape": [
          5
        ],
        "dtype": "float32"
      }
    ],
    "jaxpr": "{ lambda ; a:f32[5]. let\n    b:f32[] = jit[\n      name=norm\n      jaxpr={ lambda ; a:f32[5]. let\n          c:f32[5] = mul a a\n          d:f32[] = reduce_sum[axes=(0,) out_sharding=None] c\n          b:f32[] = sqrt d\n        in (b,) }\n    ] a\n  in (b,) }",
    "stablehlo": "module @jit__lambda attributes {mhlo.num_partitions = 1 : i32, mhlo.num_replicas = 1 : i32} {\n  func.func public @main(%arg0: tensor<5xf32>) -> (tensor<f32> {jax.result_info = \"result\"}) {\n    %0 = call @norm(%arg0) : (tensor<5xf32>) -> tensor<f32>\n    return %0 : tensor<f32>\n  }\n  func.func private @norm(%arg0: tensor<5xf32>) -> tensor<f32> {\n    %0 = stablehlo.multiply %arg0, %arg0 : tensor<5xf32>\n    %cst = stablehlo.constant dense<0.000000e+00> : tensor<f32>\n    %1 = stablehlo.reduce(%0 init: %cst) applies stablehlo.add across dimensions = [0] : (tensor<5xf32>, tensor<f32>) -> tensor<f32>\n    %2 = stablehlo.sqrt %1 : tensor<f32>\n    return %2 : tensor<f32>\n  }\n}\n",
    "metadata": {
      "category": "linalg",
      "operation": "norm",
      "description": "Linear algebra: norm"
    }
  },
  {
    "python_code": "lambda A, B: jnp.matmul(A, B)",
    "input_info": [
      {
        "shape": [
          3,
          4
        ],
        "dtype": "float32"
      },
      {
        "shape": [
          4,
          5
        ],
        "dtype": "float32"
      }
    ],
    "jaxpr": "{ lambda ; a:f32[3,4] b:f32[4,5]. let\n    c:f32[3,5] = dot_general[\n      dimension_numbers=(([1], [0]), ([], []))\n      preferred_element_type=float32\n    ] a b\n  in (c,) }",
    "stablehlo": "module @jit__lambda attributes {mhlo.num_partitions = 1 : i32, mhlo.num_replicas = 1 : i32} {\n  func.func public @main(%arg0: tensor<3x4xf32>, %arg1: tensor<4x5xf32>) -> (tensor<3x5xf32> {jax.result_info = \"result\"}) {\n    %0 = stablehlo.dot_general %arg0, %arg1, contracting_dims = [1] x [0], precision = [DEFAULT, DEFAULT] : (tensor<3x4xf32>, tensor<4x5xf32>) -> tensor<3x5xf32>\n    return %0 : tensor<3x5xf32>\n  }\n}\n",
    "metadata": {
      "category": "linalg",
      "operation": "matmul",
      "description": "Linear algebra: matmul"
    }
  },
  {
    "python_code": "lambda x, y: jnp.outer(x, y)",
    "input_info": [
      {
        "shape": [
          3
        ],
        "dtype": "float32"
      },
      {
        "shape": [
          4
        ],
        "dtype": "float32"
      }
    ],
    "jaxpr": "{ lambda ; a:f32[3] b:f32[4]. let\n    c:f32[3,1] = broadcast_in_dim[\n      broadcast_dimensions=(0,)\n      shape=(3, 1)\n      sharding=None\n    ] a\n    d:f32[1,4] = broadcast_in_dim[\n      broadcast_dimensions=(1,)\n      shape=(1, 4)\n      sharding=None\n    ] b\n    e:f32[3,4] = mul c d\n  in (e,) }",
    "stablehlo": "module @jit__lambda attributes {mhlo.num_partitions = 1 : i32, mhlo.num_replicas = 1 : i32} {\n  func.func public @main(%arg0: tensor<3xf32>, %arg1: tensor<4xf32>) -> (tensor<3x4xf32> {jax.result_info = \"result\"}) {\n    %0 = stablehlo.broadcast_in_dim %arg0, dims = [0] : (tensor<3xf32>) -> tensor<3x1xf32>\n    %1 = stablehlo.broadcast_in_dim %arg1, dims = [1] : (tensor<4xf32>) -> tensor<1x4xf32>\n    %2 = stablehlo.broadcast_in_dim %0, dims = [0, 1] : (tensor<3x1xf32>) -> tensor<3x4xf32>\n    %3 = stablehlo.broadcast_in_dim %1, dims = [0, 1] : (tensor<1x4xf32>) -> tensor<3x4xf32>\n    %4 = stablehlo.multiply %2, %3 : tensor<3x4xf32>\n    return %4 : tensor<3x4xf32>\n  }\n}\n",
    "metadata": {
      "category": "linalg",
      "operation": "outer",
      "description": "Linear algebra: outer"
    }
  },
  {
    "python_code": "lambda x, y: jnp.outer(x, y)",
    "input_info": [
      {
        "shape": [
          3
        ],
        "dtype": "float32"
      },
      {
        "shape": [
          4
        ],
        "dtype": "float32"
      }
    ],
    "jaxpr": "{ lambda ; a:f32[3] b:f32[4]. let\n    c:f32[3,1] = broadcast_in_dim[\n      broadcast_dimensions=(0,)\n      shape=(3, 1)\n      sharding=None\n    ] a\n    d:f32[1,4] = broadcast_in_dim[\n      broadcast_dimensions=(1,)\n      shape=(1, 4)\n      sharding=None\n    ] b\n    e:f32[3,4] = mul c d\n  in (e,) }",
    "stablehlo": "module @jit__lambda attributes {mhlo.num_partitions = 1 : i32, mhlo.num_replicas = 1 : i32} {\n  func.func public @main(%arg0: tensor<3xf32>, %arg1: tensor<4xf32>) -> (tensor<3x4xf32> {jax.result_info = \"result\"}) {\n    %0 = stablehlo.broadcast_in_dim %arg0, dims = [0] : (tensor<3xf32>) -> tensor<3x1xf32>\n    %1 = stablehlo.broadcast_in_dim %arg1, dims = [1] : (tensor<4xf32>) -> tensor<1x4xf32>\n    %2 = stablehlo.broadcast_in_dim %0, dims = [0, 1] : (tensor<3x1xf32>) -> tensor<3x4xf32>\n    %3 = stablehlo.broadcast_in_dim %1, dims = [0, 1] : (tensor<1x4xf32>) -> tensor<3x4xf32>\n    %4 = stablehlo.multiply %2, %3 : tensor<3x4xf32>\n    return %4 : tensor<3x4xf32>\n  }\n}\n",
    "metadata": {
      "category": "linalg",
      "operation": "outer",
      "description": "Linear algebra: outer"
    }
  },
  {
    "python_code": "lambda x, y: jnp.outer(x, y)",
    "input_info": [
      {
        "shape": [
          3
        ],
        "dtype": "float32"
      },
      {
        "shape": [
          4
        ],
        "dtype": "float32"
      }
    ],
    "jaxpr": "{ lambda ; a:f32[3] b:f32[4]. let\n    c:f32[3,1] = broadcast_in_dim[\n      broadcast_dimensions=(0,)\n      shape=(3, 1)\n      sharding=None\n    ] a\n    d:f32[1,4] = broadcast_in_dim[\n      broadcast_dimensions=(1,)\n      shape=(1, 4)\n      sharding=None\n    ] b\n    e:f32[3,4] = mul c d\n  in (e,) }",
    "stablehlo": "module @jit__lambda attributes {mhlo.num_partitions = 1 : i32, mhlo.num_replicas = 1 : i32} {\n  func.func public @main(%arg0: tensor<3xf32>, %arg1: tensor<4xf32>) -> (tensor<3x4xf32> {jax.result_info = \"result\"}) {\n    %0 = stablehlo.broadcast_in_dim %arg0, dims = [0] : (tensor<3xf32>) -> tensor<3x1xf32>\n    %1 = stablehlo.broadcast_in_dim %arg1, dims = [1] : (tensor<4xf32>) -> tensor<1x4xf32>\n    %2 = stablehlo.broadcast_in_dim %0, dims = [0, 1] : (tensor<3x1xf32>) -> tensor<3x4xf32>\n    %3 = stablehlo.broadcast_in_dim %1, dims = [0, 1] : (tensor<1x4xf32>) -> tensor<3x4xf32>\n    %4 = stablehlo.multiply %2, %3 : tensor<3x4xf32>\n    return %4 : tensor<3x4xf32>\n  }\n}\n",
    "metadata": {
      "category": "linalg",
      "operation": "outer",
      "description": "Linear algebra: outer"
    }
  },
  {
    "python_code": "lambda x, y: jnp.outer(x, y)",
    "input_info": [
      {
        "shape": [
          3
        ],
        "dtype": "float32"
      },
      {
        "shape": [
          4
        ],
        "dtype": "float32"
      }
    ],
    "jaxpr": "{ lambda ; a:f32[3] b:f32[4]. let\n    c:f32[3,1] = broadcast_in_dim[\n      broadcast_dimensions=(0,)\n      shape=(3, 1)\n      sharding=None\n    ] a\n    d:f32[1,4] = broadcast_in_dim[\n      broadcast_dimensions=(1,)\n      shape=(1, 4)\n      sharding=None\n    ] b\n    e:f32[3,4] = mul c d\n  in (e,) }",
    "stablehlo": "module @jit__lambda attributes {mhlo.num_partitions = 1 : i32, mhlo.num_replicas = 1 : i32} {\n  func.func public @main(%arg0: tensor<3xf32>, %arg1: tensor<4xf32>) -> (tensor<3x4xf32> {jax.result_info = \"result\"}) {\n    %0 = stablehlo.broadcast_in_dim %arg0, dims = [0] : (tensor<3xf32>) -> tensor<3x1xf32>\n    %1 = stablehlo.broadcast_in_dim %arg1, dims = [1] : (tensor<4xf32>) -> tensor<1x4xf32>\n    %2 = stablehlo.broadcast_in_dim %0, dims = [0, 1] : (tensor<3x1xf32>) -> tensor<3x4xf32>\n    %3 = stablehlo.broadcast_in_dim %1, dims = [0, 1] : (tensor<1x4xf32>) -> tensor<3x4xf32>\n    %4 = stablehlo.multiply %2, %3 : tensor<3x4xf32>\n    return %4 : tensor<3x4xf32>\n  }\n}\n",
    "metadata": {
      "category": "linalg",
      "operation": "outer",
      "description": "Linear algebra: outer"
    }
  },
  {
    "python_code": "lambda x, y: jnp.dot(x, y)",
    "input_info": [
      {
        "shape": [
          5
        ],
        "dtype": "float32"
      },
      {
        "shape": [
          5
        ],
        "dtype": "float32"
      }
    ],
    "jaxpr": "{ lambda ; a:f32[5] b:f32[5]. let\n    c:f32[] = dot_general[\n      dimension_numbers=(([0], [0]), ([], []))\n      preferred_element_type=float32\n    ] a b\n  in (c,) }",
    "stablehlo": "module @jit__lambda attributes {mhlo.num_partitions = 1 : i32, mhlo.num_replicas = 1 : i32} {\n  func.func public @main(%arg0: tensor<5xf32>, %arg1: tensor<5xf32>) -> (tensor<f32> {jax.result_info = \"result\"}) {\n    %0 = stablehlo.dot_general %arg0, %arg1, contracting_dims = [0] x [0], precision = [DEFAULT, DEFAULT] : (tensor<5xf32>, tensor<5xf32>) -> tensor<f32>\n    return %0 : tensor<f32>\n  }\n}\n",
    "metadata": {
      "category": "linalg",
      "operation": "dot",
      "description": "Linear algebra: dot"
    }
  },
  {
    "python_code": "lambda x, y: jnp.outer(x, y)",
    "input_info": [
      {
        "shape": [
          3
        ],
        "dtype": "float32"
      },
      {
        "shape": [
          4
        ],
        "dtype": "float32"
      }
    ],
    "jaxpr": "{ lambda ; a:f32[3] b:f32[4]. let\n    c:f32[3,1] = broadcast_in_dim[\n      broadcast_dimensions=(0,)\n      shape=(3, 1)\n      sharding=None\n    ] a\n    d:f32[1,4] = broadcast_in_dim[\n      broadcast_dimensions=(1,)\n      shape=(1, 4)\n      sharding=None\n    ] b\n    e:f32[3,4] = mul c d\n  in (e,) }",
    "stablehlo": "module @jit__lambda attributes {mhlo.num_partitions = 1 : i32, mhlo.num_replicas = 1 : i32} {\n  func.func public @main(%arg0: tensor<3xf32>, %arg1: tensor<4xf32>) -> (tensor<3x4xf32> {jax.result_info = \"result\"}) {\n    %0 = stablehlo.broadcast_in_dim %arg0, dims = [0] : (tensor<3xf32>) -> tensor<3x1xf32>\n    %1 = stablehlo.broadcast_in_dim %arg1, dims = [1] : (tensor<4xf32>) -> tensor<1x4xf32>\n    %2 = stablehlo.broadcast_in_dim %0, dims = [0, 1] : (tensor<3x1xf32>) -> tensor<3x4xf32>\n    %3 = stablehlo.broadcast_in_dim %1, dims = [0, 1] : (tensor<1x4xf32>) -> tensor<3x4xf32>\n    %4 = stablehlo.multiply %2, %3 : tensor<3x4xf32>\n    return %4 : tensor<3x4xf32>\n  }\n}\n",
    "metadata": {
      "category": "linalg",
      "operation": "outer",
      "description": "Linear algebra: outer"
    }
  },
  {
    "python_code": "lambda A, B: jnp.matmul(A, B)",
    "input_info": [
      {
        "shape": [
          3,
          4
        ],
        "dtype": "float32"
      },
      {
        "shape": [
          4,
          5
        ],
        "dtype": "float32"
      }
    ],
    "jaxpr": "{ lambda ; a:f32[3,4] b:f32[4,5]. let\n    c:f32[3,5] = dot_general[\n      dimension_numbers=(([1], [0]), ([], []))\n      preferred_element_type=float32\n    ] a b\n  in (c,) }",
    "stablehlo": "module @jit__lambda attributes {mhlo.num_partitions = 1 : i32, mhlo.num_replicas = 1 : i32} {\n  func.func public @main(%arg0: tensor<3x4xf32>, %arg1: tensor<4x5xf32>) -> (tensor<3x5xf32> {jax.result_info = \"result\"}) {\n    %0 = stablehlo.dot_general %arg0, %arg1, contracting_dims = [1] x [0], precision = [DEFAULT, DEFAULT] : (tensor<3x4xf32>, tensor<4x5xf32>) -> tensor<3x5xf32>\n    return %0 : tensor<3x5xf32>\n  }\n}\n",
    "metadata": {
      "category": "linalg",
      "operation": "matmul",
      "description": "Linear algebra: matmul"
    }
  },
  {
    "python_code": "lambda A, B: jnp.matmul(A, B)",
    "input_info": [
      {
        "shape": [
          3,
          4
        ],
        "dtype": "float32"
      },
      {
        "shape": [
          4,
          5
        ],
        "dtype": "float32"
      }
    ],
    "jaxpr": "{ lambda ; a:f32[3,4] b:f32[4,5]. let\n    c:f32[3,5] = dot_general[\n      dimension_numbers=(([1], [0]), ([], []))\n      preferred_element_type=float32\n    ] a b\n  in (c,) }",
    "stablehlo": "module @jit__lambda attributes {mhlo.num_partitions = 1 : i32, mhlo.num_replicas = 1 : i32} {\n  func.func public @main(%arg0: tensor<3x4xf32>, %arg1: tensor<4x5xf32>) -> (tensor<3x5xf32> {jax.result_info = \"result\"}) {\n    %0 = stablehlo.dot_general %arg0, %arg1, contracting_dims = [1] x [0], precision = [DEFAULT, DEFAULT] : (tensor<3x4xf32>, tensor<4x5xf32>) -> tensor<3x5xf32>\n    return %0 : tensor<3x5xf32>\n  }\n}\n",
    "metadata": {
      "category": "linalg",
      "operation": "matmul",
      "description": "Linear algebra: matmul"
    }
  },
  {
    "python_code": "lambda A, B: jnp.matmul(A, B)",
    "input_info": [
      {
        "shape": [
          3,
          4
        ],
        "dtype": "float32"
      },
      {
        "shape": [
          4,
          5
        ],
        "dtype": "float32"
      }
    ],
    "jaxpr": "{ lambda ; a:f32[3,4] b:f32[4,5]. let\n    c:f32[3,5] = dot_general[\n      dimension_numbers=(([1], [0]), ([], []))\n      preferred_element_type=float32\n    ] a b\n  in (c,) }",
    "stablehlo": "module @jit__lambda attributes {mhlo.num_partitions = 1 : i32, mhlo.num_replicas = 1 : i32} {\n  func.func public @main(%arg0: tensor<3x4xf32>, %arg1: tensor<4x5xf32>) -> (tensor<3x5xf32> {jax.result_info = \"result\"}) {\n    %0 = stablehlo.dot_general %arg0, %arg1, contracting_dims = [1] x [0], precision = [DEFAULT, DEFAULT] : (tensor<3x4xf32>, tensor<4x5xf32>) -> tensor<3x5xf32>\n    return %0 : tensor<3x5xf32>\n  }\n}\n",
    "metadata": {
      "category": "linalg",
      "operation": "matmul",
      "description": "Linear algebra: matmul"
    }
  },
  {
    "python_code": "lambda A, B: jnp.matmul(A, B)",
    "input_info": [
      {
        "shape": [
          3,
          4
        ],
        "dtype": "float32"
      },
      {
        "shape": [
          4,
          5
        ],
        "dtype": "float32"
      }
    ],
    "jaxpr": "{ lambda ; a:f32[3,4] b:f32[4,5]. let\n    c:f32[3,5] = dot_general[\n      dimension_numbers=(([1], [0]), ([], []))\n      preferred_element_type=float32\n    ] a b\n  in (c,) }",
    "stablehlo": "module @jit__lambda attributes {mhlo.num_partitions = 1 : i32, mhlo.num_replicas = 1 : i32} {\n  func.func public @main(%arg0: tensor<3x4xf32>, %arg1: tensor<4x5xf32>) -> (tensor<3x5xf32> {jax.result_info = \"result\"}) {\n    %0 = stablehlo.dot_general %arg0, %arg1, contracting_dims = [1] x [0], precision = [DEFAULT, DEFAULT] : (tensor<3x4xf32>, tensor<4x5xf32>) -> tensor<3x5xf32>\n    return %0 : tensor<3x5xf32>\n  }\n}\n",
    "metadata": {
      "category": "linalg",
      "operation": "matmul",
      "description": "Linear algebra: matmul"
    }
  },
  {
    "python_code": "lambda x: jnp.linalg.norm(x)",
    "input_info": [
      {
        "shape": [
          5
        ],
        "dtype": "float32"
      }
    ],
    "jaxpr": "{ lambda ; a:f32[5]. let\n    b:f32[] = jit[\n      name=norm\n      jaxpr={ lambda ; a:f32[5]. let\n          c:f32[5] = mul a a\n          d:f32[] = reduce_sum[axes=(0,) out_sharding=None] c\n          b:f32[] = sqrt d\n        in (b,) }\n    ] a\n  in (b,) }",
    "stablehlo": "module @jit__lambda attributes {mhlo.num_partitions = 1 : i32, mhlo.num_replicas = 1 : i32} {\n  func.func public @main(%arg0: tensor<5xf32>) -> (tensor<f32> {jax.result_info = \"result\"}) {\n    %0 = call @norm(%arg0) : (tensor<5xf32>) -> tensor<f32>\n    return %0 : tensor<f32>\n  }\n  func.func private @norm(%arg0: tensor<5xf32>) -> tensor<f32> {\n    %0 = stablehlo.multiply %arg0, %arg0 : tensor<5xf32>\n    %cst = stablehlo.constant dense<0.000000e+00> : tensor<f32>\n    %1 = stablehlo.reduce(%0 init: %cst) applies stablehlo.add across dimensions = [0] : (tensor<5xf32>, tensor<f32>) -> tensor<f32>\n    %2 = stablehlo.sqrt %1 : tensor<f32>\n    return %2 : tensor<f32>\n  }\n}\n",
    "metadata": {
      "category": "linalg",
      "operation": "norm",
      "description": "Linear algebra: norm"
    }
  },
  {
    "python_code": "lambda x, y: jnp.outer(x, y)",
    "input_info": [
      {
        "shape": [
          3
        ],
        "dtype": "float32"
      },
      {
        "shape": [
          4
        ],
        "dtype": "float32"
      }
    ],
    "jaxpr": "{ lambda ; a:f32[3] b:f32[4]. let\n    c:f32[3,1] = broadcast_in_dim[\n      broadcast_dimensions=(0,)\n      shape=(3, 1)\n      sharding=None\n    ] a\n    d:f32[1,4] = broadcast_in_dim[\n      broadcast_dimensions=(1,)\n      shape=(1, 4)\n      sharding=None\n    ] b\n    e:f32[3,4] = mul c d\n  in (e,) }",
    "stablehlo": "module @jit__lambda attributes {mhlo.num_partitions = 1 : i32, mhlo.num_replicas = 1 : i32} {\n  func.func public @main(%arg0: tensor<3xf32>, %arg1: tensor<4xf32>) -> (tensor<3x4xf32> {jax.result_info = \"result\"}) {\n    %0 = stablehlo.broadcast_in_dim %arg0, dims = [0] : (tensor<3xf32>) -> tensor<3x1xf32>\n    %1 = stablehlo.broadcast_in_dim %arg1, dims = [1] : (tensor<4xf32>) -> tensor<1x4xf32>\n    %2 = stablehlo.broadcast_in_dim %0, dims = [0, 1] : (tensor<3x1xf32>) -> tensor<3x4xf32>\n    %3 = stablehlo.broadcast_in_dim %1, dims = [0, 1] : (tensor<1x4xf32>) -> tensor<3x4xf32>\n    %4 = stablehlo.multiply %2, %3 : tensor<3x4xf32>\n    return %4 : tensor<3x4xf32>\n  }\n}\n",
    "metadata": {
      "category": "linalg",
      "operation": "outer",
      "description": "Linear algebra: outer"
    }
  },
  {
    "python_code": "lambda x, y: jnp.dot(x, y)",
    "input_info": [
      {
        "shape": [
          5
        ],
        "dtype": "float32"
      },
      {
        "shape": [
          5
        ],
        "dtype": "float32"
      }
    ],
    "jaxpr": "{ lambda ; a:f32[5] b:f32[5]. let\n    c:f32[] = dot_general[\n      dimension_numbers=(([0], [0]), ([], []))\n      preferred_element_type=float32\n    ] a b\n  in (c,) }",
    "stablehlo": "module @jit__lambda attributes {mhlo.num_partitions = 1 : i32, mhlo.num_replicas = 1 : i32} {\n  func.func public @main(%arg0: tensor<5xf32>, %arg1: tensor<5xf32>) -> (tensor<f32> {jax.result_info = \"result\"}) {\n    %0 = stablehlo.dot_general %arg0, %arg1, contracting_dims = [0] x [0], precision = [DEFAULT, DEFAULT] : (tensor<5xf32>, tensor<5xf32>) -> tensor<f32>\n    return %0 : tensor<f32>\n  }\n}\n",
    "metadata": {
      "category": "linalg",
      "operation": "dot",
      "description": "Linear algebra: dot"
    }
  },
  {
    "python_code": "lambda x: jnp.linalg.norm(x)",
    "input_info": [
      {
        "shape": [
          5
        ],
        "dtype": "float32"
      }
    ],
    "jaxpr": "{ lambda ; a:f32[5]. let\n    b:f32[] = jit[\n      name=norm\n      jaxpr={ lambda ; a:f32[5]. let\n          c:f32[5] = mul a a\n          d:f32[] = reduce_sum[axes=(0,) out_sharding=None] c\n          b:f32[] = sqrt d\n        in (b,) }\n    ] a\n  in (b,) }",
    "stablehlo": "module @jit__lambda attributes {mhlo.num_partitions = 1 : i32, mhlo.num_replicas = 1 : i32} {\n  func.func public @main(%arg0: tensor<5xf32>) -> (tensor<f32> {jax.result_info = \"result\"}) {\n    %0 = call @norm(%arg0) : (tensor<5xf32>) -> tensor<f32>\n    return %0 : tensor<f32>\n  }\n  func.func private @norm(%arg0: tensor<5xf32>) -> tensor<f32> {\n    %0 = stablehlo.multiply %arg0, %arg0 : tensor<5xf32>\n    %cst = stablehlo.constant dense<0.000000e+00> : tensor<f32>\n    %1 = stablehlo.reduce(%0 init: %cst) applies stablehlo.add across dimensions = [0] : (tensor<5xf32>, tensor<f32>) -> tensor<f32>\n    %2 = stablehlo.sqrt %1 : tensor<f32>\n    return %2 : tensor<f32>\n  }\n}\n",
    "metadata": {
      "category": "linalg",
      "operation": "norm",
      "description": "Linear algebra: norm"
    }
  },
  {
    "python_code": "lambda A, B: jnp.matmul(A, B)",
    "input_info": [
      {
        "shape": [
          3,
          4
        ],
        "dtype": "float32"
      },
      {
        "shape": [
          4,
          5
        ],
        "dtype": "float32"
      }
    ],
    "jaxpr": "{ lambda ; a:f32[3,4] b:f32[4,5]. let\n    c:f32[3,5] = dot_general[\n      dimension_numbers=(([1], [0]), ([], []))\n      preferred_element_type=float32\n    ] a b\n  in (c,) }",
    "stablehlo": "module @jit__lambda attributes {mhlo.num_partitions = 1 : i32, mhlo.num_replicas = 1 : i32} {\n  func.func public @main(%arg0: tensor<3x4xf32>, %arg1: tensor<4x5xf32>) -> (tensor<3x5xf32> {jax.result_info = \"result\"}) {\n    %0 = stablehlo.dot_general %arg0, %arg1, contracting_dims = [1] x [0], precision = [DEFAULT, DEFAULT] : (tensor<3x4xf32>, tensor<4x5xf32>) -> tensor<3x5xf32>\n    return %0 : tensor<3x5xf32>\n  }\n}\n",
    "metadata": {
      "category": "linalg",
      "operation": "matmul",
      "description": "Linear algebra: matmul"
    }
  },
  {
    "python_code": "lambda x, y: jnp.dot(x, y)",
    "input_info": [
      {
        "shape": [
          5
        ],
        "dtype": "float32"
      },
      {
        "shape": [
          5
        ],
        "dtype": "float32"
      }
    ],
    "jaxpr": "{ lambda ; a:f32[5] b:f32[5]. let\n    c:f32[] = dot_general[\n      dimension_numbers=(([0], [0]), ([], []))\n      preferred_element_type=float32\n    ] a b\n  in (c,) }",
    "stablehlo": "module @jit__lambda attributes {mhlo.num_partitions = 1 : i32, mhlo.num_replicas = 1 : i32} {\n  func.func public @main(%arg0: tensor<5xf32>, %arg1: tensor<5xf32>) -> (tensor<f32> {jax.result_info = \"result\"}) {\n    %0 = stablehlo.dot_general %arg0, %arg1, contracting_dims = [0] x [0], precision = [DEFAULT, DEFAULT] : (tensor<5xf32>, tensor<5xf32>) -> tensor<f32>\n    return %0 : tensor<f32>\n  }\n}\n",
    "metadata": {
      "category": "linalg",
      "operation": "dot",
      "description": "Linear algebra: dot"
    }
  },
  {
    "python_code": "lambda x, y: jnp.dot(x, y)",
    "input_info": [
      {
        "shape": [
          5
        ],
        "dtype": "float32"
      },
      {
        "shape": [
          5
        ],
        "dtype": "float32"
      }
    ],
    "jaxpr": "{ lambda ; a:f32[5] b:f32[5]. let\n    c:f32[] = dot_general[\n      dimension_numbers=(([0], [0]), ([], []))\n      preferred_element_type=float32\n    ] a b\n  in (c,) }",
    "stablehlo": "module @jit__lambda attributes {mhlo.num_partitions = 1 : i32, mhlo.num_replicas = 1 : i32} {\n  func.func public @main(%arg0: tensor<5xf32>, %arg1: tensor<5xf32>) -> (tensor<f32> {jax.result_info = \"result\"}) {\n    %0 = stablehlo.dot_general %arg0, %arg1, contracting_dims = [0] x [0], precision = [DEFAULT, DEFAULT] : (tensor<5xf32>, tensor<5xf32>) -> tensor<f32>\n    return %0 : tensor<f32>\n  }\n}\n",
    "metadata": {
      "category": "linalg",
      "operation": "dot",
      "description": "Linear algebra: dot"
    }
  },
  {
    "python_code": "lambda x, y: jnp.outer(x, y)",
    "input_info": [
      {
        "shape": [
          3
        ],
        "dtype": "float32"
      },
      {
        "shape": [
          4
        ],
        "dtype": "float32"
      }
    ],
    "jaxpr": "{ lambda ; a:f32[3] b:f32[4]. let\n    c:f32[3,1] = broadcast_in_dim[\n      broadcast_dimensions=(0,)\n      shape=(3, 1)\n      sharding=None\n    ] a\n    d:f32[1,4] = broadcast_in_dim[\n      broadcast_dimensions=(1,)\n      shape=(1, 4)\n      sharding=None\n    ] b\n    e:f32[3,4] = mul c d\n  in (e,) }",
    "stablehlo": "module @jit__lambda attributes {mhlo.num_partitions = 1 : i32, mhlo.num_replicas = 1 : i32} {\n  func.func public @main(%arg0: tensor<3xf32>, %arg1: tensor<4xf32>) -> (tensor<3x4xf32> {jax.result_info = \"result\"}) {\n    %0 = stablehlo.broadcast_in_dim %arg0, dims = [0] : (tensor<3xf32>) -> tensor<3x1xf32>\n    %1 = stablehlo.broadcast_in_dim %arg1, dims = [1] : (tensor<4xf32>) -> tensor<1x4xf32>\n    %2 = stablehlo.broadcast_in_dim %0, dims = [0, 1] : (tensor<3x1xf32>) -> tensor<3x4xf32>\n    %3 = stablehlo.broadcast_in_dim %1, dims = [0, 1] : (tensor<1x4xf32>) -> tensor<3x4xf32>\n    %4 = stablehlo.multiply %2, %3 : tensor<3x4xf32>\n    return %4 : tensor<3x4xf32>\n  }\n}\n",
    "metadata": {
      "category": "linalg",
      "operation": "outer",
      "description": "Linear algebra: outer"
    }
  },
  {
    "python_code": "lambda A, B: jnp.matmul(A, B)",
    "input_info": [
      {
        "shape": [
          3,
          4
        ],
        "dtype": "float32"
      },
      {
        "shape": [
          4,
          5
        ],
        "dtype": "float32"
      }
    ],
    "jaxpr": "{ lambda ; a:f32[3,4] b:f32[4,5]. let\n    c:f32[3,5] = dot_general[\n      dimension_numbers=(([1], [0]), ([], []))\n      preferred_element_type=float32\n    ] a b\n  in (c,) }",
    "stablehlo": "module @jit__lambda attributes {mhlo.num_partitions = 1 : i32, mhlo.num_replicas = 1 : i32} {\n  func.func public @main(%arg0: tensor<3x4xf32>, %arg1: tensor<4x5xf32>) -> (tensor<3x5xf32> {jax.result_info = \"result\"}) {\n    %0 = stablehlo.dot_general %arg0, %arg1, contracting_dims = [1] x [0], precision = [DEFAULT, DEFAULT] : (tensor<3x4xf32>, tensor<4x5xf32>) -> tensor<3x5xf32>\n    return %0 : tensor<3x5xf32>\n  }\n}\n",
    "metadata": {
      "category": "linalg",
      "operation": "matmul",
      "description": "Linear algebra: matmul"
    }
  },
  {
    "python_code": "lambda A, B: jnp.matmul(A, B)",
    "input_info": [
      {
        "shape": [
          3,
          4
        ],
        "dtype": "float32"
      },
      {
        "shape": [
          4,
          5
        ],
        "dtype": "float32"
      }
    ],
    "jaxpr": "{ lambda ; a:f32[3,4] b:f32[4,5]. let\n    c:f32[3,5] = dot_general[\n      dimension_numbers=(([1], [0]), ([], []))\n      preferred_element_type=float32\n    ] a b\n  in (c,) }",
    "stablehlo": "module @jit__lambda attributes {mhlo.num_partitions = 1 : i32, mhlo.num_replicas = 1 : i32} {\n  func.func public @main(%arg0: tensor<3x4xf32>, %arg1: tensor<4x5xf32>) -> (tensor<3x5xf32> {jax.result_info = \"result\"}) {\n    %0 = stablehlo.dot_general %arg0, %arg1, contracting_dims = [1] x [0], precision = [DEFAULT, DEFAULT] : (tensor<3x4xf32>, tensor<4x5xf32>) -> tensor<3x5xf32>\n    return %0 : tensor<3x5xf32>\n  }\n}\n",
    "metadata": {
      "category": "linalg",
      "operation": "matmul",
      "description": "Linear algebra: matmul"
    }
  },
  {
    "python_code": "lambda x: jnp.linalg.norm(x)",
    "input_info": [
      {
        "shape": [
          5
        ],
        "dtype": "float32"
      }
    ],
    "jaxpr": "{ lambda ; a:f32[5]. let\n    b:f32[] = jit[\n      name=norm\n      jaxpr={ lambda ; a:f32[5]. let\n          c:f32[5] = mul a a\n          d:f32[] = reduce_sum[axes=(0,) out_sharding=None] c\n          b:f32[] = sqrt d\n        in (b,) }\n    ] a\n  in (b,) }",
    "stablehlo": "module @jit__lambda attributes {mhlo.num_partitions = 1 : i32, mhlo.num_replicas = 1 : i32} {\n  func.func public @main(%arg0: tensor<5xf32>) -> (tensor<f32> {jax.result_info = \"result\"}) {\n    %0 = call @norm(%arg0) : (tensor<5xf32>) -> tensor<f32>\n    return %0 : tensor<f32>\n  }\n  func.func private @norm(%arg0: tensor<5xf32>) -> tensor<f32> {\n    %0 = stablehlo.multiply %arg0, %arg0 : tensor<5xf32>\n    %cst = stablehlo.constant dense<0.000000e+00> : tensor<f32>\n    %1 = stablehlo.reduce(%0 init: %cst) applies stablehlo.add across dimensions = [0] : (tensor<5xf32>, tensor<f32>) -> tensor<f32>\n    %2 = stablehlo.sqrt %1 : tensor<f32>\n    return %2 : tensor<f32>\n  }\n}\n",
    "metadata": {
      "category": "linalg",
      "operation": "norm",
      "description": "Linear algebra: norm"
    }
  },
  {
    "python_code": "lambda x: jnp.linalg.norm(x)",
    "input_info": [
      {
        "shape": [
          5
        ],
        "dtype": "float32"
      }
    ],
    "jaxpr": "{ lambda ; a:f32[5]. let\n    b:f32[] = jit[\n      name=norm\n      jaxpr={ lambda ; a:f32[5]. let\n          c:f32[5] = mul a a\n          d:f32[] = reduce_sum[axes=(0,) out_sharding=None] c\n          b:f32[] = sqrt d\n        in (b,) }\n    ] a\n  in (b,) }",
    "stablehlo": "module @jit__lambda attributes {mhlo.num_partitions = 1 : i32, mhlo.num_replicas = 1 : i32} {\n  func.func public @main(%arg0: tensor<5xf32>) -> (tensor<f32> {jax.result_info = \"result\"}) {\n    %0 = call @norm(%arg0) : (tensor<5xf32>) -> tensor<f32>\n    return %0 : tensor<f32>\n  }\n  func.func private @norm(%arg0: tensor<5xf32>) -> tensor<f32> {\n    %0 = stablehlo.multiply %arg0, %arg0 : tensor<5xf32>\n    %cst = stablehlo.constant dense<0.000000e+00> : tensor<f32>\n    %1 = stablehlo.reduce(%0 init: %cst) applies stablehlo.add across dimensions = [0] : (tensor<5xf32>, tensor<f32>) -> tensor<f32>\n    %2 = stablehlo.sqrt %1 : tensor<f32>\n    return %2 : tensor<f32>\n  }\n}\n",
    "metadata": {
      "category": "linalg",
      "operation": "norm",
      "description": "Linear algebra: norm"
    }
  },
  {
    "python_code": "lambda x: jnp.linalg.norm(x)",
    "input_info": [
      {
        "shape": [
          5
        ],
        "dtype": "float32"
      }
    ],
    "jaxpr": "{ lambda ; a:f32[5]. let\n    b:f32[] = jit[\n      name=norm\n      jaxpr={ lambda ; a:f32[5]. let\n          c:f32[5] = mul a a\n          d:f32[] = reduce_sum[axes=(0,) out_sharding=None] c\n          b:f32[] = sqrt d\n        in (b,) }\n    ] a\n  in (b,) }",
    "stablehlo": "module @jit__lambda attributes {mhlo.num_partitions = 1 : i32, mhlo.num_replicas = 1 : i32} {\n  func.func public @main(%arg0: tensor<5xf32>) -> (tensor<f32> {jax.result_info = \"result\"}) {\n    %0 = call @norm(%arg0) : (tensor<5xf32>) -> tensor<f32>\n    return %0 : tensor<f32>\n  }\n  func.func private @norm(%arg0: tensor<5xf32>) -> tensor<f32> {\n    %0 = stablehlo.multiply %arg0, %arg0 : tensor<5xf32>\n    %cst = stablehlo.constant dense<0.000000e+00> : tensor<f32>\n    %1 = stablehlo.reduce(%0 init: %cst) applies stablehlo.add across dimensions = [0] : (tensor<5xf32>, tensor<f32>) -> tensor<f32>\n    %2 = stablehlo.sqrt %1 : tensor<f32>\n    return %2 : tensor<f32>\n  }\n}\n",
    "metadata": {
      "category": "linalg",
      "operation": "norm",
      "description": "Linear algebra: norm"
    }
  },
  {
    "python_code": "lambda A, B: jnp.matmul(A, B)",
    "input_info": [
      {
        "shape": [
          3,
          4
        ],
        "dtype": "float32"
      },
      {
        "shape": [
          4,
          5
        ],
        "dtype": "float32"
      }
    ],
    "jaxpr": "{ lambda ; a:f32[3,4] b:f32[4,5]. let\n    c:f32[3,5] = dot_general[\n      dimension_numbers=(([1], [0]), ([], []))\n      preferred_element_type=float32\n    ] a b\n  in (c,) }",
    "stablehlo": "module @jit__lambda attributes {mhlo.num_partitions = 1 : i32, mhlo.num_replicas = 1 : i32} {\n  func.func public @main(%arg0: tensor<3x4xf32>, %arg1: tensor<4x5xf32>) -> (tensor<3x5xf32> {jax.result_info = \"result\"}) {\n    %0 = stablehlo.dot_general %arg0, %arg1, contracting_dims = [1] x [0], precision = [DEFAULT, DEFAULT] : (tensor<3x4xf32>, tensor<4x5xf32>) -> tensor<3x5xf32>\n    return %0 : tensor<3x5xf32>\n  }\n}\n",
    "metadata": {
      "category": "linalg",
      "operation": "matmul",
      "description": "Linear algebra: matmul"
    }
  },
  {
    "python_code": "lambda x, y: jnp.outer(x, y)",
    "input_info": [
      {
        "shape": [
          3
        ],
        "dtype": "float32"
      },
      {
        "shape": [
          4
        ],
        "dtype": "float32"
      }
    ],
    "jaxpr": "{ lambda ; a:f32[3] b:f32[4]. let\n    c:f32[3,1] = broadcast_in_dim[\n      broadcast_dimensions=(0,)\n      shape=(3, 1)\n      sharding=None\n    ] a\n    d:f32[1,4] = broadcast_in_dim[\n      broadcast_dimensions=(1,)\n      shape=(1, 4)\n      sharding=None\n    ] b\n    e:f32[3,4] = mul c d\n  in (e,) }",
    "stablehlo": "module @jit__lambda attributes {mhlo.num_partitions = 1 : i32, mhlo.num_replicas = 1 : i32} {\n  func.func public @main(%arg0: tensor<3xf32>, %arg1: tensor<4xf32>) -> (tensor<3x4xf32> {jax.result_info = \"result\"}) {\n    %0 = stablehlo.broadcast_in_dim %arg0, dims = [0] : (tensor<3xf32>) -> tensor<3x1xf32>\n    %1 = stablehlo.broadcast_in_dim %arg1, dims = [1] : (tensor<4xf32>) -> tensor<1x4xf32>\n    %2 = stablehlo.broadcast_in_dim %0, dims = [0, 1] : (tensor<3x1xf32>) -> tensor<3x4xf32>\n    %3 = stablehlo.broadcast_in_dim %1, dims = [0, 1] : (tensor<1x4xf32>) -> tensor<3x4xf32>\n    %4 = stablehlo.multiply %2, %3 : tensor<3x4xf32>\n    return %4 : tensor<3x4xf32>\n  }\n}\n",
    "metadata": {
      "category": "linalg",
      "operation": "outer",
      "description": "Linear algebra: outer"
    }
  },
  {
    "python_code": "lambda x: jnp.linalg.norm(x)",
    "input_info": [
      {
        "shape": [
          5
        ],
        "dtype": "float32"
      }
    ],
    "jaxpr": "{ lambda ; a:f32[5]. let\n    b:f32[] = jit[\n      name=norm\n      jaxpr={ lambda ; a:f32[5]. let\n          c:f32[5] = mul a a\n          d:f32[] = reduce_sum[axes=(0,) out_sharding=None] c\n          b:f32[] = sqrt d\n        in (b,) }\n    ] a\n  in (b,) }",
    "stablehlo": "module @jit__lambda attributes {mhlo.num_partitions = 1 : i32, mhlo.num_replicas = 1 : i32} {\n  func.func public @main(%arg0: tensor<5xf32>) -> (tensor<f32> {jax.result_info = \"result\"}) {\n    %0 = call @norm(%arg0) : (tensor<5xf32>) -> tensor<f32>\n    return %0 : tensor<f32>\n  }\n  func.func private @norm(%arg0: tensor<5xf32>) -> tensor<f32> {\n    %0 = stablehlo.multiply %arg0, %arg0 : tensor<5xf32>\n    %cst = stablehlo.constant dense<0.000000e+00> : tensor<f32>\n    %1 = stablehlo.reduce(%0 init: %cst) applies stablehlo.add across dimensions = [0] : (tensor<5xf32>, tensor<f32>) -> tensor<f32>\n    %2 = stablehlo.sqrt %1 : tensor<f32>\n    return %2 : tensor<f32>\n  }\n}\n",
    "metadata": {
      "category": "linalg",
      "operation": "norm",
      "description": "Linear algebra: norm"
    }
  },
  {
    "python_code": "lambda x, y: jnp.outer(x, y)",
    "input_info": [
      {
        "shape": [
          3
        ],
        "dtype": "float32"
      },
      {
        "shape": [
          4
        ],
        "dtype": "float32"
      }
    ],
    "jaxpr": "{ lambda ; a:f32[3] b:f32[4]. let\n    c:f32[3,1] = broadcast_in_dim[\n      broadcast_dimensions=(0,)\n      shape=(3, 1)\n      sharding=None\n    ] a\n    d:f32[1,4] = broadcast_in_dim[\n      broadcast_dimensions=(1,)\n      shape=(1, 4)\n      sharding=None\n    ] b\n    e:f32[3,4] = mul c d\n  in (e,) }",
    "stablehlo": "module @jit__lambda attributes {mhlo.num_partitions = 1 : i32, mhlo.num_replicas = 1 : i32} {\n  func.func public @main(%arg0: tensor<3xf32>, %arg1: tensor<4xf32>) -> (tensor<3x4xf32> {jax.result_info = \"result\"}) {\n    %0 = stablehlo.broadcast_in_dim %arg0, dims = [0] : (tensor<3xf32>) -> tensor<3x1xf32>\n    %1 = stablehlo.broadcast_in_dim %arg1, dims = [1] : (tensor<4xf32>) -> tensor<1x4xf32>\n    %2 = stablehlo.broadcast_in_dim %0, dims = [0, 1] : (tensor<3x1xf32>) -> tensor<3x4xf32>\n    %3 = stablehlo.broadcast_in_dim %1, dims = [0, 1] : (tensor<1x4xf32>) -> tensor<3x4xf32>\n    %4 = stablehlo.multiply %2, %3 : tensor<3x4xf32>\n    return %4 : tensor<3x4xf32>\n  }\n}\n",
    "metadata": {
      "category": "linalg",
      "operation": "outer",
      "description": "Linear algebra: outer"
    }
  },
  {
    "python_code": "lambda x, y: jnp.outer(x, y)",
    "input_info": [
      {
        "shape": [
          3
        ],
        "dtype": "float32"
      },
      {
        "shape": [
          4
        ],
        "dtype": "float32"
      }
    ],
    "jaxpr": "{ lambda ; a:f32[3] b:f32[4]. let\n    c:f32[3,1] = broadcast_in_dim[\n      broadcast_dimensions=(0,)\n      shape=(3, 1)\n      sharding=None\n    ] a\n    d:f32[1,4] = broadcast_in_dim[\n      broadcast_dimensions=(1,)\n      shape=(1, 4)\n      sharding=None\n    ] b\n    e:f32[3,4] = mul c d\n  in (e,) }",
    "stablehlo": "module @jit__lambda attributes {mhlo.num_partitions = 1 : i32, mhlo.num_replicas = 1 : i32} {\n  func.func public @main(%arg0: tensor<3xf32>, %arg1: tensor<4xf32>) -> (tensor<3x4xf32> {jax.result_info = \"result\"}) {\n    %0 = stablehlo.broadcast_in_dim %arg0, dims = [0] : (tensor<3xf32>) -> tensor<3x1xf32>\n    %1 = stablehlo.broadcast_in_dim %arg1, dims = [1] : (tensor<4xf32>) -> tensor<1x4xf32>\n    %2 = stablehlo.broadcast_in_dim %0, dims = [0, 1] : (tensor<3x1xf32>) -> tensor<3x4xf32>\n    %3 = stablehlo.broadcast_in_dim %1, dims = [0, 1] : (tensor<1x4xf32>) -> tensor<3x4xf32>\n    %4 = stablehlo.multiply %2, %3 : tensor<3x4xf32>\n    return %4 : tensor<3x4xf32>\n  }\n}\n",
    "metadata": {
      "category": "linalg",
      "operation": "outer",
      "description": "Linear algebra: outer"
    }
  },
  {
    "python_code": "lambda x, y: jnp.dot(x, y)",
    "input_info": [
      {
        "shape": [
          5
        ],
        "dtype": "float32"
      },
      {
        "shape": [
          5
        ],
        "dtype": "float32"
      }
    ],
    "jaxpr": "{ lambda ; a:f32[5] b:f32[5]. let\n    c:f32[] = dot_general[\n      dimension_numbers=(([0], [0]), ([], []))\n      preferred_element_type=float32\n    ] a b\n  in (c,) }",
    "stablehlo": "module @jit__lambda attributes {mhlo.num_partitions = 1 : i32, mhlo.num_replicas = 1 : i32} {\n  func.func public @main(%arg0: tensor<5xf32>, %arg1: tensor<5xf32>) -> (tensor<f32> {jax.result_info = \"result\"}) {\n    %0 = stablehlo.dot_general %arg0, %arg1, contracting_dims = [0] x [0], precision = [DEFAULT, DEFAULT] : (tensor<5xf32>, tensor<5xf32>) -> tensor<f32>\n    return %0 : tensor<f32>\n  }\n}\n",
    "metadata": {
      "category": "linalg",
      "operation": "dot",
      "description": "Linear algebra: dot"
    }
  },
  {
    "python_code": "lambda A, B: jnp.matmul(A, B)",
    "input_info": [
      {
        "shape": [
          3,
          4
        ],
        "dtype": "float32"
      },
      {
        "shape": [
          4,
          5
        ],
        "dtype": "float32"
      }
    ],
    "jaxpr": "{ lambda ; a:f32[3,4] b:f32[4,5]. let\n    c:f32[3,5] = dot_general[\n      dimension_numbers=(([1], [0]), ([], []))\n      preferred_element_type=float32\n    ] a b\n  in (c,) }",
    "stablehlo": "module @jit__lambda attributes {mhlo.num_partitions = 1 : i32, mhlo.num_replicas = 1 : i32} {\n  func.func public @main(%arg0: tensor<3x4xf32>, %arg1: tensor<4x5xf32>) -> (tensor<3x5xf32> {jax.result_info = \"result\"}) {\n    %0 = stablehlo.dot_general %arg0, %arg1, contracting_dims = [1] x [0], precision = [DEFAULT, DEFAULT] : (tensor<3x4xf32>, tensor<4x5xf32>) -> tensor<3x5xf32>\n    return %0 : tensor<3x5xf32>\n  }\n}\n",
    "metadata": {
      "category": "linalg",
      "operation": "matmul",
      "description": "Linear algebra: matmul"
    }
  },
  {
    "python_code": "lambda x, y: jnp.dot(x, y)",
    "input_info": [
      {
        "shape": [
          5
        ],
        "dtype": "float32"
      },
      {
        "shape": [
          5
        ],
        "dtype": "float32"
      }
    ],
    "jaxpr": "{ lambda ; a:f32[5] b:f32[5]. let\n    c:f32[] = dot_general[\n      dimension_numbers=(([0], [0]), ([], []))\n      preferred_element_type=float32\n    ] a b\n  in (c,) }",
    "stablehlo": "module @jit__lambda attributes {mhlo.num_partitions = 1 : i32, mhlo.num_replicas = 1 : i32} {\n  func.func public @main(%arg0: tensor<5xf32>, %arg1: tensor<5xf32>) -> (tensor<f32> {jax.result_info = \"result\"}) {\n    %0 = stablehlo.dot_general %arg0, %arg1, contracting_dims = [0] x [0], precision = [DEFAULT, DEFAULT] : (tensor<5xf32>, tensor<5xf32>) -> tensor<f32>\n    return %0 : tensor<f32>\n  }\n}\n",
    "metadata": {
      "category": "linalg",
      "operation": "dot",
      "description": "Linear algebra: dot"
    }
  },
  {
    "python_code": "lambda A, B: jnp.matmul(A, B)",
    "input_info": [
      {
        "shape": [
          3,
          4
        ],
        "dtype": "float32"
      },
      {
        "shape": [
          4,
          5
        ],
        "dtype": "float32"
      }
    ],
    "jaxpr": "{ lambda ; a:f32[3,4] b:f32[4,5]. let\n    c:f32[3,5] = dot_general[\n      dimension_numbers=(([1], [0]), ([], []))\n      preferred_element_type=float32\n    ] a b\n  in (c,) }",
    "stablehlo": "module @jit__lambda attributes {mhlo.num_partitions = 1 : i32, mhlo.num_replicas = 1 : i32} {\n  func.func public @main(%arg0: tensor<3x4xf32>, %arg1: tensor<4x5xf32>) -> (tensor<3x5xf32> {jax.result_info = \"result\"}) {\n    %0 = stablehlo.dot_general %arg0, %arg1, contracting_dims = [1] x [0], precision = [DEFAULT, DEFAULT] : (tensor<3x4xf32>, tensor<4x5xf32>) -> tensor<3x5xf32>\n    return %0 : tensor<3x5xf32>\n  }\n}\n",
    "metadata": {
      "category": "linalg",
      "operation": "matmul",
      "description": "Linear algebra: matmul"
    }
  },
  {
    "python_code": "lambda A, B: jnp.matmul(A, B)",
    "input_info": [
      {
        "shape": [
          3,
          4
        ],
        "dtype": "float32"
      },
      {
        "shape": [
          4,
          5
        ],
        "dtype": "float32"
      }
    ],
    "jaxpr": "{ lambda ; a:f32[3,4] b:f32[4,5]. let\n    c:f32[3,5] = dot_general[\n      dimension_numbers=(([1], [0]), ([], []))\n      preferred_element_type=float32\n    ] a b\n  in (c,) }",
    "stablehlo": "module @jit__lambda attributes {mhlo.num_partitions = 1 : i32, mhlo.num_replicas = 1 : i32} {\n  func.func public @main(%arg0: tensor<3x4xf32>, %arg1: tensor<4x5xf32>) -> (tensor<3x5xf32> {jax.result_info = \"result\"}) {\n    %0 = stablehlo.dot_general %arg0, %arg1, contracting_dims = [1] x [0], precision = [DEFAULT, DEFAULT] : (tensor<3x4xf32>, tensor<4x5xf32>) -> tensor<3x5xf32>\n    return %0 : tensor<3x5xf32>\n  }\n}\n",
    "metadata": {
      "category": "linalg",
      "operation": "matmul",
      "description": "Linear algebra: matmul"
    }
  },
  {
    "python_code": "lambda x, y: jnp.outer(x, y)",
    "input_info": [
      {
        "shape": [
          3
        ],
        "dtype": "float32"
      },
      {
        "shape": [
          4
        ],
        "dtype": "float32"
      }
    ],
    "jaxpr": "{ lambda ; a:f32[3] b:f32[4]. let\n    c:f32[3,1] = broadcast_in_dim[\n      broadcast_dimensions=(0,)\n      shape=(3, 1)\n      sharding=None\n    ] a\n    d:f32[1,4] = broadcast_in_dim[\n      broadcast_dimensions=(1,)\n      shape=(1, 4)\n      sharding=None\n    ] b\n    e:f32[3,4] = mul c d\n  in (e,) }",
    "stablehlo": "module @jit__lambda attributes {mhlo.num_partitions = 1 : i32, mhlo.num_replicas = 1 : i32} {\n  func.func public @main(%arg0: tensor<3xf32>, %arg1: tensor<4xf32>) -> (tensor<3x4xf32> {jax.result_info = \"result\"}) {\n    %0 = stablehlo.broadcast_in_dim %arg0, dims = [0] : (tensor<3xf32>) -> tensor<3x1xf32>\n    %1 = stablehlo.broadcast_in_dim %arg1, dims = [1] : (tensor<4xf32>) -> tensor<1x4xf32>\n    %2 = stablehlo.broadcast_in_dim %0, dims = [0, 1] : (tensor<3x1xf32>) -> tensor<3x4xf32>\n    %3 = stablehlo.broadcast_in_dim %1, dims = [0, 1] : (tensor<1x4xf32>) -> tensor<3x4xf32>\n    %4 = stablehlo.multiply %2, %3 : tensor<3x4xf32>\n    return %4 : tensor<3x4xf32>\n  }\n}\n",
    "metadata": {
      "category": "linalg",
      "operation": "outer",
      "description": "Linear algebra: outer"
    }
  },
  {
    "python_code": "lambda A, B: jnp.matmul(A, B)",
    "input_info": [
      {
        "shape": [
          3,
          4
        ],
        "dtype": "float32"
      },
      {
        "shape": [
          4,
          5
        ],
        "dtype": "float32"
      }
    ],
    "jaxpr": "{ lambda ; a:f32[3,4] b:f32[4,5]. let\n    c:f32[3,5] = dot_general[\n      dimension_numbers=(([1], [0]), ([], []))\n      preferred_element_type=float32\n    ] a b\n  in (c,) }",
    "stablehlo": "module @jit__lambda attributes {mhlo.num_partitions = 1 : i32, mhlo.num_replicas = 1 : i32} {\n  func.func public @main(%arg0: tensor<3x4xf32>, %arg1: tensor<4x5xf32>) -> (tensor<3x5xf32> {jax.result_info = \"result\"}) {\n    %0 = stablehlo.dot_general %arg0, %arg1, contracting_dims = [1] x [0], precision = [DEFAULT, DEFAULT] : (tensor<3x4xf32>, tensor<4x5xf32>) -> tensor<3x5xf32>\n    return %0 : tensor<3x5xf32>\n  }\n}\n",
    "metadata": {
      "category": "linalg",
      "operation": "matmul",
      "description": "Linear algebra: matmul"
    }
  },
  {
    "python_code": "lambda x: jnp.linalg.norm(x)",
    "input_info": [
      {
        "shape": [
          5
        ],
        "dtype": "float32"
      }
    ],
    "jaxpr": "{ lambda ; a:f32[5]. let\n    b:f32[] = jit[\n      name=norm\n      jaxpr={ lambda ; a:f32[5]. let\n          c:f32[5] = mul a a\n          d:f32[] = reduce_sum[axes=(0,) out_sharding=None] c\n          b:f32[] = sqrt d\n        in (b,) }\n    ] a\n  in (b,) }",
    "stablehlo": "module @jit__lambda attributes {mhlo.num_partitions = 1 : i32, mhlo.num_replicas = 1 : i32} {\n  func.func public @main(%arg0: tensor<5xf32>) -> (tensor<f32> {jax.result_info = \"result\"}) {\n    %0 = call @norm(%arg0) : (tensor<5xf32>) -> tensor<f32>\n    return %0 : tensor<f32>\n  }\n  func.func private @norm(%arg0: tensor<5xf32>) -> tensor<f32> {\n    %0 = stablehlo.multiply %arg0, %arg0 : tensor<5xf32>\n    %cst = stablehlo.constant dense<0.000000e+00> : tensor<f32>\n    %1 = stablehlo.reduce(%0 init: %cst) applies stablehlo.add across dimensions = [0] : (tensor<5xf32>, tensor<f32>) -> tensor<f32>\n    %2 = stablehlo.sqrt %1 : tensor<f32>\n    return %2 : tensor<f32>\n  }\n}\n",
    "metadata": {
      "category": "linalg",
      "operation": "norm",
      "description": "Linear algebra: norm"
    }
  },
  {
    "python_code": "lambda A, B: jnp.matmul(A, B)",
    "input_info": [
      {
        "shape": [
          3,
          4
        ],
        "dtype": "float32"
      },
      {
        "shape": [
          4,
          5
        ],
        "dtype": "float32"
      }
    ],
    "jaxpr": "{ lambda ; a:f32[3,4] b:f32[4,5]. let\n    c:f32[3,5] = dot_general[\n      dimension_numbers=(([1], [0]), ([], []))\n      preferred_element_type=float32\n    ] a b\n  in (c,) }",
    "stablehlo": "module @jit__lambda attributes {mhlo.num_partitions = 1 : i32, mhlo.num_replicas = 1 : i32} {\n  func.func public @main(%arg0: tensor<3x4xf32>, %arg1: tensor<4x5xf32>) -> (tensor<3x5xf32> {jax.result_info = \"result\"}) {\n    %0 = stablehlo.dot_general %arg0, %arg1, contracting_dims = [1] x [0], precision = [DEFAULT, DEFAULT] : (tensor<3x4xf32>, tensor<4x5xf32>) -> tensor<3x5xf32>\n    return %0 : tensor<3x5xf32>\n  }\n}\n",
    "metadata": {
      "category": "linalg",
      "operation": "matmul",
      "description": "Linear algebra: matmul"
    }
  },
  {
    "python_code": "lambda A, B: jnp.matmul(A, B)",
    "input_info": [
      {
        "shape": [
          3,
          4
        ],
        "dtype": "float32"
      },
      {
        "shape": [
          4,
          5
        ],
        "dtype": "float32"
      }
    ],
    "jaxpr": "{ lambda ; a:f32[3,4] b:f32[4,5]. let\n    c:f32[3,5] = dot_general[\n      dimension_numbers=(([1], [0]), ([], []))\n      preferred_element_type=float32\n    ] a b\n  in (c,) }",
    "stablehlo": "module @jit__lambda attributes {mhlo.num_partitions = 1 : i32, mhlo.num_replicas = 1 : i32} {\n  func.func public @main(%arg0: tensor<3x4xf32>, %arg1: tensor<4x5xf32>) -> (tensor<3x5xf32> {jax.result_info = \"result\"}) {\n    %0 = stablehlo.dot_general %arg0, %arg1, contracting_dims = [1] x [0], precision = [DEFAULT, DEFAULT] : (tensor<3x4xf32>, tensor<4x5xf32>) -> tensor<3x5xf32>\n    return %0 : tensor<3x5xf32>\n  }\n}\n",
    "metadata": {
      "category": "linalg",
      "operation": "matmul",
      "description": "Linear algebra: matmul"
    }
  },
  {
    "python_code": "lambda x, y: jnp.outer(x, y)",
    "input_info": [
      {
        "shape": [
          3
        ],
        "dtype": "float32"
      },
      {
        "shape": [
          4
        ],
        "dtype": "float32"
      }
    ],
    "jaxpr": "{ lambda ; a:f32[3] b:f32[4]. let\n    c:f32[3,1] = broadcast_in_dim[\n      broadcast_dimensions=(0,)\n      shape=(3, 1)\n      sharding=None\n    ] a\n    d:f32[1,4] = broadcast_in_dim[\n      broadcast_dimensions=(1,)\n      shape=(1, 4)\n      sharding=None\n    ] b\n    e:f32[3,4] = mul c d\n  in (e,) }",
    "stablehlo": "module @jit__lambda attributes {mhlo.num_partitions = 1 : i32, mhlo.num_replicas = 1 : i32} {\n  func.func public @main(%arg0: tensor<3xf32>, %arg1: tensor<4xf32>) -> (tensor<3x4xf32> {jax.result_info = \"result\"}) {\n    %0 = stablehlo.broadcast_in_dim %arg0, dims = [0] : (tensor<3xf32>) -> tensor<3x1xf32>\n    %1 = stablehlo.broadcast_in_dim %arg1, dims = [1] : (tensor<4xf32>) -> tensor<1x4xf32>\n    %2 = stablehlo.broadcast_in_dim %0, dims = [0, 1] : (tensor<3x1xf32>) -> tensor<3x4xf32>\n    %3 = stablehlo.broadcast_in_dim %1, dims = [0, 1] : (tensor<1x4xf32>) -> tensor<3x4xf32>\n    %4 = stablehlo.multiply %2, %3 : tensor<3x4xf32>\n    return %4 : tensor<3x4xf32>\n  }\n}\n",
    "metadata": {
      "category": "linalg",
      "operation": "outer",
      "description": "Linear algebra: outer"
    }
  },
  {
    "python_code": "lambda x, y: jnp.dot(x, y)",
    "input_info": [
      {
        "shape": [
          5
        ],
        "dtype": "float32"
      },
      {
        "shape": [
          5
        ],
        "dtype": "float32"
      }
    ],
    "jaxpr": "{ lambda ; a:f32[5] b:f32[5]. let\n    c:f32[] = dot_general[\n      dimension_numbers=(([0], [0]), ([], []))\n      preferred_element_type=float32\n    ] a b\n  in (c,) }",
    "stablehlo": "module @jit__lambda attributes {mhlo.num_partitions = 1 : i32, mhlo.num_replicas = 1 : i32} {\n  func.func public @main(%arg0: tensor<5xf32>, %arg1: tensor<5xf32>) -> (tensor<f32> {jax.result_info = \"result\"}) {\n    %0 = stablehlo.dot_general %arg0, %arg1, contracting_dims = [0] x [0], precision = [DEFAULT, DEFAULT] : (tensor<5xf32>, tensor<5xf32>) -> tensor<f32>\n    return %0 : tensor<f32>\n  }\n}\n",
    "metadata": {
      "category": "linalg",
      "operation": "dot",
      "description": "Linear algebra: dot"
    }
  },
  {
    "python_code": "lambda A, B: jnp.matmul(A, B)",
    "input_info": [
      {
        "shape": [
          3,
          4
        ],
        "dtype": "float32"
      },
      {
        "shape": [
          4,
          5
        ],
        "dtype": "float32"
      }
    ],
    "jaxpr": "{ lambda ; a:f32[3,4] b:f32[4,5]. let\n    c:f32[3,5] = dot_general[\n      dimension_numbers=(([1], [0]), ([], []))\n      preferred_element_type=float32\n    ] a b\n  in (c,) }",
    "stablehlo": "module @jit__lambda attributes {mhlo.num_partitions = 1 : i32, mhlo.num_replicas = 1 : i32} {\n  func.func public @main(%arg0: tensor<3x4xf32>, %arg1: tensor<4x5xf32>) -> (tensor<3x5xf32> {jax.result_info = \"result\"}) {\n    %0 = stablehlo.dot_general %arg0, %arg1, contracting_dims = [1] x [0], precision = [DEFAULT, DEFAULT] : (tensor<3x4xf32>, tensor<4x5xf32>) -> tensor<3x5xf32>\n    return %0 : tensor<3x5xf32>\n  }\n}\n",
    "metadata": {
      "category": "linalg",
      "operation": "matmul",
      "description": "Linear algebra: matmul"
    }
  },
  {
    "python_code": "lambda A, B: jnp.matmul(A, B)",
    "input_info": [
      {
        "shape": [
          3,
          4
        ],
        "dtype": "float32"
      },
      {
        "shape": [
          4,
          5
        ],
        "dtype": "float32"
      }
    ],
    "jaxpr": "{ lambda ; a:f32[3,4] b:f32[4,5]. let\n    c:f32[3,5] = dot_general[\n      dimension_numbers=(([1], [0]), ([], []))\n      preferred_element_type=float32\n    ] a b\n  in (c,) }",
    "stablehlo": "module @jit__lambda attributes {mhlo.num_partitions = 1 : i32, mhlo.num_replicas = 1 : i32} {\n  func.func public @main(%arg0: tensor<3x4xf32>, %arg1: tensor<4x5xf32>) -> (tensor<3x5xf32> {jax.result_info = \"result\"}) {\n    %0 = stablehlo.dot_general %arg0, %arg1, contracting_dims = [1] x [0], precision = [DEFAULT, DEFAULT] : (tensor<3x4xf32>, tensor<4x5xf32>) -> tensor<3x5xf32>\n    return %0 : tensor<3x5xf32>\n  }\n}\n",
    "metadata": {
      "category": "linalg",
      "operation": "matmul",
      "description": "Linear algebra: matmul"
    }
  },
  {
    "python_code": "lambda A, B: jnp.matmul(A, B)",
    "input_info": [
      {
        "shape": [
          3,
          4
        ],
        "dtype": "float32"
      },
      {
        "shape": [
          4,
          5
        ],
        "dtype": "float32"
      }
    ],
    "jaxpr": "{ lambda ; a:f32[3,4] b:f32[4,5]. let\n    c:f32[3,5] = dot_general[\n      dimension_numbers=(([1], [0]), ([], []))\n      preferred_element_type=float32\n    ] a b\n  in (c,) }",
    "stablehlo": "module @jit__lambda attributes {mhlo.num_partitions = 1 : i32, mhlo.num_replicas = 1 : i32} {\n  func.func public @main(%arg0: tensor<3x4xf32>, %arg1: tensor<4x5xf32>) -> (tensor<3x5xf32> {jax.result_info = \"result\"}) {\n    %0 = stablehlo.dot_general %arg0, %arg1, contracting_dims = [1] x [0], precision = [DEFAULT, DEFAULT] : (tensor<3x4xf32>, tensor<4x5xf32>) -> tensor<3x5xf32>\n    return %0 : tensor<3x5xf32>\n  }\n}\n",
    "metadata": {
      "category": "linalg",
      "operation": "matmul",
      "description": "Linear algebra: matmul"
    }
  },
  {
    "python_code": "lambda x: jnp.linalg.norm(x)",
    "input_info": [
      {
        "shape": [
          5
        ],
        "dtype": "float32"
      }
    ],
    "jaxpr": "{ lambda ; a:f32[5]. let\n    b:f32[] = jit[\n      name=norm\n      jaxpr={ lambda ; a:f32[5]. let\n          c:f32[5] = mul a a\n          d:f32[] = reduce_sum[axes=(0,) out_sharding=None] c\n          b:f32[] = sqrt d\n        in (b,) }\n    ] a\n  in (b,) }",
    "stablehlo": "module @jit__lambda attributes {mhlo.num_partitions = 1 : i32, mhlo.num_replicas = 1 : i32} {\n  func.func public @main(%arg0: tensor<5xf32>) -> (tensor<f32> {jax.result_info = \"result\"}) {\n    %0 = call @norm(%arg0) : (tensor<5xf32>) -> tensor<f32>\n    return %0 : tensor<f32>\n  }\n  func.func private @norm(%arg0: tensor<5xf32>) -> tensor<f32> {\n    %0 = stablehlo.multiply %arg0, %arg0 : tensor<5xf32>\n    %cst = stablehlo.constant dense<0.000000e+00> : tensor<f32>\n    %1 = stablehlo.reduce(%0 init: %cst) applies stablehlo.add across dimensions = [0] : (tensor<5xf32>, tensor<f32>) -> tensor<f32>\n    %2 = stablehlo.sqrt %1 : tensor<f32>\n    return %2 : tensor<f32>\n  }\n}\n",
    "metadata": {
      "category": "linalg",
      "operation": "norm",
      "description": "Linear algebra: norm"
    }
  },
  {
    "python_code": "lambda A, B: jnp.matmul(A, B)",
    "input_info": [
      {
        "shape": [
          3,
          4
        ],
        "dtype": "float32"
      },
      {
        "shape": [
          4,
          5
        ],
        "dtype": "float32"
      }
    ],
    "jaxpr": "{ lambda ; a:f32[3,4] b:f32[4,5]. let\n    c:f32[3,5] = dot_general[\n      dimension_numbers=(([1], [0]), ([], []))\n      preferred_element_type=float32\n    ] a b\n  in (c,) }",
    "stablehlo": "module @jit__lambda attributes {mhlo.num_partitions = 1 : i32, mhlo.num_replicas = 1 : i32} {\n  func.func public @main(%arg0: tensor<3x4xf32>, %arg1: tensor<4x5xf32>) -> (tensor<3x5xf32> {jax.result_info = \"result\"}) {\n    %0 = stablehlo.dot_general %arg0, %arg1, contracting_dims = [1] x [0], precision = [DEFAULT, DEFAULT] : (tensor<3x4xf32>, tensor<4x5xf32>) -> tensor<3x5xf32>\n    return %0 : tensor<3x5xf32>\n  }\n}\n",
    "metadata": {
      "category": "linalg",
      "operation": "matmul",
      "description": "Linear algebra: matmul"
    }
  },
  {
    "python_code": "lambda x, y: jnp.dot(x, y)",
    "input_info": [
      {
        "shape": [
          5
        ],
        "dtype": "float32"
      },
      {
        "shape": [
          5
        ],
        "dtype": "float32"
      }
    ],
    "jaxpr": "{ lambda ; a:f32[5] b:f32[5]. let\n    c:f32[] = dot_general[\n      dimension_numbers=(([0], [0]), ([], []))\n      preferred_element_type=float32\n    ] a b\n  in (c,) }",
    "stablehlo": "module @jit__lambda attributes {mhlo.num_partitions = 1 : i32, mhlo.num_replicas = 1 : i32} {\n  func.func public @main(%arg0: tensor<5xf32>, %arg1: tensor<5xf32>) -> (tensor<f32> {jax.result_info = \"result\"}) {\n    %0 = stablehlo.dot_general %arg0, %arg1, contracting_dims = [0] x [0], precision = [DEFAULT, DEFAULT] : (tensor<5xf32>, tensor<5xf32>) -> tensor<f32>\n    return %0 : tensor<f32>\n  }\n}\n",
    "metadata": {
      "category": "linalg",
      "operation": "dot",
      "description": "Linear algebra: dot"
    }
  },
  {
    "python_code": "lambda x, y: jnp.outer(x, y)",
    "input_info": [
      {
        "shape": [
          3
        ],
        "dtype": "float32"
      },
      {
        "shape": [
          4
        ],
        "dtype": "float32"
      }
    ],
    "jaxpr": "{ lambda ; a:f32[3] b:f32[4]. let\n    c:f32[3,1] = broadcast_in_dim[\n      broadcast_dimensions=(0,)\n      shape=(3, 1)\n      sharding=None\n    ] a\n    d:f32[1,4] = broadcast_in_dim[\n      broadcast_dimensions=(1,)\n      shape=(1, 4)\n      sharding=None\n    ] b\n    e:f32[3,4] = mul c d\n  in (e,) }",
    "stablehlo": "module @jit__lambda attributes {mhlo.num_partitions = 1 : i32, mhlo.num_replicas = 1 : i32} {\n  func.func public @main(%arg0: tensor<3xf32>, %arg1: tensor<4xf32>) -> (tensor<3x4xf32> {jax.result_info = \"result\"}) {\n    %0 = stablehlo.broadcast_in_dim %arg0, dims = [0] : (tensor<3xf32>) -> tensor<3x1xf32>\n    %1 = stablehlo.broadcast_in_dim %arg1, dims = [1] : (tensor<4xf32>) -> tensor<1x4xf32>\n    %2 = stablehlo.broadcast_in_dim %0, dims = [0, 1] : (tensor<3x1xf32>) -> tensor<3x4xf32>\n    %3 = stablehlo.broadcast_in_dim %1, dims = [0, 1] : (tensor<1x4xf32>) -> tensor<3x4xf32>\n    %4 = stablehlo.multiply %2, %3 : tensor<3x4xf32>\n    return %4 : tensor<3x4xf32>\n  }\n}\n",
    "metadata": {
      "category": "linalg",
      "operation": "outer",
      "description": "Linear algebra: outer"
    }
  },
  {
    "python_code": "lambda x, y: jnp.dot(x, y)",
    "input_info": [
      {
        "shape": [
          5
        ],
        "dtype": "float32"
      },
      {
        "shape": [
          5
        ],
        "dtype": "float32"
      }
    ],
    "jaxpr": "{ lambda ; a:f32[5] b:f32[5]. let\n    c:f32[] = dot_general[\n      dimension_numbers=(([0], [0]), ([], []))\n      preferred_element_type=float32\n    ] a b\n  in (c,) }",
    "stablehlo": "module @jit__lambda attributes {mhlo.num_partitions = 1 : i32, mhlo.num_replicas = 1 : i32} {\n  func.func public @main(%arg0: tensor<5xf32>, %arg1: tensor<5xf32>) -> (tensor<f32> {jax.result_info = \"result\"}) {\n    %0 = stablehlo.dot_general %arg0, %arg1, contracting_dims = [0] x [0], precision = [DEFAULT, DEFAULT] : (tensor<5xf32>, tensor<5xf32>) -> tensor<f32>\n    return %0 : tensor<f32>\n  }\n}\n",
    "metadata": {
      "category": "linalg",
      "operation": "dot",
      "description": "Linear algebra: dot"
    }
  },
  {
    "python_code": "lambda x, y: jnp.dot(x, y)",
    "input_info": [
      {
        "shape": [
          5
        ],
        "dtype": "float32"
      },
      {
        "shape": [
          5
        ],
        "dtype": "float32"
      }
    ],
    "jaxpr": "{ lambda ; a:f32[5] b:f32[5]. let\n    c:f32[] = dot_general[\n      dimension_numbers=(([0], [0]), ([], []))\n      preferred_element_type=float32\n    ] a b\n  in (c,) }",
    "stablehlo": "module @jit__lambda attributes {mhlo.num_partitions = 1 : i32, mhlo.num_replicas = 1 : i32} {\n  func.func public @main(%arg0: tensor<5xf32>, %arg1: tensor<5xf32>) -> (tensor<f32> {jax.result_info = \"result\"}) {\n    %0 = stablehlo.dot_general %arg0, %arg1, contracting_dims = [0] x [0], precision = [DEFAULT, DEFAULT] : (tensor<5xf32>, tensor<5xf32>) -> tensor<f32>\n    return %0 : tensor<f32>\n  }\n}\n",
    "metadata": {
      "category": "linalg",
      "operation": "dot",
      "description": "Linear algebra: dot"
    }
  },
  {
    "python_code": "lambda x, y: jnp.dot(x, y)",
    "input_info": [
      {
        "shape": [
          5
        ],
        "dtype": "float32"
      },
      {
        "shape": [
          5
        ],
        "dtype": "float32"
      }
    ],
    "jaxpr": "{ lambda ; a:f32[5] b:f32[5]. let\n    c:f32[] = dot_general[\n      dimension_numbers=(([0], [0]), ([], []))\n      preferred_element_type=float32\n    ] a b\n  in (c,) }",
    "stablehlo": "module @jit__lambda attributes {mhlo.num_partitions = 1 : i32, mhlo.num_replicas = 1 : i32} {\n  func.func public @main(%arg0: tensor<5xf32>, %arg1: tensor<5xf32>) -> (tensor<f32> {jax.result_info = \"result\"}) {\n    %0 = stablehlo.dot_general %arg0, %arg1, contracting_dims = [0] x [0], precision = [DEFAULT, DEFAULT] : (tensor<5xf32>, tensor<5xf32>) -> tensor<f32>\n    return %0 : tensor<f32>\n  }\n}\n",
    "metadata": {
      "category": "linalg",
      "operation": "dot",
      "description": "Linear algebra: dot"
    }
  },
  {
    "python_code": "lambda A, B: jnp.matmul(A, B)",
    "input_info": [
      {
        "shape": [
          3,
          4
        ],
        "dtype": "float32"
      },
      {
        "shape": [
          4,
          5
        ],
        "dtype": "float32"
      }
    ],
    "jaxpr": "{ lambda ; a:f32[3,4] b:f32[4,5]. let\n    c:f32[3,5] = dot_general[\n      dimension_numbers=(([1], [0]), ([], []))\n      preferred_element_type=float32\n    ] a b\n  in (c,) }",
    "stablehlo": "module @jit__lambda attributes {mhlo.num_partitions = 1 : i32, mhlo.num_replicas = 1 : i32} {\n  func.func public @main(%arg0: tensor<3x4xf32>, %arg1: tensor<4x5xf32>) -> (tensor<3x5xf32> {jax.result_info = \"result\"}) {\n    %0 = stablehlo.dot_general %arg0, %arg1, contracting_dims = [1] x [0], precision = [DEFAULT, DEFAULT] : (tensor<3x4xf32>, tensor<4x5xf32>) -> tensor<3x5xf32>\n    return %0 : tensor<3x5xf32>\n  }\n}\n",
    "metadata": {
      "category": "linalg",
      "operation": "matmul",
      "description": "Linear algebra: matmul"
    }
  },
  {
    "python_code": "lambda A, B: jnp.matmul(A, B)",
    "input_info": [
      {
        "shape": [
          3,
          4
        ],
        "dtype": "float32"
      },
      {
        "shape": [
          4,
          5
        ],
        "dtype": "float32"
      }
    ],
    "jaxpr": "{ lambda ; a:f32[3,4] b:f32[4,5]. let\n    c:f32[3,5] = dot_general[\n      dimension_numbers=(([1], [0]), ([], []))\n      preferred_element_type=float32\n    ] a b\n  in (c,) }",
    "stablehlo": "module @jit__lambda attributes {mhlo.num_partitions = 1 : i32, mhlo.num_replicas = 1 : i32} {\n  func.func public @main(%arg0: tensor<3x4xf32>, %arg1: tensor<4x5xf32>) -> (tensor<3x5xf32> {jax.result_info = \"result\"}) {\n    %0 = stablehlo.dot_general %arg0, %arg1, contracting_dims = [1] x [0], precision = [DEFAULT, DEFAULT] : (tensor<3x4xf32>, tensor<4x5xf32>) -> tensor<3x5xf32>\n    return %0 : tensor<3x5xf32>\n  }\n}\n",
    "metadata": {
      "category": "linalg",
      "operation": "matmul",
      "description": "Linear algebra: matmul"
    }
  },
  {
    "python_code": "lambda x, y: jnp.outer(x, y)",
    "input_info": [
      {
        "shape": [
          3
        ],
        "dtype": "float32"
      },
      {
        "shape": [
          4
        ],
        "dtype": "float32"
      }
    ],
    "jaxpr": "{ lambda ; a:f32[3] b:f32[4]. let\n    c:f32[3,1] = broadcast_in_dim[\n      broadcast_dimensions=(0,)\n      shape=(3, 1)\n      sharding=None\n    ] a\n    d:f32[1,4] = broadcast_in_dim[\n      broadcast_dimensions=(1,)\n      shape=(1, 4)\n      sharding=None\n    ] b\n    e:f32[3,4] = mul c d\n  in (e,) }",
    "stablehlo": "module @jit__lambda attributes {mhlo.num_partitions = 1 : i32, mhlo.num_replicas = 1 : i32} {\n  func.func public @main(%arg0: tensor<3xf32>, %arg1: tensor<4xf32>) -> (tensor<3x4xf32> {jax.result_info = \"result\"}) {\n    %0 = stablehlo.broadcast_in_dim %arg0, dims = [0] : (tensor<3xf32>) -> tensor<3x1xf32>\n    %1 = stablehlo.broadcast_in_dim %arg1, dims = [1] : (tensor<4xf32>) -> tensor<1x4xf32>\n    %2 = stablehlo.broadcast_in_dim %0, dims = [0, 1] : (tensor<3x1xf32>) -> tensor<3x4xf32>\n    %3 = stablehlo.broadcast_in_dim %1, dims = [0, 1] : (tensor<1x4xf32>) -> tensor<3x4xf32>\n    %4 = stablehlo.multiply %2, %3 : tensor<3x4xf32>\n    return %4 : tensor<3x4xf32>\n  }\n}\n",
    "metadata": {
      "category": "linalg",
      "operation": "outer",
      "description": "Linear algebra: outer"
    }
  },
  {
    "python_code": "lambda x, y: jnp.outer(x, y)",
    "input_info": [
      {
        "shape": [
          3
        ],
        "dtype": "float32"
      },
      {
        "shape": [
          4
        ],
        "dtype": "float32"
      }
    ],
    "jaxpr": "{ lambda ; a:f32[3] b:f32[4]. let\n    c:f32[3,1] = broadcast_in_dim[\n      broadcast_dimensions=(0,)\n      shape=(3, 1)\n      sharding=None\n    ] a\n    d:f32[1,4] = broadcast_in_dim[\n      broadcast_dimensions=(1,)\n      shape=(1, 4)\n      sharding=None\n    ] b\n    e:f32[3,4] = mul c d\n  in (e,) }",
    "stablehlo": "module @jit__lambda attributes {mhlo.num_partitions = 1 : i32, mhlo.num_replicas = 1 : i32} {\n  func.func public @main(%arg0: tensor<3xf32>, %arg1: tensor<4xf32>) -> (tensor<3x4xf32> {jax.result_info = \"result\"}) {\n    %0 = stablehlo.broadcast_in_dim %arg0, dims = [0] : (tensor<3xf32>) -> tensor<3x1xf32>\n    %1 = stablehlo.broadcast_in_dim %arg1, dims = [1] : (tensor<4xf32>) -> tensor<1x4xf32>\n    %2 = stablehlo.broadcast_in_dim %0, dims = [0, 1] : (tensor<3x1xf32>) -> tensor<3x4xf32>\n    %3 = stablehlo.broadcast_in_dim %1, dims = [0, 1] : (tensor<1x4xf32>) -> tensor<3x4xf32>\n    %4 = stablehlo.multiply %2, %3 : tensor<3x4xf32>\n    return %4 : tensor<3x4xf32>\n  }\n}\n",
    "metadata": {
      "category": "linalg",
      "operation": "outer",
      "description": "Linear algebra: outer"
    }
  },
  {
    "python_code": "lambda A, B: jnp.matmul(A, B)",
    "input_info": [
      {
        "shape": [
          3,
          4
        ],
        "dtype": "float32"
      },
      {
        "shape": [
          4,
          5
        ],
        "dtype": "float32"
      }
    ],
    "jaxpr": "{ lambda ; a:f32[3,4] b:f32[4,5]. let\n    c:f32[3,5] = dot_general[\n      dimension_numbers=(([1], [0]), ([], []))\n      preferred_element_type=float32\n    ] a b\n  in (c,) }",
    "stablehlo": "module @jit__lambda attributes {mhlo.num_partitions = 1 : i32, mhlo.num_replicas = 1 : i32} {\n  func.func public @main(%arg0: tensor<3x4xf32>, %arg1: tensor<4x5xf32>) -> (tensor<3x5xf32> {jax.result_info = \"result\"}) {\n    %0 = stablehlo.dot_general %arg0, %arg1, contracting_dims = [1] x [0], precision = [DEFAULT, DEFAULT] : (tensor<3x4xf32>, tensor<4x5xf32>) -> tensor<3x5xf32>\n    return %0 : tensor<3x5xf32>\n  }\n}\n",
    "metadata": {
      "category": "linalg",
      "operation": "matmul",
      "description": "Linear algebra: matmul"
    }
  },
  {
    "python_code": "lambda A, B: jnp.matmul(A, B)",
    "input_info": [
      {
        "shape": [
          3,
          4
        ],
        "dtype": "float32"
      },
      {
        "shape": [
          4,
          5
        ],
        "dtype": "float32"
      }
    ],
    "jaxpr": "{ lambda ; a:f32[3,4] b:f32[4,5]. let\n    c:f32[3,5] = dot_general[\n      dimension_numbers=(([1], [0]), ([], []))\n      preferred_element_type=float32\n    ] a b\n  in (c,) }",
    "stablehlo": "module @jit__lambda attributes {mhlo.num_partitions = 1 : i32, mhlo.num_replicas = 1 : i32} {\n  func.func public @main(%arg0: tensor<3x4xf32>, %arg1: tensor<4x5xf32>) -> (tensor<3x5xf32> {jax.result_info = \"result\"}) {\n    %0 = stablehlo.dot_general %arg0, %arg1, contracting_dims = [1] x [0], precision = [DEFAULT, DEFAULT] : (tensor<3x4xf32>, tensor<4x5xf32>) -> tensor<3x5xf32>\n    return %0 : tensor<3x5xf32>\n  }\n}\n",
    "metadata": {
      "category": "linalg",
      "operation": "matmul",
      "description": "Linear algebra: matmul"
    }
  },
  {
    "python_code": "lambda x, y: jnp.dot(x, y)",
    "input_info": [
      {
        "shape": [
          5
        ],
        "dtype": "float32"
      },
      {
        "shape": [
          5
        ],
        "dtype": "float32"
      }
    ],
    "jaxpr": "{ lambda ; a:f32[5] b:f32[5]. let\n    c:f32[] = dot_general[\n      dimension_numbers=(([0], [0]), ([], []))\n      preferred_element_type=float32\n    ] a b\n  in (c,) }",
    "stablehlo": "module @jit__lambda attributes {mhlo.num_partitions = 1 : i32, mhlo.num_replicas = 1 : i32} {\n  func.func public @main(%arg0: tensor<5xf32>, %arg1: tensor<5xf32>) -> (tensor<f32> {jax.result_info = \"result\"}) {\n    %0 = stablehlo.dot_general %arg0, %arg1, contracting_dims = [0] x [0], precision = [DEFAULT, DEFAULT] : (tensor<5xf32>, tensor<5xf32>) -> tensor<f32>\n    return %0 : tensor<f32>\n  }\n}\n",
    "metadata": {
      "category": "linalg",
      "operation": "dot",
      "description": "Linear algebra: dot"
    }
  },
  {
    "python_code": "lambda x, y: jnp.dot(x, y)",
    "input_info": [
      {
        "shape": [
          5
        ],
        "dtype": "float32"
      },
      {
        "shape": [
          5
        ],
        "dtype": "float32"
      }
    ],
    "jaxpr": "{ lambda ; a:f32[5] b:f32[5]. let\n    c:f32[] = dot_general[\n      dimension_numbers=(([0], [0]), ([], []))\n      preferred_element_type=float32\n    ] a b\n  in (c,) }",
    "stablehlo": "module @jit__lambda attributes {mhlo.num_partitions = 1 : i32, mhlo.num_replicas = 1 : i32} {\n  func.func public @main(%arg0: tensor<5xf32>, %arg1: tensor<5xf32>) -> (tensor<f32> {jax.result_info = \"result\"}) {\n    %0 = stablehlo.dot_general %arg0, %arg1, contracting_dims = [0] x [0], precision = [DEFAULT, DEFAULT] : (tensor<5xf32>, tensor<5xf32>) -> tensor<f32>\n    return %0 : tensor<f32>\n  }\n}\n",
    "metadata": {
      "category": "linalg",
      "operation": "dot",
      "description": "Linear algebra: dot"
    }
  },
  {
    "python_code": "lambda x, y: jnp.outer(x, y)",
    "input_info": [
      {
        "shape": [
          3
        ],
        "dtype": "float32"
      },
      {
        "shape": [
          4
        ],
        "dtype": "float32"
      }
    ],
    "jaxpr": "{ lambda ; a:f32[3] b:f32[4]. let\n    c:f32[3,1] = broadcast_in_dim[\n      broadcast_dimensions=(0,)\n      shape=(3, 1)\n      sharding=None\n    ] a\n    d:f32[1,4] = broadcast_in_dim[\n      broadcast_dimensions=(1,)\n      shape=(1, 4)\n      sharding=None\n    ] b\n    e:f32[3,4] = mul c d\n  in (e,) }",
    "stablehlo": "module @jit__lambda attributes {mhlo.num_partitions = 1 : i32, mhlo.num_replicas = 1 : i32} {\n  func.func public @main(%arg0: tensor<3xf32>, %arg1: tensor<4xf32>) -> (tensor<3x4xf32> {jax.result_info = \"result\"}) {\n    %0 = stablehlo.broadcast_in_dim %arg0, dims = [0] : (tensor<3xf32>) -> tensor<3x1xf32>\n    %1 = stablehlo.broadcast_in_dim %arg1, dims = [1] : (tensor<4xf32>) -> tensor<1x4xf32>\n    %2 = stablehlo.broadcast_in_dim %0, dims = [0, 1] : (tensor<3x1xf32>) -> tensor<3x4xf32>\n    %3 = stablehlo.broadcast_in_dim %1, dims = [0, 1] : (tensor<1x4xf32>) -> tensor<3x4xf32>\n    %4 = stablehlo.multiply %2, %3 : tensor<3x4xf32>\n    return %4 : tensor<3x4xf32>\n  }\n}\n",
    "metadata": {
      "category": "linalg",
      "operation": "outer",
      "description": "Linear algebra: outer"
    }
  },
  {
    "python_code": "lambda x: jnp.linalg.norm(x)",
    "input_info": [
      {
        "shape": [
          5
        ],
        "dtype": "float32"
      }
    ],
    "jaxpr": "{ lambda ; a:f32[5]. let\n    b:f32[] = jit[\n      name=norm\n      jaxpr={ lambda ; a:f32[5]. let\n          c:f32[5] = mul a a\n          d:f32[] = reduce_sum[axes=(0,) out_sharding=None] c\n          b:f32[] = sqrt d\n        in (b,) }\n    ] a\n  in (b,) }",
    "stablehlo": "module @jit__lambda attributes {mhlo.num_partitions = 1 : i32, mhlo.num_replicas = 1 : i32} {\n  func.func public @main(%arg0: tensor<5xf32>) -> (tensor<f32> {jax.result_info = \"result\"}) {\n    %0 = call @norm(%arg0) : (tensor<5xf32>) -> tensor<f32>\n    return %0 : tensor<f32>\n  }\n  func.func private @norm(%arg0: tensor<5xf32>) -> tensor<f32> {\n    %0 = stablehlo.multiply %arg0, %arg0 : tensor<5xf32>\n    %cst = stablehlo.constant dense<0.000000e+00> : tensor<f32>\n    %1 = stablehlo.reduce(%0 init: %cst) applies stablehlo.add across dimensions = [0] : (tensor<5xf32>, tensor<f32>) -> tensor<f32>\n    %2 = stablehlo.sqrt %1 : tensor<f32>\n    return %2 : tensor<f32>\n  }\n}\n",
    "metadata": {
      "category": "linalg",
      "operation": "norm",
      "description": "Linear algebra: norm"
    }
  },
  {
    "python_code": "lambda x, y: jnp.outer(x, y)",
    "input_info": [
      {
        "shape": [
          3
        ],
        "dtype": "float32"
      },
      {
        "shape": [
          4
        ],
        "dtype": "float32"
      }
    ],
    "jaxpr": "{ lambda ; a:f32[3] b:f32[4]. let\n    c:f32[3,1] = broadcast_in_dim[\n      broadcast_dimensions=(0,)\n      shape=(3, 1)\n      sharding=None\n    ] a\n    d:f32[1,4] = broadcast_in_dim[\n      broadcast_dimensions=(1,)\n      shape=(1, 4)\n      sharding=None\n    ] b\n    e:f32[3,4] = mul c d\n  in (e,) }",
    "stablehlo": "module @jit__lambda attributes {mhlo.num_partitions = 1 : i32, mhlo.num_replicas = 1 : i32} {\n  func.func public @main(%arg0: tensor<3xf32>, %arg1: tensor<4xf32>) -> (tensor<3x4xf32> {jax.result_info = \"result\"}) {\n    %0 = stablehlo.broadcast_in_dim %arg0, dims = [0] : (tensor<3xf32>) -> tensor<3x1xf32>\n    %1 = stablehlo.broadcast_in_dim %arg1, dims = [1] : (tensor<4xf32>) -> tensor<1x4xf32>\n    %2 = stablehlo.broadcast_in_dim %0, dims = [0, 1] : (tensor<3x1xf32>) -> tensor<3x4xf32>\n    %3 = stablehlo.broadcast_in_dim %1, dims = [0, 1] : (tensor<1x4xf32>) -> tensor<3x4xf32>\n    %4 = stablehlo.multiply %2, %3 : tensor<3x4xf32>\n    return %4 : tensor<3x4xf32>\n  }\n}\n",
    "metadata": {
      "category": "linalg",
      "operation": "outer",
      "description": "Linear algebra: outer"
    }
  },
  {
    "python_code": "lambda x: jnp.linalg.norm(x)",
    "input_info": [
      {
        "shape": [
          5
        ],
        "dtype": "float32"
      }
    ],
    "jaxpr": "{ lambda ; a:f32[5]. let\n    b:f32[] = jit[\n      name=norm\n      jaxpr={ lambda ; a:f32[5]. let\n          c:f32[5] = mul a a\n          d:f32[] = reduce_sum[axes=(0,) out_sharding=None] c\n          b:f32[] = sqrt d\n        in (b,) }\n    ] a\n  in (b,) }",
    "stablehlo": "module @jit__lambda attributes {mhlo.num_partitions = 1 : i32, mhlo.num_replicas = 1 : i32} {\n  func.func public @main(%arg0: tensor<5xf32>) -> (tensor<f32> {jax.result_info = \"result\"}) {\n    %0 = call @norm(%arg0) : (tensor<5xf32>) -> tensor<f32>\n    return %0 : tensor<f32>\n  }\n  func.func private @norm(%arg0: tensor<5xf32>) -> tensor<f32> {\n    %0 = stablehlo.multiply %arg0, %arg0 : tensor<5xf32>\n    %cst = stablehlo.constant dense<0.000000e+00> : tensor<f32>\n    %1 = stablehlo.reduce(%0 init: %cst) applies stablehlo.add across dimensions = [0] : (tensor<5xf32>, tensor<f32>) -> tensor<f32>\n    %2 = stablehlo.sqrt %1 : tensor<f32>\n    return %2 : tensor<f32>\n  }\n}\n",
    "metadata": {
      "category": "linalg",
      "operation": "norm",
      "description": "Linear algebra: norm"
    }
  },
  {
    "python_code": "lambda A, B: jnp.matmul(A, B)",
    "input_info": [
      {
        "shape": [
          3,
          4
        ],
        "dtype": "float32"
      },
      {
        "shape": [
          4,
          5
        ],
        "dtype": "float32"
      }
    ],
    "jaxpr": "{ lambda ; a:f32[3,4] b:f32[4,5]. let\n    c:f32[3,5] = dot_general[\n      dimension_numbers=(([1], [0]), ([], []))\n      preferred_element_type=float32\n    ] a b\n  in (c,) }",
    "stablehlo": "module @jit__lambda attributes {mhlo.num_partitions = 1 : i32, mhlo.num_replicas = 1 : i32} {\n  func.func public @main(%arg0: tensor<3x4xf32>, %arg1: tensor<4x5xf32>) -> (tensor<3x5xf32> {jax.result_info = \"result\"}) {\n    %0 = stablehlo.dot_general %arg0, %arg1, contracting_dims = [1] x [0], precision = [DEFAULT, DEFAULT] : (tensor<3x4xf32>, tensor<4x5xf32>) -> tensor<3x5xf32>\n    return %0 : tensor<3x5xf32>\n  }\n}\n",
    "metadata": {
      "category": "linalg",
      "operation": "matmul",
      "description": "Linear algebra: matmul"
    }
  },
  {
    "python_code": "lambda x: jnp.linalg.norm(x)",
    "input_info": [
      {
        "shape": [
          5
        ],
        "dtype": "float32"
      }
    ],
    "jaxpr": "{ lambda ; a:f32[5]. let\n    b:f32[] = jit[\n      name=norm\n      jaxpr={ lambda ; a:f32[5]. let\n          c:f32[5] = mul a a\n          d:f32[] = reduce_sum[axes=(0,) out_sharding=None] c\n          b:f32[] = sqrt d\n        in (b,) }\n    ] a\n  in (b,) }",
    "stablehlo": "module @jit__lambda attributes {mhlo.num_partitions = 1 : i32, mhlo.num_replicas = 1 : i32} {\n  func.func public @main(%arg0: tensor<5xf32>) -> (tensor<f32> {jax.result_info = \"result\"}) {\n    %0 = call @norm(%arg0) : (tensor<5xf32>) -> tensor<f32>\n    return %0 : tensor<f32>\n  }\n  func.func private @norm(%arg0: tensor<5xf32>) -> tensor<f32> {\n    %0 = stablehlo.multiply %arg0, %arg0 : tensor<5xf32>\n    %cst = stablehlo.constant dense<0.000000e+00> : tensor<f32>\n    %1 = stablehlo.reduce(%0 init: %cst) applies stablehlo.add across dimensions = [0] : (tensor<5xf32>, tensor<f32>) -> tensor<f32>\n    %2 = stablehlo.sqrt %1 : tensor<f32>\n    return %2 : tensor<f32>\n  }\n}\n",
    "metadata": {
      "category": "linalg",
      "operation": "norm",
      "description": "Linear algebra: norm"
    }
  },
  {
    "python_code": "lambda x, y: jnp.outer(x, y)",
    "input_info": [
      {
        "shape": [
          3
        ],
        "dtype": "float32"
      },
      {
        "shape": [
          4
        ],
        "dtype": "float32"
      }
    ],
    "jaxpr": "{ lambda ; a:f32[3] b:f32[4]. let\n    c:f32[3,1] = broadcast_in_dim[\n      broadcast_dimensions=(0,)\n      shape=(3, 1)\n      sharding=None\n    ] a\n    d:f32[1,4] = broadcast_in_dim[\n      broadcast_dimensions=(1,)\n      shape=(1, 4)\n      sharding=None\n    ] b\n    e:f32[3,4] = mul c d\n  in (e,) }",
    "stablehlo": "module @jit__lambda attributes {mhlo.num_partitions = 1 : i32, mhlo.num_replicas = 1 : i32} {\n  func.func public @main(%arg0: tensor<3xf32>, %arg1: tensor<4xf32>) -> (tensor<3x4xf32> {jax.result_info = \"result\"}) {\n    %0 = stablehlo.broadcast_in_dim %arg0, dims = [0] : (tensor<3xf32>) -> tensor<3x1xf32>\n    %1 = stablehlo.broadcast_in_dim %arg1, dims = [1] : (tensor<4xf32>) -> tensor<1x4xf32>\n    %2 = stablehlo.broadcast_in_dim %0, dims = [0, 1] : (tensor<3x1xf32>) -> tensor<3x4xf32>\n    %3 = stablehlo.broadcast_in_dim %1, dims = [0, 1] : (tensor<1x4xf32>) -> tensor<3x4xf32>\n    %4 = stablehlo.multiply %2, %3 : tensor<3x4xf32>\n    return %4 : tensor<3x4xf32>\n  }\n}\n",
    "metadata": {
      "category": "linalg",
      "operation": "outer",
      "description": "Linear algebra: outer"
    }
  },
  {
    "python_code": "lambda x, y: jnp.dot(x, y)",
    "input_info": [
      {
        "shape": [
          5
        ],
        "dtype": "float32"
      },
      {
        "shape": [
          5
        ],
        "dtype": "float32"
      }
    ],
    "jaxpr": "{ lambda ; a:f32[5] b:f32[5]. let\n    c:f32[] = dot_general[\n      dimension_numbers=(([0], [0]), ([], []))\n      preferred_element_type=float32\n    ] a b\n  in (c,) }",
    "stablehlo": "module @jit__lambda attributes {mhlo.num_partitions = 1 : i32, mhlo.num_replicas = 1 : i32} {\n  func.func public @main(%arg0: tensor<5xf32>, %arg1: tensor<5xf32>) -> (tensor<f32> {jax.result_info = \"result\"}) {\n    %0 = stablehlo.dot_general %arg0, %arg1, contracting_dims = [0] x [0], precision = [DEFAULT, DEFAULT] : (tensor<5xf32>, tensor<5xf32>) -> tensor<f32>\n    return %0 : tensor<f32>\n  }\n}\n",
    "metadata": {
      "category": "linalg",
      "operation": "dot",
      "description": "Linear algebra: dot"
    }
  },
  {
    "python_code": "lambda x, y: jnp.outer(x, y)",
    "input_info": [
      {
        "shape": [
          3
        ],
        "dtype": "float32"
      },
      {
        "shape": [
          4
        ],
        "dtype": "float32"
      }
    ],
    "jaxpr": "{ lambda ; a:f32[3] b:f32[4]. let\n    c:f32[3,1] = broadcast_in_dim[\n      broadcast_dimensions=(0,)\n      shape=(3, 1)\n      sharding=None\n    ] a\n    d:f32[1,4] = broadcast_in_dim[\n      broadcast_dimensions=(1,)\n      shape=(1, 4)\n      sharding=None\n    ] b\n    e:f32[3,4] = mul c d\n  in (e,) }",
    "stablehlo": "module @jit__lambda attributes {mhlo.num_partitions = 1 : i32, mhlo.num_replicas = 1 : i32} {\n  func.func public @main(%arg0: tensor<3xf32>, %arg1: tensor<4xf32>) -> (tensor<3x4xf32> {jax.result_info = \"result\"}) {\n    %0 = stablehlo.broadcast_in_dim %arg0, dims = [0] : (tensor<3xf32>) -> tensor<3x1xf32>\n    %1 = stablehlo.broadcast_in_dim %arg1, dims = [1] : (tensor<4xf32>) -> tensor<1x4xf32>\n    %2 = stablehlo.broadcast_in_dim %0, dims = [0, 1] : (tensor<3x1xf32>) -> tensor<3x4xf32>\n    %3 = stablehlo.broadcast_in_dim %1, dims = [0, 1] : (tensor<1x4xf32>) -> tensor<3x4xf32>\n    %4 = stablehlo.multiply %2, %3 : tensor<3x4xf32>\n    return %4 : tensor<3x4xf32>\n  }\n}\n",
    "metadata": {
      "category": "linalg",
      "operation": "outer",
      "description": "Linear algebra: outer"
    }
  },
  {
    "python_code": "lambda x, y: jnp.dot(x, y)",
    "input_info": [
      {
        "shape": [
          5
        ],
        "dtype": "float32"
      },
      {
        "shape": [
          5
        ],
        "dtype": "float32"
      }
    ],
    "jaxpr": "{ lambda ; a:f32[5] b:f32[5]. let\n    c:f32[] = dot_general[\n      dimension_numbers=(([0], [0]), ([], []))\n      preferred_element_type=float32\n    ] a b\n  in (c,) }",
    "stablehlo": "module @jit__lambda attributes {mhlo.num_partitions = 1 : i32, mhlo.num_replicas = 1 : i32} {\n  func.func public @main(%arg0: tensor<5xf32>, %arg1: tensor<5xf32>) -> (tensor<f32> {jax.result_info = \"result\"}) {\n    %0 = stablehlo.dot_general %arg0, %arg1, contracting_dims = [0] x [0], precision = [DEFAULT, DEFAULT] : (tensor<5xf32>, tensor<5xf32>) -> tensor<f32>\n    return %0 : tensor<f32>\n  }\n}\n",
    "metadata": {
      "category": "linalg",
      "operation": "dot",
      "description": "Linear algebra: dot"
    }
  },
  {
    "python_code": "lambda x, y: jnp.dot(x, y)",
    "input_info": [
      {
        "shape": [
          5
        ],
        "dtype": "float32"
      },
      {
        "shape": [
          5
        ],
        "dtype": "float32"
      }
    ],
    "jaxpr": "{ lambda ; a:f32[5] b:f32[5]. let\n    c:f32[] = dot_general[\n      dimension_numbers=(([0], [0]), ([], []))\n      preferred_element_type=float32\n    ] a b\n  in (c,) }",
    "stablehlo": "module @jit__lambda attributes {mhlo.num_partitions = 1 : i32, mhlo.num_replicas = 1 : i32} {\n  func.func public @main(%arg0: tensor<5xf32>, %arg1: tensor<5xf32>) -> (tensor<f32> {jax.result_info = \"result\"}) {\n    %0 = stablehlo.dot_general %arg0, %arg1, contracting_dims = [0] x [0], precision = [DEFAULT, DEFAULT] : (tensor<5xf32>, tensor<5xf32>) -> tensor<f32>\n    return %0 : tensor<f32>\n  }\n}\n",
    "metadata": {
      "category": "linalg",
      "operation": "dot",
      "description": "Linear algebra: dot"
    }
  },
  {
    "python_code": "lambda x: jnp.linalg.norm(x)",
    "input_info": [
      {
        "shape": [
          5
        ],
        "dtype": "float32"
      }
    ],
    "jaxpr": "{ lambda ; a:f32[5]. let\n    b:f32[] = jit[\n      name=norm\n      jaxpr={ lambda ; a:f32[5]. let\n          c:f32[5] = mul a a\n          d:f32[] = reduce_sum[axes=(0,) out_sharding=None] c\n          b:f32[] = sqrt d\n        in (b,) }\n    ] a\n  in (b,) }",
    "stablehlo": "module @jit__lambda attributes {mhlo.num_partitions = 1 : i32, mhlo.num_replicas = 1 : i32} {\n  func.func public @main(%arg0: tensor<5xf32>) -> (tensor<f32> {jax.result_info = \"result\"}) {\n    %0 = call @norm(%arg0) : (tensor<5xf32>) -> tensor<f32>\n    return %0 : tensor<f32>\n  }\n  func.func private @norm(%arg0: tensor<5xf32>) -> tensor<f32> {\n    %0 = stablehlo.multiply %arg0, %arg0 : tensor<5xf32>\n    %cst = stablehlo.constant dense<0.000000e+00> : tensor<f32>\n    %1 = stablehlo.reduce(%0 init: %cst) applies stablehlo.add across dimensions = [0] : (tensor<5xf32>, tensor<f32>) -> tensor<f32>\n    %2 = stablehlo.sqrt %1 : tensor<f32>\n    return %2 : tensor<f32>\n  }\n}\n",
    "metadata": {
      "category": "linalg",
      "operation": "norm",
      "description": "Linear algebra: norm"
    }
  },
  {
    "python_code": "lambda x: jnp.linalg.norm(x)",
    "input_info": [
      {
        "shape": [
          5
        ],
        "dtype": "float32"
      }
    ],
    "jaxpr": "{ lambda ; a:f32[5]. let\n    b:f32[] = jit[\n      name=norm\n      jaxpr={ lambda ; a:f32[5]. let\n          c:f32[5] = mul a a\n          d:f32[] = reduce_sum[axes=(0,) out_sharding=None] c\n          b:f32[] = sqrt d\n        in (b,) }\n    ] a\n  in (b,) }",
    "stablehlo": "module @jit__lambda attributes {mhlo.num_partitions = 1 : i32, mhlo.num_replicas = 1 : i32} {\n  func.func public @main(%arg0: tensor<5xf32>) -> (tensor<f32> {jax.result_info = \"result\"}) {\n    %0 = call @norm(%arg0) : (tensor<5xf32>) -> tensor<f32>\n    return %0 : tensor<f32>\n  }\n  func.func private @norm(%arg0: tensor<5xf32>) -> tensor<f32> {\n    %0 = stablehlo.multiply %arg0, %arg0 : tensor<5xf32>\n    %cst = stablehlo.constant dense<0.000000e+00> : tensor<f32>\n    %1 = stablehlo.reduce(%0 init: %cst) applies stablehlo.add across dimensions = [0] : (tensor<5xf32>, tensor<f32>) -> tensor<f32>\n    %2 = stablehlo.sqrt %1 : tensor<f32>\n    return %2 : tensor<f32>\n  }\n}\n",
    "metadata": {
      "category": "linalg",
      "operation": "norm",
      "description": "Linear algebra: norm"
    }
  },
  {
    "python_code": "lambda A, B: jnp.matmul(A, B)",
    "input_info": [
      {
        "shape": [
          3,
          4
        ],
        "dtype": "float32"
      },
      {
        "shape": [
          4,
          5
        ],
        "dtype": "float32"
      }
    ],
    "jaxpr": "{ lambda ; a:f32[3,4] b:f32[4,5]. let\n    c:f32[3,5] = dot_general[\n      dimension_numbers=(([1], [0]), ([], []))\n      preferred_element_type=float32\n    ] a b\n  in (c,) }",
    "stablehlo": "module @jit__lambda attributes {mhlo.num_partitions = 1 : i32, mhlo.num_replicas = 1 : i32} {\n  func.func public @main(%arg0: tensor<3x4xf32>, %arg1: tensor<4x5xf32>) -> (tensor<3x5xf32> {jax.result_info = \"result\"}) {\n    %0 = stablehlo.dot_general %arg0, %arg1, contracting_dims = [1] x [0], precision = [DEFAULT, DEFAULT] : (tensor<3x4xf32>, tensor<4x5xf32>) -> tensor<3x5xf32>\n    return %0 : tensor<3x5xf32>\n  }\n}\n",
    "metadata": {
      "category": "linalg",
      "operation": "matmul",
      "description": "Linear algebra: matmul"
    }
  },
  {
    "python_code": "lambda A, B: jnp.matmul(A, B)",
    "input_info": [
      {
        "shape": [
          3,
          4
        ],
        "dtype": "float32"
      },
      {
        "shape": [
          4,
          5
        ],
        "dtype": "float32"
      }
    ],
    "jaxpr": "{ lambda ; a:f32[3,4] b:f32[4,5]. let\n    c:f32[3,5] = dot_general[\n      dimension_numbers=(([1], [0]), ([], []))\n      preferred_element_type=float32\n    ] a b\n  in (c,) }",
    "stablehlo": "module @jit__lambda attributes {mhlo.num_partitions = 1 : i32, mhlo.num_replicas = 1 : i32} {\n  func.func public @main(%arg0: tensor<3x4xf32>, %arg1: tensor<4x5xf32>) -> (tensor<3x5xf32> {jax.result_info = \"result\"}) {\n    %0 = stablehlo.dot_general %arg0, %arg1, contracting_dims = [1] x [0], precision = [DEFAULT, DEFAULT] : (tensor<3x4xf32>, tensor<4x5xf32>) -> tensor<3x5xf32>\n    return %0 : tensor<3x5xf32>\n  }\n}\n",
    "metadata": {
      "category": "linalg",
      "operation": "matmul",
      "description": "Linear algebra: matmul"
    }
  },
  {
    "python_code": "lambda x, y: jnp.outer(x, y)",
    "input_info": [
      {
        "shape": [
          3
        ],
        "dtype": "float32"
      },
      {
        "shape": [
          4
        ],
        "dtype": "float32"
      }
    ],
    "jaxpr": "{ lambda ; a:f32[3] b:f32[4]. let\n    c:f32[3,1] = broadcast_in_dim[\n      broadcast_dimensions=(0,)\n      shape=(3, 1)\n      sharding=None\n    ] a\n    d:f32[1,4] = broadcast_in_dim[\n      broadcast_dimensions=(1,)\n      shape=(1, 4)\n      sharding=None\n    ] b\n    e:f32[3,4] = mul c d\n  in (e,) }",
    "stablehlo": "module @jit__lambda attributes {mhlo.num_partitions = 1 : i32, mhlo.num_replicas = 1 : i32} {\n  func.func public @main(%arg0: tensor<3xf32>, %arg1: tensor<4xf32>) -> (tensor<3x4xf32> {jax.result_info = \"result\"}) {\n    %0 = stablehlo.broadcast_in_dim %arg0, dims = [0] : (tensor<3xf32>) -> tensor<3x1xf32>\n    %1 = stablehlo.broadcast_in_dim %arg1, dims = [1] : (tensor<4xf32>) -> tensor<1x4xf32>\n    %2 = stablehlo.broadcast_in_dim %0, dims = [0, 1] : (tensor<3x1xf32>) -> tensor<3x4xf32>\n    %3 = stablehlo.broadcast_in_dim %1, dims = [0, 1] : (tensor<1x4xf32>) -> tensor<3x4xf32>\n    %4 = stablehlo.multiply %2, %3 : tensor<3x4xf32>\n    return %4 : tensor<3x4xf32>\n  }\n}\n",
    "metadata": {
      "category": "linalg",
      "operation": "outer",
      "description": "Linear algebra: outer"
    }
  },
  {
    "python_code": "lambda x, y: jnp.dot(x, y)",
    "input_info": [
      {
        "shape": [
          5
        ],
        "dtype": "float32"
      },
      {
        "shape": [
          5
        ],
        "dtype": "float32"
      }
    ],
    "jaxpr": "{ lambda ; a:f32[5] b:f32[5]. let\n    c:f32[] = dot_general[\n      dimension_numbers=(([0], [0]), ([], []))\n      preferred_element_type=float32\n    ] a b\n  in (c,) }",
    "stablehlo": "module @jit__lambda attributes {mhlo.num_partitions = 1 : i32, mhlo.num_replicas = 1 : i32} {\n  func.func public @main(%arg0: tensor<5xf32>, %arg1: tensor<5xf32>) -> (tensor<f32> {jax.result_info = \"result\"}) {\n    %0 = stablehlo.dot_general %arg0, %arg1, contracting_dims = [0] x [0], precision = [DEFAULT, DEFAULT] : (tensor<5xf32>, tensor<5xf32>) -> tensor<f32>\n    return %0 : tensor<f32>\n  }\n}\n",
    "metadata": {
      "category": "linalg",
      "operation": "dot",
      "description": "Linear algebra: dot"
    }
  },
  {
    "python_code": "lambda x, y: jnp.dot(x, y)",
    "input_info": [
      {
        "shape": [
          5
        ],
        "dtype": "float32"
      },
      {
        "shape": [
          5
        ],
        "dtype": "float32"
      }
    ],
    "jaxpr": "{ lambda ; a:f32[5] b:f32[5]. let\n    c:f32[] = dot_general[\n      dimension_numbers=(([0], [0]), ([], []))\n      preferred_element_type=float32\n    ] a b\n  in (c,) }",
    "stablehlo": "module @jit__lambda attributes {mhlo.num_partitions = 1 : i32, mhlo.num_replicas = 1 : i32} {\n  func.func public @main(%arg0: tensor<5xf32>, %arg1: tensor<5xf32>) -> (tensor<f32> {jax.result_info = \"result\"}) {\n    %0 = stablehlo.dot_general %arg0, %arg1, contracting_dims = [0] x [0], precision = [DEFAULT, DEFAULT] : (tensor<5xf32>, tensor<5xf32>) -> tensor<f32>\n    return %0 : tensor<f32>\n  }\n}\n",
    "metadata": {
      "category": "linalg",
      "operation": "dot",
      "description": "Linear algebra: dot"
    }
  },
  {
    "python_code": "lambda x: jnp.linalg.norm(x)",
    "input_info": [
      {
        "shape": [
          5
        ],
        "dtype": "float32"
      }
    ],
    "jaxpr": "{ lambda ; a:f32[5]. let\n    b:f32[] = jit[\n      name=norm\n      jaxpr={ lambda ; a:f32[5]. let\n          c:f32[5] = mul a a\n          d:f32[] = reduce_sum[axes=(0,) out_sharding=None] c\n          b:f32[] = sqrt d\n        in (b,) }\n    ] a\n  in (b,) }",
    "stablehlo": "module @jit__lambda attributes {mhlo.num_partitions = 1 : i32, mhlo.num_replicas = 1 : i32} {\n  func.func public @main(%arg0: tensor<5xf32>) -> (tensor<f32> {jax.result_info = \"result\"}) {\n    %0 = call @norm(%arg0) : (tensor<5xf32>) -> tensor<f32>\n    return %0 : tensor<f32>\n  }\n  func.func private @norm(%arg0: tensor<5xf32>) -> tensor<f32> {\n    %0 = stablehlo.multiply %arg0, %arg0 : tensor<5xf32>\n    %cst = stablehlo.constant dense<0.000000e+00> : tensor<f32>\n    %1 = stablehlo.reduce(%0 init: %cst) applies stablehlo.add across dimensions = [0] : (tensor<5xf32>, tensor<f32>) -> tensor<f32>\n    %2 = stablehlo.sqrt %1 : tensor<f32>\n    return %2 : tensor<f32>\n  }\n}\n",
    "metadata": {
      "category": "linalg",
      "operation": "norm",
      "description": "Linear algebra: norm"
    }
  },
  {
    "python_code": "lambda x, y: jnp.dot(x, y)",
    "input_info": [
      {
        "shape": [
          5
        ],
        "dtype": "float32"
      },
      {
        "shape": [
          5
        ],
        "dtype": "float32"
      }
    ],
    "jaxpr": "{ lambda ; a:f32[5] b:f32[5]. let\n    c:f32[] = dot_general[\n      dimension_numbers=(([0], [0]), ([], []))\n      preferred_element_type=float32\n    ] a b\n  in (c,) }",
    "stablehlo": "module @jit__lambda attributes {mhlo.num_partitions = 1 : i32, mhlo.num_replicas = 1 : i32} {\n  func.func public @main(%arg0: tensor<5xf32>, %arg1: tensor<5xf32>) -> (tensor<f32> {jax.result_info = \"result\"}) {\n    %0 = stablehlo.dot_general %arg0, %arg1, contracting_dims = [0] x [0], precision = [DEFAULT, DEFAULT] : (tensor<5xf32>, tensor<5xf32>) -> tensor<f32>\n    return %0 : tensor<f32>\n  }\n}\n",
    "metadata": {
      "category": "linalg",
      "operation": "dot",
      "description": "Linear algebra: dot"
    }
  },
  {
    "python_code": "lambda x, y: jnp.outer(x, y)",
    "input_info": [
      {
        "shape": [
          3
        ],
        "dtype": "float32"
      },
      {
        "shape": [
          4
        ],
        "dtype": "float32"
      }
    ],
    "jaxpr": "{ lambda ; a:f32[3] b:f32[4]. let\n    c:f32[3,1] = broadcast_in_dim[\n      broadcast_dimensions=(0,)\n      shape=(3, 1)\n      sharding=None\n    ] a\n    d:f32[1,4] = broadcast_in_dim[\n      broadcast_dimensions=(1,)\n      shape=(1, 4)\n      sharding=None\n    ] b\n    e:f32[3,4] = mul c d\n  in (e,) }",
    "stablehlo": "module @jit__lambda attributes {mhlo.num_partitions = 1 : i32, mhlo.num_replicas = 1 : i32} {\n  func.func public @main(%arg0: tensor<3xf32>, %arg1: tensor<4xf32>) -> (tensor<3x4xf32> {jax.result_info = \"result\"}) {\n    %0 = stablehlo.broadcast_in_dim %arg0, dims = [0] : (tensor<3xf32>) -> tensor<3x1xf32>\n    %1 = stablehlo.broadcast_in_dim %arg1, dims = [1] : (tensor<4xf32>) -> tensor<1x4xf32>\n    %2 = stablehlo.broadcast_in_dim %0, dims = [0, 1] : (tensor<3x1xf32>) -> tensor<3x4xf32>\n    %3 = stablehlo.broadcast_in_dim %1, dims = [0, 1] : (tensor<1x4xf32>) -> tensor<3x4xf32>\n    %4 = stablehlo.multiply %2, %3 : tensor<3x4xf32>\n    return %4 : tensor<3x4xf32>\n  }\n}\n",
    "metadata": {
      "category": "linalg",
      "operation": "outer",
      "description": "Linear algebra: outer"
    }
  },
  {
    "python_code": "lambda x, y: jnp.dot(x, y)",
    "input_info": [
      {
        "shape": [
          5
        ],
        "dtype": "float32"
      },
      {
        "shape": [
          5
        ],
        "dtype": "float32"
      }
    ],
    "jaxpr": "{ lambda ; a:f32[5] b:f32[5]. let\n    c:f32[] = dot_general[\n      dimension_numbers=(([0], [0]), ([], []))\n      preferred_element_type=float32\n    ] a b\n  in (c,) }",
    "stablehlo": "module @jit__lambda attributes {mhlo.num_partitions = 1 : i32, mhlo.num_replicas = 1 : i32} {\n  func.func public @main(%arg0: tensor<5xf32>, %arg1: tensor<5xf32>) -> (tensor<f32> {jax.result_info = \"result\"}) {\n    %0 = stablehlo.dot_general %arg0, %arg1, contracting_dims = [0] x [0], precision = [DEFAULT, DEFAULT] : (tensor<5xf32>, tensor<5xf32>) -> tensor<f32>\n    return %0 : tensor<f32>\n  }\n}\n",
    "metadata": {
      "category": "linalg",
      "operation": "dot",
      "description": "Linear algebra: dot"
    }
  },
  {
    "python_code": "lambda A, B: jnp.matmul(A, B)",
    "input_info": [
      {
        "shape": [
          3,
          4
        ],
        "dtype": "float32"
      },
      {
        "shape": [
          4,
          5
        ],
        "dtype": "float32"
      }
    ],
    "jaxpr": "{ lambda ; a:f32[3,4] b:f32[4,5]. let\n    c:f32[3,5] = dot_general[\n      dimension_numbers=(([1], [0]), ([], []))\n      preferred_element_type=float32\n    ] a b\n  in (c,) }",
    "stablehlo": "module @jit__lambda attributes {mhlo.num_partitions = 1 : i32, mhlo.num_replicas = 1 : i32} {\n  func.func public @main(%arg0: tensor<3x4xf32>, %arg1: tensor<4x5xf32>) -> (tensor<3x5xf32> {jax.result_info = \"result\"}) {\n    %0 = stablehlo.dot_general %arg0, %arg1, contracting_dims = [1] x [0], precision = [DEFAULT, DEFAULT] : (tensor<3x4xf32>, tensor<4x5xf32>) -> tensor<3x5xf32>\n    return %0 : tensor<3x5xf32>\n  }\n}\n",
    "metadata": {
      "category": "linalg",
      "operation": "matmul",
      "description": "Linear algebra: matmul"
    }
  },
  {
    "python_code": "lambda x: jnp.linalg.norm(x)",
    "input_info": [
      {
        "shape": [
          5
        ],
        "dtype": "float32"
      }
    ],
    "jaxpr": "{ lambda ; a:f32[5]. let\n    b:f32[] = jit[\n      name=norm\n      jaxpr={ lambda ; a:f32[5]. let\n          c:f32[5] = mul a a\n          d:f32[] = reduce_sum[axes=(0,) out_sharding=None] c\n          b:f32[] = sqrt d\n        in (b,) }\n    ] a\n  in (b,) }",
    "stablehlo": "module @jit__lambda attributes {mhlo.num_partitions = 1 : i32, mhlo.num_replicas = 1 : i32} {\n  func.func public @main(%arg0: tensor<5xf32>) -> (tensor<f32> {jax.result_info = \"result\"}) {\n    %0 = call @norm(%arg0) : (tensor<5xf32>) -> tensor<f32>\n    return %0 : tensor<f32>\n  }\n  func.func private @norm(%arg0: tensor<5xf32>) -> tensor<f32> {\n    %0 = stablehlo.multiply %arg0, %arg0 : tensor<5xf32>\n    %cst = stablehlo.constant dense<0.000000e+00> : tensor<f32>\n    %1 = stablehlo.reduce(%0 init: %cst) applies stablehlo.add across dimensions = [0] : (tensor<5xf32>, tensor<f32>) -> tensor<f32>\n    %2 = stablehlo.sqrt %1 : tensor<f32>\n    return %2 : tensor<f32>\n  }\n}\n",
    "metadata": {
      "category": "linalg",
      "operation": "norm",
      "description": "Linear algebra: norm"
    }
  },
  {
    "python_code": "lambda x, y: jnp.outer(x, y)",
    "input_info": [
      {
        "shape": [
          3
        ],
        "dtype": "float32"
      },
      {
        "shape": [
          4
        ],
        "dtype": "float32"
      }
    ],
    "jaxpr": "{ lambda ; a:f32[3] b:f32[4]. let\n    c:f32[3,1] = broadcast_in_dim[\n      broadcast_dimensions=(0,)\n      shape=(3, 1)\n      sharding=None\n    ] a\n    d:f32[1,4] = broadcast_in_dim[\n      broadcast_dimensions=(1,)\n      shape=(1, 4)\n      sharding=None\n    ] b\n    e:f32[3,4] = mul c d\n  in (e,) }",
    "stablehlo": "module @jit__lambda attributes {mhlo.num_partitions = 1 : i32, mhlo.num_replicas = 1 : i32} {\n  func.func public @main(%arg0: tensor<3xf32>, %arg1: tensor<4xf32>) -> (tensor<3x4xf32> {jax.result_info = \"result\"}) {\n    %0 = stablehlo.broadcast_in_dim %arg0, dims = [0] : (tensor<3xf32>) -> tensor<3x1xf32>\n    %1 = stablehlo.broadcast_in_dim %arg1, dims = [1] : (tensor<4xf32>) -> tensor<1x4xf32>\n    %2 = stablehlo.broadcast_in_dim %0, dims = [0, 1] : (tensor<3x1xf32>) -> tensor<3x4xf32>\n    %3 = stablehlo.broadcast_in_dim %1, dims = [0, 1] : (tensor<1x4xf32>) -> tensor<3x4xf32>\n    %4 = stablehlo.multiply %2, %3 : tensor<3x4xf32>\n    return %4 : tensor<3x4xf32>\n  }\n}\n",
    "metadata": {
      "category": "linalg",
      "operation": "outer",
      "description": "Linear algebra: outer"
    }
  },
  {
    "python_code": "lambda A, B: jnp.matmul(A, B)",
    "input_info": [
      {
        "shape": [
          3,
          4
        ],
        "dtype": "float32"
      },
      {
        "shape": [
          4,
          5
        ],
        "dtype": "float32"
      }
    ],
    "jaxpr": "{ lambda ; a:f32[3,4] b:f32[4,5]. let\n    c:f32[3,5] = dot_general[\n      dimension_numbers=(([1], [0]), ([], []))\n      preferred_element_type=float32\n    ] a b\n  in (c,) }",
    "stablehlo": "module @jit__lambda attributes {mhlo.num_partitions = 1 : i32, mhlo.num_replicas = 1 : i32} {\n  func.func public @main(%arg0: tensor<3x4xf32>, %arg1: tensor<4x5xf32>) -> (tensor<3x5xf32> {jax.result_info = \"result\"}) {\n    %0 = stablehlo.dot_general %arg0, %arg1, contracting_dims = [1] x [0], precision = [DEFAULT, DEFAULT] : (tensor<3x4xf32>, tensor<4x5xf32>) -> tensor<3x5xf32>\n    return %0 : tensor<3x5xf32>\n  }\n}\n",
    "metadata": {
      "category": "linalg",
      "operation": "matmul",
      "description": "Linear algebra: matmul"
    }
  },
  {
    "python_code": "lambda A, B: jnp.matmul(A, B)",
    "input_info": [
      {
        "shape": [
          3,
          4
        ],
        "dtype": "float32"
      },
      {
        "shape": [
          4,
          5
        ],
        "dtype": "float32"
      }
    ],
    "jaxpr": "{ lambda ; a:f32[3,4] b:f32[4,5]. let\n    c:f32[3,5] = dot_general[\n      dimension_numbers=(([1], [0]), ([], []))\n      preferred_element_type=float32\n    ] a b\n  in (c,) }",
    "stablehlo": "module @jit__lambda attributes {mhlo.num_partitions = 1 : i32, mhlo.num_replicas = 1 : i32} {\n  func.func public @main(%arg0: tensor<3x4xf32>, %arg1: tensor<4x5xf32>) -> (tensor<3x5xf32> {jax.result_info = \"result\"}) {\n    %0 = stablehlo.dot_general %arg0, %arg1, contracting_dims = [1] x [0], precision = [DEFAULT, DEFAULT] : (tensor<3x4xf32>, tensor<4x5xf32>) -> tensor<3x5xf32>\n    return %0 : tensor<3x5xf32>\n  }\n}\n",
    "metadata": {
      "category": "linalg",
      "operation": "matmul",
      "description": "Linear algebra: matmul"
    }
  },
  {
    "python_code": "lambda A, B: jnp.matmul(A, B)",
    "input_info": [
      {
        "shape": [
          3,
          4
        ],
        "dtype": "float32"
      },
      {
        "shape": [
          4,
          5
        ],
        "dtype": "float32"
      }
    ],
    "jaxpr": "{ lambda ; a:f32[3,4] b:f32[4,5]. let\n    c:f32[3,5] = dot_general[\n      dimension_numbers=(([1], [0]), ([], []))\n      preferred_element_type=float32\n    ] a b\n  in (c,) }",
    "stablehlo": "module @jit__lambda attributes {mhlo.num_partitions = 1 : i32, mhlo.num_replicas = 1 : i32} {\n  func.func public @main(%arg0: tensor<3x4xf32>, %arg1: tensor<4x5xf32>) -> (tensor<3x5xf32> {jax.result_info = \"result\"}) {\n    %0 = stablehlo.dot_general %arg0, %arg1, contracting_dims = [1] x [0], precision = [DEFAULT, DEFAULT] : (tensor<3x4xf32>, tensor<4x5xf32>) -> tensor<3x5xf32>\n    return %0 : tensor<3x5xf32>\n  }\n}\n",
    "metadata": {
      "category": "linalg",
      "operation": "matmul",
      "description": "Linear algebra: matmul"
    }
  },
  {
    "python_code": "lambda x, y: jnp.dot(x, y)",
    "input_info": [
      {
        "shape": [
          5
        ],
        "dtype": "float32"
      },
      {
        "shape": [
          5
        ],
        "dtype": "float32"
      }
    ],
    "jaxpr": "{ lambda ; a:f32[5] b:f32[5]. let\n    c:f32[] = dot_general[\n      dimension_numbers=(([0], [0]), ([], []))\n      preferred_element_type=float32\n    ] a b\n  in (c,) }",
    "stablehlo": "module @jit__lambda attributes {mhlo.num_partitions = 1 : i32, mhlo.num_replicas = 1 : i32} {\n  func.func public @main(%arg0: tensor<5xf32>, %arg1: tensor<5xf32>) -> (tensor<f32> {jax.result_info = \"result\"}) {\n    %0 = stablehlo.dot_general %arg0, %arg1, contracting_dims = [0] x [0], precision = [DEFAULT, DEFAULT] : (tensor<5xf32>, tensor<5xf32>) -> tensor<f32>\n    return %0 : tensor<f32>\n  }\n}\n",
    "metadata": {
      "category": "linalg",
      "operation": "dot",
      "description": "Linear algebra: dot"
    }
  },
  {
    "python_code": "lambda A, B: jnp.matmul(A, B)",
    "input_info": [
      {
        "shape": [
          3,
          4
        ],
        "dtype": "float32"
      },
      {
        "shape": [
          4,
          5
        ],
        "dtype": "float32"
      }
    ],
    "jaxpr": "{ lambda ; a:f32[3,4] b:f32[4,5]. let\n    c:f32[3,5] = dot_general[\n      dimension_numbers=(([1], [0]), ([], []))\n      preferred_element_type=float32\n    ] a b\n  in (c,) }",
    "stablehlo": "module @jit__lambda attributes {mhlo.num_partitions = 1 : i32, mhlo.num_replicas = 1 : i32} {\n  func.func public @main(%arg0: tensor<3x4xf32>, %arg1: tensor<4x5xf32>) -> (tensor<3x5xf32> {jax.result_info = \"result\"}) {\n    %0 = stablehlo.dot_general %arg0, %arg1, contracting_dims = [1] x [0], precision = [DEFAULT, DEFAULT] : (tensor<3x4xf32>, tensor<4x5xf32>) -> tensor<3x5xf32>\n    return %0 : tensor<3x5xf32>\n  }\n}\n",
    "metadata": {
      "category": "linalg",
      "operation": "matmul",
      "description": "Linear algebra: matmul"
    }
  },
  {
    "python_code": "lambda A, B: jnp.matmul(A, B)",
    "input_info": [
      {
        "shape": [
          3,
          4
        ],
        "dtype": "float32"
      },
      {
        "shape": [
          4,
          5
        ],
        "dtype": "float32"
      }
    ],
    "jaxpr": "{ lambda ; a:f32[3,4] b:f32[4,5]. let\n    c:f32[3,5] = dot_general[\n      dimension_numbers=(([1], [0]), ([], []))\n      preferred_element_type=float32\n    ] a b\n  in (c,) }",
    "stablehlo": "module @jit__lambda attributes {mhlo.num_partitions = 1 : i32, mhlo.num_replicas = 1 : i32} {\n  func.func public @main(%arg0: tensor<3x4xf32>, %arg1: tensor<4x5xf32>) -> (tensor<3x5xf32> {jax.result_info = \"result\"}) {\n    %0 = stablehlo.dot_general %arg0, %arg1, contracting_dims = [1] x [0], precision = [DEFAULT, DEFAULT] : (tensor<3x4xf32>, tensor<4x5xf32>) -> tensor<3x5xf32>\n    return %0 : tensor<3x5xf32>\n  }\n}\n",
    "metadata": {
      "category": "linalg",
      "operation": "matmul",
      "description": "Linear algebra: matmul"
    }
  },
  {
    "python_code": "lambda x, y: jnp.dot(x, y)",
    "input_info": [
      {
        "shape": [
          5
        ],
        "dtype": "float32"
      },
      {
        "shape": [
          5
        ],
        "dtype": "float32"
      }
    ],
    "jaxpr": "{ lambda ; a:f32[5] b:f32[5]. let\n    c:f32[] = dot_general[\n      dimension_numbers=(([0], [0]), ([], []))\n      preferred_element_type=float32\n    ] a b\n  in (c,) }",
    "stablehlo": "module @jit__lambda attributes {mhlo.num_partitions = 1 : i32, mhlo.num_replicas = 1 : i32} {\n  func.func public @main(%arg0: tensor<5xf32>, %arg1: tensor<5xf32>) -> (tensor<f32> {jax.result_info = \"result\"}) {\n    %0 = stablehlo.dot_general %arg0, %arg1, contracting_dims = [0] x [0], precision = [DEFAULT, DEFAULT] : (tensor<5xf32>, tensor<5xf32>) -> tensor<f32>\n    return %0 : tensor<f32>\n  }\n}\n",
    "metadata": {
      "category": "linalg",
      "operation": "dot",
      "description": "Linear algebra: dot"
    }
  },
  {
    "python_code": "lambda x, y: jnp.dot(x, y)",
    "input_info": [
      {
        "shape": [
          5
        ],
…
    "stablehlo": "module @jit__lambda attributes {mhlo.num_partitions = 1 : i32, mhlo.num_replicas = 1 : i32} {\n  func.func public @main(%arg0: tensor<5xf32>, %arg1: tensor<5xf32>) -> (tensor<f32> {jax.result_info = \"result\"}) {\n    %0 = stablehlo.dot_general %arg0, %arg1, contracting_dims = [0] x [0], precision = [DEFAULT, DEFAULT] : (tensor<5xf32>, tensor<5xf32>) -> tensor<f32>\n    return %0 : tensor<f32>\n  }\n}\n",
    "metadata": {
      "category": "linalg",
      "operation": "dot",
      "description": "Linear algebra: dot"
    }
  },
  {
    "python_code": "lambda A, B: jnp.matmul(A, B)",
    "input_info": [
      {
        "shape": [
          3,
          4
        ],
        "dtype": "float32"
      },
      {
        "shape": [
          4,
          5
        ],
        "dtype": "float32"
      }
    ],
    "jaxpr": "{ lambda ; a:f32[3,4] b:f32[4,5]. let\n    c:f32[3,5] = dot_general[\n      dimension_numbers=(([1], [0]), ([], []))\n      preferred_element_type=float32\n    ] a b\n  in (c,) }",
    "stablehlo": "module @jit__lambda attributes {mhlo.num_partitions = 1 : i32, mhlo.num_replicas = 1 : i32} {\n  func.func public @main(%arg0: tensor<3x4xf32>, %arg1: tensor<4x5xf32>) -> (tensor<3x5xf32> {jax.result_info = \"result\"}) {\n    %0 = stablehlo.dot_general %arg0, %arg1, contracting_dims = [1] x [0], precision = [DEFAULT, DEFAULT] : (tensor<3x4xf32>, tensor<4x5xf32>) -> tensor<3x5xf32>\n    return %0 : tensor<3x5xf32>\n  }\n}\n",
    "metadata": {
      "category": "linalg",
      "operation": "matmul",
      "description": "Linear algebra: matmul"
    }
  },
  {
    "python_code": "lambda A, B: jnp.matmul(A, B)",
    "input_info": [
      {
        "shape": [
          3,
          4
        ],
        "dtype": "float32"
      },
      {
        "shape": [
          4,
          5
        ],
        "dtype": "float32"
      }
    ],
    "jaxpr": "{ lambda ; a:f32[3,4] b:f32[4,5]. let\n    c:f32[3,5] = dot_general[\n      dimension_numbers=(([1], [0]), ([], []))\n      preferred_element_type=float32\n    ] a b\n  in (c,) }",
    "stablehlo": "module @jit__lambda attributes {mhlo.num_partitions = 1 : i32, mhlo.num_replicas = 1 : i32} {\n  func.func public @main(%arg0: tensor<3x4xf32>, %arg1: tensor<4x5xf32>) -> (tensor<3x5xf32> {jax.result_info = \"result\"}) {\n    %0 = stablehlo.dot_general %arg0, %arg1, contracting_dims = [1] x [0], precision = [DEFAULT, DEFAULT] : (tensor<3x4xf32>, tensor<4x5xf32>) -> tensor<3x5xf32>\n    return %0 : tensor<3x5xf32>\n  }\n}\n",
    "metadata": {
      "category": "linalg",
      "operation": "matmul",
      "description": "Linear algebra: matmul"
    }
  },
  {
    "python_code": "lambda x: jnp.linalg.norm(x)",
    "input_info": [
      {
        "shape": [
          5
        ],
        "dtype": "float32"
      }
    ],
    "jaxpr": "{ lambda ; a:f32[5]. let\n    b:f32[] = jit[\n      name=norm\n      jaxpr={ lambda ; a:f32[5]. let\n          c:f32[5] = mul a a\n          d:f32[] = reduce_sum[axes=(0,) out_sharding=None] c\n          b:f32[] = sqrt d\n        in (b,) }\n    ] a\n  in (b,) }",
    "stablehlo": "module @jit__lambda attributes {mhlo.num_partitions = 1 : i32, mhlo.num_replicas = 1 : i32} {\n  func.func public @main(%arg0: tensor<5xf32>) -> (tensor<f32> {jax.result_info = \"result\"}) {\n    %0 = call @norm(%arg0) : (tensor<5xf32>) -> tensor<f32>\n    return %0 : tensor<f32>\n  }\n  func.func private @norm(%arg0: tensor<5xf32>) -> tensor<f32> {\n    %0 = stablehlo.multiply %arg0, %arg0 : tensor<5xf32>\n    %cst = stablehlo.constant dense<0.000000e+00> : tensor<f32>\n    %1 = stablehlo.reduce(%0 init: %cst) applies stablehlo.add across dimensions = [0] : (tensor<5xf32>, tensor<f32>) -> tensor<f32>\n    %2 = stablehlo.sqrt %1 : tensor<f32>\n    return %2 : tensor<f32>\n  }\n}\n",
    "metadata": {
      "category": "linalg",
      "operation": "norm",
      "description": "Linear algebra: norm"
    }
  },
  {
    "python_code": "lambda x: jnp.linalg.norm(x)",
    "input_info": [
      {
        "shape": [
          5
        ],
        "dtype": "float32"
      }
    ],
    "jaxpr": "{ lambda ; a:f32[5]. let\n    b:f32[] = jit[\n      name=norm\n      jaxpr={ lambda ; a:f32[5]. let\n          c:f32[5] = mul a a\n          d:f32[] = reduce_sum[axes=(0,) out_sharding=None] c\n          b:f32[] = sqrt d\n        in (b,) }\n    ] a\n  in (b,) }",
    "stablehlo": "module @jit__lambda attributes {mhlo.num_partitions = 1 : i32, mhlo.num_replicas = 1 : i32} {\n  func.func public @main(%arg0: tensor<5xf32>) -> (tensor<f32> {jax.result_info = \"result\"}) {\n    %0 = call @norm(%arg0) : (tensor<5xf32>) -> tensor<f32>\n    return %0 : tensor<f32>\n  }\n  func.func private @norm(%arg0: tensor<5xf32>) -> tensor<f32> {\n    %0 = stablehlo.multiply %arg0, %arg0 : tensor<5xf32>\n    %cst = stablehlo.constant dense<0.000000e+00> : tensor<f32>\n    %1 = stablehlo.reduce(%0 init: %cst) applies stablehlo.add across dimensions = [0] : (tensor<5xf32>, tensor<f32>) -> tensor<f32>\n    %2 = stablehlo.sqrt %1 : tensor<f32>\n    return %2 : tensor<f32>\n  }\n}\n",
    "metadata": {
      "category": "linalg",
      "operation": "norm",
      "description": "Linear algebra: norm"
    }
  },
  {
    "python_code": "lambda x, y: jnp.dot(x, y)",
    "input_info": [
      {
        "shape": [
          5
        ],
        "dtype": "float32"
      },
      {
        "shape": [
          5
        ],
        "dtype": "float32"
      }
    ],
    "jaxpr": "{ lambda ; a:f32[5] b:f32[5]. let\n    c:f32[] = dot_general[\n      dimension_numbers=(([0], [0]), ([], []))\n      preferred_element_type=float32\n    ] a b\n  in (c,) }",
    "stablehlo": "module @jit__lambda attributes {mhlo.num_partitions = 1 : i32, mhlo.num_replicas = 1 : i32} {\n  func.func public @main(%arg0: tensor<5xf32>, %arg1: tensor<5xf32>) -> (tensor<f32> {jax.result_info = \"result\"}) {\n    %0 = stablehlo.dot_general %arg0, %arg1, contracting_dims = [0] x [0], precision = [DEFAULT, DEFAULT] : (tensor<5xf32>, tensor<5xf32>) -> tensor<f32>\n    return %0 : tensor<f32>\n  }\n}\n",
    "metadata": {
      "category": "linalg",
      "operation": "dot",
      "description": "Linear algebra: dot"
    }
  },
  {
    "python_code": "lambda x: jnp.linalg.norm(x)",
    "input_info": [
      {
        "shape": [
          5
        ],
        "dtype": "float32"
      }
    ],
    "jaxpr": "{ lambda ; a:f32[5]. let\n    b:f32[] = jit[\n      name=norm\n      jaxpr={ lambda ; a:f32[5]. let\n          c:f32[5] = mul a a\n          d:f32[] = reduce_sum[axes=(0,) out_sharding=None] c\n          b:f32[] = sqrt d\n        in (b,) }\n    ] a\n  in (b,) }",
    "stablehlo": "module @jit__lambda attributes {mhlo.num_partitions = 1 : i32, mhlo.num_replicas = 1 : i32} {\n  func.func public @main(%arg0: tensor<5xf32>) -> (tensor<f32> {jax.result_info = \"result\"}) {\n    %0 = call @norm(%arg0) : (tensor<5xf32>) -> tensor<f32>\n    return %0 : tensor<f32>\n  }\n  func.func private @norm(%arg0: tensor<5xf32>) -> tensor<f32> {\n    %0 = stablehlo.multiply %arg0, %arg0 : tensor<5xf32>\n    %cst = stablehlo.constant dense<0.000000e+00> : tensor<f32>\n    %1 = stablehlo.reduce(%0 init: %cst) applies stablehlo.add across dimensions = [0] : (tensor<5xf32>, tensor<f32>) -> tensor<f32>\n    %2 = stablehlo.sqrt %1 : tensor<f32>\n    return %2 : tensor<f32>\n  }\n}\n",
    "metadata": {
      "category": "linalg",
      "operation": "norm",
      "description": "Linear algebra: norm"
    }
  },
  {
    "python_code": "lambda x, y: jnp.dot(x, y)",
    "input_info": [
      {
        "shape": [
          5
        ],
        "dtype": "float32"
      },
      {
        "shape": [
          5
        ],
        "dtype": "float32"
      }
    ],
    "jaxpr": "{ lambda ; a:f32[5] b:f32[5]. let\n    c:f32[] = dot_general[\n      dimension_numbers=(([0], [0]), ([], []))\n      preferred_element_type=float32\n    ] a b\n  in (c,) }",
    "stablehlo": "module @jit__lambda attributes {mhlo.num_partitions = 1 : i32, mhlo.num_replicas = 1 : i32} {\n  func.func public @main(%arg0: tensor<5xf32>, %arg1: tensor<5xf32>) -> (tensor<f32> {jax.result_info = \"result\"}) {\n    %0 = stablehlo.dot_general %arg0, %arg1, contracting_dims = [0] x [0], precision = [DEFAULT, DEFAULT] : (tensor<5xf32>, tensor<5xf32>) -> tensor<f32>\n    return %0 : tensor<f32>\n  }\n}\n",
    "metadata": {
      "category": "linalg",
      "operation": "dot",
      "description": "Linear algebra: dot"
    }
  },
  {
    "python_code": "lambda x, y: jnp.dot(x, y)",
    "input_info": [
      {
        "shape": [
          5
        ],
        "dtype": "float32"
      },
      {
        "shape": [
          5
        ],
        "dtype": "float32"
      }
    ],
    "jaxpr": "{ lambda ; a:f32[5] b:f32[5]. let\n    c:f32[] = dot_general[\n      dimension_numbers=(([0], [0]), ([], []))\n      preferred_element_type=float32\n    ] a b\n  in (c,) }",
    "stablehlo": "module @jit__lambda attributes {mhlo.num_partitions = 1 : i32, mhlo.num_replicas = 1 : i32} {\n  func.func public @main(%arg0: tensor<5xf32>, %arg1: tensor<5xf32>) -> (tensor<f32> {jax.result_info = \"result\"}) {\n    %0 = stablehlo.dot_general %arg0, %arg1, contracting_dims = [0] x [0], precision = [DEFAULT, DEFAULT] : (tensor<5xf32>, tensor<5xf32>) -> tensor<f32>\n    return %0 : tensor<f32>\n  }\n}\n",
    "metadata": {
      "category": "linalg",
      "operation": "dot",
      "description": "Linear algebra: dot"
    }
  },
  {
    "python_code": "lambda x: jnp.linalg.norm(x)",
    "input_info": [
      {
        "shape": [
          5
        ],
        "dtype": "float32"
      }
    ],
    "jaxpr": "{ lambda ; a:f32[5]. let\n    b:f32[] = jit[\n      name=norm\n      jaxpr={ lambda ; a:f32[5]. let\n          c:f32[5] = mul a a\n          d:f32[] = reduce_sum[axes=(0,) out_sharding=None] c\n          b:f32[] = sqrt d\n        in (b,) }\n    ] a\n  in (b,) }",
    "stablehlo": "module @jit__lambda attributes {mhlo.num_partitions = 1 : i32, mhlo.num_replicas = 1 : i32} {\n  func.func public @main(%arg0: tensor<5xf32>) -> (tensor<f32> {jax.result_info = \"result\"}) {\n    %0 = call @norm(%arg0) : (tensor<5xf32>) -> tensor<f32>\n    return %0 : tensor<f32>\n  }\n  func.func private @norm(%arg0: tensor<5xf32>) -> tensor<f32> {\n    %0 = stablehlo.multiply %arg0, %arg0 : tensor<5xf32>\n    %cst = stablehlo.constant dense<0.000000e+00> : tensor<f32>\n    %1 = stablehlo.reduce(%0 init: %cst) applies stablehlo.add across dimensions = [0] : (tensor<5xf32>, tensor<f32>) -> tensor<f32>\n    %2 = stablehlo.sqrt %1 : tensor<f32>\n    return %2 : tensor<f32>\n  }\n}\n",
    "metadata": {
      "category": "linalg",
      "operation": "norm",
      "description": "Linear algebra: norm"
    }
  },
  {
    "python_code": "lambda x, y: jnp.outer(x, y)",
    "input_info": [
      {
        "shape": [
          3
        ],
        "dtype": "float32"
      },
      {
        "shape": [
          4
        ],
        "dtype": "float32"
      }
    ],
    "jaxpr": "{ lambda ; a:f32[3] b:f32[4]. let\n    c:f32[3,1] = broadcast_in_dim[\n      broadcast_dimensions=(0,)\n      shape=(3, 1)\n      sharding=None\n    ] a\n    d:f32[1,4] = broadcast_in_dim[\n      broadcast_dimensions=(1,)\n      shape=(1, 4)\n      sharding=None\n    ] b\n    e:f32[3,4] = mul c d\n  in (e,) }",
    "stablehlo": "module @jit__lambda attributes {mhlo.num_partitions = 1 : i32, mhlo.num_replicas = 1 : i32} {\n  func.func public @main(%arg0: tensor<3xf32>, %arg1: tensor<4xf32>) -> (tensor<3x4xf32> {jax.result_info = \"result\"}) {\n    %0 = stablehlo.broadcast_in_dim %arg0, dims = [0] : (tensor<3xf32>) -> tensor<3x1xf32>\n    %1 = stablehlo.broadcast_in_dim %arg1, dims = [1] : (tensor<4xf32>) -> tensor<1x4xf32>\n    %2 = stablehlo.broadcast_in_dim %0, dims = [0, 1] : (tensor<3x1xf32>) -> tensor<3x4xf32>\n    %3 = stablehlo.broadcast_in_dim %1, dims = [0, 1] : (tensor<1x4xf32>) -> tensor<3x4xf32>\n    %4 = stablehlo.multiply %2, %3 : tensor<3x4xf32>\n    return %4 : tensor<3x4xf32>\n  }\n}\n",
    "metadata": {
      "category": "linalg",
      "operation": "outer",
      "description": "Linear algebra: outer"
    }
  },
  {
    "python_code": "lambda x, y: jnp.dot(x, y)",
    "input_info": [
      {
        "shape": [
          5
        ],
        "dtype": "float32"
      },
      {
        "shape": [
          5
        ],
        "dtype": "float32"
      }
    ],
    "jaxpr": "{ lambda ; a:f32[5] b:f32[5]. let\n    c:f32[] = dot_general[\n      dimension_numbers=(([0], [0]), ([], []))\n      preferred_element_type=float32\n    ] a b\n  in (c,) }",
    "stablehlo": "module @jit__lambda attributes {mhlo.num_partitions = 1 : i32, mhlo.num_replicas = 1 : i32} {\n  func.func public @main(%arg0: tensor<5xf32>, %arg1: tensor<5xf32>) -> (tensor<f32> {jax.result_info = \"result\"}) {\n    %0 = stablehlo.dot_general %arg0, %arg1, contracting_dims = [0] x [0], precision = [DEFAULT, DEFAULT] : (tensor<5xf32>, tensor<5xf32>) -> tensor<f32>\n    return %0 : tensor<f32>\n  }\n}\n",
    "metadata": {
      "category": "linalg",
      "operation": "dot",
      "description": "Linear algebra: dot"
    }
  },
  {
    "python_code": "lambda x: jnp.linalg.norm(x)",
    "input_info": [
      {
        "shape": [
          5
        ],
        "dtype": "float32"
      }
    ],
    "jaxpr": "{ lambda ; a:f32[5]. let\n    b:f32[] = jit[\n      name=norm\n      jaxpr={ lambda ; a:f32[5]. let\n          c:f32[5] = mul a a\n          d:f32[] = reduce_sum[axes=(0,) out_sharding=None] c\n          b:f32[] = sqrt d\n        in (b,) }\n    ] a\n  in (b,) }",
    "stablehlo": "module @jit__lambda attributes {mhlo.num_partitions = 1 : i32, mhlo.num_replicas = 1 : i32} {\n  func.func public @main(%arg0: tensor<5xf32>) -> (tensor<f32> {jax.result_info = \"result\"}) {\n    %0 = call @norm(%arg0) : (tensor<5xf32>) -> tensor<f32>\n    return %0 : tensor<f32>\n  }\n  func.func private @norm(%arg0: tensor<5xf32>) -> tensor<f32> {\n    %0 = stablehlo.multiply %arg0, %arg0 : tensor<5xf32>\n    %cst = stablehlo.constant dense<0.000000e+00> : tensor<f32>\n    %1 = stablehlo.reduce(%0 init: %cst) applies stablehlo.add across dimensions = [0] : (tensor<5xf32>, tensor<f32>) -> tensor<f32>\n    %2 = stablehlo.sqrt %1 : tensor<f32>\n    return %2 : tensor<f32>\n  }\n}\n",
    "metadata": {
      "category": "linalg",
      "operation": "norm",
      "description": "Linear algebra: norm"
    }
  },
  {
    "python_code": "lambda x, y: jnp.dot(x, y)",
    "input_info": [
      {
        "shape": [
          5
        ],
        "dtype": "float32"
      },
      {
        "shape": [
          5
        ],
        "dtype": "float32"
      }
    ],
    "jaxpr": "{ lambda ; a:f32[5] b:f32[5]. let\n    c:f32[] = dot_general[\n      dimension_numbers=(([0], [0]), ([], []))\n      preferred_element_type=float32\n    ] a b\n  in (c,) }",
    "stablehlo": "module @jit__lambda attributes {mhlo.num_partitions = 1 : i32, mhlo.num_replicas = 1 : i32} {\n  func.func public @main(%arg0: tensor<5xf32>, %arg1: tensor<5xf32>) -> (tensor<f32> {jax.result_info = \"result\"}) {\n    %0 = stablehlo.dot_general %arg0, %arg1, contracting_dims = [0] x [0], precision = [DEFAULT, DEFAULT] : (tensor<5xf32>, tensor<5xf32>) -> tensor<f32>\n    return %0 : tensor<f32>\n  }\n}\n",
    "metadata": {
      "category": "linalg",
      "operation": "dot",
      "description": "Linear algebra: dot"
    }
  },
  {
    "python_code": "lambda x, y: jnp.dot(x, y)",
    "input_info": [
      {
        "shape": [
          5
        ],
        "dtype": "float32"
      },
      {
        "shape": [
          5
        ],
        "dtype": "float32"
      }
    ],
    "jaxpr": "{ lambda ; a:f32[5] b:f32[5]. let\n    c:f32[] = dot_general[\n      dimension_numbers=(([0], [0]), ([], []))\n      preferred_element_type=float32\n    ] a b\n  in (c,) }",
    "stablehlo": "module @jit__lambda attributes {mhlo.num_partitions = 1 : i32, mhlo.num_replicas = 1 : i32} {\n  func.func public @main(%arg0: tensor<5xf32>, %arg1: tensor<5xf32>) -> (tensor<f32> {jax.result_info = \"result\"}) {\n    %0 = stablehlo.dot_general %arg0, %arg1, contracting_dims = [0] x [0], precision = [DEFAULT, DEFAULT] : (tensor<5xf32>, tensor<5xf32>) -> tensor<f32>\n    return %0 : tensor<f32>\n  }\n}\n",
    "metadata": {
      "category": "linalg",
      "operation": "dot",
      "description": "Linear algebra: dot"
    }
  },
  {
    "python_code": "lambda x, y: jnp.dot(x, y)",
    "input_info": [
      {
        "shape": [
          5
        ],
        "dtype": "float32"
      },
      {
        "shape": [
          5
        ],
        "dtype": "float32"
      }
    ],
    "jaxpr": "{ lambda ; a:f32[5] b:f32[5]. let\n    c:f32[] = dot_general[\n      dimension_numbers=(([0], [0]), ([], []))\n      preferred_element_type=float32\n    ] a b\n  in (c,) }",
    "stablehlo": "module @jit__lambda attributes {mhlo.num_partitions = 1 : i32, mhlo.num_replicas = 1 : i32} {\n  func.func public @main(%arg0: tensor<5xf32>, %arg1: tensor<5xf32>) -> (tensor<f32> {jax.result_info = \"result\"}) {\n    %0 = stablehlo.dot_general %arg0, %arg1, contracting_dims = [0] x [0], precision = [DEFAULT, DEFAULT] : (tensor<5xf32>, tensor<5xf32>) -> tensor<f32>\n    return %0 : tensor<f32>\n  }\n}\n",
    "metadata": {
      "category": "linalg",
      "operation": "dot",
      "description": "Linear algebra: dot"
    }
  },
  {
    "python_code": "lambda x: jnp.linalg.norm(x)",
    "input_info": [
      {
        "shape": [
          5
        ],
        "dtype": "float32"
      }
    ],
    "jaxpr": "{ lambda ; a:f32[5]. let\n    b:f32[] = jit[\n      name=norm\n      jaxpr={ lambda ; a:f32[5]. let\n          c:f32[5] = mul a a\n          d:f32[] = reduce_sum[axes=(0,) out_sharding=None] c\n          b:f32[] = sqrt d\n        in (b,) }\n    ] a\n  in (b,) }",
    "stablehlo": "module @jit__lambda attributes {mhlo.num_partitions = 1 : i32, mhlo.num_replicas = 1 : i32} {\n  func.func public @main(%arg0: tensor<5xf32>) -> (tensor<f32> {jax.result_info = \"result\"}) {\n    %0 = call @norm(%arg0) : (tensor<5xf32>) -> tensor<f32>\n    return %0 : tensor<f32>\n  }\n  func.func private @norm(%arg0: tensor<5xf32>) -> tensor<f32> {\n    %0 = stablehlo.multiply %arg0, %arg0 : tensor<5xf32>\n    %cst = stablehlo.constant dense<0.000000e+00> : tensor<f32>\n    %1 = stablehlo.reduce(%0 init: %cst) applies stablehlo.add across dimensions = [0] : (tensor<5xf32>, tensor<f32>) -> tensor<f32>\n    %2 = stablehlo.sqrt %1 : tensor<f32>\n    return %2 : tensor<f32>\n  }\n}\n",
    "metadata": {
      "category": "linalg",
      "operation": "norm",
      "description": "Linear algebra: norm"
    }
  },
  {
    "python_code": "lambda x, y: jnp.outer(x, y)",
    "input_info": [
      {
        "shape": [
          3
        ],
        "dtype": "float32"
      },
      {
        "shape": [
          4
        ],
        "dtype": "float32"
      }
    ],
    "jaxpr": "{ lambda ; a:f32[3] b:f32[4]. let\n    c:f32[3,1] = broadcast_in_dim[\n      broadcast_dimensions=(0,)\n      shape=(3, 1)\n      sharding=None\n    ] a\n    d:f32[1,4] = broadcast_in_dim[\n      broadcast_dimensions=(1,)\n      shape=(1, 4)\n      sharding=None\n    ] b\n    e:f32[3,4] = mul c d\n  in (e,) }",
    "stablehlo": "module @jit__lambda attributes {mhlo.num_partitions = 1 : i32, mhlo.num_replicas = 1 : i32} {\n  func.func public @main(%arg0: tensor<3xf32>, %arg1: tensor<4xf32>) -> (tensor<3x4xf32> {jax.result_info = \"result\"}) {\n    %0 = stablehlo.broadcast_in_dim %arg0, dims = [0] : (tensor<3xf32>) -> tensor<3x1xf32>\n    %1 = stablehlo.broadcast_in_dim %arg1, dims = [1] : (tensor<4xf32>) -> tensor<1x4xf32>\n    %2 = stablehlo.broadcast_in_dim %0, dims = [0, 1] : (tensor<3x1xf32>) -> tensor<3x4xf32>\n    %3 = stablehlo.broadcast_in_dim %1, dims = [0, 1] : (tensor<1x4xf32>) -> tensor<3x4xf32>\n    %4 = stablehlo.multiply %2, %3 : tensor<3x4xf32>\n    return %4 : tensor<3x4xf32>\n  }\n}\n",
    "metadata": {
      "category": "linalg",
      "operation": "outer",
      "description": "Linear algebra: outer"
    }
  },
  {
    "python_code": "lambda x, y: jnp.dot(x, y)",
    "input_info": [
      {
        "shape": [
          5
        ],
        "dtype": "float32"
      },
      {
        "shape": [
          5
        ],
        "dtype": "float32"
      }
    ],
    "jaxpr": "{ lambda ; a:f32[5] b:f32[5]. let\n    c:f32[] = dot_general[\n      dimension_numbers=(([0], [0]), ([], []))\n      preferred_element_type=float32\n    ] a b\n  in (c,) }",
    "stablehlo": "module @jit__lambda attributes {mhlo.num_partitions = 1 : i32, mhlo.num_replicas = 1 : i32} {\n  func.func public @main(%arg0: tensor<5xf32>, %arg1: tensor<5xf32>) -> (tensor<f32> {jax.result_info = \"result\"}) {\n    %0 = stablehlo.dot_general %arg0, %arg1, contracting_dims = [0] x [0], precision = [DEFAULT, DEFAULT] : (tensor<5xf32>, tensor<5xf32>) -> tensor<f32>\n    return %0 : tensor<f32>\n  }\n}\n",
    "metadata": {
      "category": "linalg",
      "operation": "dot",
      "description": "Linear algebra: dot"
    }
  },
  {
    "python_code": "lambda x: jnp.linalg.norm(x)",
    "input_info": [
      {
        "shape": [
          5
        ],
        "dtype": "float32"
      }
    ],
    "jaxpr": "{ lambda ; a:f32[5]. let\n    b:f32[] = jit[\n      name=norm\n      jaxpr={ lambda ; a:f32[5]. let\n          c:f32[5] = mul a a\n          d:f32[] = reduce_sum[axes=(0,) out_sharding=None] c\n          b:f32[] = sqrt d\n        in (b,) }\n    ] a\n  in (b,) }",
    "stablehlo": "module @jit__lambda attributes {mhlo.num_partitions = 1 : i32, mhlo.num_replicas = 1 : i32} {\n  func.func public @main(%arg0: tensor<5xf32>) -> (tensor<f32> {jax.result_info = \"result\"}) {\n    %0 = call @norm(%arg0) : (tensor<5xf32>) -> tensor<f32>\n    return %0 : tensor<f32>\n  }\n  func.func private @norm(%arg0: tensor<5xf32>) -> tensor<f32> {\n    %0 = stablehlo.multiply %arg0, %arg0 : tensor<5xf32>\n    %cst = stablehlo.constant dense<0.000000e+00> : tensor<f32>\n    %1 = stablehlo.reduce(%0 init: %cst) applies stablehlo.add across dimensions = [0] : (tensor<5xf32>, tensor<f32>) -> tensor<f32>\n    %2 = stablehlo.sqrt %1 : tensor<f32>\n    return %2 : tensor<f32>\n  }\n}\n",
    "metadata": {
      "category": "linalg",
      "operation": "norm",
      "description": "Linear algebra: norm"
    }
  },
  {
    "python_code": "lambda x: jnp.linalg.norm(x)",
    "input_info": [
      {
        "shape": [
          5
        ],
        "dtype": "float32"
      }
    ],
    "jaxpr": "{ lambda ; a:f32[5]. let\n    b:f32[] = jit[\n      name=norm\n      jaxpr={ lambda ; a:f32[5]. let\n          c:f32[5] = mul a a\n          d:f32[] = reduce_sum[axes=(0,) out_sharding=None] c\n          b:f32[] = sqrt d\n        in (b,) }\n    ] a\n  in (b,) }",
    "stablehlo": "module @jit__lambda attributes {mhlo.num_partitions = 1 : i32, mhlo.num_replicas = 1 : i32} {\n  func.func public @main(%arg0: tensor<5xf32>) -> (tensor<f32> {jax.result_info = \"result\"}) {\n    %0 = call @norm(%arg0) : (tensor<5xf32>) -> tensor<f32>\n    return %0 : tensor<f32>\n  }\n  func.func private @norm(%arg0: tensor<5xf32>) -> tensor<f32> {\n    %0 = stablehlo.multiply %arg0, %arg0 : tensor<5xf32>\n    %cst = stablehlo.constant dense<0.000000e+00> : tensor<f32>\n    %1 = stablehlo.reduce(%0 init: %cst) applies stablehlo.add across dimensions = [0] : (tensor<5xf32>, tensor<f32>) -> tensor<f32>\n    %2 = stablehlo.sqrt %1 : tensor<f32>\n    return %2 : tensor<f32>\n  }\n}\n",
    "metadata": {
      "category": "linalg",
      "operation": "norm",
      "description": "Linear algebra: norm"
    }
  },
  {
    "python_code": "lambda x, y: jnp.outer(x, y)",
    "input_info": [
      {
        "shape": [
          3
        ],
        "dtype": "float32"
      },
      {
        "shape": [
          4
        ],
        "dtype": "float32"
      }
    ],
    "jaxpr": "{ lambda ; a:f32[3] b:f32[4]. let\n    c:f32[3,1] = broadcast_in_dim[\n      broadcast_dimensions=(0,)\n      shape=(3, 1)\n      sharding=None\n    ] a\n    d:f32[1,4] = broadcast_in_dim[\n      broadcast_dimensions=(1,)\n      shape=(1, 4)\n      sharding=None\n    ] b\n    e:f32[3,4] = mul c d\n  in (e,) }",
    "stablehlo": "module @jit__lambda attributes {mhlo.num_partitions = 1 : i32, mhlo.num_replicas = 1 : i32} {\n  func.func public @main(%arg0: tensor<3xf32>, %arg1: tensor<4xf32>) -> (tensor<3x4xf32> {jax.result_info = \"result\"}) {\n    %0 = stablehlo.broadcast_in_dim %arg0, dims = [0] : (tensor<3xf32>) -> tensor<3x1xf32>\n    %1 = stablehlo.broadcast_in_dim %arg1, dims = [1] : (tensor<4xf32>) -> tensor<1x4xf32>\n    %2 = stablehlo.broadcast_in_dim %0, dims = [0, 1] : (tensor<3x1xf32>) -> tensor<3x4xf32>\n    %3 = stablehlo.broadcast_in_dim %1, dims = [0, 1] : (tensor<1x4xf32>) -> tensor<3x4xf32>\n    %4 = stablehlo.multiply %2, %3 : tensor<3x4xf32>\n    return %4 : tensor<3x4xf32>\n  }\n}\n",
    "metadata": {
      "category": "linalg",
      "operation": "outer",
      "description": "Linear algebra: outer"
    }
  },
  {
    "python_code": "lambda x: jnp.linalg.norm(x)",
    "input_info": [
      {
        "shape": [
          5
        ],
        "dtype": "float32"
      }
    ],
    "jaxpr": "{ lambda ; a:f32[5]. let\n    b:f32[] = jit[\n      name=norm\n      jaxpr={ lambda ; a:f32[5]. let\n          c:f32[5] = mul a a\n          d:f32[] = reduce_sum[axes=(0,) out_sharding=None] c\n          b:f32[] = sqrt d\n        in (b,) }\n    ] a\n  in (b,) }",
    "stablehlo": "module @jit__lambda attributes {mhlo.num_partitions = 1 : i32, mhlo.num_replicas = 1 : i32} {\n  func.func public @main(%arg0: tensor<5xf32>) -> (tensor<f32> {jax.result_info = \"result\"}) {\n    %0 = call @norm(%arg0) : (tensor<5xf32>) -> tensor<f32>\n    return %0 : tensor<f32>\n  }\n  func.func private @norm(%arg0: tensor<5xf32>) -> tensor<f32> {\n    %0 = stablehlo.multiply %arg0, %arg0 : tensor<5xf32>\n    %cst = stablehlo.constant dense<0.000000e+00> : tensor<f32>\n    %1 = stablehlo.reduce(%0 init: %cst) applies stablehlo.add across dimensions = [0] : (tensor<5xf32>, tensor<f32>) -> tensor<f32>\n    %2 = stablehlo.sqrt %1 : tensor<f32>\n    return %2 : tensor<f32>\n  }\n}\n",
    "metadata": {
      "category": "linalg",
      "operation": "norm",
      "description": "Linear algebra: norm"
    }
  },
  {
    "python_code": "lambda x: jnp.linalg.norm(x)",
    "input_info": [
      {
        "shape": [
          5
        ],
        "dtype": "float32"
      }
    ],
    "jaxpr": "{ lambda ; a:f32[5]. let\n    b:f32[] = jit[\n      name=norm\n      jaxpr={ lambda ; a:f32[5]. let\n          c:f32[5] = mul a a\n          d:f32[] = reduce_sum[axes=(0,) out_sharding=None] c\n          b:f32[] = sqrt d\n        in (b,) }\n    ] a\n  in (b,) }",
    "stablehlo": "module @jit__lambda attributes {mhlo.num_partitions = 1 : i32, mhlo.num_replicas = 1 : i32} {\n  func.func public @main(%arg0: tensor<5xf32>) -> (tensor<f32> {jax.result_info = \"result\"}) {\n    %0 = call @norm(%arg0) : (tensor<5xf32>) -> tensor<f32>\n    return %0 : tensor<f32>\n  }\n  func.func private @norm(%arg0: tensor<5xf32>) -> tensor<f32> {\n    %0 = stablehlo.multiply %arg0, %arg0 : tensor<5xf32>\n    %cst = stablehlo.constant dense<0.000000e+00> : tensor<f32>\n    %1 = stablehlo.reduce(%0 init: %cst) applies stablehlo.add across dimensions = [0] : (tensor<5xf32>, tensor<f32>) -> tensor<f32>\n    %2 = stablehlo.sqrt %1 : tensor<f32>\n    return %2 : tensor<f32>\n  }\n}\n",
    "metadata": {
      "category": "linalg",
      "operation": "norm",
      "description": "Linear algebra: norm"
    }
  },
  {
    "python_code": "lambda A, B: jnp.matmul(A, B)",
    "input_info": [
      {
        "shape": [
          3,
          4
        ],
        "dtype": "float32"
      },
      {
        "shape": [
          4,
          5
        ],
        "dtype": "float32"
      }
    ],
    "jaxpr": "{ lambda ; a:f32[3,4] b:f32[4,5]. let\n    c:f32[3,5] = dot_general[\n      dimension_numbers=(([1], [0]), ([], []))\n      preferred_element_type=float32\n    ] a b\n  in (c,) }",
    "stablehlo": "module @jit__lambda attributes {mhlo.num_partitions = 1 : i32, mhlo.num_replicas = 1 : i32} {\n  func.func public @main(%arg0: tensor<3x4xf32>, %arg1: tensor<4x5xf32>) -> (tensor<3x5xf32> {jax.result_info = \"result\"}) {\n    %0 = stablehlo.dot_general %arg0, %arg1, contracting_dims = [1] x [0], precision = [DEFAULT, DEFAULT] : (tensor<3x4xf32>, tensor<4x5xf32>) -> tensor<3x5xf32>\n    return %0 : tensor<3x5xf32>\n  }\n}\n",
    "metadata": {
      "category": "linalg",
      "operation": "matmul",
      "description": "Linear algebra: matmul"
    }
  },
  {
    "python_code": "lambda x: jnp.linalg.norm(x)",
    "input_info": [
      {
        "shape": [
          5
        ],
        "dtype": "float32"
      }
    ],
    "jaxpr": "{ lambda ; a:f32[5]. let\n    b:f32[] = jit[\n      name=norm\n      jaxpr={ lambda ; a:f32[5]. let\n          c:f32[5] = mul a a\n          d:f32[] = reduce_sum[axes=(0,) out_sharding=None] c\n          b:f32[] = sqrt d\n        in (b,) }\n    ] a\n  in (b,) }",
    "stablehlo": "module @jit__lambda attributes {mhlo.num_partitions = 1 : i32, mhlo.num_replicas = 1 : i32} {\n  func.func public @main(%arg0: tensor<5xf32>) -> (tensor<f32> {jax.result_info = \"result\"}) {\n    %0 = call @norm(%arg0) : (tensor<5xf32>) -> tensor<f32>\n    return %0 : tensor<f32>\n  }\n  func.func private @norm(%arg0: tensor<5xf32>) -> tensor<f32> {\n    %0 = stablehlo.multiply %arg0, %arg0 : tensor<5xf32>\n    %cst = stablehlo.constant dense<0.000000e+00> : tensor<f32>\n    %1 = stablehlo.reduce(%0 init: %cst) applies stablehlo.add across dimensions = [0] : (tensor<5xf32>, tensor<f32>) -> tensor<f32>\n    %2 = stablehlo.sqrt %1 : tensor<f32>\n    return %2 : tensor<f32>\n  }\n}\n",
    "metadata": {
      "category": "linalg",
      "operation": "norm",
      "description": "Linear algebra: norm"
    }
  },
  {
    "python_code": "lambda x, y: jnp.outer(x, y)",
    "input_info": [
      {
        "shape": [
          3
        ],
        "dtype": "float32"
      },
      {
        "shape": [
          4
        ],
        "dtype": "float32"
      }
    ],
    "jaxpr": "{ lambda ; a:f32[3] b:f32[4]. let\n    c:f32[3,1] = broadcast_in_dim[\n      broadcast_dimensions=(0,)\n      shape=(3, 1)\n      sharding=None\n    ] a\n    d:f32[1,4] = broadcast_in_dim[\n      broadcast_dimensions=(1,)\n      shape=(1, 4)\n      sharding=None\n    ] b\n    e:f32[3,4] = mul c d\n  in (e,) }",
    "stablehlo": "module @jit__lambda attributes {mhlo.num_partitions = 1 : i32, mhlo.num_replicas = 1 : i32} {\n  func.func public @main(%arg0: tensor<3xf32>, %arg1: tensor<4xf32>) -> (tensor<3x4xf32> {jax.result_info = \"result\"}) {\n    %0 = stablehlo.broadcast_in_dim %arg0, dims = [0] : (tensor<3xf32>) -> tensor<3x1xf32>\n    %1 = stablehlo.broadcast_in_dim %arg1, dims = [1] : (tensor<4xf32>) -> tensor<1x4xf32>\n    %2 = stablehlo.broadcast_in_dim %0, dims = [0, 1] : (tensor<3x1xf32>) -> tensor<3x4xf32>\n    %3 = stablehlo.broadcast_in_dim %1, dims = [0, 1] : (tensor<1x4xf32>) -> tensor<3x4xf32>\n    %4 = stablehlo.multiply %2, %3 : tensor<3x4xf32>\n    return %4 : tensor<3x4xf32>\n  }\n}\n",
    "metadata": {
      "category": "linalg",
      "operation": "outer",
      "description": "Linear algebra: outer"
    }
  },
  {
    "python_code": "lambda x, y: jnp.outer(x, y)",
    "input_info": [
      {
        "shape": [
          3
        ],
        "dtype": "float32"
      },
      {
        "shape": [
          4
        ],
        "dtype": "float32"
      }
    ],
    "jaxpr": "{ lambda ; a:f32[3] b:f32[4]. let\n    c:f32[3,1] = broadcast_in_dim[\n      broadcast_dimensions=(0,)\n      shape=(3, 1)\n      sharding=None\n    ] a\n    d:f32[1,4] = broadcast_in_dim[\n      broadcast_dimensions=(1,)\n      shape=(1, 4)\n      sharding=None\n    ] b\n    e:f32[3,4] = mul c d\n  in (e,) }",
    "stablehlo": "module @jit__lambda attributes {mhlo.num_partitions = 1 : i32, mhlo.num_replicas = 1 : i32} {\n  func.func public @main(%arg0: tensor<3xf32>, %arg1: tensor<4xf32>) -> (tensor<3x4xf32> {jax.result_info = \"result\"}) {\n    %0 = stablehlo.broadcast_in_dim %arg0, dims = [0] : (tensor<3xf32>) -> tensor<3x1xf32>\n    %1 = stablehlo.broadcast_in_dim %arg1, dims = [1] : (tensor<4xf32>) -> tensor<1x4xf32>\n    %2 = stablehlo.broadcast_in_dim %0, dims = [0, 1] : (tensor<3x1xf32>) -> tensor<3x4xf32>\n    %3 = stablehlo.broadcast_in_dim %1, dims = [0, 1] : (tensor<1x4xf32>) -> tensor<3x4xf32>\n    %4 = stablehlo.multiply %2, %3 : tensor<3x4xf32>\n    return %4 : tensor<3x4xf32>\n  }\n}\n",
    "metadata": {
      "category": "linalg",
      "operation": "outer",
      "description": "Linear algebra: outer"
    }
  },
  {
    "python_code": "lambda x, y: jnp.dot(x, y)",
    "input_info": [
      {
        "shape": [
          5
        ],
        "dtype": "float32"
      },
      {
        "shape": [
          5
        ],
        "dtype": "float32"
      }
    ],
    "jaxpr": "{ lambda ; a:f32[5] b:f32[5]. let\n    c:f32[] = dot_general[\n      dimension_numbers=(([0], [0]), ([], []))\n      preferred_element_type=float32\n    ] a b\n  in (c,) }",
    "stablehlo": "module @jit__lambda attributes {mhlo.num_partitions = 1 : i32, mhlo.num_replicas = 1 : i32} {\n  func.func public @main(%arg0: tensor<5xf32>, %arg1: tensor<5xf32>) -> (tensor<f32> {jax.result_info = \"result\"}) {\n    %0 = stablehlo.dot_general %arg0, %arg1, contracting_dims = [0] x [0], precision = [DEFAULT, DEFAULT] : (tensor<5xf32>, tensor<5xf32>) -> tensor<f32>\n    return %0 : tensor<f32>\n  }\n}\n",
    "metadata": {
      "category": "linalg",
      "operation": "dot",
      "description": "Linear algebra: dot"
    }
  },
  {
    "python_code": "lambda x: jnp.linalg.norm(x)",
    "input_info": [
      {
        "shape": [
          5
        ],
        "dtype": "float32"
      }
    ],
    "jaxpr": "{ lambda ; a:f32[5]. let\n    b:f32[] = jit[\n      name=norm\n      jaxpr={ lambda ; a:f32[5]. let\n          c:f32[5] = mul a a\n          d:f32[] = reduce_sum[axes=(0,) out_sharding=None] c\n          b:f32[] = sqrt d\n        in (b,) }\n    ] a\n  in (b,) }",
    "stablehlo": "module @jit__lambda attributes {mhlo.num_partitions = 1 : i32, mhlo.num_replicas = 1 : i32} {\n  func.func public @main(%arg0: tensor<5xf32>) -> (tensor<f32> {jax.result_info = \"result\"}) {\n    %0 = call @norm(%arg0) : (tensor<5xf32>) -> tensor<f32>\n    return %0 : tensor<f32>\n  }\n  func.func private @norm(%arg0: tensor<5xf32>) -> tensor<f32> {\n    %0 = stablehlo.multiply %arg0, %arg0 : tensor<5xf32>\n    %cst = stablehlo.constant dense<0.000000e+00> : tensor<f32>\n    %1 = stablehlo.reduce(%0 init: %cst) applies stablehlo.add across dimensions = [0] : (tensor<5xf32>, tensor<f32>) -> tensor<f32>\n    %2 = stablehlo.sqrt %1 : tensor<f32>\n    return %2 : tensor<f32>\n  }\n}\n",
    "metadata": {
      "category": "linalg",
      "operation": "norm",
      "description": "Linear algebra: norm"
    }
  },
  {
    "python_code": "lambda x: jnp.linalg.norm(x)",
    "input_info": [
      {
        "shape": [
          5
        ],
        "dtype": "float32"
      }
    ],
    "jaxpr": "{ lambda ; a:f32[5]. let\n    b:f32[] = jit[\n      name=norm\n      jaxpr={ lambda ; a:f32[5]. let\n          c:f32[5] = mul a a\n          d:f32[] = reduce_sum[axes=(0,) out_sharding=None] c\n          b:f32[] = sqrt d\n        in (b,) }\n    ] a\n  in (b,) }",
    "stablehlo": "module @jit__lambda attributes {mhlo.num_partitions = 1 : i32, mhlo.num_replicas = 1 : i32} {\n  func.func public @main(%arg0: tensor<5xf32>) -> (tensor<f32> {jax.result_info = \"result\"}) {\n    %0 = call @norm(%arg0) : (tensor<5xf32>) -> tensor<f32>\n    return %0 : tensor<f32>\n  }\n  func.func private @norm(%arg0: tensor<5xf32>) -> tensor<f32> {\n    %0 = stablehlo.multiply %arg0, %arg0 : tensor<5xf32>\n    %cst = stablehlo.constant dense<0.000000e+00> : tensor<f32>\n    %1 = stablehlo.reduce(%0 init: %cst) applies stablehlo.add across dimensions = [0] : (tensor<5xf32>, tensor<f32>) -> tensor<f32>\n    %2 = stablehlo.sqrt %1 : tensor<f32>\n    return %2 : tensor<f32>\n  }\n}\n",
    "metadata": {
      "category": "linalg",
      "operation": "norm",
      "description": "Linear algebra: norm"
    }
  },
  {
    "python_code": "lambda x: jnp.linalg.norm(x)",
    "input_info": [
      {
        "shape": [
          5
        ],
        "dtype": "float32"
      }
    ],
    "jaxpr": "{ lambda ; a:f32[5]. let\n    b:f32[] = jit[\n      name=norm\n      jaxpr={ lambda ; a:f32[5]. let\n          c:f32[5] = mul a a\n          d:f32[] = reduce_sum[axes=(0,) out_sharding=None] c\n          b:f32[] = sqrt d\n        in (b,) }\n    ] a\n  in (b,) }",
    "stablehlo": "module @jit__lambda attributes {mhlo.num_partitions = 1 : i32, mhlo.num_replicas = 1 : i32} {\n  func.func public @main(%arg0: tensor<5xf32>) -> (tensor<f32> {jax.result_info = \"result\"}) {\n    %0 = call @norm(%arg0) : (tensor<5xf32>) -> tensor<f32>\n    return %0 : tensor<f32>\n  }\n  func.func private @norm(%arg0: tensor<5xf32>) -> tensor<f32> {\n    %0 = stablehlo.multiply %arg0, %arg0 : tensor<5xf32>\n    %cst = stablehlo.constant dense<0.000000e+00> : tensor<f32>\n    %1 = stablehlo.reduce(%0 init: %cst) applies stablehlo.add across dimensions = [0] : (tensor<5xf32>, tensor<f32>) -> tensor<f32>\n    %2 = stablehlo.sqrt %1 : tensor<f32>\n    return %2 : tensor<f32>\n  }\n}\n",
    "metadata": {
      "category": "linalg",
      "operation": "norm",
      "description": "Linear algebra: norm"
    }
  },
  {
    "python_code": "lambda x: jnp.linalg.norm(x)",
    "input_info": [
      {
        "shape": [
          5
        ],
        "dtype": "float32"
      }
    ],
    "jaxpr": "{ lambda ; a:f32[5]. let\n    b:f32[] = jit[\n      name=norm\n      jaxpr={ lambda ; a:f32[5]. let\n          c:f32[5] = mul a a\n          d:f32[] = reduce_sum[axes=(0,) out_sharding=None] c\n          b:f32[] = sqrt d\n        in (b,) }\n    ] a\n  in (b,) }",
    "stablehlo": "module @jit__lambda attributes {mhlo.num_partitions = 1 : i32, mhlo.num_replicas = 1 : i32} {\n  func.func public @main(%arg0: tensor<5xf32>) -> (tensor<f32> {jax.result_info = \"result\"}) {\n    %0 = call @norm(%arg0) : (tensor<5xf32>) -> tensor<f32>\n    return %0 : tensor<f32>\n  }\n  func.func private @norm(%arg0: tensor<5xf32>) -> tensor<f32> {\n    %0 = stablehlo.multiply %arg0, %arg0 : tensor<5xf32>\n    %cst = stablehlo.constant dense<0.000000e+00> : tensor<f32>\n    %1 = stablehlo.reduce(%0 init: %cst) applies stablehlo.add across dimensions = [0] : (tensor<5xf32>, tensor<f32>) -> tensor<f32>\n    %2 = stablehlo.sqrt %1 : tensor<f32>\n    return %2 : tensor<f32>\n  }\n}\n",
    "metadata": {
      "category": "linalg",
      "operation": "norm",
      "description": "Linear algebra: norm"
    }
  },
  {
    "python_code": "lambda x, y: jnp.outer(x, y)",
    "input_info": [
      {
        "shape": [
          3
        ],
        "dtype": "float32"
      },
      {
        "shape": [
          4
        ],
        "dtype": "float32"
      }
    ],
    "jaxpr": "{ lambda ; a:f32[3] b:f32[4]. let\n    c:f32[3,1] = broadcast_in_dim[\n      broadcast_dimensions=(0,)\n      shape=(3, 1)\n      sharding=None\n    ] a\n    d:f32[1,4] = broadcast_in_dim[\n      broadcast_dimensions=(1,)\n      shape=(1, 4)\n      sharding=None\n    ] b\n    e:f32[3,4] = mul c d\n  in (e,) }",
    "stablehlo": "module @jit__lambda attributes {mhlo.num_partitions = 1 : i32, mhlo.num_replicas = 1 : i32} {\n  func.func public @main(%arg0: tensor<3xf32>, %arg1: tensor<4xf32>) -> (tensor<3x4xf32> {jax.result_info = \"result\"}) {\n    %0 = stablehlo.broadcast_in_dim %arg0, dims = [0] : (tensor<3xf32>) -> tensor<3x1xf32>\n    %1 = stablehlo.broadcast_in_dim %arg1, dims = [1] : (tensor<4xf32>) -> tensor<1x4xf32>\n    %2 = stablehlo.broadcast_in_dim %0, dims = [0, 1] : (tensor<3x1xf32>) -> tensor<3x4xf32>\n    %3 = stablehlo.broadcast_in_dim %1, dims = [0, 1] : (tensor<1x4xf32>) -> tensor<3x4xf32>\n    %4 = stablehlo.multiply %2, %3 : tensor<3x4xf32>\n    return %4 : tensor<3x4xf32>\n  }\n}\n",
    "metadata": {
      "category": "linalg",
      "operation": "outer",
      "description": "Linear algebra: outer"
    }
  },
  {
    "python_code": "lambda x, y: jnp.dot(x, y)",
    "input_info": [
      {
        "shape": [
          5
        ],
        "dtype": "float32"
      },
      {
        "shape": [
          5
        ],
        "dtype": "float32"
      }
    ],
    "jaxpr": "{ lambda ; a:f32[5] b:f32[5]. let\n    c:f32[] = dot_general[\n      dimension_numbers=(([0], [0]), ([], []))\n      preferred_element_type=float32\n    ] a b\n  in (c,) }",
    "stablehlo": "module @jit__lambda attributes {mhlo.num_partitions = 1 : i32, mhlo.num_replicas = 1 : i32} {\n  func.func public @main(%arg0: tensor<5xf32>, %arg1: tensor<5xf32>) -> (tensor<f32> {jax.result_info = \"result\"}) {\n    %0 = stablehlo.dot_general %arg0, %arg1, contracting_dims = [0] x [0], precision = [DEFAULT, DEFAULT] : (tensor<5xf32>, tensor<5xf32>) -> tensor<f32>\n    return %0 : tensor<f32>\n  }\n}\n",
    "metadata": {
      "category": "linalg",
      "operation": "dot",
      "description": "Linear algebra: dot"
    }
  },
  {
    "python_code": "lambda A, B: jnp.matmul(A, B)",
    "input_info": [
      {
        "shape": [
          3,
          4
        ],
        "dtype": "float32"
      },
      {
        "shape": [
          4,
          5
        ],
        "dtype": "float32"
      }
    ],
    "jaxpr": "{ lambda ; a:f32[3,4] b:f32[4,5]. let\n    c:f32[3,5] = dot_general[\n      dimension_numbers=(([1], [0]), ([], []))\n      preferred_element_type=float32\n    ] a b\n  in (c,) }",
    "stablehlo": "module @jit__lambda attributes {mhlo.num_partitions = 1 : i32, mhlo.num_replicas = 1 : i32} {\n  func.func public @main(%arg0: tensor<3x4xf32>, %arg1: tensor<4x5xf32>) -> (tensor<3x5xf32> {jax.result_info = \"result\"}) {\n    %0 = stablehlo.dot_general %arg0, %arg1, contracting_dims = [1] x [0], precision = [DEFAULT, DEFAULT] : (tensor<3x4xf32>, tensor<4x5xf32>) -> tensor<3x5xf32>\n    return %0 : tensor<3x5xf32>\n  }\n}\n",
    "metadata": {
      "category": "linalg",
      "operation": "matmul",
      "description": "Linear algebra: matmul"
    }
  },
  {
    "python_code": "lambda x, y: jnp.outer(x, y)",
    "input_info": [
      {
        "shape": [
          3
        ],
        "dtype": "float32"
      },
      {
        "shape": [
          4
        ],
        "dtype": "float32"
      }
    ],
    "jaxpr": "{ lambda ; a:f32[3] b:f32[4]. let\n    c:f32[3,1] = broadcast_in_dim[\n      broadcast_dimensions=(0,)\n      shape=(3, 1)\n      sharding=None\n    ] a\n    d:f32[1,4] = broadcast_in_dim[\n      broadcast_dimensions=(1,)\n      shape=(1, 4)\n      sharding=None\n    ] b\n    e:f32[3,4] = mul c d\n  in (e,) }",
    "stablehlo": "module @jit__lambda attributes {mhlo.num_partitions = 1 : i32, mhlo.num_replicas = 1 : i32} {\n  func.func public @main(%arg0: tensor<3xf32>, %arg1: tensor<4xf32>) -> (tensor<3x4xf32> {jax.result_info = \"result\"}) {\n    %0 = stablehlo.broadcast_in_dim %arg0, dims = [0] : (tensor<3xf32>) -> tensor<3x1xf32>\n    %1 = stablehlo.broadcast_in_dim %arg1, dims = [1] : (tensor<4xf32>) -> tensor<1x4xf32>\n    %2 = stablehlo.broadcast_in_dim %0, dims = [0, 1] : (tensor<3x1xf32>) -> tensor<3x4xf32>\n    %3 = stablehlo.broadcast_in_dim %1, dims = [0, 1] : (tensor<1x4xf32>) -> tensor<3x4xf32>\n    %4 = stablehlo.multiply %2, %3 : tensor<3x4xf32>\n    return %4 : tensor<3x4xf32>\n  }\n}\n",
    "metadata": {
      "category": "linalg",
      "operation": "outer",
      "description": "Linear algebra: outer"
    }
  },
  {
    "python_code": "lambda x, y: jnp.dot(x, y)",
    "input_info": [
      {
        "shape": [
          5
        ],
        "dtype": "float32"
      },
      {
        "shape": [
          5
        ],
        "dtype": "float32"
      }
    ],
    "jaxpr": "{ lambda ; a:f32[5] b:f32[5]. let\n    c:f32[] = dot_general[\n      dimension_numbers=(([0], [0]), ([], []))\n      preferred_element_type=float32\n    ] a b\n  in (c,) }",
    "stablehlo": "module @jit__lambda attributes {mhlo.num_partitions = 1 : i32, mhlo.num_replicas = 1 : i32} {\n  func.func public @main(%arg0: tensor<5xf32>, %arg1: tensor<5xf32>) -> (tensor<f32> {jax.result_info = \"result\"}) {\n    %0 = stablehlo.dot_general %arg0, %arg1, contracting_dims = [0] x [0], precision = [DEFAULT, DEFAULT] : (tensor<5xf32>, tensor<5xf32>) -> tensor<f32>\n    return %0 : tensor<f32>\n  }\n}\n",
    "metadata": {
      "category": "linalg",
      "operation": "dot",
      "description": "Linear algebra: dot"
    }
  },
  {
    "python_code": "lambda x, y: jnp.outer(x, y)",
    "input_info": [
      {
        "shape": [
          3
        ],
        "dtype": "float32"
      },
      {
        "shape": [
          4
        ],
        "dtype": "float32"
      }
    ],
    "jaxpr": "{ lambda ; a:f32[3] b:f32[4]. let\n    c:f32[3,1] = broadcast_in_dim[\n      broadcast_dimensions=(0,)\n      shape=(3, 1)\n      sharding=None\n    ] a\n    d:f32[1,4] = broadcast_in_dim[\n      broadcast_dimensions=(1,)\n      shape=(1, 4)\n      sharding=None\n    ] b\n    e:f32[3,4] = mul c d\n  in (e,) }",
    "stablehlo": "module @jit__lambda attributes {mhlo.num_partitions = 1 : i32, mhlo.num_replicas = 1 : i32} {\n  func.func public @main(%arg0: tensor<3xf32>, %arg1: tensor<4xf32>) -> (tensor<3x4xf32> {jax.result_info = \"result\"}) {\n    %0 = stablehlo.broadcast_in_dim %arg0, dims = [0] : (tensor<3xf32>) -> tensor<3x1xf32>\n    %1 = stablehlo.broadcast_in_dim %arg1, dims = [1] : (tensor<4xf32>) -> tensor<1x4xf32>\n    %2 = stablehlo.broadcast_in_dim %0, dims = [0, 1] : (tensor<3x1xf32>) -> tensor<3x4xf32>\n    %3 = stablehlo.broadcast_in_dim %1, dims = [0, 1] : (tensor<1x4xf32>) -> tensor<3x4xf32>\n    %4 = stablehlo.multiply %2, %3 : tensor<3x4xf32>\n    return %4 : tensor<3x4xf32>\n  }\n}\n",
    "metadata": {
      "category": "linalg",
      "operation": "outer",
      "description": "Linear algebra: outer"
    }
  },
  {
    "python_code": "lambda x, y: jnp.dot(x, y)",
    "input_info": [
      {
        "shape": [
          5
        ],
        "dtype": "float32"
      },
      {
        "shape": [
          5
        ],
        "dtype": "float32"
      }
    ],
    "jaxpr": "{ lambda ; a:f32[5] b:f32[5]. let\n    c:f32[] = dot_general[\n      dimension_numbers=(([0], [0]), ([], []))\n      preferred_element_type=float32\n    ] a b\n  in (c,) }",
    "stablehlo": "module @jit__lambda attributes {mhlo.num_partitions = 1 : i32, mhlo.num_replicas = 1 : i32} {\n  func.func public @main(%arg0: tensor<5xf32>, %arg1: tensor<5xf32>) -> (tensor<f32> {jax.result_info = \"result\"}) {\n    %0 = stablehlo.dot_general %arg0, %arg1, contracting_dims = [0] x [0], precision = [DEFAULT, DEFAULT] : (tensor<5xf32>, tensor<5xf32>) -> tensor<f32>\n    return %0 : tensor<f32>\n  }\n}\n",
    "metadata": {
      "category": "linalg",
      "operation": "dot",
      "description": "Linear algebra: dot"
    }
  },
  {
    "python_code": "lambda x, y: jnp.dot(x, y)",
    "input_info": [
      {
        "shape": [
          5
        ],
        "dtype": "float32"
      },
      {
        "shape": [
          5
        ],
        "dtype": "float32"
      }
    ],
    "jaxpr": "{ lambda ; a:f32[5] b:f32[5]. let\n    c:f32[] = dot_general[\n      dimension_numbers=(([0], [0]), ([], []))\n      preferred_element_type=float32\n    ] a b\n  in (c,) }",
    "stablehlo": "module @jit__lambda attributes {mhlo.num_partitions = 1 : i32, mhlo.num_replicas = 1 : i32} {\n  func.func public @main(%arg0: tensor<5xf32>, %arg1: tensor<5xf32>) -> (tensor<f32> {jax.result_info = \"result\"}) {\n    %0 = stablehlo.dot_general %arg0, %arg1, contracting_dims = [0] x [0], precision = [DEFAULT, DEFAULT] : (tensor<5xf32>, tensor<5xf32>) -> tensor<f32>\n    return %0 : tensor<f32>\n  }\n}\n",
    "metadata": {
      "category": "linalg",
      "operation": "dot",
      "description": "Linear algebra: dot"
    }
  },
  {
    "python_code": "lambda x, y: jnp.dot(x, y)",
    "input_info": [
      {
        "shape": [
          5
        ],
        "dtype": "float32"
      },
      {
        "shape": [
          5
        ],
        "dtype": "float32"
      }
    ],
    "jaxpr": "{ lambda ; a:f32[5] b:f32[5]. let\n    c:f32[] = dot_general[\n      dimension_numbers=(([0], [0]), ([], []))\n      preferred_element_type=float32\n    ] a b\n  in (c,) }",
    "stablehlo": "module @jit__lambda attributes {mhlo.num_partitions = 1 : i32, mhlo.num_replicas = 1 : i32} {\n  func.func public @main(%arg0: tensor<5xf32>, %arg1: tensor<5xf32>) -> (tensor<f32> {jax.result_info = \"result\"}) {\n    %0 = stablehlo.dot_general %arg0, %arg1, contracting_dims = [0] x [0], precision = [DEFAULT, DEFAULT] : (tensor<5xf32>, tensor<5xf32>) -> tensor<f32>\n    return %0 : tensor<f32>\n  }\n}\n",
    "metadata": {
      "category": "linalg",
      "operation": "dot",
      "description": "Linear algebra: dot"
    }
  },
  {
    "python_code": "lambda x, y: jnp.dot(x, y)",
    "input_info": [
      {
        "shape": [
          5
        ],
        "dtype": "float32"
      },
      {
        "shape": [
          5
        ],
        "dtype": "float32"
      }
    ],
    "jaxpr": "{ lambda ; a:f32[5] b:f32[5]. let\n    c:f32[] = dot_general[\n      dimension_numbers=(([0], [0]), ([], []))\n      preferred_element_type=float32\n    ] a b\n  in (c,) }",
    "stablehlo": "module @jit__lambda attributes {mhlo.num_partitions = 1 : i32, mhlo.num_replicas = 1 : i32} {\n  func.func public @main(%arg0: tensor<5xf32>, %arg1: tensor<5xf32>) -> (tensor<f32> {jax.result_info = \"result\"}) {\n    %0 = stablehlo.dot_general %arg0, %arg1, contracting_dims = [0] x [0], precision = [DEFAULT, DEFAULT] : (tensor<5xf32>, tensor<5xf32>) -> tensor<f32>\n    return %0 : tensor<f32>\n  }\n}\n",
    "metadata": {
      "category": "linalg",
      "operation": "dot",
      "description": "Linear algebra: dot"
    }
  }
]