[
  {
    "python_code": "lambda x: x / jnp.linalg.norm(x)",
    "input_info": [
      {
        "shape": [
          10,
          2,
          4
        ],
        "dtype": "float32"
      }
    ],
    "jaxpr": "{ lambda ; a:f32[10,2,4]. let\n    b:f32[] = jit[\n      name=norm\n      jaxpr={ lambda ; a:f32[10,2,4]. let\n          c:f32[10,2,4] = mul a a\n          d:f32[] = reduce_sum[axes=(0, 1, 2) out_sharding=None] c\n          b:f32[] = sqrt d\n        in (b,) }\n    ] a\n    e:f32[10,2,4] = div a b\n  in (e,) }",
    "stablehlo": "module @jit__lambda attributes {mhlo.num_partitions = 1 : i32, mhlo.num_replicas = 1 : i32} {\n  func.func public @main(%arg0: tensor<10x2x4xf32>) -> (tensor<10x2x4xf32> {jax.result_info = \"result\"}) {\n    %0 = call @norm(%arg0) : (tensor<10x2x4xf32>) -> tensor<f32>\n    %1 = stablehlo.broadcast_in_dim %0, dims = [] : (tensor<f32>) -> tensor<10x2x4xf32>\n    %2 = stablehlo.divide %arg0, %1 : tensor<10x2x4xf32>\n    return %2 : tensor<10x2x4xf32>\n  }\n  func.func private @norm(%arg0: tensor<10x2x4xf32>) -> tensor<f32> {\n    %0 = stablehlo.multiply %arg0, %arg0 : tensor<10x2x4xf32>\n    %cst = stablehlo.constant dense<0.000000e+00> : tensor<f32>\n    %1 = stablehlo.reduce(%0 init: %cst) applies stablehlo.add across dimensions = [0, 1, 2] : (tensor<10x2x4xf32>, tensor<f32>) -> tensor<f32>\n    %2 = stablehlo.sqrt %1 : tensor<f32>\n    return %2 : tensor<f32>\n  }\n}\n",
    "metadata": {
      "category": "composite",
      "operation": "normalize",
      "description": "Composite operation: normalize"
    }
  },
  {
    "python_code": "lambda x: jnp.sum(x ** 2)",
    "input_info": [
      {
        "shape": [
          2,
          7
        ],
        "dtype": "float32"
      }
    ],
    "jaxpr": "{ lambda ; a:f32[2,7]. let\n    b:f32[2,7] = integer_pow[y=2] a\n    c:f32[] = reduce_sum[axes=(0, 1) out_sharding=None] b\n  in (c,) }",
    "stablehlo": "module @jit__lambda attributes {mhlo.num_partitions = 1 : i32, mhlo.num_replicas = 1 : i32} {\n  func.func public @main(%arg0: tensor<2x7xf32>) -> (tensor<f32> {jax.result_info = \"result\"}) {\n    %0 = stablehlo.multiply %arg0, %arg0 : tensor<2x7xf32>\n    %cst = stablehlo.constant dense<0.000000e+00> : tensor<f32>\n    %1 = stablehlo.reduce(%0 init: %cst) applies stablehlo.add across dimensions = [0, 1] : (tensor<2x7xf32>, tensor<f32>) -> tensor<f32>\n    return %1 : tensor<f32>\n  }\n}\n",
    "metadata": {
      "category": "composite",
      "operation": "squared_norm",
      "description": "Composite operation: squared_norm"
    }
  },
  {
    "python_code": "lambda x: jnp.exp(x) / jnp.sum(jnp.exp(x))",
    "input_info": [
      {
        "shape": [
          5
        ],
        "dtype": "float32"
      }
    ],
    "jaxpr": "{ lambda ; a:f32[5]. let\n    b:f32[5] = exp a\n    c:f32[5] = exp a\n    d:f32[] = reduce_sum[axes=(0,) out_sharding=None] c\n    e:f32[5] = div b d\n  in (e,) }",
    "stablehlo": "module @jit__lambda attributes {mhlo.num_partitions = 1 : i32, mhlo.num_replicas = 1 : i32} {\n  func.func public @main(%arg0: tensor<5xf32>) -> (tensor<5xf32> {jax.result_info = \"result\"}) {\n    %0 = stablehlo.exponential %arg0 : tensor<5xf32>\n    %1 = stablehlo.exponential %arg0 : tensor<5xf32>\n    %cst = stablehlo.constant dense<0.000000e+00> : tensor<f32>\n    %2 = stablehlo.reduce(%1 init: %cst) applies stablehlo.add across dimensions = [0] : (tensor<5xf32>, tensor<f32>) -> tensor<f32>\n    %3 = stablehlo.broadcast_in_dim %2, dims = [] : (tensor<f32>) -> tensor<5xf32>\n    %4 = stablehlo.divide %0, %3 : tensor<5xf32>\n    return %4 : tensor<5xf32>\n  }\n}\n",
    "metadata": {
      "category": "composite",
      "operation": "softmax",
      "description": "Composite operation: softmax"
    }
  },
  {
    "python_code": "lambda x: jnp.sum(x ** 2)",
    "input_info": [
      {
        "shape": [
          7,
          5,
          9
        ],
        "dtype": "float32"
      }
    ],
    "jaxpr": "{ lambda ; a:f32[7,5,9]. let\n    b:f32[7,5,9] = integer_pow[y=2] a\n    c:f32[] = reduce_sum[axes=(0, 1, 2) out_sharding=None] b\n  in (c,) }",
    "stablehlo": "module @jit__lambda attributes {mhlo.num_partitions = 1 : i32, mhlo.num_replicas = 1 : i32} {\n  func.func public @main(%arg0: tensor<7x5x9xf32>) -> (tensor<f32> {jax.result_info = \"result\"}) {\n    %0 = stablehlo.multiply %arg0, %arg0 : tensor<7x5x9xf32>\n    %cst = stablehlo.constant dense<0.000000e+00> : tensor<f32>\n    %1 = stablehlo.reduce(%0 init: %cst) applies stablehlo.add across dimensions = [0, 1, 2] : (tensor<7x5x9xf32>, tensor<f32>) -> tensor<f32>\n    return %1 : tensor<f32>\n  }\n}\n",
    "metadata": {
      "category": "composite",
      "operation": "squared_norm",
      "description": "Composite operation: squared_norm"
    }
  },
  {
    "python_code": "lambda x: jnp.exp(x) / jnp.sum(jnp.exp(x))",
    "input_info": [
      {
        "shape": [
          5
        ],
        "dtype": "float32"
      }
    ],
    "jaxpr": "{ lambda ; a:f32[5]. let\n    b:f32[5] = exp a\n    c:f32[5] = exp a\n    d:f32[] = reduce_sum[axes=(0,) out_sharding=None] c\n    e:f32[5] = div b d\n  in (e,) }",
    "stablehlo": "module @jit__lambda attributes {mhlo.num_partitions = 1 : i32, mhlo.num_replicas = 1 : i32} {\n  func.func public @main(%arg0: tensor<5xf32>) -> (tensor<5xf32> {jax.result_info = \"result\"}) {\n    %0 = stablehlo.exponential %arg0 : tensor<5xf32>\n    %1 = stablehlo.exponential %arg0 : tensor<5xf32>\n    %cst = stablehlo.constant dense<0.000000e+00> : tensor<f32>\n    %2 = stablehlo.reduce(%1 init: %cst) applies stablehlo.add across dimensions = [0] : (tensor<5xf32>, tensor<f32>) -> tensor<f32>\n    %3 = stablehlo.broadcast_in_dim %2, dims = [] : (tensor<f32>) -> tensor<5xf32>\n    %4 = stablehlo.divide %0, %3 : tensor<5xf32>\n    return %4 : tensor<5xf32>\n  }\n}\n",
    "metadata": {
      "category": "composite",
      "operation": "softmax",
      "description": "Composite operation: softmax"
    }
  },
  {
    "python_code": "lambda x: x / jnp.linalg.norm(x)",
    "input_info": [
      {
        "shape": [
          2,
          8,
          4
        ],
        "dtype": "float32"
      }
    ],
    "jaxpr": "{ lambda ; a:f32[2,8,4]. let\n    b:f32[] = jit[\n      name=norm\n      jaxpr={ lambda ; a:f32[2,8,4]. let\n          c:f32[2,8,4] = mul a a\n          d:f32[] = reduce_sum[axes=(0, 1, 2) out_sharding=None] c\n          b:f32[] = sqrt d\n        in (b,) }\n    ] a\n    e:f32[2,8,4] = div a b\n  in (e,) }",
    "stablehlo": "module @jit__lambda attributes {mhlo.num_partitions = 1 : i32, mhlo.num_replicas = 1 : i32} {\n  func.func public @main(%arg0: tensor<2x8x4xf32>) -> (tensor<2x8x4xf32> {jax.result_info = \"result\"}) {\n    %0 = call @norm(%arg0) : (tensor<2x8x4xf32>) -> tensor<f32>\n    %1 = stablehlo.broadcast_in_dim %0, dims = [] : (tensor<f32>) -> tensor<2x8x4xf32>\n    %2 = stablehlo.divide %arg0, %1 : tensor<2x8x4xf32>\n    return %2 : tensor<2x8x4xf32>\n  }\n  func.func private @norm(%arg0: tensor<2x8x4xf32>) -> tensor<f32> {\n    %0 = stablehlo.multiply %arg0, %arg0 : tensor<2x8x4xf32>\n    %cst = stablehlo.constant dense<0.000000e+00> : tensor<f32>\n    %1 = stablehlo.reduce(%0 init: %cst) applies stablehlo.add across dimensions = [0, 1, 2] : (tensor<2x8x4xf32>, tensor<f32>) -> tensor<f32>\n    %2 = stablehlo.sqrt %1 : tensor<f32>\n    return %2 : tensor<f32>\n  }\n}\n",
    "metadata": {
      "category": "composite",
      "operation": "normalize",
      "description": "Composite operation: normalize"
    }
  },
  {
    "python_code": "lambda x: x / jnp.linalg.norm(x)",
    "input_info": [
      {
        "shape": [
          7,
          7,
          7
        ],
        "dtype": "float32"
      }
    ],
    "jaxpr": "{ lambda ; a:f32[7,7,7]. let\n    b:f32[] = jit[\n      name=norm\n      jaxpr={ lambda ; a:f32[7,7,7]. let\n          c:f32[7,7,7] = mul a a\n          d:f32[] = reduce_sum[axes=(0, 1, 2) out_sharding=None] c\n          b:f32[] = sqrt d\n        in (b,) }\n    ] a\n    e:f32[7,7,7] = div a b\n  in (e,) }",
    "stablehlo": "module @jit__lambda attributes {mhlo.num_partitions = 1 : i32, mhlo.num_replicas = 1 : i32} {\n  func.func public @main(%arg0: tensor<7x7x7xf32>) -> (tensor<7x7x7xf32> {jax.result_info = \"result\"}) {\n    %0 = call @norm(%arg0) : (tensor<7x7x7xf32>) -> tensor<f32>\n    %1 = stablehlo.broadcast_in_dim %0, dims = [] : (tensor<f32>) -> tensor<7x7x7xf32>\n    %2 = stablehlo.divide %arg0, %1 : tensor<7x7x7xf32>\n    return %2 : tensor<7x7x7xf32>\n  }\n  func.func private @norm(%arg0: tensor<7x7x7xf32>) -> tensor<f32> {\n    %0 = stablehlo.multiply %arg0, %arg0 : tensor<7x7x7xf32>\n    %cst = stablehlo.constant dense<0.000000e+00> : tensor<f32>\n    %1 = stablehlo.reduce(%0 init: %cst) applies stablehlo.add across dimensions = [0, 1, 2] : (tensor<7x7x7xf32>, tensor<f32>) -> tensor<f32>\n    %2 = stablehlo.sqrt %1 : tensor<f32>\n    return %2 : tensor<f32>\n  }\n}\n",
    "metadata": {
      "category": "composite",
      "operation": "normalize",
      "description": "Composite operation: normalize"
    }
  },
  {
    "python_code": "lambda x: jnp.exp(x) / jnp.sum(jnp.exp(x))",
    "input_info": [
      {
        "shape": [
          9,
          8,
          7
        ],
        "dtype": "float32"
      }
    ],
    "jaxpr": "{ lambda ; a:f32[9,8,7]. let\n    b:f32[9,8,7] = exp a\n    c:f32[9,8,7] = exp a\n    d:f32[] = reduce_sum[axes=(0, 1, 2) out_sharding=None] c\n    e:f32[9,8,7] = div b d\n  in (e,) }",
    "stablehlo": "module @jit__lambda attributes {mhlo.num_partitions = 1 : i32, mhlo.num_replicas = 1 : i32} {\n  func.func public @main(%arg0: tensor<9x8x7xf32>) -> (tensor<9x8x7xf32> {jax.result_info = \"result\"}) {\n    %0 = stablehlo.exponential %arg0 : tensor<9x8x7xf32>\n    %1 = stablehlo.exponential %arg0 : tensor<9x8x7xf32>\n    %cst = stablehlo.constant dense<0.000000e+00> : tensor<f32>\n    %2 = stablehlo.reduce(%1 init: %cst) applies stablehlo.add across dimensions = [0, 1, 2] : (tensor<9x8x7xf32>, tensor<f32>) -> tensor<f32>\n    %3 = stablehlo.broadcast_in_dim %2, dims = [] : (tensor<f32>) -> tensor<9x8x7xf32>\n    %4 = stablehlo.divide %0, %3 : tensor<9x8x7xf32>\n    return %4 : tensor<9x8x7xf32>\n  }\n}\n",
    "metadata": {
      "category": "composite",
      "operation": "softmax",
      "description": "Composite operation: softmax"
    }
  },
  {
    "python_code": "lambda x: jnp.exp(x) / jnp.sum(jnp.exp(x))",
    "input_info": [
      {
        "shape": [
          7,
          10,
          5
        ],
        "dtype": "float32"
      }
    ],
    "jaxpr": "{ lambda ; a:f32[7,10,5]. let\n    b:f32[7,10,5] = exp a\n    c:f32[7,10,5] = exp a\n    d:f32[] = reduce_sum[axes=(0, 1, 2) out_sharding=None] c\n    e:f32[7,10,5] = div b d\n  in (e,) }",
    "stablehlo": "module @jit__lambda attributes {mhlo.num_partitions = 1 : i32, mhlo.num_replicas = 1 : i32} {\n  func.func public @main(%arg0: tensor<7x10x5xf32>) -> (tensor<7x10x5xf32> {jax.result_info = \"result\"}) {\n    %0 = stablehlo.exponential %arg0 : tensor<7x10x5xf32>\n    %1 = stablehlo.exponential %arg0 : tensor<7x10x5xf32>\n    %cst = stablehlo.constant dense<0.000000e+00> : tensor<f32>\n    %2 = stablehlo.reduce(%1 init: %cst) applies stablehlo.add across dimensions = [0, 1, 2] : (tensor<7x10x5xf32>, tensor<f32>) -> tensor<f32>\n    %3 = stablehlo.broadcast_in_dim %2, dims = [] : (tensor<f32>) -> tensor<7x10x5xf32>\n    %4 = stablehlo.divide %0, %3 : tensor<7x10x5xf32>\n    return %4 : tensor<7x10x5xf32>\n  }\n}\n",
    "metadata": {
      "category": "composite",
      "operation": "softmax",
      "description": "Composite operation: softmax"
    }
  },
  {
    "python_code": "lambda x: x / jnp.linalg.norm(x)",
    "input_info": [
      {
        "shape": [
          6
        ],
        "dtype": "float32"
      }
    ],
    "jaxpr": "{ lambda ; a:f32[6]. let\n    b:f32[] = jit[\n      name=norm\n      jaxpr={ lambda ; a:f32[6]. let\n          c:f32[6] = mul a a\n          d:f32[] = reduce_sum[axes=(0,) out_sharding=None] c\n          b:f32[] = sqrt d\n        in (b,) }\n    ] a\n    e:f32[6] = div a b\n  in (e,) }",
    "stablehlo": "module @jit__lambda attributes {mhlo.num_partitions = 1 : i32, mhlo.num_replicas = 1 : i32} {\n  func.func public @main(%arg0: tensor<6xf32>) -> (tensor<6xf32> {jax.result_info = \"result\"}) {\n    %0 = call @norm(%arg0) : (tensor<6xf32>) -> tensor<f32>\n    %1 = stablehlo.broadcast_in_dim %0, dims = [] : (tensor<f32>) -> tensor<6xf32>\n    %2 = stablehlo.divide %arg0, %1 : tensor<6xf32>\n    return %2 : tensor<6xf32>\n  }\n  func.func private @norm(%arg0: tensor<6xf32>) -> tensor<f32> {\n    %0 = stablehlo.multiply %arg0, %arg0 : tensor<6xf32>\n    %cst = stablehlo.constant dense<0.000000e+00> : tensor<f32>\n    %1 = stablehlo.reduce(%0 init: %cst) applies stablehlo.add across dimensions = [0] : (tensor<6xf32>, tensor<f32>) -> tensor<f32>\n    %2 = stablehlo.sqrt %1 : tensor<f32>\n    return %2 : tensor<f32>\n  }\n}\n",
    "metadata": {
      "category": "composite",
      "operation": "normalize",
      "description": "Composite operation: normalize"
    }
  },
  {
    "python_code": "lambda x: jnp.sum(x ** 2)",
    "input_info": [
      {
        "shape": [
          2,
          8,
          7
        ],
        "dtype": "float32"
      }
    ],
    "jaxpr": "{ lambda ; a:f32[2,8,7]. let\n    b:f32[2,8,7] = integer_pow[y=2] a\n    c:f32[] = reduce_sum[axes=(0, 1, 2) out_sharding=None] b\n  in (c,) }",
    "stablehlo": "module @jit__lambda attributes {mhlo.num_partitions = 1 : i32, mhlo.num_replicas = 1 : i32} {\n  func.func public @main(%arg0: tensor<2x8x7xf32>) -> (tensor<f32> {jax.result_info = \"result\"}) {\n    %0 = stablehlo.multiply %arg0, %arg0 : tensor<2x8x7xf32>\n    %cst = stablehlo.constant dense<0.000000e+00> : tensor<f32>\n    %1 = stablehlo.reduce(%0 init: %cst) applies stablehlo.add across dimensions = [0, 1, 2] : (tensor<2x8x7xf32>, tensor<f32>) -> tensor<f32>\n    return %1 : tensor<f32>\n  }\n}\n",
    "metadata": {
      "category": "composite",
      "operation": "squared_norm",
      "description": "Composite operation: squared_norm"
    }
  },
  {
    "python_code": "lambda x: jnp.sum(x ** 2)",
    "input_info": [
      {
        "shape": [
          4,
          2
        ],
        "dtype": "float32"
      }
    ],
    "jaxpr": "{ lambda ; a:f32[4,2]. let\n    b:f32[4,2] = integer_pow[y=2] a\n    c:f32[] = reduce_sum[axes=(0, 1) out_sharding=None] b\n  in (c,) }",
    "stablehlo": "module @jit__lambda attributes {mhlo.num_partitions = 1 : i32, mhlo.num_replicas = 1 : i32} {\n  func.func public @main(%arg0: tensor<4x2xf32>) -> (tensor<f32> {jax.result_info = \"result\"}) {\n    %0 = stablehlo.multiply %arg0, %arg0 : tensor<4x2xf32>\n    %cst = stablehlo.constant dense<0.000000e+00> : tensor<f32>\n    %1 = stablehlo.reduce(%0 init: %cst) applies stablehlo.add across dimensions = [0, 1] : (tensor<4x2xf32>, tensor<f32>) -> tensor<f32>\n    return %1 : tensor<f32>\n  }\n}\n",
    "metadata": {
      "category": "composite",
      "operation": "squared_norm",
      "description": "Composite operation: squared_norm"
    }
  },
  {
    "python_code": "lambda x: jnp.sum(x ** 2)",
    "input_info": [
      {
        "shape": [
          3
        ],
        "dtype": "float32"
      }
    ],
    "jaxpr": "{ lambda ; a:f32[3]. let\n    b:f32[3] = integer_pow[y=2] a\n    c:f32[] = reduce_sum[axes=(0,) out_sharding=None] b\n  in (c,) }",
    "stablehlo": "module @jit__lambda attributes {mhlo.num_partitions = 1 : i32, mhlo.num_replicas = 1 : i32} {\n  func.func public @main(%arg0: tensor<3xf32>) -> (tensor<f32> {jax.result_info = \"result\"}) {\n    %0 = stablehlo.multiply %arg0, %arg0 : tensor<3xf32>\n    %cst = stablehlo.constant dense<0.000000e+00> : tensor<f32>\n    %1 = stablehlo.reduce(%0 init: %cst) applies stablehlo.add across dimensions = [0] : (tensor<3xf32>, tensor<f32>) -> tensor<f32>\n    return %1 : tensor<f32>\n  }\n}\n",
    "metadata": {
      "category": "composite",
      "operation": "squared_norm",
      "description": "Composite operation: squared_norm"
    }
  },
  {
    "python_code": "lambda x: x / jnp.linalg.norm(x)",
    "input_info": [
      {
        "shape": [
          9
        ],
        "dtype": "float32"
      }
    ],
    "jaxpr": "{ lambda ; a:f32[9]. let\n    b:f32[] = jit[\n      name=norm\n      jaxpr={ lambda ; a:f32[9]. let\n          c:f32[9] = mul a a\n          d:f32[] = reduce_sum[axes=(0,) out_sharding=None] c\n          b:f32[] = sqrt d\n        in (b,) }\n    ] a\n    e:f32[9] = div a b\n  in (e,) }",
    "stablehlo": "module @jit__lambda attributes {mhlo.num_partitions = 1 : i32, mhlo.num_replicas = 1 : i32} {\n  func.func public @main(%arg0: tensor<9xf32>) -> (tensor<9xf32> {jax.result_info = \"result\"}) {\n    %0 = call @norm(%arg0) : (tensor<9xf32>) -> tensor<f32>\n    %1 = stablehlo.broadcast_in_dim %0, dims = [] : (tensor<f32>) -> tensor<9xf32>\n    %2 = stablehlo.divide %arg0, %1 : tensor<9xf32>\n    return %2 : tensor<9xf32>\n  }\n  func.func private @norm(%arg0: tensor<9xf32>) -> tensor<f32> {\n    %0 = stablehlo.multiply %arg0, %arg0 : tensor<9xf32>\n    %cst = stablehlo.constant dense<0.000000e+00> : tensor<f32>\n    %1 = stablehlo.reduce(%0 init: %cst) applies stablehlo.add across dimensions = [0] : (tensor<9xf32>, tensor<f32>) -> tensor<f32>\n    %2 = stablehlo.sqrt %1 : tensor<f32>\n    return %2 : tensor<f32>\n  }\n}\n",
    "metadata": {
      "category": "composite",
      "operation": "normalize",
      "description": "Composite operation: normalize"
    }
  },
  {
    "python_code": "lambda x: jnp.exp(x) / jnp.sum(jnp.exp(x))",
    "input_info": [
      {
        "shape": [
          4,
          6
        ],
        "dtype": "float32"
      }
    ],
    "jaxpr": "{ lambda ; a:f32[4,6]. let\n    b:f32[4,6] = exp a\n    c:f32[4,6] = exp a\n    d:f32[] = reduce_sum[axes=(0, 1) out_sharding=None] c\n    e:f32[4,6] = div b d\n  in (e,) }",
    "stablehlo": "module @jit__lambda attributes {mhlo.num_partitions = 1 : i32, mhlo.num_replicas = 1 : i32} {\n  func.func public @main(%arg0: tensor<4x6xf32>) -> (tensor<4x6xf32> {jax.result_info = \"result\"}) {\n    %0 = stablehlo.exponential %arg0 : tensor<4x6xf32>\n    %1 = stablehlo.exponential %arg0 : tensor<4x6xf32>\n    %cst = stablehlo.constant dense<0.000000e+00> : tensor<f32>\n    %2 = stablehlo.reduce(%1 init: %cst) applies stablehlo.add across dimensions = [0, 1] : (tensor<4x6xf32>, tensor<f32>) -> tensor<f32>\n    %3 = stablehlo.broadcast_in_dim %2, dims = [] : (tensor<f32>) -> tensor<4x6xf32>\n    %4 = stablehlo.divide %0, %3 : tensor<4x6xf32>\n    return %4 : tensor<4x6xf32>\n  }\n}\n",
    "metadata": {
      "category": "composite",
      "operation": "softmax",
      "description": "Composite operation: softmax"
    }
  },
  {
    "python_code": "lambda x: x / jnp.linalg.norm(x)",
    "input_info": [
      {
        "shape": [
          5,
          9,
          4
        ],
        "dtype": "float32"
      }
    ],
    "jaxpr": "{ lambda ; a:f32[5,9,4]. let\n    b:f32[] = jit[\n      name=norm\n      jaxpr={ lambda ; a:f32[5,9,4]. let\n          c:f32[5,9,4] = mul a a\n          d:f32[] = reduce_sum[axes=(0, 1, 2) out_sharding=None] c\n          b:f32[] = sqrt d\n        in (b,) }\n    ] a\n    e:f32[5,9,4] = div a b\n  in (e,) }",
    "stablehlo": "module @jit__lambda attributes {mhlo.num_partitions = 1 : i32, mhlo.num_replicas = 1 : i32} {\n  func.func public @main(%arg0: tensor<5x9x4xf32>) -> (tensor<5x9x4xf32> {jax.result_info = \"result\"}) {\n    %0 = call @norm(%arg0) : (tensor<5x9x4xf32>) -> tensor<f32>\n    %1 = stablehlo.broadcast_in_dim %0, dims = [] : (tensor<f32>) -> tensor<5x9x4xf32>\n    %2 = stablehlo.divide %arg0, %1 : tensor<5x9x4xf32>\n    return %2 : tensor<5x9x4xf32>\n  }\n  func.func private @norm(%arg0: tensor<5x9x4xf32>) -> tensor<f32> {\n    %0 = stablehlo.multiply %arg0, %arg0 : tensor<5x9x4xf32>\n    %cst = stablehlo.constant dense<0.000000e+00> : tensor<f32>\n    %1 = stablehlo.reduce(%0 init: %cst) applies stablehlo.add across dimensions = [0, 1, 2] : (tensor<5x9x4xf32>, tensor<f32>) -> tensor<f32>\n    %2 = stablehlo.sqrt %1 : tensor<f32>\n    return %2 : tensor<f32>\n  }\n}\n",
    "metadata": {
      "category": "composite",
      "operation": "normalize",
      "description": "Composite operation: normalize"
    }
  },
  {
    "python_code": "lambda x: jnp.exp(x) / jnp.sum(jnp.exp(x))",
    "input_info": [
      {
        "shape": [
          8,
          9
        ],
        "dtype": "float32"
      }
    ],
    "jaxpr": "{ lambda ; a:f32[8,9]. let\n    b:f32[8,9] = exp a\n    c:f32[8,9] = exp a\n    d:f32[] = reduce_sum[axes=(0, 1) out_sharding=None] c\n    e:f32[8,9] = div b d\n  in (e,) }",
    "stablehlo": "module @jit__lambda attributes {mhlo.num_partitions = 1 : i32, mhlo.num_replicas = 1 : i32} {\n  func.func public @main(%arg0: tensor<8x9xf32>) -> (tensor<8x9xf32> {jax.result_info = \"result\"}) {\n    %0 = stablehlo.exponential %arg0 : tensor<8x9xf32>\n    %1 = stablehlo.exponential %arg0 : tensor<8x9xf32>\n    %cst = stablehlo.constant dense<0.000000e+00> : tensor<f32>\n    %2 = stablehlo.reduce(%1 init: %cst) applies stablehlo.add across dimensions = [0, 1] : (tensor<8x9xf32>, tensor<f32>) -> tensor<f32>\n    %3 = stablehlo.broadcast_in_dim %2, dims = [] : (tensor<f32>) -> tensor<8x9xf32>\n    %4 = stablehlo.divide %0, %3 : tensor<8x9xf32>\n    return %4 : tensor<8x9xf32>\n  }\n}\n",
    "metadata": {
      "category": "composite",
      "operation": "softmax",
      "description": "Composite operation: softmax"
    }
  },
  {
    "python_code": "lambda x: jnp.exp(x) / jnp.sum(jnp.exp(x))",
    "input_info": [
      {
        "shape": [
          7,
          10
        ],
        "dtype": "float32"
      }
    ],
    "jaxpr": "{ lambda ; a:f32[7,10]. let\n    b:f32[7,10] = exp a\n    c:f32[7,10] = exp a\n    d:f32[] = reduce_sum[axes=(0, 1) out_sharding=None] c\n    e:f32[7,10] = div b d\n  in (e,) }",
    "stablehlo": "module @jit__lambda attributes {mhlo.num_partitions = 1 : i32, mhlo.num_replicas = 1 : i32} {\n  func.func public @main(%arg0: tensor<7x10xf32>) -> (tensor<7x10xf32> {jax.result_info = \"result\"}) {\n    %0 = stablehlo.exponential %arg0 : tensor<7x10xf32>\n    %1 = stablehlo.exponential %arg0 : tensor<7x10xf32>\n    %cst = stablehlo.constant dense<0.000000e+00> : tensor<f32>\n    %2 = stablehlo.reduce(%1 init: %cst) applies stablehlo.add across dimensions = [0, 1] : (tensor<7x10xf32>, tensor<f32>) -> tensor<f32>\n    %3 = stablehlo.broadcast_in_dim %2, dims = [] : (tensor<f32>) -> tensor<7x10xf32>\n    %4 = stablehlo.divide %0, %3 : tensor<7x10xf32>\n    return %4 : tensor<7x10xf32>\n  }\n}\n",
    "metadata": {
      "category": "composite",
      "operation": "softmax",
      "description": "Composite operation: softmax"
    }
  },
  {
    "python_code": "lambda x: jnp.sum(x ** 2)",
    "input_info": [
      {
        "shape": [
          2,
          6,
          2
        ],
        "dtype": "float32"
      }
    ],
    "jaxpr": "{ lambda ; a:f32[2,6,2]. let\n    b:f32[2,6,2] = integer_pow[y=2] a\n    c:f32[] = reduce_sum[axes=(0, 1, 2) out_sharding=None] b\n  in (c,) }",
    "stablehlo": "module @jit__lambda attributes {mhlo.num_partitions = 1 : i32, mhlo.num_replicas = 1 : i32} {\n  func.func public @main(%arg0: tensor<2x6x2xf32>) -> (tensor<f32> {jax.result_info = \"result\"}) {\n    %0 = stablehlo.multiply %arg0, %arg0 : tensor<2x6x2xf32>\n    %cst = stablehlo.constant dense<0.000000e+00> : tensor<f32>\n    %1 = stablehlo.reduce(%0 init: %cst) applies stablehlo.add across dimensions = [0, 1, 2] : (tensor<2x6x2xf32>, tensor<f32>) -> tensor<f32>\n    return %1 : tensor<f32>\n  }\n}\n",
    "metadata": {
      "category": "composite",
      "operation": "squared_norm",
      "description": "Composite operation: squared_norm"
    }
  },
  {
    "python_code": "lambda x: x / jnp.linalg.norm(x)",
    "input_info": [
      {
        "shape": [
          7
        ],
        "dtype": "float32"
      }
    ],
    "jaxpr": "{ lambda ; a:f32[7]. let\n    b:f32[] = jit[\n      name=norm\n      jaxpr={ lambda ; a:f32[7]. let\n          c:f32[7] = mul a a\n          d:f32[] = reduce_sum[axes=(0,) out_sharding=None] c\n          b:f32[] = sqrt d\n        in (b,) }\n    ] a\n    e:f32[7] = div a b\n  in (e,) }",
    "stablehlo": "module @jit__lambda attributes {mhlo.num_partitions = 1 : i32, mhlo.num_replicas = 1 : i32} {\n  func.func public @main(%arg0: tensor<7xf32>) -> (tensor<7xf32> {jax.result_info = \"result\"}) {\n    %0 = call @norm(%arg0) : (tensor<7xf32>) -> tensor<f32>\n    %1 = stablehlo.broadcast_in_dim %0, dims = [] : (tensor<f32>) -> tensor<7xf32>\n    %2 = stablehlo.divide %arg0, %1 : tensor<7xf32>\n    return %2 : tensor<7xf32>\n  }\n  func.func private @norm(%arg0: tensor<7xf32>) -> tensor<f32> {\n    %0 = stablehlo.multiply %arg0, %arg0 : tensor<7xf32>\n    %cst = stablehlo.constant dense<0.000000e+00> : tensor<f32>\n    %1 = stablehlo.reduce(%0 init: %cst) applies stablehlo.add across dimensions = [0] : (tensor<7xf32>, tensor<f32>) -> tensor<f32>\n    %2 = stablehlo.sqrt %1 : tensor<f32>\n    return %2 : tensor<f32>\n  }\n}\n",
    "metadata": {
      "category": "composite",
      "operation": "normalize",
      "description": "Composite operation: normalize"
    }
  },
  {
    "python_code": "lambda x: jnp.exp(x) / jnp.sum(jnp.exp(x))",
    "input_info": [
      {
        "shape": [
          9,
          10
        ],
        "dtype": "float32"
      }
    ],
    "jaxpr": "{ lambda ; a:f32[9,10]. let\n    b:f32[9,10] = exp a\n    c:f32[9,10] = exp a\n    d:f32[] = reduce_sum[axes=(0, 1) out_sharding=None] c\n    e:f32[9,10] = div b d\n  in (e,) }",
    "stablehlo": "module @jit__lambda attributes {mhlo.num_partitions = 1 : i32, mhlo.num_replicas = 1 : i32} {\n  func.func public @main(%arg0: tensor<9x10xf32>) -> (tensor<9x10xf32> {jax.result_info = \"result\"}) {\n    %0 = stablehlo.exponential %arg0 : tensor<9x10xf32>\n    %1 = stablehlo.exponential %arg0 : tensor<9x10xf32>\n    %cst = stablehlo.constant dense<0.000000e+00> : tensor<f32>\n    %2 = stablehlo.reduce(%1 init: %cst) applies stablehlo.add across dimensions = [0, 1] : (tensor<9x10xf32>, tensor<f32>) -> tensor<f32>\n    %3 = stablehlo.broadcast_in_dim %2, dims = [] : (tensor<f32>) -> tensor<9x10xf32>\n    %4 = stablehlo.divide %0, %3 : tensor<9x10xf32>\n    return %4 : tensor<9x10xf32>\n  }\n}\n",
    "metadata": {
      "category": "composite",
      "operation": "softmax",
      "description": "Composite operation: softmax"
    }
  },
  {
    "python_code": "lambda x: jnp.sum(x ** 2)",
    "input_info": [
      {
        "shape": [
          5,
          7,
          4
        ],
        "dtype": "float32"
      }
    ],
    "jaxpr": "{ lambda ; a:f32[5,7,4]. let\n    b:f32[5,7,4] = integer_pow[y=2] a\n    c:f32[] = reduce_sum[axes=(0, 1, 2) out_sharding=None] b\n  in (c,) }",
    "stablehlo": "module @jit__lambda attributes {mhlo.num_partitions = 1 : i32, mhlo.num_replicas = 1 : i32} {\n  func.func public @main(%arg0: tensor<5x7x4xf32>) -> (tensor<f32> {jax.result_info = \"result\"}) {\n    %0 = stablehlo.multiply %arg0, %arg0 : tensor<5x7x4xf32>\n    %cst = stablehlo.constant dense<0.000000e+00> : tensor<f32>\n    %1 = stablehlo.reduce(%0 init: %cst) applies stablehlo.add across dimensions = [0, 1, 2] : (tensor<5x7x4xf32>, tensor<f32>) -> tensor<f32>\n    return %1 : tensor<f32>\n  }\n}\n",
    "metadata": {
      "category": "composite",
      "operation": "squared_norm",
      "description": "Composite operation: squared_norm"
    }
  },
  {
    "python_code": "lambda x: jnp.exp(x) / jnp.sum(jnp.exp(x))",
    "input_info": [
      {
        "shape": [
          8,
          10
        ],
        "dtype": "float32"
      }
    ],
    "jaxpr": "{ lambda ; a:f32[8,10]. let\n    b:f32[8,10] = exp a\n    c:f32[8,10] = exp a\n    d:f32[] = reduce_sum[axes=(0, 1) out_sharding=None] c\n    e:f32[8,10] = div b d\n  in (e,) }",
    "stablehlo": "module @jit__lambda attributes {mhlo.num_partitions = 1 : i32, mhlo.num_replicas = 1 : i32} {\n  func.func public @main(%arg0: tensor<8x10xf32>) -> (tensor<8x10xf32> {jax.result_info = \"result\"}) {\n    %0 = stablehlo.exponential %arg0 : tensor<8x10xf32>\n    %1 = stablehlo.exponential %arg0 : tensor<8x10xf32>\n    %cst = stablehlo.constant dense<0.000000e+00> : tensor<f32>\n    %2 = stablehlo.reduce(%1 init: %cst) applies stablehlo.add across dimensions = [0, 1] : (tensor<8x10xf32>, tensor<f32>) -> tensor<f32>\n    %3 = stablehlo.broadcast_in_dim %2, dims = [] : (tensor<f32>) -> tensor<8x10xf32>\n    %4 = stablehlo.divide %0, %3 : tensor<8x10xf32>\n    return %4 : tensor<8x10xf32>\n  }\n}\n",
    "metadata": {
      "category": "composite",
      "operation": "softmax",
      "description": "Composite operation: softmax"
    }
  },
  {
    "python_code": "lambda x: jnp.sum(x ** 2)",
    "input_info": [
      {
        "shape": [
          6
        ],
        "dtype": "float32"
      }
    ],
    "jaxpr": "{ lambda ; a:f32[6]. let\n    b:f32[6] = integer_pow[y=2] a\n    c:f32[] = reduce_sum[axes=(0,) out_sharding=None] b\n  in (c,) }",
    "stablehlo": "module @jit__lambda attributes {mhlo.num_partitions = 1 : i32, mhlo.num_replicas = 1 : i32} {\n  func.func public @main(%arg0: tensor<6xf32>) -> (tensor<f32> {jax.result_info = \"result\"}) {\n    %0 = stablehlo.multiply %arg0, %arg0 : tensor<6xf32>\n    %cst = stablehlo.constant dense<0.000000e+00> : tensor<f32>\n    %1 = stablehlo.reduce(%0 init: %cst) applies stablehlo.add across dimensions = [0] : (tensor<6xf32>, tensor<f32>) -> tensor<f32>\n    return %1 : tensor<f32>\n  }\n}\n",
    "metadata": {
      "category": "composite",
      "operation": "squared_norm",
      "description": "Composite operation: squared_norm"
    }
  },
  {
    "python_code": "lambda x: jnp.exp(x) / jnp.sum(jnp.exp(x))",
    "input_info": [
      {
        "shape": [
          2
        ],
        "dtype": "float32"
      }
    ],
    "jaxpr": "{ lambda ; a:f32[2]. let\n    b:f32[2] = exp a\n    c:f32[2] = exp a\n    d:f32[] = reduce_sum[axes=(0,) out_sharding=None] c\n    e:f32[2] = div b d\n  in (e,) }",
    "stablehlo": "module @jit__lambda attributes {mhlo.num_partitions = 1 : i32, mhlo.num_replicas = 1 : i32} {\n  func.func public @main(%arg0: tensor<2xf32>) -> (tensor<2xf32> {jax.result_info = \"result\"}) {\n    %0 = stablehlo.exponential %arg0 : tensor<2xf32>\n    %1 = stablehlo.exponential %arg0 : tensor<2xf32>\n    %cst = stablehlo.constant dense<0.000000e+00> : tensor<f32>\n    %2 = stablehlo.reduce(%1 init: %cst) applies stablehlo.add across dimensions = [0] : (tensor<2xf32>, tensor<f32>) -> tensor<f32>\n    %3 = stablehlo.broadcast_in_dim %2, dims = [] : (tensor<f32>) -> tensor<2xf32>\n    %4 = stablehlo.divide %0, %3 : tensor<2xf32>\n    return %4 : tensor<2xf32>\n  }\n}\n",
    "metadata": {
      "category": "composite",
      "operation": "softmax",
      "description": "Composite operation: softmax"
    }
  },
  {
    "python_code": "lambda x: jnp.sum(x ** 2)",
    "input_info": [
      {
        "shape": [
          4,
          9
        ],
        "dtype": "float32"
      }
    ],
    "jaxpr": "{ lambda ; a:f32[4,9]. let\n    b:f32[4,9] = integer_pow[y=2] a\n    c:f32[] = reduce_sum[axes=(0, 1) out_sharding=None] b\n  in (c,) }",
    "stablehlo": "module @jit__lambda attributes {mhlo.num_partitions = 1 : i32, mhlo.num_replicas = 1 : i32} {\n  func.func public @main(%arg0: tensor<4x9xf32>) -> (tensor<f32> {jax.result_info = \"result\"}) {\n    %0 = stablehlo.multiply %arg0, %arg0 : tensor<4x9xf32>\n    %cst = stablehlo.constant dense<0.000000e+00> : tensor<f32>\n    %1 = stablehlo.reduce(%0 init: %cst) applies stablehlo.add across dimensions = [0, 1] : (tensor<4x9xf32>, tensor<f32>) -> tensor<f32>\n    return %1 : tensor<f32>\n  }\n}\n",
    "metadata": {
      "category": "composite",
      "operation": "squared_norm",
      "description": "Composite operation: squared_norm"
    }
  },
  {
    "python_code": "lambda x: x / jnp.linalg.norm(x)",
    "input_info": [
      {
        "shape": [
          5,
          5,
          7
        ],
        "dtype": "float32"
      }
    ],
    "jaxpr": "{ lambda ; a:f32[5,5,7]. let\n    b:f32[] = jit[\n      name=norm\n      jaxpr={ lambda ; a:f32[5,5,7]. let\n          c:f32[5,5,7] = mul a a\n          d:f32[] = reduce_sum[axes=(0, 1, 2) out_sharding=None] c\n          b:f32[] = sqrt d\n        in (b,) }\n    ] a\n    e:f32[5,5,7] = div a b\n  in (e,) }",
    "stablehlo": "module @jit__lambda attributes {mhlo.num_partitions = 1 : i32, mhlo.num_replicas = 1 : i32} {\n  func.func public @main(%arg0: tensor<5x5x7xf32>) -> (tensor<5x5x7xf32> {jax.result_info = \"result\"}) {\n    %0 = call @norm(%arg0) : (tensor<5x5x7xf32>) -> tensor<f32>\n    %1 = stablehlo.broadcast_in_dim %0, dims = [] : (tensor<f32>) -> tensor<5x5x7xf32>\n    %2 = stablehlo.divide %arg0, %1 : tensor<5x5x7xf32>\n    return %2 : tensor<5x5x7xf32>\n  }\n  func.func private @norm(%arg0: tensor<5x5x7xf32>) -> tensor<f32> {\n    %0 = stablehlo.multiply %arg0, %arg0 : tensor<5x5x7xf32>\n    %cst = stablehlo.constant dense<0.000000e+00> : tensor<f32>\n    %1 = stablehlo.reduce(%0 init: %cst) applies stablehlo.add across dimensions = [0, 1, 2] : (tensor<5x5x7xf32>, tensor<f32>) -> tensor<f32>\n    %2 = stablehlo.sqrt %1 : tensor<f32>\n    return %2 : tensor<f32>\n  }\n}\n",
    "metadata": {
      "category": "composite",
      "operation": "normalize",
      "description": "Composite operation: normalize"
    }
  },
  {
    "python_code": "lambda x: jnp.sum(x ** 2)",
    "input_info": [
      {
        "shape": [
          7,
          4,
          2
        ],
        "dtype": "float32"
      }
    ],
    "jaxpr": "{ lambda ; a:f32[7,4,2]. let\n    b:f32[7,4,2] = integer_pow[y=2] a\n    c:f32[] = reduce_sum[axes=(0, 1, 2) out_sharding=None] b\n  in (c,) }",
    "stablehlo": "module @jit__lambda attributes {mhlo.num_partitions = 1 : i32, mhlo.num_replicas = 1 : i32} {\n  func.func public @main(%arg0: tensor<7x4x2xf32>) -> (tensor<f32> {jax.result_info = \"result\"}) {\n    %0 = stablehlo.multiply %arg0, %arg0 : tensor<7x4x2xf32>\n    %cst = stablehlo.constant dense<0.000000e+00> : tensor<f32>\n    %1 = stablehlo.reduce(%0 init: %cst) applies stablehlo.add across dimensions = [0, 1, 2] : (tensor<7x4x2xf32>, tensor<f32>) -> tensor<f32>\n    return %1 : tensor<f32>\n  }\n}\n",
    "metadata": {
      "category": "composite",
      "operation": "squared_norm",
      "description": "Composite operation: squared_norm"
    }
  },
  {
    "python_code": "lambda x: x / jnp.linalg.norm(x)",
    "input_info": [
      {
        "shape": [
          5,
          7
        ],
        "dtype": "float32"
      }
    ],
    "jaxpr": "{ lambda ; a:f32[5,7]. let\n    b:f32[] = jit[\n      name=norm\n      jaxpr={ lambda ; a:f32[5,7]. let\n          c:f32[5,7] = mul a a\n          d:f32[] = reduce_sum[axes=(0, 1) out_sharding=None] c\n          b:f32[] = sqrt d\n        in (b,) }\n    ] a\n    e:f32[5,7] = div a b\n  in (e,) }",
    "stablehlo": "module @jit__lambda attributes {mhlo.num_partitions = 1 : i32, mhlo.num_replicas = 1 : i32} {\n  func.func public @main(%arg0: tensor<5x7xf32>) -> (tensor<5x7xf32> {jax.result_info = \"result\"}) {\n    %0 = call @norm(%arg0) : (tensor<5x7xf32>) -> tensor<f32>\n    %1 = stablehlo.broadcast_in_dim %0, dims = [] : (tensor<f32>) -> tensor<5x7xf32>\n    %2 = stablehlo.divide %arg0, %1 : tensor<5x7xf32>\n    return %2 : tensor<5x7xf32>\n  }\n  func.func private @norm(%arg0: tensor<5x7xf32>) -> tensor<f32> {\n    %0 = stablehlo.multiply %arg0, %arg0 : tensor<5x7xf32>\n    %cst = stablehlo.constant dense<0.000000e+00> : tensor<f32>\n    %1 = stablehlo.reduce(%0 init: %cst) applies stablehlo.add across dimensions = [0, 1] : (tensor<5x7xf32>, tensor<f32>) -> tensor<f32>\n    %2 = stablehlo.sqrt %1 : tensor<f32>\n    return %2 : tensor<f32>\n  }\n}\n",
    "metadata": {
      "category": "composite",
      "operation": "normalize",
      "description": "Composite operation: normalize"
    }
  },
  {
    "python_code": "lambda x: jnp.exp(x) / jnp.sum(jnp.exp(x))",
    "input_info": [
      {
        "shape": [
          7,
          5,
          4
        ],
        "dtype": "float32"
      }
    ],
    "jaxpr": "{ lambda ; a:f32[7,5,4]. let\n    b:f32[7,5,4] = exp a\n    c:f32[7,5,4] = exp a\n    d:f32[] = reduce_sum[axes=(0, 1, 2) out_sharding=None] c\n    e:f32[7,5,4] = div b d\n  in (e,) }",
    "stablehlo": "module @jit__lambda attributes {mhlo.num_partitions = 1 : i32, mhlo.num_replicas = 1 : i32} {\n  func.func public @main(%arg0: tensor<7x5x4xf32>) -> (tensor<7x5x4xf32> {jax.result_info = \"result\"}) {\n    %0 = stablehlo.exponential %arg0 : tensor<7x5x4xf32>\n    %1 = stablehlo.exponential %arg0 : tensor<7x5x4xf32>\n    %cst = stablehlo.constant dense<0.000000e+00> : tensor<f32>\n    %2 = stablehlo.reduce(%1 init: %cst) applies stablehlo.add across dimensions = [0, 1, 2] : (tensor<7x5x4xf32>, tensor<f32>) -> tensor<f32>\n    %3 = stablehlo.broadcast_in_dim %2, dims = [] : (tensor<f32>) -> tensor<7x5x4xf32>\n    %4 = stablehlo.divide %0, %3 : tensor<7x5x4xf32>\n    return %4 : tensor<7x5x4xf32>\n  }\n}\n",
    "metadata": {
      "category": "composite",
      "operation": "softmax",
      "description": "Composite operation: softmax"
    }
  },
  {
    "python_code": "lambda x: x / jnp.linalg.norm(x)",
    "input_info": [
      {
        "shape": [
          10,
          2,
          5
        ],
        "dtype": "float32"
      }
    ],
    "jaxpr": "{ lambda ; a:f32[10,2,5]. let\n    b:f32[] = jit[\n      name=norm\n      jaxpr={ lambda ; a:f32[10,2,5]. let\n          c:f32[10,2,5] = mul a a\n          d:f32[] = reduce_sum[axes=(0, 1, 2) out_sharding=None] c\n          b:f32[] = sqrt d\n        in (b,) }\n    ] a\n    e:f32[10,2,5] = div a b\n  in (e,) }",
    "stablehlo": "module @jit__lambda attributes {mhlo.num_partitions = 1 : i32, mhlo.num_replicas = 1 : i32} {\n  func.func public @main(%arg0: tensor<10x2x5xf32>) -> (tensor<10x2x5xf32> {jax.result_info = \"result\"}) {\n    %0 = call @norm(%arg0) : (tensor<10x2x5xf32>) -> tensor<f32>\n    %1 = stablehlo.broadcast_in_dim %0, dims = [] : (tensor<f32>) -> tensor<10x2x5xf32>\n    %2 = stablehlo.divide %arg0, %1 : tensor<10x2x5xf32>\n    return %2 : tensor<10x2x5xf32>\n  }\n  func.func private @norm(%arg0: tensor<10x2x5xf32>) -> tensor<f32> {\n    %0 = stablehlo.multiply %arg0, %arg0 : tensor<10x2x5xf32>\n    %cst = stablehlo.constant dense<0.000000e+00> : tensor<f32>\n    %1 = stablehlo.reduce(%0 init: %cst) applies stablehlo.add across dimensions = [0, 1, 2] : (tensor<10x2x5xf32>, tensor<f32>) -> tensor<f32>\n    %2 = stablehlo.sqrt %1 : tensor<f32>\n    return %2 : tensor<f32>\n  }\n}\n",
    "metadata": {
      "category": "composite",
      "operation": "normalize",
      "description": "Composite operation: normalize"
    }
  },
  {
    "python_code": "lambda x: jnp.exp(x) / jnp.sum(jnp.exp(x))",
    "input_info": [
      {
        "shape": [
          4,
          7,
          3
        ],
        "dtype": "float32"
      }
    ],
    "jaxpr": "{ lambda ; a:f32[4,7,3]. let\n    b:f32[4,7,3] = exp a\n    c:f32[4,7,3] = exp a\n    d:f32[] = reduce_sum[axes=(0, 1, 2) out_sharding=None] c\n    e:f32[4,7,3] = div b d\n  in (e,) }",
    "stablehlo": "module @jit__lambda attributes {mhlo.num_partitions = 1 : i32, mhlo.num_replicas = 1 : i32} {\n  func.func public @main(%arg0: tensor<4x7x3xf32>) -> (tensor<4x7x3xf32> {jax.result_info = \"result\"}) {\n    %0 = stablehlo.exponential %arg0 : tensor<4x7x3xf32>\n    %1 = stablehlo.exponential %arg0 : tensor<4x7x3xf32>\n    %cst = stablehlo.constant dense<0.000000e+00> : tensor<f32>\n    %2 = stablehlo.reduce(%1 init: %cst) applies stablehlo.add across dimensions = [0, 1, 2] : (tensor<4x7x3xf32>, tensor<f32>) -> tensor<f32>\n    %3 = stablehlo.broadcast_in_dim %2, dims = [] : (tensor<f32>) -> tensor<4x7x3xf32>\n    %4 = stablehlo.divide %0, %3 : tensor<4x7x3xf32>\n    return %4 : tensor<4x7x3xf32>\n  }\n}\n",
    "metadata": {
      "category": "composite",
      "operation": "softmax",
      "description": "Composite operation: softmax"
    }
  },
  {
    "python_code": "lambda x: jnp.sum(x ** 2)",
    "input_info": [
      {
        "shape": [
          6,
          5
        ],
        "dtype": "float32"
      }
    ],
    "jaxpr": "{ lambda ; a:f32[6,5]. let\n    b:f32[6,5] = integer_pow[y=2] a\n    c:f32[] = reduce_sum[axes=(0, 1) out_sharding=None] b\n  in (c,) }",
    "stablehlo": "module @jit__lambda attributes {mhlo.num_partitions = 1 : i32, mhlo.num_replicas = 1 : i32} {\n  func.func public @main(%arg0: tensor<6x5xf32>) -> (tensor<f32> {jax.result_info = \"result\"}) {\n    %0 = stablehlo.multiply %arg0, %arg0 : tensor<6x5xf32>\n    %cst = stablehlo.constant dense<0.000000e+00> : tensor<f32>\n    %1 = stablehlo.reduce(%0 init: %cst) applies stablehlo.add across dimensions = [0, 1] : (tensor<6x5xf32>, tensor<f32>) -> tensor<f32>\n    return %1 : tensor<f32>\n  }\n}\n",
    "metadata": {
      "category": "composite",
      "operation": "squared_norm",
      "description": "Composite operation: squared_norm"
    }
  },
  {
    "python_code": "lambda x: jnp.sum(x ** 2)",
    "input_info": [
      {
        "shape": [
          3,
          9
        ],
        "dtype": "float32"
      }
    ],
    "jaxpr": "{ lambda ; a:f32[3,9]. let\n    b:f32[3,9] = integer_pow[y=2] a\n    c:f32[] = reduce_sum[axes=(0, 1) out_sharding=None] b\n  in (c,) }",
    "stablehlo": "module @jit__lambda attributes {mhlo.num_partitions = 1 : i32, mhlo.num_replicas = 1 : i32} {\n  func.func public @main(%arg0: tensor<3x9xf32>) -> (tensor<f32> {jax.result_info = \"result\"}) {\n    %0 = stablehlo.multiply %arg0, %arg0 : tensor<3x9xf32>\n    %cst = stablehlo.constant dense<0.000000e+00> : tensor<f32>\n    %1 = stablehlo.reduce(%0 init: %cst) applies stablehlo.add across dimensions = [0, 1] : (tensor<3x9xf32>, tensor<f32>) -> tensor<f32>\n    return %1 : tensor<f32>\n  }\n}\n",
    "metadata": {
      "category": "composite",
      "operation": "squared_norm",
      "description": "Composite operation: squared_norm"
    }
  },
  {
    "python_code": "lambda x: jnp.exp(x) / jnp.sum(jnp.exp(x))",
    "input_info": [
      {
        "shape": [
          9,
          8,
          7
        ],
        "dtype": "float32"
      }
    ],
    "jaxpr": "{ lambda ; a:f32[9,8,7]. let\n    b:f32[9,8,7] = exp a\n    c:f32[9,8,7] = exp a\n    d:f32[] = reduce_sum[axes=(0, 1, 2) out_sharding=None] c\n    e:f32[9,8,7] = div b d\n  in (e,) }",
    "stablehlo": "module @jit__lambda attributes {mhlo.num_partitions = 1 : i32, mhlo.num_replicas = 1 : i32} {\n  func.func public @main(%arg0: tensor<9x8x7xf32>) -> (tensor<9x8x7xf32> {jax.result_info = \"result\"}) {\n    %0 = stablehlo.exponential %arg0 : tensor<9x8x7xf32>\n    %1 = stablehlo.exponential %arg0 : tensor<9x8x7xf32>\n    %cst = stablehlo.constant dense<0.000000e+00> : tensor<f32>\n    %2 = stablehlo.reduce(%1 init: %cst) applies stablehlo.add across dimensions = [0, 1, 2] : (tensor<9x8x7xf32>, tensor<f32>) -> tensor<f32>\n    %3 = stablehlo.broadcast_in_dim %2, dims = [] : (tensor<f32>) -> tensor<9x8x7xf32>\n    %4 = stablehlo.divide %0, %3 : tensor<9x8x7xf32>\n    return %4 : tensor<9x8x7xf32>\n  }\n}\n",
    "metadata": {
      "category": "composite",
      "operation": "softmax",
      "description": "Composite operation: softmax"
    }
  },
  {
    "python_code": "lambda x: x / jnp.linalg.norm(x)",
    "input_info": [
      {
        "shape": [
          10,
          2,
          10
        ],
        "dtype": "float32"
      }
    ],
    "jaxpr": "{ lambda ; a:f32[10,2,10]. let\n    b:f32[] = jit[\n      name=norm\n      jaxpr={ lambda ; a:f32[10,2,10]. let\n          c:f32[10,2,10] = mul a a\n          d:f32[] = reduce_sum[axes=(0, 1, 2) out_sharding=None] c\n          b:f32[] = sqrt d\n        in (b,) }\n    ] a\n    e:f32[10,2,10] = div a b\n  in (e,) }",
    "stablehlo": "module @jit__lambda attributes {mhlo.num_partitions = 1 : i32, mhlo.num_replicas = 1 : i32} {\n  func.func public @main(%arg0: tensor<10x2x10xf32>) -> (tensor<10x2x10xf32> {jax.result_info = \"result\"}) {\n    %0 = call @norm(%arg0) : (tensor<10x2x10xf32>) -> tensor<f32>\n    %1 = stablehlo.broadcast_in_dim %0, dims = [] : (tensor<f32>) -> tensor<10x2x10xf32>\n    %2 = stablehlo.divide %arg0, %1 : tensor<10x2x10xf32>\n    return %2 : tensor<10x2x10xf32>\n  }\n  func.func private @norm(%arg0: tensor<10x2x10xf32>) -> tensor<f32> {\n    %0 = stablehlo.multiply %arg0, %arg0 : tensor<10x2x10xf32>\n    %cst = stablehlo.constant dense<0.000000e+00> : tensor<f32>\n    %1 = stablehlo.reduce(%0 init: %cst) applies stablehlo.add across dimensions = [0, 1, 2] : (tensor<10x2x10xf32>, tensor<f32>) -> tensor<f32>\n    %2 = stablehlo.sqrt %1 : tensor<f32>\n    return %2 : tensor<f32>\n  }\n}\n",
    "metadata": {
      "category": "composite",
      "operation": "normalize",
      "description": "Composite operation: normalize"
    }
  },
  {
    "python_code": "lambda x, w: jnp.sum(x * w)",
    "input_info": [
      {
        "shape": [
          4
        ],
        "dtype": "float32"
      },
      {
        "shape": [
          2,
          4
        ],
        "dtype": "float32"
      }
    ],
    "jaxpr": "{ lambda ; a:f32[4] b:f32[2,4]. let\n    c:f32[1,4] = broadcast_in_dim[\n      broadcast_dimensions=(1,)\n      shape=(1, 4)\n      sharding=None\n    ] a\n    d:f32[2,4] = mul c b\n    e:f32[] = reduce_sum[axes=(0, 1) out_sharding=None] d\n  in (e,) }",
    "stablehlo": "module @jit__lambda attributes {mhlo.num_partitions = 1 : i32, mhlo.num_replicas = 1 : i32} {\n  func.func public @main(%arg0: tensor<4xf32>, %arg1: tensor<2x4xf32>) -> (tensor<f32> {jax.result_info = \"result\"}) {\n    %0 = stablehlo.broadcast_in_dim %arg0, dims = [1] : (tensor<4xf32>) -> tensor<1x4xf32>\n    %1 = stablehlo.broadcast_in_dim %0, dims = [0, 1] : (tensor<1x4xf32>) -> tensor<2x4xf32>\n    %2 = stablehlo.multiply %1, %arg1 : tensor<2x4xf32>\n    %cst = stablehlo.constant dense<0.000000e+00> : tensor<f32>\n    %3 = stablehlo.reduce(%2 init: %cst) applies stablehlo.add across dimensions = [0, 1] : (tensor<2x4xf32>, tensor<f32>) -> tensor<f32>\n    return %3 : tensor<f32>\n  }\n}\n",
    "metadata": {
      "category": "composite",
      "operation": "weighted_sum",
      "description": "Composite operation: weighted_sum"
    }
  },
  {
    "python_code": "lambda x: jnp.exp(x) / jnp.sum(jnp.exp(x))",
    "input_info": [
      {
        "shape": [
          2,
          8
        ],
        "dtype": "float32"
      }
    ],
    "jaxpr": "{ lambda ; a:f32[2,8]. let\n    b:f32[2,8] = exp a\n    c:f32[2,8] = exp a\n    d:f32[] = reduce_sum[axes=(0, 1) out_sharding=None] c\n    e:f32[2,8] = div b d\n  in (e,) }",
    "stablehlo": "module @jit__lambda attributes {mhlo.num_partitions = 1 : i32, mhlo.num_replicas = 1 : i32} {\n  func.func public @main(%arg0: tensor<2x8xf32>) -> (tensor<2x8xf32> {jax.result_info = \"result\"}) {\n    %0 = stablehlo.exponential %arg0 : tensor<2x8xf32>\n    %1 = stablehlo.exponential %arg0 : tensor<2x8xf32>\n    %cst = stablehlo.constant dense<0.000000e+00> : tensor<f32>\n    %2 = stablehlo.reduce(%1 init: %cst) applies stablehlo.add across dimensions = [0, 1] : (tensor<2x8xf32>, tensor<f32>) -> tensor<f32>\n    %3 = stablehlo.broadcast_in_dim %2, dims = [] : (tensor<f32>) -> tensor<2x8xf32>\n    %4 = stablehlo.divide %0, %3 : tensor<2x8xf32>\n    return %4 : tensor<2x8xf32>\n  }\n}\n",
    "metadata": {
      "category": "composite",
      "operation": "softmax",
      "description": "Composite operation: softmax"
    }
  },
  {
    "python_code": "lambda x: jnp.sum(x ** 2)",
    "input_info": [
      {
        "shape": [
          8
        ],
        "dtype": "float32"
      }
    ],
    "jaxpr": "{ lambda ; a:f32[8]. let\n    b:f32[8] = integer_pow[y=2] a\n    c:f32[] = reduce_sum[axes=(0,) out_sharding=None] b\n  in (c,) }",
    "stablehlo": "module @jit__lambda attributes {mhlo.num_partitions = 1 : i32, mhlo.num_replicas = 1 : i32} {\n  func.func public @main(%arg0: tensor<8xf32>) -> (tensor<f32> {jax.result_info = \"result\"}) {\n    %0 = stablehlo.multiply %arg0, %arg0 : tensor<8xf32>\n    %cst = stablehlo.constant dense<0.000000e+00> : tensor<f32>\n    %1 = stablehlo.reduce(%0 init: %cst) applies stablehlo.add across dimensions = [0] : (tensor<8xf32>, tensor<f32>) -> tensor<f32>\n    return %1 : tensor<f32>\n  }\n}\n",
    "metadata": {
      "category": "composite",
      "operation": "squared_norm",
      "description": "Composite operation: squared_norm"
    }
  },
  {
    "python_code": "lambda x: jnp.sum(x ** 2)",
    "input_info": [
      {
        "shape": [
          9
        ],
        "dtype": "float32"
      }
    ],
    "jaxpr": "{ lambda ; a:f32[9]. let\n    b:f32[9] = integer_pow[y=2] a\n    c:f32[] = reduce_sum[axes=(0,) out_sharding=None] b\n  in (c,) }",
    "stablehlo": "module @jit__lambda attributes {mhlo.num_partitions = 1 : i32, mhlo.num_replicas = 1 : i32} {\n  func.func public @main(%arg0: tensor<9xf32>) -> (tensor<f32> {jax.result_info = \"result\"}) {\n    %0 = stablehlo.multiply %arg0, %arg0 : tensor<9xf32>\n    %cst = stablehlo.constant dense<0.000000e+00> : tensor<f32>\n    %1 = stablehlo.reduce(%0 init: %cst) applies stablehlo.add across dimensions = [0] : (tensor<9xf32>, tensor<f32>) -> tensor<f32>\n    return %1 : tensor<f32>\n  }\n}\n",
    "metadata": {
      "category": "composite",
      "operation": "squared_norm",
      "description": "Composite operation: squared_norm"
    }
  },
  {
    "python_code": "lambda x: x / jnp.linalg.norm(x)",
    "input_info": [
      {
        "shape": [
          7,
          2
        ],
        "dtype": "float32"
      }
    ],
    "jaxpr": "{ lambda ; a:f32[7,2]. let\n    b:f32[] = jit[\n      name=norm\n      jaxpr={ lambda ; a:f32[7,2]. let\n          c:f32[7,2] = mul a a\n          d:f32[] = reduce_sum[axes=(0, 1) out_sharding=None] c\n          b:f32[] = sqrt d\n        in (b,) }\n    ] a\n    e:f32[7,2] = div a b\n  in (e,) }",
    "stablehlo": "module @jit__lambda attributes {mhlo.num_partitions = 1 : i32, mhlo.num_replicas = 1 : i32} {\n  func.func public @main(%arg0: tensor<7x2xf32>) -> (tensor<7x2xf32> {jax.result_info = \"result\"}) {\n    %0 = call @norm(%arg0) : (tensor<7x2xf32>) -> tensor<f32>\n    %1 = stablehlo.broadcast_in_dim %0, dims = [] : (tensor<f32>) -> tensor<7x2xf32>\n    %2 = stablehlo.divide %arg0, %1 : tensor<7x2xf32>\n    return %2 : tensor<7x2xf32>\n  }\n  func.func private @norm(%arg0: tensor<7x2xf32>) -> tensor<f32> {\n    %0 = stablehlo.multiply %arg0, %arg0 : tensor<7x2xf32>\n    %cst = stablehlo.constant dense<0.000000e+00> : tensor<f32>\n    %1 = stablehlo.reduce(%0 init: %cst) applies stablehlo.add across dimensions = [0, 1] : (tensor<7x2xf32>, tensor<f32>) -> tensor<f32>\n    %2 = stablehlo.sqrt %1 : tensor<f32>\n    return %2 : tensor<f32>\n  }\n}\n",
    "metadata": {
      "category": "composite",
      "operation": "normalize",
      "description": "Composite operation: normalize"
    }
  },
  {
    "python_code": "lambda x: jnp.exp(x) / jnp.sum(jnp.exp(x))",
    "input_info": [
      {
        "shape": [
          3,
          2
        ],
        "dtype": "float32"
      }
    ],
    "jaxpr": "{ lambda ; a:f32[3,2]. let\n    b:f32[3,2] = exp a\n    c:f32[3,2] = exp a\n    d:f32[] = reduce_sum[axes=(0, 1) out_sharding=None] c\n    e:f32[3,2] = div b d\n  in (e,) }",
    "stablehlo": "module @jit__lambda attributes {mhlo.num_partitions = 1 : i32, mhlo.num_replicas = 1 : i32} {\n  func.func public @main(%arg0: tensor<3x2xf32>) -> (tensor<3x2xf32> {jax.result_info = \"result\"}) {\n    %0 = stablehlo.exponential %arg0 : tensor<3x2xf32>\n    %1 = stablehlo.exponential %arg0 : tensor<3x2xf32>\n    %cst = stablehlo.constant dense<0.000000e+00> : tensor<f32>\n    %2 = stablehlo.reduce(%1 init: %cst) applies stablehlo.add across dimensions = [0, 1] : (tensor<3x2xf32>, tensor<f32>) -> tensor<f32>\n    %3 = stablehlo.broadcast_in_dim %2, dims = [] : (tensor<f32>) -> tensor<3x2xf32>\n    %4 = stablehlo.divide %0, %3 : tensor<3x2xf32>\n    return %4 : tensor<3x2xf32>\n  }\n}\n",
    "metadata": {
      "category": "composite",
      "operation": "softmax",
      "description": "Composite operation: softmax"
    }
  },
  {
    "python_code": "lambda x: x / jnp.linalg.norm(x)",
    "input_info": [
      {
        "shape": [
          4
        ],
        "dtype": "float32"
      }
    ],
    "jaxpr": "{ lambda ; a:f32[4]. let\n    b:f32[] = jit[\n      name=norm\n      jaxpr={ lambda ; a:f32[4]. let\n          c:f32[4] = mul a a\n          d:f32[] = reduce_sum[axes=(0,) out_sharding=None] c\n          b:f32[] = sqrt d\n        in (b,) }\n    ] a\n    e:f32[4] = div a b\n  in (e,) }",
    "stablehlo": "module @jit__lambda attributes {mhlo.num_partitions = 1 : i32, mhlo.num_replicas = 1 : i32} {\n  func.func public @main(%arg0: tensor<4xf32>) -> (tensor<4xf32> {jax.result_info = \"result\"}) {\n    %0 = call @norm(%arg0) : (tensor<4xf32>) -> tensor<f32>\n    %1 = stablehlo.broadcast_in_dim %0, dims = [] : (tensor<f32>) -> tensor<4xf32>\n    %2 = stablehlo.divide %arg0, %1 : tensor<4xf32>\n    return %2 : tensor<4xf32>\n  }\n  func.func private @norm(%arg0: tensor<4xf32>) -> tensor<f32> {\n    %0 = stablehlo.multiply %arg0, %arg0 : tensor<4xf32>\n    %cst = stablehlo.constant dense<0.000000e+00> : tensor<f32>\n    %1 = stablehlo.reduce(%0 init: %cst) applies stablehlo.add across dimensions = [0] : (tensor<4xf32>, tensor<f32>) -> tensor<f32>\n    %2 = stablehlo.sqrt %1 : tensor<f32>\n    return %2 : tensor<f32>\n  }\n}\n",
    "metadata": {
      "category": "composite",
      "operation": "normalize",
      "description": "Composite operation: normalize"
    }
  },
  {
    "python_code": "lambda x: jnp.sum(x ** 2)",
    "input_info": [
      {
        "shape": [
          7,
          3
        ],
        "dtype": "float32"
      }
    ],
    "jaxpr": "{ lambda ; a:f32[7,3]. let\n    b:f32[7,3] = integer_pow[y=2] a\n    c:f32[] = reduce_sum[axes=(0, 1) out_sharding=None] b\n  in (c,) }",
    "stablehlo": "module @jit__lambda attributes {mhlo.num_partitions = 1 : i32, mhlo.num_replicas = 1 : i32} {\n  func.func public @main(%arg0: tensor<7x3xf32>) -> (tensor<f32> {jax.result_info = \"result\"}) {\n    %0 = stablehlo.multiply %arg0, %arg0 : tensor<7x3xf32>\n    %cst = stablehlo.constant dense<0.000000e+00> : tensor<f32>\n    %1 = stablehlo.reduce(%0 init: %cst) applies stablehlo.add across dimensions = [0, 1] : (tensor<7x3xf32>, tensor<f32>) -> tensor<f32>\n    return %1 : tensor<f32>\n  }\n}\n",
    "metadata": {
      "category": "composite",
      "operation": "squared_norm",
      "description": "Composite operation: squared_norm"
    }
  },
  {
    "python_code": "lambda x: jnp.exp(x) / jnp.sum(jnp.exp(x))",
    "input_info": [
      {
        "shape": [
          4,
          7,
          7
        ],
        "dtype": "float32"
      }
    ],
    "jaxpr": "{ lambda ; a:f32[4,7,7]. let\n    b:f32[4,7,7] = exp a\n    c:f32[4,7,7] = exp a\n    d:f32[] = reduce_sum[axes=(0, 1, 2) out_sharding=None] c\n    e:f32[4,7,7] = div b d\n  in (e,) }",
    "stablehlo": "module @jit__lambda attributes {mhlo.num_partitions = 1 : i32, mhlo.num_replicas = 1 : i32} {\n  func.func public @main(%arg0: tensor<4x7x7xf32>) -> (tensor<4x7x7xf32> {jax.result_info = \"result\"}) {\n    %0 = stablehlo.exponential %arg0 : tensor<4x7x7xf32>\n    %1 = stablehlo.exponential %arg0 : tensor<4x7x7xf32>\n    %cst = stablehlo.constant dense<0.000000e+00> : tensor<f32>\n    %2 = stablehlo.reduce(%1 init: %cst) applies stablehlo.add across dimensions = [0, 1, 2] : (tensor<4x7x7xf32>, tensor<f32>) -> tensor<f32>\n    %3 = stablehlo.broadcast_in_dim %2, dims = [] : (tensor<f32>) -> tensor<4x7x7xf32>\n    %4 = stablehlo.divide %0, %3 : tensor<4x7x7xf32>\n    return %4 : tensor<4x7x7xf32>\n  }\n}\n",
    "metadata": {
      "category": "composite",
      "operation": "softmax",
      "description": "Composite operation: softmax"
    }
  },
  {
    "python_code": "lambda x: x / jnp.linalg.norm(x)",
    "input_info": [
      {
        "shape": [
          4
        ],
        "dtype": "float32"
      }
    ],
    "jaxpr": "{ lambda ; a:f32[4]. let\n    b:f32[] = jit[\n      name=norm\n      jaxpr={ lambda ; a:f32[4]. let\n          c:f32[4] = mul a a\n          d:f32[] = reduce_sum[axes=(0,) out_sharding=None] c\n          b:f32[] = sqrt d\n        in (b,) }\n    ] a\n    e:f32[4] = div a b\n  in (e,) }",
    "stablehlo": "module @jit__lambda attributes {mhlo.num_partitions = 1 : i32, mhlo.num_replicas = 1 : i32} {\n  func.func public @main(%arg0: tensor<4xf32>) -> (tensor<4xf32> {jax.result_info = \"result\"}) {\n    %0 = call @norm(%arg0) : (tensor<4xf32>) -> tensor<f32>\n    %1 = stablehlo.broadcast_in_dim %0, dims = [] : (tensor<f32>) -> tensor<4xf32>\n    %2 = stablehlo.divide %arg0, %1 : tensor<4xf32>\n    return %2 : tensor<4xf32>\n  }\n  func.func private @norm(%arg0: tensor<4xf32>) -> tensor<f32> {\n    %0 = stablehlo.multiply %arg0, %arg0 : tensor<4xf32>\n    %cst = stablehlo.constant dense<0.000000e+00> : tensor<f32>\n    %1 = stablehlo.reduce(%0 init: %cst) applies stablehlo.add across dimensions = [0] : (tensor<4xf32>, tensor<f32>) -> tensor<f32>\n    %2 = stablehlo.sqrt %1 : tensor<f32>\n    return %2 : tensor<f32>\n  }\n}\n",
    "metadata": {
      "category": "composite",
      "operation": "normalize",
      "description": "Composite operation: normalize"
    }
  },
  {
    "python_code": "lambda x: x / jnp.linalg.norm(x)",
    "input_info": [
      {
        "shape": [
          10
        ],
        "dtype": "float32"
      }
    ],
    "jaxpr": "{ lambda ; a:f32[10]. let\n    b:f32[] = jit[\n      name=norm\n      jaxpr={ lambda ; a:f32[10]. let\n          c:f32[10] = mul a a\n          d:f32[] = reduce_sum[axes=(0,) out_sharding=None] c\n          b:f32[] = sqrt d\n        in (b,) }\n    ] a\n    e:f32[10] = div a b\n  in (e,) }",
    "stablehlo": "module @jit__lambda attributes {mhlo.num_partitions = 1 : i32, mhlo.num_replicas = 1 : i32} {\n  func.func public @main(%arg0: tensor<10xf32>) -> (tensor<10xf32> {jax.result_info = \"result\"}) {\n    %0 = call @norm(%arg0) : (tensor<10xf32>) -> tensor<f32>\n    %1 = stablehlo.broadcast_in_dim %0, dims = [] : (tensor<f32>) -> tensor<10xf32>\n    %2 = stablehlo.divide %arg0, %1 : tensor<10xf32>\n    return %2 : tensor<10xf32>\n  }\n  func.func private @norm(%arg0: tensor<10xf32>) -> tensor<f32> {\n    %0 = stablehlo.multiply %arg0, %arg0 : tensor<10xf32>\n    %cst = stablehlo.constant dense<0.000000e+00> : tensor<f32>\n    %1 = stablehlo.reduce(%0 init: %cst) applies stablehlo.add across dimensions = [0] : (tensor<10xf32>, tensor<f32>) -> tensor<f32>\n    %2 = stablehlo.sqrt %1 : tensor<f32>\n    return %2 : tensor<f32>\n  }\n}\n",
    "metadata": {
      "category": "composite",
      "operation": "normalize",
      "description": "Composite operation: normalize"
    }
  },
  {
    "python_code": "lambda x: jnp.exp(x) / jnp.sum(jnp.exp(x))",
    "input_info": [
      {
        "shape": [
          10,
          10
        ],
        "dtype": "float32"
      }
    ],
    "jaxpr": "{ lambda ; a:f32[10,10]. let\n    b:f32[10,10] = exp a\n    c:f32[10,10] = exp a\n    d:f32[] = reduce_sum[axes=(0, 1) out_sharding=None] c\n    e:f32[10,10] = div b d\n  in (e,) }",
    "stablehlo": "module @jit__lambda attributes {mhlo.num_partitions = 1 : i32, mhlo.num_replicas = 1 : i32} {\n  func.func public @main(%arg0: tensor<10x10xf32>) -> (tensor<10x10xf32> {jax.result_info = \"result\"}) {\n    %0 = stablehlo.exponential %arg0 : tensor<10x10xf32>\n    %1 = stablehlo.exponential %arg0 : tensor<10x10xf32>\n    %cst = stablehlo.constant dense<0.000000e+00> : tensor<f32>\n    %2 = stablehlo.reduce(%1 init: %cst) applies stablehlo.add across dimensions = [0, 1] : (tensor<10x10xf32>, tensor<f32>) -> tensor<f32>\n    %3 = stablehlo.broadcast_in_dim %2, dims = [] : (tensor<f32>) -> tensor<10x10xf32>\n    %4 = stablehlo.divide %0, %3 : tensor<10x10xf32>\n    return %4 : tensor<10x10xf32>\n  }\n}\n",
    "metadata": {
      "category": "composite",
      "operation": "softmax",
      "description": "Composite operation: softmax"
    }
  },
  {
    "python_code": "lambda x: jnp.exp(x) / jnp.sum(jnp.exp(x))",
    "input_info": [
      {
        "shape": [
          8
        ],
        "dtype": "float32"
      }
    ],
    "jaxpr": "{ lambda ; a:f32[8]. let\n    b:f32[8] = exp a\n    c:f32[8] = exp a\n    d:f32[] = reduce_sum[axes=(0,) out_sharding=None] c\n    e:f32[8] = div b d\n  in (e,) }",
    "stablehlo": "module @jit__lambda attributes {mhlo.num_partitions = 1 : i32, mhlo.num_replicas = 1 : i32} {\n  func.func public @main(%arg0: tensor<8xf32>) -> (tensor<8xf32> {jax.result_info = \"result\"}) {\n    %0 = stablehlo.exponential %arg0 : tensor<8xf32>\n    %1 = stablehlo.exponential %arg0 : tensor<8xf32>\n    %cst = stablehlo.constant dense<0.000000e+00> : tensor<f32>\n    %2 = stablehlo.reduce(%1 init: %cst) applies stablehlo.add across dimensions = [0] : (tensor<8xf32>, tensor<f32>) -> tensor<f32>\n    %3 = stablehlo.broadcast_in_dim %2, dims = [] : (tensor<f32>) -> tensor<8xf32>\n    %4 = stablehlo.divide %0, %3 : tensor<8xf32>\n    return %4 : tensor<8xf32>\n  }\n}\n",
    "metadata": {
      "category": "composite",
      "operation": "softmax",
      "description": "Composite operation: softmax"
    }
  },
  {
    "python_code": "lambda x: jnp.exp(x) / jnp.sum(jnp.exp(x))",
    "input_info": [
      {
        "shape": [
          8,
          5,
          5
        ],
        "dtype": "float32"
      }
    ],
    "jaxpr": "{ lambda ; a:f32[8,5,5]. let\n    b:f32[8,5,5] = exp a\n    c:f32[8,5,5] = exp a\n    d:f32[] = reduce_sum[axes=(0, 1, 2) out_sharding=None] c\n    e:f32[8,5,5] = div b d\n  in (e,) }",
    "stablehlo": "module @jit__lambda attributes {mhlo.num_partitions = 1 : i32, mhlo.num_replicas = 1 : i32} {\n  func.func public @main(%arg0: tensor<8x5x5xf32>) -> (tensor<8x5x5xf32> {jax.result_info = \"result\"}) {\n    %0 = stablehlo.exponential %arg0 : tensor<8x5x5xf32>\n    %1 = stablehlo.exponential %arg0 : tensor<8x5x5xf32>\n    %cst = stablehlo.constant dense<0.000000e+00> : tensor<f32>\n    %2 = stablehlo.reduce(%1 init: %cst) applies stablehlo.add across dimensions = [0, 1, 2] : (tensor<8x5x5xf32>, tensor<f32>) -> tensor<f32>\n    %3 = stablehlo.broadcast_in_dim %2, dims = [] : (tensor<f32>) -> tensor<8x5x5xf32>\n    %4 = stablehlo.divide %0, %3 : tensor<8x5x5xf32>\n    return %4 : tensor<8x5x5xf32>\n  }\n}\n",
    "metadata": {
      "category": "composite",
      "operation": "softmax",
      "description": "Composite operation: softmax"
    }
  },
  {
    "python_code": "lambda x: jnp.exp(x) / jnp.sum(jnp.exp(x))",
    "input_info": [
      {
        "shape": [
          5,
          4,
          8
        ],
        "dtype": "float32"
      }
    ],
    "jaxpr": "{ lambda ; a:f32[5,4,8]. let\n    b:f32[5,4,8] = exp a\n    c:f32[5,4,8] = exp a\n    d:f32[] = reduce_sum[axes=(0, 1, 2) out_sharding=None] c\n    e:f32[5,4,8] = div b d\n  in (e,) }",
    "stablehlo": "module @jit__lambda attributes {mhlo.num_partitions = 1 : i32, mhlo.num_replicas = 1 : i32} {\n  func.func public @main(%arg0: tensor<5x4x8xf32>) -> (tensor<5x4x8xf32> {jax.result_info = \"result\"}) {\n    %0 = stablehlo.exponential %arg0 : tensor<5x4x8xf32>\n    %1 = stablehlo.exponential %arg0 : tensor<5x4x8xf32>\n    %cst = stablehlo.constant dense<0.000000e+00> : tensor<f32>\n    %2 = stablehlo.reduce(%1 init: %cst) applies stablehlo.add across dimensions = [0, 1, 2] : (tensor<5x4x8xf32>, tensor<f32>) -> tensor<f32>\n    %3 = stablehlo.broadcast_in_dim %2, dims = [] : (tensor<f32>) -> tensor<5x4x8xf32>\n    %4 = stablehlo.divide %0, %3 : tensor<5x4x8xf32>\n    return %4 : tensor<5x4x8xf32>\n  }\n}\n",
    "metadata": {
      "category": "composite",
      "operation": "softmax",
      "description": "Composite operation: softmax"
    }
  },
  {
    "python_code": "lambda x: x / jnp.linalg.norm(x)",
    "input_info": [
      {
        "shape": [
          2
        ],
        "dtype": "float32"
      }
    ],
    "jaxpr": "{ lambda ; a:f32[2]. let\n    b:f32[] = jit[\n      name=norm\n      jaxpr={ lambda ; a:f32[2]. let\n          c:f32[2] = mul a a\n          d:f32[] = reduce_sum[axes=(0,) out_sharding=None] c\n          b:f32[] = sqrt d\n        in (b,) }\n    ] a\n    e:f32[2] = div a b\n  in (e,) }",
    "stablehlo": "module @jit__lambda attributes {mhlo.num_partitions = 1 : i32, mhlo.num_replicas = 1 : i32} {\n  func.func public @main(%arg0: tensor<2xf32>) -> (tensor<2xf32> {jax.result_info = \"result\"}) {\n    %0 = call @norm(%arg0) : (tensor<2xf32>) -> tensor<f32>\n    %1 = stablehlo.broadcast_in_dim %0, dims = [] : (tensor<f32>) -> tensor<2xf32>\n    %2 = stablehlo.divide %arg0, %1 : tensor<2xf32>\n    return %2 : tensor<2xf32>\n  }\n  func.func private @norm(%arg0: tensor<2xf32>) -> tensor<f32> {\n    %0 = stablehlo.multiply %arg0, %arg0 : tensor<2xf32>\n    %cst = stablehlo.constant dense<0.000000e+00> : tensor<f32>\n    %1 = stablehlo.reduce(%0 init: %cst) applies stablehlo.add across dimensions = [0] : (tensor<2xf32>, tensor<f32>) -> tensor<f32>\n    %2 = stablehlo.sqrt %1 : tensor<f32>\n    return %2 : tensor<f32>\n  }\n}\n",
    "metadata": {
      "category": "composite",
      "operation": "normalize",
      "description": "Composite operation: normalize"
    }
  },
  {
    "python_code": "lambda x: x / jnp.linalg.norm(x)",
    "input_info": [
      {
        "shape": [
          7
        ],
        "dtype": "float32"
      }
    ],
    "jaxpr": "{ lambda ; a:f32[7]. let\n    b:f32[] = jit[\n      name=norm\n      jaxpr={ lambda ; a:f32[7]. let\n          c:f32[7] = mul a a\n          d:f32[] = reduce_sum[axes=(0,) out_sharding=None] c\n          b:f32[] = sqrt d\n        in (b,) }\n    ] a\n    e:f32[7] = div a b\n  in (e,) }",
    "stablehlo": "module @jit__lambda attributes {mhlo.num_partitions = 1 : i32, mhlo.num_replicas = 1 : i32} {\n  func.func public @main(%arg0: tensor<7xf32>) -> (tensor<7xf32> {jax.result_info = \"result\"}) {\n    %0 = call @norm(%arg0) : (tensor<7xf32>) -> tensor<f32>\n    %1 = stablehlo.broadcast_in_dim %0, dims = [] : (tensor<f32>) -> tensor<7xf32>\n    %2 = stablehlo.divide %arg0, %1 : tensor<7xf32>\n    return %2 : tensor<7xf32>\n  }\n  func.func private @norm(%arg0: tensor<7xf32>) -> tensor<f32> {\n    %0 = stablehlo.multiply %arg0, %arg0 : tensor<7xf32>\n    %cst = stablehlo.constant dense<0.000000e+00> : tensor<f32>\n    %1 = stablehlo.reduce(%0 init: %cst) applies stablehlo.add across dimensions = [0] : (tensor<7xf32>, tensor<f32>) -> tensor<f32>\n    %2 = stablehlo.sqrt %1 : tensor<f32>\n    return %2 : tensor<f32>\n  }\n}\n",
    "metadata": {
      "category": "composite",
      "operation": "normalize",
      "description": "Composite operation: normalize"
    }
  },
  {
    "python_code": "lambda x: jnp.exp(x) / jnp.sum(jnp.exp(x))",
    "input_info": [
      {
        "shape": [
          8
        ],
        "dtype": "float32"
      }
    ],
    "jaxpr": "{ lambda ; a:f32[8]. let\n    b:f32[8] = exp a\n    c:f32[8] = exp a\n    d:f32[] = reduce_sum[axes=(0,) out_sharding=None] c\n    e:f32[8] = div b d\n  in (e,) }",
    "stablehlo": "module @jit__lambda attributes {mhlo.num_partitions = 1 : i32, mhlo.num_replicas = 1 : i32} {\n  func.func public @main(%arg0: tensor<8xf32>) -> (tensor<8xf32> {jax.result_info = \"result\"}) {\n    %0 = stablehlo.exponential %arg0 : tensor<8xf32>\n    %1 = stablehlo.exponential %arg0 : tensor<8xf32>\n    %cst = stablehlo.constant dense<0.000000e+00> : tensor<f32>\n    %2 = stablehlo.reduce(%1 init: %cst) applies stablehlo.add across dimensions = [0] : (tensor<8xf32>, tensor<f32>) -> tensor<f32>\n    %3 = stablehlo.broadcast_in_dim %2, dims = [] : (tensor<f32>) -> tensor<8xf32>\n    %4 = stablehlo.divide %0, %3 : tensor<8xf32>\n    return %4 : tensor<8xf32>\n  }\n}\n",
    "metadata": {
      "category": "composite",
      "operation": "softmax",
      "description": "Composite operation: softmax"
    }
  },
  {
    "python_code": "lambda x: jnp.sum(x ** 2)",
    "input_info": [
      {
        "shape": [
          4,
          9,
          3
        ],
        "dtype": "float32"
      }
    ],
    "jaxpr": "{ lambda ; a:f32[4,9,3]. let\n    b:f32[4,9,3] = integer_pow[y=2] a\n    c:f32[] = reduce_sum[axes=(0, 1, 2) out_sharding=None] b\n  in (c,) }",
    "stablehlo": "module @jit__lambda attributes {mhlo.num_partitions = 1 : i32, mhlo.num_replicas = 1 : i32} {\n  func.func public @main(%arg0: tensor<4x9x3xf32>) -> (tensor<f32> {jax.result_info = \"result\"}) {\n    %0 = stablehlo.multiply %arg0, %arg0 : tensor<4x9x3xf32>\n    %cst = stablehlo.constant dense<0.000000e+00> : tensor<f32>\n    %1 = stablehlo.reduce(%0 init: %cst) applies stablehlo.add across dimensions = [0, 1, 2] : (tensor<4x9x3xf32>, tensor<f32>) -> tensor<f32>\n    return %1 : tensor<f32>\n  }\n}\n",
    "metadata": {
      "category": "composite",
      "operation": "squared_norm",
      "description": "Composite operation: squared_norm"
    }
  },
  {
    "python_code": "lambda x: x / jnp.linalg.norm(x)",
    "input_info": [
      {
        "shape": [
          2,
          6,
          9
        ],
        "dtype": "float32"
      }
    ],
    "jaxpr": "{ lambda ; a:f32[2,6,9]. let\n    b:f32[] = jit[\n      name=norm\n      jaxpr={ lambda ; a:f32[2,6,9]. let\n          c:f32[2,6,9] = mul a a\n          d:f32[] = reduce_sum[axes=(0, 1, 2) out_sharding=None] c\n          b:f32[] = sqrt d\n        in (b,) }\n    ] a\n    e:f32[2,6,9] = div a b\n  in (e,) }",
    "stablehlo": "module @jit__lambda attributes {mhlo.num_partitions = 1 : i32, mhlo.num_replicas = 1 : i32} {\n  func.func public @main(%arg0: tensor<2x6x9xf32>) -> (tensor<2x6x9xf32> {jax.result_info = \"result\"}) {\n    %0 = call @norm(%arg0) : (tensor<2x6x9xf32>) -> tensor<f32>\n    %1 = stablehlo.broadcast_in_dim %0, dims = [] : (tensor<f32>) -> tensor<2x6x9xf32>\n    %2 = stablehlo.divide %arg0, %1 : tensor<2x6x9xf32>\n    return %2 : tensor<2x6x9xf32>\n  }\n  func.func private @norm(%arg0: tensor<2x6x9xf32>) -> tensor<f32> {\n    %0 = stablehlo.multiply %arg0, %arg0 : tensor<2x6x9xf32>\n    %cst = stablehlo.constant dense<0.000000e+00> : tensor<f32>\n    %1 = stablehlo.reduce(%0 init: %cst) applies stablehlo.add across dimensions = [0, 1, 2] : (tensor<2x6x9xf32>, tensor<f32>) -> tensor<f32>\n    %2 = stablehlo.sqrt %1 : tensor<f32>\n    return %2 : tensor<f32>\n  }\n}\n",
    "metadata": {
      "category": "composite",
      "operation": "normalize",
      "description": "Composite operation: normalize"
    }
  },
  {
    "python_code": "lambda x: x / jnp.linalg.norm(x)",
    "input_info": [
      {
        "shape": [
          3
        ],
        "dtype": "float32"
      }
    ],
    "jaxpr": "{ lambda ; a:f32[3]. let\n    b:f32[] = jit[\n      name=norm\n      jaxpr={ lambda ; a:f32[3]. let\n          c:f32[3] = mul a a\n          d:f32[] = reduce_sum[axes=(0,) out_sharding=None] c\n          b:f32[] = sqrt d\n        in (b,) }\n    ] a\n    e:f32[3] = div a b\n  in (e,) }",
    "stablehlo": "module @jit__lambda attributes {mhlo.num_partitions = 1 : i32, mhlo.num_replicas = 1 : i32} {\n  func.func public @main(%arg0: tensor<3xf32>) -> (tensor<3xf32> {jax.result_info = \"result\"}) {\n    %0 = call @norm(%arg0) : (tensor<3xf32>) -> tensor<f32>\n    %1 = stablehlo.broadcast_in_dim %0, dims = [] : (tensor<f32>) -> tensor<3xf32>\n    %2 = stablehlo.divide %arg0, %1 : tensor<3xf32>\n    return %2 : tensor<3xf32>\n  }\n  func.func private @norm(%arg0: tensor<3xf32>) -> tensor<f32> {\n    %0 = stablehlo.multiply %arg0, %arg0 : tensor<3xf32>\n    %cst = stablehlo.constant dense<0.000000e+00> : tensor<f32>\n    %1 = stablehlo.reduce(%0 init: %cst) applies stablehlo.add across dimensions = [0] : (tensor<3xf32>, tensor<f32>) -> tensor<f32>\n    %2 = stablehlo.sqrt %1 : tensor<f32>\n    return %2 : tensor<f32>\n  }\n}\n",
    "metadata": {
      "category": "composite",
      "operation": "normalize",
      "description": "Composite operation: normalize"
    }
  },
  {
    "python_code": "lambda x: jnp.exp(x) / jnp.sum(jnp.exp(x))",
    "input_info": [
      {
        "shape": [
          3,
          4
        ],
        "dtype": "float32"
      }
    ],
    "jaxpr": "{ lambda ; a:f32[3,4]. let\n    b:f32[3,4] = exp a\n    c:f32[3,4] = exp a\n    d:f32[] = reduce_sum[axes=(0, 1) out_sharding=None] c\n    e:f32[3,4] = div b d\n  in (e,) }",
    "stablehlo": "module @jit__lambda attributes {mhlo.num_partitions = 1 : i32, mhlo.num_replicas = 1 : i32} {\n  func.func public @main(%arg0: tensor<3x4xf32>) -> (tensor<3x4xf32> {jax.result_info = \"result\"}) {\n    %0 = stablehlo.exponential %arg0 : tensor<3x4xf32>\n    %1 = stablehlo.exponential %arg0 : tensor<3x4xf32>\n    %cst = stablehlo.constant dense<0.000000e+00> : tensor<f32>\n    %2 = stablehlo.reduce(%1 init: %cst) applies stablehlo.add across dimensions = [0, 1] : (tensor<3x4xf32>, tensor<f32>) -> tensor<f32>\n    %3 = stablehlo.broadcast_in_dim %2, dims = [] : (tensor<f32>) -> tensor<3x4xf32>\n    %4 = stablehlo.divide %0, %3 : tensor<3x4xf32>\n    return %4 : tensor<3x4xf32>\n  }\n}\n",
    "metadata": {
      "category": "composite",
      "operation": "softmax",
      "description": "Composite operation: softmax"
    }
  },
  {
    "python_code": "lambda x: x / jnp.linalg.norm(x)",
    "input_info": [
      {
        "shape": [
          5,
          10,
          5
        ],
        "dtype": "float32"
      }
    ],
    "jaxpr": "{ lambda ; a:f32[5,10,5]. let\n    b:f32[] = jit[\n      name=norm\n      jaxpr={ lambda ; a:f32[5,10,5]. let\n          c:f32[5,10,5] = mul a a\n          d:f32[] = reduce_sum[axes=(0, 1, 2) out_sharding=None] c\n          b:f32[] = sqrt d\n        in (b,) }\n    ] a\n    e:f32[5,10,5] = div a b\n  in (e,) }",
    "stablehlo": "module @jit__lambda attributes {mhlo.num_partitions = 1 : i32, mhlo.num_replicas = 1 : i32} {\n  func.func public @main(%arg0: tensor<5x10x5xf32>) -> (tensor<5x10x5xf32> {jax.result_info = \"result\"}) {\n    %0 = call @norm(%arg0) : (tensor<5x10x5xf32>) -> tensor<f32>\n    %1 = stablehlo.broadcast_in_dim %0, dims = [] : (tensor<f32>) -> tensor<5x10x5xf32>\n    %2 = stablehlo.divide %arg0, %1 : tensor<5x10x5xf32>\n    return %2 : tensor<5x10x5xf32>\n  }\n  func.func private @norm(%arg0: tensor<5x10x5xf32>) -> tensor<f32> {\n    %0 = stablehlo.multiply %arg0, %arg0 : tensor<5x10x5xf32>\n    %cst = stablehlo.constant dense<0.000000e+00> : tensor<f32>\n    %1 = stablehlo.reduce(%0 init: %cst) applies stablehlo.add across dimensions = [0, 1, 2] : (tensor<5x10x5xf32>, tensor<f32>) -> tensor<f32>\n    %2 = stablehlo.sqrt %1 : tensor<f32>\n    return %2 : tensor<f32>\n  }\n}\n",
    "metadata": {
      "category": "composite",
      "operation": "normalize",
      "description": "Composite operation: normalize"
    }
  },
  {
    "python_code": "lambda x: jnp.sum(x ** 2)",
    "input_info": [
      {
        "shape": [
          2,
          3
        ],
        "dtype": "float32"
      }
    ],
    "jaxpr": "{ lambda ; a:f32[2,3]. let\n    b:f32[2,3] = integer_pow[y=2] a\n    c:f32[] = reduce_sum[axes=(0, 1) out_sharding=None] b\n  in (c,) }",
    "stablehlo": "module @jit__lambda attributes {mhlo.num_partitions = 1 : i32, mhlo.num_replicas = 1 : i32} {\n  func.func public @main(%arg0: tensor<2x3xf32>) -> (tensor<f32> {jax.result_info = \"result\"}) {\n    %0 = stablehlo.multiply %arg0, %arg0 : tensor<2x3xf32>\n    %cst = stablehlo.constant dense<0.000000e+00> : tensor<f32>\n    %1 = stablehlo.reduce(%0 init: %cst) applies stablehlo.add across dimensions = [0, 1] : (tensor<2x3xf32>, tensor<f32>) -> tensor<f32>\n    return %1 : tensor<f32>\n  }\n}\n",
    "metadata": {
      "category": "composite",
      "operation": "squared_norm",
      "description": "Composite operation: squared_norm"
    }
  },
  {
    "python_code": "lambda x: x / jnp.linalg.norm(x)",
    "input_info": [
      {
        "shape": [
          7,
          4,
          2
        ],
        "dtype": "float32"
      }
    ],
    "jaxpr": "{ lambda ; a:f32[7,4,2]. let\n    b:f32[] = jit[\n      name=norm\n      jaxpr={ lambda ; a:f32[7,4,2]. let\n          c:f32[7,4,2] = mul a a\n          d:f32[] = reduce_sum[axes=(0, 1, 2) out_sharding=None] c\n          b:f32[] = sqrt d\n        in (b,) }\n    ] a\n    e:f32[7,4,2] = div a b\n  in (e,) }",
    "stablehlo": "module @jit__lambda attributes {mhlo.num_partitions = 1 : i32, mhlo.num_replicas = 1 : i32} {\n  func.func public @main(%arg0: tensor<7x4x2xf32>) -> (tensor<7x4x2xf32> {jax.result_info = \"result\"}) {\n    %0 = call @norm(%arg0) : (tensor<7x4x2xf32>) -> tensor<f32>\n    %1 = stablehlo.broadcast_in_dim %0, dims = [] : (tensor<f32>) -> tensor<7x4x2xf32>\n    %2 = stablehlo.divide %arg0, %1 : tensor<7x4x2xf32>\n    return %2 : tensor<7x4x2xf32>\n  }\n  func.func private @norm(%arg0: tensor<7x4x2xf32>) -> tensor<f32> {\n    %0 = stablehlo.multiply %arg0, %arg0 : tensor<7x4x2xf32>\n    %cst = stablehlo.constant dense<0.000000e+00> : tensor<f32>\n    %1 = stablehlo.reduce(%0 init: %cst) applies stablehlo.add across dimensions = [0, 1, 2] : (tensor<7x4x2xf32>, tensor<f32>) -> tensor<f32>\n    %2 = stablehlo.sqrt %1 : tensor<f32>\n    return %2 : tensor<f32>\n  }\n}\n",
    "metadata": {
      "category": "composite",
      "operation": "normalize",
      "description": "Composite operation: normalize"
    }
  },
  {
    "python_code": "lambda x: x / jnp.linalg.norm(x)",
    "input_info": [
      {
        "shape": [
          10
        ],
        "dtype": "float32"
      }
    ],
    "jaxpr": "{ lambda ; a:f32[10]. let\n    b:f32[] = jit[\n      name=norm\n      jaxpr={ lambda ; a:f32[10]. let\n          c:f32[10] = mul a a\n          d:f32[] = reduce_sum[axes=(0,) out_sharding=None] c\n          b:f32[] = sqrt d\n        in (b,) }\n    ] a\n    e:f32[10] = div a b\n  in (e,) }",
    "stablehlo": "module @jit__lambda attributes {mhlo.num_partitions = 1 : i32, mhlo.num_replicas = 1 : i32} {\n  func.func public @main(%arg0: tensor<10xf32>) -> (tensor<10xf32> {jax.result_info = \"result\"}) {\n    %0 = call @norm(%arg0) : (tensor<10xf32>) -> tensor<f32>\n    %1 = stablehlo.broadcast_in_dim %0, dims = [] : (tensor<f32>) -> tensor<10xf32>\n    %2 = stablehlo.divide %arg0, %1 : tensor<10xf32>\n    return %2 : tensor<10xf32>\n  }\n  func.func private @norm(%arg0: tensor<10xf32>) -> tensor<f32> {\n    %0 = stablehlo.multiply %arg0, %arg0 : tensor<10xf32>\n    %cst = stablehlo.constant dense<0.000000e+00> : tensor<f32>\n    %1 = stablehlo.reduce(%0 init: %cst) applies stablehlo.add across dimensions = [0] : (tensor<10xf32>, tensor<f32>) -> tensor<f32>\n    %2 = stablehlo.sqrt %1 : tensor<f32>\n    return %2 : tensor<f32>\n  }\n}\n",
    "metadata": {
      "category": "composite",
      "operation": "normalize",
      "description": "Composite operation: normalize"
    }
  },
  {
    "python_code": "lambda x: jnp.exp(x) / jnp.sum(jnp.exp(x))",
    "input_info": [
      {
        "shape": [
          9
        ],
        "dtype": "float32"
      }
    ],
    "jaxpr": "{ lambda ; a:f32[9]. let\n    b:f32[9] = exp a\n    c:f32[9] = exp a\n    d:f32[] = reduce_sum[axes=(0,) out_sharding=None] c\n    e:f32[9] = div b d\n  in (e,) }",
    "stablehlo": "module @jit__lambda attributes {mhlo.num_partitions = 1 : i32, mhlo.num_replicas = 1 : i32} {\n  func.func public @main(%arg0: tensor<9xf32>) -> (tensor<9xf32> {jax.result_info = \"result\"}) {\n    %0 = stablehlo.exponential %arg0 : tensor<9xf32>\n    %1 = stablehlo.exponential %arg0 : tensor<9xf32>\n    %cst = stablehlo.constant dense<0.000000e+00> : tensor<f32>\n    %2 = stablehlo.reduce(%1 init: %cst) applies stablehlo.add across dimensions = [0] : (tensor<9xf32>, tensor<f32>) -> tensor<f32>\n    %3 = stablehlo.broadcast_in_dim %2, dims = [] : (tensor<f32>) -> tensor<9xf32>\n    %4 = stablehlo.divide %0, %3 : tensor<9xf32>\n    return %4 : tensor<9xf32>\n  }\n}\n",
    "metadata": {
      "category": "composite",
      "operation": "softmax",
      "description": "Composite operation: softmax"
    }
  },
  {
    "python_code": "lambda x: x / jnp.linalg.norm(x)",
    "input_info": [
      {
        "shape": [
          3
        ],
        "dtype": "float32"
      }
    ],
    "jaxpr": "{ lambda ; a:f32[3]. let\n    b:f32[] = jit[\n      name=norm\n      jaxpr={ lambda ; a:f32[3]. let\n          c:f32[3] = mul a a\n          d:f32[] = reduce_sum[axes=(0,) out_sharding=None] c\n          b:f32[] = sqrt d\n        in (b,) }\n    ] a\n    e:f32[3] = div a b\n  in (e,) }",
    "stablehlo": "module @jit__lambda attributes {mhlo.num_partitions = 1 : i32, mhlo.num_replicas = 1 : i32} {\n  func.func public @main(%arg0: tensor<3xf32>) -> (tensor<3xf32> {jax.result_info = \"result\"}) {\n    %0 = call @norm(%arg0) : (tensor<3xf32>) -> tensor<f32>\n    %1 = stablehlo.broadcast_in_dim %0, dims = [] : (tensor<f32>) -> tensor<3xf32>\n    %2 = stablehlo.divide %arg0, %1 : tensor<3xf32>\n    return %2 : tensor<3xf32>\n  }\n  func.func private @norm(%arg0: tensor<3xf32>) -> tensor<f32> {\n    %0 = stablehlo.multiply %arg0, %arg0 : tensor<3xf32>\n    %cst = stablehlo.constant dense<0.000000e+00> : tensor<f32>\n    %1 = stablehlo.reduce(%0 init: %cst) applies stablehlo.add across dimensions = [0] : (tensor<3xf32>, tensor<f32>) -> tensor<f32>\n    %2 = stablehlo.sqrt %1 : tensor<f32>\n    return %2 : tensor<f32>\n  }\n}\n",
    "metadata": {
      "category": "composite",
      "operation": "normalize",
      "description": "Composite operation: normalize"
    }
  },
  {
    "python_code": "lambda x: jnp.exp(x) / jnp.sum(jnp.exp(x))",
    "input_info": [
      {
        "shape": [
          2,
          5,
          4
        ],
        "dtype": "float32"
      }
    ],
    "jaxpr": "{ lambda ; a:f32[2,5,4]. let\n    b:f32[2,5,4] = exp a\n    c:f32[2,5,4] = exp a\n    d:f32[] = reduce_sum[axes=(0, 1, 2) out_sharding=None] c\n    e:f32[2,5,4] = div b d\n  in (e,) }",
    "stablehlo": "module @jit__lambda attributes {mhlo.num_partitions = 1 : i32, mhlo.num_replicas = 1 : i32} {\n  func.func public @main(%arg0: tensor<2x5x4xf32>) -> (tensor<2x5x4xf32> {jax.result_info = \"result\"}) {\n    %0 = stablehlo.exponential %arg0 : tensor<2x5x4xf32>\n    %1 = stablehlo.exponential %arg0 : tensor<2x5x4xf32>\n    %cst = stablehlo.constant dense<0.000000e+00> : tensor<f32>\n    %2 = stablehlo.reduce(%1 init: %cst) applies stablehlo.add across dimensions = [0, 1, 2] : (tensor<2x5x4xf32>, tensor<f32>) -> tensor<f32>\n    %3 = stablehlo.broadcast_in_dim %2, dims = [] : (tensor<f32>) -> tensor<2x5x4xf32>\n    %4 = stablehlo.divide %0, %3 : tensor<2x5x4xf32>\n    return %4 : tensor<2x5x4xf32>\n  }\n}\n",
    "metadata": {
      "category": "composite",
      "operation": "softmax",
      "description": "Composite operation: softmax"
    }
  },
  {
    "python_code": "lambda x: x / jnp.linalg.norm(x)",
    "input_info": [
      {
        "shape": [
          5
        ],
        "dtype": "float32"
      }
    ],
    "jaxpr": "{ lambda ; a:f32[5]. let\n    b:f32[] = jit[\n      name=norm\n      jaxpr={ lambda ; a:f32[5]. let\n          c:f32[5] = mul a a\n          d:f32[] = reduce_sum[axes=(0,) out_sharding=None] c\n          b:f32[] = sqrt d\n        in (b,) }\n    ] a\n    e:f32[5] = div a b\n  in (e,) }",
    "stablehlo": "module @jit__lambda attributes {mhlo.num_partitions = 1 : i32, mhlo.num_replicas = 1 : i32} {\n  func.func public @main(%arg0: tensor<5xf32>) -> (tensor<5xf32> {jax.result_info = \"result\"}) {\n    %0 = call @norm(%arg0) : (tensor<5xf32>) -> tensor<f32>\n    %1 = stablehlo.broadcast_in_dim %0, dims = [] : (tensor<f32>) -> tensor<5xf32>\n    %2 = stablehlo.divide %arg0, %1 : tensor<5xf32>\n    return %2 : tensor<5xf32>\n  }\n  func.func private @norm(%arg0: tensor<5xf32>) -> tensor<f32> {\n    %0 = stablehlo.multiply %arg0, %arg0 : tensor<5xf32>\n    %cst = stablehlo.constant dense<0.000000e+00> : tensor<f32>\n    %1 = stablehlo.reduce(%0 init: %cst) applies stablehlo.add across dimensions = [0] : (tensor<5xf32>, tensor<f32>) -> tensor<f32>\n    %2 = stablehlo.sqrt %1 : tensor<f32>\n    return %2 : tensor<f32>\n  }\n}\n",
    "metadata": {
      "category": "composite",
      "operation": "normalize",
      "description": "Composite operation: normalize"
    }
  },
  {
    "python_code": "lambda x: x / jnp.linalg.norm(x)",
    "input_info": [
      {
        "shape": [
          6,
          2
        ],
        "dtype": "float32"
      }
    ],
    "jaxpr": "{ lambda ; a:f32[6,2]. let\n    b:f32[] = jit[\n      name=norm\n      jaxpr={ lambda ; a:f32[6,2]. let\n          c:f32[6,2] = mul a a\n          d:f32[] = reduce_sum[axes=(0, 1) out_sharding=None] c\n          b:f32[] = sqrt d\n        in (b,) }\n    ] a\n    e:f32[6,2] = div a b\n  in (e,) }",
    "stablehlo": "module @jit__lambda attributes {mhlo.num_partitions = 1 : i32, mhlo.num_replicas = 1 : i32} {\n  func.func public @main(%arg0: tensor<6x2xf32>) -> (tensor<6x2xf32> {jax.result_info = \"result\"}) {\n    %0 = call @norm(%arg0) : (tensor<6x2xf32>) -> tensor<f32>\n    %1 = stablehlo.broadcast_in_dim %0, dims = [] : (tensor<f32>) -> tensor<6x2xf32>\n    %2 = stablehlo.divide %arg0, %1 : tensor<6x2xf32>\n    return %2 : tensor<6x2xf32>\n  }\n  func.func private @norm(%arg0: tensor<6x2xf32>) -> tensor<f32> {\n    %0 = stablehlo.multiply %arg0, %arg0 : tensor<6x2xf32>\n    %cst = stablehlo.constant dense<0.000000e+00> : tensor<f32>\n    %1 = stablehlo.reduce(%0 init: %cst) applies stablehlo.add across dimensions = [0, 1] : (tensor<6x2xf32>, tensor<f32>) -> tensor<f32>\n    %2 = stablehlo.sqrt %1 : tensor<f32>\n    return %2 : tensor<f32>\n  }\n}\n",
    "metadata": {
      "category": "composite",
      "operation": "normalize",
      "description": "Composite operation: normalize"
    }
  },
  {
    "python_code": "lambda x: jnp.sum(x ** 2)",
    "input_info": [
      {
        "shape": [
          8
        ],
        "dtype": "float32"
      }
    ],
    "jaxpr": "{ lambda ; a:f32[8]. let\n    b:f32[8] = integer_pow[y=2] a\n    c:f32[] = reduce_sum[axes=(0,) out_sharding=None] b\n  in (c,) }",
    "stablehlo": "module @jit__lambda attributes {mhlo.num_partitions = 1 : i32, mhlo.num_replicas = 1 : i32} {\n  func.func public @main(%arg0: tensor<8xf32>) -> (tensor<f32> {jax.result_info = \"result\"}) {\n    %0 = stablehlo.multiply %arg0, %arg0 : tensor<8xf32>\n    %cst = stablehlo.constant dense<0.000000e+00> : tensor<f32>\n    %1 = stablehlo.reduce(%0 init: %cst) applies stablehlo.add across dimensions = [0] : (tensor<8xf32>, tensor<f32>) -> tensor<f32>\n    return %1 : tensor<f32>\n  }\n}\n",
    "metadata": {
      "category": "composite",
      "operation": "squared_norm",
      "description": "Composite operation: squared_norm"
    }
  },
  {
    "python_code": "lambda x, w: jnp.sum(x * w)",
    "input_info": [
      {
        "shape": [
          7,
          8
        ],
        "dtype": "float32"
      },
      {
        "shape": [
          8
        ],
        "dtype": "float32"
      }
    ],
    "jaxpr": "{ lambda ; a:f32[7,8] b:f32[8]. let\n    c:f32[1,8] = broadcast_in_dim[\n      broadcast_dimensions=(1,)\n      shape=(1, 8)\n      sharding=None\n    ] b\n    d:f32[7,8] = mul a c\n    e:f32[] = reduce_sum[axes=(0, 1) out_sharding=None] d\n  in (e,) }",
    "stablehlo": "module @jit__lambda attributes {mhlo.num_partitions = 1 : i32, mhlo.num_replicas = 1 : i32} {\n  func.func public @main(%arg0: tensor<7x8xf32>, %arg1: tensor<8xf32>) -> (tensor<f32> {jax.result_info = \"result\"}) {\n    %0 = stablehlo.broadcast_in_dim %arg1, dims = [1] : (tensor<8xf32>) -> tensor<1x8xf32>\n    %1 = stablehlo.broadcast_in_dim %0, dims = [0, 1] : (tensor<1x8xf32>) -> tensor<7x8xf32>\n    %2 = stablehlo.multiply %arg0, %1 : tensor<7x8xf32>\n    %cst = stablehlo.constant dense<0.000000e+00> : tensor<f32>\n    %3 = stablehlo.reduce(%2 init: %cst) applies stablehlo.add across dimensions = [0, 1] : (tensor<7x8xf32>, tensor<f32>) -> tensor<f32>\n    return %3 : tensor<f32>\n  }\n}\n",
    "metadata": {
      "category": "composite",
      "operation": "weighted_sum",
      "description": "Composite operation: weighted_sum"
    }
  },
  {
    "python_code": "lambda x: x / jnp.linalg.norm(x)",
    "input_info": [
      {
        "shape": [
          5,
          8
        ],
        "dtype": "float32"
      }
    ],
    "jaxpr": "{ lambda ; a:f32[5,8]. let\n    b:f32[] = jit[\n      name=norm\n      jaxpr={ lambda ; a:f32[5,8]. let\n          c:f32[5,8] = mul a a\n          d:f32[] = reduce_sum[axes=(0, 1) out_sharding=None] c\n          b:f32[] = sqrt d\n        in (b,) }\n    ] a\n    e:f32[5,8] = div a b\n  in (e,) }",
    "stablehlo": "module @jit__lambda attributes {mhlo.num_partitions = 1 : i32, mhlo.num_replicas = 1 : i32} {\n  func.func public @main(%arg0: tensor<5x8xf32>) -> (tensor<5x8xf32> {jax.result_info = \"result\"}) {\n    %0 = call @norm(%arg0) : (tensor<5x8xf32>) -> tensor<f32>\n    %1 = stablehlo.broadcast_in_dim %0, dims = [] : (tensor<f32>) -> tensor<5x8xf32>\n    %2 = stablehlo.divide %arg0, %1 : tensor<5x8xf32>\n    return %2 : tensor<5x8xf32>\n  }\n  func.func private @norm(%arg0: tensor<5x8xf32>) -> tensor<f32> {\n    %0 = stablehlo.multiply %arg0, %arg0 : tensor<5x8xf32>\n    %cst = stablehlo.constant dense<0.000000e+00> : tensor<f32>\n    %1 = stablehlo.reduce(%0 init: %cst) applies stablehlo.add across dimensions = [0, 1] : (tensor<5x8xf32>, tensor<f32>) -> tensor<f32>\n    %2 = stablehlo.sqrt %1 : tensor<f32>\n    return %2 : tensor<f32>\n  }\n}\n",
    "metadata": {
      "category": "composite",
      "operation": "normalize",
      "description": "Composite operation: normalize"
    }
  },
  {
    "python_code": "lambda x: jnp.sum(x ** 2)",
    "input_info": [
      {
        "shape": [
          5,
          5,
          7
        ],
        "dtype": "float32"
      }
    ],
    "jaxpr": "{ lambda ; a:f32[5,5,7]. let\n    b:f32[5,5,7] = integer_pow[y=2] a\n    c:f32[] = reduce_sum[axes=(0, 1, 2) out_sharding=None] b\n  in (c,) }",
    "stablehlo": "module @jit__lambda attributes {mhlo.num_partitions = 1 : i32, mhlo.num_replicas = 1 : i32} {\n  func.func public @main(%arg0: tensor<5x5x7xf32>) -> (tensor<f32> {jax.result_info = \"result\"}) {\n    %0 = stablehlo.multiply %arg0, %arg0 : tensor<5x5x7xf32>\n    %cst = stablehlo.constant dense<0.000000e+00> : tensor<f32>\n    %1 = stablehlo.reduce(%0 init: %cst) applies stablehlo.add across dimensions = [0, 1, 2] : (tensor<5x5x7xf32>, tensor<f32>) -> tensor<f32>\n    return %1 : tensor<f32>\n  }\n}\n",
    "metadata": {
      "category": "composite",
      "operation": "squared_norm",
      "description": "Composite operation: squared_norm"
    }
  },
  {
    "python_code": "lambda x: jnp.exp(x) / jnp.sum(jnp.exp(x))",
    "input_info": [
      {
        "shape": [
          2,
          5,
          3
        ],
        "dtype": "float32"
      }
    ],
    "jaxpr": "{ lambda ; a:f32[2,5,3]. let\n    b:f32[2,5,3] = exp a\n    c:f32[2,5,3] = exp a\n    d:f32[] = reduce_sum[axes=(0, 1, 2) out_sharding=None] c\n    e:f32[2,5,3] = div b d\n  in (e,) }",
    "stablehlo": "module @jit__lambda attributes {mhlo.num_partitions = 1 : i32, mhlo.num_replicas = 1 : i32} {\n  func.func public @main(%arg0: tensor<2x5x3xf32>) -> (tensor<2x5x3xf32> {jax.result_info = \"result\"}) {\n    %0 = stablehlo.exponential %arg0 : tensor<2x5x3xf32>\n    %1 = stablehlo.exponential %arg0 : tensor<2x5x3xf32>\n    %cst = stablehlo.constant dense<0.000000e+00> : tensor<f32>\n    %2 = stablehlo.reduce(%1 init: %cst) applies stablehlo.add across dimensions = [0, 1, 2] : (tensor<2x5x3xf32>, tensor<f32>) -> tensor<f32>\n    %3 = stablehlo.broadcast_in_dim %2, dims = [] : (tensor<f32>) -> tensor<2x5x3xf32>\n    %4 = stablehlo.divide %0, %3 : tensor<2x5x3xf32>\n    return %4 : tensor<2x5x3xf32>\n  }\n}\n",
    "metadata": {
      "category": "composite",
      "operation": "softmax",
      "description": "Composite operation: softmax"
    }
  },
  {
    "python_code": "lambda x: x / jnp.linalg.norm(x)",
    "input_info": [
      {
        "shape": [
          8
        ],
        "dtype": "float32"
      }
    ],
    "jaxpr": "{ lambda ; a:f32[8]. let\n    b:f32[] = jit[\n      name=norm\n      jaxpr={ lambda ; a:f32[8]. let\n          c:f32[8] = mul a a\n          d:f32[] = reduce_sum[axes=(0,) out_sharding=None] c\n          b:f32[] = sqrt d\n        in (b,) }\n    ] a\n    e:f32[8] = div a b\n  in (e,) }",
    "stablehlo": "module @jit__lambda attributes {mhlo.num_partitions = 1 : i32, mhlo.num_replicas = 1 : i32} {\n  func.func public @main(%arg0: tensor<8xf32>) -> (tensor<8xf32> {jax.result_info = \"result\"}) {\n    %0 = call @norm(%arg0) : (tensor<8xf32>) -> tensor<f32>\n    %1 = stablehlo.broadcast_in_dim %0, dims = [] : (tensor<f32>) -> tensor<8xf32>\n    %2 = stablehlo.divide %arg0, %1 : tensor<8xf32>\n    return %2 : tensor<8xf32>\n  }\n  func.func private @norm(%arg0: tensor<8xf32>) -> tensor<f32> {\n    %0 = stablehlo.multiply %arg0, %arg0 : tensor<8xf32>\n    %cst = stablehlo.constant dense<0.000000e+00> : tensor<f32>\n    %1 = stablehlo.reduce(%0 init: %cst) applies stablehlo.add across dimensions = [0] : (tensor<8xf32>, tensor<f32>) -> tensor<f32>\n    %2 = stablehlo.sqrt %1 : tensor<f32>\n    return %2 : tensor<f32>\n  }\n}\n",
    "metadata": {
      "category": "composite",
      "operation": "normalize",
      "description": "Composite operation: normalize"
    }
  },
  {
    "python_code": "lambda x: jnp.sum(x ** 2)",
    "input_info": [
      {
        "shape": [
          3,
          9
        ],
        "dtype": "float32"
      }
    ],
    "jaxpr": "{ lambda ; a:f32[3,9]. let\n    b:f32[3,9] = integer_pow[y=2] a\n    c:f32[] = reduce_sum[axes=(0, 1) out_sharding=None] b\n  in (c,) }",
    "stablehlo": "module @jit__lambda attributes {mhlo.num_partitions = 1 : i32, mhlo.num_replicas = 1 : i32} {\n  func.func public @main(%arg0: tensor<3x9xf32>) -> (tensor<f32> {jax.result_info = \"result\"}) {\n    %0 = stablehlo.multiply %arg0, %arg0 : tensor<3x9xf32>\n    %cst = stablehlo.constant dense<0.000000e+00> : tensor<f32>\n    %1 = stablehlo.reduce(%0 init: %cst) applies stablehlo.add across dimensions = [0, 1] : (tensor<3x9xf32>, tensor<f32>) -> tensor<f32>\n    return %1 : tensor<f32>\n  }\n}\n",
    "metadata": {
      "category": "composite",
      "operation": "squared_norm",
      "description": "Composite operation: squared_norm"
    }
  },
  {
    "python_code": "lambda x: jnp.sum(x ** 2)",
    "input_info": [
      {
        "shape": [
          10,
          8
        ],
        "dtype": "float32"
      }
    ],
    "jaxpr": "{ lambda ; a:f32[10,8]. let\n    b:f32[10,8] = integer_pow[y=2] a\n    c:f32[] = reduce_sum[axes=(0, 1) out_sharding=None] b\n  in (c,) }",
    "stablehlo": "module @jit__lambda attributes {mhlo.num_partitions = 1 : i32, mhlo.num_replicas = 1 : i32} {\n  func.func public @main(%arg0: tensor<10x8xf32>) -> (tensor<f32> {jax.result_info = \"result\"}) {\n    %0 = stablehlo.multiply %arg0, %arg0 : tensor<10x8xf32>\n    %cst = stablehlo.constant dense<0.000000e+00> : tensor<f32>\n    %1 = stablehlo.reduce(%0 init: %cst) applies stablehlo.add across dimensions = [0, 1] : (tensor<10x8xf32>, tensor<f32>) -> tensor<f32>\n    return %1 : tensor<f32>\n  }\n}\n",
    "metadata": {
      "category": "composite",
      "operation": "squared_norm",
      "description": "Composite operation: squared_norm"
    }
  },
  {
    "python_code": "lambda x: x / jnp.linalg.norm(x)",
    "input_info": [
      {
        "shape": [
          6,
          2
        ],
        "dtype": "float32"
      }
    ],
    "jaxpr": "{ lambda ; a:f32[6,2]. let\n    b:f32[] = jit[\n      name=norm\n      jaxpr={ lambda ; a:f32[6,2]. let\n          c:f32[6,2] = mul a a\n          d:f32[] = reduce_sum[axes=(0, 1) out_sharding=None] c\n          b:f32[] = sqrt d\n        in (b,) }\n    ] a\n    e:f32[6,2] = div a b\n  in (e,) }",
    "stablehlo": "module @jit__lambda attributes {mhlo.num_partitions = 1 : i32, mhlo.num_replicas = 1 : i32} {\n  func.func public @main(%arg0: tensor<6x2xf32>) -> (tensor<6x2xf32> {jax.result_info = \"result\"}) {\n    %0 = call @norm(%arg0) : (tensor<6x2xf32>) -> tensor<f32>\n    %1 = stablehlo.broadcast_in_dim %0, dims = [] : (tensor<f32>) -> tensor<6x2xf32>\n    %2 = stablehlo.divide %arg0, %1 : tensor<6x2xf32>\n    return %2 : tensor<6x2xf32>\n  }\n  func.func private @norm(%arg0: tensor<6x2xf32>) -> tensor<f32> {\n    %0 = stablehlo.multiply %arg0, %arg0 : tensor<6x2xf32>\n    %cst = stablehlo.constant dense<0.000000e+00> : tensor<f32>\n    %1 = stablehlo.reduce(%0 init: %cst) applies stablehlo.add across dimensions = [0, 1] : (tensor<6x2xf32>, tensor<f32>) -> tensor<f32>\n    %2 = stablehlo.sqrt %1 : tensor<f32>\n    return %2 : tensor<f32>\n  }\n}\n",
    "metadata": {
      "category": "composite",
      "operation": "normalize",
      "description": "Composite operation: normalize"
    }
  },
  {
    "python_code": "lambda x: jnp.sum(x ** 2)",
    "input_info": [
      {
        "shape": [
          10
        ],
        "dtype": "float32"
      }
    ],
    "jaxpr": "{ lambda ; a:f32[10]. let\n    b:f32[10] = integer_pow[y=2] a\n    c:f32[] = reduce_sum[axes=(0,) out_sharding=None] b\n  in (c,) }",
    "stablehlo": "module @jit__lambda attributes {mhlo.num_partitions = 1 : i32, mhlo.num_replicas = 1 : i32} {\n  func.func public @main(%arg0: tensor<10xf32>) -> (tensor<f32> {jax.result_info = \"result\"}) {\n    %0 = stablehlo.multiply %arg0, %arg0 : tensor<10xf32>\n    %cst = stablehlo.constant dense<0.000000e+00> : tensor<f32>\n    %1 = stablehlo.reduce(%0 init: %cst) applies stablehlo.add across dimensions = [0] : (tensor<10xf32>, tensor<f32>) -> tensor<f32>\n    return %1 : tensor<f32>\n  }\n}\n",
    "metadata": {
      "category": "composite",
      "operation": "squared_norm",
      "description": "Composite operation: squared_norm"
    }
  },
  {
    "python_code": "lambda x: jnp.exp(x) / jnp.sum(jnp.exp(x))",
    "input_info": [
      {
        "shape": [
          5
        ],
        "dtype": "float32"
      }
    ],
    "jaxpr": "{ lambda ; a:f32[5]. let\n    b:f32[5] = exp a\n    c:f32[5] = exp a\n    d:f32[] = reduce_sum[axes=(0,) out_sharding=None] c\n    e:f32[5] = div b d\n  in (e,) }",
    "stablehlo": "module @jit__lambda attributes {mhlo.num_partitions = 1 : i32, mhlo.num_replicas = 1 : i32} {\n  func.func public @main(%arg0: tensor<5xf32>) -> (tensor<5xf32> {jax.result_info = \"result\"}) {\n    %0 = stablehlo.exponential %arg0 : tensor<5xf32>\n    %1 = stablehlo.exponential %arg0 : tensor<5xf32>\n    %cst = stablehlo.constant dense<0.000000e+00> : tensor<f32>\n    %2 = stablehlo.reduce(%1 init: %cst) applies stablehlo.add across dimensions = [0] : (tensor<5xf32>, tensor<f32>) -> tensor<f32>\n    %3 = stablehlo.broadcast_in_dim %2, dims = [] : (tensor<f32>) -> tensor<5xf32>\n    %4 = stablehlo.divide %0, %3 : tensor<5xf32>\n    return %4 : tensor<5xf32>\n  }\n}\n",
    "metadata": {
      "category": "composite",
      "operation": "softmax",
      "description": "Composite operation: softmax"
    }
  },
  {
    "python_code": "lambda x: jnp.sum(x ** 2)",
    "input_info": [
      {
        "shape": [
          10,
          9,
          5
        ],
        "dtype": "float32"
      }
    ],
    "jaxpr": "{ lambda ; a:f32[10,9,5]. let\n    b:f32[10,9,5] = integer_pow[y=2] a\n    c:f32[] = reduce_sum[axes=(0, 1, 2) out_sharding=None] b\n  in (c,) }",
    "stablehlo": "module @jit__lambda attributes {mhlo.num_partitions = 1 : i32, mhlo.num_replicas = 1 : i32} {\n  func.func public @main(%arg0: tensor<10x9x5xf32>) -> (tensor<f32> {jax.result_info = \"result\"}) {\n    %0 = stablehlo.multiply %arg0, %arg0 : tensor<10x9x5xf32>\n    %cst = stablehlo.constant dense<0.000000e+00> : tensor<f32>\n    %1 = stablehlo.reduce(%0 init: %cst) applies stablehlo.add across dimensions = [0, 1, 2] : (tensor<10x9x5xf32>, tensor<f32>) -> tensor<f32>\n    return %1 : tensor<f32>\n  }\n}\n",
    "metadata": {
      "category": "composite",
      "operation": "squared_norm",
      "description": "Composite operation: squared_norm"
    }
  },
  {
    "python_code": "lambda x: jnp.sum(x ** 2)",
    "input_info": [
      {
        "shape": [
          5,
          7,
          8
        ],
        "dtype": "float32"
      }
    ],
    "jaxpr": "{ lambda ; a:f32[5,7,8]. let\n    b:f32[5,7,8] = integer_pow[y=2] a\n    c:f32[] = reduce_sum[axes=(0, 1, 2) out_sharding=None] b\n  in (c,) }",
    "stablehlo": "module @jit__lambda attributes {mhlo.num_partitions = 1 : i32, mhlo.num_replicas = 1 : i32} {\n  func.func public @main(%arg0: tensor<5x7x8xf32>) -> (tensor<f32> {jax.result_info = \"result\"}) {\n    %0 = stablehlo.multiply %arg0, %arg0 : tensor<5x7x8xf32>\n    %cst = stablehlo.constant dense<0.000000e+00> : tensor<f32>\n    %1 = stablehlo.reduce(%0 init: %cst) applies stablehlo.add across dimensions = [0, 1, 2] : (tensor<5x7x8xf32>, tensor<f32>) -> tensor<f32>\n    return %1 : tensor<f32>\n  }\n}\n",
    "metadata": {
      "category": "composite",
      "operation": "squared_norm",
      "description": "Composite operation: squared_norm"
    }
  },
  {
    "python_code": "lambda x: jnp.exp(x) / jnp.sum(jnp.exp(x))",
    "input_info": [
      {
        "shape": [
          6,
          4
        ],
        "dtype": "float32"
      }
    ],
    "jaxpr": "{ lambda ; a:f32[6,4]. let\n    b:f32[6,4] = exp a\n    c:f32[6,4] = exp a\n    d:f32[] = reduce_sum[axes=(0, 1) out_sharding=None] c\n    e:f32[6,4] = div b d\n  in (e,) }",
    "stablehlo": "module @jit__lambda attributes {mhlo.num_partitions = 1 : i32, mhlo.num_replicas = 1 : i32} {\n  func.func public @main(%arg0: tensor<6x4xf32>) -> (tensor<6x4xf32> {jax.result_info = \"result\"}) {\n    %0 = stablehlo.exponential %arg0 : tensor<6x4xf32>\n    %1 = stablehlo.exponential %arg0 : tensor<6x4xf32>\n    %cst = stablehlo.constant dense<0.000000e+00> : tensor<f32>\n    %2 = stablehlo.reduce(%1 init: %cst) applies stablehlo.add across dimensions = [0, 1] : (tensor<6x4xf32>, tensor<f32>) -> tensor<f32>\n    %3 = stablehlo.broadcast_in_dim %2, dims = [] : (tensor<f32>) -> tensor<6x4xf32>\n    %4 = stablehlo.divide %0, %3 : tensor<6x4xf32>\n    return %4 : tensor<6x4xf32>\n  }\n}\n",
    "metadata": {
      "category": "composite",
      "operation": "softmax",
      "description": "Composite operation: softmax"
    }
  },
  {
    "python_code": "lambda x: x / jnp.linalg.norm(x)",
    "input_info": [
      {
        "shape": [
          6
        ],
        "dtype": "float32"
      }
    ],
    "jaxpr": "{ lambda ; a:f32[6]. let\n    b:f32[] = jit[\n      name=norm\n      jaxpr={ lambda ; a:f32[6]. let\n          c:f32[6] = mul a a\n          d:f32[] = reduce_sum[axes=(0,) out_sharding=None] c\n          b:f32[] = sqrt d\n        in (b,) }\n    ] a\n    e:f32[6] = div a b\n  in (e,) }",
    "stablehlo": "module @jit__lambda attributes {mhlo.num_partitions = 1 : i32, mhlo.num_replicas = 1 : i32} {\n  func.func public @main(%arg0: tensor<6xf32>) -> (tensor<6xf32> {jax.result_info = \"result\"}) {\n    %0 = call @norm(%arg0) : (tensor<6xf32>) -> tensor<f32>\n    %1 = stablehlo.broadcast_in_dim %0, dims = [] : (tensor<f32>) -> tensor<6xf32>\n    %2 = stablehlo.divide %arg0, %1 : tensor<6xf32>\n    return %2 : tensor<6xf32>\n  }\n  func.func private @norm(%arg0: tensor<6xf32>) -> tensor<f32> {\n    %0 = stablehlo.multiply %arg0, %arg0 : tensor<6xf32>\n    %cst = stablehlo.constant dense<0.000000e+00> : tensor<f32>\n    %1 = stablehlo.reduce(%0 init: %cst) applies stablehlo.add across dimensions = [0] : (tensor<6xf32>, tensor<f32>) -> tensor<f32>\n    %2 = stablehlo.sqrt %1 : tensor<f32>\n    return %2 : tensor<f32>\n  }\n}\n",
    "metadata": {
      "category": "composite",
      "operation": "normalize",
      "description": "Composite operation: normalize"
    }
  },
  {
    "python_code": "lambda x: x / jnp.linalg.norm(x)",
    "input_info": [
      {
        "shape": [
          2,
          3,
          7
        ],
        "dtype": "float32"
      }
    ],
    "jaxpr": "{ lambda ; a:f32[2,3,7]. let\n    b:f32[] = jit[\n      name=norm\n      jaxpr={ lambda ; a:f32[2,3,7]. let\n          c:f32[2,3,7] = mul a a\n          d:f32[] = reduce_sum[axes=(0, 1, 2) out_sharding=None] c\n          b:f32[] = sqrt d\n        in (b,) }\n    ] a\n    e:f32[2,3,7] = div a b\n  in (e,) }",
    "stablehlo": "module @jit__lambda attributes {mhlo.num_partitions = 1 : i32, mhlo.num_replicas = 1 : i32} {\n  func.func public @main(%arg0: tensor<2x3x7xf32>) -> (tensor<2x3x7xf32> {jax.result_info = \"result\"}) {\n    %0 = call @norm(%arg0) : (tensor<2x3x7xf32>) -> tensor<f32>\n    %1 = stablehlo.broadcast_in_dim %0, dims = [] : (tensor<f32>) -> tensor<2x3x7xf32>\n    %2 = stablehlo.divide %arg0, %1 : tensor<2x3x7xf32>\n    return %2 : tensor<2x3x7xf32>\n  }\n  func.func private @norm(%arg0: tensor<2x3x7xf32>) -> tensor<f32> {\n    %0 = stablehlo.multiply %arg0, %arg0 : tensor<2x3x7xf32>\n    %cst = stablehlo.constant dense<0.000000e+00> : tensor<f32>\n    %1 = stablehlo.reduce(%0 init: %cst) applies stablehlo.add across dimensions = [0, 1, 2] : (tensor<2x3x7xf32>, tensor<f32>) -> tensor<f32>\n    %2 = stablehlo.sqrt %1 : tensor<f32>\n    return %2 : tensor<f32>\n  }\n}\n",
    "metadata": {
      "category": "composite",
      "operation": "normalize",
      "description": "Composite operation: normalize"
    }
  },
  {
    "python_code": "lambda x: x / jnp.linalg.norm(x)",
    "input_info": [
      {
        "shape": [
          8,
          10,
          9
        ],
        "dtype": "float32"
      }
    ],
    "jaxpr": "{ lambda ; a:f32[8,10,9]. let\n    b:f32[] = jit[\n      name=norm\n      jaxpr={ lambda ; a:f32[8,10,9]. let\n          c:f32[8,10,9] = mul a a\n          d:f32[] = reduce_sum[axes=(0, 1, 2) out_sharding=None] c\n          b:f32[] = sqrt d\n        in (b,) }\n    ] a\n    e:f32[8,10,9] = div a b\n  in (e,) }",
    "stablehlo": "module @jit__lambda attributes {mhlo.num_partitions = 1 : i32, mhlo.num_replicas = 1 : i32} {\n  func.func public @main(%arg0: tensor<8x10x9xf32>) -> (tensor<8x10x9xf32> {jax.result_info = \"result\"}) {\n    %0 = call @norm(%arg0) : (tensor<8x10x9xf32>) -> tensor<f32>\n    %1 = stablehlo.broadcast_in_dim %0, dims = [] : (tensor<f32>) -> tensor<8x10x9xf32>\n    %2 = stablehlo.divide %arg0, %1 : tensor<8x10x9xf32>\n    return %2 : tensor<8x10x9xf32>\n  }\n  func.func private @norm(%arg0: tensor<8x10x9xf32>) -> tensor<f32> {\n    %0 = stablehlo.multiply %arg0, %arg0 : tensor<8x10x9xf32>\n    %cst = stablehlo.constant dense<0.000000e+00> : tensor<f32>\n    %1 = stablehlo.reduce(%0 init: %cst) applies stablehlo.add across dimensions = [0, 1, 2] : (tensor<8x10x9xf32>, tensor<f32>) -> tensor<f32>\n    %2 = stablehlo.sqrt %1 : tensor<f32>\n    return %2 : tensor<f32>\n  }\n}\n",
    "metadata": {
      "category": "composite",
      "operation": "normalize",
      "description": "Composite operation: normalize"
    }
  },
  {
    "python_code": "lambda x: jnp.exp(x) / jnp.sum(jnp.exp(x))",
    "input_info": [
      {
        "shape": [
          5
        ],
        "dtype": "float32"
      }
    ],
    "jaxpr": "{ lambda ; a:f32[5]. let\n    b:f32[5] = exp a\n    c:f32[5] = exp a\n    d:f32[] = reduce_sum[axes=(0,) out_sharding=None] c\n    e:f32[5] = div b d\n  in (e,) }",
    "stablehlo": "module @jit__lambda attributes {mhlo.num_partitions = 1 : i32, mhlo.num_replicas = 1 : i32} {\n  func.func public @main(%arg0: tensor<5xf32>) -> (tensor<5xf32> {jax.result_info = \"result\"}) {\n    %0 = stablehlo.exponential %arg0 : tensor<5xf32>\n    %1 = stablehlo.exponential %arg0 : tensor<5xf32>\n    %cst = stablehlo.constant dense<0.000000e+00> : tensor<f32>\n    %2 = stablehlo.reduce(%1 init: %cst) applies stablehlo.add across dimensions = [0] : (tensor<5xf32>, tensor<f32>) -> tensor<f32>\n    %3 = stablehlo.broadcast_in_dim %2, dims = [] : (tensor<f32>) -> tensor<5xf32>\n    %4 = stablehlo.divide %0, %3 : tensor<5xf32>\n    return %4 : tensor<5xf32>\n  }\n}\n",
    "metadata": {
      "category": "composite",
      "operation": "softmax",
      "description": "Composite operation: softmax"
    }
  },
  {
    "python_code": "lambda x: jnp.exp(x) / jnp.sum(jnp.exp(x))",
    "input_info": [
      {
        "shape": [
          6
        ],
        "dtype": "float32"
      }
    ],
    "jaxpr": "{ lambda ; a:f32[6]. let\n    b:f32[6] = exp a\n    c:f32[6] = exp a\n    d:f32[] = reduce_sum[axes=(0,) out_sharding=None] c\n    e:f32[6] = div b d\n  in (e,) }",
    "stablehlo": "module @jit__lambda attributes {mhlo.num_partitions = 1 : i32, mhlo.num_replicas = 1 : i32} {\n  func.func public @main(%arg0: tensor<6xf32>) -> (tensor<6xf32> {jax.result_info = \"result\"}) {\n    %0 = stablehlo.exponential %arg0 : tensor<6xf32>\n    %1 = stablehlo.exponential %arg0 : tensor<6xf32>\n    %cst = stablehlo.constant dense<0.000000e+00> : tensor<f32>\n    %2 = stablehlo.reduce(%1 init: %cst) applies stablehlo.add across dimensions = [0] : (tensor<6xf32>, tensor<f32>) -> tensor<f32>\n    %3 = stablehlo.broadcast_in_dim %2, dims = [] : (tensor<f32>) -> tensor<6xf32>\n    %4 = stablehlo.divide %0, %3 : tensor<6xf32>\n    return %4 : tensor<6xf32>\n  }\n}\n",
    "metadata": {
      "category": "composite",
      "operation": "softmax",
      "description": "Composite operation: softmax"
    }
  },
  {
    "python_code": "lambda x: x / jnp.linalg.norm(x)",
    "input_info": [
      {
        "shape": [
          7
        ],
        "dtype": "float32"
      }
    ],
    "jaxpr": "{ lambda ; a:f32[7]. let\n    b:f32[] = jit[\n      name=norm\n      jaxpr={ lambda ; a:f32[7]. let\n          c:f32[7] = mul a a\n          d:f32[] = reduce_sum[axes=(0,) out_sharding=None] c\n          b:f32[] = sqrt d\n        in (b,) }\n    ] a\n    e:f32[7] = div a b\n  in (e,) }",
    "stablehlo": "module @jit__lambda attributes {mhlo.num_partitions = 1 : i32, mhlo.num_replicas = 1 : i32} {\n  func.func public @main(%arg0: tensor<7xf32>) -> (tensor<7xf32> {jax.result_info = \"result\"}) {\n    %0 = call @norm(%arg0) : (tensor<7xf32>) -> tensor<f32>\n    %1 = stablehlo.broadcast_in_dim %0, dims = [] : (tensor<f32>) -> tensor<7xf32>\n    %2 = stablehlo.divide %arg0, %1 : tensor<7xf32>\n    return %2 : tensor<7xf32>\n  }\n  func.func private @norm(%arg0: tensor<7xf32>) -> tensor<f32> {\n    %0 = stablehlo.multiply %arg0, %arg0 : tensor<7xf32>\n    %cst = stablehlo.constant dense<0.000000e+00> : tensor<f32>\n    %1 = stablehlo.reduce(%0 init: %cst) applies stablehlo.add across dimensions = [0] : (tensor<7xf32>, tensor<f32>) -> tensor<f32>\n    %2 = stablehlo.sqrt %1 : tensor<f32>\n    return %2 : tensor<f32>\n  }\n}\n",
    "metadata": {
      "category": "composite",
      "operation": "normalize",
      "description": "Composite operation: normalize"
    }
  },
  {
    "python_code": "lambda x: x / jnp.linalg.norm(x)",
    "input_info": [
      {
        "shape": [
          3,
          6
        ],
        "dtype": "float32"
      }
    ],
    "jaxpr": "{ lambda ; a:f32[3,6]. let\n    b:f32[] = jit[\n      name=norm\n      jaxpr={ lambda ; a:f32[3,6]. let\n          c:f32[3,6] = mul a a\n          d:f32[] = reduce_sum[axes=(0, 1) out_sharding=None] c\n          b:f32[] = sqrt d\n        in (b,) }\n    ] a\n    e:f32[3,6] = div a b\n  in (e,) }",
    "stablehlo": "module @jit__lambda attributes {mhlo.num_partitions = 1 : i32, mhlo.num_replicas = 1 : i32} {\n  func.func public @main(%arg0: tensor<3x6xf32>) -> (tensor<3x6xf32> {jax.result_info = \"result\"}) {\n    %0 = call @norm(%arg0) : (tensor<3x6xf32>) -> tensor<f32>\n    %1 = stablehlo.broadcast_in_dim %0, dims = [] : (tensor<f32>) -> tensor<3x6xf32>\n    %2 = stablehlo.divide %arg0, %1 : tensor<3x6xf32>\n    return %2 : tensor<3x6xf32>\n  }\n  func.func private @norm(%arg0: tensor<3x6xf32>) -> tensor<f32> {\n    %0 = stablehlo.multiply %arg0, %arg0 : tensor<3x6xf32>\n    %cst = stablehlo.constant dense<0.000000e+00> : tensor<f32>\n    %1 = stablehlo.reduce(%0 init: %cst) applies stablehlo.add across dimensions = [0, 1] : (tensor<3x6xf32>, tensor<f32>) -> tensor<f32>\n    %2 = stablehlo.sqrt %1 : tensor<f32>\n    return %2 : tensor<f32>\n  }\n}\n",
    "metadata": {
      "category": "composite",
      "operation": "normalize",
      "description": "Composite operation: normalize"
    }
  },
  {
    "python_code": "lambda x: jnp.sum(x ** 2)",
    "input_info": [
      {
        "shape": [
          9,
          4
        ],
        "dtype": "float32"
      }
    ],
    "jaxpr": "{ lambda ; a:f32[9,4]. let\n    b:f32[9,4] = integer_pow[y=2] a\n    c:f32[] = reduce_sum[axes=(0, 1) out_sharding=None] b\n  in (c,) }",
    "stablehlo": "module @jit__lambda attributes {mhlo.num_partitions = 1 : i32, mhlo.num_replicas = 1 : i32} {\n  func.func public @main(%arg0: tensor<9x4xf32>) -> (tensor<f32> {jax.result_info = \"result\"}) {\n    %0 = stablehlo.multiply %arg0, %arg0 : tensor<9x4xf32>\n    %cst = stablehlo.constant dense<0.000000e+00> : tensor<f32>\n    %1 = stablehlo.reduce(%0 init: %cst) applies stablehlo.add across dimensions = [0, 1] : (tensor<9x4xf32>, tensor<f32>) -> tensor<f32>\n    return %1 : tensor<f32>\n  }\n}\n",
    "metadata": {
      "category": "composite",
      "operation": "squared_norm",
      "description": "Composite operation: squared_norm"
    }
  },
  {
    "python_code": "lambda x: jnp.sum(x ** 2)",
    "input_info": [
      {
        "shape": [
          8
        ],
        "dtype": "float32"
      }
    ],
    "jaxpr": "{ lambda ; a:f32[8]. let\n    b:f32[8] = integer_pow[y=2] a\n    c:f32[] = reduce_sum[axes=(0,) out_sharding=None] b\n  in (c,) }",
    "stablehlo": "module @jit__lambda attributes {mhlo.num_partitions = 1 : i32, mhlo.num_replicas = 1 : i32} {\n  func.func public @main(%arg0: tensor<8xf32>) -> (tensor<f32> {jax.result_info = \"result\"}) {\n    %0 = stablehlo.multiply %arg0, %arg0 : tensor<8xf32>\n    %cst = stablehlo.constant dense<0.000000e+00> : tensor<f32>\n    %1 = stablehlo.reduce(%0 init: %cst) applies stablehlo.add across dimensions = [0] : (tensor<8xf32>, tensor<f32>) -> tensor<f32>\n    return %1 : tensor<f32>\n  }\n}\n",
    "metadata": {
      "category": "composite",
      "operation": "squared_norm",
      "description": "Composite operation: squared_norm"
    }
  },
  {
    "python_code": "lambda x: x / jnp.linalg.norm(x)",
    "input_info": [
      {
        "shape": [
          7
        ],
        "dtype": "float32"
      }
    ],
    "jaxpr": "{ lambda ; a:f32[7]. let\n    b:f32[] = jit[\n      name=norm\n      jaxpr={ lambda ; a:f32[7]. let\n          c:f32[7] = mul a a\n          d:f32[] = reduce_sum[axes=(0,) out_sharding=None] c\n          b:f32[] = sqrt d\n        in (b,) }\n    ] a\n    e:f32[7] = div a b\n  in (e,) }",
    "stablehlo": "module @jit__lambda attributes {mhlo.num_partitions = 1 : i32, mhlo.num_replicas = 1 : i32} {\n  func.func public @main(%arg0: tensor<7xf32>) -> (tensor<7xf32> {jax.result_info = \"result\"}) {\n    %0 = call @norm(%arg0) : (tensor<7xf32>) -> tensor<f32>\n    %1 = stablehlo.broadcast_in_dim %0, dims = [] : (tensor<f32>) -> tensor<7xf32>\n    %2 = stablehlo.divide %arg0, %1 : tensor<7xf32>\n    return %2 : tensor<7xf32>\n  }\n  func.func private @norm(%arg0: tensor<7xf32>) -> tensor<f32> {\n    %0 = stablehlo.multiply %arg0, %arg0 : tensor<7xf32>\n    %cst = stablehlo.constant dense<0.000000e+00> : tensor<f32>\n    %1 = stablehlo.reduce(%0 init: %cst) applies stablehlo.add across dimensions = [0] : (tensor<7xf32>, tensor<f32>) -> tensor<f32>\n    %2 = stablehlo.sqrt %1 : tensor<f32>\n    return %2 : tensor<f32>\n  }\n}\n",
    "metadata": {
      "category": "composite",
      "operation": "normalize",
      "description": "Composite operation: normalize"
    }
  },
  {
    "python_code": "lambda x: x / jnp.linalg.norm(x)",
    "input_info": [
      {
        "shape": [
          7,
          10,
          5
        ],
        "dtype": "float32"
      }
    ],
    "jaxpr": "{ lambda ; a:f32[7,10,5]. let\n    b:f32[] = jit[\n      name=norm\n      jaxpr={ lambda ; a:f32[7,10,5]. let\n          c:f32[7,10,5] = mul a a\n          d:f32[] = reduce_sum[axes=(0, 1, 2) out_sharding=None] c\n          b:f32[] = sqrt d\n        in (b,) }\n    ] a\n    e:f32[7,10,5] = div a b\n  in (e,) }",
    "stablehlo": "module @jit__lambda attributes {mhlo.num_partitions = 1 : i32, mhlo.num_replicas = 1 : i32} {\n  func.func public @main(%arg0: tensor<7x10x5xf32>) -> (tensor<7x10x5xf32> {jax.result_info = \"result\"}) {\n    %0 = call @norm(%arg0) : (tensor<7x10x5xf32>) -> tensor<f32>\n    %1 = stablehlo.broadcast_in_dim %0, dims = [] : (tensor<f32>) -> tensor<7x10x5xf32>\n    %2 = stablehlo.divide %arg0, %1 : tensor<7x10x5xf32>\n    return %2 : tensor<7x10x5xf32>\n  }\n  func.func private @norm(%arg0: tensor<7x10x5xf32>) -> tensor<f32> {\n    %0 = stablehlo.multiply %arg0, %arg0 : tensor<7x10x5xf32>\n    %cst = stablehlo.constant dense<0.000000e+00> : tensor<f32>\n    %1 = stablehlo.reduce(%0 init: %cst) applies stablehlo.add across dimensions = [0, 1, 2] : (tensor<7x10x5xf32>, tensor<f32>) -> tensor<f32>\n    %2 = stablehlo.sqrt %1 : tensor<f32>\n    return %2 : tensor<f32>\n  }\n}\n",
    "metadata": {
      "category": "composite",
      "operation": "normalize",
      "description": "Composite operation: normalize"
    }
  },
  {
    "python_code": "lambda x: jnp.sum(x ** 2)",
    "input_info": [
      {
        "shape": [
          4,
          3,
          5
        ],
        "dtype": "float32"
      }
    ],
    "jaxpr": "{ lambda ; a:f32[4,3,5]. let\n    b:f32[4,3,5] = integer_pow[y=2] a\n    c:f32[] = reduce_sum[axes=(0, 1, 2) out_sharding=None] b\n  in (c,) }",
    "stablehlo": "module @jit__lambda attributes {mhlo.num_partitions = 1 : i32, mhlo.num_replicas = 1 : i32} {\n  func.func public @main(%arg0: tensor<4x3x5xf32>) -> (tensor<f32> {jax.result_info = \"result\"}) {\n    %0 = stablehlo.multiply %arg0, %arg0 : tensor<4x3x5xf32>\n    %cst = stablehlo.constant dense<0.000000e+00> : tensor<f32>\n    %1 = stablehlo.reduce(%0 init: %cst) applies stablehlo.add across dimensions = [0, 1, 2] : (tensor<4x3x5xf32>, tensor<f32>) -> tensor<f32>\n    return %1 : tensor<f32>\n  }\n}\n",
    "metadata": {
      "category": "composite",
      "operation": "squared_norm",
      "description": "Composite operation: squared_norm"
    }
  },
  {
    "python_code": "lambda x: x / jnp.linalg.norm(x)",
    "input_info": [
      {
        "shape": [
          5,
          7
        ],
        "dtype": "float32"
      }
    ],
    "jaxpr": "{ lambda ; a:f32[5,7]. let\n    b:f32[] = jit[\n      name=norm\n      jaxpr={ lambda ; a:f32[5,7]. let\n          c:f32[5,7] = mul a a\n          d:f32[] = reduce_sum[axes=(0, 1) out_sharding=None] c\n          b:f32[] = sqrt d\n        in (b,) }\n    ] a\n    e:f32[5,7] = div a b\n  in (e,) }",
    "stablehlo": "module @jit__lambda attributes {mhlo.num_partitions = 1 : i32, mhlo.num_replicas = 1 : i32} {\n  func.func public @main(%arg0: tensor<5x7xf32>) -> (tensor<5x7xf32> {jax.result_info = \"result\"}) {\n    %0 = call @norm(%arg0) : (tensor<5x7xf32>) -> tensor<f32>\n    %1 = stablehlo.broadcast_in_dim %0, dims = [] : (tensor<f32>) -> tensor<5x7xf32>\n    %2 = stablehlo.divide %arg0, %1 : tensor<5x7xf32>\n    return %2 : tensor<5x7xf32>\n  }\n  func.func private @norm(%arg0: tensor<5x7xf32>) -> tensor<f32> {\n    %0 = stablehlo.multiply %arg0, %arg0 : tensor<5x7xf32>\n    %cst = stablehlo.constant dense<0.000000e+00> : tensor<f32>\n    %1 = stablehlo.reduce(%0 init: %cst) applies stablehlo.add across dimensions = [0, 1] : (tensor<5x7xf32>, tensor<f32>) -> tensor<f32>\n    %2 = stablehlo.sqrt %1 : tensor<f32>\n    return %2 : tensor<f32>\n  }\n}\n",
    "metadata": {
      "category": "composite",
      "operation": "normalize",
      "description": "Composite operation: normalize"
    }
  },
  {
    "python_code": "lambda x: jnp.exp(x) / jnp.sum(jnp.exp(x))",
    "input_info": [
      {
        "shape": [
          3,
          5
        ],
        "dtype": "float32"
      }
    ],
    "jaxpr": "{ lambda ; a:f32[3,5]. let\n    b:f32[3,5] = exp a\n    c:f32[3,5] = exp a\n    d:f32[] = reduce_sum[axes=(0, 1) out_sharding=None] c\n    e:f32[3,5] = div b d\n  in (e,) }",
    "stablehlo": "module @jit__lambda attributes {mhlo.num_partitions = 1 : i32, mhlo.num_replicas = 1 : i32} {\n  func.func public @main(%arg0: tensor<3x5xf32>) -> (tensor<3x5xf32> {jax.result_info = \"result\"}) {\n    %0 = stablehlo.exponential %arg0 : tensor<3x5xf32>\n    %1 = stablehlo.exponential %arg0 : tensor<3x5xf32>\n    %cst = stablehlo.constant dense<0.000000e+00> : tensor<f32>\n    %2 = stablehlo.reduce(%1 init: %cst) applies stablehlo.add across dimensions = [0, 1] : (tensor<3x5xf32>, tensor<f32>) -> tensor<f32>\n    %3 = stablehlo.broadcast_in_dim %2, dims = [] : (tensor<f32>) -> tensor<3x5xf32>\n    %4 = stablehlo.divide %0, %3 : tensor<3x5xf32>\n    return %4 : tensor<3x5xf32>\n  }\n}\n",
    "metadata": {
      "category": "composite",
      "operation": "softmax",
      "description": "Composite operation: softmax"
    }
  },
  {
    "python_code": "lambda x: jnp.sum(x ** 2)",
    "input_info": [
      {
        "shape": [
          9,
          10
        ],
        "dtype": "float32"
      }
    ],
    "jaxpr": "{ lambda ; a:f32[9,10]. let\n    b:f32[9,10] = integer_pow[y=2] a\n    c:f32[] = reduce_sum[axes=(0, 1) out_sharding=None] b\n  in (c,) }",
    "stablehlo": "module @jit__lambda attributes {mhlo.num_partitions = 1 : i32, mhlo.num_replicas = 1 : i32} {\n  func.func public @main(%arg0: tensor<9x10xf32>) -> (tensor<f32> {jax.result_info = \"result\"}) {\n    %0 = stablehlo.multiply %arg0, %arg0 : tensor<9x10xf32>\n    %cst = stablehlo.constant dense<0.000000e+00> : tensor<f32>\n    %1 = stablehlo.reduce(%0 init: %cst) applies stablehlo.add across dimensions = [0, 1] : (tensor<9x10xf32>, tensor<f32>) -> tensor<f32>\n    return %1 : tensor<f32>\n  }\n}\n",
    "metadata": {
      "category": "composite",
      "operation": "squared_norm",
      "description": "Composite operation: squared_norm"
    }
  },
  {
    "python_code": "lambda x: x / jnp.linalg.norm(x)",
    "input_info": [
      {
        "shape": [
          5,
          4
        ],
        "dtype": "float32"
      }
    ],
    "jaxpr": "{ lambda ; a:f32[5,4]. let\n    b:f32[] = jit[\n      name=norm\n      jaxpr={ lambda ; a:f32[5,4]. let\n          c:f32[5,4] = mul a a\n          d:f32[] = reduce_sum[axes=(0, 1) out_sharding=None] c\n          b:f32[] = sqrt d\n        in (b,) }\n    ] a\n    e:f32[5,4] = div a b\n  in (e,) }",
    "stablehlo": "module @jit__lambda attributes {mhlo.num_partitions = 1 : i32, mhlo.num_replicas = 1 : i32} {\n  func.func public @main(%arg0: tensor<5x4xf32>) -> (tensor<5x4xf32> {jax.result_info = \"result\"}) {\n    %0 = call @norm(%arg0) : (tensor<5x4xf32>) -> tensor<f32>\n    %1 = stablehlo.broadcast_in_dim %0, dims = [] : (tensor<f32>) -> tensor<5x4xf32>\n    %2 = stablehlo.divide %arg0, %1 : tensor<5x4xf32>\n    return %2 : tensor<5x4xf32>\n  }\n  func.func private @norm(%arg0: tensor<5x4xf32>) -> tensor<f32> {\n    %0 = stablehlo.multiply %arg0, %arg0 : tensor<5x4xf32>\n    %cst = stablehlo.constant dense<0.000000e+00> : tensor<f32>\n    %1 = stablehlo.reduce(%0 init: %cst) applies stablehlo.add across dimensions = [0, 1] : (tensor<5x4xf32>, tensor<f32>) -> tensor<f32>\n    %2 = stablehlo.sqrt %1 : tensor<f32>\n    return %2 : tensor<f32>\n  }\n}\n",
    "metadata": {
      "category": "composite",
      "operation": "normalize",
      "description": "Composite operation: normalize"
    }
  },
  {
    "python_code": "lambda x: jnp.sum(x ** 2)",
    "input_info": [
      {
        "shape": [
          4,
          9
        ],
        "dtype": "float32"
      }
    ],
    "jaxpr": "{ lambda ; a:f32[4,9]. let\n    b:f32[4,9] = integer_pow[y=2] a\n    c:f32[] = reduce_sum[axes=(0, 1) out_sharding=None] b\n  in (c,) }",
    "stablehlo": "module @jit__lambda attributes {mhlo.num_partitions = 1 : i32, mhlo.num_replicas = 1 : i32} {\n  func.func public @main(%arg0: tensor<4x9xf32>) -> (tensor<f32> {jax.result_info = \"result\"}) {\n    %0 = stablehlo.multiply %arg0, %arg0 : tensor<4x9xf32>\n    %cst = stablehlo.constant dense<0.000000e+00> : tensor<f32>\n    %1 = stablehlo.reduce(%0 init: %cst) applies stablehlo.add across dimensions = [0, 1] : (tensor<4x9xf32>, tensor<f32>) -> tensor<f32>\n    return %1 : tensor<f32>\n  }\n}\n",
    "metadata": {
      "category": "composite",
      "operation": "squared_norm",
      "description": "Composite operation: squared_norm"
    }
  },
  {
    "python_code": "lambda x: jnp.sum(x ** 2)",
    "input_info": [
      {
        "shape": [
          7,
          5
        ],
        "dtype": "float32"
      }
    ],
    "jaxpr": "{ lambda ; a:f32[7,5]. let\n    b:f32[7,5] = integer_pow[y=2] a\n    c:f32[] = reduce_sum[axes=(0, 1) out_sharding=None] b\n  in (c,) }",
    "stablehlo": "module @jit__lambda attributes {mhlo.num_partitions = 1 : i32, mhlo.num_replicas = 1 : i32} {\n  func.func public @main(%arg0: tensor<7x5xf32>) -> (tensor<f32> {jax.result_info = \"result\"}) {\n    %0 = stablehlo.multiply %arg0, %arg0 : tensor<7x5xf32>\n    %cst = stablehlo.constant dense<0.000000e+00> : tensor<f32>\n    %1 = stablehlo.reduce(%0 init: %cst) applies stablehlo.add across dimensions = [0, 1] : (tensor<7x5xf32>, tensor<f32>) -> tensor<f32>\n    return %1 : tensor<f32>\n  }\n}\n",
    "metadata": {
      "category": "composite",
      "operation": "squared_norm",
      "description": "Composite operation: squared_norm"
    }
  },
  {
    "python_code": "lambda x: jnp.exp(x) / jnp.sum(jnp.exp(x))",
    "input_info": [
      {
        "shape": [
          4
        ],
        "dtype": "float32"
      }
    ],
    "jaxpr": "{ lambda ; a:f32[4]. let\n    b:f32[4] = exp a\n    c:f32[4] = exp a\n    d:f32[] = reduce_sum[axes=(0,) out_sharding=None] c\n    e:f32[4] = div b d\n  in (e,) }",
    "stablehlo": "module @jit__lambda attributes {mhlo.num_partitions = 1 : i32, mhlo.num_replicas = 1 : i32} {\n  func.func public @main(%arg0: tensor<4xf32>) -> (tensor<4xf32> {jax.result_info = \"result\"}) {\n    %0 = stablehlo.exponential %arg0 : tensor<4xf32>\n    %1 = stablehlo.exponential %arg0 : tensor<4xf32>\n    %cst = stablehlo.constant dense<0.000000e+00> : tensor<f32>\n    %2 = stablehlo.reduce(%1 init: %cst) applies stablehlo.add across dimensions = [0] : (tensor<4xf32>, tensor<f32>) -> tensor<f32>\n    %3 = stablehlo.broadcast_in_dim %2, dims = [] : (tensor<f32>) -> tensor<4xf32>\n    %4 = stablehlo.divide %0, %3 : tensor<4xf32>\n    return %4 : tensor<4xf32>\n  }\n}\n",
    "metadata": {
      "category": "composite",
      "operation": "softmax",
      "description": "Composite operation: softmax"
    }
  },
  {
    "python_code": "lambda x: jnp.sum(x ** 2)",
    "input_info": [
      {
        "shape": [
          8,
          3
        ],
        "dtype": "float32"
      }
    ],
    "jaxpr": "{ lambda ; a:f32[8,3]. let\n    b:f32[8,3] = integer_pow[y=2] a\n    c:f32[] = reduce_sum[axes=(0, 1) out_sharding=None] b\n  in (c,) }",
    "stablehlo": "module @jit__lambda attributes {mhlo.num_partitions = 1 : i32, mhlo.num_replicas = 1 : i32} {\n  func.func public @main(%arg0: tensor<8x3xf32>) -> (tensor<f32> {jax.result_info = \"result\"}) {\n    %0 = stablehlo.multiply %arg0, %arg0 : tensor<8x3xf32>\n    %cst = stablehlo.constant dense<0.000000e+00> : tensor<f32>\n    %1 = stablehlo.reduce(%0 init: %cst) applies stablehlo.add across dimensions = [0, 1] : (tensor<8x3xf32>, tensor<f32>) -> tensor<f32>\n    return %1 : tensor<f32>\n  }\n}\n",
    "metadata": {
      "category": "composite",
      "operation": "squared_norm",
      "description": "Composite operation: squared_norm"
    }
  },
  {
    "python_code": "lambda x: x / jnp.linalg.norm(x)",
    "input_info": [
      {
        "shape": [
          6
        ],
        "dtype": "float32"
      }
    ],
    "jaxpr": "{ lambda ; a:f32[6]. let\n    b:f32[] = jit[\n      name=norm\n      jaxpr={ lambda ; a:f32[6]. let\n          c:f32[6] = mul a a\n          d:f32[] = reduce_sum[axes=(0,) out_sharding=None] c\n          b:f32[] = sqrt d\n        in (b,) }\n    ] a\n    e:f32[6] = div a b\n  in (e,) }",
    "stablehlo": "module @jit__lambda attributes {mhlo.num_partitions = 1 : i32, mhlo.num_replicas = 1 : i32} {\n  func.func public @main(%arg0: tensor<6xf32>) -> (tensor<6xf32> {jax.result_info = \"result\"}) {\n    %0 = call @norm(%arg0) : (tensor<6xf32>) -> tensor<f32>\n    %1 = stablehlo.broadcast_in_dim %0, dims = [] : (tensor<f32>) -> tensor<6xf32>\n    %2 = stablehlo.divide %arg0, %1 : tensor<6xf32>\n    return %2 : tensor<6xf32>\n  }\n  func.func private @norm(%arg0: tensor<6xf32>) -> tensor<f32> {\n    %0 = stablehlo.multiply %arg0, %arg0 : tensor<6xf32>\n    %cst = stablehlo.constant dense<0.000000e+00> : tensor<f32>\n    %1 = stablehlo.reduce(%0 init: %cst) applies stablehlo.add across dimensions = [0] : (tensor<6xf32>, tensor<f32>) -> tensor<f32>\n    %2 = stablehlo.sqrt %1 : tensor<f32>\n    return %2 : tensor<f32>\n  }\n}\n",
    "metadata": {
      "category": "composite",
      "operation": "normalize",
      "description": "Composite operation: normalize"
    }
  },
  {
    "python_code": "lambda x: jnp.sum(x ** 2)",
    "input_info": [
      {
        "shape": [
          7,
          10,
          8
        ],
        "dtype": "float32"
      }
    ],
    "jaxpr": "{ lambda ; a:f32[7,10,8]. let\n    b:f32[7,10,8] = integer_pow[y=2] a\n    c:f32[] = reduce_sum[axes=(0, 1, 2) out_sharding=None] b\n  in (c,) }",
    "stablehlo": "module @jit__lambda attributes {mhlo.num_partitions = 1 : i32, mhlo.num_replicas = 1 : i32} {\n  func.func public @main(%arg0: tensor<7x10x8xf32>) -> (tensor<f32> {jax.result_info = \"result\"}) {\n    %0 = stablehlo.multiply %arg0, %arg0 : tensor<7x10x8xf32>\n    %cst = stablehlo.constant dense<0.000000e+00> : tensor<f32>\n    %1 = stablehlo.reduce(%0 init: %cst) applies stablehlo.add across dimensions = [0, 1, 2] : (tensor<7x10x8xf32>, tensor<f32>) -> tensor<f32>\n    return %1 : tensor<f32>\n  }\n}\n",
    "metadata": {
      "category": "composite",
      "operation": "squared_norm",
      "description": "Composite operation: squared_norm"
    }
  },
  {
    "python_code": "lambda x: jnp.exp(x) / jnp.sum(jnp.exp(x))",
    "input_info": [
      {
        "shape": [
          5,
          10
        ],
        "dtype": "float32"
      }
    ],
    "jaxpr": "{ lambda ; a:f32[5,10]. let\n    b:f32[5,10] = exp a\n    c:f32[5,10] = exp a\n    d:f32[] = reduce_sum[axes=(0, 1) out_sharding=None] c\n    e:f32[5,10] = div b d\n  in (e,) }",
    "stablehlo": "module @jit__lambda attributes {mhlo.num_partitions = 1 : i32, mhlo.num_replicas = 1 : i32} {\n  func.func public @main(%arg0: tensor<5x10xf32>) -> (tensor<5x10xf32> {jax.result_info = \"result\"}) {\n    %0 = stablehlo.exponential %arg0 : tensor<5x10xf32>\n    %1 = stablehlo.exponential %arg0 : tensor<5x10xf32>\n    %cst = stablehlo.constant dense<0.000000e+00> : tensor<f32>\n    %2 = stablehlo.reduce(%1 init: %cst) applies stablehlo.add across dimensions = [0, 1] : (tensor<5x10xf32>, tensor<f32>) -> tensor<f32>\n    %3 = stablehlo.broadcast_in_dim %2, dims = [] : (tensor<f32>) -> tensor<5x10xf32>\n    %4 = stablehlo.divide %0, %3 : tensor<5x10xf32>\n    return %4 : tensor<5x10xf32>\n  }\n}\n",
    "metadata": {
      "category": "composite",
      "operation": "softmax",
      "description": "Composite operation: softmax"
    }
  },
  {
    "python_code": "lambda x: jnp.sum(x ** 2)",
    "input_info": [
      {
        "shape": [
          10,
          9
        ],
        "dtype": "float32"
      }
    ],
    "jaxpr": "{ lambda ; a:f32[10,9]. let\n    b:f32[10,9] = integer_pow[y=2] a\n    c:f32[] = reduce_sum[axes=(0, 1) out_sharding=None] b\n  in (c,) }",
    "stablehlo": "module @jit__lambda attributes {mhlo.num_partitions = 1 : i32, mhlo.num_replicas = 1 : i32} {\n  func.func public @main(%arg0: tensor<10x9xf32>) -> (tensor<f32> {jax.result_info = \"result\"}) {\n    %0 = stablehlo.multiply %arg0, %arg0 : tensor<10x9xf32>\n    %cst = stablehlo.constant dense<0.000000e+00> : tensor<f32>\n    %1 = stablehlo.reduce(%0 init: %cst) applies stablehlo.add across dimensions = [0, 1] : (tensor<10x9xf32>, tensor<f32>) -> tensor<f32>\n    return %1 : tensor<f32>\n  }\n}\n",
    "metadata": {
      "category": "composite",
      "operation": "squared_norm",
      "description": "Composite operation: squared_norm"
    }
  },
  {
    "python_code": "lambda x: x / jnp.linalg.norm(x)",
    "input_info": [
      {
        "shape": [
          6
        ],
        "dtype": "float32"
      }
    ],
    "jaxpr": "{ lambda ; a:f32[6]. let\n    b:f32[] = jit[\n      name=norm\n      jaxpr={ lambda ; a:f32[6]. let\n          c:f32[6] = mul a a\n          d:f32[] = reduce_sum[axes=(0,) out_sharding=None] c\n          b:f32[] = sqrt d\n        in (b,) }\n    ] a\n    e:f32[6] = div a b\n  in (e,) }",
    "stablehlo": "module @jit__lambda attributes {mhlo.num_partitions = 1 : i32, mhlo.num_replicas = 1 : i32} {\n  func.func public @main(%arg0: tensor<6xf32>) -> (tensor<6xf32> {jax.result_info = \"result\"}) {\n    %0 = call @norm(%arg0) : (tensor<6xf32>) -> tensor<f32>\n    %1 = stablehlo.broadcast_in_dim %0, dims = [] : (tensor<f32>) -> tensor<6xf32>\n    %2 = stablehlo.divide %arg0, %1 : tensor<6xf32>\n    return %2 : tensor<6xf32>\n  }\n  func.func private @norm(%arg0: tensor<6xf32>) -> tensor<f32> {\n    %0 = stablehlo.multiply %arg0, %arg0 : tensor<6xf32>\n    %cst = stablehlo.constant dense<0.000000e+00> : tensor<f32>\n    %1 = stablehlo.reduce(%0 init: %cst) applies stablehlo.add across dimensions = [0] : (tensor<6xf32>, tensor<f32>) -> tensor<f32>\n    %2 = stablehlo.sqrt %1 : tensor<f32>\n    return %2 : tensor<f32>\n  }\n}\n",
    "metadata": {
      "category": "composite",
      "operation": "normalize",
      "description": "Composite operation: normalize"
    }
  },
  {
    "python_code": "lambda x: x / jnp.linalg.norm(x)",
    "input_info": [
      {
        "shape": [
          7
        ],
        "dtype": "float32"
      }
    ],
    "jaxpr": "{ lambda ; a:f32[7]. let\n    b:f32[] = jit[\n      name=norm\n      jaxpr={ lambda ; a:f32[7]. let\n          c:f32[7] = mul a a\n          d:f32[] = reduce_sum[axes=(0,) out_sharding=None] c\n          b:f32[] = sqrt d\n        in (b,) }\n    ] a\n    e:f32[7] = div a b\n  in (e,) }",
    "stablehlo": "module @jit__lambda attributes {mhlo.num_partitions = 1 : i32, mhlo.num_replicas = 1 : i32} {\n  func.func public @main(%arg0: tensor<7xf32>) -> (tensor<7xf32> {jax.result_info = \"result\"}) {\n    %0 = call @norm(%arg0) : (tensor<7xf32>) -> tensor<f32>\n    %1 = stablehlo.broadcast_in_dim %0, dims = [] : (tensor<f32>) -> tensor<7xf32>\n    %2 = stablehlo.divide %arg0, %1 : tensor<7xf32>\n    return %2 : tensor<7xf32>\n  }\n  func.func private @norm(%arg0: tensor<7xf32>) -> tensor<f32> {\n    %0 = stablehlo.multiply %arg0, %arg0 : tensor<7xf32>\n    %cst = stablehlo.constant dense<0.000000e+00> : tensor<f32>\n    %1 = stablehlo.reduce(%0 init: %cst) applies stablehlo.add across dimensions = [0] : (tensor<7xf32>, tensor<f32>) -> tensor<f32>\n    %2 = stablehlo.sqrt %1 : tensor<f32>\n    return %2 : tensor<f32>\n  }\n}\n",
    "metadata": {
      "category": "composite",
      "operation": "normalize",
      "description": "Composite operation: normalize"
    }
  },
  {
    "python_code": "lambda x: jnp.sum(x ** 2)",
    "input_info": [
      {
        "shape": [
          9
        ],
        "dtype": "float32"
      }
    ],
    "jaxpr": "{ lambda ; a:f32[9]. let\n    b:f32[9] = integer_pow[y=2] a\n    c:f32[] = reduce_sum[axes=(0,) out_sharding=None] b\n  in (c,) }",
    "stablehlo": "module @jit__lambda attributes {mhlo.num_partitions = 1 : i32, mhlo.num_replicas = 1 : i32} {\n  func.func public @main(%arg0: tensor<9xf32>) -> (tensor<f32> {jax.result_info = \"result\"}) {\n    %0 = stablehlo.multiply %arg0, %arg0 : tensor<9xf32>\n    %cst = stablehlo.constant dense<0.000000e+00> : tensor<f32>\n    %1 = stablehlo.reduce(%0 init: %cst) applies stablehlo.add across dimensions = [0] : (tensor<9xf32>, tensor<f32>) -> tensor<f32>\n    return %1 : tensor<f32>\n  }\n}\n",
    "metadata": {
      "category": "composite",
      "operation": "squared_norm",
      "description": "Composite operation: squared_norm"
    }
  },
  {
    "python_code": "lambda x: jnp.sum(x ** 2)",
    "input_info": [
      {
        "shape": [
          5
        ],
        "dtype": "float32"
      }
    ],
    "jaxpr": "{ lambda ; a:f32[5]. let\n    b:f32[5] = integer_pow[y=2] a\n    c:f32[] = reduce_sum[axes=(0,) out_sharding=None] b\n  in (c,) }",
    "stablehlo": "module @jit__lambda attributes {mhlo.num_partitions = 1 : i32, mhlo.num_replicas = 1 : i32} {\n  func.func public @main(%arg0: tensor<5xf32>) -> (tensor<f32> {jax.result_info = \"result\"}) {\n    %0 = stablehlo.multiply %arg0, %arg0 : tensor<5xf32>\n    %cst = stablehlo.constant dense<0.000000e+00> : tensor<f32>\n    %1 = stablehlo.reduce(%0 init: %cst) applies stablehlo.add across dimensions = [0] : (tensor<5xf32>, tensor<f32>) -> tensor<f32>\n    return %1 : tensor<f32>\n  }\n}\n",
    "metadata": {
      "category": "composite",
      "operation": "squared_norm",
      "description": "Composite operation: squared_norm"
    }
  },
  {
    "python_code": "lambda x: x / jnp.linalg.norm(x)",
    "input_info": [
      {
        "shape": [
          3
        ],
        "dtype": "float32"
      }
    ],
    "jaxpr": "{ lambda ; a:f32[3]. let\n    b:f32[] = jit[\n      name=norm\n      jaxpr={ lambda ; a:f32[3]. let\n          c:f32[3] = mul a a\n          d:f32[] = reduce_sum[axes=(0,) out_sharding=None] c\n          b:f32[] = sqrt d\n        in (b,) }\n    ] a\n    e:f32[3] = div a b\n  in (e,) }",
    "stablehlo": "module @jit__lambda attributes {mhlo.num_partitions = 1 : i32, mhlo.num_replicas = 1 : i32} {\n  func.func public @main(%arg0: tensor<3xf32>) -> (tensor<3xf32> {jax.result_info = \"result\"}) {\n    %0 = call @norm(%arg0) : (tensor<3xf32>) -> tensor<f32>\n    %1 = stablehlo.broadcast_in_dim %0, dims = [] : (tensor<f32>) -> tensor<3xf32>\n    %2 = stablehlo.divide %arg0, %1 : tensor<3xf32>\n    return %2 : tensor<3xf32>\n  }\n  func.func private @norm(%arg0: tensor<3xf32>) -> tensor<f32> {\n    %0 = stablehlo.multiply %arg0, %arg0 : tensor<3xf32>\n    %cst = stablehlo.constant dense<0.000000e+00> : tensor<f32>\n    %1 = stablehlo.reduce(%0 init: %cst) applies stablehlo.add across dimensions = [0] : (tensor<3xf32>, tensor<f32>) -> tensor<f32>\n    %2 = stablehlo.sqrt %1 : tensor<f32>\n    return %2 : tensor<f32>\n  }\n}\n",
    "metadata": {
      "category": "composite",
      "operation": "normalize",
      "description": "Composite operation: normalize"
    }
  },
  {
    "python_code": "lambda x: jnp.exp(x) / jnp.sum(jnp.exp(x))",
    "input_info": [
      {
        "shape": [
          6,
          7
        ],
        "dtype": "float32"
      }
    ],
    "jaxpr": "{ lambda ; a:f32[6,7]. let\n    b:f32[6,7] = exp a\n    c:f32[6,7] = exp a\n    d:f32[] = reduce_sum[axes=(0, 1) out_sharding=None] c\n    e:f32[6,7] = div b d\n  in (e,) }",
    "stablehlo": "module @jit__lambda attributes {mhlo.num_partitions = 1 : i32, mhlo.num_replicas = 1 : i32} {\n  func.func public @main(%arg0: tensor<6x7xf32>) -> (tensor<6x7xf32> {jax.result_info = \"result\"}) {\n    %0 = stablehlo.exponential %arg0 : tensor<6x7xf32>\n    %1 = stablehlo.exponential %arg0 : tensor<6x7xf32>\n    %cst = stablehlo.constant dense<0.000000e+00> : tensor<f32>\n    %2 = stablehlo.reduce(%1 init: %cst) applies stablehlo.add across dimensions = [0, 1] : (tensor<6x7xf32>, tensor<f32>) -> tensor<f32>\n    %3 = stablehlo.broadcast_in_dim %2, dims = [] : (tensor<f32>) -> tensor<6x7xf32>\n    %4 = stablehlo.divide %0, %3 : tensor<6x7xf32>\n    return %4 : tensor<6x7xf32>\n  }\n}\n",
    "metadata": {
      "category": "composite",
      "operation": "softmax",
      "description": "Composite operation: softmax"
    }
  },
  {
    "python_code": "lambda x: x / jnp.linalg.norm(x)",
    "input_info": [
      {
        "shape": [
          7,
          2,
          10
        ],
        "dtype": "float32"
      }
    ],
    "jaxpr": "{ lambda ; a:f32[7,2,10]. let\n    b:f32[] = jit[\n      name=norm\n      jaxpr={ lambda ; a:f32[7,2,10]. let\n          c:f32[7,2,10] = mul a a\n          d:f32[] = reduce_sum[axes=(0, 1, 2) out_sharding=None] c\n          b:f32[] = sqrt d\n        in (b,) }\n    ] a\n    e:f32[7,2,10] = div a b\n  in (e,) }",
    "stablehlo": "module @jit__lambda attributes {mhlo.num_partitions = 1 : i32, mhlo.num_replicas = 1 : i32} {\n  func.func public @main(%arg0: tensor<7x2x10xf32>) -> (tensor<7x2x10xf32> {jax.result_info = \"result\"}) {\n    %0 = call @norm(%arg0) : (tensor<7x2x10xf32>) -> tensor<f32>\n    %1 = stablehlo.broadcast_in_dim %0, dims = [] : (tensor<f32>) -> tensor<7x2x10xf32>\n    %2 = stablehlo.divide %arg0, %1 : tensor<7x2x10xf32>\n    return %2 : tensor<7x2x10xf32>\n  }\n  func.func private @norm(%arg0: tensor<7x2x10xf32>) -> tensor<f32> {\n    %0 = stablehlo.multiply %arg0, %arg0 : tensor<7x2x10xf32>\n    %cst = stablehlo.constant dense<0.000000e+00> : tensor<f32>\n    %1 = stablehlo.reduce(%0 init: %cst) applies stablehlo.add across dimensions = [0, 1, 2] : (tensor<7x2x10xf32>, tensor<f32>) -> tensor<f32>\n    %2 = stablehlo.sqrt %1 : tensor<f32>\n    return %2 : tensor<f32>\n  }\n}\n",
    "metadata": {
      "category": "composite",
      "operation": "normalize",
      "description": "Composite operation: normalize"
    }
  },
  {
    "python_code": "lambda x: x / jnp.linalg.norm(x)",
    "input_info": [
      {
        "shape": [
          8
        ],
        "dtype": "float32"
      }
    ],
    "jaxpr": "{ lambda ; a:f32[8]. let\n    b:f32[] = jit[\n      name=norm\n      jaxpr={ lambda ; a:f32[8]. let\n          c:f32[8] = mul a a\n          d:f32[] = reduce_sum[axes=(0,) out_sharding=None] c\n          b:f32[] = sqrt d\n        in (b,) }\n    ] a\n    e:f32[8] = div a b\n  in (e,) }",
    "stablehlo": "module @jit__lambda attributes {mhlo.num_partitions = 1 : i32, mhlo.num_replicas = 1 : i32} {\n  func.func public @main(%arg0: tensor<8xf32>) -> (tensor<8xf32> {jax.result_info = \"result\"}) {\n    %0 = call @norm(%arg0) : (tensor<8xf32>) -> tensor<f32>\n    %1 = stablehlo.broadcast_in_dim %0, dims = [] : (tensor<f32>) -> tensor<8xf32>\n    %2 = stablehlo.divide %arg0, %1 : tensor<8xf32>\n    return %2 : tensor<8xf32>\n  }\n  func.func private @norm(%arg0: tensor<8xf32>) -> tensor<f32> {\n    %0 = stablehlo.multiply %arg0, %arg0 : tensor<8xf32>\n    %cst = stablehlo.constant dense<0.000000e+00> : tensor<f32>\n    %1 = stablehlo.reduce(%0 init: %cst) applies stablehlo.add across dimensions = [0] : (tensor<8xf32>, tensor<f32>) -> tensor<f32>\n    %2 = stablehlo.sqrt %1 : tensor<f32>\n    return %2 : tensor<f32>\n  }\n}\n",
    "metadata": {
      "category": "composite",
      "operation": "normalize",
      "description": "Composite operation: normalize"
    }
  },
  {
    "python_code": "lambda x: jnp.sum(x ** 2)",
    "input_info": [
      {
        "shape": [
          10,
          4
        ],
        "dtype": "float32"
      }
    ],
    "jaxpr": "{ lambda ; a:f32[10,4]. let\n    b:f32[10,4] = integer_pow[y=2] a\n    c:f32[] = reduce_sum[axes=(0, 1) out_sharding=None] b\n  in (c,) }",
    "stablehlo": "module @jit__lambda attributes {mhlo.num_partitions = 1 : i32, mhlo.num_replicas = 1 : i32} {\n  func.func public @main(%arg0: tensor<10x4xf32>) -> (tensor<f32> {jax.result_info = \"result\"}) {\n    %0 = stablehlo.multiply %arg0, %arg0 : tensor<10x4xf32>\n    %cst = stablehlo.constant dense<0.000000e+00> : tensor<f32>\n    %1 = stablehlo.reduce(%0 init: %cst) applies stablehlo.add across dimensions = [0, 1] : (tensor<10x4xf32>, tensor<f32>) -> tensor<f32>\n    return %1 : tensor<f32>\n  }\n}\n",
    "metadata": {
      "category": "composite",
      "operation": "squared_norm",
      "description": "Composite operation: squared_norm"
    }
  },
  {
    "python_code": "lambda x: jnp.sum(x ** 2)",
    "input_info": [
      {
        "shape": [
          6,
          10,
          3
        ],
        "dtype": "float32"
      }
    ],
    "jaxpr": "{ lambda ; a:f32[6,10,3]. let\n    b:f32[6,10,3] = integer_pow[y=2] a\n    c:f32[] = reduce_sum[axes=(0, 1, 2) out_sharding=None] b\n  in (c,) }",
    "stablehlo": "module @jit__lambda attributes {mhlo.num_partitions = 1 : i32, mhlo.num_replicas = 1 : i32} {\n  func.func public @main(%arg0: tensor<6x10x3xf32>) -> (tensor<f32> {jax.result_info = \"result\"}) {\n    %0 = stablehlo.multiply %arg0, %arg0 : tensor<6x10x3xf32>\n    %cst = stablehlo.constant dense<0.000000e+00> : tensor<f32>\n    %1 = stablehlo.reduce(%0 init: %cst) applies stablehlo.add across dimensions = [0, 1, 2] : (tensor<6x10x3xf32>, tensor<f32>) -> tensor<f32>\n    return %1 : tensor<f32>\n  }\n}\n",
    "metadata": {
      "category": "composite",
      "operation": "squared_norm",
      "description": "Composite operation: squared_norm"
    }
  },
  {
    "python_code": "lambda x: jnp.sum(x ** 2)",
    "input_info": [
      {
        "shape": [
          10
        ],
        "dtype": "float32"
      }
    ],
    "jaxpr": "{ lambda ; a:f32[10]. let\n    b:f32[10] = integer_pow[y=2] a\n    c:f32[] = reduce_sum[axes=(0,) out_sharding=None] b\n  in (c,) }",
    "stablehlo": "module @jit__lambda attributes {mhlo.num_partitions = 1 : i32, mhlo.num_replicas = 1 : i32} {\n  func.func public @main(%arg0: tensor<10xf32>) -> (tensor<f32> {jax.result_info = \"result\"}) {\n    %0 = stablehlo.multiply %arg0, %arg0 : tensor<10xf32>\n    %cst = stablehlo.constant dense<0.000000e+00> : tensor<f32>\n    %1 = stablehlo.reduce(%0 init: %cst) applies stablehlo.add across dimensions = [0] : (tensor<10xf32>, tensor<f32>) -> tensor<f32>\n    return %1 : tensor<f32>\n  }\n}\n",
    "metadata": {
      "category": "composite",
      "operation": "squared_norm",
      "description": "Composite operation: squared_norm"
    }
  },
  {
    "python_code": "lambda x: jnp.exp(x) / jnp.sum(jnp.exp(x))",
    "input_info": [
      {
        "shape": [
          2,
          9,
          3
        ],
        "dtype": "float32"
      }
    ],
    "jaxpr": "{ lambda ; a:f32[2,9,3]. let\n    b:f32[2,9,3] = exp a\n    c:f32[2,9,3] = exp a\n    d:f32[] = reduce_sum[axes=(0, 1, 2) out_sharding=None] c\n    e:f32[2,9,3] = div b d\n  in (e,) }",
    "stablehlo": "module @jit__lambda attributes {mhlo.num_partitions = 1 : i32, mhlo.num_replicas = 1 : i32} {\n  func.func public @main(%arg0: tensor<2x9x3xf32>) -> (tensor<2x9x3xf32> {jax.result_info = \"result\"}) {\n    %0 = stablehlo.exponential %arg0 : tensor<2x9x3xf32>\n    %1 = stablehlo.exponential %arg0 : tensor<2x9x3xf32>\n    %cst = stablehlo.constant dense<0.000000e+00> : tensor<f32>\n    %2 = stablehlo.reduce(%1 init: %cst) applies stablehlo.add across dimensions = [0, 1, 2] : (tensor<2x9x3xf32>, tensor<f32>) -> tensor<f32>\n    %3 = stablehlo.broadcast_in_dim %2, dims = [] : (tensor<f32>) -> tensor<2x9x3xf32>\n    %4 = stablehlo.divide %0, %3 : tensor<2x9x3xf32>\n    return %4 : tensor<2x9x3xf32>\n  }\n}\n",
    "metadata": {
      "category": "composite",
      "operation": "softmax",
      "description": "Composite operation: softmax"
    }
  },
  {
    "python_code": "lambda x: jnp.sum(x ** 2)",
    "input_info": [
      {
        "shape": [
          9,
          3,
          6
        ],
        "dtype": "float32"
      }
    ],
    "jaxpr": "{ lambda ; a:f32[9,3,6]. let\n    b:f32[9,3,6] = integer_pow[y=2] a\n    c:f32[] = reduce_sum[axes=(0, 1, 2) out_sharding=None] b\n  in (c,) }",
    "stablehlo": "module @jit__lambda attributes {mhlo.num_partitions = 1 : i32, mhlo.num_replicas = 1 : i32} {\n  func.func public @main(%arg0: tensor<9x3x6xf32>) -> (tensor<f32> {jax.result_info = \"result\"}) {\n    %0 = stablehlo.multiply %arg0, %arg0 : tensor<9x3x6xf32>\n    %cst = stablehlo.constant dense<0.000000e+00> : tensor<f32>\n    %1 = stablehlo.reduce(%0 init: %cst) applies stablehlo.add across dimensions = [0, 1, 2] : (tensor<9x3x6xf32>, tensor<f32>) -> tensor<f32>\n    return %1 : tensor<f32>\n  }\n}\n",
    "metadata": {
      "category": "composite",
      "operation": "squared_norm",
      "description": "Composite operation: squared_norm"
    }
  },
  {
    "python_code": "lambda x: jnp.exp(x) / jnp.sum(jnp.exp(x))",
    "input_info": [
      {
        "shape": [
          6
        ],
        "dtype": "float32"
      }
    ],
    "jaxpr": "{ lambda ; a:f32[6]. let\n    b:f32[6] = exp a\n    c:f32[6] = exp a\n    d:f32[] = reduce_sum[axes=(0,) out_sharding=None] c\n    e:f32[6] = div b d\n  in (e,) }",
    "stablehlo": "module @jit__lambda attributes {mhlo.num_partitions = 1 : i32, mhlo.num_replicas = 1 : i32} {\n  func.func public @main(%arg0: tensor<6xf32>) -> (tensor<6xf32> {jax.result_info = \"result\"}) {\n    %0 = stablehlo.exponential %arg0 : tensor<6xf32>\n    %1 = stablehlo.exponential %arg0 : tensor<6xf32>\n    %cst = stablehlo.constant dense<0.000000e+00> : tensor<f32>\n    %2 = stablehlo.reduce(%1 init: %cst) applies stablehlo.add acros…
    "jaxpr": "{ lambda ; a:f32[10,7,6]. let\n    b:f32[10,7,6] = exp a\n    c:f32[10,7,6] = exp a\n    d:f32[] = reduce_sum[axes=(0, 1, 2) out_sharding=None] c\n    e:f32[10,7,6] = div b d\n  in (e,) }",
    "stablehlo": "module @jit__lambda attributes {mhlo.num_partitions = 1 : i32, mhlo.num_replicas = 1 : i32} {\n  func.func public @main(%arg0: tensor<10x7x6xf32>) -> (tensor<10x7x6xf32> {jax.result_info = \"result\"}) {\n    %0 = stablehlo.exponential %arg0 : tensor<10x7x6xf32>\n    %1 = stablehlo.exponential %arg0 : tensor<10x7x6xf32>\n    %cst = stablehlo.constant dense<0.000000e+00> : tensor<f32>\n    %2 = stablehlo.reduce(%1 init: %cst) applies stablehlo.add across dimensions = [0, 1, 2] : (tensor<10x7x6xf32>, tensor<f32>) -> tensor<f32>\n    %3 = stablehlo.broadcast_in_dim %2, dims = [] : (tensor<f32>) -> tensor<10x7x6xf32>\n    %4 = stablehlo.divide %0, %3 : tensor<10x7x6xf32>\n    return %4 : tensor<10x7x6xf32>\n  }\n}\n",
    "metadata": {
      "category": "composite",
      "operation": "softmax",
      "description": "Composite operation: softmax"
    }
  },
  {
    "python_code": "lambda x: x / jnp.linalg.norm(x)",
    "input_info": [
      {
        "shape": [
          5,
          7,
          7
        ],
        "dtype": "float32"
      }
    ],
    "jaxpr": "{ lambda ; a:f32[5,7,7]. let\n    b:f32[] = jit[\n      name=norm\n      jaxpr={ lambda ; a:f32[5,7,7]. let\n          c:f32[5,7,7] = mul a a\n          d:f32[] = reduce_sum[axes=(0, 1, 2) out_sharding=None] c\n          b:f32[] = sqrt d\n        in (b,) }\n    ] a\n    e:f32[5,7,7] = div a b\n  in (e,) }",
    "stablehlo": "module @jit__lambda attributes {mhlo.num_partitions = 1 : i32, mhlo.num_replicas = 1 : i32} {\n  func.func public @main(%arg0: tensor<5x7x7xf32>) -> (tensor<5x7x7xf32> {jax.result_info = \"result\"}) {\n    %0 = call @norm(%arg0) : (tensor<5x7x7xf32>) -> tensor<f32>\n    %1 = stablehlo.broadcast_in_dim %0, dims = [] : (tensor<f32>) -> tensor<5x7x7xf32>\n    %2 = stablehlo.divide %arg0, %1 : tensor<5x7x7xf32>\n    return %2 : tensor<5x7x7xf32>\n  }\n  func.func private @norm(%arg0: tensor<5x7x7xf32>) -> tensor<f32> {\n    %0 = stablehlo.multiply %arg0, %arg0 : tensor<5x7x7xf32>\n    %cst = stablehlo.constant dense<0.000000e+00> : tensor<f32>\n    %1 = stablehlo.reduce(%0 init: %cst) applies stablehlo.add across dimensions = [0, 1, 2] : (tensor<5x7x7xf32>, tensor<f32>) -> tensor<f32>\n    %2 = stablehlo.sqrt %1 : tensor<f32>\n    return %2 : tensor<f32>\n  }\n}\n",
    "metadata": {
      "category": "composite",
      "operation": "normalize",
      "description": "Composite operation: normalize"
    }
  },
  {
    "python_code": "lambda x: jnp.sum(x ** 2)",
    "input_info": [
      {
        "shape": [
          8,
          4
        ],
        "dtype": "float32"
      }
    ],
    "jaxpr": "{ lambda ; a:f32[8,4]. let\n    b:f32[8,4] = integer_pow[y=2] a\n    c:f32[] = reduce_sum[axes=(0, 1) out_sharding=None] b\n  in (c,) }",
    "stablehlo": "module @jit__lambda attributes {mhlo.num_partitions = 1 : i32, mhlo.num_replicas = 1 : i32} {\n  func.func public @main(%arg0: tensor<8x4xf32>) -> (tensor<f32> {jax.result_info = \"result\"}) {\n    %0 = stablehlo.multiply %arg0, %arg0 : tensor<8x4xf32>\n    %cst = stablehlo.constant dense<0.000000e+00> : tensor<f32>\n    %1 = stablehlo.reduce(%0 init: %cst) applies stablehlo.add across dimensions = [0, 1] : (tensor<8x4xf32>, tensor<f32>) -> tensor<f32>\n    return %1 : tensor<f32>\n  }\n}\n",
    "metadata": {
      "category": "composite",
      "operation": "squared_norm",
      "description": "Composite operation: squared_norm"
    }
  },
  {
    "python_code": "lambda x: jnp.exp(x) / jnp.sum(jnp.exp(x))",
    "input_info": [
      {
        "shape": [
          3,
          6,
          6
        ],
        "dtype": "float32"
      }
    ],
    "jaxpr": "{ lambda ; a:f32[3,6,6]. let\n    b:f32[3,6,6] = exp a\n    c:f32[3,6,6] = exp a\n    d:f32[] = reduce_sum[axes=(0, 1, 2) out_sharding=None] c\n    e:f32[3,6,6] = div b d\n  in (e,) }",
    "stablehlo": "module @jit__lambda attributes {mhlo.num_partitions = 1 : i32, mhlo.num_replicas = 1 : i32} {\n  func.func public @main(%arg0: tensor<3x6x6xf32>) -> (tensor<3x6x6xf32> {jax.result_info = \"result\"}) {\n    %0 = stablehlo.exponential %arg0 : tensor<3x6x6xf32>\n    %1 = stablehlo.exponential %arg0 : tensor<3x6x6xf32>\n    %cst = stablehlo.constant dense<0.000000e+00> : tensor<f32>\n    %2 = stablehlo.reduce(%1 init: %cst) applies stablehlo.add across dimensions = [0, 1, 2] : (tensor<3x6x6xf32>, tensor<f32>) -> tensor<f32>\n    %3 = stablehlo.broadcast_in_dim %2, dims = [] : (tensor<f32>) -> tensor<3x6x6xf32>\n    %4 = stablehlo.divide %0, %3 : tensor<3x6x6xf32>\n    return %4 : tensor<3x6x6xf32>\n  }\n}\n",
    "metadata": {
      "category": "composite",
      "operation": "softmax",
      "description": "Composite operation: softmax"
    }
  },
  {
    "python_code": "lambda x: jnp.exp(x) / jnp.sum(jnp.exp(x))",
    "input_info": [
      {
        "shape": [
          4
        ],
        "dtype": "float32"
      }
    ],
    "jaxpr": "{ lambda ; a:f32[4]. let\n    b:f32[4] = exp a\n    c:f32[4] = exp a\n    d:f32[] = reduce_sum[axes=(0,) out_sharding=None] c\n    e:f32[4] = div b d\n  in (e,) }",
    "stablehlo": "module @jit__lambda attributes {mhlo.num_partitions = 1 : i32, mhlo.num_replicas = 1 : i32} {\n  func.func public @main(%arg0: tensor<4xf32>) -> (tensor<4xf32> {jax.result_info = \"result\"}) {\n    %0 = stablehlo.exponential %arg0 : tensor<4xf32>\n    %1 = stablehlo.exponential %arg0 : tensor<4xf32>\n    %cst = stablehlo.constant dense<0.000000e+00> : tensor<f32>\n    %2 = stablehlo.reduce(%1 init: %cst) applies stablehlo.add across dimensions = [0] : (tensor<4xf32>, tensor<f32>) -> tensor<f32>\n    %3 = stablehlo.broadcast_in_dim %2, dims = [] : (tensor<f32>) -> tensor<4xf32>\n    %4 = stablehlo.divide %0, %3 : tensor<4xf32>\n    return %4 : tensor<4xf32>\n  }\n}\n",
    "metadata": {
      "category": "composite",
      "operation": "softmax",
      "description": "Composite operation: softmax"
    }
  },
  {
    "python_code": "lambda x: jnp.sum(x ** 2)",
    "input_info": [
      {
        "shape": [
          8,
          3
        ],
        "dtype": "float32"
      }
    ],
    "jaxpr": "{ lambda ; a:f32[8,3]. let\n    b:f32[8,3] = integer_pow[y=2] a\n    c:f32[] = reduce_sum[axes=(0, 1) out_sharding=None] b\n  in (c,) }",
    "stablehlo": "module @jit__lambda attributes {mhlo.num_partitions = 1 : i32, mhlo.num_replicas = 1 : i32} {\n  func.func public @main(%arg0: tensor<8x3xf32>) -> (tensor<f32> {jax.result_info = \"result\"}) {\n    %0 = stablehlo.multiply %arg0, %arg0 : tensor<8x3xf32>\n    %cst = stablehlo.constant dense<0.000000e+00> : tensor<f32>\n    %1 = stablehlo.reduce(%0 init: %cst) applies stablehlo.add across dimensions = [0, 1] : (tensor<8x3xf32>, tensor<f32>) -> tensor<f32>\n    return %1 : tensor<f32>\n  }\n}\n",
    "metadata": {
      "category": "composite",
      "operation": "squared_norm",
      "description": "Composite operation: squared_norm"
    }
  },
  {
    "python_code": "lambda x: jnp.sum(x ** 2)",
    "input_info": [
      {
        "shape": [
          6
        ],
        "dtype": "float32"
      }
    ],
    "jaxpr": "{ lambda ; a:f32[6]. let\n    b:f32[6] = integer_pow[y=2] a\n    c:f32[] = reduce_sum[axes=(0,) out_sharding=None] b\n  in (c,) }",
    "stablehlo": "module @jit__lambda attributes {mhlo.num_partitions = 1 : i32, mhlo.num_replicas = 1 : i32} {\n  func.func public @main(%arg0: tensor<6xf32>) -> (tensor<f32> {jax.result_info = \"result\"}) {\n    %0 = stablehlo.multiply %arg0, %arg0 : tensor<6xf32>\n    %cst = stablehlo.constant dense<0.000000e+00> : tensor<f32>\n    %1 = stablehlo.reduce(%0 init: %cst) applies stablehlo.add across dimensions = [0] : (tensor<6xf32>, tensor<f32>) -> tensor<f32>\n    return %1 : tensor<f32>\n  }\n}\n",
    "metadata": {
      "category": "composite",
      "operation": "squared_norm",
      "description": "Composite operation: squared_norm"
    }
  },
  {
    "python_code": "lambda x: x / jnp.linalg.norm(x)",
    "input_info": [
      {
        "shape": [
          8,
          8,
          4
        ],
        "dtype": "float32"
      }
    ],
    "jaxpr": "{ lambda ; a:f32[8,8,4]. let\n    b:f32[] = jit[\n      name=norm\n      jaxpr={ lambda ; a:f32[8,8,4]. let\n          c:f32[8,8,4] = mul a a\n          d:f32[] = reduce_sum[axes=(0, 1, 2) out_sharding=None] c\n          b:f32[] = sqrt d\n        in (b,) }\n    ] a\n    e:f32[8,8,4] = div a b\n  in (e,) }",
    "stablehlo": "module @jit__lambda attributes {mhlo.num_partitions = 1 : i32, mhlo.num_replicas = 1 : i32} {\n  func.func public @main(%arg0: tensor<8x8x4xf32>) -> (tensor<8x8x4xf32> {jax.result_info = \"result\"}) {\n    %0 = call @norm(%arg0) : (tensor<8x8x4xf32>) -> tensor<f32>\n    %1 = stablehlo.broadcast_in_dim %0, dims = [] : (tensor<f32>) -> tensor<8x8x4xf32>\n    %2 = stablehlo.divide %arg0, %1 : tensor<8x8x4xf32>\n    return %2 : tensor<8x8x4xf32>\n  }\n  func.func private @norm(%arg0: tensor<8x8x4xf32>) -> tensor<f32> {\n    %0 = stablehlo.multiply %arg0, %arg0 : tensor<8x8x4xf32>\n    %cst = stablehlo.constant dense<0.000000e+00> : tensor<f32>\n    %1 = stablehlo.reduce(%0 init: %cst) applies stablehlo.add across dimensions = [0, 1, 2] : (tensor<8x8x4xf32>, tensor<f32>) -> tensor<f32>\n    %2 = stablehlo.sqrt %1 : tensor<f32>\n    return %2 : tensor<f32>\n  }\n}\n",
    "metadata": {
      "category": "composite",
      "operation": "normalize",
      "description": "Composite operation: normalize"
    }
  },
  {
    "python_code": "lambda x: x / jnp.linalg.norm(x)",
    "input_info": [
      {
        "shape": [
          6
        ],
        "dtype": "float32"
      }
    ],
    "jaxpr": "{ lambda ; a:f32[6]. let\n    b:f32[] = jit[\n      name=norm\n      jaxpr={ lambda ; a:f32[6]. let\n          c:f32[6] = mul a a\n          d:f32[] = reduce_sum[axes=(0,) out_sharding=None] c\n          b:f32[] = sqrt d\n        in (b,) }\n    ] a\n    e:f32[6] = div a b\n  in (e,) }",
    "stablehlo": "module @jit__lambda attributes {mhlo.num_partitions = 1 : i32, mhlo.num_replicas = 1 : i32} {\n  func.func public @main(%arg0: tensor<6xf32>) -> (tensor<6xf32> {jax.result_info = \"result\"}) {\n    %0 = call @norm(%arg0) : (tensor<6xf32>) -> tensor<f32>\n    %1 = stablehlo.broadcast_in_dim %0, dims = [] : (tensor<f32>) -> tensor<6xf32>\n    %2 = stablehlo.divide %arg0, %1 : tensor<6xf32>\n    return %2 : tensor<6xf32>\n  }\n  func.func private @norm(%arg0: tensor<6xf32>) -> tensor<f32> {\n    %0 = stablehlo.multiply %arg0, %arg0 : tensor<6xf32>\n    %cst = stablehlo.constant dense<0.000000e+00> : tensor<f32>\n    %1 = stablehlo.reduce(%0 init: %cst) applies stablehlo.add across dimensions = [0] : (tensor<6xf32>, tensor<f32>) -> tensor<f32>\n    %2 = stablehlo.sqrt %1 : tensor<f32>\n    return %2 : tensor<f32>\n  }\n}\n",
    "metadata": {
      "category": "composite",
      "operation": "normalize",
      "description": "Composite operation: normalize"
    }
  },
  {
    "python_code": "lambda x: jnp.exp(x) / jnp.sum(jnp.exp(x))",
    "input_info": [
      {
        "shape": [
          5
        ],
        "dtype": "float32"
      }
    ],
    "jaxpr": "{ lambda ; a:f32[5]. let\n    b:f32[5] = exp a\n    c:f32[5] = exp a\n    d:f32[] = reduce_sum[axes=(0,) out_sharding=None] c\n    e:f32[5] = div b d\n  in (e,) }",
    "stablehlo": "module @jit__lambda attributes {mhlo.num_partitions = 1 : i32, mhlo.num_replicas = 1 : i32} {\n  func.func public @main(%arg0: tensor<5xf32>) -> (tensor<5xf32> {jax.result_info = \"result\"}) {\n    %0 = stablehlo.exponential %arg0 : tensor<5xf32>\n    %1 = stablehlo.exponential %arg0 : tensor<5xf32>\n    %cst = stablehlo.constant dense<0.000000e+00> : tensor<f32>\n    %2 = stablehlo.reduce(%1 init: %cst) applies stablehlo.add across dimensions = [0] : (tensor<5xf32>, tensor<f32>) -> tensor<f32>\n    %3 = stablehlo.broadcast_in_dim %2, dims = [] : (tensor<f32>) -> tensor<5xf32>\n    %4 = stablehlo.divide %0, %3 : tensor<5xf32>\n    return %4 : tensor<5xf32>\n  }\n}\n",
    "metadata": {
      "category": "composite",
      "operation": "softmax",
      "description": "Composite operation: softmax"
    }
  },
  {
    "python_code": "lambda x: jnp.exp(x) / jnp.sum(jnp.exp(x))",
    "input_info": [
      {
        "shape": [
          8
        ],
        "dtype": "float32"
      }
    ],
    "jaxpr": "{ lambda ; a:f32[8]. let\n    b:f32[8] = exp a\n    c:f32[8] = exp a\n    d:f32[] = reduce_sum[axes=(0,) out_sharding=None] c\n    e:f32[8] = div b d\n  in (e,) }",
    "stablehlo": "module @jit__lambda attributes {mhlo.num_partitions = 1 : i32, mhlo.num_replicas = 1 : i32} {\n  func.func public @main(%arg0: tensor<8xf32>) -> (tensor<8xf32> {jax.result_info = \"result\"}) {\n    %0 = stablehlo.exponential %arg0 : tensor<8xf32>\n    %1 = stablehlo.exponential %arg0 : tensor<8xf32>\n    %cst = stablehlo.constant dense<0.000000e+00> : tensor<f32>\n    %2 = stablehlo.reduce(%1 init: %cst) applies stablehlo.add across dimensions = [0] : (tensor<8xf32>, tensor<f32>) -> tensor<f32>\n    %3 = stablehlo.broadcast_in_dim %2, dims = [] : (tensor<f32>) -> tensor<8xf32>\n    %4 = stablehlo.divide %0, %3 : tensor<8xf32>\n    return %4 : tensor<8xf32>\n  }\n}\n",
    "metadata": {
      "category": "composite",
      "operation": "softmax",
      "description": "Composite operation: softmax"
    }
  },
  {
    "python_code": "lambda x, w: jnp.sum(x * w)",
    "input_info": [
      {
        "shape": [
          8
        ],
        "dtype": "float32"
      },
      {
        "shape": [
          8,
          6,
          8
        ],
        "dtype": "float32"
      }
    ],
    "jaxpr": "{ lambda ; a:f32[8] b:f32[8,6,8]. let\n    c:f32[1,1,8] = broadcast_in_dim[\n      broadcast_dimensions=(2,)\n      shape=(1, 1, 8)\n      sharding=None\n    ] a\n    d:f32[8,6,8] = mul c b\n    e:f32[] = reduce_sum[axes=(0, 1, 2) out_sharding=None] d\n  in (e,) }",
    "stablehlo": "module @jit__lambda attributes {mhlo.num_partitions = 1 : i32, mhlo.num_replicas = 1 : i32} {\n  func.func public @main(%arg0: tensor<8xf32>, %arg1: tensor<8x6x8xf32>) -> (tensor<f32> {jax.result_info = \"result\"}) {\n    %0 = stablehlo.broadcast_in_dim %arg0, dims = [2] : (tensor<8xf32>) -> tensor<1x1x8xf32>\n    %1 = stablehlo.broadcast_in_dim %0, dims = [0, 1, 2] : (tensor<1x1x8xf32>) -> tensor<8x6x8xf32>\n    %2 = stablehlo.multiply %1, %arg1 : tensor<8x6x8xf32>\n    %cst = stablehlo.constant dense<0.000000e+00> : tensor<f32>\n    %3 = stablehlo.reduce(%2 init: %cst) applies stablehlo.add across dimensions = [0, 1, 2] : (tensor<8x6x8xf32>, tensor<f32>) -> tensor<f32>\n    return %3 : tensor<f32>\n  }\n}\n",
    "metadata": {
      "category": "composite",
      "operation": "weighted_sum",
      "description": "Composite operation: weighted_sum"
    }
  },
  {
    "python_code": "lambda x: jnp.sum(x ** 2)",
    "input_info": [
      {
        "shape": [
          10,
          7
        ],
        "dtype": "float32"
      }
    ],
    "jaxpr": "{ lambda ; a:f32[10,7]. let\n    b:f32[10,7] = integer_pow[y=2] a\n    c:f32[] = reduce_sum[axes=(0, 1) out_sharding=None] b\n  in (c,) }",
    "stablehlo": "module @jit__lambda attributes {mhlo.num_partitions = 1 : i32, mhlo.num_replicas = 1 : i32} {\n  func.func public @main(%arg0: tensor<10x7xf32>) -> (tensor<f32> {jax.result_info = \"result\"}) {\n    %0 = stablehlo.multiply %arg0, %arg0 : tensor<10x7xf32>\n    %cst = stablehlo.constant dense<0.000000e+00> : tensor<f32>\n    %1 = stablehlo.reduce(%0 init: %cst) applies stablehlo.add across dimensions = [0, 1] : (tensor<10x7xf32>, tensor<f32>) -> tensor<f32>\n    return %1 : tensor<f32>\n  }\n}\n",
    "metadata": {
      "category": "composite",
      "operation": "squared_norm",
      "description": "Composite operation: squared_norm"
    }
  },
  {
    "python_code": "lambda x: jnp.sum(x ** 2)",
    "input_info": [
      {
        "shape": [
          3,
          4
        ],
        "dtype": "float32"
      }
    ],
    "jaxpr": "{ lambda ; a:f32[3,4]. let\n    b:f32[3,4] = integer_pow[y=2] a\n    c:f32[] = reduce_sum[axes=(0, 1) out_sharding=None] b\n  in (c,) }",
    "stablehlo": "module @jit__lambda attributes {mhlo.num_partitions = 1 : i32, mhlo.num_replicas = 1 : i32} {\n  func.func public @main(%arg0: tensor<3x4xf32>) -> (tensor<f32> {jax.result_info = \"result\"}) {\n    %0 = stablehlo.multiply %arg0, %arg0 : tensor<3x4xf32>\n    %cst = stablehlo.constant dense<0.000000e+00> : tensor<f32>\n    %1 = stablehlo.reduce(%0 init: %cst) applies stablehlo.add across dimensions = [0, 1] : (tensor<3x4xf32>, tensor<f32>) -> tensor<f32>\n    return %1 : tensor<f32>\n  }\n}\n",
    "metadata": {
      "category": "composite",
      "operation": "squared_norm",
      "description": "Composite operation: squared_norm"
    }
  },
  {
    "python_code": "lambda x: jnp.exp(x) / jnp.sum(jnp.exp(x))",
    "input_info": [
      {
        "shape": [
          5
        ],
        "dtype": "float32"
      }
    ],
    "jaxpr": "{ lambda ; a:f32[5]. let\n    b:f32[5] = exp a\n    c:f32[5] = exp a\n    d:f32[] = reduce_sum[axes=(0,) out_sharding=None] c\n    e:f32[5] = div b d\n  in (e,) }",
    "stablehlo": "module @jit__lambda attributes {mhlo.num_partitions = 1 : i32, mhlo.num_replicas = 1 : i32} {\n  func.func public @main(%arg0: tensor<5xf32>) -> (tensor<5xf32> {jax.result_info = \"result\"}) {\n    %0 = stablehlo.exponential %arg0 : tensor<5xf32>\n    %1 = stablehlo.exponential %arg0 : tensor<5xf32>\n    %cst = stablehlo.constant dense<0.000000e+00> : tensor<f32>\n    %2 = stablehlo.reduce(%1 init: %cst) applies stablehlo.add across dimensions = [0] : (tensor<5xf32>, tensor<f32>) -> tensor<f32>\n    %3 = stablehlo.broadcast_in_dim %2, dims = [] : (tensor<f32>) -> tensor<5xf32>\n    %4 = stablehlo.divide %0, %3 : tensor<5xf32>\n    return %4 : tensor<5xf32>\n  }\n}\n",
    "metadata": {
      "category": "composite",
      "operation": "softmax",
      "description": "Composite operation: softmax"
    }
  },
  {
    "python_code": "lambda x: jnp.exp(x) / jnp.sum(jnp.exp(x))",
    "input_info": [
      {
        "shape": [
          7,
          4
        ],
        "dtype": "float32"
      }
    ],
    "jaxpr": "{ lambda ; a:f32[7,4]. let\n    b:f32[7,4] = exp a\n    c:f32[7,4] = exp a\n    d:f32[] = reduce_sum[axes=(0, 1) out_sharding=None] c\n    e:f32[7,4] = div b d\n  in (e,) }",
    "stablehlo": "module @jit__lambda attributes {mhlo.num_partitions = 1 : i32, mhlo.num_replicas = 1 : i32} {\n  func.func public @main(%arg0: tensor<7x4xf32>) -> (tensor<7x4xf32> {jax.result_info = \"result\"}) {\n    %0 = stablehlo.exponential %arg0 : tensor<7x4xf32>\n    %1 = stablehlo.exponential %arg0 : tensor<7x4xf32>\n    %cst = stablehlo.constant dense<0.000000e+00> : tensor<f32>\n    %2 = stablehlo.reduce(%1 init: %cst) applies stablehlo.add across dimensions = [0, 1] : (tensor<7x4xf32>, tensor<f32>) -> tensor<f32>\n    %3 = stablehlo.broadcast_in_dim %2, dims = [] : (tensor<f32>) -> tensor<7x4xf32>\n    %4 = stablehlo.divide %0, %3 : tensor<7x4xf32>\n    return %4 : tensor<7x4xf32>\n  }\n}\n",
    "metadata": {
      "category": "composite",
      "operation": "softmax",
      "description": "Composite operation: softmax"
    }
  },
  {
    "python_code": "lambda x: x / jnp.linalg.norm(x)",
    "input_info": [
      {
        "shape": [
          5,
          8
        ],
        "dtype": "float32"
      }
    ],
    "jaxpr": "{ lambda ; a:f32[5,8]. let\n    b:f32[] = jit[\n      name=norm\n      jaxpr={ lambda ; a:f32[5,8]. let\n          c:f32[5,8] = mul a a\n          d:f32[] = reduce_sum[axes=(0, 1) out_sharding=None] c\n          b:f32[] = sqrt d\n        in (b,) }\n    ] a\n    e:f32[5,8] = div a b\n  in (e,) }",
    "stablehlo": "module @jit__lambda attributes {mhlo.num_partitions = 1 : i32, mhlo.num_replicas = 1 : i32} {\n  func.func public @main(%arg0: tensor<5x8xf32>) -> (tensor<5x8xf32> {jax.result_info = \"result\"}) {\n    %0 = call @norm(%arg0) : (tensor<5x8xf32>) -> tensor<f32>\n    %1 = stablehlo.broadcast_in_dim %0, dims = [] : (tensor<f32>) -> tensor<5x8xf32>\n    %2 = stablehlo.divide %arg0, %1 : tensor<5x8xf32>\n    return %2 : tensor<5x8xf32>\n  }\n  func.func private @norm(%arg0: tensor<5x8xf32>) -> tensor<f32> {\n    %0 = stablehlo.multiply %arg0, %arg0 : tensor<5x8xf32>\n    %cst = stablehlo.constant dense<0.000000e+00> : tensor<f32>\n    %1 = stablehlo.reduce(%0 init: %cst) applies stablehlo.add across dimensions = [0, 1] : (tensor<5x8xf32>, tensor<f32>) -> tensor<f32>\n    %2 = stablehlo.sqrt %1 : tensor<f32>\n    return %2 : tensor<f32>\n  }\n}\n",
    "metadata": {
      "category": "composite",
      "operation": "normalize",
      "description": "Composite operation: normalize"
    }
  },
  {
    "python_code": "lambda x: jnp.sum(x ** 2)",
    "input_info": [
      {
        "shape": [
          10,
          6,
          4
        ],
        "dtype": "float32"
      }
    ],
    "jaxpr": "{ lambda ; a:f32[10,6,4]. let\n    b:f32[10,6,4] = integer_pow[y=2] a\n    c:f32[] = reduce_sum[axes=(0, 1, 2) out_sharding=None] b\n  in (c,) }",
    "stablehlo": "module @jit__lambda attributes {mhlo.num_partitions = 1 : i32, mhlo.num_replicas = 1 : i32} {\n  func.func public @main(%arg0: tensor<10x6x4xf32>) -> (tensor<f32> {jax.result_info = \"result\"}) {\n    %0 = stablehlo.multiply %arg0, %arg0 : tensor<10x6x4xf32>\n    %cst = stablehlo.constant dense<0.000000e+00> : tensor<f32>\n    %1 = stablehlo.reduce(%0 init: %cst) applies stablehlo.add across dimensions = [0, 1, 2] : (tensor<10x6x4xf32>, tensor<f32>) -> tensor<f32>\n    return %1 : tensor<f32>\n  }\n}\n",
    "metadata": {
      "category": "composite",
      "operation": "squared_norm",
      "description": "Composite operation: squared_norm"
    }
  },
  {
    "python_code": "lambda x: jnp.sum(x ** 2)",
    "input_info": [
      {
        "shape": [
          5,
          4,
          4
        ],
        "dtype": "float32"
      }
    ],
    "jaxpr": "{ lambda ; a:f32[5,4,4]. let\n    b:f32[5,4,4] = integer_pow[y=2] a\n    c:f32[] = reduce_sum[axes=(0, 1, 2) out_sharding=None] b\n  in (c,) }",
    "stablehlo": "module @jit__lambda attributes {mhlo.num_partitions = 1 : i32, mhlo.num_replicas = 1 : i32} {\n  func.func public @main(%arg0: tensor<5x4x4xf32>) -> (tensor<f32> {jax.result_info = \"result\"}) {\n    %0 = stablehlo.multiply %arg0, %arg0 : tensor<5x4x4xf32>\n    %cst = stablehlo.constant dense<0.000000e+00> : tensor<f32>\n    %1 = stablehlo.reduce(%0 init: %cst) applies stablehlo.add across dimensions = [0, 1, 2] : (tensor<5x4x4xf32>, tensor<f32>) -> tensor<f32>\n    return %1 : tensor<f32>\n  }\n}\n",
    "metadata": {
      "category": "composite",
      "operation": "squared_norm",
      "description": "Composite operation: squared_norm"
    }
  },
  {
    "python_code": "lambda x: jnp.exp(x) / jnp.sum(jnp.exp(x))",
    "input_info": [
      {
        "shape": [
          10
        ],
        "dtype": "float32"
      }
    ],
    "jaxpr": "{ lambda ; a:f32[10]. let\n    b:f32[10] = exp a\n    c:f32[10] = exp a\n    d:f32[] = reduce_sum[axes=(0,) out_sharding=None] c\n    e:f32[10] = div b d\n  in (e,) }",
    "stablehlo": "module @jit__lambda attributes {mhlo.num_partitions = 1 : i32, mhlo.num_replicas = 1 : i32} {\n  func.func public @main(%arg0: tensor<10xf32>) -> (tensor<10xf32> {jax.result_info = \"result\"}) {\n    %0 = stablehlo.exponential %arg0 : tensor<10xf32>\n    %1 = stablehlo.exponential %arg0 : tensor<10xf32>\n    %cst = stablehlo.constant dense<0.000000e+00> : tensor<f32>\n    %2 = stablehlo.reduce(%1 init: %cst) applies stablehlo.add across dimensions = [0] : (tensor<10xf32>, tensor<f32>) -> tensor<f32>\n    %3 = stablehlo.broadcast_in_dim %2, dims = [] : (tensor<f32>) -> tensor<10xf32>\n    %4 = stablehlo.divide %0, %3 : tensor<10xf32>\n    return %4 : tensor<10xf32>\n  }\n}\n",
    "metadata": {
      "category": "composite",
      "operation": "softmax",
      "description": "Composite operation: softmax"
    }
  },
  {
    "python_code": "lambda x: x / jnp.linalg.norm(x)",
    "input_info": [
      {
        "shape": [
          6,
          7,
          5
        ],
        "dtype": "float32"
      }
    ],
    "jaxpr": "{ lambda ; a:f32[6,7,5]. let\n    b:f32[] = jit[\n      name=norm\n      jaxpr={ lambda ; a:f32[6,7,5]. let\n          c:f32[6,7,5] = mul a a\n          d:f32[] = reduce_sum[axes=(0, 1, 2) out_sharding=None] c\n          b:f32[] = sqrt d\n        in (b,) }\n    ] a\n    e:f32[6,7,5] = div a b\n  in (e,) }",
    "stablehlo": "module @jit__lambda attributes {mhlo.num_partitions = 1 : i32, mhlo.num_replicas = 1 : i32} {\n  func.func public @main(%arg0: tensor<6x7x5xf32>) -> (tensor<6x7x5xf32> {jax.result_info = \"result\"}) {\n    %0 = call @norm(%arg0) : (tensor<6x7x5xf32>) -> tensor<f32>\n    %1 = stablehlo.broadcast_in_dim %0, dims = [] : (tensor<f32>) -> tensor<6x7x5xf32>\n    %2 = stablehlo.divide %arg0, %1 : tensor<6x7x5xf32>\n    return %2 : tensor<6x7x5xf32>\n  }\n  func.func private @norm(%arg0: tensor<6x7x5xf32>) -> tensor<f32> {\n    %0 = stablehlo.multiply %arg0, %arg0 : tensor<6x7x5xf32>\n    %cst = stablehlo.constant dense<0.000000e+00> : tensor<f32>\n    %1 = stablehlo.reduce(%0 init: %cst) applies stablehlo.add across dimensions = [0, 1, 2] : (tensor<6x7x5xf32>, tensor<f32>) -> tensor<f32>\n    %2 = stablehlo.sqrt %1 : tensor<f32>\n    return %2 : tensor<f32>\n  }\n}\n",
    "metadata": {
      "category": "composite",
      "operation": "normalize",
      "description": "Composite operation: normalize"
    }
  },
  {
    "python_code": "lambda x: x / jnp.linalg.norm(x)",
    "input_info": [
      {
        "shape": [
          7,
          4,
          6
        ],
        "dtype": "float32"
      }
    ],
    "jaxpr": "{ lambda ; a:f32[7,4,6]. let\n    b:f32[] = jit[\n      name=norm\n      jaxpr={ lambda ; a:f32[7,4,6]. let\n          c:f32[7,4,6] = mul a a\n          d:f32[] = reduce_sum[axes=(0, 1, 2) out_sharding=None] c\n          b:f32[] = sqrt d\n        in (b,) }\n    ] a\n    e:f32[7,4,6] = div a b\n  in (e,) }",
    "stablehlo": "module @jit__lambda attributes {mhlo.num_partitions = 1 : i32, mhlo.num_replicas = 1 : i32} {\n  func.func public @main(%arg0: tensor<7x4x6xf32>) -> (tensor<7x4x6xf32> {jax.result_info = \"result\"}) {\n    %0 = call @norm(%arg0) : (tensor<7x4x6xf32>) -> tensor<f32>\n    %1 = stablehlo.broadcast_in_dim %0, dims = [] : (tensor<f32>) -> tensor<7x4x6xf32>\n    %2 = stablehlo.divide %arg0, %1 : tensor<7x4x6xf32>\n    return %2 : tensor<7x4x6xf32>\n  }\n  func.func private @norm(%arg0: tensor<7x4x6xf32>) -> tensor<f32> {\n    %0 = stablehlo.multiply %arg0, %arg0 : tensor<7x4x6xf32>\n    %cst = stablehlo.constant dense<0.000000e+00> : tensor<f32>\n    %1 = stablehlo.reduce(%0 init: %cst) applies stablehlo.add across dimensions = [0, 1, 2] : (tensor<7x4x6xf32>, tensor<f32>) -> tensor<f32>\n    %2 = stablehlo.sqrt %1 : tensor<f32>\n    return %2 : tensor<f32>\n  }\n}\n",
    "metadata": {
      "category": "composite",
      "operation": "normalize",
      "description": "Composite operation: normalize"
    }
  },
  {
    "python_code": "lambda x: jnp.exp(x) / jnp.sum(jnp.exp(x))",
    "input_info": [
      {
        "shape": [
          9,
          4,
          5
        ],
        "dtype": "float32"
      }
    ],
    "jaxpr": "{ lambda ; a:f32[9,4,5]. let\n    b:f32[9,4,5] = exp a\n    c:f32[9,4,5] = exp a\n    d:f32[] = reduce_sum[axes=(0, 1, 2) out_sharding=None] c\n    e:f32[9,4,5] = div b d\n  in (e,) }",
    "stablehlo": "module @jit__lambda attributes {mhlo.num_partitions = 1 : i32, mhlo.num_replicas = 1 : i32} {\n  func.func public @main(%arg0: tensor<9x4x5xf32>) -> (tensor<9x4x5xf32> {jax.result_info = \"result\"}) {\n    %0 = stablehlo.exponential %arg0 : tensor<9x4x5xf32>\n    %1 = stablehlo.exponential %arg0 : tensor<9x4x5xf32>\n    %cst = stablehlo.constant dense<0.000000e+00> : tensor<f32>\n    %2 = stablehlo.reduce(%1 init: %cst) applies stablehlo.add across dimensions = [0, 1, 2] : (tensor<9x4x5xf32>, tensor<f32>) -> tensor<f32>\n    %3 = stablehlo.broadcast_in_dim %2, dims = [] : (tensor<f32>) -> tensor<9x4x5xf32>\n    %4 = stablehlo.divide %0, %3 : tensor<9x4x5xf32>\n    return %4 : tensor<9x4x5xf32>\n  }\n}\n",
    "metadata": {
      "category": "composite",
      "operation": "softmax",
      "description": "Composite operation: softmax"
    }
  },
  {
    "python_code": "lambda x: jnp.exp(x) / jnp.sum(jnp.exp(x))",
    "input_info": [
      {
        "shape": [
          6
        ],
        "dtype": "float32"
      }
    ],
    "jaxpr": "{ lambda ; a:f32[6]. let\n    b:f32[6] = exp a\n    c:f32[6] = exp a\n    d:f32[] = reduce_sum[axes=(0,) out_sharding=None] c\n    e:f32[6] = div b d\n  in (e,) }",
    "stablehlo": "module @jit__lambda attributes {mhlo.num_partitions = 1 : i32, mhlo.num_replicas = 1 : i32} {\n  func.func public @main(%arg0: tensor<6xf32>) -> (tensor<6xf32> {jax.result_info = \"result\"}) {\n    %0 = stablehlo.exponential %arg0 : tensor<6xf32>\n    %1 = stablehlo.exponential %arg0 : tensor<6xf32>\n    %cst = stablehlo.constant dense<0.000000e+00> : tensor<f32>\n    %2 = stablehlo.reduce(%1 init: %cst) applies stablehlo.add across dimensions = [0] : (tensor<6xf32>, tensor<f32>) -> tensor<f32>\n    %3 = stablehlo.broadcast_in_dim %2, dims = [] : (tensor<f32>) -> tensor<6xf32>\n    %4 = stablehlo.divide %0, %3 : tensor<6xf32>\n    return %4 : tensor<6xf32>\n  }\n}\n",
    "metadata": {
      "category": "composite",
      "operation": "softmax",
      "description": "Composite operation: softmax"
    }
  },
  {
    "python_code": "lambda x: jnp.sum(x ** 2)",
    "input_info": [
      {
        "shape": [
          2
        ],
        "dtype": "float32"
      }
    ],
    "jaxpr": "{ lambda ; a:f32[2]. let\n    b:f32[2] = integer_pow[y=2] a\n    c:f32[] = reduce_sum[axes=(0,) out_sharding=None] b\n  in (c,) }",
    "stablehlo": "module @jit__lambda attributes {mhlo.num_partitions = 1 : i32, mhlo.num_replicas = 1 : i32} {\n  func.func public @main(%arg0: tensor<2xf32>) -> (tensor<f32> {jax.result_info = \"result\"}) {\n    %0 = stablehlo.multiply %arg0, %arg0 : tensor<2xf32>\n    %cst = stablehlo.constant dense<0.000000e+00> : tensor<f32>\n    %1 = stablehlo.reduce(%0 init: %cst) applies stablehlo.add across dimensions = [0] : (tensor<2xf32>, tensor<f32>) -> tensor<f32>\n    return %1 : tensor<f32>\n  }\n}\n",
    "metadata": {
      "category": "composite",
      "operation": "squared_norm",
      "description": "Composite operation: squared_norm"
    }
  },
  {
    "python_code": "lambda x: x / jnp.linalg.norm(x)",
    "input_info": [
      {
        "shape": [
          4,
          5,
          3
        ],
        "dtype": "float32"
      }
    ],
    "jaxpr": "{ lambda ; a:f32[4,5,3]. let\n    b:f32[] = jit[\n      name=norm\n      jaxpr={ lambda ; a:f32[4,5,3]. let\n          c:f32[4,5,3] = mul a a\n          d:f32[] = reduce_sum[axes=(0, 1, 2) out_sharding=None] c\n          b:f32[] = sqrt d\n        in (b,) }\n    ] a\n    e:f32[4,5,3] = div a b\n  in (e,) }",
    "stablehlo": "module @jit__lambda attributes {mhlo.num_partitions = 1 : i32, mhlo.num_replicas = 1 : i32} {\n  func.func public @main(%arg0: tensor<4x5x3xf32>) -> (tensor<4x5x3xf32> {jax.result_info = \"result\"}) {\n    %0 = call @norm(%arg0) : (tensor<4x5x3xf32>) -> tensor<f32>\n    %1 = stablehlo.broadcast_in_dim %0, dims = [] : (tensor<f32>) -> tensor<4x5x3xf32>\n    %2 = stablehlo.divide %arg0, %1 : tensor<4x5x3xf32>\n    return %2 : tensor<4x5x3xf32>\n  }\n  func.func private @norm(%arg0: tensor<4x5x3xf32>) -> tensor<f32> {\n    %0 = stablehlo.multiply %arg0, %arg0 : tensor<4x5x3xf32>\n    %cst = stablehlo.constant dense<0.000000e+00> : tensor<f32>\n    %1 = stablehlo.reduce(%0 init: %cst) applies stablehlo.add across dimensions = [0, 1, 2] : (tensor<4x5x3xf32>, tensor<f32>) -> tensor<f32>\n    %2 = stablehlo.sqrt %1 : tensor<f32>\n    return %2 : tensor<f32>\n  }\n}\n",
    "metadata": {
      "category": "composite",
      "operation": "normalize",
      "description": "Composite operation: normalize"
    }
  },
  {
    "python_code": "lambda x: jnp.exp(x) / jnp.sum(jnp.exp(x))",
    "input_info": [
      {
        "shape": [
          8,
          5
        ],
        "dtype": "float32"
      }
    ],
    "jaxpr": "{ lambda ; a:f32[8,5]. let\n    b:f32[8,5] = exp a\n    c:f32[8,5] = exp a\n    d:f32[] = reduce_sum[axes=(0, 1) out_sharding=None] c\n    e:f32[8,5] = div b d\n  in (e,) }",
    "stablehlo": "module @jit__lambda attributes {mhlo.num_partitions = 1 : i32, mhlo.num_replicas = 1 : i32} {\n  func.func public @main(%arg0: tensor<8x5xf32>) -> (tensor<8x5xf32> {jax.result_info = \"result\"}) {\n    %0 = stablehlo.exponential %arg0 : tensor<8x5xf32>\n    %1 = stablehlo.exponential %arg0 : tensor<8x5xf32>\n    %cst = stablehlo.constant dense<0.000000e+00> : tensor<f32>\n    %2 = stablehlo.reduce(%1 init: %cst) applies stablehlo.add across dimensions = [0, 1] : (tensor<8x5xf32>, tensor<f32>) -> tensor<f32>\n    %3 = stablehlo.broadcast_in_dim %2, dims = [] : (tensor<f32>) -> tensor<8x5xf32>\n    %4 = stablehlo.divide %0, %3 : tensor<8x5xf32>\n    return %4 : tensor<8x5xf32>\n  }\n}\n",
    "metadata": {
      "category": "composite",
      "operation": "softmax",
      "description": "Composite operation: softmax"
    }
  },
  {
    "python_code": "lambda x: jnp.exp(x) / jnp.sum(jnp.exp(x))",
    "input_info": [
      {
        "shape": [
          3
        ],
        "dtype": "float32"
      }
    ],
    "jaxpr": "{ lambda ; a:f32[3]. let\n    b:f32[3] = exp a\n    c:f32[3] = exp a\n    d:f32[] = reduce_sum[axes=(0,) out_sharding=None] c\n    e:f32[3] = div b d\n  in (e,) }",
    "stablehlo": "module @jit__lambda attributes {mhlo.num_partitions = 1 : i32, mhlo.num_replicas = 1 : i32} {\n  func.func public @main(%arg0: tensor<3xf32>) -> (tensor<3xf32> {jax.result_info = \"result\"}) {\n    %0 = stablehlo.exponential %arg0 : tensor<3xf32>\n    %1 = stablehlo.exponential %arg0 : tensor<3xf32>\n    %cst = stablehlo.constant dense<0.000000e+00> : tensor<f32>\n    %2 = stablehlo.reduce(%1 init: %cst) applies stablehlo.add across dimensions = [0] : (tensor<3xf32>, tensor<f32>) -> tensor<f32>\n    %3 = stablehlo.broadcast_in_dim %2, dims = [] : (tensor<f32>) -> tensor<3xf32>\n    %4 = stablehlo.divide %0, %3 : tensor<3xf32>\n    return %4 : tensor<3xf32>\n  }\n}\n",
    "metadata": {
      "category": "composite",
      "operation": "softmax",
      "description": "Composite operation: softmax"
    }
  },
  {
    "python_code": "lambda x: jnp.sum(x ** 2)",
    "input_info": [
      {
        "shape": [
          3,
          6,
          3
        ],
        "dtype": "float32"
      }
    ],
    "jaxpr": "{ lambda ; a:f32[3,6,3]. let\n    b:f32[3,6,3] = integer_pow[y=2] a\n    c:f32[] = reduce_sum[axes=(0, 1, 2) out_sharding=None] b\n  in (c,) }",
    "stablehlo": "module @jit__lambda attributes {mhlo.num_partitions = 1 : i32, mhlo.num_replicas = 1 : i32} {\n  func.func public @main(%arg0: tensor<3x6x3xf32>) -> (tensor<f32> {jax.result_info = \"result\"}) {\n    %0 = stablehlo.multiply %arg0, %arg0 : tensor<3x6x3xf32>\n    %cst = stablehlo.constant dense<0.000000e+00> : tensor<f32>\n    %1 = stablehlo.reduce(%0 init: %cst) applies stablehlo.add across dimensions = [0, 1, 2] : (tensor<3x6x3xf32>, tensor<f32>) -> tensor<f32>\n    return %1 : tensor<f32>\n  }\n}\n",
    "metadata": {
      "category": "composite",
      "operation": "squared_norm",
      "description": "Composite operation: squared_norm"
    }
  },
  {
    "python_code": "lambda x: jnp.sum(x ** 2)",
    "input_info": [
      {
        "shape": [
          7,
          9
        ],
        "dtype": "float32"
      }
    ],
    "jaxpr": "{ lambda ; a:f32[7,9]. let\n    b:f32[7,9] = integer_pow[y=2] a\n    c:f32[] = reduce_sum[axes=(0, 1) out_sharding=None] b\n  in (c,) }",
    "stablehlo": "module @jit__lambda attributes {mhlo.num_partitions = 1 : i32, mhlo.num_replicas = 1 : i32} {\n  func.func public @main(%arg0: tensor<7x9xf32>) -> (tensor<f32> {jax.result_info = \"result\"}) {\n    %0 = stablehlo.multiply %arg0, %arg0 : tensor<7x9xf32>\n    %cst = stablehlo.constant dense<0.000000e+00> : tensor<f32>\n    %1 = stablehlo.reduce(%0 init: %cst) applies stablehlo.add across dimensions = [0, 1] : (tensor<7x9xf32>, tensor<f32>) -> tensor<f32>\n    return %1 : tensor<f32>\n  }\n}\n",
    "metadata": {
      "category": "composite",
      "operation": "squared_norm",
      "description": "Composite operation: squared_norm"
    }
  },
  {
    "python_code": "lambda x, w: jnp.sum(x * w)",
    "input_info": [
      {
        "shape": [
          2
        ],
        "dtype": "float32"
      },
      {
        "shape": [
          2
        ],
        "dtype": "float32"
      }
    ],
    "jaxpr": "{ lambda ; a:f32[2] b:f32[2]. let\n    c:f32[2] = mul a b\n    d:f32[] = reduce_sum[axes=(0,) out_sharding=None] c\n  in (d,) }",
    "stablehlo": "module @jit__lambda attributes {mhlo.num_partitions = 1 : i32, mhlo.num_replicas = 1 : i32} {\n  func.func public @main(%arg0: tensor<2xf32>, %arg1: tensor<2xf32>) -> (tensor<f32> {jax.result_info = \"result\"}) {\n    %0 = stablehlo.multiply %arg0, %arg1 : tensor<2xf32>\n    %cst = stablehlo.constant dense<0.000000e+00> : tensor<f32>\n    %1 = stablehlo.reduce(%0 init: %cst) applies stablehlo.add across dimensions = [0] : (tensor<2xf32>, tensor<f32>) -> tensor<f32>\n    return %1 : tensor<f32>\n  }\n}\n",
    "metadata": {
      "category": "composite",
      "operation": "weighted_sum",
      "description": "Composite operation: weighted_sum"
    }
  },
  {
    "python_code": "lambda x: x / jnp.linalg.norm(x)",
    "input_info": [
      {
        "shape": [
          7,
          2,
          6
        ],
        "dtype": "float32"
      }
    ],
    "jaxpr": "{ lambda ; a:f32[7,2,6]. let\n    b:f32[] = jit[\n      name=norm\n      jaxpr={ lambda ; a:f32[7,2,6]. let\n          c:f32[7,2,6] = mul a a\n          d:f32[] = reduce_sum[axes=(0, 1, 2) out_sharding=None] c\n          b:f32[] = sqrt d\n        in (b,) }\n    ] a\n    e:f32[7,2,6] = div a b\n  in (e,) }",
    "stablehlo": "module @jit__lambda attributes {mhlo.num_partitions = 1 : i32, mhlo.num_replicas = 1 : i32} {\n  func.func public @main(%arg0: tensor<7x2x6xf32>) -> (tensor<7x2x6xf32> {jax.result_info = \"result\"}) {\n    %0 = call @norm(%arg0) : (tensor<7x2x6xf32>) -> tensor<f32>\n    %1 = stablehlo.broadcast_in_dim %0, dims = [] : (tensor<f32>) -> tensor<7x2x6xf32>\n    %2 = stablehlo.divide %arg0, %1 : tensor<7x2x6xf32>\n    return %2 : tensor<7x2x6xf32>\n  }\n  func.func private @norm(%arg0: tensor<7x2x6xf32>) -> tensor<f32> {\n    %0 = stablehlo.multiply %arg0, %arg0 : tensor<7x2x6xf32>\n    %cst = stablehlo.constant dense<0.000000e+00> : tensor<f32>\n    %1 = stablehlo.reduce(%0 init: %cst) applies stablehlo.add across dimensions = [0, 1, 2] : (tensor<7x2x6xf32>, tensor<f32>) -> tensor<f32>\n    %2 = stablehlo.sqrt %1 : tensor<f32>\n    return %2 : tensor<f32>\n  }\n}\n",
    "metadata": {
      "category": "composite",
      "operation": "normalize",
      "description": "Composite operation: normalize"
    }
  },
  {
    "python_code": "lambda x: jnp.sum(x ** 2)",
    "input_info": [
      {
        "shape": [
          10,
          7
        ],
        "dtype": "float32"
      }
    ],
    "jaxpr": "{ lambda ; a:f32[10,7]. let\n    b:f32[10,7] = integer_pow[y=2] a\n    c:f32[] = reduce_sum[axes=(0, 1) out_sharding=None] b\n  in (c,) }",
    "stablehlo": "module @jit__lambda attributes {mhlo.num_partitions = 1 : i32, mhlo.num_replicas = 1 : i32} {\n  func.func public @main(%arg0: tensor<10x7xf32>) -> (tensor<f32> {jax.result_info = \"result\"}) {\n    %0 = stablehlo.multiply %arg0, %arg0 : tensor<10x7xf32>\n    %cst = stablehlo.constant dense<0.000000e+00> : tensor<f32>\n    %1 = stablehlo.reduce(%0 init: %cst) applies stablehlo.add across dimensions = [0, 1] : (tensor<10x7xf32>, tensor<f32>) -> tensor<f32>\n    return %1 : tensor<f32>\n  }\n}\n",
    "metadata": {
      "category": "composite",
      "operation": "squared_norm",
      "description": "Composite operation: squared_norm"
    }
  },
  {
    "python_code": "lambda x: x / jnp.linalg.norm(x)",
    "input_info": [
      {
        "shape": [
          9,
          5
        ],
        "dtype": "float32"
      }
    ],
    "jaxpr": "{ lambda ; a:f32[9,5]. let\n    b:f32[] = jit[\n      name=norm\n      jaxpr={ lambda ; a:f32[9,5]. let\n          c:f32[9,5] = mul a a\n          d:f32[] = reduce_sum[axes=(0, 1) out_sharding=None] c\n          b:f32[] = sqrt d\n        in (b,) }\n    ] a\n    e:f32[9,5] = div a b\n  in (e,) }",
    "stablehlo": "module @jit__lambda attributes {mhlo.num_partitions = 1 : i32, mhlo.num_replicas = 1 : i32} {\n  func.func public @main(%arg0: tensor<9x5xf32>) -> (tensor<9x5xf32> {jax.result_info = \"result\"}) {\n    %0 = call @norm(%arg0) : (tensor<9x5xf32>) -> tensor<f32>\n    %1 = stablehlo.broadcast_in_dim %0, dims = [] : (tensor<f32>) -> tensor<9x5xf32>\n    %2 = stablehlo.divide %arg0, %1 : tensor<9x5xf32>\n    return %2 : tensor<9x5xf32>\n  }\n  func.func private @norm(%arg0: tensor<9x5xf32>) -> tensor<f32> {\n    %0 = stablehlo.multiply %arg0, %arg0 : tensor<9x5xf32>\n    %cst = stablehlo.constant dense<0.000000e+00> : tensor<f32>\n    %1 = stablehlo.reduce(%0 init: %cst) applies stablehlo.add across dimensions = [0, 1] : (tensor<9x5xf32>, tensor<f32>) -> tensor<f32>\n    %2 = stablehlo.sqrt %1 : tensor<f32>\n    return %2 : tensor<f32>\n  }\n}\n",
    "metadata": {
      "category": "composite",
      "operation": "normalize",
      "description": "Composite operation: normalize"
    }
  },
  {
    "python_code": "lambda x: jnp.exp(x) / jnp.sum(jnp.exp(x))",
    "input_info": [
      {
        "shape": [
          6
        ],
        "dtype": "float32"
      }
    ],
    "jaxpr": "{ lambda ; a:f32[6]. let\n    b:f32[6] = exp a\n    c:f32[6] = exp a\n    d:f32[] = reduce_sum[axes=(0,) out_sharding=None] c\n    e:f32[6] = div b d\n  in (e,) }",
    "stablehlo": "module @jit__lambda attributes {mhlo.num_partitions = 1 : i32, mhlo.num_replicas = 1 : i32} {\n  func.func public @main(%arg0: tensor<6xf32>) -> (tensor<6xf32> {jax.result_info = \"result\"}) {\n    %0 = stablehlo.exponential %arg0 : tensor<6xf32>\n    %1 = stablehlo.exponential %arg0 : tensor<6xf32>\n    %cst = stablehlo.constant dense<0.000000e+00> : tensor<f32>\n    %2 = stablehlo.reduce(%1 init: %cst) applies stablehlo.add across dimensions = [0] : (tensor<6xf32>, tensor<f32>) -> tensor<f32>\n    %3 = stablehlo.broadcast_in_dim %2, dims = [] : (tensor<f32>) -> tensor<6xf32>\n    %4 = stablehlo.divide %0, %3 : tensor<6xf32>\n    return %4 : tensor<6xf32>\n  }\n}\n",
    "metadata": {
      "category": "composite",
      "operation": "softmax",
      "description": "Composite operation: softmax"
    }
  },
  {
    "python_code": "lambda x: jnp.exp(x) / jnp.sum(jnp.exp(x))",
    "input_info": [
      {
        "shape": [
          2,
          10,
          10
        ],
        "dtype": "float32"
      }
    ],
    "jaxpr": "{ lambda ; a:f32[2,10,10]. let\n    b:f32[2,10,10] = exp a\n    c:f32[2,10,10] = exp a\n    d:f32[] = reduce_sum[axes=(0, 1, 2) out_sharding=None] c\n    e:f32[2,10,10] = div b d\n  in (e,) }",
    "stablehlo": "module @jit__lambda attributes {mhlo.num_partitions = 1 : i32, mhlo.num_replicas = 1 : i32} {\n  func.func public @main(%arg0: tensor<2x10x10xf32>) -> (tensor<2x10x10xf32> {jax.result_info = \"result\"}) {\n    %0 = stablehlo.exponential %arg0 : tensor<2x10x10xf32>\n    %1 = stablehlo.exponential %arg0 : tensor<2x10x10xf32>\n    %cst = stablehlo.constant dense<0.000000e+00> : tensor<f32>\n    %2 = stablehlo.reduce(%1 init: %cst) applies stablehlo.add across dimensions = [0, 1, 2] : (tensor<2x10x10xf32>, tensor<f32>) -> tensor<f32>\n    %3 = stablehlo.broadcast_in_dim %2, dims = [] : (tensor<f32>) -> tensor<2x10x10xf32>\n    %4 = stablehlo.divide %0, %3 : tensor<2x10x10xf32>\n    return %4 : tensor<2x10x10xf32>\n  }\n}\n",
    "metadata": {
      "category": "composite",
      "operation": "softmax",
      "description": "Composite operation: softmax"
    }
  },
  {
    "python_code": "lambda x: x / jnp.linalg.norm(x)",
    "input_info": [
      {
        "shape": [
          10
        ],
        "dtype": "float32"
      }
    ],
    "jaxpr": "{ lambda ; a:f32[10]. let\n    b:f32[] = jit[\n      name=norm\n      jaxpr={ lambda ; a:f32[10]. let\n          c:f32[10] = mul a a\n          d:f32[] = reduce_sum[axes=(0,) out_sharding=None] c\n          b:f32[] = sqrt d\n        in (b,) }\n    ] a\n    e:f32[10] = div a b\n  in (e,) }",
    "stablehlo": "module @jit__lambda attributes {mhlo.num_partitions = 1 : i32, mhlo.num_replicas = 1 : i32} {\n  func.func public @main(%arg0: tensor<10xf32>) -> (tensor<10xf32> {jax.result_info = \"result\"}) {\n    %0 = call @norm(%arg0) : (tensor<10xf32>) -> tensor<f32>\n    %1 = stablehlo.broadcast_in_dim %0, dims = [] : (tensor<f32>) -> tensor<10xf32>\n    %2 = stablehlo.divide %arg0, %1 : tensor<10xf32>\n    return %2 : tensor<10xf32>\n  }\n  func.func private @norm(%arg0: tensor<10xf32>) -> tensor<f32> {\n    %0 = stablehlo.multiply %arg0, %arg0 : tensor<10xf32>\n    %cst = stablehlo.constant dense<0.000000e+00> : tensor<f32>\n    %1 = stablehlo.reduce(%0 init: %cst) applies stablehlo.add across dimensions = [0] : (tensor<10xf32>, tensor<f32>) -> tensor<f32>\n    %2 = stablehlo.sqrt %1 : tensor<f32>\n    return %2 : tensor<f32>\n  }\n}\n",
    "metadata": {
      "category": "composite",
      "operation": "normalize",
      "description": "Composite operation: normalize"
    }
  },
  {
    "python_code": "lambda x: jnp.sum(x ** 2)",
    "input_info": [
      {
        "shape": [
          2,
          2
        ],
        "dtype": "float32"
      }
    ],
    "jaxpr": "{ lambda ; a:f32[2,2]. let\n    b:f32[2,2] = integer_pow[y=2] a\n    c:f32[] = reduce_sum[axes=(0, 1) out_sharding=None] b\n  in (c,) }",
    "stablehlo": "module @jit__lambda attributes {mhlo.num_partitions = 1 : i32, mhlo.num_replicas = 1 : i32} {\n  func.func public @main(%arg0: tensor<2x2xf32>) -> (tensor<f32> {jax.result_info = \"result\"}) {\n    %0 = stablehlo.multiply %arg0, %arg0 : tensor<2x2xf32>\n    %cst = stablehlo.constant dense<0.000000e+00> : tensor<f32>\n    %1 = stablehlo.reduce(%0 init: %cst) applies stablehlo.add across dimensions = [0, 1] : (tensor<2x2xf32>, tensor<f32>) -> tensor<f32>\n    return %1 : tensor<f32>\n  }\n}\n",
    "metadata": {
      "category": "composite",
      "operation": "squared_norm",
      "description": "Composite operation: squared_norm"
    }
  },
  {
    "python_code": "lambda x: jnp.exp(x) / jnp.sum(jnp.exp(x))",
    "input_info": [
      {
        "shape": [
          8,
          4,
          8
        ],
        "dtype": "float32"
      }
    ],
    "jaxpr": "{ lambda ; a:f32[8,4,8]. let\n    b:f32[8,4,8] = exp a\n    c:f32[8,4,8] = exp a\n    d:f32[] = reduce_sum[axes=(0, 1, 2) out_sharding=None] c\n    e:f32[8,4,8] = div b d\n  in (e,) }",
    "stablehlo": "module @jit__lambda attributes {mhlo.num_partitions = 1 : i32, mhlo.num_replicas = 1 : i32} {\n  func.func public @main(%arg0: tensor<8x4x8xf32>) -> (tensor<8x4x8xf32> {jax.result_info = \"result\"}) {\n    %0 = stablehlo.exponential %arg0 : tensor<8x4x8xf32>\n    %1 = stablehlo.exponential %arg0 : tensor<8x4x8xf32>\n    %cst = stablehlo.constant dense<0.000000e+00> : tensor<f32>\n    %2 = stablehlo.reduce(%1 init: %cst) applies stablehlo.add across dimensions = [0, 1, 2] : (tensor<8x4x8xf32>, tensor<f32>) -> tensor<f32>\n    %3 = stablehlo.broadcast_in_dim %2, dims = [] : (tensor<f32>) -> tensor<8x4x8xf32>\n    %4 = stablehlo.divide %0, %3 : tensor<8x4x8xf32>\n    return %4 : tensor<8x4x8xf32>\n  }\n}\n",
    "metadata": {
      "category": "composite",
      "operation": "softmax",
      "description": "Composite operation: softmax"
    }
  },
  {
    "python_code": "lambda x: jnp.sum(x ** 2)",
    "input_info": [
      {
        "shape": [
          7,
          4
        ],
        "dtype": "float32"
      }
    ],
    "jaxpr": "{ lambda ; a:f32[7,4]. let\n    b:f32[7,4] = integer_pow[y=2] a\n    c:f32[] = reduce_sum[axes=(0, 1) out_sharding=None] b\n  in (c,) }",
    "stablehlo": "module @jit__lambda attributes {mhlo.num_partitions = 1 : i32, mhlo.num_replicas = 1 : i32} {\n  func.func public @main(%arg0: tensor<7x4xf32>) -> (tensor<f32> {jax.result_info = \"result\"}) {\n    %0 = stablehlo.multiply %arg0, %arg0 : tensor<7x4xf32>\n    %cst = stablehlo.constant dense<0.000000e+00> : tensor<f32>\n    %1 = stablehlo.reduce(%0 init: %cst) applies stablehlo.add across dimensions = [0, 1] : (tensor<7x4xf32>, tensor<f32>) -> tensor<f32>\n    return %1 : tensor<f32>\n  }\n}\n",
    "metadata": {
      "category": "composite",
      "operation": "squared_norm",
      "description": "Composite operation: squared_norm"
    }
  },
  {
    "python_code": "lambda x: jnp.sum(x ** 2)",
    "input_info": [
      {
        "shape": [
          6
        ],
        "dtype": "float32"
      }
    ],
    "jaxpr": "{ lambda ; a:f32[6]. let\n    b:f32[6] = integer_pow[y=2] a\n    c:f32[] = reduce_sum[axes=(0,) out_sharding=None] b\n  in (c,) }",
    "stablehlo": "module @jit__lambda attributes {mhlo.num_partitions = 1 : i32, mhlo.num_replicas = 1 : i32} {\n  func.func public @main(%arg0: tensor<6xf32>) -> (tensor<f32> {jax.result_info = \"result\"}) {\n    %0 = stablehlo.multiply %arg0, %arg0 : tensor<6xf32>\n    %cst = stablehlo.constant dense<0.000000e+00> : tensor<f32>\n    %1 = stablehlo.reduce(%0 init: %cst) applies stablehlo.add across dimensions = [0] : (tensor<6xf32>, tensor<f32>) -> tensor<f32>\n    return %1 : tensor<f32>\n  }\n}\n",
    "metadata": {
      "category": "composite",
      "operation": "squared_norm",
      "description": "Composite operation: squared_norm"
    }
  }
]