{"id": 0, "kernel_name": "scalar_arr_qahf", "python": "import jax\nimport jax.numpy as jnp\n\n@jax.jit\ndef scalar_arr_qahf(alpha, x, y):\n    # Scalar-array operations\n    return alpha * x + y", "type": "generate_scalar_array_op", "cpp": "module @jit_scalar_arr_qahf attributes {mhlo.num_partitions = 1 : i32, mhlo.num_replicas = 1 : i32} {\n  func.func public @main(%arg0: tensor<f32>, %arg1: tensor<128xf32>, %arg2: tensor<128xf32>) -> (tensor<128xf32> {jax.result_info = \"result\"}) {\n    %0 = stablehlo.convert %arg0 : tensor<f32>\n    %1 = stablehlo.broadcast_in_dim %0, dims = [] : (tensor<f32>) -> tensor<128xf32>\n    %2 = stablehlo.multiply %1, %arg1 : tensor<128xf32>\n    %3 = stablehlo.add %2, %arg2 : tensor<128xf32>\n    return %3 : tensor<128xf32>\n  }\n}\n", "cuda": "module @jit_scalar_arr_qahf attributes {mhlo.num_partitions = 1 : i32, mhlo.num_replicas = 1 : i32} {\n  func.func public @main(%arg0: tensor<f32>, %arg1: tensor<128xf32>, %arg2: tensor<128xf32>) -> (tensor<128xf32> {jax.result_info = \"result\"}) {\n    %0 = stablehlo.convert %arg0 : tensor<f32>\n    %1 = stablehlo.broadcast_in_dim %0, dims = [] : (tensor<f32>) -> tensor<128xf32>\n    %2 = stablehlo.multiply %1, %arg1 : tensor<128xf32>\n    %3 = stablehlo.add %2, %arg2 : tensor<128xf32>\n    return %3 : tensor<128xf32>\n  }\n}\n"}
{"id": 1, "kernel_name": "elementwise_bsdm", "python": "import jax\nimport jax.numpy as jnp\n\n@jax.jit\ndef elementwise_bsdm(a, b):\n    # Elementwise *\n    return a * b", "type": "generate_simple_elementwise", "cpp": "module @jit_elementwise_bsdm attributes {mhlo.num_partitions = 1 : i32, mhlo.num_replicas = 1 : i32} {\n  func.func public @main(%arg0: tensor<128xf32>, %arg1: tensor<128xf32>) -> (tensor<128xf32> {jax.result_info = \"result\"}) {\n    %0 = stablehlo.multiply %arg0, %arg1 : tensor<128xf32>\n    return %0 : tensor<128xf32>\n  }\n}\n", "cuda": "module @jit_elementwise_bsdm attributes {mhlo.num_partitions = 1 : i32, mhlo.num_replicas = 1 : i32} {\n  func.func public @main(%arg0: tensor<128xf32>, %arg1: tensor<128xf32>) -> (tensor<128xf32> {jax.result_info = \"result\"}) {\n    %0 = stablehlo.multiply %arg0, %arg1 : tensor<128xf32>\n    return %0 : tensor<128xf32>\n  }\n}\n"}
{"id": 2, "kernel_name": "vec_kowe", "python": "import jax\nimport jax.numpy as jnp\n\n@jax.jit\ndef vec_kowe(a, b):\n    # Vector dot product (row-wise for N x 3 arrays)\n    # a and b are expected to be shape (N, 3)\n    # contract over last axis\n    return jnp.sum(a * b, axis=-1)", "type": "generate_vector_kernel", "cpp": "module @jit_vec_kowe attributes {mhlo.num_partitions = 1 : i32, mhlo.num_replicas = 1 : i32} {\n  func.func public @main(%arg0: tensor<128x3xf32>, %arg1: tensor<128x3xf32>) -> (tensor<128xf32> {jax.result_info = \"result\"}) {\n    %0 = stablehlo.multiply %arg0, %arg1 : tensor<128x3xf32>\n    %cst = stablehlo.constant dense<0.000000e+00> : tensor<f32>\n    %1 = stablehlo.reduce(%0 init: %cst) applies stablehlo.add across dimensions = [1] : (tensor<128x3xf32>, tensor<f32>) -> tensor<128xf32>\n    return %1 : tensor<128xf32>\n  }\n}\n", "cuda": "module @jit_vec_kowe attributes {mhlo.num_partitions = 1 : i32, mhlo.num_replicas = 1 : i32} {\n  func.func public @main(%arg0: tensor<128x3xf32>, %arg1: tensor<128x3xf32>) -> (tensor<128xf32> {jax.result_info = \"result\"}) {\n    %0 = stablehlo.multiply %arg0, %arg1 : tensor<128x3xf32>\n    %cst = stablehlo.constant dense<0.000000e+00> : tensor<f32>\n    %1 = stablehlo.reduce(%0 init: %cst) applies stablehlo.add across dimensions = [1] : (tensor<128x3xf32>, tensor<f32>) -> tensor<128xf32>\n    return %1 : tensor<128xf32>\n  }\n}\n"}
{"id": 3, "kernel_name": "loop_hmci", "python": "import jax\nimport jax.numpy as jnp\n\n@jax.jit\ndef loop_hmci(a, n):\n    # Loop operation\n    def body_fun(i, val):\n        return val + a\n    \n    # We apply the body_fun n times starting from 0.0\n    # Since 'a' is an array, this operates elementwise across 'a'\n    init_val = jnp.zeros_like(a)\n    return jax.lax.fori_loop(0, n, body_fun, init_val)", "type": "generate_loop_kernel", "cpp": "module @jit_loop_hmci attributes {mhlo.num_partitions = 1 : i32, mhlo.num_replicas = 1 : i32} {\n  func.func public @main(%arg0: tensor<128xf32>, %arg1: tensor<i32>) -> (tensor<128xf32> {jax.result_info = \"result\"}) {\n    %cst = stablehlo.constant dense<0.000000e+00> : tensor<f32>\n    %0 = stablehlo.broadcast_in_dim %cst, dims = [] : (tensor<f32>) -> tensor<128xf32>\n    %c = stablehlo.constant dense<0> : tensor<i32>\n    %1:4 = stablehlo.while(%iterArg = %arg0, %iterArg_0 = %c, %iterArg_1 = %arg1, %iterArg_2 = %0) : tensor<128xf32>, tensor<i32>, tensor<i32>, tensor<128xf32>\n    cond {\n      %2 = stablehlo.compare  LT, %iterArg_0, %iterArg_1,  SIGNED : (tensor<i32>, tensor<i32>) -> tensor<i1>\n      stablehlo.return %2 : tensor<i1>\n    } do {\n      %c_3 = stablehlo.constant dense<1> : tensor<i32>\n      %2 = stablehlo.add %iterArg_0, %c_3 : tensor<i32>\n      %3 = stablehlo.add %iterArg_2, %iterArg : tensor<128xf32>\n      stablehlo.return %iterArg, %2, %iterArg_1, %3 : tensor<128xf32>, tensor<i32>, tensor<i32>, tensor<128xf32>\n    }\n    return %1#3 : tensor<128xf32>\n  }\n}\n", "cuda": "module @jit_loop_hmci attributes {mhlo.num_partitions = 1 : i32, mhlo.num_replicas = 1 : i32} {\n  func.func public @main(%arg0: tensor<128xf32>, %arg1: tensor<i32>) -> (tensor<128xf32> {jax.result_info = \"result\"}) {\n    %cst = stablehlo.constant dense<0.000000e+00> : tensor<f32>\n    %0 = stablehlo.broadcast_in_dim %cst, dims = [] : (tensor<f32>) -> tensor<128xf32>\n    %c = stablehlo.constant dense<0> : tensor<i32>\n    %1:4 = stablehlo.while(%iterArg = %arg0, %iterArg_0 = %c, %iterArg_1 = %arg1, %iterArg_2 = %0) : tensor<128xf32>, tensor<i32>, tensor<i32>, tensor<128xf32>\n    cond {\n      %2 = stablehlo.compare  LT, %iterArg_0, %iterArg_1,  SIGNED : (tensor<i32>, tensor<i32>) -> tensor<i1>\n      stablehlo.return %2 : tensor<i1>\n    } do {\n      %c_3 = stablehlo.constant dense<1> : tensor<i32>\n      %2 = stablehlo.add %iterArg_0, %c_3 : tensor<i32>\n      %3 = stablehlo.add %iterArg_2, %iterArg : tensor<128xf32>\n      stablehlo.return %iterArg, %2, %iterArg_1, %3 : tensor<128xf32>, tensor<i32>, tensor<i32>, tensor<128xf32>\n    }\n    return %1#3 : tensor<128xf32>\n  }\n}\n"}
{"id": 4, "kernel_name": "scalar_arr_xkpw", "python": "import jax\nimport jax.numpy as jnp\n\n@jax.jit\ndef scalar_arr_xkpw(alpha, x, y):\n    # Scalar-array operations\n    return alpha + x * y", "type": "generate_scalar_array_op", "cpp": "module @jit_scalar_arr_xkpw attributes {mhlo.num_partitions = 1 : i32, mhlo.num_replicas = 1 : i32} {\n  func.func public @main(%arg0: tensor<f32>, %arg1: tensor<128xf32>, %arg2: tensor<128xf32>) -> (tensor<128xf32> {jax.result_info = \"result\"}) {\n    %0 = stablehlo.multiply %arg1, %arg2 : tensor<128xf32>\n    %1 = stablehlo.convert %arg0 : tensor<f32>\n    %2 = stablehlo.broadcast_in_dim %1, dims = [] : (tensor<f32>) -> tensor<128xf32>\n    %3 = stablehlo.add %2, %0 : tensor<128xf32>\n    return %3 : tensor<128xf32>\n  }\n}\n", "cuda": "module @jit_scalar_arr_xkpw attributes {mhlo.num_partitions = 1 : i32, mhlo.num_replicas = 1 : i32} {\n  func.func public @main(%arg0: tensor<f32>, %arg1: tensor<128xf32>, %arg2: tensor<128xf32>) -> (tensor<128xf32> {jax.result_info = \"result\"}) {\n    %0 = stablehlo.multiply %arg1, %arg2 : tensor<128xf32>\n    %1 = stablehlo.convert %arg0 : tensor<f32>\n    %2 = stablehlo.broadcast_in_dim %1, dims = [] : (tensor<f32>) -> tensor<128xf32>\n    %3 = stablehlo.add %2, %0 : tensor<128xf32>\n    return %3 : tensor<128xf32>\n  }\n}\n"}
{"id": 5, "kernel_name": "reduce_jlli", "python": "import jax\nimport jax.numpy as jnp\n\n@jax.jit\ndef reduce_jlli(a):\n    # Reduction (sum)\n    return jnp.sum(a)", "type": "generate_reduction_kernel", "cpp": "module @jit_reduce_jlli attributes {mhlo.num_partitions = 1 : i32, mhlo.num_replicas = 1 : i32} {\n  func.func public @main(%arg0: tensor<128xf32>) -> (tensor<f32> {jax.result_info = \"result\"}) {\n    %cst = stablehlo.constant dense<0.000000e+00> : tensor<f32>\n    %0 = stablehlo.reduce(%arg0 init: %cst) applies stablehlo.add across dimensions = [0] : (tensor<128xf32>, tensor<f32>) -> tensor<f32>\n    return %0 : tensor<f32>\n  }\n}\n", "cuda": "module @jit_reduce_jlli attributes {mhlo.num_partitions = 1 : i32, mhlo.num_replicas = 1 : i32} {\n  func.func public @main(%arg0: tensor<128xf32>) -> (tensor<f32> {jax.result_info = \"result\"}) {\n    %cst = stablehlo.constant dense<0.000000e+00> : tensor<f32>\n    %0 = stablehlo.reduce(%arg0 init: %cst) applies stablehlo.add across dimensions = [0] : (tensor<128xf32>, tensor<f32>) -> tensor<f32>\n    return %0 : tensor<f32>\n  }\n}\n"}
{"id": 6, "kernel_name": "nested_odsh", "python": "import jax\nimport jax.numpy as jnp\n\n@jax.jit\ndef nested_odsh(a):\n    # Nested branching\n    # if a > 0.44:\n    #   if a > 0.69: a * 3.0\n    #   else: a * 2.0\n    # else: a * 0.5\n    \n    inner_branch = jnp.where(a > 0.69, a * 3.0, a * 2.0)\n    return jnp.where(a > 0.44, inner_branch, a * 0.5)", "type": "generate_nested_branch_kernel", "cpp": "module @jit_nested_odsh attributes {mhlo.num_partitions = 1 : i32, mhlo.num_replicas = 1 : i32} {\n  func.func public @main(%arg0: tensor<128xf32>) -> (tensor<128xf32> {jax.result_info = \"result\"}) {\n    %cst = stablehlo.constant dense<0.689999997> : tensor<f32>\n    %0 = stablehlo.broadcast_in_dim %cst, dims = [] : (tensor<f32>) -> tensor<128xf32>\n    %1 = stablehlo.compare  GT, %arg0, %0,  FLOAT : (tensor<128xf32>, tensor<128xf32>) -> tensor<128xi1>\n    %cst_0 = stablehlo.constant dense<3.000000e+00> : tensor<f32>\n    %2 = stablehlo.broadcast_in_dim %cst_0, dims = [] : (tensor<f32>) -> tensor<128xf32>\n    %3 = stablehlo.multiply %arg0, %2 : tensor<128xf32>\n    %cst_1 = stablehlo.constant dense<2.000000e+00> : tensor<f32>\n    %4 = stablehlo.broadcast_in_dim %cst_1, dims = [] : (tensor<f32>) -> tensor<128xf32>\n    %5 = stablehlo.multiply %arg0, %4 : tensor<128xf32>\n    %6 = call @_where(%1, %3, %5) : (tensor<128xi1>, tensor<128xf32>, tensor<128xf32>) -> tensor<128xf32>\n    %cst_2 = stablehlo.constant dense<4.400000e-01> : tensor<f32>\n    %7 = stablehlo.broadcast_in_dim %cst_2, dims = [] : (tensor<f32>) -> tensor<128xf32>\n    %8 = stablehlo.compare  GT, %arg0, %7,  FLOAT : (tensor<128xf32>, tensor<128xf32>) -> tensor<128xi1>\n    %cst_3 = stablehlo.constant dense<5.000000e-01> : tensor<f32>\n    %9 = stablehlo.broadcast_in_dim %cst_3, dims = [] : (tensor<f32>) -> tensor<128xf32>\n    %10 = stablehlo.multiply %arg0, %9 : tensor<128xf32>\n    %11 = call @_where(%8, %6, %10) : (tensor<128xi1>, tensor<128xf32>, tensor<128xf32>) -> tensor<128xf32>\n    return %11 : tensor<128xf32>\n  }\n  func.func private @_where(%arg0: tensor<128xi1>, %arg1: tensor<128xf32>, %arg2: tensor<128xf32>) -> tensor<128xf32> {\n    %0 = stablehlo.select %arg0, %arg1, %arg2 : tensor<128xi1>, tensor<128xf32>\n    return %0 : tensor<128xf32>\n  }\n}\n", "cuda": "module @jit_nested_odsh attributes {mhlo.num_partitions = 1 : i32, mhlo.num_replicas = 1 : i32} {\n  func.func public @main(%arg0: tensor<128xf32>) -> (tensor<128xf32> {jax.result_info = \"result\"}) {\n    %cst = stablehlo.constant dense<0.689999997> : tensor<f32>\n    %0 = stablehlo.broadcast_in_dim %cst, dims = [] : (tensor<f32>) -> tensor<128xf32>\n    %1 = stablehlo.compare  GT, %arg0, %0,  FLOAT : (tensor<128xf32>, tensor<128xf32>) -> tensor<128xi1>\n    %cst_0 = stablehlo.constant dense<3.000000e+00> : tensor<f32>\n    %2 = stablehlo.broadcast_in_dim %cst_0, dims = [] : (tensor<f32>) -> tensor<128xf32>\n    %3 = stablehlo.multiply %arg0, %2 : tensor<128xf32>\n    %cst_1 = stablehlo.constant dense<2.000000e+00> : tensor<f32>\n    %4 = stablehlo.broadcast_in_dim %cst_1, dims = [] : (tensor<f32>) -> tensor<128xf32>\n    %5 = stablehlo.multiply %arg0, %4 : tensor<128xf32>\n    %6 = call @_where(%1, %3, %5) : (tensor<128xi1>, tensor<128xf32>, tensor<128xf32>) -> tensor<128xf32>\n    %cst_2 = stablehlo.constant dense<4.400000e-01> : tensor<f32>\n    %7 = stablehlo.broadcast_in_dim %cst_2, dims = [] : (tensor<f32>) -> tensor<128xf32>\n    %8 = stablehlo.compare  GT, %arg0, %7,  FLOAT : (tensor<128xf32>, tensor<128xf32>) -> tensor<128xi1>\n    %cst_3 = stablehlo.constant dense<5.000000e-01> : tensor<f32>\n    %9 = stablehlo.broadcast_in_dim %cst_3, dims = [] : (tensor<f32>) -> tensor<128xf32>\n    %10 = stablehlo.multiply %arg0, %9 : tensor<128xf32>\n    %11 = call @_where(%8, %6, %10) : (tensor<128xi1>, tensor<128xf32>, tensor<128xf32>) -> tensor<128xf32>\n    return %11 : tensor<128xf32>\n  }\n  func.func private @_where(%arg0: tensor<128xi1>, %arg1: tensor<128xf32>, %arg2: tensor<128xf32>) -> tensor<128xf32> {\n    %0 = stablehlo.select %arg0, %arg1, %arg2 : tensor<128xi1>, tensor<128xf32>\n    return %0 : tensor<128xf32>\n  }\n}\n"}
{"id": 7, "kernel_name": "scalar_arr_bkct", "python": "import jax\nimport jax.numpy as jnp\n\n@jax.jit\ndef scalar_arr_bkct(alpha, x, y):\n    # Scalar-array operations\n    return alpha * x + y", "type": "generate_scalar_array_op", "cpp": "module @jit_scalar_arr_bkct attributes {mhlo.num_partitions = 1 : i32, mhlo.num_replicas = 1 : i32} {\n  func.func public @main(%arg0: tensor<f32>, %arg1: tensor<128xf32>, %arg2: tensor<128xf32>) -> (tensor<128xf32> {jax.result_info = \"result\"}) {\n    %0 = stablehlo.convert %arg0 : tensor<f32>\n    %1 = stablehlo.broadcast_in_dim %0, dims = [] : (tensor<f32>) -> tensor<128xf32>\n    %2 = stablehlo.multiply %1, %arg1 : tensor<128xf32>\n    %3 = stablehlo.add %2, %arg2 : tensor<128xf32>\n    return %3 : tensor<128xf32>\n  }\n}\n", "cuda": "module @jit_scalar_arr_bkct attributes {mhlo.num_partitions = 1 : i32, mhlo.num_replicas = 1 : i32} {\n  func.func public @main(%arg0: tensor<f32>, %arg1: tensor<128xf32>, %arg2: tensor<128xf32>) -> (tensor<128xf32> {jax.result_info = \"result\"}) {\n    %0 = stablehlo.convert %arg0 : tensor<f32>\n    %1 = stablehlo.broadcast_in_dim %0, dims = [] : (tensor<f32>) -> tensor<128xf32>\n    %2 = stablehlo.multiply %1, %arg1 : tensor<128xf32>\n    %3 = stablehlo.add %2, %arg2 : tensor<128xf32>\n    return %3 : tensor<128xf32>\n  }\n}\n"}
{"id": 8, "kernel_name": "multi_mgqg", "python": "import jax\nimport jax.numpy as jnp\n\n@jax.jit\ndef multi_mgqg(a, b):\n    # Multi-statement\n    temp1 = a - b\n    temp2 = jnp.sqrt(temp1)\n    return temp2 - a", "type": "generate_multi_statement_kernel", "cpp": "module @jit_multi_mgqg attributes {mhlo.num_partitions = 1 : i32, mhlo.num_replicas = 1 : i32} {\n  func.func public @main(%arg0: tensor<128xf32>, %arg1: tensor<128xf32>) -> (tensor<128xf32> {jax.result_info = \"result\"}) {\n    %0 = stablehlo.subtract %arg0, %arg1 : tensor<128xf32>\n    %1 = stablehlo.sqrt %0 : tensor<128xf32>\n    %2 = stablehlo.subtract %1, %arg0 : tensor<128xf32>\n    return %2 : tensor<128xf32>\n  }\n}\n", "cuda": "module @jit_multi_mgqg attributes {mhlo.num_partitions = 1 : i32, mhlo.num_replicas = 1 : i32} {\n  func.func public @main(%arg0: tensor<128xf32>, %arg1: tensor<128xf32>) -> (tensor<128xf32> {jax.result_info = \"result\"}) {\n    %0 = stablehlo.subtract %arg0, %arg1 : tensor<128xf32>\n    %1 = stablehlo.sqrt %0 : tensor<128xf32>\n    %2 = stablehlo.subtract %1, %arg0 : tensor<128xf32>\n    return %2 : tensor<128xf32>\n  }\n}\n"}
{"id": 9, "kernel_name": "branch_gnev", "python": "import jax\nimport jax.numpy as jnp\n\n@jax.jit\ndef branch_gnev(a):\n    # Branching with where\n    # if a > -0.54: a * 2.8 else: a - 1.5\n    return jnp.where(a > -0.54, a * 2.8, a - 1.5)", "type": "generate_branch_kernel", "cpp": "module @jit_branch_gnev attributes {mhlo.num_partitions = 1 : i32, mhlo.num_replicas = 1 : i32} {\n  func.func public @main(%arg0: tensor<128xf32>) -> (tensor<128xf32> {jax.result_info = \"result\"}) {\n    %cst = stablehlo.constant dense<-5.400000e-01> : tensor<f32>\n    %0 = stablehlo.broadcast_in_dim %cst, dims = [] : (tensor<f32>) -> tensor<128xf32>\n    %1 = stablehlo.compare  GT, %arg0, %0,  FLOAT : (tensor<128xf32>, tensor<128xf32>) -> tensor<128xi1>\n    %cst_0 = stablehlo.constant dense<2.800000e+00> : tensor<f32>\n    %2 = stablehlo.broadcast_in_dim %cst_0, dims = [] : (tensor<f32>) -> tensor<128xf32>\n    %3 = stablehlo.multiply %arg0, %2 : tensor<128xf32>\n    %cst_1 = stablehlo.constant dense<1.500000e+00> : tensor<f32>\n    %4 = stablehlo.broadcast_in_dim %cst_1, dims = [] : (tensor<f32>) -> tensor<128xf32>\n    %5 = stablehlo.subtract %arg0, %4 : tensor<128xf32>\n    %6 = call @_where(%1, %3, %5) : (tensor<128xi1>, tensor<128xf32>, tensor<128xf32>) -> tensor<128xf32>\n    return %6 : tensor<128xf32>\n  }\n  func.func private @_where(%arg0: tensor<128xi1>, %arg1: tensor<128xf32>, %arg2: tensor<128xf32>) -> tensor<128xf32> {\n    %0 = stablehlo.select %arg0, %arg1, %arg2 : tensor<128xi1>, tensor<128xf32>\n    return %0 : tensor<128xf32>\n  }\n}\n", "cuda": "module @jit_branch_gnev attributes {mhlo.num_partitions = 1 : i32, mhlo.num_replicas = 1 : i32} {\n  func.func public @main(%arg0: tensor<128xf32>) -> (tensor<128xf32> {jax.result_info = \"result\"}) {\n    %cst = stablehlo.constant dense<-5.400000e-01> : tensor<f32>\n    %0 = stablehlo.broadcast_in_dim %cst, dims = [] : (tensor<f32>) -> tensor<128xf32>\n    %1 = stablehlo.compare  GT, %arg0, %0,  FLOAT : (tensor<128xf32>, tensor<128xf32>) -> tensor<128xi1>\n    %cst_0 = stablehlo.constant dense<2.800000e+00> : tensor<f32>\n    %2 = stablehlo.broadcast_in_dim %cst_0, dims = [] : (tensor<f32>) -> tensor<128xf32>\n    %3 = stablehlo.multiply %arg0, %2 : tensor<128xf32>\n    %cst_1 = stablehlo.constant dense<1.500000e+00> : tensor<f32>\n    %4 = stablehlo.broadcast_in_dim %cst_1, dims = [] : (tensor<f32>) -> tensor<128xf32>\n    %5 = stablehlo.subtract %arg0, %4 : tensor<128xf32>\n    %6 = call @_where(%1, %3, %5) : (tensor<128xi1>, tensor<128xf32>, tensor<128xf32>) -> tensor<128xf32>\n    return %6 : tensor<128xf32>\n  }\n  func.func private @_where(%arg0: tensor<128xi1>, %arg1: tensor<128xf32>, %arg2: tensor<128xf32>) -> tensor<128xf32> {\n    %0 = stablehlo.select %arg0, %arg1, %arg2 : tensor<128xi1>, tensor<128xf32>\n    return %0 : tensor<128xf32>\n  }\n}\n"}
{"id": 10, "kernel_name": "loop_zbsm", "python": "import jax\nimport jax.numpy as jnp\n\n@jax.jit\ndef loop_zbsm(a, n):\n    # Loop operation\n    def body_fun(i, val):\n        return val - a\n    \n    # We apply the body_fun n times starting from 0.0\n    # Since 'a' is an array, this operates elementwise across 'a'\n    init_val = jnp.zeros_like(a)\n    return jax.lax.fori_loop(0, n, body_fun, init_val)", "type": "generate_loop_kernel", "cpp": "module @jit_loop_zbsm attributes {mhlo.num_partitions = 1 : i32, mhlo.num_replicas = 1 : i32} {\n  func.func public @main(%arg0: tensor<128xf32>, %arg1: tensor<i32>) -> (tensor<128xf32> {jax.result_info = \"result\"}) {\n    %cst = stablehlo.constant dense<0.000000e+00> : tensor<f32>\n    %0 = stablehlo.broadcast_in_dim %cst, dims = [] : (tensor<f32>) -> tensor<128xf32>\n    %c = stablehlo.constant dense<0> : tensor<i32>\n    %1:4 = stablehlo.while(%iterArg = %arg0, %iterArg_0 = %c, %iterArg_1 = %arg1, %iterArg_2 = %0) : tensor<128xf32>, tensor<i32>, tensor<i32>, tensor<128xf32>\n    cond {\n      %2 = stablehlo.compare  LT, %iterArg_0, %iterArg_1,  SIGNED : (tensor<i32>, tensor<i32>) -> tensor<i1>\n      stablehlo.return %2 : tensor<i1>\n    } do {\n      %c_3 = stablehlo.constant dense<1> : tensor<i32>\n      %2 = stablehlo.add %iterArg_0, %c_3 : tensor<i32>\n      %3 = stablehlo.subtract %iterArg_2, %iterArg : tensor<128xf32>\n      stablehlo.return %iterArg, %2, %iterArg_1, %3 : tensor<128xf32>, tensor<i32>, tensor<i32>, tensor<128xf32>\n    }\n    return %1#3 : tensor<128xf32>\n  }\n}\n", "cuda": "module @jit_loop_zbsm attributes {mhlo.num_partitions = 1 : i32, mhlo.num_replicas = 1 : i32} {\n  func.func public @main(%arg0: tensor<128xf32>, %arg1: tensor<i32>) -> (tensor<128xf32> {jax.result_info = \"result\"}) {\n    %cst = stablehlo.constant dense<0.000000e+00> : tensor<f32>\n    %0 = stablehlo.broadcast_in_dim %cst, dims = [] : (tensor<f32>) -> tensor<128xf32>\n    %c = stablehlo.constant dense<0> : tensor<i32>\n    %1:4 = stablehlo.while(%iterArg = %arg0, %iterArg_0 = %c, %iterArg_1 = %arg1, %iterArg_2 = %0) : tensor<128xf32>, tensor<i32>, tensor<i32>, tensor<128xf32>\n    cond {\n      %2 = stablehlo.compare  LT, %iterArg_0, %iterArg_1,  SIGNED : (tensor<i32>, tensor<i32>) -> tensor<i1>\n      stablehlo.return %2 : tensor<i1>\n    } do {\n      %c_3 = stablehlo.constant dense<1> : tensor<i32>\n      %2 = stablehlo.add %iterArg_0, %c_3 : tensor<i32>\n      %3 = stablehlo.subtract %iterArg_2, %iterArg : tensor<128xf32>\n      stablehlo.return %iterArg, %2, %iterArg_1, %3 : tensor<128xf32>, tensor<i32>, tensor<i32>, tensor<128xf32>\n    }\n    return %1#3 : tensor<128xf32>\n  }\n}\n"}
{"id": 11, "kernel_name": "compound_qxls", "python": "import jax\nimport jax.numpy as jnp\n\n@jax.jit\ndef compound_qxls(a, b, scale):\n    # Compound operations\n    x = a\n    y = b\n    result = (x + y) * scale\n    result = result - jnp.floor(result)\n    return jnp.abs(result)", "type": "generate_compound_kernel", "cpp": "module @jit_compound_qxls attributes {mhlo.num_partitions = 1 : i32, mhlo.num_replicas = 1 : i32} {\n  func.func public @main(%arg0: tensor<128xf32>, %arg1: tensor<128xf32>, %arg2: tensor<f32>) -> (tensor<128xf32> {jax.result_info = \"result\"}) {\n    %0 = stablehlo.add %arg0, %arg1 : tensor<128xf32>\n    %1 = stablehlo.convert %arg2 : tensor<f32>\n    %2 = stablehlo.broadcast_in_dim %1, dims = [] : (tensor<f32>) -> tensor<128xf32>\n    %3 = stablehlo.multiply %0, %2 : tensor<128xf32>\n    %4 = stablehlo.floor %3 : tensor<128xf32>\n    %5 = stablehlo.subtract %3, %4 : tensor<128xf32>\n    %6 = stablehlo.abs %5 : tensor<128xf32>\n    return %6 : tensor<128xf32>\n  }\n}\n", "cuda": "module @jit_compound_qxls attributes {mhlo.num_partitions = 1 : i32, mhlo.num_replicas = 1 : i32} {\n  func.func public @main(%arg0: tensor<128xf32>, %arg1: tensor<128xf32>, %arg2: tensor<f32>) -> (tensor<128xf32> {jax.result_info = \"result\"}) {\n    %0 = stablehlo.add %arg0, %arg1 : tensor<128xf32>\n    %1 = stablehlo.convert %arg2 : tensor<f32>\n    %2 = stablehlo.broadcast_in_dim %1, dims = [] : (tensor<f32>) -> tensor<128xf32>\n    %3 = stablehlo.multiply %0, %2 : tensor<128xf32>\n    %4 = stablehlo.floor %3 : tensor<128xf32>\n    %5 = stablehlo.subtract %3, %4 : tensor<128xf32>\n    %6 = stablehlo.abs %5 : tensor<128xf32>\n    return %6 : tensor<128xf32>\n  }\n}\n"}
{"id": 12, "kernel_name": "unary_xdom", "python": "import jax\nimport jax.numpy as jnp\n\n@jax.jit\ndef unary_xdom(a):\n    # Unary operation jnp.cos\n    return jnp.cos(a)", "type": "generate_unary_kernel", "cpp": "module @jit_unary_xdom attributes {mhlo.num_partitions = 1 : i32, mhlo.num_replicas = 1 : i32} {\n  func.func public @main(%arg0: tensor<128xf32>) -> (tensor<128xf32> {jax.result_info = \"result\"}) {\n    %0 = stablehlo.cosine %arg0 : tensor<128xf32>\n    return %0 : tensor<128xf32>\n  }\n}\n", "cuda": "module @jit_unary_xdom attributes {mhlo.num_partitions = 1 : i32, mhlo.num_replicas = 1 : i32} {\n  func.func public @main(%arg0: tensor<128xf32>) -> (tensor<128xf32> {jax.result_info = \"result\"}) {\n    %0 = stablehlo.cosine %arg0 : tensor<128xf32>\n    return %0 : tensor<128xf32>\n  }\n}\n"}
{"id": 13, "kernel_name": "scalar_arr_cydt", "python": "import jax\nimport jax.numpy as jnp\n\n@jax.jit\ndef scalar_arr_cydt(alpha, x, y):\n    # Scalar-array operations\n    return alpha + x * y", "type": "generate_scalar_array_op", "cpp": "module @jit_scalar_arr_cydt attributes {mhlo.num_partitions = 1 : i32, mhlo.num_replicas = 1 : i32} {\n  func.func public @main(%arg0: tensor<f32>, %arg1: tensor<128xf32>, %arg2: tensor<128xf32>) -> (tensor<128xf32> {jax.result_info = \"result\"}) {\n    %0 = stablehlo.multiply %arg1, %arg2 : tensor<128xf32>\n    %1 = stablehlo.convert %arg0 : tensor<f32>\n    %2 = stablehlo.broadcast_in_dim %1, dims = [] : (tensor<f32>) -> tensor<128xf32>\n    %3 = stablehlo.add %2, %0 : tensor<128xf32>\n    return %3 : tensor<128xf32>\n  }\n}\n", "cuda": "module @jit_scalar_arr_cydt attributes {mhlo.num_partitions = 1 : i32, mhlo.num_replicas = 1 : i32} {\n  func.func public @main(%arg0: tensor<f32>, %arg1: tensor<128xf32>, %arg2: tensor<128xf32>) -> (tensor<128xf32> {jax.result_info = \"result\"}) {\n    %0 = stablehlo.multiply %arg1, %arg2 : tensor<128xf32>\n    %1 = stablehlo.convert %arg0 : tensor<f32>\n    %2 = stablehlo.broadcast_in_dim %1, dims = [] : (tensor<f32>) -> tensor<128xf32>\n    %3 = stablehlo.add %2, %0 : tensor<128xf32>\n    return %3 : tensor<128xf32>\n  }\n}\n"}
{"id": 14, "kernel_name": "nested_zomn", "python": "import jax\nimport jax.numpy as jnp\n\n@jax.jit\ndef nested_zomn(a):\n    # Nested branching\n    # if a > 0.27:\n    #   if a > 1.49: a * 3.0\n    #   else: a * 2.0\n    # else: a * 0.5\n    \n    inner_branch = jnp.where(a > 1.49, a * 3.0, a * 2.0)\n    return jnp.where(a > 0.27, inner_branch, a * 0.5)", "type": "generate_nested_branch_kernel", "cpp": "module @jit_nested_zomn attributes {mhlo.num_partitions = 1 : i32, mhlo.num_replicas = 1 : i32} {\n  func.func public @main(%arg0: tensor<128xf32>) -> (tensor<128xf32> {jax.result_info = \"result\"}) {\n    %cst = stablehlo.constant dense<1.490000e+00> : tensor<f32>\n    %0 = stablehlo.broadcast_in_dim %cst, dims = [] : (tensor<f32>) -> tensor<128xf32>\n    %1 = stablehlo.compare  GT, %arg0, %0,  FLOAT : (tensor<128xf32>, tensor<128xf32>) -> tensor<128xi1>\n    %cst_0 = stablehlo.constant dense<3.000000e+00> : tensor<f32>\n    %2 = stablehlo.broadcast_in_dim %cst_0, dims = [] : (tensor<f32>) -> tensor<128xf32>\n    %3 = stablehlo.multiply %arg0, %2 : tensor<128xf32>\n    %cst_1 = stablehlo.constant dense<2.000000e+00> : tensor<f32>\n    %4 = stablehlo.broadcast_in_dim %cst_1, dims = [] : (tensor<f32>) -> tensor<128xf32>\n    %5 = stablehlo.multiply %arg0, %4 : tensor<128xf32>\n    %6 = call @_where(%1, %3, %5) : (tensor<128xi1>, tensor<128xf32>, tensor<128xf32>) -> tensor<128xf32>\n    %cst_2 = stablehlo.constant dense<2.700000e-01> : tensor<f32>\n    %7 = stablehlo.broadcast_in_dim %cst_2, dims = [] : (tensor<f32>) -> tensor<128xf32>\n    %8 = stablehlo.compare  GT, %arg0, %7,  FLOAT : (tensor<128xf32>, tensor<128xf32>) -> tensor<128xi1>\n    %cst_3 = stablehlo.constant dense<5.000000e-01> : tensor<f32>\n    %9 = stablehlo.broadcast_in_dim %cst_3, dims = [] : (tensor<f32>) -> tensor<128xf32>\n    %10 = stablehlo.multiply %arg0, %9 : tensor<128xf32>\n    %11 = call @_where(%8, %6, %10) : (tensor<128xi1>, tensor<128xf32>, tensor<128xf32>) -> tensor<128xf32>\n    return %11 : tensor<128xf32>\n  }\n  func.func private @_where(%arg0: tensor<128xi1>, %arg1: tensor<128xf32>, %arg2: tensor<128xf32>) -> tensor<128xf32> {\n    %0 = stablehlo.select %arg0, %arg1, %arg2 : tensor<128xi1>, tensor<128xf32>\n    return %0 : tensor<128xf32>\n  }\n}\n", "cuda": "module @jit_nested_zomn attributes {mhlo.num_partitions = 1 : i32, mhlo.num_replicas = 1 : i32} {\n  func.func public @main(%arg0: tensor<128xf32>) -> (tensor<128xf32> {jax.result_info = \"result\"}) {\n    %cst = stablehlo.constant dense<1.490000e+00> : tensor<f32>\n    %0 = stablehlo.broadcast_in_dim %cst, dims = [] : (tensor<f32>) -> tensor<128xf32>\n    %1 = stablehlo.compare  GT, %arg0, %0,  FLOAT : (tensor<128xf32>, tensor<128xf32>) -> tensor<128xi1>\n    %cst_0 = stablehlo.constant dense<3.000000e+00> : tensor<f32>\n    %2 = stablehlo.broadcast_in_dim %cst_0, dims = [] : (tensor<f32>) -> tensor<128xf32>\n    %3 = stablehlo.multiply %arg0, %2 : tensor<128xf32>\n    %cst_1 = stablehlo.constant dense<2.000000e+00> : tensor<f32>\n    %4 = stablehlo.broadcast_in_dim %cst_1, dims = [] : (tensor<f32>) -> tensor<128xf32>\n    %5 = stablehlo.multiply %arg0, %4 : tensor<128xf32>\n    %6 = call @_where(%1, %3, %5) : (tensor<128xi1>, tensor<128xf32>, tensor<128xf32>) -> tensor<128xf32>\n    %cst_2 = stablehlo.constant dense<2.700000e-01> : tensor<f32>\n    %7 = stablehlo.broadcast_in_dim %cst_2, dims = [] : (tensor<f32>) -> tensor<128xf32>\n    %8 = stablehlo.compare  GT, %arg0, %7,  FLOAT : (tensor<128xf32>, tensor<128xf32>) -> tensor<128xi1>\n    %cst_3 = stablehlo.constant dense<5.000000e-01> : tensor<f32>\n    %9 = stablehlo.broadcast_in_dim %cst_3, dims = [] : (tensor<f32>) -> tensor<128xf32>\n    %10 = stablehlo.multiply %arg0, %9 : tensor<128xf32>\n    %11 = call @_where(%8, %6, %10) : (tensor<128xi1>, tensor<128xf32>, tensor<128xf32>) -> tensor<128xf32>\n    return %11 : tensor<128xf32>\n  }\n  func.func private @_where(%arg0: tensor<128xi1>, %arg1: tensor<128xf32>, %arg2: tensor<128xf32>) -> tensor<128xf32> {\n    %0 = stablehlo.select %arg0, %arg1, %arg2 : tensor<128xi1>, tensor<128xf32>\n    return %0 : tensor<128xf32>\n  }\n}\n"}
{"id": 15, "kernel_name": "elementwise_bpan", "python": "import jax\nimport jax.numpy as jnp\n\n@jax.jit\ndef elementwise_bpan(a, b):\n    # Elementwise -\n    return a - b", "type": "generate_simple_elementwise", "cpp": "module @jit_elementwise_bpan attributes {mhlo.num_partitions = 1 : i32, mhlo.num_replicas = 1 : i32} {\n  func.func public @main(%arg0: tensor<128xf32>, %arg1: tensor<128xf32>) -> (tensor<128xf32> {jax.result_info = \"result\"}) {\n    %0 = stablehlo.subtract %arg0, %arg1 : tensor<128xf32>\n    return %0 : tensor<128xf32>\n  }\n}\n", "cuda": "module @jit_elementwise_bpan attributes {mhlo.num_partitions = 1 : i32, mhlo.num_replicas = 1 : i32} {\n  func.func public @main(%arg0: tensor<128xf32>, %arg1: tensor<128xf32>) -> (tensor<128xf32> {jax.result_info = \"result\"}) {\n    %0 = stablehlo.subtract %arg0, %arg1 : tensor<128xf32>\n    return %0 : tensor<128xf32>\n  }\n}\n"}
{"id": 16, "kernel_name": "compound_pfqy", "python": "import jax\nimport jax.numpy as jnp\n\n@jax.jit\ndef compound_pfqy(a, b, scale):\n    # Compound operations\n    x = a\n    y = b\n    result = (x + y) * scale\n    result = result - jnp.floor(result)\n    return jnp.abs(result)", "type": "generate_compound_kernel", "cpp": "module @jit_compound_pfqy attributes {mhlo.num_partitions = 1 : i32, mhlo.num_replicas = 1 : i32} {\n  func.func public @main(%arg0: tensor<128xf32>, %arg1: tensor<128xf32>, %arg2: tensor<f32>) -> (tensor<128xf32> {jax.result_info = \"result\"}) {\n    %0 = stablehlo.add %arg0, %arg1 : tensor<128xf32>\n    %1 = stablehlo.convert %arg2 : tensor<f32>\n    %2 = stablehlo.broadcast_in_dim %1, dims = [] : (tensor<f32>) -> tensor<128xf32>\n    %3 = stablehlo.multiply %0, %2 : tensor<128xf32>\n    %4 = stablehlo.floor %3 : tensor<128xf32>\n    %5 = stablehlo.subtract %3, %4 : tensor<128xf32>\n    %6 = stablehlo.abs %5 : tensor<128xf32>\n    return %6 : tensor<128xf32>\n  }\n}\n", "cuda": "module @jit_compound_pfqy attributes {mhlo.num_partitions = 1 : i32, mhlo.num_replicas = 1 : i32} {\n  func.func public @main(%arg0: tensor<128xf32>, %arg1: tensor<128xf32>, %arg2: tensor<f32>) -> (tensor<128xf32> {jax.result_info = \"result\"}) {\n    %0 = stablehlo.add %arg0, %arg1 : tensor<128xf32>\n    %1 = stablehlo.convert %arg2 : tensor<f32>\n    %2 = stablehlo.broadcast_in_dim %1, dims = [] : (tensor<f32>) -> tensor<128xf32>\n    %3 = stablehlo.multiply %0, %2 : tensor<128xf32>\n    %4 = stablehlo.floor %3 : tensor<128xf32>\n    %5 = stablehlo.subtract %3, %4 : tensor<128xf32>\n    %6 = stablehlo.abs %5 : tensor<128xf32>\n    return %6 : tensor<128xf32>\n  }\n}\n"}
{"id": 17, "kernel_name": "branch_fyya", "python": "import jax\nimport jax.numpy as jnp\n\n@jax.jit\ndef branch_fyya(a):\n    # Branching with where\n    # if a > 0.69: a * 2.2 else: a + 0.5\n    return jnp.where(a > 0.69, a * 2.2, a + 0.5)", "type": "generate_branch_kernel", "cpp": "module @jit_branch_fyya attributes {mhlo.num_partitions = 1 : i32, mhlo.num_replicas = 1 : i32} {\n  func.func public @main(%arg0: tensor<128xf32>) -> (tensor<128xf32> {jax.result_info = \"result\"}) {\n    %cst = stablehlo.constant dense<0.689999997> : tensor<f32>\n    %0 = stablehlo.broadcast_in_dim %cst, dims = [] : (tensor<f32>) -> tensor<128xf32>\n    %1 = stablehlo.compare  GT, %arg0, %0,  FLOAT : (tensor<128xf32>, tensor<128xf32>) -> tensor<128xi1>\n    %cst_0 = stablehlo.constant dense<2.200000e+00> : tensor<f32>\n    %2 = stablehlo.broadcast_in_dim %cst_0, dims = [] : (tensor<f32>) -> tensor<128xf32>\n    %3 = stablehlo.multiply %arg0, %2 : tensor<128xf32>\n    %cst_1 = stablehlo.constant dense<5.000000e-01> : tensor<f32>\n    %4 = stablehlo.broadcast_in_dim %cst_1, dims = [] : (tensor<f32>) -> tensor<128xf32>\n    %5 = stablehlo.add %arg0, %4 : tensor<128xf32>\n    %6 = call @_where(%1, %3, %5) : (tensor<128xi1>, tensor<128xf32>, tensor<128xf32>) -> tensor<128xf32>\n    return %6 : tensor<128xf32>\n  }\n  func.func private @_where(%arg0: tensor<128xi1>, %arg1: tensor<128xf32>, %arg2: tensor<128xf32>) -> tensor<128xf32> {\n    %0 = stablehlo.select %arg0, %arg1, %arg2 : tensor<128xi1>, tensor<128xf32>\n    return %0 : tensor<128xf32>\n  }\n}\n", "cuda": "module @jit_branch_fyya attributes {mhlo.num_partitions = 1 : i32, mhlo.num_replicas = 1 : i32} {\n  func.func public @main(%arg0: tensor<128xf32>) -> (tensor<128xf32> {jax.result_info = \"result\"}) {\n    %cst = stablehlo.constant dense<0.689999997> : tensor<f32>\n    %0 = stablehlo.broadcast_in_dim %cst, dims = [] : (tensor<f32>) -> tensor<128xf32>\n    %1 = stablehlo.compare  GT, %arg0, %0,  FLOAT : (tensor<128xf32>, tensor<128xf32>) -> tensor<128xi1>\n    %cst_0 = stablehlo.constant dense<2.200000e+00> : tensor<f32>\n    %2 = stablehlo.broadcast_in_dim %cst_0, dims = [] : (tensor<f32>) -> tensor<128xf32>\n    %3 = stablehlo.multiply %arg0, %2 : tensor<128xf32>\n    %cst_1 = stablehlo.constant dense<5.000000e-01> : tensor<f32>\n    %4 = stablehlo.broadcast_in_dim %cst_1, dims = [] : (tensor<f32>) -> tensor<128xf32>\n    %5 = stablehlo.add %arg0, %4 : tensor<128xf32>\n    %6 = call @_where(%1, %3, %5) : (tensor<128xi1>, tensor<128xf32>, tensor<128xf32>) -> tensor<128xf32>\n    return %6 : tensor<128xf32>\n  }\n  func.func private @_where(%arg0: tensor<128xi1>, %arg1: tensor<128xf32>, %arg2: tensor<128xf32>) -> tensor<128xf32> {\n    %0 = stablehlo.select %arg0, %arg1, %arg2 : tensor<128xi1>, tensor<128xf32>\n    return %0 : tensor<128xf32>\n  }\n}\n"}
{"id": 18, "kernel_name": "loop_ipgv", "python": "import jax\nimport jax.numpy as jnp\n\n@jax.jit\ndef loop_ipgv(a, n):\n    # Loop operation\n    def body_fun(i, val):\n        return val - a\n    \n    # We apply the body_fun n times starting from 0.0\n    # Since 'a' is an array, this operates elementwise across 'a'\n    init_val = jnp.zeros_like(a)\n    return jax.lax.fori_loop(0, n, body_fun, init_val)", "type": "generate_loop_kernel", "cpp": "module @jit_loop_ipgv attributes {mhlo.num_partitions = 1 : i32, mhlo.num_replicas = 1 : i32} {\n  func.func public @main(%arg0: tensor<128xf32>, %arg1: tensor<i32>) -> (tensor<128xf32> {jax.result_info = \"result\"}) {\n    %cst = stablehlo.constant dense<0.000000e+00> : tensor<f32>\n    %0 = stablehlo.broadcast_in_dim %cst, dims = [] : (tensor<f32>) -> tensor<128xf32>\n    %c = stablehlo.constant dense<0> : tensor<i32>\n    %1:4 = stablehlo.while(%iterArg = %arg0, %iterArg_0 = %c, %iterArg_1 = %arg1, %iterArg_2 = %0) : tensor<128xf32>, tensor<i32>, tensor<i32>, tensor<128xf32>\n    cond {\n      %2 = stablehlo.compare  LT, %iterArg_0, %iterArg_1,  SIGNED : (tensor<i32>, tensor<i32>) -> tensor<i1>\n      stablehlo.return %2 : tensor<i1>\n    } do {\n      %c_3 = stablehlo.constant dense<1> : tensor<i32>\n      %2 = stablehlo.add %iterArg_0, %c_3 : tensor<i32>\n      %3 = stablehlo.subtract %iterArg_2, %iterArg : tensor<128xf32>\n      stablehlo.return %iterArg, %2, %iterArg_1, %3 : tensor<128xf32>, tensor<i32>, tensor<i32>, tensor<128xf32>\n    }\n    return %1#3 : tensor<128xf32>\n  }\n}\n", "cuda": "module @jit_loop_ipgv attributes {mhlo.num_partitions = 1 : i32, mhlo.num_replicas = 1 : i32} {\n  func.func public @main(%arg0: tensor<128xf32>, %arg1: tensor<i32>) -> (tensor<128xf32> {jax.result_info = \"result\"}) {\n    %cst = stablehlo.constant dense<0.000000e+00> : tensor<f32>\n    %0 = stablehlo.broadcast_in_dim %cst, dims = [] : (tensor<f32>) -> tensor<128xf32>\n    %c = stablehlo.constant dense<0> : tensor<i32>\n    %1:4 = stablehlo.while(%iterArg = %arg0, %iterArg_0 = %c, %iterArg_1 = %arg1, %iterArg_2 = %0) : tensor<128xf32>, tensor<i32>, tensor<i32>, tensor<128xf32>\n    cond {\n      %2 = stablehlo.compare  LT, %iterArg_0, %iterArg_1,  SIGNED : (tensor<i32>, tensor<i32>) -> tensor<i1>\n      stablehlo.return %2 : tensor<i1>\n    } do {\n      %c_3 = stablehlo.constant dense<1> : tensor<i32>\n      %2 = stablehlo.add %iterArg_0, %c_3 : tensor<i32>\n      %3 = stablehlo.subtract %iterArg_2, %iterArg : tensor<128xf32>\n      stablehlo.return %iterArg, %2, %iterArg_1, %3 : tensor<128xf32>, tensor<i32>, tensor<i32>, tensor<128xf32>\n    }\n    return %1#3 : tensor<128xf32>\n  }\n}\n"}
{"id": 19, "kernel_name": "multi_movi", "python": "import jax\nimport jax.numpy as jnp\n\n@jax.jit\ndef multi_movi(a, b):\n    # Multi-statement\n    temp1 = a - b\n    temp2 = jnp.sqrt(temp1)\n    return temp2 * a", "type": "generate_multi_statement_kernel", "cpp": "module @jit_multi_movi attributes {mhlo.num_partitions = 1 : i32, mhlo.num_replicas = 1 : i32} {\n  func.func public @main(%arg0: tensor<128xf32>, %arg1: tensor<128xf32>) -> (tensor<128xf32> {jax.result_info = \"result\"}) {\n    %0 = stablehlo.subtract %arg0, %arg1 : tensor<128xf32>\n    %1 = stablehlo.sqrt %0 : tensor<128xf32>\n    %2 = stablehlo.multiply %1, %arg0 : tensor<128xf32>\n    return %2 : tensor<128xf32>\n  }\n}\n", "cuda": "module @jit_multi_movi attributes {mhlo.num_partitions = 1 : i32, mhlo.num_replicas = 1 : i32} {\n  func.func public @main(%arg0: tensor<128xf32>, %arg1: tensor<128xf32>) -> (tensor<128xf32> {jax.result_info = \"result\"}) {\n    %0 = stablehlo.subtract %arg0, %arg1 : tensor<128xf32>\n    %1 = stablehlo.sqrt %0 : tensor<128xf32>\n    %2 = stablehlo.multiply %1, %arg0 : tensor<128xf32>\n    return %2 : tensor<128xf32>\n  }\n}\n"}
{"id": 20, "kernel_name": "compound_yezg", "python": "import jax\nimport jax.numpy as jnp\n\n@jax.jit\ndef compound_yezg(a, b, scale):\n    # Compound operations\n    x = a\n    y = b\n    result = (x + y) * scale\n    result = result - jnp.floor(result)\n    return jnp.abs(result)", "type": "generate_compound_kernel", "cpp": "module @jit_compound_yezg attributes {mhlo.num_partitions = 1 : i32, mhlo.num_replicas = 1 : i32} {\n  func.func public @main(%arg0: tensor<128xf32>, %arg1: tensor<128xf32>, %arg2: tensor<f32>) -> (tensor<128xf32> {jax.result_info = \"result\"}) {\n    %0 = stablehlo.add %arg0, %arg1 : tensor<128xf32>\n    %1 = stablehlo.convert %arg2 : tensor<f32>\n    %2 = stablehlo.broadcast_in_dim %1, dims = [] : (tensor<f32>) -> tensor<128xf32>\n    %3 = stablehlo.multiply %0, %2 : tensor<128xf32>\n    %4 = stablehlo.floor %3 : tensor<128xf32>\n    %5 = stablehlo.subtract %3, %4 : tensor<128xf32>\n    %6 = stablehlo.abs %5 : tensor<128xf32>\n    return %6 : tensor<128xf32>\n  }\n}\n", "cuda": "module @jit_compound_yezg attributes {mhlo.num_partitions = 1 : i32, mhlo.num_replicas = 1 : i32} {\n  func.func public @main(%arg0: tensor<128xf32>, %arg1: tensor<128xf32>, %arg2: tensor<f32>) -> (tensor<128xf32> {jax.result_info = \"result\"}) {\n    %0 = stablehlo.add %arg0, %arg1 : tensor<128xf32>\n    %1 = stablehlo.convert %arg2 : tensor<f32>\n    %2 = stablehlo.broadcast_in_dim %1, dims = [] : (tensor<f32>) -> tensor<128xf32>\n    %3 = stablehlo.multiply %0, %2 : tensor<128xf32>\n    %4 = stablehlo.floor %3 : tensor<128xf32>\n    %5 = stablehlo.subtract %3, %4 : tensor<128xf32>\n    %6 = stablehlo.abs %5 : tensor<128xf32>\n    return %6 : tensor<128xf32>\n  }\n}\n"}
{"id": 21, "kernel_name": "multi_lhxm", "python": "import jax\nimport jax.numpy as jnp\n\n@jax.jit\ndef multi_lhxm(a, b):\n    # Multi-statement\n    temp1 = a + b\n    temp2 = jnp.sqrt(temp1)\n    return temp2 - a", "type": "generate_multi_statement_kernel", "cpp": "module @jit_multi_lhxm attributes {mhlo.num_partitions = 1 : i32, mhlo.num_replicas = 1 : i32} {\n  func.func public @main(%arg0: tensor<128xf32>, %arg1: tensor<128xf32>) -> (tensor<128xf32> {jax.result_info = \"result\"}) {\n    %0 = stablehlo.add %arg0, %arg1 : tensor<128xf32>\n    %1 = stablehlo.sqrt %0 : tensor<128xf32>\n    %2 = stablehlo.subtract %1, %arg0 : tensor<128xf32>\n    return %2 : tensor<128xf32>\n  }\n}\n", "cuda": "module @jit_multi_lhxm attributes {mhlo.num_partitions = 1 : i32, mhlo.num_replicas = 1 : i32} {\n  func.func public @main(%arg0: tensor<128xf32>, %arg1: tensor<128xf32>) -> (tensor<128xf32> {jax.result_info = \"result\"}) {\n    %0 = stablehlo.add %arg0, %arg1 : tensor<128xf32>\n    %1 = stablehlo.sqrt %0 : tensor<128xf32>\n    %2 = stablehlo.subtract %1, %arg0 : tensor<128xf32>\n    return %2 : tensor<128xf32>\n  }\n}\n"}
{"id": 22, "kernel_name": "multi_mqkx", "python": "import jax\nimport jax.numpy as jnp\n\n@jax.jit\ndef multi_mqkx(a, b):\n    # Multi-statement\n    temp1 = a + b\n    temp2 = jnp.sin(temp1)\n    return temp2 + a", "type": "generate_multi_statement_kernel", "cpp": "module @jit_multi_mqkx attributes {mhlo.num_partitions = 1 : i32, mhlo.num_replicas = 1 : i32} {\n  func.func public @main(%arg0: tensor<128xf32>, %arg1: tensor<128xf32>) -> (tensor<128xf32> {jax.result_info = \"result\"}) {\n    %0 = stablehlo.add %arg0, %arg1 : tensor<128xf32>\n    %1 = stablehlo.sine %0 : tensor<128xf32>\n    %2 = stablehlo.add %1, %arg0 : tensor<128xf32>\n    return %2 : tensor<128xf32>\n  }\n}\n", "cuda": "module @jit_multi_mqkx attributes {mhlo.num_partitions = 1 : i32, mhlo.num_replicas = 1 : i32} {\n  func.func public @main(%arg0: tensor<128xf32>, %arg1: tensor<128xf32>) -> (tensor<128xf32> {jax.result_info = \"result\"}) {\n    %0 = stablehlo.add %arg0, %arg1 : tensor<128xf32>\n    %1 = stablehlo.sine %0 : tensor<128xf32>\n    %2 = stablehlo.add %1, %arg0 : tensor<128xf32>\n    return %2 : tensor<128xf32>\n  }\n}\n"}
{"id": 23, "kernel_name": "vec_khvl", "python": "import jax\nimport jax.numpy as jnp\n\n@jax.jit\ndef vec_khvl(a):\n    # Vector length (row-wise for N x 3 arrays)\n    return jnp.linalg.norm(a, axis=-1)", "type": "generate_vector_kernel", "cpp": "module @jit_vec_khvl attributes {mhlo.num_partitions = 1 : i32, mhlo.num_replicas = 1 : i32} {\n  func.func public @main(%arg0: tensor<128x3xf32>) -> (tensor<128xf32> {jax.result_info = \"result\"}) {\n    %0 = call @norm(%arg0) : (tensor<128x3xf32>) -> tensor<128xf32>\n    return %0 : tensor<128xf32>\n  }\n  func.func private @norm(%arg0: tensor<128x3xf32>) -> tensor<128xf32> {\n    %0 = stablehlo.multiply %arg0, %arg0 : tensor<128x3xf32>\n    %cst = stablehlo.constant dense<0.000000e+00> : tensor<f32>\n    %1 = stablehlo.reduce(%0 init: %cst) applies stablehlo.add across dimensions = [1] : (tensor<128x3xf32>, tensor<f32>) -> tensor<128xf32>\n    %2 = stablehlo.sqrt %1 : tensor<128xf32>\n    return %2 : tensor<128xf32>\n  }\n}\n", "cuda": "module @jit_vec_khvl attributes {mhlo.num_partitions = 1 : i32, mhlo.num_replicas = 1 : i32} {\n  func.func public @main(%arg0: tensor<128x3xf32>) -> (tensor<128xf32> {jax.result_info = \"result\"}) {\n    %0 = call @norm(%arg0) : (tensor<128x3xf32>) -> tensor<128xf32>\n    return %0 : tensor<128xf32>\n  }\n  func.func private @norm(%arg0: tensor<128x3xf32>) -> tensor<128xf32> {\n    %0 = stablehlo.multiply %arg0, %arg0 : tensor<128x3xf32>\n    %cst = stablehlo.constant dense<0.000000e+00> : tensor<f32>\n    %1 = stablehlo.reduce(%0 init: %cst) applies stablehlo.add across dimensions = [1] : (tensor<128x3xf32>, tensor<f32>) -> tensor<128xf32>\n    %2 = stablehlo.sqrt %1 : tensor<128xf32>\n    return %2 : tensor<128xf32>\n  }\n}\n"}
{"id": 24, "kernel_name": "scalar_arr_blgl", "python": "import jax\nimport jax.numpy as jnp\n\n@jax.jit\ndef scalar_arr_blgl(alpha, x, y):\n    # Scalar-array operations\n    return alpha - x * y", "type": "generate_scalar_array_op", "cpp": "module @jit_scalar_arr_blgl attributes {mhlo.num_partitions = 1 : i32, mhlo.num_replicas = 1 : i32} {\n  func.func public @main(%arg0: tensor<f32>, %arg1: tensor<128xf32>, %arg2: tensor<128xf32>) -> (tensor<128xf32> {jax.result_info = \"result\"}) {\n    %0 = stablehlo.multiply %arg1, %arg2 : tensor<128xf32>\n    %1 = stablehlo.convert %arg0 : tensor<f32>\n    %2 = stablehlo.broadcast_in_dim %1, dims = [] : (tensor<f32>) -> tensor<128xf32>\n    %3 = stablehlo.subtract %2, %0 : tensor<128xf32>\n    return %3 : tensor<128xf32>\n  }\n}\n", "cuda": "module @jit_scalar_arr_blgl attributes {mhlo.num_partitions = 1 : i32, mhlo.num_replicas = 1 : i32} {\n  func.func public @main(%arg0: tensor<f32>, %arg1: tensor<128xf32>, %arg2: tensor<128xf32>) -> (tensor<128xf32> {jax.result_info = \"result\"}) {\n    %0 = stablehlo.multiply %arg1, %arg2 : tensor<128xf32>\n    %1 = stablehlo.convert %arg0 : tensor<f32>\n    %2 = stablehlo.broadcast_in_dim %1, dims = [] : (tensor<f32>) -> tensor<128xf32>\n    %3 = stablehlo.subtract %2, %0 : tensor<128xf32>\n    return %3 : tensor<128xf32>\n  }\n}\n"}
{"id": 25, "kernel_name": "scalar_arr_btzk", "python": "import jax\nimport jax.numpy as jnp\n\n@jax.jit\ndef scalar_arr_btzk(alpha, x, y):\n    # Scalar-array operations\n    return alpha * x - y", "type": "generate_scalar_array_op", "cpp": "module @jit_scalar_arr_btzk attributes {mhlo.num_partitions = 1 : i32, mhlo.num_replicas = 1 : i32} {\n  func.func public @main(%arg0: tensor<f32>, %arg1: tensor<128xf32>, %arg2: tensor<128xf32>) -> (tensor<128xf32> {jax.result_info = \"result\"}) {\n    %0 = stablehlo.convert %arg0 : tensor<f32>\n    %1 = stablehlo.broadcast_in_dim %0, dims = [] : (tensor<f32>) -> tensor<128xf32>\n    %2 = stablehlo.multiply %1, %arg1 : tensor<128xf32>\n    %3 = stablehlo.subtract %2, %arg2 : tensor<128xf32>\n    return %3 : tensor<128xf32>\n  }\n}\n", "cuda": "module @jit_scalar_arr_btzk attributes {mhlo.num_partitions = 1 : i32, mhlo.num_replicas = 1 : i32} {\n  func.func public @main(%arg0: tensor<f32>, %arg1: tensor<128xf32>, %arg2: tensor<128xf32>) -> (tensor<128xf32> {jax.result_info = \"result\"}) {\n    %0 = stablehlo.convert %arg0 : tensor<f32>\n    %1 = stablehlo.broadcast_in_dim %0, dims = [] : (tensor<f32>) -> tensor<128xf32>\n    %2 = stablehlo.multiply %1, %arg1 : tensor<128xf32>\n    %3 = stablehlo.subtract %2, %arg2 : tensor<128xf32>\n    return %3 : tensor<128xf32>\n  }\n}\n"}
{"id": 26, "kernel_name": "multi_tytx", "python": "import jax\nimport jax.numpy as jnp\n\n@jax.jit\ndef multi_tytx(a, b):\n    # Multi-statement\n    temp1 = a + b\n    temp2 = jnp.abs(temp1)\n    return temp2 * a", "type": "generate_multi_statement_kernel", "cpp": "module @jit_multi_tytx attributes {mhlo.num_partitions = 1 : i32, mhlo.num_replicas = 1 : i32} {\n  func.func public @main(%arg0: tensor<128xf32>, %arg1: tensor<128xf32>) -> (tensor<128xf32> {jax.result_info = \"result\"}) {\n    %0 = stablehlo.add %arg0, %arg1 : tensor<128xf32>\n    %1 = stablehlo.abs %0 : tensor<128xf32>\n    %2 = stablehlo.multiply %1, %arg0 : tensor<128xf32>\n    return %2 : tensor<128xf32>\n  }\n}\n", "cuda": "module @jit_multi_tytx attributes {mhlo.num_partitions = 1 : i32, mhlo.num_replicas = 1 : i32} {\n  func.func public @main(%arg0: tensor<128xf32>, %arg1: tensor<128xf32>) -> (tensor<128xf32> {jax.result_info = \"result\"}) {\n    %0 = stablehlo.add %arg0, %arg1 : tensor<128xf32>\n    %1 = stablehlo.abs %0 : tensor<128xf32>\n    %2 = stablehlo.multiply %1, %arg0 : tensor<128xf32>\n    return %2 : tensor<128xf32>\n  }\n}\n"}
{"id": 27, "kernel_name": "elementwise_rcep", "python": "import jax\nimport jax.numpy as jnp\n\n@jax.jit\ndef elementwise_rcep(a, b):\n    # Elementwise -\n    return a - b", "type": "generate_simple_elementwise", "cpp": "module @jit_elementwise_rcep attributes {mhlo.num_partitions = 1 : i32, mhlo.num_replicas = 1 : i32} {\n  func.func public @main(%arg0: tensor<128xf32>, %arg1: tensor<128xf32>) -> (tensor<128xf32> {jax.result_info = \"result\"}) {\n    %0 = stablehlo.subtract %arg0, %arg1 : tensor<128xf32>\n    return %0 : tensor<128xf32>\n  }\n}\n", "cuda": "module @jit_elementwise_rcep attributes {mhlo.num_partitions = 1 : i32, mhlo.num_replicas = 1 : i32} {\n  func.func public @main(%arg0: tensor<128xf32>, %arg1: tensor<128xf32>) -> (tensor<128xf32> {jax.result_info = \"result\"}) {\n    %0 = stablehlo.subtract %arg0, %arg1 : tensor<128xf32>\n    return %0 : tensor<128xf32>\n  }\n}\n"}
{"id": 28, "kernel_name": "scalar_arr_xhld", "python": "import jax\nimport jax.numpy as jnp\n\n@jax.jit\ndef scalar_arr_xhld(alpha, x, y):\n    # Scalar-array operations\n    return alpha + x + y", "type": "generate_scalar_array_op", "cpp": "module @jit_scalar_arr_xhld attributes {mhlo.num_partitions = 1 : i32, mhlo.num_replicas = 1 : i32} {\n  func.func public @main(%arg0: tensor<f32>, %arg1: tensor<128xf32>, %arg2: tensor<128xf32>) -> (tensor<128xf32> {jax.result_info = \"result\"}) {\n    %0 = stablehlo.convert %arg0 : tensor<f32>\n    %1 = stablehlo.broadcast_in_dim %0, dims = [] : (tensor<f32>) -> tensor<128xf32>\n    %2 = stablehlo.add %1, %arg1 : tensor<128xf32>\n    %3 = stablehlo.add %2, %arg2 : tensor<128xf32>\n    return %3 : tensor<128xf32>\n  }\n}\n", "cuda": "module @jit_scalar_arr_xhld attributes {mhlo.num_partitions = 1 : i32, mhlo.num_replicas = 1 : i32} {\n  func.func public @main(%arg0: tensor<f32>, %arg1: tensor<128xf32>, %arg2: tensor<128xf32>) -> (tensor<128xf32> {jax.result_info = \"result\"}) {\n    %0 = stablehlo.convert %arg0 : tensor<f32>\n    %1 = stablehlo.broadcast_in_dim %0, dims = [] : (tensor<f32>) -> tensor<128xf32>\n    %2 = stablehlo.add %1, %arg1 : tensor<128xf32>\n    %3 = stablehlo.add %2, %arg2 : tensor<128xf32>\n    return %3 : tensor<128xf32>\n  }\n}\n"}
{"id": 29, "kernel_name": "reduce_iqaz", "python": "import jax\nimport jax.numpy as jnp\n\n@jax.jit\ndef reduce_iqaz(a):\n    # Reduction (sum)\n    return jnp.sum(a)", "type": "generate_reduction_kernel", "cpp": "module @jit_reduce_iqaz attributes {mhlo.num_partitions = 1 : i32, mhlo.num_replicas = 1 : i32} {\n  func.func public @main(%arg0: tensor<128xf32>) -> (tensor<f32> {jax.result_info = \"result\"}) {\n    %cst = stablehlo.constant dense<0.000000e+00> : tensor<f32>\n    %0 = stablehlo.reduce(%arg0 init: %cst) applies stablehlo.add across dimensions = [0] : (tensor<128xf32>, tensor<f32>) -> tensor<f32>\n    return %0 : tensor<f32>\n  }\n}\n", "cuda": "module @jit_reduce_iqaz attributes {mhlo.num_partitions = 1 : i32, mhlo.num_replicas = 1 : i32} {\n  func.func public @main(%arg0: tensor<128xf32>) -> (tensor<f32> {jax.result_info = \"result\"}) {\n    %cst = stablehlo.constant dense<0.000000e+00> : tensor<f32>\n    %0 = stablehlo.reduce(%arg0 init: %cst) applies stablehlo.add across dimensions = [0] : (tensor<128xf32>, tensor<f32>) -> tensor<f32>\n    return %0 : tensor<f32>\n  }\n}\n"}
{"id": 30, "kernel_name": "scalar_arr_bpzi", "python": "import jax\nimport jax.numpy as jnp\n\n@jax.jit\ndef scalar_arr_bpzi(alpha, x, y):\n    # Scalar-array operations\n    return alpha * x * y", "type": "generate_scalar_array_op", "cpp": "module @jit_scalar_arr_bpzi attributes {mhlo.num_partitions = 1 : i32, mhlo.num_replicas = 1 : i32} {\n  func.func public @main(%arg0: tensor<f32>, %arg1: tensor<128xf32>, %arg2: tensor<128xf32>) -> (tensor<128xf32> {jax.result_info = \"result\"}) {\n    %0 = stablehlo.convert %arg0 : tensor<f32>\n    %1 = stablehlo.broadcast_in_dim %0, dims = [] : (tensor<f32>) -> tensor<128xf32>\n    %2 = stablehlo.multiply %1, %arg1 : tensor<128xf32>\n    %3 = stablehlo.multiply %2, %arg2 : tensor<128xf32>\n    return %3 : tensor<128xf32>\n  }\n}\n", "cuda": "module @jit_scalar_arr_bpzi attributes {mhlo.num_partitions = 1 : i32, mhlo.num_replicas = 1 : i32} {\n  func.func public @main(%arg0: tensor<f32>, %arg1: tensor<128xf32>, %arg2: tensor<128xf32>) -> (tensor<128xf32> {jax.result_info = \"result\"}) {\n    %0 = stablehlo.convert %arg0 : tensor<f32>\n    %1 = stablehlo.broadcast_in_dim %0, dims = [] : (tensor<f32>) -> tensor<128xf32>\n    %2 = stablehlo.multiply %1, %arg1 : tensor<128xf32>\n    %3 = stablehlo.multiply %2, %arg2 : tensor<128xf32>\n    return %3 : tensor<128xf32>\n  }\n}\n"}
{"id": 31, "kernel_name": "loop_hnol", "python": "import jax\nimport jax.numpy as jnp\n\n@jax.jit\ndef loop_hnol(a, n):\n    # Loop operation\n    def body_fun(i, val):\n        return val * a\n    \n    # We apply the body_fun n times starting from 0.0\n    # Since 'a' is an array, this operates elementwise across 'a'\n    init_val = jnp.zeros_like(a)\n    return jax.lax.fori_loop(0, n, body_fun, init_val)", "type": "generate_loop_kernel", "cpp": "module @jit_loop_hnol attributes {mhlo.num_partitions = 1 : i32, mhlo.num_replicas = 1 : i32} {\n  func.func public @main(%arg0: tensor<128xf32>, %arg1: tensor<i32>) -> (tensor<128xf32> {jax.result_info = \"result\"}) {\n    %cst = stablehlo.constant dense<0.000000e+00> : tensor<f32>\n    %0 = stablehlo.broadcast_in_dim %cst, dims = [] : (tensor<f32>) -> tensor<128xf32>\n    %c = stablehlo.constant dense<0> : tensor<i32>\n    %1:4 = stablehlo.while(%iterArg = %arg0, %iterArg_0 = %c, %iterArg_1 = %arg1, %iterArg_2 = %0) : tensor<128xf32>, tensor<i32>, tensor<i32>, tensor<128xf32>\n    cond {\n      %2 = stablehlo.compare  LT, %iterArg_0, %iterArg_1,  SIGNED : (tensor<i32>, tensor<i32>) -> tensor<i1>\n      stablehlo.return %2 : tensor<i1>\n    } do {\n      %c_3 = stablehlo.constant dense<1> : tensor<i32>\n      %2 = stablehlo.add %iterArg_0, %c_3 : tensor<i32>\n      %3 = stablehlo.multiply %iterArg_2, %iterArg : tensor<128xf32>\n      stablehlo.return %iterArg, %2, %iterArg_1, %3 : tensor<128xf32>, tensor<i32>, tensor<i32>, tensor<128xf32>\n    }\n    return %1#3 : tensor<128xf32>\n  }\n}\n", "cuda": "module @jit_loop_hnol attributes {mhlo.num_partitions = 1 : i32, mhlo.num_replicas = 1 : i32} {\n  func.func public @main(%arg0: tensor<128xf32>, %arg1: tensor<i32>) -> (tensor<128xf32> {jax.result_info = \"result\"}) {\n    %cst = stablehlo.constant dense<0.000000e+00> : tensor<f32>\n    %0 = stablehlo.broadcast_in_dim %cst, dims = [] : (tensor<f32>) -> tensor<128xf32>\n    %c = stablehlo.constant dense<0> : tensor<i32>\n    %1:4 = stablehlo.while(%iterArg = %arg0, %iterArg_0 = %c, %iterArg_1 = %arg1, %iterArg_2 = %0) : tensor<128xf32>, tensor<i32>, tensor<i32>, tensor<128xf32>\n    cond {\n      %2 = stablehlo.compare  LT, %iterArg_0, %iterArg_1,  SIGNED : (tensor<i32>, tensor<i32>) -> tensor<i1>\n      stablehlo.return %2 : tensor<i1>\n    } do {\n      %c_3 = stablehlo.constant dense<1> : tensor<i32>\n      %2 = stablehlo.add %iterArg_0, %c_3 : tensor<i32>\n      %3 = stablehlo.multiply %iterArg_2, %iterArg : tensor<128xf32>\n      stablehlo.return %iterArg, %2, %iterArg_1, %3 : tensor<128xf32>, tensor<i32>, tensor<i32>, tensor<128xf32>\n    }\n    return %1#3 : tensor<128xf32>\n  }\n}\n"}
{"id": 32, "kernel_name": "compound_wncd", "python": "import jax\nimport jax.numpy as jnp\n\n@jax.jit\ndef compound_wncd(a, b, scale):\n    # Compound operations\n    x = a\n    y = b\n    result = (x + y) * scale\n    result = result - jnp.floor(result)\n    return jnp.abs(result)", "type": "generate_compound_kernel", "cpp": "module @jit_compound_wncd attributes {mhlo.num_partitions = 1 : i32, mhlo.num_replicas = 1 : i32} {\n  func.func public @main(%arg0: tensor<128xf32>, %arg1: tensor<128xf32>, %arg2: tensor<f32>) -> (tensor<128xf32> {jax.result_info = \"result\"}) {\n    %0 = stablehlo.add %arg0, %arg1 : tensor<128xf32>\n    %1 = stablehlo.convert %arg2 : tensor<f32>\n    %2 = stablehlo.broadcast_in_dim %1, dims = [] : (tensor<f32>) -> tensor<128xf32>\n    %3 = stablehlo.multiply %0, %2 : tensor<128xf32>\n    %4 = stablehlo.floor %3 : tensor<128xf32>\n    %5 = stablehlo.subtract %3, %4 : tensor<128xf32>\n    %6 = stablehlo.abs %5 : tensor<128xf32>\n    return %6 : tensor<128xf32>\n  }\n}\n", "cuda": "module @jit_compound_wncd attributes {mhlo.num_partitions = 1 : i32, mhlo.num_replicas = 1 : i32} {\n  func.func public @main(%arg0: tensor<128xf32>, %arg1: tensor<128xf32>, %arg2: tensor<f32>) -> (tensor<128xf32> {jax.result_info = \"result\"}) {\n    %0 = stablehlo.add %arg0, %arg1 : tensor<128xf32>\n    %1 = stablehlo.convert %arg2 : tensor<f32>\n    %2 = stablehlo.broadcast_in_dim %1, dims = [] : (tensor<f32>) -> tensor<128xf32>\n    %3 = stablehlo.multiply %0, %2 : tensor<128xf32>\n    %4 = stablehlo.floor %3 : tensor<128xf32>\n    %5 = stablehlo.subtract %3, %4 : tensor<128xf32>\n    %6 = stablehlo.abs %5 : tensor<128xf32>\n    return %6 : tensor<128xf32>\n  }\n}\n"}
{"id": 33, "kernel_name": "multi_llbt", "python": "import jax\nimport jax.numpy as jnp\n\n@jax.jit\ndef multi_llbt(a, b):\n    # Multi-statement\n    temp1 = a * b\n    temp2 = jnp.cos(temp1)\n    return temp2 * a", "type": "generate_multi_statement_kernel", "cpp": "module @jit_multi_llbt attributes {mhlo.num_partitions = 1 : i32, mhlo.num_replicas = 1 : i32} {\n  func.func public @main(%arg0: tensor<128xf32>, %arg1: tensor<128xf32>) -> (tensor<128xf32> {jax.result_info = \"result\"}) {\n    %0 = stablehlo.multiply %arg0, %arg1 : tensor<128xf32>\n    %1 = stablehlo.cosine %0 : tensor<128xf32>\n    %2 = stablehlo.multiply %1, %arg0 : tensor<128xf32>\n    return %2 : tensor<128xf32>\n  }\n}\n", "cuda": "module @jit_multi_llbt attributes {mhlo.num_partitions = 1 : i32, mhlo.num_replicas = 1 : i32} {\n  func.func public @main(%arg0: tensor<128xf32>, %arg1: tensor<128xf32>) -> (tensor<128xf32> {jax.result_info = \"result\"}) {\n    %0 = stablehlo.multiply %arg0, %arg1 : tensor<128xf32>\n    %1 = stablehlo.cosine %0 : tensor<128xf32>\n    %2 = stablehlo.multiply %1, %arg0 : tensor<128xf32>\n    return %2 : tensor<128xf32>\n  }\n}\n"}
{"id": 34, "kernel_name": "reduce_jyfh", "python": "import jax\nimport jax.numpy as jnp\n\n@jax.jit\ndef reduce_jyfh(a):\n    # Reduction (sum)\n    return jnp.sum(a)", "type": "generate_reduction_kernel", "cpp": "module @jit_reduce_jyfh attributes {mhlo.num_partitions = 1 : i32, mhlo.num_replicas = 1 : i32} {\n  func.func public @main(%arg0: tensor<128xf32>) -> (tensor<f32> {jax.result_info = \"result\"}) {\n    %cst = stablehlo.constant dense<0.000000e+00> : tensor<f32>\n    %0 = stablehlo.reduce(%arg0 init: %cst) applies stablehlo.add across dimensions = [0] : (tensor<128xf32>, tensor<f32>) -> tensor<f32>\n    return %0 : tensor<f32>\n  }\n}\n", "cuda": "module @jit_reduce_jyfh attributes {mhlo.num_partitions = 1 : i32, mhlo.num_replicas = 1 : i32} {\n  func.func public @main(%arg0: tensor<128xf32>) -> (tensor<f32> {jax.result_info = \"result\"}) {\n    %cst = stablehlo.constant dense<0.000000e+00> : tensor<f32>\n    %0 = stablehlo.reduce(%arg0 init: %cst) applies stablehlo.add across dimensions = [0] : (tensor<128xf32>, tensor<f32>) -> tensor<f32>\n    return %0 : tensor<f32>\n  }\n}\n"}
{"id": 35, "kernel_name": "loop_uigv", "python": "import jax\nimport jax.numpy as jnp\n\n@jax.jit\ndef loop_uigv(a, n):\n    # Loop operation\n    def body_fun(i, val):\n        return val + a\n    \n    # We apply the body_fun n times starting from 0.0\n    # Since 'a' is an array, this operates elementwise across 'a'\n    init_val = jnp.zeros_like(a)\n    return jax.lax.fori_loop(0, n, body_fun, init_val)", "type": "generate_loop_kernel", "cpp": "module @jit_loop_uigv attributes {mhlo.num_partitions = 1 : i32, mhlo.num_replicas = 1 : i32} {\n  func.func public @main(%arg0: tensor<128xf32>, %arg1: tensor<i32>) -> (tensor<128xf32> {jax.result_info = \"result\"}) {\n    %cst = stablehlo.constant dense<0.000000e+00> : tensor<f32>\n    %0 = stablehlo.broadcast_in_dim %cst, dims = [] : (tensor<f32>) -> tensor<128xf32>\n    %c = stablehlo.constant dense<0> : tensor<i32>\n    %1:4 = stablehlo.while(%iterArg = %arg0, %iterArg_0 = %c, %iterArg_1 = %arg1, %iterArg_2 = %0) : tensor<128xf32>, tensor<i32>, tensor<i32>, tensor<128xf32>\n    cond {\n      %2 = stablehlo.compare  LT, %iterArg_0, %iterArg_1,  SIGNED : (tensor<i32>, tensor<i32>) -> tensor<i1>\n      stablehlo.return %2 : tensor<i1>\n    } do {\n      %c_3 = stablehlo.constant dense<1> : tensor<i32>\n      %2 = stablehlo.add %iterArg_0, %c_3 : tensor<i32>\n      %3 = stablehlo.add %iterArg_2, %iterArg : tensor<128xf32>\n      stablehlo.return %iterArg, %2, %iterArg_1, %3 : tensor<128xf32>, tensor<i32>, tensor<i32>, tensor<128xf32>\n    }\n    return %1#3 : tensor<128xf32>\n  }\n}\n", "cuda": "module @jit_loop_uigv attributes {mhlo.num_partitions = 1 : i32, mhlo.num_replicas = 1 : i32} {\n  func.func public @main(%arg0: tensor<128xf32>, %arg1: tensor<i32>) -> (tensor<128xf32> {jax.result_info = \"result\"}) {\n    %cst = stablehlo.constant dense<0.000000e+00> : tensor<f32>\n    %0 = stablehlo.broadcast_in_dim %cst, dims = [] : (tensor<f32>) -> tensor<128xf32>\n    %c = stablehlo.constant dense<0> : tensor<i32>\n    %1:4 = stablehlo.while(%iterArg = %arg0, %iterArg_0 = %c, %iterArg_1 = %arg1, %iterArg_2 = %0) : tensor<128xf32>, tensor<i32>, tensor<i32>, tensor<128xf32>\n    cond {\n      %2 = stablehlo.compare  LT, %iterArg_0, %iterArg_1,  SIGNED : (tensor<i32>, tensor<i32>) -> tensor<i1>\n      stablehlo.return %2 : tensor<i1>\n    } do {\n      %c_3 = stablehlo.constant dense<1> : tensor<i32>\n      %2 = stablehlo.add %iterArg_0, %c_3 : tensor<i32>\n      %3 = stablehlo.add %iterArg_2, %iterArg : tensor<128xf32>\n      stablehlo.return %iterArg, %2, %iterArg_1, %3 : tensor<128xf32>, tensor<i32>, tensor<i32>, tensor<128xf32>\n    }\n    return %1#3 : tensor<128xf32>\n  }\n}\n"}
{"id": 36, "kernel_name": "branch_vcys", "python": "import jax\nimport jax.numpy as jnp\n\n@jax.jit\ndef branch_vcys(a):\n    # Branching with where\n    # if a > -0.49: a - 2.1 else: a + 2.7\n    return jnp.where(a > -0.49, a - 2.1, a + 2.7)", "type": "generate_branch_kernel", "cpp": "module @jit_branch_vcys attributes {mhlo.num_partitions = 1 : i32, mhlo.num_replicas = 1 : i32} {\n  func.func public @main(%arg0: tensor<128xf32>) -> (tensor<128xf32> {jax.result_info = \"result\"}) {\n    %cst = stablehlo.constant dense<-4.900000e-01> : tensor<f32>\n    %0 = stablehlo.broadcast_in_dim %cst, dims = [] : (tensor<f32>) -> tensor<128xf32>\n    %1 = stablehlo.compare  GT, %arg0, %0,  FLOAT : (tensor<128xf32>, tensor<128xf32>) -> tensor<128xi1>\n    %cst_0 = stablehlo.constant dense<2.100000e+00> : tensor<f32>\n    %2 = stablehlo.broadcast_in_dim %cst_0, dims = [] : (tensor<f32>) -> tensor<128xf32>\n    %3 = stablehlo.subtract %arg0, %2 : tensor<128xf32>\n    %cst_1 = stablehlo.constant dense<2.700000e+00> : tensor<f32>\n    %4 = stablehlo.broadcast_in_dim %cst_1, dims = [] : (tensor<f32>) -> tensor<128xf32>\n    %5 = stablehlo.add %arg0, %4 : tensor<128xf32>\n    %6 = call @_where(%1, %3, %5) : (tensor<128xi1>, tensor<128xf32>, tensor<128xf32>) -> tensor<128xf32>\n    return %6 : tensor<128xf32>\n  }\n  func.func private @_where(%arg0: tensor<128xi1>, %arg1: tensor<128xf32>, %arg2: tensor<128xf32>) -> tensor<128xf32> {\n    %0 = stablehlo.select %arg0, %arg1, %arg2 : tensor<128xi1>, tensor<128xf32>\n    return %0 : tensor<128xf32>\n  }\n}\n", "cuda": "module @jit_branch_vcys attributes {mhlo.num_partitions = 1 : i32, mhlo.num_replicas = 1 : i32} {\n  func.func public @main(%arg0: tensor<128xf32>) -> (tensor<128xf32> {jax.result_info = \"result\"}) {\n    %cst = stablehlo.constant dense<-4.900000e-01> : tensor<f32>\n    %0 = stablehlo.broadcast_in_dim %cst, dims = [] : (tensor<f32>) -> tensor<128xf32>\n    %1 = stablehlo.compare  GT, %arg0, %0,  FLOAT : (tensor<128xf32>, tensor<128xf32>) -> tensor<128xi1>\n    %cst_0 = stablehlo.constant dense<2.100000e+00> : tensor<f32>\n    %2 = stablehlo.broadcast_in_dim %cst_0, dims = [] : (tensor<f32>) -> tensor<128xf32>\n    %3 = stablehlo.subtract %arg0, %2 : tensor<128xf32>\n    %cst_1 = stablehlo.constant dense<2.700000e+00> : tensor<f32>\n    %4 = stablehlo.broadcast_in_dim %cst_1, dims = [] : (tensor<f32>) -> tensor<128xf32>\n    %5 = stablehlo.add %arg0, %4 : tensor<128xf32>\n    %6 = call @_where(%1, %3, %5) : (tensor<128xi1>, tensor<128xf32>, tensor<128xf32>) -> tensor<128xf32>\n    return %6 : tensor<128xf32>\n  }\n  func.func private @_where(%arg0: tensor<128xi1>, %arg1: tensor<128xf32>, %arg2: tensor<128xf32>) -> tensor<128xf32> {\n    %0 = stablehlo.select %arg0, %arg1, %arg2 : tensor<128xi1>, tensor<128xf32>\n    return %0 : tensor<128xf32>\n  }\n}\n"}
{"id": 37, "kernel_name": "unary_djeg", "python": "import jax\nimport jax.numpy as jnp\n\n@jax.jit\ndef unary_djeg(a):\n    # Unary operation jnp.cos\n    return jnp.cos(a)", "type": "generate_unary_kernel", "cpp": "module @jit_unary_djeg attributes {mhlo.num_partitions = 1 : i32, mhlo.num_replicas = 1 : i32} {\n  func.func public @main(%arg0: tensor<128xf32>) -> (tensor<128xf32> {jax.result_info = \"result\"}) {\n    %0 = stablehlo.cosine %arg0 : tensor<128xf32>\n    return %0 : tensor<128xf32>\n  }\n}\n", "cuda": "module @jit_unary_djeg attributes {mhlo.num_partitions = 1 : i32, mhlo.num_replicas = 1 : i32} {\n  func.func public @main(%arg0: tensor<128xf32>) -> (tensor<128xf32> {jax.result_info = \"result\"}) {\n    %0 = stablehlo.cosine %arg0 : tensor<128xf32>\n    return %0 : tensor<128xf32>\n  }\n}\n"}
{"id": 38, "kernel_name": "loop_hosy", "python": "import jax\nimport jax.numpy as jnp\n\n@jax.jit\ndef loop_hosy(a, n):\n    # Loop operation\n    def body_fun(i, val):\n        return val - a\n    \n    # We apply the body_fun n times starting from 0.0\n    # Since 'a' is an array, this operates elementwise across 'a'\n    init_val = jnp.zeros_like(a)\n    return jax.lax.fori_loop(0, n, body_fun, init_val)", "type": "generate_loop_kernel", "cpp": "module @jit_loop_hosy attributes {mhlo.num_partitions = 1 : i32, mhlo.num_replicas = 1 : i32} {\n  func.func public @main(%arg0: tensor<128xf32>, %arg1: tensor<i32>) -> (tensor<128xf32> {jax.result_info = \"result\"}) {\n    %cst = stablehlo.constant dense<0.000000e+00> : tensor<f32>\n    %0 = stablehlo.broadcast_in_dim %cst, dims = [] : (tensor<f32>) -> tensor<128xf32>\n    %c = stablehlo.constant dense<0> : tensor<i32>\n    %1:4 = stablehlo.while(%iterArg = %arg0, %iterArg_0 = %c, %iterArg_1 = %arg1, %iterArg_2 = %0) : tensor<128xf32>, tensor<i32>, tensor<i32>, tensor<128xf32>\n    cond {\n      %2 = stablehlo.compare  LT, %iterArg_0, %iterArg_1,  SIGNED : (tensor<i32>, tensor<i32>) -> tensor<i1>\n      stablehlo.return %2 : tensor<i1>\n    } do {\n      %c_3 = stablehlo.constant dense<1> : tensor<i32>\n      %2 = stablehlo.add %iterArg_0, %c_3 : tensor<i32>\n      %3 = stablehlo.subtract %iterArg_2, %iterArg : tensor<128xf32>\n      stablehlo.return %iterArg, %2, %iterArg_1, %3 : tensor<128xf32>, tensor<i32>, tensor<i32>, tensor<128xf32>\n    }\n    return %1#3 : tensor<128xf32>\n  }\n}\n", "cuda": "module @jit_loop_hosy attributes {mhlo.num_partitions = 1 : i32, mhlo.num_replicas = 1 : i32} {\n  func.func public @main(%arg0: tensor<128xf32>, %arg1: tensor<i32>) -> (tensor<128xf32> {jax.result_info = \"result\"}) {\n    %cst = stablehlo.constant dense<0.000000e+00> : tensor<f32>\n    %0 = stablehlo.broadcast_in_dim %cst, dims = [] : (tensor<f32>) -> tensor<128xf32>\n    %c = stablehlo.constant dense<0> : tensor<i32>\n    %1:4 = stablehlo.while(%iterArg = %arg0, %iterArg_0 = %c, %iterArg_1 = %arg1, %iterArg_2 = %0) : tensor<128xf32>, tensor<i32>, tensor<i32>, tensor<128xf32>\n    cond {\n      %2 = stablehlo.compare  LT, %iterArg_0, %iterArg_1,  SIGNED : (tensor<i32>, tensor<i32>) -> tensor<i1>\n      stablehlo.return %2 : tensor<i1>\n    } do {\n      %c_3 = stablehlo.constant dense<1> : tensor<i32>\n      %2 = stablehlo.add %iterArg_0, %c_3 : tensor<i32>\n      %3 = stablehlo.subtract %iterArg_2, %iterArg : tensor<128xf32>\n      stablehlo.return %iterArg, %2, %iterArg_1, %3 : tensor<128xf32>, tensor<i32>, tensor<i32>, tensor<128xf32>\n    }\n    return %1#3 : tensor<128xf32>\n  }\n}\n"}
{"id": 39, "kernel_name": "nested_nloj", "python": "import jax\nimport jax.numpy as jnp\n\n@jax.jit\ndef nested_nloj(a):\n    # Nested branching\n    # if a > 0.33:\n    #   if a > 0.66: a * 3.0\n    #   else: a * 2.0\n    # else: a * 0.5\n    \n    inner_branch = jnp.where(a > 0.66, a * 3.0, a * 2.0)\n    return jnp.where(a > 0.33, inner_branch, a * 0.5)", "type": "generate_nested_branch_kernel", "cpp": "module @jit_nested_nloj attributes {mhlo.num_partitions = 1 : i32, mhlo.num_replicas = 1 : i32} {\n  func.func public @main(%arg0: tensor<128xf32>) -> (tensor<128xf32> {jax.result_info = \"result\"}) {\n    %cst = stablehlo.constant dense<6.600000e-01> : tensor<f32>\n    %0 = stablehlo.broadcast_in_dim %cst, dims = [] : (tensor<f32>) -> tensor<128xf32>\n    %1 = stablehlo.compare  GT, %arg0, %0,  FLOAT : (tensor<128xf32>, tensor<128xf32>) -> tensor<128xi1>\n    %cst_0 = stablehlo.constant dense<3.000000e+00> : tensor<f32>\n    %2 = stablehlo.broadcast_in_dim %cst_0, dims = [] : (tensor<f32>) -> tensor<128xf32>\n    %3 = stablehlo.multiply %arg0, %2 : tensor<128xf32>\n    %cst_1 = stablehlo.constant dense<2.000000e+00> : tensor<f32>\n    %4 = stablehlo.broadcast_in_dim %cst_1, dims = [] : (tensor<f32>) -> tensor<128xf32>\n    %5 = stablehlo.multiply %arg0, %4 : tensor<128xf32>\n    %6 = call @_where(%1, %3, %5) : (tensor<128xi1>, tensor<128xf32>, tensor<128xf32>) -> tensor<128xf32>\n    %cst_2 = stablehlo.constant dense<3.300000e-01> : tensor<f32>\n    %7 = stablehlo.broadcast_in_dim %cst_2, dims = [] : (tensor<f32>) -> tensor<128xf32>\n    %8 = stablehlo.compare  GT, %arg0, %7,  FLOAT : (tensor<128xf32>, tensor<128xf32>) -> tensor<128xi1>\n    %cst_3 = stablehlo.constant dense<5.000000e-01> : tensor<f32>\n    %9 = stablehlo.broadcast_in_dim %cst_3, dims = [] : (tensor<f32>) -> tensor<128xf32>\n    %10 = stablehlo.multiply %arg0, %9 : tensor<128xf32>\n    %11 = call @_where(%8, %6, %10) : (tensor<128xi1>, tensor<128xf32>, tensor<128xf32>) -> tensor<128xf32>\n    return %11 : tensor<128xf32>\n  }\n  func.func private @_where(%arg0: tensor<128xi1>, %arg1: tensor<128xf32>, %arg2: tensor<128xf32>) -> tensor<128xf32> {\n    %0 = stablehlo.select %arg0, %arg1, %arg2 : tensor<128xi1>, tensor<128xf32>\n    return %0 : tensor<128xf32>\n  }\n}\n", "cuda": "module @jit_nested_nloj attributes {mhlo.num_partitions = 1 : i32, mhlo.num_replicas = 1 : i32} {\n  func.func public @main(%arg0: tensor<128xf32>) -> (tensor<128xf32> {jax.result_info = \"result\"}) {\n    %cst = stablehlo.constant dense<6.600000e-01> : tensor<f32>\n    %0 = stablehlo.broadcast_in_dim %cst, dims = [] : (tensor<f32>) -> tensor<128xf32>\n    %1 = stablehlo.compare  GT, %arg0, %0,  FLOAT : (tensor<128xf32>, tensor<128xf32>) -> tensor<128xi1>\n    %cst_0 = stablehlo.constant dense<3.000000e+00> : tensor<f32>\n    %2 = stablehlo.broadcast_in_dim %cst_0, dims = [] : (tensor<f32>) -> tensor<128xf32>\n    %3 = stablehlo.multiply %arg0, %2 : tensor<128xf32>\n    %cst_1 = stablehlo.constant dense<2.000000e+00> : tensor<f32>\n    %4 = stablehlo.broadcast_in_dim %cst_1, dims = [] : (tensor<f32>) -> tensor<128xf32>\n    %5 = stablehlo.multiply %arg0, %4 : tensor<128xf32>\n    %6 = call @_where(%1, %3, %5) : (tensor<128xi1>, tensor<128xf32>, tensor<128xf32>) -> tensor<128xf32>\n    %cst_2 = stablehlo.constant dense<3.300000e-01> : tensor<f32>\n    %7 = stablehlo.broadcast_in_dim %cst_2, dims = [] : (tensor<f32>) -> tensor<128xf32>\n    %8 = stablehlo.compare  GT, %arg0, %7,  FLOAT : (tensor<128xf32>, tensor<128xf32>) -> tensor<128xi1>\n    %cst_3 = stablehlo.constant dense<5.000000e-01> : tensor<f32>\n    %9 = stablehlo.broadcast_in_dim %cst_3, dims = [] : (tensor<f32>) -> tensor<128xf32>\n    %10 = stablehlo.multiply %arg0, %9 : tensor<128xf32>\n    %11 = call @_where(%8, %6, %10) : (tensor<128xi1>, tensor<128xf32>, tensor<128xf32>) -> tensor<128xf32>\n    return %11 : tensor<128xf32>\n  }\n  func.func private @_where(%arg0: tensor<128xi1>, %arg1: tensor<128xf32>, %arg2: tensor<128xf32>) -> tensor<128xf32> {\n    %0 = stablehlo.select %arg0, %arg1, %arg2 : tensor<128xi1>, tensor<128xf32>\n    return %0 : tensor<128xf32>\n  }\n}\n"}
{"id": 40, "kernel_name": "unary_dmnz", "python": "import jax\nimport jax.numpy as jnp\n\n@jax.jit\ndef unary_dmnz(a):\n    # Unary operation jnp.abs\n    return jnp.abs(a)", "type": "generate_unary_kernel", "cpp": "module @jit_unary_dmnz attributes {mhlo.num_partitions = 1 : i32, mhlo.num_replicas = 1 : i32} {\n  func.func public @main(%arg0: tensor<128xf32>) -> (tensor<128xf32> {jax.result_info = \"result\"}) {\n    %0 = stablehlo.abs %arg0 : tensor<128xf32>\n    return %0 : tensor<128xf32>\n  }\n}\n", "cuda": "module @jit_unary_dmnz attributes {mhlo.num_partitions = 1 : i32, mhlo.num_replicas = 1 : i32} {\n  func.func public @main(%arg0: tensor<128xf32>) -> (tensor<128xf32> {jax.result_info = \"result\"}) {\n    %0 = stablehlo.abs %arg0 : tensor<128xf32>\n    return %0 : tensor<128xf32>\n  }\n}\n"}
{"id": 41, "kernel_name": "multi_mwcj", "python": "import jax\nimport jax.numpy as jnp\n\n@jax.jit\ndef multi_mwcj(a, b):\n    # Multi-statement\n    temp1 = a + b\n    temp2 = jnp.abs(temp1)\n    return temp2 * a", "type": "generate_multi_statement_kernel", "cpp": "module @jit_multi_mwcj attributes {mhlo.num_partitions = 1 : i32, mhlo.num_replicas = 1 : i32} {\n  func.func public @main(%arg0: tensor<128xf32>, %arg1: tensor<128xf32>) -> (tensor<128xf32> {jax.result_info = \"result\"}) {\n    %0 = stablehlo.add %arg0, %arg1 : tensor<128xf32>\n    %1 = stablehlo.abs %0 : tensor<128xf32>\n    %2 = stablehlo.multiply %1, %arg0 : tensor<128xf32>\n    return %2 : tensor<128xf32>\n  }\n}\n", "cuda": "module @jit_multi_mwcj attributes {mhlo.num_partitions = 1 : i32, mhlo.num_replicas = 1 : i32} {\n  func.func public @main(%arg0: tensor<128xf32>, %arg1: tensor<128xf32>) -> (tensor<128xf32> {jax.result_info = \"result\"}) {\n    %0 = stablehlo.add %arg0, %arg1 : tensor<128xf32>\n    %1 = stablehlo.abs %0 : tensor<128xf32>\n    %2 = stablehlo.multiply %1, %arg0 : tensor<128xf32>\n    return %2 : tensor<128xf32>\n  }\n}\n"}
{"id": 42, "kernel_name": "loop_txaa", "python": "import jax\nimport jax.numpy as jnp\n\n@jax.jit\ndef loop_txaa(a, n):\n    # Loop operation\n    def body_fun(i, val):\n        return val * a\n    \n    # We apply the body_fun n times starting from 0.0\n    # Since 'a' is an array, this operates elementwise across 'a'\n    init_val = jnp.zeros_like(a)\n    return jax.lax.fori_loop(0, n, body_fun, init_val)", "type": "generate_loop_kernel", "cpp": "module @jit_loop_txaa attributes {mhlo.num_partitions = 1 : i32, mhlo.num_replicas = 1 : i32} {\n  func.func public @main(%arg0: tensor<128xf32>, %arg1: tensor<i32>) -> (tensor<128xf32> {jax.result_info = \"result\"}) {\n    %cst = stablehlo.constant dense<0.000000e+00> : tensor<f32>\n    %0 = stablehlo.broadcast_in_dim %cst, dims = [] : (tensor<f32>) -> tensor<128xf32>\n    %c = stablehlo.constant dense<0> : tensor<i32>\n    %1:4 = stablehlo.while(%iterArg = %arg0, %iterArg_0 = %c, %iterArg_1 = %arg1, %iterArg_2 = %0) : tensor<128xf32>, tensor<i32>, tensor<i32>, tensor<128xf32>\n    cond {\n      %2 = stablehlo.compare  LT, %iterArg_0, %iterArg_1,  SIGNED : (tensor<i32>, tensor<i32>) -> tensor<i1>\n      stablehlo.return %2 : tensor<i1>\n    } do {\n      %c_3 = stablehlo.constant dense<1> : tensor<i32>\n      %2 = stablehlo.add %iterArg_0, %c_3 : tensor<i32>\n      %3 = stablehlo.multiply %iterArg_2, %iterArg : tensor<128xf32>\n      stablehlo.return %iterArg, %2, %iterArg_1, %3 : tensor<128xf32>, tensor<i32>, tensor<i32>, tensor<128xf32>\n    }\n    return %1#3 : tensor<128xf32>\n  }\n}\n", "cuda": "module @jit_loop_txaa attributes {mhlo.num_partitions = 1 : i32, mhlo.num_replicas = 1 : i32} {\n  func.func public @main(%arg0: tensor<128xf32>, %arg1: tensor<i32>) -> (tensor<128xf32> {jax.result_info = \"result\"}) {\n    %cst = stablehlo.constant dense<0.000000e+00> : tensor<f32>\n    %0 = stablehlo.broadcast_in_dim %cst, dims = [] : (tensor<f32>) -> tensor<128xf32>\n    %c = stablehlo.constant dense<0> : tensor<i32>\n    %1:4 = stablehlo.while(%iterArg = %arg0, %iterArg_0 = %c, %iterArg_1 = %arg1, %iterArg_2 = %0) : tensor<128xf32>, tensor<i32>, tensor<i32>, tensor<128xf32>\n    cond {\n      %2 = stablehlo.compare  LT, %iterArg_0, %iterArg_1,  SIGNED : (tensor<i32>, tensor<i32>) -> tensor<i1>\n      stablehlo.return %2 : tensor<i1>\n    } do {\n      %c_3 = stablehlo.constant dense<1> : tensor<i32>\n      %2 = stablehlo.add %iterArg_0, %c_3 : tensor<i32>\n      %3 = stablehlo.multiply %iterArg_2, %iterArg : tensor<128xf32>\n      stablehlo.return %iterArg, %2, %iterArg_1, %3 : tensor<128xf32>, tensor<i32>, tensor<i32>, tensor<128xf32>\n    }\n    return %1#3 : tensor<128xf32>\n  }\n}\n"}
{"id": 43, "kernel_name": "branch_fpcx", "python": "import jax\nimport jax.numpy as jnp\n\n@jax.jit\ndef branch_fpcx(a):\n    # Branching with where\n    # if a > -0.62: a - 2.0 else: a - 2.2\n    return jnp.where(a > -0.62, a - 2.0, a - 2.2)", "type": "generate_branch_kernel", "cpp": "module @jit_branch_fpcx attributes {mhlo.num_partitions = 1 : i32, mhlo.num_replicas = 1 : i32} {\n  func.func public @main(%arg0: tensor<128xf32>) -> (tensor<128xf32> {jax.result_info = \"result\"}) {\n    %cst = stablehlo.constant dense<-6.200000e-01> : tensor<f32>\n    %0 = stablehlo.broadcast_in_dim %cst, dims = [] : (tensor<f32>) -> tensor<128xf32>\n    %1 = stablehlo.compare  GT, %arg0, %0,  FLOAT : (tensor<128xf32>, tensor<128xf32>) -> tensor<128xi1>\n    %cst_0 = stablehlo.constant dense<2.000000e+00> : tensor<f32>\n    %2 = stablehlo.broadcast_in_dim %cst_0, dims = [] : (tensor<f32>) -> tensor<128xf32>\n    %3 = stablehlo.subtract %arg0, %2 : tensor<128xf32>\n    %cst_1 = stablehlo.constant dense<2.200000e+00> : tensor<f32>\n    %4 = stablehlo.broadcast_in_dim %cst_1, dims = [] : (tensor<f32>) -> tensor<128xf32>\n    %5 = stablehlo.subtract %arg0, %4 : tensor<128xf32>\n    %6 = call @_where(%1, %3, %5) : (tensor<128xi1>, tensor<128xf32>, tensor<128xf32>) -> tensor<128xf32>\n    return %6 : tensor<128xf32>\n  }\n  func.func private @_where(%arg0: tensor<128xi1>, %arg1: tensor<128xf32>, %arg2: tensor<128xf32>) -> tensor<128xf32> {\n    %0 = stablehlo.select %arg0, %arg1, %arg2 : tensor<128xi1>, tensor<128xf32>\n    return %0 : tensor<128xf32>\n  }\n}\n", "cuda": "module @jit_branch_fpcx attributes {mhlo.num_partitions = 1 : i32, mhlo.num_replicas = 1 : i32} {\n  func.func public @main(%arg0: tensor<128xf32>) -> (tensor<128xf32> {jax.result_info = \"result\"}) {\n    %cst = stablehlo.constant dense<-6.200000e-01> : tensor<f32>\n    %0 = stablehlo.broadcast_in_dim %cst, dims = [] : (tensor<f32>) -> tensor<128xf32>\n    %1 = stablehlo.compare  GT, %arg0, %0,  FLOAT : (tensor<128xf32>, tensor<128xf32>) -> tensor<128xi1>\n    %cst_0 = stablehlo.constant dense<2.000000e+00> : tensor<f32>\n    %2 = stablehlo.broadcast_in_dim %cst_0, dims = [] : (tensor<f32>) -> tensor<128xf32>\n    %3 = stablehlo.subtract %arg0, %2 : tensor<128xf32>\n    %cst_1 = stablehlo.constant dense<2.200000e+00> : tensor<f32>\n    %4 = stablehlo.broadcast_in_dim %cst_1, dims = [] : (tensor<f32>) -> tensor<128xf32>\n    %5 = stablehlo.subtract %arg0, %4 : tensor<128xf32>\n    %6 = call @_where(%1, %3, %5) : (tensor<128xi1>, tensor<128xf32>, tensor<128xf32>) -> tensor<128xf32>\n    return %6 : tensor<128xf32>\n  }\n  func.func private @_where(%arg0: tensor<128xi1>, %arg1: tensor<128xf32>, %arg2: tensor<128xf32>) -> tensor<128xf32> {\n    %0 = stablehlo.select %arg0, %arg1, %arg2 : tensor<128xi1>, tensor<128xf32>\n    return %0 : tensor<128xf32>\n  }\n}\n"}
{"id": 44, "kernel_name": "elementwise_uavi", "python": "import jax\nimport jax.numpy as jnp\n\n@jax.jit\ndef elementwise_uavi(a, b):\n    # Elementwise +\n    return a + b", "type": "generate_simple_elementwise", "cpp": "module @jit_elementwise_uavi attributes {mhlo.num_partitions = 1 : i32, mhlo.num_replicas = 1 : i32} {\n  func.func public @main(%arg0: tensor<128xf32>, %arg1: tensor<128xf32>) -> (tensor<128xf32> {jax.result_info = \"result\"}) {\n    %0 = stablehlo.add %arg0, %arg1 : tensor<128xf32>\n    return %0 : tensor<128xf32>\n  }\n}\n", "cuda": "module @jit_elementwise_uavi attributes {mhlo.num_partitions = 1 : i32, mhlo.num_replicas = 1 : i32} {\n  func.func public @main(%arg0: tensor<128xf32>, %arg1: tensor<128xf32>) -> (tensor<128xf32> {jax.result_info = \"result\"}) {\n    %0 = stablehlo.add %arg0, %arg1 : tensor<128xf32>\n    return %0 : tensor<128xf32>\n  }\n}\n"}
{"id": 45, "kernel_name": "unary_devo", "python": "import jax\nimport jax.numpy as jnp\n\n@jax.jit\ndef unary_devo(a):\n    # Unary operation jnp.sin\n    return jnp.sin(a)", "type": "generate_unary_kernel", "cpp": "module @jit_unary_devo attributes {mhlo.num_partitions = 1 : i32, mhlo.num_replicas = 1 : i32} {\n  func.func public @main(%arg0: tensor<128xf32>) -> (tensor<128xf32> {jax.result_info = \"result\"}) {\n    %0 = stablehlo.sine %arg0 : tensor<128xf32>\n    return %0 : tensor<128xf32>\n  }\n}\n", "cuda": "module @jit_unary_devo attributes {mhlo.num_partitions = 1 : i32, mhlo.num_replicas = 1 : i32} {\n  func.func public @main(%arg0: tensor<128xf32>) -> (tensor<128xf32> {jax.result_info = \"result\"}) {\n    %0 = stablehlo.sine %arg0 : tensor<128xf32>\n    return %0 : tensor<128xf32>\n  }\n}\n"}
{"id": 46, "kernel_name": "vec_kexq", "python": "import jax\nimport jax.numpy as jnp\n\n@jax.jit\ndef vec_kexq(a, b):\n    # Vector dot product (row-wise for N x 3 arrays)\n    # a and b are expected to be shape (N, 3)\n    # contract over last axis\n    return jnp.sum(a * b, axis=-1)", "type": "generate_vector_kernel", "cpp": "module @jit_vec_kexq attributes {mhlo.num_partitions = 1 : i32, mhlo.num_replicas = 1 : i32} {\n  func.func public @main(%arg0: tensor<128x3xf32>, %arg1: tensor<128x3xf32>) -> (tensor<128xf32> {jax.result_info = \"result\"}) {\n    %0 = stablehlo.multiply %arg0, %arg1 : tensor<128x3xf32>\n    %cst = stablehlo.constant dense<0.000000e+00> : tensor<f32>\n    %1 = stablehlo.reduce(%0 init: %cst) applies stablehlo.add across dimensions = [1] : (tensor<128x3xf32>, tensor<f32>) -> tensor<128xf32>\n    return %1 : tensor<128xf32>\n  }\n}\n", "cuda": "module @jit_vec_kexq attributes {mhlo.num_partitions = 1 : i32, mhlo.num_replicas = 1 : i32} {\n  func.func public @main(%arg0: tensor<128x3xf32>, %arg1: tensor<128x3xf32>) -> (tensor<128xf32> {jax.result_info = \"result\"}) {\n    %0 = stablehlo.multiply %arg0, %arg1 : tensor<128x3xf32>\n    %cst = stablehlo.constant dense<0.000000e+00> : tensor<f32>\n    %1 = stablehlo.reduce(%0 init: %cst) applies stablehlo.add across dimensions = [1] : (tensor<128x3xf32>, tensor<f32>) -> tensor<128xf32>\n    return %1 : tensor<128xf32>\n  }\n}\n"}
{"id": 47, "kernel_name": "scalar_arr_cpzd", "python": "import jax\nimport jax.numpy as jnp\n\n@jax.jit\ndef scalar_arr_cpzd(alpha, x, y):\n    # Scalar-array operations\n    return alpha + x + y", "type": "generate_scalar_array_op", "cpp": "module @jit_scalar_arr_cpzd attributes {mhlo.num_partitions = 1 : i32, mhlo.num_replicas = 1 : i32} {\n  func.func public @main(%arg0: tensor<f32>, %arg1: tensor<128xf32>, %arg2: tensor<128xf32>) -> (tensor<128xf32> {jax.result_info = \"result\"}) {\n    %0 = stablehlo.convert %arg0 : tensor<f32>\n    %1 = stablehlo.broadcast_in_dim %0, dims = [] : (tensor<f32>) -> tensor<128xf32>\n    %2 = stablehlo.add %1, %arg1 : tensor<128xf32>\n    %3 = stablehlo.add %2, %arg2 : tensor<128xf32>\n    return %3 : tensor<128xf32>\n  }\n}\n", "cuda": "module @jit_scalar_arr_cpzd attributes {mhlo.num_partitions = 1 : i32, mhlo.num_replicas = 1 : i32} {\n  func.func public @main(%arg0: tensor<f32>, %arg1: tensor<128xf32>, %arg2: tensor<128xf32>) -> (tensor<128xf32> {jax.result_info = \"result\"}) {\n    %0 = stablehlo.convert %arg0 : tensor<f32>\n    %1 = stablehlo.broadcast_in_dim %0, dims = [] : (tensor<f32>) -> tensor<128xf32>\n    %2 = stablehlo.add %1, %arg1 : tensor<128xf32>\n    %3 = stablehlo.add %2, %arg2 : tensor<128xf32>\n    return %3 : tensor<128xf32>\n  }\n}\n"}
{"id": 48, "kernel_name": "branch_fcrp", "python": "import jax\nimport jax.numpy as jnp\n\n@jax.jit\ndef branch_fcrp(a):\n    # Branching with where\n    # if a > 0.27: a - 1.9 else: a - 2.9\n    return jnp.where(a > 0.27, a - 1.9, a - 2.9)", "type": "generate_branch_kernel", "cpp": "module @jit_branch_fcrp attributes {mhlo.num_partitions = 1 : i32, mhlo.num_replicas = 1 : i32} {\n  func.func public @main(%arg0: tensor<128xf32>) -> (tensor<128xf32> {jax.result_info = \"result\"}) {\n    %cst = stablehlo.constant dense<2.700000e-01> : tensor<f32>\n    %0 = stablehlo.broadcast_in_dim %cst, dims = [] : (tensor<f32>) -> tensor<128xf32>\n    %1 = stablehlo.compare  GT, %arg0, %0,  FLOAT : (tensor<128xf32>, tensor<128xf32>) -> tensor<128xi1>\n    %cst_0 = stablehlo.constant dense<1.900000e+00> : tensor<f32>\n    %2 = stablehlo.broadcast_in_dim %cst_0, dims = [] : (tensor<f32>) -> tensor<128xf32>\n    %3 = stablehlo.subtract %arg0, %2 : tensor<128xf32>\n    %cst_1 = stablehlo.constant dense<2.900000e+00> : tensor<f32>\n    %4 = stablehlo.broadcast_in_dim %cst_1, dims = [] : (tensor<f32>) -> tensor<128xf32>\n    %5 = stablehlo.subtract %arg0, %4 : tensor<128xf32>\n    %6 = call @_where(%1, %3, %5) : (tensor<128xi1>, tensor<128xf32>, tensor<128xf32>) -> tensor<128xf32>\n    return %6 : tensor<128xf32>\n  }\n  func.func private @_where(%arg0: tensor<128xi1>, %arg1: tensor<128xf32>, %arg2: tensor<128xf32>) -> tensor<128xf32> {\n    %0 = stablehlo.select %arg0, %arg1, %arg2 : tensor<128xi1>, tensor<128xf32>\n    return %0 : tensor<128xf32>\n  }\n}\n", "cuda": "module @jit_branch_fcrp attributes {mhlo.num_partitions = 1 : i32, mhlo.num_replicas = 1 : i32} {\n  func.func public @main(%arg0: tensor<128xf32>) -> (tensor<128xf32> {jax.result_info = \"result\"}) {\n    %cst = stablehlo.constant dense<2.700000e-01> : tensor<f32>\n    %0 = stablehlo.broadcast_in_dim %cst, dims = [] : (tensor<f32>) -> tensor<128xf32>\n    %1 = stablehlo.compare  GT, %arg0, %0,  FLOAT : (tensor<128xf32>, tensor<128xf32>) -> tensor<128xi1>\n    %cst_0 = stablehlo.constant dense<1.900000e+00> : tensor<f32>\n    %2 = stablehlo.broadcast_in_dim %cst_0, dims = [] : (tensor<f32>) -> tensor<128xf32>\n    %3 = stablehlo.subtract %arg0, %2 : tensor<128xf32>\n    %cst_1 = stablehlo.constant dense<2.900000e+00> : tensor<f32>\n    %4 = stablehlo.broadcast_in_dim %cst_1, dims = [] : (tensor<f32>) -> tensor<128xf32>\n    %5 = stablehlo.subtract %arg0, %4 : tensor<128xf32>\n    %6 = call @_where(%1, %3, %5) : (tensor<128xi1>, tensor<128xf32>, tensor<128xf32>) -> tensor<128xf32>\n    return %6 : tensor<128xf32>\n  }\n  func.func private @_where(%arg0: tensor<128xi1>, %arg1: tensor<128xf32>, %arg2: tensor<128xf32>) -> tensor<128xf32> {\n    %0 = stablehlo.select %arg0, %arg1, %arg2 : tensor<128xi1>, tensor<128xf32>\n    return %0 : tensor<128xf32>\n  }\n}\n"}
{"id": 49, "kernel_name": "scalar_arr_cere", "python": "import jax\nimport jax.numpy as jnp\n\n@jax.jit\ndef scalar_arr_cere(alpha, x, y):\n    # Scalar-array operations\n    return alpha - x * y", "type": "generate_scalar_array_op", "cpp": "module @jit_scalar_arr_cere attributes {mhlo.num_partitions = 1 : i32, mhlo.num_replicas = 1 : i32} {\n  func.func public @main(%arg0: tensor<f32>, %arg1: tensor<128xf32>, %arg2: tensor<128xf32>) -> (tensor<128xf32> {jax.result_info = \"result\"}) {\n    %0 = stablehlo.multiply %arg1, %arg2 : tensor<128xf32>\n    %1 = stablehlo.convert %arg0 : tensor<f32>\n    %2 = stablehlo.broadcast_in_dim %1, dims = [] : (tensor<f32>) -> tensor<128xf32>\n    %3 = stablehlo.subtract %2, %0 : tensor<128xf32>\n    return %3 : tensor<128xf32>\n  }\n}\n", "cuda": "module @jit_scalar_arr_cere attributes {mhlo.num_partitions = 1 : i32, mhlo.num_replicas = 1 : i32} {\n  func.func public @main(%arg0: tensor<f32>, %arg1: tensor<128xf32>, %arg2: tensor<128xf32>) -> (tensor<128xf32> {jax.result_info = \"result\"}) {\n    %0 = stablehlo.multiply %arg1, %arg2 : tensor<128xf32>\n    %1 = stablehlo.convert %arg0 : tensor<f32>\n    %2 = stablehlo.broadcast_in_dim %1, dims = [] : (tensor<f32>) -> tensor<128xf32>\n    %3 = stablehlo.subtract %2, %0 : tensor<128xf32>\n    return %3 : tensor<128xf32>\n  }\n}\n"}
{"id": 50, "kernel_name": "vec_koop", "python": "import jax\nimport jax.numpy as jnp\n\n@jax.jit\ndef vec_koop(a, b):\n    # Vector dot product (row-wise for N x 3 arrays)\n    # a and b are expected to be shape (N, 3)\n    # contract over last axis\n    return jnp.sum(a * b, axis=-1)", "type": "generate_vector_kernel", "cpp": "module @jit_vec_koop attributes {mhlo.num_partitions = 1 : i32, mhlo.num_replicas = 1 : i32} {\n  func.func public @main(%arg0: tensor<128x3xf32>, %arg1: tensor<128x3xf32>) -> (tensor<128xf32> {jax.result_info = \"result\"}) {\n    %0 = stablehlo.multiply %arg0, %arg1 : tensor<128x3xf32>\n    %cst = stablehlo.constant dense<0.000000e+00> : tensor<f32>\n    %1 = stablehlo.reduce(%0 init: %cst) applies stablehlo.add across dimensions = [1] : (tensor<128x3xf32>, tensor<f32>) -> tensor<128xf32>\n    return %1 : tensor<128xf32>\n  }\n}\n", "cuda": "module @jit_vec_koop attributes {mhlo.num_partitions = 1 : i32, mhlo.num_replicas = 1 : i32} {\n  func.func public @main(%arg0: tensor<128x3xf32>, %arg1: tensor<128x3xf32>) -> (tensor<128xf32> {jax.result_info = \"result\"}) {\n    %0 = stablehlo.multiply %arg0, %arg1 : tensor<128x3xf32>\n    %cst = stablehlo.constant dense<0.000000e+00> : tensor<f32>\n    %1 = stablehlo.reduce(%0 init: %cst) applies stablehlo.add across dimensions = [1] : (tensor<128x3xf32>, tensor<f32>) -> tensor<128xf32>\n    return %1 : tensor<128xf32>\n  }\n}\n"}
{"id": 51, "kernel_name": "multi_xmoj", "python": "import jax\nimport jax.numpy as jnp\n\n@jax.jit\ndef multi_xmoj(a, b):\n    # Multi-statement\n    temp1 = a + b\n    temp2 = jnp.sin(temp1)\n    return temp2 + a", "type": "generate_multi_statement_kernel", "cpp": "module @jit_multi_xmoj attributes {mhlo.num_partitions = 1 : i32, mhlo.num_replicas = 1 : i32} {\n  func.func public @main(%arg0: tensor<128xf32>, %arg1: tensor<128xf32>) -> (tensor<128xf32> {jax.result_info = \"result\"}) {\n    %0 = stablehlo.add %arg0, %arg1 : tensor<128xf32>\n    %1 = stablehlo.sine %0 : tensor<128xf32>\n    %2 = stablehlo.add %1, %arg0 : tensor<128xf32>\n    return %2 : tensor<128xf32>\n  }\n}\n", "cuda": "module @jit_multi_xmoj attributes {mhlo.num_partitions = 1 : i32, mhlo.num_replicas = 1 : i32} {\n  func.func public @main(%arg0: tensor<128xf32>, %arg1: tensor<128xf32>) -> (tensor<128xf32> {jax.result_info = \"result\"}) {\n    %0 = stablehlo.add %arg0, %arg1 : tensor<128xf32>\n    %1 = stablehlo.sine %0 : tensor<128xf32>\n    %2 = stablehlo.add %1, %arg0 : tensor<128xf32>\n    return %2 : tensor<128xf32>\n  }\n}\n"}
{"id": 52, "kernel_name": "nested_odhl", "python": "import jax\nimport jax.numpy as jnp\n\n@jax.jit\ndef nested_odhl(a):\n    # Nested branching\n    # if a > -0.48:\n    #   if a > 1.0: a * 3.0\n    #   else: a * 2.0\n    # else: a * 0.5\n    \n    inner_branch = jnp.where(a > 1.0, a * 3.0, a * 2.0)\n    return jnp.where(a > -0.48, inner_branch, a * 0.5)", "type": "generate_nested_branch_kernel", "cpp": "module @jit_nested_odhl attributes {mhlo.num_partitions = 1 : i32, mhlo.num_replicas = 1 : i32} {\n  func.func public @main(%arg0: tensor<128xf32>) -> (tensor<128xf32> {jax.result_info = \"result\"}) {\n    %cst = stablehlo.constant dense<1.000000e+00> : tensor<f32>\n    %0 = stablehlo.broadcast_in_dim %cst, dims = [] : (tensor<f32>) -> tensor<128xf32>\n    %1 = stablehlo.compare  GT, %arg0, %0,  FLOAT : (tensor<128xf32>, tensor<128xf32>) -> tensor<128xi1>\n    %cst_0 = stablehlo.constant dense<3.000000e+00> : tensor<f32>\n    %2 = stablehlo.broadcast_in_dim %cst_0, dims = [] : (tensor<f32>) -> tensor<128xf32>\n    %3 = stablehlo.multiply %arg0, %2 : tensor<128xf32>\n    %cst_1 = stablehlo.constant dense<2.000000e+00> : tensor<f32>\n    %4 = stablehlo.broadcast_in_dim %cst_1, dims = [] : (tensor<f32>) -> tensor<128xf32>\n    %5 = stablehlo.multiply %arg0, %4 : tensor<128xf32>\n    %6 = call @_where(%1, %3, %5) : (tensor<128xi1>, tensor<128xf32>, tensor<128xf32>) -> tensor<128xf32>\n    %cst_2 = stablehlo.constant dense<-4.800000e-01> : tensor<f32>\n    %7 = stablehlo.broadcast_in_dim %cst_2, dims = [] : (tensor<f32>) -> tensor<128xf32>\n    %8 = stablehlo.compare  GT, %arg0, %7,  FLOAT : (tensor<128xf32>, tensor<128xf32>) -> tensor<128xi1>\n    %cst_3 = stablehlo.constant dense<5.000000e-01> : tensor<f32>\n    %9 = stablehlo.broadcast_in_dim %cst_3, dims = [] : (tensor<f32>) -> tensor<128xf32>\n    %10 = stablehlo.multiply %arg0, %9 : tensor<128xf32>\n    %11 = call @_where(%8, %6, %10) : (tensor<128xi1>, tensor<128xf32>, tensor<128xf32>) -> tensor<128xf32>\n    return %11 : tensor<128xf32>\n  }\n  func.func private @_where(%arg0: tensor<128xi1>, %arg1: tensor<128xf32>, %arg2: tensor<128xf32>) -> tensor<128xf32> {\n    %0 = stablehlo.select %arg0, %arg1, %arg2 : tensor<128xi1>, tensor<128xf32>\n    return %0 : tensor<128xf32>\n  }\n}\n", "cuda": "module @jit_nested_odhl attributes {mhlo.num_partitions = 1 : i32, mhlo.num_replicas = 1 : i32} {\n  func.func public @main(%arg0: tensor<128xf32>) -> (tensor<128xf32> {jax.result_info = \"result\"}) {\n    %cst = stablehlo.constant dense<1.000000e+00> : tensor<f32>\n    %0 = stablehlo.broadcast_in_dim %cst, dims = [] : (tensor<f32>) -> tensor<128xf32>\n    %1 = stablehlo.compare  GT, %arg0, %0,  FLOAT : (tensor<128xf32>, tensor<128xf32>) -> tensor<128xi1>\n    %cst_0 = stablehlo.constant dense<3.000000e+00> : tensor<f32>\n    %2 = stablehlo.broadcast_in_dim %cst_0, dims = [] : (tensor<f32>) -> tensor<128xf32>\n    %3 = stablehlo.multiply %arg0, %2 : tensor<128xf32>\n    %cst_1 = stablehlo.constant dense<2.000000e+00> : tensor<f32>\n    %4 = stablehlo.broadcast_in_dim %cst_1, dims = [] : (tensor<f32>) -> tensor<128xf32>\n    %5 = stablehlo.multiply %arg0, %4 : tensor<128xf32>\n    %6 = call @_where(%1, %3, %5) : (tensor<128xi1>, tensor<128xf32>, tensor<128xf32>) -> tensor<128xf32>\n    %cst_2 = stablehlo.constant dense<-4.800000e-01> : tensor<f32>\n    %7 = stablehlo.broadcast_in_dim %cst_2, dims = [] : (tensor<f32>) -> tensor<128xf32>\n    %8 = stablehlo.compare  GT, %arg0, %7,  FLOAT : (tensor<128xf32>, tensor<128xf32>) -> tensor<128xi1>\n    %cst_3 = stablehlo.constant dense<5.000000e-01> : tensor<f32>\n    %9 = stablehlo.broadcast_in_dim %cst_3, dims = [] : (tensor<f32>) -> tensor<128xf32>\n    %10 = stablehlo.multiply %arg0, %9 : tensor<128xf32>\n    %11 = call @_where(%8, %6, %10) : (tensor<128xi1>, tensor<128xf32>, tensor<128xf32>) -> tensor<128xf32>\n    return %11 : tensor<128xf32>\n  }\n  func.func private @_where(%arg0: tensor<128xi1>, %arg1: tensor<128xf32>, %arg2: tensor<128xf32>) -> tensor<128xf32> {\n    %0 = stablehlo.select %arg0, %arg1, %arg2 : tensor<128xi1>, tensor<128xf32>\n    return %0 : tensor<128xf32>\n  }\n}\n"}
{"id": 53, "kernel_name": "nested_tnzo", "python": "import jax\nimport jax.numpy as jnp\n\n@jax.jit\ndef nested_tnzo(a):\n    # Nested branching\n    # if a > 0.44:\n    #   if a > 0.63: a * 3.0\n    #   else: a * 2.0\n    # else: a * 0.5\n    \n    inner_branch = jnp.where(a > 0.63, a * 3.0, a * 2.0)\n    return jnp.where(a > 0.44, inner_branch, a * 0.5)", "type": "generate_nested_branch_kernel", "cpp": "module @jit_nested_tnzo attributes {mhlo.num_partitions = 1 : i32, mhlo.num_replicas = 1 : i32} {\n  func.func public @main(%arg0: tensor<128xf32>) -> (tensor<128xf32> {jax.result_info = \"result\"}) {\n    %cst = stablehlo.constant dense<6.300000e-01> : tensor<f32>\n    %0 = stablehlo.broadcast_in_dim %cst, dims = [] : (tensor<f32>) -> tensor<128xf32>\n    %1 = stablehlo.compare  GT, %arg0, %0,  FLOAT : (tensor<128xf32>, tensor<128xf32>) -> tensor<128xi1>\n    %cst_0 = stablehlo.constant dense<3.000000e+00> : tensor<f32>\n    %2 = stablehlo.broadcast_in_dim %cst_0, dims = [] : (tensor<f32>) -> tensor<128xf32>\n    %3 = stablehlo.multiply %arg0, %2 : tensor<128xf32>\n    %cst_1 = stablehlo.constant dense<2.000000e+00> : tensor<f32>\n    %4 = stablehlo.broadcast_in_dim %cst_1, dims = [] : (tensor<f32>) -> tensor<128xf32>\n    %5 = stablehlo.multiply %arg0, %4 : tensor<128xf32>\n    %6 = call @_where(%1, %3, %5) : (tensor<128xi1>, tensor<128xf32>, tensor<128xf32>) -> tensor<128xf32>\n    %cst_2 = stablehlo.constant dense<4.400000e-01> : tensor<f32>\n    %7 = stablehlo.broadcast_in_dim %cst_2, dims = [] : (tensor<f32>) -> tensor<128xf32>\n    %8 = stablehlo.compare  GT, %arg0, %7,  FLOAT : (tensor<128xf32>, tensor<128xf32>) -> tensor<128xi1>\n    %cst_3 = stablehlo.constant dense<5.000000e-01> : tensor<f32>\n    %9 = stablehlo.broadcast_in_dim %cst_3, dims = [] : (tensor<f32>) -> tensor<128xf32>\n    %10 = stablehlo.multiply %arg0, %9 : tensor<128xf32>\n    %11 = call @_where(%8, %6, %10) : (tensor<128xi1>, tensor<128xf32>, tensor<128xf32>) -> tensor<128xf32>\n    return %11 : tensor<128xf32>\n  }\n  func.func private @_where(%arg0: tensor<128xi1>, %arg1: tensor<128xf32>, %arg2: tensor<128xf32>) -> tensor<128xf32> {\n    %0 = stablehlo.select %arg0, %arg1, %arg2 : tensor<128xi1>, tensor<128xf32>\n    return %0 : tensor<128xf32>\n  }\n}\n", "cuda": "module @jit_nested_tnzo attributes {mhlo.num_partitions = 1 : i32, mhlo.num_replicas = 1 : i32} {\n  func.func public @main(%arg0: tensor<128xf32>) -> (tensor<128xf32> {jax.result_info = \"result\"}) {\n    %cst = stablehlo.constant dense<6.300000e-01> : tensor<f32>\n    %0 = stablehlo.broadcast_in_dim %cst, dims = [] : (tensor<f32>) -> tensor<128xf32>\n    %1 = stablehlo.compare  GT, %arg0, %0,  FLOAT : (tensor<128xf32>, tensor<128xf32>) -> tensor<128xi1>\n    %cst_0 = stablehlo.constant dense<3.000000e+00> : tensor<f32>\n    %2 = stablehlo.broadcast_in_dim %cst_0, dims = [] : (tensor<f32>) -> tensor<128xf32>\n    %3 = stablehlo.multiply %arg0, %2 : tensor<128xf32>\n    %cst_1 = stablehlo.constant dense<2.000000e+00> : tensor<f32>\n    %4 = stablehlo.broadcast_in_dim %cst_1, dims = [] : (tensor<f32>) -> tensor<128xf32>\n    %5 = stablehlo.multiply %arg0, %4 : tensor<128xf32>\n    %6 = call @_where(%1, %3, %5) : (tensor<128xi1>, tensor<128xf32>, tensor<128xf32>) -> tensor<128xf32>\n    %cst_2 = stablehlo.constant dense<4.400000e-01> : tensor<f32>\n    %7 = stablehlo.broadcast_in_dim %cst_2, dims = [] : (tensor<f32>) -> tensor<128xf32>\n    %8 = stablehlo.compare  GT, %arg0, %7,  FLOAT : (tensor<128xf32>, tensor<128xf32>) -> tensor<128xi1>\n    %cst_3 = stablehlo.constant dense<5.000000e-01> : tensor<f32>\n    %9 = stablehlo.broadcast_in_dim %cst_3, dims = [] : (tensor<f32>) -> tensor<128xf32>\n    %10 = stablehlo.multiply %arg0, %9 : tensor<128xf32>\n    %11 = call @_where(%8, %6, %10) : (tensor<128xi1>, tensor<128xf32>, tensor<128xf32>) -> tensor<128xf32>\n    return %11 : tensor<128xf32>\n  }\n  func.func private @_where(%arg0: tensor<128xi1>, %arg1: tensor<128xf32>, %arg2: tensor<128xf32>) -> tensor<128xf32> {\n    %0 = stablehlo.select %arg0, %arg1, %arg2 : tensor<128xi1>, tensor<128xf32>\n    return %0 : tensor<128xf32>\n  }\n}\n"}
{"id": 54, "kernel_name": "reduce_jxkf", "python": "import jax\nimport jax.numpy as jnp\n\n@jax.jit\ndef reduce_jxkf(a):\n    # Reduction (sum)\n    return jnp.sum(a)", "type": "generate_reduction_kernel", "cpp": "module @jit_reduce_jxkf attributes {mhlo.num_partitions = 1 : i32, mhlo.num_replicas = 1 : i32} {\n  func.func public @main(%arg0: tensor<128xf32>) -> (tensor<f32> {jax.result_info = \"result\"}) {\n    %cst = stablehlo.constant dense<0.000000e+00> : tensor<f32>\n    %0 = stablehlo.reduce(%arg0 init: %cst) applies stablehlo.add across dimensions = [0] : (tensor<128xf32>, tensor<f32>) -> tensor<f32>\n    return %0 : tensor<f32>\n  }\n}\n", "cuda": "module @jit_reduce_jxkf attributes {mhlo.num_partitions = 1 : i32, mhlo.num_replicas = 1 : i32} {\n  func.func public @main(%arg0: tensor<128xf32>) -> (tensor<f32> {jax.result_info = \"result\"}) {\n    %cst = stablehlo.constant dense<0.000000e+00> : tensor<f32>\n    %0 = stablehlo.reduce(%arg0 init: %cst) applies stablehlo.add across dimensions = [0] : (tensor<128xf32>, tensor<f32>) -> tensor<f32>\n    return %0 : tensor<f32>\n  }\n}\n"}
{"id": 55, "kernel_name": "branch_fujv", "python": "import jax\nimport jax.numpy as jnp\n\n@jax.jit\ndef branch_fujv(a):\n    # Branching with where\n    # if a > 0.59: a * 1.9 else: a + 0.6\n    return jnp.where(a > 0.59, a * 1.9, a + 0.6)", "type": "generate_branch_kernel", "cpp": "module @jit_branch_fujv attributes {mhlo.num_partitions = 1 : i32, mhlo.num_replicas = 1 : i32} {\n  func.func public @main(%arg0: tensor<128xf32>) -> (tensor<128xf32> {jax.result_info = \"result\"}) {\n    %cst = stablehlo.constant dense<5.900000e-01> : tensor<f32>\n    %0 = stablehlo.broadcast_in_dim %cst, dims = [] : (tensor<f32>) -> tensor<128xf32>\n    %1 = stablehlo.compare  GT, %arg0, %0,  FLOAT : (tensor<128xf32>, tensor<128xf32>) -> tensor<128xi1>\n    %cst_0 = stablehlo.constant dense<1.900000e+00> : tensor<f32>\n    %2 = stablehlo.broadcast_in_dim %cst_0, dims = [] : (tensor<f32>) -> tensor<128xf32>\n    %3 = stablehlo.multiply %arg0, %2 : tensor<128xf32>\n    %cst_1 = stablehlo.constant dense<6.000000e-01> : tensor<f32>\n    %4 = stablehlo.broadcast_in_dim %cst_1, dims = [] : (tensor<f32>) -> tensor<128xf32>\n    %5 = stablehlo.add %arg0, %4 : tensor<128xf32>\n    %6 = call @_where(%1, %3, %5) : (tensor<128xi1>, tensor<128xf32>, tensor<128xf32>) -> tensor<128xf32>\n    return %6 : tensor<128xf32>\n  }\n  func.func private @_where(%arg0: tensor<128xi1>, %arg1: tensor<128xf32>, %arg2: tensor<128xf32>) -> tensor<128xf32> {\n    %0 = stablehlo.select %arg0, %arg1, %arg2 : tensor<128xi1>, tensor<128xf32>\n    return %0 : tensor<128xf32>\n  }\n}\n", "cuda": "module @jit_branch_fujv attributes {mhlo.num_partitions = 1 : i32, mhlo.num_replicas = 1 : i32} {\n  func.func public @main(%arg0: tensor<128xf32>) -> (tensor<128xf32> {jax.result_info = \"result\"}) {\n    %cst = stablehlo.constant dense<5.900000e-01> : tensor<f32>\n    %0 = stablehlo.broadcast_in_dim %cst, dims = [] : (tensor<f32>) -> tensor<128xf32>\n    %1 = stablehlo.compare  GT, %arg0, %0,  FLOAT : (tensor<128xf32>, tensor<128xf32>) -> tensor<128xi1>\n    %cst_0 = stablehlo.constant dense<1.900000e+00> : tensor<f32>\n    %2 = stablehlo.broadcast_in_dim %cst_0, dims = [] : (tensor<f32>) -> tensor<128xf32>\n    %3 = stablehlo.multiply %arg0, %2 : tensor<128xf32>\n    %cst_1 = stablehlo.constant dense<6.000000e-01> : tensor<f32>\n    %4 = stablehlo.broadcast_in_dim %cst_1, dims = [] : (tensor<f32>) -> tensor<128xf32>\n    %5 = stablehlo.add %arg0, %4 : tensor<128xf32>\n    %6 = call @_where(%1, %3, %5) : (tensor<128xi1>, tensor<128xf32>, tensor<128xf32>) -> tensor<128xf32>\n    return %6 : tensor<128xf32>\n  }\n  func.func private @_where(%arg0: tensor<128xi1>, %arg1: tensor<128xf32>, %arg2: tensor<128xf32>) -> tensor<128xf32> {\n    %0 = stablehlo.select %arg0, %arg1, %arg2 : tensor<128xi1>, tensor<128xf32>\n    return %0 : tensor<128xf32>\n  }\n}\n"}
{"id": 56, "kernel_name": "reduce_jvjb", "python": "import jax\nimport jax.numpy as jnp\n\n@jax.jit\ndef reduce_jvjb(a):\n    # Reduction (sum)\n    return jnp.sum(a)", "type": "generate_reduction_kernel", "cpp": "module @jit_reduce_jvjb attributes {mhlo.num_partitions = 1 : i32, mhlo.num_replicas = 1 : i32} {\n  func.func public @main(%arg0: tensor<128xf32>) -> (tensor<f32> {jax.result_info = \"result\"}) {\n    %cst = stablehlo.constant dense<0.000000e+00> : tensor<f32>\n    %0 = stablehlo.reduce(%arg0 init: %cst) applies stablehlo.add across dimensions = [0] : (tensor<128xf32>, tensor<f32>) -> tensor<f32>\n    return %0 : tensor<f32>\n  }\n}\n", "cuda": "module @jit_reduce_jvjb attributes {mhlo.num_partitions = 1 : i32, mhlo.num_replicas = 1 : i32} {\n  func.func public @main(%arg0: tensor<128xf32>) -> (tensor<f32> {jax.result_info = \"result\"}) {\n    %cst = stablehlo.constant dense<0.000000e+00> : tensor<f32>\n    %0 = stablehlo.reduce(%arg0 init: %cst) applies stablehlo.add across dimensions = [0] : (tensor<128xf32>, tensor<f32>) -> tensor<f32>\n    return %0 : tensor<f32>\n  }\n}\n"}
{"id": 57, "kernel_name": "vec_kfeg", "python": "import jax\nimport jax.numpy as jnp\n\n@jax.jit\ndef vec_kfeg(a, b):\n    # Vector dot product (row-wise for N x 3 arrays)\n    # a and b are expected to be shape (N, 3)\n    # contract over last axis\n    return jnp.sum(a * b, axis=-1)", "type": "generate_vector_kernel", "cpp": "module @jit_vec_kfeg attributes {mhlo.num_partitions = 1 : i32, mhlo.num_replicas = 1 : i32} {\n  func.func public @main(%arg0: tensor<128x3xf32>, %arg1: tensor<128x3xf32>) -> (tensor<128xf32> {jax.result_info = \"result\"}) {\n    %0 = stablehlo.multiply %arg0, %arg1 : tensor<128x3xf32>\n    %cst = stablehlo.constant dense<0.000000e+00> : tensor<f32>\n    %1 = stablehlo.reduce(%0 init: %cst) applies stablehlo.add across dimensions = [1] : (tensor<128x3xf32>, tensor<f32>) -> tensor<128xf32>\n    return %1 : tensor<128xf32>\n  }\n}\n", "cuda": "module @jit_vec_kfeg attributes {mhlo.num_partitions = 1 : i32, mhlo.num_replicas = 1 : i32} {\n  func.func public @main(%arg0: tensor<128x3xf32>, %arg1: tensor<128x3xf32>) -> (tensor<128xf32> {jax.result_info = \"result\"}) {\n    %0 = stablehlo.multiply %arg0, %arg1 : tensor<128x3xf32>\n    %cst = stablehlo.constant dense<0.000000e+00> : tensor<f32>\n    %1 = stablehlo.reduce(%0 init: %cst) applies stablehlo.add across dimensions = [1] : (tensor<128x3xf32>, tensor<f32>) -> tensor<128xf32>\n    return %1 : tensor<128xf32>\n  }\n}\n"}
{"id": 58, "kernel_name": "unary_dlus", "python": "import jax\nimport jax.numpy as jnp\n\n@jax.jit\ndef unary_dlus(a):\n    # Unary operation jnp.sin\n    return jnp.sin(a)", "type": "generate_unary_kernel", "cpp": "module @jit_unary_dlus attributes {mhlo.num_partitions = 1 : i32, mhlo.num_replicas = 1 : i32} {\n  func.func public @main(%arg0: tensor<128xf32>) -> (tensor<128xf32> {jax.result_info = \"result\"}) {\n    %0 = stablehlo.sine %arg0 : tensor<128xf32>\n    return %0 : tensor<128xf32>\n  }\n}\n", "cuda": "module @jit_unary_dlus attributes {mhlo.num_partitions = 1 : i32, mhlo.num_replicas = 1 : i32} {\n  func.func public @main(%arg0: tensor<128xf32>) -> (tensor<128xf32> {jax.result_info = \"result\"}) {\n    %0 = stablehlo.sine %arg0 : tensor<128xf32>\n    return %0 : tensor<128xf32>\n  }\n}\n"}
{"id": 59, "kernel_name": "compound_pfzy", "python": "import jax\nimport jax.numpy as jnp\n\n@jax.jit\ndef compound_pfzy(a, b, scale):\n    # Compound operations\n    x = a\n    y = b\n    result = (x + y) * scale\n    result = result - jnp.floor(result)\n    return jnp.abs(result)", "type": "generate_compound_kernel", "cpp": "module @jit_compound_pfzy attributes {mhlo.num_partitions = 1 : i32, mhlo.num_replicas = 1 : i32} {\n  func.func public @main(%arg0: tensor<128xf32>, %arg1: tensor<128xf32>, %arg2: tensor<f32>) -> (tensor<128xf32> {jax.result_info = \"result\"}) {\n    %0 = stablehlo.add %arg0, %arg1 : tensor<128xf32>\n    %1 = stablehlo.convert %arg2 : tensor<f32>\n    %2 = stablehlo.broadcast_in_dim %1, dims = [] : (tensor<f32>) -> tensor<128xf32>\n    %3 = stablehlo.multiply %0, %2 : tensor<128xf32>\n    %4 = stablehlo.floor %3 : tensor<128xf32>\n    %5 = stablehlo.subtract %3, %4 : tensor<128xf32>\n    %6 = stablehlo.abs %5 : tensor<128xf32>\n    return %6 : tensor<128xf32>\n  }\n}\n", "cuda": "module @jit_compound_pfzy attributes {mhlo.num_partitions = 1 : i32, mhlo.num_replicas = 1 : i32} {\n  func.func public @main(%arg0: tensor<128xf32>, %arg1: tensor<128xf32>, %arg2: tensor<f32>) -> (tensor<128xf32> {jax.result_info = \"result\"}) {\n    %0 = stablehlo.add %arg0, %arg1 : tensor<128xf32>\n    %1 = stablehlo.convert %arg2 : tensor<f32>\n    %2 = stablehlo.broadcast_in_dim %1, dims = [] : (tensor<f32>) -> tensor<128xf32>\n    %3 = stablehlo.multiply %0, %2 : tensor<128xf32>\n    %4 = stablehlo.floor %3 : tensor<128xf32>\n    %5 = stablehlo.subtract %3, %4 : tensor<128xf32>\n    %6 = stablehlo.abs %5 : tensor<128xf32>\n    return %6 : tensor<128xf32>\n  }\n}\n"}
{"id": 60, "kernel_name": "unary_dqes", "python": "import jax\nimport jax.numpy as jnp\n\n@jax.jit\ndef unary_dqes(a):\n    # Unary operation jnp.abs\n    return jnp.abs(a)", "type": "generate_unary_kernel", "cpp": "module @jit_unary_dqes attributes {mhlo.num_partitions = 1 : i32, mhlo.num_replicas = 1 : i32} {\n  func.func public @main(%arg0: tensor<128xf32>) -> (tensor<128xf32> {jax.result_info = \"result\"}) {\n    %0 = stablehlo.abs %arg0 : tensor<128xf32>\n    return %0 : tensor<128xf32>\n  }\n}\n", "cuda": "module @jit_unary_dqes attributes {mhlo.num_partitions = 1 : i32, mhlo.num_replicas = 1 : i32} {\n  func.func public @main(%arg0: tensor<128xf32>) -> (tensor<128xf32> {jax.result_info = \"result\"}) {\n    %0 = stablehlo.abs %arg0 : tensor<128xf32>\n    return %0 : tensor<128xf32>\n  }\n}\n"}
{"id": 61, "kernel_name": "multi_zlst", "python": "import jax\nimport jax.numpy as jnp\n\n@jax.jit\ndef multi_zlst(a, b):\n    # Multi-statement\n    temp1 = a + b\n    temp2 = jnp.sqrt(temp1)\n    return temp2 * a", "type": "generate_multi_statement_kernel", "cpp": "module @jit_multi_zlst attributes {mhlo.num_partitions = 1 : i32, mhlo.num_replicas = 1 : i32} {\n  func.func public @main(%arg0: tensor<128xf32>, %arg1: tensor<128xf32>) -> (tensor<128xf32> {jax.result_info = \"result\"}) {\n    %0 = stablehlo.add %arg0, %arg1 : tensor<128xf32>\n    %1 = stablehlo.sqrt %0 : tensor<128xf32>\n    %2 = stablehlo.multiply %1, %arg0 : tensor<128xf32>\n    return %2 : tensor<128xf32>\n  }\n}\n", "cuda": "module @jit_multi_zlst attributes {mhlo.num_partitions = 1 : i32, mhlo.num_replicas = 1 : i32} {\n  func.func public @main(%arg0: tensor<128xf32>, %arg1: tensor<128xf32>) -> (tensor<128xf32> {jax.result_info = \"result\"}) {\n    %0 = stablehlo.add %arg0, %arg1 : tensor<128xf32>\n    %1 = stablehlo.sqrt %0 : tensor<128xf32>\n    %2 = stablehlo.multiply %1, %arg0 : tensor<128xf32>\n    return %2 : tensor<128xf32>\n  }\n}\n"}
{"id": 62, "kernel_name": "elementwise_ywtf", "python": "import jax\nimport jax.numpy as jnp\n\n@jax.jit\ndef elementwise_ywtf(a, b):\n    # Elementwise -\n    return a - b", "type": "generate_simple_elementwise", "cpp": "module @jit_elementwise_ywtf attributes {mhlo.num_partitions = 1 : i32, mhlo.num_replicas = 1 : i32} {\n  func.func public @main(%arg0: tensor<128xf32>, %arg1: tensor<128xf32>) -> (tensor<128xf32> {jax.result_info = \"result\"}) {\n    %0 = stablehlo.subtract %arg0, %arg1 : tensor<128xf32>\n    return %0 : tensor<128xf32>\n  }\n}\n", "cuda": "module @jit_elementwise_ywtf attributes {mhlo.num_partitions = 1 : i32, mhlo.num_replicas = 1 : i32} {\n  func.func public @main(%arg0: tensor<128xf32>, %arg1: tensor<128xf32>) -> (tensor<128xf32> {jax.result_info = \"result\"}) {\n    %0 = stablehlo.subtract %arg0, %arg1 : tensor<128xf32>\n    return %0 : tensor<128xf32>\n  }\n}\n"}
{"id": 63, "kernel_name": "compound_wjuy", "python": "import jax\nimport jax.numpy as jnp\n\n@jax.jit\ndef compound_wjuy(a, b, scale):\n    # Compound operations\n    x = a\n    y = b\n    result = (x + y) * scale\n    result = result - jnp.floor(result)\n    return jnp.abs(result)", "type": "generate_compound_kernel", "cpp": "module @jit_compound_wjuy attributes {mhlo.num_partitions = 1 : i32, mhlo.num_replicas = 1 : i32} {\n  func.func public @main(%arg0: tensor<128xf32>, %arg1: tensor<128xf32>, %arg2: tensor<f32>) -> (tensor<128xf32> {jax.result_info = \"result\"}) {\n    %0 = stablehlo.add %arg0, %arg1 : tensor<128xf32>\n    %1 = stablehlo.convert %arg2 : tensor<f32>\n    %2 = stablehlo.broadcast_in_dim %1, dims = [] : (tensor<f32>) -> tensor<128xf32>\n    %3 = stablehlo.multiply %0, %2 : tensor<128xf32>\n    %4 = stablehlo.floor %3 : tensor<128xf32>\n    %5 = stablehlo.subtract %3, %4 : tensor<128xf32>\n    %6 = stablehlo.abs %5 : tensor<128xf32>\n    return %6 : tensor<128xf32>\n  }\n}\n", "cuda": "module @jit_compound_wjuy attributes {mhlo.num_partitions = 1 : i32, mhlo.num_replicas = 1 : i32} {\n  func.func public @main(%arg0: tensor<128xf32>, %arg1: tensor<128xf32>, %arg2: tensor<f32>) -> (tensor<128xf32> {jax.result_info = \"result\"}) {\n    %0 = stablehlo.add %arg0, %arg1 : tensor<128xf32>\n    %1 = stablehlo.convert %arg2 : tensor<f32>\n    %2 = stablehlo.broadcast_in_dim %1, dims = [] : (tensor<f32>) -> tensor<128xf32>\n    %3 = stablehlo.multiply %0, %2 : tensor<128xf32>\n    %4 = stablehlo.floor %3 : tensor<128xf32>\n    %5 = stablehlo.subtract %3, %4 : tensor<128xf32>\n    %6 = stablehlo.abs %5 : tensor<128xf32>\n    return %6 : tensor<128xf32>\n  }\n}\n"}
{"id": 64, "kernel_name": "multi_sxay", "python": "import jax\nimport jax.numpy as jnp\n\n@jax.jit\ndef multi_sxay(a, b):\n    # Multi-statement\n    temp1 = a - b\n    temp2 = jnp.sin(temp1)\n    return temp2 + a", "type": "generate_multi_statement_kernel", "cpp": "module @jit_multi_sxay attributes {mhlo.num_partitions = 1 : i32, mhlo.num_replicas = 1 : i32} {\n  func.func public @main(%arg0: tensor<128xf32>, %arg1: tensor<128xf32>) -> (tensor<128xf32> {jax.result_info = \"result\"}) {\n    %0 = stablehlo.subtract %arg0, %arg1 : tensor<128xf32>\n    %1 = stablehlo.sine %0 : tensor<128xf32>\n    %2 = stablehlo.add %1, %arg0 : tensor<128xf32>\n    return %2 : tensor<128xf32>\n  }\n}\n", "cuda": "module @jit_multi_sxay attributes {mhlo.num_partitions = 1 : i32, mhlo.num_replicas = 1 : i32} {\n  func.func public @main(%arg0: tensor<128xf32>, %arg1: tensor<128xf32>) -> (tensor<128xf32> {jax.result_info = \"result\"}) {\n    %0 = stablehlo.subtract %arg0, %arg1 : tensor<128xf32>\n    %1 = stablehlo.sine %0 : tensor<128xf32>\n    %2 = stablehlo.add %1, %arg0 : tensor<128xf32>\n    return %2 : tensor<128xf32>\n  }\n}\n"}
{"id": 65, "kernel_name": "branch_gpzr", "python": "import jax\nimport jax.numpy as jnp\n\n@jax.jit\ndef branch_gpzr(a):\n    # Branching with where\n    # if a > -0.03: a - 1.6 else: a + 1.9\n    return jnp.where(a > -0.03, a - 1.6, a + 1.9)", "type": "generate_branch_kernel", "cpp": "module @jit_branch_gpzr attributes {mhlo.num_partitions = 1 : i32, mhlo.num_replicas = 1 : i32} {\n  func.func public @main(%arg0: tensor<128xf32>) -> (tensor<128xf32> {jax.result_info = \"result\"}) {\n    %cst = stablehlo.constant dense<-3.000000e-02> : tensor<f32>\n    %0 = stablehlo.broadcast_in_dim %cst, dims = [] : (tensor<f32>) -> tensor<128xf32>\n    %1 = stablehlo.compare  GT, %arg0, %0,  FLOAT : (tensor<128xf32>, tensor<128xf32>) -> tensor<128xi1>\n    %cst_0 = stablehlo.constant dense<1.600000e+00> : tensor<f32>\n    %2 = stablehlo.broadcast_in_dim %cst_0, dims = [] : (tensor<f32>) -> tensor<128xf32>\n    %3 = stablehlo.subtract %arg0, %2 : tensor<128xf32>\n    %cst_1 = stablehlo.constant dense<1.900000e+00> : tensor<f32>\n    %4 = stablehlo.broadcast_in_dim %cst_1, dims = [] : (tensor<f32>) -> tensor<128xf32>\n    %5 = stablehlo.add %arg0, %4 : tensor<128xf32>\n    %6 = call @_where(%1, %3, %5) : (tensor<128xi1>, tensor<128xf32>, tensor<128xf32>) -> tensor<128xf32>\n    return %6 : tensor<128xf32>\n  }\n  func.func private @_where(%arg0: tensor<128xi1>, %arg1: tensor<128xf32>, %arg2: tensor<128xf32>) -> tensor<128xf32> {\n    %0 = stablehlo.select %arg0, %arg1, %arg2 : tensor<128xi1>, tensor<128xf32>\n    return %0 : tensor<128xf32>\n  }\n}\n", "cuda": "module @jit_branch_gpzr attributes {mhlo.num_partitions = 1 : i32, mhlo.num_replicas = 1 : i32} {\n  func.func public @main(%arg0: tensor<128xf32>) -> (tensor<128xf32> {jax.result_info = \"result\"}) {\n    %cst = stablehlo.constant dense<-3.000000e-02> : tensor<f32>\n    %0 = stablehlo.broadcast_in_dim %cst, dims = [] : (tensor<f32>) -> tensor<128xf32>\n    %1 = stablehlo.compare  GT, %arg0, %0,  FLOAT : (tensor<128xf32>, tensor<128xf32>) -> tensor<128xi1>\n    %cst_0 = stablehlo.constant dense<1.600000e+00> : tensor<f32>\n    %2 = stablehlo.broadcast_in_dim %cst_0, dims = [] : (tensor<f32>) -> tensor<128xf32>\n    %3 = stablehlo.subtract %arg0, %2 : tensor<128xf32>\n    %cst_1 = stablehlo.constant dense<1.900000e+00> : tensor<f32>\n    %4 = stablehlo.broadcast_in_dim %cst_1, dims = [] : (tensor<f32>) -> tensor<128xf32>\n    %5 = stablehlo.add %arg0, %4 : tensor<128xf32>\n    %6 = call @_where(%1, %3, %5) : (tensor<128xi1>, tensor<128xf32>, tensor<128xf32>) -> tensor<128xf32>\n    return %6 : tensor<128xf32>\n  }\n  func.func private @_where(%arg0: tensor<128xi1>, %arg1: tensor<128xf32>, %arg2: tensor<128xf32>) -> tensor<128xf32> {\n    %0 = stablehlo.select %arg0, %arg1, %arg2 : tensor<128xi1>, tensor<128xf32>\n    return %0 : tensor<128xf32>\n  }\n}\n"}
{"id": 66, "kernel_name": "unary_dvwk", "python": "import jax\nimport jax.numpy as jnp\n\n@jax.jit\ndef unary_dvwk(a):\n    # Unary operation jnp.sin\n    return jnp.sin(a)", "type": "generate_unary_kernel", "cpp": "module @jit_unary_dvwk attributes {mhlo.num_partitions = 1 : i32, mhlo.num_replicas = 1 : i32} {\n  func.func public @main(%arg0: tensor<128xf32>) -> (tensor<128xf32> {jax.result_info = \"result\"}) {\n    %0 = stablehlo.sine %arg0 : tensor<128xf32>\n    return %0 : tensor<128xf32>\n  }\n}\n", "cuda": "module @jit_unary_dvwk attributes {mhlo.num_partitions = 1 : i32, mhlo.num_replicas = 1 : i32} {\n  func.func public @main(%arg0: tensor<128xf32>) -> (tensor<128xf32> {jax.result_info = \"result\"}) {\n    %0 = stablehlo.sine %arg0 : tensor<128xf32>\n    return %0 : tensor<128xf32>\n  }\n}\n"}
{"id": 67, "kernel_name": "loop_hloc", "python": "import jax\nimport jax.numpy as jnp\n\n@jax.jit\ndef loop_hloc(a, n):\n    # Loop operation\n    def body_fun(i, val):\n        return val * a\n    \n    # We apply the body_fun n times starting from 0.0\n    # Since 'a' is an array, this operates elementwise across 'a'\n    init_val = jnp.zeros_like(a)\n    return jax.lax.fori_loop(0, n, body_fun, init_val)", "type": "generate_loop_kernel", "cpp": "module @jit_loop_hloc attributes {mhlo.num_partitions = 1 : i32, mhlo.num_replicas = 1 : i32} {\n  func.func public @main(%arg0: tensor<128xf32>, %arg1: tensor<i32>) -> (tensor<128xf32> {jax.result_info = \"result\"}) {\n    %cst = stablehlo.constant dense<0.000000e+00> : tensor<f32>\n    %0 = stablehlo.broadcast_in_dim %cst, dims = [] : (tensor<f32>) -> tensor<128xf32>\n    %c = stablehlo.constant dense<0> : tensor<i32>\n    %1:4 = stablehlo.while(%iterArg = %arg0, %iterArg_0 = %c, %iterArg_1 = %arg1, %iterArg_2 = %0) : tensor<128xf32>, tensor<i32>, tensor<i32>, tensor<128xf32>\n    cond {\n      %2 = stablehlo.compare  LT, %iterArg_0, %iterArg_1,  SIGNED : (tensor<i32>, tensor<i32>) -> tensor<i1>\n      stablehlo.return %2 : tensor<i1>\n    } do {\n      %c_3 = stablehlo.constant dense<1> : tensor<i32>\n      %2 = stablehlo.add %iterArg_0, %c_3 : tensor<i32>\n      %3 = stablehlo.multiply %iterArg_2, %iterArg : tensor<128xf32>\n      stablehlo.return %iterArg, %2, %iterArg_1, %3 : tensor<128xf32>, tensor<i32>, tensor<i32>, tensor<128xf32>\n    }\n    return %1#3 : tensor<128xf32>\n  }\n}\n", "cuda": "module @jit_loop_hloc attributes {mhlo.num_partitions = 1 : i32, mhlo.num_replicas = 1 : i32} {\n  func.func public @main(%arg0: tensor<128xf32>, %arg1: tensor<i32>) -> (tensor<128xf32> {jax.result_info = \"result\"}) {\n    %cst = stablehlo.constant dense<0.000000e+00> : tensor<f32>\n    %0 = stablehlo.broadcast_in_dim %cst, dims = [] : (tensor<f32>) -> tensor<128xf32>\n    %c = stablehlo.constant dense<0> : tensor<i32>\n    %1:4 = stablehlo.while(%iterArg = %arg0, %iterArg_0 = %c, %iterArg_1 = %arg1, %iterArg_2 = %0) : tensor<128xf32>, tensor<i32>, tensor<i32>, tensor<128xf32>\n    cond {\n      %2 = stablehlo.compare  LT, %iterArg_0, %iterArg_1,  SIGNED : (tensor<i32>, tensor<i32>) -> tensor<i1>\n      stablehlo.return %2 : tensor<i1>\n    } do {\n      %c_3 = stablehlo.constant dense<1> : tensor<i32>\n      %2 = stablehlo.add %iterArg_0, %c_3 : tensor<i32>\n      %3 = stablehlo.multiply %iterArg_2, %iterArg : tensor<128xf32>\n      stablehlo.return %iterArg, %2, %iterArg_1, %3 : tensor<128xf32>, tensor<i32>, tensor<i32>, tensor<128xf32>\n    }\n    return %1#3 : tensor<128xf32>\n  }\n}\n"}
{"id": 68, "kernel_name": "vec_ykvg", "python": "import jax\nimport jax.numpy as jnp\n\n@jax.jit\ndef vec_ykvg(a):\n    # Vector length (row-wise for N x 3 arrays)\n    return jnp.linalg.norm(a, axis=-1)", "type": "generate_vector_kernel", "cpp": "module @jit_vec_ykvg attributes {mhlo.num_partitions = 1 : i32, mhlo.num_replicas = 1 : i32} {\n  func.func public @main(%arg0: tensor<128x3xf32>) -> (tensor<128xf32> {jax.result_info = \"result\"}) {\n    %0 = call @norm(%arg0) : (tensor<128x3xf32>) -> tensor<128xf32>\n    return %0 : tensor<128xf32>\n  }\n  func.func private @norm(%arg0: tensor<128x3xf32>) -> tensor<128xf32> {\n    %0 = stablehlo.multiply %arg0, %arg0 : tensor<128x3xf32>\n    %cst = stablehlo.constant dense<0.000000e+00> : tensor<f32>\n    %1 = stablehlo.reduce(%0 init: %cst) applies stablehlo.add across dimensions = [1] : (tensor<128x3xf32>, tensor<f32>) -> tensor<128xf32>\n    %2 = stablehlo.sqrt %1 : tensor<128xf32>\n    return %2 : tensor<128xf32>\n  }\n}\n", "cuda": "module @jit_vec_ykvg attributes {mhlo.num_partitions = 1 : i32, mhlo.num_replicas = 1 : i32} {\n  func.func public @main(%arg0: tensor<128x3xf32>) -> (tensor<128xf32> {jax.result_info = \"result\"}) {\n    %0 = call @norm(%arg0) : (tensor<128x3xf32>) -> tensor<128xf32>\n    return %0 : tensor<128xf32>\n  }\n  func.func private @norm(%arg0: tensor<128x3xf32>) -> tensor<128xf32> {\n    %0 = stablehlo.multiply %arg0, %arg0 : tensor<128x3xf32>\n    %cst = stablehlo.constant dense<0.000000e+00> : tensor<f32>\n    %1 = stablehlo.reduce(%0 init: %cst) applies stablehlo.add across dimensions = [1] : (tensor<128x3xf32>, tensor<f32>) -> tensor<128xf32>\n    %2 = stablehlo.sqrt %1 : tensor<128xf32>\n    return %2 : tensor<128xf32>\n  }\n}\n"}
{"id": 69, "kernel_name": "branch_vfym", "python": "import jax\nimport jax.numpy as jnp\n\n@jax.jit\ndef branch_vfym(a):\n    # Branching with where\n    # if a > -0.2: a * 2.1 else: a + 2.2\n    return jnp.where(a > -0.2, a * 2.1, a + 2.2)", "type": "generate_branch_kernel", "cpp": "module @jit_branch_vfym attributes {mhlo.num_partitions = 1 : i32, mhlo.num_replicas = 1 : i32} {\n  func.func public @main(%arg0: tensor<128xf32>) -> (tensor<128xf32> {jax.result_info = \"result\"}) {\n    %cst = stablehlo.constant dense<-2.000000e-01> : tensor<f32>\n    %0 = stablehlo.broadcast_in_dim %cst, dims = [] : (tensor<f32>) -> tensor<128xf32>\n    %1 = stablehlo.compare  GT, %arg0, %0,  FLOAT : (tensor<128xf32>, tensor<128xf32>) -> tensor<128xi1>\n    %cst_0 = stablehlo.constant dense<2.100000e+00> : tensor<f32>\n    %2 = stablehlo.broadcast_in_dim %cst_0, dims = [] : (tensor<f32>) -> tensor<128xf32>\n    %3 = stablehlo.multiply %arg0, %2 : tensor<128xf32>\n    %cst_1 = stablehlo.constant dense<2.200000e+00> : tensor<f32>\n    %4 = stablehlo.broadcast_in_dim %cst_1, dims = [] : (tensor<f32>) -> tensor<128xf32>\n    %5 = stablehlo.add %arg0, %4 : tensor<128xf32>\n    %6 = call @_where(%1, %3, %5) : (tensor<128xi1>, tensor<128xf32>, tensor<128xf32>) -> tensor<128xf32>\n    return %6 : tensor<128xf32>\n  }\n  func.func private @_where(%arg0: tensor<128xi1>, %arg1: tensor<128xf32>, %arg2: tensor<128xf32>) -> tensor<128xf32> {\n    %0 = stablehlo.select %arg0, %arg1, %arg2 : tensor<128xi1>, tensor<128xf32>\n    return %0 : tensor<128xf32>\n  }\n}\n", "cuda": "module @jit_branch_vfym attributes {mhlo.num_partitions = 1 : i32, mhlo.num_replicas = 1 : i32} {\n  func.func public @main(%arg0: tensor<128xf32>) -> (tensor<128xf32> {jax.result_info = \"result\"}) {\n    %cst = stablehlo.constant dense<-2.000000e-01> : tensor<f32>\n    %0 = stablehlo.broadcast_in_dim %cst, dims = [] : (tensor<f32>) -> tensor<128xf32>\n    %1 = stablehlo.compare  GT, %arg0, %0,  FLOAT : (tensor<128xf32>, tensor<128xf32>) -> tensor<128xi1>\n    %cst_0 = stablehlo.constant dense<2.100000e+00> : tensor<f32>\n    %2 = stablehlo.broadcast_in_dim %cst_0, dims = [] : (tensor<f32>) -> tensor<128xf32>\n    %3 = stablehlo.multiply %arg0, %2 : tensor<128xf32>\n    %cst_1 = stablehlo.constant dense<2.200000e+00> : tensor<f32>\n    %4 = stablehlo.broadcast_in_dim %cst_1, dims = [] : (tensor<f32>) -> tensor<128xf32>\n    %5 = stablehlo.add %arg0, %4 : tensor<128xf32>\n    %6 = call @_where(%1, %3, %5) : (tensor<128xi1>, tensor<128xf32>, tensor<128xf32>) -> tensor<128xf32>\n    return %6 : tensor<128xf32>\n  }\n  func.func private @_where(%arg0: tensor<128xi1>, %arg1: tensor<128xf32>, %arg2: tensor<128xf32>) -> tensor<128xf32> {\n    %0 = stablehlo.select %arg0, %arg1, %arg2 : tensor<128xi1>, tensor<128xf32>\n    return %0 : tensor<128xf32>\n  }\n}\n"}
{"id": 70, "kernel_name": "multi_mrqs", "python": "import jax\nimport jax.numpy as jnp\n\n@jax.jit\ndef multi_mrqs(a, b):\n    # Multi-statement\n    temp1 = a - b\n    temp2 = jnp.abs(temp1)\n    return temp2 * a", "type": "generate_multi_statement_kernel", "cpp": "module @jit_multi_mrqs attributes {mhlo.num_partitions = 1 : i32, mhlo.num_replicas = 1 : i32} {\n  func.func public @main(%arg0: tensor<128xf32>, %arg1: tensor<128xf32>) -> (tensor<128xf32> {jax.result_info = \"result\"}) {\n    %0 = stablehlo.subtract %arg0, %arg1 : tensor<128xf32>\n    %1 = stablehlo.abs %0 : tensor<128xf32>\n    %2 = stablehlo.multiply %1, %arg0 : tensor<128xf32>\n    return %2 : tensor<128xf32>\n  }\n}\n", "cuda": "module @jit_multi_mrqs attributes {mhlo.num_partitions = 1 : i32, mhlo.num_replicas = 1 : i32} {\n  func.func public @main(%arg0: tensor<128xf32>, %arg1: tensor<128xf32>) -> (tensor<128xf32> {jax.result_info = \"result\"}) {\n    %0 = stablehlo.subtract %arg0, %arg1 : tensor<128xf32>\n    %1 = stablehlo.abs %0 : tensor<128xf32>\n    %2 = stablehlo.multiply %1, %arg0 : tensor<128xf32>\n    return %2 : tensor<128xf32>\n  }\n}\n"}
{"id": 71, "kernel_name": "elementwise_awsa", "python": "import jax\nimport jax.numpy as jnp\n\n@jax.jit\ndef elementwise_awsa(a, b):\n    # Elementwise *\n    return a * b", "type": "generate_simple_elementwise", "cpp": "module @jit_elementwise_awsa attributes {mhlo.num_partitions = 1 : i32, mhlo.num_replicas = 1 : i32} {\n  func.func public @main(%arg0: tensor<128xf32>, %arg1: tensor<128xf32>) -> (tensor<128xf32> {jax.result_info = \"result\"}) {\n    %0 = stablehlo.multiply %arg0, %arg1 : tensor<128xf32>\n    return %0 : tensor<128xf32>\n  }\n}\n", "cuda": "module @jit_elementwise_awsa attributes {mhlo.num_partitions = 1 : i32, mhlo.num_replicas = 1 : i32} {\n  func.func public @main(%arg0: tensor<128xf32>, %arg1: tensor<128xf32>) -> (tensor<128xf32> {jax.result_info = \"result\"}) {\n    %0 = stablehlo.multiply %arg0, %arg1 : tensor<128xf32>\n    return %0 : tensor<128xf32>\n  }\n}\n"}
{"id": 72, "kernel_name": "branch_gcrg", "python": "import jax\nimport jax.numpy as jnp\n\n@jax.jit\ndef branch_gcrg(a):\n    # Branching with where\n    # if a > 0.25: a + 3.0 else: a * 2.2\n    return jnp.where(a > 0.25, a + 3.0, a * 2.2)", "type": "generate_branch_kernel", "cpp": "module @jit_branch_gcrg attributes {mhlo.num_partitions = 1 : i32, mhlo.num_replicas = 1 : i32} {\n  func.func public @main(%arg0: tensor<128xf32>) -> (tensor<128xf32> {jax.result_info = \"result\"}) {\n    %cst = stablehlo.constant dense<2.500000e-01> : tensor<f32>\n    %0 = stablehlo.broadcast_in_dim %cst, dims = [] : (tensor<f32>) -> tensor<128xf32>\n    %1 = stablehlo.compare  GT, %arg0, %0,  FLOAT : (tensor<128xf32>, tensor<128xf32>) -> tensor<128xi1>\n    %cst_0 = stablehlo.constant dense<3.000000e+00> : tensor<f32>\n    %2 = stablehlo.broadcast_in_dim %cst_0, dims = [] : (tensor<f32>) -> tensor<128xf32>\n    %3 = stablehlo.add %arg0, %2 : tensor<128xf32>\n    %cst_1 = stablehlo.constant dense<2.200000e+00> : tensor<f32>\n    %4 = stablehlo.broadcast_in_dim %cst_1, dims = [] : (tensor<f32>) -> tensor<128xf32>\n    %5 = stablehlo.multiply %arg0, %4 : tensor<128xf32>\n    %6 = call @_where(%1, %3, %5) : (tensor<128xi1>, tensor<128xf32>, tensor<128xf32>) -> tensor<128xf32>\n    return %6 : tensor<128xf32>\n  }\n  func.func private @_where(%arg0: tensor<128xi1>, %arg1: tensor<128xf32>, %arg2: tensor<128xf32>) -> tensor<128xf32> {\n    %0 = stablehlo.select %arg0, %arg1, %arg2 : tensor<128xi1>, tensor<128xf32>\n    return %0 : tensor<128xf32>\n  }\n}\n", "cuda": "module @jit_branch_gcrg attributes {mhlo.num_partitions = 1 : i32, mhlo.num_replicas = 1 : i32} {\n  func.func public @main(%arg0: tensor<128xf32>) -> (tensor<128xf32> {jax.result_info = \"result\"}) {\n    %cst = stablehlo.constant dense<2.500000e-01> : tensor<f32>\n    %0 = stablehlo.broadcast_in_dim %cst, dims = [] : (tensor<f32>) -> tensor<128xf32>\n    %1 = stablehlo.compare  GT, %arg0, %0,  FLOAT : (tensor<128xf32>, tensor<128xf32>) -> tensor<128xi1>\n    %cst_0 = stablehlo.constant dense<3.000000e+00> : tensor<f32>\n    %2 = stablehlo.broadcast_in_dim %cst_0, dims = [] : (tensor<f32>) -> tensor<128xf32>\n    %3 = stablehlo.add %arg0, %2 : tensor<128xf32>\n    %cst_1 = stablehlo.constant dense<2.200000e+00> : tensor<f32>\n    %4 = stablehlo.broadcast_in_dim %cst_1, dims = [] : (tensor<f32>) -> tensor<128xf32>\n    %5 = stablehlo.multiply %arg0, %4 : tensor<128xf32>\n    %6 = call @_where(%1, %3, %5) : (tensor<128xi1>, tensor<128xf32>, tensor<128xf32>) -> tensor<128xf32>\n    return %6 : tensor<128xf32>\n  }\n  func.func private @_where(%arg0: tensor<128xi1>, %arg1: tensor<128xf32>, %arg2: tensor<128xf32>) -> tensor<128xf32> {\n    %0 = stablehlo.select %arg0, %arg1, %arg2 : tensor<128xi1>, tensor<128xf32>\n    return %0 : tensor<128xf32>\n  }\n}\n"}
{"id": 73, "kernel_name": "loop_xfcc", "python": "import jax\nimport jax.numpy as jnp\n\n@jax.jit\ndef loop_xfcc(a, n):\n    # Loop operation\n    def body_fun(i, val):\n        return val * a\n    \n    # We apply the body_fun n times starting from 0.0\n    # Since 'a' is an array, this operates elementwise across 'a'\n    init_val = jnp.zeros_like(a)\n    return jax.lax.fori_loop(0, n, body_fun, init_val)", "type": "generate_loop_kernel", "cpp": "module @jit_loop_xfcc attributes {mhlo.num_partitions = 1 : i32, mhlo.num_replicas = 1 : i32} {\n  func.func public @main(%arg0: tensor<128xf32>, %arg1: tensor<i32>) -> (tensor<128xf32> {jax.result_info = \"result\"}) {\n    %cst = stablehlo.constant dense<0.000000e+00> : tensor<f32>\n    %0 = stablehlo.broadcast_in_dim %cst, dims = [] : (tensor<f32>) -> tensor<128xf32>\n    %c = stablehlo.constant dense<0> : tensor<i32>\n    %1:4 = stablehlo.while(%iterArg = %arg0, %iterArg_0 = %c, %iterArg_1 = %arg1, %iterArg_2 = %0) : tensor<128xf32>, tensor<i32>, tensor<i32>, tensor<128xf32>\n    cond {\n      %2 = stablehlo.compare  LT, %iterArg_0, %iterArg_1,  SIGNED : (tensor<i32>, tensor<i32>) -> tensor<i1>\n      stablehlo.return %2 : tensor<i1>\n    } do {\n      %c_3 = stablehlo.constant dense<1> : tensor<i32>\n      %2 = stablehlo.add %iterArg_0, %c_3 : tensor<i32>\n      %3 = stablehlo.multiply %iterArg_2, %iterArg : tensor<128xf32>\n      stablehlo.return %iterArg, %2, %iterArg_1, %3 : tensor<128xf32>, tensor<i32>, tensor<i32>, tensor<128xf32>\n    }\n    return %1#3 : tensor<128xf32>\n  }\n}\n", "cuda": "module @jit_loop_xfcc attributes {mhlo.num_partitions = 1 : i32, mhlo.num_replicas = 1 : i32} {\n  func.func public @main(%arg0: tensor<128xf32>, %arg1: tensor<i32>) -> (tensor<128xf32> {jax.result_info = \"result\"}) {\n    %cst = stablehlo.constant dense<0.000000e+00> : tensor<f32>\n    %0 = stablehlo.broadcast_in_dim %cst, dims = [] : (tensor<f32>) -> tensor<128xf32>\n    %c = stablehlo.constant dense<0> : tensor<i32>\n    %1:4 = stablehlo.while(%iterArg = %arg0, %iterArg_0 = %c, %iterArg_1 = %arg1, %iterArg_2 = %0) : tensor<128xf32>, tensor<i32>, tensor<i32>, tensor<128xf32>\n    cond {\n      %2 = stablehlo.compare  LT, %iterArg_0, %iterArg_1,  SIGNED : (tensor<i32>, tensor<i32>) -> tensor<i1>\n      stablehlo.return %2 : tensor<i1>\n    } do {\n      %c_3 = stablehlo.constant dense<1> : tensor<i32>\n      %2 = stablehlo.add %iterArg_0, %c_3 : tensor<i32>\n      %3 = stablehlo.multiply %iterArg_2, %iterArg : tensor<128xf32>\n      stablehlo.return %iterArg, %2, %iterArg_1, %3 : tensor<128xf32>, tensor<i32>, tensor<i32>, tensor<128xf32>\n    }\n    return %1#3 : tensor<128xf32>\n  }\n}\n"}
{"id": 74, "kernel_name": "compound_vpsa", "python": "import jax\nimport jax.numpy as jnp\n\n@jax.jit\ndef compound_vpsa(a, b, scale):\n    # Compound operations\n    x = a\n    y = b\n    result = (x + y) * scale\n    result = result - jnp.floor(result)\n    return jnp.abs(result)", "type": "generate_compound_kernel", "cpp": "module @jit_compound_vpsa attributes {mhlo.num_partitions = 1 : i32, mhlo.num_replicas = 1 : i32} {\n  func.func public @main(%arg0: tensor<128xf32>, %arg1: tensor<128xf32>, %arg2: tensor<f32>) -> (tensor<128xf32> {jax.result_info = \"result\"}) {\n    %0 = stablehlo.add %arg0, %arg1 : tensor<128xf32>\n    %1 = stablehlo.convert %arg2 : tensor<f32>\n    %2 = stablehlo.broadcast_in_dim %1, dims = [] : (tensor<f32>) -> tensor<128xf32>\n    %3 = stablehlo.multiply %0, %2 : tensor<128xf32>\n    %4 = stablehlo.floor %3 : tensor<128xf32>\n    %5 = stablehlo.subtract %3, %4 : tensor<128xf32>\n    %6 = stablehlo.abs %5 : tensor<128xf32>\n    return %6 : tensor<128xf32>\n  }\n}\n", "cuda": "module @jit_compound_vpsa attributes {mhlo.num_partitions = 1 : i32, mhlo.num_replicas = 1 : i32} {\n  func.func public @main(%arg0: tensor<128xf32>, %arg1: tensor<128xf32>, %arg2: tensor<f32>) -> (tensor<128xf32> {jax.result_info = \"result\"}) {\n    %0 = stablehlo.add %arg0, %arg1 : tensor<128xf32>\n    %1 = stablehlo.convert %arg2 : tensor<f32>\n    %2 = stablehlo.broadcast_in_dim %1, dims = [] : (tensor<f32>) -> tensor<128xf32>\n    %3 = stablehlo.multiply %0, %2 : tensor<128xf32>\n    %4 = stablehlo.floor %3 : tensor<128xf32>\n    %5 = stablehlo.subtract %3, %4 : tensor<128xf32>\n    %6 = stablehlo.abs %5 : tensor<128xf32>\n    return %6 : tensor<128xf32>\n  }\n}\n"}
{"id": 75, "kernel_name": "branch_geke", "python": "import jax\nimport jax.numpy as jnp\n\n@jax.jit\ndef branch_geke(a):\n    # Branching with where\n    # if a > -0.19: a + 1.8 else: a * 1.9\n    return jnp.where(a > -0.19, a + 1.8, a * 1.9)", "type": "generate_branch_kernel", "cpp": "module @jit_branch_geke attributes {mhlo.num_partitions = 1 : i32, mhlo.num_replicas = 1 : i32} {\n  func.func public @main(%arg0: tensor<128xf32>) -> (tensor<128xf32> {jax.result_info = \"result\"}) {\n    %cst = stablehlo.constant dense<-1.900000e-01> : tensor<f32>\n    %0 = stablehlo.broadcast_in_dim %cst, dims = [] : (tensor<f32>) -> tensor<128xf32>\n    %1 = stablehlo.compare  GT, %arg0, %0,  FLOAT : (tensor<128xf32>, tensor<128xf32>) -> tensor<128xi1>\n    %cst_0 = stablehlo.constant dense<1.800000e+00> : tensor<f32>\n    %2 = stablehlo.broadcast_in_dim %cst_0, dims = [] : (tensor<f32>) -> tensor<128xf32>\n    %3 = stablehlo.add %arg0, %2 : tensor<128xf32>\n    %cst_1 = stablehlo.constant dense<1.900000e+00> : tensor<f32>\n    %4 = stablehlo.broadcast_in_dim %cst_1, dims = [] : (tensor<f32>) -> tensor<128xf32>\n    %5 = stablehlo.multiply %arg0, %4 : tensor<128xf32>\n    %6 = call @_where(%1, %3, %5) : (tensor<128xi1>, tensor<128xf32>, tensor<128xf32>) -> tensor<128xf32>\n    return %6 : tensor<128xf32>\n  }\n  func.func private @_where(%arg0: tensor<128xi1>, %arg1: tensor<128xf32>, %arg2: tensor<128xf32>) -> tensor<128xf32> {\n    %0 = stablehlo.select %arg0, %arg1, %arg2 : tensor<128xi1>, tensor<128xf32>\n    return %0 : tensor<128xf32>\n  }\n}\n", "cuda": "module @jit_branch_geke attributes {mhlo.num_partitions = 1 : i32, mhlo.num_replicas = 1 : i32} {\n  func.func public @main(%arg0: tensor<128xf32>) -> (tensor<128xf32> {jax.result_info = \"result\"}) {\n    %cst = stablehlo.constant dense<-1.900000e-01> : tensor<f32>\n    %0 = stablehlo.broadcast_in_dim %cst, dims = [] : (tensor<f32>) -> tensor<128xf32>\n    %1 = stablehlo.compare  GT, %arg0, %0,  FLOAT : (tensor<128xf32>, tensor<128xf32>) -> tensor<128xi1>\n    %cst_0 = stablehlo.constant dense<1.800000e+00> : tensor<f32>\n    %2 = stablehlo.broadcast_in_dim %cst_0, dims = [] : (tensor<f32>) -> tensor<128xf32>\n    %3 = stablehlo.add %arg0, %2 : tensor<128xf32>\n    %cst_1 = stablehlo.constant dense<1.900000e+00> : tensor<f32>\n    %4 = stablehlo.broadcast_in_dim %cst_1, dims = [] : (tensor<f32>) -> tensor<128xf32>\n    %5 = stablehlo.multiply %arg0, %4 : tensor<128xf32>\n    %6 = call @_where(%1, %3, %5) : (tensor<128xi1>, tensor<128xf32>, tensor<128xf32>) -> tensor<128xf32>\n    return %6 : tensor<128xf32>\n  }\n  func.func private @_where(%arg0: tensor<128xi1>, %arg1: tensor<128xf32>, %arg2: tensor<128xf32>) -> tensor<128xf32> {\n    %0 = stablehlo.select %arg0, %arg1, %arg2 : tensor<128xi1>, tensor<128xf32>\n    return %0 : tensor<128xf32>\n  }\n}\n"}
{"id": 76, "kernel_name": "unary_secj", "python": "import jax\nimport jax.numpy as jnp\n\n@jax.jit\ndef unary_secj(a):\n    # Unary operation jnp.sqrt\n    return jnp.sqrt(a)", "type": "generate_unary_kernel", "cpp": "module @jit_unary_secj attributes {mhlo.num_partitions = 1 : i32, mhlo.num_replicas = 1 : i32} {\n  func.func public @main(%arg0: tensor<128xf32>) -> (tensor<128xf32> {jax.result_info = \"result\"}) {\n    %0 = stablehlo.sqrt %arg0 : tensor<128xf32>\n    return %0 : tensor<128xf32>\n  }\n}\n", "cuda": "module @jit_unary_secj attributes {mhlo.num_partitions = 1 : i32, mhlo.num_replicas = 1 : i32} {\n  func.func public @main(%arg0: tensor<128xf32>) -> (tensor<128xf32> {jax.result_info = \"result\"}) {\n    %0 = stablehlo.sqrt %arg0 : tensor<128xf32>\n    return %0 : tensor<128xf32>\n  }\n}\n"}
{"id": 77, "kernel_name": "loop_yeuo", "python": "import jax\nimport jax.numpy as jnp\n\n@jax.jit\ndef loop_yeuo(a, n):\n    # Loop operation\n    def body_fun(i, val):\n        return val * a\n    \n    # We apply the body_fun n times starting from 0.0\n    # Since 'a' is an array, this operates elementwise across 'a'\n    init_val = jnp.zeros_like(a)\n    return jax.lax.fori_loop(0, n, body_fun, init_val)", "type": "generate_loop_kernel", "cpp": "module @jit_loop_yeuo attributes {mhlo.num_partitions = 1 : i32, mhlo.num_replicas = 1 : i32} {\n  func.func public @main(%arg0: tensor<128xf32>, %arg1: tensor<i32>) -> (tensor<128xf32> {jax.result_info = \"result\"}) {\n    %cst = stablehlo.constant dense<0.000000e+00> : tensor<f32>\n    %0 = stablehlo.broadcast_in_dim %cst, dims = [] : (tensor<f32>) -> tensor<128xf32>\n    %c = stablehlo.constant dense<0> : tensor<i32>\n    %1:4 = stablehlo.while(%iterArg = %arg0, %iterArg_0 = %c, %iterArg_1 = %arg1, %iterArg_2 = %0) : tensor<128xf32>, tensor<i32>, tensor<i32>, tensor<128xf32>\n    cond {\n      %2 = stablehlo.compare  LT, %iterArg_0, %iterArg_1,  SIGNED : (tensor<i32>, tensor<i32>) -> tensor<i1>\n      stablehlo.return %2 : tensor<i1>\n    } do {\n      %c_3 = stablehlo.constant dense<1> : tensor<i32>\n      %2 = stablehlo.add %iterArg_0, %c_3 : tensor<i32>\n      %3 = stablehlo.multiply %iterArg_2, %iterArg : tensor<128xf32>\n      stablehlo.return %iterArg, %2, %iterArg_1, %3 : tensor<128xf32>, tensor<i32>, tensor<i32>, tensor<128xf32>\n    }\n    return %1#3 : tensor<128xf32>\n  }\n}\n", "cuda": "module @jit_loop_yeuo attributes {mhlo.num_partitions = 1 : i32, mhlo.num_replicas = 1 : i32} {\n  func.func public @main(%arg0: tensor<128xf32>, %arg1: tensor<i32>) -> (tensor<128xf32> {jax.result_info = \"result\"}) {\n    %cst = stablehlo.constant dense<0.000000e+00> : tensor<f32>\n    %0 = stablehlo.broadcast_in_dim %cst, dims = [] : (tensor<f32>) -> tensor<128xf32>\n    %c = stablehlo.constant dense<0> : tensor<i32>\n    %1:4 = stablehlo.while(%iterArg = %arg0, %iterArg_0 = %c, %iterArg_1 = %arg1, %iterArg_2 = %0) : tensor<128xf32>, tensor<i32>, tensor<i32>, tensor<128xf32>\n    cond {\n      %2 = stablehlo.compare  LT, %iterArg_0, %iterArg_1,  SIGNED : (tensor<i32>, tensor<i32>) -> tensor<i1>\n      stablehlo.return %2 : tensor<i1>\n    } do {\n      %c_3 = stablehlo.constant dense<1> : tensor<i32>\n      %2 = stablehlo.add %iterArg_0, %c_3 : tensor<i32>\n      %3 = stablehlo.multiply %iterArg_2, %iterArg : tensor<128xf32>\n      stablehlo.return %iterArg, %2, %iterArg_1, %3 : tensor<128xf32>, tensor<i32>, tensor<i32>, tensor<128xf32>\n    }\n    return %1#3 : tensor<128xf32>\n  }\n}\n"}
{"id": 78, "kernel_name": "nested_neyq", "python": "import jax\nimport jax.numpy as jnp\n\n@jax.jit\ndef nested_neyq(a):\n    # Nested branching\n    # if a > 0.09:\n    #   if a > 1.44: a * 3.0\n    #   else: a * 2.0\n    # else: a * 0.5\n    \n    inner_branch = jnp.where(a > 1.44, a * 3.0, a * 2.0)\n    return jnp.where(a > 0.09, inner_branch, a * 0.5)", "type": "generate_nested_branch_kernel", "cpp": "module @jit_nested_neyq attributes {mhlo.num_partitions = 1 : i32, mhlo.num_replicas = 1 : i32} {\n  func.func public @main(%arg0: tensor<128xf32>) -> (tensor<128xf32> {jax.result_info = \"result\"}) {\n    %cst = stablehlo.constant dense<1.440000e+00> : tensor<f32>\n    %0 = stablehlo.broadcast_in_dim %cst, dims = [] : (tensor<f32>) -> tensor<128xf32>\n    %1 = stablehlo.compare  GT, %arg0, %0,  FLOAT : (tensor<128xf32>, tensor<128xf32>) -> tensor<128xi1>\n    %cst_0 = stablehlo.constant dense<3.000000e+00> : tensor<f32>\n    %2 = stablehlo.broadcast_in_dim %cst_0, dims = [] : (tensor<f32>) -> tensor<128xf32>\n    %3 = stablehlo.multiply %arg0, %2 : tensor<128xf32>\n    %cst_1 = stablehlo.constant dense<2.000000e+00> : tensor<f32>\n    %4 = stablehlo.broadcast_in_dim %cst_1, dims = [] : (tensor<f32>) -> tensor<128xf32>\n    %5 = stablehlo.multiply %arg0, %4 : tensor<128xf32>\n    %6 = call @_where(%1, %3, %5) : (tensor<128xi1>, tensor<128xf32>, tensor<128xf32>) -> tensor<128xf32>\n    %cst_2 = stablehlo.constant dense<9.000000e-02> : tensor<f32>\n    %7 = stablehlo.broadcast_in_dim %cst_2, dims = [] : (tensor<f32>) -> tensor<128xf32>\n    %8 = stablehlo.compare  GT, %arg0, %7,  FLOAT : (tensor<128xf32>, tensor<128xf32>) -> tensor<128xi1>\n    %cst_3 = stablehlo.constant dense<5.000000e-01> : tensor<f32>\n    %9 = stablehlo.broadcast_in_dim %cst_3, dims = [] : (tensor<f32>) -> tensor<128xf32>\n    %10 = stablehlo.multiply %arg0, %9 : tensor<128xf32>\n    %11 = call @_where(%8, %6, %10) : (tensor<128xi1>, tensor<128xf32>, tensor<128xf32>) -> tensor<128xf32>\n    return %11 : tensor<128xf32>\n  }\n  func.func private @_where(%arg0: tensor<128xi1>, %arg1: tensor<128xf32>, %arg2: tensor<128xf32>) -> tensor<128xf32> {\n    %0 = stablehlo.select %arg0, %arg1, %arg2 : tensor<128xi1>, tensor<128xf32>\n    return %0 : tensor<128xf32>\n  }\n}\n", "cuda": "module @jit_nested_neyq attributes {mhlo.num_partitions = 1 : i32, mhlo.num_replicas = 1 : i32} {\n  func.func public @main(%arg0: tensor<128xf32>) -> (tensor<128xf32> {jax.result_info = \"result\"}) {\n    %cst = stablehlo.constant dense<1.440000e+00> : tensor<f32>\n    %0 = stablehlo.broadcast_in_dim %cst, dims = [] : (tensor<f32>) -> tensor<128xf32>\n    %1 = stablehlo.compare  GT, %arg0, %0,  FLOAT : (tensor<128xf32>, tensor<128xf32>) -> tensor<128xi1>\n    %cst_0 = stablehlo.constant dense<3.000000e+00> : tensor<f32>\n    %2 = stablehlo.broadcast_in_dim %cst_0, dims = [] : (tensor<f32>) -> tensor<128xf32>\n    %3 = stablehlo.multiply %arg0, %2 : tensor<128xf32>\n    %cst_1 = stablehlo.constant dense<2.000000e+00> : tensor<f32>\n    %4 = stablehlo.broadcast_in_dim %cst_1, dims = [] : (tensor<f32>) -> tensor<128xf32>\n    %5 = stablehlo.multiply %arg0, %4 : tensor<128xf32>\n    %6 = call @_where(%1, %3, %5) : (tensor<128xi1>, tensor<128xf32>, tensor<128xf32>) -> tensor<128xf32>\n    %cst_2 = stablehlo.constant dense<9.000000e-02> : tensor<f32>\n    %7 = stablehlo.broadcast_in_dim %cst_2, dims = [] : (tensor<f32>) -> tensor<128xf32>\n    %8 = stablehlo.compare  GT, %arg0, %7,  FLOAT : (tensor<128xf32>, tensor<128xf32>) -> tensor<128xi1>\n    %cst_3 = stablehlo.constant dense<5.000000e-01> : tensor<f32>\n    %9 = stablehlo.broadcast_in_dim %cst_3, dims = [] : (tensor<f32>) -> tensor<128xf32>\n    %10 = stablehlo.multiply %arg0, %9 : tensor<128xf32>\n    %11 = call @_where(%8, %6, %10) : (tensor<128xi1>, tensor<128xf32>, tensor<128xf32>) -> tensor<128xf32>\n    return %11 : tensor<128xf32>\n  }\n  func.func private @_where(%arg0: tensor<128xi1>, %arg1: tensor<128xf32>, %arg2: tensor<128xf32>) -> tensor<128xf32> {\n    %0 = stablehlo.select %arg0, %arg1, %arg2 : tensor<128xi1>, tensor<128xf32>\n    return %0 : tensor<128xf32>\n  }\n}\n"}
{"id": 79, "kernel_name": "scalar_arr_cpkx", "python": "import jax\nimport jax.numpy as jnp\n\n@jax.jit\ndef scalar_arr_cpkx(alpha, x, y):\n    # Scalar-array operations\n    return alpha * x * y", "type": "generate_scalar_array_op", "cpp": "module @jit_scalar_arr_cpkx attributes {mhlo.num_partitions = 1 : i32, mhlo.num_replicas = 1 : i32} {\n  func.func public @main(%arg0: tensor<f32>, %arg1: tensor<128xf32>, %arg2: tensor<128xf32>) -> (tensor<128xf32> {jax.result_info = \"result\"}) {\n    %0 = stablehlo.convert %arg0 : tensor<f32>\n    %1 = stablehlo.broadcast_in_dim %0, dims = [] : (tensor<f32>) -> tensor<128xf32>\n    %2 = stablehlo.multiply %1, %arg1 : tensor<128xf32>\n    %3 = stablehlo.multiply %2, %arg2 : tensor<128xf32>\n    return %3 : tensor<128xf32>\n  }\n}\n", "cuda": "module @jit_scalar_arr_cpkx attributes {mhlo.num_partitions = 1 : i32, mhlo.num_replicas = 1 : i32} {\n  func.func public @main(%arg0: tensor<f32>, %arg1: tensor<128xf32>, %arg2: tensor<128xf32>) -> (tensor<128xf32> {jax.result_info = \"result\"}) {\n    %0 = stablehlo.convert %arg0 : tensor<f32>\n    %1 = stablehlo.broadcast_in_dim %0, dims = [] : (tensor<f32>) -> tensor<128xf32>\n    %2 = stablehlo.multiply %1, %arg1 : tensor<128xf32>\n    %3 = stablehlo.multiply %2, %arg2 : tensor<128xf32>\n    return %3 : tensor<128xf32>\n  }\n}\n"}
{"id": 80, "kernel_name": "nested_nphy", "python": "import jax\nimport jax.numpy as jnp\n\n@jax.jit\ndef nested_nphy(a):\n    # Nested branching\n    # if a > 0.23:\n    #   if a > 1.26: a * 3.0\n    #   else: a * 2.0\n    # else: a * 0.5\n    \n    inner_branch = jnp.where(a > 1.26, a * 3.0, a * 2.0)\n    return jnp.where(a > 0.23, inner_branch, a * 0.5)", "type": "generate_nested_branch_kernel", "cpp": "module @jit_nested_nphy attributes {mhlo.num_partitions = 1 : i32, mhlo.num_replicas = 1 : i32} {\n  func.func public @main(%arg0: tensor<128xf32>) -> (tensor<128xf32> {jax.result_info = \"result\"}) {\n    %cst = stablehlo.constant dense<1.260000e+00> : tensor<f32>\n    %0 = stablehlo.broadcast_in_dim %cst, dims = [] : (tensor<f32>) -> tensor<128xf32>\n    %1 = stablehlo.compare  GT, %arg0, %0,  FLOAT : (tensor<128xf32>, tensor<128xf32>) -> tensor<128xi1>\n    %cst_0 = stablehlo.constant dense<3.000000e+00> : tensor<f32>\n    %2 = stablehlo.broadcast_in_dim %cst_0, dims = [] : (tensor<f32>) -> tensor<128xf32>\n    %3 = stablehlo.multiply %arg0, %2 : tensor<128xf32>\n    %cst_1 = stablehlo.constant dense<2.000000e+00> : tensor<f32>\n    %4 = stablehlo.broadcast_in_dim %cst_1, dims = [] : (tensor<f32>) -> tensor<128xf32>\n    %5 = stablehlo.multiply %arg0, %4 : tensor<128xf32>\n    %6 = call @_where(%1, %3, %5) : (tensor<128xi1>, tensor<128xf32>, tensor<128xf32>) -> tensor<128xf32>\n    %cst_2 = stablehlo.constant dense<2.300000e-01> : tensor<f32>\n    %7 = stablehlo.broadcast_in_dim %cst_2, dims = [] : (tensor<f32>) -> tensor<128xf32>\n    %8 = stablehlo.compare  GT, %arg0, %7,  FLOAT : (tensor<128xf32>, tensor<128xf32>) -> tensor<128xi1>\n    %cst_3 = stablehlo.constant dense<5.000000e-01> : tensor<f32>\n    %9 = stablehlo.broadcast_in_dim %cst_3, dims = [] : (tensor<f32>) -> tensor<128xf32>\n    %10 = stablehlo.multiply %arg0, %9 : tensor<128xf32>\n    %11 = call @_where(%8, %6, %10) : (tensor<128xi1>, tensor<128xf32>, tensor<128xf32>) -> tensor<128xf32>\n    return %11 : tensor<128xf32>\n  }\n  func.func private @_where(%arg0: tensor<128xi1>, %arg1: tensor<128xf32>, %arg2: tensor<128xf32>) -> tensor<128xf32> {\n    %0 = stablehlo.select %arg0, %arg1, %arg2 : tensor<128xi1>, tensor<128xf32>\n    return %0 : tensor<128xf32>\n  }\n}\n", "cuda": "module @jit_nested_nphy attributes {mhlo.num_partitions = 1 : i32, mhlo.num_replicas = 1 : i32} {\n  func.func public @main(%arg0: tensor<128xf32>) -> (tensor<128xf32> {jax.result_info = \"result\"}) {\n    %cst = stablehlo.constant dense<1.260000e+00> : tensor<f32>\n    %0 = stablehlo.broadcast_in_dim %cst, dims = [] : (tensor<f32>) -> tensor<128xf32>\n    %1 = stablehlo.compare  GT, %arg0, %0,  FLOAT : (tensor<128xf32>, tensor<128xf32>) -> tensor<128xi1>\n    %cst_0 = stablehlo.constant dense<3.000000e+00> : tensor<f32>\n    %2 = stablehlo.broadcast_in_dim %cst_0, dims = [] : (tensor<f32>) -> tensor<128xf32>\n    %3 = stablehlo.multiply %arg0, %2 : tensor<128xf32>\n    %cst_1 = stablehlo.constant dense<2.000000e+00> : tensor<f32>\n    %4 = stablehlo.broadcast_in_dim %cst_1, dims = [] : (tensor<f32>) -> tensor<128xf32>\n    %5 = stablehlo.multiply %arg0, %4 : tensor<128xf32>\n    %6 = call @_where(%1, %3, %5) : (tensor<128xi1>, tensor<128xf32>, tensor<128xf32>) -> tensor<128xf32>\n    %cst_2 = stablehlo.constant dense<2.300000e-01> : tensor<f32>\n    %7 = stablehlo.broadcast_in_dim %cst_2, dims = [] : (tensor<f32>) -> tensor<128xf32>\n    %8 = stablehlo.compare  GT, %arg0, %7,  FLOAT : (tensor<128xf32>, tensor<128xf32>) -> tensor<128xi1>\n    %cst_3 = stablehlo.constant dense<5.000000e-01> : tensor<f32>\n    %9 = stablehlo.broadcast_in_dim %cst_3, dims = [] : (tensor<f32>) -> tensor<128xf32>\n    %10 = stablehlo.multiply %arg0, %9 : tensor<128xf32>\n    %11 = call @_where(%8, %6, %10) : (tensor<128xi1>, tensor<128xf32>, tensor<128xf32>) -> tensor<128xf32>\n    return %11 : tensor<128xf32>\n  }\n  func.func private @_where(%arg0: tensor<128xi1>, %arg1: tensor<128xf32>, %arg2: tensor<128xf32>) -> tensor<128xf32> {\n    %0 = stablehlo.select %arg0, %arg1, %arg2 : tenso…
{"id": 967, "kernel_name": "unary_emcn", "python": "import jax\nimport jax.numpy as jnp\n\n@jax.jit\ndef unary_emcn(a):\n    # Unary operation jnp.abs\n    return jnp.abs(a)", "type": "generate_unary_kernel", "cpp": "module @jit_unary_emcn attributes {mhlo.num_partitions = 1 : i32, mhlo.num_replicas = 1 : i32} {\n  func.func public @main(%arg0: tensor<128xf32>) -> (tensor<128xf32> {jax.result_info = \"result\"}) {\n    %0 = stablehlo.abs %arg0 : tensor<128xf32>\n    return %0 : tensor<128xf32>\n  }\n}\n", "cuda": "module @jit_unary_emcn attributes {mhlo.num_partitions = 1 : i32, mhlo.num_replicas = 1 : i32} {\n  func.func public @main(%arg0: tensor<128xf32>) -> (tensor<128xf32> {jax.result_info = \"result\"}) {\n    %0 = stablehlo.abs %arg0 : tensor<128xf32>\n    return %0 : tensor<128xf32>\n  }\n}\n"}
{"id": 968, "kernel_name": "compound_rwgc", "python": "import jax\nimport jax.numpy as jnp\n\n@jax.jit\ndef compound_rwgc(a, b, scale):\n    # Compound operations\n    x = a\n    y = b\n    result = (x + y) * scale\n    result = result - jnp.floor(result)\n    return jnp.abs(result)", "type": "generate_compound_kernel", "cpp": "module @jit_compound_rwgc attributes {mhlo.num_partitions = 1 : i32, mhlo.num_replicas = 1 : i32} {\n  func.func public @main(%arg0: tensor<128xf32>, %arg1: tensor<128xf32>, %arg2: tensor<f32>) -> (tensor<128xf32> {jax.result_info = \"result\"}) {\n    %0 = stablehlo.add %arg0, %arg1 : tensor<128xf32>\n    %1 = stablehlo.convert %arg2 : tensor<f32>\n    %2 = stablehlo.broadcast_in_dim %1, dims = [] : (tensor<f32>) -> tensor<128xf32>\n    %3 = stablehlo.multiply %0, %2 : tensor<128xf32>\n    %4 = stablehlo.floor %3 : tensor<128xf32>\n    %5 = stablehlo.subtract %3, %4 : tensor<128xf32>\n    %6 = stablehlo.abs %5 : tensor<128xf32>\n    return %6 : tensor<128xf32>\n  }\n}\n", "cuda": "module @jit_compound_rwgc attributes {mhlo.num_partitions = 1 : i32, mhlo.num_replicas = 1 : i32} {\n  func.func public @main(%arg0: tensor<128xf32>, %arg1: tensor<128xf32>, %arg2: tensor<f32>) -> (tensor<128xf32> {jax.result_info = \"result\"}) {\n    %0 = stablehlo.add %arg0, %arg1 : tensor<128xf32>\n    %1 = stablehlo.convert %arg2 : tensor<f32>\n    %2 = stablehlo.broadcast_in_dim %1, dims = [] : (tensor<f32>) -> tensor<128xf32>\n    %3 = stablehlo.multiply %0, %2 : tensor<128xf32>\n    %4 = stablehlo.floor %3 : tensor<128xf32>\n    %5 = stablehlo.subtract %3, %4 : tensor<128xf32>\n    %6 = stablehlo.abs %5 : tensor<128xf32>\n    return %6 : tensor<128xf32>\n  }\n}\n"}
{"id": 969, "kernel_name": "reduce_jael", "python": "import jax\nimport jax.numpy as jnp\n\n@jax.jit\ndef reduce_jael(a):\n    # Reduction (sum)\n    return jnp.sum(a)", "type": "generate_reduction_kernel", "cpp": "module @jit_reduce_jael attributes {mhlo.num_partitions = 1 : i32, mhlo.num_replicas = 1 : i32} {\n  func.func public @main(%arg0: tensor<128xf32>) -> (tensor<f32> {jax.result_info = \"result\"}) {\n    %cst = stablehlo.constant dense<0.000000e+00> : tensor<f32>\n    %0 = stablehlo.reduce(%arg0 init: %cst) applies stablehlo.add across dimensions = [0] : (tensor<128xf32>, tensor<f32>) -> tensor<f32>\n    return %0 : tensor<f32>\n  }\n}\n", "cuda": "module @jit_reduce_jael attributes {mhlo.num_partitions = 1 : i32, mhlo.num_replicas = 1 : i32} {\n  func.func public @main(%arg0: tensor<128xf32>) -> (tensor<f32> {jax.result_info = \"result\"}) {\n    %cst = stablehlo.constant dense<0.000000e+00> : tensor<f32>\n    %0 = stablehlo.reduce(%arg0 init: %cst) applies stablehlo.add across dimensions = [0] : (tensor<128xf32>, tensor<f32>) -> tensor<f32>\n    return %0 : tensor<f32>\n  }\n}\n"}
{"id": 970, "kernel_name": "reduce_idfa", "python": "import jax\nimport jax.numpy as jnp\n\n@jax.jit\ndef reduce_idfa(a):\n    # Reduction (sum)\n    return jnp.sum(a)", "type": "generate_reduction_kernel", "cpp": "module @jit_reduce_idfa attributes {mhlo.num_partitions = 1 : i32, mhlo.num_replicas = 1 : i32} {\n  func.func public @main(%arg0: tensor<128xf32>) -> (tensor<f32> {jax.result_info = \"result\"}) {\n    %cst = stablehlo.constant dense<0.000000e+00> : tensor<f32>\n    %0 = stablehlo.reduce(%arg0 init: %cst) applies stablehlo.add across dimensions = [0] : (tensor<128xf32>, tensor<f32>) -> tensor<f32>\n    return %0 : tensor<f32>\n  }\n}\n", "cuda": "module @jit_reduce_idfa attributes {mhlo.num_partitions = 1 : i32, mhlo.num_replicas = 1 : i32} {\n  func.func public @main(%arg0: tensor<128xf32>) -> (tensor<f32> {jax.result_info = \"result\"}) {\n    %cst = stablehlo.constant dense<0.000000e+00> : tensor<f32>\n    %0 = stablehlo.reduce(%arg0 init: %cst) applies stablehlo.add across dimensions = [0] : (tensor<128xf32>, tensor<f32>) -> tensor<f32>\n    return %0 : tensor<f32>\n  }\n}\n"}
{"id": 971, "kernel_name": "multi_xtrs", "python": "import jax\nimport jax.numpy as jnp\n\n@jax.jit\ndef multi_xtrs(a, b):\n    # Multi-statement\n    temp1 = a * b\n    temp2 = jnp.sqrt(temp1)\n    return temp2 + a", "type": "generate_multi_statement_kernel", "cpp": "module @jit_multi_xtrs attributes {mhlo.num_partitions = 1 : i32, mhlo.num_replicas = 1 : i32} {\n  func.func public @main(%arg0: tensor<128xf32>, %arg1: tensor<128xf32>) -> (tensor<128xf32> {jax.result_info = \"result\"}) {\n    %0 = stablehlo.multiply %arg0, %arg1 : tensor<128xf32>\n    %1 = stablehlo.sqrt %0 : tensor<128xf32>\n    %2 = stablehlo.add %1, %arg0 : tensor<128xf32>\n    return %2 : tensor<128xf32>\n  }\n}\n", "cuda": "module @jit_multi_xtrs attributes {mhlo.num_partitions = 1 : i32, mhlo.num_replicas = 1 : i32} {\n  func.func public @main(%arg0: tensor<128xf32>, %arg1: tensor<128xf32>) -> (tensor<128xf32> {jax.result_info = \"result\"}) {\n    %0 = stablehlo.multiply %arg0, %arg1 : tensor<128xf32>\n    %1 = stablehlo.sqrt %0 : tensor<128xf32>\n    %2 = stablehlo.add %1, %arg0 : tensor<128xf32>\n    return %2 : tensor<128xf32>\n  }\n}\n"}
{"id": 972, "kernel_name": "nested_ngal", "python": "import jax\nimport jax.numpy as jnp\n\n@jax.jit\ndef nested_ngal(a):\n    # Nested branching\n    # if a > 0.47:\n    #   if a > 1.12: a * 3.0\n    #   else: a * 2.0\n    # else: a * 0.5\n    \n    inner_branch = jnp.where(a > 1.12, a * 3.0, a * 2.0)\n    return jnp.where(a > 0.47, inner_branch, a * 0.5)", "type": "generate_nested_branch_kernel", "cpp": "module @jit_nested_ngal attributes {mhlo.num_partitions = 1 : i32, mhlo.num_replicas = 1 : i32} {\n  func.func public @main(%arg0: tensor<128xf32>) -> (tensor<128xf32> {jax.result_info = \"result\"}) {\n    %cst = stablehlo.constant dense<1.120000e+00> : tensor<f32>\n    %0 = stablehlo.broadcast_in_dim %cst, dims = [] : (tensor<f32>) -> tensor<128xf32>\n    %1 = stablehlo.compare  GT, %arg0, %0,  FLOAT : (tensor<128xf32>, tensor<128xf32>) -> tensor<128xi1>\n    %cst_0 = stablehlo.constant dense<3.000000e+00> : tensor<f32>\n    %2 = stablehlo.broadcast_in_dim %cst_0, dims = [] : (tensor<f32>) -> tensor<128xf32>\n    %3 = stablehlo.multiply %arg0, %2 : tensor<128xf32>\n    %cst_1 = stablehlo.constant dense<2.000000e+00> : tensor<f32>\n    %4 = stablehlo.broadcast_in_dim %cst_1, dims = [] : (tensor<f32>) -> tensor<128xf32>\n    %5 = stablehlo.multiply %arg0, %4 : tensor<128xf32>\n    %6 = call @_where(%1, %3, %5) : (tensor<128xi1>, tensor<128xf32>, tensor<128xf32>) -> tensor<128xf32>\n    %cst_2 = stablehlo.constant dense<4.700000e-01> : tensor<f32>\n    %7 = stablehlo.broadcast_in_dim %cst_2, dims = [] : (tensor<f32>) -> tensor<128xf32>\n    %8 = stablehlo.compare  GT, %arg0, %7,  FLOAT : (tensor<128xf32>, tensor<128xf32>) -> tensor<128xi1>\n    %cst_3 = stablehlo.constant dense<5.000000e-01> : tensor<f32>\n    %9 = stablehlo.broadcast_in_dim %cst_3, dims = [] : (tensor<f32>) -> tensor<128xf32>\n    %10 = stablehlo.multiply %arg0, %9 : tensor<128xf32>\n    %11 = call @_where(%8, %6, %10) : (tensor<128xi1>, tensor<128xf32>, tensor<128xf32>) -> tensor<128xf32>\n    return %11 : tensor<128xf32>\n  }\n  func.func private @_where(%arg0: tensor<128xi1>, %arg1: tensor<128xf32>, %arg2: tensor<128xf32>) -> tensor<128xf32> {\n    %0 = stablehlo.select %arg0, %arg1, %arg2 : tensor<128xi1>, tensor<128xf32>\n    return %0 : tensor<128xf32>\n  }\n}\n", "cuda": "module @jit_nested_ngal attributes {mhlo.num_partitions = 1 : i32, mhlo.num_replicas = 1 : i32} {\n  func.func public @main(%arg0: tensor<128xf32>) -> (tensor<128xf32> {jax.result_info = \"result\"}) {\n    %cst = stablehlo.constant dense<1.120000e+00> : tensor<f32>\n    %0 = stablehlo.broadcast_in_dim %cst, dims = [] : (tensor<f32>) -> tensor<128xf32>\n    %1 = stablehlo.compare  GT, %arg0, %0,  FLOAT : (tensor<128xf32>, tensor<128xf32>) -> tensor<128xi1>\n    %cst_0 = stablehlo.constant dense<3.000000e+00> : tensor<f32>\n    %2 = stablehlo.broadcast_in_dim %cst_0, dims = [] : (tensor<f32>) -> tensor<128xf32>\n    %3 = stablehlo.multiply %arg0, %2 : tensor<128xf32>\n    %cst_1 = stablehlo.constant dense<2.000000e+00> : tensor<f32>\n    %4 = stablehlo.broadcast_in_dim %cst_1, dims = [] : (tensor<f32>) -> tensor<128xf32>\n    %5 = stablehlo.multiply %arg0, %4 : tensor<128xf32>\n    %6 = call @_where(%1, %3, %5) : (tensor<128xi1>, tensor<128xf32>, tensor<128xf32>) -> tensor<128xf32>\n    %cst_2 = stablehlo.constant dense<4.700000e-01> : tensor<f32>\n    %7 = stablehlo.broadcast_in_dim %cst_2, dims = [] : (tensor<f32>) -> tensor<128xf32>\n    %8 = stablehlo.compare  GT, %arg0, %7,  FLOAT : (tensor<128xf32>, tensor<128xf32>) -> tensor<128xi1>\n    %cst_3 = stablehlo.constant dense<5.000000e-01> : tensor<f32>\n    %9 = stablehlo.broadcast_in_dim %cst_3, dims = [] : (tensor<f32>) -> tensor<128xf32>\n    %10 = stablehlo.multiply %arg0, %9 : tensor<128xf32>\n    %11 = call @_where(%8, %6, %10) : (tensor<128xi1>, tensor<128xf32>, tensor<128xf32>) -> tensor<128xf32>\n    return %11 : tensor<128xf32>\n  }\n  func.func private @_where(%arg0: tensor<128xi1>, %arg1: tensor<128xf32>, %arg2: tensor<128xf32>) -> tensor<128xf32> {\n    %0 = stablehlo.select %arg0, %arg1, %arg2 : tensor<128xi1>, tensor<128xf32>\n    return %0 : tensor<128xf32>\n  }\n}\n"}
{"id": 973, "kernel_name": "scalar_arr_chym", "python": "import jax\nimport jax.numpy as jnp\n\n@jax.jit\ndef scalar_arr_chym(alpha, x, y):\n    # Scalar-array operations\n    return alpha * x * y", "type": "generate_scalar_array_op", "cpp": "module @jit_scalar_arr_chym attributes {mhlo.num_partitions = 1 : i32, mhlo.num_replicas = 1 : i32} {\n  func.func public @main(%arg0: tensor<f32>, %arg1: tensor<128xf32>, %arg2: tensor<128xf32>) -> (tensor<128xf32> {jax.result_info = \"result\"}) {\n    %0 = stablehlo.convert %arg0 : tensor<f32>\n    %1 = stablehlo.broadcast_in_dim %0, dims = [] : (tensor<f32>) -> tensor<128xf32>\n    %2 = stablehlo.multiply %1, %arg1 : tensor<128xf32>\n    %3 = stablehlo.multiply %2, %arg2 : tensor<128xf32>\n    return %3 : tensor<128xf32>\n  }\n}\n", "cuda": "module @jit_scalar_arr_chym attributes {mhlo.num_partitions = 1 : i32, mhlo.num_replicas = 1 : i32} {\n  func.func public @main(%arg0: tensor<f32>, %arg1: tensor<128xf32>, %arg2: tensor<128xf32>) -> (tensor<128xf32> {jax.result_info = \"result\"}) {\n    %0 = stablehlo.convert %arg0 : tensor<f32>\n    %1 = stablehlo.broadcast_in_dim %0, dims = [] : (tensor<f32>) -> tensor<128xf32>\n    %2 = stablehlo.multiply %1, %arg1 : tensor<128xf32>\n    %3 = stablehlo.multiply %2, %arg2 : tensor<128xf32>\n    return %3 : tensor<128xf32>\n  }\n}\n"}
{"id": 974, "kernel_name": "reduce_jkjo", "python": "import jax\nimport jax.numpy as jnp\n\n@jax.jit\ndef reduce_jkjo(a):\n    # Reduction (sum)\n    return jnp.sum(a)", "type": "generate_reduction_kernel", "cpp": "module @jit_reduce_jkjo attributes {mhlo.num_partitions = 1 : i32, mhlo.num_replicas = 1 : i32} {\n  func.func public @main(%arg0: tensor<128xf32>) -> (tensor<f32> {jax.result_info = \"result\"}) {\n    %cst = stablehlo.constant dense<0.000000e+00> : tensor<f32>\n    %0 = stablehlo.reduce(%arg0 init: %cst) applies stablehlo.add across dimensions = [0] : (tensor<128xf32>, tensor<f32>) -> tensor<f32>\n    return %0 : tensor<f32>\n  }\n}\n", "cuda": "module @jit_reduce_jkjo attributes {mhlo.num_partitions = 1 : i32, mhlo.num_replicas = 1 : i32} {\n  func.func public @main(%arg0: tensor<128xf32>) -> (tensor<f32> {jax.result_info = \"result\"}) {\n    %cst = stablehlo.constant dense<0.000000e+00> : tensor<f32>\n    %0 = stablehlo.reduce(%arg0 init: %cst) applies stablehlo.add across dimensions = [0] : (tensor<128xf32>, tensor<f32>) -> tensor<f32>\n    return %0 : tensor<f32>\n  }\n}\n"}
{"id": 975, "kernel_name": "multi_mqec", "python": "import jax\nimport jax.numpy as jnp\n\n@jax.jit\ndef multi_mqec(a, b):\n    # Multi-statement\n    temp1 = a - b\n    temp2 = jnp.sin(temp1)\n    return temp2 + a", "type": "generate_multi_statement_kernel", "cpp": "module @jit_multi_mqec attributes {mhlo.num_partitions = 1 : i32, mhlo.num_replicas = 1 : i32} {\n  func.func public @main(%arg0: tensor<128xf32>, %arg1: tensor<128xf32>) -> (tensor<128xf32> {jax.result_info = \"result\"}) {\n    %0 = stablehlo.subtract %arg0, %arg1 : tensor<128xf32>\n    %1 = stablehlo.sine %0 : tensor<128xf32>\n    %2 = stablehlo.add %1, %arg0 : tensor<128xf32>\n    return %2 : tensor<128xf32>\n  }\n}\n", "cuda": "module @jit_multi_mqec attributes {mhlo.num_partitions = 1 : i32, mhlo.num_replicas = 1 : i32} {\n  func.func public @main(%arg0: tensor<128xf32>, %arg1: tensor<128xf32>) -> (tensor<128xf32> {jax.result_info = \"result\"}) {\n    %0 = stablehlo.subtract %arg0, %arg1 : tensor<128xf32>\n    %1 = stablehlo.sine %0 : tensor<128xf32>\n    %2 = stablehlo.add %1, %arg0 : tensor<128xf32>\n    return %2 : tensor<128xf32>\n  }\n}\n"}
{"id": 976, "kernel_name": "vec_kusr", "python": "import jax\nimport jax.numpy as jnp\n\n@jax.jit\ndef vec_kusr(a):\n    # Vector length (row-wise for N x 3 arrays)\n    return jnp.linalg.norm(a, axis=-1)", "type": "generate_vector_kernel", "cpp": "module @jit_vec_kusr attributes {mhlo.num_partitions = 1 : i32, mhlo.num_replicas = 1 : i32} {\n  func.func public @main(%arg0: tensor<128x3xf32>) -> (tensor<128xf32> {jax.result_info = \"result\"}) {\n    %0 = call @norm(%arg0) : (tensor<128x3xf32>) -> tensor<128xf32>\n    return %0 : tensor<128xf32>\n  }\n  func.func private @norm(%arg0: tensor<128x3xf32>) -> tensor<128xf32> {\n    %0 = stablehlo.multiply %arg0, %arg0 : tensor<128x3xf32>\n    %cst = stablehlo.constant dense<0.000000e+00> : tensor<f32>\n    %1 = stablehlo.reduce(%0 init: %cst) applies stablehlo.add across dimensions = [1] : (tensor<128x3xf32>, tensor<f32>) -> tensor<128xf32>\n    %2 = stablehlo.sqrt %1 : tensor<128xf32>\n    return %2 : tensor<128xf32>\n  }\n}\n", "cuda": "module @jit_vec_kusr attributes {mhlo.num_partitions = 1 : i32, mhlo.num_replicas = 1 : i32} {\n  func.func public @main(%arg0: tensor<128x3xf32>) -> (tensor<128xf32> {jax.result_info = \"result\"}) {\n    %0 = call @norm(%arg0) : (tensor<128x3xf32>) -> tensor<128xf32>\n    return %0 : tensor<128xf32>\n  }\n  func.func private @norm(%arg0: tensor<128x3xf32>) -> tensor<128xf32> {\n    %0 = stablehlo.multiply %arg0, %arg0 : tensor<128x3xf32>\n    %cst = stablehlo.constant dense<0.000000e+00> : tensor<f32>\n    %1 = stablehlo.reduce(%0 init: %cst) applies stablehlo.add across dimensions = [1] : (tensor<128x3xf32>, tensor<f32>) -> tensor<128xf32>\n    %2 = stablehlo.sqrt %1 : tensor<128xf32>\n    return %2 : tensor<128xf32>\n  }\n}\n"}
{"id": 977, "kernel_name": "elementwise_aful", "python": "import jax\nimport jax.numpy as jnp\n\n@jax.jit\ndef elementwise_aful(a, b):\n    # Elementwise *\n    return a * b", "type": "generate_simple_elementwise", "cpp": "module @jit_elementwise_aful attributes {mhlo.num_partitions = 1 : i32, mhlo.num_replicas = 1 : i32} {\n  func.func public @main(%arg0: tensor<128xf32>, %arg1: tensor<128xf32>) -> (tensor<128xf32> {jax.result_info = \"result\"}) {\n    %0 = stablehlo.multiply %arg0, %arg1 : tensor<128xf32>\n    return %0 : tensor<128xf32>\n  }\n}\n", "cuda": "module @jit_elementwise_aful attributes {mhlo.num_partitions = 1 : i32, mhlo.num_replicas = 1 : i32} {\n  func.func public @main(%arg0: tensor<128xf32>, %arg1: tensor<128xf32>) -> (tensor<128xf32> {jax.result_info = \"result\"}) {\n    %0 = stablehlo.multiply %arg0, %arg1 : tensor<128xf32>\n    return %0 : tensor<128xf32>\n  }\n}\n"}
{"id": 978, "kernel_name": "scalar_arr_cmke", "python": "import jax\nimport jax.numpy as jnp\n\n@jax.jit\ndef scalar_arr_cmke(alpha, x, y):\n    # Scalar-array operations\n    return alpha + x * y", "type": "generate_scalar_array_op", "cpp": "module @jit_scalar_arr_cmke attributes {mhlo.num_partitions = 1 : i32, mhlo.num_replicas = 1 : i32} {\n  func.func public @main(%arg0: tensor<f32>, %arg1: tensor<128xf32>, %arg2: tensor<128xf32>) -> (tensor<128xf32> {jax.result_info = \"result\"}) {\n    %0 = stablehlo.multiply %arg1, %arg2 : tensor<128xf32>\n    %1 = stablehlo.convert %arg0 : tensor<f32>\n    %2 = stablehlo.broadcast_in_dim %1, dims = [] : (tensor<f32>) -> tensor<128xf32>\n    %3 = stablehlo.add %2, %0 : tensor<128xf32>\n    return %3 : tensor<128xf32>\n  }\n}\n", "cuda": "module @jit_scalar_arr_cmke attributes {mhlo.num_partitions = 1 : i32, mhlo.num_replicas = 1 : i32} {\n  func.func public @main(%arg0: tensor<f32>, %arg1: tensor<128xf32>, %arg2: tensor<128xf32>) -> (tensor<128xf32> {jax.result_info = \"result\"}) {\n    %0 = stablehlo.multiply %arg1, %arg2 : tensor<128xf32>\n    %1 = stablehlo.convert %arg0 : tensor<f32>\n    %2 = stablehlo.broadcast_in_dim %1, dims = [] : (tensor<f32>) -> tensor<128xf32>\n    %3 = stablehlo.add %2, %0 : tensor<128xf32>\n    return %3 : tensor<128xf32>\n  }\n}\n"}
{"id": 979, "kernel_name": "nested_negg", "python": "import jax\nimport jax.numpy as jnp\n\n@jax.jit\ndef nested_negg(a):\n    # Nested branching\n    # if a > -0.09:\n    #   if a > 0.93: a * 3.0\n    #   else: a * 2.0\n    # else: a * 0.5\n    \n    inner_branch = jnp.where(a > 0.93, a * 3.0, a * 2.0)\n    return jnp.where(a > -0.09, inner_branch, a * 0.5)", "type": "generate_nested_branch_kernel", "cpp": "module @jit_nested_negg attributes {mhlo.num_partitions = 1 : i32, mhlo.num_replicas = 1 : i32} {\n  func.func public @main(%arg0: tensor<128xf32>) -> (tensor<128xf32> {jax.result_info = \"result\"}) {\n    %cst = stablehlo.constant dense<9.300000e-01> : tensor<f32>\n    %0 = stablehlo.broadcast_in_dim %cst, dims = [] : (tensor<f32>) -> tensor<128xf32>\n    %1 = stablehlo.compare  GT, %arg0, %0,  FLOAT : (tensor<128xf32>, tensor<128xf32>) -> tensor<128xi1>\n    %cst_0 = stablehlo.constant dense<3.000000e+00> : tensor<f32>\n    %2 = stablehlo.broadcast_in_dim %cst_0, dims = [] : (tensor<f32>) -> tensor<128xf32>\n    %3 = stablehlo.multiply %arg0, %2 : tensor<128xf32>\n    %cst_1 = stablehlo.constant dense<2.000000e+00> : tensor<f32>\n    %4 = stablehlo.broadcast_in_dim %cst_1, dims = [] : (tensor<f32>) -> tensor<128xf32>\n    %5 = stablehlo.multiply %arg0, %4 : tensor<128xf32>\n    %6 = call @_where(%1, %3, %5) : (tensor<128xi1>, tensor<128xf32>, tensor<128xf32>) -> tensor<128xf32>\n    %cst_2 = stablehlo.constant dense<-9.000000e-02> : tensor<f32>\n    %7 = stablehlo.broadcast_in_dim %cst_2, dims = [] : (tensor<f32>) -> tensor<128xf32>\n    %8 = stablehlo.compare  GT, %arg0, %7,  FLOAT : (tensor<128xf32>, tensor<128xf32>) -> tensor<128xi1>\n    %cst_3 = stablehlo.constant dense<5.000000e-01> : tensor<f32>\n    %9 = stablehlo.broadcast_in_dim %cst_3, dims = [] : (tensor<f32>) -> tensor<128xf32>\n    %10 = stablehlo.multiply %arg0, %9 : tensor<128xf32>\n    %11 = call @_where(%8, %6, %10) : (tensor<128xi1>, tensor<128xf32>, tensor<128xf32>) -> tensor<128xf32>\n    return %11 : tensor<128xf32>\n  }\n  func.func private @_where(%arg0: tensor<128xi1>, %arg1: tensor<128xf32>, %arg2: tensor<128xf32>) -> tensor<128xf32> {\n    %0 = stablehlo.select %arg0, %arg1, %arg2 : tensor<128xi1>, tensor<128xf32>\n    return %0 : tensor<128xf32>\n  }\n}\n", "cuda": "module @jit_nested_negg attributes {mhlo.num_partitions = 1 : i32, mhlo.num_replicas = 1 : i32} {\n  func.func public @main(%arg0: tensor<128xf32>) -> (tensor<128xf32> {jax.result_info = \"result\"}) {\n    %cst = stablehlo.constant dense<9.300000e-01> : tensor<f32>\n    %0 = stablehlo.broadcast_in_dim %cst, dims = [] : (tensor<f32>) -> tensor<128xf32>\n    %1 = stablehlo.compare  GT, %arg0, %0,  FLOAT : (tensor<128xf32>, tensor<128xf32>) -> tensor<128xi1>\n    %cst_0 = stablehlo.constant dense<3.000000e+00> : tensor<f32>\n    %2 = stablehlo.broadcast_in_dim %cst_0, dims = [] : (tensor<f32>) -> tensor<128xf32>\n    %3 = stablehlo.multiply %arg0, %2 : tensor<128xf32>\n    %cst_1 = stablehlo.constant dense<2.000000e+00> : tensor<f32>\n    %4 = stablehlo.broadcast_in_dim %cst_1, dims = [] : (tensor<f32>) -> tensor<128xf32>\n    %5 = stablehlo.multiply %arg0, %4 : tensor<128xf32>\n    %6 = call @_where(%1, %3, %5) : (tensor<128xi1>, tensor<128xf32>, tensor<128xf32>) -> tensor<128xf32>\n    %cst_2 = stablehlo.constant dense<-9.000000e-02> : tensor<f32>\n    %7 = stablehlo.broadcast_in_dim %cst_2, dims = [] : (tensor<f32>) -> tensor<128xf32>\n    %8 = stablehlo.compare  GT, %arg0, %7,  FLOAT : (tensor<128xf32>, tensor<128xf32>) -> tensor<128xi1>\n    %cst_3 = stablehlo.constant dense<5.000000e-01> : tensor<f32>\n    %9 = stablehlo.broadcast_in_dim %cst_3, dims = [] : (tensor<f32>) -> tensor<128xf32>\n    %10 = stablehlo.multiply %arg0, %9 : tensor<128xf32>\n    %11 = call @_where(%8, %6, %10) : (tensor<128xi1>, tensor<128xf32>, tensor<128xf32>) -> tensor<128xf32>\n    return %11 : tensor<128xf32>\n  }\n  func.func private @_where(%arg0: tensor<128xi1>, %arg1: tensor<128xf32>, %arg2: tensor<128xf32>) -> tensor<128xf32> {\n    %0 = stablehlo.select %arg0, %arg1, %arg2 : tensor<128xi1>, tensor<128xf32>\n    return %0 : tensor<128xf32>\n  }\n}\n"}
{"id": 980, "kernel_name": "unary_dyjv", "python": "import jax\nimport jax.numpy as jnp\n\n@jax.jit\ndef unary_dyjv(a):\n    # Unary operation jnp.sqrt\n    return jnp.sqrt(a)", "type": "generate_unary_kernel", "cpp": "module @jit_unary_dyjv attributes {mhlo.num_partitions = 1 : i32, mhlo.num_replicas = 1 : i32} {\n  func.func public @main(%arg0: tensor<128xf32>) -> (tensor<128xf32> {jax.result_info = \"result\"}) {\n    %0 = stablehlo.sqrt %arg0 : tensor<128xf32>\n    return %0 : tensor<128xf32>\n  }\n}\n", "cuda": "module @jit_unary_dyjv attributes {mhlo.num_partitions = 1 : i32, mhlo.num_replicas = 1 : i32} {\n  func.func public @main(%arg0: tensor<128xf32>) -> (tensor<128xf32> {jax.result_info = \"result\"}) {\n    %0 = stablehlo.sqrt %arg0 : tensor<128xf32>\n    return %0 : tensor<128xf32>\n  }\n}\n"}
{"id": 981, "kernel_name": "multi_mlzk", "python": "import jax\nimport jax.numpy as jnp\n\n@jax.jit\ndef multi_mlzk(a, b):\n    # Multi-statement\n    temp1 = a + b\n    temp2 = jnp.cos(temp1)\n    return temp2 * a", "type": "generate_multi_statement_kernel", "cpp": "module @jit_multi_mlzk attributes {mhlo.num_partitions = 1 : i32, mhlo.num_replicas = 1 : i32} {\n  func.func public @main(%arg0: tensor<128xf32>, %arg1: tensor<128xf32>) -> (tensor<128xf32> {jax.result_info = \"result\"}) {\n    %0 = stablehlo.add %arg0, %arg1 : tensor<128xf32>\n    %1 = stablehlo.cosine %0 : tensor<128xf32>\n    %2 = stablehlo.multiply %1, %arg0 : tensor<128xf32>\n    return %2 : tensor<128xf32>\n  }\n}\n", "cuda": "module @jit_multi_mlzk attributes {mhlo.num_partitions = 1 : i32, mhlo.num_replicas = 1 : i32} {\n  func.func public @main(%arg0: tensor<128xf32>, %arg1: tensor<128xf32>) -> (tensor<128xf32> {jax.result_info = \"result\"}) {\n    %0 = stablehlo.add %arg0, %arg1 : tensor<128xf32>\n    %1 = stablehlo.cosine %0 : tensor<128xf32>\n    %2 = stablehlo.multiply %1, %arg0 : tensor<128xf32>\n    return %2 : tensor<128xf32>\n  }\n}\n"}
{"id": 982, "kernel_name": "elementwise_umkv", "python": "import jax\nimport jax.numpy as jnp\n\n@jax.jit\ndef elementwise_umkv(a, b):\n    # Elementwise *\n    return a * b", "type": "generate_simple_elementwise", "cpp": "module @jit_elementwise_umkv attributes {mhlo.num_partitions = 1 : i32, mhlo.num_replicas = 1 : i32} {\n  func.func public @main(%arg0: tensor<128xf32>, %arg1: tensor<128xf32>) -> (tensor<128xf32> {jax.result_info = \"result\"}) {\n    %0 = stablehlo.multiply %arg0, %arg1 : tensor<128xf32>\n    return %0 : tensor<128xf32>\n  }\n}\n", "cuda": "module @jit_elementwise_umkv attributes {mhlo.num_partitions = 1 : i32, mhlo.num_replicas = 1 : i32} {\n  func.func public @main(%arg0: tensor<128xf32>, %arg1: tensor<128xf32>) -> (tensor<128xf32> {jax.result_info = \"result\"}) {\n    %0 = stablehlo.multiply %arg0, %arg1 : tensor<128xf32>\n    return %0 : tensor<128xf32>\n  }\n}\n"}
{"id": 983, "kernel_name": "branch_fbif", "python": "import jax\nimport jax.numpy as jnp\n\n@jax.jit\ndef branch_fbif(a):\n    # Branching with where\n    # if a > 0.35: a - 1.3 else: a * 2.7\n    return jnp.where(a > 0.35, a - 1.3, a * 2.7)", "type": "generate_branch_kernel", "cpp": "module @jit_branch_fbif attributes {mhlo.num_partitions = 1 : i32, mhlo.num_replicas = 1 : i32} {\n  func.func public @main(%arg0: tensor<128xf32>) -> (tensor<128xf32> {jax.result_info = \"result\"}) {\n    %cst = stablehlo.constant dense<3.500000e-01> : tensor<f32>\n    %0 = stablehlo.broadcast_in_dim %cst, dims = [] : (tensor<f32>) -> tensor<128xf32>\n    %1 = stablehlo.compare  GT, %arg0, %0,  FLOAT : (tensor<128xf32>, tensor<128xf32>) -> tensor<128xi1>\n    %cst_0 = stablehlo.constant dense<1.300000e+00> : tensor<f32>\n    %2 = stablehlo.broadcast_in_dim %cst_0, dims = [] : (tensor<f32>) -> tensor<128xf32>\n    %3 = stablehlo.subtract %arg0, %2 : tensor<128xf32>\n    %cst_1 = stablehlo.constant dense<2.700000e+00> : tensor<f32>\n    %4 = stablehlo.broadcast_in_dim %cst_1, dims = [] : (tensor<f32>) -> tensor<128xf32>\n    %5 = stablehlo.multiply %arg0, %4 : tensor<128xf32>\n    %6 = call @_where(%1, %3, %5) : (tensor<128xi1>, tensor<128xf32>, tensor<128xf32>) -> tensor<128xf32>\n    return %6 : tensor<128xf32>\n  }\n  func.func private @_where(%arg0: tensor<128xi1>, %arg1: tensor<128xf32>, %arg2: tensor<128xf32>) -> tensor<128xf32> {\n    %0 = stablehlo.select %arg0, %arg1, %arg2 : tensor<128xi1>, tensor<128xf32>\n    return %0 : tensor<128xf32>\n  }\n}\n", "cuda": "module @jit_branch_fbif attributes {mhlo.num_partitions = 1 : i32, mhlo.num_replicas = 1 : i32} {\n  func.func public @main(%arg0: tensor<128xf32>) -> (tensor<128xf32> {jax.result_info = \"result\"}) {\n    %cst = stablehlo.constant dense<3.500000e-01> : tensor<f32>\n    %0 = stablehlo.broadcast_in_dim %cst, dims = [] : (tensor<f32>) -> tensor<128xf32>\n    %1 = stablehlo.compare  GT, %arg0, %0,  FLOAT : (tensor<128xf32>, tensor<128xf32>) -> tensor<128xi1>\n    %cst_0 = stablehlo.constant dense<1.300000e+00> : tensor<f32>\n    %2 = stablehlo.broadcast_in_dim %cst_0, dims = [] : (tensor<f32>) -> tensor<128xf32>\n    %3 = stablehlo.subtract %arg0, %2 : tensor<128xf32>\n    %cst_1 = stablehlo.constant dense<2.700000e+00> : tensor<f32>\n    %4 = stablehlo.broadcast_in_dim %cst_1, dims = [] : (tensor<f32>) -> tensor<128xf32>\n    %5 = stablehlo.multiply %arg0, %4 : tensor<128xf32>\n    %6 = call @_where(%1, %3, %5) : (tensor<128xi1>, tensor<128xf32>, tensor<128xf32>) -> tensor<128xf32>\n    return %6 : tensor<128xf32>\n  }\n  func.func private @_where(%arg0: tensor<128xi1>, %arg1: tensor<128xf32>, %arg2: tensor<128xf32>) -> tensor<128xf32> {\n    %0 = stablehlo.select %arg0, %arg1, %arg2 : tensor<128xi1>, tensor<128xf32>\n    return %0 : tensor<128xf32>\n  }\n}\n"}
{"id": 984, "kernel_name": "elementwise_amkg", "python": "import jax\nimport jax.numpy as jnp\n\n@jax.jit\ndef elementwise_amkg(a, b):\n    # Elementwise *\n    return a * b", "type": "generate_simple_elementwise", "cpp": "module @jit_elementwise_amkg attributes {mhlo.num_partitions = 1 : i32, mhlo.num_replicas = 1 : i32} {\n  func.func public @main(%arg0: tensor<128xf32>, %arg1: tensor<128xf32>) -> (tensor<128xf32> {jax.result_info = \"result\"}) {\n    %0 = stablehlo.multiply %arg0, %arg1 : tensor<128xf32>\n    return %0 : tensor<128xf32>\n  }\n}\n", "cuda": "module @jit_elementwise_amkg attributes {mhlo.num_partitions = 1 : i32, mhlo.num_replicas = 1 : i32} {\n  func.func public @main(%arg0: tensor<128xf32>, %arg1: tensor<128xf32>) -> (tensor<128xf32> {jax.result_info = \"result\"}) {\n    %0 = stablehlo.multiply %arg0, %arg1 : tensor<128xf32>\n    return %0 : tensor<128xf32>\n  }\n}\n"}
{"id": 985, "kernel_name": "elementwise_axox", "python": "import jax\nimport jax.numpy as jnp\n\n@jax.jit\ndef elementwise_axox(a, b):\n    # Elementwise -\n    return a - b", "type": "generate_simple_elementwise", "cpp": "module @jit_elementwise_axox attributes {mhlo.num_partitions = 1 : i32, mhlo.num_replicas = 1 : i32} {\n  func.func public @main(%arg0: tensor<128xf32>, %arg1: tensor<128xf32>) -> (tensor<128xf32> {jax.result_info = \"result\"}) {\n    %0 = stablehlo.subtract %arg0, %arg1 : tensor<128xf32>\n    return %0 : tensor<128xf32>\n  }\n}\n", "cuda": "module @jit_elementwise_axox attributes {mhlo.num_partitions = 1 : i32, mhlo.num_replicas = 1 : i32} {\n  func.func public @main(%arg0: tensor<128xf32>, %arg1: tensor<128xf32>) -> (tensor<128xf32> {jax.result_info = \"result\"}) {\n    %0 = stablehlo.subtract %arg0, %arg1 : tensor<128xf32>\n    return %0 : tensor<128xf32>\n  }\n}\n"}
{"id": 986, "kernel_name": "multi_mkqg", "python": "import jax\nimport jax.numpy as jnp\n\n@jax.jit\ndef multi_mkqg(a, b):\n    # Multi-statement\n    temp1 = a + b\n    temp2 = jnp.sin(temp1)\n    return temp2 - a", "type": "generate_multi_statement_kernel", "cpp": "module @jit_multi_mkqg attributes {mhlo.num_partitions = 1 : i32, mhlo.num_replicas = 1 : i32} {\n  func.func public @main(%arg0: tensor<128xf32>, %arg1: tensor<128xf32>) -> (tensor<128xf32> {jax.result_info = \"result\"}) {\n    %0 = stablehlo.add %arg0, %arg1 : tensor<128xf32>\n    %1 = stablehlo.sine %0 : tensor<128xf32>\n    %2 = stablehlo.subtract %1, %arg0 : tensor<128xf32>\n    return %2 : tensor<128xf32>\n  }\n}\n", "cuda": "module @jit_multi_mkqg attributes {mhlo.num_partitions = 1 : i32, mhlo.num_replicas = 1 : i32} {\n  func.func public @main(%arg0: tensor<128xf32>, %arg1: tensor<128xf32>) -> (tensor<128xf32> {jax.result_info = \"result\"}) {\n    %0 = stablehlo.add %arg0, %arg1 : tensor<128xf32>\n    %1 = stablehlo.sine %0 : tensor<128xf32>\n    %2 = stablehlo.subtract %1, %arg0 : tensor<128xf32>\n    return %2 : tensor<128xf32>\n  }\n}\n"}
{"id": 987, "kernel_name": "compound_psnt", "python": "import jax\nimport jax.numpy as jnp\n\n@jax.jit\ndef compound_psnt(a, b, scale):\n    # Compound operations\n    x = a\n    y = b\n    result = (x + y) * scale\n    result = result - jnp.floor(result)\n    return jnp.abs(result)", "type": "generate_compound_kernel", "cpp": "module @jit_compound_psnt attributes {mhlo.num_partitions = 1 : i32, mhlo.num_replicas = 1 : i32} {\n  func.func public @main(%arg0: tensor<128xf32>, %arg1: tensor<128xf32>, %arg2: tensor<f32>) -> (tensor<128xf32> {jax.result_info = \"result\"}) {\n    %0 = stablehlo.add %arg0, %arg1 : tensor<128xf32>\n    %1 = stablehlo.convert %arg2 : tensor<f32>\n    %2 = stablehlo.broadcast_in_dim %1, dims = [] : (tensor<f32>) -> tensor<128xf32>\n    %3 = stablehlo.multiply %0, %2 : tensor<128xf32>\n    %4 = stablehlo.floor %3 : tensor<128xf32>\n    %5 = stablehlo.subtract %3, %4 : tensor<128xf32>\n    %6 = stablehlo.abs %5 : tensor<128xf32>\n    return %6 : tensor<128xf32>\n  }\n}\n", "cuda": "module @jit_compound_psnt attributes {mhlo.num_partitions = 1 : i32, mhlo.num_replicas = 1 : i32} {\n  func.func public @main(%arg0: tensor<128xf32>, %arg1: tensor<128xf32>, %arg2: tensor<f32>) -> (tensor<128xf32> {jax.result_info = \"result\"}) {\n    %0 = stablehlo.add %arg0, %arg1 : tensor<128xf32>\n    %1 = stablehlo.convert %arg2 : tensor<f32>\n    %2 = stablehlo.broadcast_in_dim %1, dims = [] : (tensor<f32>) -> tensor<128xf32>\n    %3 = stablehlo.multiply %0, %2 : tensor<128xf32>\n    %4 = stablehlo.floor %3 : tensor<128xf32>\n    %5 = stablehlo.subtract %3, %4 : tensor<128xf32>\n    %6 = stablehlo.abs %5 : tensor<128xf32>\n    return %6 : tensor<128xf32>\n  }\n}\n"}
{"id": 988, "kernel_name": "elementwise_ylpr", "python": "import jax\nimport jax.numpy as jnp\n\n@jax.jit\ndef elementwise_ylpr(a, b):\n    # Elementwise +\n    return a + b", "type": "generate_simple_elementwise", "cpp": "module @jit_elementwise_ylpr attributes {mhlo.num_partitions = 1 : i32, mhlo.num_replicas = 1 : i32} {\n  func.func public @main(%arg0: tensor<128xf32>, %arg1: tensor<128xf32>) -> (tensor<128xf32> {jax.result_info = \"result\"}) {\n    %0 = stablehlo.add %arg0, %arg1 : tensor<128xf32>\n    return %0 : tensor<128xf32>\n  }\n}\n", "cuda": "module @jit_elementwise_ylpr attributes {mhlo.num_partitions = 1 : i32, mhlo.num_replicas = 1 : i32} {\n  func.func public @main(%arg0: tensor<128xf32>, %arg1: tensor<128xf32>) -> (tensor<128xf32> {jax.result_info = \"result\"}) {\n    %0 = stablehlo.add %arg0, %arg1 : tensor<128xf32>\n    return %0 : tensor<128xf32>\n  }\n}\n"}
{"id": 989, "kernel_name": "compound_sozw", "python": "import jax\nimport jax.numpy as jnp\n\n@jax.jit\ndef compound_sozw(a, b, scale):\n    # Compound operations\n    x = a\n    y = b\n    result = (x + y) * scale\n    result = result - jnp.floor(result)\n    return jnp.abs(result)", "type": "generate_compound_kernel", "cpp": "module @jit_compound_sozw attributes {mhlo.num_partitions = 1 : i32, mhlo.num_replicas = 1 : i32} {\n  func.func public @main(%arg0: tensor<128xf32>, %arg1: tensor<128xf32>, %arg2: tensor<f32>) -> (tensor<128xf32> {jax.result_info = \"result\"}) {\n    %0 = stablehlo.add %arg0, %arg1 : tensor<128xf32>\n    %1 = stablehlo.convert %arg2 : tensor<f32>\n    %2 = stablehlo.broadcast_in_dim %1, dims = [] : (tensor<f32>) -> tensor<128xf32>\n    %3 = stablehlo.multiply %0, %2 : tensor<128xf32>\n    %4 = stablehlo.floor %3 : tensor<128xf32>\n    %5 = stablehlo.subtract %3, %4 : tensor<128xf32>\n    %6 = stablehlo.abs %5 : tensor<128xf32>\n    return %6 : tensor<128xf32>\n  }\n}\n", "cuda": "module @jit_compound_sozw attributes {mhlo.num_partitions = 1 : i32, mhlo.num_replicas = 1 : i32} {\n  func.func public @main(%arg0: tensor<128xf32>, %arg1: tensor<128xf32>, %arg2: tensor<f32>) -> (tensor<128xf32> {jax.result_info = \"result\"}) {\n    %0 = stablehlo.add %arg0, %arg1 : tensor<128xf32>\n    %1 = stablehlo.convert %arg2 : tensor<f32>\n    %2 = stablehlo.broadcast_in_dim %1, dims = [] : (tensor<f32>) -> tensor<128xf32>\n    %3 = stablehlo.multiply %0, %2 : tensor<128xf32>\n    %4 = stablehlo.floor %3 : tensor<128xf32>\n    %5 = stablehlo.subtract %3, %4 : tensor<128xf32>\n    %6 = stablehlo.abs %5 : tensor<128xf32>\n    return %6 : tensor<128xf32>\n  }\n}\n"}
{"id": 990, "kernel_name": "vec_koui", "python": "import jax\nimport jax.numpy as jnp\n\n@jax.jit\ndef vec_koui(a):\n    # Vector length (row-wise for N x 3 arrays)\n    return jnp.linalg.norm(a, axis=-1)", "type": "generate_vector_kernel", "cpp": "module @jit_vec_koui attributes {mhlo.num_partitions = 1 : i32, mhlo.num_replicas = 1 : i32} {\n  func.func public @main(%arg0: tensor<128x3xf32>) -> (tensor<128xf32> {jax.result_info = \"result\"}) {\n    %0 = call @norm(%arg0) : (tensor<128x3xf32>) -> tensor<128xf32>\n    return %0 : tensor<128xf32>\n  }\n  func.func private @norm(%arg0: tensor<128x3xf32>) -> tensor<128xf32> {\n    %0 = stablehlo.multiply %arg0, %arg0 : tensor<128x3xf32>\n    %cst = stablehlo.constant dense<0.000000e+00> : tensor<f32>\n    %1 = stablehlo.reduce(%0 init: %cst) applies stablehlo.add across dimensions = [1] : (tensor<128x3xf32>, tensor<f32>) -> tensor<128xf32>\n    %2 = stablehlo.sqrt %1 : tensor<128xf32>\n    return %2 : tensor<128xf32>\n  }\n}\n", "cuda": "module @jit_vec_koui attributes {mhlo.num_partitions = 1 : i32, mhlo.num_replicas = 1 : i32} {\n  func.func public @main(%arg0: tensor<128x3xf32>) -> (tensor<128xf32> {jax.result_info = \"result\"}) {\n    %0 = call @norm(%arg0) : (tensor<128x3xf32>) -> tensor<128xf32>\n    return %0 : tensor<128xf32>\n  }\n  func.func private @norm(%arg0: tensor<128x3xf32>) -> tensor<128xf32> {\n    %0 = stablehlo.multiply %arg0, %arg0 : tensor<128x3xf32>\n    %cst = stablehlo.constant dense<0.000000e+00> : tensor<f32>\n    %1 = stablehlo.reduce(%0 init: %cst) applies stablehlo.add across dimensions = [1] : (tensor<128x3xf32>, tensor<f32>) -> tensor<128xf32>\n    %2 = stablehlo.sqrt %1 : tensor<128xf32>\n    return %2 : tensor<128xf32>\n  }\n}\n"}
{"id": 991, "kernel_name": "branch_yfhx", "python": "import jax\nimport jax.numpy as jnp\n\n@jax.jit\ndef branch_yfhx(a):\n    # Branching with where\n    # if a > -0.86: a + 2.3 else: a * 1.1\n    return jnp.where(a > -0.86, a + 2.3, a * 1.1)", "type": "generate_branch_kernel", "cpp": "module @jit_branch_yfhx attributes {mhlo.num_partitions = 1 : i32, mhlo.num_replicas = 1 : i32} {\n  func.func public @main(%arg0: tensor<128xf32>) -> (tensor<128xf32> {jax.result_info = \"result\"}) {\n    %cst = stablehlo.constant dense<-8.600000e-01> : tensor<f32>\n    %0 = stablehlo.broadcast_in_dim %cst, dims = [] : (tensor<f32>) -> tensor<128xf32>\n    %1 = stablehlo.compare  GT, %arg0, %0,  FLOAT : (tensor<128xf32>, tensor<128xf32>) -> tensor<128xi1>\n    %cst_0 = stablehlo.constant dense<2.300000e+00> : tensor<f32>\n    %2 = stablehlo.broadcast_in_dim %cst_0, dims = [] : (tensor<f32>) -> tensor<128xf32>\n    %3 = stablehlo.add %arg0, %2 : tensor<128xf32>\n    %cst_1 = stablehlo.constant dense<1.100000e+00> : tensor<f32>\n    %4 = stablehlo.broadcast_in_dim %cst_1, dims = [] : (tensor<f32>) -> tensor<128xf32>\n    %5 = stablehlo.multiply %arg0, %4 : tensor<128xf32>\n    %6 = call @_where(%1, %3, %5) : (tensor<128xi1>, tensor<128xf32>, tensor<128xf32>) -> tensor<128xf32>\n    return %6 : tensor<128xf32>\n  }\n  func.func private @_where(%arg0: tensor<128xi1>, %arg1: tensor<128xf32>, %arg2: tensor<128xf32>) -> tensor<128xf32> {\n    %0 = stablehlo.select %arg0, %arg1, %arg2 : tensor<128xi1>, tensor<128xf32>\n    return %0 : tensor<128xf32>\n  }\n}\n", "cuda": "module @jit_branch_yfhx attributes {mhlo.num_partitions = 1 : i32, mhlo.num_replicas = 1 : i32} {\n  func.func public @main(%arg0: tensor<128xf32>) -> (tensor<128xf32> {jax.result_info = \"result\"}) {\n    %cst = stablehlo.constant dense<-8.600000e-01> : tensor<f32>\n    %0 = stablehlo.broadcast_in_dim %cst, dims = [] : (tensor<f32>) -> tensor<128xf32>\n    %1 = stablehlo.compare  GT, %arg0, %0,  FLOAT : (tensor<128xf32>, tensor<128xf32>) -> tensor<128xi1>\n    %cst_0 = stablehlo.constant dense<2.300000e+00> : tensor<f32>\n    %2 = stablehlo.broadcast_in_dim %cst_0, dims = [] : (tensor<f32>) -> tensor<128xf32>\n    %3 = stablehlo.add %arg0, %2 : tensor<128xf32>\n    %cst_1 = stablehlo.constant dense<1.100000e+00> : tensor<f32>\n    %4 = stablehlo.broadcast_in_dim %cst_1, dims = [] : (tensor<f32>) -> tensor<128xf32>\n    %5 = stablehlo.multiply %arg0, %4 : tensor<128xf32>\n    %6 = call @_where(%1, %3, %5) : (tensor<128xi1>, tensor<128xf32>, tensor<128xf32>) -> tensor<128xf32>\n    return %6 : tensor<128xf32>\n  }\n  func.func private @_where(%arg0: tensor<128xi1>, %arg1: tensor<128xf32>, %arg2: tensor<128xf32>) -> tensor<128xf32> {\n    %0 = stablehlo.select %arg0, %arg1, %arg2 : tensor<128xi1>, tensor<128xf32>\n    return %0 : tensor<128xf32>\n  }\n}\n"}
{"id": 992, "kernel_name": "elementwise_vqck", "python": "import jax\nimport jax.numpy as jnp\n\n@jax.jit\ndef elementwise_vqck(a, b):\n    # Elementwise +\n    return a + b", "type": "generate_simple_elementwise", "cpp": "module @jit_elementwise_vqck attributes {mhlo.num_partitions = 1 : i32, mhlo.num_replicas = 1 : i32} {\n  func.func public @main(%arg0: tensor<128xf32>, %arg1: tensor<128xf32>) -> (tensor<128xf32> {jax.result_info = \"result\"}) {\n    %0 = stablehlo.add %arg0, %arg1 : tensor<128xf32>\n    return %0 : tensor<128xf32>\n  }\n}\n", "cuda": "module @jit_elementwise_vqck attributes {mhlo.num_partitions = 1 : i32, mhlo.num_replicas = 1 : i32} {\n  func.func public @main(%arg0: tensor<128xf32>, %arg1: tensor<128xf32>) -> (tensor<128xf32> {jax.result_info = \"result\"}) {\n    %0 = stablehlo.add %arg0, %arg1 : tensor<128xf32>\n    return %0 : tensor<128xf32>\n  }\n}\n"}
{"id": 993, "kernel_name": "multi_txlg", "python": "import jax\nimport jax.numpy as jnp\n\n@jax.jit\ndef multi_txlg(a, b):\n    # Multi-statement\n    temp1 = a + b\n    temp2 = jnp.cos(temp1)\n    return temp2 + a", "type": "generate_multi_statement_kernel", "cpp": "module @jit_multi_txlg attributes {mhlo.num_partitions = 1 : i32, mhlo.num_replicas = 1 : i32} {\n  func.func public @main(%arg0: tensor<128xf32>, %arg1: tensor<128xf32>) -> (tensor<128xf32> {jax.result_info = \"result\"}) {\n    %0 = stablehlo.add %arg0, %arg1 : tensor<128xf32>\n    %1 = stablehlo.cosine %0 : tensor<128xf32>\n    %2 = stablehlo.add %1, %arg0 : tensor<128xf32>\n    return %2 : tensor<128xf32>\n  }\n}\n", "cuda": "module @jit_multi_txlg attributes {mhlo.num_partitions = 1 : i32, mhlo.num_replicas = 1 : i32} {\n  func.func public @main(%arg0: tensor<128xf32>, %arg1: tensor<128xf32>) -> (tensor<128xf32> {jax.result_info = \"result\"}) {\n    %0 = stablehlo.add %arg0, %arg1 : tensor<128xf32>\n    %1 = stablehlo.cosine %0 : tensor<128xf32>\n    %2 = stablehlo.add %1, %arg0 : tensor<128xf32>\n    return %2 : tensor<128xf32>\n  }\n}\n"}
{"id": 994, "kernel_name": "vec_ktws", "python": "import jax\nimport jax.numpy as jnp\n\n@jax.jit\ndef vec_ktws(a, b):\n    # Vector dot product (row-wise for N x 3 arrays)\n    # a and b are expected to be shape (N, 3)\n    # contract over last axis\n    return jnp.sum(a * b, axis=-1)", "type": "generate_vector_kernel", "cpp": "module @jit_vec_ktws attributes {mhlo.num_partitions = 1 : i32, mhlo.num_replicas = 1 : i32} {\n  func.func public @main(%arg0: tensor<128x3xf32>, %arg1: tensor<128x3xf32>) -> (tensor<128xf32> {jax.result_info = \"result\"}) {\n    %0 = stablehlo.multiply %arg0, %arg1 : tensor<128x3xf32>\n    %cst = stablehlo.constant dense<0.000000e+00> : tensor<f32>\n    %1 = stablehlo.reduce(%0 init: %cst) applies stablehlo.add across dimensions = [1] : (tensor<128x3xf32>, tensor<f32>) -> tensor<128xf32>\n    return %1 : tensor<128xf32>\n  }\n}\n", "cuda": "module @jit_vec_ktws attributes {mhlo.num_partitions = 1 : i32, mhlo.num_replicas = 1 : i32} {\n  func.func public @main(%arg0: tensor<128x3xf32>, %arg1: tensor<128x3xf32>) -> (tensor<128xf32> {jax.result_info = \"result\"}) {\n    %0 = stablehlo.multiply %arg0, %arg1 : tensor<128x3xf32>\n    %cst = stablehlo.constant dense<0.000000e+00> : tensor<f32>\n    %1 = stablehlo.reduce(%0 init: %cst) applies stablehlo.add across dimensions = [1] : (tensor<128x3xf32>, tensor<f32>) -> tensor<128xf32>\n    return %1 : tensor<128xf32>\n  }\n}\n"}
{"id": 995, "kernel_name": "scalar_arr_crrb", "python": "import jax\nimport jax.numpy as jnp\n\n@jax.jit\ndef scalar_arr_crrb(alpha, x, y):\n    # Scalar-array operations\n    return alpha - x * y", "type": "generate_scalar_array_op", "cpp": "module @jit_scalar_arr_crrb attributes {mhlo.num_partitions = 1 : i32, mhlo.num_replicas = 1 : i32} {\n  func.func public @main(%arg0: tensor<f32>, %arg1: tensor<128xf32>, %arg2: tensor<128xf32>) -> (tensor<128xf32> {jax.result_info = \"result\"}) {\n    %0 = stablehlo.multiply %arg1, %arg2 : tensor<128xf32>\n    %1 = stablehlo.convert %arg0 : tensor<f32>\n    %2 = stablehlo.broadcast_in_dim %1, dims = [] : (tensor<f32>) -> tensor<128xf32>\n    %3 = stablehlo.subtract %2, %0 : tensor<128xf32>\n    return %3 : tensor<128xf32>\n  }\n}\n", "cuda": "module @jit_scalar_arr_crrb attributes {mhlo.num_partitions = 1 : i32, mhlo.num_replicas = 1 : i32} {\n  func.func public @main(%arg0: tensor<f32>, %arg1: tensor<128xf32>, %arg2: tensor<128xf32>) -> (tensor<128xf32> {jax.result_info = \"result\"}) {\n    %0 = stablehlo.multiply %arg1, %arg2 : tensor<128xf32>\n    %1 = stablehlo.convert %arg0 : tensor<f32>\n    %2 = stablehlo.broadcast_in_dim %1, dims = [] : (tensor<f32>) -> tensor<128xf32>\n    %3 = stablehlo.subtract %2, %0 : tensor<128xf32>\n    return %3 : tensor<128xf32>\n  }\n}\n"}
{"id": 996, "kernel_name": "scalar_arr_cgdm", "python": "import jax\nimport jax.numpy as jnp\n\n@jax.jit\ndef scalar_arr_cgdm(alpha, x, y):\n    # Scalar-array operations\n    return alpha - x * y", "type": "generate_scalar_array_op", "cpp": "module @jit_scalar_arr_cgdm attributes {mhlo.num_partitions = 1 : i32, mhlo.num_replicas = 1 : i32} {\n  func.func public @main(%arg0: tensor<f32>, %arg1: tensor<128xf32>, %arg2: tensor<128xf32>) -> (tensor<128xf32> {jax.result_info = \"result\"}) {\n    %0 = stablehlo.multiply %arg1, %arg2 : tensor<128xf32>\n    %1 = stablehlo.convert %arg0 : tensor<f32>\n    %2 = stablehlo.broadcast_in_dim %1, dims = [] : (tensor<f32>) -> tensor<128xf32>\n    %3 = stablehlo.subtract %2, %0 : tensor<128xf32>\n    return %3 : tensor<128xf32>\n  }\n}\n", "cuda": "module @jit_scalar_arr_cgdm attributes {mhlo.num_partitions = 1 : i32, mhlo.num_replicas = 1 : i32} {\n  func.func public @main(%arg0: tensor<f32>, %arg1: tensor<128xf32>, %arg2: tensor<128xf32>) -> (tensor<128xf32> {jax.result_info = \"result\"}) {\n    %0 = stablehlo.multiply %arg1, %arg2 : tensor<128xf32>\n    %1 = stablehlo.convert %arg0 : tensor<f32>\n    %2 = stablehlo.broadcast_in_dim %1, dims = [] : (tensor<f32>) -> tensor<128xf32>\n    %3 = stablehlo.subtract %2, %0 : tensor<128xf32>\n    return %3 : tensor<128xf32>\n  }\n}\n"}
{"id": 997, "kernel_name": "unary_rerb", "python": "import jax\nimport jax.numpy as jnp\n\n@jax.jit\ndef unary_rerb(a):\n    # Unary operation jnp.cos\n    return jnp.cos(a)", "type": "generate_unary_kernel", "cpp": "module @jit_unary_rerb attributes {mhlo.num_partitions = 1 : i32, mhlo.num_replicas = 1 : i32} {\n  func.func public @main(%arg0: tensor<128xf32>) -> (tensor<128xf32> {jax.result_info = \"result\"}) {\n    %0 = stablehlo.cosine %arg0 : tensor<128xf32>\n    return %0 : tensor<128xf32>\n  }\n}\n", "cuda": "module @jit_unary_rerb attributes {mhlo.num_partitions = 1 : i32, mhlo.num_replicas = 1 : i32} {\n  func.func public @main(%arg0: tensor<128xf32>) -> (tensor<128xf32> {jax.result_info = \"result\"}) {\n    %0 = stablehlo.cosine %arg0 : tensor<128xf32>\n    return %0 : tensor<128xf32>\n  }\n}\n"}
{"id": 998, "kernel_name": "loop_hogj", "python": "import jax\nimport jax.numpy as jnp\n\n@jax.jit\ndef loop_hogj(a, n):\n    # Loop operation\n    def body_fun(i, val):\n        return val - a\n    \n    # We apply the body_fun n times starting from 0.0\n    # Since 'a' is an array, this operates elementwise across 'a'\n    init_val = jnp.zeros_like(a)\n    return jax.lax.fori_loop(0, n, body_fun, init_val)", "type": "generate_loop_kernel", "cpp": "module @jit_loop_hogj attributes {mhlo.num_partitions = 1 : i32, mhlo.num_replicas = 1 : i32} {\n  func.func public @main(%arg0: tensor<128xf32>, %arg1: tensor<i32>) -> (tensor<128xf32> {jax.result_info = \"result\"}) {\n    %cst = stablehlo.constant dense<0.000000e+00> : tensor<f32>\n    %0 = stablehlo.broadcast_in_dim %cst, dims = [] : (tensor<f32>) -> tensor<128xf32>\n    %c = stablehlo.constant dense<0> : tensor<i32>\n    %1:4 = stablehlo.while(%iterArg = %arg0, %iterArg_0 = %c, %iterArg_1 = %arg1, %iterArg_2 = %0) : tensor<128xf32>, tensor<i32>, tensor<i32>, tensor<128xf32>\n    cond {\n      %2 = stablehlo.compare  LT, %iterArg_0, %iterArg_1,  SIGNED : (tensor<i32>, tensor<i32>) -> tensor<i1>\n      stablehlo.return %2 : tensor<i1>\n    } do {\n      %c_3 = stablehlo.constant dense<1> : tensor<i32>\n      %2 = stablehlo.add %iterArg_0, %c_3 : tensor<i32>\n      %3 = stablehlo.subtract %iterArg_2, %iterArg : tensor<128xf32>\n      stablehlo.return %iterArg, %2, %iterArg_1, %3 : tensor<128xf32>, tensor<i32>, tensor<i32>, tensor<128xf32>\n    }\n    return %1#3 : tensor<128xf32>\n  }\n}\n", "cuda": "module @jit_loop_hogj attributes {mhlo.num_partitions = 1 : i32, mhlo.num_replicas = 1 : i32} {\n  func.func public @main(%arg0: tensor<128xf32>, %arg1: tensor<i32>) -> (tensor<128xf32> {jax.result_info = \"result\"}) {\n    %cst = stablehlo.constant dense<0.000000e+00> : tensor<f32>\n    %0 = stablehlo.broadcast_in_dim %cst, dims = [] : (tensor<f32>) -> tensor<128xf32>\n    %c = stablehlo.constant dense<0> : tensor<i32>\n    %1:4 = stablehlo.while(%iterArg = %arg0, %iterArg_0 = %c, %iterArg_1 = %arg1, %iterArg_2 = %0) : tensor<128xf32>, tensor<i32>, tensor<i32>, tensor<128xf32>\n    cond {\n      %2 = stablehlo.compare  LT, %iterArg_0, %iterArg_1,  SIGNED : (tensor<i32>, tensor<i32>) -> tensor<i1>\n      stablehlo.return %2 : tensor<i1>\n    } do {\n      %c_3 = stablehlo.constant dense<1> : tensor<i32>\n      %2 = stablehlo.add %iterArg_0, %c_3 : tensor<i32>\n      %3 = stablehlo.subtract %iterArg_2, %iterArg : tensor<128xf32>\n      stablehlo.return %iterArg, %2, %iterArg_1, %3 : tensor<128xf32>, tensor<i32>, tensor<i32>, tensor<128xf32>\n    }\n    return %1#3 : tensor<128xf32>\n  }\n}\n"}
{"id": 999, "kernel_name": "multi_llau", "python": "import jax\nimport jax.numpy as jnp\n\n@jax.jit\ndef multi_llau(a, b):\n    # Multi-statement\n    temp1 = a + b\n    temp2 = jnp.sqrt(temp1)\n    return temp2 * a", "type": "generate_multi_statement_kernel", "cpp": "module @jit_multi_llau attributes {mhlo.num_partitions = 1 : i32, mhlo.num_replicas = 1 : i32} {\n  func.func public @main(%arg0: tensor<128xf32>, %arg1: tensor<128xf32>) -> (tensor<128xf32> {jax.result_info = \"result\"}) {\n    %0 = stablehlo.add %arg0, %arg1 : tensor<128xf32>\n    %1 = stablehlo.sqrt %0 : tensor<128xf32>\n    %2 = stablehlo.multiply %1, %arg0 : tensor<128xf32>\n    return %2 : tensor<128xf32>\n  }\n}\n", "cuda": "module @jit_multi_llau attributes {mhlo.num_partitions = 1 : i32, mhlo.num_replicas = 1 : i32} {\n  func.func public @main(%arg0: tensor<128xf32>, %arg1: tensor<128xf32>) -> (tensor<128xf32> {jax.result_info = \"result\"}) {\n    %0 = stablehlo.add %arg0, %arg1 : tensor<128xf32>\n    %1 = stablehlo.sqrt %0 : tensor<128xf32>\n    %2 = stablehlo.multiply %1, %arg0 : tensor<128xf32>\n    return %2 : tensor<128xf32>\n  }\n}\n"}
