{
  "name": "mixed_zz27us",
  "source": "def mixed_zz27us(x, y):\n    t1 = jnp.exp(x)\n    t2 = jnp.power(jnp.abs(t1), jnp.abs(y) % 3 + 1)\n    t3 = jnp.std(t2)\n    return t3",
  "jaxpr": "{ lambda ; a:f32[2,4] b:f32[2,4]. let\n    c:f32[2,4] = exp a\n    d:f32[2,4] = abs c\n    e:f32[2,4] = abs b\n    f:f32[2,4] = jit[\n      name=remainder\n      jaxpr={ lambda ; e:f32[2,4] g:i32[]. let\n          h:f32[] = convert_element_type[new_dtype=float32 weak_type=False] g\n          i:f32[2,4] = rem e h\n          j:bool[2,4] = ne i 0.0:f32[]\n          k:bool[2,4] = lt i 0.0:f32[]\n          l:bool[] = lt h 0.0:f32[]\n          m:bool[2,4] = ne k l\n          n:bool[2,4] = and m j\n          o:f32[2,4] = add i h\n          f:f32[2,4] = select_n n i o\n        in (f,) }\n    ] e 3:i32[]\n    p:f32[2,4] = add f 1.0:f32[]\n    q:f32[2,4] = pow d p\n    r:f32[] = jit[\n      name=_std\n      jaxpr={ lambda ; q:f32[2,4] s:i32[]. let\n          t:f32[] = jit[\n            name=_var\n            jaxpr={ lambda ; q:f32[2,4] s:i32[]. let\n                u:f32[] = reduce_sum[axes=(0, 1) out_sharding=None] q\n                v:f32[1,1] = broadcast_in_dim[\n                  broadcast_dimensions=()\n                  shape=(1, 1)\n                  sharding=None\n                ] u\n                w:f32[1,1] = div v 8.0:f32[]\n                x:f32[2,4] = sub q w\n                y:f32[2,4] = square x\n                z:f32[] = convert_element_type[\n                  new_dtype=float32\n                  weak_type=False\n                ] s\n                ba:f32[] = sub 8.0:f32[] z\n                bb:f32[] = reduce_sum[axes=(0, 1) out_sharding=None] y\n                bc:f32[] = div bb ba\n                bd:bool[] = gt ba 0.0:f32[]\n                t:f32[] = jit[\n                  name=_where\n                  jaxpr={ lambda ; bd:bool[] bc:f32[] be:f32[]. let\n                      bf:f32[] = convert_element_type[\n                        new_dtype=float32\n                        weak_type=False\n                      ] be\n                      t:f32[] = select_n bd bf bc\n                    in (t,) }\n                ] bd bc nan:f32[]\n              in (t,) }\n          ] q s\n          r:f32[] = sqrt t\n        in (r,) }\n    ] q 0:i32[]\n  in (r,) }",
  "hlo": "module @jit_mixed_zz27us attributes {mhlo.num_partitions = 1 : i32, mhlo.num_replicas = 1 : i32} {\n  func.func public @main(%arg0: tensor<2x4xf32>, %arg1: tensor<2x4xf32>) -> (tensor<f32> {jax.result_info = \"result\"}) {\n    %0 = stablehlo.exponential %arg0 : tensor<2x4xf32>\n    %1 = stablehlo.abs %0 : tensor<2x4xf32>\n    %2 = stablehlo.abs %arg1 : tensor<2x4xf32>\n    %c = stablehlo.constant dense<3> : tensor<i32>\n    %3 = call @remainder(%2, %c) : (tensor<2x4xf32>, tensor<i32>) -> tensor<2x4xf32>\n    %cst = stablehlo.constant dense<1.000000e+00> : tensor<f32>\n    %4 = stablehlo.broadcast_in_dim %cst, dims = [] : (tensor<f32>) -> tensor<2x4xf32>\n    %5 = stablehlo.add %3, %4 : tensor<2x4xf32>\n    %6 = stablehlo.power %1, %5 : tensor<2x4xf32>\n    %c_0 = stablehlo.constant dense<0> : tensor<i32>\n    %7 = call @_std(%6, %c_0) : (tensor<2x4xf32>, tensor<i32>) -> tensor<f32>\n    return %7 : tensor<f32>\n  }\n  func.func private @remainder(%arg0: tensor<2x4xf32>, %arg1: tensor<i32>) -> tensor<2x4xf32> {\n    %0 = stablehlo.convert %arg1 : (tensor<i32>) -> tensor<f32>\n    %1 = stablehlo.broadcast_in_dim %0, dims = [] : (tensor<f32>) -> tensor<2x4xf32>\n    %2 = stablehlo.remainder %arg0, %1 : tensor<2x4xf32>\n    %cst = stablehlo.constant dense<0.000000e+00> : tensor<f32>\n    %3 = stablehlo.broadcast_in_dim %cst, dims = [] : (tensor<f32>) -> tensor<2x4xf32>\n    %4 = stablehlo.compare  NE, %2, %3,  FLOAT : (tensor<2x4xf32>, tensor<2x4xf32>) -> tensor<2x4xi1>\n    %cst_0 = stablehlo.constant dense<0.000000e+00> : tensor<f32>\n    %5 = stablehlo.broadcast_in_dim %cst_0, dims = [] : (tensor<f32>) -> tensor<2x4xf32>\n    %6 = stablehlo.compare  LT, %2, %5,  FLOAT : (tensor<2x4xf32>, tensor<2x4xf32>) -> tensor<2x4xi1>\n    %cst_1 = stablehlo.constant dense<0.000000e+00> : tensor<f32>\n    %7 = stablehlo.compare  LT, %0, %cst_1,  FLOAT : (tensor<f32>, tensor<f32>) -> tensor<i1>\n    %8 = stablehlo.broadcast_in_dim %7, dims = [] : (tensor<i1>) -> tensor<2x4xi1>\n    %9 = stablehlo.compare  NE, %6, %8,  UNSIGNED : (tensor<2x4xi1>, tensor<2x4xi1>) -> tensor<2x4xi1>\n    %10 = stablehlo.and %9, %4 : tensor<2x4xi1>\n    %11 = stablehlo.broadcast_in_dim %0, dims = [] : (tensor<f32>) -> tensor<2x4xf32>\n    %12 = stablehlo.add %2, %11 : tensor<2x4xf32>\n    %13 = stablehlo.select %10, %12, %2 : tensor<2x4xi1>, tensor<2x4xf32>\n    return %13 : tensor<2x4xf32>\n  }\n  func.func private @_std(%arg0: tensor<2x4xf32>, %arg1: tensor<i32>) -> tensor<f32> {\n    %0 = call @_var(%arg0, %arg1) : (tensor<2x4xf32>, tensor<i32>) -> tensor<f32>\n    %1 = stablehlo.sqrt %0 : tensor<f32>\n    return %1 : tensor<f32>\n  }\n  func.func private @_var(%arg0: tensor<2x4xf32>, %arg1: tensor<i32>) -> tensor<f32> {\n    %cst = stablehlo.constant dense<0.000000e+00> : tensor<f32>\n    %0 = stablehlo.reduce(%arg0 init: %cst) applies stablehlo.add across dimensions = [0, 1] : (tensor<2x4xf32>, tensor<f32>) -> tensor<f32>\n    %1 = stablehlo.broadcast_in_dim %0, dims = [] : (tensor<f32>) -> tensor<1x1xf32>\n    %cst_0 = stablehlo.constant dense<8.000000e+00> : tensor<f32>\n    %2 = stablehlo.broadcast_in_dim %cst_0, dims = [] : (tensor<f32>) -> tensor<1x1xf32>\n    %3 = stablehlo.divide %1, %2 : tensor<1x1xf32>\n    %4 = stablehlo.broadcast_in_dim %3, dims = [0, 1] : (tensor<1x1xf32>) -> tensor<2x4xf32>\n    %5 = stablehlo.subtract %arg0, %4 : tensor<2x4xf32>\n    %6 = chlo.square %5 : tensor<2x4xf32> -> tensor<2x4xf32>\n    %7 = stablehlo.convert %arg1 : (tensor<i32>) -> tensor<f32>\n    %cst_1 = stablehlo.constant dense<8.000000e+00> : tensor<f32>\n    %8 = stablehlo.subtract %cst_1, %7 : tensor<f32>\n    %cst_2 = stablehlo.constant dense<0.000000e+00> : tensor<f32>\n    %9 = stablehlo.reduce(%6 init: %cst_2) applies stablehlo.add across dimensions = [0, 1] : (tensor<2x4xf32>, tensor<f32>) -> tensor<f32>\n    %10 = stablehlo.divide %9, %8 : tensor<f32>\n    %cst_3 = stablehlo.constant dense<0.000000e+00> : tensor<f32>\n    %11 = stablehlo.compare  GT, %8, %cst_3,  FLOAT : (tensor<f32>, tensor<f32>) -> tensor<i1>\n    %cst_4 = stablehlo.constant dense<0x7FC00000> : tensor<f32>\n    %12 = call @_where(%11, %10, %cst_4) : (tensor<i1>, tensor<f32>, tensor<f32>) -> tensor<f32>\n    return %12 : tensor<f32>\n  }\n  func.func private @_where(%arg0: tensor<i1>, %arg1: tensor<f32>, %arg2: tensor<f32>) -> tensor<f32> {\n    %0 = stablehlo.convert %arg2 : tensor<f32>\n    %1 = stablehlo.select %arg0, %arg1, %0 : tensor<i1>, tensor<f32>\n    return %1 : tensor<f32>\n  }\n}\n",
  "input_shapes": [
    [
      2,
      4
    ],
    [
      2,
      4
    ]
  ]
}