{
  "name": "mixed_jrcmca",
  "source": "def mixed_jrcmca(x, y):\n    t1 = jnp.log(jnp.abs(x) + 1e-6)\n    t2 = jnp.power(jnp.abs(t1), jnp.abs(y) % 3 + 1)\n    t3 = jnp.sum(t2)\n    return t3",
  "jaxpr": "{ lambda ; a:f32[8] b:f32[8]. let\n    c:f32[8] = abs a\n    d:f32[8] = add c 9.999999974752427e-07:f32[]\n    e:f32[8] = log d\n    f:f32[8] = abs e\n    g:f32[8] = abs b\n    h:f32[8] = jit[\n      name=remainder\n      jaxpr={ lambda ; g:f32[8] i:i32[]. let\n          j:f32[] = convert_element_type[new_dtype=float32 weak_type=False] i\n          k:f32[8] = rem g j\n          l:bool[8] = ne k 0.0:f32[]\n          m:bool[8] = lt k 0.0:f32[]\n          n:bool[] = lt j 0.0:f32[]\n          o:bool[8] = ne m n\n          p:bool[8] = and o l\n          q:f32[8] = add k j\n          h:f32[8] = select_n p k q\n        in (h,) }\n    ] g 3:i32[]\n    r:f32[8] = add h 1.0:f32[]\n    s:f32[8] = pow f r\n    t:f32[] = reduce_sum[axes=(0,) out_sharding=None] s\n  in (t,) }",
  "hlo": "module @jit_mixed_jrcmca attributes {mhlo.num_partitions = 1 : i32, mhlo.num_replicas = 1 : i32} {\n  func.func public @main(%arg0: tensor<8xf32>, %arg1: tensor<8xf32>) -> (tensor<f32> {jax.result_info = \"result\"}) {\n    %0 = stablehlo.abs %arg0 : tensor<8xf32>\n    %cst = stablehlo.constant dense<9.99999997E-7> : tensor<f32>\n    %1 = stablehlo.broadcast_in_dim %cst, dims = [] : (tensor<f32>) -> tensor<8xf32>\n    %2 = stablehlo.add %0, %1 : tensor<8xf32>\n    %3 = stablehlo.log %2 : tensor<8xf32>\n    %4 = stablehlo.abs %3 : tensor<8xf32>\n    %5 = stablehlo.abs %arg1 : tensor<8xf32>\n    %c = stablehlo.constant dense<3> : tensor<i32>\n    %6 = call @remainder(%5, %c) : (tensor<8xf32>, tensor<i32>) -> tensor<8xf32>\n    %cst_0 = stablehlo.constant dense<1.000000e+00> : tensor<f32>\n    %7 = stablehlo.broadcast_in_dim %cst_0, dims = [] : (tensor<f32>) -> tensor<8xf32>\n    %8 = stablehlo.add %6, %7 : tensor<8xf32>\n    %9 = stablehlo.power %4, %8 : tensor<8xf32>\n    %cst_1 = stablehlo.constant dense<0.000000e+00> : tensor<f32>\n    %10 = stablehlo.reduce(%9 init: %cst_1) applies stablehlo.add across dimensions = [0] : (tensor<8xf32>, tensor<f32>) -> tensor<f32>\n    return %10 : tensor<f32>\n  }\n  func.func private @remainder(%arg0: tensor<8xf32>, %arg1: tensor<i32>) -> tensor<8xf32> {\n    %0 = stablehlo.convert %arg1 : (tensor<i32>) -> tensor<f32>\n    %1 = stablehlo.broadcast_in_dim %0, dims = [] : (tensor<f32>) -> tensor<8xf32>\n    %2 = stablehlo.remainder %arg0, %1 : tensor<8xf32>\n    %cst = stablehlo.constant dense<0.000000e+00> : tensor<f32>\n    %3 = stablehlo.broadcast_in_dim %cst, dims = [] : (tensor<f32>) -> tensor<8xf32>\n    %4 = stablehlo.compare  NE, %2, %3,  FLOAT : (tensor<8xf32>, tensor<8xf32>) -> tensor<8xi1>\n    %cst_0 = stablehlo.constant dense<0.000000e+00> : tensor<f32>\n    %5 = stablehlo.broadcast_in_dim %cst_0, dims = [] : (tensor<f32>) -> tensor<8xf32>\n    %6 = stablehlo.compare  LT, %2, %5,  FLOAT : (tensor<8xf32>, tensor<8xf32>) -> tensor<8xi1>\n    %cst_1 = stablehlo.constant dense<0.000000e+00> : tensor<f32>\n    %7 = stablehlo.compare  LT, %0, %cst_1,  FLOAT : (tensor<f32>, tensor<f32>) -> tensor<i1>\n    %8 = stablehlo.broadcast_in_dim %7, dims = [] : (tensor<i1>) -> tensor<8xi1>\n    %9 = stablehlo.compare  NE, %6, %8,  UNSIGNED : (tensor<8xi1>, tensor<8xi1>) -> tensor<8xi1>\n    %10 = stablehlo.and %9, %4 : tensor<8xi1>\n    %11 = stablehlo.broadcast_in_dim %0, dims = [] : (tensor<f32>) -> tensor<8xf32>\n    %12 = stablehlo.add %2, %11 : tensor<8xf32>\n    %13 = stablehlo.select %10, %12, %2 : tensor<8xi1>, tensor<8xf32>\n    return %13 : tensor<8xf32>\n  }\n}\n",
  "input_shapes": [
    [
      8
    ],
    [
      8
    ]
  ]
}