{
  "name": "binary_k5by2t",
  "source": "def binary_k5by2t(x, y):\n    return jnp.power(jnp.abs(jnp.minimum(x, y)), jnp.abs(y) % 3 + 1)",
  "jaxpr": "{ lambda ; a:f32[4] b:f32[4]. let\n    c:f32[4] = min a b\n    d:f32[4] = abs c\n    e:f32[4] = abs b\n    f:f32[4] = jit[\n      name=remainder\n      jaxpr={ lambda ; e:f32[4] g:i32[]. let\n          h:f32[] = convert_element_type[new_dtype=float32 weak_type=False] g\n          i:f32[4] = rem e h\n          j:bool[4] = ne i 0.0:f32[]\n          k:bool[4] = lt i 0.0:f32[]\n          l:bool[] = lt h 0.0:f32[]\n          m:bool[4] = ne k l\n          n:bool[4] = and m j\n          o:f32[4] = add i h\n          f:f32[4] = select_n n i o\n        in (f,) }\n    ] e 3:i32[]\n    p:f32[4] = add f 1.0:f32[]\n    q:f32[4] = pow d p\n  in (q,) }",
  "hlo": "module @jit_binary_k5by2t attributes {mhlo.num_partitions = 1 : i32, mhlo.num_replicas = 1 : i32} {\n  func.func public @main(%arg0: tensor<4xf32>, %arg1: tensor<4xf32>) -> (tensor<4xf32> {jax.result_info = \"result\"}) {\n    %0 = stablehlo.minimum %arg0, %arg1 : tensor<4xf32>\n    %1 = stablehlo.abs %0 : tensor<4xf32>\n    %2 = stablehlo.abs %arg1 : tensor<4xf32>\n    %c = stablehlo.constant dense<3> : tensor<i32>\n    %3 = call @remainder(%2, %c) : (tensor<4xf32>, tensor<i32>) -> tensor<4xf32>\n    %cst = stablehlo.constant dense<1.000000e+00> : tensor<f32>\n    %4 = stablehlo.broadcast_in_dim %cst, dims = [] : (tensor<f32>) -> tensor<4xf32>\n    %5 = stablehlo.add %3, %4 : tensor<4xf32>\n    %6 = stablehlo.power %1, %5 : tensor<4xf32>\n    return %6 : tensor<4xf32>\n  }\n  func.func private @remainder(%arg0: tensor<4xf32>, %arg1: tensor<i32>) -> tensor<4xf32> {\n    %0 = stablehlo.convert %arg1 : (tensor<i32>) -> tensor<f32>\n    %1 = stablehlo.broadcast_in_dim %0, dims = [] : (tensor<f32>) -> tensor<4xf32>\n    %2 = stablehlo.remainder %arg0, %1 : tensor<4xf32>\n    %cst = stablehlo.constant dense<0.000000e+00> : tensor<f32>\n    %3 = stablehlo.broadcast_in_dim %cst, dims = [] : (tensor<f32>) -> tensor<4xf32>\n    %4 = stablehlo.compare  NE, %2, %3,  FLOAT : (tensor<4xf32>, tensor<4xf32>) -> tensor<4xi1>\n    %cst_0 = stablehlo.constant dense<0.000000e+00> : tensor<f32>\n    %5 = stablehlo.broadcast_in_dim %cst_0, dims = [] : (tensor<f32>) -> tensor<4xf32>\n    %6 = stablehlo.compare  LT, %2, %5,  FLOAT : (tensor<4xf32>, tensor<4xf32>) -> tensor<4xi1>\n    %cst_1 = stablehlo.constant dense<0.000000e+00> : tensor<f32>\n    %7 = stablehlo.compare  LT, %0, %cst_1,  FLOAT : (tensor<f32>, tensor<f32>) -> tensor<i1>\n    %8 = stablehlo.broadcast_in_dim %7, dims = [] : (tensor<i1>) -> tensor<4xi1>\n    %9 = stablehlo.compare  NE, %6, %8,  UNSIGNED : (tensor<4xi1>, tensor<4xi1>) -> tensor<4xi1>\n    %10 = stablehlo.and %9, %4 : tensor<4xi1>\n    %11 = stablehlo.broadcast_in_dim %0, dims = [] : (tensor<f32>) -> tensor<4xf32>\n    %12 = stablehlo.add %2, %11 : tensor<4xf32>\n    %13 = stablehlo.select %10, %12, %2 : tensor<4xi1>, tensor<4xf32>\n    return %13 : tensor<4xf32>\n  }\n}\n",
  "input_shapes": [
    [
      4
    ],
    [
      4
    ]
  ]
}