{
  "name": "reduce_7ccd11",
  "source": "def reduce_7ccd11(x):\n    return jnp.std(jnp.abs(1 / (1 + jnp.exp(-x))))",
  "jaxpr": "{ lambda ; a:f32[2,4]. let\n    b:f32[2,4] = neg a\n    c:f32[2,4] = exp b\n    d:f32[2,4] = add 1.0:f32[] c\n    e:f32[2,4] = div 1.0:f32[] d\n    f:f32[2,4] = abs e\n    g:f32[] = jit[\n      name=_std\n      jaxpr={ lambda ; f:f32[2,4] h:i32[]. let\n          i:f32[] = jit[\n            name=_var\n            jaxpr={ lambda ; f:f32[2,4] h:i32[]. let\n                j:f32[] = reduce_sum[axes=(0, 1) out_sharding=None] f\n                k:f32[1,1] = broadcast_in_dim[\n                  broadcast_dimensions=()\n                  shape=(1, 1)\n                  sharding=None\n                ] j\n                l:f32[1,1] = div k 8.0:f32[]\n                m:f32[2,4] = sub f l\n                n:f32[2,4] = square m\n                o:f32[] = convert_element_type[\n                  new_dtype=float32\n                  weak_type=False\n                ] h\n                p:f32[] = sub 8.0:f32[] o\n                q:f32[] = reduce_sum[axes=(0, 1) out_sharding=None] n\n                r:f32[] = div q p\n                s:bool[] = gt p 0.0:f32[]\n                i:f32[] = jit[\n                  name=_where\n                  jaxpr={ lambda ; s:bool[] r:f32[] t:f32[]. let\n                      u:f32[] = convert_element_type[\n                        new_dtype=float32\n                        weak_type=False\n                      ] t\n                      i:f32[] = select_n s u r\n                    in (i,) }\n                ] s r nan:f32[]\n              in (i,) }\n          ] f h\n          g:f32[] = sqrt i\n        in (g,) }\n    ] f 0:i32[]\n  in (g,) }",
  "hlo": "module @jit_reduce_7ccd11 attributes {mhlo.num_partitions = 1 : i32, mhlo.num_replicas = 1 : i32} {\n  func.func public @main(%arg0: tensor<2x4xf32>) -> (tensor<f32> {jax.result_info = \"result\"}) {\n    %0 = stablehlo.negate %arg0 : tensor<2x4xf32>\n    %1 = stablehlo.exponential %0 : tensor<2x4xf32>\n    %cst = stablehlo.constant dense<1.000000e+00> : tensor<f32>\n    %2 = stablehlo.broadcast_in_dim %cst, dims = [] : (tensor<f32>) -> tensor<2x4xf32>\n    %3 = stablehlo.add %2, %1 : tensor<2x4xf32>\n    %cst_0 = stablehlo.constant dense<1.000000e+00> : tensor<f32>\n    %4 = stablehlo.broadcast_in_dim %cst_0, dims = [] : (tensor<f32>) -> tensor<2x4xf32>\n    %5 = stablehlo.divide %4, %3 : tensor<2x4xf32>\n    %6 = stablehlo.abs %5 : tensor<2x4xf32>\n    %c = stablehlo.constant dense<0> : tensor<i32>\n    %7 = call @_std(%6, %c) : (tensor<2x4xf32>, tensor<i32>) -> tensor<f32>\n    return %7 : tensor<f32>\n  }\n  func.func private @_std(%arg0: tensor<2x4xf32>, %arg1: tensor<i32>) -> tensor<f32> {\n    %0 = call @_var(%arg0, %arg1) : (tensor<2x4xf32>, tensor<i32>) -> tensor<f32>\n    %1 = stablehlo.sqrt %0 : tensor<f32>\n    return %1 : tensor<f32>\n  }\n  func.func private @_var(%arg0: tensor<2x4xf32>, %arg1: tensor<i32>) -> tensor<f32> {\n    %cst = stablehlo.constant dense<0.000000e+00> : tensor<f32>\n    %0 = stablehlo.reduce(%arg0 init: %cst) applies stablehlo.add across dimensions = [0, 1] : (tensor<2x4xf32>, tensor<f32>) -> tensor<f32>\n    %1 = stablehlo.broadcast_in_dim %0, dims = [] : (tensor<f32>) -> tensor<1x1xf32>\n    %cst_0 = stablehlo.constant dense<8.000000e+00> : tensor<f32>\n    %2 = stablehlo.broadcast_in_dim %cst_0, dims = [] : (tensor<f32>) -> tensor<1x1xf32>\n    %3 = stablehlo.divide %1, %2 : tensor<1x1xf32>\n    %4 = stablehlo.broadcast_in_dim %3, dims = [0, 1] : (tensor<1x1xf32>) -> tensor<2x4xf32>\n    %5 = stablehlo.subtract %arg0, %4 : tensor<2x4xf32>\n    %6 = chlo.square %5 : tensor<2x4xf32> -> tensor<2x4xf32>\n    %7 = stablehlo.convert %arg1 : (tensor<i32>) -> tensor<f32>\n    %cst_1 = stablehlo.constant dense<8.000000e+00> : tensor<f32>\n    %8 = stablehlo.subtract %cst_1, %7 : tensor<f32>\n    %cst_2 = stablehlo.constant dense<0.000000e+00> : tensor<f32>\n    %9 = stablehlo.reduce(%6 init: %cst_2) applies stablehlo.add across dimensions = [0, 1] : (tensor<2x4xf32>, tensor<f32>) -> tensor<f32>\n    %10 = stablehlo.divide %9, %8 : tensor<f32>\n    %cst_3 = stablehlo.constant dense<0.000000e+00> : tensor<f32>\n    %11 = stablehlo.compare  GT, %8, %cst_3,  FLOAT : (tensor<f32>, tensor<f32>) -> tensor<i1>\n    %cst_4 = stablehlo.constant dense<0x7FC00000> : tensor<f32>\n    %12 = call @_where(%11, %10, %cst_4) : (tensor<i1>, tensor<f32>, tensor<f32>) -> tensor<f32>\n    return %12 : tensor<f32>\n  }\n  func.func private @_where(%arg0: tensor<i1>, %arg1: tensor<f32>, %arg2: tensor<f32>) -> tensor<f32> {\n    %0 = stablehlo.convert %arg2 : tensor<f32>\n    %1 = stablehlo.select %arg0, %arg1, %0 : tensor<i1>, tensor<f32>\n    return %1 : tensor<f32>\n  }\n}\n",
  "input_shapes": [
    [
      2,
      4
    ]
  ]
}