{
  "name": "binary_4lh82q",
  "source": "def binary_4lh82q(x, y):\n    return jnp.power(jnp.abs(x), jnp.abs(y) % 3 + 1)",
  "jaxpr": "{ lambda ; a:f32[2,4] b:f32[2,4]. let\n    c:f32[2,4] = abs a\n    d:f32[2,4] = abs b\n    e:f32[2,4] = jit[\n      name=remainder\n      jaxpr={ lambda ; d:f32[2,4] f:i32[]. let\n          g:f32[] = convert_element_type[new_dtype=float32 weak_type=False] f\n          h:f32[2,4] = rem d g\n          i:bool[2,4] = ne h 0.0:f32[]\n          j:bool[2,4] = lt h 0.0:f32[]\n          k:bool[] = lt g 0.0:f32[]\n          l:bool[2,4] = ne j k\n          m:bool[2,4] = and l i\n          n:f32[2,4] = add h g\n          e:f32[2,4] = select_n m h n\n        in (e,) }\n    ] d 3:i32[]\n    o:f32[2,4] = add e 1.0:f32[]\n    p:f32[2,4] = pow c o\n  in (p,) }",
  "hlo": "module @jit_binary_4lh82q attributes {mhlo.num_partitions = 1 : i32, mhlo.num_replicas = 1 : i32} {\n  func.func public @main(%arg0: tensor<2x4xf32>, %arg1: tensor<2x4xf32>) -> (tensor<2x4xf32> {jax.result_info = \"result\"}) {\n    %0 = stablehlo.abs %arg0 : tensor<2x4xf32>\n    %1 = stablehlo.abs %arg1 : tensor<2x4xf32>\n    %c = stablehlo.constant dense<3> : tensor<i32>\n    %2 = call @remainder(%1, %c) : (tensor<2x4xf32>, tensor<i32>) -> tensor<2x4xf32>\n    %cst = stablehlo.constant dense<1.000000e+00> : tensor<f32>\n    %3 = stablehlo.broadcast_in_dim %cst, dims = [] : (tensor<f32>) -> tensor<2x4xf32>\n    %4 = stablehlo.add %2, %3 : tensor<2x4xf32>\n    %5 = stablehlo.power %0, %4 : tensor<2x4xf32>\n    return %5 : tensor<2x4xf32>\n  }\n  func.func private @remainder(%arg0: tensor<2x4xf32>, %arg1: tensor<i32>) -> tensor<2x4xf32> {\n    %0 = stablehlo.convert %arg1 : (tensor<i32>) -> tensor<f32>\n    %1 = stablehlo.broadcast_in_dim %0, dims = [] : (tensor<f32>) -> tensor<2x4xf32>\n    %2 = stablehlo.remainder %arg0, %1 : tensor<2x4xf32>\n    %cst = stablehlo.constant dense<0.000000e+00> : tensor<f32>\n    %3 = stablehlo.broadcast_in_dim %cst, dims = [] : (tensor<f32>) -> tensor<2x4xf32>\n    %4 = stablehlo.compare  NE, %2, %3,  FLOAT : (tensor<2x4xf32>, tensor<2x4xf32>) -> tensor<2x4xi1>\n    %cst_0 = stablehlo.constant dense<0.000000e+00> : tensor<f32>\n    %5 = stablehlo.broadcast_in_dim %cst_0, dims = [] : (tensor<f32>) -> tensor<2x4xf32>\n    %6 = stablehlo.compare  LT, %2, %5,  FLOAT : (tensor<2x4xf32>, tensor<2x4xf32>) -> tensor<2x4xi1>\n    %cst_1 = stablehlo.constant dense<0.000000e+00> : tensor<f32>\n    %7 = stablehlo.compare  LT, %0, %cst_1,  FLOAT : (tensor<f32>, tensor<f32>) -> tensor<i1>\n    %8 = stablehlo.broadcast_in_dim %7, dims = [] : (tensor<i1>) -> tensor<2x4xi1>\n    %9 = stablehlo.compare  NE, %6, %8,  UNSIGNED : (tensor<2x4xi1>, tensor<2x4xi1>) -> tensor<2x4xi1>\n    %10 = stablehlo.and %9, %4 : tensor<2x4xi1>\n    %11 = stablehlo.broadcast_in_dim %0, dims = [] : (tensor<f32>) -> tensor<2x4xf32>\n    %12 = stablehlo.add %2, %11 : tensor<2x4xf32>\n    %13 = stablehlo.select %10, %12, %2 : tensor<2x4xi1>, tensor<2x4xf32>\n    return %13 : tensor<2x4xf32>\n  }\n}\n",
  "input_shapes": [
    [
      2,
      4
    ],
    [
      2,
      4
    ]
  ]
}