{
  "name": "mixed_cb420y",
  "source": "def mixed_cb420y(x, y):\n    t1 = 1 / (1 + jnp.exp(-x))\n    t2 = jnp.power(jnp.abs(t1), jnp.abs(y) % 3 + 1)\n    t3 = jnp.min(t2)\n    return t3",
  "jaxpr": "{ lambda ; a:f32[8] b:f32[8]. let\n    c:f32[8] = neg a\n    d:f32[8] = exp c\n    e:f32[8] = add 1.0:f32[] d\n    f:f32[8] = div 1.0:f32[] e\n    g:f32[8] = abs f\n    h:f32[8] = abs b\n    i:f32[8] = jit[\n      name=remainder\n      jaxpr={ lambda ; h:f32[8] j:i32[]. let\n          k:f32[] = convert_element_type[new_dtype=float32 weak_type=False] j\n          l:f32[8] = rem h k\n          m:bool[8] = ne l 0.0:f32[]\n          n:bool[8] = lt l 0.0:f32[]\n          o:bool[] = lt k 0.0:f32[]\n          p:bool[8] = ne n o\n          q:bool[8] = and p m\n          r:f32[8] = add l k\n          i:f32[8] = select_n q l r\n        in (i,) }\n    ] h 3:i32[]\n    s:f32[8] = add i 1.0:f32[]\n    t:f32[8] = pow g s\n    u:f32[] = reduce_min[axes=(0,)] t\n  in (u,) }",
  "hlo": "module @jit_mixed_cb420y attributes {mhlo.num_partitions = 1 : i32, mhlo.num_replicas = 1 : i32} {\n  func.func public @main(%arg0: tensor<8xf32>, %arg1: tensor<8xf32>) -> (tensor<f32> {jax.result_info = \"result\"}) {\n    %0 = stablehlo.negate %arg0 : tensor<8xf32>\n    %1 = stablehlo.exponential %0 : tensor<8xf32>\n    %cst = stablehlo.constant dense<1.000000e+00> : tensor<f32>\n    %2 = stablehlo.broadcast_in_dim %cst, dims = [] : (tensor<f32>) -> tensor<8xf32>\n    %3 = stablehlo.add %2, %1 : tensor<8xf32>\n    %cst_0 = stablehlo.constant dense<1.000000e+00> : tensor<f32>\n    %4 = stablehlo.broadcast_in_dim %cst_0, dims = [] : (tensor<f32>) -> tensor<8xf32>\n    %5 = stablehlo.divide %4, %3 : tensor<8xf32>\n    %6 = stablehlo.abs %5 : tensor<8xf32>\n    %7 = stablehlo.abs %arg1 : tensor<8xf32>\n    %c = stablehlo.constant dense<3> : tensor<i32>\n    %8 = call @remainder(%7, %c) : (tensor<8xf32>, tensor<i32>) -> tensor<8xf32>\n    %cst_1 = stablehlo.constant dense<1.000000e+00> : tensor<f32>\n    %9 = stablehlo.broadcast_in_dim %cst_1, dims = [] : (tensor<f32>) -> tensor<8xf32>\n    %10 = stablehlo.add %8, %9 : tensor<8xf32>\n    %11 = stablehlo.power %6, %10 : tensor<8xf32>\n    %cst_2 = stablehlo.constant dense<0x7F800000> : tensor<f32>\n    %12 = stablehlo.reduce(%11 init: %cst_2) applies stablehlo.minimum across dimensions = [0] : (tensor<8xf32>, tensor<f32>) -> tensor<f32>\n    return %12 : tensor<f32>\n  }\n  func.func private @remainder(%arg0: tensor<8xf32>, %arg1: tensor<i32>) -> tensor<8xf32> {\n    %0 = stablehlo.convert %arg1 : (tensor<i32>) -> tensor<f32>\n    %1 = stablehlo.broadcast_in_dim %0, dims = [] : (tensor<f32>) -> tensor<8xf32>\n    %2 = stablehlo.remainder %arg0, %1 : tensor<8xf32>\n    %cst = stablehlo.constant dense<0.000000e+00> : tensor<f32>\n    %3 = stablehlo.broadcast_in_dim %cst, dims = [] : (tensor<f32>) -> tensor<8xf32>\n    %4 = stablehlo.compare  NE, %2, %3,  FLOAT : (tensor<8xf32>, tensor<8xf32>) -> tensor<8xi1>\n    %cst_0 = stablehlo.constant dense<0.000000e+00> : tensor<f32>\n    %5 = stablehlo.broadcast_in_dim %cst_0, dims = [] : (tensor<f32>) -> tensor<8xf32>\n    %6 = stablehlo.compare  LT, %2, %5,  FLOAT : (tensor<8xf32>, tensor<8xf32>) -> tensor<8xi1>\n    %cst_1 = stablehlo.constant dense<0.000000e+00> : tensor<f32>\n    %7 = stablehlo.compare  LT, %0, %cst_1,  FLOAT : (tensor<f32>, tensor<f32>) -> tensor<i1>\n    %8 = stablehlo.broadcast_in_dim %7, dims = [] : (tensor<i1>) -> tensor<8xi1>\n    %9 = stablehlo.compare  NE, %6, %8,  UNSIGNED : (tensor<8xi1>, tensor<8xi1>) -> tensor<8xi1>\n    %10 = stablehlo.and %9, %4 : tensor<8xi1>\n    %11 = stablehlo.broadcast_in_dim %0, dims = [] : (tensor<f32>) -> tensor<8xf32>\n    %12 = stablehlo.add %2, %11 : tensor<8xf32>\n    %13 = stablehlo.select %10, %12, %2 : tensor<8xi1>, tensor<8xf32>\n    return %13 : tensor<8xf32>\n  }\n}\n",
  "input_shapes": [
    [
      8
    ],
    [
      8
    ]
  ]
}