{
  "name": "mixed_nx413j",
  "source": "def mixed_nx413j(x, y):\n    t1 = jnp.sqrt(jnp.abs(x))\n    t2 = jnp.power(jnp.abs(t1), jnp.abs(y) % 3 + 1)\n    t3 = jnp.std(t2)\n    return t3",
  "jaxpr": "{ lambda ; a:f32[4] b:f32[4]. let\n    c:f32[4] = abs a\n    d:f32[4] = sqrt c\n    e:f32[4] = abs d\n    f:f32[4] = abs b\n    g:f32[4] = jit[\n      name=remainder\n      jaxpr={ lambda ; f:f32[4] h:i32[]. let\n          i:f32[] = convert_element_type[new_dtype=float32 weak_type=False] h\n          j:f32[4] = rem f i\n          k:bool[4] = ne j 0.0:f32[]\n          l:bool[4] = lt j 0.0:f32[]\n          m:bool[] = lt i 0.0:f32[]\n          n:bool[4] = ne l m\n          o:bool[4] = and n k\n          p:f32[4] = add j i\n          g:f32[4] = select_n o j p\n        in (g,) }\n    ] f 3:i32[]\n    q:f32[4] = add g 1.0:f32[]\n    r:f32[4] = pow e q\n    s:f32[] = jit[\n      name=_std\n      jaxpr={ lambda ; r:f32[4] t:i32[]. let\n          u:f32[] = jit[\n            name=_var\n            jaxpr={ lambda ; r:f32[4] t:i32[]. let\n                v:f32[] = reduce_sum[axes=(0,) out_sharding=None] r\n                w:f32[1] = broadcast_in_dim[\n                  broadcast_dimensions=()\n                  shape=(1,)\n                  sharding=None\n                ] v\n                x:f32[1] = div w 4.0:f32[]\n                y:f32[4] = sub r x\n                z:f32[4] = square y\n                ba:f32[] = convert_element_type[\n                  new_dtype=float32\n                  weak_type=False\n                ] t\n                bb:f32[] = sub 4.0:f32[] ba\n                bc:f32[] = reduce_sum[axes=(0,) out_sharding=None] z\n                bd:f32[] = div bc bb\n                be:bool[] = gt bb 0.0:f32[]\n                u:f32[] = jit[\n                  name=_where\n                  jaxpr={ lambda ; be:bool[] bd:f32[] bf:f32[]. let\n                      bg:f32[] = convert_element_type[\n                        new_dtype=float32\n                        weak_type=False\n                      ] bf\n                      u:f32[] = select_n be bg bd\n                    in (u,) }\n                ] be bd nan:f32[]\n              in (u,) }\n          ] r t\n          s:f32[] = sqrt u\n        in (s,) }\n    ] r 0:i32[]\n  in (s,) }",
  "hlo": "module @jit_mixed_nx413j attributes {mhlo.num_partitions = 1 : i32, mhlo.num_replicas = 1 : i32} {\n  func.func public @main(%arg0: tensor<4xf32>, %arg1: tensor<4xf32>) -> (tensor<f32> {jax.result_info = \"result\"}) {\n    %0 = stablehlo.abs %arg0 : tensor<4xf32>\n    %1 = stablehlo.sqrt %0 : tensor<4xf32>\n    %2 = stablehlo.abs %1 : tensor<4xf32>\n    %3 = stablehlo.abs %arg1 : tensor<4xf32>\n    %c = stablehlo.constant dense<3> : tensor<i32>\n    %4 = call @remainder(%3, %c) : (tensor<4xf32>, tensor<i32>) -> tensor<4xf32>\n    %cst = stablehlo.constant dense<1.000000e+00> : tensor<f32>\n    %5 = stablehlo.broadcast_in_dim %cst, dims = [] : (tensor<f32>) -> tensor<4xf32>\n    %6 = stablehlo.add %4, %5 : tensor<4xf32>\n    %7 = stablehlo.power %2, %6 : tensor<4xf32>\n    %c_0 = stablehlo.constant dense<0> : tensor<i32>\n    %8 = call @_std(%7, %c_0) : (tensor<4xf32>, tensor<i32>) -> tensor<f32>\n    return %8 : tensor<f32>\n  }\n  func.func private @remainder(%arg0: tensor<4xf32>, %arg1: tensor<i32>) -> tensor<4xf32> {\n    %0 = stablehlo.convert %arg1 : (tensor<i32>) -> tensor<f32>\n    %1 = stablehlo.broadcast_in_dim %0, dims = [] : (tensor<f32>) -> tensor<4xf32>\n    %2 = stablehlo.remainder %arg0, %1 : tensor<4xf32>\n    %cst = stablehlo.constant dense<0.000000e+00> : tensor<f32>\n    %3 = stablehlo.broadcast_in_dim %cst, dims = [] : (tensor<f32>) -> tensor<4xf32>\n    %4 = stablehlo.compare  NE, %2, %3,  FLOAT : (tensor<4xf32>, tensor<4xf32>) -> tensor<4xi1>\n    %cst_0 = stablehlo.constant dense<0.000000e+00> : tensor<f32>\n    %5 = stablehlo.broadcast_in_dim %cst_0, dims = [] : (tensor<f32>) -> tensor<4xf32>\n    %6 = stablehlo.compare  LT, %2, %5,  FLOAT : (tensor<4xf32>, tensor<4xf32>) -> tensor<4xi1>\n    %cst_1 = stablehlo.constant dense<0.000000e+00> : tensor<f32>\n    %7 = stablehlo.compare  LT, %0, %cst_1,  FLOAT : (tensor<f32>, tensor<f32>) -> tensor<i1>\n    %8 = stablehlo.broadcast_in_dim %7, dims = [] : (tensor<i1>) -> tensor<4xi1>\n    %9 = stablehlo.compare  NE, %6, %8,  UNSIGNED : (tensor<4xi1>, tensor<4xi1>) -> tensor<4xi1>\n    %10 = stablehlo.and %9, %4 : tensor<4xi1>\n    %11 = stablehlo.broadcast_in_dim %0, dims = [] : (tensor<f32>) -> tensor<4xf32>\n    %12 = stablehlo.add %2, %11 : tensor<4xf32>\n    %13 = stablehlo.select %10, %12, %2 : tensor<4xi1>, tensor<4xf32>\n    return %13 : tensor<4xf32>\n  }\n  func.func private @_std(%arg0: tensor<4xf32>, %arg1: tensor<i32>) -> tensor<f32> {\n    %0 = call @_var(%arg0, %arg1) : (tensor<4xf32>, tensor<i32>) -> tensor<f32>\n    %1 = stablehlo.sqrt %0 : tensor<f32>\n    return %1 : tensor<f32>\n  }\n  func.func private @_var(%arg0: tensor<4xf32>, %arg1: tensor<i32>) -> tensor<f32> {\n    %cst = stablehlo.constant dense<0.000000e+00> : tensor<f32>\n    %0 = stablehlo.reduce(%arg0 init: %cst) applies stablehlo.add across dimensions = [0] : (tensor<4xf32>, tensor<f32>) -> tensor<f32>\n    %1 = stablehlo.broadcast_in_dim %0, dims = [] : (tensor<f32>) -> tensor<1xf32>\n    %cst_0 = stablehlo.constant dense<4.000000e+00> : tensor<f32>\n    %2 = stablehlo.broadcast_in_dim %cst_0, dims = [] : (tensor<f32>) -> tensor<1xf32>\n    %3 = stablehlo.divide %1, %2 : tensor<1xf32>\n    %4 = stablehlo.broadcast_in_dim %3, dims = [0] : (tensor<1xf32>) -> tensor<4xf32>\n    %5 = stablehlo.subtract %arg0, %4 : tensor<4xf32>\n    %6 = chlo.square %5 : tensor<4xf32> -> tensor<4xf32>\n    %7 = stablehlo.convert %arg1 : (tensor<i32>) -> tensor<f32>\n    %cst_1 = stablehlo.constant dense<4.000000e+00> : tensor<f32>\n    %8 = stablehlo.subtract %cst_1, %7 : tensor<f32>\n    %cst_2 = stablehlo.constant dense<0.000000e+00> : tensor<f32>\n    %9 = stablehlo.reduce(%6 init: %cst_2) applies stablehlo.add across dimensions = [0] : (tensor<4xf32>, tensor<f32>) -> tensor<f32>\n    %10 = stablehlo.divide %9, %8 : tensor<f32>\n    %cst_3 = stablehlo.constant dense<0.000000e+00> : tensor<f32>\n    %11 = stablehlo.compare  GT, %8, %cst_3,  FLOAT : (tensor<f32>, tensor<f32>) -> tensor<i1>\n    %cst_4 = stablehlo.constant dense<0x7FC00000> : tensor<f32>\n    %12 = call @_where(%11, %10, %cst_4) : (tensor<i1>, tensor<f32>, tensor<f32>) -> tensor<f32>\n    return %12 : tensor<f32>\n  }\n  func.func private @_where(%arg0: tensor<i1>, %arg1: tensor<f32>, %arg2: tensor<f32>) -> tensor<f32> {\n    %0 = stablehlo.convert %arg2 : tensor<f32>\n    %1 = stablehlo.select %arg0, %arg1, %0 : tensor<i1>, tensor<f32>\n    return %1 : tensor<f32>\n  }\n}\n",
  "input_shapes": [
    [
      4
    ],
    [
      4
    ]
  ]
}