{
  "name": "mixed_jkp9ky",
  "source": "def mixed_jkp9ky(x, y):\n    t1 = 1 / (1 + jnp.exp(-x))\n    t2 = jnp.power(jnp.abs(t1), jnp.abs(y) % 3 + 1)\n    t3 = jnp.std(t2)\n    return t3",
  "jaxpr": "{ lambda ; a:f32[4] b:f32[4]. let\n    c:f32[4] = neg a\n    d:f32[4] = exp c\n    e:f32[4] = add 1.0:f32[] d\n    f:f32[4] = div 1.0:f32[] e\n    g:f32[4] = abs f\n    h:f32[4] = abs b\n    i:f32[4] = jit[\n      name=remainder\n      jaxpr={ lambda ; h:f32[4] j:i32[]. let\n          k:f32[] = convert_element_type[new_dtype=float32 weak_type=False] j\n          l:f32[4] = rem h k\n          m:bool[4] = ne l 0.0:f32[]\n          n:bool[4] = lt l 0.0:f32[]\n          o:bool[] = lt k 0.0:f32[]\n          p:bool[4] = ne n o\n          q:bool[4] = and p m\n          r:f32[4] = add l k\n          i:f32[4] = select_n q l r\n        in (i,) }\n    ] h 3:i32[]\n    s:f32[4] = add i 1.0:f32[]\n    t:f32[4] = pow g s\n    u:f32[] = jit[\n      name=_std\n      jaxpr={ lambda ; t:f32[4] v:i32[]. let\n          w:f32[] = jit[\n            name=_var\n            jaxpr={ lambda ; t:f32[4] v:i32[]. let\n                x:f32[] = reduce_sum[axes=(0,) out_sharding=None] t\n                y:f32[1] = broadcast_in_dim[\n                  broadcast_dimensions=()\n                  shape=(1,)\n                  sharding=None\n                ] x\n                z:f32[1] = div y 4.0:f32[]\n                ba:f32[4] = sub t z\n                bb:f32[4] = square ba\n                bc:f32[] = convert_element_type[\n                  new_dtype=float32\n                  weak_type=False\n                ] v\n                bd:f32[] = sub 4.0:f32[] bc\n                be:f32[] = reduce_sum[axes=(0,) out_sharding=None] bb\n                bf:f32[] = div be bd\n                bg:bool[] = gt bd 0.0:f32[]\n                w:f32[] = jit[\n                  name=_where\n                  jaxpr={ lambda ; bg:bool[] bf:f32[] bh:f32[]. let\n                      bi:f32[] = convert_element_type[\n                        new_dtype=float32\n                        weak_type=False\n                      ] bh\n                      w:f32[] = select_n bg bi bf\n                    in (w,) }\n                ] bg bf nan:f32[]\n              in (w,) }\n          ] t v\n          u:f32[] = sqrt w\n        in (u,) }\n    ] t 0:i32[]\n  in (u,) }",
  "hlo": "module @jit_mixed_jkp9ky attributes {mhlo.num_partitions = 1 : i32, mhlo.num_replicas = 1 : i32} {\n  func.func public @main(%arg0: tensor<4xf32>, %arg1: tensor<4xf32>) -> (tensor<f32> {jax.result_info = \"result\"}) {\n    %0 = stablehlo.negate %arg0 : tensor<4xf32>\n    %1 = stablehlo.exponential %0 : tensor<4xf32>\n    %cst = stablehlo.constant dense<1.000000e+00> : tensor<f32>\n    %2 = stablehlo.broadcast_in_dim %cst, dims = [] : (tensor<f32>) -> tensor<4xf32>\n    %3 = stablehlo.add %2, %1 : tensor<4xf32>\n    %cst_0 = stablehlo.constant dense<1.000000e+00> : tensor<f32>\n    %4 = stablehlo.broadcast_in_dim %cst_0, dims = [] : (tensor<f32>) -> tensor<4xf32>\n    %5 = stablehlo.divide %4, %3 : tensor<4xf32>\n    %6 = stablehlo.abs %5 : tensor<4xf32>\n    %7 = stablehlo.abs %arg1 : tensor<4xf32>\n    %c = stablehlo.constant dense<3> : tensor<i32>\n    %8 = call @remainder(%7, %c) : (tensor<4xf32>, tensor<i32>) -> tensor<4xf32>\n    %cst_1 = stablehlo.constant dense<1.000000e+00> : tensor<f32>\n    %9 = stablehlo.broadcast_in_dim %cst_1, dims = [] : (tensor<f32>) -> tensor<4xf32>\n    %10 = stablehlo.add %8, %9 : tensor<4xf32>\n    %11 = stablehlo.power %6, %10 : tensor<4xf32>\n    %c_2 = stablehlo.constant dense<0> : tensor<i32>\n    %12 = call @_std(%11, %c_2) : (tensor<4xf32>, tensor<i32>) -> tensor<f32>\n    return %12 : tensor<f32>\n  }\n  func.func private @remainder(%arg0: tensor<4xf32>, %arg1: tensor<i32>) -> tensor<4xf32> {\n    %0 = stablehlo.convert %arg1 : (tensor<i32>) -> tensor<f32>\n    %1 = stablehlo.broadcast_in_dim %0, dims = [] : (tensor<f32>) -> tensor<4xf32>\n    %2 = stablehlo.remainder %arg0, %1 : tensor<4xf32>\n    %cst = stablehlo.constant dense<0.000000e+00> : tensor<f32>\n    %3 = stablehlo.broadcast_in_dim %cst, dims = [] : (tensor<f32>) -> tensor<4xf32>\n    %4 = stablehlo.compare  NE, %2, %3,  FLOAT : (tensor<4xf32>, tensor<4xf32>) -> tensor<4xi1>\n    %cst_0 = stablehlo.constant dense<0.000000e+00> : tensor<f32>\n    %5 = stablehlo.broadcast_in_dim %cst_0, dims = [] : (tensor<f32>) -> tensor<4xf32>\n    %6 = stablehlo.compare  LT, %2, %5,  FLOAT : (tensor<4xf32>, tensor<4xf32>) -> tensor<4xi1>\n    %cst_1 = stablehlo.constant dense<0.000000e+00> : tensor<f32>\n    %7 = stablehlo.compare  LT, %0, %cst_1,  FLOAT : (tensor<f32>, tensor<f32>) -> tensor<i1>\n    %8 = stablehlo.broadcast_in_dim %7, dims = [] : (tensor<i1>) -> tensor<4xi1>\n    %9 = stablehlo.compare  NE, %6, %8,  UNSIGNED : (tensor<4xi1>, tensor<4xi1>) -> tensor<4xi1>\n    %10 = stablehlo.and %9, %4 : tensor<4xi1>\n    %11 = stablehlo.broadcast_in_dim %0, dims = [] : (tensor<f32>) -> tensor<4xf32>\n    %12 = stablehlo.add %2, %11 : tensor<4xf32>\n    %13 = stablehlo.select %10, %12, %2 : tensor<4xi1>, tensor<4xf32>\n    return %13 : tensor<4xf32>\n  }\n  func.func private @_std(%arg0: tensor<4xf32>, %arg1: tensor<i32>) -> tensor<f32> {\n    %0 = call @_var(%arg0, %arg1) : (tensor<4xf32>, tensor<i32>) -> tensor<f32>\n    %1 = stablehlo.sqrt %0 : tensor<f32>\n    return %1 : tensor<f32>\n  }\n  func.func private @_var(%arg0: tensor<4xf32>, %arg1: tensor<i32>) -> tensor<f32> {\n    %cst = stablehlo.constant dense<0.000000e+00> : tensor<f32>\n    %0 = stablehlo.reduce(%arg0 init: %cst) applies stablehlo.add across dimensions = [0] : (tensor<4xf32>, tensor<f32>) -> tensor<f32>\n    %1 = stablehlo.broadcast_in_dim %0, dims = [] : (tensor<f32>) -> tensor<1xf32>\n    %cst_0 = stablehlo.constant dense<4.000000e+00> : tensor<f32>\n    %2 = stablehlo.broadcast_in_dim %cst_0, dims = [] : (tensor<f32>) -> tensor<1xf32>\n    %3 = stablehlo.divide %1, %2 : tensor<1xf32>\n    %4 = stablehlo.broadcast_in_dim %3, dims = [0] : (tensor<1xf32>) -> tensor<4xf32>\n    %5 = stablehlo.subtract %arg0, %4 : tensor<4xf32>\n    %6 = chlo.square %5 : tensor<4xf32> -> tensor<4xf32>\n    %7 = stablehlo.convert %arg1 : (tensor<i32>) -> tensor<f32>\n    %cst_1 = stablehlo.constant dense<4.000000e+00> : tensor<f32>\n    %8 = stablehlo.subtract %cst_1, %7 : tensor<f32>\n    %cst_2 = stablehlo.constant dense<0.000000e+00> : tensor<f32>\n    %9 = stablehlo.reduce(%6 init: %cst_2) applies stablehlo.add across dimensions = [0] : (tensor<4xf32>, tensor<f32>) -> tensor<f32>\n    %10 = stablehlo.divide %9, %8 : tensor<f32>\n    %cst_3 = stablehlo.constant dense<0.000000e+00> : tensor<f32>\n    %11 = stablehlo.compare  GT, %8, %cst_3,  FLOAT : (tensor<f32>, tensor<f32>) -> tensor<i1>\n    %cst_4 = stablehlo.constant dense<0x7FC00000> : tensor<f32>\n    %12 = call @_where(%11, %10, %cst_4) : (tensor<i1>, tensor<f32>, tensor<f32>) -> tensor<f32>\n    return %12 : tensor<f32>\n  }\n  func.func private @_where(%arg0: tensor<i1>, %arg1: tensor<f32>, %arg2: tensor<f32>) -> tensor<f32> {\n    %0 = stablehlo.convert %arg2 : tensor<f32>\n    %1 = stablehlo.select %arg0, %arg1, %0 : tensor<i1>, tensor<f32>\n    return %1 : tensor<f32>\n  }\n}\n",
  "input_shapes": [
    [
      4
    ],
    [
      4
    ]
  ]
}