{
  "name": "mixed_mt0y0w",
  "source": "def mixed_mt0y0w(x, y):\n    t1 = jnp.sqrt(jnp.abs(x))\n    t2 = jnp.power(jnp.abs(t1), jnp.abs(y) % 3 + 1)\n    t3 = jnp.sum(t2)\n    return t3",
  "jaxpr": "{ lambda ; a:f32[2,4] b:f32[2,4]. let\n    c:f32[2,4] = abs a\n    d:f32[2,4] = sqrt c\n    e:f32[2,4] = abs d\n    f:f32[2,4] = abs b\n    g:f32[2,4] = jit[\n      name=remainder\n      jaxpr={ lambda ; f:f32[2,4] h:i32[]. let\n          i:f32[] = convert_element_type[new_dtype=float32 weak_type=False] h\n          j:f32[2,4] = rem f i\n          k:bool[2,4] = ne j 0.0:f32[]\n          l:bool[2,4] = lt j 0.0:f32[]\n          m:bool[] = lt i 0.0:f32[]\n          n:bool[2,4] = ne l m\n          o:bool[2,4] = and n k\n          p:f32[2,4] = add j i\n          g:f32[2,4] = select_n o j p\n        in (g,) }\n    ] f 3:i32[]\n    q:f32[2,4] = add g 1.0:f32[]\n    r:f32[2,4] = pow e q\n    s:f32[] = reduce_sum[axes=(0, 1) out_sharding=None] r\n  in (s,) }",
  "hlo": "module @jit_mixed_mt0y0w attributes {mhlo.num_partitions = 1 : i32, mhlo.num_replicas = 1 : i32} {\n  func.func public @main(%arg0: tensor<2x4xf32>, %arg1: tensor<2x4xf32>) -> (tensor<f32> {jax.result_info = \"result\"}) {\n    %0 = stablehlo.abs %arg0 : tensor<2x4xf32>\n    %1 = stablehlo.sqrt %0 : tensor<2x4xf32>\n    %2 = stablehlo.abs %1 : tensor<2x4xf32>\n    %3 = stablehlo.abs %arg1 : tensor<2x4xf32>\n    %c = stablehlo.constant dense<3> : tensor<i32>\n    %4 = call @remainder(%3, %c) : (tensor<2x4xf32>, tensor<i32>) -> tensor<2x4xf32>\n    %cst = stablehlo.constant dense<1.000000e+00> : tensor<f32>\n    %5 = stablehlo.broadcast_in_dim %cst, dims = [] : (tensor<f32>) -> tensor<2x4xf32>\n    %6 = stablehlo.add %4, %5 : tensor<2x4xf32>\n    %7 = stablehlo.power %2, %6 : tensor<2x4xf32>\n    %cst_0 = stablehlo.constant dense<0.000000e+00> : tensor<f32>\n    %8 = stablehlo.reduce(%7 init: %cst_0) applies stablehlo.add across dimensions = [0, 1] : (tensor<2x4xf32>, tensor<f32>) -> tensor<f32>\n    return %8 : tensor<f32>\n  }\n  func.func private @remainder(%arg0: tensor<2x4xf32>, %arg1: tensor<i32>) -> tensor<2x4xf32> {\n    %0 = stablehlo.convert %arg1 : (tensor<i32>) -> tensor<f32>\n    %1 = stablehlo.broadcast_in_dim %0, dims = [] : (tensor<f32>) -> tensor<2x4xf32>\n    %2 = stablehlo.remainder %arg0, %1 : tensor<2x4xf32>\n    %cst = stablehlo.constant dense<0.000000e+00> : tensor<f32>\n    %3 = stablehlo.broadcast_in_dim %cst, dims = [] : (tensor<f32>) -> tensor<2x4xf32>\n    %4 = stablehlo.compare  NE, %2, %3,  FLOAT : (tensor<2x4xf32>, tensor<2x4xf32>) -> tensor<2x4xi1>\n    %cst_0 = stablehlo.constant dense<0.000000e+00> : tensor<f32>\n    %5 = stablehlo.broadcast_in_dim %cst_0, dims = [] : (tensor<f32>) -> tensor<2x4xf32>\n    %6 = stablehlo.compare  LT, %2, %5,  FLOAT : (tensor<2x4xf32>, tensor<2x4xf32>) -> tensor<2x4xi1>\n    %cst_1 = stablehlo.constant dense<0.000000e+00> : tensor<f32>\n    %7 = stablehlo.compare  LT, %0, %cst_1,  FLOAT : (tensor<f32>, tensor<f32>) -> tensor<i1>\n    %8 = stablehlo.broadcast_in_dim %7, dims = [] : (tensor<i1>) -> tensor<2x4xi1>\n    %9 = stablehlo.compare  NE, %6, %8,  UNSIGNED : (tensor<2x4xi1>, tensor<2x4xi1>) -> tensor<2x4xi1>\n    %10 = stablehlo.and %9, %4 : tensor<2x4xi1>\n    %11 = stablehlo.broadcast_in_dim %0, dims = [] : (tensor<f32>) -> tensor<2x4xf32>\n    %12 = stablehlo.add %2, %11 : tensor<2x4xf32>\n    %13 = stablehlo.select %10, %12, %2 : tensor<2x4xi1>, tensor<2x4xf32>\n    return %13 : tensor<2x4xf32>\n  }\n}\n",
  "input_shapes": [
    [
      2,
      4
    ],
    [
      2,
      4
    ]
  ]
}