{
  "name": "reduce_8pyx68",
  "source": "def reduce_8pyx68(x):\n    return jnp.std(jnp.abs(jnp.log(jnp.abs(x) + 1e-6)))",
  "jaxpr": "{ lambda ; a:f32[4]. let\n    b:f32[4] = abs a\n    c:f32[4] = add b 9.999999974752427e-07:f32[]\n    d:f32[4] = log c\n    e:f32[4] = abs d\n    f:f32[] = jit[\n      name=_std\n      jaxpr={ lambda ; e:f32[4] g:i32[]. let\n          h:f32[] = jit[\n            name=_var\n            jaxpr={ lambda ; e:f32[4] g:i32[]. let\n                i:f32[] = reduce_sum[axes=(0,) out_sharding=None] e\n                j:f32[1] = broadcast_in_dim[\n                  broadcast_dimensions=()\n                  shape=(1,)\n                  sharding=None\n                ] i\n                k:f32[1] = div j 4.0:f32[]\n                l:f32[4] = sub e k\n                m:f32[4] = square l\n                n:f32[] = convert_element_type[\n                  new_dtype=float32\n                  weak_type=False\n                ] g\n                o:f32[] = sub 4.0:f32[] n\n                p:f32[] = reduce_sum[axes=(0,) out_sharding=None] m\n                q:f32[] = div p o\n                r:bool[] = gt o 0.0:f32[]\n                h:f32[] = jit[\n                  name=_where\n                  jaxpr={ lambda ; r:bool[] q:f32[] s:f32[]. let\n                      t:f32[] = convert_element_type[\n                        new_dtype=float32\n                        weak_type=False\n                      ] s\n                      h:f32[] = select_n r t q\n                    in (h,) }\n                ] r q nan:f32[]\n              in (h,) }\n          ] e g\n          f:f32[] = sqrt h\n        in (f,) }\n    ] e 0:i32[]\n  in (f,) }",
  "hlo": "module @jit_reduce_8pyx68 attributes {mhlo.num_partitions = 1 : i32, mhlo.num_replicas = 1 : i32} {\n  func.func public @main(%arg0: tensor<4xf32>) -> (tensor<f32> {jax.result_info = \"result\"}) {\n    %0 = stablehlo.abs %arg0 : tensor<4xf32>\n    %cst = stablehlo.constant dense<9.99999997E-7> : tensor<f32>\n    %1 = stablehlo.broadcast_in_dim %cst, dims = [] : (tensor<f32>) -> tensor<4xf32>\n    %2 = stablehlo.add %0, %1 : tensor<4xf32>\n    %3 = stablehlo.log %2 : tensor<4xf32>\n    %4 = stablehlo.abs %3 : tensor<4xf32>\n    %c = stablehlo.constant dense<0> : tensor<i32>\n    %5 = call @_std(%4, %c) : (tensor<4xf32>, tensor<i32>) -> tensor<f32>\n    return %5 : tensor<f32>\n  }\n  func.func private @_std(%arg0: tensor<4xf32>, %arg1: tensor<i32>) -> tensor<f32> {\n    %0 = call @_var(%arg0, %arg1) : (tensor<4xf32>, tensor<i32>) -> tensor<f32>\n    %1 = stablehlo.sqrt %0 : tensor<f32>\n    return %1 : tensor<f32>\n  }\n  func.func private @_var(%arg0: tensor<4xf32>, %arg1: tensor<i32>) -> tensor<f32> {\n    %cst = stablehlo.constant dense<0.000000e+00> : tensor<f32>\n    %0 = stablehlo.reduce(%arg0 init: %cst) applies stablehlo.add across dimensions = [0] : (tensor<4xf32>, tensor<f32>) -> tensor<f32>\n    %1 = stablehlo.broadcast_in_dim %0, dims = [] : (tensor<f32>) -> tensor<1xf32>\n    %cst_0 = stablehlo.constant dense<4.000000e+00> : tensor<f32>\n    %2 = stablehlo.broadcast_in_dim %cst_0, dims = [] : (tensor<f32>) -> tensor<1xf32>\n    %3 = stablehlo.divide %1, %2 : tensor<1xf32>\n    %4 = stablehlo.broadcast_in_dim %3, dims = [0] : (tensor<1xf32>) -> tensor<4xf32>\n    %5 = stablehlo.subtract %arg0, %4 : tensor<4xf32>\n    %6 = chlo.square %5 : tensor<4xf32> -> tensor<4xf32>\n    %7 = stablehlo.convert %arg1 : (tensor<i32>) -> tensor<f32>\n    %cst_1 = stablehlo.constant dense<4.000000e+00> : tensor<f32>\n    %8 = stablehlo.subtract %cst_1, %7 : tensor<f32>\n    %cst_2 = stablehlo.constant dense<0.000000e+00> : tensor<f32>\n    %9 = stablehlo.reduce(%6 init: %cst_2) applies stablehlo.add across dimensions = [0] : (tensor<4xf32>, tensor<f32>) -> tensor<f32>\n    %10 = stablehlo.divide %9, %8 : tensor<f32>\n    %cst_3 = stablehlo.constant dense<0.000000e+00> : tensor<f32>\n    %11 = stablehlo.compare  GT, %8, %cst_3,  FLOAT : (tensor<f32>, tensor<f32>) -> tensor<i1>\n    %cst_4 = stablehlo.constant dense<0x7FC00000> : tensor<f32>\n    %12 = call @_where(%11, %10, %cst_4) : (tensor<i1>, tensor<f32>, tensor<f32>) -> tensor<f32>\n    return %12 : tensor<f32>\n  }\n  func.func private @_where(%arg0: tensor<i1>, %arg1: tensor<f32>, %arg2: tensor<f32>) -> tensor<f32> {\n    %0 = stablehlo.convert %arg2 : tensor<f32>\n    %1 = stablehlo.select %arg0, %arg1, %0 : tensor<i1>, tensor<f32>\n    return %1 : tensor<f32>\n  }\n}\n",
  "input_shapes": [
    [
      4
    ]
  ]
}