{
  "name": "norm_0s5zei",
  "source": "def norm_0s5zei(x):\n    mean = jnp.mean(x)\n    std = jnp.std(x) + 1e-6\n    return (x - mean) / std",
  "jaxpr": "{ lambda ; a:f32[4]. let\n    b:f32[] = reduce_sum[axes=(0,) out_sharding=None] a\n    c:f32[] = div b 4.0:f32[]\n    d:f32[] = jit[\n      name=_std\n      jaxpr={ lambda ; a:f32[4] e:i32[]. let\n          f:f32[] = jit[\n            name=_var\n            jaxpr={ lambda ; a:f32[4] e:i32[]. let\n                g:f32[] = reduce_sum[axes=(0,) out_sharding=None] a\n                h:f32[1] = broadcast_in_dim[\n                  broadcast_dimensions=()\n                  shape=(1,)\n                  sharding=None\n                ] g\n                i:f32[1] = div h 4.0:f32[]\n                j:f32[4] = sub a i\n                k:f32[4] = square j\n                l:f32[] = convert_element_type[\n                  new_dtype=float32\n                  weak_type=False\n                ] e\n                m:f32[] = sub 4.0:f32[] l\n                n:f32[] = reduce_sum[axes=(0,) out_sharding=None] k\n                o:f32[] = div n m\n                p:bool[] = gt m 0.0:f32[]\n                f:f32[] = jit[\n                  name=_where\n                  jaxpr={ lambda ; p:bool[] o:f32[] q:f32[]. let\n                      r:f32[] = convert_element_type[\n                        new_dtype=float32\n                        weak_type=False\n                      ] q\n                      f:f32[] = select_n p r o\n                    in (f,) }\n                ] p o nan:f32[]\n              in (f,) }\n          ] a e\n          d:f32[] = sqrt f\n        in (d,) }\n    ] a 0:i32[]\n    s:f32[] = add d 9.999999974752427e-07:f32[]\n    t:f32[4] = sub a c\n    u:f32[4] = div t s\n  in (u,) }",
  "hlo": "module @jit_norm_0s5zei attributes {mhlo.num_partitions = 1 : i32, mhlo.num_replicas = 1 : i32} {\n  func.func public @main(%arg0: tensor<4xf32>) -> (tensor<4xf32> {jax.result_info = \"result\"}) {\n    %cst = stablehlo.constant dense<0.000000e+00> : tensor<f32>\n    %0 = stablehlo.reduce(%arg0 init: %cst) applies stablehlo.add across dimensions = [0] : (tensor<4xf32>, tensor<f32>) -> tensor<f32>\n    %cst_0 = stablehlo.constant dense<4.000000e+00> : tensor<f32>\n    %1 = stablehlo.divide %0, %cst_0 : tensor<f32>\n    %c = stablehlo.constant dense<0> : tensor<i32>\n    %2 = call @_std(%arg0, %c) : (tensor<4xf32>, tensor<i32>) -> tensor<f32>\n    %cst_1 = stablehlo.constant dense<9.99999997E-7> : tensor<f32>\n    %3 = stablehlo.add %2, %cst_1 : tensor<f32>\n    %4 = stablehlo.broadcast_in_dim %1, dims = [] : (tensor<f32>) -> tensor<4xf32>\n    %5 = stablehlo.subtract %arg0, %4 : tensor<4xf32>\n    %6 = stablehlo.broadcast_in_dim %3, dims = [] : (tensor<f32>) -> tensor<4xf32>\n    %7 = stablehlo.divide %5, %6 : tensor<4xf32>\n    return %7 : tensor<4xf32>\n  }\n  func.func private @_std(%arg0: tensor<4xf32>, %arg1: tensor<i32>) -> tensor<f32> {\n    %0 = call @_var(%arg0, %arg1) : (tensor<4xf32>, tensor<i32>) -> tensor<f32>\n    %1 = stablehlo.sqrt %0 : tensor<f32>\n    return %1 : tensor<f32>\n  }\n  func.func private @_var(%arg0: tensor<4xf32>, %arg1: tensor<i32>) -> tensor<f32> {\n    %cst = stablehlo.constant dense<0.000000e+00> : tensor<f32>\n    %0 = stablehlo.reduce(%arg0 init: %cst) applies stablehlo.add across dimensions = [0] : (tensor<4xf32>, tensor<f32>) -> tensor<f32>\n    %1 = stablehlo.broadcast_in_dim %0, dims = [] : (tensor<f32>) -> tensor<1xf32>\n    %cst_0 = stablehlo.constant dense<4.000000e+00> : tensor<f32>\n    %2 = stablehlo.broadcast_in_dim %cst_0, dims = [] : (tensor<f32>) -> tensor<1xf32>\n    %3 = stablehlo.divide %1, %2 : tensor<1xf32>\n    %4 = stablehlo.broadcast_in_dim %3, dims = [0] : (tensor<1xf32>) -> tensor<4xf32>\n    %5 = stablehlo.subtract %arg0, %4 : tensor<4xf32>\n    %6 = chlo.square %5 : tensor<4xf32> -> tensor<4xf32>\n    %7 = stablehlo.convert %arg1 : (tensor<i32>) -> tensor<f32>\n    %cst_1 = stablehlo.constant dense<4.000000e+00> : tensor<f32>\n    %8 = stablehlo.subtract %cst_1, %7 : tensor<f32>\n    %cst_2 = stablehlo.constant dense<0.000000e+00> : tensor<f32>\n    %9 = stablehlo.reduce(%6 init: %cst_2) applies stablehlo.add across dimensions = [0] : (tensor<4xf32>, tensor<f32>) -> tensor<f32>\n    %10 = stablehlo.divide %9, %8 : tensor<f32>\n    %cst_3 = stablehlo.constant dense<0.000000e+00> : tensor<f32>\n    %11 = stablehlo.compare  GT, %8, %cst_3,  FLOAT : (tensor<f32>, tensor<f32>) -> tensor<i1>\n    %cst_4 = stablehlo.constant dense<0x7FC00000> : tensor<f32>\n    %12 = call @_where(%11, %10, %cst_4) : (tensor<i1>, tensor<f32>, tensor<f32>) -> tensor<f32>\n    return %12 : tensor<f32>\n  }\n  func.func private @_where(%arg0: tensor<i1>, %arg1: tensor<f32>, %arg2: tensor<f32>) -> tensor<f32> {\n    %0 = stablehlo.convert %arg2 : tensor<f32>\n    %1 = stablehlo.select %arg0, %arg1, %0 : tensor<i1>, tensor<f32>\n    return %1 : tensor<f32>\n  }\n}\n",
  "input_shapes": [
    [
      4
    ]
  ]
}