{
  "name": "mixed_dlqmmk",
  "source": "def mixed_dlqmmk(x, y):\n    t1 = jnp.maximum(x, 0)\n    t2 = jnp.power(jnp.abs(t1), jnp.abs(y) % 3 + 1)\n    t3 = jnp.min(t2)\n    return t3",
  "jaxpr": "{ lambda ; a:f32[8] b:f32[8]. let\n    c:f32[8] = max a 0.0:f32[]\n    d:f32[8] = abs c\n    e:f32[8] = abs b\n    f:f32[8] = jit[\n      name=remainder\n      jaxpr={ lambda ; e:f32[8] g:i32[]. let\n          h:f32[] = convert_element_type[new_dtype=float32 weak_type=False] g\n          i:f32[8] = rem e h\n          j:bool[8] = ne i 0.0:f32[]\n          k:bool[8] = lt i 0.0:f32[]\n          l:bool[] = lt h 0.0:f32[]\n          m:bool[8] = ne k l\n          n:bool[8] = and m j\n          o:f32[8] = add i h\n          f:f32[8] = select_n n i o\n        in (f,) }\n    ] e 3:i32[]\n    p:f32[8] = add f 1.0:f32[]\n    q:f32[8] = pow d p\n    r:f32[] = reduce_min[axes=(0,)] q\n  in (r,) }",
  "hlo": "module @jit_mixed_dlqmmk attributes {mhlo.num_partitions = 1 : i32, mhlo.num_replicas = 1 : i32} {\n  func.func public @main(%arg0: tensor<8xf32>, %arg1: tensor<8xf32>) -> (tensor<f32> {jax.result_info = \"result\"}) {\n    %cst = stablehlo.constant dense<0.000000e+00> : tensor<f32>\n    %0 = stablehlo.broadcast_in_dim %cst, dims = [] : (tensor<f32>) -> tensor<8xf32>\n    %1 = stablehlo.maximum %arg0, %0 : tensor<8xf32>\n    %2 = stablehlo.abs %1 : tensor<8xf32>\n    %3 = stablehlo.abs %arg1 : tensor<8xf32>\n    %c = stablehlo.constant dense<3> : tensor<i32>\n    %4 = call @remainder(%3, %c) : (tensor<8xf32>, tensor<i32>) -> tensor<8xf32>\n    %cst_0 = stablehlo.constant dense<1.000000e+00> : tensor<f32>\n    %5 = stablehlo.broadcast_in_dim %cst_0, dims = [] : (tensor<f32>) -> tensor<8xf32>\n    %6 = stablehlo.add %4, %5 : tensor<8xf32>\n    %7 = stablehlo.power %2, %6 : tensor<8xf32>\n    %cst_1 = stablehlo.constant dense<0x7F800000> : tensor<f32>\n    %8 = stablehlo.reduce(%7 init: %cst_1) applies stablehlo.minimum across dimensions = [0] : (tensor<8xf32>, tensor<f32>) -> tensor<f32>\n    return %8 : tensor<f32>\n  }\n  func.func private @remainder(%arg0: tensor<8xf32>, %arg1: tensor<i32>) -> tensor<8xf32> {\n    %0 = stablehlo.convert %arg1 : (tensor<i32>) -> tensor<f32>\n    %1 = stablehlo.broadcast_in_dim %0, dims = [] : (tensor<f32>) -> tensor<8xf32>\n    %2 = stablehlo.remainder %arg0, %1 : tensor<8xf32>\n    %cst = stablehlo.constant dense<0.000000e+00> : tensor<f32>\n    %3 = stablehlo.broadcast_in_dim %cst, dims = [] : (tensor<f32>) -> tensor<8xf32>\n    %4 = stablehlo.compare  NE, %2, %3,  FLOAT : (tensor<8xf32>, tensor<8xf32>) -> tensor<8xi1>\n    %cst_0 = stablehlo.constant dense<0.000000e+00> : tensor<f32>\n    %5 = stablehlo.broadcast_in_dim %cst_0, dims = [] : (tensor<f32>) -> tensor<8xf32>\n    %6 = stablehlo.compare  LT, %2, %5,  FLOAT : (tensor<8xf32>, tensor<8xf32>) -> tensor<8xi1>\n    %cst_1 = stablehlo.constant dense<0.000000e+00> : tensor<f32>\n    %7 = stablehlo.compare  LT, %0, %cst_1,  FLOAT : (tensor<f32>, tensor<f32>) -> tensor<i1>\n    %8 = stablehlo.broadcast_in_dim %7, dims = [] : (tensor<i1>) -> tensor<8xi1>\n    %9 = stablehlo.compare  NE, %6, %8,  UNSIGNED : (tensor<8xi1>, tensor<8xi1>) -> tensor<8xi1>\n    %10 = stablehlo.and %9, %4 : tensor<8xi1>\n    %11 = stablehlo.broadcast_in_dim %0, dims = [] : (tensor<f32>) -> tensor<8xf32>\n    %12 = stablehlo.add %2, %11 : tensor<8xf32>\n    %13 = stablehlo.select %10, %12, %2 : tensor<8xi1>, tensor<8xf32>\n    return %13 : tensor<8xf32>\n  }\n}\n",
  "input_shapes": [
    [
      8
    ],
    [
      8
    ]
  ]
}