{
  "name": "mixed_7bin3l",
  "source": "def mixed_7bin3l(x, y):\n    t1 = 1 / (1 + jnp.exp(-x))\n    t2 = t1 * y\n    t3 = jnp.std(t2)\n    return t3",
  "jaxpr": "{ lambda ; a:f32[4] b:f32[4]. let\n    c:f32[4] = neg a\n    d:f32[4] = exp c\n    e:f32[4] = add 1.0:f32[] d\n    f:f32[4] = div 1.0:f32[] e\n    g:f32[4] = mul f b\n    h:f32[] = jit[\n      name=_std\n      jaxpr={ lambda ; g:f32[4] i:i32[]. let\n          j:f32[] = jit[\n            name=_var\n            jaxpr={ lambda ; g:f32[4] i:i32[]. let\n                k:f32[] = reduce_sum[axes=(0,) out_sharding=None] g\n                l:f32[1] = broadcast_in_dim[\n                  broadcast_dimensions=()\n                  shape=(1,)\n                  sharding=None\n                ] k\n                m:f32[1] = div l 4.0:f32[]\n                n:f32[4] = sub g m\n                o:f32[4] = square n\n                p:f32[] = convert_element_type[\n                  new_dtype=float32\n                  weak_type=False\n                ] i\n                q:f32[] = sub 4.0:f32[] p\n                r:f32[] = reduce_sum[axes=(0,) out_sharding=None] o\n                s:f32[] = div r q\n                t:bool[] = gt q 0.0:f32[]\n                j:f32[] = jit[\n                  name=_where\n                  jaxpr={ lambda ; t:bool[] s:f32[] u:f32[]. let\n                      v:f32[] = convert_element_type[\n                        new_dtype=float32\n                        weak_type=False\n                      ] u\n                      j:f32[] = select_n t v s\n                    in (j,) }\n                ] t s nan:f32[]\n              in (j,) }\n          ] g i\n          h:f32[] = sqrt j\n        in (h,) }\n    ] g 0:i32[]\n  in (h,) }",
  "hlo": "module @jit_mixed_7bin3l attributes {mhlo.num_partitions = 1 : i32, mhlo.num_replicas = 1 : i32} {\n  func.func public @main(%arg0: tensor<4xf32>, %arg1: tensor<4xf32>) -> (tensor<f32> {jax.result_info = \"result\"}) {\n    %0 = stablehlo.negate %arg0 : tensor<4xf32>\n    %1 = stablehlo.exponential %0 : tensor<4xf32>\n    %cst = stablehlo.constant dense<1.000000e+00> : tensor<f32>\n    %2 = stablehlo.broadcast_in_dim %cst, dims = [] : (tensor<f32>) -> tensor<4xf32>\n    %3 = stablehlo.add %2, %1 : tensor<4xf32>\n    %cst_0 = stablehlo.constant dense<1.000000e+00> : tensor<f32>\n    %4 = stablehlo.broadcast_in_dim %cst_0, dims = [] : (tensor<f32>) -> tensor<4xf32>\n    %5 = stablehlo.divide %4, %3 : tensor<4xf32>\n    %6 = stablehlo.multiply %5, %arg1 : tensor<4xf32>\n    %c = stablehlo.constant dense<0> : tensor<i32>\n    %7 = call @_std(%6, %c) : (tensor<4xf32>, tensor<i32>) -> tensor<f32>\n    return %7 : tensor<f32>\n  }\n  func.func private @_std(%arg0: tensor<4xf32>, %arg1: tensor<i32>) -> tensor<f32> {\n    %0 = call @_var(%arg0, %arg1) : (tensor<4xf32>, tensor<i32>) -> tensor<f32>\n    %1 = stablehlo.sqrt %0 : tensor<f32>\n    return %1 : tensor<f32>\n  }\n  func.func private @_var(%arg0: tensor<4xf32>, %arg1: tensor<i32>) -> tensor<f32> {\n    %cst = stablehlo.constant dense<0.000000e+00> : tensor<f32>\n    %0 = stablehlo.reduce(%arg0 init: %cst) applies stablehlo.add across dimensions = [0] : (tensor<4xf32>, tensor<f32>) -> tensor<f32>\n    %1 = stablehlo.broadcast_in_dim %0, dims = [] : (tensor<f32>) -> tensor<1xf32>\n    %cst_0 = stablehlo.constant dense<4.000000e+00> : tensor<f32>\n    %2 = stablehlo.broadcast_in_dim %cst_0, dims = [] : (tensor<f32>) -> tensor<1xf32>\n    %3 = stablehlo.divide %1, %2 : tensor<1xf32>\n    %4 = stablehlo.broadcast_in_dim %3, dims = [0] : (tensor<1xf32>) -> tensor<4xf32>\n    %5 = stablehlo.subtract %arg0, %4 : tensor<4xf32>\n    %6 = chlo.square %5 : tensor<4xf32> -> tensor<4xf32>\n    %7 = stablehlo.convert %arg1 : (tensor<i32>) -> tensor<f32>\n    %cst_1 = stablehlo.constant dense<4.000000e+00> : tensor<f32>\n    %8 = stablehlo.subtract %cst_1, %7 : tensor<f32>\n    %cst_2 = stablehlo.constant dense<0.000000e+00> : tensor<f32>\n    %9 = stablehlo.reduce(%6 init: %cst_2) applies stablehlo.add across dimensions = [0] : (tensor<4xf32>, tensor<f32>) -> tensor<f32>\n    %10 = stablehlo.divide %9, %8 : tensor<f32>\n    %cst_3 = stablehlo.constant dense<0.000000e+00> : tensor<f32>\n    %11 = stablehlo.compare  GT, %8, %cst_3,  FLOAT : (tensor<f32>, tensor<f32>) -> tensor<i1>\n    %cst_4 = stablehlo.constant dense<0x7FC00000> : tensor<f32>\n    %12 = call @_where(%11, %10, %cst_4) : (tensor<i1>, tensor<f32>, tensor<f32>) -> tensor<f32>\n    return %12 : tensor<f32>\n  }\n  func.func private @_where(%arg0: tensor<i1>, %arg1: tensor<f32>, %arg2: tensor<f32>) -> tensor<f32> {\n    %0 = stablehlo.convert %arg2 : tensor<f32>\n    %1 = stablehlo.select %arg0, %arg1, %0 : tensor<i1>, tensor<f32>\n    return %1 : tensor<f32>\n  }\n}\n",
  "input_shapes": [
    [
      4
    ],
    [
      4
    ]
  ]
}