{
  "name": "mixed_6hee14",
  "source": "def mixed_6hee14(x, y):\n    t1 = jnp.log(jnp.abs(x) + 1e-6)\n    t2 = jnp.minimum(t1, y)\n    t3 = jnp.std(t2)\n    return t3",
  "jaxpr": "{ lambda ; a:f32[8] b:f32[8]. let\n    c:f32[8] = abs a\n    d:f32[8] = add c 9.999999974752427e-07:f32[]\n    e:f32[8] = log d\n    f:f32[8] = min e b\n    g:f32[] = jit[\n      name=_std\n      jaxpr={ lambda ; f:f32[8] h:i32[]. let\n          i:f32[] = jit[\n            name=_var\n            jaxpr={ lambda ; f:f32[8] h:i32[]. let\n                j:f32[] = reduce_sum[axes=(0,) out_sharding=None] f\n                k:f32[1] = broadcast_in_dim[\n                  broadcast_dimensions=()\n                  shape=(1,)\n                  sharding=None\n                ] j\n                l:f32[1] = div k 8.0:f32[]\n                m:f32[8] = sub f l\n                n:f32[8] = square m\n                o:f32[] = convert_element_type[\n                  new_dtype=float32\n                  weak_type=False\n                ] h\n                p:f32[] = sub 8.0:f32[] o\n                q:f32[] = reduce_sum[axes=(0,) out_sharding=None] n\n                r:f32[] = div q p\n                s:bool[] = gt p 0.0:f32[]\n                i:f32[] = jit[\n                  name=_where\n                  jaxpr={ lambda ; s:bool[] r:f32[] t:f32[]. let\n                      u:f32[] = convert_element_type[\n                        new_dtype=float32\n                        weak_type=False\n                      ] t\n                      i:f32[] = select_n s u r\n                    in (i,) }\n                ] s r nan:f32[]\n              in (i,) }\n          ] f h\n          g:f32[] = sqrt i\n        in (g,) }\n    ] f 0:i32[]\n  in (g,) }",
  "hlo": "module @jit_mixed_6hee14 attributes {mhlo.num_partitions = 1 : i32, mhlo.num_replicas = 1 : i32} {\n  func.func public @main(%arg0: tensor<8xf32>, %arg1: tensor<8xf32>) -> (tensor<f32> {jax.result_info = \"result\"}) {\n    %0 = stablehlo.abs %arg0 : tensor<8xf32>\n    %cst = stablehlo.constant dense<9.99999997E-7> : tensor<f32>\n    %1 = stablehlo.broadcast_in_dim %cst, dims = [] : (tensor<f32>) -> tensor<8xf32>\n    %2 = stablehlo.add %0, %1 : tensor<8xf32>\n    %3 = stablehlo.log %2 : tensor<8xf32>\n    %4 = stablehlo.minimum %3, %arg1 : tensor<8xf32>\n    %c = stablehlo.constant dense<0> : tensor<i32>\n    %5 = call @_std(%4, %c) : (tensor<8xf32>, tensor<i32>) -> tensor<f32>\n    return %5 : tensor<f32>\n  }\n  func.func private @_std(%arg0: tensor<8xf32>, %arg1: tensor<i32>) -> tensor<f32> {\n    %0 = call @_var(%arg0, %arg1) : (tensor<8xf32>, tensor<i32>) -> tensor<f32>\n    %1 = stablehlo.sqrt %0 : tensor<f32>\n    return %1 : tensor<f32>\n  }\n  func.func private @_var(%arg0: tensor<8xf32>, %arg1: tensor<i32>) -> tensor<f32> {\n    %cst = stablehlo.constant dense<0.000000e+00> : tensor<f32>\n    %0 = stablehlo.reduce(%arg0 init: %cst) applies stablehlo.add across dimensions = [0] : (tensor<8xf32>, tensor<f32>) -> tensor<f32>\n    %1 = stablehlo.broadcast_in_dim %0, dims = [] : (tensor<f32>) -> tensor<1xf32>\n    %cst_0 = stablehlo.constant dense<8.000000e+00> : tensor<f32>\n    %2 = stablehlo.broadcast_in_dim %cst_0, dims = [] : (tensor<f32>) -> tensor<1xf32>\n    %3 = stablehlo.divide %1, %2 : tensor<1xf32>\n    %4 = stablehlo.broadcast_in_dim %3, dims = [0] : (tensor<1xf32>) -> tensor<8xf32>\n    %5 = stablehlo.subtract %arg0, %4 : tensor<8xf32>\n    %6 = chlo.square %5 : tensor<8xf32> -> tensor<8xf32>\n    %7 = stablehlo.convert %arg1 : (tensor<i32>) -> tensor<f32>\n    %cst_1 = stablehlo.constant dense<8.000000e+00> : tensor<f32>\n    %8 = stablehlo.subtract %cst_1, %7 : tensor<f32>\n    %cst_2 = stablehlo.constant dense<0.000000e+00> : tensor<f32>\n    %9 = stablehlo.reduce(%6 init: %cst_2) applies stablehlo.add across dimensions = [0] : (tensor<8xf32>, tensor<f32>) -> tensor<f32>\n    %10 = stablehlo.divide %9, %8 : tensor<f32>\n    %cst_3 = stablehlo.constant dense<0.000000e+00> : tensor<f32>\n    %11 = stablehlo.compare  GT, %8, %cst_3,  FLOAT : (tensor<f32>, tensor<f32>) -> tensor<i1>\n    %cst_4 = stablehlo.constant dense<0x7FC00000> : tensor<f32>\n    %12 = call @_where(%11, %10, %cst_4) : (tensor<i1>, tensor<f32>, tensor<f32>) -> tensor<f32>\n    return %12 : tensor<f32>\n  }\n  func.func private @_where(%arg0: tensor<i1>, %arg1: tensor<f32>, %arg2: tensor<f32>) -> tensor<f32> {\n    %0 = stablehlo.convert %arg2 : tensor<f32>\n    %1 = stablehlo.select %arg0, %arg1, %0 : tensor<i1>, tensor<f32>\n    return %1 : tensor<f32>\n  }\n}\n",
  "input_shapes": [
    [
      8
    ],
    [
      8
    ]
  ]
}