{
  "name": "binary_b6hhrv",
  "source": "def binary_b6hhrv(x, y):\n    return jnp.power(jnp.abs(x / (y + 1e-6)), jnp.abs(y) % 3 + 1)",
  "jaxpr": "{ lambda ; a:f32[4] b:f32[4]. let\n    c:f32[4] = add b 9.999999974752427e-07:f32[]\n    d:f32[4] = div a c\n    e:f32[4] = abs d\n    f:f32[4] = abs b\n    g:f32[4] = jit[\n      name=remainder\n      jaxpr={ lambda ; f:f32[4] h:i32[]. let\n          i:f32[] = convert_element_type[new_dtype=float32 weak_type=False] h\n          j:f32[4] = rem f i\n          k:bool[4] = ne j 0.0:f32[]\n          l:bool[4] = lt j 0.0:f32[]\n          m:bool[] = lt i 0.0:f32[]\n          n:bool[4] = ne l m\n          o:bool[4] = and n k\n          p:f32[4] = add j i\n          g:f32[4] = select_n o j p\n        in (g,) }\n    ] f 3:i32[]\n    q:f32[4] = add g 1.0:f32[]\n    r:f32[4] = pow e q\n  in (r,) }",
  "hlo": "module @jit_binary_b6hhrv attributes {mhlo.num_partitions = 1 : i32, mhlo.num_replicas = 1 : i32} {\n  func.func public @main(%arg0: tensor<4xf32>, %arg1: tensor<4xf32>) -> (tensor<4xf32> {jax.result_info = \"result\"}) {\n    %cst = stablehlo.constant dense<9.99999997E-7> : tensor<f32>\n    %0 = stablehlo.broadcast_in_dim %cst, dims = [] : (tensor<f32>) -> tensor<4xf32>\n    %1 = stablehlo.add %arg1, %0 : tensor<4xf32>\n    %2 = stablehlo.divide %arg0, %1 : tensor<4xf32>\n    %3 = stablehlo.abs %2 : tensor<4xf32>\n    %4 = stablehlo.abs %arg1 : tensor<4xf32>\n    %c = stablehlo.constant dense<3> : tensor<i32>\n    %5 = call @remainder(%4, %c) : (tensor<4xf32>, tensor<i32>) -> tensor<4xf32>\n    %cst_0 = stablehlo.constant dense<1.000000e+00> : tensor<f32>\n    %6 = stablehlo.broadcast_in_dim %cst_0, dims = [] : (tensor<f32>) -> tensor<4xf32>\n    %7 = stablehlo.add %5, %6 : tensor<4xf32>\n    %8 = stablehlo.power %3, %7 : tensor<4xf32>\n    return %8 : tensor<4xf32>\n  }\n  func.func private @remainder(%arg0: tensor<4xf32>, %arg1: tensor<i32>) -> tensor<4xf32> {\n    %0 = stablehlo.convert %arg1 : (tensor<i32>) -> tensor<f32>\n    %1 = stablehlo.broadcast_in_dim %0, dims = [] : (tensor<f32>) -> tensor<4xf32>\n    %2 = stablehlo.remainder %arg0, %1 : tensor<4xf32>\n    %cst = stablehlo.constant dense<0.000000e+00> : tensor<f32>\n    %3 = stablehlo.broadcast_in_dim %cst, dims = [] : (tensor<f32>) -> tensor<4xf32>\n    %4 = stablehlo.compare  NE, %2, %3,  FLOAT : (tensor<4xf32>, tensor<4xf32>) -> tensor<4xi1>\n    %cst_0 = stablehlo.constant dense<0.000000e+00> : tensor<f32>\n    %5 = stablehlo.broadcast_in_dim %cst_0, dims = [] : (tensor<f32>) -> tensor<4xf32>\n    %6 = stablehlo.compare  LT, %2, %5,  FLOAT : (tensor<4xf32>, tensor<4xf32>) -> tensor<4xi1>\n    %cst_1 = stablehlo.constant dense<0.000000e+00> : tensor<f32>\n    %7 = stablehlo.compare  LT, %0, %cst_1,  FLOAT : (tensor<f32>, tensor<f32>) -> tensor<i1>\n    %8 = stablehlo.broadcast_in_dim %7, dims = [] : (tensor<i1>) -> tensor<4xi1>\n    %9 = stablehlo.compare  NE, %6, %8,  UNSIGNED : (tensor<4xi1>, tensor<4xi1>) -> tensor<4xi1>\n    %10 = stablehlo.and %9, %4 : tensor<4xi1>\n    %11 = stablehlo.broadcast_in_dim %0, dims = [] : (tensor<f32>) -> tensor<4xf32>\n    %12 = stablehlo.add %2, %11 : tensor<4xf32>\n    %13 = stablehlo.select %10, %12, %2 : tensor<4xi1>, tensor<4xf32>\n    return %13 : tensor<4xf32>\n  }\n}\n",
  "input_shapes": [
    [
      4
    ],
    [
      4
    ]
  ]
}