{
  "python_source": "def f(x): m = jnp.mean(x, axis=0, keepdims=True); s = jnp.std(x, axis=0, keepdims=True); return (x - m) / (s + 1e-5)",
  "jaxpr": "{ lambda ; a:f32[8,8]. let\n    b:f32[8] = reduce_sum[axes=(0,) out_sharding=None] a\n    c:f32[1,8] = broadcast_in_dim[\n      broadcast_dimensions=(1,)\n      shape=(1, 8)\n      sharding=None\n    ] b\n    d:f32[1,8] = div c 8.0:f32[]\n    e:f32[1,8] = jit[\n      name=_std\n      jaxpr={ lambda ; a:f32[8,8] f:i32[]. let\n          g:f32[1,8] = jit[\n            name=_var\n            jaxpr={ lambda ; a:f32[8,8] f:i32[]. let\n                h:f32[8] = reduce_sum[axes=(0,) out_sharding=None] a\n                i:f32[1,8] = broadcast_in_dim[\n                  broadcast_dimensions=(1,)\n                  shape=(1, 8)\n                  sharding=None\n                ] h\n                j:f32[1,8] = div i 8.0:f32[]\n                k:f32[8,8] = sub a j\n                l:f32[8,8] = square k\n                m:f32[] = convert_element_type[\n                  new_dtype=float32\n                  weak_type=False\n                ] f\n                n:f32[] = sub 8.0:f32[] m\n                o:f32[8] = reduce_sum[axes=(0,) out_sharding=None] l\n                p:f32[1,8] = broadcast_in_dim[\n                  broadcast_dimensions=(1,)\n                  shape=(1, 8)\n                  sharding=None\n                ] o\n                q:f32[1,8] = div p n\n                r:bool[] = gt n 0.0:f32[]\n                g:f32[1,8] = jit[\n                  name=_where\n                  jaxpr={ lambda ; r:bool[] q:f32[1,8] s:f32[]. let\n                      t:f32[] = convert_element_type[\n                        new_dtype=float32\n                        weak_type=False\n                      ] s\n                      u:f32[1,8] = broadcast_in_dim[\n                        broadcast_dimensions=()\n                        shape=(1, 8)\n                        sharding=None\n                      ] t\n                      g:f32[1,8] = select_n r u q\n                    in (g,) }\n                ] r q nan:f32[]\n              in (g,) }\n          ] a f\n          e:f32[1,8] = sqrt g\n        in (e,) }\n    ] a 0:i32[]\n    v:f32[8,8] = sub a d\n    w:f32[1,8] = add e 9.999999747378752e-06:f32[]\n    x:f32[8,8] = div v w\n  in (x,) }",
  "hlo_text": "module @jit_fn attributes {mhlo.num_partitions = 1 : i32, mhlo.num_replicas = 1 : i32} {\n  func.func public @main(%arg0: tensor<8x8xf32>) -> (tensor<8x8xf32> {jax.result_info = \"result\"}) {\n    %cst = stablehlo.constant dense<0.000000e+00> : tensor<f32>\n    %0 = stablehlo.reduce(%arg0 init: %cst) applies stablehlo.add across dimensions = [0] : (tensor<8x8xf32>, tensor<f32>) -> tensor<8xf32>\n    %1 = stablehlo.broadcast_in_dim %0, dims = [1] : (tensor<8xf32>) -> tensor<1x8xf32>\n    %cst_0 = stablehlo.constant dense<8.000000e+00> : tensor<f32>\n    %2 = stablehlo.broadcast_in_dim %cst_0, dims = [] : (tensor<f32>) -> tensor<1x8xf32>\n    %3 = stablehlo.divide %1, %2 : tensor<1x8xf32>\n    %c = stablehlo.constant dense<0> : tensor<i32>\n    %4 = call @_std(%arg0, %c) : (tensor<8x8xf32>, tensor<i32>) -> tensor<1x8xf32>\n    %5 = stablehlo.broadcast_in_dim %3, dims = [0, 1] : (tensor<1x8xf32>) -> tensor<8x8xf32>\n    %6 = stablehlo.subtract %arg0, %5 : tensor<8x8xf32>\n    %cst_1 = stablehlo.constant dense<9.99999974E-6> : tensor<f32>\n    %7 = stablehlo.broadcast_in_dim %cst_1, dims = [] : (tensor<f32>) -> tensor<1x8xf32>\n    %8 = stablehlo.add %4, %7 : tensor<1x8xf32>\n    %9 = stablehlo.broadcast_in_dim %8, dims = [0, 1] : (tensor<1x8xf32>) -> tensor<8x8xf32>\n    %10 = stablehlo.divide %6, %9 : tensor<8x8xf32>\n    return %10 : tensor<8x8xf32>\n  }\n  func.func private @_std(%arg0: tensor<8x8xf32>, %arg1: tensor<i32>) -> tensor<1x8xf32> {\n    %0 = call @_var(%arg0, %arg1) : (tensor<8x8xf32>, tensor<i32>) -> tensor<1x8xf32>\n    %1 = stablehlo.sqrt %0 : tensor<1x8xf32>\n    return %1 : tensor<1x8xf32>\n  }\n  func.func private @_var(%arg0: tensor<8x8xf32>, %arg1: tensor<i32>) -> tensor<1x8xf32> {\n    %cst = stablehlo.constant dense<0.000000e+00> : tensor<f32>\n    %0 = stablehlo.reduce(%arg0 init: %cst) applies stablehlo.add across dimensions = [0] : (tensor<8x8xf32>, tensor<f32>) -> tensor<8xf32>\n    %1 = stablehlo.broadcast_in_dim %0, dims = [1] : (tensor<8xf32>) -> tensor<1x8xf32>\n    %cst_0 = stablehlo.constant dense<8.000000e+00> : tensor<f32>\n    %2 = stablehlo.broadcast_in_dim %cst_0, dims = [] : (tensor<f32>) -> tensor<1x8xf32>\n    %3 = stablehlo.divide %1, %2 : tensor<1x8xf32>\n    %4 = stablehlo.broadcast_in_dim %3, dims = [0, 1] : (tensor<1x8xf32>) -> tensor<8x8xf32>\n    %5 = stablehlo.subtract %arg0, %4 : tensor<8x8xf32>\n    %6 = chlo.square %5 : tensor<8x8xf32> -> tensor<8x8xf32>\n    %7 = stablehlo.convert %arg1 : (tensor<i32>) -> tensor<f32>\n    %cst_1 = stablehlo.constant dense<8.000000e+00> : tensor<f32>\n    %8 = stablehlo.subtract %cst_1, %7 : tensor<f32>\n    %cst_2 = stablehlo.constant dense<0.000000e+00> : tensor<f32>\n    %9 = stablehlo.reduce(%6 init: %cst_2) applies stablehlo.add across dimensions = [0] : (tensor<8x8xf32>, tensor<f32>) -> tensor<8xf32>\n    %10 = stablehlo.broadcast_in_dim %9, dims = [1] : (tensor<8xf32>) -> tensor<1x8xf32>\n    %11 = stablehlo.broadcast_in_dim %8, dims = [] : (tensor<f32>) -> tensor<1x8xf32>\n    %12 = stablehlo.divide %10, %11 : tensor<1x8xf32>\n    %cst_3 = stablehlo.constant dense<0.000000e+00> : tensor<f32>\n    %13 = stablehlo.compare  GT, %8, %cst_3,  FLOAT : (tensor<f32>, tensor<f32>) -> tensor<i1>\n    %cst_4 = stablehlo.constant dense<0x7FC00000> : tensor<f32>\n    %14 = call @_where(%13, %12, %cst_4) : (tensor<i1>, tensor<1x8xf32>, tensor<f32>) -> tensor<1x8xf32>\n    return %14 : tensor<1x8xf32>\n  }\n  func.func private @_where(%arg0: tensor<i1>, %arg1: tensor<1x8xf32>, %arg2: tensor<f32>) -> tensor<1x8xf32> {\n    %0 = stablehlo.convert %arg2 : tensor<f32>\n    %1 = stablehlo.broadcast_in_dim %0, dims = [] : (tensor<f32>) -> tensor<1x8xf32>\n    %2 = stablehlo.select %arg0, %arg1, %1 : tensor<i1>, tensor<1x8xf32>\n    return %2 : tensor<1x8xf32>\n  }\n}\n",
  "input_shapes": [
    "float32[8, 8]"
  ],
  "seed": 7007
}