{
  "function_name": "cond_nryxoc",
  "category": "mixed",
  "python_source": "def cond_nryxoc(x):\n    \"\"\"Scale x based on threshold 2.76\"\"\"\n    return jnp.where(x > 2.76, x * -2.22, x * -3.12)",
  "stablehlo_ir": "module @jit_cond_nryxoc attributes {mhlo.num_partitions = 1 : i32, mhlo.num_replicas = 1 : i32} {\n  func.func public @main(%arg0: tensor<4xf32>) -> (tensor<4xf32> {jax.result_info = \"result\"}) {\n    %cst = stablehlo.constant dense<2.760000e+00> : tensor<f32>\n    %0 = stablehlo.broadcast_in_dim %cst, dims = [] : (tensor<f32>) -> tensor<4xf32>\n    %1 = stablehlo.compare  GT, %arg0, %0,  FLOAT : (tensor<4xf32>, tensor<4xf32>) -> tensor<4xi1>\n    %cst_0 = stablehlo.constant dense<-2.220000e+00> : tensor<f32>\n    %2 = stablehlo.broadcast_in_dim %cst_0, dims = [] : (tensor<f32>) -> tensor<4xf32>\n    %3 = stablehlo.multiply %arg0, %2 : tensor<4xf32>\n    %cst_1 = stablehlo.constant dense<-3.120000e+00> : tensor<f32>\n    %4 = stablehlo.broadcast_in_dim %cst_1, dims = [] : (tensor<f32>) -> tensor<4xf32>\n    %5 = stablehlo.multiply %arg0, %4 : tensor<4xf32>\n    %6 = call @_where(%1, %3, %5) : (tensor<4xi1>, tensor<4xf32>, tensor<4xf32>) -> tensor<4xf32>\n    return %6 : tensor<4xf32>\n  }\n  func.func private @_where(%arg0: tensor<4xi1>, %arg1: tensor<4xf32>, %arg2: tensor<4xf32>) -> tensor<4xf32> {\n    %0 = stablehlo.select %arg0, %arg1, %arg2 : tensor<4xi1>, tensor<4xf32>\n    return %0 : tensor<4xf32>\n  }\n}\n",
  "cost_analysis": {
    "flops": 16.0,
    "bytes accessed": 244.0,
    "utilization0{}": 7.0,
    "utilization1{}": 4.0,
    "bytes accessed0{}": 64.0,
    "bytes accessed1{}": 64.0,
    "bytes accessedout{}": 100.0,
    "utilization2{}": 1.0,
    "bytes accessed2{}": 16.0
  },
  "params": [
    [
      "x",
      "array"
    ]
  ],
  "docstring": "Scale x based on threshold 2.76"
}