{
  "function_name": "cond_rdlecn",
  "category": "mixed",
  "python_source": "def cond_rdlecn(x):\n    \"\"\"Scale x based on threshold -8.72\"\"\"\n    return jnp.where(x >= -8.72, x * 3.27, x * 8.35)",
  "stablehlo_ir": "module @jit_cond_rdlecn attributes {mhlo.num_partitions = 1 : i32, mhlo.num_replicas = 1 : i32} {\n  func.func public @main(%arg0: tensor<16xf32>) -> (tensor<16xf32> {jax.result_info = \"result\"}) {\n    %cst = stablehlo.constant dense<-8.720000e+00> : tensor<f32>\n    %0 = stablehlo.broadcast_in_dim %cst, dims = [] : (tensor<f32>) -> tensor<16xf32>\n    %1 = stablehlo.compare  GE, %arg0, %0,  FLOAT : (tensor<16xf32>, tensor<16xf32>) -> tensor<16xi1>\n    %cst_0 = stablehlo.constant dense<3.270000e+00> : tensor<f32>\n    %2 = stablehlo.broadcast_in_dim %cst_0, dims = [] : (tensor<f32>) -> tensor<16xf32>\n    %3 = stablehlo.multiply %arg0, %2 : tensor<16xf32>\n    %cst_1 = stablehlo.constant dense<8.350000e+00> : tensor<f32>\n    %4 = stablehlo.broadcast_in_dim %cst_1, dims = [] : (tensor<f32>) -> tensor<16xf32>\n    %5 = stablehlo.multiply %arg0, %4 : tensor<16xf32>\n    %6 = call @_where(%1, %3, %5) : (tensor<16xi1>, tensor<16xf32>, tensor<16xf32>) -> tensor<16xf32>\n    return %6 : tensor<16xf32>\n  }\n  func.func private @_where(%arg0: tensor<16xi1>, %arg1: tensor<16xf32>, %arg2: tensor<16xf32>) -> tensor<16xf32> {\n    %0 = stablehlo.select %arg0, %arg1, %arg2 : tensor<16xi1>, tensor<16xf32>\n    return %0 : tensor<16xf32>\n  }\n}\n",
  "cost_analysis": {
    "flops": 64.0,
    "bytes accessed": 940.0,
    "utilization0{}": 7.0,
    "utilization1{}": 4.0,
    "bytes accessed0{}": 220.0,
    "bytes accessed1{}": 256.0,
    "bytes accessedout{}": 400.0,
    "utilization2{}": 1.0,
    "bytes accessed2{}": 64.0
  },
  "params": [
    [
      "x",
      "array"
    ]
  ],
  "docstring": "Scale x based on threshold -8.72"
}