{
  "function_name": "cond_epdrgv",
  "category": "mixed",
  "python_source": "def cond_epdrgv(x):\n    \"\"\"Scale x based on threshold -4.09\"\"\"\n    return jnp.where(x > -4.09, x * -9.62, x * 4.8)",
  "stablehlo_ir": "module @jit_cond_epdrgv attributes {mhlo.num_partitions = 1 : i32, mhlo.num_replicas = 1 : i32} {\n  func.func public @main(%arg0: tensor<32xf32>) -> (tensor<32xf32> {jax.result_info = \"result\"}) {\n    %cst = stablehlo.constant dense<-4.090000e+00> : tensor<f32>\n    %0 = stablehlo.broadcast_in_dim %cst, dims = [] : (tensor<f32>) -> tensor<32xf32>\n    %1 = stablehlo.compare  GT, %arg0, %0,  FLOAT : (tensor<32xf32>, tensor<32xf32>) -> tensor<32xi1>\n    %cst_0 = stablehlo.constant dense<-9.61999988> : tensor<f32>\n    %2 = stablehlo.broadcast_in_dim %cst_0, dims = [] : (tensor<f32>) -> tensor<32xf32>\n    %3 = stablehlo.multiply %arg0, %2 : tensor<32xf32>\n    %cst_1 = stablehlo.constant dense<4.800000e+00> : tensor<f32>\n    %4 = stablehlo.broadcast_in_dim %cst_1, dims = [] : (tensor<f32>) -> tensor<32xf32>\n    %5 = stablehlo.multiply %arg0, %4 : tensor<32xf32>\n    %6 = call @_where(%1, %3, %5) : (tensor<32xi1>, tensor<32xf32>, tensor<32xf32>) -> tensor<32xf32>\n    return %6 : tensor<32xf32>\n  }\n  func.func private @_where(%arg0: tensor<32xi1>, %arg1: tensor<32xf32>, %arg2: tensor<32xf32>) -> tensor<32xf32> {\n    %0 = stablehlo.select %arg0, %arg1, %arg2 : tensor<32xi1>, tensor<32xf32>\n    return %0 : tensor<32xf32>\n  }\n}\n",
  "cost_analysis": {
    "flops": 128.0,
    "bytes accessed": 1868.0,
    "utilization0{}": 7.0,
    "utilization1{}": 4.0,
    "bytes accessed0{}": 428.0,
    "bytes accessed1{}": 512.0,
    "bytes accessedout{}": 800.0,
    "bytes accessed2{}": 128.0,
    "utilization2{}": 1.0
  },
  "params": [
    [
      "x",
      "array"
    ]
  ],
  "docstring": "Scale x based on threshold -4.09"
}