{
  "function_name": "cond_qwarzs",
  "category": "mixed",
  "python_source": "def cond_qwarzs(x):\n    \"\"\"Scale x based on threshold 8.03\"\"\"\n    return jnp.where(x == 8.03, x * -6.9, x * -7.48)",
  "stablehlo_ir": "module @jit_cond_qwarzs attributes {mhlo.num_partitions = 1 : i32, mhlo.num_replicas = 1 : i32} {\n  func.func public @main(%arg0: tensor<8xf32>) -> (tensor<8xf32> {jax.result_info = \"result\"}) {\n    %cst = stablehlo.constant dense<8.02999973> : tensor<f32>\n    %0 = stablehlo.broadcast_in_dim %cst, dims = [] : (tensor<f32>) -> tensor<8xf32>\n    %1 = stablehlo.compare  EQ, %arg0, %0,  FLOAT : (tensor<8xf32>, tensor<8xf32>) -> tensor<8xi1>\n    %cst_0 = stablehlo.constant dense<-6.900000e+00> : tensor<f32>\n    %2 = stablehlo.broadcast_in_dim %cst_0, dims = [] : (tensor<f32>) -> tensor<8xf32>\n    %3 = stablehlo.multiply %arg0, %2 : tensor<8xf32>\n    %cst_1 = stablehlo.constant dense<-7.480000e+00> : tensor<f32>\n    %4 = stablehlo.broadcast_in_dim %cst_1, dims = [] : (tensor<f32>) -> tensor<8xf32>\n    %5 = stablehlo.multiply %arg0, %4 : tensor<8xf32>\n    %6 = call @_where(%1, %3, %5) : (tensor<8xi1>, tensor<8xf32>, tensor<8xf32>) -> tensor<8xf32>\n    return %6 : tensor<8xf32>\n  }\n  func.func private @_where(%arg0: tensor<8xi1>, %arg1: tensor<8xf32>, %arg2: tensor<8xf32>) -> tensor<8xf32> {\n    %0 = stablehlo.select %arg0, %arg1, %arg2 : tensor<8xi1>, tensor<8xf32>\n    return %0 : tensor<8xf32>\n  }\n}\n",
  "cost_analysis": {
    "flops": 32.0,
    "bytes accessed": 476.0,
    "utilization0{}": 7.0,
    "utilization1{}": 4.0,
    "bytes accessed0{}": 116.0,
    "bytes accessed1{}": 128.0,
    "bytes accessedout{}": 200.0,
    "bytes accessed2{}": 32.0,
    "utilization2{}": 1.0
  },
  "params": [
    [
      "x",
      "array"
    ]
  ],
  "docstring": "Scale x based on threshold 8.03"
}