{
  "name": "composite_cyce",
  "python_source": "def composite_cyce(x):\n    \"\"\"Composite function with multiple operations.\"\"\"\n    return jnp.exp(-jnp.abs(x)) + jax.nn.relu(x)",
  "jaxpr": "{ lambda ; a:f32[2,6]. let\n    b:f32[2,6] = abs a\n    c:f32[2,6] = neg b\n    d:f32[2,6] = exp c\n    e:f32[2,6] = custom_jvp_call[\n      name=relu\n      call_jaxpr={ lambda ; f:f32[2,6]. let\n          g:f32[2,6] = jit[\n            name=relu\n            jaxpr={ lambda ; f:f32[2,6]. let\n                g:f32[2,6] = max f 0.0:f32[]\n              in (g,) }\n          ] f\n        in (g,) }\n      jvp=jvp\n      symbolic_zeros=False\n    ] a\n    h:f32[2,6] = add d e\n  in (h,) }",
  "stablehlo": "module @jit_composite_cyce attributes {mhlo.num_partitions = 1 : i32, mhlo.num_replicas = 1 : i32} {\n  func.func public @main(%arg0: tensor<2x6xf32>) -> (tensor<2x6xf32> {jax.result_info = \"result\"}) {\n    %0 = stablehlo.abs %arg0 : tensor<2x6xf32>\n    %1 = stablehlo.negate %0 : tensor<2x6xf32>\n    %2 = stablehlo.exponential %1 : tensor<2x6xf32>\n    %3 = call @relu(%arg0) : (tensor<2x6xf32>) -> tensor<2x6xf32>\n    %4 = stablehlo.add %2, %3 : tensor<2x6xf32>\n    return %4 : tensor<2x6xf32>\n  }\n  func.func private @relu(%arg0: tensor<2x6xf32>) -> tensor<2x6xf32> {\n    %cst = stablehlo.constant dense<0.000000e+00> : tensor<f32>\n    %0 = stablehlo.broadcast_in_dim %cst, dims = [] : (tensor<f32>) -> tensor<2x6xf32>\n    %1 = stablehlo.maximum %arg0, %0 : tensor<2x6xf32>\n    return %1 : tensor<2x6xf32>\n  }\n}\n",
  "xla_hlo": "HloModule jit_composite_cyce, entry_computation_layout={(f32[2,6]{1,0})->f32[2,6]{1,0}}\n\nrelu.1 {\n  Arg_0.1 = f32[2,6]{1,0} parameter(0)\n  constant.1 = f32[] constant(0)\n  broadcast.1 = f32[2,6]{1,0} broadcast(constant.1), dimensions={}\n  ROOT max.1 = f32[2,6]{1,0} maximum(Arg_0.1, broadcast.1)\n}\n\nENTRY main.2 {\n  x.1 = f32[2,6]{1,0} parameter(0)\n  abs.1 = f32[2,6]{1,0} abs(x.1)\n  neg.1 = f32[2,6]{1,0} negate(abs.1)\n  exp.1 = f32[2,6]{1,0} exponential(neg.1)\n  jit_relu_.1 = f32[2,6]{1,0} call(x.1), to_apply=relu.1\n  ROOT add.1 = f32[2,6]{1,0} add(exp.1, jit_relu_.1)\n}\n\n",
  "input_shapes": [
    [
      2,
      6
    ]
  ],
  "output_shape": [
    2,
    6
  ]
}