{
  "name": "composite_ikab",
  "python_source": "def composite_ikab(x):\n    \"\"\"Composite function with multiple operations.\"\"\"\n    return jnp.tanh(x) + jax.nn.relu(x) + jnp.sin(x)",
  "jaxpr": "{ lambda ; a:f32[9,3]. let\n    b:f32[9,3] = tanh a\n    c:f32[9,3] = custom_jvp_call[\n      name=relu\n      call_jaxpr={ lambda ; d:f32[9,3]. let\n          e:f32[9,3] = jit[\n            name=relu\n            jaxpr={ lambda ; d:f32[9,3]. let\n                e:f32[9,3] = max d 0.0:f32[]\n              in (e,) }\n          ] d\n        in (e,) }\n      jvp=jvp\n      symbolic_zeros=False\n    ] a\n    f:f32[9,3] = add b c\n    g:f32[9,3] = sin a\n    h:f32[9,3] = add f g\n  in (h,) }",
  "stablehlo": "module @jit_composite_ikab attributes {mhlo.num_partitions = 1 : i32, mhlo.num_replicas = 1 : i32} {\n  func.func public @main(%arg0: tensor<9x3xf32>) -> (tensor<9x3xf32> {jax.result_info = \"result\"}) {\n    %0 = stablehlo.tanh %arg0 : tensor<9x3xf32>\n    %1 = call @relu(%arg0) : (tensor<9x3xf32>) -> tensor<9x3xf32>\n    %2 = stablehlo.add %0, %1 : tensor<9x3xf32>\n    %3 = stablehlo.sine %arg0 : tensor<9x3xf32>\n    %4 = stablehlo.add %2, %3 : tensor<9x3xf32>\n    return %4 : tensor<9x3xf32>\n  }\n  func.func private @relu(%arg0: tensor<9x3xf32>) -> tensor<9x3xf32> {\n    %cst = stablehlo.constant dense<0.000000e+00> : tensor<f32>\n    %0 = stablehlo.broadcast_in_dim %cst, dims = [] : (tensor<f32>) -> tensor<9x3xf32>\n    %1 = stablehlo.maximum %arg0, %0 : tensor<9x3xf32>\n    return %1 : tensor<9x3xf32>\n  }\n}\n",
  "xla_hlo": "HloModule jit_composite_ikab, entry_computation_layout={(f32[9,3]{1,0})->f32[9,3]{1,0}}\n\nrelu.1 {\n  Arg_0.1 = f32[9,3]{1,0} parameter(0)\n  constant.1 = f32[] constant(0)\n  broadcast.1 = f32[9,3]{1,0} broadcast(constant.1), dimensions={}\n  ROOT max.1 = f32[9,3]{1,0} maximum(Arg_0.1, broadcast.1)\n}\n\nENTRY main.2 {\n  x.1 = f32[9,3]{1,0} parameter(0)\n  tanh.1 = f32[9,3]{1,0} tanh(x.1)\n  jit_relu_.1 = f32[9,3]{1,0} call(x.1), to_apply=relu.1\n  add.2 = f32[9,3]{1,0} add(tanh.1, jit_relu_.1)\n  sin.1 = f32[9,3]{1,0} sine(x.1)\n  ROOT add.3 = f32[9,3]{1,0} add(add.2, sin.1)\n}\n\n",
  "input_shapes": [
    [
      9,
      3
    ]
  ],
  "output_shape": [
    9,
    3
  ]
}