{
  "name": "pow_oofr",
  "python_source": "def pow_oofr(x, y):\n    \"\"\"Power operation.\"\"\"\n    return jnp.power(jnp.abs(x), jnp.abs(y) % 3 + 1)",
  "jaxpr": "{ lambda ; a:f32[15,14] b:f32[15,14]. let\n    c:f32[15,14] = abs a\n    d:f32[15,14] = abs b\n    e:f32[15,14] = jit[\n      name=remainder\n      jaxpr={ lambda ; d:f32[15,14] f:i32[]. let\n          g:f32[] = convert_element_type[new_dtype=float32 weak_type=False] f\n          h:f32[15,14] = rem d g\n          i:bool[15,14] = ne h 0.0:f32[]\n          j:bool[15,14] = lt h 0.0:f32[]\n          k:bool[] = lt g 0.0:f32[]\n          l:bool[15,14] = ne j k\n          m:bool[15,14] = and l i\n          n:f32[15,14] = add h g\n          e:f32[15,14] = select_n m h n\n        in (e,) }\n    ] d 3:i32[]\n    o:f32[15,14] = add e 1.0:f32[]\n    p:f32[15,14] = pow c o\n  in (p,) }",
  "stablehlo": "module @jit_pow_oofr attributes {mhlo.num_partitions = 1 : i32, mhlo.num_replicas = 1 : i32} {\n  func.func public @main(%arg0: tensor<15x14xf32>, %arg1: tensor<15x14xf32>) -> (tensor<15x14xf32> {jax.result_info = \"result\"}) {\n    %0 = stablehlo.abs %arg0 : tensor<15x14xf32>\n    %1 = stablehlo.abs %arg1 : tensor<15x14xf32>\n    %c = stablehlo.constant dense<3> : tensor<i32>\n    %2 = call @remainder(%1, %c) : (tensor<15x14xf32>, tensor<i32>) -> tensor<15x14xf32>\n    %cst = stablehlo.constant dense<1.000000e+00> : tensor<f32>\n    %3 = stablehlo.broadcast_in_dim %cst, dims = [] : (tensor<f32>) -> tensor<15x14xf32>\n    %4 = stablehlo.add %2, %3 : tensor<15x14xf32>\n    %5 = stablehlo.power %0, %4 : tensor<15x14xf32>\n    return %5 : tensor<15x14xf32>\n  }\n  func.func private @remainder(%arg0: tensor<15x14xf32>, %arg1: tensor<i32>) -> tensor<15x14xf32> {\n    %0 = stablehlo.convert %arg1 : (tensor<i32>) -> tensor<f32>\n    %1 = stablehlo.broadcast_in_dim %0, dims = [] : (tensor<f32>) -> tensor<15x14xf32>\n    %2 = stablehlo.remainder %arg0, %1 : tensor<15x14xf32>\n    %cst = stablehlo.constant dense<0.000000e+00> : tensor<f32>\n    %3 = stablehlo.broadcast_in_dim %cst, dims = [] : (tensor<f32>) -> tensor<15x14xf32>\n    %4 = stablehlo.compare  NE, %2, %3,  FLOAT : (tensor<15x14xf32>, tensor<15x14xf32>) -> tensor<15x14xi1>\n    %cst_0 = stablehlo.constant dense<0.000000e+00> : tensor<f32>\n    %5 = stablehlo.broadcast_in_dim %cst_0, dims = [] : (tensor<f32>) -> tensor<15x14xf32>\n    %6 = stablehlo.compare  LT, %2, %5,  FLOAT : (tensor<15x14xf32>, tensor<15x14xf32>) -> tensor<15x14xi1>\n    %cst_1 = stablehlo.constant dense<0.000000e+00> : tensor<f32>\n    %7 = stablehlo.compare  LT, %0, %cst_1,  FLOAT : (tensor<f32>, tensor<f32>) -> tensor<i1>\n    %8 = stablehlo.broadcast_in_dim %7, dims = [] : (tensor<i1>) -> tensor<15x14xi1>\n    %9 = stablehlo.compare  NE, %6, %8,  UNSIGNED : (tensor<15x14xi1>, tensor<15x14xi1>) -> tensor<15x14xi1>\n    %10 = stablehlo.and %9, %4 : tensor<15x14xi1>\n    %11 = stablehlo.broadcast_in_dim %0, dims = [] : (tensor<f32>) -> tensor<15x14xf32>\n    %12 = stablehlo.add %2, %11 : tensor<15x14xf32>\n    %13 = stablehlo.select %10, %12, %2 : tensor<15x14xi1>, tensor<15x14xf32>\n    return %13 : tensor<15x14xf32>\n  }\n}\n",
  "xla_hlo": "HloModule jit_pow_oofr, entry_computation_layout={(f32[15,14]{1,0}, f32[15,14]{1,0})->f32[15,14]{1,0}}\n\nremainder.1 {\n  Arg_0.1 = f32[15,14]{1,0} parameter(0)\n  Arg_1.1 = s32[] parameter(1)\n  convert_element_type.1 = f32[] convert(Arg_1.1)\n  rem.2 = f32[15,14]{1,0} broadcast(convert_element_type.1), dimensions={}\n  rem.3 = f32[15,14]{1,0} remainder(Arg_0.1, rem.2)\n  constant.4 = f32[] constant(0)\n  broadcast.1 = f32[15,14]{1,0} broadcast(constant.4), dimensions={}\n  lt.2 = pred[15,14]{1,0} compare(rem.3, broadcast.1), direction=LT\n  constant.5 = f32[] constant(0)\n  lt.3 = pred[] compare(convert_element_type.1, constant.5), direction=LT\n  ne.4 = pred[15,14]{1,0} broadcast(lt.3), dimensions={}\n  ne.5 = pred[15,14]{1,0} compare(lt.2, ne.4), direction=NE\n  ne.3 = pred[15,14]{1,0} compare(rem.3, broadcast.1), direction=NE\n  and.1 = pred[15,14]{1,0} and(ne.5, ne.3)\n  add.3 = f32[15,14]{1,0} broadcast(convert_element_type.1), dimensions={}\n  add.4 = f32[15,14]{1,0} add(rem.3, add.3)\n  ROOT select_n.1 = f32[15,14]{1,0} select(and.1, add.4, rem.3)\n}\n\nENTRY main.2 {\n  x.1 = f32[15,14]{1,0} parameter(0)\n  abs.2 = f32[15,14]{1,0} abs(x.1)\n  y.1 = f32[15,14]{1,0} parameter(1)\n  abs.3 = f32[15,14]{1,0} abs(y.1)\n  constant.7 = s32[] constant(3)\n  jit_remainder_.1 = f32[15,14]{1,0} call(abs.3, constant.7), to_apply=remainder.1\n  constant.6 = f32[] constant(1)\n  add.6 = f32[15,14]{1,0} broadcast(constant.6), dimensions={}\n  add.7 = f32[15,14]{1,0} add(jit_remainder_.1, add.6)\n  ROOT pow.1 = f32[15,14]{1,0} power(abs.2, add.7)\n}\n\n",
  "input_shapes": [
    [
      15,
      14
    ],
    [
      15,
      14
    ]
  ],
  "output_shape": [
    15,
    14
  ]
}