[
  {
    "python_code": "lambda x: x + 1.0",
    "input_info": [
      {
        "shape": [
          2
        ],
        "dtype": "float32"
      }
    ],
    "jaxpr": "{ lambda ; a:f32[2]. let b:f32[2] = add a 1.0:f32[] in (b,) }",
    "stablehlo": "module @jit__lambda attributes {mhlo.num_partitions = 1 : i32, mhlo.num_replicas = 1 : i32} {\n  func.func public @main(%arg0: tensor<2xf32>) -> (tensor<2xf32> {jax.result_info = \"result\"}) {\n    %cst = stablehlo.constant dense<1.000000e+00> : tensor<f32>\n    %0 = stablehlo.broadcast_in_dim %cst, dims = [] : (tensor<f32>) -> tensor<2xf32>\n    %1 = stablehlo.add %arg0, %0 : tensor<2xf32>\n    return %1 : tensor<2xf32>\n  }\n}\n",
    "metadata": {
      "category": "arithmetic",
      "operation": "add_scalar",
      "description": "Arithmetic: x + 1.0"
    }
  },
  {
    "python_code": "lambda x: x + 1.0",
    "input_info": [
      {
        "shape": [
          5,
          5
        ],
        "dtype": "float32"
      }
    ],
    "jaxpr": "{ lambda ; a:f32[5,5]. let b:f32[5,5] = add a 1.0:f32[] in (b,) }",
    "stablehlo": "module @jit__lambda attributes {mhlo.num_partitions = 1 : i32, mhlo.num_replicas = 1 : i32} {\n  func.func public @main(%arg0: tensor<5x5xf32>) -> (tensor<5x5xf32> {jax.result_info = \"result\"}) {\n    %cst = stablehlo.constant dense<1.000000e+00> : tensor<f32>\n    %0 = stablehlo.broadcast_in_dim %cst, dims = [] : (tensor<f32>) -> tensor<5x5xf32>\n    %1 = stablehlo.add %arg0, %0 : tensor<5x5xf32>\n    return %1 : tensor<5x5xf32>\n  }\n}\n",
    "metadata": {
      "category": "arithmetic",
      "operation": "add_scalar",
      "description": "Arithmetic: x + 1.0"
    }
  },
  {
    "python_code": "lambda x, y: x - y",
    "input_info": [
      {
        "shape": [
          3,
          10,
          3
        ],
        "dtype": "float32"
      },
      {
        "shape": [
          3,
          10,
          3
        ],
        "dtype": "float32"
      }
    ],
    "jaxpr": "{ lambda ; a:f32[3,10,3] b:f32[3,10,3]. let c:f32[3,10,3] = sub a b in (c,) }",
    "stablehlo": "module @jit__lambda attributes {mhlo.num_partitions = 1 : i32, mhlo.num_replicas = 1 : i32} {\n  func.func public @main(%arg0: tensor<3x10x3xf32>, %arg1: tensor<3x10x3xf32>) -> (tensor<3x10x3xf32> {jax.result_info = \"result\"}) {\n    %0 = stablehlo.subtract %arg0, %arg1 : tensor<3x10x3xf32>\n    return %0 : tensor<3x10x3xf32>\n  }\n}\n",
    "metadata": {
      "category": "arithmetic",
      "operation": "subtract",
      "description": "Arithmetic: x - y"
    }
  },
  {
    "python_code": "lambda x: x ** 2",
    "input_info": [
      {
        "shape": [
          2,
          2
        ],
        "dtype": "float32"
      }
    ],
    "jaxpr": "{ lambda ; a:f32[2,2]. let b:f32[2,2] = integer_pow[y=2] a in (b,) }",
    "stablehlo": "module @jit__lambda attributes {mhlo.num_partitions = 1 : i32, mhlo.num_replicas = 1 : i32} {\n  func.func public @main(%arg0: tensor<2x2xf32>) -> (tensor<2x2xf32> {jax.result_info = \"result\"}) {\n    %0 = stablehlo.multiply %arg0, %arg0 : tensor<2x2xf32>\n    return %0 : tensor<2x2xf32>\n  }\n}\n",
    "metadata": {
      "category": "arithmetic",
      "operation": "power",
      "description": "Arithmetic: x ** 2"
    }
  },
  {
    "python_code": "lambda x, y: x + y",
    "input_info": [
      {
        "shape": [
          5
        ],
        "dtype": "float32"
      },
      {
        "shape": [
          5
        ],
        "dtype": "float32"
      }
    ],
    "jaxpr": "{ lambda ; a:f32[5] b:f32[5]. let c:f32[5] = add a b in (c,) }",
    "stablehlo": "module @jit__lambda attributes {mhlo.num_partitions = 1 : i32, mhlo.num_replicas = 1 : i32} {\n  func.func public @main(%arg0: tensor<5xf32>, %arg1: tensor<5xf32>) -> (tensor<5xf32> {jax.result_info = \"result\"}) {\n    %0 = stablehlo.add %arg0, %arg1 : tensor<5xf32>\n    return %0 : tensor<5xf32>\n  }\n}\n",
    "metadata": {
      "category": "arithmetic",
      "operation": "add",
      "description": "Arithmetic: x + y"
    }
  },
  {
    "python_code": "lambda x: x ** 2",
    "input_info": [
      {
        "shape": [
          2,
          10,
          5
        ],
        "dtype": "float32"
      }
    ],
    "jaxpr": "{ lambda ; a:f32[2,10,5]. let b:f32[2,10,5] = integer_pow[y=2] a in (b,) }",
    "stablehlo": "module @jit__lambda attributes {mhlo.num_partitions = 1 : i32, mhlo.num_replicas = 1 : i32} {\n  func.func public @main(%arg0: tensor<2x10x5xf32>) -> (tensor<2x10x5xf32> {jax.result_info = \"result\"}) {\n    %0 = stablehlo.multiply %arg0, %arg0 : tensor<2x10x5xf32>\n    return %0 : tensor<2x10x5xf32>\n  }\n}\n",
    "metadata": {
      "category": "arithmetic",
      "operation": "power",
      "description": "Arithmetic: x ** 2"
    }
  },
  {
    "python_code": "lambda x: x + 1.0",
    "input_info": [
      {
        "shape": [
          10,
          8,
          5
        ],
        "dtype": "float32"
      }
    ],
    "jaxpr": "{ lambda ; a:f32[10,8,5]. let b:f32[10,8,5] = add a 1.0:f32[] in (b,) }",
    "stablehlo": "module @jit__lambda attributes {mhlo.num_partitions = 1 : i32, mhlo.num_replicas = 1 : i32} {\n  func.func public @main(%arg0: tensor<10x8x5xf32>) -> (tensor<10x8x5xf32> {jax.result_info = \"result\"}) {\n    %cst = stablehlo.constant dense<1.000000e+00> : tensor<f32>\n    %0 = stablehlo.broadcast_in_dim %cst, dims = [] : (tensor<f32>) -> tensor<10x8x5xf32>\n    %1 = stablehlo.add %arg0, %0 : tensor<10x8x5xf32>\n    return %1 : tensor<10x8x5xf32>\n  }\n}\n",
    "metadata": {
      "category": "arithmetic",
      "operation": "add_scalar",
      "description": "Arithmetic: x + 1.0"
    }
  },
  {
    "python_code": "lambda x, y: x / y",
    "input_info": [
      {
        "shape": [
          6,
          2,
          4
        ],
        "dtype": "float32"
      },
      {
        "shape": [
          6,
          2,
          4
        ],
        "dtype": "float32"
      }
    ],
    "jaxpr": "{ lambda ; a:f32[6,2,4] b:f32[6,2,4]. let c:f32[6,2,4] = div a b in (c,) }",
    "stablehlo": "module @jit__lambda attributes {mhlo.num_partitions = 1 : i32, mhlo.num_replicas = 1 : i32} {\n  func.func public @main(%arg0: tensor<6x2x4xf32>, %arg1: tensor<6x2x4xf32>) -> (tensor<6x2x4xf32> {jax.result_info = \"result\"}) {\n    %0 = stablehlo.divide %arg0, %arg1 : tensor<6x2x4xf32>\n    return %0 : tensor<6x2x4xf32>\n  }\n}\n",
    "metadata": {
      "category": "arithmetic",
      "operation": "divide",
      "description": "Arithmetic: x / y"
    }
  },
  {
    "python_code": "lambda x: x + 1.0",
    "input_info": [
      {
        "shape": [
          7,
          6
        ],
        "dtype": "float32"
      }
    ],
    "jaxpr": "{ lambda ; a:f32[7,6]. let b:f32[7,6] = add a 1.0:f32[] in (b,) }",
    "stablehlo": "module @jit__lambda attributes {mhlo.num_partitions = 1 : i32, mhlo.num_replicas = 1 : i32} {\n  func.func public @main(%arg0: tensor<7x6xf32>) -> (tensor<7x6xf32> {jax.result_info = \"result\"}) {\n    %cst = stablehlo.constant dense<1.000000e+00> : tensor<f32>\n    %0 = stablehlo.broadcast_in_dim %cst, dims = [] : (tensor<f32>) -> tensor<7x6xf32>\n    %1 = stablehlo.add %arg0, %0 : tensor<7x6xf32>\n    return %1 : tensor<7x6xf32>\n  }\n}\n",
    "metadata": {
      "category": "arithmetic",
      "operation": "add_scalar",
      "description": "Arithmetic: x + 1.0"
    }
  },
  {
    "python_code": "lambda x, y: x - y",
    "input_info": [
      {
        "shape": [
          7
        ],
        "dtype": "float32"
      },
      {
        "shape": [
          7
        ],
        "dtype": "float32"
      }
    ],
    "jaxpr": "{ lambda ; a:f32[7] b:f32[7]. let c:f32[7] = sub a b in (c,) }",
    "stablehlo": "module @jit__lambda attributes {mhlo.num_partitions = 1 : i32, mhlo.num_replicas = 1 : i32} {\n  func.func public @main(%arg0: tensor<7xf32>, %arg1: tensor<7xf32>) -> (tensor<7xf32> {jax.result_info = \"result\"}) {\n    %0 = stablehlo.subtract %arg0, %arg1 : tensor<7xf32>\n    return %0 : tensor<7xf32>\n  }\n}\n",
    "metadata": {
      "category": "arithmetic",
      "operation": "subtract",
      "description": "Arithmetic: x - y"
    }
  },
  {
    "python_code": "lambda x, y: x + y",
    "input_info": [
      {
        "shape": [
          8
        ],
        "dtype": "float32"
      },
      {
        "shape": [
          8
        ],
        "dtype": "float32"
      }
    ],
    "jaxpr": "{ lambda ; a:f32[8] b:f32[8]. let c:f32[8] = add a b in (c,) }",
    "stablehlo": "module @jit__lambda attributes {mhlo.num_partitions = 1 : i32, mhlo.num_replicas = 1 : i32} {\n  func.func public @main(%arg0: tensor<8xf32>, %arg1: tensor<8xf32>) -> (tensor<8xf32> {jax.result_info = \"result\"}) {\n    %0 = stablehlo.add %arg0, %arg1 : tensor<8xf32>\n    return %0 : tensor<8xf32>\n  }\n}\n",
    "metadata": {
      "category": "arithmetic",
      "operation": "add",
      "description": "Arithmetic: x + y"
    }
  },
  {
    "python_code": "lambda x, y: x + y",
    "input_info": [
      {
        "shape": [
          7,
          6
        ],
        "dtype": "float32"
      },
      {
        "shape": [
          7,
          6
        ],
        "dtype": "float32"
      }
    ],
    "jaxpr": "{ lambda ; a:f32[7,6] b:f32[7,6]. let c:f32[7,6] = add a b in (c,) }",
    "stablehlo": "module @jit__lambda attributes {mhlo.num_partitions = 1 : i32, mhlo.num_replicas = 1 : i32} {\n  func.func public @main(%arg0: tensor<7x6xf32>, %arg1: tensor<7x6xf32>) -> (tensor<7x6xf32> {jax.result_info = \"result\"}) {\n    %0 = stablehlo.add %arg0, %arg1 : tensor<7x6xf32>\n    return %0 : tensor<7x6xf32>\n  }\n}\n",
    "metadata": {
      "category": "arithmetic",
      "operation": "add",
      "description": "Arithmetic: x + y"
    }
  },
  {
    "python_code": "lambda x: x * 2.0",
    "input_info": [
      {
        "shape": [
          9
        ],
        "dtype": "float32"
      }
    ],
    "jaxpr": "{ lambda ; a:f32[9]. let b:f32[9] = mul a 2.0:f32[] in (b,) }",
    "stablehlo": "module @jit__lambda attributes {mhlo.num_partitions = 1 : i32, mhlo.num_replicas = 1 : i32} {\n  func.func public @main(%arg0: tensor<9xf32>) -> (tensor<9xf32> {jax.result_info = \"result\"}) {\n    %cst = stablehlo.constant dense<2.000000e+00> : tensor<f32>\n    %0 = stablehlo.broadcast_in_dim %cst, dims = [] : (tensor<f32>) -> tensor<9xf32>\n    %1 = stablehlo.multiply %arg0, %0 : tensor<9xf32>\n    return %1 : tensor<9xf32>\n  }\n}\n",
    "metadata": {
      "category": "arithmetic",
      "operation": "mul_scalar",
      "description": "Arithmetic: x * 2.0"
    }
  },
  {
    "python_code": "lambda x: x ** 2",
    "input_info": [
      {
        "shape": [
          8
        ],
        "dtype": "float32"
      }
    ],
    "jaxpr": "{ lambda ; a:f32[8]. let b:f32[8] = integer_pow[y=2] a in (b,) }",
    "stablehlo": "module @jit__lambda attributes {mhlo.num_partitions = 1 : i32, mhlo.num_replicas = 1 : i32} {\n  func.func public @main(%arg0: tensor<8xf32>) -> (tensor<8xf32> {jax.result_info = \"result\"}) {\n    %0 = stablehlo.multiply %arg0, %arg0 : tensor<8xf32>\n    return %0 : tensor<8xf32>\n  }\n}\n",
    "metadata": {
      "category": "arithmetic",
      "operation": "power",
      "description": "Arithmetic: x ** 2"
    }
  },
  {
    "python_code": "lambda x, y: x + y",
    "input_info": [
      {
        "shape": [
          6,
          7,
          5
        ],
        "dtype": "float32"
      },
      {
        "shape": [
          6,
          7,
          5
        ],
        "dtype": "float32"
      }
    ],
    "jaxpr": "{ lambda ; a:f32[6,7,5] b:f32[6,7,5]. let c:f32[6,7,5] = add a b in (c,) }",
    "stablehlo": "module @jit__lambda attributes {mhlo.num_partitions = 1 : i32, mhlo.num_replicas = 1 : i32} {\n  func.func public @main(%arg0: tensor<6x7x5xf32>, %arg1: tensor<6x7x5xf32>) -> (tensor<6x7x5xf32> {jax.result_info = \"result\"}) {\n    %0 = stablehlo.add %arg0, %arg1 : tensor<6x7x5xf32>\n    return %0 : tensor<6x7x5xf32>\n  }\n}\n",
    "metadata": {
      "category": "arithmetic",
      "operation": "add",
      "description": "Arithmetic: x + y"
    }
  },
  {
    "python_code": "lambda x: x + 1.0",
    "input_info": [
      {
        "shape": [
          2
        ],
        "dtype": "float32"
      }
    ],
    "jaxpr": "{ lambda ; a:f32[2]. let b:f32[2] = add a 1.0:f32[] in (b,) }",
    "stablehlo": "module @jit__lambda attributes {mhlo.num_partitions = 1 : i32, mhlo.num_replicas = 1 : i32} {\n  func.func public @main(%arg0: tensor<2xf32>) -> (tensor<2xf32> {jax.result_info = \"result\"}) {\n    %cst = stablehlo.constant dense<1.000000e+00> : tensor<f32>\n    %0 = stablehlo.broadcast_in_dim %cst, dims = [] : (tensor<f32>) -> tensor<2xf32>\n    %1 = stablehlo.add %arg0, %0 : tensor<2xf32>\n    return %1 : tensor<2xf32>\n  }\n}\n",
    "metadata": {
      "category": "arithmetic",
      "operation": "add_scalar",
      "description": "Arithmetic: x + 1.0"
    }
  },
  {
    "python_code": "lambda x: x + 1.0",
    "input_info": [
      {
        "shape": [
          6
        ],
        "dtype": "float32"
      }
    ],
    "jaxpr": "{ lambda ; a:f32[6]. let b:f32[6] = add a 1.0:f32[] in (b,) }",
    "stablehlo": "module @jit__lambda attributes {mhlo.num_partitions = 1 : i32, mhlo.num_replicas = 1 : i32} {\n  func.func public @main(%arg0: tensor<6xf32>) -> (tensor<6xf32> {jax.result_info = \"result\"}) {\n    %cst = stablehlo.constant dense<1.000000e+00> : tensor<f32>\n    %0 = stablehlo.broadcast_in_dim %cst, dims = [] : (tensor<f32>) -> tensor<6xf32>\n    %1 = stablehlo.add %arg0, %0 : tensor<6xf32>\n    return %1 : tensor<6xf32>\n  }\n}\n",
    "metadata": {
      "category": "arithmetic",
      "operation": "add_scalar",
      "description": "Arithmetic: x + 1.0"
    }
  },
  {
    "python_code": "lambda x, y: x + y",
    "input_info": [
      {
        "shape": [
          3
        ],
        "dtype": "float32"
      },
      {
        "shape": [
          3
        ],
        "dtype": "float32"
      }
    ],
    "jaxpr": "{ lambda ; a:f32[3] b:f32[3]. let c:f32[3] = add a b in (c,) }",
    "stablehlo": "module @jit__lambda attributes {mhlo.num_partitions = 1 : i32, mhlo.num_replicas = 1 : i32} {\n  func.func public @main(%arg0: tensor<3xf32>, %arg1: tensor<3xf32>) -> (tensor<3xf32> {jax.result_info = \"result\"}) {\n    %0 = stablehlo.add %arg0, %arg1 : tensor<3xf32>\n    return %0 : tensor<3xf32>\n  }\n}\n",
    "metadata": {
      "category": "arithmetic",
      "operation": "add",
      "description": "Arithmetic: x + y"
    }
  },
  {
    "python_code": "lambda x, y: x / y",
    "input_info": [
      {
        "shape": [
          9,
          7
        ],
        "dtype": "float32"
      },
      {
        "shape": [
          9,
          7
        ],
        "dtype": "float32"
      }
    ],
    "jaxpr": "{ lambda ; a:f32[9,7] b:f32[9,7]. let c:f32[9,7] = div a b in (c,) }",
    "stablehlo": "module @jit__lambda attributes {mhlo.num_partitions = 1 : i32, mhlo.num_replicas = 1 : i32} {\n  func.func public @main(%arg0: tensor<9x7xf32>, %arg1: tensor<9x7xf32>) -> (tensor<9x7xf32> {jax.result_info = \"result\"}) {\n    %0 = stablehlo.divide %arg0, %arg1 : tensor<9x7xf32>\n    return %0 : tensor<9x7xf32>\n  }\n}\n",
    "metadata": {
      "category": "arithmetic",
      "operation": "divide",
      "description": "Arithmetic: x / y"
    }
  },
  {
    "python_code": "lambda x, y: x - y",
    "input_info": [
      {
        "shape": [
          7,
          5
        ],
        "dtype": "float32"
      },
      {
        "shape": [
          7,
          5
        ],
        "dtype": "float32"
      }
    ],
    "jaxpr": "{ lambda ; a:f32[7,5] b:f32[7,5]. let c:f32[7,5] = sub a b in (c,) }",
    "stablehlo": "module @jit__lambda attributes {mhlo.num_partitions = 1 : i32, mhlo.num_replicas = 1 : i32} {\n  func.func public @main(%arg0: tensor<7x5xf32>, %arg1: tensor<7x5xf32>) -> (tensor<7x5xf32> {jax.result_info = \"result\"}) {\n    %0 = stablehlo.subtract %arg0, %arg1 : tensor<7x5xf32>\n    return %0 : tensor<7x5xf32>\n  }\n}\n",
    "metadata": {
      "category": "arithmetic",
      "operation": "subtract",
      "description": "Arithmetic: x - y"
    }
  },
  {
    "python_code": "lambda x: x[1:, :]",
    "input_info": [
      {
        "shape": [
          3,
          4,
          10
        ],
        "dtype": "float32"
      }
    ],
    "jaxpr": "{ lambda ; a:f32[3,4,10]. let\n    b:f32[2,4,10] = slice[\n      limit_indices=(3, 4, 10)\n      start_indices=(1, 0, 0)\n      strides=None\n    ] a\n  in (b,) }",
    "stablehlo": "module @jit__lambda attributes {mhlo.num_partitions = 1 : i32, mhlo.num_replicas = 1 : i32} {\n  func.func public @main(%arg0: tensor<3x4x10xf32>) -> (tensor<2x4x10xf32> {jax.result_info = \"result\"}) {\n    %0 = stablehlo.slice %arg0 [1:3, 0:4, 0:10] : (tensor<3x4x10xf32>) -> tensor<2x4x10xf32>\n    return %0 : tensor<2x4x10xf32>\n  }\n}\n",
    "metadata": {
      "category": "array",
      "operation": "slice",
      "description": "Array operation: slice"
    }
  },
  {
    "python_code": "lambda x: jnp.transpose(x)",
    "input_info": [
      {
        "shape": [
          9
        ],
        "dtype": "float32"
      }
    ],
    "jaxpr": "{ lambda ; a:f32[9]. let  in (a,) }",
    "stablehlo": "module @jit__lambda attributes {mhlo.num_partitions = 1 : i32, mhlo.num_replicas = 1 : i32} {\n  func.func public @main(%arg0: tensor<9xf32>) -> (tensor<9xf32> {jax.result_info = \"result\"}) {\n    return %arg0 : tensor<9xf32>\n  }\n}\n",
    "metadata": {
      "category": "array",
      "operation": "transpose",
      "description": "Array operation: transpose"
    }
  },
  {
    "python_code": "lambda x, y: jnp.concatenate([x, y], axis=0)",
    "input_info": [
      {
        "shape": [
          10,
          5
        ],
        "dtype": "float32"
      },
      {
        "shape": [
          10,
          5
        ],
        "dtype": "float32"
      }
    ],
    "jaxpr": "{ lambda ; a:f32[10,5] b:f32[10,5]. let\n    c:f32[20,5] = concatenate[dimension=0] a b\n  in (c,) }",
    "stablehlo": "module @jit__lambda attributes {mhlo.num_partitions = 1 : i32, mhlo.num_replicas = 1 : i32} {\n  func.func public @main(%arg0: tensor<10x5xf32>, %arg1: tensor<10x5xf32>) -> (tensor<20x5xf32> {jax.result_info = \"result\"}) {\n    %0 = stablehlo.concatenate %arg0, %arg1, dim = 0 : (tensor<10x5xf32>, tensor<10x5xf32>) -> tensor<20x5xf32>\n    return %0 : tensor<20x5xf32>\n  }\n}\n",
    "metadata": {
      "category": "array",
      "operation": "concatenate",
      "description": "Array operation: concatenate"
    }
  },
  {
    "python_code": "lambda x: x[1:]",
    "input_info": [
      {
        "shape": [
          5
        ],
        "dtype": "float32"
      }
    ],
    "jaxpr": "{ lambda ; a:f32[5]. let\n    b:f32[4] = slice[limit_indices=(5,) start_indices=(1,) strides=None] a\n  in (b,) }",
    "stablehlo": "module @jit__lambda attributes {mhlo.num_partitions = 1 : i32, mhlo.num_replicas = 1 : i32} {\n  func.func public @main(%arg0: tensor<5xf32>) -> (tensor<4xf32> {jax.result_info = \"result\"}) {\n    %0 = stablehlo.slice %arg0 [1:5] : (tensor<5xf32>) -> tensor<4xf32>\n    return %0 : tensor<4xf32>\n  }\n}\n",
    "metadata": {
      "category": "array",
      "operation": "slice",
      "description": "Array operation: slice"
    }
  },
  {
    "python_code": "lambda x: jnp.reshape(x, (48,))",
    "input_info": [
      {
        "shape": [
          8,
          6
        ],
        "dtype": "float32"
      }
    ],
    "jaxpr": "{ lambda ; a:f32[8,6]. let\n    b:f32[48] = reshape[dimensions=None new_sizes=(48,) sharding=None] a\n  in (b,) }",
    "stablehlo": "module @jit__lambda attributes {mhlo.num_partitions = 1 : i32, mhlo.num_replicas = 1 : i32} {\n  func.func public @main(%arg0: tensor<8x6xf32>) -> (tensor<48xf32> {jax.result_info = \"result\"}) {\n    %0 = stablehlo.reshape %arg0 : (tensor<8x6xf32>) -> tensor<48xf32>\n    return %0 : tensor<48xf32>\n  }\n}\n",
    "metadata": {
      "category": "array",
      "operation": "reshape",
      "description": "Array operation: reshape"
    }
  },
  {
    "python_code": "lambda x, y: jnp.stack([x, y])",
    "input_info": [
      {
        "shape": [
          7,
          5,
          9
        ],
        "dtype": "float32"
      },
      {
        "shape": [
          7,
          5,
          9
        ],
        "dtype": "float32"
      }
    ],
    "jaxpr": "{ lambda ; a:f32[7,5,9] b:f32[7,5,9]. let\n    c:f32[1,7,5,9] = broadcast_in_dim[\n      broadcast_dimensions=(1, 2, 3)\n      shape=(1, 7, 5, 9)\n      sharding=None\n    ] a\n    d:f32[1,7,5,9] = broadcast_in_dim[\n      broadcast_dimensions=(1, 2, 3)\n      shape=(1, 7, 5, 9)\n      sharding=None\n    ] b\n    e:f32[2,7,5,9] = concatenate[dimension=0] c d\n  in (e,) }",
    "stablehlo": "module @jit__lambda attributes {mhlo.num_partitions = 1 : i32, mhlo.num_replicas = 1 : i32} {\n  func.func public @main(%arg0: tensor<7x5x9xf32>, %arg1: tensor<7x5x9xf32>) -> (tensor<2x7x5x9xf32> {jax.result_info = \"result\"}) {\n    %0 = stablehlo.broadcast_in_dim %arg0, dims = [1, 2, 3] : (tensor<7x5x9xf32>) -> tensor<1x7x5x9xf32>\n    %1 = stablehlo.broadcast_in_dim %arg1, dims = [1, 2, 3] : (tensor<7x5x9xf32>) -> tensor<1x7x5x9xf32>\n    %2 = stablehlo.concatenate %0, %1, dim = 0 : (tensor<1x7x5x9xf32>, tensor<1x7x5x9xf32>) -> tensor<2x7x5x9xf32>\n    return %2 : tensor<2x7x5x9xf32>\n  }\n}\n",
    "metadata": {
      "category": "array",
      "operation": "stack",
      "description": "Array operation: stack"
    }
  },
  {
    "python_code": "lambda x, y: jnp.concatenate([x, y], axis=0)",
    "input_info": [
      {
        "shape": [
          9,
          4,
          6
        ],
        "dtype": "float32"
      },
      {
        "shape": [
          9,
          4,
          6
        ],
        "dtype": "float32"
      }
    ],
    "jaxpr": "{ lambda ; a:f32[9,4,6] b:f32[9,4,6]. let\n    c:f32[18,4,6] = concatenate[dimension=0] a b\n  in (c,) }",
    "stablehlo": "module @jit__lambda attributes {mhlo.num_partitions = 1 : i32, mhlo.num_replicas = 1 : i32} {\n  func.func public @main(%arg0: tensor<9x4x6xf32>, %arg1: tensor<9x4x6xf32>) -> (tensor<18x4x6xf32> {jax.result_info = \"result\"}) {\n    %0 = stablehlo.concatenate %arg0, %arg1, dim = 0 : (tensor<9x4x6xf32>, tensor<9x4x6xf32>) -> tensor<18x4x6xf32>\n    return %0 : tensor<18x4x6xf32>\n  }\n}\n",
    "metadata": {
      "category": "array",
      "operation": "concatenate",
      "description": "Array operation: concatenate"
    }
  },
  {
    "python_code": "lambda x: jnp.transpose(x)",
    "input_info": [
      {
        "shape": [
          10
        ],
        "dtype": "float32"
      }
    ],
    "jaxpr": "{ lambda ; a:f32[10]. let  in (a,) }",
    "stablehlo": "module @jit__lambda attributes {mhlo.num_partitions = 1 : i32, mhlo.num_replicas = 1 : i32} {\n  func.func public @main(%arg0: tensor<10xf32>) -> (tensor<10xf32> {jax.result_info = \"result\"}) {\n    return %arg0 : tensor<10xf32>\n  }\n}\n",
    "metadata": {
      "category": "array",
      "operation": "transpose",
      "description": "Array operation: transpose"
    }
  },
  {
    "python_code": "lambda x, y: jnp.stack([x, y])",
    "input_info": [
      {
        "shape": [
          8,
          8
        ],
        "dtype": "float32"
      },
      {
        "shape": [
          8,
          8
        ],
        "dtype": "float32"
      }
    ],
    "jaxpr": "{ lambda ; a:f32[8,8] b:f32[8,8]. let\n    c:f32[1,8,8] = broadcast_in_dim[\n      broadcast_dimensions=(1, 2)\n      shape=(1, 8, 8)\n      sharding=None\n    ] a\n    d:f32[1,8,8] = broadcast_in_dim[\n      broadcast_dimensions=(1, 2)\n      shape=(1, 8, 8)\n      sharding=None\n    ] b\n    e:f32[2,8,8] = concatenate[dimension=0] c d\n  in (e,) }",
    "stablehlo": "module @jit__lambda attributes {mhlo.num_partitions = 1 : i32, mhlo.num_replicas = 1 : i32} {\n  func.func public @main(%arg0: tensor<8x8xf32>, %arg1: tensor<8x8xf32>) -> (tensor<2x8x8xf32> {jax.result_info = \"result\"}) {\n    %0 = stablehlo.broadcast_in_dim %arg0, dims = [1, 2] : (tensor<8x8xf32>) -> tensor<1x8x8xf32>\n    %1 = stablehlo.broadcast_in_dim %arg1, dims = [1, 2] : (tensor<8x8xf32>) -> tensor<1x8x8xf32>\n    %2 = stablehlo.concatenate %0, %1, dim = 0 : (tensor<1x8x8xf32>, tensor<1x8x8xf32>) -> tensor<2x8x8xf32>\n    return %2 : tensor<2x8x8xf32>\n  }\n}\n",
    "metadata": {
      "category": "array",
      "operation": "stack",
      "description": "Array operation: stack"
    }
  },
  {
    "python_code": "lambda x: x[1:]",
    "input_info": [
      {
        "shape": [
          4
        ],
        "dtype": "float32"
      }
    ],
    "jaxpr": "{ lambda ; a:f32[4]. let\n    b:f32[3] = slice[limit_indices=(4,) start_indices=(1,) strides=None] a\n  in (b,) }",
    "stablehlo": "module @jit__lambda attributes {mhlo.num_partitions = 1 : i32, mhlo.num_replicas = 1 : i32} {\n  func.func public @main(%arg0: tensor<4xf32>) -> (tensor<3xf32> {jax.result_info = \"result\"}) {\n    %0 = stablehlo.slice %arg0 [1:4] : (tensor<4xf32>) -> tensor<3xf32>\n    return %0 : tensor<3xf32>\n  }\n}\n",
    "metadata": {
      "category": "array",
      "operation": "slice",
      "description": "Array operation: slice"
    }
  },
  {
    "python_code": "lambda x, y: jnp.stack([x, y])",
    "input_info": [
      {
        "shape": [
          3,
          2
        ],
        "dtype": "float32"
      },
      {
        "shape": [
          3,
          2
        ],
        "dtype": "float32"
      }
    ],
    "jaxpr": "{ lambda ; a:f32[3,2] b:f32[3,2]. let\n    c:f32[1,3,2] = broadcast_in_dim[\n      broadcast_dimensions=(1, 2)\n      shape=(1, 3, 2)\n      sharding=None\n    ] a\n    d:f32[1,3,2] = broadcast_in_dim[\n      broadcast_dimensions=(1, 2)\n      shape=(1, 3, 2)\n      sharding=None\n    ] b\n    e:f32[2,3,2] = concatenate[dimension=0] c d\n  in (e,) }",
    "stablehlo": "module @jit__lambda attributes {mhlo.num_partitions = 1 : i32, mhlo.num_replicas = 1 : i32} {\n  func.func public @main(%arg0: tensor<3x2xf32>, %arg1: tensor<3x2xf32>) -> (tensor<2x3x2xf32> {jax.result_info = \"result\"}) {\n    %0 = stablehlo.broadcast_in_dim %arg0, dims = [1, 2] : (tensor<3x2xf32>) -> tensor<1x3x2xf32>\n    %1 = stablehlo.broadcast_in_dim %arg1, dims = [1, 2] : (tensor<3x2xf32>) -> tensor<1x3x2xf32>\n    %2 = stablehlo.concatenate %0, %1, dim = 0 : (tensor<1x3x2xf32>, tensor<1x3x2xf32>) -> tensor<2x3x2xf32>\n    return %2 : tensor<2x3x2xf32>\n  }\n}\n",
    "metadata": {
      "category": "array",
      "operation": "stack",
      "description": "Array operation: stack"
    }
  },
  {
    "python_code": "lambda x: jnp.reshape(x, (2, 2))",
    "input_info": [
      {
        "shape": [
          4
        ],
        "dtype": "float32"
      }
    ],
    "jaxpr": "{ lambda ; a:f32[4]. let\n    b:f32[2,2] = reshape[dimensions=None new_sizes=(2, 2) sharding=None] a\n  in (b,) }",
    "stablehlo": "module @jit__lambda attributes {mhlo.num_partitions = 1 : i32, mhlo.num_replicas = 1 : i32} {\n  func.func public @main(%arg0: tensor<4xf32>) -> (tensor<2x2xf32> {jax.result_info = \"result\"}) {\n    %0 = stablehlo.reshape %arg0 : (tensor<4xf32>) -> tensor<2x2xf32>\n    return %0 : tensor<2x2xf32>\n  }\n}\n",
    "metadata": {
      "category": "array",
      "operation": "reshape",
      "description": "Array operation: reshape"
    }
  },
  {
    "python_code": "lambda x, y: jnp.concatenate([x, y], axis=0)",
    "input_info": [
      {
        "shape": [
          3,
          8,
          8
        ],
        "dtype": "float32"
      },
      {
        "shape": [
          3,
          8,
          8
        ],
        "dtype": "float32"
      }
    ],
    "jaxpr": "{ lambda ; a:f32[3,8,8] b:f32[3,8,8]. let\n    c:f32[6,8,8] = concatenate[dimension=0] a b\n  in (c,) }",
    "stablehlo": "module @jit__lambda attributes {mhlo.num_partitions = 1 : i32, mhlo.num_replicas = 1 : i32} {\n  func.func public @main(%arg0: tensor<3x8x8xf32>, %arg1: tensor<3x8x8xf32>) -> (tensor<6x8x8xf32> {jax.result_info = \"result\"}) {\n    %0 = stablehlo.concatenate %arg0, %arg1, dim = 0 : (tensor<3x8x8xf32>, tensor<3x8x8xf32>) -> tensor<6x8x8xf32>\n    return %0 : tensor<6x8x8xf32>\n  }\n}\n",
    "metadata": {
      "category": "array",
      "operation": "concatenate",
      "description": "Array operation: concatenate"
    }
  },
  {
    "python_code": "lambda x, y: jnp.stack([x, y])",
    "input_info": [
      {
        "shape": [
          10,
          6
        ],
        "dtype": "float32"
      },
      {
        "shape": [
          10,
          6
        ],
        "dtype": "float32"
      }
    ],
    "jaxpr": "{ lambda ; a:f32[10,6] b:f32[10,6]. let\n    c:f32[1,10,6] = broadcast_in_dim[\n      broadcast_dimensions=(1, 2)\n      shape=(1, 10, 6)\n      sharding=None\n    ] a\n    d:f32[1,10,6] = broadcast_in_dim[\n      broadcast_dimensions=(1, 2)\n      shape=(1, 10, 6)\n      sharding=None\n    ] b\n    e:f32[2,10,6] = concatenate[dimension=0] c d\n  in (e,) }",
    "stablehlo": "module @jit__lambda attributes {mhlo.num_partitions = 1 : i32, mhlo.num_replicas = 1 : i32} {\n  func.func public @main(%arg0: tensor<10x6xf32>, %arg1: tensor<10x6xf32>) -> (tensor<2x10x6xf32> {jax.result_info = \"result\"}) {\n    %0 = stablehlo.broadcast_in_dim %arg0, dims = [1, 2] : (tensor<10x6xf32>) -> tensor<1x10x6xf32>\n    %1 = stablehlo.broadcast_in_dim %arg1, dims = [1, 2] : (tensor<10x6xf32>) -> tensor<1x10x6xf32>\n    %2 = stablehlo.concatenate %0, %1, dim = 0 : (tensor<1x10x6xf32>, tensor<1x10x6xf32>) -> tensor<2x10x6xf32>\n    return %2 : tensor<2x10x6xf32>\n  }\n}\n",
    "metadata": {
      "category": "array",
      "operation": "stack",
      "description": "Array operation: stack"
    }
  },
  {
    "python_code": "lambda x, y: jnp.stack([x, y])",
    "input_info": [
      {
        "shape": [
          3
        ],
        "dtype": "float32"
      },
      {
        "shape": [
          3
        ],
        "dtype": "float32"
      }
    ],
    "jaxpr": "{ lambda ; a:f32[3] b:f32[3]. let\n    c:f32[1,3] = broadcast_in_dim[\n      broadcast_dimensions=(1,)\n      shape=(1, 3)\n      sharding=None\n    ] a\n    d:f32[1,3] = broadcast_in_dim[\n      broadcast_dimensions=(1,)\n      shape=(1, 3)\n      sharding=None\n    ] b\n    e:f32[2,3] = concatenate[dimension=0] c d\n  in (e,) }",
    "stablehlo": "module @jit__lambda attributes {mhlo.num_partitions = 1 : i32, mhlo.num_replicas = 1 : i32} {\n  func.func public @main(%arg0: tensor<3xf32>, %arg1: tensor<3xf32>) -> (tensor<2x3xf32> {jax.result_info = \"result\"}) {\n    %0 = stablehlo.broadcast_in_dim %arg0, dims = [1] : (tensor<3xf32>) -> tensor<1x3xf32>\n    %1 = stablehlo.broadcast_in_dim %arg1, dims = [1] : (tensor<3xf32>) -> tensor<1x3xf32>\n    %2 = stablehlo.concatenate %0, %1, dim = 0 : (tensor<1x3xf32>, tensor<1x3xf32>) -> tensor<2x3xf32>\n    return %2 : tensor<2x3xf32>\n  }\n}\n",
    "metadata": {
      "category": "array",
      "operation": "stack",
      "description": "Array operation: stack"
    }
  },
  {
    "python_code": "lambda x, y: jnp.stack([x, y])",
    "input_info": [
      {
        "shape": [
          7,
          3
        ],
        "dtype": "float32"
      },
      {
        "shape": [
          7,
          3
        ],
        "dtype": "float32"
      }
    ],
    "jaxpr": "{ lambda ; a:f32[7,3] b:f32[7,3]. let\n    c:f32[1,7,3] = broadcast_in_dim[\n      broadcast_dimensions=(1, 2)\n      shape=(1, 7, 3)\n      sharding=None\n    ] a\n    d:f32[1,7,3] = broadcast_in_dim[\n      broadcast_dimensions=(1, 2)\n      shape=(1, 7, 3)\n      sharding=None\n    ] b\n    e:f32[2,7,3] = concatenate[dimension=0] c d\n  in (e,) }",
    "stablehlo": "module @jit__lambda attributes {mhlo.num_partitions = 1 : i32, mhlo.num_replicas = 1 : i32} {\n  func.func public @main(%arg0: tensor<7x3xf32>, %arg1: tensor<7x3xf32>) -> (tensor<2x7x3xf32> {jax.result_info = \"result\"}) {\n    %0 = stablehlo.broadcast_in_dim %arg0, dims = [1, 2] : (tensor<7x3xf32>) -> tensor<1x7x3xf32>\n    %1 = stablehlo.broadcast_in_dim %arg1, dims = [1, 2] : (tensor<7x3xf32>) -> tensor<1x7x3xf32>\n    %2 = stablehlo.concatenate %0, %1, dim = 0 : (tensor<1x7x3xf32>, tensor<1x7x3xf32>) -> tensor<2x7x3xf32>\n    return %2 : tensor<2x7x3xf32>\n  }\n}\n",
    "metadata": {
      "category": "array",
      "operation": "stack",
      "description": "Array operation: stack"
    }
  },
  {
    "python_code": "lambda x: x[1:, :]",
    "input_info": [
      {
        "shape": [
          4,
          9
        ],
        "dtype": "float32"
      }
    ],
    "jaxpr": "{ lambda ; a:f32[4,9]. let\n    b:f32[3,9] = slice[limit_indices=(4, 9) start_indices=(1, 0) strides=None] a\n  in (b,) }",
    "stablehlo": "module @jit__lambda attributes {mhlo.num_partitions = 1 : i32, mhlo.num_replicas = 1 : i32} {\n  func.func public @main(%arg0: tensor<4x9xf32>) -> (tensor<3x9xf32> {jax.result_info = \"result\"}) {\n    %0 = stablehlo.slice %arg0 [1:4, 0:9] : (tensor<4x9xf32>) -> tensor<3x9xf32>\n    return %0 : tensor<3x9xf32>\n  }\n}\n",
    "metadata": {
      "category": "array",
      "operation": "slice",
      "description": "Array operation: slice"
    }
  },
  {
    "python_code": "lambda x: jnp.reshape(x, (2, 120))",
    "input_info": [
      {
        "shape": [
          6,
          10,
          4
        ],
        "dtype": "float32"
      }
    ],
    "jaxpr": "{ lambda ; a:f32[6,10,4]. let\n    b:f32[2,120] = reshape[dimensions=None new_sizes=(2, 120) sharding=None] a\n  in (b,) }",
    "stablehlo": "module @jit__lambda attributes {mhlo.num_partitions = 1 : i32, mhlo.num_replicas = 1 : i32} {\n  func.func public @main(%arg0: tensor<6x10x4xf32>) -> (tensor<2x120xf32> {jax.result_info = \"result\"}) {\n    %0 = stablehlo.reshape %arg0 : (tensor<6x10x4xf32>) -> tensor<2x120xf32>\n    return %0 : tensor<2x120xf32>\n  }\n}\n",
    "metadata": {
      "category": "array",
      "operation": "reshape",
      "description": "Array operation: reshape"
    }
  },
  {
    "python_code": "lambda x: jnp.reshape(x, (300,))",
    "input_info": [
      {
        "shape": [
          6,
          10,
          5
        ],
        "dtype": "float32"
      }
    ],
    "jaxpr": "{ lambda ; a:f32[6,10,5]. let\n    b:f32[300] = reshape[dimensions=None new_sizes=(300,) sharding=None] a\n  in (b,) }",
    "stablehlo": "module @jit__lambda attributes {mhlo.num_partitions = 1 : i32, mhlo.num_replicas = 1 : i32} {\n  func.func public @main(%arg0: tensor<6x10x5xf32>) -> (tensor<300xf32> {jax.result_info = \"result\"}) {\n    %0 = stablehlo.reshape %arg0 : (tensor<6x10x5xf32>) -> tensor<300xf32>\n    return %0 : tensor<300xf32>\n  }\n}\n",
    "metadata": {
      "category": "array",
      "operation": "reshape",
      "description": "Array operation: reshape"
    }
  },
  {
    "python_code": "lambda x: jnp.transpose(x)",
    "input_info": [
      {
        "shape": [
          10,
          2,
          7
        ],
        "dtype": "float32"
      }
    ],
    "jaxpr": "{ lambda ; a:f32[10,2,7]. let\n    b:f32[7,2,10] = transpose[permutation=(2, 1, 0)] a\n  in (b,) }",
    "stablehlo": "module @jit__lambda attributes {mhlo.num_partitions = 1 : i32, mhlo.num_replicas = 1 : i32} {\n  func.func public @main(%arg0: tensor<10x2x7xf32>) -> (tensor<7x2x10xf32> {jax.result_info = \"result\"}) {\n    %0 = stablehlo.transpose %arg0, dims = [2, 1, 0] : (tensor<10x2x7xf32>) -> tensor<7x2x10xf32>\n    return %0 : tensor<7x2x10xf32>\n  }\n}\n",
    "metadata": {
      "category": "array",
      "operation": "transpose",
      "description": "Array operation: transpose"
    }
  },
  {
    "python_code": "lambda x: jnp.abs(x)",
    "input_info": [
      {
        "shape": [
          3
        ],
        "dtype": "float32"
      }
    ],
    "jaxpr": "{ lambda ; a:f32[3]. let b:f32[3] = abs a in (b,) }",
    "stablehlo": "module @jit__lambda attributes {mhlo.num_partitions = 1 : i32, mhlo.num_replicas = 1 : i32} {\n  func.func public @main(%arg0: tensor<3xf32>) -> (tensor<3xf32> {jax.result_info = \"result\"}) {\n    %0 = stablehlo.abs %arg0 : tensor<3xf32>\n    return %0 : tensor<3xf32>\n  }\n}\n",
    "metadata": {
      "category": "math",
      "operation": "abs",
      "description": "Math function: abs"
    }
  },
  {
    "python_code": "lambda x: jnp.tanh(x)",
    "input_info": [
      {
        "shape": [
          5,
          2
        ],
        "dtype": "float32"
      }
    ],
    "jaxpr": "{ lambda ; a:f32[5,2]. let b:f32[5,2] = tanh a in (b,) }",
    "stablehlo": "module @jit__lambda attributes {mhlo.num_partitions = 1 : i32, mhlo.num_replicas = 1 : i32} {\n  func.func public @main(%arg0: tensor<5x2xf32>) -> (tensor<5x2xf32> {jax.result_info = \"result\"}) {\n    %0 = stablehlo.tanh %arg0 : tensor<5x2xf32>\n    return %0 : tensor<5x2xf32>\n  }\n}\n",
    "metadata": {
      "category": "math",
      "operation": "tanh",
      "description": "Math function: tanh"
    }
  },
  {
    "python_code": "lambda x: jnp.log(x + 1.0)",
    "input_info": [
      {
        "shape": [
          3,
          3,
          9
        ],
        "dtype": "float32"
      }
    ],
    "jaxpr": "{ lambda ; a:f32[3,3,9]. let\n    b:f32[3,3,9] = add a 1.0:f32[]\n    c:f32[3,3,9] = log b\n  in (c,) }",
    "stablehlo": "module @jit__lambda attributes {mhlo.num_partitions = 1 : i32, mhlo.num_replicas = 1 : i32} {\n  func.func public @main(%arg0: tensor<3x3x9xf32>) -> (tensor<3x3x9xf32> {jax.result_info = \"result\"}) {\n    %cst = stablehlo.constant dense<1.000000e+00> : tensor<f32>\n    %0 = stablehlo.broadcast_in_dim %cst, dims = [] : (tensor<f32>) -> tensor<3x3x9xf32>\n    %1 = stablehlo.add %arg0, %0 : tensor<3x3x9xf32>\n    %2 = stablehlo.log %1 : tensor<3x3x9xf32>\n    return %2 : tensor<3x3x9xf32>\n  }\n}\n",
    "metadata": {
      "category": "math",
      "operation": "log",
      "description": "Math function: log"
    }
  },
  {
    "python_code": "lambda x: jnp.cos(x)",
    "input_info": [
      {
        "shape": [
          4,
          4,
          9
        ],
        "dtype": "float32"
      }
    ],
    "jaxpr": "{ lambda ; a:f32[4,4,9]. let b:f32[4,4,9] = cos a in (b,) }",
    "stablehlo": "module @jit__lambda attributes {mhlo.num_partitions = 1 : i32, mhlo.num_replicas = 1 : i32} {\n  func.func public @main(%arg0: tensor<4x4x9xf32>) -> (tensor<4x4x9xf32> {jax.result_info = \"result\"}) {\n    %0 = stablehlo.cosine %arg0 : tensor<4x4x9xf32>\n    return %0 : tensor<4x4x9xf32>\n  }\n}\n",
    "metadata": {
      "category": "math",
      "operation": "cos",
      "description": "Math function: cos"
    }
  },
  {
    "python_code": "lambda x: x ** 2",
    "input_info": [
      {
        "shape": [
          6
        ],
        "dtype": "float32"
      }
    ],
    "jaxpr": "{ lambda ; a:f32[6]. let b:f32[6] = integer_pow[y=2] a in (b,) }",
    "stablehlo": "module @jit__lambda attributes {mhlo.num_partitions = 1 : i32, mhlo.num_replicas = 1 : i32} {\n  func.func public @main(%arg0: tensor<6xf32>) -> (tensor<6xf32> {jax.result_info = \"result\"}) {\n    %0 = stablehlo.multiply %arg0, %arg0 : tensor<6xf32>\n    return %0 : tensor<6xf32>\n  }\n}\n",
    "metadata": {
      "category": "math",
      "operation": "square",
      "description": "Math function: square"
    }
  },
  {
    "python_code": "lambda x: x ** 2",
    "input_info": [
      {
        "shape": [
          8,
          5,
          10
        ],
        "dtype": "float32"
      }
    ],
    "jaxpr": "{ lambda ; a:f32[8,5,10]. let b:f32[8,5,10] = integer_pow[y=2] a in (b,) }",
    "stablehlo": "module @jit__lambda attributes {mhlo.num_partitions = 1 : i32, mhlo.num_replicas = 1 : i32} {\n  func.func public @main(%arg0: tensor<8x5x10xf32>) -> (tensor<8x5x10xf32> {jax.result_info = \"result\"}) {\n    %0 = stablehlo.multiply %arg0, %arg0 : tensor<8x5x10xf32>\n    return %0 : tensor<8x5x10xf32>\n  }\n}\n",
    "metadata": {
      "category": "math",
      "operation": "square",
      "description": "Math function: square"
    }
  },
  {
    "python_code": "lambda x: jnp.log(x + 1.0)",
    "input_info": [
      {
        "shape": [
          6,
          8,
          7
        ],
        "dtype": "float32"
      }
    ],
    "jaxpr": "{ lambda ; a:f32[6,8,7]. let\n    b:f32[6,8,7] = add a 1.0:f32[]\n    c:f32[6,8,7] = log b\n  in (c,) }",
    "stablehlo": "module @jit__lambda attributes {mhlo.num_partitions = 1 : i32, mhlo.num_replicas = 1 : i32} {\n  func.func public @main(%arg0: tensor<6x8x7xf32>) -> (tensor<6x8x7xf32> {jax.result_info = \"result\"}) {\n    %cst = stablehlo.constant dense<1.000000e+00> : tensor<f32>\n    %0 = stablehlo.broadcast_in_dim %cst, dims = [] : (tensor<f32>) -> tensor<6x8x7xf32>\n    %1 = stablehlo.add %arg0, %0 : tensor<6x8x7xf32>\n    %2 = stablehlo.log %1 : tensor<6x8x7xf32>\n    return %2 : tensor<6x8x7xf32>\n  }\n}\n",
    "metadata": {
      "category": "math",
      "operation": "log",
      "description": "Math function: log"
    }
  },
  {
    "python_code": "lambda x: jnp.abs(x)",
    "input_info": [
      {
        "shape": [
          9,
          3,
          5
        ],
        "dtype": "float32"
      }
    ],
    "jaxpr": "{ lambda ; a:f32[9,3,5]. let b:f32[9,3,5] = abs a in (b,) }",
    "stablehlo": "module @jit__lambda attributes {mhlo.num_partitions = 1 : i32, mhlo.num_replicas = 1 : i32} {\n  func.func public @main(%arg0: tensor<9x3x5xf32>) -> (tensor<9x3x5xf32> {jax.result_info = \"result\"}) {\n    %0 = stablehlo.abs %arg0 : tensor<9x3x5xf32>\n    return %0 : tensor<9x3x5xf32>\n  }\n}\n",
    "metadata": {
      "category": "math",
      "operation": "abs",
      "description": "Math function: abs"
    }
  },
  {
    "python_code": "lambda x: jnp.log(x + 1.0)",
    "input_info": [
      {
        "shape": [
          7
        ],
        "dtype": "float32"
      }
    ],
    "jaxpr": "{ lambda ; a:f32[7]. let b:f32[7] = add a 1.0:f32[]; c:f32[7] = log b in (c,) }",
    "stablehlo": "module @jit__lambda attributes {mhlo.num_partitions = 1 : i32, mhlo.num_replicas = 1 : i32} {\n  func.func public @main(%arg0: tensor<7xf32>) -> (tensor<7xf32> {jax.result_info = \"result\"}) {\n    %cst = stablehlo.constant dense<1.000000e+00> : tensor<f32>\n    %0 = stablehlo.broadcast_in_dim %cst, dims = [] : (tensor<f32>) -> tensor<7xf32>\n    %1 = stablehlo.add %arg0, %0 : tensor<7xf32>\n    %2 = stablehlo.log %1 : tensor<7xf32>\n    return %2 : tensor<7xf32>\n  }\n}\n",
    "metadata": {
      "category": "math",
      "operation": "log",
      "description": "Math function: log"
    }
  },
  {
    "python_code": "lambda x: jnp.sin(x)",
    "input_info": [
      {
        "shape": [
          10,
          5,
          5
        ],
        "dtype": "float32"
      }
    ],
    "jaxpr": "{ lambda ; a:f32[10,5,5]. let b:f32[10,5,5] = sin a in (b,) }",
    "stablehlo": "module @jit__lambda attributes {mhlo.num_partitions = 1 : i32, mhlo.num_replicas = 1 : i32} {\n  func.func public @main(%arg0: tensor<10x5x5xf32>) -> (tensor<10x5x5xf32> {jax.result_info = \"result\"}) {\n    %0 = stablehlo.sine %arg0 : tensor<10x5x5xf32>\n    return %0 : tensor<10x5x5xf32>\n  }\n}\n",
    "metadata": {
      "category": "math",
      "operation": "sin",
      "description": "Math function: sin"
    }
  },
  {
    "python_code": "lambda x: jnp.sin(x)",
    "input_info": [
      {
        "shape": [
          2
        ],
        "dtype": "float32"
      }
    ],
    "jaxpr": "{ lambda ; a:f32[2]. let b:f32[2] = sin a in (b,) }",
    "stablehlo": "module @jit__lambda attributes {mhlo.num_partitions = 1 : i32, mhlo.num_replicas = 1 : i32} {\n  func.func public @main(%arg0: tensor<2xf32>) -> (tensor<2xf32> {jax.result_info = \"result\"}) {\n    %0 = stablehlo.sine %arg0 : tensor<2xf32>\n    return %0 : tensor<2xf32>\n  }\n}\n",
    "metadata": {
      "category": "math",
      "operation": "sin",
      "description": "Math function: sin"
    }
  },
  {
    "python_code": "lambda x: jnp.log(x + 1.0)",
    "input_info": [
      {
        "shape": [
          2
        ],
        "dtype": "float32"
      }
    ],
    "jaxpr": "{ lambda ; a:f32[2]. let b:f32[2] = add a 1.0:f32[]; c:f32[2] = log b in (c,) }",
    "stablehlo": "module @jit__lambda attributes {mhlo.num_partitions = 1 : i32, mhlo.num_replicas = 1 : i32} {\n  func.func public @main(%arg0: tensor<2xf32>) -> (tensor<2xf32> {jax.result_info = \"result\"}) {\n    %cst = stablehlo.constant dense<1.000000e+00> : tensor<f32>\n    %0 = stablehlo.broadcast_in_dim %cst, dims = [] : (tensor<f32>) -> tensor<2xf32>\n    %1 = stablehlo.add %arg0, %0 : tensor<2xf32>\n    %2 = stablehlo.log %1 : tensor<2xf32>\n    return %2 : tensor<2xf32>\n  }\n}\n",
    "metadata": {
      "category": "math",
      "operation": "log",
      "description": "Math function: log"
    }
  },
  {
    "python_code": "lambda x: jnp.tanh(x)",
    "input_info": [
      {
        "shape": [
          10
        ],
        "dtype": "float32"
      }
    ],
    "jaxpr": "{ lambda ; a:f32[10]. let b:f32[10] = tanh a in (b,) }",
    "stablehlo": "module @jit__lambda attributes {mhlo.num_partitions = 1 : i32, mhlo.num_replicas = 1 : i32} {\n  func.func public @main(%arg0: tensor<10xf32>) -> (tensor<10xf32> {jax.result_info = \"result\"}) {\n    %0 = stablehlo.tanh %arg0 : tensor<10xf32>\n    return %0 : tensor<10xf32>\n  }\n}\n",
    "metadata": {
      "category": "math",
      "operation": "tanh",
      "description": "Math function: tanh"
    }
  },
  {
    "python_code": "lambda x: jnp.log(x + 1.0)",
    "input_info": [
      {
        "shape": [
          9,
          5
        ],
        "dtype": "float32"
      }
    ],
    "jaxpr": "{ lambda ; a:f32[9,5]. let\n    b:f32[9,5] = add a 1.0:f32[]\n    c:f32[9,5] = log b\n  in (c,) }",
    "stablehlo": "module @jit__lambda attributes {mhlo.num_partitions = 1 : i32, mhlo.num_replicas = 1 : i32} {\n  func.func public @main(%arg0: tensor<9x5xf32>) -> (tensor<9x5xf32> {jax.result_info = \"result\"}) {\n    %cst = stablehlo.constant dense<1.000000e+00> : tensor<f32>\n    %0 = stablehlo.broadcast_in_dim %cst, dims = [] : (tensor<f32>) -> tensor<9x5xf32>\n    %1 = stablehlo.add %arg0, %0 : tensor<9x5xf32>\n    %2 = stablehlo.log %1 : tensor<9x5xf32>\n    return %2 : tensor<9x5xf32>\n  }\n}\n",
    "metadata": {
      "category": "math",
      "operation": "log",
      "description": "Math function: log"
    }
  },
  {
    "python_code": "lambda x: x ** 2",
    "input_info": [
      {
        "shape": [
          9
        ],
        "dtype": "float32"
      }
    ],
    "jaxpr": "{ lambda ; a:f32[9]. let b:f32[9] = integer_pow[y=2] a in (b,) }",
    "stablehlo": "module @jit__lambda attributes {mhlo.num_partitions = 1 : i32, mhlo.num_replicas = 1 : i32} {\n  func.func public @main(%arg0: tensor<9xf32>) -> (tensor<9xf32> {jax.result_info = \"result\"}) {\n    %0 = stablehlo.multiply %arg0, %arg0 : tensor<9xf32>\n    return %0 : tensor<9xf32>\n  }\n}\n",
    "metadata": {
      "category": "math",
      "operation": "square",
      "description": "Math function: square"
    }
  },
  {
    "python_code": "lambda x: jnp.log(x + 1.0)",
    "input_info": [
      {
        "shape": [
          8,
          5
        ],
        "dtype": "float32"
      }
    ],
    "jaxpr": "{ lambda ; a:f32[8,5]. let\n    b:f32[8,5] = add a 1.0:f32[]\n    c:f32[8,5] = log b\n  in (c,) }",
    "stablehlo": "module @jit__lambda attributes {mhlo.num_partitions = 1 : i32, mhlo.num_replicas = 1 : i32} {\n  func.func public @main(%arg0: tensor<8x5xf32>) -> (tensor<8x5xf32> {jax.result_info = \"result\"}) {\n    %cst = stablehlo.constant dense<1.000000e+00> : tensor<f32>\n    %0 = stablehlo.broadcast_in_dim %cst, dims = [] : (tensor<f32>) -> tensor<8x5xf32>\n    %1 = stablehlo.add %arg0, %0 : tensor<8x5xf32>\n    %2 = stablehlo.log %1 : tensor<8x5xf32>\n    return %2 : tensor<8x5xf32>\n  }\n}\n",
    "metadata": {
      "category": "math",
      "operation": "log",
      "description": "Math function: log"
    }
  },
  {
    "python_code": "lambda x: jnp.cos(x)",
    "input_info": [
      {
        "shape": [
          8
        ],
        "dtype": "float32"
      }
    ],
    "jaxpr": "{ lambda ; a:f32[8]. let b:f32[8] = cos a in (b,) }",
    "stablehlo": "module @jit__lambda attributes {mhlo.num_partitions = 1 : i32, mhlo.num_replicas = 1 : i32} {\n  func.func public @main(%arg0: tensor<8xf32>) -> (tensor<8xf32> {jax.result_info = \"result\"}) {\n    %0 = stablehlo.cosine %arg0 : tensor<8xf32>\n    return %0 : tensor<8xf32>\n  }\n}\n",
    "metadata": {
      "category": "math",
      "operation": "cos",
      "description": "Math function: cos"
    }
  },
  {
    "python_code": "lambda x: jnp.tanh(x)",
    "input_info": [
      {
        "shape": [
          8,
          9
        ],
        "dtype": "float32"
      }
    ],
    "jaxpr": "{ lambda ; a:f32[8,9]. let b:f32[8,9] = tanh a in (b,) }",
    "stablehlo": "module @jit__lambda attributes {mhlo.num_partitions = 1 : i32, mhlo.num_replicas = 1 : i32} {\n  func.func public @main(%arg0: tensor<8x9xf32>) -> (tensor<8x9xf32> {jax.result_info = \"result\"}) {\n    %0 = stablehlo.tanh %arg0 : tensor<8x9xf32>\n    return %0 : tensor<8x9xf32>\n  }\n}\n",
    "metadata": {
      "category": "math",
      "operation": "tanh",
      "description": "Math function: tanh"
    }
  },
  {
    "python_code": "lambda x: jnp.sin(x)",
    "input_info": [
      {
        "shape": [
          3,
          2,
          8
        ],
        "dtype": "float32"
      }
    ],
    "jaxpr": "{ lambda ; a:f32[3,2,8]. let b:f32[3,2,8] = sin a in (b,) }",
    "stablehlo": "module @jit__lambda attributes {mhlo.num_partitions = 1 : i32, mhlo.num_replicas = 1 : i32} {\n  func.func public @main(%arg0: tensor<3x2x8xf32>) -> (tensor<3x2x8xf32> {jax.result_info = \"result\"}) {\n    %0 = stablehlo.sine %arg0 : tensor<3x2x8xf32>\n    return %0 : tensor<3x2x8xf32>\n  }\n}\n",
    "metadata": {
      "category": "math",
      "operation": "sin",
      "description": "Math function: sin"
    }
  },
  {
    "python_code": "lambda x: jnp.tanh(x)",
    "input_info": [
      {
        "shape": [
          5
        ],
        "dtype": "float32"
      }
    ],
    "jaxpr": "{ lambda ; a:f32[5]. let b:f32[5] = tanh a in (b,) }",
    "stablehlo": "module @jit__lambda attributes {mhlo.num_partitions = 1 : i32, mhlo.num_replicas = 1 : i32} {\n  func.func public @main(%arg0: tensor<5xf32>) -> (tensor<5xf32> {jax.result_info = \"result\"}) {\n    %0 = stablehlo.tanh %arg0 : tensor<5xf32>\n    return %0 : tensor<5xf32>\n  }\n}\n",
    "metadata": {
      "category": "math",
      "operation": "tanh",
      "description": "Math function: tanh"
    }
  },
  {
    "python_code": "lambda x: jnp.mean(x)",
    "input_info": [
      {
        "shape": [
          10
        ],
        "dtype": "float32"
      }
    ],
    "jaxpr": "{ lambda ; a:f32[10]. let\n    b:f32[] = reduce_sum[axes=(0,) out_sharding=None] a\n    c:f32[] = div b 10.0:f32[]\n  in (c,) }",
    "stablehlo": "module @jit__lambda attributes {mhlo.num_partitions = 1 : i32, mhlo.num_replicas = 1 : i32} {\n  func.func public @main(%arg0: tensor<10xf32>) -> (tensor<f32> {jax.result_info = \"result\"}) {\n    %cst = stablehlo.constant dense<0.000000e+00> : tensor<f32>\n    %0 = stablehlo.reduce(%arg0 init: %cst) applies stablehlo.add across dimensions = [0] : (tensor<10xf32>, tensor<f32>) -> tensor<f32>\n    %cst_0 = stablehlo.constant dense<1.000000e+01> : tensor<f32>\n    %1 = stablehlo.divide %0, %cst_0 : tensor<f32>\n    return %1 : tensor<f32>\n  }\n}\n",
    "metadata": {
      "category": "reduction",
      "operation": "mean",
      "description": "Reduction: mean"
    }
  },
  {
    "python_code": "lambda x: jnp.min(x)",
    "input_info": [
      {
        "shape": [
          8
        ],
        "dtype": "float32"
      }
    ],
    "jaxpr": "{ lambda ; a:f32[8]. let b:f32[] = reduce_min[axes=(0,)] a in (b,) }",
    "stablehlo": "module @jit__lambda attributes {mhlo.num_partitions = 1 : i32, mhlo.num_replicas = 1 : i32} {\n  func.func public @main(%arg0: tensor<8xf32>) -> (tensor<f32> {jax.result_info = \"result\"}) {\n    %cst = stablehlo.constant dense<0x7F800000> : tensor<f32>\n    %0 = stablehlo.reduce(%arg0 init: %cst) applies stablehlo.minimum across dimensions = [0] : (tensor<8xf32>, tensor<f32>) -> tensor<f32>\n    return %0 : tensor<f32>\n  }\n}\n",
    "metadata": {
      "category": "reduction",
      "operation": "min",
      "description": "Reduction: min"
    }
  },
  {
    "python_code": "lambda x: jnp.mean(x)",
    "input_info": [
      {
        "shape": [
          9,
          5
        ],
        "dtype": "float32"
      }
    ],
    "jaxpr": "{ lambda ; a:f32[9,5]. let\n    b:f32[] = reduce_sum[axes=(0, 1) out_sharding=None] a\n    c:f32[] = div b 45.0:f32[]\n  in (c,) }",
    "stablehlo": "module @jit__lambda attributes {mhlo.num_partitions = 1 : i32, mhlo.num_replicas = 1 : i32} {\n  func.func public @main(%arg0: tensor<9x5xf32>) -> (tensor<f32> {jax.result_info = \"result\"}) {\n    %cst = stablehlo.constant dense<0.000000e+00> : tensor<f32>\n    %0 = stablehlo.reduce(%arg0 init: %cst) applies stablehlo.add across dimensions = [0, 1] : (tensor<9x5xf32>, tensor<f32>) -> tensor<f32>\n    %cst_0 = stablehlo.constant dense<4.500000e+01> : tensor<f32>\n    %1 = stablehlo.divide %0, %cst_0 : tensor<f32>\n    return %1 : tensor<f32>\n  }\n}\n",
    "metadata": {
      "category": "reduction",
      "operation": "mean",
      "description": "Reduction: mean"
    }
  },
  {
    "python_code": "lambda x: jnp.mean(x, axis=0)",
    "input_info": [
      {
        "shape": [
          3,
          9
        ],
        "dtype": "float32"
      }
    ],
    "jaxpr": "{ lambda ; a:f32[3,9]. let\n    b:f32[9] = reduce_sum[axes=(0,) out_sharding=None] a\n    c:f32[9] = div b 3.0:f32[]\n  in (c,) }",
    "stablehlo": "module @jit__lambda attributes {mhlo.num_partitions = 1 : i32, mhlo.num_replicas = 1 : i32} {\n  func.func public @main(%arg0: tensor<3x9xf32>) -> (tensor<9xf32> {jax.result_info = \"result\"}) {\n    %cst = stablehlo.constant dense<0.000000e+00> : tensor<f32>\n    %0 = stablehlo.reduce(%arg0 init: %cst) applies stablehlo.add across dimensions = [0] : (tensor<3x9xf32>, tensor<f32>) -> tensor<9xf32>\n    %cst_0 = stablehlo.constant dense<3.000000e+00> : tensor<f32>\n    %1 = stablehlo.broadcast_in_dim %cst_0, dims = [] : (tensor<f32>) -> tensor<9xf32>\n    %2 = stablehlo.divide %0, %1 : tensor<9xf32>\n    return %2 : tensor<9xf32>\n  }\n}\n",
    "metadata": {
      "category": "reduction",
      "operation": "mean_axis0",
      "description": "Reduction: mean_axis0"
    }
  },
  {
    "python_code": "lambda x: jnp.mean(x, axis=0)",
    "input_info": [
      {
        "shape": [
          10,
          3
        ],
        "dtype": "float32"
      }
    ],
    "jaxpr": "{ lambda ; a:f32[10,3]. let\n    b:f32[3] = reduce_sum[axes=(0,) out_sharding=None] a\n    c:f32[3] = div b 10.0:f32[]\n  in (c,) }",
    "stablehlo": "module @jit__lambda attributes {mhlo.num_partitions = 1 : i32, mhlo.num_replicas = 1 : i32} {\n  func.func public @main(%arg0: tensor<10x3xf32>) -> (tensor<3xf32> {jax.result_info = \"result\"}) {\n    %cst = stablehlo.constant dense<0.000000e+00> : tensor<f32>\n    %0 = stablehlo.reduce(%arg0 init: %cst) applies stablehlo.add across dimensions = [0] : (tensor<10x3xf32>, tensor<f32>) -> tensor<3xf32>\n    %cst_0 = stablehlo.constant dense<1.000000e+01> : tensor<f32>\n    %1 = stablehlo.broadcast_in_dim %cst_0, dims = [] : (tensor<f32>) -> tensor<3xf32>\n    %2 = stablehlo.divide %0, %1 : tensor<3xf32>\n    return %2 : tensor<3xf32>\n  }\n}\n",
    "metadata": {
      "category": "reduction",
      "operation": "mean_axis0",
      "description": "Reduction: mean_axis0"
    }
  },
  {
    "python_code": "lambda x: jnp.sum(x)",
    "input_info": [
      {
        "shape": [
          10,
          2,
          3
        ],
        "dtype": "float32"
      }
    ],
    "jaxpr": "{ lambda ; a:f32[10,2,3]. let\n    b:f32[] = reduce_sum[axes=(0, 1, 2) out_sharding=None] a\n  in (b,) }",
    "stablehlo": "module @jit__lambda attributes {mhlo.num_partitions = 1 : i32, mhlo.num_replicas = 1 : i32} {\n  func.func public @main(%arg0: tensor<10x2x3xf32>) -> (tensor<f32> {jax.result_info = \"result\"}) {\n    %cst = stablehlo.constant dense<0.000000e+00> : tensor<f32>\n    %0 = stablehlo.reduce(%arg0 init: %cst) applies stablehlo.add across dimensions = [0, 1, 2] : (tensor<10x2x3xf32>, tensor<f32>) -> tensor<f32>\n    return %0 : tensor<f32>\n  }\n}\n",
    "metadata": {
      "category": "reduction",
      "operation": "sum",
      "description": "Reduction: sum"
    }
  },
  {
    "python_code": "lambda x: jnp.mean(x, axis=0)",
    "input_info": [
      {
        "shape": [
          5,
          4
        ],
        "dtype": "float32"
      }
    ],
    "jaxpr": "{ lambda ; a:f32[5,4]. let\n    b:f32[4] = reduce_sum[axes=(0,) out_sharding=None] a\n    c:f32[4] = div b 5.0:f32[]\n  in (c,) }",
    "stablehlo": "module @jit__lambda attributes {mhlo.num_partitions = 1 : i32, mhlo.num_replicas = 1 : i32} {\n  func.func public @main(%arg0: tensor<5x4xf32>) -> (tensor<4xf32> {jax.result_info = \"result\"}) {\n    %cst = stablehlo.constant dense<0.000000e+00> : tensor<f32>\n    %0 = stablehlo.reduce(%arg0 init: %cst) applies stablehlo.add across dimensions = [0] : (tensor<5x4xf32>, tensor<f32>) -> tensor<4xf32>\n    %cst_0 = stablehlo.constant dense<5.000000e+00> : tensor<f32>\n    %1 = stablehlo.broadcast_in_dim %cst_0, dims = [] : (tensor<f32>) -> tensor<4xf32>\n    %2 = stablehlo.divide %0, %1 : tensor<4xf32>\n    return %2 : tensor<4xf32>\n  }\n}\n",
    "metadata": {
      "category": "reduction",
      "operation": "mean_axis0",
      "description": "Reduction: mean_axis0"
    }
  },
  {
    "python_code": "lambda x: jnp.min(x)",
    "input_info": [
      {
        "shape": [
          9,
          5
        ],
        "dtype": "float32"
      }
    ],
    "jaxpr": "{ lambda ; a:f32[9,5]. let b:f32[] = reduce_min[axes=(0, 1)] a in (b,) }",
    "stablehlo": "module @jit__lambda attributes {mhlo.num_partitions = 1 : i32, mhlo.num_replicas = 1 : i32} {\n  func.func public @main(%arg0: tensor<9x5xf32>) -> (tensor<f32> {jax.result_info = \"result\"}) {\n    %cst = stablehlo.constant dense<0x7F800000> : tensor<f32>\n    %0 = stablehlo.reduce(%arg0 init: %cst) applies stablehlo.minimum across dimensions = [0, 1] : (tensor<9x5xf32>, tensor<f32>) -> tensor<f32>\n    return %0 : tensor<f32>\n  }\n}\n",
    "metadata": {
      "category": "reduction",
      "operation": "min",
      "description": "Reduction: min"
    }
  },
  {
    "python_code": "lambda x: jnp.mean(x, axis=0)",
    "input_info": [
      {
        "shape": [
          8,
          2
        ],
        "dtype": "float32"
      }
    ],
    "jaxpr": "{ lambda ; a:f32[8,2]. let\n    b:f32[2] = reduce_sum[axes=(0,) out_sharding=None] a\n    c:f32[2] = div b 8.0:f32[]\n  in (c,) }",
    "stablehlo": "module @jit__lambda attributes {mhlo.num_partitions = 1 : i32, mhlo.num_replicas = 1 : i32} {\n  func.func public @main(%arg0: tensor<8x2xf32>) -> (tensor<2xf32> {jax.result_info = \"result\"}) {\n    %cst = stablehlo.constant dense<0.000000e+00> : tensor<f32>\n    %0 = stablehlo.reduce(%arg0 init: %cst) applies stablehlo.add across dimensions = [0] : (tensor<8x2xf32>, tensor<f32>) -> tensor<2xf32>\n    %cst_0 = stablehlo.constant dense<8.000000e+00> : tensor<f32>\n    %1 = stablehlo.broadcast_in_dim %cst_0, dims = [] : (tensor<f32>) -> tensor<2xf32>\n    %2 = stablehlo.divide %0, %1 : tensor<2xf32>\n    return %2 : tensor<2xf32>\n  }\n}\n",
    "metadata": {
      "category": "reduction",
      "operation": "mean_axis0",
      "description": "Reduction: mean_axis0"
    }
  },
  {
    "python_code": "lambda x: jnp.mean(x)",
    "input_info": [
      {
        "shape": [
          2,
          8
        ],
        "dtype": "float32"
      }
    ],
    "jaxpr": "{ lambda ; a:f32[2,8]. let\n    b:f32[] = reduce_sum[axes=(0, 1) out_sharding=None] a\n    c:f32[] = div b 16.0:f32[]\n  in (c,) }",
    "stablehlo": "module @jit__lambda attributes {mhlo.num_partitions = 1 : i32, mhlo.num_replicas = 1 : i32} {\n  func.func public @main(%arg0: tensor<2x8xf32>) -> (tensor<f32> {jax.result_info = \"result\"}) {\n    %cst = stablehlo.constant dense<0.000000e+00> : tensor<f32>\n    %0 = stablehlo.reduce(%arg0 init: %cst) applies stablehlo.add across dimensions = [0, 1] : (tensor<2x8xf32>, tensor<f32>) -> tensor<f32>\n    %cst_0 = stablehlo.constant dense<1.600000e+01> : tensor<f32>\n    %1 = stablehlo.divide %0, %cst_0 : tensor<f32>\n    return %1 : tensor<f32>\n  }\n}\n",
    "metadata": {
      "category": "reduction",
      "operation": "mean",
      "description": "Reduction: mean"
    }
  },
  {
    "python_code": "lambda x: jnp.max(x)",
    "input_info": [
      {
        "shape": [
          6,
          8
        ],
        "dtype": "float32"
      }
    ],
    "jaxpr": "{ lambda ; a:f32[6,8]. let b:f32[] = reduce_max[axes=(0, 1)] a in (b,) }",
    "stablehlo": "module @jit__lambda attributes {mhlo.num_partitions = 1 : i32, mhlo.num_replicas = 1 : i32} {\n  func.func public @main(%arg0: tensor<6x8xf32>) -> (tensor<f32> {jax.result_info = \"result\"}) {\n    %cst = stablehlo.constant dense<0xFF800000> : tensor<f32>\n    %0 = stablehlo.reduce(%arg0 init: %cst) applies stablehlo.maximum across dimensions = [0, 1] : (tensor<6x8xf32>, tensor<f32>) -> tensor<f32>\n    return %0 : tensor<f32>\n  }\n}\n",
    "metadata": {
      "category": "reduction",
      "operation": "max",
      "description": "Reduction: max"
    }
  },
  {
    "python_code": "lambda x: jnp.sum(x, axis=0)",
    "input_info": [
      {
        "shape": [
          10,
          9
        ],
        "dtype": "float32"
      }
    ],
    "jaxpr": "{ lambda ; a:f32[10,9]. let\n    b:f32[9] = reduce_sum[axes=(0,) out_sharding=None] a\n  in (b,) }",
    "stablehlo": "module @jit__lambda attributes {mhlo.num_partitions = 1 : i32, mhlo.num_replicas = 1 : i32} {\n  func.func public @main(%arg0: tensor<10x9xf32>) -> (tensor<9xf32> {jax.result_info = \"result\"}) {\n    %cst = stablehlo.constant dense<0.000000e+00> : tensor<f32>\n    %0 = stablehlo.reduce(%arg0 init: %cst) applies stablehlo.add across dimensions = [0] : (tensor<10x9xf32>, tensor<f32>) -> tensor<9xf32>\n    return %0 : tensor<9xf32>\n  }\n}\n",
    "metadata": {
      "category": "reduction",
      "operation": "sum_axis0",
      "description": "Reduction: sum_axis0"
    }
  },
  {
    "python_code": "lambda x: jnp.mean(x)",
    "input_info": [
      {
        "shape": [
          6
        ],
        "dtype": "float32"
      }
    ],
    "jaxpr": "{ lambda ; a:f32[6]. let\n    b:f32[] = reduce_sum[axes=(0,) out_sharding=None] a\n    c:f32[] = div b 6.0:f32[]\n  in (c,) }",
    "stablehlo": "module @jit__lambda attributes {mhlo.num_partitions = 1 : i32, mhlo.num_replicas = 1 : i32} {\n  func.func public @main(%arg0: tensor<6xf32>) -> (tensor<f32> {jax.result_info = \"result\"}) {\n    %cst = stablehlo.constant dense<0.000000e+00> : tensor<f32>\n    %0 = stablehlo.reduce(%arg0 init: %cst) applies stablehlo.add across dimensions = [0] : (tensor<6xf32>, tensor<f32>) -> tensor<f32>\n    %cst_0 = stablehlo.constant dense<6.000000e+00> : tensor<f32>\n    %1 = stablehlo.divide %0, %cst_0 : tensor<f32>\n    return %1 : tensor<f32>\n  }\n}\n",
    "metadata": {
      "category": "reduction",
      "operation": "mean",
      "description": "Reduction: mean"
    }
  },
  {
    "python_code": "lambda x: jnp.mean(x)",
    "input_info": [
      {
        "shape": [
          10
        ],
        "dtype": "float32"
      }
    ],
    "jaxpr": "{ lambda ; a:f32[10]. let\n    b:f32[] = reduce_sum[axes=(0,) out_sharding=None] a\n    c:f32[] = div b 10.0:f32[]\n  in (c,) }",
    "stablehlo": "module @jit__lambda attributes {mhlo.num_partitions = 1 : i32, mhlo.num_replicas = 1 : i32} {\n  func.func public @main(%arg0: tensor<10xf32>) -> (tensor<f32> {jax.result_info = \"result\"}) {\n    %cst = stablehlo.constant dense<0.000000e+00> : tensor<f32>\n    %0 = stablehlo.reduce(%arg0 init: %cst) applies stablehlo.add across dimensions = [0] : (tensor<10xf32>, tensor<f32>) -> tensor<f32>\n    %cst_0 = stablehlo.constant dense<1.000000e+01> : tensor<f32>\n    %1 = stablehlo.divide %0, %cst_0 : tensor<f32>\n    return %1 : tensor<f32>\n  }\n}\n",
    "metadata": {
      "category": "reduction",
      "operation": "mean",
      "description": "Reduction: mean"
    }
  },
  {
    "python_code": "lambda x: jnp.sum(x)",
    "input_info": [
      {
        "shape": [
          7,
          2,
          2
        ],
        "dtype": "float32"
      }
    ],
    "jaxpr": "{ lambda ; a:f32[7,2,2]. let\n    b:f32[] = reduce_sum[axes=(0, 1, 2) out_sharding=None] a\n  in (b,) }",
    "stablehlo": "module @jit__lambda attributes {mhlo.num_partitions = 1 : i32, mhlo.num_replicas = 1 : i32} {\n  func.func public @main(%arg0: tensor<7x2x2xf32>) -> (tensor<f32> {jax.result_info = \"result\"}) {\n    %cst = stablehlo.constant dense<0.000000e+00> : tensor<f32>\n    %0 = stablehlo.reduce(%arg0 init: %cst) applies stablehlo.add across dimensions = [0, 1, 2] : (tensor<7x2x2xf32>, tensor<f32>) -> tensor<f32>\n    return %0 : tensor<f32>\n  }\n}\n",
    "metadata": {
      "category": "reduction",
      "operation": "sum",
      "description": "Reduction: sum"
    }
  },
  {
    "python_code": "lambda x: jnp.prod(x)",
    "input_info": [
      {
        "shape": [
          10,
          10
        ],
        "dtype": "float32"
      }
    ],
    "jaxpr": "{ lambda ; a:f32[10,10]. let b:f32[] = reduce_prod[axes=(0, 1)] a in (b,) }",
    "stablehlo": "module @jit__lambda attributes {mhlo.num_partitions = 1 : i32, mhlo.num_replicas = 1 : i32} {\n  func.func public @main(%arg0: tensor<10x10xf32>) -> (tensor<f32> {jax.result_info = \"result\"}) {\n    %cst = stablehlo.constant dense<1.000000e+00> : tensor<f32>\n    %0 = stablehlo.reduce(%arg0 init: %cst) applies stablehlo.multiply across dimensions = [0, 1] : (tensor<10x10xf32>, tensor<f32>) -> tensor<f32>\n    return %0 : tensor<f32>\n  }\n}\n",
    "metadata": {
      "category": "reduction",
      "operation": "prod",
      "description": "Reduction: prod"
    }
  },
  {
    "python_code": "lambda x: jnp.mean(x)",
    "input_info": [
      {
        "shape": [
          10
        ],
        "dtype": "float32"
      }
    ],
    "jaxpr": "{ lambda ; a:f32[10]. let\n    b:f32[] = reduce_sum[axes=(0,) out_sharding=None] a\n    c:f32[] = div b 10.0:f32[]\n  in (c,) }",
    "stablehlo": "module @jit__lambda attributes {mhlo.num_partitions = 1 : i32, mhlo.num_replicas = 1 : i32} {\n  func.func public @main(%arg0: tensor<10xf32>) -> (tensor<f32> {jax.result_info = \"result\"}) {\n    %cst = stablehlo.constant dense<0.000000e+00> : tensor<f32>\n    %0 = stablehlo.reduce(%arg0 init: %cst) applies stablehlo.add across dimensions = [0] : (tensor<10xf32>, tensor<f32>) -> tensor<f32>\n    %cst_0 = stablehlo.constant dense<1.000000e+01> : tensor<f32>\n    %1 = stablehlo.divide %0, %cst_0 : tensor<f32>\n    return %1 : tensor<f32>\n  }\n}\n",
    "metadata": {
      "category": "reduction",
      "operation": "mean",
      "description": "Reduction: mean"
    }
  },
  {
    "python_code": "lambda x: jnp.sum(x)",
    "input_info": [
      {
        "shape": [
          3
        ],
        "dtype": "float32"
      }
    ],
    "jaxpr": "{ lambda ; a:f32[3]. let\n    b:f32[] = reduce_sum[axes=(0,) out_sharding=None] a\n  in (b,) }",
    "stablehlo": "module @jit__lambda attributes {mhlo.num_partitions = 1 : i32, mhlo.num_replicas = 1 : i32} {\n  func.func public @main(%arg0: tensor<3xf32>) -> (tensor<f32> {jax.result_info = \"result\"}) {\n    %cst = stablehlo.constant dense<0.000000e+00> : tensor<f32>\n    %0 = stablehlo.reduce(%arg0 init: %cst) applies stablehlo.add across dimensions = [0] : (tensor<3xf32>, tensor<f32>) -> tensor<f32>\n    return %0 : tensor<f32>\n  }\n}\n",
    "metadata": {
      "category": "reduction",
      "operation": "sum",
      "description": "Reduction: sum"
    }
  },
  {
    "python_code": "lambda x: jnp.prod(x)",
    "input_info": [
      {
        "shape": [
          5
        ],
        "dtype": "float32"
      }
    ],
    "jaxpr": "{ lambda ; a:f32[5]. let b:f32[] = reduce_prod[axes=(0,)] a in (b,) }",
    "stablehlo": "module @jit__lambda attributes {mhlo.num_partitions = 1 : i32, mhlo.num_replicas = 1 : i32} {\n  func.func public @main(%arg0: tensor<5xf32>) -> (tensor<f32> {jax.result_info = \"result\"}) {\n    %cst = stablehlo.constant dense<1.000000e+00> : tensor<f32>\n    %0 = stablehlo.reduce(%arg0 init: %cst) applies stablehlo.multiply across dimensions = [0] : (tensor<5xf32>, tensor<f32>) -> tensor<f32>\n    return %0 : tensor<f32>\n  }\n}\n",
    "metadata": {
      "category": "reduction",
      "operation": "prod",
      "description": "Reduction: prod"
    }
  },
  {
    "python_code": "lambda x: jnp.min(x)",
    "input_info": [
      {
        "shape": [
          5
        ],
        "dtype": "float32"
      }
    ],
    "jaxpr": "{ lambda ; a:f32[5]. let b:f32[] = reduce_min[axes=(0,)] a in (b,) }",
    "stablehlo": "module @jit__lambda attributes {mhlo.num_partitions = 1 : i32, mhlo.num_replicas = 1 : i32} {\n  func.func public @main(%arg0: tensor<5xf32>) -> (tensor<f32> {jax.result_info = \"result\"}) {\n    %cst = stablehlo.constant dense<0x7F800000> : tensor<f32>\n    %0 = stablehlo.reduce(%arg0 init: %cst) applies stablehlo.minimum across dimensions = [0] : (tensor<5xf32>, tensor<f32>) -> tensor<f32>\n    return %0 : tensor<f32>\n  }\n}\n",
    "metadata": {
      "category": "reduction",
      "operation": "min",
      "description": "Reduction: min"
    }
  },
  {
    "python_code": "lambda x, y: jnp.dot(x, y)",
    "input_info": [
      {
        "shape": [
          5
        ],
        "dtype": "float32"
      },
      {
        "shape": [
          5
        ],
        "dtype": "float32"
      }
    ],
    "jaxpr": "{ lambda ; a:f32[5] b:f32[5]. let\n    c:f32[] = dot_general[\n      dimension_numbers=(([0], [0]), ([], []))\n      preferred_element_type=float32\n    ] a b\n  in (c,) }",
    "stablehlo": "module @jit__lambda attributes {mhlo.num_partitions = 1 : i32, mhlo.num_replicas = 1 : i32} {\n  func.func public @main(%arg0: tensor<5xf32>, %arg1: tensor<5xf32>) -> (tensor<f32> {jax.result_info = \"result\"}) {\n    %0 = stablehlo.dot_general %arg0, %arg1, contracting_dims = [0] x [0], precision = [DEFAULT, DEFAULT] : (tensor<5xf32>, tensor<5xf32>) -> tensor<f32>\n    return %0 : tensor<f32>\n  }\n}\n",
    "metadata": {
      "category": "linalg",
      "operation": "dot",
      "description": "Linear algebra: dot"
    }
  },
  {
    "python_code": "lambda x, y: jnp.dot(x, y)",
    "input_info": [
      {
        "shape": [
          5
        ],
        "dtype": "float32"
      },
      {
        "shape": [
          5
        ],
        "dtype": "float32"
      }
    ],
    "jaxpr": "{ lambda ; a:f32[5] b:f32[5]. let\n    c:f32[] = dot_general[\n      dimension_numbers=(([0], [0]), ([], []))\n      preferred_element_type=float32\n    ] a b\n  in (c,) }",
    "stablehlo": "module @jit__lambda attributes {mhlo.num_partitions = 1 : i32, mhlo.num_replicas = 1 : i32} {\n  func.func public @main(%arg0: tensor<5xf32>, %arg1: tensor<5xf32>) -> (tensor<f32> {jax.result_info = \"result\"}) {\n    %0 = stablehlo.dot_general %arg0, %arg1, contracting_dims = [0] x [0], precision = [DEFAULT, DEFAULT] : (tensor<5xf32>, tensor<5xf32>) -> tensor<f32>\n    return %0 : tensor<f32>\n  }\n}\n",
    "metadata": {
      "category": "linalg",
      "operation": "dot",
      "description": "Linear algebra: dot"
    }
  },
  {
    "python_code": "lambda x: jnp.linalg.norm(x)",
    "input_info": [
      {
        "shape": [
          5
        ],
        "dtype": "float32"
      }
    ],
    "jaxpr": "{ lambda ; a:f32[5]. let\n    b:f32[] = jit[\n      name=norm\n      jaxpr={ lambda ; a:f32[5]. let\n          c:f32[5] = mul a a\n          d:f32[] = reduce_sum[axes=(0,) out_sharding=None] c\n          b:f32[] = sqrt d\n        in (b,) }\n    ] a\n  in (b,) }",
    "stablehlo": "module @jit__lambda attributes {mhlo.num_partitions = 1 : i32, mhlo.num_replicas = 1 : i32} {\n  func.func public @main(%arg0: tensor<5xf32>) -> (tensor<f32> {jax.result_info = \"result\"}) {\n    %0 = call @norm(%arg0) : (tensor<5xf32>) -> tensor<f32>\n    return %0 : tensor<f32>\n  }\n  func.func private @norm(%arg0: tensor<5xf32>) -> tensor<f32> {\n    %0 = stablehlo.multiply %arg0, %arg0 : tensor<5xf32>\n    %cst = stablehlo.constant dense<0.000000e+00> : tensor<f32>\n    %1 = stablehlo.reduce(%0 init: %cst) applies stablehlo.add across dimensions = [0] : (tensor<5xf32>, tensor<f32>) -> tensor<f32>\n    %2 = stablehlo.sqrt %1 : tensor<f32>\n    return %2 : tensor<f32>\n  }\n}\n",
    "metadata": {
      "category": "linalg",
      "operation": "norm",
      "description": "Linear algebra: norm"
    }
  },
  {
    "python_code": "lambda x, y: jnp.outer(x, y)",
    "input_info": [
      {
        "shape": [
          3
        ],
        "dtype": "float32"
      },
      {
        "shape": [
          4
        ],
        "dtype": "float32"
      }
    ],
    "jaxpr": "{ lambda ; a:f32[3] b:f32[4]. let\n    c:f32[3,1] = broadcast_in_dim[\n      broadcast_dimensions=(0,)\n      shape=(3, 1)\n      sharding=None\n    ] a\n    d:f32[1,4] = broadcast_in_dim[\n      broadcast_dimensions=(1,)\n      shape=(1, 4)\n      sharding=None\n    ] b\n    e:f32[3,4] = mul c d\n  in (e,) }",
    "stablehlo": "module @jit__lambda attributes {mhlo.num_partitions = 1 : i32, mhlo.num_replicas = 1 : i32} {\n  func.func public @main(%arg0: tensor<3xf32>, %arg1: tensor<4xf32>) -> (tensor<3x4xf32> {jax.result_info = \"result\"}) {\n    %0 = stablehlo.broadcast_in_dim %arg0, dims = [0] : (tensor<3xf32>) -> tensor<3x1xf32>\n    %1 = stablehlo.broadcast_in_dim %arg1, dims = [1] : (tensor<4xf32>) -> tensor<1x4xf32>\n    %2 = stablehlo.broadcast_in_dim %0, dims = [0, 1] : (tensor<3x1xf32>) -> tensor<3x4xf32>\n    %3 = stablehlo.broadcast_in_dim %1, dims = [0, 1] : (tensor<1x4xf32>) -> tensor<3x4xf32>\n    %4 = stablehlo.multiply %2, %3 : tensor<3x4xf32>\n    return %4 : tensor<3x4xf32>\n  }\n}\n",
    "metadata": {
      "category": "linalg",
      "operation": "outer",
      "description": "Linear algebra: outer"
    }
  },
  {
    "python_code": "lambda x, y: jnp.outer(x, y)",
    "input_info": [
      {
        "shape": [
          3
        ],
        "dtype": "float32"
      },
      {
        "shape": [
          4
        ],
        "dtype": "float32"
      }
    ],
    "jaxpr": "{ lambda ; a:f32[3] b:f32[4]. let\n    c:f32[3,1] = broadcast_in_dim[\n      broadcast_dimensions=(0,)\n      shape=(3, 1)\n      sharding=None\n    ] a\n    d:f32[1,4] = broadcast_in_dim[\n      broadcast_dimensions=(1,)\n      shape=(1, 4)\n      sharding=None\n    ] b\n    e:f32[3,4] = mul c d\n  in (e,) }",
    "stablehlo": "module @jit__lambda attributes {mhlo.num_partitions = 1 : i32, mhlo.num_replicas = 1 : i32} {\n  func.func public @main(%arg0: tensor<3xf32>, %arg1: tensor<4xf32>) -> (tensor<3x4xf32> {jax.result_info = \"result\"}) {\n    %0 = stablehlo.broadcast_in_dim %arg0, dims = [0] : (tensor<3xf32>) -> tensor<3x1xf32>\n    %1 = stablehlo.broadcast_in_dim %arg1, dims = [1] : (tensor<4xf32>) -> tensor<1x4xf32>\n    %2 = stablehlo.broadcast_in_dim %0, dims = [0, 1] : (tensor<3x1xf32>) -> tensor<3x4xf32>\n    %3 = stablehlo.broadcast_in_dim %1, dims = [0, 1] : (tensor<1x4xf32>) -> tensor<3x4xf32>\n    %4 = stablehlo.multiply %2, %3 : tensor<3x4xf32>\n    return %4 : tensor<3x4xf32>\n  }\n}\n",
    "metadata": {
      "category": "linalg",
      "operation": "outer",
      "description": "Linear algebra: outer"
    }
  },
  {
    "python_code": "lambda A, B: jnp.matmul(A, B)",
    "input_info": [
      {
        "shape": [
          3,
          4
        ],
        "dtype": "float32"
      },
      {
        "shape": [
          4,
          5
        ],
        "dtype": "float32"
      }
    ],
    "jaxpr": "{ lambda ; a:f32[3,4] b:f32[4,5]. let\n    c:f32[3,5] = dot_general[\n      dimension_numbers=(([1], [0]), ([], []))\n      preferred_element_type=float32\n    ] a b\n  in (c,) }",
    "stablehlo": "module @jit__lambda attributes {mhlo.num_partitions = 1 : i32, mhlo.num_replicas = 1 : i32} {\n  func.func public @main(%arg0: tensor<3x4xf32>, %arg1: tensor<4x5xf32>) -> (tensor<3x5xf32> {jax.result_info = \"result\"}) {\n    %0 = stablehlo.dot_general %arg0, %arg1, contracting_dims = [1] x [0], precision = [DEFAULT, DEFAULT] : (tensor<3x4xf32>, tensor<4x5xf32>) -> tensor<3x5xf32>\n    return %0 : tensor<3x5xf32>\n  }\n}\n",
    "metadata": {
      "category": "linalg",
      "operation": "matmul",
      "description": "Linear algebra: matmul"
    }
  },
  {
    "python_code": "lambda x, y: jnp.outer(x, y)",
    "input_info": [
      {
        "shape": [
          3
        ],
        "dtype": "float32"
      },
      {
        "shape": [
          4
        ],
        "dtype": "float32"
      }
    ],
    "jaxpr": "{ lambda ; a:f32[3] b:f32[4]. let\n    c:f32[3,1] = broadcast_in_dim[\n      broadcast_dimensions=(0,)\n      shape=(3, 1)\n      sharding=None\n    ] a\n    d:f32[1,4] = broadcast_in_dim[\n      broadcast_dimensions=(1,)\n      shape=(1, 4)\n      sharding=None\n    ] b\n    e:f32[3,4] = mul c d\n  in (e,) }",
    "stablehlo": "module @jit__lambda attributes {mhlo.num_partitions = 1 : i32, mhlo.num_replicas = 1 : i32} {\n  func.func public @main(%arg0: tensor<3xf32>, %arg1: tensor<4xf32>) -> (tensor<3x4xf32> {jax.result_info = \"result\"}) {\n    %0 = stablehlo.broadcast_in_dim %arg0, dims = [0] : (tensor<3xf32>) -> tensor<3x1xf32>\n    %1 = stablehlo.broadcast_in_dim %arg1, dims = [1] : (tensor<4xf32>) -> tensor<1x4xf32>\n    %2 = stablehlo.broadcast_in_dim %0, dims = [0, 1] : (tensor<3x1xf32>) -> tensor<3x4xf32>\n    %3 = stablehlo.broadcast_in_dim %1, dims = [0, 1] : (tensor<1x4xf32>) -> tensor<3x4xf32>\n    %4 = stablehlo.multiply %2, %3 : tensor<3x4xf32>\n    return %4 : tensor<3x4xf32>\n  }\n}\n",
    "metadata": {
      "category": "linalg",
      "operation": "outer",
      "description": "Linear algebra: outer"
    }
  },
  {
    "python_code": "lambda A, B: jnp.matmul(A, B)",
    "input_info": [
      {
        "shape": [
          3,
          4
        ],
        "dtype": "float32"
      },
      {
        "shape": [
          4,
          5
        ],
        "dtype": "float32"
      }
    ],
    "jaxpr": "{ lambda ; a:f32[3,4] b:f32[4,5]. let\n    c:f32[3,5] = dot_general[\n      dimension_numbers=(([1], [0]), ([], []))\n      preferred_element_type=float32\n    ] a b\n  in (c,) }",
    "stablehlo": "module @jit__lambda attributes {mhlo.num_partitions = 1 : i32, mhlo.num_replicas = 1 : i32} {\n  func.func public @main(%arg0: tensor<3x4xf32>, %arg1: tensor<4x5xf32>) -> (tensor<3x5xf32> {jax.result_info = \"result\"}) {\n    %0 = stablehlo.dot_general %arg0, %arg1, contracting_dims = [1] x [0], precision = [DEFAULT, DEFAULT] : (tensor<3x4xf32>, tensor<4x5xf32>) -> tensor<3x5xf32>\n    return %0 : tensor<3x5xf32>\n  }\n}\n",
    "metadata": {
      "category": "linalg",
      "operation": "matmul",
      "description": "Linear algebra: matmul"
    }
  },
  {
    "python_code": "lambda x, y: jnp.outer(x, y)",
    "input_info": [
      {
        "shape": [
          3
        ],
        "dtype": "float32"
      },
      {
        "shape": [
          4
        ],
        "dtype": "float32"
      }
    ],
    "jaxpr": "{ lambda ; a:f32[3] b:f32[4]. let\n    c:f32[3,1] = broadcast_in_dim[\n      broadcast_dimensions=(0,)\n      shape=(3, 1)\n      sharding=None\n    ] a\n    d:f32[1,4] = broadcast_in_dim[\n      broadcast_dimensions=(1,)\n      shape=(1, 4)\n      sharding=None\n    ] b\n    e:f32[3,4] = mul c d\n  in (e,) }",
    "stablehlo": "module @jit__lambda attributes {mhlo.num_partitions = 1 : i32, mhlo.num_replicas = 1 : i32} {\n  func.func public @main(%arg0: tensor<3xf32>, %arg1: tensor<4xf32>) -> (tensor<3x4xf32> {jax.result_info = \"result\"}) {\n    %0 = stablehlo.broadcast_in_dim %arg0, dims = [0] : (tensor<3xf32>) -> tensor<3x1xf32>\n    %1 = stablehlo.broadcast_in_dim %arg1, dims = [1] : (tensor<4xf32>) -> tensor<1x4xf32>\n    %2 = stablehlo.broadcast_in_dim %0, dims = [0, 1] : (tensor<3x1xf32>) -> tensor<3x4xf32>\n    %3 = stablehlo.broadcast_in_dim %1, dims = [0, 1] : (tensor<1x4xf32>) -> tensor<3x4xf32>\n    %4 = stablehlo.multiply %2, %3 : tensor<3x4xf32>\n    return %4 : tensor<3x4xf32>\n  }\n}\n",
    "metadata": {
      "category": "linalg",
      "operation": "outer",
      "description": "Linear algebra: outer"
    }
  },
  {
    "python_code": "lambda x: jnp.linalg.norm(x)",
    "input_info": [
      {
        "shape": [
          5
        ],
        "dtype": "float32"
      }
    ],
    "jaxpr": "{ lambda ; a:f32[5]. let\n    b:f32[] = jit[\n      name=norm\n      jaxpr={ lambda ; a:f32[5]. let\n          c:f32[5] = mul a a\n          d:f32[] = reduce_sum[axes=(0,) out_sharding=None] c\n          b:f32[] = sqrt d\n        in (b,) }\n    ] a\n  in (b,) }",
    "stablehlo": "module @jit__lambda attributes {mhlo.num_partitions = 1 : i32, mhlo.num_replicas = 1 : i32} {\n  func.func public @main(%arg0: tensor<5xf32>) -> (tensor<f32> {jax.result_info = \"result\"}) {\n    %0 = call @norm(%arg0) : (tensor<5xf32>) -> tensor<f32>\n    return %0 : tensor<f32>\n  }\n  func.func private @norm(%arg0: tensor<5xf32>) -> tensor<f32> {\n    %0 = stablehlo.multiply %arg0, %arg0 : tensor<5xf32>\n    %cst = stablehlo.constant dense<0.000000e+00> : tensor<f32>\n    %1 = stablehlo.reduce(%0 init: %cst) applies stablehlo.add across dimensions = [0] : (tensor<5xf32>, tensor<f32>) -> tensor<f32>\n    %2 = stablehlo.sqrt %1 : tensor<f32>\n    return %2 : tensor<f32>\n  }\n}\n",
    "metadata": {
      "category": "linalg",
      "operation": "norm",
      "description": "Linear algebra: norm"
    }
  },
  {
    "python_code": "lambda A, B: jnp.matmul(A, B)",
    "input_info": [
      {
        "shape": [
          3,
          4
        ],
        "dtype": "float32"
      },
      {
        "shape": [
          4,
          5
        ],
        "dtype": "float32"
      }
    ],
    "jaxpr": "{ lambda ; a:f32[3,4] b:f32[4,5]. let\n    c:f32[3,5] = dot_general[\n      dimension_numbers=(([1], [0]), ([], []))\n      preferred_element_type=float32\n    ] a b\n  in (c,) }",
    "stablehlo": "module @jit__lambda attributes {mhlo.num_partitions = 1 : i32, mhlo.num_replicas = 1 : i32} {\n  func.func public @main(%arg0: tensor<3x4xf32>, %arg1: tensor<4x5xf32>) -> (tensor<3x5xf32> {jax.result_info = \"result\"}) {\n    %0 = stablehlo.dot_general %arg0, %arg1, contracting_dims = [1] x [0], precision = [DEFAULT, DEFAULT] : (tensor<3x4xf32>, tensor<4x5xf32>) -> tensor<3x5xf32>\n    return %0 : tensor<3x5xf32>\n  }\n}\n",
    "metadata": {
      "category": "linalg",
      "operation": "matmul",
      "description": "Linear algebra: matmul"
    }
  },
  {
    "python_code": "lambda x, y: jnp.outer(x, y)",
    "input_info": [
      {
        "shape": [
          3
        ],
        "dtype": "float32"
      },
      {
        "shape": [
          4
        ],
        "dtype": "float32"
      }
    ],
    "jaxpr": "{ lambda ; a:f32[3] b:f32[4]. let\n    c:f32[3,1] = broadcast_in_dim[\n      broadcast_dimensions=(0,)\n      shape=(3, 1)\n      sharding=None\n    ] a\n    d:f32[1,4] = broadcast_in_dim[\n      broadcast_dimensions=(1,)\n      shape=(1, 4)\n      sharding=None\n    ] b\n    e:f32[3,4] = mul c d\n  in (e,) }",
    "stablehlo": "module @jit__lambda attributes {mhlo.num_partitions = 1 : i32, mhlo.num_replicas = 1 : i32} {\n  func.func public @main(%arg0: tensor<3xf32>, %arg1: tensor<4xf32>) -> (tensor<3x4xf32> {jax.result_info = \"result\"}) {\n    %0 = stablehlo.broadcast_in_dim %arg0, dims = [0] : (tensor<3xf32>) -> tensor<3x1xf32>\n    %1 = stablehlo.broadcast_in_dim %arg1, dims = [1] : (tensor<4xf32>) -> tensor<1x4xf32>\n    %2 = stablehlo.broadcast_in_dim %0, dims = [0, 1] : (tensor<3x1xf32>) -> tensor<3x4xf32>\n    %3 = stablehlo.broadcast_in_dim %1, dims = [0, 1] : (tensor<1x4xf32>) -> tensor<3x4xf32>\n    %4 = stablehlo.multiply %2, %3 : tensor<3x4xf32>\n    return %4 : tensor<3x4xf32>\n  }\n}\n",
    "metadata": {
      "category": "linalg",
      "operation": "outer",
      "description": "Linear algebra: outer"
    }
  },
  {
    "python_code": "lambda x: jnp.linalg.norm(x)",
    "input_info": [
      {
        "shape": [
          5
        ],
        "dtype": "float32"
      }
    ],
    "jaxpr": "{ lambda ; a:f32[5]. let\n    b:f32[] = jit[\n      name=norm\n      jaxpr={ lambda ; a:f32[5]. let\n          c:f32[5] = mul a a\n          d:f32[] = reduce_sum[axes=(0,) out_sharding=None] c\n          b:f32[] = sqrt d\n        in (b,) }\n    ] a\n  in (b,) }",
    "stablehlo": "module @jit__lambda attributes {mhlo.num_partitions = 1 : i32, mhlo.num_replicas = 1 : i32} {\n  func.func public @main(%arg0: tensor<5xf32>) -> (tensor<f32> {jax.result_info = \"result\"}) {\n    %0 = call @norm(%arg0) : (tensor<5xf32>) -> tensor<f32>\n    return %0 : tensor<f32>\n  }\n  func.func private @norm(%arg0: tensor<5xf32>) -> tensor<f32> {\n    %0 = stablehlo.multiply %arg0, %arg0 : tensor<5xf32>\n    %cst = stablehlo.constant dense<0.000000e+00> : tensor<f32>\n    %1 = stablehlo.reduce(%0 init: %cst) applies stablehlo.add across dimensions = [0] : (tensor<5xf32>, tensor<f32>) -> tensor<f32>\n    %2 = stablehlo.sqrt %1 : tensor<f32>\n    return %2 : tensor<f32>\n  }\n}\n",
    "metadata": {
      "category": "linalg",
      "operation": "norm",
      "description": "Linear algebra: norm"
    }
  },
  {
    "python_code": "lambda x, y: jnp.outer(x, y)",
    "input_info": [
      {
        "shape": [
          3
        ],
        "dtype": "float32"
      },
      {
        "shape": [
          4
        ],
        "dtype": "float32"
      }
    ],
    "jaxpr": "{ lambda ; a:f32[3] b:f32[4]. let\n    c:f32[3,1] = broadcast_in_dim[\n      broadcast_dimensions=(0,)\n      shape=(3, 1)\n      sharding=None\n    ] a\n    d:f32[1,4] = broadcast_in_dim[\n      broadcast_dimensions=(1,)\n      shape=(1, 4)\n      sharding=None\n    ] b\n    e:f32[3,4] = mul c d\n  in (e,) }",
    "stablehlo": "module @jit__lambda attributes {mhlo.num_partitions = 1 : i32, mhlo.num_replicas = 1 : i32} {\n  func.func public @main(%arg0: tensor<3xf32>, %arg1: tensor<4xf32>) -> (tensor<3x4xf32> {jax.result_info = \"result\"}) {\n    %0 = stablehlo.broadcast_in_dim %arg0, dims = [0] : (tensor<3xf32>) -> tensor<3x1xf32>\n    %1 = stablehlo.broadcast_in_dim %arg1, dims = [1] : (tensor<4xf32>) -> tensor<1x4xf32>\n    %2 = stablehlo.broadcast_in_dim %0, dims = [0, 1] : (tensor<3x1xf32>) -> tensor<3x4xf32>\n    %3 = stablehlo.broadcast_in_dim %1, dims = [0, 1] : (tensor<1x4xf32>) -> tensor<3x4xf32>\n    %4 = stablehlo.multiply %2, %3 : tensor<3x4xf32>\n    return %4 : tensor<3x4xf32>\n  }\n}\n",
    "metadata": {
      "category": "linalg",
      "operation": "outer",
      "description": "Linear algebra: outer"
    }
  },
  {
    "python_code": "lambda x, y: jnp.dot(x, y)",
    "input_info": [
      {
        "shape": [
          5
        ],
        "dtype": "float32"
      },
      {
        "shape": [
          5
        ],
        "dtype": "float32"
      }
    ],
    "jaxpr": "{ lambda ; a:f32[5] b:f32[5]. let\n    c:f32[] = dot_general[\n      dimension_numbers=(([0], [0]), ([], []))\n      preferred_element_type=float32\n    ] a b\n  in (c,) }",
    "stablehlo": "module @jit__lambda attributes {mhlo.num_partitions = 1 : i32, mhlo.num_replicas = 1 : i32} {\n  func.func public @main(%arg0: tensor<5xf32>, %arg1: tensor<5xf32>) -> (tensor<f32> {jax.result_info = \"result\"}) {\n    %0 = stablehlo.dot_general %arg0, %arg1, contracting_dims = [0] x [0], precision = [DEFAULT, DEFAULT] : (tensor<5xf32>, tensor<5xf32>) -> tensor<f32>\n    return %0 : tensor<f32>\n  }\n}\n",
    "metadata": {
      "category": "linalg",
      "operation": "dot",
      "description": "Linear algebra: dot"
    }
  },
  {
    "python_code": "lambda x, y: jnp.dot(x, y)",
    "input_info": [
      {
        "shape": [
          5
        ],
        "dtype": "float32"
      },
      {
        "shape": [
          5
        ],
        "dtype": "float32"
      }
    ],
    "jaxpr": "{ lambda ; a:f32[5] b:f32[5]. let\n    c:f32[] = dot_general[\n      dimension_numbers=(([0], [0]), ([], []))\n      preferred_element_type=float32\n    ] a b\n  in (c,) }",
    "stablehlo": "module @jit__lambda attributes {mhlo.num_partitions = 1 : i32, mhlo.num_replicas = 1 : i32} {\n  func.func public @main(%arg0: tensor<5xf32>, %arg1: tensor<5xf32>) -> (tensor<f32> {jax.result_info = \"result\"}) {\n    %0 = stablehlo.dot_general %arg0, %arg1, contracting_dims = [0] x [0], precision = [DEFAULT, DEFAULT] : (tensor<5xf32>, tensor<5xf32>) -> tensor<f32>\n    return %0 : tensor<f32>\n  }\n}\n",
    "metadata": {
      "category": "linalg",
      "operation": "dot",
      "description": "Linear algebra: dot"
    }
  },
  {
    "python_code": "lambda x: jnp.linalg.norm(x)",
    "input_info": [
      {
        "shape": [
          5
        ],
        "dtype": "float32"
      }
    ],
    "jaxpr": "{ lambda ; a:f32[5]. let\n    b:f32[] = jit[\n      name=norm\n      jaxpr={ lambda ; a:f32[5]. let\n          c:f32[5] = mul a a\n          d:f32[] = reduce_sum[axes=(0,) out_sharding=None] c\n          b:f32[] = sqrt d\n        in (b,) }\n    ] a\n  in (b,) }",
    "stablehlo": "module @jit__lambda attributes {mhlo.num_partitions = 1 : i32, mhlo.num_replicas = 1 : i32} {\n  func.func public @main(%arg0: tensor<5xf32>) -> (tensor<f32> {jax.result_info = \"result\"}) {\n    %0 = call @norm(%arg0) : (tensor<5xf32>) -> tensor<f32>\n    return %0 : tensor<f32>\n  }\n  func.func private @norm(%arg0: tensor<5xf32>) -> tensor<f32> {\n    %0 = stablehlo.multiply %arg0, %arg0 : tensor<5xf32>\n    %cst = stablehlo.constant dense<0.000000e+00> : tensor<f32>\n    %1 = stablehlo.reduce(%0 init: %cst) applies stablehlo.add across dimensions = [0] : (tensor<5xf32>, tensor<f32>) -> tensor<f32>\n    %2 = stablehlo.sqrt %1 : tensor<f32>\n    return %2 : tensor<f32>\n  }\n}\n",
    "metadata": {
      "category": "linalg",
      "operation": "norm",
      "description": "Linear algebra: norm"
    }
  },
  {
    "python_code": "lambda x, y: jnp.dot(x, y)",
    "input_info": [
      {
        "shape": [
          5
        ],
        "dtype": "float32"
      },
      {
        "shape": [
          5
        ],
        "dtype": "float32"
      }
    ],
    "jaxpr": "{ lambda ; a:f32[5] b:f32[5]. let\n    c:f32[] = dot_general[\n      dimension_numbers=(([0], [0]), ([], []))\n      preferred_element_type=float32\n    ] a b\n  in (c,) }",
    "stablehlo": "module @jit__lambda attributes {mhlo.num_partitions = 1 : i32, mhlo.num_replicas = 1 : i32} {\n  func.func public @main(%arg0: tensor<5xf32>, %arg1: tensor<5xf32>) -> (tensor<f32> {jax.result_info = \"result\"}) {\n    %0 = stablehlo.dot_general %arg0, %arg1, contracting_dims = [0] x [0], precision = [DEFAULT, DEFAULT] : (tensor<5xf32>, tensor<5xf32>) -> tensor<f32>\n    return %0 : tensor<f32>\n  }\n}\n",
    "metadata": {
      "category": "linalg",
      "operation": "dot",
      "description": "Linear algebra: dot"
    }
  },
  {
    "python_code": "lambda x, y: jnp.dot(x, y)",
    "input_info": [
      {
        "shape": [
          5
        ],
        "dtype": "float32"
      },
      {
        "shape": [
          5
        ],
        "dtype": "float32"
      }
    ],
    "jaxpr": "{ lambda ; a:f32[5] b:f32[5]. let\n    c:f32[] = dot_general[\n      dimension_numbers=(([0], [0]), ([], []))\n      preferred_element_type=float32\n    ] a b\n  in (c,) }",
    "stablehlo": "module @jit__lambda attributes {mhlo.num_partitions = 1 : i32, mhlo.num_replicas = 1 : i32} {\n  func.func public @main(%arg0: tensor<5xf32>, %arg1: tensor<5xf32>) -> (tensor<f32> {jax.result_info = \"result\"}) {\n    %0 = stablehlo.dot_general %arg0, %arg1, contracting_dims = [0] x [0], precision = [DEFAULT, DEFAULT] : (tensor<5xf32>, tensor<5xf32>) -> tensor<f32>\n    return %0 : tensor<f32>\n  }\n}\n",
    "metadata": {
      "category": "linalg",
      "operation": "dot",
      "description": "Linear algebra: dot"
    }
  },
  {
    "python_code": "lambda A, B: jnp.matmul(A, B)",
    "input_info": [
      {
        "shape": [
          3,
          4
        ],
        "dtype": "float32"
      },
      {
        "shape": [
          4,
          5
        ],
        "dtype": "float32"
      }
    ],
    "jaxpr": "{ lambda ; a:f32[3,4] b:f32[4,5]. let\n    c:f32[3,5] = dot_general[\n      dimension_numbers=(([1], [0]), ([], []))\n      preferred_element_type=float32\n    ] a b\n  in (c,) }",
    "stablehlo": "module @jit__lambda attributes {mhlo.num_partitions = 1 : i32, mhlo.num_replicas = 1 : i32} {\n  func.func public @main(%arg0: tensor<3x4xf32>, %arg1: tensor<4x5xf32>) -> (tensor<3x5xf32> {jax.result_info = \"result\"}) {\n    %0 = stablehlo.dot_general %arg0, %arg1, contracting_dims = [1] x [0], precision = [DEFAULT, DEFAULT] : (tensor<3x4xf32>, tensor<4x5xf32>) -> tensor<3x5xf32>\n    return %0 : tensor<3x5xf32>\n  }\n}\n",
    "metadata": {
      "category": "linalg",
      "operation": "matmul",
      "description": "Linear algebra: matmul"
    }
  },
  {
    "python_code": "lambda x: jnp.exp(x) / jnp.sum(jnp.exp(x))",
    "input_info": [
      {
        "shape": [
          7
        ],
        "dtype": "float32"
      }
    ],
    "jaxpr": "{ lambda ; a:f32[7]. let\n    b:f32[7] = exp a\n    c:f32[7] = exp a\n    d:f32[] = reduce_sum[axes=(0,) out_sharding=None] c\n    e:f32[7] = div b d\n  in (e,) }",
    "stablehlo": "module @jit__lambda attributes {mhlo.num_partitions = 1 : i32, mhlo.num_replicas = 1 : i32} {\n  func.func public @main(%arg0: tensor<7xf32>) -> (tensor<7xf32> {jax.result_info = \"result\"}) {\n    %0 = stablehlo.exponential %arg0 : tensor<7xf32>\n    %1 = stablehlo.exponential %arg0 : tensor<7xf32>\n    %cst = stablehlo.constant dense<0.000000e+00> : tensor<f32>\n    %2 = stablehlo.reduce(%1 init: %cst) applies stablehlo.add across dimensions = [0] : (tensor<7xf32>, tensor<f32>) -> tensor<f32>\n    %3 = stablehlo.broadcast_in_dim %2, dims = [] : (tensor<f32>) -> tensor<7xf32>\n    %4 = stablehlo.divide %0, %3 : tensor<7xf32>\n    return %4 : tensor<7xf32>\n  }\n}\n",
    "metadata": {
      "category": "composite",
      "operation": "softmax",
      "description": "Composite operation: softmax"
    }
  },
  {
    "python_code": "lambda x: jnp.sum(x ** 2)",
    "input_info": [
      {
        "shape": [
          7
        ],
        "dtype": "float32"
      }
    ],
    "jaxpr": "{ lambda ; a:f32[7]. let\n    b:f32[7] = integer_pow[y=2] a\n    c:f32[] = reduce_sum[axes=(0,) out_sharding=None] b\n  in (c,) }",
    "stablehlo": "module @jit__lambda attributes {mhlo.num_partitions = 1 : i32, mhlo.num_replicas = 1 : i32} {\n  func.func public @main(%arg0: tensor<7xf32>) -> (tensor<f32> {jax.result_info = \"result\"}) {\n    %0 = stablehlo.multiply %arg0, %arg0 : tensor<7xf32>\n    %cst = stablehlo.constant dense<0.000000e+00> : tensor<f32>\n    %1 = stablehlo.reduce(%0 init: %cst) applies stablehlo.add across dimensions = [0] : (tensor<7xf32>, tensor<f32>) -> tensor<f32>\n    return %1 : tensor<f32>\n  }\n}\n",
    "metadata": {
      "category": "composite",
      "operation": "squared_norm",
      "description": "Composite operation: squared_norm"
    }
  },
  {
    "python_code": "lambda x: jnp.exp(x) / jnp.sum(jnp.exp(x))",
    "input_info": [
      {
        "shape": [
          9
        ],
        "dtype": "float32"
      }
    ],
    "jaxpr": "{ lambda ; a:f32[9]. let\n    b:f32[9] = exp a\n    c:f32[9] = exp a\n    d:f32[] = reduce_sum[axes=(0,) out_sharding=None] c\n    e:f32[9] = div b d\n  in (e,) }",
    "stablehlo": "module @jit__lambda attributes {mhlo.num_partitions = 1 : i32, mhlo.num_replicas = 1 : i32} {\n  func.func public @main(%arg0: tensor<9xf32>) -> (tensor<9xf32> {jax.result_info = \"result\"}) {\n    %0 = stablehlo.exponential %arg0 : tensor<9xf32>\n    %1 = stablehlo.exponential %arg0 : tensor<9xf32>\n    %cst = stablehlo.constant dense<0.000000e+00> : tensor<f32>\n    %2 = stablehlo.reduce(%1 init: %cst) applies stablehlo.add across dimensions = [0] : (tensor<9xf32>, tensor<f32>) -> tensor<f32>\n    %3 = stablehlo.broadcast_in_dim %2, dims = [] : (tensor<f32>) -> tensor<9xf32>\n    %4 = stablehlo.divide %0, %3 : tensor<9xf32>\n    return %4 : tensor<9xf32>\n  }\n}\n",
    "metadata": {
      "category": "composite",
      "operation": "softmax",
      "description": "Composite operation: softmax"
    }
  },
  {
    "python_code": "lambda x: jnp.exp(x) / jnp.sum(jnp.exp(x))",
    "input_info": [
      {
        "shape": [
          10,
          2,
          10
        ],
        "dtype": "float32"
      }
    ],
    "jaxpr": "{ lambda ; a:f32[10,2,10]. let\n    b:f32[10,2,10] = exp a\n    c:f32[10,2,10] = exp a\n    d:f32[] = reduce_sum[axes=(0, 1, 2) out_sharding=None] c\n    e:f32[10,2,10] = div b d\n  in (e,) }",
    "stablehlo": "module @jit__lambda attributes {mhlo.num_partitions = 1 : i32, mhlo.num_replicas = 1 : i32} {\n  func.func public @main(%arg0: tensor<10x2x10xf32>) -> (tensor<10x2x10xf32> {jax.result_info = \"result\"}) {\n    %0 = stablehlo.exponential %arg0 : tensor<10x2x10xf32>\n    %1 = stablehlo.exponential %arg0 : tensor<10x2x10xf32>\n    %cst = stablehlo.constant dense<0.000000e+00> : tensor<f32>\n    %2 = stablehlo.reduce(%1 init: %cst) applies stablehlo.add across dimensions = [0, 1, 2] : (tensor<10x2x10xf32>, tensor<f32>) -> tensor<f32>\n    %3 = stablehlo.broadcast_in_dim %2, dims = [] : (tensor<f32>) -> tensor<10x2x10xf32>\n    %4 = stablehlo.divide %0, %3 : tensor<10x2x10xf32>\n    return %4 : tensor<10x2x10xf32>\n  }\n}\n",
    "metadata": {
      "category": "composite",
      "operation": "softmax",
      "description": "Composite operation: softmax"
    }
  },
  {
    "python_code": "lambda x: jnp.exp(x) / jnp.sum(jnp.exp(x))",
    "input_info": [
      {
        "shape": [
          3,
          4,
          6
        ],
        "dtype": "float32"
      }
    ],
    "jaxpr": "{ lambda ; a:f32[3,4,6]. let\n    b:f32[3,4,6] = exp a\n    c:f32[3,4,6] = exp a\n    d:f32[] = reduce_sum[axes=(0, 1, 2) out_sharding=None] c\n    e:f32[3,4,6] = div b d\n  in (e,) }",
    "stablehlo": "module @jit__lambda attributes {mhlo.num_partitions = 1 : i32, mhlo.num_replicas = 1 : i32} {\n  func.func public @main(%arg0: tensor<3x4x6xf32>) -> (tensor<3x4x6xf32> {jax.result_info = \"result\"}) {\n    %0 = stablehlo.exponential %arg0 : tensor<3x4x6xf32>\n    %1 = stablehlo.exponential %arg0 : tensor<3x4x6xf32>\n    %cst = stablehlo.constant dense<0.000000e+00> : tensor<f32>\n    %2 = stablehlo.reduce(%1 init: %cst) applies stablehlo.add across dimensions = [0, 1, 2] : (tensor<3x4x6xf32>, tensor<f32>) -> tensor<f32>\n    %3 = stablehlo.broadcast_in_dim %2, dims = [] : (tensor<f32>) -> tensor<3x4x6xf32>\n    %4 = stablehlo.divide %0, %3 : tensor<3x4x6xf32>\n    return %4 : tensor<3x4x6xf32>\n  }\n}\n",
    "metadata": {
      "category": "composite",
      "operation": "softmax",
      "description": "Composite operation: softmax"
    }
  },
  {
    "python_code": "lambda x: jnp.sum(x ** 2)",
    "input_info": [
      {
        "shape": [
          10
        ],
        "dtype": "float32"
      }
    ],
    "jaxpr": "{ lambda ; a:f32[10]. let\n    b:f32[10] = integer_pow[y=2] a\n    c:f32[] = reduce_sum[axes=(0,) out_sharding=None] b\n  in (c,) }",
    "stablehlo": "module @jit__lambda attributes {mhlo.num_partitions = 1 : i32, mhlo.num_replicas = 1 : i32} {\n  func.func public @main(%arg0: tensor<10xf32>) -> (tensor<f32> {jax.result_info = \"result\"}) {\n    %0 = stablehlo.multiply %arg0, %arg0 : tensor<10xf32>\n    %cst = stablehlo.constant dense<0.000000e+00> : tensor<f32>\n    %1 = stablehlo.reduce(%0 init: %cst) applies stablehlo.add across dimensions = [0] : (tensor<10xf32>, tensor<f32>) -> tensor<f32>\n    return %1 : tensor<f32>\n  }\n}\n",
    "metadata": {
      "category": "composite",
      "operation": "squared_norm",
      "description": "Composite operation: squared_norm"
    }
  },
  {
    "python_code": "lambda x: x / jnp.linalg.norm(x)",
    "input_info": [
      {
        "shape": [
          6,
          5
        ],
        "dtype": "float32"
      }
    ],
    "jaxpr": "{ lambda ; a:f32[6,5]. let\n    b:f32[] = jit[\n      name=norm\n      jaxpr={ lambda ; a:f32[6,5]. let\n          c:f32[6,5] = mul a a\n          d:f32[] = reduce_sum[axes=(0, 1) out_sharding=None] c\n          b:f32[] = sqrt d\n        in (b,) }\n    ] a\n    e:f32[6,5] = div a b\n  in (e,) }",
    "stablehlo": "module @jit__lambda attributes {mhlo.num_partitions = 1 : i32, mhlo.num_replicas = 1 : i32} {\n  func.func public @main(%arg0: tensor<6x5xf32>) -> (tensor<6x5xf32> {jax.result_info = \"result\"}) {\n    %0 = call @norm(%arg0) : (tensor<6x5xf32>) -> tensor<f32>\n    %1 = stablehlo.broadcast_in_dim %0, dims = [] : (tensor<f32>) -> tensor<6x5xf32>\n    %2 = stablehlo.divide %arg0, %1 : tensor<6x5xf32>\n    return %2 : tensor<6x5xf32>\n  }\n  func.func private @norm(%arg0: tensor<6x5xf32>) -> tensor<f32> {\n    %0 = stablehlo.multiply %arg0, %arg0 : tensor<6x5xf32>\n    %cst = stablehlo.constant dense<0.000000e+00> : tensor<f32>\n    %1 = stablehlo.reduce(%0 init: %cst) applies stablehlo.add across dimensions = [0, 1] : (tensor<6x5xf32>, tensor<f32>) -> tensor<f32>\n    %2 = stablehlo.sqrt %1 : tensor<f32>\n    return %2 : tensor<f32>\n  }\n}\n",
    "metadata": {
      "category": "composite",
      "operation": "normalize",
      "description": "Composite operation: normalize"
    }
  },
  {
    "python_code": "lambda x: jnp.exp(x) / jnp.sum(jnp.exp(x))",
    "input_info": [
      {
        "shape": [
          6
        ],
        "dtype": "float32"
      }
    ],
    "jaxpr": "{ lambda ; a:f32[6]. let\n    b:f32[6] = exp a\n    c:f32[6] = exp a\n    d:f32[] = reduce_sum[axes=(0,) out_sharding=None] c\n    e:f32[6] = div b d\n  in (e,) }",
    "stablehlo": "module @jit__lambda attributes {mhlo.num_partitions = 1 : i32, mhlo.num_replicas = 1 : i32} {\n  func.func public @main(%arg0: tensor<6xf32>) -> (tensor<6xf32> {jax.result_info = \"result\"}) {\n    %0 = stablehlo.exponential %arg0 : tensor<6xf32>\n    %1 = stablehlo.exponential %arg0 : tensor<6xf32>\n    %cst = stablehlo.constant dense<0.000000e+00> : tensor<f32>\n    %2 = stablehlo.reduce(%1 init: %cst) applies stablehlo.add across dimensions = [0] : (tensor<6xf32>, tensor<f32>) -> tensor<f32>\n    %3 = stablehlo.broadcast_in_dim %2, dims = [] : (tensor<f32>) -> tensor<6xf32>\n    %4 = stablehlo.divide %0, %3 : tensor<6xf32>\n    return %4 : tensor<6xf32>\n  }\n}\n",
    "metadata": {
      "category": "composite",
      "operation": "softmax",
      "description": "Composite operation: softmax"
    }
  },
  {
    "python_code": "lambda x: jnp.sum(x ** 2)",
    "input_info": [
      {
        "shape": [
          4,
          6
        ],
        "dtype": "float32"
      }
    ],
    "jaxpr": "{ lambda ; a:f32[4,6]. let\n    b:f32[4,6] = integer_pow[y=2] a\n    c:f32[] = reduce_sum[axes=(0, 1) out_sharding=None] b\n  in (c,) }",
    "stablehlo": "module @jit__lambda attributes {mhlo.num_partitions = 1 : i32, mhlo.num_replicas = 1 : i32} {\n  func.func public @main(%arg0: tensor<4x6xf32>) -> (tensor<f32> {jax.result_info = \"result\"}) {\n    %0 = stablehlo.multiply %arg0, %arg0 : tensor<4x6xf32>\n    %cst = stablehlo.constant dense<0.000000e+00> : tensor<f32>\n    %1 = stablehlo.reduce(%0 init: %cst) applies stablehlo.add across dimensions = [0, 1] : (tensor<4x6xf32>, tensor<f32>) -> tensor<f32>\n    return %1 : tensor<f32>\n  }\n}\n",
    "metadata": {
      "category": "composite",
      "operation": "squared_norm",
      "description": "Composite operation: squared_norm"
    }
  },
  {
    "python_code": "lambda x: x / jnp.linalg.norm(x)",
    "input_info": [
      {
        "shape": [
          9,
          10,
          8
        ],
        "dtype": "float32"
      }
    ],
    "jaxpr": "{ lambda ; a:f32[9,10,8]. let\n    b:f32[] = jit[\n      name=norm\n      jaxpr={ lambda ; a:f32[9,10,8]. let\n          c:f32[9,10,8] = mul a a\n          d:f32[] = reduce_sum[axes=(0, 1, 2) out_sharding=None] c\n          b:f32[] = sqrt d\n        in (b,) }\n    ] a\n    e:f32[9,10,8] = div a b\n  in (e,) }",
    "stablehlo": "module @jit__lambda attributes {mhlo.num_partitions = 1 : i32, mhlo.num_replicas = 1 : i32} {\n  func.func public @main(%arg0: tensor<9x10x8xf32>) -> (tensor<9x10x8xf32> {jax.result_info = \"result\"}) {\n    %0 = call @norm(%arg0) : (tensor<9x10x8xf32>) -> tensor<f32>\n    %1 = stablehlo.broadcast_in_dim %0, dims = [] : (tensor<f32>) -> tensor<9x10x8xf32>\n    %2 = stablehlo.divide %arg0, %1 : tensor<9x10x8xf32>\n    return %2 : tensor<9x10x8xf32>\n  }\n  func.func private @norm(%arg0: tensor<9x10x8xf32>) -> tensor<f32> {\n    %0 = stablehlo.multiply %arg0, %arg0 : tensor<9x10x8xf32>\n    %cst = stablehlo.constant dense<0.000000e+00> : tensor<f32>\n    %1 = stablehlo.reduce(%0 init: %cst) applies stablehlo.add across dimensions = [0, 1, 2] : (tensor<9x10x8xf32>, tensor<f32>) -> tensor<f32>\n    %2 = stablehlo.sqrt %1 : tensor<f32>\n    return %2 : tensor<f32>\n  }\n}\n",
    "metadata": {
      "category": "composite",
      "operation": "normalize",
      "description": "Composite operation: normalize"
    }
  },
  {
    "python_code": "lambda x: jnp.sum(x ** 2)",
    "input_info": [
      {
        "shape": [
          3
        ],
        "dtype": "float32"
      }
    ],
    "jaxpr": "{ lambda ; a:f32[3]. let\n    b:f32[3] = integer_pow[y=2] a\n    c:f32[] = reduce_sum[axes=(0,) out_sharding=None] b\n  in (c,) }",
    "stablehlo": "module @jit__lambda attributes {mhlo.num_partitions = 1 : i32, mhlo.num_replicas = 1 : i32} {\n  func.func public @main(%arg0: tensor<3xf32>) -> (tensor<f32> {jax.result_info = \"result\"}) {\n    %0 = stablehlo.multiply %arg0, %arg0 : tensor<3xf32>\n    %cst = stablehlo.constant dense<0.000000e+00> : tensor<f32>\n    %1 = stablehlo.reduce(%0 init: %cst) applies stablehlo.add across dimensions = [0] : (tensor<3xf32>, tensor<f32>) -> tensor<f32>\n    return %1 : tensor<f32>\n  }\n}\n",
    "metadata": {
      "category": "composite",
      "operation": "squared_norm",
      "description": "Composite operation: squared_norm"
    }
  },
  {
    "python_code": "lambda x: x / jnp.linalg.norm(x)",
    "input_info": [
      {
        "shape": [
          2,
          7,
          10
        ],
        "dtype": "float32"
      }
    ],
    "jaxpr": "{ lambda ; a:f32[2,7,10]. let\n    b:f32[] = jit[\n      name=norm\n      jaxpr={ lambda ; a:f32[2,7,10]. let\n          c:f32[2,7,10] = mul a a\n          d:f32[] = reduce_sum[axes=(0, 1, 2) out_sharding=None] c\n          b:f32[] = sqrt d\n        in (b,) }\n    ] a\n    e:f32[2,7,10] = div a b\n  in (e,) }",
    "stablehlo": "module @jit__lambda attributes {mhlo.num_partitions = 1 : i32, mhlo.num_replicas = 1 : i32} {\n  func.func public @main(%arg0: tensor<2x7x10xf32>) -> (tensor<2x7x10xf32> {jax.result_info = \"result\"}) {\n    %0 = call @norm(%arg0) : (tensor<2x7x10xf32>) -> tensor<f32>\n    %1 = stablehlo.broadcast_in_dim %0, dims = [] : (tensor<f32>) -> tensor<2x7x10xf32>\n    %2 = stablehlo.divide %arg0, %1 : tensor<2x7x10xf32>\n    return %2 : tensor<2x7x10xf32>\n  }\n  func.func private @norm(%arg0: tensor<2x7x10xf32>) -> tensor<f32> {\n    %0 = stablehlo.multiply %arg0, %arg0 : tensor<2x7x10xf32>\n    %cst = stablehlo.constant dense<0.000000e+00> : tensor<f32>\n    %1 = stablehlo.reduce(%0 init: %cst) applies stablehlo.add across dimensions = [0, 1, 2] : (tensor<2x7x10xf32>, tensor<f32>) -> tensor<f32>\n    %2 = stablehlo.sqrt %1 : tensor<f32>\n    return %2 : tensor<f32>\n  }\n}\n",
    "metadata": {
      "category": "composite",
      "operation": "normalize",
      "description": "Composite operation: normalize"
    }
  },
  {
    "python_code": "lambda x: x / jnp.linalg.norm(x)",
    "input_info": [
      {
        "shape": [
          4,
          2
        ],
        "dtype": "float32"
      }
    ],
    "jaxpr": "{ lambda ; a:f32[4,2]. let\n    b:f32[] = jit[\n      name=norm\n      jaxpr={ lambda ; a:f32[4,2]. let\n          c:f32[4,2] = mul a a\n          d:f32[] = reduce_sum[axes=(0, 1) out_sharding=None] c\n          b:f32[] = sqrt d\n        in (b,) }\n    ] a\n    e:f32[4,2] = div a b\n  in (e,) }",
    "stablehlo": "module @jit__lambda attributes {mhlo.num_partitions = 1 : i32, mhlo.num_replicas = 1 : i32} {\n  func.func public @main(%arg0: tensor<4x2xf32>) -> (tensor<4x2xf32> {jax.result_info = \"result\"}) {\n    %0 = call @norm(%arg0) : (tensor<4x2xf32>) -> tensor<f32>\n    %1 = stablehlo.broadcast_in_dim %0, dims = [] : (tensor<f32>) -> tensor<4x2xf32>\n    %2 = stablehlo.divide %arg0, %1 : tensor<4x2xf32>\n    return %2 : tensor<4x2xf32>\n  }\n  func.func private @norm(%arg0: tensor<4x2xf32>) -> tensor<f32> {\n    %0 = stablehlo.multiply %arg0, %arg0 : tensor<4x2xf32>\n    %cst = stablehlo.constant dense<0.000000e+00> : tensor<f32>\n    %1 = stablehlo.reduce(%0 init: %cst) applies stablehlo.add across dimensions = [0, 1] : (tensor<4x2xf32>, tensor<f32>) -> tensor<f32>\n    %2 = stablehlo.sqrt %1 : tensor<f32>\n    return %2 : tensor<f32>\n  }\n}\n",
    "metadata": {
      "category": "composite",
      "operation": "normalize",
      "description": "Composite operation: normalize"
    }
  },
  {
    "python_code": "lambda x: jnp.exp(x) / jnp.sum(jnp.exp(x))",
    "input_info": [
      {
        "shape": [
          2,
          7
        ],
        "dtype": "float32"
      }
    ],
    "jaxpr": "{ lambda ; a:f32[2,7]. let\n    b:f32[2,7] = exp a\n    c:f32[2,7] = exp a\n    d:f32[] = reduce_sum[axes=(0, 1) out_sharding=None] c\n    e:f32[2,7] = div b d\n  in (e,) }",
    "stablehlo": "module @jit__lambda attributes {mhlo.num_partitions = 1 : i32, mhlo.num_replicas = 1 : i32} {\n  func.func public @main(%arg0: tensor<2x7xf32>) -> (tensor<2x7xf32> {jax.result_info = \"result\"}) {\n    %0 = stablehlo.exponential %arg0 : tensor<2x7xf32>\n    %1 = stablehlo.exponential %arg0 : tensor<2x7xf32>\n    %cst = stablehlo.constant dense<0.000000e+00> : tensor<f32>\n    %2 = stablehlo.reduce(%1 init: %cst) applies stablehlo.add across dimensions = [0, 1] : (tensor<2x7xf32>, tensor<f32>) -> tensor<f32>\n    %3 = stablehlo.broadcast_in_dim %2, dims = [] : (tensor<f32>) -> tensor<2x7xf32>\n    %4 = stablehlo.divide %0, %3 : tensor<2x7xf32>\n    return %4 : tensor<2x7xf32>\n  }\n}\n",
    "metadata": {
      "category": "composite",
      "operation": "softmax",
      "description": "Composite operation: softmax"
    }
  },
  {
    "python_code": "lambda x: x / jnp.linalg.norm(x)",
    "input_info": [
      {
        "shape": [
          5,
          3,
          7
        ],
        "dtype": "float32"
      }
    ],
    "jaxpr": "{ lambda ; a:f32[5,3,7]. let\n    b:f32[] = jit[\n      name=norm\n      jaxpr={ lambda ; a:f32[5,3,7]. let\n          c:f32[5,3,7] = mul a a\n          d:f32[] = reduce_sum[axes=(0, 1, 2) out_sharding=None] c\n          b:f32[] = sqrt d\n        in (b,) }\n    ] a\n    e:f32[5,3,7] = div a b\n  in (e,) }",
    "stablehlo": "module @jit__lambda attributes {mhlo.num_partitions = 1 : i32, mhlo.num_replicas = 1 : i32} {\n  func.func public @main(%arg0: tensor<5x3x7xf32>) -> (tensor<5x3x7xf32> {jax.result_info = \"result\"}) {\n    %0 = call @norm(%arg0) : (tensor<5x3x7xf32>) -> tensor<f32>\n    %1 = stablehlo.broadcast_in_dim %0, dims = [] : (tensor<f32>) -> tensor<5x3x7xf32>\n    %2 = stablehlo.divide %arg0, %1 : tensor<5x3x7xf32>\n    return %2 : tensor<5x3x7xf32>\n  }\n  func.func private @norm(%arg0: tensor<5x3x7xf32>) -> tensor<f32> {\n    %0 = stablehlo.multiply %arg0, %arg0 : tensor<5x3x7xf32>\n    %cst = stablehlo.constant dense<0.000000e+00> : tensor<f32>\n    %1 = stablehlo.reduce(%0 init: %cst) applies stablehlo.add across dimensions = [0, 1, 2] : (tensor<5x3x7xf32>, tensor<f32>) -> tensor<f32>\n    %2 = stablehlo.sqrt %1 : tensor<f32>\n    return %2 : tensor<f32>\n  }\n}\n",
    "metadata": {
      "category": "composite",
      "operation": "normalize",
      "description": "Composite operation: normalize"
    }
  },
  {
    "python_code": "lambda x: jnp.sum(x ** 2)",
    "input_info": [
      {
        "shape": [
          7
        ],
        "dtype": "float32"
      }
    ],
    "jaxpr": "{ lambda ; a:f32[7]. let\n    b:f32[7] = integer_pow[y=2] a\n    c:f32[] = reduce_sum[axes=(0,) out_sharding=None] b\n  in (c,) }",
    "stablehlo": "module @jit__lambda attributes {mhlo.num_partitions = 1 : i32, mhlo.num_replicas = 1 : i32} {\n  func.func public @main(%arg0: tensor<7xf32>) -> (tensor<f32> {jax.result_info = \"result\"}) {\n    %0 = stablehlo.multiply %arg0, %arg0 : tensor<7xf32>\n    %cst = stablehlo.constant dense<0.000000e+00> : tensor<f32>\n    %1 = stablehlo.reduce(%0 init: %cst) applies stablehlo.add across dimensions = [0] : (tensor<7xf32>, tensor<f32>) -> tensor<f32>\n    return %1 : tensor<f32>\n  }\n}\n",
    "metadata": {
      "category": "composite",
      "operation": "squared_norm",
      "description": "Composite operation: squared_norm"
    }
  }
]