[
  {
    "python_code": "lambda x: jnp.exp(x) / jnp.sum(jnp.exp(x))",
    "input_info": [
      {
        "shape": [
          5
        ],
        "dtype": "float32"
      }
    ],
    "jaxpr": "{ lambda ; a:f32[5]. let\n    b:f32[5] = exp a\n    c:f32[5] = exp a\n    d:f32[] = reduce_sum[axes=(0,) out_sharding=None] c\n    e:f32[5] = div b d\n  in (e,) }",
    "stablehlo": "module @jit__lambda attributes {mhlo.num_partitions = 1 : i32, mhlo.num_replicas = 1 : i32} {\n  func.func public @main(%arg0: tensor<5xf32>) -> (tensor<5xf32> {jax.result_info = \"result\"}) {\n    %0 = stablehlo.exponential %arg0 : tensor<5xf32>\n    %1 = stablehlo.exponential %arg0 : tensor<5xf32>\n    %cst = stablehlo.constant dense<0.000000e+00> : tensor<f32>\n    %2 = stablehlo.reduce(%1 init: %cst) applies stablehlo.add across dimensions = [0] : (tensor<5xf32>, tensor<f32>) -> tensor<f32>\n    %3 = stablehlo.broadcast_in_dim %2, dims = [] : (tensor<f32>) -> tensor<5xf32>\n    %4 = stablehlo.divide %0, %3 : tensor<5xf32>\n    return %4 : tensor<5xf32>\n  }\n}\n",
    "metadata": {
      "category": "composite",
      "operation": "softmax",
      "description": "Composite operation: softmax"
    }
  },
  {
    "python_code": "lambda x: jnp.reshape(x, (240,))",
    "input_info": [
      {
        "shape": [
          10,
          3,
          8
        ],
        "dtype": "float32"
      }
    ],
    "jaxpr": "{ lambda ; a:f32[10,3,8]. let\n    b:f32[240] = reshape[dimensions=None new_sizes=(240,) sharding=None] a\n  in (b,) }",
    "stablehlo": "module @jit__lambda attributes {mhlo.num_partitions = 1 : i32, mhlo.num_replicas = 1 : i32} {\n  func.func public @main(%arg0: tensor<10x3x8xf32>) -> (tensor<240xf32> {jax.result_info = \"result\"}) {\n    %0 = stablehlo.reshape %arg0 : (tensor<10x3x8xf32>) -> tensor<240xf32>\n    return %0 : tensor<240xf32>\n  }\n}\n",
    "metadata": {
      "category": "array",
      "operation": "reshape",
      "description": "Array operation: reshape"
    }
  },
  {
    "python_code": "lambda x, y: x - y",
    "input_info": [
      {
        "shape": [
          10
        ],
        "dtype": "float32"
      },
      {
        "shape": [
          10
        ],
        "dtype": "float32"
      }
    ],
    "jaxpr": "{ lambda ; a:f32[10] b:f32[10]. let c:f32[10] = sub a b in (c,) }",
    "stablehlo": "module @jit__lambda attributes {mhlo.num_partitions = 1 : i32, mhlo.num_replicas = 1 : i32} {\n  func.func public @main(%arg0: tensor<10xf32>, %arg1: tensor<10xf32>) -> (tensor<10xf32> {jax.result_info = \"result\"}) {\n    %0 = stablehlo.subtract %arg0, %arg1 : tensor<10xf32>\n    return %0 : tensor<10xf32>\n  }\n}\n",
    "metadata": {
      "category": "arithmetic",
      "operation": "subtract",
      "description": "Arithmetic: x - y"
    }
  },
  {
    "python_code": "lambda x, y: jnp.dot(x, y)",
    "input_info": [
      {
        "shape": [
          5
        ],
        "dtype": "float32"
      },
      {
        "shape": [
          5
        ],
        "dtype": "float32"
      }
    ],
    "jaxpr": "{ lambda ; a:f32[5] b:f32[5]. let\n    c:f32[] = dot_general[\n      dimension_numbers=(([0], [0]), ([], []))\n      preferred_element_type=float32\n    ] a b\n  in (c,) }",
    "stablehlo": "module @jit__lambda attributes {mhlo.num_partitions = 1 : i32, mhlo.num_replicas = 1 : i32} {\n  func.func public @main(%arg0: tensor<5xf32>, %arg1: tensor<5xf32>) -> (tensor<f32> {jax.result_info = \"result\"}) {\n    %0 = stablehlo.dot_general %arg0, %arg1, contracting_dims = [0] x [0], precision = [DEFAULT, DEFAULT] : (tensor<5xf32>, tensor<5xf32>) -> tensor<f32>\n    return %0 : tensor<f32>\n  }\n}\n",
    "metadata": {
      "category": "linalg",
      "operation": "dot",
      "description": "Linear algebra: dot"
    }
  },
  {
    "python_code": "lambda A, B: jnp.matmul(A, B)",
    "input_info": [
      {
        "shape": [
          3,
          4
        ],
        "dtype": "float32"
      },
      {
        "shape": [
          4,
          5
        ],
        "dtype": "float32"
      }
    ],
    "jaxpr": "{ lambda ; a:f32[3,4] b:f32[4,5]. let\n    c:f32[3,5] = dot_general[\n      dimension_numbers=(([1], [0]), ([], []))\n      preferred_element_type=float32\n    ] a b\n  in (c,) }",
    "stablehlo": "module @jit__lambda attributes {mhlo.num_partitions = 1 : i32, mhlo.num_replicas = 1 : i32} {\n  func.func public @main(%arg0: tensor<3x4xf32>, %arg1: tensor<4x5xf32>) -> (tensor<3x5xf32> {jax.result_info = \"result\"}) {\n    %0 = stablehlo.dot_general %arg0, %arg1, contracting_dims = [1] x [0], precision = [DEFAULT, DEFAULT] : (tensor<3x4xf32>, tensor<4x5xf32>) -> tensor<3x5xf32>\n    return %0 : tensor<3x5xf32>\n  }\n}\n",
    "metadata": {
      "category": "linalg",
      "operation": "matmul",
      "description": "Linear algebra: matmul"
    }
  },
  {
    "python_code": "lambda x, y: x + y",
    "input_info": [
      {
        "shape": [
          3,
          7
        ],
        "dtype": "float32"
      },
      {
        "shape": [
          3,
          7
        ],
        "dtype": "float32"
      }
    ],
    "jaxpr": "{ lambda ; a:f32[3,7] b:f32[3,7]. let c:f32[3,7] = add a b in (c,) }",
    "stablehlo": "module @jit__lambda attributes {mhlo.num_partitions = 1 : i32, mhlo.num_replicas = 1 : i32} {\n  func.func public @main(%arg0: tensor<3x7xf32>, %arg1: tensor<3x7xf32>) -> (tensor<3x7xf32> {jax.result_info = \"result\"}) {\n    %0 = stablehlo.add %arg0, %arg1 : tensor<3x7xf32>\n    return %0 : tensor<3x7xf32>\n  }\n}\n",
    "metadata": {
      "category": "arithmetic",
      "operation": "add",
      "description": "Arithmetic: x + y"
    }
  },
  {
    "python_code": "lambda x, y: jnp.outer(x, y)",
    "input_info": [
      {
        "shape": [
          3
        ],
        "dtype": "float32"
      },
      {
        "shape": [
          4
        ],
        "dtype": "float32"
      }
    ],
    "jaxpr": "{ lambda ; a:f32[3] b:f32[4]. let\n    c:f32[3,1] = broadcast_in_dim[\n      broadcast_dimensions=(0,)\n      shape=(3, 1)\n      sharding=None\n    ] a\n    d:f32[1,4] = broadcast_in_dim[\n      broadcast_dimensions=(1,)\n      shape=(1, 4)\n      sharding=None\n    ] b\n    e:f32[3,4] = mul c d\n  in (e,) }",
    "stablehlo": "module @jit__lambda attributes {mhlo.num_partitions = 1 : i32, mhlo.num_replicas = 1 : i32} {\n  func.func public @main(%arg0: tensor<3xf32>, %arg1: tensor<4xf32>) -> (tensor<3x4xf32> {jax.result_info = \"result\"}) {\n    %0 = stablehlo.broadcast_in_dim %arg0, dims = [0] : (tensor<3xf32>) -> tensor<3x1xf32>\n    %1 = stablehlo.broadcast_in_dim %arg1, dims = [1] : (tensor<4xf32>) -> tensor<1x4xf32>\n    %2 = stablehlo.broadcast_in_dim %0, dims = [0, 1] : (tensor<3x1xf32>) -> tensor<3x4xf32>\n    %3 = stablehlo.broadcast_in_dim %1, dims = [0, 1] : (tensor<1x4xf32>) -> tensor<3x4xf32>\n    %4 = stablehlo.multiply %2, %3 : tensor<3x4xf32>\n    return %4 : tensor<3x4xf32>\n  }\n}\n",
    "metadata": {
      "category": "linalg",
      "operation": "outer",
      "description": "Linear algebra: outer"
    }
  },
  {
    "python_code": "lambda x: jnp.sum(x)",
    "input_info": [
      {
        "shape": [
          6,
          7,
          5
        ],
        "dtype": "float32"
      }
    ],
    "jaxpr": "{ lambda ; a:f32[6,7,5]. let\n    b:f32[] = reduce_sum[axes=(0, 1, 2) out_sharding=None] a\n  in (b,) }",
    "stablehlo": "module @jit__lambda attributes {mhlo.num_partitions = 1 : i32, mhlo.num_replicas = 1 : i32} {\n  func.func public @main(%arg0: tensor<6x7x5xf32>) -> (tensor<f32> {jax.result_info = \"result\"}) {\n    %cst = stablehlo.constant dense<0.000000e+00> : tensor<f32>\n    %0 = stablehlo.reduce(%arg0 init: %cst) applies stablehlo.add across dimensions = [0, 1, 2] : (tensor<6x7x5xf32>, tensor<f32>) -> tensor<f32>\n    return %0 : tensor<f32>\n  }\n}\n",
    "metadata": {
      "category": "reduction",
      "operation": "sum",
      "description": "Reduction: sum"
    }
  },
  {
    "python_code": "lambda x: jnp.sum(x ** 2)",
    "input_info": [
      {
        "shape": [
          5
        ],
        "dtype": "float32"
      }
    ],
    "jaxpr": "{ lambda ; a:f32[5]. let\n    b:f32[5] = integer_pow[y=2] a\n    c:f32[] = reduce_sum[axes=(0,) out_sharding=None] b\n  in (c,) }",
    "stablehlo": "module @jit__lambda attributes {mhlo.num_partitions = 1 : i32, mhlo.num_replicas = 1 : i32} {\n  func.func public @main(%arg0: tensor<5xf32>) -> (tensor<f32> {jax.result_info = \"result\"}) {\n    %0 = stablehlo.multiply %arg0, %arg0 : tensor<5xf32>\n    %cst = stablehlo.constant dense<0.000000e+00> : tensor<f32>\n    %1 = stablehlo.reduce(%0 init: %cst) applies stablehlo.add across dimensions = [0] : (tensor<5xf32>, tensor<f32>) -> tensor<f32>\n    return %1 : tensor<f32>\n  }\n}\n",
    "metadata": {
      "category": "composite",
      "operation": "squared_norm",
      "description": "Composite operation: squared_norm"
    }
  },
  {
    "python_code": "lambda x: x * 2.0",
    "input_info": [
      {
        "shape": [
          3
        ],
        "dtype": "float32"
      }
    ],
    "jaxpr": "{ lambda ; a:f32[3]. let b:f32[3] = mul a 2.0:f32[] in (b,) }",
    "stablehlo": "module @jit__lambda attributes {mhlo.num_partitions = 1 : i32, mhlo.num_replicas = 1 : i32} {\n  func.func public @main(%arg0: tensor<3xf32>) -> (tensor<3xf32> {jax.result_info = \"result\"}) {\n    %cst = stablehlo.constant dense<2.000000e+00> : tensor<f32>\n    %0 = stablehlo.broadcast_in_dim %cst, dims = [] : (tensor<f32>) -> tensor<3xf32>\n    %1 = stablehlo.multiply %arg0, %0 : tensor<3xf32>\n    return %1 : tensor<3xf32>\n  }\n}\n",
    "metadata": {
      "category": "arithmetic",
      "operation": "mul_scalar",
      "description": "Arithmetic: x * 2.0"
    }
  },
  {
    "python_code": "lambda x: jnp.max(x)",
    "input_info": [
      {
        "shape": [
          7,
          4
        ],
        "dtype": "float32"
      }
    ],
    "jaxpr": "{ lambda ; a:f32[7,4]. let b:f32[] = reduce_max[axes=(0, 1)] a in (b,) }",
    "stablehlo": "module @jit__lambda attributes {mhlo.num_partitions = 1 : i32, mhlo.num_replicas = 1 : i32} {\n  func.func public @main(%arg0: tensor<7x4xf32>) -> (tensor<f32> {jax.result_info = \"result\"}) {\n    %cst = stablehlo.constant dense<0xFF800000> : tensor<f32>\n    %0 = stablehlo.reduce(%arg0 init: %cst) applies stablehlo.maximum across dimensions = [0, 1] : (tensor<7x4xf32>, tensor<f32>) -> tensor<f32>\n    return %0 : tensor<f32>\n  }\n}\n",
    "metadata": {
      "category": "reduction",
      "operation": "max",
      "description": "Reduction: max"
    }
  },
  {
    "python_code": "lambda x: jnp.tanh(x)",
    "input_info": [
      {
        "shape": [
          6
        ],
        "dtype": "float32"
      }
    ],
    "jaxpr": "{ lambda ; a:f32[6]. let b:f32[6] = tanh a in (b,) }",
    "stablehlo": "module @jit__lambda attributes {mhlo.num_partitions = 1 : i32, mhlo.num_replicas = 1 : i32} {\n  func.func public @main(%arg0: tensor<6xf32>) -> (tensor<6xf32> {jax.result_info = \"result\"}) {\n    %0 = stablehlo.tanh %arg0 : tensor<6xf32>\n    return %0 : tensor<6xf32>\n  }\n}\n",
    "metadata": {
      "category": "math",
      "operation": "tanh",
      "description": "Math function: tanh"
    }
  },
  {
    "python_code": "lambda x: jnp.sum(x ** 2)",
    "input_info": [
      {
        "shape": [
          4,
          10,
          5
        ],
        "dtype": "float32"
      }
    ],
    "jaxpr": "{ lambda ; a:f32[4,10,5]. let\n    b:f32[4,10,5] = integer_pow[y=2] a\n    c:f32[] = reduce_sum[axes=(0, 1, 2) out_sharding=None] b\n  in (c,) }",
    "stablehlo": "module @jit__lambda attributes {mhlo.num_partitions = 1 : i32, mhlo.num_replicas = 1 : i32} {\n  func.func public @main(%arg0: tensor<4x10x5xf32>) -> (tensor<f32> {jax.result_info = \"result\"}) {\n    %0 = stablehlo.multiply %arg0, %arg0 : tensor<4x10x5xf32>\n    %cst = stablehlo.constant dense<0.000000e+00> : tensor<f32>\n    %1 = stablehlo.reduce(%0 init: %cst) applies stablehlo.add across dimensions = [0, 1, 2] : (tensor<4x10x5xf32>, tensor<f32>) -> tensor<f32>\n    return %1 : tensor<f32>\n  }\n}\n",
    "metadata": {
      "category": "composite",
      "operation": "squared_norm",
      "description": "Composite operation: squared_norm"
    }
  },
  {
    "python_code": "lambda x, y: jnp.concatenate([x, y], axis=0)",
    "input_info": [
      {
        "shape": [
          6,
          10
        ],
        "dtype": "float32"
      },
      {
        "shape": [
          6,
          10
        ],
        "dtype": "float32"
      }
    ],
    "jaxpr": "{ lambda ; a:f32[6,10] b:f32[6,10]. let\n    c:f32[12,10] = concatenate[dimension=0] a b\n  in (c,) }",
    "stablehlo": "module @jit__lambda attributes {mhlo.num_partitions = 1 : i32, mhlo.num_replicas = 1 : i32} {\n  func.func public @main(%arg0: tensor<6x10xf32>, %arg1: tensor<6x10xf32>) -> (tensor<12x10xf32> {jax.result_info = \"result\"}) {\n    %0 = stablehlo.concatenate %arg0, %arg1, dim = 0 : (tensor<6x10xf32>, tensor<6x10xf32>) -> tensor<12x10xf32>\n    return %0 : tensor<12x10xf32>\n  }\n}\n",
    "metadata": {
      "category": "array",
      "operation": "concatenate",
      "description": "Array operation: concatenate"
    }
  },
  {
    "python_code": "lambda x: x[1:]",
    "input_info": [
      {
        "shape": [
          5
        ],
        "dtype": "float32"
      }
    ],
    "jaxpr": "{ lambda ; a:f32[5]. let\n    b:f32[4] = slice[limit_indices=(5,) start_indices=(1,) strides=None] a\n  in (b,) }",
    "stablehlo": "module @jit__lambda attributes {mhlo.num_partitions = 1 : i32, mhlo.num_replicas = 1 : i32} {\n  func.func public @main(%arg0: tensor<5xf32>) -> (tensor<4xf32> {jax.result_info = \"result\"}) {\n    %0 = stablehlo.slice %arg0 [1:5] : (tensor<5xf32>) -> tensor<4xf32>\n    return %0 : tensor<4xf32>\n  }\n}\n",
    "metadata": {
      "category": "array",
      "operation": "slice",
      "description": "Array operation: slice"
    }
  }
]